…
I0729 14:36:59.110239  5043 net.cpp:51] Initializing net from parameters: 
name: "crowd_counting"
state {
  phase: TRAIN
  level: 0
  stage: ""
}
layer {
  name: "data"
  type: "Data"
  top: "data"
  include {
    phase: TRAIN
  }
  data_param {
    source: "/home/peiyong/Work/Zenglin/szl/ShanghaiTech/partA/train_8/image_lmdb"
    batch_size: 1
    backend: LMDB
  }
}
layer {
  name: "label"
  type: "Data"
  top: "label"
  include {
    phase: TRAIN
  }
  data_param {
    source: "/home/peiyong/Work/Zenglin/szl/ShanghaiTech/partA/train_8/dmap_lmdb"
    batch_size: 1
    backend: LMDB
  }
}
layer {
  name: "conv1_1"
  type: "Convolution"
  bottom: "data"
  top: "conv1_1"
  param {
    lr_mult: 0.1
    decay_mult: 1
  }
  param {
    lr_mult: 0.2
    decay_mult: 0
  }
  convolution_param {
    num_output: 64
    pad: 1
    kernel_size: 3
    weight_filler {
      type: "gaussian"
      std: 0.01
    }
    bias_filler {
      type: "constant"
      value: 0
    }
  }
}
layer {
  name: "relu1_1"
  type: "ReLU"
  bottom: "conv1_1"
  top: "conv1_1"
}
layer {
  name: "conv1_2"
  type: "Convolution"
  bottom: "conv1_1"
  top: "conv1_2"
  param {
    lr_mult: 0.1
    decay_mult: 1
  }
  param {
    lr_mult: 0.2
    decay_mult: 0
  }
  convolution_param {
    num_output: 64
    pad: 1
    kernel_size: 3
    weight_filler {
      type: "gaussian"
      std: 0.01
    }
    bias_filler {
      type: "constant"
      value: 0
    }
  }
}
layer {
  name: "relu1_2"
  type: "ReLU"
  bottom: "conv1_2"
  top: "conv1_2"
}
layer {
  name: "pool1"
  type: "Pooling"
  bottom: "conv1_2"
  top: "pool1"
  pooling_param {
    pool: MAX
    kernel_size: 2
    stride: 2
  }
}
layer {
  name: "conv2_1"
  type: "Convolution"
  bottom: "pool1"
  top: "conv2_1"
  param {
    lr_mult: 0.1
    decay_mult: 1
  }
  param {
    lr_mult: 0.2
    decay_mult: 0
  }
  convolution_param {
    num_output: 128
    pad: 1
    kernel_size: 3
    weight_filler {
      type: "gaussian"
      std: 0.01
    }
    bias_filler {
      type: "constant"
      value: 0
    }
  }
}
layer {
  name: "relu2_1"
  type: "ReLU"
  bottom: "conv2_1"
  top: "conv2_1"
}
layer {
  name: "conv2_2"
  type: "Convolution"
  bottom: "conv2_1"
  top: "conv2_2"
  param {
    lr_mult: 0.1
    decay_mult: 1
  }
  param {
    lr_mult: 0.2
    decay_mult: 0
  }
  convolution_param {
    num_output: 128
    pad: 1
    kernel_size: 3
    weight_filler {
      type: "gaussian"
      std: 0.01
    }
    bias_filler {
      type: "constant"
      value: 0
    }
  }
}
layer {
  name: "relu2_2"
  type: "ReLU"
  bottom: "conv2_2"
  top: "conv2_2"
}
layer {
  name: "pool2"
  type: "Pooling"
  bottom: "conv2_2"
  top: "pool2"
  pooling_param {
    pool: MAX
    kernel_size: 2
    stride: 2
  }
}
layer {
  name: "conv3_1"
  type: "Convolution"
  bottom: "pool2"
  top: "conv3_1"
  param {
    lr_mult: 0.1
    decay_mult: 1
  }
  param {
    lr_mult: 0.2
    decay_mult: 0
  }
  convolution_param {
    num_output: 256
    pad: 1
    kernel_size: 3
    weight_filler {
      type: "gaussian"
      std: 0.01
    }
    bias_filler {
      type: "constant"
      value: 0
    }
  }
}
layer {
  name: "relu3_1"
  type: "ReLU"
  bottom: "conv3_1"
  top: "conv3_1"
}
layer {
  name: "conv3_2"
  type: "Convolution"
  bottom: "conv3_1"
  top: "conv3_2"
  param {
    lr_mult: 0.1
    decay_mult: 1
  }
  param {
    lr_mult: 0.2
    decay_mult: 0
  }
  convolution_param {
    num_output: 256
    pad: 1
    kernel_size: 3
    weight_filler {
      type: "gaussian"
      std: 0.01
    }
    bias_filler {
      type: "constant"
      value: 0
    }
  }
}
layer {
  name: "relu3_2"
  type: "ReLU"
  bottom: "conv3_2"
  top: "conv3_2"
}
layer {
  name: "conv3_3"
  type: "Convolution"
  bottom: "conv3_2"
  top: "conv3_3"
  param {
    lr_mult: 0.1
    decay_mult: 1
  }
  param {
    lr_mult: 0.2
    decay_mult: 0
  }
  convolution_param {
    num_output: 256
    pad: 1
    kernel_size: 3
    weight_filler {
      type: "gaussian"
      std: 0.01
    }
    bias_filler {
      type: "constant"
      value: 0
    }
  }
}
layer {
  name: "relu3_3"
  type: "ReLU"
  bottom: "conv3_3"
  top: "conv3_3"
}
layer {
  name: "pool3"
  type: "Pooling"
  bottom: "conv3_3"
  top: "pool3"
  pooling_param {
    pool: MAX
    kernel_size: 2
    stride: 2
  }
}
layer {
  name: "conv4_1"
  type: "Convolution"
  bottom: "pool3"
  top: "conv4_1"
  param {
    lr_mult: 0.1
    decay_mult: 1
  }
  param {
    lr_mult: 0.2
    decay_mult: 0
  }
  convolution_param {
    num_output: 512
    pad: 1
    kernel_size: 3
    weight_filler {
      type: "gaussian"
      std: 0.01
    }
    bias_filler {
      type: "constant"
      value: 0
    }
  }
}
layer {
  name: "relu4_1"
  type: "ReLU"
  bottom: "conv4_1"
  top: "conv4_1"
}
layer {
  name: "conv4_2"
  type: "Convolution"
  bottom: "conv4_1"
  top: "conv4_2"
  param {
    lr_mult: 0.1
    decay_mult: 1
  }
  param {
    lr_mult: 0.2
    decay_mult: 0
  }
  convolution_param {
    num_output: 512
    pad: 1
    kernel_size: 3
    weight_filler {
      type: "gaussian"
      std: 0.01
    }
    bias_filler {
      type: "constant"
      value: 0
    }
  }
}
layer {
  name: "relu4_2"
  type: "ReLU"
  bottom: "conv4_2"
  top: "conv4_2"
}
layer {
  name: "conv4_3"
  type: "Convolution"
  bottom: "conv4_2"
  top: "conv4_3"
  param {
    lr_mult: 0.1
    decay_mult: 1
  }
  param {
    lr_mult: 0.2
    decay_mult: 0
  }
  convolution_param {
    num_output: 512
    pad: 1
    kernel_size: 3
    weight_filler {
      type: "gaussian"
      std: 0.01
    }
    bias_filler {
      type: "constant"
      value: 0
    }
  }
}
layer {
  name: "relu4_3"
  type: "ReLU"
  bottom: "conv4_3"
  top: "conv4_3"
}
layer {
  name: "pool4"
  type: "Pooling"
  bottom: "conv4_3"
  top: "pool4"
  pooling_param {
    pool: MAX
    kernel_size: 3
    stride: 1
    pad: 1
  }
}
layer {
  name: "conv5_1"
  type: "Convolution"
  bottom: "pool4"
  top: "conv5_1"
  param {
    lr_mult: 0.1
    decay_mult: 1
  }
  param {
    lr_mult: 0.2
    decay_mult: 0
  }
  convolution_param {
    num_output: 512
    pad: 2
    kernel_size: 3
    weight_filler {
      type: "gaussian"
      std: 0.01
    }
    bias_filler {
      type: "constant"
      value: 0
    }
    dilation: 2
  }
}
layer {
  name: "relu5_1"
  type: "ReLU"
  bottom: "conv5_1"
  top: "conv5_1"
}
layer {
  name: "conv5_2"
  type: "Convolution"
  bottom: "conv5_1"
  top: "conv5_2"
  param {
    lr_mult: 0.1
    decay_mult: 1
  }
  param {
    lr_mult: 0.2
    decay_mult: 0
  }
  convolution_param {
    num_output: 512
    pad: 2
    kernel_size: 3
    weight_filler {
      type: "gaussian"
      std: 0.01
    }
    bias_filler {
      type: "constant"
      value: 0
    }
    dilation: 2
  }
}
layer {
  name: "relu5_2"
  type: "ReLU"
  bottom: "conv5_2"
  top: "conv5_2"
}
layer {
  name: "conv5_3"
  type: "Convolution"
  bottom: "conv5_2"
  top: "conv5_3"
  param {
    lr_mult: 0.1
    decay_mult: 1
  }
  param {
    lr_mult: 0.2
    decay_mult: 0
  }
  convolution_param {
    num_output: 512
    pad: 2
    kernel_size: 3
    weight_filler {
      type: "gaussian"
      std: 0.01
    }
    bias_filler {
      type: "constant"
      value: 0
    }
    dilation: 2
  }
}
layer {
  name: "relu5_3"
  type: "ReLU"
  bottom: "conv5_3"
  top: "conv5_3"
}
layer {
  name: "conv_score"
  type: "Convolution"
  bottom: "conv5_3"
  top: "conv_score"
  param {
    lr_mult: 10
    decay_mult: 1
  }
  param {
    lr_mult: 20
    decay_mult: 0
  }
  convolution_param {
    num_output: 128
    pad: 0
    kernel_size: 1
    group: 128
    stride: 1
    weight_filler {
      type: "constant"
      value: 0.0001
    }
    bias_filler {
      type: "constant"
      value: 0
    }
  }
}
layer {
  name: "relu_score"
  type: "ReLU"
  bottom: "conv_score"
  top: "conv_score"
}
layer {
  name: "slicer_conv"
  type: "Slice"
  bottom: "conv_score"
  top: "score1"
  top: "score2"
  top: "score3"
  top: "score4"
  top: "score5"
  top: "score6"
  top: "score7"
  top: "score8"
  top: "score9"
  top: "score10"
  top: "score11"
  top: "score12"
  top: "score13"
  top: "score14"
  top: "score15"
  top: "score16"
  top: "score17"
  top: "score18"
  top: "score19"
  top: "score20"
  top: "score21"
  top: "score22"
  top: "score23"
  top: "score24"
…
  top: "score100"
  top: "score101"
  top: "score102"
  top: "score103"
  top: "score104"
  top: "score105"
  top: "score106"
  top: "score107"
  top: "score108"
  top: "score109"
  top: "score110"
  top: "score111"
  top: "score112"
  top: "score113"
  top: "score114"
  top: "score115"
  top: "score116"
  top: "score117"
  top: "score118"
  top: "score119"
  top: "score120"
  top: "score121"
  top: "score122"
  top: "score123"
  top: "score124"
  top: "score125"
  top: "score126"
  top: "score127"
  top: "score128"
  slice_param {
    axis: 1
  }
}
layer {
  name: "sumscore"
  type: "Eltwise"
  bottom: "score1"
  bottom: "score2"
  bottom: "score3"
  bottom: "score4"
  bottom: "score5"
  bottom: "score6"
  bottom: "score7"
  bottom: "score8"
  bottom: "score9"
  bottom: "score10"
  bottom: "score11"
  bottom: "score12"
  bottom: "score13"
  bottom: "score14"
  bottom: "score15"
  bottom: "score16"
  bottom: "score17"
  bottom: "score18"
  bottom: "score19"
  bottom: "score20"
  bottom: "score21"
  bottom: "score22"
  bottom: "score23"
  bottom: "score24"
  bottom: "score25"
  bottom: "score26"
  bottom: "score27"
  bottom: "score28"
  bottom: "score29"
  bottom: "score30"
  bottom: "score31"
  bottom: "score32"
  bottom: "score33"
  bottom: "score34"
  bottom: "score35"
  bottom: "score36"
  bottom: "score37"
  bottom: "score38"
  bottom: "score39"
  bottom: "score40"
  bottom: "score41"
  bottom: "score42"
  bottom: "score43"
  bottom: "score44"
  bottom: "score45"
  bottom: "score46"
  bottom: "score47"
  bottom: "score48"
  bottom: "score49"
  bottom: "score50"
  bottom: "score51"
  bottom: "score52"
  bottom: "score53"
  bottom: "score54"
  bottom: "score55"
  bottom: "score56"
  bottom: "score57"
  bottom: "score58"
  bottom: "score59"
  bottom: "score60"
  bottom: "score61"
  bottom: "score62"
  bottom: "score63"
  bottom: "score64"
  bottom: "score65"
  bottom: "score66"
  bottom: "score67"
  bottom: "score68"
  bottom: "score69"
  bottom: "score70"
  bottom: "score71"
  bottom: "score72"
  bottom: "score73"
  bottom: "score74"
  bottom: "score75"
  bottom: "score76"
  bottom: "score77"
  bottom: "score78"
  bottom: "score79"
  bottom: "score80"
  bottom: "score81"
  bottom: "score82"
  bottom: "score83"
  bottom: "score84"
  bottom: "score85"
  bottom: "score86"
  bottom: "score87"
  bottom: "score88"
  bottom: "score89"
  bottom: "score90"
  bottom: "score91"
  bottom: "score92"
  bottom: "score93"
  bottom: "score94"
  bottom: "score95"
  bottom: "score96"
  bottom: "score97"
  bottom: "score98"
  bottom: "score99"
  bottom: "score100"
  bottom: "score101"
  bottom: "score102"
  bottom: "score103"
  bottom: "score104"
  bottom: "score105"
  bottom: "score106"
  bottom: "score107"
  bottom: "score108"
  bottom: "score109"
  bottom: "score110"
  bottom: "score111"
  bottom: "score112"
  bottom: "score113"
  bottom: "score114"
  bottom: "score115"
  bottom: "score116"
  bottom: "score117"
  bottom: "score118"
  bottom: "score119"
  bottom: "score120"
  bottom: "score121"
  bottom: "score122"
  bottom: "score123"
  bottom: "score124"
  bottom: "score125"
  bottom: "score126"
  bottom: "score127"
  bottom: "score128"
  top: "sumscore"
  eltwise_param {
    operation: SUM
  }
}
layer {
  name: "loss1"
  type: "NCLLoss"
  bottom: "score1"
  bottom: "label"
  bottom: "sumscore"
  top: "loss1"
  include {
    phase: TRAIN
  }
  ncl_loss_param {
    lambda: 1.01
    net_num: 128
  }
}
layer {
  name: "loss2"
  type: "NCLLoss"
  bottom: "score2"
  bottom: "label"
  bottom: "sumscore"
  top: "loss2"
  include {
    phase: TRAIN
  }
  ncl_loss_param {
    lambda: 1.01
    net_num: 128
  }
}
layer {
  name: "loss3"
  type: "NCLLoss"
  bottom: "score3"
  bottom: "label"
  bottom: "sumscore"
  top: "loss3"
  include {
    phase: TRAIN
  }
  ncl_loss_param {
    lambda: 1.01
    net_num: 128
  }
}
layer {
  name: "loss4"
  type: "NCLLoss"
  bottom: "score4"
  bottom: "label"
  bottom: "sumscore"
  top: "loss4"
  include {
    phase: TRAIN
  }
  ncl_loss_param {
    lambda: 1.01
    net_num: 128
  }
}
layer {
  name: "loss5"
  type: "NCLLoss"
  bottom: "score5"
  bottom: "label"
  bottom: "sumscore"
  top: "loss5"
  include {
    phase: TRAIN
  }
  ncl_loss_param {
    lambda: 1.01
    net_num: 128
  }
}
layer {
  name: "loss6"
  type: "NCLLoss"
  bottom: "score6"
  bottom: "label"
  bottom: "sumscore"
  top: "loss6"
  include {
    phase: TRAIN
  }
  ncl_loss_param {
    lambda: 1.01
    net_num: 128
  }
}
layer {
  name: "loss7"
  type: "NCLLoss"
  bottom: "score7"
  bottom: "label"
  bottom: "sumscore"
  top: "loss7"
  include {
    phase: TRAIN
  }
  ncl_loss_param {
    lambda: 1.01
    net_num: 128
  }
}
layer {
  name: "loss8"
  type: "NCLLoss"
  bottom: "score8"
  bottom: "label"
  bottom: "sumscore"
  top: "loss8"
  include {
    phase: TRAIN
  }
  ncl_loss_param {
    lambda: 1.01
    net_num: 128
  }
}
layer {
  name: "loss9"
  type: "NCLLoss"
  bottom: "score9"
  bottom: "label"
  bottom: "sumscore"
  top: "loss9"
  include {
    phase: TRAIN
  }
  ncl_loss_param {
    lambda: 1.01
    net_num: 128
  }
}
layer {
  name: "loss10"
  type: "NCLLoss"
  bottom: "score10"
  bottom: "label"
  bottom: "sumscore"
  top: "loss10"
  include {
    phase: TRAIN
  }
  ncl_loss_param {
    lambda: 1.01
    net_num: 128
  }
}
layer {
  name: "loss11"
  type: "NCLLoss"
  bottom: "score11"
  bottom: "label"
  bottom: "sumscore"
  top: "loss11"
  include {
    phase: TRAIN
  }
  ncl_loss_param {
    lambda: 1.01
    net_num: 128
  }
}
layer {
  name: "loss12"
  type: "NCLLoss"
  bottom: "score12"
  bottom: "label"
  bottom: "sumscore"
  top: "loss12"
  include {
    phase: TRAIN
  }
  ncl_loss_param {
    lambda: 1.01
    net_num: 128
  }
}
layer {
  name: "loss13"
  type: "NCLLoss"
  bottom: "score13"
  bottom: "label"
  bottom: "sumscore"
  top: "loss13"
  include {
    phase: TRAIN
  }
  ncl_loss_param {
    lambda: 1.01
    net_num: 128
  }
}
layer {
  name: "loss14"
  type: "NCLLoss"
  bottom: "score14"
  bottom: "label"
  bottom: "sumscore"
  top: "loss14"
  include {
    phase: TRAIN
  }
  ncl_loss_param {
    lambda: 1.01
    net_num: 128
  }
}
layer {
  name: "loss15"
  type: "NCLLoss"
  bottom: "score15"
  bottom: "label"
  bottom: "sumscore"
  top: "loss15"
  include {
    phase: TRAIN
  }
  ncl_loss_param {
    lambda: 1.01
    net_num: 128
  }
}
layer {
  name: "loss16"
  type: "NCLLoss"
  bottom: "score16"
  bottom: "label"
  bottom: "sumscore"
  top: "loss16"
  include {
    phase: TRAIN
  }
  ncl_loss_param {
    lambda: 1.01
    net_num: 128
  }
}
layer {
  name: "loss17"
  type: "NCLLoss"
  bottom: "score17"
  bottom: "label"
  bottom: "sumscore"
  top: "loss17"
  include {
    phase: TRAIN
  }
  ncl_loss_param {
    lambda: 1.01
    net_num: 128
  }
}
layer {
  name: "loss18"
  type: "NCLLoss"
  bottom: "score18"
  bottom: "label"
  bottom: "sumscore"
  top: "loss18"
  include {
    phase: TRAIN
  }
  ncl_loss_param {
    lambda: 1.01
    net_num: 128
  }
}
layer {
  name: "loss19"
  type: "NCLLoss"
  bottom: "score19"
  bottom: "label"
  bottom: "sumscore"
  top: "loss19"
  include {
    phase: TRAIN
  }
  ncl_loss_param {
    lambda: 1.01
    net_num: 128
  }
}
layer {
  name: "loss20"
  type: "NCLLoss"
  bottom: "score20"
  bottom: "label"
  bottom: "sumscore"
  top: "loss20"
  include {
    phase: TRAIN
  }
  ncl_loss_param {
    lambda: 1.01
    net_num: 128
  }
}
layer {
  name: "loss21"
  type: "NCLLoss"
  bottom: "score21"
  bottom: "label"
  bottom: "sumscore"
  top: "loss21"
  include {
    phase: TRAIN
  }
  ncl_loss_param {
    lambda: 1.01
    net_num: 128
  }
}
layer {
  name: "loss22"
  type: "NCLLoss"
  bottom: "score22"
  bottom: "label"
  bottom: "sumscore"
  top: "loss22"
  include {
    phase: TRAIN
  }
  ncl_loss_param {
    lambda: 1.01
    net_num: 128
  }
}
layer {
  name: "loss23"
  type: "NCLLoss"
  bottom: "score23"
  bottom: "label"
  bottom: "sumscore"
  top: "loss23"
  include {
    phase: TRAIN
  }
  ncl_loss_param {
    lambda: 1.01
    net_num: 128
  }
}
layer {
  name: "loss24"
  type: "NCLLoss"
  bottom: "score24"
  bottom: "label"
  bottom: "sumscore"
  top: "loss24"
  include {
    phase: TRAIN
  }
  ncl_loss_param {
    lambda: 1.01
    net_num: 128
  }
}
layer {
  name: "loss25"
  type: "NCLLoss"
  bottom: "score25"
  bottom: "label"
  bottom: "sumscore"
  top: "loss25"
  include {
    phase: TRAIN
  }
  ncl_loss_param {
    lambda: 1.01
    net_num: 128
  }
}
layer {
  name: "loss26"
  type: "NCLLoss"
  bottom: "score26"
  bottom: "label"
  bottom: "sumscore"
  top: "loss26"
  include {
    phase: TRAIN
  }
  ncl_loss_param {
    lambda: 1.01
    net_num: 128
  }
}
layer {
  name: "loss27"
  type: "NCLLoss"
  bottom: "score27"
  bottom: "label"
  bottom: "sumscore"
  top: "loss27"
  include {
    phase: TRAIN
  }
  ncl_loss_param {
    lambda: 1.01
    net_num: 128
  }
}
layer {
  name: "loss28"
  type: "NCLLoss"
  bottom: "score28"
  bottom: "label"
  bottom: "sumscore"
  top: "loss28"
  include {
    phase: TRAIN
  }
  ncl_loss_param {
    lambda: 1.01
    net_num: 128
  }
}
layer {
  name: "loss29"
  type: "NCLLoss"
  bottom: "score29"
  bottom: "label"
  bottom: "sumscore"
  top: "loss29"
  include {
    phase: TRAIN
  }
  ncl_loss_param {
    lambda: 1.01
    net_num: 128
  }
}
layer {
  name: "loss30"
  type: "NCLLoss"
  bottom: "score30"
  bottom: "label"
  bottom: "sumscore"
  top: "loss30"
  include {
    phase: TRAIN
  }
  ncl_loss_param {
    lambda: 1.01
    net_num: 128
  }
}
layer {
  name: "loss31"
  type: "NCLLoss"
  bottom: "score31"
  bottom: "label"
  bottom: "sumscore"
  top: "loss31"
  include {
    phase: TRAIN
  }
  ncl_loss_param {
    lambda: 1.01
    net_num: 128
  }
}
layer {
  name: "loss32"
  type: "NCLLoss"
  bottom: "score32"
  bottom: "label"
  bottom: "sumscore"
  top: "loss32"
  include {
    phase: TRAIN
  }
  ncl_loss_param {
    lambda: 1.01
    net_num: 128
  }
}
layer {
  name: "loss33"
  type: "NCLLoss"
  bottom: "score33"
  bottom: "label"
  bottom: "sumscore"
  top: "loss33"
  include {
    phase: TRAIN
  }
  ncl_loss_param {
    lambda: 1.01
    net_num: 128
  }
}
layer {
  name: "loss34"
  type: "NCLLoss"
  bottom: "score34"
  bottom: "label"
  bottom: "sumscore"
  top: "loss34"
  include {
    phase: TRAIN
  }
  ncl_loss_param {
    lambda: 1.01
    net_num: 128
  }
}
layer {
  name: "loss35"
  type: "NCLLoss"
  bottom: "score35"
  bottom: "label"
  bottom: "sumscore"
  top: "loss35"
  include {
    phase: TRAIN
  }
  ncl_loss_param {
    lambda: 1.01
    net_num: 128
  }
}
layer {
  name: "loss36"
  type: "NCLLoss"
  bottom: "score36"
  bottom: "label"
  bottom: "sumscore"
  top: "loss36"
  include {
    phase: TRAIN
  }
  ncl_loss_param {
    lambda: 1.01
    net_num: 128
  }
}
layer {
  name: "loss37"
  type: "NCLLoss"
  bottom: "score37"
  bottom: "label"
  bottom: "sumscore"
  top: "loss37"
  include {
    phase: TRAIN
  }
  ncl_loss_param {
    lambda: 1.01
    net_num: 128
  }
}
layer {
  name: "loss38"
  type: "NCLLoss"
  bottom: "score38"
  bottom: "label"
  bottom: "sumscore"
  top: "loss38"
  include {
    phase: TRAIN
  }
  ncl_loss_param {
    lambda: 1.01
    net_num: 128
  }
}
layer {
  name: "loss39"
  type: "NCLLoss"
  bottom: "score39"
  bottom: "label"
  bottom: "sumscore"
  top: "loss39"
  include {
    phase: TRAIN
  }
  ncl_loss_param {
    lambda: 1.01
    net_num: 128
  }
}
layer {
  name: "loss40"
  type: "NCLLoss"
  bottom: "score40"
  bottom: "label"
  bottom: "sumscore"
  top: "loss40"
  include {
    phase: TRAIN
  }
  ncl_loss_param {
    lambda: 1.01
    net_num: 128
  }
}
layer {
  name: "loss41"
  type: "NCLLoss"
  bottom: "score41"
  bottom: "label"
  bottom: "sumscore"
  top: "loss41"
  include {
    phase: TRAIN
  }
  ncl_loss_param {
    lambda: 1.01
    net_num: 128
  }
}
layer {
  name: "loss42"
  type: "NCLLoss"
  bottom: "score42"
  bottom: "label"
  bottom: "sumscore"
  top: "loss42"
  include {
    phase: TRAIN
  }
  ncl_loss_param {
    lambda: 1.01
    net_num: 128
  }
}
layer {
  name: "loss43"
  type: "NCLLoss"
  bottom: "score43"
  bottom: "label"
  bottom: "sumscore"
  top: "loss43"
  include {
    phase: TRAIN
  }
  ncl_loss_param {
    lambda: 1.01
    net_num: 128
  }
}
layer {
  name: "loss44"
  type: "NCLLoss"
  bottom: "score44"
  bottom: "label"
  bottom: "sumscore"
  top: "loss44"
  include {
    phase: TRAIN
  }
  ncl_loss_param {
    lambda: 1.01
    net_num: 128
  }
}
layer {
  name: "loss45"
  type: "NCLLoss"
  bottom: "score45"
  bottom: "label"
  bottom: "sumscore"
  top: "loss45"
  include {
    phase: TRAIN
  }
  ncl_loss_param {
    lambda: 1.01
    net_num: 128
  }
}
layer {
  name: "loss46"
  type: "NCLLoss"
  bottom: "score46"
  bottom: "label"
  bottom: "sumscore"
  top: "loss46"
  include {
    phase: TRAIN
  }
  ncl_loss_param {
    lambda: 1.01
    net_num: 128
  }
}
layer {
  name: "loss47"
  type: "NCLLoss"
  bottom: "score47"
  bottom: "label"
  bottom: "sumscore"
  top: "loss47"
  include {
    phase: TRAIN
  }
  ncl_loss_param {
    lambda: 1.01
    net_num: 128
  }
}
layer {
  name: "loss48"
  type: "NCLLoss"
  bottom: "score48"
  bottom: "label"
  bottom: "sumscore"
  top: "loss48"
  include {
    phase: TRAIN
  }
  ncl_loss_param {
    lambda: 1.01
    net_num: 128
  }
}
layer {
  name: "loss49"
  type: "NCLLoss"
  bottom: "score49"
  bottom: "label"
  bottom: "sumscore"
  top: "loss49"
  include {
    phase: TRAIN
  }
  ncl_loss_param {
    lambda: 1.01
    net_num: 128
  }
}
layer {
  name: "loss50"
  type: "NCLLoss"
  bottom: "score50"
  bottom: "label"
  bottom: "sumscore"
  top: "loss50"
  include {
    phase: TRAIN
  }
  ncl_loss_param {
    lambda: 1.01
    net_num: 128
  }
}
layer {
  name: "loss51"
  type: "NCLLoss"
  bottom: "score51"
  bottom: "label"
  bottom: "sumscore"
  top: "loss51"
  include {
    phase: TRAIN
  }
  ncl_loss_param {
    lambda: 1.01
    net_num: 128
  }
}
layer {
  name: "loss52"
  type: "NCLLoss"
  bottom: "score52"
  bottom: "label"
  bottom: "sumscore"
  top: "loss52"
  include {
    phase: TRAIN
  }
  ncl_loss_param {
    lambda: 1.01
    net_num: 128
  }
}
layer {
  name: "loss53"
  type: "NCLLoss"
  bottom: "score53"
  bottom: "label"
  bottom: "sumscore"
  top: "loss53"
  include {
    phase: TRAIN
  }
  ncl_loss_param {
    lambda: 1.01
    net_num: 128
  }
}
layer {
  name: "loss54"
  type: "NCLLoss"
  bottom: "score54"
  bottom: "label"
  bottom: "sumscore"
  top: "loss54"
  include {
    phase: TRAIN
  }
  ncl_loss_param {
    lambda: 1.01
    net_num: 128
  }
}
layer {
  name: "loss55"
  type: "NCLLoss"
  bottom: "score55"
  bottom: "label"
  bottom: "sumscore"
  top: "loss55"
  include {
    phase: TRAIN
  }
  ncl_loss_param {
    lambda: 1.01
    net_num: 128
  }
}
layer {
  name: "loss56"
  type: "NCLLoss"
  bottom: "score56"
  bottom: "label"
  bottom: "sumscore"
  top: "loss56"
  include {
    phase: TRAIN
  }
  ncl_loss_param {
    lambda: 1.01
    net_num: 128
  }
}
layer {
  name: "loss57"
  type: "NCLLoss"
  bottom: "score57"
  bottom: "label"
  bottom: "sumscore"
  top: "loss57"
  include {
    phase: TRAIN
  }
  ncl_loss_param {
    lambda: 1.01
    net_num: 128
  }
}
layer {
  name: "loss58"
  type: "NCLLoss"
  bottom: "score58"
  bottom: "label"
  bottom: "sumscore"
  top: "loss58"
  include {
    phase: TRAIN
  }
  ncl_loss_param {
    lambda: 1.01
    net_num: 128
  }
}
layer {
  name: "loss59"
  type: "NCLLoss"
  bottom: "score59"
  bottom: "label"
  bottom: "sumscore"
  top: "loss59"
  include {
    phase: TRAIN
  }
  ncl_loss_param {
    lambda: 1.01
    net_num: 128
  }
}
layer {
  name: "loss60"
  type: "NCLLoss"
  bottom: "score60"
  bottom: "label"
  bottom: "sumscore"
  top: "loss60"
  include {
    phase: TRAIN
  }
  ncl_loss_param {
    lambda: 1.01
    net_num: 128
  }
}
layer {
  name: "loss61"
  type: "NCLLoss"
  bottom: "score61"
  bottom: "label"
  bottom: "sumscore"
  top: "loss61"
  include {
    phase: TRAIN
  }
  ncl_loss_param {
    lambda: 1.01
    net_num: 128
  }
}
layer {
  name: "loss62"
  type: "NCLLoss"
  bottom: "score62"
  bottom: "label"
  bottom: "sumscore"
  top: "loss62"
  include {
    phase: TRAIN
  }
  ncl_loss_param {
    lambda: 1.01
    net_num: 128
  }
}
layer {
  name: "loss63"
  type: "NCLLoss"
  bottom: "score63"
  bottom: "label"
  bottom: "sumscore"
  top: "loss63"
  include {
    phase: TRAIN
  }
  ncl_loss_param {
    lambda: 1.01
    net_num: 128
  }
}
layer {
  name: "loss64"
  type: "NCLLoss"
  bottom: "score64"
  bottom: "label"
  bottom: "sumscore"
  top: "loss64"
  include {
    phase: TRAIN
  }
  ncl_loss_param {
    lambda: 1.01
    net_num: 128
  }
}
layer {
  name: "loss65"
  type: "NCLLoss"
  bottom: "score65"
  bottom: "label"
  bottom: "sumscore"
  top: "loss65"
  include {
    phase: TRAIN
  }
  ncl_loss_param {
    lambda: 1.01
    net_num: 128
  }
}
layer {
  name: "loss66"
  type: "NCLLoss"
  bottom: "score66"
  bottom: "label"
  bottom: "sumscore"
  top: "loss66"
  include {
    phase: TRAIN
  }
  ncl_loss_param {
    lambda: 1.01
    net_num: 128
  }
}
layer {
  name: "loss67"
  type: "NCLLoss"
  bottom: "score67"
  bottom: "label"
  bottom: "sumscore"
  top: "loss67"
  include {
    phase: TRAIN
  }
  ncl_loss_param {
    lambda: 1.01
    net_num: 128
  }
}
layer {
  name: "loss68"
  type: "NCLLoss"
  bottom: "score68"
  bottom: "label"
  bottom: "sumscore"
  top: "loss68"
  include {
    phase: TRAIN
  }
  ncl_loss_param {
    lambda: 1.01
    net_num: 128
  }
}
layer {
  name: "loss69"
  type: "NCLLoss"
  bottom: "score69"
  bottom: "label"
  bottom: "sumscore"
  top: "loss69"
  include {
    phase: TRAIN
  }
  ncl_loss_param {
    lambda: 1.01
    net_num: 128
  }
}
layer {
  name: "loss70"
  type: "NCLLoss"
  bottom: "score70"
  bottom: "label"
  bottom: "sumscore"
  top: "loss70"
  include {
    phase: TRAIN
  }
  ncl_loss_param {
    lambda: 1.01
    net_num: 128
  }
}
layer {
  name: "loss71"
  type: "NCLLoss"
  bottom: "score71"
  bottom: "label"
  bottom: "sumscore"
  top: "loss71"
  include {
    phase: TRAIN
  }
  ncl_loss_param {
    lambda: 1.01
    net_num: 128
  }
}
layer {
  name: "loss72"
  type: "NCLLoss"
  bottom: "score72"
  bottom: "label"
  bottom: "sumscore"
  top: "loss72"
  include {
    phase: TRAIN
  }
  ncl_loss_param {
    lambda: 1.01
    net_num: 128
  }
}
layer {
  name: "loss73"
  type: "NCLLoss"
  bottom: "score73"
  bottom: "label"
  bottom: "sumscore"
  top: "loss73"
  include {
    phase: TRAIN
  }
  ncl_loss_param {
    lambda: 1.01
    net_num: 128
  }
}
layer {
  name: "loss74"
  type: "NCLLoss"
  bottom: "score74"
  bottom: "label"
  bottom: "sumscore"
  top: "loss74"
  include {
    phase: TRAIN
  }
  ncl_loss_param {
    lambda: 1.01
    net_num: 128
  }
}
layer {
  name: "loss75"
  type: "NCLLoss"
  bottom: "score75"
  bottom: "label"
  bottom: "sumscore"
  top: "loss75"
  include {
    phase: TRAIN
  }
  ncl_loss_param {
    lambda: 1.01
    net_num: 128
  }
}
layer {
  name: "loss76"
  type: "NCLLoss"
  bottom: "score76"
  bottom: "label"
  bottom: "sumscore"
  top: "loss76"
  include {
    phase: TRAIN
  }
  ncl_loss_param {
    lambda: 1.01
    net_num: 128
  }
}
layer {
  name: "loss77"
  type: "NCLLoss"
  bottom: "score77"
  bottom: "label"
  bottom: "sumscore"
  top: "loss77"
  include {
    phase: TRAIN
  }
  ncl_loss_param {
    lambda: 1.01
    net_num: 128
  }
}
layer {
  name: "loss78"
  type: "NCLLoss"
  bottom: "score78"
  bottom: "label"
  bottom: "sumscore"
  top: "loss78"
  include {
    phase: TRAIN
  }
  ncl_loss_param {
    lambda: 1.01
    net_num: 128
  }
}
layer {
  name: "loss79"
  type: "NCLLoss"
  bottom: "score79"
  bottom: "label"
  bottom: "sumscore"
  top: "loss79"
  include {
    phase: TRAIN
  }
  ncl_loss_param {
    lambda: 1.01
    net_num: 128
  }
}
layer {
  name: "loss80"
  type: "NCLLoss"
  bottom: "score80"
  bottom: "label"
  bottom: "sumscore"
  top: "loss80"
  include {
    phase: TRAIN
  }
  ncl_loss_param {
    lambda: 1.01
    net_num: 128
  }
}
layer {
  name: "loss81"
  type: "NCLLoss"
  bottom: "score81"
  bottom: "label"
  bottom: "sumscore"
  top: "loss81"
  include {
    phase: TRAIN
  }
  ncl_loss_param {
    lambda: 1.01
    net_num: 128
  }
}
layer {
  name: "loss82"
  type: "NCLLoss"
  bottom: "score82"
  bottom: "label"
  bottom: "sumscore"
  top: "loss82"
  include {
    phase: TRAIN
  }
  ncl_loss_param {
    lambda: 1.01
    net_nu
I0729 14:36:59.112870  5043 layer_factory.hpp:77] Creating layer data
I0729 14:36:59.113072  5043 db_lmdb.cpp:35] Opened lmdb /home/peiyong/Work/Zenglin/szl/ShanghaiTech/partA/train_8/image_lmdb
I0729 14:36:59.113121  5043 net.cpp:84] Creating Layer data
I0729 14:36:59.113134  5043 net.cpp:380] data -> data
I0729 14:36:59.114243  5043 data_layer.cpp:45] output data size: 1,3,384,512
I0729 14:36:59.120524  5043 net.cpp:122] Setting up data
I0729 14:36:59.120548  5043 net.cpp:129] Top shape: 1 3 384 512 (589824)
I0729 14:36:59.120553  5043 net.cpp:137] Memory required for data: 2359296
I0729 14:36:59.120564  5043 layer_factory.hpp:77] Creating layer label
I0729 14:36:59.120743  5043 db_lmdb.cpp:35] Opened lmdb /home/peiyong/Work/Zenglin/szl/ShanghaiTech/partA/train_8/dmap_lmdb
I0729 14:36:59.120777  5043 net.cpp:84] Creating Layer label
I0729 14:36:59.120789  5043 net.cpp:380] label -> label
I0729 14:36:59.120884  5043 data_layer.cpp:45] output data size: 1,1,48,64
I0729 14:36:59.121877  5043 net.cpp:122] Setting up label
I0729 14:36:59.121896  5043 net.cpp:129] Top shape: 1 1 48 64 (3072)
I0729 14:36:59.121902  5043 net.cpp:137] Memory required for data: 2371584
I0729 14:36:59.121908  5043 layer_factory.hpp:77] Creating layer label_label_0_split
I0729 14:36:59.121937  5043 net.cpp:84] Creating Layer label_label_0_split
I0729 14:36:59.121945  5043 net.cpp:406] label_label_0_split <- label
I0729 14:36:59.121968  5043 net.cpp:380] label_label_0_split -> label_label_0_split_0
…
I0729 14:36:59.125203  5043 net.cpp:380] label_label_0_split -> label_label_0_split_122
I0729 14:36:59.125226  5043 net.cpp:380] label_label_0_split -> label_label_0_split_123
I0729 14:36:59.125247  5043 net.cpp:380] label_label_0_split -> label_label_0_split_124
I0729 14:36:59.125270  5043 net.cpp:380] label_label_0_split -> label_label_0_split_125
I0729 14:36:59.125294  5043 net.cpp:380] label_label_0_split -> label_label_0_split_126
I0729 14:36:59.125344  5043 net.cpp:380] label_label_0_split -> label_label_0_split_127
I0729 14:36:59.126332  5043 net.cpp:122] Setting up label_label_0_split
I0729 14:36:59.126344  5043 net.cpp:129] Top shape: 1 1 48 64 (3072)
I0729 14:36:59.126351  5043 net.cpp:129] Top shape: 1 1 48 64 (3072)
I0729 14:36:59.126356  5043 net.cpp:129] Top shape: 1 1 48 64 (3072)
I0729 14:36:59.126363  5043 net.cpp:129] Top shape: 1 1 48 64 (3072)
I0729 14:36:59.126368  5043 net.cpp:129] Top shape: 1 1 48 64 (3072)
I0729 14:36:59.126374  5043 net.cpp:129] Top shape: 1 1 48 64 (3072)
I0729 14:36:59.126379  5043 net.cpp:129] Top shape: 1 1 48 64 (3072)
I0729 14:36:59.126384  5043 net.cpp:129] Top shape: 1 1 48 64 (3072)
I0729 14:36:59.126389  5043 net.cpp:129] Top shape: 1 1 48 64 (3072)
I0729 14:36:59.126395  5043 net.cpp:129] Top shape: 1 1 48 64 (3072)
I0729 14:36:59.126401  5043 net.cpp:129] Top shape: 1 1 48 64 (3072)
I0729 14:36:59.126407  5043 net.cpp:129] Top shape: 1 1 48 64 (3072)
I0729 14:36:59.126413  5043 net.cpp:129] Top shape: 1 1 48 64 (3072)
I0729 14:36:59.126418  5043 net.cpp:129] Top shape: 1 1 48 64 (3072)
I0729 14:36:59.126425  5043 net.cpp:129] Top shape: 1 1 48 64 (3072)
I0729 14:36:59.126430  5043 net.cpp:129] Top shape: 1 1 48 64 (3072)
I0729 14:36:59.126435  5043 net.cpp:129] Top shape: 1 1 48 64 (3072)
I0729 14:36:59.126453  5043 net.cpp:129] Top shape: 1 1 48 64 (3072)
I0729 14:36:59.126458  5043 net.cpp:129] Top shape: 1 1 48 64 (3072)
I0729 14:36:59.126464  5043 net.cpp:129] Top shape: 1 1 48 64 (3072)
I0729 14:36:59.126469  5043 net.cpp:129] Top shape: 1 1 48 64 (3072)
I0729 14:36:59.126489  5043 net.cpp:129] Top shape: 1 1 48 64 (3072)
I0729 14:36:59.126495  5043 net.cpp:129] Top shape: 1 1 48 64 (3072)
I0729 14:36:59.126500  5043 net.cpp:129] Top shape: 1 1 48 64 (3072)
I0729 14:36:59.126505  5043 net.cpp:129] Top shape: 1 1 48 64 (3072)
I0729 14:36:59.126510  5043 net.cpp:129] Top shape: 1 1 48 64 (3072)
I0729 14:36:59.126515  5043 net.cpp:129] Top shape: 1 1 48 64 (3072)
I0729 14:36:59.126520  5043 net.cpp:129] Top shape: 1 1 48 64 (3072)
I0729 14:36:59.126525  5043 net.cpp:129] Top shape: 1 1 48 64 (3072)
I0729 14:36:59.126530  5043 net.cpp:129] Top shape: 1 1 48 64 (3072)
I0729 14:36:59.126536  5043 net.cpp:129] Top shape: 1 1 48 64 (3072)
I0729 14:36:59.126541  5043 net.cpp:129] Top shape: 1 1 48 64 (3072)
I0729 14:36:59.126546  5043 net.cpp:129] Top shape: 1 1 48 64 (3072)
I0729 14:36:59.126551  5043 net.cpp:129] Top shape: 1 1 48 64 (3072)
I0729 14:36:59.126556  5043 net.cpp:129] Top shape: 1 1 48 64 (3072)
I0729 14:36:59.126562  5043 net.cpp:129] Top shape: 1 1 48 64 (3072)
I0729 14:36:59.126570  5043 net.cpp:129] Top shape: 1 1 48 64 (3072)
I0729 14:36:59.126576  5043 net.cpp:129] Top shape: 1 1 48 64 (3072)
I0729 14:36:59.126581  5043 net.cpp:129] Top shape: 1 1 48 64 (3072)
I0729 14:36:59.126586  5043 net.cpp:129] Top shape: 1 1 48 64 (3072)
I0729 14:36:59.126591  5043 net.cpp:129] Top shape: 1 1 48 64 (3072)
I0729 14:36:59.126596  5043 net.cpp:129] Top shape: 1 1 48 64 (3072)
I0729 14:36:59.126601  5043 net.cpp:129] Top shape: 1 1 48 64 (3072)
I0729 14:36:59.126606  5043 net.cpp:129] Top shape: 1 1 48 64 (3072)
I0729 14:36:59.126612  5043 net.cpp:129] Top shape: 1 1 48 64 (3072)
I0729 14:36:59.126616  5043 net.cpp:129] Top shape: 1 1 48 64 (3072)
I0729 14:36:59.126621  5043 net.cpp:129] Top shape: 1 1 48 64 (3072)
I0729 14:36:59.126627  5043 net.cpp:129] Top shape: 1 1 48 64 (3072)
I0729 14:36:59.126632  5043 net.cpp:129] Top shape: 1 1 48 64 (3072)
I0729 14:36:59.126637  5043 net.cpp:129] Top shape: 1 1 48 64 (3072)
I0729 14:36:59.126642  5043 net.cpp:129] Top shape: 1 1 48 64 (3072)
I0729 14:36:59.126647  5043 net.cpp:129] Top shape: 1 1 48 64 (3072)
I0729 14:36:59.126652  5043 net.cpp:129] Top shape: 1 1 48 64 (3072)
I0729 14:36:59.126658  5043 net.cpp:129] Top shape: 1 1 48 64 (3072)
I0729 14:36:59.126663  5043 net.cpp:129] Top shape: 1 1 48 64 (3072)
I0729 14:36:59.126668  5043 net.cpp:129] Top shape: 1 1 48 64 (3072)
I0729 14:36:59.126673  5043 net.cpp:129] Top shape: 1 1 48 64 (3072)
I0729 14:36:59.126678  5043 net.cpp:129] Top shape: 1 1 48 64 (3072)
I0729 14:36:59.126683  5043 net.cpp:129] Top shape: 1 1 48 64 (3072)
I0729 14:36:59.126688  5043 net.cpp:129] Top shape: 1 1 48 64 (3072)
I0729 14:36:59.126694  5043 net.cpp:129] Top shape: 1 1 48 64 (3072)
I0729 14:36:59.126699  5043 net.cpp:129] Top shape: 1 1 48 64 (3072)
I0729 14:36:59.126705  5043 net.cpp:129] Top shape: 1 1 48 64 (3072)
I0729 14:36:59.126710  5043 net.cpp:129] Top shape: 1 1 48 64 (3072)
I0729 14:36:59.126714  5043 net.cpp:129] Top shape: 1 1 48 64 (3072)
I0729 14:36:59.126718  5043 net.cpp:129] Top shape: 1 1 48 64 (3072)
I0729 14:36:59.126724  5043 net.cpp:129] Top shape: 1 1 48 64 (3072)
I0729 14:36:59.126729  5043 net.cpp:129] Top shape: 1 1 48 64 (3072)
I0729 14:36:59.126734  5043 net.cpp:129] Top shape: 1 1 48 64 (3072)
I0729 14:36:59.126739  5043 net.cpp:129] Top shape: 1 1 48 64 (3072)
I0729 14:36:59.126744  5043 net.cpp:129] Top shape: 1 1 48 64 (3072)
I0729 14:36:59.126749  5043 net.cpp:129] Top shape: 1 1 48 64 (3072)
I0729 14:36:59.126754  5043 net.cpp:129] Top shape: 1 1 48 64 (3072)
I0729 14:36:59.126758  5043 net.cpp:129] Top shape: 1 1 48 64 (3072)
I0729 14:36:59.126763  5043 net.cpp:129] Top shape: 1 1 48 64 (3072)
I0729 14:36:59.126768  5043 net.cpp:129] Top shape: 1 1 48 64 (3072)
I0729 14:36:59.126781  5043 net.cpp:129] Top shape: 1 1 48 64 (3072)
I0729 14:36:59.126791  5043 net.cpp:129] Top shape: 1 1 48 64 (3072)
I0729 14:36:59.126798  5043 net.cpp:129] Top shape: 1 1 48 64 (3072)
I0729 14:36:59.126802  5043 net.cpp:129] Top shape: 1 1 48 64 (3072)
I0729 14:36:59.126807  5043 net.cpp:129] Top shape: 1 1 48 64 (3072)
I0729 14:36:59.126811  5043 net.cpp:129] Top shape: 1 1 48 64 (3072)
I0729 14:36:59.126816  5043 net.cpp:129] Top shape: 1 1 48 64 (3072)
I0729 14:36:59.126821  5043 net.cpp:129] Top shape: 1 1 48 64 (3072)
I0729 14:36:59.126824  5043 net.cpp:129] Top shape: 1 1 48 64 (3072)
I0729 14:36:59.126832  5043 net.cpp:129] Top shape: 1 1 48 64 (3072)
I0729 14:36:59.126838  5043 net.cpp:129] Top shape: 1 1 48 64 (3072)
I0729 14:36:59.126843  5043 net.cpp:129] Top shape: 1 1 48 64 (3072)
I0729 14:36:59.126850  5043 net.cpp:129] Top shape: 1 1 48 64 (3072)
I0729 14:36:59.126857  5043 net.cpp:129] Top shape: 1 1 48 64 (3072)
I0729 14:36:59.126863  5043 net.cpp:129] Top shape: 1 1 48 64 (3072)
I0729 14:36:59.126868  5043 net.cpp:129] Top shape: 1 1 48 64 (3072)
I0729 14:36:59.126873  5043 net.cpp:129] Top shape: 1 1 48 64 (3072)
I0729 14:36:59.126880  5043 net.cpp:129] Top shape: 1 1 48 64 (3072)
I0729 14:36:59.126886  5043 net.cpp:129] Top shape: 1 1 48 64 (3072)
I0729 14:36:59.126893  5043 net.cpp:129] Top shape: 1 1 48 64 (3072)
I0729 14:36:59.126899  5043 net.cpp:129] Top shape: 1 1 48 64 (3072)
I0729 14:36:59.126906  5043 net.cpp:129] Top shape: 1 1 48 64 (3072)
I0729 14:36:59.126912  5043 net.cpp:129] Top shape: 1 1 48 64 (3072)
I0729 14:36:59.126919  5043 net.cpp:129] Top shape: 1 1 48 64 (3072)
I0729 14:36:59.126924  5043 net.cpp:129] Top shape: 1 1 48 64 (3072)
I0729 14:36:59.126930  5043 net.cpp:129] Top shape: 1 1 48 64 (3072)
I0729 14:36:59.126936  5043 net.cpp:129] Top shape: 1 1 48 64 (3072)
I0729 14:36:59.126942  5043 net.cpp:129] Top shape: 1 1 48 64 (3072)
I0729 14:36:59.126950  5043 net.cpp:129] Top shape: 1 1 48 64 (3072)
I0729 14:36:59.126955  5043 net.cpp:129] Top shape: 1 1 48 64 (3072)
I0729 14:36:59.126962  5043 net.cpp:129] Top shape: 1 1 48 64 (3072)
I0729 14:36:59.126968  5043 net.cpp:129] Top shape: 1 1 48 64 (3072)
I0729 14:36:59.126976  5043 net.cpp:129] Top shape: 1 1 48 64 (3072)
I0729 14:36:59.126983  5043 net.cpp:129] Top shape: 1 1 48 64 (3072)
I0729 14:36:59.126991  5043 net.cpp:129] Top shape: 1 1 48 64 (3072)
I0729 14:36:59.126997  5043 net.cpp:129] Top shape: 1 1 48 64 (3072)
I0729 14:36:59.127003  5043 net.cpp:129] Top shape: 1 1 48 64 (3072)
I0729 14:36:59.127010  5043 net.cpp:129] Top shape: 1 1 48 64 (3072)
I0729 14:36:59.127019  5043 net.cpp:129] Top shape: 1 1 48 64 (3072)
I0729 14:36:59.127027  5043 net.cpp:129] Top shape: 1 1 48 64 (3072)
I0729 14:36:59.127034  5043 net.cpp:129] Top shape: 1 1 48 64 (3072)
I0729 14:36:59.127041  5043 net.cpp:129] Top shape: 1 1 48 64 (3072)
I0729 14:36:59.127046  5043 net.cpp:129] Top shape: 1 1 48 64 (3072)
I0729 14:36:59.127051  5043 net.cpp:129] Top shape: 1 1 48 64 (3072)
I0729 14:36:59.127055  5043 net.cpp:129] Top shape: 1 1 48 64 (3072)
I0729 14:36:59.127064  5043 net.cpp:129] Top shape: 1 1 48 64 (3072)
I0729 14:36:59.127068  5043 net.cpp:129] Top shape: 1 1 48 64 (3072)
I0729 14:36:59.127073  5043 net.cpp:129] Top shape: 1 1 48 64 (3072)
I0729 14:36:59.127076  5043 net.cpp:129] Top shape: 1 1 48 64 (3072)
I0729 14:36:59.127080  5043 net.cpp:129] Top shape: 1 1 48 64 (3072)
I0729 14:36:59.127084  5043 net.cpp:129] Top shape: 1 1 48 64 (3072)
I0729 14:36:59.127089  5043 net.cpp:129] Top shape: 1 1 48 64 (3072)
I0729 14:36:59.127091  5043 net.cpp:137] Memory required for data: 3944448
I0729 14:36:59.127096  5043 layer_factory.hpp:77] Creating layer conv1_1
I0729 14:36:59.127112  5043 net.cpp:84] Creating Layer conv1_1
I0729 14:36:59.127118  5043 net.cpp:406] conv1_1 <- data
I0729 14:36:59.127125  5043 net.cpp:380] conv1_1 -> conv1_1
I0729 14:36:59.320185  5043 net.cpp:122] Setting up conv1_1
I0729 14:36:59.320210  5043 net.cpp:129] Top shape: 1 64 384 512 (12582912)
I0729 14:36:59.320214  5043 net.cpp:137] Memory required for data: 54276096
I0729 14:36:59.320261  5043 layer_factory.hpp:77] Creating layer relu1_1
I0729 14:36:59.320273  5043 net.cpp:84] Creating Layer relu1_1
I0729 14:36:59.320278  5043 net.cpp:406] relu1_1 <- conv1_1
I0729 14:36:59.320286  5043 net.cpp:367] relu1_1 -> conv1_1 (in-place)
I0729 14:36:59.320430  5043 net.cpp:122] Setting up relu1_1
I0729 14:36:59.320439  5043 net.cpp:129] Top shape: 1 64 384 512 (12582912)
I0729 14:36:59.320443  5043 net.cpp:137] Memory required for data: 104607744
I0729 14:36:59.320447  5043 layer_factory.hpp:77] Creating layer conv1_2
I0729 14:36:59.320457  5043 net.cpp:84] Creating Layer conv1_2
I0729 14:36:59.320461  5043 net.cpp:406] conv1_2 <- conv1_1
I0729 14:36:59.320467  5043 net.cpp:380] conv1_2 -> conv1_2
I0729 14:36:59.323343  5043 net.cpp:122] Setting up conv1_2
I0729 14:36:59.323355  5043 net.cpp:129] Top shape: 1 64 384 512 (12582912)
I0729 14:36:59.323359  5043 net.cpp:137] Memory required for data: 154939392
I0729 14:36:59.323369  5043 layer_factory.hpp:77] Creating layer relu1_2
I0729 14:36:59.323374  5043 net.cpp:84] Creating Layer relu1_2
I0729 14:36:59.323379  5043 net.cpp:406] relu1_2 <- conv1_2
I0729 14:36:59.323384  5043 net.cpp:367] relu1_2 -> conv1_2 (in-place)
I0729 14:36:59.323520  5043 net.cpp:122] Setting up relu1_2
I0729 14:36:59.323529  5043 net.cpp:129] Top shape: 1 64 384 512 (12582912)
I0729 14:36:59.323532  5043 net.cpp:137] Memory required for data: 205271040
I0729 14:36:59.323536  5043 layer_factory.hpp:77] Creating layer pool1
I0729 14:36:59.323542  5043 net.cpp:84] Creating Layer pool1
I0729 14:36:59.323545  5043 net.cpp:406] pool1 <- conv1_2
I0729 14:36:59.323551  5043 net.cpp:380] pool1 -> pool1
I0729 14:36:59.323596  5043 net.cpp:122] Setting up pool1
I0729 14:36:59.323602  5043 net.cpp:129] Top shape: 1 64 192 256 (3145728)
I0729 14:36:59.323606  5043 net.cpp:137] Memory required for data: 217853952
I0729 14:36:59.323608  5043 layer_factory.hpp:77] Creating layer conv2_1
I0729 14:36:59.323617  5043 net.cpp:84] Creating Layer conv2_1
I0729 14:36:59.323621  5043 net.cpp:406] conv2_1 <- pool1
I0729 14:36:59.323628  5043 net.cpp:380] conv2_1 -> conv2_1
I0729 14:36:59.326308  5043 net.cpp:122] Setting up conv2_1
I0729 14:36:59.326320  5043 net.cpp:129] Top shape: 1 128 192 256 (6291456)
I0729 14:36:59.326324  5043 net.cpp:137] Memory required for data: 243019776
I0729 14:36:59.326333  5043 layer_factory.hpp:77] Creating layer relu2_1
I0729 14:36:59.326339  5043 net.cpp:84] Creating Layer relu2_1
I0729 14:36:59.326342  5043 net.cpp:406] relu2_1 <- conv2_1
I0729 14:36:59.326347  5043 net.cpp:367] relu2_1 -> conv2_1 (in-place)
I0729 14:36:59.326870  5043 net.cpp:122] Setting up relu2_1
I0729 14:36:59.326882  5043 net.cpp:129] Top shape: 1 128 192 256 (6291456)
I0729 14:36:59.326886  5043 net.cpp:137] Memory required for data: 268185600
I0729 14:36:59.326890  5043 layer_factory.hpp:77] Creating layer conv2_2
I0729 14:36:59.326900  5043 net.cpp:84] Creating Layer conv2_2
I0729 14:36:59.326905  5043 net.cpp:406] conv2_2 <- conv2_1
I0729 14:36:59.326910  5043 net.cpp:380] conv2_2 -> conv2_2
I0729 14:36:59.329857  5043 net.cpp:122] Setting up conv2_2
I0729 14:36:59.329869  5043 net.cpp:129] Top shape: 1 128 192 256 (6291456)
I0729 14:36:59.329874  5043 net.cpp:137] Memory required for data: 293351424
I0729 14:36:59.329880  5043 layer_factory.hpp:77] Creating layer relu2_2
I0729 14:36:59.329885  5043 net.cpp:84] Creating Layer relu2_2
I0729 14:36:59.329890  5043 net.cpp:406] relu2_2 <- conv2_2
I0729 14:36:59.329895  5043 net.cpp:367] relu2_2 -> conv2_2 (in-place)
I0729 14:36:59.330039  5043 net.cpp:122] Setting up relu2_2
I0729 14:36:59.330049  5043 net.cpp:129] Top shape: 1 128 192 256 (6291456)
I0729 14:36:59.330052  5043 net.cpp:137] Memory required for data: 318517248
I0729 14:36:59.330056  5043 layer_factory.hpp:77] Creating layer pool2
I0729 14:36:59.330062  5043 net.cpp:84] Creating Layer pool2
I0729 14:36:59.330066  5043 net.cpp:406] pool2 <- conv2_2
I0729 14:36:59.330071  5043 net.cpp:380] pool2 -> pool2
I0729 14:36:59.330109  5043 net.cpp:122] Setting up pool2
I0729 14:36:59.330132  5043 net.cpp:129] Top shape: 1 128 96 128 (1572864)
I0729 14:36:59.330137  5043 net.cpp:137] Memory required for data: 324808704
I0729 14:36:59.330139  5043 layer_factory.hpp:77] Creating layer conv3_1
I0729 14:36:59.330148  5043 net.cpp:84] Creating Layer conv3_1
I0729 14:36:59.330152  5043 net.cpp:406] conv3_1 <- pool2
I0729 14:36:59.330159  5043 net.cpp:380] conv3_1 -> conv3_1
I0729 14:36:59.335101  5043 net.cpp:122] Setting up conv3_1
I0729 14:36:59.335119  5043 net.cpp:129] Top shape: 1 256 96 128 (3145728)
I0729 14:36:59.335122  5043 net.cpp:137] Memory required for data: 337391616
I0729 14:36:59.335134  5043 layer_factory.hpp:77] Creating layer relu3_1
I0729 14:36:59.335141  5043 net.cpp:84] Creating Layer relu3_1
I0729 14:36:59.335146  5043 net.cpp:406] relu3_1 <- conv3_1
I0729 14:36:59.335151  5043 net.cpp:367] relu3_1 -> conv3_1 (in-place)
I0729 14:36:59.335300  5043 net.cpp:122] Setting up relu3_1
I0729 14:36:59.335309  5043 net.cpp:129] Top shape: 1 256 96 128 (3145728)
I0729 14:36:59.335314  5043 net.cpp:137] Memory required for data: 349974528
I0729 14:36:59.335316  5043 layer_factory.hpp:77] Creating layer conv3_2
I0729 14:36:59.335326  5043 net.cpp:84] Creating Layer conv3_2
I0729 14:36:59.335330  5043 net.cpp:406] conv3_2 <- conv3_1
I0729 14:36:59.335336  5043 net.cpp:380] conv3_2 -> conv3_2
I0729 14:36:59.342479  5043 net.cpp:122] Setting up conv3_2
I0729 14:36:59.342494  5043 net.cpp:129] Top shape: 1 256 96 128 (3145728)
I0729 14:36:59.342499  5043 net.cpp:137] Memory required for data: 362557440
I0729 14:36:59.342505  5043 layer_factory.hpp:77] Creating layer relu3_2
I0729 14:36:59.342515  5043 net.cpp:84] Creating Layer relu3_2
I0729 14:36:59.342520  5043 net.cpp:406] relu3_2 <- conv3_2
I0729 14:36:59.342525  5043 net.cpp:367] relu3_2 -> conv3_2 (in-place)
I0729 14:36:59.343112  5043 net.cpp:122] Setting up relu3_2
I0729 14:36:59.343124  5043 net.cpp:129] Top shape: 1 256 96 128 (3145728)
I0729 14:36:59.343128  5043 net.cpp:137] Memory required for data: 375140352
I0729 14:36:59.343132  5043 layer_factory.hpp:77] Creating layer conv3_3
I0729 14:36:59.343143  5043 net.cpp:84] Creating Layer conv3_3
I0729 14:36:59.343148  5043 net.cpp:406] conv3_3 <- conv3_2
I0729 14:36:59.343154  5043 net.cpp:380] conv3_3 -> conv3_3
I0729 14:36:59.350354  5043 net.cpp:122] Setting up conv3_3
I0729 14:36:59.350376  5043 net.cpp:129] Top shape: 1 256 96 128 (3145728)
I0729 14:36:59.350379  5043 net.cpp:137] Memory required for data: 387723264
I0729 14:36:59.350388  5043 layer_factory.hpp:77] Creating layer relu3_3
I0729 14:36:59.350397  5043 net.cpp:84] Creating Layer relu3_3
I0729 14:36:59.350402  5043 net.cpp:406] relu3_3 <- conv3_3
I0729 14:36:59.350409  5043 net.cpp:367] relu3_3 -> conv3_3 (in-place)
I0729 14:36:59.350566  5043 net.cpp:122] Setting up relu3_3
I0729 14:36:59.350575  5043 net.cpp:129] Top shape: 1 256 96 128 (3145728)
I0729 14:36:59.350579  5043 net.cpp:137] Memory required for data: 400306176
I0729 14:36:59.350582  5043 layer_factory.hpp:77] Creating layer pool3
I0729 14:36:59.350590  5043 net.cpp:84] Creating Layer pool3
I0729 14:36:59.350594  5043 net.cpp:406] pool3 <- conv3_3
I0729 14:36:59.350600  5043 net.cpp:380] pool3 -> pool3
I0729 14:36:59.350642  5043 net.cpp:122] Setting up pool3
I0729 14:36:59.350648  5043 net.cpp:129] Top shape: 1 256 48 64 (786432)
I0729 14:36:59.350651  5043 net.cpp:137] Memory required for data: 403451904
I0729 14:36:59.350656  5043 layer_factory.hpp:77] Creating layer conv4_1
I0729 14:36:59.350666  5043 net.cpp:84] Creating Layer conv4_1
I0729 14:36:59.350669  5043 net.cpp:406] conv4_1 <- pool3
I0729 14:36:59.350675  5043 net.cpp:380] conv4_1 -> conv4_1
I0729 14:36:59.364143  5043 net.cpp:122] Setting up conv4_1
I0729 14:36:59.364168  5043 net.cpp:129] Top shape: 1 512 48 64 (1572864)
I0729 14:36:59.364172  5043 net.cpp:137] Memory required for data: 409743360
I0729 14:36:59.364181  5043 layer_factory.hpp:77] Creating layer relu4_1
I0729 14:36:59.364192  5043 net.cpp:84] Creating Layer relu4_1
I0729 14:36:59.364197  5043 net.cpp:406] relu4_1 <- conv4_1
I0729 14:36:59.364220  5043 net.cpp:367] relu4_1 -> conv4_1 (in-place)
I0729 14:36:59.364409  5043 net.cpp:122] Setting up relu4_1
I0729 14:36:59.364424  5043 net.cpp:129] Top shape: 1 512 48 64 (1572864)
I0729 14:36:59.364430  5043 net.cpp:137] Memory required for data: 416034816
I0729 14:36:59.364436  5043 layer_factory.hpp:77] Creating layer conv4_2
I0729 14:36:59.364452  5043 net.cpp:84] Creating Layer conv4_2
I0729 14:36:59.364460  5043 net.cpp:406] conv4_2 <- conv4_1
I0729 14:36:59.364471  5043 net.cpp:380] conv4_2 -> conv4_2
I0729 14:36:59.392215  5043 net.cpp:122] Setting up conv4_2
I0729 14:36:59.392243  5043 net.cpp:129] Top shape: 1 512 48 64 (1572864)
I0729 14:36:59.392248  5043 net.cpp:137] Memory required for data: 422326272
I0729 14:36:59.392262  5043 layer_factory.hpp:77] Creating layer relu4_2
I0729 14:36:59.392272  5043 net.cpp:84] Creating Layer relu4_2
I0729 14:36:59.392278  5043 net.cpp:406] relu4_2 <- conv4_2
I0729 14:36:59.392285  5043 net.cpp:367] relu4_2 -> conv4_2 (in-place)
I0729 14:36:59.392827  5043 net.cpp:122] Setting up relu4_2
I0729 14:36:59.392841  5043 net.cpp:129] Top shape: 1 512 48 64 (1572864)
I0729 14:36:59.392845  5043 net.cpp:137] Memory required for data: 428617728
I0729 14:36:59.392849  5043 layer_factory.hpp:77] Creating layer conv4_3
I0729 14:36:59.392863  5043 net.cpp:84] Creating Layer conv4_3
I0729 14:36:59.392868  5043 net.cpp:406] conv4_3 <- conv4_2
I0729 14:36:59.392874  5043 net.cpp:380] conv4_3 -> conv4_3
I0729 14:36:59.415606  5043 net.cpp:122] Setting up conv4_3
I0729 14:36:59.415628  5043 net.cpp:129] Top shape: 1 512 48 64 (1572864)
I0729 14:36:59.415633  5043 net.cpp:137] Memory required for data: 434909184
I0729 14:36:59.415642  5043 layer_factory.hpp:77] Creating layer relu4_3
I0729 14:36:59.415652  5043 net.cpp:84] Creating Layer relu4_3
I0729 14:36:59.415657  5043 net.cpp:406] relu4_3 <- conv4_3
I0729 14:36:59.415664  5043 net.cpp:367] relu4_3 -> conv4_3 (in-place)
I0729 14:36:59.415813  5043 net.cpp:122] Setting up relu4_3
I0729 14:36:59.415822  5043 net.cpp:129] Top shape: 1 512 48 64 (1572864)
I0729 14:36:59.415824  5043 net.cpp:137] Memory required for data: 441200640
I0729 14:36:59.415828  5043 layer_factory.hpp:77] Creating layer pool4
I0729 14:36:59.415835  5043 net.cpp:84] Creating Layer pool4
I0729 14:36:59.415838  5043 net.cpp:406] pool4 <- conv4_3
I0729 14:36:59.415845  5043 net.cpp:380] pool4 -> pool4
I0729 14:36:59.415885  5043 net.cpp:122] Setting up pool4
I0729 14:36:59.415894  5043 net.cpp:129] Top shape: 1 512 48 64 (1572864)
I0729 14:36:59.415896  5043 net.cpp:137] Memory required for data: 447492096
I0729 14:36:59.415899  5043 layer_factory.hpp:77] Creating layer conv5_1
I0729 14:36:59.415908  5043 net.cpp:84] Creating Layer conv5_1
I0729 14:36:59.415912  5043 net.cpp:406] conv5_1 <- pool4
I0729 14:36:59.415920  5043 net.cpp:380] conv5_1 -> conv5_1
I0729 14:36:59.437341  5043 net.cpp:122] Setting up conv5_1
I0729 14:36:59.437366  5043 net.cpp:129] Top shape: 1 512 48 64 (1572864)
I0729 14:36:59.437369  5043 net.cpp:137] Memory required for data: 453783552
I0729 14:36:59.437377  5043 layer_factory.hpp:77] Creating layer relu5_1
I0729 14:36:59.437386  5043 net.cpp:84] Creating Layer relu5_1
I0729 14:36:59.437391  5043 net.cpp:406] relu5_1 <- conv5_1
I0729 14:36:59.437399  5043 net.cpp:367] relu5_1 -> conv5_1 (in-place)
I0729 14:36:59.438066  5043 net.cpp:122] Setting up relu5_1
I0729 14:36:59.438078  5043 net.cpp:129] Top shape: 1 512 48 64 (1572864)
I0729 14:36:59.438082  5043 net.cpp:137] Memory required for data: 460075008
I0729 14:36:59.438086  5043 layer_factory.hpp:77] Creating layer conv5_2
I0729 14:36:59.438097  5043 net.cpp:84] Creating Layer conv5_2
I0729 14:36:59.438102  5043 net.cpp:406] conv5_2 <- conv5_1
I0729 14:36:59.438109  5043 net.cpp:380] conv5_2 -> conv5_2
I0729 14:36:59.459498  5043 net.cpp:122] Setting up conv5_2
I0729 14:36:59.459522  5043 net.cpp:129] Top shape: 1 512 48 64 (1572864)
I0729 14:36:59.459532  5043 net.cpp:137] Memory required for data: 466366464
I0729 14:36:59.459540  5043 layer_factory.hpp:77] Creating layer relu5_2
I0729 14:36:59.459573  5043 net.cpp:84] Creating Layer relu5_2
I0729 14:36:59.459578  5043 net.cpp:406] relu5_2 <- conv5_2
I0729 14:36:59.459586  5043 net.cpp:367] relu5_2 -> conv5_2 (in-place)
I0729 14:36:59.459790  5043 net.cpp:122] Setting up relu5_2
I0729 14:36:59.459800  5043 net.cpp:129] Top shape: 1 512 48 64 (1572864)
I0729 14:36:59.459802  5043 net.cpp:137] Memory required for data: 472657920
I0729 14:36:59.459806  5043 layer_factory.hpp:77] Creating layer conv5_3
I0729 14:36:59.459817  5043 net.cpp:84] Creating Layer conv5_3
I0729 14:36:59.459821  5043 net.cpp:406] conv5_3 <- conv5_2
I0729 14:36:59.459828  5043 net.cpp:380] conv5_3 -> conv5_3
I0729 14:36:59.481194  5043 net.cpp:122] Setting up conv5_3
I0729 14:36:59.481217  5043 net.cpp:129] Top shape: 1 512 48 64 (1572864)
I0729 14:36:59.481220  5043 net.cpp:137] Memory required for data: 478949376
I0729 14:36:59.481227  5043 layer_factory.hpp:77] Creating layer relu5_3
I0729 14:36:59.481242  5043 net.cpp:84] Creating Layer relu5_3
I0729 14:36:59.481248  5043 net.cpp:406] relu5_3 <- conv5_3
I0729 14:36:59.481256  5043 net.cpp:367] relu5_3 -> conv5_3 (in-place)
I0729 14:36:59.481926  5043 net.cpp:122] Setting up relu5_3
I0729 14:36:59.481938  5043 net.cpp:129] Top shape: 1 512 48 64 (1572864)
I0729 14:36:59.481941  5043 net.cpp:137] Memory required for data: 485240832
I0729 14:36:59.481945  5043 layer_factory.hpp:77] Creating layer conv_score
I0729 14:36:59.481957  5043 net.cpp:84] Creating Layer conv_score
I0729 14:36:59.481962  5043 net.cpp:406] conv_score <- conv5_3
I0729 14:36:59.481969  5043 net.cpp:380] conv_score -> conv_score
I0729 14:36:59.635226  5043 net.cpp:122] Setting up conv_score
I0729 14:36:59.635249  5043 net.cpp:129] Top shape: 1 128 48 64 (393216)
I0729 14:36:59.635253  5043 net.cpp:137] Memory required for data: 486813696
I0729 14:36:59.635263  5043 layer_factory.hpp:77] Creating layer relu_score
I0729 14:36:59.635274  5043 net.cpp:84] Creating Layer relu_score
I0729 14:36:59.635279  5043 net.cpp:406] relu_score <- conv_score
I0729 14:36:59.635287  5043 net.cpp:367] relu_score -> conv_score (in-place)
I0729 14:36:59.635884  5043 net.cpp:122] Setting up relu_score
I0729 14:36:59.635895  5043 net.cpp:129] Top shape: 1 128 48 64 (393216)
I0729 14:36:59.635898  5043 net.cpp:137] Memory required for data: 488386560
I0729 14:36:59.635901  5043 layer_factory.hpp:77] Creating layer slicer_conv
I0729 14:36:59.635915  5043 net.cpp:84] Creating Layer slicer_conv
I0729 14:36:59.635921  5043 net.cpp:406] slicer_conv <- conv_score
I0729 14:36:59.635933  5043 net.cpp:380] slicer_conv -> score1
I0729 14:36:59.635951  5043 net.cpp:380] slicer_conv -> score2
…
I0729 14:36:59.637495  5043 net.cpp:380] slicer_conv -> score121
I0729 14:36:59.637508  5043 net.cpp:380] slicer_conv -> score122
I0729 14:36:59.637521  5043 net.cpp:380] slicer_conv -> score123
I0729 14:36:59.637533  5043 net.cpp:380] slicer_conv -> score124
I0729 14:36:59.637545  5043 net.cpp:380] slicer_conv -> score125
I0729 14:36:59.637558  5043 net.cpp:380] slicer_conv -> score126
I0729 14:36:59.637570  5043 net.cpp:380] slicer_conv -> score127
I0729 14:36:59.637583  5043 net.cpp:380] slicer_conv -> score128
I0729 14:36:59.639542  5043 net.cpp:122] Setting up slicer_conv
I0729 14:36:59.639550  5043 net.cpp:129] Top shape: 1 1 48 64 (3072)
I0729 14:36:59.639555  5043 net.cpp:129] Top shape: 1 1 48 64 (3072)
I0729 14:36:59.639559  5043 net.cpp:129] Top shape: 1 1 48 64 (3072)
I0729 14:36:59.639564  5043 net.cpp:129] Top shape: 1 1 48 64 (3072)
I0729 14:36:59.639567  5043 net.cpp:129] Top shape: 1 1 48 64 (3072)
I0729 14:36:59.639570  5043 net.cpp:129] Top shape: 1 1 48 64 (3072)
I0729 14:36:59.639574  5043 net.cpp:129] Top shape: 1 1 48 64 (3072)
I0729 14:36:59.639577  5043 net.cpp:129] Top shape: 1 1 48 64 (3072)
I0729 14:36:59.639583  5043 net.cpp:129] Top shape: 1 1 48 64 (3072)
I0729 14:36:59.639588  5043 net.cpp:129] Top shape: 1 1 48 64 (3072)
I0729 14:36:59.639591  5043 net.cpp:129] Top shape: 1 1 48 64 (3072)
I0729 14:36:59.639595  5043 net.cpp:129] Top shape: 1 1 48 64 (3072)
I0729 14:36:59.639600  5043 net.cpp:129] Top shape: 1 1 48 64 (3072)
I0729 14:36:59.639602  5043 net.cpp:129] Top shape: 1 1 48 64 (3072)
I0729 14:36:59.639606  5043 net.cpp:129] Top shape: 1 1 48 64 (3072)
I0729 14:36:59.639611  5043 net.cpp:129] Top shape: 1 1 48 64 (3072)
I0729 14:36:59.639613  5043 net.cpp:129] Top shape: 1 1 48 64 (3072)
I0729 14:36:59.639617  5043 net.cpp:129] Top shape: 1 1 48 64 (3072)
I0729 14:36:59.639621  5043 net.cpp:129] Top shape: 1 1 48 64 (3072)
I0729 14:36:59.639624  5043 net.cpp:129] Top shape: 1 1 48 64 (3072)
I0729 14:36:59.639628  5043 net.cpp:129] Top shape: 1 1 48 64 (3072)
I0729 14:36:59.639642  5043 net.cpp:129] Top shape: 1 1 48 64 (3072)
I0729 14:36:59.639647  5043 net.cpp:129] Top shape: 1 1 48 64 (3072)
I0729 14:36:59.639650  5043 net.cpp:129] Top shape: 1 1 48 64 (3072)
I0729 14:36:59.639654  5043 net.cpp:129] Top shape: 1 1 48 64 (3072)
I0729 14:36:59.639657  5043 net.cpp:129] Top shape: 1 1 48 64 (3072)
I0729 14:36:59.639662  5043 net.cpp:129] Top shape: 1 1 48 64 (3072)
I0729 14:36:59.639665  5043 net.cpp:129] Top shape: 1 1 48 64 (3072)
I0729 14:36:59.639668  5043 net.cpp:129] Top shape: 1 1 48 64 (3072)
I0729 14:36:59.639672  5043 net.cpp:129] Top shape: 1 1 48 64 (3072)
I0729 14:36:59.639677  5043 net.cpp:129] Top shape: 1 1 48 64 (3072)
I0729 14:36:59.639679  5043 net.cpp:129] Top shape: 1 1 48 64 (3072)
I0729 14:36:59.639683  5043 net.cpp:129] Top shape: 1 1 48 64 (3072)
I0729 14:36:59.639688  5043 net.cpp:129] Top shape: 1 1 48 64 (3072)
I0729 14:36:59.639691  5043 net.cpp:129] Top shape: 1 1 48 64 (3072)
I0729 14:36:59.639695  5043 net.cpp:129] Top shape: 1 1 48 64 (3072)
I0729 14:36:59.639698  5043 net.cpp:129] Top shape: 1 1 48 64 (3072)
I0729 14:36:59.639703  5043 net.cpp:129] Top shape: 1 1 48 64 (3072)
I0729 14:36:59.639705  5043 net.cpp:129] Top shape: 1 1 48 64 (3072)
I0729 14:36:59.639709  5043 net.cpp:129] Top shape: 1 1 48 64 (3072)
I0729 14:36:59.639713  5043 net.cpp:129] Top shape: 1 1 48 64 (3072)
I0729 14:36:59.639716  5043 net.cpp:129] Top shape: 1 1 48 64 (3072)
I0729 14:36:59.639720  5043 net.cpp:129] Top shape: 1 1 48 64 (3072)
I0729 14:36:59.639724  5043 net.cpp:129] Top shape: 1 1 48 64 (3072)
I0729 14:36:59.639727  5043 net.cpp:129] Top shape: 1 1 48 64 (3072)
I0729 14:36:59.639731  5043 net.cpp:129] Top shape: 1 1 48 64 (3072)
I0729 14:36:59.639734  5043 net.cpp:129] Top shape: 1 1 48 64 (3072)
I0729 14:36:59.639739  5043 net.cpp:129] Top shape: 1 1 48 64 (3072)
I0729 14:36:59.639742  5043 net.cpp:129] Top shape: 1 1 48 64 (3072)
I0729 14:36:59.639745  5043 net.cpp:129] Top shape: 1 1 48 64 (3072)
I0729 14:36:59.639750  5043 net.cpp:129] Top shape: 1 1 48 64 (3072)
I0729 14:36:59.639753  5043 net.cpp:129] Top shape: 1 1 48 64 (3072)
I0729 14:36:59.639756  5043 net.cpp:129] Top shape: 1 1 48 64 (3072)
I0729 14:36:59.639760  5043 net.cpp:129] Top shape: 1 1 48 64 (3072)
I0729 14:36:59.639763  5043 net.cpp:129] Top shape: 1 1 48 64 (3072)
I0729 14:36:59.639767  5043 net.cpp:129] Top shape: 1 1 48 64 (3072)
I0729 14:36:59.639771  5043 net.cpp:129] Top shape: 1 1 48 64 (3072)
I0729 14:36:59.639775  5043 net.cpp:129] Top shape: 1 1 48 64 (3072)
I0729 14:36:59.639778  5043 net.cpp:129] Top shape: 1 1 48 64 (3072)
I0729 14:36:59.639782  5043 net.cpp:129] Top shape: 1 1 48 64 (3072)
I0729 14:36:59.639786  5043 net.cpp:129] Top shape: 1 1 48 64 (3072)
I0729 14:36:59.639789  5043 net.cpp:129] Top shape: 1 1 48 64 (3072)
I0729 14:36:59.639792  5043 net.cpp:129] Top shape: 1 1 48 64 (3072)
I0729 14:36:59.639796  5043 net.cpp:129] Top shape: 1 1 48 64 (3072)
I0729 14:36:59.639801  5043 net.cpp:129] Top shape: 1 1 48 64 (3072)
I0729 14:36:59.639803  5043 net.cpp:129] Top shape: 1 1 48 64 (3072)
I0729 14:36:59.639807  5043 net.cpp:129] Top shape: 1 1 48 64 (3072)
I0729 14:36:59.639811  5043 net.cpp:129] Top shape: 1 1 48 64 (3072)
I0729 14:36:59.639814  5043 net.cpp:129] Top shape: 1 1 48 64 (3072)
I0729 14:36:59.639818  5043 net.cpp:129] Top shape: 1 1 48 64 (3072)
I0729 14:36:59.639822  5043 net.cpp:129] Top shape: 1 1 48 64 (3072)
I0729 14:36:59.639825  5043 net.cpp:129] Top shape: 1 1 48 64 (3072)
I0729 14:36:59.639829  5043 net.cpp:129] Top shape: 1 1 48 64 (3072)
I0729 14:36:59.639833  5043 net.cpp:129] Top shape: 1 1 48 64 (3072)
I0729 14:36:59.639837  5043 net.cpp:129] Top shape: 1 1 48 64 (3072)
I0729 14:36:59.639840  5043 net.cpp:129] Top shape: 1 1 48 64 (3072)
I0729 14:36:59.639844  5043 net.cpp:129] Top shape: 1 1 48 64 (3072)
I0729 14:36:59.639848  5043 net.cpp:129] Top shape: 1 1 48 64 (3072)
I0729 14:36:59.639853  5043 net.cpp:129] Top shape: 1 1 48 64 (3072)
I0729 14:36:59.639856  5043 net.cpp:129] Top shape: 1 1 48 64 (3072)
I0729 14:36:59.639865  5043 net.cpp:129] Top shape: 1 1 48 64 (3072)
I0729 14:36:59.639869  5043 net.cpp:129] Top shape: 1 1 48 64 (3072)
I0729 14:36:59.639873  5043 net.cpp:129] Top shape: 1 1 48 64 (3072)
I0729 14:36:59.639876  5043 net.cpp:129] Top shape: 1 1 48 64 (3072)
I0729 14:36:59.639880  5043 net.cpp:129] Top shape: 1 1 48 64 (3072)
I0729 14:36:59.639884  5043 net.cpp:129] Top shape: 1 1 48 64 (3072)
I0729 14:36:59.639888  5043 net.cpp:129] Top shape: 1 1 48 64 (3072)
I0729 14:36:59.639891  5043 net.cpp:129] Top shape: 1 1 48 64 (3072)
I0729 14:36:59.639895  5043 net.cpp:129] Top shape: 1 1 48 64 (3072)
I0729 14:36:59.639899  5043 net.cpp:129] Top shape: 1 1 48 64 (3072)
I0729 14:36:59.639902  5043 net.cpp:129] Top shape: 1 1 48 64 (3072)
I0729 14:36:59.639906  5043 net.cpp:129] Top shape: 1 1 48 64 (3072)
I0729 14:36:59.639910  5043 net.cpp:129] Top shape: 1 1 48 64 (3072)
I0729 14:36:59.639914  5043 net.cpp:129] Top shape: 1 1 48 64 (3072)
I0729 14:36:59.639917  5043 net.cpp:129] Top shape: 1 1 48 64 (3072)
I0729 14:36:59.639921  5043 net.cpp:129] Top shape: 1 1 48 64 (3072)
I0729 14:36:59.639925  5043 net.cpp:129] Top shape: 1 1 48 64 (3072)
I0729 14:36:59.639930  5043 net.cpp:129] Top shape: 1 1 48 64 (3072)
I0729 14:36:59.639933  5043 net.cpp:129] Top shape: 1 1 48 64 (3072)
I0729 14:36:59.639937  5043 net.cpp:129] Top shape: 1 1 48 64 (3072)
I0729 14:36:59.639941  5043 net.cpp:129] Top shape: 1 1 48 64 (3072)
I0729 14:36:59.639945  5043 net.cpp:129] Top shape: 1 1 48 64 (3072)
I0729 14:36:59.639948  5043 net.cpp:129] Top shape: 1 1 48 64 (3072)
I0729 14:36:59.639952  5043 net.cpp:129] Top shape: 1 1 48 64 (3072)
I0729 14:36:59.639955  5043 net.cpp:129] Top shape: 1 1 48 64 (3072)
I0729 14:36:59.639960  5043 net.cpp:129] Top shape: 1 1 48 64 (3072)
I0729 14:36:59.639963  5043 net.cpp:129] Top shape: 1 1 48 64 (3072)
I0729 14:36:59.639966  5043 net.cpp:129] Top shape: 1 1 48 64 (3072)
I0729 14:36:59.639972  5043 net.cpp:129] Top shape: 1 1 48 64 (3072)
I0729 14:36:59.639976  5043 net.cpp:129] Top shape: 1 1 48 64 (3072)
I0729 14:36:59.639981  5043 net.cpp:129] Top shape: 1 1 48 64 (3072)
I0729 14:36:59.639983  5043 net.cpp:129] Top shape: 1 1 48 64 (3072)
I0729 14:36:59.639987  5043 net.cpp:129] Top shape: 1 1 48 64 (3072)
I0729 14:36:59.639991  5043 net.cpp:129] Top shape: 1 1 48 64 (3072)
I0729 14:36:59.639995  5043 net.cpp:129] Top shape: 1 1 48 64 (3072)
I0729 14:36:59.639998  5043 net.cpp:129] Top shape: 1 1 48 64 (3072)
I0729 14:36:59.640002  5043 net.cpp:129] Top shape: 1 1 48 64 (3072)
I0729 14:36:59.640007  5043 net.cpp:129] Top shape: 1 1 48 64 (3072)
I0729 14:36:59.640009  5043 net.cpp:129] Top shape: 1 1 48 64 (3072)
I0729 14:36:59.640013  5043 net.cpp:129] Top shape: 1 1 48 64 (3072)
I0729 14:36:59.640017  5043 net.cpp:129] Top shape: 1 1 48 64 (3072)
I0729 14:36:59.640020  5043 net.cpp:129] Top shape: 1 1 48 64 (3072)
I0729 14:36:59.640024  5043 net.cpp:129] Top shape: 1 1 48 64 (3072)
I0729 14:36:59.640028  5043 net.cpp:129] Top shape: 1 1 48 64 (3072)
I0729 14:36:59.640031  5043 net.cpp:129] Top shape: 1 1 48 64 (3072)
I0729 14:36:59.640035  5043 net.cpp:129] Top shape: 1 1 48 64 (3072)
I0729 14:36:59.640038  5043 net.cpp:129] Top shape: 1 1 48 64 (3072)
I0729 14:36:59.640043  5043 net.cpp:129] Top shape: 1 1 48 64 (3072)
I0729 14:36:59.640045  5043 net.cpp:137] Memory required for data: 489959424
I0729 14:36:59.640049  5043 layer_factory.hpp:77] Creating layer score1_slicer_conv_0_split
I0729 14:36:59.640055  5043 net.cpp:84] Creating Layer score1_slicer_conv_0_split
I0729 14:36:59.640059  5043 net.cpp:406] score1_slicer_conv_0_split <- score1
I0729 14:36:59.640066  5043 net.cpp:380] score1_slicer_conv_0_split -> score1_slicer_conv_0_split_0
I0729 14:36:59.640074  5043 net.cpp:380] score1_slicer_conv_0_split -> score1_slicer_conv_0_split_1
I0729 14:36:59.640127  5043 net.cpp:122] Setting up score1_slicer_conv_0_split
I0729 14:36:59.640136  5043 net.cpp:129] Top shape: 1 1 48 64 (3072)
I0729 14:36:59.640139  5043 net.cpp:129] Top shape: 1 1 48 64 (3072)
I0729 14:36:59.640142  5043 net.cpp:137] Memory required for data: 489984000
I0729 14:36:59.640152  5043 layer_factory.hpp:77] Creating layer score2_slicer_conv_1_split
I0729 14:36:59.640158  5043 net.cpp:84] Creating Layer score2_slicer_conv_1_split
I0729 14:36:59.640162  5043 net.cpp:406] score2_slicer_conv_1_split <- score2
I0729 14:36:59.640167  5043 net.cpp:380] score2_slicer_conv_1_split -> score2_slicer_conv_1_split_0
I0729 14:36:59.640174  5043 net.cpp:380] score2_slicer_conv_1_split -> score2_slicer_conv_1_split_1
I0729 14:36:59.640226  5043 net.cpp:122] Setting up score2_slicer_conv_1_split
I0729 14:36:59.640233  5043 net.cpp:129] Top shape: 1 1 48 64 (3072)
I0729 14:36:59.640236  5043 net.cpp:129] Top shape: 1 1 48 64 (3072)
I0729 14:36:59.640239  5043 net.cpp:137] Memory required for data: 490008576
I0729 14:36:59.640242  5043 layer_factory.hpp:77] Creating layer score3_slicer_conv_2_split
I0729 14:36:59.640249  5043 net.cpp:84] Creating Layer score3_slicer_conv_2_split
I0729 14:36:59.640252  5043 net.cpp:406] score3_slicer_conv_2_split <- score3
I0729 14:36:59.640257  5043 net.cpp:380] score3_slicer_conv_2_split -> score3_slicer_conv_2_split_0
I0729 14:36:59.640264  5043 net.cpp:380] score3_slicer_conv_2_split -> score3_slicer_conv_2_split_1
I0729 14:36:59.640312  5043 net.cpp:122] Setting up score3_slicer_conv_2_split
I0729 14:36:59.640318  5043 net.cpp:129] Top shape: 1 1 48 64 (3072)
I0729 14:36:59.640322  5043 net.cpp:129] Top shape: 1 1 48 64 (3072)
I0729 14:36:59.640326  5043 net.cpp:137] Memory required for data: 490033152
I0729 14:36:59.640329  5043 layer_factory.hpp:77] Creating layer score4_slicer_conv_3_split
I0729 14:36:59.640336  5043 net.cpp:84] Creating Layer score4_slicer_conv_3_split
I0729 14:36:59.640339  5043 net.cpp:406] score4_slicer_conv_3_split <- score4
I0729 14:36:59.640343  5043 net.cpp:380] score4_slicer_conv_3_split -> score4_slicer_conv_3_split_0
I0729 14:36:59.640349  5043 net.cpp:380] score4_slicer_conv_3_split -> score4_slicer_conv_3_split_1
I0729 14:36:59.640398  5043 net.cpp:122] Setting up score4_slicer_conv_3_split
I0729 14:36:59.640405  5043 net.cpp:129] Top shape: 1 1 48 64 (3072)
I0729 14:36:59.640408  5043 net.cpp:129] Top shape: 1 1 48 64 (3072)
I0729 14:36:59.640411  5043 net.cpp:137] Memory required for data: 490057728
I0729 14:36:59.640415  5043 layer_factory.hpp:77] Creating layer score5_slicer_conv_4_split
I0729 14:36:59.640419  5043 net.cpp:84] Creating Layer score5_slicer_conv_4_split
I0729 14:36:59.640424  5043 net.cpp:406] score5_slicer_conv_4_split <- score5
I0729 14:36:59.640429  5043 net.cpp:380] score5_slicer_conv_4_split -> score5_slicer_conv_4_split_0
I0729 14:36:59.640435  5043 net.cpp:380] score5_slicer_conv_4_split -> score5_slicer_conv_4_split_1
I0729 14:36:59.640482  5043 net.cpp:122] Setting up score5_slicer_conv_4_split
I0729 14:36:59.640488  5043 net.cpp:129] Top shape: 1 1 48 64 (3072)
I0729 14:36:59.640492  5043 net.cpp:129] Top shape: 1 1 48 64 (3072)
I0729 14:36:59.640496  5043 net.cpp:137] Memory required for data: 490082304
I0729 14:36:59.640498  5043 layer_factory.hpp:77] Creating layer score6_slicer_conv_5_split
I0729 14:36:59.640503  5043 net.cpp:84] Creating Layer score6_slicer_conv_5_split
I0729 14:36:59.640507  5043 net.cpp:406] score6_slicer_conv_5_split <- score6
I0729 14:36:59.640512  5043 net.cpp:380] score6_slicer_conv_5_split -> score6_slicer_conv_5_split_0
I0729 14:36:59.640518  5043 net.cpp:380] score6_slicer_conv_5_split -> score6_slicer_conv_5_split_1
I0729 14:36:59.640566  5043 net.cpp:122] Setting up score6_slicer_conv_5_split
I0729 14:36:59.640573  5043 net.cpp:129] Top shape: 1 1 48 64 (3072)
I0729 14:36:59.640578  5043 net.cpp:129] Top shape: 1 1 48 64 (3072)
I0729 14:36:59.640580  5043 net.cpp:137] Memory required for data: 490106880
I0729 14:36:59.640583  5043 layer_factory.hpp:77] Creating layer score7_slicer_conv_6_split
I0729 14:36:59.640588  5043 net.cpp:84] Creating Layer score7_slicer_conv_6_split
I0729 14:36:59.640591  5043 net.cpp:406] score7_slicer_conv_6_split <- score7
I0729 14:36:59.640601  5043 net.cpp:380] score7_slicer_conv_6_split -> score7_slicer_conv_6_split_0
I0729 14:36:59.640614  5043 net.cpp:380] score7_slicer_conv_6_split -> score7_slicer_conv_6_split_1
I0729 14:36:59.640666  5043 net.cpp:122] Setting up score7_slicer_conv_6_split
I0729 14:36:59.640672  5043 net.cpp:129] Top shape: 1 1 48 64 (3072)
I0729 14:36:59.640677  5043 net.cpp:129] Top shape: 1 1 48 64 (3072)
I0729 14:36:59.640681  5043 net.cpp:137] Memory required for data: 490131456
I0729 14:36:59.640683  5043 layer_factory.hpp:77] Creating layer score8_slicer_conv_7_split
I0729 14:36:59.640688  5043 net.cpp:84] Creating Layer score8_slicer_conv_7_split
I0729 14:36:59.640692  5043 net.cpp:406] score8_slicer_conv_7_split <- score8
I0729 14:36:59.640697  5043 net.cpp:380] score8_slicer_conv_7_split -> score8_slicer_conv_7_split_0
I0729 14:36:59.640702  5043 net.cpp:380] score8_slicer_conv_7_split -> score8_slicer_conv_7_split_1
I0729 14:36:59.640749  5043 net.cpp:122] Setting up score8_slicer_conv_7_split
I0729 14:36:59.640755  5043 net.cpp:129] Top shape: 1 1 48 64 (3072)
I0729 14:36:59.640759  5043 net.cpp:129] Top shape: 1 1 48 64 (3072)
I0729 14:36:59.640763  5043 net.cpp:137] Memory required for data: 490156032
I0729 14:36:59.640766  5043 layer_factory.hpp:77] Creating layer score9_slicer_conv_8_split
I0729 14:36:59.640770  5043 net.cpp:84] Creating Layer score9_slicer_conv_8_split
I0729 14:36:59.640774  5043 net.cpp:406] score9_slicer_conv_8_split <- score9
I0729 14:36:59.640779  5043 net.cpp:380] score9_slicer_conv_8_split -> score9_slicer_conv_8_split_0
I0729 14:36:59.640785  5043 net.cpp:380] score9_slicer_conv_8_split -> score9_slicer_conv_8_split_1
I0729 14:36:59.640830  5043 net.cpp:122] Setting up score9_slicer_conv_8_split
I0729 14:36:59.640837  5043 net.cpp:129] Top shape: 1 1 48 64 (3072)
I0729 14:36:59.640841  5043 net.cpp:129] Top shape: 1 1 48 64 (3072)
I0729 14:36:59.640844  5043 net.cpp:137] Memory required for data: 490180608
I0729 14:36:59.640847  5043 layer_factory.hpp:77] Creating layer score10_slicer_conv_9_split
I0729 14:36:59.640853  5043 net.cpp:84] Creating Layer score10_slicer_conv_9_split
I0729 14:36:59.640859  5043 net.cpp:406] score10_slicer_conv_9_split <- score10
I0729 14:36:59.640864  5043 net.cpp:380] score10_slicer_conv_9_split -> score10_slicer_conv_9_split_0
I0729 14:36:59.640871  5043 net.cpp:380] score10_slicer_conv_9_split -> score10_slicer_conv_9_split_1
I0729 14:36:59.640918  5043 net.cpp:122] Setting up score10_slicer_conv_9_split
I0729 14:36:59.640924  5043 net.cpp:129] Top shape: 1 1 48 64 (3072)
I0729 14:36:59.640929  5043 net.cpp:129] Top shape: 1 1 48 64 (3072)
I0729 14:36:59.640934  5043 net.cpp:137] Memory required for data: 490205184
I0729 14:36:59.640938  5043 layer_factory.hpp:77] Creating layer score11_slicer_conv_10_split
I0729 14:36:59.640943  5043 net.cpp:84] Creating Layer score11_slicer_conv_10_split
I0729 14:36:59.640946  5043 net.cpp:406] score11_slicer_conv_10_split <- score11
I0729 14:36:59.640951  5043 net.cpp:380] score11_slicer_conv_10_split -> score11_slicer_conv_10_split_0
I0729 14:36:59.640959  5043 net.cpp:380] score11_slicer_conv_10_split -> score11_slicer_conv_10_split_1
I0729 14:36:59.641005  5043 net.cpp:122] Setting up score11_slicer_conv_10_split
I0729 14:36:59.641012  5043 net.cpp:129] Top shape: 1 1 48 64 (3072)
I0729 14:36:59.641016  5043 net.cpp:129] Top shape: 1 1 48 64 (3072)
I0729 14:36:59.641019  5043 net.cpp:137] Memory required for data: 490229760
I0729 14:36:59.641022  5043 layer_factory.hpp:77] Creating layer score12_slicer_conv_11_split
I0729 14:36:59.641028  5043 net.cpp:84] Creating Layer score12_slicer_conv_11_split
I0729 14:36:59.641033  5043 net.cpp:406] score12_slicer_conv_11_split <- score12
I0729 14:36:59.641038  5043 net.cpp:380] score12_slicer_conv_11_split -> score12_slicer_conv_11_split_0
I0729 14:36:59.641044  5043 net.cpp:380] score12_slicer_conv_11_split -> score12_slicer_conv_11_split_1
I0729 14:36:59.641093  5043 net.cpp:122] Setting up score12_slicer_conv_11_split
I0729 14:36:59.641099  5043 net.cpp:129] Top shape: 1 1 48 64 (3072)
I0729 14:36:59.641103  5043 net.cpp:129] Top shape: 1 1 48 64 (3072)
I0729 14:36:59.641113  5043 net.cpp:137] Memory required for data: 490254336
I0729 14:36:59.641118  5043 layer_factory.hpp:77] Creating layer score13_slicer_conv_12_split
I0729 14:36:59.641122  5043 net.cpp:84] Creating Layer score13_slicer_conv_12_split
I0729 14:36:59.641125  5043 net.cpp:406] score13_slicer_conv_12_split <- score13
I0729 14:36:59.641130  5043 net.cpp:380] score13_slicer_conv_12_split -> score13_slicer_conv_12_split_0
I0729 14:36:59.641136  5043 net.cpp:380] score13_slicer_conv_12_split -> score13_slicer_conv_12_split_1
I0729 14:36:59.641187  5043 net.cpp:122] Setting up score13_slicer_conv_12_split
I0729 14:36:59.641193  5043 net.cpp:129] Top shape: 1 1 48 64 (3072)
I0729 14:36:59.641197  5043 net.cpp:129] Top shape: 1 1 48 64 (3072)
I0729 14:36:59.641201  5043 net.cpp:137] Memory required for data: 490278912
I0729 14:36:59.641203  5043 layer_factory.hpp:77] Creating layer score14_slicer_conv_13_split
I0729 14:36:59.641208  5043 net.cpp:84] Creating Layer score14_slicer_conv_13_split
I0729 14:36:59.641211  5043 net.cpp:406] score14_slicer_conv_13_split <- score14
I0729 14:36:59.641217  5043 net.cpp:380] score14_slicer_conv_13_split -> score14_slicer_conv_13_split_0
I0729 14:36:59.641222  5043 net.cpp:380] score14_slicer_conv_13_split -> score14_slicer_conv_13_split_1
I0729 14:36:59.641271  5043 net.cpp:122] Setting up score14_slicer_conv_13_split
I0729 14:36:59.641278  5043 net.cpp:129] Top shape: 1 1 48 64 (3072)
I0729 14:36:59.641281  5043 net.cpp:129] Top shape: 1 1 48 64 (3072)
I0729 14:36:59.641283  5043 net.cpp:137] Memory required for data: 490303488
I0729 14:36:59.641288  5043 layer_factory.hpp:77] Creating layer score15_slicer_conv_14_split
I0729 14:36:59.641291  5043 net.cpp:84] Creating Layer score15_slicer_conv_14_split
I0729 14:36:59.641295  5043 net.cpp:406] score15_slicer_conv_14_split <- score15
I0729 14:36:59.641300  5043 net.cpp:380] score15_slicer_conv_14_split -> score15_slicer_conv_14_split_0
I0729 14:36:59.641310  5043 net.cpp:380] score15_slicer_conv_14_split -> score15_slicer_conv_14_split_1
I0729 14:36:59.641358  5043 net.cpp:122] Setting up score15_slicer_conv_14_split
I0729 14:36:59.641366  5043 net.cpp:129] Top shape: 1 1 48 64 (3072)
I0729 14:36:59.641369  5043 net.cpp:129] Top shape: 1 1 48 64 (3072)
I0729 14:36:59.641372  5043 net.cpp:137] Memory required for data: 490328064
I0729 14:36:59.641376  5043 layer_factory.hpp:77] Creating layer score16_slicer_conv_15_split
I0729 14:36:59.641381  5043 net.cpp:84] Creating Layer score16_slicer_conv_15_split
I0729 14:36:59.641383  5043 net.cpp:406] score16_slicer_conv_15_split <- score16
I0729 14:36:59.641389  5043 net.cpp:380] score16_slicer_conv_15_split -> score16_slicer_conv_15_split_0
I0729 14:36:59.641396  5043 net.cpp:380] score16_slicer_conv_15_split -> score16_slicer_conv_15_split_1
I0729 14:36:59.641441  5043 net.cpp:122] Setting up score16_slicer_conv_15_split
I0729 14:36:59.641448  5043 net.cpp:129] Top shape: 1 1 48 64 (3072)
I0729 14:36:59.641451  5043 net.cpp:129] Top shape: 1 1 48 64 (3072)
I0729 14:36:59.641454  5043 net.cpp:137] Memory required for data: 490352640
I0729 14:36:59.641458  5043 layer_factory.hpp:77] Creating layer score17_slicer_conv_16_split
I0729 14:36:59.641463  5043 net.cpp:84] Creating Layer score17_slicer_conv_16_split
I0729 14:36:59.641468  5043 net.cpp:406] score17_slicer_conv_16_split <- score17
I0729 14:36:59.641471  5043 net.cpp:380] score17_slicer_conv_16_split -> score17_slicer_conv_16_split_0
I0729 14:36:59.641476  5043 net.cpp:380] score17_slicer_conv_16_split -> score17_slicer_conv_16_split_1
I0729 14:36:59.641523  5043 net.cpp:122] Setting up score17_slicer_conv_16_split
I0729 14:36:59.641530  5043 net.cpp:129] Top shape: 1 1 48 64 (3072)
I0729 14:36:59.641535  5043 net.cpp:129] Top shape: 1 1 48 64 (3072)
I0729 14:36:59.641537  5043 net.cpp:137] Memory required for data: 490377216
I0729 14:36:59.641541  5043 layer_factory.hpp:77] Creating layer score18_slicer_conv_17_split
I0729 14:36:59.641546  5043 net.cpp:84] Creating Layer score18_slicer_conv_17_split
I0729 14:36:59.641557  5043 net.cpp:406] score18_slicer_conv_17_split <- score18
I0729 14:36:59.641562  5043 net.cpp:380] score18_slicer_conv_17_split -> score18_slicer_conv_17_split_0
I0729 14:36:59.641569  5043 net.cpp:380] score18_slicer_conv_17_split -> score18_slicer_conv_17_split_1
I0729 14:36:59.641618  5043 net.cpp:122] Setting up score18_slicer_conv_17_split
I0729 14:36:59.641624  5043 net.cpp:129] Top shape: 1 1 48 64 (3072)
I0729 14:36:59.641628  5043 net.cpp:129] Top shape: 1 1 48 64 (3072)
I0729 14:36:59.641631  5043 net.cpp:137] Memory required for data: 490401792
I0729 14:36:59.641634  5043 layer_factory.hpp:77] Creating layer score19_slicer_conv_18_split
I0729 14:36:59.641640  5043 net.cpp:84] Creating Layer score19_slicer_conv_18_split
I0729 14:36:59.641644  5043 net.cpp:406] score19_slicer_conv_18_split <- score19
I0729 14:36:59.641649  5043 net.cpp:380] score19_slicer_conv_18_split -> score19_slicer_conv_18_split_0
I0729 14:36:59.641654  5043 net.cpp:380] score19_slicer_conv_18_split -> score19_slicer_conv_18_split_1
I0729 14:36:59.641702  5043 net.cpp:122] Setting up score19_slicer_conv_18_split
I0729 14:36:59.641708  5043 net.cpp:129] Top shape: 1 1 48 64 (3072)
I0729 14:36:59.641712  5043 net.cpp:129] Top shape: 1 1 48 64 (3072)
I0729 14:36:59.641716  5043 net.cpp:137] Memory required for data: 490426368
I0729 14:36:59.641718  5043 layer_factory.hpp:77] Creating layer score20_slicer_conv_19_split
I0729 14:36:59.641722  5043 net.cpp:84] Creating Layer score20_slicer_conv_19_split
I0729 14:36:59.641726  5043 net.cpp:406] score20_slicer_conv_19_split <- score20
I0729 14:36:59.641731  5043 net.cpp:380] score20_slicer_conv_19_split -> score20_slicer_conv_19_split_0
I0729 14:36:59.641737  5043 net.cpp:380] score20_slicer_conv_19_split -> score20_slicer_conv_19_split_1
I0729 14:36:59.641785  5043 net.cpp:122] Setting up score20_slicer_conv_19_split
I0729 14:36:59.641791  5043 net.cpp:129] Top shape: 1 1 48 64 (3072)
I0729 14:36:59.641795  5043 net.cpp:129] Top shape: 1 1 48 64 (3072)
I0729 14:36:59.641798  5043 net.cpp:137] Memory required for data: 490450944
I0729 14:36:59.641801  5043 layer_factory.hpp:77] Creating layer score21_slicer_conv_20_split
I0729 14:36:59.641806  5043 net.cpp:84] Creating Layer score21_slicer_conv_20_split
I0729 14:36:59.641809  5043 net.cpp:406] score21_slicer_conv_20_split <- score21
I0729 14:36:59.641815  5043 net.cpp:380] score21_slicer_conv_20_split -> score21_slicer_conv_20_split_0
I0729 14:36:59.641821  5043 net.cpp:380] score21_slicer_conv_20_split -> score21_slicer_conv_20_split_1
I0729 14:36:59.641868  5043 net.cpp:122] Setting up score21_slicer_conv_20_split
I0729 14:36:59.641875  5043 net.cpp:129] Top shape: 1 1 48 64 (3072)
I0729 14:36:59.641877  5043 net.cpp:129] Top shape: 1 1 48 64 (3072)
I0729 14:36:59.641880  5043 net.cpp:137] Memory required for data: 490475520
I0729 14:36:59.641885  5043 layer_factory.hpp:77] Creating layer score22_slicer_conv_21_split
I0729 14:36:59.641888  5043 net.cpp:84] Creating Layer score22_slicer_conv_21_split
I0729 14:36:59.641892  5043 net.cpp:406] score22_slicer_conv_21_split <- score22
I0729 14:36:59.641897  5043 net.cpp:380] score22_slicer_conv_21_split -> score22_slicer_conv_21_split_0
I0729 14:36:59.641903  5043 net.cpp:380] score22_slicer_conv_21_split -> score22_slicer_conv_21_split_1
I0729 14:36:59.641949  5043 net.cpp:122] Setting up score22_slicer_conv_21_split
I0729 14:36:59.641955  5043 net.cpp:129] Top shape: 1 1 48 64 (3072)
I0729 14:36:59.641959  5043 net.cpp:129] Top shape: 1 1 48 64 (3072)
I0729 14:36:59.641963  5043 net.cpp:137] Memory required for data: 490500096
I0729 14:36:59.641965  5043 layer_factory.hpp:77] Creating layer score23_slicer_conv_22_split
I0729 14:36:59.641971  5043 net.cpp:84] Creating Layer score23_slicer_conv_22_split
I0729 14:36:59.641974  5043 net.cpp:406] score23_slicer_conv_22_split <- score23
I0729 14:36:59.641980  5043 net.cpp:380] score23_slicer_conv_22_split -> score23_slicer_conv_22_split_0
I0729 14:36:59.641986  5043 net.cpp:380] score23_slicer_conv_22_split -> score23_slicer_conv_22_split_1
I0729 14:36:59.642045  5043 net.cpp:122] Setting up score23_slicer_conv_22_split
I0729 14:36:59.642050  5043 net.cpp:129] Top shape: 1 1 48 64 (3072)
I0729 14:36:59.642055  5043 net.cpp:129] Top shape: 1 1 48 64 (3072)
I0729 14:36:59.642057  5043 net.cpp:137] Memory required for data: 490524672
I0729 14:36:59.642061  5043 layer_factory.hpp:77] Creating layer score24_slicer_conv_23_split
I0729 14:36:59.642066  5043 net.cpp:84] Creating Layer score24_slicer_conv_23_split
I0729 14:36:59.642069  5043 net.cpp:406] score24_slicer_conv_23_split <- score24
I0729 14:36:59.642074  5043 net.cpp:380] score24_slicer_conv_23_split -> score24_slicer_conv_23_split_0
I0729 14:36:59.642079  5043 net.cpp:380] score24_slicer_conv_23_split -> score24_slicer_conv_23_split_1
I0729 14:36:59.642127  5043 net.cpp:122] Setting up score24_slicer_conv_23_split
I0729 14:36:59.642133  5043 net.cpp:129] Top shape: 1 1 48 64 (3072)
I0729 14:36:59.642138  5043 net.cpp:129] Top shape: 1 1 48 64 (3072)
I0729 14:36:59.642140  5043 net.cpp:137] Memory required for data: 490549248
I0729 14:36:59.642143  5043 layer_factory.hpp:77] Creating layer score25_slicer_conv_24_split
I0729 14:36:59.642148  5043 net.cpp:84] Creating Layer score25_slicer_conv_24_split
I0729 14:36:59.642151  5043 net.cpp:406] score25_slicer_conv_24_split <- score25
I0729 14:36:59.642158  5043 net.cpp:380] score25_slicer_conv_24_split -> score25_slicer_conv_24_split_0
I0729 14:36:59.642163  5043 net.cpp:380] score25_slicer_conv_24_split -> score25_slicer_conv_24_split_1
I0729 14:36:59.642208  5043 net.cpp:122] Setting up score25_slicer_conv_24_split
I0729 14:36:59.642215  5043 net.cpp:129] Top shape: 1 1 48 64 (3072)
I0729 14:36:59.642218  5043 net.cpp:129] Top shape: 1 1 48 64 (3072)
I0729 14:36:59.642221  5043 net.cpp:137] Memory required for data: 490573824
I0729 14:36:59.642225  5043 layer_factory.hpp:77] Creating layer score26_slicer_conv_25_split
I0729 14:36:59.642233  5043 net.cpp:84] Creating Layer score26_slicer_conv_25_split
I0729 14:36:59.642237  5043 net.cpp:406] score26_slicer_conv_25_split <- score26
I0729 14:36:59.642241  5043 net.cpp:380] score26_slicer_conv_25_split -> score26_slicer_conv_25_split_0
I0729 14:36:59.642247  5043 net.cpp:380] score26_slicer_conv_25_split -> score26_slicer_conv_25_split_1
I0729 14:36:59.642294  5043 net.cpp:122] Setting up score26_slicer_conv_25_split
I0729 14:36:59.642302  5043 net.cpp:129] Top shape: 1 1 48 64 (3072)
I0729 14:36:59.642304  5043 net.cpp:129] Top shape: 1 1 48 64 (3072)
I0729 14:36:59.642307  5043 net.cpp:137] Memory required for data: 490598400
I0729 14:36:59.642312  5043 layer_factory.hpp:77] Creating layer score27_slicer_conv_26_split
I0729 14:36:59.642315  5043 net.cpp:84] Creating Layer score27_slicer_conv_26_split
I0729 14:36:59.642319  5043 net.cpp:406] score27_slicer_conv_26_split <- score27
I0729 14:36:59.642324  5043 net.cpp:380] score27_slicer_conv_26_split -> score27_slicer_conv_26_split_0
I0729 14:36:59.642330  5043 net.cpp:380] score27_slicer_conv_26_split -> score27_slicer_conv_26_split_1
I0729 14:36:59.642377  5043 net.cpp:122] Setting up score27_slicer_conv_26_split
I0729 14:36:59.642383  5043 net.cpp:129] Top shape: 1 1 48 64 (3072)
I0729 14:36:59.642386  5043 net.cpp:129] Top shape: 1 1 48 64 (3072)
I0729 14:36:59.642390  5043 net.cpp:137] Memory required for data: 490622976
I0729 14:36:59.642393  5043 layer_factory.hpp:77] Creating layer score28_slicer_conv_27_split
I0729 14:36:59.642398  5043 net.cpp:84] Creating Layer score28_slicer_conv_27_split
I0729 14:36:59.642402  5043 net.cpp:406] score28_slicer_conv_27_split <- score28
I0729 14:36:59.642407  5043 net.cpp:380] score28_slicer_conv_27_split -> score28_slicer_conv_27_split_0
I0729 14:36:59.642413  5043 net.cpp:380] score28_slicer_conv_27_split -> score28_slicer_conv_27_split_1
I0729 14:36:59.642460  5043 net.cpp:122] Setting up score28_slicer_conv_27_split
I0729 14:36:59.642467  5043 net.cpp:129] Top shape: 1 1 48 64 (3072)
I0729 14:36:59.642470  5043 net.cpp:129] Top shape: 1 1 48 64 (3072)
I0729 14:36:59.642473  5043 net.cpp:137] Memory required for data: 490647552
I0729 14:36:59.642487  5043 layer_factory.hpp:77] Creating layer score29_slicer_conv_28_split
I0729 14:36:59.642498  5043 net.cpp:84] Creating Layer score29_slicer_conv_28_split
I0729 14:36:59.642503  5043 net.cpp:406] score29_slicer_conv_28_split <- score29
I0729 14:36:59.642508  5043 net.cpp:380] score29_slicer_conv_28_split -> score29_slicer_conv_28_split_0
I0729 14:36:59.642514  5043 net.cpp:380] score29_slicer_conv_28_split -> score29_slicer_conv_28_split_1
I0729 14:36:59.642563  5043 net.cpp:122] Setting up score29_slicer_conv_28_split
I0729 14:36:59.642570  5043 net.cpp:129] Top shape: 1 1 48 64 (3072)
I0729 14:36:59.642573  5043 net.cpp:129] Top shape: 1 1 48 64 (3072)
I0729 14:36:59.642576  5043 net.cpp:137] Memory required for data: 490672128
I0729 14:36:59.642580  5043 layer_factory.hpp:77] Creating layer score30_slicer_conv_29_split
I0729 14:36:59.642585  5043 net.cpp:84] Creating Layer score30_slicer_conv_29_split
I0729 14:36:59.642588  5043 net.cpp:406] score30_slicer_conv_29_split <- score30
I0729 14:36:59.642596  5043 net.cpp:380] score30_slicer_conv_29_split -> score30_slicer_conv_29_split_0
I0729 14:36:59.642601  5043 net.cpp:380] score30_slicer_conv_29_split -> score30_slicer_conv_29_split_1
I0729 14:36:59.642647  5043 net.cpp:122] Setting up score30_slicer_conv_29_split
I0729 14:36:59.642653  5043 net.cpp:129] Top shape: 1 1 48 64 (3072)
I0729 14:36:59.642657  5043 net.cpp:129] Top shape: 1 1 48 64 (3072)
I0729 14:36:59.642660  5043 net.cpp:137] Memory required for data: 490696704
I0729 14:36:59.642663  5043 layer_factory.hpp:77] Creating layer score31_slicer_conv_30_split
I0729 14:36:59.642669  5043 net.cpp:84] Creating Layer score31_slicer_conv_30_split
I0729 14:36:59.642673  5043 net.cpp:406] score31_slicer_conv_30_split <- score31
I0729 14:36:59.642678  5043 net.cpp:380] score31_slicer_conv_30_split -> score31_slicer_conv_30_split_0
I0729 14:36:59.642683  5043 net.cpp:380] score31_slicer_conv_30_split -> score31_slicer_conv_30_split_1
I0729 14:36:59.642731  5043 net.cpp:122] Setting up score31_slicer_conv_30_split
I0729 14:36:59.642737  5043 net.cpp:129] Top shape: 1 1 48 64 (3072)
I0729 14:36:59.642741  5043 net.cpp:129] Top shape: 1 1 48 64 (3072)
I0729 14:36:59.642745  5043 net.cpp:137] Memory required for data: 490721280
I0729 14:36:59.642747  5043 layer_factory.hpp:77] Creating layer score32_slicer_conv_31_split
I0729 14:36:59.642752  5043 net.cpp:84] Creating Layer score32_slicer_conv_31_split
I0729 14:36:59.642756  5043 net.cpp:406] score32_slicer_conv_31_split <- score32
I0729 14:36:59.642760  5043 net.cpp:380] score32_slicer_conv_31_split -> score32_slicer_conv_31_split_0
I0729 14:36:59.642767  5043 net.cpp:380] score32_slicer_conv_31_split -> score32_slicer_conv_31_split_1
I0729 14:36:59.642814  5043 net.cpp:122] Setting up score32_slicer_conv_31_split
I0729 14:36:59.642820  5043 net.cpp:129] Top shape: 1 1 48 64 (3072)
I0729 14:36:59.642824  5043 net.cpp:129] Top shape: 1 1 48 64 (3072)
I0729 14:36:59.642827  5043 net.cpp:137] Memory required for data: 490745856
I0729 14:36:59.642830  5043 layer_factory.hpp:77] Creating layer score33_slicer_conv_32_split
I0729 14:36:59.642838  5043 net.cpp:84] Creating Layer score33_slicer_conv_32_split
I0729 14:36:59.642840  5043 net.cpp:406] score33_slicer_conv_32_split <- score33
I0729 14:36:59.642845  5043 net.cpp:380] score33_slicer_conv_32_split -> score33_slicer_conv_32_split_0
I0729 14:36:59.642851  5043 net.cpp:380] score33_slicer_conv_32_split -> score33_slicer_conv_32_split_1
I0729 14:36:59.642899  5043 net.cpp:122] Setting up score33_slicer_conv_32_split
I0729 14:36:59.642905  5043 net.cpp:129] Top shape: 1 1 48 64 (3072)
I0729 14:36:59.642909  5043 net.cpp:129] Top shape: 1 1 48 64 (3072)
I0729 14:36:59.642911  5043 net.cpp:137] Memory required for data: 490770432
I0729 14:36:59.642915  5043 layer_factory.hpp:77] Creating layer score34_slicer_conv_33_split
I0729 14:36:59.642920  5043 net.cpp:84] Creating Layer score34_slicer_conv_33_split
I0729 14:36:59.642923  5043 net.cpp:406] score34_slicer_conv_33_split <- score34
I0729 14:36:59.642935  5043 net.cpp:380] score34_slicer_conv_33_split -> score34_slicer_conv_33_split_0
I0729 14:36:59.642942  5043 net.cpp:380] score34_slicer_conv_33_split -> score34_slicer_conv_33_split_1
I0729 14:36:59.642992  5043 net.cpp:122] Setting up score34_slicer_conv_33_split
I0729 14:36:59.642999  5043 net.cpp:129] Top shape: 1 1 48 64 (3072)
I0729 14:36:59.643002  5043 net.cpp:129] Top shape: 1 1 48 64 (3072)
I0729 14:36:59.643005  5043 net.cpp:137] Memory required for data: 490795008
I0729 14:36:59.643009  5043 layer_factory.hpp:77] Creating layer score35_slicer_conv_34_split
I0729 14:36:59.643013  5043 net.cpp:84] Creating Layer score35_slicer_conv_34_split
I0729 14:36:59.643018  5043 net.cpp:406] score35_slicer_conv_34_split <- score35
I0729 14:36:59.643024  5043 net.cpp:380] score35_slicer_conv_34_split -> score35_slicer_conv_34_split_0
I0729 14:36:59.643030  5043 net.cpp:380] score35_slicer_conv_34_split -> score35_slicer_conv_34_split_1
I0729 14:36:59.643079  5043 net.cpp:122] Setting up score35_slicer_conv_34_split
I0729 14:36:59.643085  5043 net.cpp:129] Top shape: 1 1 48 64 (3072)
I0729 14:36:59.643090  5043 net.cpp:129] Top shape: 1 1 48 64 (3072)
I0729 14:36:59.643091  5043 net.cpp:137] Memory required for data: 490819584
I0729 14:36:59.643095  5043 layer_factory.hpp:77] Creating layer score36_slicer_conv_35_split
I0729 14:36:59.643100  5043 net.cpp:84] Creating Layer score36_slicer_conv_35_split
I0729 14:36:59.643103  5043 net.cpp:406] score36_slicer_conv_35_split <- score36
I0729 14:36:59.643108  5043 net.cpp:380] score36_slicer_conv_35_split -> score36_slicer_conv_35_split_0
I0729 14:36:59.643113  5043 net.cpp:380] score36_slicer_conv_35_split -> score36_slicer_conv_35_split_1
I0729 14:36:59.643160  5043 net.cpp:122] Setting up score36_slicer_conv_35_split
I0729 14:36:59.643167  5043 net.cpp:129] Top shape: 1 1 48 64 (3072)
I0729 14:36:59.643170  5043 net.cpp:129] Top shape: 1 1 48 64 (3072)
I0729 14:36:59.643173  5043 net.cpp:137] Memory required for data: 490844160
I0729 14:36:59.643177  5043 layer_factory.hpp:77] Creating layer score37_slicer_conv_36_split
I0729 14:36:59.643182  5043 net.cpp:84] Creating Layer score37_slicer_conv_36_split
I0729 14:36:59.643185  5043 net.cpp:406] score37_slicer_conv_36_split <- score37
I0729 14:36:59.643191  5043 net.cpp:380] score37_slicer_conv_36_split -> score37_slicer_conv_36_split_0
I0729 14:36:59.643198  5043 net.cpp:380] score37_slicer_conv_36_split -> score37_slicer_conv_36_split_1
I0729 14:36:59.643244  5043 net.cpp:122] Setting up score37_slicer_conv_36_split
I0729 14:36:59.643249  5043 net.cpp:129] Top shape: 1 1 48 64 (3072)
I0729 14:36:59.643254  5043 net.cpp:129] Top shape: 1 1 48 64 (3072)
I0729 14:36:59.643255  5043 net.cpp:137] Memory required for data: 490868736
I0729 14:36:59.643260  5043 layer_factory.hpp:77] Creating layer score38_slicer_conv_37_split
I0729 14:36:59.643265  5043 net.cpp:84] Creating Layer score38_slicer_conv_37_split
I0729 14:36:59.643268  5043 net.cpp:406] score38_slicer_conv_37_split <- score38
I0729 14:36:59.643273  5043 net.cpp:380] score38_slicer_conv_37_split -> score38_slicer_conv_37_split_0
I0729 14:36:59.643280  5043 net.cpp:380] score38_slicer_conv_37_split -> score38_slicer_conv_37_split_1
I0729 14:36:59.643326  5043 net.cpp:122] Setting up score38_slicer_conv_37_split
I0729 14:36:59.643332  5043 net.cpp:129] Top shape: 1 1 48 64 (3072)
I0729 14:36:59.643337  5043 net.cpp:129] Top shape: 1 1 48 64 (3072)
I0729 14:36:59.643339  5043 net.cpp:137] Memory required for data: 490893312
I0729 14:36:59.643342  5043 layer_factory.hpp:77] Creating layer score39_slicer_conv_38_split
I0729 14:36:59.643347  5043 net.cpp:84] Creating Layer score39_slicer_conv_38_split
I0729 14:36:59.643350  5043 net.cpp:406] score39_slicer_conv_38_split <- score39
I0729 14:36:59.643354  5043 net.cpp:380] score39_slicer_conv_38_split -> score39_slicer_conv_38_split_0
I0729 14:36:59.643362  5043 net.cpp:380] score39_slicer_conv_38_split -> score39_slicer_conv_38_split_1
I0729 14:36:59.643406  5043 net.cpp:122] Setting up score39_slicer_conv_38_split
I0729 14:36:59.643420  5043 net.cpp:129] Top shape: 1 1 48 64 (3072)
I0729 14:36:59.643424  5043 net.cpp:129] Top shape: 1 1 48 64 (3072)
I0729 14:36:59.643427  5043 net.cpp:137] Memory required for data: 490917888
I0729 14:36:59.643430  5043 layer_factory.hpp:77] Creating layer score40_slicer_conv_39_split
I0729 14:36:59.643437  5043 net.cpp:84] Creating Layer score40_slicer_conv_39_split
I0729 14:36:59.643441  5043 net.cpp:406] score40_slicer_conv_39_split <- score40
I0729 14:36:59.643445  5043 net.cpp:380] score40_slicer_conv_39_split -> score40_slicer_conv_39_split_0
I0729 14:36:59.643451  5043 net.cpp:380] score40_slicer_conv_39_split -> score40_slicer_conv_39_split_1
I0729 14:36:59.643502  5043 net.cpp:122] Setting up score40_slicer_conv_39_split
I0729 14:36:59.643508  5043 net.cpp:129] Top shape: 1 1 48 64 (3072)
I0729 14:36:59.643512  5043 net.cpp:129] Top shape: 1 1 48 64 (3072)
I0729 14:36:59.643515  5043 net.cpp:137] Memory required for data: 490942464
I0729 14:36:59.643518  5043 layer_factory.hpp:77] Creating layer score41_slicer_conv_40_split
I0729 14:36:59.643524  5043 net.cpp:84] Creating Layer score41_slicer_conv_40_split
I0729 14:36:59.643528  5043 net.cpp:406] score41_slicer_conv_40_split <- score41
I0729 14:36:59.643533  5043 net.cpp:380] score41_slicer_conv_40_split -> score41_slicer_conv_40_split_0
I0729 14:36:59.643538  5043 net.cpp:380] score41_slicer_conv_40_split -> score41_slicer_conv_40_split_1
I0729 14:36:59.643585  5043 net.cpp:122] Setting up score41_slicer_conv_40_split
I0729 14:36:59.643591  5043 net.cpp:129] Top shape: 1 1 48 64 (3072)
I0729 14:36:59.643595  5043 net.cpp:129] Top shape: 1 1 48 64 (3072)
I0729 14:36:59.643599  5043 net.cpp:137] Memory required for data: 490967040
I0729 14:36:59.643601  5043 layer_factory.hpp:77] Creating layer score42_slicer_conv_41_split
I0729 14:36:59.643606  5043 net.cpp:84] Creating Layer score42_slicer_conv_41_split
I0729 14:36:59.643610  5043 net.cpp:406] score42_slicer_conv_41_split <- score42
I0729 14:36:59.643615  5043 net.cpp:380] score42_slicer_conv_41_split -> score42_slicer_conv_41_split_0
I0729 14:36:59.643620  5043 net.cpp:380] score42_slicer_conv_41_split -> score42_slicer_conv_41_split_1
I0729 14:36:59.643667  5043 net.cpp:122] Setting up score42_slicer_conv_41_split
I0729 14:36:59.643673  5043 net.cpp:129] Top shape: 1 1 48 64 (3072)
I0729 14:36:59.643677  5043 net.cpp:129] Top shape: 1 1 48 64 (3072)
I0729 14:36:59.643681  5043 net.cpp:137] Memory required for data: 490991616
I0729 14:36:59.643683  5043 layer_factory.hpp:77] Creating layer score43_slicer_conv_42_split
I0729 14:36:59.643687  5043 net.cpp:84] Creating Layer score43_slicer_conv_42_split
I0729 14:36:59.643692  5043 net.cpp:406] score43_slicer_conv_42_split <- score43
I0729 14:36:59.643697  5043 net.cpp:380] score43_slicer_conv_42_split -> score43_slicer_conv_42_split_0
I0729 14:36:59.643702  5043 net.cpp:380] score43_slicer_conv_42_split -> score43_slicer_conv_42_split_1
I0729 14:36:59.643748  5043 net.cpp:122] Setting up score43_slicer_conv_42_split
I0729 14:36:59.643754  5043 net.cpp:129] Top shape: 1 1 48 64 (3072)
I0729 14:36:59.643759  5043 net.cpp:129] Top shape: 1 1 48 64 (3072)
I0729 14:36:59.643761  5043 net.cpp:137] Memory required for data: 491016192
I0729 14:36:59.643764  5043 layer_factory.hpp:77] Creating layer score44_slicer_conv_43_split
I0729 14:36:59.643769  5043 net.cpp:84] Creating Layer score44_slicer_conv_43_split
I0729 14:36:59.643772  5043 net.cpp:406] score44_slicer_conv_43_split <- score44
I0729 14:36:59.643779  5043 net.cpp:380] score44_slicer_conv_43_split -> score44_slicer_conv_43_split_0
I0729 14:36:59.643784  5043 net.cpp:380] score44_slicer_conv_43_split -> score44_slicer_conv_43_split_1
I0729 14:36:59.643833  5043 net.cpp:122] Setting up score44_slicer_conv_43_split
I0729 14:36:59.643839  5043 net.cpp:129] Top shape: 1 1 48 64 (3072)
I0729 14:36:59.643843  5043 net.cpp:129] Top shape: 1 1 48 64 (3072)
I0729 14:36:59.643846  5043 net.cpp:137] Memory required for data: 491040768
I0729 14:36:59.643849  5043 layer_factory.hpp:77] Creating layer score45_slicer_conv_44_split
I0729 14:36:59.643862  5043 net.cpp:84] Creating Layer score45_slicer_conv_44_split
I0729 14:36:59.643865  5043 net.cpp:406] score45_slicer_conv_44_split <- score45
I0729 14:36:59.643869  5043 net.cpp:380] score45_slicer_conv_44_split -> score45_slicer_conv_44_split_0
I0729 14:36:59.643875  5043 net.cpp:380] score45_slicer_conv_44_split -> score45_slicer_conv_44_split_1
I0729 14:36:59.643925  5043 net.cpp:122] Setting up score45_slicer_conv_44_split
I0729 14:36:59.643931  5043 net.cpp:129] Top shape: 1 1 48 64 (3072)
I0729 14:36:59.643935  5043 net.cpp:129] Top shape: 1 1 48 64 (3072)
I0729 14:36:59.643939  5043 net.cpp:137] Memory required for data: 491065344
I0729 14:36:59.643941  5043 layer_factory.hpp:77] Creating layer score46_slicer_conv_45_split
I0729 14:36:59.643945  5043 net.cpp:84] Creating Layer score46_slicer_conv_45_split
I0729 14:36:59.643949  5043 net.cpp:406] score46_slicer_conv_45_split <- score46
I0729 14:36:59.643954  5043 net.cpp:380] score46_slicer_conv_45_split -> score46_slicer_conv_45_split_0
I0729 14:36:59.643960  5043 net.cpp:380] score46_slicer_conv_45_split -> score46_slicer_conv_45_split_1
I0729 14:36:59.644006  5043 net.cpp:122] Setting up score46_slicer_conv_45_split
I0729 14:36:59.644011  5043 net.cpp:129] Top shape: 1 1 48 64 (3072)
I0729 14:36:59.644016  5043 net.cpp:129] Top shape: 1 1 48 64 (3072)
I0729 14:36:59.644018  5043 net.cpp:137] Memory required for data: 491089920
I0729 14:36:59.644021  5043 layer_factory.hpp:77] Creating layer score47_slicer_conv_46_split
I0729 14:36:59.644027  5043 net.cpp:84] Creating Layer score47_slicer_conv_46_split
I0729 14:36:59.644032  5043 net.cpp:406] score47_slicer_conv_46_split <- score47
I0729 14:36:59.644035  5043 net.cpp:380] score47_slicer_conv_46_split -> score47_slicer_conv_46_split_0
I0729 14:36:59.644042  5043 net.cpp:380] score47_slicer_conv_46_split -> score47_slicer_conv_46_split_1
I0729 14:36:59.644088  5043 net.cpp:122] Setting up score47_slicer_conv_46_split
I0729 14:36:59.644094  5043 net.cpp:129] Top shape: 1 1 48 64 (3072)
I0729 14:36:59.644098  5043 net.cpp:129] Top shape: 1 1 48 64 (3072)
I0729 14:36:59.644101  5043 net.cpp:137] Memory required for data: 491114496
I0729 14:36:59.644104  5043 layer_factory.hpp:77] Creating layer score48_slicer_conv_47_split
I0729 14:36:59.644109  5043 net.cpp:84] Creating Layer score48_slicer_conv_47_split
I0729 14:36:59.644112  5043 net.cpp:406] score48_slicer_conv_47_split <- score48
I0729 14:36:59.644117  5043 net.cpp:380] score48_slicer_conv_47_split -> score48_slicer_conv_47_split_0
I0729 14:36:59.644124  5043 net.cpp:380] score48_slicer_conv_47_split -> score48_slicer_conv_47_split_1
I0729 14:36:59.644170  5043 net.cpp:122] Setting up score48_slicer_conv_47_split
I0729 14:36:59.644176  5043 net.cpp:129] Top shape: 1 1 48 64 (3072)
I0729 14:36:59.644179  5043 net.cpp:129] Top shape: 1 1 48 64 (3072)
I0729 14:36:59.644182  5043 net.cpp:137] Memory required for data: 491139072
I0729 14:36:59.644186  5043 layer_factory.hpp:77] Creating layer score49_slicer_conv_48_split
I0729 14:36:59.644191  5043 net.cpp:84] Creating Layer score49_slicer_conv_48_split
I0729 14:36:59.644196  5043 net.cpp:406] score49_slicer_conv_48_split <- score49
I0729 14:36:59.644201  5043 net.cpp:380] score49_slicer_conv_48_split -> score49_slicer_conv_48_split_0
I0729 14:36:59.644206  5043 net.cpp:380] score49_slicer_conv_48_split -> score49_slicer_conv_48_split_1
I0729 14:36:59.644253  5043 net.cpp:122] Setting up score49_slicer_conv_48_split
I0729 14:36:59.644258  5043 net.cpp:129] Top shape: 1 1 48 64 (3072)
I0729 14:36:59.644263  5043 net.cpp:129] Top shape: 1 1 48 64 (3072)
I0729 14:36:59.644265  5043 net.cpp:137] Memory required for data: 491163648
I0729 14:36:59.644268  5043 layer_factory.hpp:77] Creating layer score50_slicer_conv_49_split
I0729 14:36:59.644273  5043 net.cpp:84] Creating Layer score50_slicer_conv_49_split
I0729 14:36:59.644276  5043 net.cpp:406] score50_slicer_conv_49_split <- score50
I0729 14:36:59.644281  5043 net.cpp:380] score50_slicer_conv_49_split -> score50_slicer_conv_49_split_0
I0729 14:36:59.644294  5043 net.cpp:380] score50_slicer_conv_49_split -> score50_slicer_conv_49_split_1
I0729 14:36:59.644345  5043 net.cpp:122] Setting up score50_slicer_conv_49_split
I0729 14:36:59.644351  5043 net.cpp:129] Top shape: 1 1 48 64 (3072)
I0729 14:36:59.644354  5043 net.cpp:129] Top shape: 1 1 48 64 (3072)
I0729 14:36:59.644357  5043 net.cpp:137] Memory required for data: 491188224
I0729 14:36:59.644361  5043 layer_factory.hpp:77] Creating layer score51_slicer_conv_50_split
I0729 14:36:59.644366  5043 net.cpp:84] Creating Layer score51_slicer_conv_50_split
I0729 14:36:59.644369  5043 net.cpp:406] score51_slicer_conv_50_split <- score51
I0729 14:36:59.644374  5043 net.cpp:380] score51_slicer_conv_50_split -> score51_slicer_conv_50_split_0
I0729 14:36:59.644381  5043 net.cpp:380] score51_slicer_conv_50_split -> score51_slicer_conv_50_split_1
I0729 14:36:59.644428  5043 net.cpp:122] Setting up score51_slicer_conv_50_split
I0729 14:36:59.644434  5043 net.cpp:129] Top shape: 1 1 48 64 (3072)
I0729 14:36:59.644438  5043 net.cpp:129] Top shape: 1 1 48 64 (3072)
I0729 14:36:59.644440  5043 net.cpp:137] Memory required for data: 491212800
I0729 14:36:59.644444  5043 layer_factory.hpp:77] Creating layer score52_slicer_conv_51_split
I0729 14:36:59.644448  5043 net.cpp:84] Creating Layer score52_slicer_conv_51_split
I0729 14:36:59.644453  5043 net.cpp:406] score52_slicer_conv_51_split <- score52
I0729 14:36:59.644457  5043 net.cpp:380] score52_slicer_conv_51_split -> score52_slicer_conv_51_split_0
I0729 14:36:59.644464  5043 net.cpp:380] score52_slicer_conv_51_split -> score52_slicer_conv_51_split_1
I0729 14:36:59.644510  5043 net.cpp:122] Setting up score52_slicer_conv_51_split
I0729 14:36:59.644517  5043 net.cpp:129] Top shape: 1 1 48 64 (3072)
I0729 14:36:59.644520  5043 net.cpp:129] Top shape: 1 1 48 64 (3072)
I0729 14:36:59.644523  5043 net.cpp:137] Memory required for data: 491237376
I0729 14:36:59.644527  5043 layer_factory.hpp:77] Creating layer score53_slicer_conv_52_split
I0729 14:36:59.644531  5043 net.cpp:84] Creating Layer score53_slicer_conv_52_split
I0729 14:36:59.644536  5043 net.cpp:406] score53_slicer_conv_52_split <- score53
I0729 14:36:59.644541  5043 net.cpp:380] score53_slicer_conv_52_split -> score53_slicer_conv_52_split_0
I0729 14:36:59.644547  5043 net.cpp:380] score53_slicer_conv_52_split -> score53_slicer_conv_52_split_1
I0729 14:36:59.644593  5043 net.cpp:122] Setting up score53_slicer_conv_52_split
I0729 14:36:59.644599  5043 net.cpp:129] Top shape: 1 1 48 64 (3072)
I0729 14:36:59.644603  5043 net.cpp:129] Top shape: 1 1 48 64 (3072)
I0729 14:36:59.644606  5043 net.cpp:137] Memory required for data: 491261952
I0729 14:36:59.644609  5043 layer_factory.hpp:77] Creating layer score54_slicer_conv_53_split
I0729 14:36:59.644615  5043 net.cpp:84] Creating Layer score54_slicer_conv_53_split
I0729 14:36:59.644618  5043 net.cpp:406] score54_slicer_conv_53_split <- score54
I0729 14:36:59.644623  5043 net.cpp:380] score54_slicer_conv_53_split -> score54_slicer_conv_53_split_0
I0729 14:36:59.644629  5043 net.cpp:380] score54_slicer_conv_53_split -> score54_slicer_conv_53_split_1
I0729 14:36:59.644675  5043 net.cpp:122] Setting up score54_slicer_conv_53_split
I0729 14:36:59.644681  5043 net.cpp:129] Top shape: 1 1 48 64 (3072)
I0729 14:36:59.644685  5043 net.cpp:129] Top shape: 1 1 48 64 (3072)
I0729 14:36:59.644688  5043 net.cpp:137] Memory required for data: 491286528
I0729 14:36:59.644691  5043 layer_factory.hpp:77] Creating layer score55_slicer_conv_54_split
I0729 14:36:59.644695  5043 net.cpp:84] Creating Layer score55_slicer_conv_54_split
I0729 14:36:59.644700  5043 net.cpp:406] score55_slicer_conv_54_split <- score55
I0729 14:36:59.644704  5043 net.cpp:380] score55_slicer_conv_54_split -> score55_slicer_conv_54_split_0
I0729 14:36:59.644711  5043 net.cpp:380] score55_slicer_conv_54_split -> score55_slicer_conv_54_split_1
I0729 14:36:59.644757  5043 net.cpp:122] Setting up score55_slicer_conv_54_split
I0729 14:36:59.644762  5043 net.cpp:129] Top shape: 1 1 48 64 (3072)
I0729 14:36:59.644773  5043 net.cpp:129] Top shape: 1 1 48 64 (3072)
I0729 14:36:59.644776  5043 net.cpp:137] Memory required for data: 491311104
I0729 14:36:59.644779  5043 layer_factory.hpp:77] Creating layer score56_slicer_conv_55_split
I0729 14:36:59.644785  5043 net.cpp:84] Creating Layer score56_slicer_conv_55_split
I0729 14:36:59.644789  5043 net.cpp:406] score56_slicer_conv_55_split <- score56
I0729 14:36:59.644794  5043 net.cpp:380] score56_slicer_conv_55_split -> score56_slicer_conv_55_split_0
I0729 14:36:59.644799  5043 net.cpp:380] score56_slicer_conv_55_split -> score56_slicer_conv_55_split_1
I0729 14:36:59.644848  5043 net.cpp:122] Setting up score56_slicer_conv_55_split
I0729 14:36:59.644855  5043 net.cpp:129] Top shape: 1 1 48 64 (3072)
I0729 14:36:59.644858  5043 net.cpp:129] Top shape: 1 1 48 64 (3072)
I0729 14:36:59.644860  5043 net.cpp:137] Memory required for data: 491335680
I0729 14:36:59.644865  5043 layer_factory.hpp:77] Creating layer score57_slicer_conv_56_split
I0729 14:36:59.644868  5043 net.cpp:84] Creating Layer score57_slicer_conv_56_split
I0729 14:36:59.644872  5043 net.cpp:406] score57_slicer_conv_56_split <- score57
I0729 14:36:59.644877  5043 net.cpp:380] score57_slicer_conv_56_split -> score57_slicer_conv_56_split_0
I0729 14:36:59.644882  5043 net.cpp:380] score57_slicer_conv_56_split -> score57_slicer_conv_56_split_1
I0729 14:36:59.644930  5043 net.cpp:122] Setting up score57_slicer_conv_56_split
I0729 14:36:59.644937  5043 net.cpp:129] Top shape: 1 1 48 64 (3072)
I0729 14:36:59.644940  5043 net.cpp:129] Top shape: 1 1 48 64 (3072)
I0729 14:36:59.644943  5043 net.cpp:137] Memory required for data: 491360256
I0729 14:36:59.644946  5043 layer_factory.hpp:77] Creating layer score58_slicer_conv_57_split
I0729 14:36:59.644950  5043 net.cpp:84] Creating Layer score58_slicer_conv_57_split
I0729 14:36:59.644954  5043 net.cpp:406] score58_slicer_conv_57_split <- score58
I0729 14:36:59.644961  5043 net.cpp:380] score58_slicer_conv_57_split -> score58_slicer_conv_57_split_0
I0729 14:36:59.644968  5043 net.cpp:380] score58_slicer_conv_57_split -> score58_slicer_conv_57_split_1
I0729 14:36:59.645015  5043 net.cpp:122] Setting up score58_slicer_conv_57_split
I0729 14:36:59.645021  5043 net.cpp:129] Top shape: 1 1 48 64 (3072)
I0729 14:36:59.645025  5043 net.cpp:129] Top shape: 1 1 48 64 (3072)
I0729 14:36:59.645028  5043 net.cpp:137] Memory required for data: 491384832
I0729 14:36:59.645031  5043 layer_factory.hpp:77] Creating layer score59_slicer_conv_58_split
I0729 14:36:59.645036  5043 net.cpp:84] Creating Layer score59_slicer_conv_58_split
I0729 14:36:59.645040  5043 net.cpp:406] score59_slicer_conv_58_split <- score59
I0729 14:36:59.645045  5043 net.cpp:380] score59_slicer_conv_58_split -> score59_slicer_conv_58_split_0
I0729 14:36:59.645050  5043 net.cpp:380] score59_slicer_conv_58_split -> score59_slicer_conv_58_split_1
I0729 14:36:59.645097  5043 net.cpp:122] Setting up score59_slicer_conv_58_split
I0729 14:36:59.645102  5043 net.cpp:129] Top shape: 1 1 48 64 (3072)
I0729 14:36:59.645107  5043 net.cpp:129] Top shape: 1 1 48 64 (3072)
I0729 14:36:59.645109  5043 net.cpp:137] Memory required for data: 491409408
I0729 14:36:59.645112  5043 layer_factory.hpp:77] Creating layer score60_slicer_conv_59_split
I0729 14:36:59.645117  5043 net.cpp:84] Creating Layer score60_slicer_conv_59_split
I0729 14:36:59.645122  5043 net.cpp:406] score60_slicer_conv_59_split <- score60
I0729 14:36:59.645126  5043 net.cpp:380] score60_slicer_conv_59_split -> score60_slicer_conv_59_split_0
I0729 14:36:59.645133  5043 net.cpp:380] score60_slicer_conv_59_split -> score60_slicer_conv_59_split_1
I0729 14:36:59.645179  5043 net.cpp:122] Setting up score60_slicer_conv_59_split
I0729 14:36:59.645185  5043 net.cpp:129] Top shape: 1 1 48 64 (3072)
I0729 14:36:59.645190  5043 net.cpp:129] Top shape: 1 1 48 64 (3072)
I0729 14:36:59.645192  5043 net.cpp:137] Memory required for data: 491433984
I0729 14:36:59.645196  5043 layer_factory.hpp:77] Creating layer score61_slicer_conv_60_split
I0729 14:36:59.645200  5043 net.cpp:84] Creating Layer score61_slicer_conv_60_split
I0729 14:36:59.645211  5043 net.cpp:406] score61_slicer_conv_60_split <- score61
I0729 14:36:59.645216  5043 net.cpp:380] score61_slicer_conv_60_split -> score61_slicer_conv_60_split_0
I0729 14:36:59.645221  5043 net.cpp:380] score61_slicer_conv_60_split -> score61_slicer_conv_60_split_1
I0729 14:36:59.645272  5043 net.cpp:122] Setting up score61_slicer_conv_60_split
I0729 14:36:59.645277  5043 net.cpp:129] Top shape: 1 1 48 64 (3072)
I0729 14:36:59.645282  5043 net.cpp:129] Top shape: 1 1 48 64 (3072)
I0729 14:36:59.645284  5043 net.cpp:137] Memory required for data: 491458560
I0729 14:36:59.645287  5043 layer_factory.hpp:77] Creating layer score62_slicer_conv_61_split
I0729 14:36:59.645292  5043 net.cpp:84] Creating Layer score62_slicer_conv_61_split
I0729 14:36:59.645295  5043 net.cpp:406] score62_slicer_conv_61_split <- score62
I0729 14:36:59.645301  5043 net.cpp:380] score62_slicer_conv_61_split -> score62_slicer_conv_61_split_0
I0729 14:36:59.645311  5043 net.cpp:380] score62_slicer_conv_61_split -> score62_slicer_conv_61_split_1
I0729 14:36:59.645359  5043 net.cpp:122] Setting up score62_slicer_conv_61_split
I0729 14:36:59.645364  5043 net.cpp:129] Top shape: 1 1 48 64 (3072)
I0729 14:36:59.645368  5043 net.cpp:129] Top shape: 1 1 48 64 (3072)
I0729 14:36:59.645371  5043 net.cpp:137] Memory required for data: 491483136
I0729 14:36:59.645375  5043 layer_factory.hpp:77] Creating layer score63_slicer_conv_62_split
I0729 14:36:59.645380  5043 net.cpp:84] Creating Layer score63_slicer_conv_62_split
I0729 14:36:59.645383  5043 net.cpp:406] score63_slicer_conv_62_split <- score63
I0729 14:36:59.645388  5043 net.cpp:380] score63_slicer_conv_62_split -> score63_slicer_conv_62_split_0
I0729 14:36:59.645393  5043 net.cpp:380] score63_slicer_conv_62_split -> score63_slicer_conv_62_split_1
I0729 14:36:59.645442  5043 net.cpp:122] Setting up score63_slicer_conv_62_split
I0729 14:36:59.645448  5043 net.cpp:129] Top shape: 1 1 48 64 (3072)
I0729 14:36:59.645452  5043 net.cpp:129] Top shape: 1 1 48 64 (3072)
I0729 14:36:59.645455  5043 net.cpp:137] Memory required for data: 491507712
I0729 14:36:59.645458  5043 layer_factory.hpp:77] Creating layer score64_slicer_conv_63_split
I0729 14:36:59.645462  5043 net.cpp:84] Creating Layer score64_slicer_conv_63_split
I0729 14:36:59.645467  5043 net.cpp:406] score64_slicer_conv_63_split <- score64
I0729 14:36:59.645470  5043 net.cpp:380] score64_slicer_conv_63_split -> score64_slicer_conv_63_split_0
I0729 14:36:59.645478  5043 net.cpp:380] score64_slicer_conv_63_split -> score64_slicer_conv_63_split_1
I0729 14:36:59.645524  5043 net.cpp:122] Setting up score64_slicer_conv_63_split
I0729 14:36:59.645530  5043 net.cpp:129] Top shape: 1 1 48 64 (3072)
I0729 14:36:59.645534  5043 net.cpp:129] Top shape: 1 1 48 64 (3072)
I0729 14:36:59.645536  5043 net.cpp:137] Memory required for data: 491532288
I0729 14:36:59.645539  5043 layer_factory.hpp:77] Creating layer score65_slicer_conv_64_split
I0729 14:36:59.645545  5043 net.cpp:84] Creating Layer score65_slicer_conv_64_split
I0729 14:36:59.645550  5043 net.cpp:406] score65_slicer_conv_64_split <- score65
I0729 14:36:59.645555  5043 net.cpp:380] score65_slicer_conv_64_split -> score65_slicer_conv_64_split_0
I0729 14:36:59.645560  5043 net.cpp:380] score65_slicer_conv_64_split -> score65_slicer_conv_64_split_1
I0729 14:36:59.645607  5043 net.cpp:122] Setting up score65_slicer_conv_64_split
I0729 14:36:59.645613  5043 net.cpp:129] Top shape: 1 1 48 64 (3072)
I0729 14:36:59.645617  5043 net.cpp:129] Top shape: 1 1 48 64 (3072)
I0729 14:36:59.645620  5043 net.cpp:137] Memory required for data: 491556864
I0729 14:36:59.645623  5043 layer_factory.hpp:77] Creating layer score66_slicer_conv_65_split
I0729 14:36:59.645628  5043 net.cpp:84] Creating Layer score66_slicer_conv_65_split
I0729 14:36:59.645632  5043 net.cpp:406] score66_slicer_conv_65_split <- score66
I0729 14:36:59.645637  5043 net.cpp:380] score66_slicer_conv_65_split -> score66_slicer_conv_65_split_0
I0729 14:36:59.645642  5043 net.cpp:380] score66_slicer_conv_65_split -> score66_slicer_conv_65_split_1
I0729 14:36:59.645701  5043 net.cpp:122] Setting up score66_slicer_conv_65_split
I0729 14:36:59.645707  5043 net.cpp:129] Top shape: 1 1 48 64 (3072)
I0729 14:36:59.645711  5043 net.cpp:129] Top shape: 1 1 48 64 (3072)
I0729 14:36:59.645714  5043 net.cpp:137] Memory required for data: 491581440
I0729 14:36:59.645717  5043 layer_factory.hpp:77] Creating layer score67_slicer_conv_66_split
I0729 14:36:59.645722  5043 net.cpp:84] Creating Layer score67_slicer_conv_66_split
I0729 14:36:59.645726  5043 net.cpp:406] score67_slicer_conv_66_split <- score67
I0729 14:36:59.645731  5043 net.cpp:380] score67_slicer_conv_66_split -> score67_slicer_conv_66_split_0
I0729 14:36:59.645737  5043 net.cpp:380] score67_slicer_conv_66_split -> score67_slicer_conv_66_split_1
I0729 14:36:59.645786  5043 net.cpp:122] Setting up score67_slicer_conv_66_split
I0729 14:36:59.645792  5043 net.cpp:129] Top shape: 1 1 48 64 (3072)
I0729 14:36:59.645797  5043 net.cpp:129] Top shape: 1 1 48 64 (3072)
I0729 14:36:59.645799  5043 net.cpp:137] Memory required for data: 491606016
I0729 14:36:59.645802  5043 layer_factory.hpp:77] Creating layer score68_slicer_conv_67_split
I0729 14:36:59.645807  5043 net.cpp:84] Creating Layer score68_slicer_conv_67_split
I0729 14:36:59.645810  5043 net.cpp:406] score68_slicer_conv_67_split <- score68
I0729 14:36:59.645814  5043 net.cpp:380] score68_slicer_conv_67_split -> score68_slicer_conv_67_split_0
I0729 14:36:59.645820  5043 net.cpp:380] score68_slicer_conv_67_split -> score68_slicer_conv_67_split_1
I0729 14:36:59.645867  5043 net.cpp:122] Setting up score68_slicer_conv_67_split
I0729 14:36:59.645874  5043 net.cpp:129] Top shape: 1 1 48 64 (3072)
I0729 14:36:59.645877  5043 net.cpp:129] Top shape: 1 1 48 64 (3072)
I0729 14:36:59.645880  5043 net.cpp:137] Memory required for data: 491630592
I0729 14:36:59.645884  5043 layer_factory.hpp:77] Creating layer score69_slicer_conv_68_split
I0729 14:36:59.645889  5043 net.cpp:84] Creating Layer score69_slicer_conv_68_split
I0729 14:36:59.645891  5043 net.cpp:406] score69_slicer_conv_68_split <- score69
I0729 14:36:59.645897  5043 net.cpp:380] score69_slicer_conv_68_split -> score69_slicer_conv_68_split_0
I0729 14:36:59.645902  5043 net.cpp:380] score69_slicer_conv_68_split -> score69_slicer_conv_68_split_1
I0729 14:36:59.645948  5043 net.cpp:122] Setting up score69_slicer_conv_68_split
I0729 14:36:59.645954  5043 net.cpp:129] Top shape: 1 1 48 64 (3072)
I0729 14:36:59.645958  5043 net.cpp:129] Top shape: 1 1 48 64 (3072)
I0729 14:36:59.645961  5043 net.cpp:137] Memory required for data: 491655168
I0729 14:36:59.645964  5043 layer_factory.hpp:77] Creating layer score70_slicer_conv_69_split
I0729 14:36:59.645969  5043 net.cpp:84] Creating Layer score70_slicer_conv_69_split
I0729 14:36:59.645973  5043 net.cpp:406] score70_slicer_conv_69_split <- score70
I0729 14:36:59.645978  5043 net.cpp:380] score70_slicer_conv_69_split -> score70_slicer_conv_69_split_0
I0729 14:36:59.645983  5043 net.cpp:380] score70_slicer_conv_69_split -> score70_slicer_conv_69_split_1
I0729 14:36:59.646030  5043 net.cpp:122] Setting up score70_slicer_conv_69_split
I0729 14:36:59.646036  5043 net.cpp:129] Top shape: 1 1 48 64 (3072)
I0729 14:36:59.646040  5043 net.cpp:129] Top shape: 1 1 48 64 (3072)
I0729 14:36:59.646044  5043 net.cpp:137] Memory required for data: 491679744
I0729 14:36:59.646046  5043 layer_factory.hpp:77] Creating layer score71_slicer_conv_70_split
I0729 14:36:59.646050  5043 net.cpp:84] Creating Layer score71_slicer_conv_70_split
I0729 14:36:59.646054  5043 net.cpp:406] score71_slicer_conv_70_split <- score71
I0729 14:36:59.646059  5043 net.cpp:380] score71_slicer_conv_70_split -> score71_slicer_conv_70_split_0
I0729 14:36:59.646064  5043 net.cpp:380] score71_slicer_conv_70_split -> score71_slicer_conv_70_split_1
I0729 14:36:59.646111  5043 net.cpp:122] Setting up score71_slicer_conv_70_split
I0729 14:36:59.646116  5043 net.cpp:129] Top shape: 1 1 48 64 (3072)
I0729 14:36:59.646121  5043 net.cpp:129] Top shape: 1 1 48 64 (3072)
I0729 14:36:59.646131  5043 net.cpp:137] Memory required for data: 491704320
I0729 14:36:59.646133  5043 layer_factory.hpp:77] Creating layer score72_slicer_conv_71_split
I0729 14:36:59.646139  5043 net.cpp:84] Creating Layer score72_slicer_conv_71_split
I0729 14:36:59.646143  5043 net.cpp:406] score72_slicer_conv_71_split <- score72
I0729 14:36:59.646148  5043 net.cpp:380] score72_slicer_conv_71_split -> score72_slicer_conv_71_split_0
I0729 14:36:59.646153  5043 net.cpp:380] score72_slicer_conv_71_split -> score72_slicer_conv_71_split_1
I0729 14:36:59.646203  5043 net.cpp:122] Setting up score72_slicer_conv_71_split
I0729 14:36:59.646209  5043 net.cpp:129] Top shape: 1 1 48 64 (3072)
I0729 14:36:59.646212  5043 net.cpp:129] Top shape: 1 1 48 64 (3072)
I0729 14:36:59.646215  5043 net.cpp:137] Memory required for data: 491728896
I0729 14:36:59.646219  5043 layer_factory.hpp:77] Creating layer score73_slicer_conv_72_split
I0729 14:36:59.646222  5043 net.cpp:84] Creating Layer score73_slicer_conv_72_split
I0729 14:36:59.646226  5043 net.cpp:406] score73_slicer_conv_72_split <- score73
I0729 14:36:59.646230  5043 net.cpp:380] score73_slicer_conv_72_split -> score73_slicer_conv_72_split_0
I0729 14:36:59.646235  5043 net.cpp:380] score73_slicer_conv_72_split -> score73_slicer_conv_72_split_1
I0729 14:36:59.646282  5043 net.cpp:122] Setting up score73_slicer_conv_72_split
I0729 14:36:59.646288  5043 net.cpp:129] Top shape: 1 1 48 64 (3072)
I0729 14:36:59.646292  5043 net.cpp:129] Top shape: 1 1 48 64 (3072)
I0729 14:36:59.646296  5043 net.cpp:137] Memory required for data: 491753472
I0729 14:36:59.646298  5043 layer_factory.hpp:77] Creating layer score74_slicer_conv_73_split
I0729 14:36:59.646302  5043 net.cpp:84] Creating Layer score74_slicer_conv_73_split
I0729 14:36:59.646306  5043 net.cpp:406] score74_slicer_conv_73_split <- score74
I0729 14:36:59.646311  5043 net.cpp:380] score74_slicer_conv_73_split -> score74_slicer_conv_73_split_0
I0729 14:36:59.646317  5043 net.cpp:380] score74_slicer_conv_73_split -> score74_slicer_conv_73_split_1
I0729 14:36:59.646364  5043 net.cpp:122] Setting up score74_slicer_conv_73_split
I0729 14:36:59.646370  5043 net.cpp:129] Top shape: 1 1 48 64 (3072)
I0729 14:36:59.646374  5043 net.cpp:129] Top shape: 1 1 48 64 (3072)
I0729 14:36:59.646378  5043 net.cpp:137] Memory required for data: 491778048
I0729 14:36:59.646380  5043 layer_factory.hpp:77] Creating layer score75_slicer_conv_74_split
I0729 14:36:59.646385  5043 net.cpp:84] Creating Layer score75_slicer_conv_74_split
I0729 14:36:59.646389  5043 net.cpp:406] score75_slicer_conv_74_split <- score75
I0729 14:36:59.646394  5043 net.cpp:380] score75_slicer_conv_74_split -> score75_slicer_conv_74_split_0
I0729 14:36:59.646399  5043 net.cpp:380] score75_slicer_conv_74_split -> score75_slicer_conv_74_split_1
I0729 14:36:59.646446  5043 net.cpp:122] Setting up score75_slicer_conv_74_split
I0729 14:36:59.646452  5043 net.cpp:129] Top shape: 1 1 48 64 (3072)
I0729 14:36:59.646456  5043 net.cpp:129] Top shape: 1 1 48 64 (3072)
I0729 14:36:59.646458  5043 net.cpp:137] Memory required for data: 491802624
I0729 14:36:59.646461  5043 layer_factory.hpp:77] Creating layer score76_slicer_conv_75_split
I0729 14:36:59.646466  5043 net.cpp:84] Creating Layer score76_slicer_conv_75_split
I0729 14:36:59.646469  5043 net.cpp:406] score76_slicer_conv_75_split <- score76
I0729 14:36:59.646476  5043 net.cpp:380] score76_slicer_conv_75_split -> score76_slicer_conv_75_split_0
I0729 14:36:59.646481  5043 net.cpp:380] score76_slicer_conv_75_split -> score76_slicer_conv_75_split_1
I0729 14:36:59.646528  5043 net.cpp:122] Setting up score76_slicer_conv_75_split
I0729 14:36:59.646535  5043 net.cpp:129] Top shape: 1 1 48 64 (3072)
I0729 14:36:59.646538  5043 net.cpp:129] Top shape: 1 1 48 64 (3072)
I0729 14:36:59.646541  5043 net.cpp:137] Memory required for data: 491827200
I0729 14:36:59.646544  5043 layer_factory.hpp:77] Creating layer score77_slicer_conv_76_split
I0729 14:36:59.646549  5043 net.cpp:84] Creating Layer score77_slicer_conv_76_split
I0729 14:36:59.646553  5043 net.cpp:406] score77_slicer_conv_76_split <- score77
I0729 14:36:59.646564  5043 net.cpp:380] score77_slicer_conv_76_split -> score77_slicer_conv_76_split_0
I0729 14:36:59.646570  5043 net.cpp:380] score77_slicer_conv_76_split -> score77_slicer_conv_76_split_1
I0729 14:36:59.646620  5043 net.cpp:122] Setting up score77_slicer_conv_76_split
I0729 14:36:59.646627  5043 net.cpp:129] Top shape: 1 1 48 64 (3072)
I0729 14:36:59.646631  5043 net.cpp:129] Top shape: 1 1 48 64 (3072)
I0729 14:36:59.646633  5043 net.cpp:137] Memory required for data: 491851776
I0729 14:36:59.646637  5043 layer_factory.hpp:77] Creating layer score78_slicer_conv_77_split
I0729 14:36:59.646641  5043 net.cpp:84] Creating Layer score78_slicer_conv_77_split
I0729 14:36:59.646646  5043 net.cpp:406] score78_slicer_conv_77_split <- score78
I0729 14:36:59.646651  5043 net.cpp:380] score78_slicer_conv_77_split -> score78_slicer_conv_77_split_0
I0729 14:36:59.646656  5043 net.cpp:380] score78_slicer_conv_77_split -> score78_slicer_conv_77_split_1
I0729 14:36:59.646703  5043 net.cpp:122] Setting up score78_slicer_conv_77_split
I0729 14:36:59.646708  5043 net.cpp:129] Top shape: 1 1 48 64 (3072)
I0729 14:36:59.646713  5043 net.cpp:129] Top shape: 1 1 48 64 (3072)
I0729 14:36:59.646715  5043 net.cpp:137] Memory required for data: 491876352
I0729 14:36:59.646718  5043 layer_factory.hpp:77] Creating layer score79_slicer_conv_78_split
I0729 14:36:59.646723  5043 net.cpp:84] Creating Layer score79_slicer_conv_78_split
I0729 14:36:59.646728  5043 net.cpp:406] score79_slicer_conv_78_split <- score79
I0729 14:36:59.646733  5043 net.cpp:380] score79_slicer_conv_78_split -> score79_slicer_conv_78_split_0
I0729 14:36:59.646737  5043 net.cpp:380] score79_slicer_conv_78_split -> score79_slicer_conv_78_split_1
I0729 14:36:59.646785  5043 net.cpp:122] Setting up score79_slicer_conv_78_split
I0729 14:36:59.646790  5043 net.cpp:129] Top shape: 1 1 48 64 (3072)
I0729 14:36:59.646795  5043 net.cpp:129] Top shape: 1 1 48 64 (3072)
I0729 14:36:59.646797  5043 net.cpp:137] Memory required for data: 491900928
I0729 14:36:59.646800  5043 layer_factory.hpp:77] Creating layer score80_slicer_conv_79_split
I0729 14:36:59.646805  5043 net.cpp:84] Creating Layer score80_slicer_conv_79_split
I0729 14:36:59.646808  5043 net.cpp:406] score80_slicer_conv_79_split <- score80
I0729 14:36:59.646812  5043 net.cpp:380] score80_slicer_conv_79_split -> score80_slicer_conv_79_split_0
I0729 14:36:59.646819  5043 net.cpp:380] score80_slicer_conv_79_split -> score80_slicer_conv_79_split_1
I0729 14:36:59.646864  5043 net.cpp:122] Setting up score80_slicer_conv_79_split
I0729 14:36:59.646870  5043 net.cpp:129] Top shape: 1 1 48 64 (3072)
I0729 14:36:59.646874  5043 net.cpp:129] Top shape: 1 1 48 64 (3072)
I0729 14:36:59.646878  5043 net.cpp:137] Memory required for data: 491925504
I0729 14:36:59.646880  5043 layer_factory.hpp:77] Creating layer score81_slicer_conv_80_split
I0729 14:36:59.646888  5043 net.cpp:84] Creating Layer score81_slicer_conv_80_split
I0729 14:36:59.646891  5043 net.cpp:406] score81_slicer_conv_80_split <- score81
I0729 14:36:59.646896  5043 net.cpp:380] score81_slicer_conv_80_split -> score81_slicer_conv_80_split_0
I0729 14:36:59.646901  5043 net.cpp:380] score81_slicer_conv_80_split -> score81_slicer_conv_80_split_1
I0729 14:36:59.646950  5043 net.cpp:122] Setting up score81_slicer_conv_80_split
I0729 14:36:59.646955  5043 net.cpp:129] Top shape: 1 1 48 64 (3072)
I0729 14:36:59.646960  5043 net.cpp:129] Top shape: 1 1 48 64 (3072)
I0729 14:36:59.646962  5043 net.cpp:137] Memory required for data: 491950080
I0729 14:36:59.646965  5043 layer_factory.hpp:77] Creating layer score82_slicer_conv_81_split
I0729 14:36:59.646970  5043 net.cpp:84] Creating Layer score82_slicer_conv_81_split
I0729 14:36:59.646973  5043 net.cpp:406] score82_slicer_conv_81_split <- score82
I0729 14:36:59.646977  5043 net.cpp:380] score82_slicer_conv_81_split -> score82_slicer_conv_81_split_0
I0729 14:36:59.646982  5043 net.cpp:380] score82_slicer_conv_81_split -> score82_slicer_conv_81_split_1
I0729 14:36:59.647029  5043 net.cpp:122] Setting up score82_slicer_conv_81_split
I0729 14:36:59.647047  5043 net.cpp:129] Top shape: 1 1 48 64 (3072)
I0729 14:36:59.647050  5043 net.cpp:129] Top shape: 1 1 48 64 (3072)
I0729 14:36:59.647053  5043 net.cpp:137] Memory required for data: 491974656
I0729 14:36:59.647056  5043 layer_factory.hpp:77] Creating layer score83_slicer_conv_82_split
I0729 14:36:59.647061  5043 net.cpp:84] Creating Layer score83_slicer_conv_82_split
I0729 14:36:59.647064  5043 net.cpp:406] score83_slicer_conv_82_split <- score83
I0729 14:36:59.647071  5043 net.cpp:380] score83_slicer_conv_82_split -> score83_slicer_conv_82_split_0
I0729 14:36:59.647076  5043 net.cpp:380] score83_slicer_conv_82_split -> score83_slicer_conv_82_split_1
I0729 14:36:59.647127  5043 net.cpp:122] Setting up score83_slicer_conv_82_split
I0729 14:36:59.647133  5043 net.cpp:129] Top shape: 1 1 48 64 (3072)
I0729 14:36:59.647136  5043 net.cpp:129] Top shape: 1 1 48 64 (3072)
I0729 14:36:59.647140  5043 net.cpp:137] Memory required for data: 491999232
I0729 14:36:59.647143  5043 layer_factory.hpp:77] Creating layer score84_slicer_conv_83_split
I0729 14:36:59.647147  5043 net.cpp:84] Creating Layer score84_slicer_conv_83_split
I0729 14:36:59.647151  5043 net.cpp:406] score84_slicer_conv_83_split <- score84
I0729 14:36:59.647156  5043 net.cpp:380] score84_slicer_conv_83_split -> score84_slicer_conv_83_split_0
I0729 14:36:59.647161  5043 net.cpp:380] score84_slicer_conv_83_split -> score84_slicer_conv_83_split_1
I0729 14:36:59.647208  5043 net.cpp:122] Setting up score84_slicer_conv_83_split
I0729 14:36:59.647214  5043 net.cpp:129] Top shape: 1 1 48 64 (3072)
I0729 14:36:59.647218  5043 net.cpp:129] Top shape: 1 1 48 64 (3072)
I0729 14:36:59.647222  5043 net.cpp:137] Memory required for data: 492023808
I0729 14:36:59.647224  5043 layer_factory.hpp:77] Creating layer score85_slicer_conv_84_split
I0729 14:36:59.647229  5043 net.cpp:84] Creating Layer score85_slicer_conv_84_split
I0729 14:36:59.647233  5043 net.cpp:406] score85_slicer_conv_84_split <- score85
I0729 14:36:59.647238  5043 net.cpp:380] score85_slicer_conv_84_split -> score85_slicer_conv_84_split_0
I0729 14:36:59.647243  5043 net.cpp:380] score85_slicer_conv_84_split -> score85_slicer_conv_84_split_1
I0729 14:36:59.647289  5043 net.cpp:122] Setting up score85_slicer_conv_84_split
I0729 14:36:59.647295  5043 net.cpp:129] Top shape: 1 1 48 64 (3072)
I0729 14:36:59.647300  5043 net.cpp:129] Top shape: 1 1 48 64 (3072)
I0729 14:36:59.647302  5043 net.cpp:137] Memory required for data: 492048384
I0729 14:36:59.647305  5043 layer_factory.hpp:77] Creating layer score86_slicer_conv_85_split
I0729 14:36:59.647311  5043 net.cpp:84] Creating Layer score86_slicer_conv_85_split
I0729 14:36:59.647315  5043 net.cpp:406] score86_slicer_conv_85_split <- score86
I0729 14:36:59.647320  5043 net.cpp:380] score86_slicer_conv_85_split -> score86_slicer_conv_85_split_0
I0729 14:36:59.647325  5043 net.cpp:380] score86_slicer_conv_85_split -> score86_slicer_conv_85_split_1
I0729 14:36:59.647372  5043 net.cpp:122] Setting up score86_slicer_conv_85_split
I0729 14:36:59.647377  5043 net.cpp:129] Top shape: 1 1 48 64 (3072)
I0729 14:36:59.647382  5043 net.cpp:129] Top shape: 1 1 48 64 (3072)
I0729 14:36:59.647384  5043 net.cpp:137] Memory required for data: 492072960
I0729 14:36:59.647387  5043 layer_factory.hpp:77] Creating layer score87_slicer_conv_86_split
I0729 14:36:59.653291  5043 net.cpp:84] Creating Layer score87_slicer_conv_86_split
I0729 14:36:59.653311  5043 net.cpp:406] score87_slicer_conv_86_split <- score87
I0729 14:36:59.653318  5043 net.cpp:380] score87_slicer_conv_86_split -> score87_slicer_conv_86_split_0
I0729 14:36:59.653329  5043 net.cpp:380] score87_slicer_conv_86_split -> score87_slicer_conv_86_split_1
I0729 14:36:59.653457  5043 net.cpp:122] Setting up score87_slicer_conv_86_split
I0729 14:36:59.653475  5043 net.cpp:129] Top shape: 1 1 48 64 (3072)
I0729 14:36:59.653483  5043 net.cpp:129] Top shape: 1 1 48 64 (3072)
I0729 14:36:59.653489  5043 net.cpp:137] Memory required for data: 492097536
I0729 14:36:59.653512  5043 layer_factory.hpp:77] Creating layer score88_slicer_conv_87_split
I0729 14:36:59.653520  5043 net.cpp:84] Creating Layer score88_slicer_conv_87_split
I0729 14:36:59.653525  5043 net.cpp:406] score88_slicer_conv_87_split <- score88
I0729 14:36:59.653532  5043 net.cpp:380] score88_slicer_conv_87_split -> score88_slicer_conv_87_split_0
I0729 14:36:59.653543  5043 net.cpp:380] score88_slicer_conv_87_split -> score88_slicer_conv_87_split_1
I0729 14:36:59.653622  5043 net.cpp:122] Setting up score88_slicer_conv_87_split
I0729 14:36:59.653633  5043 net.cpp:129] Top shape: 1 1 48 64 (3072)
I0729 14:36:59.653637  5043 net.cpp:129] Top shape: 1 1 48 64 (3072)
I0729 14:36:59.653640  5043 net.cpp:137] Memory required for data: 492122112
I0729 14:36:59.653645  5043 layer_factory.hpp:77] Creating layer score89_slicer_conv_88_split
I0729 14:36:59.653650  5043 net.cpp:84] Creating Layer score89_slicer_conv_88_split
I0729 14:36:59.653654  5043 net.cpp:406] score89_slicer_conv_88_split <- score89
I0729 14:36:59.653659  5043 net.cpp:380] score89_slicer_conv_88_split -> score89_slicer_conv_88_split_0
I0729 14:36:59.653666  5043 net.cpp:380] score89_slicer_conv_88_split -> score89_slicer_conv_88_split_1
I0729 14:36:59.653719  5043 net.cpp:122] Setting up score89_slicer_conv_88_split
I0729 14:36:59.653726  5043 net.cpp:129] Top shape: 1 1 48 64 (3072)
I0729 14:36:59.653729  5043 net.cpp:129] Top shape: 1 1 48 64 (3072)
I0729 14:36:59.653733  5043 net.cpp:137] Memory required for data: 492146688
I0729 14:36:59.653736  5043 layer_factory.hpp:77] Creating layer score90_slicer_conv_89_split
I0729 14:36:59.653741  5043 net.cpp:84] Creating Layer score90_slicer_conv_89_split
I0729 14:36:59.653745  5043 net.cpp:406] score90_slicer_conv_89_split <- score90
I0729 14:36:59.653751  5043 net.cpp:380] score90_slicer_conv_89_split -> score90_slicer_conv_89_split_0
I0729 14:36:59.653758  5043 net.cpp:380] score90_slicer_conv_89_split -> score90_slicer_conv_89_split_1
I0729 14:36:59.653807  5043 net.cpp:122] Setting up score90_slicer_conv_89_split
I0729 14:36:59.653813  5043 net.cpp:129] Top shape: 1 1 48 64 (3072)
I0729 14:36:59.653817  5043 net.cpp:129] Top shape: 1 1 48 64 (3072)
I0729 14:36:59.653821  5043 net.cpp:137] Memory required for data: 492171264
I0729 14:36:59.653825  5043 layer_factory.hpp:77] Creating layer score91_slicer_conv_90_split
I0729 14:36:59.653829  5043 net.cpp:84] Creating Layer score91_slicer_conv_90_split
I0729 14:36:59.653833  5043 net.cpp:406] score91_slicer_conv_90_split <- score91
I0729 14:36:59.653838  5043 net.cpp:380] score91_slicer_conv_90_split -> score91_slicer_conv_90_split_0
I0729 14:36:59.653844  5043 net.cpp:380] score91_slicer_conv_90_split -> score91_slicer_conv_90_split_1
I0729 14:36:59.653893  5043 net.cpp:122] Setting up score91_slicer_conv_90_split
I0729 14:36:59.653899  5043 net.cpp:129] Top shape: 1 1 48 64 (3072)
I0729 14:36:59.653903  5043 net.cpp:129] Top shape: 1 1 48 64 (3072)
I0729 14:36:59.653906  5043 net.cpp:137] Memory required for data: 492195840
I0729 14:36:59.653909  5043 layer_factory.hpp:77] Creating layer score92_slicer_conv_91_split
I0729 14:36:59.653914  5043 net.cpp:84] Creating Layer score92_slicer_conv_91_split
I0729 14:36:59.653918  5043 net.cpp:406] score92_slicer_conv_91_split <- score92
I0729 14:36:59.653925  5043 net.cpp:380] score92_slicer_conv_91_split -> score92_slicer_conv_91_split_0
I0729 14:36:59.653931  5043 net.cpp:380] score92_slicer_conv_91_split -> score92_slicer_conv_91_split_1
I0729 14:36:59.653980  5043 net.cpp:122] Setting up score92_slicer_conv_91_split
I0729 14:36:59.653990  5043 net.cpp:129] Top shape: 1 1 48 64 (3072)
I0729 14:36:59.653995  5043 net.cpp:129] Top shape: 1 1 48 64 (3072)
I0729 14:36:59.654001  5043 net.cpp:137] Memory required for data: 492220416
I0729 14:36:59.654008  5043 layer_factory.hpp:77] Creating layer score93_slicer_conv_92_split
I0729 14:36:59.654032  5043 net.cpp:84] Creating Layer score93_slicer_conv_92_split
I0729 14:36:59.654038  5043 net.cpp:406] score93_slicer_conv_92_split <- score93
I0729 14:36:59.654044  5043 net.cpp:380] score93_slicer_conv_92_split -> score93_slicer_conv_92_split_0
I0729 14:36:59.654062  5043 net.cpp:380] score93_slicer_conv_92_split -> score93_slicer_conv_92_split_1
I0729 14:36:59.654144  5043 net.cpp:122] Setting up score93_slicer_conv_92_split
I0729 14:36:59.654153  5043 net.cpp:129] Top shape: 1 1 48 64 (3072)
I0729 14:36:59.654157  5043 net.cpp:129] Top shape: 1 1 48 64 (3072)
I0729 14:36:59.654161  5043 net.cpp:137] Memory required for data: 492244992
I0729 14:36:59.654165  5043 layer_factory.hpp:77] Creating layer score94_slicer_conv_93_split
I0729 14:36:59.654170  5043 net.cpp:84] Creating Layer score94_slicer_conv_93_split
I0729 14:36:59.654175  5043 net.cpp:406] score94_slicer_conv_93_split <- score94
I0729 14:36:59.654180  5043 net.cpp:380] score94_slicer_conv_93_split -> score94_slicer_conv_93_split_0
I0729 14:36:59.654186  5043 net.cpp:380] score94_slicer_conv_93_split -> score94_slicer_conv_93_split_1
I0729 14:36:59.654256  5043 net.cpp:122] Setting up score94_slicer_conv_93_split
I0729 14:36:59.654268  5043 net.cpp:129] Top shape: 1 1 48 64 (3072)
I0729 14:36:59.654274  5043 net.cpp:129] Top shape: 1 1 48 64 (3072)
I0729 14:36:59.654279  5043 net.cpp:137] Memory required for data: 492269568
I0729 14:36:59.654283  5043 layer_factory.hpp:77] Creating layer score95_slicer_conv_94_split
I0729 14:36:59.654289  5043 net.cpp:84] Creating Layer score95_slicer_conv_94_split
I0729 14:36:59.654292  5043 net.cpp:406] score95_slicer_conv_94_split <- score95
I0729 14:36:59.654299  5043 net.cpp:380] score95_slicer_conv_94_split -> score95_slicer_conv_94_split_0
I0729 14:36:59.654306  5043 net.cpp:380] score95_slicer_conv_94_split -> score95_slicer_conv_94_split_1
I0729 14:36:59.654371  5043 net.cpp:122] Setting up score95_slicer_conv_94_split
I0729 14:36:59.654382  5043 net.cpp:129] Top shape: 1 1 48 64 (3072)
I0729 14:36:59.654389  5043 net.cpp:129] Top shape: 1 1 48 64 (3072)
I0729 14:36:59.654394  5043 net.cpp:137] Memory required for data: 492294144
I0729 14:36:59.654400  5043 layer_factory.hpp:77] Creating layer score96_slicer_conv_95_split
I0729 14:36:59.654410  5043 net.cpp:84] Creating Layer score96_slicer_conv_95_split
I0729 14:36:59.654418  5043 net.cpp:406] score96_slicer_conv_95_split <- score96
I0729 14:36:59.654423  5043 net.cpp:380] score96_slicer_conv_95_split -> score96_slicer_conv_95_split_0
I0729 14:36:59.654430  5043 net.cpp:380] score96_slicer_conv_95_split -> score96_slicer_conv_95_split_1
I0729 14:36:59.654516  5043 net.cpp:122] Setting up score96_slicer_conv_95_split
I0729 14:36:59.654526  5043 net.cpp:129] Top shape: 1 1 48 64 (3072)
I0729 14:36:59.654531  5043 net.cpp:129] Top shape: 1 1 48 64 (3072)
I0729 14:36:59.654533  5043 net.cpp:137] Memory required for data: 492318720
I0729 14:36:59.654537  5043 layer_factory.hpp:77] Creating layer score97_slicer_conv_96_split
I0729 14:36:59.654546  5043 net.cpp:84] Creating Layer score97_slicer_conv_96_split
I0729 14:36:59.654552  5043 net.cpp:406] score97_slicer_conv_96_split <- score97
I0729 14:36:59.654561  5043 net.cpp:380] score97_slicer_conv_96_split -> score97_slicer_conv_96_split_0
I0729 14:36:59.654574  5043 net.cpp:380] score97_slicer_conv_96_split -> score97_slicer_conv_96_split_1
I0729 14:36:59.654637  5043 net.cpp:122] Setting up score97_slicer_conv_96_split
I0729 14:36:59.654645  5043 net.cpp:129] Top shape: 1 1 48 64 (3072)
I0729 14:36:59.654649  5043 net.cpp:129] Top shape: 1 1 48 64 (3072)
I0729 14:36:59.654652  5043 net.cpp:137] Memory required for data: 492343296
I0729 14:36:59.654656  5043 layer_factory.hpp:77] Creating layer score98_slicer_conv_97_split
I0729 14:36:59.654662  5043 net.cpp:84] Creating Layer score98_slicer_conv_97_split
I0729 14:36:59.654666  5043 net.cpp:406] score98_slicer_conv_97_split <- score98
I0729 14:36:59.654671  5043 net.cpp:380] score98_slicer_conv_97_split -> score98_slicer_conv_97_split_0
I0729 14:36:59.654678  5043 net.cpp:380] score98_slicer_conv_97_split -> score98_slicer_conv_97_split_1
I0729 14:36:59.654729  5043 net.cpp:122] Setting up score98_slicer_conv_97_split
I0729 14:36:59.654736  5043 net.cpp:129] Top shape: 1 1 48 64 (3072)
I0729 14:36:59.654749  5043 net.cpp:129] Top shape: 1 1 48 64 (3072)
I0729 14:36:59.654753  5043 net.cpp:137] Memory required for data: 492367872
I0729 14:36:59.654757  5043 layer_factory.hpp:77] Creating layer score99_slicer_conv_98_split
I0729 14:36:59.654762  5043 net.cpp:84] Creating Layer score99_slicer_conv_98_split
I0729 14:36:59.654765  5043 net.cpp:406] score99_slicer_conv_98_split <- score99
I0729 14:36:59.654772  5043 net.cpp:380] score99_slicer_conv_98_split -> score99_slicer_conv_98_split_0
I0729 14:36:59.654777  5043 net.cpp:380] score99_slicer_conv_98_split -> score99_slicer_conv_98_split_1
I0729 14:36:59.654830  5043 net.cpp:122] Setting up score99_slicer_conv_98_split
I0729 14:36:59.654836  5043 net.cpp:129] Top shape: 1 1 48 64 (3072)
I0729 14:36:59.654840  5043 net.cpp:129] Top shape: 1 1 48 64 (3072)
I0729 14:36:59.654844  5043 net.cpp:137] Memory required for data: 492392448
I0729 14:36:59.654846  5043 layer_factory.hpp:77] Creating layer score100_slicer_conv_99_split
I0729 14:36:59.654851  5043 net.cpp:84] Creating Layer score100_slicer_conv_99_split
I0729 14:36:59.654855  5043 net.cpp:406] score100_slicer_conv_99_split <- score100
I0729 14:36:59.654862  5043 net.cpp:380] score100_slicer_conv_99_split -> score100_slicer_conv_99_split_0
I0729 14:36:59.654867  5043 net.cpp:380] score100_slicer_conv_99_split -> score100_slicer_conv_99_split_1
I0729 14:36:59.654917  5043 net.cpp:122] Setting up score100_slicer_conv_99_split
I0729 14:36:59.654922  5043 net.cpp:129] Top shape: 1 1 48 64 (3072)
I0729 14:36:59.654927  5043 net.cpp:129] Top shape: 1 1 48 64 (3072)
I0729 14:36:59.654929  5043 net.cpp:137] Memory required for data: 492417024
I0729 14:36:59.654932  5043 layer_factory.hpp:77] Creating layer score101_slicer_conv_100_split
I0729 14:36:59.654937  5043 net.cpp:84] Creating Layer score101_slicer_conv_100_split
I0729 14:36:59.654940  5043 net.cpp:406] score101_slicer_conv_100_split <- score101
I0729 14:36:59.654945  5043 net.cpp:380] score101_slicer_conv_100_split -> score101_slicer_conv_100_split_0
I0729 14:36:59.654952  5043 net.cpp:380] score101_slicer_conv_100_split -> score101_slicer_conv_100_split_1
I0729 14:36:59.654999  5043 net.cpp:122] Setting up score101_slicer_conv_100_split
I0729 14:36:59.655007  5043 net.cpp:129] Top shape: 1 1 48 64 (3072)
I0729 14:36:59.655014  5043 net.cpp:129] Top shape: 1 1 48 64 (3072)
I0729 14:36:59.655019  5043 net.cpp:137] Memory required for data: 492441600
I0729 14:36:59.655025  5043 layer_factory.hpp:77] Creating layer score102_slicer_conv_101_split
I0729 14:36:59.655033  5043 net.cpp:84] Creating Layer score102_slicer_conv_101_split
I0729 14:36:59.655040  5043 net.cpp:406] score102_slicer_conv_101_split <- score102
I0729 14:36:59.655047  5043 net.cpp:380] score102_slicer_conv_101_split -> score102_slicer_conv_101_split_0
I0729 14:36:59.655053  5043 net.cpp:380] score102_slicer_conv_101_split -> score102_slicer_conv_101_split_1
I0729 14:36:59.655107  5043 net.cpp:122] Setting up score102_slicer_conv_101_split
I0729 14:36:59.655114  5043 net.cpp:129] Top shape: 1 1 48 64 (3072)
I0729 14:36:59.655117  5043 net.cpp:129] Top shape: 1 1 48 64 (3072)
I0729 14:36:59.655122  5043 net.cpp:137] Memory required for data: 492466176
I0729 14:36:59.655128  5043 layer_factory.hpp:77] Creating layer score103_slicer_conv_102_split
I0729 14:36:59.655141  5043 net.cpp:84] Creating Layer score103_slicer_conv_102_split
I0729 14:36:59.655149  5043 net.cpp:406] score103_slicer_conv_102_split <- score103
I0729 14:36:59.655158  5043 net.cpp:380] score103_slicer_conv_102_split -> score103_slicer_conv_102_split_0
I0729 14:36:59.655169  5043 net.cpp:380] score103_slicer_conv_102_split -> score103_slicer_conv_102_split_1
I0729 14:36:59.655226  5043 net.cpp:122] Setting up score103_slicer_conv_102_split
I0729 14:36:59.655233  5043 net.cpp:129] Top shape: 1 1 48 64 (3072)
I0729 14:36:59.655237  5043 net.cpp:129] Top shape: 1 1 48 64 (3072)
I0729 14:36:59.655239  5043 net.cpp:137] Memory required for data: 492490752
I0729 14:36:59.655243  5043 layer_factory.hpp:77] Creating layer score104_slicer_conv_103_split
I0729 14:36:59.655259  5043 net.cpp:84] Creating Layer score104_slicer_conv_103_split
I0729 14:36:59.655267  5043 net.cpp:406] score104_slicer_conv_103_split <- score104
I0729 14:36:59.655275  5043 net.cpp:380] score104_slicer_conv_103_split -> score104_slicer_conv_103_split_0
I0729 14:36:59.655288  5043 net.cpp:380] score104_slicer_conv_103_split -> score104_slicer_conv_103_split_1
I0729 14:36:59.655351  5043 net.cpp:122] Setting up score104_slicer_conv_103_split
I0729 14:36:59.655359  5043 net.cpp:129] Top shape: 1 1 48 64 (3072)
I0729 14:36:59.655364  5043 net.cpp:129] Top shape: 1 1 48 64 (3072)
I0729 14:36:59.655366  5043 net.cpp:137] Memory required for data: 492515328
I0729 14:36:59.655369  5043 layer_factory.hpp:77] Creating layer score105_slicer_conv_104_split
I0729 14:36:59.655376  5043 net.cpp:84] Creating Layer score105_slicer_conv_104_split
I0729 14:36:59.655380  5043 net.cpp:406] score105_slicer_conv_104_split <- score105
I0729 14:36:59.655387  5043 net.cpp:380] score105_slicer_conv_104_split -> score105_slicer_conv_104_split_0
I0729 14:36:59.655397  5043 net.cpp:380] score105_slicer_conv_104_split -> score105_slicer_conv_104_split_1
I0729 14:36:59.655477  5043 net.cpp:122] Setting up score105_slicer_conv_104_split
I0729 14:36:59.655489  5043 net.cpp:129] Top shape: 1 1 48 64 (3072)
I0729 14:36:59.655498  5043 net.cpp:129] Top shape: 1 1 48 64 (3072)
I0729 14:36:59.655503  5043 net.cpp:137] Memory required for data: 492539904
I0729 14:36:59.655508  5043 layer_factory.hpp:77] Creating layer score106_slicer_conv_105_split
I0729 14:36:59.655516  5043 net.cpp:84] Creating Layer score106_slicer_conv_105_split
I0729 14:36:59.655524  5043 net.cpp:406] score106_slicer_conv_105_split <- score106
I0729 14:36:59.655532  5043 net.cpp:380] score106_slicer_conv_105_split -> score106_slicer_conv_105_split_0
I0729 14:36:59.655544  5043 net.cpp:380] score106_slicer_conv_105_split -> score106_slicer_conv_105_split_1
I0729 14:36:59.655623  5043 net.cpp:122] Setting up score106_slicer_conv_105_split
I0729 14:36:59.655635  5043 net.cpp:129] Top shape: 1 1 48 64 (3072)
I0729 14:36:59.655640  5043 net.cpp:129] Top shape: 1 1 48 64 (3072)
I0729 14:36:59.655643  5043 net.cpp:137] Memory required for data: 492564480
I0729 14:36:59.655647  5043 layer_factory.hpp:77] Creating layer score107_slicer_conv_106_split
I0729 14:36:59.655652  5043 net.cpp:84] Creating Layer score107_slicer_conv_106_split
I0729 14:36:59.655656  5043 net.cpp:406] score107_slicer_conv_106_split <- score107
I0729 14:36:59.655663  5043 net.cpp:380] score107_slicer_conv_106_split -> score107_slicer_conv_106_split_0
I0729 14:36:59.655669  5043 net.cpp:380] score107_slicer_conv_106_split -> score107_slicer_conv_106_split_1
I0729 14:36:59.655724  5043 net.cpp:122] Setting up score107_slicer_conv_106_split
I0729 14:36:59.655730  5043 net.cpp:129] Top shape: 1 1 48 64 (3072)
I0729 14:36:59.655735  5043 net.cpp:129] Top shape: 1 1 48 64 (3072)
I0729 14:36:59.655736  5043 net.cpp:137] Memory required for data: 492589056
I0729 14:36:59.655740  5043 layer_factory.hpp:77] Creating layer score108_slicer_conv_107_split
I0729 14:36:59.655745  5043 net.cpp:84] Creating Layer score108_slicer_conv_107_split
I0729 14:36:59.655748  5043 net.cpp:406] score108_slicer_conv_107_split <- score108
I0729 14:36:59.655753  5043 net.cpp:380] score108_slicer_conv_107_split -> score108_slicer_conv_107_split_0
I0729 14:36:59.655760  5043 net.cpp:380] score108_slicer_conv_107_split -> score108_slicer_conv_107_split_1
I0729 14:36:59.655808  5043 net.cpp:122] Setting up score108_slicer_conv_107_split
I0729 14:36:59.655815  5043 net.cpp:129] Top shape: 1 1 48 64 (3072)
I0729 14:36:59.655818  5043 net.cpp:129] Top shape: 1 1 48 64 (3072)
I0729 14:36:59.655822  5043 net.cpp:137] Memory required for data: 492613632
I0729 14:36:59.655825  5043 layer_factory.hpp:77] Creating layer score109_slicer_conv_108_split
I0729 14:36:59.655829  5043 net.cpp:84] Creating Layer score109_slicer_conv_108_split
I0729 14:36:59.655833  5043 net.cpp:406] score109_slicer_conv_108_split <- score109
I0729 14:36:59.655849  5043 net.cpp:380] score109_slicer_conv_108_split -> score109_slicer_conv_108_split_0
I0729 14:36:59.655856  5043 net.cpp:380] score109_slicer_conv_108_split -> score109_slicer_conv_108_split_1
I0729 14:36:59.655908  5043 net.cpp:122] Setting up score109_slicer_conv_108_split
I0729 14:36:59.655915  5043 net.cpp:129] Top shape: 1 1 48 64 (3072)
I0729 14:36:59.655920  5043 net.cpp:129] Top shape: 1 1 48 64 (3072)
I0729 14:36:59.655922  5043 net.cpp:137] Memory required for data: 492638208
I0729 14:36:59.655925  5043 layer_factory.hpp:77] Creating layer score110_slicer_conv_109_split
I0729 14:36:59.655930  5043 net.cpp:84] Creating Layer score110_slicer_conv_109_split
I0729 14:36:59.655935  5043 net.cpp:406] score110_slicer_conv_109_split <- score110
I0729 14:36:59.655939  5043 net.cpp:380] score110_slicer_conv_109_split -> score110_slicer_conv_109_split_0
I0729 14:36:59.655944  5043 net.cpp:380] score110_slicer_conv_109_split -> score110_slicer_conv_109_split_1
I0729 14:36:59.655993  5043 net.cpp:122] Setting up score110_slicer_conv_109_split
I0729 14:36:59.655999  5043 net.cpp:129] Top shape: 1 1 48 64 (3072)
I0729 14:36:59.656003  5043 net.cpp:129] Top shape: 1 1 48 64 (3072)
I0729 14:36:59.656005  5043 net.cpp:137] Memory required for data: 492662784
I0729 14:36:59.656009  5043 layer_factory.hpp:77] Creating layer score111_slicer_conv_110_split
I0729 14:36:59.656013  5043 net.cpp:84] Creating Layer score111_slicer_conv_110_split
I0729 14:36:59.656018  5043 net.cpp:406] score111_slicer_conv_110_split <- score111
I0729 14:36:59.656024  5043 net.cpp:380] score111_slicer_conv_110_split -> score111_slicer_conv_110_split_0
I0729 14:36:59.656034  5043 net.cpp:380] score111_slicer_conv_110_split -> score111_slicer_conv_110_split_1
I0729 14:36:59.656100  5043 net.cpp:122] Setting up score111_slicer_conv_110_split
I0729 14:36:59.656107  5043 net.cpp:129] Top shape: 1 1 48 64 (3072)
I0729 14:36:59.656111  5043 net.cpp:129] Top shape: 1 1 48 64 (3072)
I0729 14:36:59.656114  5043 net.cpp:137] Memory required for data: 492687360
I0729 14:36:59.656117  5043 layer_factory.hpp:77] Creating layer score112_slicer_conv_111_split
I0729 14:36:59.656124  5043 net.cpp:84] Creating Layer score112_slicer_conv_111_split
I0729 14:36:59.656131  5043 net.cpp:406] score112_slicer_conv_111_split <- score112
I0729 14:36:59.656141  5043 net.cpp:380] score112_slicer_conv_111_split -> score112_slicer_conv_111_split_0
I0729 14:36:59.656150  5043 net.cpp:380] score112_slicer_conv_111_split -> score112_slicer_conv_111_split_1
I0729 14:36:59.656220  5043 net.cpp:122] Setting up score112_slicer_conv_111_split
…
I0729 14:36:59.656826  5043 net.cpp:137] Memory required for data: 492834816
I0729 14:36:59.656829  5043 layer_factory.hpp:77] Creating layer score118_slicer_conv_117_split
I0729 14:36:59.656833  5043 net.cpp:84] Creating Layer score118_slicer_conv_117_split
I0729 14:36:59.656837  5043 net.cpp:406] score118_slicer_conv_117_split <- score118
I0729 14:36:59.656843  5043 net.cpp:380] score118_slicer_conv_117_split -> score118_slicer_conv_117_split_0
I0729 14:36:59.656848  5043 net.cpp:380] score118_slicer_conv_117_split -> score118_slicer_conv_117_split_1
I0729 14:36:59.656896  5043 net.cpp:122] Setting up score118_slicer_conv_117_split
I0729 14:36:59.656903  5043 net.cpp:129] Top shape: 1 1 48 64 (3072)
I0729 14:36:59.656906  5043 net.cpp:129] Top shape: 1 1 48 64 (3072)
I0729 14:36:59.656909  5043 net.cpp:137] Memory required for data: 492859392
I0729 14:36:59.656913  5043 layer_factory.hpp:77] Creating layer score119_slicer_conv_118_split
I0729 14:36:59.656919  5043 net.cpp:84] Creating Layer score119_slicer_conv_118_split
I0729 14:36:59.656922  5043 net.cpp:406] score119_slicer_conv_118_split <- score119
I0729 14:36:59.656926  5043 net.cpp:380] score119_slicer_conv_118_split -> score119_slicer_conv_118_split_0
I0729 14:36:59.656983  5043 net.cpp:380] score119_slicer_conv_118_split -> score119_slicer_conv_118_split_1
I0729 14:36:59.657037  5043 net.cpp:122] Setting up score119_slicer_conv_118_split
I0729 14:36:59.657044  5043 net.cpp:129] Top shape: 1 1 48 64 (3072)
I0729 14:36:59.657058  5043 net.cpp:129] Top shape: 1 1 48 64 (3072)
I0729 14:36:59.657063  5043 net.cpp:137] Memory required for data: 492883968
I0729 14:36:59.657065  5043 layer_factory.hpp:77] Creating layer score120_slicer_conv_119_split
I0729 14:36:59.657070  5043 net.cpp:84] Creating Layer score120_slicer_conv_119_split
I0729 14:36:59.657074  5043 net.cpp:406] score120_slicer_conv_119_split <- score120
I0729 14:36:59.657079  5043 net.cpp:380] score120_slicer_conv_119_split -> score120_slicer_conv_119_split_0
I0729 14:36:59.657085  5043 net.cpp:380] score120_slicer_conv_119_split -> score120_slicer_conv_119_split_1
I0729 14:36:59.657136  5043 net.cpp:122] Setting up score120_slicer_conv_119_split
I0729 14:36:59.657142  5043 net.cpp:129] Top shape: 1 1 48 64 (3072)
I0729 14:36:59.657146  5043 net.cpp:129] Top shape: 1 1 48 64 (3072)
I0729 14:36:59.657150  5043 net.cpp:137] Memory required for data: 492908544
I0729 14:36:59.657152  5043 layer_factory.hpp:77] Creating layer score121_slicer_conv_120_split
I0729 14:36:59.657157  5043 net.cpp:84] Creating Layer score121_slicer_conv_120_split
I0729 14:36:59.657160  5043 net.cpp:406] score121_slicer_conv_120_split <- score121
I0729 14:36:59.657166  5043 net.cpp:380] score121_slicer_conv_120_split -> score121_slicer_conv_120_split_0
I0729 14:36:59.657171  5043 net.cpp:380] score121_slicer_conv_120_split -> score121_slicer_conv_120_split_1
I0729 14:36:59.657218  5043 net.cpp:122] Setting up score121_slicer_conv_120_split
I0729 14:36:59.657224  5043 net.cpp:129] Top shape: 1 1 48 64 (3072)
I0729 14:36:59.657228  5043 net.cpp:129] Top shape: 1 1 48 64 (3072)
I0729 14:36:59.657232  5043 net.cpp:137] Memory required for data: 492933120
I0729 14:36:59.657234  5043 layer_factory.hpp:77] Creating layer score122_slicer_conv_121_split
I0729 14:36:59.657238  5043 net.cpp:84] Creating Layer score122_slicer_conv_121_split
I0729 14:36:59.657243  5043 net.cpp:406] score122_slicer_conv_121_split <- score122
I0729 14:36:59.657246  5043 net.cpp:380] score122_slicer_conv_121_split -> score122_slicer_conv_121_split_0
I0729 14:36:59.657253  5043 net.cpp:380] score122_slicer_conv_121_split -> score122_slicer_conv_121_split_1
I0729 14:36:59.657299  5043 net.cpp:122] Setting up score122_slicer_conv_121_split
I0729 14:36:59.657320  5043 net.cpp:129] Top shape: 1 1 48 64 (3072)
I0729 14:36:59.657325  5043 net.cpp:129] Top shape: 1 1 48 64 (3072)
I0729 14:36:59.657328  5043 net.cpp:137] Memory required for data: 492957696
I0729 14:36:59.657331  5043 layer_factory.hpp:77] Creating layer score123_slicer_conv_122_split
I0729 14:36:59.657336  5043 net.cpp:84] Creating Layer score123_slicer_conv_122_split
I0729 14:36:59.657340  5043 net.cpp:406] score123_slicer_conv_122_split <- score123
I0729 14:36:59.657346  5043 net.cpp:380] score123_slicer_conv_122_split -> score123_slicer_conv_122_split_0
I0729 14:36:59.657353  5043 net.cpp:380] score123_slicer_conv_122_split -> score123_slicer_conv_122_split_1
I0729 14:36:59.657407  5043 net.cpp:122] Setting up score123_slicer_conv_122_split
I0729 14:36:59.657413  5043 net.cpp:129] Top shape: 1 1 48 64 (3072)
I0729 14:36:59.657418  5043 net.cpp:129] Top shape: 1 1 48 64 (3072)
I0729 14:36:59.657420  5043 net.cpp:137] Memory required for data: 492982272
I0729 14:36:59.657424  5043 layer_factory.hpp:77] Creating layer score124_slicer_conv_123_split
I0729 14:36:59.657429  5043 net.cpp:84] Creating Layer score124_slicer_conv_123_split
I0729 14:36:59.657433  5043 net.cpp:406] score124_slicer_conv_123_split <- score124
I0729 14:36:59.657438  5043 net.cpp:380] score124_slicer_conv_123_split -> score124_slicer_conv_123_split_0
I0729 14:36:59.657444  5043 net.cpp:380] score124_slicer_conv_123_split -> score124_slicer_conv_123_split_1
I0729 14:36:59.657495  5043 net.cpp:122] Setting up score124_slicer_conv_123_split
I0729 14:36:59.657500  5043 net.cpp:129] Top shape: 1 1 48 64 (3072)
I0729 14:36:59.657505  5043 net.cpp:129] Top shape: 1 1 48 64 (3072)
I0729 14:36:59.657507  5043 net.cpp:137] Memory required for data: 493006848
I0729 14:36:59.657511  5043 layer_factory.hpp:77] Creating layer score125_slicer_conv_124_split
I0729 14:36:59.657524  5043 net.cpp:84] Creating Layer score125_slicer_conv_124_split
I0729 14:36:59.657531  5043 net.cpp:406] score125_slicer_conv_124_split <- score125
I0729 14:36:59.657534  5043 net.cpp:380] score125_slicer_conv_124_split -> score125_slicer_conv_124_split_0
I0729 14:36:59.657541  5043 net.cpp:380] score125_slicer_conv_124_split -> score125_slicer_conv_124_split_1
I0729 14:36:59.657593  5043 net.cpp:122] Setting up score125_slicer_conv_124_split
I0729 14:36:59.657599  5043 net.cpp:129] Top shape: 1 1 48 64 (3072)
I0729 14:36:59.657603  5043 net.cpp:129] Top shape: 1 1 48 64 (3072)
I0729 14:36:59.657606  5043 net.cpp:137] Memory required for data: 493031424
I0729 14:36:59.657610  5043 layer_factory.hpp:77] Creating layer score126_slicer_conv_125_split
I0729 14:36:59.657615  5043 net.cpp:84] Creating Layer score126_slicer_conv_125_split
I0729 14:36:59.657619  5043 net.cpp:406] score126_slicer_conv_125_split <- score126
I0729 14:36:59.657624  5043 net.cpp:380] score126_slicer_conv_125_split -> score126_slicer_conv_125_split_0
I0729 14:36:59.657629  5043 net.cpp:380] score126_slicer_conv_125_split -> score126_slicer_conv_125_split_1
I0729 14:36:59.657706  5043 net.cpp:122] Setting up score126_slicer_conv_125_split
I0729 14:36:59.657716  5043 net.cpp:129] Top shape: 1 1 48 64 (3072)
I0729 14:36:59.657721  5043 net.cpp:129] Top shape: 1 1 48 64 (3072)
I0729 14:36:59.657723  5043 net.cpp:137] Memory required for data: 493056000
I0729 14:36:59.657727  5043 layer_factory.hpp:77] Creating layer score127_slicer_conv_126_split
I0729 14:36:59.657735  5043 net.cpp:84] Creating Layer score127_slicer_conv_126_split
I0729 14:36:59.657742  5043 net.cpp:406] score127_slicer_conv_126_split <- score127
I0729 14:36:59.657752  5043 net.cpp:380] score127_slicer_conv_126_split -> score127_slicer_conv_126_split_0
I0729 14:36:59.657763  5043 net.cpp:380] score127_slicer_conv_126_split -> score127_slicer_conv_126_split_1
I0729 14:36:59.657827  5043 net.cpp:122] Setting up score127_slicer_conv_126_split
I0729 14:36:59.657835  5043 net.cpp:129] Top shape: 1 1 48 64 (3072)
I0729 14:36:59.657840  5043 net.cpp:129] Top shape: 1 1 48 64 (3072)
I0729 14:36:59.657843  5043 net.cpp:137] Memory required for data: 493080576
I0729 14:36:59.657847  5043 layer_factory.hpp:77] Creating layer score128_slicer_conv_127_split
I0729 14:36:59.657853  5043 net.cpp:84] Creating Layer score128_slicer_conv_127_split
I0729 14:36:59.657857  5043 net.cpp:406] score128_slicer_conv_127_split <- score128
I0729 14:36:59.657867  5043 net.cpp:380] score128_slicer_conv_127_split -> score128_slicer_conv_127_split_0
I0729 14:36:59.657878  5043 net.cpp:380] score128_slicer_conv_127_split -> score128_slicer_conv_127_split_1
I0729 14:36:59.657950  5043 net.cpp:122] Setting up score128_slicer_conv_127_split
I0729 14:36:59.657959  5043 net.cpp:129] Top shape: 1 1 48 64 (3072)
I0729 14:36:59.657963  5043 net.cpp:129] Top shape: 1 1 48 64 (3072)
I0729 14:36:59.657966  5043 net.cpp:137] Memory required for data: 493105152
I0729 14:36:59.657969  5043 layer_factory.hpp:77] Creating layer sumscore
I0729 14:36:59.657994  5043 net.cpp:84] Creating Layer sumscore
I0729 14:36:59.658004  5043 net.cpp:406] sumscore <- score1_slicer_conv_0_split_0
I0729 14:36:59.658012  5043 net.cpp:406] sumscore <- score2_slicer_conv_1_split_0
I0729 14:36:59.658020  5043 net.cpp:406] sumscore <- score3_slicer_conv_2_split_0
…
I0729 14:36:59.661547  5043 net.cpp:380] sumscore_sumscore_0_split -> sumscore_sumscore_0_split_123
I0729 14:36:59.661567  5043 net.cpp:380] sumscore_sumscore_0_split -> sumscore_sumscore_0_split_124
I0729 14:36:59.661594  5043 net.cpp:380] sumscore_sumscore_0_split -> sumscore_sumscore_0_split_125
I0729 14:36:59.661628  5043 net.cpp:380] sumscore_sumscore_0_split -> sumscore_sumscore_0_split_126
I0729 14:36:59.661650  5043 net.cpp:380] sumscore_sumscore_0_split -> sumscore_sumscore_0_split_127
I0729 14:36:59.663913  5043 net.cpp:122] Setting up sumscore_sumscore_0_split
I0729 14:36:59.663926  5043 net.cpp:129] Top shape: 1 1 48 64 (3072)
I0729 14:36:59.663930  5043 net.cpp:129] Top shape: 1 1 48 64 (3072)
I0729 14:36:59.663934  5043 net.cpp:129] Top shape: 1 1 48 64 (3072)
I0729 14:36:59.663938  5043 net.cpp:129] Top shape: 1 1 48 64 (3072)
I0729 14:36:59.663941  5043 net.cpp:129] Top shape: 1 1 48 64 (3072)
I0729 14:36:59.663944  5043 net.cpp:129] Top shape: 1 1 48 64 (3072)
I0729 14:36:59.663947  5043 net.cpp:129] Top shape: 1 1 48 64 (3072)
I0729 14:36:59.663951  5043 net.cpp:129] Top shape: 1 1 48 64 (3072)
I0729 14:36:59.663954  5043 net.cpp:129] Top shape: 1 1 48 64 (3072)
I0729 14:36:59.663959  5043 net.cpp:129] Top shape: 1 1 48 64 (3072)
I0729 14:36:59.663962  5043 net.cpp:129] Top shape: 1 1 48 64 (3072)
I0729 14:36:59.663966  5043 net.cpp:129] Top shape: 1 1 48 64 (3072)
I0729 14:36:59.663970  5043 net.cpp:129] Top shape: 1 1 48 64 (3072)
I0729 14:36:59.663974  5043 net.cpp:129] Top shape: 1 1 48 64 (3072)
I0729 14:36:59.663977  5043 net.cpp:129] Top shape: 1 1 48 64 (3072)
I0729 14:36:59.663981  5043 net.cpp:129] Top shape: 1 1 48 64 (3072)
I0729 14:36:59.663985  5043 net.cpp:129] Top shape: 1 1 48 64 (3072)
I0729 14:36:59.663988  5043 net.cpp:129] Top shape: 1 1 48 64 (3072)
I0729 14:36:59.663992  5043 net.cpp:129] Top shape: 1 1 48 64 (3072)
I0729 14:36:59.663995  5043 net.cpp:129] Top shape: 1 1 48 64 (3072)
I0729 14:36:59.664011  5043 net.cpp:129] Top shape: 1 1 48 64 (3072)
I0729 14:36:59.664014  5043 net.cpp:129] Top shape: 1 1 48 64 (3072)
I0729 14:36:59.664018  5043 net.cpp:129] Top shape: 1 1 48 64 (3072)
I0729 14:36:59.664022  5043 net.cpp:129] Top shape: 1 1 48 64 (3072)
I0729 14:36:59.664026  5043 net.cpp:129] Top shape: 1 1 48 64 (3072)
I0729 14:36:59.664029  5043 net.cpp:129] Top shape: 1 1 48 64 (3072)
I0729 14:36:59.664036  5043 net.cpp:129] Top shape: 1 1 48 64 (3072)
I0729 14:36:59.664042  5043 net.cpp:129] Top shape: 1 1 48 64 (3072)
I0729 14:36:59.664048  5043 net.cpp:129] Top shape: 1 1 48 64 (3072)
I0729 14:36:59.664057  5043 net.cpp:129] Top shape: 1 1 48 64 (3072)
I0729 14:36:59.664062  5043 net.cpp:129] Top shape: 1 1 48 64 (3072)
I0729 14:36:59.664069  5043 net.cpp:129] Top shape: 1 1 48 64 (3072)
I0729 14:36:59.664073  5043 net.cpp:129] Top shape: 1 1 48 64 (3072)
I0729 14:36:59.664077  5043 net.cpp:129] Top shape: 1 1 48 64 (3072)
I0729 14:36:59.664080  5043 net.cpp:129] Top shape: 1 1 48 64 (3072)
I0729 14:36:59.664084  5043 net.cpp:129] Top shape: 1 1 48 64 (3072)
I0729 14:36:59.664088  5043 net.cpp:129] Top shape: 1 1 48 64 (3072)
I0729 14:36:59.664091  5043 net.cpp:129] Top shape: 1 1 48 64 (3072)
I0729 14:36:59.664095  5043 net.cpp:129] Top shape: 1 1 48 64 (3072)
I0729 14:36:59.664098  5043 net.cpp:129] Top shape: 1 1 48 64 (3072)
I0729 14:36:59.664103  5043 net.cpp:129] Top shape: 1 1 48 64 (3072)
I0729 14:36:59.664105  5043 net.cpp:129] Top shape: 1 1 48 64 (3072)
I0729 14:36:59.664109  5043 net.cpp:129] Top shape: 1 1 48 64 (3072)
I0729 14:36:59.664113  5043 net.cpp:129] Top shape: 1 1 48 64 (3072)
I0729 14:36:59.664116  5043 net.cpp:129] Top shape: 1 1 48 64 (3072)
I0729 14:36:59.664119  5043 net.cpp:129] Top shape: 1 1 48 64 (3072)
I0729 14:36:59.664124  5043 net.cpp:129] Top shape: 1 1 48 64 (3072)
I0729 14:36:59.664129  5043 net.cpp:129] Top shape: 1 1 48 64 (3072)
I0729 14:36:59.664134  5043 net.cpp:129] Top shape: 1 1 48 64 (3072)
I0729 14:36:59.664141  5043 net.cpp:129] Top shape: 1 1 48 64 (3072)
I0729 14:36:59.664147  5043 net.cpp:129] Top shape: 1 1 48 64 (3072)
I0729 14:36:59.664153  5043 net.cpp:129] Top shape: 1 1 48 64 (3072)
I0729 14:36:59.664160  5043 net.cpp:129] Top shape: 1 1 48 64 (3072)
I0729 14:36:59.664166  5043 net.cpp:129] Top shape: 1 1 48 64 (3072)
I0729 14:36:59.664175  5043 net.cpp:129] Top shape: 1 1 48 64 (3072)
I0729 14:36:59.664178  5043 net.cpp:129] Top shape: 1 1 48 64 (3072)
I0729 14:36:59.664181  5043 net.cpp:129] Top shape: 1 1 48 64 (3072)
I0729 14:36:59.664186  5043 net.cpp:129] Top shape: 1 1 48 64 (3072)
I0729 14:36:59.664189  5043 net.cpp:129] Top shape: 1 1 48 64 (3072)
I0729 14:36:59.664192  5043 net.cpp:129] Top shape: 1 1 48 64 (3072)
I0729 14:36:59.664196  5043 net.cpp:129] Top shape: 1 1 48 64 (3072)
I0729 14:36:59.664199  5043 net.cpp:129] Top shape: 1 1 48 64 (3072)
I0729 14:36:59.664203  5043 net.cpp:129] Top shape: 1 1 48 64 (3072)
I0729 14:36:59.664206  5043 net.cpp:129] Top shape: 1 1 48 64 (3072)
I0729 14:36:59.664211  5043 net.cpp:129] Top shape: 1 1 48 64 (3072)
I0729 14:36:59.664214  5043 net.cpp:129] Top shape: 1 1 48 64 (3072)
I0729 14:36:59.664217  5043 net.cpp:129] Top shape: 1 1 48 64 (3072)
I0729 14:36:59.664222  5043 net.cpp:129] Top shape: 1 1 48 64 (3072)
I0729 14:36:59.664224  5043 net.cpp:129] Top shape: 1 1 48 64 (3072)
I0729 14:36:59.664228  5043 net.cpp:129] Top shape: 1 1 48 64 (3072)
I0729 14:36:59.664232  5043 net.cpp:129] Top shape: 1 1 48 64 (3072)
I0729 14:36:59.664235  5043 net.cpp:129] Top shape: 1 1 48 64 (3072)
I0729 14:36:59.664239  5043 net.cpp:129] Top shape: 1 1 48 64 (3072)
I0729 14:36:59.664242  5043 net.cpp:129] Top shape: 1 1 48 64 (3072)
I0729 14:36:59.664247  5043 net.cpp:129] Top shape: 1 1 48 64 (3072)
I0729 14:36:59.664250  5043 net.cpp:129] Top shape: 1 1 48 64 (3072)
I0729 14:36:59.664257  5043 net.cpp:129] Top shape: 1 1 48 64 (3072)
I0729 14:36:59.664263  5043 net.cpp:129] Top shape: 1 1 48 64 (3072)
I0729 14:36:59.664268  5043 net.cpp:129] Top shape: 1 1 48 64 (3072)
I0729 14:36:59.664275  5043 net.cpp:129] Top shape: 1 1 48 64 (3072)
I0729 14:36:59.664294  5043 net.cpp:129] Top shape: 1 1 48 64 (3072)
I0729 14:36:59.664301  5043 net.cpp:129] Top shape: 1 1 48 64 (3072)
I0729 14:36:59.664305  5043 net.cpp:129] Top shape: 1 1 48 64 (3072)
I0729 14:36:59.664309  5043 net.cpp:129] Top shape: 1 1 48 64 (3072)
I0729 14:36:59.664312  5043 net.cpp:129] Top shape: 1 1 48 64 (3072)
I0729 14:36:59.664315  5043 net.cpp:129] Top shape: 1 1 48 64 (3072)
I0729 14:36:59.664319  5043 net.cpp:129] Top shape: 1 1 48 64 (3072)
I0729 14:36:59.664324  5043 net.cpp:129] Top shape: 1 1 48 64 (3072)
I0729 14:36:59.664326  5043 net.cpp:129] Top shape: 1 1 48 64 (3072)
I0729 14:36:59.664330  5043 net.cpp:129] Top shape: 1 1 48 64 (3072)
I0729 14:36:59.664333  5043 net.cpp:129] Top shape: 1 1 48 64 (3072)
I0729 14:36:59.664337  5043 net.cpp:129] Top shape: 1 1 48 64 (3072)
I0729 14:36:59.664340  5043 net.cpp:129] Top shape: 1 1 48 64 (3072)
I0729 14:36:59.664345  5043 net.cpp:129] Top shape: 1 1 48 64 (3072)
I0729 14:36:59.664347  5043 net.cpp:129] Top shape: 1 1 48 64 (3072)
I0729 14:36:59.664351  5043 net.cpp:129] Top shape: 1 1 48 64 (3072)
I0729 14:36:59.664355  5043 net.cpp:129] Top shape: 1 1 48 64 (3072)
I0729 14:36:59.664358  5043 net.cpp:129] Top shape: 1 1 48 64 (3072)
I0729 14:36:59.664362  5043 net.cpp:129] Top shape: 1 1 48 64 (3072)
I0729 14:36:59.664366  5043 net.cpp:129] Top shape: 1 1 48 64 (3072)
I0729 14:36:59.664371  5043 net.cpp:129] Top shape: 1 1 48 64 (3072)
I0729 14:36:59.664377  5043 net.cpp:129] Top shape: 1 1 48 64 (3072)
I0729 14:36:59.664383  5043 net.cpp:129] Top shape: 1 1 48 64 (3072)
I0729 14:36:59.664389  5043 net.cpp:129] Top shape: 1 1 48 64 (3072)
I0729 14:36:59.664397  5043 net.cpp:129] Top shape: 1 1 48 64 (3072)
I0729 14:36:59.664402  5043 net.cpp:129] Top shape: 1 1 48 64 (3072)
I0729 14:36:59.664408  5043 net.cpp:129] Top shape: 1 1 48 64 (3072)
I0729 14:36:59.664414  5043 net.cpp:129] Top shape: 1 1 48 64 (3072)
I0729 14:36:59.664422  5043 net.cpp:129] Top shape: 1 1 48 64 (3072)
I0729 14:36:59.664428  5043 net.cpp:129] Top shape: 1 1 48 64 (3072)
I0729 14:36:59.664434  5043 net.cpp:129] Top shape: 1 1 48 64 (3072)
I0729 14:36:59.664439  5043 net.cpp:129] Top shape: 1 1 48 64 (3072)
I0729 14:36:59.664445  5043 net.cpp:129] Top shape: 1 1 48 64 (3072)
I0729 14:36:59.664453  5043 net.cpp:129] Top shape: 1 1 48 64 (3072)
I0729 14:36:59.664459  5043 net.cpp:129] Top shape: 1 1 48 64 (3072)
I0729 14:36:59.664466  5043 net.cpp:129] Top shape: 1 1 48 64 (3072)
I0729 14:36:59.664474  5043 net.cpp:129] Top shape: 1 1 48 64 (3072)
I0729 14:36:59.664479  5043 net.cpp:129] Top shape: 1 1 48 64 (3072)
I0729 14:36:59.664486  5043 net.cpp:129] Top shape: 1 1 48 64 (3072)
I0729 14:36:59.664492  5043 net.cpp:129] Top shape: 1 1 48 64 (3072)
I0729 14:36:59.664499  5043 net.cpp:129] Top shape: 1 1 48 64 (3072)
I0729 14:36:59.664506  5043 net.cpp:129] Top shape: 1 1 48 64 (3072)
I0729 14:36:59.664511  5043 net.cpp:129] Top shape: 1 1 48 64 (3072)
I0729 14:36:59.664515  5043 net.cpp:129] Top shape: 1 1 48 64 (3072)
I0729 14:36:59.664520  5043 net.cpp:129] Top shape: 1 1 48 64 (3072)
I0729 14:36:59.664523  5043 net.cpp:129] Top shape: 1 1 48 64 (3072)
I0729 14:36:59.664527  5043 net.cpp:129] Top shape: 1 1 48 64 (3072)
I0729 14:36:59.664531  5043 net.cpp:129] Top shape: 1 1 48 64 (3072)
I0729 14:36:59.664535  5043 net.cpp:137] Memory required for data: 494690304
I0729 14:36:59.664538  5043 layer_factory.hpp:77] Creating layer loss1
I0729 14:36:59.664547  5043 net.cpp:84] Creating Layer loss1
I0729 14:36:59.664554  5043 net.cpp:406] loss1 <- score1_slicer_conv_0_split_1
I0729 14:36:59.664567  5043 net.cpp:406] loss1 <- label_label_0_split_0
I0729 14:36:59.664577  5043 net.cpp:406] loss1 <- sumscore_sumscore_0_split_0
…
  top: "score100"
  top: "score101"
  top: "score102"
  top: "score103"
  top: "score104"
  top: "score105"
  top: "score106"
  top: "score107"
  top: "score108"
  top: "score109"
  top: "score110"
  top: "score111"
  top: "score112"
  top: "score113"
  top: "score114"
  top: "score115"
  top: "score116"
  top: "score117"
  top: "score118"
  top: "score119"
  top: "score120"
  top: "score121"
  top: "score122"
  top: "score123"
  top: "score124"
  top: "score125"
  top: "score126"
  top: "score127"
  top: "score128"
  slice_param {
    axis: 1
  }
}
layer {
  name: "sumscore"
  type: "Eltwise"
  bottom: "score1"
  bottom: "score2"
  bottom: "score3"
  bottom: "score4"
  bottom: "score5"
  bottom: "score6"
  bottom: "score7"
  bottom: "score8"
  bottom: "score9"
  bottom: "score10"
  bottom: "score11"
  bottom: "score12"
  bottom: "score13"
  bottom: "score14"
  bottom: "score15"
  bottom: "score16"
  bottom: "score17"
  bottom: "score18"
  bottom: "score19"
  bottom: "score20"
  bottom: "score21"
  bottom: "score22"
  bottom: "score23"
  bottom: "score24"
  bottom: "score25"
  bottom: "score26"
  bottom: "score27"
  bottom: "score28"
  bottom: "score29"
  bottom: "score30"
  bottom: "score31"
  bottom: "score32"
  bottom: "score33"
  bottom: "score34"
  bottom: "score35"
  bottom: "score36"
  bottom: "score37"
  bottom: "score38"
  bottom: "score39"
  bottom: "score40"
  bottom: "score41"
  bottom: "score42"
  bottom: "score43"
  bottom: "score44"
  bottom: "score45"
  bottom: "score46"
  bottom: "score47"
  bottom: "score48"
  bottom: "score49"
  bottom: "score50"
  bottom: "score51"
  bottom: "score52"
  bottom: "score53"
  bottom: "score54"
  bottom: "score55"
  bottom: "score56"
  bottom: "score57"
  bottom: "score58"
  bottom: "score59"
  bottom: "score60"
  bottom: "score61"
  bottom: "score62"
  bottom: "score63"
  bottom: "score64"
  bottom: "score65"
  bottom: "score66"
  bottom: "score67"
  bottom: "score68"
  bottom: "score69"
  bottom: "score70"
  bottom: "score71"
  bottom: "score72"
  bottom: "score73"
  bottom: "score74"
  bottom: "score75"
  bottom: "score76"
  bottom: "score77"
  bottom: "score78"
  bottom: "score79"
  bottom: "score80"
  bottom: "score81"
  bottom: "score82"
  bottom: "score83"
  bottom: "score84"
  bottom: "score85"
  bottom: "score86"
  bottom: "score87"
  bottom: "score88"
  bottom: "score89"
  bottom: "score90"
  bottom: "score91"
  bottom: "score92"
  bottom: "score93"
  bottom: "score94"
  bottom: "score95"
  bottom: "score96"
  bottom: "score97"
  bottom: "score98"
  bottom: "score99"
  bottom: "score100"
  bottom: "score101"
  bottom: "score102"
  bottom: "score103"
  bottom: "score104"
  bottom: "score105"
  bottom: "score106"
  bottom: "score107"
  bottom: "score108"
  bottom: "score109"
  bottom: "score110"
  bottom: "score111"
  bottom: "score112"
  bottom: "score113"
  bottom: "score114"
  bottom: "score115"
  bottom: "score116"
  bottom: "score117"
  bottom: "score118"
  bottom: "score119"
  bottom: "score120"
  bottom: "score121"
  bottom: "score122"
  bottom: "score123"
  bottom: "score124"
  bottom: "score125"
  bottom: "score126"
  bottom: "score127"
  bottom: "score128"
  top: "sumscore"
  eltwise_param {
    operation: SUM
  }
}
layer {
  name: "avgscore"
  type: "Power"
  bottom: "sumscore"
  top: "avgscore"
  include {
    phase: TEST
  }
  power_param {
    power: 1
    scale: 0.0078125
    shift: 0
  }
}
layer {
  name: "mae"
  type: "MAELoss"
  bottom: "avgscore"
  bottom: "label"
  top: "mae"
  include {
    phase: TEST
  }
}
layer {
  name: "mse"
  type: "MSELoss"
  bottom: "avgscore"
  bottom: "label"
  top: "mse"
  include {
    phase: TEST
  }
}
I0729 14:36:59.706719  5043 layer_factory.hpp:77] Creating layer data
I0729 14:36:59.706951  5043 db_lmdb.cpp:35] Opened lmdb /home/peiyong/Work/Zenglin/szl/ShanghaiTech/partA/test_8/image_lmdb
I0729 14:36:59.706981  5043 net.cpp:84] Creating Layer data
I0729 14:36:59.706989  5043 net.cpp:380] data -> data
I0729 14:36:59.708873  5043 data_layer.cpp:45] output data size: 1,3,704,1024
I0729 14:36:59.724390  5043 net.cpp:122] Setting up data
I0729 14:36:59.724416  5043 net.cpp:129] Top shape: 1 3 704 1024 (2162688)
I0729 14:36:59.724419  5043 net.cpp:137] Memory required for data: 8650752
I0729 14:36:59.724426  5043 layer_factory.hpp:77] Creating layer label
I0729 14:36:59.724673  5043 db_lmdb.cpp:35] Opened lmdb /home/peiyong/Work/Zenglin/szl/ShanghaiTech/partA/test_8/dmap_lmdb
I0729 14:36:59.724701  5043 net.cpp:84] Creating Layer label
I0729 14:36:59.724709  5043 net.cpp:380] label -> label
I0729 14:36:59.724925  5043 data_layer.cpp:45] output data size: 1,1,88,128
I0729 14:36:59.725183  5043 net.cpp:122] Setting up label
I0729 14:36:59.725193  5043 net.cpp:129] Top shape: 1 1 88 128 (11264)
I0729 14:36:59.725196  5043 net.cpp:137] Memory required for data: 8695808
I0729 14:36:59.725200  5043 layer_factory.hpp:77] Creating layer label_label_0_split
I0729 14:36:59.725208  5043 net.cpp:84] Creating Layer label_label_0_split
I0729 14:36:59.725211  5043 net.cpp:406] label_label_0_split <- label
I0729 14:36:59.725217  5043 net.cpp:380] label_label_0_split -> label_label_0_split_0
I0729 14:36:59.725224  5043 net.cpp:380] label_label_0_split -> label_label_0_split_1
I0729 14:36:59.725286  5043 net.cpp:122] Setting up label_label_0_split
I0729 14:36:59.725294  5043 net.cpp:129] Top shape: 1 1 88 128 (11264)
I0729 14:36:59.725301  5043 net.cpp:129] Top shape: 1 1 88 128 (11264)
I0729 14:36:59.725318  5043 net.cpp:137] Memory required for data: 8785920
I0729 14:36:59.725325  5043 layer_factory.hpp:77] Creating layer conv1_1
I0729 14:36:59.725339  5043 net.cpp:84] Creating Layer conv1_1
I0729 14:36:59.725344  5043 net.cpp:406] conv1_1 <- data
I0729 14:36:59.725352  5043 net.cpp:380] conv1_1 -> conv1_1
I0729 14:36:59.728890  5043 net.cpp:122] Setting up conv1_1
I0729 14:36:59.728910  5043 net.cpp:129] Top shape: 1 64 704 1024 (46137344)
I0729 14:36:59.728914  5043 net.cpp:137] Memory required for data: 193335296
I0729 14:36:59.728926  5043 layer_factory.hpp:77] Creating layer relu1_1
I0729 14:36:59.728936  5043 net.cpp:84] Creating Layer relu1_1
I0729 14:36:59.728940  5043 net.cpp:406] relu1_1 <- conv1_1
I0729 14:36:59.728945  5043 net.cpp:367] relu1_1 -> conv1_1 (in-place)
I0729 14:36:59.730588  5043 net.cpp:122] Setting up relu1_1
I0729 14:36:59.730605  5043 net.cpp:129] Top shape: 1 64 704 1024 (46137344)
I0729 14:36:59.730609  5043 net.cpp:137] Memory required for data: 377884672
I0729 14:36:59.730613  5043 layer_factory.hpp:77] Creating layer conv1_2
I0729 14:36:59.730628  5043 net.cpp:84] Creating Layer conv1_2
I0729 14:36:59.730631  5043 net.cpp:406] conv1_2 <- conv1_1
I0729 14:36:59.730639  5043 net.cpp:380] conv1_2 -> conv1_2
I0729 14:36:59.735224  5043 net.cpp:122] Setting up conv1_2
I0729 14:36:59.735250  5043 net.cpp:129] Top shape: 1 64 704 1024 (46137344)
I0729 14:36:59.735255  5043 net.cpp:137] Memory required for data: 562434048
I0729 14:36:59.735301  5043 layer_factory.hpp:77] Creating layer relu1_2
I0729 14:36:59.735313  5043 net.cpp:84] Creating Layer relu1_2
I0729 14:36:59.735318  5043 net.cpp:406] relu1_2 <- conv1_2
I0729 14:36:59.735324  5043 net.cpp:367] relu1_2 -> conv1_2 (in-place)
I0729 14:36:59.735596  5043 net.cpp:122] Setting up relu1_2
I0729 14:36:59.735610  5043 net.cpp:129] Top shape: 1 64 704 1024 (46137344)
I0729 14:36:59.735612  5043 net.cpp:137] Memory required for data: 746983424
I0729 14:36:59.735616  5043 layer_factory.hpp:77] Creating layer pool1
I0729 14:36:59.735625  5043 net.cpp:84] Creating Layer pool1
I0729 14:36:59.735628  5043 net.cpp:406] pool1 <- conv1_2
I0729 14:36:59.735635  5043 net.cpp:380] pool1 -> pool1
I0729 14:36:59.735728  5043 net.cpp:122] Setting up pool1
I0729 14:36:59.735735  5043 net.cpp:129] Top shape: 1 64 352 512 (11534336)
I0729 14:36:59.735738  5043 net.cpp:137] Memory required for data: 793120768
I0729 14:36:59.735740  5043 layer_factory.hpp:77] Creating layer conv2_1
I0729 14:36:59.735754  5043 net.cpp:84] Creating Layer conv2_1
I0729 14:36:59.735759  5043 net.cpp:406] conv2_1 <- pool1
I0729 14:36:59.735764  5043 net.cpp:380] conv2_1 -> conv2_1
I0729 14:36:59.739387  5043 net.cpp:122] Setting up conv2_1
I0729 14:36:59.739411  5043 net.cpp:129] Top shape: 1 128 352 512 (23068672)
I0729 14:36:59.739416  5043 net.cpp:137] Memory required for data: 885395456
I0729 14:36:59.739429  5043 layer_factory.hpp:77] Creating layer relu2_1
I0729 14:36:59.739439  5043 net.cpp:84] Creating Layer relu2_1
I0729 14:36:59.739444  5043 net.cpp:406] relu2_1 <- conv2_1
I0729 14:36:59.739450  5043 net.cpp:367] relu2_1 -> conv2_1 (in-place)
I0729 14:36:59.740033  5043 net.cpp:122] Setting up relu2_1
I0729 14:36:59.740047  5043 net.cpp:129] Top shape: 1 128 352 512 (23068672)
I0729 14:36:59.740051  5043 net.cpp:137] Memory required for data: 977670144
I0729 14:36:59.740056  5043 layer_factory.hpp:77] Creating layer conv2_2
I0729 14:36:59.740067  5043 net.cpp:84] Creating Layer conv2_2
I0729 14:36:59.740072  5043 net.cpp:406] conv2_2 <- conv2_1
I0729 14:36:59.740080  5043 net.cpp:380] conv2_2 -> conv2_2
I0729 14:36:59.745214  5043 net.cpp:122] Setting up conv2_2
I0729 14:36:59.745236  5043 net.cpp:129] Top shape: 1 128 352 512 (23068672)
I0729 14:36:59.745244  5043 net.cpp:137] Memory required for data: 1069944832
I0729 14:36:59.745256  5043 layer_factory.hpp:77] Creating layer relu2_2
I0729 14:36:59.745268  5043 net.cpp:84] Creating Layer relu2_2
I0729 14:36:59.745275  5043 net.cpp:406] relu2_2 <- conv2_2
I0729 14:36:59.745282  5043 net.cpp:367] relu2_2 -> conv2_2 (in-place)
I0729 14:36:59.746132  5043 net.cpp:122] Setting up relu2_2
I0729 14:36:59.746145  5043 net.cpp:129] Top shape: 1 128 352 512 (23068672)
I0729 14:36:59.746146  5043 net.cpp:137] Memory required for data: 1162219520
I0729 14:36:59.746150  5043 layer_factory.hpp:77] Creating layer pool2
I0729 14:36:59.746155  5043 net.cpp:84] Creating Layer pool2
I0729 14:36:59.746158  5043 net.cpp:406] pool2 <- conv2_2
I0729 14:36:59.746163  5043 net.cpp:380] pool2 -> pool2
I0729 14:36:59.746230  5043 net.cpp:122] Setting up pool2
I0729 14:36:59.746238  5043 net.cpp:129] Top shape: 1 128 176 256 (5767168)
I0729 14:36:59.746242  5043 net.cpp:137] Memory required for data: 1185288192
I0729 14:36:59.746244  5043 layer_factory.hpp:77] Creating layer conv3_1
I0729 14:36:59.746253  5043 net.cpp:84] Creating Layer conv3_1
I0729 14:36:59.746256  5043 net.cpp:406] conv3_1 <- pool2
I0729 14:36:59.746263  5043 net.cpp:380] conv3_1 -> conv3_1
I0729 14:36:59.751487  5043 net.cpp:122] Setting up conv3_1
I0729 14:36:59.751500  5043 net.cpp:129] Top shape: 1 256 176 256 (11534336)
I0729 14:36:59.751503  5043 net.cpp:137] Memory required for data: 1231425536
I0729 14:36:59.751513  5043 layer_factory.hpp:77] Creating layer relu3_1
I0729 14:36:59.751518  5043 net.cpp:84] Creating Layer relu3_1
I0729 14:36:59.751524  5043 net.cpp:406] relu3_1 <- conv3_1
I0729 14:36:59.751529  5043 net.cpp:367] relu3_1 -> conv3_1 (in-place)
I0729 14:36:59.751734  5043 net.cpp:122] Setting up relu3_1
I0729 14:36:59.751744  5043 net.cpp:129] Top shape: 1 256 176 256 (11534336)
I0729 14:36:59.751747  5043 net.cpp:137] Memory required for data: 1277562880
I0729 14:36:59.751752  5043 layer_factory.hpp:77] Creating layer conv3_2
I0729 14:36:59.751761  5043 net.cpp:84] Creating Layer conv3_2
I0729 14:36:59.751765  5043 net.cpp:406] conv3_2 <- conv3_1
I0729 14:36:59.751770  5043 net.cpp:380] conv3_2 -> conv3_2
I0729 14:36:59.759529  5043 net.cpp:122] Setting up conv3_2
I0729 14:36:59.759543  5043 net.cpp:129] Top shape: 1 256 176 256 (11534336)
I0729 14:36:59.759546  5043 net.cpp:137] Memory required for data: 1323700224
I0729 14:36:59.759552  5043 layer_factory.hpp:77] Creating layer relu3_2
I0729 14:36:59.759562  5043 net.cpp:84] Creating Layer relu3_2
I0729 14:36:59.759567  5043 net.cpp:406] relu3_2 <- conv3_2
I0729 14:36:59.759575  5043 net.cpp:367] relu3_2 -> conv3_2 (in-place)
I0729 14:36:59.760215  5043 net.cpp:122] Setting up relu3_2
I0729 14:36:59.760227  5043 net.cpp:129] Top shape: 1 256 176 256 (11534336)
I0729 14:36:59.760231  5043 net.cpp:137] Memory required for data: 1369837568
I0729 14:36:59.760236  5043 layer_factory.hpp:77] Creating layer conv3_3
I0729 14:36:59.760244  5043 net.cpp:84] Creating Layer conv3_3
I0729 14:36:59.760248  5043 net.cpp:406] conv3_3 <- conv3_2
I0729 14:36:59.760254  5043 net.cpp:380] conv3_3 -> conv3_3
I0729 14:36:59.768584  5043 net.cpp:122] Setting up conv3_3
I0729 14:36:59.768605  5043 net.cpp:129] Top shape: 1 256 176 256 (11534336)
I0729 14:36:59.768612  5043 net.cpp:137] Memory required for data: 1415974912
I0729 14:36:59.768623  5043 layer_factory.hpp:77] Creating layer relu3_3
I0729 14:36:59.768631  5043 net.cpp:84] Creating Layer relu3_3
I0729 14:36:59.768635  5043 net.cpp:406] relu3_3 <- conv3_3
I0729 14:36:59.768640  5043 net.cpp:367] relu3_3 -> conv3_3 (in-place)
I0729 14:36:59.768843  5043 net.cpp:122] Setting up relu3_3
I0729 14:36:59.768856  5043 net.cpp:129] Top shape: 1 256 176 256 (11534336)
I0729 14:36:59.768858  5043 net.cpp:137] Memory required for data: 1462112256
I0729 14:36:59.768862  5043 layer_factory.hpp:77] Creating layer pool3
I0729 14:36:59.768869  5043 net.cpp:84] Creating Layer pool3
I0729 14:36:59.768873  5043 net.cpp:406] pool3 <- conv3_3
I0729 14:36:59.768879  5043 net.cpp:380] pool3 -> pool3
I0729 14:36:59.768947  5043 net.cpp:122] Setting up pool3
I0729 14:36:59.768954  5043 net.cpp:129] Top shape: 1 256 88 128 (2883584)
I0729 14:36:59.768957  5043 net.cpp:137] Memory required for data: 1473646592
I0729 14:36:59.768960  5043 layer_factory.hpp:77] Creating layer conv4_1
I0729 14:36:59.768970  5043 net.cpp:84] Creating Layer conv4_1
I0729 14:36:59.768973  5043 net.cpp:406] conv4_1 <- pool3
I0729 14:36:59.768978  5043 net.cpp:380] conv4_1 -> conv4_1
I0729 14:36:59.782709  5043 net.cpp:122] Setting up conv4_1
I0729 14:36:59.782738  5043 net.cpp:129] Top shape: 1 512 88 128 (5767168)
I0729 14:36:59.782747  5043 net.cpp:137] Memory required for data: 1496715264
I0729 14:36:59.782759  5043 layer_factory.hpp:77] Creating layer relu4_1
I0729 14:36:59.782769  5043 net.cpp:84] Creating Layer relu4_1
I0729 14:36:59.782774  5043 net.cpp:406] relu4_1 <- conv4_1
I0729 14:36:59.782780  5043 net.cpp:367] relu4_1 -> conv4_1 (in-place)
I0729 14:36:59.782968  5043 net.cpp:122] Setting up relu4_1
I0729 14:36:59.782976  5043 net.cpp:129] Top shape: 1 512 88 128 (5767168)
I0729 14:36:59.782979  5043 net.cpp:137] Memory required for data: 1519783936
I0729 14:36:59.782984  5043 layer_factory.hpp:77] Creating layer conv4_2
I0729 14:36:59.782992  5043 net.cpp:84] Creating Layer conv4_2
I0729 14:36:59.782996  5043 net.cpp:406] conv4_2 <- conv4_1
I0729 14:36:59.783002  5043 net.cpp:380] conv4_2 -> conv4_2
I0729 14:36:59.807329  5043 net.cpp:122] Setting up conv4_2
I0729 14:36:59.807350  5043 net.cpp:129] Top shape: 1 512 88 128 (5767168)
I0729 14:36:59.807353  5043 net.cpp:137] Memory required for data: 1542852608
I0729 14:36:59.807364  5043 layer_factory.hpp:77] Creating layer relu4_2
I0729 14:36:59.807373  5043 net.cpp:84] Creating Layer relu4_2
I0729 14:36:59.807399  5043 net.cpp:406] relu4_2 <- conv4_2
I0729 14:36:59.807407  5043 net.cpp:367] relu4_2 -> conv4_2 (in-place)
I0729 14:36:59.808043  5043 net.cpp:122] Setting up relu4_2
I0729 14:36:59.808056  5043 net.cpp:129] Top shape: 1 512 88 128 (5767168)
I0729 14:36:59.808059  5043 net.cpp:137] Memory required for data: 1565921280
I0729 14:36:59.808061  5043 layer_factory.hpp:77] Creating layer conv4_3
I0729 14:36:59.808070  5043 net.cpp:84] Creating Layer conv4_3
I0729 14:36:59.808075  5043 net.cpp:406] conv4_3 <- conv4_2
I0729 14:36:59.808081  5043 net.cpp:380] conv4_3 -> conv4_3
I0729 14:36:59.833065  5043 net.cpp:122] Setting up conv4_3
I0729 14:36:59.833089  5043 net.cpp:129] Top shape: 1 512 88 128 (5767168)
I0729 14:36:59.833093  5043 net.cpp:137] Memory required for data: 1588989952
I0729 14:36:59.833102  5043 layer_factory.hpp:77] Creating layer relu4_3
I0729 14:36:59.833112  5043 net.cpp:84] Creating Layer relu4_3
I0729 14:36:59.833117  5043 net.cpp:406] relu4_3 <- conv4_3
I0729 14:36:59.833122  5043 net.cpp:367] relu4_3 -> conv4_3 (in-place)
I0729 14:36:59.833298  5043 net.cpp:122] Setting up relu4_3
I0729 14:36:59.833314  5043 net.cpp:129] Top shape: 1 512 88 128 (5767168)
I0729 14:36:59.833318  5043 net.cpp:137] Memory required for data: 1612058624
I0729 14:36:59.833323  5043 layer_factory.hpp:77] Creating layer pool4
I0729 14:36:59.833329  5043 net.cpp:84] Creating Layer pool4
I0729 14:36:59.833333  5043 net.cpp:406] pool4 <- conv4_3
I0729 14:36:59.833338  5043 net.cpp:380] pool4 -> pool4
I0729 14:36:59.833407  5043 net.cpp:122] Setting up pool4
I0729 14:36:59.833413  5043 net.cpp:129] Top shape: 1 512 88 128 (5767168)
I0729 14:36:59.833416  5043 net.cpp:137] Memory required for data: 1635127296
I0729 14:36:59.833420  5043 layer_factory.hpp:77] Creating layer conv5_1
I0729 14:36:59.833431  5043 net.cpp:84] Creating Layer conv5_1
I0729 14:36:59.833433  5043 net.cpp:406] conv5_1 <- pool4
I0729 14:36:59.833439  5043 net.cpp:380] conv5_1 -> conv5_1
I0729 14:36:59.856205  5043 net.cpp:122] Setting up conv5_1
I0729 14:36:59.856231  5043 net.cpp:129] Top shape: 1 512 88 128 (5767168)
I0729 14:36:59.856238  5043 net.cpp:137] Memory required for data: 1658195968
I0729 14:36:59.856251  5043 layer_factory.hpp:77] Creating layer relu5_1
I0729 14:36:59.856266  5043 net.cpp:84] Creating Layer relu5_1
I0729 14:36:59.856272  5043 net.cpp:406] relu5_1 <- conv5_1
I0729 14:36:59.856279  5043 net.cpp:367] relu5_1 -> conv5_1 (in-place)
I0729 14:36:59.857049  5043 net.cpp:122] Setting up relu5_1
I0729 14:36:59.857062  5043 net.cpp:129] Top shape: 1 512 88 128 (5767168)
I0729 14:36:59.857065  5043 net.cpp:137] Memory required for data: 1681264640
I0729 14:36:59.857069  5043 layer_factory.hpp:77] Creating layer conv5_2
I0729 14:36:59.857080  5043 net.cpp:84] Creating Layer conv5_2
I0729 14:36:59.857084  5043 net.cpp:406] conv5_2 <- conv5_1
I0729 14:36:59.857092  5043 net.cpp:380] conv5_2 -> conv5_2
I0729 14:36:59.880029  5043 net.cpp:122] Setting up conv5_2
I0729 14:36:59.880053  5043 net.cpp:129] Top shape: 1 512 88 128 (5767168)
I0729 14:36:59.880059  5043 net.cpp:137] Memory required for data: 1704333312
I0729 14:36:59.880069  5043 layer_factory.hpp:77] Creating layer relu5_2
I0729 14:36:59.880082  5043 net.cpp:84] Creating Layer relu5_2
I0729 14:36:59.880095  5043 net.cpp:406] relu5_2 <- conv5_2
I0729 14:36:59.880106  5043 net.cpp:367] relu5_2 -> conv5_2 (in-place)
I0729 14:36:59.880394  5043 net.cpp:122] Setting up relu5_2
I0729 14:36:59.880406  5043 net.cpp:129] Top shape: 1 512 88 128 (5767168)
I0729 14:36:59.880409  5043 net.cpp:137] Memory required for data: 1727401984
I0729 14:36:59.880412  5043 layer_factory.hpp:77] Creating layer conv5_3
I0729 14:36:59.880422  5043 net.cpp:84] Creating Layer conv5_3
I0729 14:36:59.880425  5043 net.cpp:406] conv5_3 <- conv5_2
I0729 14:36:59.880430  5043 net.cpp:380] conv5_3 -> conv5_3
I0729 14:36:59.903388  5043 net.cpp:122] Setting up conv5_3
I0729 14:36:59.903419  5043 net.cpp:129] Top shape: 1 512 88 128 (5767168)
I0729 14:36:59.903426  5043 net.cpp:137] Memory required for data: 1750470656
I0729 14:36:59.903463  5043 layer_factory.hpp:77] Creating layer relu5_3
I0729 14:36:59.903479  5043 net.cpp:84] Creating Layer relu5_3
I0729 14:36:59.903484  5043 net.cpp:406] relu5_3 <- conv5_3
I0729 14:36:59.903491  5043 net.cpp:367] relu5_3 -> conv5_3 (in-place)
I0729 14:36:59.904284  5043 net.cpp:122] Setting up relu5_3
I0729 14:36:59.904297  5043 net.cpp:129] Top shape: 1 512 88 128 (5767168)
I0729 14:36:59.904301  5043 net.cpp:137] Memory required for data: 1773539328
I0729 14:36:59.904305  5043 layer_factory.hpp:77] Creating layer conv_score
I0729 14:36:59.904316  5043 net.cpp:84] Creating Layer conv_score
I0729 14:36:59.904321  5043 net.cpp:406] conv_score <- conv5_3
I0729 14:36:59.904328  5043 net.cpp:380] conv_score -> conv_score
I0729 14:37:00.085719  5043 net.cpp:122] Setting up conv_score
I0729 14:37:00.085741  5043 net.cpp:129] Top shape: 1 128 88 128 (1441792)
I0729 14:37:00.085746  5043 net.cpp:137] Memory required for data: 1779306496
I0729 14:37:00.085755  5043 layer_factory.hpp:77] Creating layer relu_score
I0729 14:37:00.085764  5043 net.cpp:84] Creating Layer relu_score
I0729 14:37:00.085768  5043 net.cpp:406] relu_score <- conv_score
I0729 14:37:00.085777  5043 net.cpp:367] relu_score -> conv_score (in-place)
I0729 14:37:00.086410  5043 net.cpp:122] Setting up relu_score
I0729 14:37:00.086423  5043 net.cpp:129] Top shape: 1 128 88 128 (1441792)
I0729 14:37:00.086426  5043 net.cpp:137] Memory required for data: 1785073664
I0729 14:37:00.086431  5043 layer_factory.hpp:77] Creating layer slicer_conv
I0729 14:37:00.086455  5043 net.cpp:84] Creating Layer slicer_conv
I0729 14:37:00.086463  5043 net.cpp:406] slicer_conv <- conv_score
I0729 14:37:00.086488  5043 net.cpp:380] slicer_conv -> score1
I0729 14:37:00.086509  5043 net.cpp:380] slicer_conv -> score2
…
I0729 14:37:00.088320  5043 net.cpp:380] slicer_conv -> score121
I0729 14:37:00.088337  5043 net.cpp:380] slicer_conv -> score122
I0729 14:37:00.088359  5043 net.cpp:380] slicer_conv -> score123
I0729 14:37:00.088379  5043 net.cpp:380] slicer_conv -> score124
I0729 14:37:00.088393  5043 net.cpp:380] slicer_conv -> score125
I0729 14:37:00.088407  5043 net.cpp:380] slicer_conv -> score126
I0729 14:37:00.088419  5043 net.cpp:380] slicer_conv -> score127
I0729 14:37:00.088431  5043 net.cpp:380] slicer_conv -> score128
I0729 14:37:00.093951  5043 net.cpp:122] Setting up slicer_conv
I0729 14:37:00.093964  5043 net.cpp:129] Top shape: 1 1 88 128 (11264)
I0729 14:37:00.093968  5043 net.cpp:129] Top shape: 1 1 88 128 (11264)
I0729 14:37:00.093973  5043 net.cpp:129] Top shape: 1 1 88 128 (11264)
I0729 14:37:00.093977  5043 net.cpp:129] Top shape: 1 1 88 128 (11264)
I0729 14:37:00.093981  5043 net.cpp:129] Top shape: 1 1 88 128 (11264)
I0729 14:37:00.093986  5043 net.cpp:129] Top shape: 1 1 88 128 (11264)
I0729 14:37:00.093991  5043 net.cpp:129] Top shape: 1 1 88 128 (11264)
I0729 14:37:00.093993  5043 net.cpp:129] Top shape: 1 1 88 128 (11264)
I0729 14:37:00.093997  5043 net.cpp:129] Top shape: 1 1 88 128 (11264)
I0729 14:37:00.094002  5043 net.cpp:129] Top shape: 1 1 88 128 (11264)
I0729 14:37:00.094005  5043 net.cpp:129] Top shape: 1 1 88 128 (11264)
I0729 14:37:00.094010  5043 net.cpp:129] Top shape: 1 1 88 128 (11264)
I0729 14:37:00.094014  5043 net.cpp:129] Top shape: 1 1 88 128 (11264)
I0729 14:37:00.094017  5043 net.cpp:129] Top shape: 1 1 88 128 (11264)
I0729 14:37:00.094022  5043 net.cpp:129] Top shape: 1 1 88 128 (11264)
I0729 14:37:00.094025  5043 net.cpp:129] Top shape: 1 1 88 128 (11264)
I0729 14:37:00.094028  5043 net.cpp:129] Top shape: 1 1 88 128 (11264)
I0729 14:37:00.094033  5043 net.cpp:129] Top shape: 1 1 88 128 (11264)
I0729 14:37:00.094035  5043 net.cpp:129] Top shape: 1 1 88 128 (11264)
I0729 14:37:00.094039  5043 net.cpp:129] Top shape: 1 1 88 128 (11264)
I0729 14:37:00.094043  5043 net.cpp:129] Top shape: 1 1 88 128 (11264)
I0729 14:37:00.094046  5043 net.cpp:129] Top shape: 1 1 88 128 (11264)
I0729 14:37:00.094050  5043 net.cpp:129] Top shape: 1 1 88 128 (11264)
I0729 14:37:00.094055  5043 net.cpp:129] Top shape: 1 1 88 128 (11264)
I0729 14:37:00.094063  5043 net.cpp:129] Top shape: 1 1 88 128 (11264)
I0729 14:37:00.094069  5043 net.cpp:129] Top shape: 1 1 88 128 (11264)
I0729 14:37:00.094075  5043 net.cpp:129] Top shape: 1 1 88 128 (11264)
I0729 14:37:00.094082  5043 net.cpp:129] Top shape: 1 1 88 128 (11264)
I0729 14:37:00.094089  5043 net.cpp:129] Top shape: 1 1 88 128 (11264)
I0729 14:37:00.094092  5043 net.cpp:129] Top shape: 1 1 88 128 (11264)
I0729 14:37:00.094096  5043 net.cpp:129] Top shape: 1 1 88 128 (11264)
I0729 14:37:00.094099  5043 net.cpp:129] Top shape: 1 1 88 128 (11264)
I0729 14:37:00.094115  5043 net.cpp:129] Top shape: 1 1 88 128 (11264)
I0729 14:37:00.094118  5043 net.cpp:129] Top shape: 1 1 88 128 (11264)
I0729 14:37:00.094121  5043 net.cpp:129] Top shape: 1 1 88 128 (11264)
I0729 14:37:00.094125  5043 net.cpp:129] Top shape: 1 1 88 128 (11264)
I0729 14:37:00.094128  5043 net.cpp:129] Top shape: 1 1 88 128 (11264)
I0729 14:37:00.094132  5043 net.cpp:129] Top shape: 1 1 88 128 (11264)
I0729 14:37:00.094136  5043 net.cpp:129] Top shape: 1 1 88 128 (11264)
I0729 14:37:00.094139  5043 net.cpp:129] Top shape: 1 1 88 128 (11264)
I0729 14:37:00.094143  5043 net.cpp:129] Top shape: 1 1 88 128 (11264)
I0729 14:37:00.094147  5043 net.cpp:129] Top shape: 1 1 88 128 (11264)
I0729 14:37:00.094151  5043 net.cpp:129] Top shape: 1 1 88 128 (11264)
I0729 14:37:00.094154  5043 net.cpp:129] Top shape: 1 1 88 128 (11264)
I0729 14:37:00.094158  5043 net.cpp:129] Top shape: 1 1 88 128 (11264)
I0729 14:37:00.094162  5043 net.cpp:129] Top shape: 1 1 88 128 (11264)
I0729 14:37:00.094166  5043 net.cpp:129] Top shape: 1 1 88 128 (11264)
I0729 14:37:00.094169  5043 net.cpp:129] Top shape: 1 1 88 128 (11264)
I0729 14:37:00.094174  5043 net.cpp:129] Top shape: 1 1 88 128 (11264)
I0729 14:37:00.094180  5043 net.cpp:129] Top shape: 1 1 88 128 (11264)
I0729 14:37:00.094193  5043 net.cpp:129] Top shape: 1 1 88 128 (11264)
I0729 14:37:00.094199  5043 net.cpp:129] Top shape: 1 1 88 128 (11264)
I0729 14:37:00.094205  5043 net.cpp:129] Top shape: 1 1 88 128 (11264)
I0729 14:37:00.094213  5043 net.cpp:129] Top shape: 1 1 88 128 (11264)
I0729 14:37:00.094218  5043 net.cpp:129] Top shape: 1 1 88 128 (11264)
I0729 14:37:00.094224  5043 net.cpp:129] Top shape: 1 1 88 128 (11264)
I0729 14:37:00.094230  5043 net.cpp:129] Top shape: 1 1 88 128 (11264)
I0729 14:37:00.094233  5043 net.cpp:129] Top shape: 1 1 88 128 (11264)
I0729 14:37:00.094238  5043 net.cpp:129] Top shape: 1 1 88 128 (11264)
I0729 14:37:00.094240  5043 net.cpp:129] Top shape: 1 1 88 128 (11264)
I0729 14:37:00.094244  5043 net.cpp:129] Top shape: 1 1 88 128 (11264)
I0729 14:37:00.094249  5043 net.cpp:129] Top shape: 1 1 88 128 (11264)
I0729 14:37:00.094251  5043 net.cpp:129] Top shape: 1 1 88 128 (11264)
I0729 14:37:00.094255  5043 net.cpp:129] Top shape: 1 1 88 128 (11264)
I0729 14:37:00.094259  5043 net.cpp:129] Top shape: 1 1 88 128 (11264)
I0729 14:37:00.094262  5043 net.cpp:129] Top shape: 1 1 88 128 (11264)
I0729 14:37:00.094266  5043 net.cpp:129] Top shape: 1 1 88 128 (11264)
I0729 14:37:00.094269  5043 net.cpp:129] Top shape: 1 1 88 128 (11264)
I0729 14:37:00.094274  5043 net.cpp:129] Top shape: 1 1 88 128 (11264)
I0729 14:37:00.094276  5043 net.cpp:129] Top shape: 1 1 88 128 (11264)
I0729 14:37:00.094280  5043 net.cpp:129] Top shape: 1 1 88 128 (11264)
I0729 14:37:00.094285  5043 net.cpp:129] Top shape: 1 1 88 128 (11264)
I0729 14:37:00.094287  5043 net.cpp:129] Top shape: 1 1 88 128 (11264)
I0729 14:37:00.094291  5043 net.cpp:129] Top shape: 1 1 88 128 (11264)
I0729 14:37:00.094295  5043 net.cpp:129] Top shape: 1 1 88 128 (11264)
I0729 14:37:00.094298  5043 net.cpp:129] Top shape: 1 1 88 128 (11264)
I0729 14:37:00.094301  5043 net.cpp:129] Top shape: 1 1 88 128 (11264)
I0729 14:37:00.094305  5043 net.cpp:129] Top shape: 1 1 88 128 (11264)
I0729 14:37:00.094308  5043 net.cpp:129] Top shape: 1 1 88 128 (11264)
I0729 14:37:00.094313  5043 net.cpp:129] Top shape: 1 1 88 128 (11264)
I0729 14:37:00.094319  5043 net.cpp:129] Top shape: 1 1 88 128 (11264)
I0729 14:37:00.094327  5043 net.cpp:129] Top shape: 1 1 88 128 (11264)
I0729 14:37:00.094333  5043 net.cpp:129] Top shape: 1 1 88 128 (11264)
I0729 14:37:00.094341  5043 net.cpp:129] Top shape: 1 1 88 128 (11264)
I0729 14:37:00.094347  5043 net.cpp:129] Top shape: 1 1 88 128 (11264)
I0729 14:37:00.094354  5043 net.cpp:129] Top shape: 1 1 88 128 (11264)
I0729 14:37:00.094360  5043 net.cpp:129] Top shape: 1 1 88 128 (11264)
I0729 14:37:00.094364  5043 net.cpp:129] Top shape: 1 1 88 128 (11264)
I0729 14:37:00.094368  5043 net.cpp:129] Top shape: 1 1 88 128 (11264)
I0729 14:37:00.094372  5043 net.cpp:129] Top shape: 1 1 88 128 (11264)
I0729 14:37:00.094384  5043 net.cpp:129] Top shape: 1 1 88 128 (11264)
I0729 14:37:00.094388  5043 net.cpp:129] Top shape: 1 1 88 128 (11264)
I0729 14:37:00.094391  5043 net.cpp:129] Top shape: 1 1 88 128 (11264)
I0729 14:37:00.094395  5043 net.cpp:129] Top shape: 1 1 88 128 (11264)
I0729 14:37:00.094399  5043 net.cpp:129] Top shape: 1 1 88 128 (11264)
I0729 14:37:00.094403  5043 net.cpp:129] Top shape: 1 1 88 128 (11264)
I0729 14:37:00.094406  5043 net.cpp:129] Top shape: 1 1 88 128 (11264)
I0729 14:37:00.094409  5043 net.cpp:129] Top shape: 1 1 88 128 (11264)
I0729 14:37:00.094413  5043 net.cpp:129] Top shape: 1 1 88 128 (11264)
I0729 14:37:00.094418  5043 net.cpp:129] Top shape: 1 1 88 128 (11264)
I0729 14:37:00.094420  5043 net.cpp:129] Top shape: 1 1 88 128 (11264)
I0729 14:37:00.094426  5043 net.cpp:129] Top shape: 1 1 88 128 (11264)
I0729 14:37:00.094432  5043 net.cpp:129] Top shape: 1 1 88 128 (11264)
I0729 14:37:00.094439  5043 net.cpp:129] Top shape: 1 1 88 128 (11264)
I0729 14:37:00.094444  5043 net.cpp:129] Top shape: 1 1 88 128 (11264)
I0729 14:37:00.094450  5043 net.cpp:129] Top shape: 1 1 88 128 (11264)
I0729 14:37:00.094460  5043 net.cpp:129] Top shape: 1 1 88 128 (11264)
I0729 14:37:00.094467  5043 net.cpp:129] Top shape: 1 1 88 128 (11264)
I0729 14:37:00.094475  5043 net.cpp:129] Top shape: 1 1 88 128 (11264)
I0729 14:37:00.094480  5043 net.cpp:129] Top shape: 1 1 88 128 (11264)
I0729 14:37:00.094485  5043 net.cpp:129] Top shape: 1 1 88 128 (11264)
I0729 14:37:00.094490  5043 net.cpp:129] Top shape: 1 1 88 128 (11264)
I0729 14:37:00.094493  5043 net.cpp:129] Top shape: 1 1 88 128 (11264)
I0729 14:37:00.094496  5043 net.cpp:129] Top shape: 1 1 88 128 (11264)
I0729 14:37:00.094501  5043 net.cpp:129] Top shape: 1 1 88 128 (11264)
I0729 14:37:00.094504  5043 net.cpp:129] Top shape: 1 1 88 128 (11264)
I0729 14:37:00.094508  5043 net.cpp:129] Top shape: 1 1 88 128 (11264)
I0729 14:37:00.094512  5043 net.cpp:129] Top shape: 1 1 88 128 (11264)
I0729 14:37:00.094516  5043 net.cpp:129] Top shape: 1 1 88 128 (11264)
I0729 14:37:00.094519  5043 net.cpp:129] Top shape: 1 1 88 128 (11264)
I0729 14:37:00.094527  5043 net.cpp:129] Top shape: 1 1 88 128 (11264)
I0729 14:37:00.094532  5043 net.cpp:129] Top shape: 1 1 88 128 (11264)
I0729 14:37:00.094539  5043 net.cpp:129] Top shape: 1 1 88 128 (11264)
I0729 14:37:00.094545  5043 net.cpp:129] Top shape: 1 1 88 128 (11264)
I0729 14:37:00.094552  5043 net.cpp:129] Top shape: 1 1 88 128 (11264)
I0729 14:37:00.094558  5043 net.cpp:129] Top shape: 1 1 88 128 (11264)
I0729 14:37:00.094564  5043 net.cpp:129] Top shape: 1 1 88 128 (11264)
I0729 14:37:00.094570  5043 net.cpp:129] Top shape: 1 1 88 128 (11264)
I0729 14:37:00.094576  5043 net.cpp:137] Memory required for data: 1790840832
I0729 14:37:00.094583  5043 layer_factory.hpp:77] Creating layer sumscore
I0729 14:37:00.094604  5043 net.cpp:84] Creating Layer sumscore
I0729 14:37:00.094607  5043 net.cpp:406] sumscore <- score1
I0729 14:37:00.094612  5043 net.cpp:406] sumscore <- score2
I0729 14:37:00.094616  5043 net.cpp:406] sumscore <- score3
…
