…
I0725 10:56:52.046995 13372 net.cpp:51] Initializing net from parameters: 
name: "crowd_counting"
state {
  phase: TRAIN
  level: 0
  stage: ""
}
layer {
  name: "data"
  type: "Data"
  top: "data"
  include {
    phase: TRAIN
  }
  data_param {
    source: "/home/peiyong/Work/Zenglin/szl/ShanghaiTech/partA/train_8/image_lmdb"
    batch_size: 1
    backend: LMDB
  }
}
layer {
  name: "label"
  type: "Data"
  top: "label"
  include {
    phase: TRAIN
  }
  data_param {
    source: "/home/peiyong/Work/Zenglin/szl/ShanghaiTech/partA/train_8/dmap_lmdb"
    batch_size: 1
    backend: LMDB
  }
}
layer {
  name: "conv1_1"
  type: "Convolution"
  bottom: "data"
  top: "conv1_1"
  param {
    lr_mult: 0.1
    decay_mult: 1
  }
  param {
    lr_mult: 0.2
    decay_mult: 0
  }
  convolution_param {
    num_output: 64
    pad: 1
    kernel_size: 3
    weight_filler {
      type: "gaussian"
      std: 0.01
    }
    bias_filler {
      type: "constant"
      value: 0
    }
  }
}
layer {
  name: "relu1_1"
  type: "ReLU"
  bottom: "conv1_1"
  top: "conv1_1"
}
layer {
  name: "conv1_2"
  type: "Convolution"
  bottom: "conv1_1"
  top: "conv1_2"
  param {
    lr_mult: 0.1
    decay_mult: 1
  }
  param {
    lr_mult: 0.2
    decay_mult: 0
  }
  convolution_param {
    num_output: 64
    pad: 1
    kernel_size: 3
    weight_filler {
      type: "gaussian"
      std: 0.01
    }
    bias_filler {
      type: "constant"
      value: 0
    }
  }
}
layer {
  name: "relu1_2"
  type: "ReLU"
  bottom: "conv1_2"
  top: "conv1_2"
}
layer {
  name: "pool1"
  type: "Pooling"
  bottom: "conv1_2"
  top: "pool1"
  pooling_param {
    pool: MAX
    kernel_size: 2
    stride: 2
  }
}
layer {
  name: "conv2_1"
  type: "Convolution"
  bottom: "pool1"
  top: "conv2_1"
  param {
    lr_mult: 0.1
    decay_mult: 1
  }
  param {
    lr_mult: 0.2
    decay_mult: 0
  }
  convolution_param {
    num_output: 128
    pad: 1
    kernel_size: 3
    weight_filler {
      type: "gaussian"
      std: 0.01
    }
    bias_filler {
      type: "constant"
      value: 0
    }
  }
}
layer {
  name: "relu2_1"
  type: "ReLU"
  bottom: "conv2_1"
  top: "conv2_1"
}
layer {
  name: "conv2_2"
  type: "Convolution"
  bottom: "conv2_1"
  top: "conv2_2"
  param {
    lr_mult: 0.1
    decay_mult: 1
  }
  param {
    lr_mult: 0.2
    decay_mult: 0
  }
  convolution_param {
    num_output: 128
    pad: 1
    kernel_size: 3
    weight_filler {
      type: "gaussian"
      std: 0.01
    }
    bias_filler {
      type: "constant"
      value: 0
    }
  }
}
layer {
  name: "relu2_2"
  type: "ReLU"
  bottom: "conv2_2"
  top: "conv2_2"
}
layer {
  name: "pool2"
  type: "Pooling"
  bottom: "conv2_2"
  top: "pool2"
  pooling_param {
    pool: MAX
    kernel_size: 2
    stride: 2
  }
}
layer {
  name: "conv3_1"
  type: "Convolution"
  bottom: "pool2"
  top: "conv3_1"
  param {
    lr_mult: 0.1
    decay_mult: 1
  }
  param {
    lr_mult: 0.2
    decay_mult: 0
  }
  convolution_param {
    num_output: 256
    pad: 1
    kernel_size: 3
    weight_filler {
      type: "gaussian"
      std: 0.01
    }
    bias_filler {
      type: "constant"
      value: 0
    }
  }
}
layer {
  name: "relu3_1"
  type: "ReLU"
  bottom: "conv3_1"
  top: "conv3_1"
}
layer {
  name: "conv3_2"
  type: "Convolution"
  bottom: "conv3_1"
  top: "conv3_2"
  param {
    lr_mult: 0.1
    decay_mult: 1
  }
  param {
    lr_mult: 0.2
    decay_mult: 0
  }
  convolution_param {
    num_output: 256
    pad: 1
    kernel_size: 3
    weight_filler {
      type: "gaussian"
      std: 0.01
    }
    bias_filler {
      type: "constant"
      value: 0
    }
  }
}
layer {
  name: "relu3_2"
  type: "ReLU"
  bottom: "conv3_2"
  top: "conv3_2"
}
layer {
  name: "conv3_3"
  type: "Convolution"
  bottom: "conv3_2"
  top: "conv3_3"
  param {
    lr_mult: 0.1
    decay_mult: 1
  }
  param {
    lr_mult: 0.2
    decay_mult: 0
  }
  convolution_param {
    num_output: 256
    pad: 1
    kernel_size: 3
    weight_filler {
      type: "gaussian"
      std: 0.01
    }
    bias_filler {
      type: "constant"
      value: 0
    }
  }
}
layer {
  name: "relu3_3"
  type: "ReLU"
  bottom: "conv3_3"
  top: "conv3_3"
}
layer {
  name: "pool3"
  type: "Pooling"
  bottom: "conv3_3"
  top: "pool3"
  pooling_param {
    pool: MAX
    kernel_size: 2
    stride: 2
  }
}
layer {
  name: "conv4_1"
  type: "Convolution"
  bottom: "pool3"
  top: "conv4_1"
  param {
    lr_mult: 0.1
    decay_mult: 1
  }
  param {
    lr_mult: 0.2
    decay_mult: 0
  }
  convolution_param {
    num_output: 512
    pad: 1
    kernel_size: 3
    weight_filler {
      type: "gaussian"
      std: 0.01
    }
    bias_filler {
      type: "constant"
      value: 0
    }
  }
}
layer {
  name: "relu4_1"
  type: "ReLU"
  bottom: "conv4_1"
  top: "conv4_1"
}
layer {
  name: "conv4_2"
  type: "Convolution"
  bottom: "conv4_1"
  top: "conv4_2"
  param {
    lr_mult: 0.1
    decay_mult: 1
  }
  param {
    lr_mult: 0.2
    decay_mult: 0
  }
  convolution_param {
    num_output: 512
    pad: 1
    kernel_size: 3
    weight_filler {
      type: "gaussian"
      std: 0.01
    }
    bias_filler {
      type: "constant"
      value: 0
    }
  }
}
layer {
  name: "relu4_2"
  type: "ReLU"
  bottom: "conv4_2"
  top: "conv4_2"
}
layer {
  name: "conv4_3"
  type: "Convolution"
  bottom: "conv4_2"
  top: "conv4_3"
  param {
    lr_mult: 0.1
    decay_mult: 1
  }
  param {
    lr_mult: 0.2
    decay_mult: 0
  }
  convolution_param {
    num_output: 512
    pad: 1
    kernel_size: 3
    weight_filler {
      type: "gaussian"
      std: 0.01
    }
    bias_filler {
      type: "constant"
      value: 0
    }
  }
}
layer {
  name: "relu4_3"
  type: "ReLU"
  bottom: "conv4_3"
  top: "conv4_3"
}
layer {
  name: "pool4"
  type: "Pooling"
  bottom: "conv4_3"
  top: "pool4"
  pooling_param {
    pool: MAX
    kernel_size: 3
    stride: 1
    pad: 1
  }
}
layer {
  name: "conv5_1"
  type: "Convolution"
  bottom: "pool4"
  top: "conv5_1"
  param {
    lr_mult: 0.1
    decay_mult: 1
  }
  param {
    lr_mult: 0.2
    decay_mult: 0
  }
  convolution_param {
    num_output: 512
    pad: 2
    kernel_size: 3
    weight_filler {
      type: "gaussian"
      std: 0.01
    }
    bias_filler {
      type: "constant"
      value: 0
    }
    dilation: 2
  }
}
layer {
  name: "relu5_1"
  type: "ReLU"
  bottom: "conv5_1"
  top: "conv5_1"
}
layer {
  name: "conv5_2"
  type: "Convolution"
  bottom: "conv5_1"
  top: "conv5_2"
  param {
    lr_mult: 0.1
    decay_mult: 1
  }
  param {
    lr_mult: 0.2
    decay_mult: 0
  }
  convolution_param {
    num_output: 512
    pad: 2
    kernel_size: 3
    weight_filler {
      type: "gaussian"
      std: 0.01
    }
    bias_filler {
      type: "constant"
      value: 0
    }
    dilation: 2
  }
}
layer {
  name: "relu5_2"
  type: "ReLU"
  bottom: "conv5_2"
  top: "conv5_2"
}
layer {
  name: "conv5_3"
  type: "Convolution"
  bottom: "conv5_2"
  top: "conv5_3"
  param {
    lr_mult: 0.1
    decay_mult: 1
  }
  param {
    lr_mult: 0.2
    decay_mult: 0
  }
  convolution_param {
    num_output: 512
    pad: 2
    kernel_size: 3
    weight_filler {
      type: "gaussian"
      std: 0.01
    }
    bias_filler {
      type: "constant"
      value: 0
    }
    dilation: 2
  }
}
layer {
  name: "relu5_3"
  type: "ReLU"
  bottom: "conv5_3"
  top: "conv5_3"
}
layer {
  name: "conv_score"
  type: "Convolution"
  bottom: "conv5_3"
  top: "conv_score"
  param {
    lr_mult: 10
    decay_mult: 1
  }
  param {
    lr_mult: 20
    decay_mult: 0
  }
  convolution_param {
    num_output: 64
    pad: 0
    kernel_size: 1
    group: 64
    stride: 1
    weight_filler {
      type: "constant"
      value: 0.0001
    }
    bias_filler {
      type: "constant"
      value: 0
    }
  }
}
layer {
  name: "relu_score"
  type: "ReLU"
  bottom: "conv_score"
  top: "conv_score"
}
layer {
  name: "slicer_conv"
  type: "Slice"
  bottom: "conv_score"
  top: "score1"
  top: "score2"
  top: "score3"
  top: "score4"
  top: "score5"
  top: "score6"
  top: "score7"
  top: "score8"
  top: "score9"
  top: "score10"
  top: "score11"
  top: "score12"
  top: "score13"
  top: "score14"
  top: "score15"
  top: "score16"
  top: "score17"
  top: "score18"
  top: "score19"
  top: "score20"
  top: "score21"
  top: "score22"
  top: "score23"
  top: "score24"
  top: "score25"
  top: "score26"
  top: "score27"
  top: "score28"
  top: "score29"
  top: "score30"
  top: "score31"
  top: "score32"
  top: "score33"
  top: "score34"
  top: "score35"
  top: "score36"
  top: "score37"
  top: "score38"
  top: "score39"
  top: "score40"
  top: "score41"
  top: "score42"
  top: "score43"
  top: "score44"
  top: "score45"
  top: "score46"
  top: "score47"
  top: "score48"
  top: "score49"
  top: "score50"
  top: "score51"
  top: "score52"
  top: "score53"
  top: "score54"
  top: "score55"
  top: "score56"
  top: "score57"
  top: "score58"
  top: "score59"
  top: "score60"
  top: "score61"
  top: "score62"
  top: "score63"
  top: "score64"
  slice_param {
    axis: 1
  }
}
layer {
  name: "sumscore"
  type: "Eltwise"
  bottom: "score1"
  bottom: "score2"
  bottom: "score3"
  bottom: "score4"
  bottom: "score5"
  bottom: "score6"
  bottom: "score7"
  bottom: "score8"
  bottom: "score9"
  bottom: "score10"
  bottom: "score11"
  bottom: "score12"
  bottom: "score13"
  bottom: "score14"
  bottom: "score15"
  bottom: "score16"
  bottom: "score17"
  bottom: "score18"
  bottom: "score19"
  bottom: "score20"
  bottom: "score21"
  bottom: "score22"
  bottom: "score23"
  bottom: "score24"
  bottom: "score25"
  bottom: "score26"
  bottom: "score27"
  bottom: "score28"
  bottom: "score29"
  bottom: "score30"
  bottom: "score31"
  bottom: "score32"
  bottom: "score33"
  bottom: "score34"
  bottom: "score35"
  bottom: "score36"
  bottom: "score37"
  bottom: "score38"
  bottom: "score39"
  bottom: "score40"
  bottom: "score41"
  bottom: "score42"
  bottom: "score43"
  bottom: "score44"
  bottom: "score45"
  bottom: "score46"
  bottom: "score47"
  bottom: "score48"
  bottom: "score49"
  bottom: "score50"
  bottom: "score51"
  bottom: "score52"
  bottom: "score53"
  bottom: "score54"
  bottom: "score55"
  bottom: "score56"
  bottom: "score57"
  bottom: "score58"
  bottom: "score59"
  bottom: "score60"
  bottom: "score61"
  bottom: "score62"
  bottom: "score63"
  bottom: "score64"
  top: "sumscore"
  eltwise_param {
    operation: SUM
  }
}
layer {
  name: "loss1"
  type: "NCLLoss"
  bottom: "score1"
  bottom: "label"
  bottom: "sumscore"
  top: "loss1"
  include {
    phase: TRAIN
  }
  ncl_loss_param {
    lambda: 0.1
    net_num: 64
  }
}
layer {
  name: "loss2"
  type: "NCLLoss"
  bottom: "score2"
  bottom: "label"
  bottom: "sumscore"
  top: "loss2"
  include {
    phase: TRAIN
  }
  ncl_loss_param {
    lambda: 0.1
    net_num: 64
  }
}
layer {
  name: "loss3"
  type: "NCLLoss"
  bottom: "score3"
  bottom: "label"
  bottom: "sumscore"
  top: "loss3"
  include {
    phase: TRAIN
  }
  ncl_loss_param {
    lambda: 0.1
    net_num: 64
  }
}
layer {
  name: "loss4"
  type: "NCLLoss"
  bottom: "score4"
  bottom: "label"
  bottom: "sumscore"
  top: "loss4"
  include {
    phase: TRAIN
  }
  ncl_loss_param {
    lambda: 0.1
    net_num: 64
  }
}
layer {
  name: "loss5"
  type: "NCLLoss"
  bottom: "score5"
  bottom: "label"
  bottom: "sumscore"
  top: "loss5"
  include {
    phase: TRAIN
  }
  ncl_loss_param {
    lambda: 0.1
    net_num: 64
  }
}
layer {
  name: "loss6"
  type: "NCLLoss"
  bottom: "score6"
  bottom: "label"
  bottom: "sumscore"
  top: "loss6"
  include {
    phase: TRAIN
  }
  ncl_loss_param {
    lambda: 0.1
    net_num: 64
  }
}
layer {
  name: "loss7"
  type: "NCLLoss"
  bottom: "score7"
  bottom: "label"
  bottom: "sumscore"
  top: "loss7"
  include {
    phase: TRAIN
  }
  ncl_loss_param {
    lambda: 0.1
    net_num: 64
  }
}
layer {
  name: "loss8"
  type: "NCLLoss"
  bottom: "score8"
  bottom: "label"
  bottom: "sumscore"
  top: "loss8"
  include {
    phase: TRAIN
  }
  ncl_loss_param {
    lambda: 0.1
    net_num: 64
  }
}
layer {
  name: "loss9"
  type: "NCLLoss"
  bottom: "score9"
  bottom: "label"
  bottom: "sumscore"
  top: "loss9"
  include {
    phase: TRAIN
  }
  ncl_loss_param {
    lambda: 0.1
    net_num: 64
  }
}
layer {
  name: "loss10"
  type: "NCLLoss"
  bottom: "score10"
  bottom: "label"
  bottom: "sumscore"
  top: "loss10"
  include {
    phase: TRAIN
  }
  ncl_loss_param {
    lambda: 0.1
    net_num: 64
  }
}
layer {
  name: "loss11"
  type: "NCLLoss"
  bottom: "score11"
  bottom: "label"
  bottom: "sumscore"
  top: "loss11"
  include {
    phase: TRAIN
  }
  ncl_loss_param {
    lambda: 0.1
    net_num: 64
  }
}
layer {
  name: "loss12"
  type: "NCLLoss"
  bottom: "score12"
  bottom: "label"
  bottom: "sumscore"
  top: "loss12"
  include {
    phase: TRAIN
  }
  ncl_loss_param {
    lambda: 0.1
    net_num: 64
  }
}
layer {
  name: "loss13"
  type: "NCLLoss"
  bottom: "score13"
  bottom: "label"
  bottom: "sumscore"
  top: "loss13"
  include {
    phase: TRAIN
  }
  ncl_loss_param {
    lambda: 0.1
    net_num: 64
  }
}
layer {
  name: "loss14"
  type: "NCLLoss"
  bottom: "score14"
  bottom: "label"
  bottom: "sumscore"
  top: "loss14"
  include {
    phase: TRAIN
  }
  ncl_loss_param {
    lambda: 0.1
    net_num: 64
  }
}
layer {
  name: "loss15"
  type: "NCLLoss"
  bottom: "score15"
  bottom: "label"
  bottom: "sumscore"
  top: "loss15"
  include {
    phase: TRAIN
  }
  ncl_loss_param {
    lambda: 0.1
    net_num: 64
  }
}
layer {
  name: "loss16"
  type: "NCLLoss"
  bottom: "score16"
  bottom: "label"
  bottom: "sumscore"
  top: "loss16"
  include {
    phase: TRAIN
  }
  ncl_loss_param {
    lambda: 0.1
    net_num: 64
  }
}
layer {
  name: "loss17"
  type: "NCLLoss"
  bottom: "score17"
  bottom: "label"
  bottom: "sumscore"
  top: "loss17"
  include {
    phase: TRAIN
  }
  ncl_loss_param {
    lambda: 0.1
    net_num: 64
  }
}
layer {
  name: "loss18"
  type: "NCLLoss"
  bottom: "score18"
  bottom: "label"
  bottom: "sumscore"
  top: "loss18"
  include {
    phase: TRAIN
  }
  ncl_loss_param {
    lambda: 0.1
    net_num: 64
  }
}
layer {
  name: "loss19"
  type: "NCLLoss"
  bottom: "score19"
  bottom: "label"
  bottom: "sumscore"
  top: "loss19"
  include {
    phase: TRAIN
  }
  ncl_loss_param {
    lambda: 0.1
    net_num: 64
  }
}
layer {
  name: "loss20"
  type: "NCLLoss"
  bottom: "score20"
  bottom: "label"
  bottom: "sumscore"
  top: "loss20"
  include {
    phase: TRAIN
  }
  ncl_loss_param {
    lambda: 0.1
    net_num: 64
  }
}
layer {
  name: "loss21"
  type: "NCLLoss"
  bottom: "score21"
  bottom: "label"
  bottom: "sumscore"
  top: "loss21"
  include {
    phase: TRAIN
  }
  ncl_loss_param {
    lambda: 0.1
    net_num: 64
  }
}
layer {
  name: "loss22"
  type: "NCLLoss"
  bottom: "score22"
  bottom: "label"
  bottom: "sumscore"
  top: "loss22"
  include {
    phase: TRAIN
  }
  ncl_loss_param {
    lambda: 0.1
    net_num: 64
  }
}
layer {
  name: "loss23"
  type: "NCLLoss"
  bottom: "score23"
  bottom: "label"
  bottom: "sumscore"
  top: "loss23"
  include {
    phase: TRAIN
  }
  ncl_loss_param {
    lambda: 0.1
    net_num: 64
  }
}
layer {
  name: "loss24"
  type: "NCLLoss"
  bottom: "score24"
  bottom: "label"
  bottom: "sumscore"
  top: "loss24"
  include {
    phase: TRAIN
  }
  ncl_loss_param {
    lambda: 0.1
    net_num: 64
  }
}
layer {
  name: "loss25"
  type: "NCLLoss"
  bottom: "score25"
  bottom: "label"
  bottom: "sumscore"
  top: "loss25"
  include {
    phase: TRAIN
  }
  ncl_loss_param {
    lambda: 0.1
    net_num: 64
  }
}
layer {
  name: "loss26"
  type: "NCLLoss"
  bottom: "score26"
  bottom: "label"
  bottom: "sumscore"
  top: "loss26"
  include {
    phase: TRAIN
  }
  ncl_loss_param {
    lambda: 0.1
    net_num: 64
  }
}
layer {
  name: "loss27"
  type: "NCLLoss"
  bottom: "score27"
  bottom: "label"
  bottom: "sumscore"
  top: "loss27"
  include {
    phase: TRAIN
  }
  ncl_loss_param {
    lambda: 0.1
    net_num: 64
  }
}
layer {
  name: "loss28"
  type: "NCLLoss"
  bottom: "score28"
  bottom: "label"
  bottom: "sumscore"
  top: "loss28"
  include {
    phase: TRAIN
  }
  ncl_loss_param {
    lambda: 0.1
    net_num: 64
  }
}
layer {
  name: "loss29"
  type: "NCLLoss"
  bottom: "score29"
  bottom: "label"
  bottom: "sumscore"
  top: "loss29"
  include {
    phase: TRAIN
  }
  ncl_loss_param {
    lambda: 0.1
    net_num: 64
  }
}
layer {
  name: "loss30"
  type: "NCLLoss"
  bottom: "score30"
  bottom: "label"
  bottom: "sumscore"
  top: "loss30"
  include {
    phase: TRAIN
  }
  ncl_loss_param {
    lambda: 0.1
    net_num: 64
  }
}
layer {
  name: "loss31"
  type: "NCLLoss"
  bottom: "score31"
  bottom: "label"
  bottom: "sumscore"
  top: "loss31"
  include {
    phase: TRAIN
  }
  ncl_loss_param {
    lambda: 0.1
    net_num: 64
  }
}
layer {
  name: "loss32"
  type: "NCLLoss"
  bottom: "score32"
  bottom: "label"
  bottom: "sumscore"
  top: "loss32"
  include {
    phase: TRAIN
  }
  ncl_loss_param {
    lambda: 0.1
    net_num: 64
  }
}
layer {
  name: "loss33"
  type: "NCLLoss"
  bottom: "score33"
  bottom: "label"
  bottom: "sumscore"
  top: "loss33"
  include {
    phase: TRAIN
  }
  ncl_loss_param {
    lambda: 0.1
    net_num: 64
  }
}
layer {
  name: "loss34"
  type: "NCLLoss"
  bottom: "score34"
  bottom: "label"
  bottom: "sumscore"
  top: "loss34"
  include {
    phase: TRAIN
  }
  ncl_loss_param {
    lambda: 0.1
    net_num: 64
  }
}
layer {
  name: "loss35"
  type: "NCLLoss"
  bottom: "score35"
  bottom: "label"
  bottom: "sumscore"
  top: "loss35"
  include {
    phase: TRAIN
  }
  ncl_loss_param {
    lambda: 0.1
    net_num: 64
  }
}
layer {
  name: "loss36"
  type: "NCLLoss"
  bottom: "score36"
  bottom: "label"
  bottom: "sumscore"
  top: "loss36"
  include {
    phase: TRAIN
  }
  ncl_loss_param {
    lambda: 0.1
    net_num: 64
  }
}
layer {
  name: "loss37"
  type: "NCLLoss"
  bottom: "score37"
  bottom: "label"
  bottom: "sumscore"
  top: "loss37"
  include {
    phase: TRAIN
  }
  ncl_loss_param {
    lambda: 0.1
    net_num: 64
  }
}
layer {
  name: "loss38"
  type: "NCLLoss"
  bottom: "score38"
  bottom: "label"
  bottom: "sumscore"
  top: "loss38"
  include {
    phase: TRAIN
  }
  ncl_loss_param {
    lambda: 0.1
    net_num: 64
  }
}
layer {
  name: "loss39"
  type: "NCLLoss"
  bottom: "score39"
  bottom: "label"
  bottom: "sumscore"
  top: "loss39"
  include {
    phase: TRAIN
  }
  ncl_loss_param {
    lambda: 0.1
    net_num: 64
  }
}
layer {
  name: "loss40"
  type: "NCLLoss"
  bottom: "score40"
  bottom: "label"
  bottom: "sumscore"
  top: "loss40"
  include {
    phase: TRAIN
  }
  ncl_loss_param {
    lambda: 0.1
    net_num: 64
  }
}
layer {
  name: "loss41"
  type: "NCLLoss"
  bottom: "score41"
  bottom: "label"
  bottom: "sumscore"
  top: "loss41"
  include {
    phase: TRAIN
  }
  ncl_loss_param {
    lambda: 0.1
    net_num: 64
  }
}
layer {
  name: "loss42"
  type: "NCLLoss"
  bottom: "score42"
  bottom: "label"
  bottom: "sumscore"
  top: "loss42"
  include {
    phase: TRAIN
  }
  ncl_loss_param {
    lambda: 0.1
    net_num: 64
  }
}
layer {
  name: "loss43"
  type: "NCLLoss"
  bottom: "score43"
  bottom: "label"
  bottom: "sumscore"
  top: "loss43"
  include {
    phase: TRAIN
  }
  ncl_loss_param {
    lambda: 0.1
    net_num: 64
  }
}
layer {
  name: "loss44"
  type: "NCLLoss"
  bottom: "score44"
  bottom: "label"
  bottom: "sumscore"
  top: "loss44"
  include {
    phase: TRAIN
  }
  ncl_loss_param {
    lambda: 0.1
    net_num: 64
  }
}
layer {
  name: "loss45"
  type: "NCLLoss"
  bottom: "score45"
  bottom: "label"
  bottom: "sumscore"
  top: "loss45"
  include {
    phase: TRAIN
  }
  ncl_loss_param {
    lambda: 0.1
    net_num: 64
  }
}
layer {
  name: "loss46"
  type: "NCLLoss"
  bottom: "score46"
  bottom: "label"
  bottom: "sumscore"
  top: "loss46"
  include {
    phase: TRAIN
  }
  ncl_loss_param {
    lambda: 0.1
    net_num: 64
  }
}
layer {
  name: "loss47"
  type: "NCLLoss"
  bottom: "score47"
  bottom: "label"
  bottom: "sumscore"
  top: "loss47"
  include {
    phase: TRAIN
  }
  ncl_loss_param {
    lambda: 0.1
    net_num: 64
  }
}
layer {
  name: "loss48"
  type: "NCLLoss"
  bottom: "score48"
  bottom: "label"
  bottom: "sumscore"
  top: "loss48"
  include {
    phase: TRAIN
  }
  ncl_loss_param {
    lambda: 0.1
    net_num: 64
  }
}
layer {
  name: "loss49"
  type: "NCLLoss"
  bottom: "score49"
  bottom: "label"
  bottom: "sumscore"
  top: "loss49"
  include {
    phase: TRAIN
  }
  ncl_loss_param {
    lambda: 0.1
    net_num: 64
  }
}
layer {
  name: "loss50"
  type: "NCLLoss"
  bottom: "score50"
  bottom: "label"
  bottom: "sumscore"
  top: "loss50"
  include {
    phase: TRAIN
  }
  ncl_loss_param {
    lambda: 0.1
    net_num: 64
  }
}
layer {
  name: "loss51"
  type: "NCLLoss"
  bottom: "score51"
  bottom: "label"
  bottom: "sumscore"
  top: "loss51"
  include {
    phase: TRAIN
  }
  ncl_loss_param {
    lambda: 0.1
    net_num: 64
  }
}
layer {
  name: "loss52"
  type: "NCLLoss"
  bottom: "score52"
  bottom: "label"
  bottom: "sumscore"
  top: "loss52"
  include {
    phase: TRAIN
  }
  ncl_loss_param {
    lambda: 0.1
    net_num: 64
  }
}
layer {
  name: "loss53"
  type: "NCLLoss"
  bottom: "score53"
  bottom: "label"
  bottom: "sumscore"
  top: "loss53"
  include {
    phase: TRAIN
  }
  ncl_loss_param {
    lambda: 0.1
    net_num: 64
  }
}
layer {
  name: "loss54"
  type: "NCLLoss"
  bottom: "score54"
  bottom: "label"
  bottom: "sumscore"
  top: "loss54"
  include {
    phase: TRAIN
  }
  ncl_loss_param {
    lambda: 0.1
    net_num: 64
  }
}
layer {
  name: "loss55"
  type: "NCLLoss"
  bottom: "score55"
  bottom: "label"
  bottom: "sumscore"
  top: "loss55"
  include {
    phase: TRAIN
  }
  ncl_loss_param {
    lambda: 0.1
    net_num: 64
  }
}
layer {
  name: "loss56"
  type: "NCLLoss"
  bottom: "score56"
  bottom: "label"
  bottom: "sumscore"
  top: "loss56"
  include {
    phase: TRAIN
  }
  ncl_loss_param {
    lambda: 0.1
    net_num: 64
  }
}
layer {
  name: "loss57"
  type: "NCLLoss"
  bottom: "score57"
  bottom: "label"
  bottom: "sumscore"
  top: "loss57"
  include {
    phase: TRAIN
  }
  ncl_loss_param {
    lambda: 0.1
    net_num: 64
  }
}
layer {
  name: "loss58"
  type: "NCLLoss"
  bottom: "score58"
  bottom: "label"
  bottom: "sumscore"
  top: "loss58"
  include {
    phase: TRAIN
  }
  ncl_loss_param {
    lambda: 0.1
    net_num: 64
  }
}
layer {
  name: "loss59"
  type: "NCLLoss"
  bottom: "score59"
  bottom: "label"
  bottom: "sumscore"
  top: "loss59"
  include {
    phase: TRAIN
  }
  ncl_loss_param {
    lambda: 0.1
    net_num: 64
  }
}
layer {
  name: "loss60"
  type: "NCLLoss"
  bottom: "score60"
  bottom: "label"
  bottom: "sumscore"
  top: "loss60"
  include {
    phase: TRAIN
  }
  ncl_loss_param {
    lambda: 0.1
    net_num: 64
  }
}
layer {
  name: "loss61"
  type: "NCLLoss"
  bottom: "score61"
  bottom: "label"
  bottom: "sumscore"
  top: "loss61"
  include {
    phase: TRAIN
  }
  ncl_loss_param {
    lambda: 0.1
    net_num: 64
  }
}
layer {
  name: "loss62"
  type: "NCLLoss"
  bottom: "score62"
  bottom: "label"
  bottom: "sumscore"
  top: "loss62"
  include {
    phase: TRAIN
  }
  ncl_loss_param {
    lambda: 0.1
    net_num: 64
  }
}
layer {
  name: "loss63"
  type: "NCLLoss"
  bottom: "score63"
  bottom: "label"
  bottom: "sumscore"
  top: "loss63"
  include {
    phase: TRAIN
  }
  ncl_loss_param {
    lambda: 0.1
    net_num: 64
  }
}
layer {
  name: "loss64"
  type: "NCLLoss"
  bottom: "score64"
  bottom: "label"
  bottom: "sumscore"
  top: "loss64"
  include {
    phase: TRAIN
  }
  ncl_loss_param {
    lambda: 0.1
    net_num: 64
  }
}
I0725 10:56:52.048769 13372 layer_factory.hpp:77] Creating layer data
I0725 10:56:52.049780 13372 db_lmdb.cpp:35] Opened lmdb /home/peiyong/Work/Zenglin/szl/ShanghaiTech/partA/train_8/image_lmdb
I0725 10:56:52.052006 13372 net.cpp:84] Creating Layer data
I0725 10:56:52.052042 13372 net.cpp:380] data -> data
I0725 10:56:52.056161 13372 data_layer.cpp:45] output data size: 1,3,384,512
I0725 10:56:52.061821 13372 net.cpp:122] Setting up data
I0725 10:56:52.061844 13372 net.cpp:129] Top shape: 1 3 384 512 (589824)
I0725 10:56:52.061847 13372 net.cpp:137] Memory required for data: 2359296
I0725 10:56:52.061854 13372 layer_factory.hpp:77] Creating layer label
I0725 10:56:52.062155 13372 db_lmdb.cpp:35] Opened lmdb /home/peiyong/Work/Zenglin/szl/ShanghaiTech/partA/train_8/dmap_lmdb
I0725 10:56:52.062655 13372 net.cpp:84] Creating Layer label
I0725 10:56:52.062664 13372 net.cpp:380] label -> label
I0725 10:56:52.063266 13372 data_layer.cpp:45] output data size: 1,1,48,64
I0725 10:56:52.064579 13372 net.cpp:122] Setting up label
I0725 10:56:52.064599 13372 net.cpp:129] Top shape: 1 1 48 64 (3072)
I0725 10:56:52.064604 13372 net.cpp:137] Memory required for data: 2371584
I0725 10:56:52.064607 13372 layer_factory.hpp:77] Creating layer label_label_0_split
I0725 10:56:52.064627 13372 net.cpp:84] Creating Layer label_label_0_split
I0725 10:56:52.064635 13372 net.cpp:406] label_label_0_split <- label
I0725 10:56:52.064654 13372 net.cpp:380] label_label_0_split -> label_label_0_split_0
…
I0725 10:56:52.065670 13372 net.cpp:380] label_label_0_split -> label_label_0_split_58
I0725 10:56:52.065685 13372 net.cpp:380] label_label_0_split -> label_label_0_split_59
I0725 10:56:52.065699 13372 net.cpp:380] label_label_0_split -> label_label_0_split_60
I0725 10:56:52.065716 13372 net.cpp:380] label_label_0_split -> label_label_0_split_61
I0725 10:56:52.065732 13372 net.cpp:380] label_label_0_split -> label_label_0_split_62
I0725 10:56:52.065755 13372 net.cpp:380] label_label_0_split -> label_label_0_split_63
I0725 10:56:52.066445 13372 net.cpp:122] Setting up label_label_0_split
I0725 10:56:52.066455 13372 net.cpp:129] Top shape: 1 1 48 64 (3072)
I0725 10:56:52.066462 13372 net.cpp:129] Top shape: 1 1 48 64 (3072)
I0725 10:56:52.066467 13372 net.cpp:129] Top shape: 1 1 48 64 (3072)
I0725 10:56:52.066471 13372 net.cpp:129] Top shape: 1 1 48 64 (3072)
I0725 10:56:52.066476 13372 net.cpp:129] Top shape: 1 1 48 64 (3072)
I0725 10:56:52.066481 13372 net.cpp:129] Top shape: 1 1 48 64 (3072)
I0725 10:56:52.066500 13372 net.cpp:129] Top shape: 1 1 48 64 (3072)
I0725 10:56:52.066506 13372 net.cpp:129] Top shape: 1 1 48 64 (3072)
I0725 10:56:52.066510 13372 net.cpp:129] Top shape: 1 1 48 64 (3072)
I0725 10:56:52.066517 13372 net.cpp:129] Top shape: 1 1 48 64 (3072)
I0725 10:56:52.066522 13372 net.cpp:129] Top shape: 1 1 48 64 (3072)
I0725 10:56:52.066547 13372 net.cpp:129] Top shape: 1 1 48 64 (3072)
I0725 10:56:52.066557 13372 net.cpp:129] Top shape: 1 1 48 64 (3072)
I0725 10:56:52.066565 13372 net.cpp:129] Top shape: 1 1 48 64 (3072)
I0725 10:56:52.066571 13372 net.cpp:129] Top shape: 1 1 48 64 (3072)
I0725 10:56:52.066576 13372 net.cpp:129] Top shape: 1 1 48 64 (3072)
I0725 10:56:52.073462 13372 net.cpp:129] Top shape: 1 1 48 64 (3072)
I0725 10:56:52.073487 13372 net.cpp:129] Top shape: 1 1 48 64 (3072)
I0725 10:56:52.073508 13372 net.cpp:129] Top shape: 1 1 48 64 (3072)
I0725 10:56:52.073514 13372 net.cpp:129] Top shape: 1 1 48 64 (3072)
I0725 10:56:52.073521 13372 net.cpp:129] Top shape: 1 1 48 64 (3072)
I0725 10:56:52.073529 13372 net.cpp:129] Top shape: 1 1 48 64 (3072)
I0725 10:56:52.073535 13372 net.cpp:129] Top shape: 1 1 48 64 (3072)
I0725 10:56:52.073544 13372 net.cpp:129] Top shape: 1 1 48 64 (3072)
I0725 10:56:52.073550 13372 net.cpp:129] Top shape: 1 1 48 64 (3072)
I0725 10:56:52.073557 13372 net.cpp:129] Top shape: 1 1 48 64 (3072)
I0725 10:56:52.073565 13372 net.cpp:129] Top shape: 1 1 48 64 (3072)
I0725 10:56:52.073571 13372 net.cpp:129] Top shape: 1 1 48 64 (3072)
I0725 10:56:52.073578 13372 net.cpp:129] Top shape: 1 1 48 64 (3072)
I0725 10:56:52.073585 13372 net.cpp:129] Top shape: 1 1 48 64 (3072)
I0725 10:56:52.073593 13372 net.cpp:129] Top shape: 1 1 48 64 (3072)
I0725 10:56:52.073601 13372 net.cpp:129] Top shape: 1 1 48 64 (3072)
I0725 10:56:52.073607 13372 net.cpp:129] Top shape: 1 1 48 64 (3072)
I0725 10:56:52.073614 13372 net.cpp:129] Top shape: 1 1 48 64 (3072)
I0725 10:56:52.073621 13372 net.cpp:129] Top shape: 1 1 48 64 (3072)
I0725 10:56:52.073628 13372 net.cpp:129] Top shape: 1 1 48 64 (3072)
I0725 10:56:52.073635 13372 net.cpp:129] Top shape: 1 1 48 64 (3072)
I0725 10:56:52.073642 13372 net.cpp:129] Top shape: 1 1 48 64 (3072)
I0725 10:56:52.073649 13372 net.cpp:129] Top shape: 1 1 48 64 (3072)
I0725 10:56:52.073657 13372 net.cpp:129] Top shape: 1 1 48 64 (3072)
I0725 10:56:52.073663 13372 net.cpp:129] Top shape: 1 1 48 64 (3072)
I0725 10:56:52.073670 13372 net.cpp:129] Top shape: 1 1 48 64 (3072)
I0725 10:56:52.073676 13372 net.cpp:129] Top shape: 1 1 48 64 (3072)
I0725 10:56:52.073683 13372 net.cpp:129] Top shape: 1 1 48 64 (3072)
I0725 10:56:52.073691 13372 net.cpp:129] Top shape: 1 1 48 64 (3072)
I0725 10:56:52.073698 13372 net.cpp:129] Top shape: 1 1 48 64 (3072)
I0725 10:56:52.073705 13372 net.cpp:129] Top shape: 1 1 48 64 (3072)
I0725 10:56:52.073711 13372 net.cpp:129] Top shape: 1 1 48 64 (3072)
I0725 10:56:52.073719 13372 net.cpp:129] Top shape: 1 1 48 64 (3072)
I0725 10:56:52.073725 13372 net.cpp:129] Top shape: 1 1 48 64 (3072)
I0725 10:56:52.073732 13372 net.cpp:129] Top shape: 1 1 48 64 (3072)
I0725 10:56:52.073740 13372 net.cpp:129] Top shape: 1 1 48 64 (3072)
I0725 10:56:52.073746 13372 net.cpp:129] Top shape: 1 1 48 64 (3072)
I0725 10:56:52.073753 13372 net.cpp:129] Top shape: 1 1 48 64 (3072)
I0725 10:56:52.073760 13372 net.cpp:129] Top shape: 1 1 48 64 (3072)
I0725 10:56:52.073767 13372 net.cpp:129] Top shape: 1 1 48 64 (3072)
I0725 10:56:52.073774 13372 net.cpp:129] Top shape: 1 1 48 64 (3072)
I0725 10:56:52.073781 13372 net.cpp:129] Top shape: 1 1 48 64 (3072)
I0725 10:56:52.073788 13372 net.cpp:129] Top shape: 1 1 48 64 (3072)
I0725 10:56:52.073796 13372 net.cpp:129] Top shape: 1 1 48 64 (3072)
I0725 10:56:52.073802 13372 net.cpp:129] Top shape: 1 1 48 64 (3072)
I0725 10:56:52.073809 13372 net.cpp:129] Top shape: 1 1 48 64 (3072)
I0725 10:56:52.073817 13372 net.cpp:129] Top shape: 1 1 48 64 (3072)
I0725 10:56:52.073823 13372 net.cpp:129] Top shape: 1 1 48 64 (3072)
I0725 10:56:52.073829 13372 net.cpp:137] Memory required for data: 3158016
I0725 10:56:52.073837 13372 layer_factory.hpp:77] Creating layer conv1_1
I0725 10:56:52.073863 13372 net.cpp:84] Creating Layer conv1_1
I0725 10:56:52.073870 13372 net.cpp:406] conv1_1 <- data
I0725 10:56:52.073882 13372 net.cpp:380] conv1_1 -> conv1_1
I0725 10:56:54.473027 13372 net.cpp:122] Setting up conv1_1
I0725 10:56:54.474666 13372 net.cpp:129] Top shape: 1 64 384 512 (12582912)
I0725 10:56:54.474715 13372 net.cpp:137] Memory required for data: 53489664
I0725 10:56:54.477185 13372 layer_factory.hpp:77] Creating layer relu1_1
I0725 10:56:54.478338 13372 net.cpp:84] Creating Layer relu1_1
I0725 10:56:54.478350 13372 net.cpp:406] relu1_1 <- conv1_1
I0725 10:56:54.478358 13372 net.cpp:367] relu1_1 -> conv1_1 (in-place)
I0725 10:56:54.479777 13372 net.cpp:122] Setting up relu1_1
I0725 10:56:54.479794 13372 net.cpp:129] Top shape: 1 64 384 512 (12582912)
I0725 10:56:54.479797 13372 net.cpp:137] Memory required for data: 103821312
I0725 10:56:54.479801 13372 layer_factory.hpp:77] Creating layer conv1_2
I0725 10:56:54.479818 13372 net.cpp:84] Creating Layer conv1_2
I0725 10:56:54.479827 13372 net.cpp:406] conv1_2 <- conv1_1
I0725 10:56:54.479840 13372 net.cpp:380] conv1_2 -> conv1_2
I0725 10:56:54.485019 13372 net.cpp:122] Setting up conv1_2
I0725 10:56:54.485040 13372 net.cpp:129] Top shape: 1 64 384 512 (12582912)
I0725 10:56:54.485045 13372 net.cpp:137] Memory required for data: 154152960
I0725 10:56:54.485056 13372 layer_factory.hpp:77] Creating layer relu1_2
I0725 10:56:54.485065 13372 net.cpp:84] Creating Layer relu1_2
I0725 10:56:54.485070 13372 net.cpp:406] relu1_2 <- conv1_2
I0725 10:56:54.485077 13372 net.cpp:367] relu1_2 -> conv1_2 (in-place)
I0725 10:56:54.485260 13372 net.cpp:122] Setting up relu1_2
I0725 10:56:54.485271 13372 net.cpp:129] Top shape: 1 64 384 512 (12582912)
I0725 10:56:54.485276 13372 net.cpp:137] Memory required for data: 204484608
I0725 10:56:54.485283 13372 layer_factory.hpp:77] Creating layer pool1
I0725 10:56:54.485292 13372 net.cpp:84] Creating Layer pool1
I0725 10:56:54.485297 13372 net.cpp:406] pool1 <- conv1_2
I0725 10:56:54.485317 13372 net.cpp:380] pool1 -> pool1
I0725 10:56:54.485957 13372 net.cpp:122] Setting up pool1
I0725 10:56:54.485993 13372 net.cpp:129] Top shape: 1 64 192 256 (3145728)
I0725 10:56:54.486003 13372 net.cpp:137] Memory required for data: 217067520
I0725 10:56:54.486013 13372 layer_factory.hpp:77] Creating layer conv2_1
I0725 10:56:54.486042 13372 net.cpp:84] Creating Layer conv2_1
I0725 10:56:54.486052 13372 net.cpp:406] conv2_1 <- pool1
I0725 10:56:54.486069 13372 net.cpp:380] conv2_1 -> conv2_1
I0725 10:56:54.492812 13372 net.cpp:122] Setting up conv2_1
I0725 10:56:54.492847 13372 net.cpp:129] Top shape: 1 128 192 256 (6291456)
I0725 10:56:54.492856 13372 net.cpp:137] Memory required for data: 242233344
I0725 10:56:54.492877 13372 layer_factory.hpp:77] Creating layer relu2_1
I0725 10:56:54.492893 13372 net.cpp:84] Creating Layer relu2_1
I0725 10:56:54.492902 13372 net.cpp:406] relu2_1 <- conv2_1
I0725 10:56:54.492918 13372 net.cpp:367] relu2_1 -> conv2_1 (in-place)
I0725 10:56:54.494141 13372 net.cpp:122] Setting up relu2_1
I0725 10:56:54.494168 13372 net.cpp:129] Top shape: 1 128 192 256 (6291456)
I0725 10:56:54.494174 13372 net.cpp:137] Memory required for data: 267399168
I0725 10:56:54.494184 13372 layer_factory.hpp:77] Creating layer conv2_2
I0725 10:56:54.494206 13372 net.cpp:84] Creating Layer conv2_2
I0725 10:56:54.494216 13372 net.cpp:406] conv2_2 <- conv2_1
I0725 10:56:54.494230 13372 net.cpp:380] conv2_2 -> conv2_2
I0725 10:56:54.501276 13372 net.cpp:122] Setting up conv2_2
I0725 10:56:54.501314 13372 net.cpp:129] Top shape: 1 128 192 256 (6291456)
I0725 10:56:54.501323 13372 net.cpp:137] Memory required for data: 292564992
I0725 10:56:54.501338 13372 layer_factory.hpp:77] Creating layer relu2_2
I0725 10:56:54.501351 13372 net.cpp:84] Creating Layer relu2_2
I0725 10:56:54.501359 13372 net.cpp:406] relu2_2 <- conv2_2
I0725 10:56:54.501374 13372 net.cpp:367] relu2_2 -> conv2_2 (in-place)
I0725 10:56:54.501713 13372 net.cpp:122] Setting up relu2_2
I0725 10:56:54.501731 13372 net.cpp:129] Top shape: 1 128 192 256 (6291456)
I0725 10:56:54.501739 13372 net.cpp:137] Memory required for data: 317730816
I0725 10:56:54.501746 13372 layer_factory.hpp:77] Creating layer pool2
I0725 10:56:54.501760 13372 net.cpp:84] Creating Layer pool2
I0725 10:56:54.501767 13372 net.cpp:406] pool2 <- conv2_2
I0725 10:56:54.501781 13372 net.cpp:380] pool2 -> pool2
I0725 10:56:54.501929 13372 net.cpp:122] Setting up pool2
I0725 10:56:54.501943 13372 net.cpp:129] Top shape: 1 128 96 128 (1572864)
I0725 10:56:54.501950 13372 net.cpp:137] Memory required for data: 324022272
I0725 10:56:54.501957 13372 layer_factory.hpp:77] Creating layer conv3_1
I0725 10:56:54.501982 13372 net.cpp:84] Creating Layer conv3_1
I0725 10:56:54.501991 13372 net.cpp:406] conv3_1 <- pool2
I0725 10:56:54.502003 13372 net.cpp:380] conv3_1 -> conv3_1
I0725 10:56:54.512681 13372 net.cpp:122] Setting up conv3_1
I0725 10:56:54.512713 13372 net.cpp:129] Top shape: 1 256 96 128 (3145728)
I0725 10:56:54.512722 13372 net.cpp:137] Memory required for data: 336605184
I0725 10:56:54.512742 13372 layer_factory.hpp:77] Creating layer relu3_1
I0725 10:56:54.512754 13372 net.cpp:84] Creating Layer relu3_1
I0725 10:56:54.512763 13372 net.cpp:406] relu3_1 <- conv3_1
I0725 10:56:54.512776 13372 net.cpp:367] relu3_1 -> conv3_1 (in-place)
I0725 10:56:54.513113 13372 net.cpp:122] Setting up relu3_1
I0725 10:56:54.513130 13372 net.cpp:129] Top shape: 1 256 96 128 (3145728)
I0725 10:56:54.513137 13372 net.cpp:137] Memory required for data: 349188096
I0725 10:56:54.513144 13372 layer_factory.hpp:77] Creating layer conv3_2
I0725 10:56:54.513164 13372 net.cpp:84] Creating Layer conv3_2
I0725 10:56:54.513172 13372 net.cpp:406] conv3_2 <- conv3_1
I0725 10:56:54.513192 13372 net.cpp:380] conv3_2 -> conv3_2
I0725 10:56:54.528146 13372 net.cpp:122] Setting up conv3_2
I0725 10:56:54.528184 13372 net.cpp:129] Top shape: 1 256 96 128 (3145728)
I0725 10:56:54.528192 13372 net.cpp:137] Memory required for data: 361771008
I0725 10:56:54.528206 13372 layer_factory.hpp:77] Creating layer relu3_2
I0725 10:56:54.528225 13372 net.cpp:84] Creating Layer relu3_2
I0725 10:56:54.528234 13372 net.cpp:406] relu3_2 <- conv3_2
I0725 10:56:54.528244 13372 net.cpp:367] relu3_2 -> conv3_2 (in-place)
I0725 10:56:54.529243 13372 net.cpp:122] Setting up relu3_2
I0725 10:56:54.529264 13372 net.cpp:129] Top shape: 1 256 96 128 (3145728)
I0725 10:56:54.529271 13372 net.cpp:137] Memory required for data: 374353920
I0725 10:56:54.529278 13372 layer_factory.hpp:77] Creating layer conv3_3
I0725 10:56:54.529297 13372 net.cpp:84] Creating Layer conv3_3
I0725 10:56:54.529311 13372 net.cpp:406] conv3_3 <- conv3_2
I0725 10:56:54.529325 13372 net.cpp:380] conv3_3 -> conv3_3
I0725 10:56:54.543112 13372 net.cpp:122] Setting up conv3_3
I0725 10:56:54.543138 13372 net.cpp:129] Top shape: 1 256 96 128 (3145728)
I0725 10:56:54.543143 13372 net.cpp:137] Memory required for data: 386936832
I0725 10:56:54.543154 13372 layer_factory.hpp:77] Creating layer relu3_3
I0725 10:56:54.543165 13372 net.cpp:84] Creating Layer relu3_3
I0725 10:56:54.543172 13372 net.cpp:406] relu3_3 <- conv3_3
I0725 10:56:54.543182 13372 net.cpp:367] relu3_3 -> conv3_3 (in-place)
I0725 10:56:54.543467 13372 net.cpp:122] Setting up relu3_3
I0725 10:56:54.543481 13372 net.cpp:129] Top shape: 1 256 96 128 (3145728)
I0725 10:56:54.543488 13372 net.cpp:137] Memory required for data: 399519744
I0725 10:56:54.543494 13372 layer_factory.hpp:77] Creating layer pool3
I0725 10:56:54.543505 13372 net.cpp:84] Creating Layer pool3
I0725 10:56:54.543511 13372 net.cpp:406] pool3 <- conv3_3
I0725 10:56:54.543524 13372 net.cpp:380] pool3 -> pool3
I0725 10:56:54.543596 13372 net.cpp:122] Setting up pool3
I0725 10:56:54.543607 13372 net.cpp:129] Top shape: 1 256 48 64 (786432)
I0725 10:56:54.543613 13372 net.cpp:137] Memory required for data: 402665472
I0725 10:56:54.543619 13372 layer_factory.hpp:77] Creating layer conv4_1
I0725 10:56:54.543634 13372 net.cpp:84] Creating Layer conv4_1
I0725 10:56:54.543642 13372 net.cpp:406] conv4_1 <- pool3
I0725 10:56:54.543651 13372 net.cpp:380] conv4_1 -> conv4_1
I0725 10:56:54.566900 13372 net.cpp:122] Setting up conv4_1
I0725 10:56:54.566931 13372 net.cpp:129] Top shape: 1 512 48 64 (1572864)
I0725 10:56:54.566936 13372 net.cpp:137] Memory required for data: 408956928
I0725 10:56:54.566948 13372 layer_factory.hpp:77] Creating layer relu4_1
I0725 10:56:54.566962 13372 net.cpp:84] Creating Layer relu4_1
I0725 10:56:54.567005 13372 net.cpp:406] relu4_1 <- conv4_1
I0725 10:56:54.567016 13372 net.cpp:367] relu4_1 -> conv4_1 (in-place)
I0725 10:56:54.567270 13372 net.cpp:122] Setting up relu4_1
I0725 10:56:54.567283 13372 net.cpp:129] Top shape: 1 512 48 64 (1572864)
I0725 10:56:54.567288 13372 net.cpp:137] Memory required for data: 415248384
I0725 10:56:54.567294 13372 layer_factory.hpp:77] Creating layer conv4_2
I0725 10:56:54.567311 13372 net.cpp:84] Creating Layer conv4_2
I0725 10:56:54.567317 13372 net.cpp:406] conv4_2 <- conv4_1
I0725 10:56:54.567328 13372 net.cpp:380] conv4_2 -> conv4_2
I0725 10:56:54.603446 13372 net.cpp:122] Setting up conv4_2
I0725 10:56:54.603480 13372 net.cpp:129] Top shape: 1 512 48 64 (1572864)
I0725 10:56:54.603487 13372 net.cpp:137] Memory required for data: 421539840
I0725 10:56:54.603507 13372 layer_factory.hpp:77] Creating layer relu4_2
I0725 10:56:54.603519 13372 net.cpp:84] Creating Layer relu4_2
I0725 10:56:54.603526 13372 net.cpp:406] relu4_2 <- conv4_2
I0725 10:56:54.603538 13372 net.cpp:367] relu4_2 -> conv4_2 (in-place)
I0725 10:56:54.604347 13372 net.cpp:122] Setting up relu4_2
I0725 10:56:54.604365 13372 net.cpp:129] Top shape: 1 512 48 64 (1572864)
I0725 10:56:54.604372 13372 net.cpp:137] Memory required for data: 427831296
I0725 10:56:54.604377 13372 layer_factory.hpp:77] Creating layer conv4_3
I0725 10:56:54.604393 13372 net.cpp:84] Creating Layer conv4_3
I0725 10:56:54.604400 13372 net.cpp:406] conv4_3 <- conv4_2
I0725 10:56:54.604410 13372 net.cpp:380] conv4_3 -> conv4_3
I0725 10:56:54.636343 13372 net.cpp:122] Setting up conv4_3
I0725 10:56:54.636375 13372 net.cpp:129] Top shape: 1 512 48 64 (1572864)
I0725 10:56:54.636379 13372 net.cpp:137] Memory required for data: 434122752
I0725 10:56:54.636391 13372 layer_factory.hpp:77] Creating layer relu4_3
I0725 10:56:54.636402 13372 net.cpp:84] Creating Layer relu4_3
I0725 10:56:54.636409 13372 net.cpp:406] relu4_3 <- conv4_3
I0725 10:56:54.636420 13372 net.cpp:367] relu4_3 -> conv4_3 (in-place)
I0725 10:56:54.636621 13372 net.cpp:122] Setting up relu4_3
I0725 10:56:54.636632 13372 net.cpp:129] Top shape: 1 512 48 64 (1572864)
I0725 10:56:54.636636 13372 net.cpp:137] Memory required for data: 440414208
I0725 10:56:54.636641 13372 layer_factory.hpp:77] Creating layer pool4
I0725 10:56:54.636651 13372 net.cpp:84] Creating Layer pool4
I0725 10:56:54.636656 13372 net.cpp:406] pool4 <- conv4_3
I0725 10:56:54.636663 13372 net.cpp:380] pool4 -> pool4
I0725 10:56:54.636719 13372 net.cpp:122] Setting up pool4
I0725 10:56:54.636728 13372 net.cpp:129] Top shape: 1 512 48 64 (1572864)
I0725 10:56:54.636731 13372 net.cpp:137] Memory required for data: 446705664
I0725 10:56:54.636736 13372 layer_factory.hpp:77] Creating layer conv5_1
I0725 10:56:54.636749 13372 net.cpp:84] Creating Layer conv5_1
I0725 10:56:54.636755 13372 net.cpp:406] conv5_1 <- pool4
I0725 10:56:54.636765 13372 net.cpp:380] conv5_1 -> conv5_1
I0725 10:56:54.664549 13372 net.cpp:122] Setting up conv5_1
I0725 10:56:54.664583 13372 net.cpp:129] Top shape: 1 512 48 64 (1572864)
I0725 10:56:54.664589 13372 net.cpp:137] Memory required for data: 452997120
I0725 10:56:54.664604 13372 layer_factory.hpp:77] Creating layer relu5_1
I0725 10:56:54.664621 13372 net.cpp:84] Creating Layer relu5_1
I0725 10:56:54.664630 13372 net.cpp:406] relu5_1 <- conv5_1
I0725 10:56:54.664644 13372 net.cpp:367] relu5_1 -> conv5_1 (in-place)
I0725 10:56:54.665648 13372 net.cpp:122] Setting up relu5_1
I0725 10:56:54.665668 13372 net.cpp:129] Top shape: 1 512 48 64 (1572864)
I0725 10:56:54.665674 13372 net.cpp:137] Memory required for data: 459288576
I0725 10:56:54.665683 13372 layer_factory.hpp:77] Creating layer conv5_2
I0725 10:56:54.665701 13372 net.cpp:84] Creating Layer conv5_2
I0725 10:56:54.665709 13372 net.cpp:406] conv5_2 <- conv5_1
I0725 10:56:54.665722 13372 net.cpp:380] conv5_2 -> conv5_2
I0725 10:56:54.826113 13372 net.cpp:122] Setting up conv5_2
I0725 10:56:54.826153 13372 net.cpp:129] Top shape: 1 512 48 64 (1572864)
I0725 10:56:54.826160 13372 net.cpp:137] Memory required for data: 465580032
I0725 10:56:54.826232 13372 layer_factory.hpp:77] Creating layer relu5_2
I0725 10:56:54.826264 13372 net.cpp:84] Creating Layer relu5_2
I0725 10:56:54.826275 13372 net.cpp:406] relu5_2 <- conv5_2
I0725 10:56:54.826294 13372 net.cpp:367] relu5_2 -> conv5_2 (in-place)
I0725 10:56:54.826668 13372 net.cpp:122] Setting up relu5_2
I0725 10:56:54.826688 13372 net.cpp:129] Top shape: 1 512 48 64 (1572864)
I0725 10:56:54.826694 13372 net.cpp:137] Memory required for data: 471871488
I0725 10:56:54.826701 13372 layer_factory.hpp:77] Creating layer conv5_3
I0725 10:56:54.826722 13372 net.cpp:84] Creating Layer conv5_3
I0725 10:56:54.826730 13372 net.cpp:406] conv5_3 <- conv5_2
I0725 10:56:54.826747 13372 net.cpp:380] conv5_3 -> conv5_3
I0725 10:56:55.121443 13372 net.cpp:122] Setting up conv5_3
I0725 10:56:55.121490 13372 net.cpp:129] Top shape: 1 512 48 64 (1572864)
I0725 10:56:55.121497 13372 net.cpp:137] Memory required for data: 478162944
I0725 10:56:55.121512 13372 layer_factory.hpp:77] Creating layer relu5_3
I0725 10:56:55.121551 13372 net.cpp:84] Creating Layer relu5_3
I0725 10:56:55.121561 13372 net.cpp:406] relu5_3 <- conv5_3
I0725 10:56:55.121572 13372 net.cpp:367] relu5_3 -> conv5_3 (in-place)
I0725 10:56:55.122627 13372 net.cpp:122] Setting up relu5_3
I0725 10:56:55.122653 13372 net.cpp:129] Top shape: 1 512 48 64 (1572864)
I0725 10:56:55.122660 13372 net.cpp:137] Memory required for data: 484454400
I0725 10:56:55.122668 13372 layer_factory.hpp:77] Creating layer conv_score
I0725 10:56:55.122690 13372 net.cpp:84] Creating Layer conv_score
I0725 10:56:55.122699 13372 net.cpp:406] conv_score <- conv5_3
I0725 10:56:55.122709 13372 net.cpp:380] conv_score -> conv_score
I0725 10:56:55.230136 13372 net.cpp:122] Setting up conv_score
I0725 10:56:55.230168 13372 net.cpp:129] Top shape: 1 64 48 64 (196608)
I0725 10:56:55.230173 13372 net.cpp:137] Memory required for data: 485240832
I0725 10:56:55.230186 13372 layer_factory.hpp:77] Creating layer relu_score
I0725 10:56:55.230201 13372 net.cpp:84] Creating Layer relu_score
I0725 10:56:55.230207 13372 net.cpp:406] relu_score <- conv_score
I0725 10:56:55.230216 13372 net.cpp:367] relu_score -> conv_score (in-place)
I0725 10:56:55.230434 13372 net.cpp:122] Setting up relu_score
I0725 10:56:55.230448 13372 net.cpp:129] Top shape: 1 64 48 64 (196608)
I0725 10:56:55.230453 13372 net.cpp:137] Memory required for data: 486027264
I0725 10:56:55.230458 13372 layer_factory.hpp:77] Creating layer slicer_conv
I0725 10:56:55.252904 13372 net.cpp:84] Creating Layer slicer_conv
I0725 10:56:55.252931 13372 net.cpp:406] slicer_conv <- conv_score
I0725 10:56:55.252952 13372 net.cpp:380] slicer_conv -> score1
I0725 10:56:55.252974 13372 net.cpp:380] slicer_conv -> score2
…
I0725 10:56:55.253545 13372 net.cpp:380] slicer_conv -> score57
I0725 10:56:55.253552 13372 net.cpp:380] slicer_conv -> score58
I0725 10:56:55.253561 13372 net.cpp:380] slicer_conv -> score59
I0725 10:56:55.253568 13372 net.cpp:380] slicer_conv -> score60
I0725 10:56:55.253576 13372 net.cpp:380] slicer_conv -> score61
I0725 10:56:55.253584 13372 net.cpp:380] slicer_conv -> score62
I0725 10:56:55.253593 13372 net.cpp:380] slicer_conv -> score63
I0725 10:56:55.253602 13372 net.cpp:380] slicer_conv -> score64
I0725 10:56:55.254525 13372 net.cpp:122] Setting up slicer_conv
I0725 10:56:55.254537 13372 net.cpp:129] Top shape: 1 1 48 64 (3072)
I0725 10:56:55.254542 13372 net.cpp:129] Top shape: 1 1 48 64 (3072)
I0725 10:56:55.254546 13372 net.cpp:129] Top shape: 1 1 48 64 (3072)
I0725 10:56:55.254550 13372 net.cpp:129] Top shape: 1 1 48 64 (3072)
I0725 10:56:55.254554 13372 net.cpp:129] Top shape: 1 1 48 64 (3072)
I0725 10:56:55.254557 13372 net.cpp:129] Top shape: 1 1 48 64 (3072)
I0725 10:56:55.254561 13372 net.cpp:129] Top shape: 1 1 48 64 (3072)
I0725 10:56:55.254565 13372 net.cpp:129] Top shape: 1 1 48 64 (3072)
I0725 10:56:55.254570 13372 net.cpp:129] Top shape: 1 1 48 64 (3072)
I0725 10:56:55.254573 13372 net.cpp:129] Top shape: 1 1 48 64 (3072)
I0725 10:56:55.254576 13372 net.cpp:129] Top shape: 1 1 48 64 (3072)
I0725 10:56:55.254580 13372 net.cpp:129] Top shape: 1 1 48 64 (3072)
I0725 10:56:55.254585 13372 net.cpp:129] Top shape: 1 1 48 64 (3072)
I0725 10:56:55.254588 13372 net.cpp:129] Top shape: 1 1 48 64 (3072)
I0725 10:56:55.254592 13372 net.cpp:129] Top shape: 1 1 48 64 (3072)
I0725 10:56:55.254595 13372 net.cpp:129] Top shape: 1 1 48 64 (3072)
I0725 10:56:55.254600 13372 net.cpp:129] Top shape: 1 1 48 64 (3072)
I0725 10:56:55.254603 13372 net.cpp:129] Top shape: 1 1 48 64 (3072)
I0725 10:56:55.254607 13372 net.cpp:129] Top shape: 1 1 48 64 (3072)
I0725 10:56:55.254611 13372 net.cpp:129] Top shape: 1 1 48 64 (3072)
I0725 10:56:55.254616 13372 net.cpp:129] Top shape: 1 1 48 64 (3072)
I0725 10:56:55.254640 13372 net.cpp:129] Top shape: 1 1 48 64 (3072)
I0725 10:56:55.254647 13372 net.cpp:129] Top shape: 1 1 48 64 (3072)
I0725 10:56:55.254650 13372 net.cpp:129] Top shape: 1 1 48 64 (3072)
I0725 10:56:55.254654 13372 net.cpp:129] Top shape: 1 1 48 64 (3072)
I0725 10:56:55.254658 13372 net.cpp:129] Top shape: 1 1 48 64 (3072)
I0725 10:56:55.254662 13372 net.cpp:129] Top shape: 1 1 48 64 (3072)
I0725 10:56:55.254665 13372 net.cpp:129] Top shape: 1 1 48 64 (3072)
I0725 10:56:55.254669 13372 net.cpp:129] Top shape: 1 1 48 64 (3072)
I0725 10:56:55.254673 13372 net.cpp:129] Top shape: 1 1 48 64 (3072)
I0725 10:56:55.254678 13372 net.cpp:129] Top shape: 1 1 48 64 (3072)
I0725 10:56:55.254681 13372 net.cpp:129] Top shape: 1 1 48 64 (3072)
I0725 10:56:55.254684 13372 net.cpp:129] Top shape: 1 1 48 64 (3072)
I0725 10:56:55.254688 13372 net.cpp:129] Top shape: 1 1 48 64 (3072)
I0725 10:56:55.254693 13372 net.cpp:129] Top shape: 1 1 48 64 (3072)
I0725 10:56:55.254696 13372 net.cpp:129] Top shape: 1 1 48 64 (3072)
I0725 10:56:55.254700 13372 net.cpp:129] Top shape: 1 1 48 64 (3072)
I0725 10:56:55.254703 13372 net.cpp:129] Top shape: 1 1 48 64 (3072)
I0725 10:56:55.254707 13372 net.cpp:129] Top shape: 1 1 48 64 (3072)
I0725 10:56:55.254711 13372 net.cpp:129] Top shape: 1 1 48 64 (3072)
I0725 10:56:55.254715 13372 net.cpp:129] Top shape: 1 1 48 64 (3072)
I0725 10:56:55.254719 13372 net.cpp:129] Top shape: 1 1 48 64 (3072)
I0725 10:56:55.254722 13372 net.cpp:129] Top shape: 1 1 48 64 (3072)
I0725 10:56:55.254726 13372 net.cpp:129] Top shape: 1 1 48 64 (3072)
I0725 10:56:55.254731 13372 net.cpp:129] Top shape: 1 1 48 64 (3072)
I0725 10:56:55.254735 13372 net.cpp:129] Top shape: 1 1 48 64 (3072)
I0725 10:56:55.254739 13372 net.cpp:129] Top shape: 1 1 48 64 (3072)
I0725 10:56:55.254743 13372 net.cpp:129] Top shape: 1 1 48 64 (3072)
I0725 10:56:55.254747 13372 net.cpp:129] Top shape: 1 1 48 64 (3072)
I0725 10:56:55.254750 13372 net.cpp:129] Top shape: 1 1 48 64 (3072)
I0725 10:56:55.254755 13372 net.cpp:129] Top shape: 1 1 48 64 (3072)
I0725 10:56:55.254758 13372 net.cpp:129] Top shape: 1 1 48 64 (3072)
I0725 10:56:55.254762 13372 net.cpp:129] Top shape: 1 1 48 64 (3072)
I0725 10:56:55.254766 13372 net.cpp:129] Top shape: 1 1 48 64 (3072)
I0725 10:56:55.254770 13372 net.cpp:129] Top shape: 1 1 48 64 (3072)
I0725 10:56:55.254775 13372 net.cpp:129] Top shape: 1 1 48 64 (3072)
I0725 10:56:55.254777 13372 net.cpp:129] Top shape: 1 1 48 64 (3072)
I0725 10:56:55.254781 13372 net.cpp:129] Top shape: 1 1 48 64 (3072)
I0725 10:56:55.254786 13372 net.cpp:129] Top shape: 1 1 48 64 (3072)
I0725 10:56:55.254789 13372 net.cpp:129] Top shape: 1 1 48 64 (3072)
I0725 10:56:55.254793 13372 net.cpp:129] Top shape: 1 1 48 64 (3072)
I0725 10:56:55.254796 13372 net.cpp:129] Top shape: 1 1 48 64 (3072)
I0725 10:56:55.254801 13372 net.cpp:129] Top shape: 1 1 48 64 (3072)
I0725 10:56:55.254804 13372 net.cpp:129] Top shape: 1 1 48 64 (3072)
I0725 10:56:55.254807 13372 net.cpp:137] Memory required for data: 486813696
I0725 10:56:55.254812 13372 layer_factory.hpp:77] Creating layer score1_slicer_conv_0_split
I0725 10:56:55.254819 13372 net.cpp:84] Creating Layer score1_slicer_conv_0_split
I0725 10:56:55.254825 13372 net.cpp:406] score1_slicer_conv_0_split <- score1
I0725 10:56:55.254832 13372 net.cpp:380] score1_slicer_conv_0_split -> score1_slicer_conv_0_split_0
I0725 10:56:55.254839 13372 net.cpp:380] score1_slicer_conv_0_split -> score1_slicer_conv_0_split_1
I0725 10:56:55.304925 13372 net.cpp:122] Setting up score1_slicer_conv_0_split
I0725 10:56:55.304950 13372 net.cpp:129] Top shape: 1 1 48 64 (3072)
I0725 10:56:55.304955 13372 net.cpp:129] Top shape: 1 1 48 64 (3072)
I0725 10:56:55.304958 13372 net.cpp:137] Memory required for data: 486838272
I0725 10:56:55.304962 13372 layer_factory.hpp:77] Creating layer score2_slicer_conv_1_split
I0725 10:56:55.304970 13372 net.cpp:84] Creating Layer score2_slicer_conv_1_split
I0725 10:56:55.304980 13372 net.cpp:406] score2_slicer_conv_1_split <- score2
I0725 10:56:55.305012 13372 net.cpp:380] score2_slicer_conv_1_split -> score2_slicer_conv_1_split_0
I0725 10:56:55.305025 13372 net.cpp:380] score2_slicer_conv_1_split -> score2_slicer_conv_1_split_1
I0725 10:56:55.305090 13372 net.cpp:122] Setting up score2_slicer_conv_1_split
I0725 10:56:55.305100 13372 net.cpp:129] Top shape: 1 1 48 64 (3072)
I0725 10:56:55.305105 13372 net.cpp:129] Top shape: 1 1 48 64 (3072)
I0725 10:56:55.305109 13372 net.cpp:137] Memory required for data: 486862848
I0725 10:56:55.305114 13372 layer_factory.hpp:77] Creating layer score3_slicer_conv_2_split
I0725 10:56:55.305121 13372 net.cpp:84] Creating Layer score3_slicer_conv_2_split
I0725 10:56:55.305126 13372 net.cpp:406] score3_slicer_conv_2_split <- score3
I0725 10:56:55.305135 13372 net.cpp:380] score3_slicer_conv_2_split -> score3_slicer_conv_2_split_0
I0725 10:56:55.305142 13372 net.cpp:380] score3_slicer_conv_2_split -> score3_slicer_conv_2_split_1
I0725 10:56:55.305197 13372 net.cpp:122] Setting up score3_slicer_conv_2_split
I0725 10:56:55.305205 13372 net.cpp:129] Top shape: 1 1 48 64 (3072)
I0725 10:56:55.305210 13372 net.cpp:129] Top shape: 1 1 48 64 (3072)
I0725 10:56:55.305214 13372 net.cpp:137] Memory required for data: 486887424
I0725 10:56:55.305219 13372 layer_factory.hpp:77] Creating layer score4_slicer_conv_3_split
I0725 10:56:55.305225 13372 net.cpp:84] Creating Layer score4_slicer_conv_3_split
I0725 10:56:55.305230 13372 net.cpp:406] score4_slicer_conv_3_split <- score4
I0725 10:56:55.305238 13372 net.cpp:380] score4_slicer_conv_3_split -> score4_slicer_conv_3_split_0
I0725 10:56:55.305246 13372 net.cpp:380] score4_slicer_conv_3_split -> score4_slicer_conv_3_split_1
I0725 10:56:55.305299 13372 net.cpp:122] Setting up score4_slicer_conv_3_split
I0725 10:56:55.305326 13372 net.cpp:129] Top shape: 1 1 48 64 (3072)
I0725 10:56:55.305331 13372 net.cpp:129] Top shape: 1 1 48 64 (3072)
I0725 10:56:55.305335 13372 net.cpp:137] Memory required for data: 486912000
I0725 10:56:55.305341 13372 layer_factory.hpp:77] Creating layer score5_slicer_conv_4_split
I0725 10:56:55.305351 13372 net.cpp:84] Creating Layer score5_slicer_conv_4_split
I0725 10:56:55.305356 13372 net.cpp:406] score5_slicer_conv_4_split <- score5
I0725 10:56:55.305361 13372 net.cpp:380] score5_slicer_conv_4_split -> score5_slicer_conv_4_split_0
I0725 10:56:55.305367 13372 net.cpp:380] score5_slicer_conv_4_split -> score5_slicer_conv_4_split_1
I0725 10:56:55.305424 13372 net.cpp:122] Setting up score5_slicer_conv_4_split
I0725 10:56:55.305433 13372 net.cpp:129] Top shape: 1 1 48 64 (3072)
I0725 10:56:55.305454 13372 net.cpp:129] Top shape: 1 1 48 64 (3072)
I0725 10:56:55.305461 13372 net.cpp:137] Memory required for data: 486936576
I0725 10:56:55.305469 13372 layer_factory.hpp:77] Creating layer score6_slicer_conv_5_split
I0725 10:56:55.305479 13372 net.cpp:84] Creating Layer score6_slicer_conv_5_split
I0725 10:56:55.305486 13372 net.cpp:406] score6_slicer_conv_5_split <- score6
I0725 10:56:55.305496 13372 net.cpp:380] score6_slicer_conv_5_split -> score6_slicer_conv_5_split_0
I0725 10:56:55.305511 13372 net.cpp:380] score6_slicer_conv_5_split -> score6_slicer_conv_5_split_1
I0725 10:56:55.305595 13372 net.cpp:122] Setting up score6_slicer_conv_5_split
I0725 10:56:55.305608 13372 net.cpp:129] Top shape: 1 1 48 64 (3072)
I0725 10:56:55.305616 13372 net.cpp:129] Top shape: 1 1 48 64 (3072)
I0725 10:56:55.305624 13372 net.cpp:137] Memory required for data: 486961152
I0725 10:56:55.305630 13372 layer_factory.hpp:77] Creating layer score7_slicer_conv_6_split
I0725 10:56:55.305644 13372 net.cpp:84] Creating Layer score7_slicer_conv_6_split
I0725 10:56:55.305651 13372 net.cpp:406] score7_slicer_conv_6_split <- score7
I0725 10:56:55.305662 13372 net.cpp:380] score7_slicer_conv_6_split -> score7_slicer_conv_6_split_0
I0725 10:56:55.305675 13372 net.cpp:380] score7_slicer_conv_6_split -> score7_slicer_conv_6_split_1
I0725 10:56:55.305759 13372 net.cpp:122] Setting up score7_slicer_conv_6_split
I0725 10:56:55.305773 13372 net.cpp:129] Top shape: 1 1 48 64 (3072)
I0725 10:56:55.305780 13372 net.cpp:129] Top shape: 1 1 48 64 (3072)
I0725 10:56:55.305807 13372 net.cpp:137] Memory required for data: 486985728
I0725 10:56:55.305816 13372 layer_factory.hpp:77] Creating layer score8_slicer_conv_7_split
I0725 10:56:55.305826 13372 net.cpp:84] Creating Layer score8_slicer_conv_7_split
I0725 10:56:55.305835 13372 net.cpp:406] score8_slicer_conv_7_split <- score8
I0725 10:56:55.305846 13372 net.cpp:380] score8_slicer_conv_7_split -> score8_slicer_conv_7_split_0
I0725 10:56:55.305858 13372 net.cpp:380] score8_slicer_conv_7_split -> score8_slicer_conv_7_split_1
I0725 10:56:55.305950 13372 net.cpp:122] Setting up score8_slicer_conv_7_split
I0725 10:56:55.305963 13372 net.cpp:129] Top shape: 1 1 48 64 (3072)
I0725 10:56:55.305972 13372 net.cpp:129] Top shape: 1 1 48 64 (3072)
I0725 10:56:55.305979 13372 net.cpp:137] Memory required for data: 487010304
I0725 10:56:55.305985 13372 layer_factory.hpp:77] Creating layer score9_slicer_conv_8_split
I0725 10:56:55.305995 13372 net.cpp:84] Creating Layer score9_slicer_conv_8_split
I0725 10:56:55.306004 13372 net.cpp:406] score9_slicer_conv_8_split <- score9
I0725 10:56:55.306015 13372 net.cpp:380] score9_slicer_conv_8_split -> score9_slicer_conv_8_split_0
I0725 10:56:55.306028 13372 net.cpp:380] score9_slicer_conv_8_split -> score9_slicer_conv_8_split_1
I0725 10:56:55.306113 13372 net.cpp:122] Setting up score9_slicer_conv_8_split
I0725 10:56:55.306125 13372 net.cpp:129] Top shape: 1 1 48 64 (3072)
I0725 10:56:55.306134 13372 net.cpp:129] Top shape: 1 1 48 64 (3072)
I0725 10:56:55.306140 13372 net.cpp:137] Memory required for data: 487034880
I0725 10:56:55.306147 13372 layer_factory.hpp:77] Creating layer score10_slicer_conv_9_split
I0725 10:56:55.306157 13372 net.cpp:84] Creating Layer score10_slicer_conv_9_split
I0725 10:56:55.306166 13372 net.cpp:406] score10_slicer_conv_9_split <- score10
I0725 10:56:55.306177 13372 net.cpp:380] score10_slicer_conv_9_split -> score10_slicer_conv_9_split_0
I0725 10:56:55.306190 13372 net.cpp:380] score10_slicer_conv_9_split -> score10_slicer_conv_9_split_1
I0725 10:56:55.306272 13372 net.cpp:122] Setting up score10_slicer_conv_9_split
I0725 10:56:55.306284 13372 net.cpp:129] Top shape: 1 1 48 64 (3072)
I0725 10:56:55.306293 13372 net.cpp:129] Top shape: 1 1 48 64 (3072)
I0725 10:56:55.306300 13372 net.cpp:137] Memory required for data: 487059456
I0725 10:56:55.306308 13372 layer_factory.hpp:77] Creating layer score11_slicer_conv_10_split
I0725 10:56:55.306318 13372 net.cpp:84] Creating Layer score11_slicer_conv_10_split
I0725 10:56:55.306325 13372 net.cpp:406] score11_slicer_conv_10_split <- score11
I0725 10:56:55.306341 13372 net.cpp:380] score11_slicer_conv_10_split -> score11_slicer_conv_10_split_0
I0725 10:56:55.306354 13372 net.cpp:380] score11_slicer_conv_10_split -> score11_slicer_conv_10_split_1
I0725 10:56:55.306435 13372 net.cpp:122] Setting up score11_slicer_conv_10_split
I0725 10:56:55.306447 13372 net.cpp:129] Top shape: 1 1 48 64 (3072)
I0725 10:56:55.306457 13372 net.cpp:129] Top shape: 1 1 48 64 (3072)
I0725 10:56:55.306463 13372 net.cpp:137] Memory required for data: 487084032
I0725 10:56:55.306469 13372 layer_factory.hpp:77] Creating layer score12_slicer_conv_11_split
I0725 10:56:55.555459 13372 net.cpp:84] Creating Layer score12_slicer_conv_11_split
I0725 10:56:55.555480 13372 net.cpp:406] score12_slicer_conv_11_split <- score12
I0725 10:56:55.555491 13372 net.cpp:380] score12_slicer_conv_11_split -> score12_slicer_conv_11_split_0
I0725 10:56:55.555502 13372 net.cpp:380] score12_slicer_conv_11_split -> score12_slicer_conv_11_split_1
I0725 10:56:55.555642 13372 net.cpp:122] Setting up score12_slicer_conv_11_split
I0725 10:56:55.555652 13372 net.cpp:129] Top shape: 1 1 48 64 (3072)
I0725 10:56:55.555656 13372 net.cpp:129] Top shape: 1 1 48 64 (3072)
I0725 10:56:55.555660 13372 net.cpp:137] Memory required for data: 487108608
I0725 10:56:55.555665 13372 layer_factory.hpp:77] Creating layer score13_slicer_conv_12_split
I0725 10:56:55.555670 13372 net.cpp:84] Creating Layer score13_slicer_conv_12_split
I0725 10:56:55.555675 13372 net.cpp:406] score13_slicer_conv_12_split <- score13
I0725 10:56:55.555724 13372 net.cpp:380] score13_slicer_conv_12_split -> score13_slicer_conv_12_split_0
I0725 10:56:55.555740 13372 net.cpp:380] score13_slicer_conv_12_split -> score13_slicer_conv_12_split_1
I0725 10:56:55.555799 13372 net.cpp:122] Setting up score13_slicer_conv_12_split
I0725 10:56:55.555806 13372 net.cpp:129] Top shape: 1 1 48 64 (3072)
I0725 10:56:55.555810 13372 net.cpp:129] Top shape: 1 1 48 64 (3072)
I0725 10:56:55.555814 13372 net.cpp:137] Memory required for data: 487133184
I0725 10:56:55.555817 13372 layer_factory.hpp:77] Creating layer score14_slicer_conv_13_split
I0725 10:56:55.555826 13372 net.cpp:84] Creating Layer score14_slicer_conv_13_split
I0725 10:56:55.555832 13372 net.cpp:406] score14_slicer_conv_13_split <- score14
I0725 10:56:55.555838 13372 net.cpp:380] score14_slicer_conv_13_split -> score14_slicer_conv_13_split_0
I0725 10:56:55.555845 13372 net.cpp:380] score14_slicer_conv_13_split -> score14_slicer_conv_13_split_1
I0725 10:56:55.555888 13372 net.cpp:122] Setting up score14_slicer_conv_13_split
I0725 10:56:55.555896 13372 net.cpp:129] Top shape: 1 1 48 64 (3072)
I0725 10:56:55.555899 13372 net.cpp:129] Top shape: 1 1 48 64 (3072)
I0725 10:56:55.555902 13372 net.cpp:137] Memory required for data: 487157760
I0725 10:56:55.555907 13372 layer_factory.hpp:77] Creating layer score15_slicer_conv_14_split
I0725 10:56:55.555912 13372 net.cpp:84] Creating Layer score15_slicer_conv_14_split
I0725 10:56:55.555917 13372 net.cpp:406] score15_slicer_conv_14_split <- score15
I0725 10:56:55.555922 13372 net.cpp:380] score15_slicer_conv_14_split -> score15_slicer_conv_14_split_0
I0725 10:56:55.555928 13372 net.cpp:380] score15_slicer_conv_14_split -> score15_slicer_conv_14_split_1
I0725 10:56:55.555971 13372 net.cpp:122] Setting up score15_slicer_conv_14_split
I0725 10:56:55.555979 13372 net.cpp:129] Top shape: 1 1 48 64 (3072)
I0725 10:56:55.555982 13372 net.cpp:129] Top shape: 1 1 48 64 (3072)
I0725 10:56:55.555985 13372 net.cpp:137] Memory required for data: 487182336
I0725 10:56:55.555989 13372 layer_factory.hpp:77] Creating layer score16_slicer_conv_15_split
I0725 10:56:55.555995 13372 net.cpp:84] Creating Layer score16_slicer_conv_15_split
I0725 10:56:55.555999 13372 net.cpp:406] score16_slicer_conv_15_split <- score16
I0725 10:56:55.556006 13372 net.cpp:380] score16_slicer_conv_15_split -> score16_slicer_conv_15_split_0
I0725 10:56:55.556012 13372 net.cpp:380] score16_slicer_conv_15_split -> score16_slicer_conv_15_split_1
I0725 10:56:55.556056 13372 net.cpp:122] Setting up score16_slicer_conv_15_split
I0725 10:56:55.556062 13372 net.cpp:129] Top shape: 1 1 48 64 (3072)
I0725 10:56:55.556066 13372 net.cpp:129] Top shape: 1 1 48 64 (3072)
I0725 10:56:55.556071 13372 net.cpp:137] Memory required for data: 487206912
I0725 10:56:55.556074 13372 layer_factory.hpp:77] Creating layer score17_slicer_conv_16_split
I0725 10:56:55.556080 13372 net.cpp:84] Creating Layer score17_slicer_conv_16_split
I0725 10:56:55.556084 13372 net.cpp:406] score17_slicer_conv_16_split <- score17
I0725 10:56:55.556089 13372 net.cpp:380] score17_slicer_conv_16_split -> score17_slicer_conv_16_split_0
I0725 10:56:55.556097 13372 net.cpp:380] score17_slicer_conv_16_split -> score17_slicer_conv_16_split_1
I0725 10:56:55.556140 13372 net.cpp:122] Setting up score17_slicer_conv_16_split
I0725 10:56:55.556146 13372 net.cpp:129] Top shape: 1 1 48 64 (3072)
I0725 10:56:55.556151 13372 net.cpp:129] Top shape: 1 1 48 64 (3072)
I0725 10:56:55.556154 13372 net.cpp:137] Memory required for data: 487231488
I0725 10:56:55.556159 13372 layer_factory.hpp:77] Creating layer score18_slicer_conv_17_split
I0725 10:56:55.556164 13372 net.cpp:84] Creating Layer score18_slicer_conv_17_split
I0725 10:56:55.556167 13372 net.cpp:406] score18_slicer_conv_17_split <- score18
I0725 10:56:55.556174 13372 net.cpp:380] score18_slicer_conv_17_split -> score18_slicer_conv_17_split_0
I0725 10:56:55.556181 13372 net.cpp:380] score18_slicer_conv_17_split -> score18_slicer_conv_17_split_1
I0725 10:56:55.556249 13372 net.cpp:122] Setting up score18_slicer_conv_17_split
I0725 10:56:55.556257 13372 net.cpp:129] Top shape: 1 1 48 64 (3072)
I0725 10:56:55.556262 13372 net.cpp:129] Top shape: 1 1 48 64 (3072)
I0725 10:56:55.556265 13372 net.cpp:137] Memory required for data: 487256064
I0725 10:56:55.556269 13372 layer_factory.hpp:77] Creating layer score19_slicer_conv_18_split
I0725 10:56:55.556275 13372 net.cpp:84] Creating Layer score19_slicer_conv_18_split
I0725 10:56:55.556279 13372 net.cpp:406] score19_slicer_conv_18_split <- score19
I0725 10:56:55.556284 13372 net.cpp:380] score19_slicer_conv_18_split -> score19_slicer_conv_18_split_0
I0725 10:56:55.556291 13372 net.cpp:380] score19_slicer_conv_18_split -> score19_slicer_conv_18_split_1
I0725 10:56:55.556339 13372 net.cpp:122] Setting up score19_slicer_conv_18_split
I0725 10:56:55.556345 13372 net.cpp:129] Top shape: 1 1 48 64 (3072)
I0725 10:56:55.556349 13372 net.cpp:129] Top shape: 1 1 48 64 (3072)
I0725 10:56:55.556352 13372 net.cpp:137] Memory required for data: 487280640
I0725 10:56:55.556357 13372 layer_factory.hpp:77] Creating layer score20_slicer_conv_19_split
I0725 10:56:55.556362 13372 net.cpp:84] Creating Layer score20_slicer_conv_19_split
I0725 10:56:55.556366 13372 net.cpp:406] score20_slicer_conv_19_split <- score20
I0725 10:56:55.556372 13372 net.cpp:380] score20_slicer_conv_19_split -> score20_slicer_conv_19_split_0
I0725 10:56:55.556380 13372 net.cpp:380] score20_slicer_conv_19_split -> score20_slicer_conv_19_split_1
I0725 10:56:55.556419 13372 net.cpp:122] Setting up score20_slicer_conv_19_split
I0725 10:56:55.556426 13372 net.cpp:129] Top shape: 1 1 48 64 (3072)
I0725 10:56:55.556430 13372 net.cpp:129] Top shape: 1 1 48 64 (3072)
I0725 10:56:55.556433 13372 net.cpp:137] Memory required for data: 487305216
I0725 10:56:55.556437 13372 layer_factory.hpp:77] Creating layer score21_slicer_conv_20_split
I0725 10:56:55.556443 13372 net.cpp:84] Creating Layer score21_slicer_conv_20_split
I0725 10:56:55.556448 13372 net.cpp:406] score21_slicer_conv_20_split <- score21
I0725 10:56:55.556453 13372 net.cpp:380] score21_slicer_conv_20_split -> score21_slicer_conv_20_split_0
I0725 10:56:55.556459 13372 net.cpp:380] score21_slicer_conv_20_split -> score21_slicer_conv_20_split_1
I0725 10:56:55.556500 13372 net.cpp:122] Setting up score21_slicer_conv_20_split
I0725 10:56:55.556507 13372 net.cpp:129] Top shape: 1 1 48 64 (3072)
I0725 10:56:55.556511 13372 net.cpp:129] Top shape: 1 1 48 64 (3072)
I0725 10:56:55.556514 13372 net.cpp:137] Memory required for data: 487329792
I0725 10:56:55.556519 13372 layer_factory.hpp:77] Creating layer score22_slicer_conv_21_split
I0725 10:56:55.556524 13372 net.cpp:84] Creating Layer score22_slicer_conv_21_split
I0725 10:56:55.556527 13372 net.cpp:406] score22_slicer_conv_21_split <- score22
I0725 10:56:55.556533 13372 net.cpp:380] score22_slicer_conv_21_split -> score22_slicer_conv_21_split_0
I0725 10:56:55.556541 13372 net.cpp:380] score22_slicer_conv_21_split -> score22_slicer_conv_21_split_1
I0725 10:56:55.556581 13372 net.cpp:122] Setting up score22_slicer_conv_21_split
I0725 10:56:55.556587 13372 net.cpp:129] Top shape: 1 1 48 64 (3072)
I0725 10:56:55.556591 13372 net.cpp:129] Top shape: 1 1 48 64 (3072)
I0725 10:56:55.556594 13372 net.cpp:137] Memory required for data: 487354368
I0725 10:56:55.556598 13372 layer_factory.hpp:77] Creating layer score23_slicer_conv_22_split
I0725 10:56:55.556605 13372 net.cpp:84] Creating Layer score23_slicer_conv_22_split
I0725 10:56:55.556609 13372 net.cpp:406] score23_slicer_conv_22_split <- score23
I0725 10:56:55.556614 13372 net.cpp:380] score23_slicer_conv_22_split -> score23_slicer_conv_22_split_0
I0725 10:56:55.556620 13372 net.cpp:380] score23_slicer_conv_22_split -> score23_slicer_conv_22_split_1
I0725 10:56:55.556673 13372 net.cpp:122] Setting up score23_slicer_conv_22_split
I0725 10:56:55.556680 13372 net.cpp:129] Top shape: 1 1 48 64 (3072)
I0725 10:56:55.556684 13372 net.cpp:129] Top shape: 1 1 48 64 (3072)
I0725 10:56:55.556689 13372 net.cpp:137] Memory required for data: 487378944
I0725 10:56:55.556701 13372 layer_factory.hpp:77] Creating layer score24_slicer_conv_23_split
I0725 10:56:55.556707 13372 net.cpp:84] Creating Layer score24_slicer_conv_23_split
I0725 10:56:55.556711 13372 net.cpp:406] score24_slicer_conv_23_split <- score24
I0725 10:56:55.556717 13372 net.cpp:380] score24_slicer_conv_23_split -> score24_slicer_conv_23_split_0
I0725 10:56:55.556723 13372 net.cpp:380] score24_slicer_conv_23_split -> score24_slicer_conv_23_split_1
I0725 10:56:55.556771 13372 net.cpp:122] Setting up score24_slicer_conv_23_split
I0725 10:56:55.556777 13372 net.cpp:129] Top shape: 1 1 48 64 (3072)
I0725 10:56:55.556782 13372 net.cpp:129] Top shape: 1 1 48 64 (3072)
I0725 10:56:55.556785 13372 net.cpp:137] Memory required for data: 487403520
I0725 10:56:55.556789 13372 layer_factory.hpp:77] Creating layer score25_slicer_conv_24_split
I0725 10:56:55.556794 13372 net.cpp:84] Creating Layer score25_slicer_conv_24_split
I0725 10:56:55.556798 13372 net.cpp:406] score25_slicer_conv_24_split <- score25
I0725 10:56:55.556804 13372 net.cpp:380] score25_slicer_conv_24_split -> score25_slicer_conv_24_split_0
I0725 10:56:55.556812 13372 net.cpp:380] score25_slicer_conv_24_split -> score25_slicer_conv_24_split_1
I0725 10:56:55.556854 13372 net.cpp:122] Setting up score25_slicer_conv_24_split
I0725 10:56:55.556859 13372 net.cpp:129] Top shape: 1 1 48 64 (3072)
I0725 10:56:55.556864 13372 net.cpp:129] Top shape: 1 1 48 64 (3072)
I0725 10:56:55.556867 13372 net.cpp:137] Memory required for data: 487428096
I0725 10:56:55.556871 13372 layer_factory.hpp:77] Creating layer score26_slicer_conv_25_split
I0725 10:56:55.556876 13372 net.cpp:84] Creating Layer score26_slicer_conv_25_split
I0725 10:56:55.556880 13372 net.cpp:406] score26_slicer_conv_25_split <- score26
I0725 10:56:55.556885 13372 net.cpp:380] score26_slicer_conv_25_split -> score26_slicer_conv_25_split_0
I0725 10:56:55.556891 13372 net.cpp:380] score26_slicer_conv_25_split -> score26_slicer_conv_25_split_1
I0725 10:56:55.556933 13372 net.cpp:122] Setting up score26_slicer_conv_25_split
I0725 10:56:55.556939 13372 net.cpp:129] Top shape: 1 1 48 64 (3072)
I0725 10:56:55.556943 13372 net.cpp:129] Top shape: 1 1 48 64 (3072)
I0725 10:56:55.556947 13372 net.cpp:137] Memory required for data: 487452672
I0725 10:56:55.556951 13372 layer_factory.hpp:77] Creating layer score27_slicer_conv_26_split
I0725 10:56:55.556957 13372 net.cpp:84] Creating Layer score27_slicer_conv_26_split
I0725 10:56:55.556960 13372 net.cpp:406] score27_slicer_conv_26_split <- score27
I0725 10:56:55.556967 13372 net.cpp:380] score27_slicer_conv_26_split -> score27_slicer_conv_26_split_0
I0725 10:56:55.556972 13372 net.cpp:380] score27_slicer_conv_26_split -> score27_slicer_conv_26_split_1
I0725 10:56:55.557011 13372 net.cpp:122] Setting up score27_slicer_conv_26_split
I0725 10:56:55.557018 13372 net.cpp:129] Top shape: 1 1 48 64 (3072)
I0725 10:56:55.557021 13372 net.cpp:129] Top shape: 1 1 48 64 (3072)
I0725 10:56:55.557025 13372 net.cpp:137] Memory required for data: 487477248
I0725 10:56:55.557029 13372 layer_factory.hpp:77] Creating layer score28_slicer_conv_27_split
I0725 10:56:55.557036 13372 net.cpp:84] Creating Layer score28_slicer_conv_27_split
I0725 10:56:55.557040 13372 net.cpp:406] score28_slicer_conv_27_split <- score28
I0725 10:56:55.557045 13372 net.cpp:380] score28_slicer_conv_27_split -> score28_slicer_conv_27_split_0
I0725 10:56:55.557051 13372 net.cpp:380] score28_slicer_conv_27_split -> score28_slicer_conv_27_split_1
I0725 10:56:55.557092 13372 net.cpp:122] Setting up score28_slicer_conv_27_split
I0725 10:56:55.557099 13372 net.cpp:129] Top shape: 1 1 48 64 (3072)
I0725 10:56:55.557102 13372 net.cpp:129] Top shape: 1 1 48 64 (3072)
I0725 10:56:55.557106 13372 net.cpp:137] Memory required for data: 487501824
I0725 10:56:55.557111 13372 layer_factory.hpp:77] Creating layer score29_slicer_conv_28_split
I0725 10:56:55.557124 13372 net.cpp:84] Creating Layer score29_slicer_conv_28_split
I0725 10:56:55.557129 13372 net.cpp:406] score29_slicer_conv_28_split <- score29
I0725 10:56:55.557135 13372 net.cpp:380] score29_slicer_conv_28_split -> score29_slicer_conv_28_split_0
I0725 10:56:55.557150 13372 net.cpp:380] score29_slicer_conv_28_split -> score29_slicer_conv_28_split_1
I0725 10:56:55.557198 13372 net.cpp:122] Setting up score29_slicer_conv_28_split
I0725 10:56:55.557204 13372 net.cpp:129] Top shape: 1 1 48 64 (3072)
I0725 10:56:55.557209 13372 net.cpp:129] Top shape: 1 1 48 64 (3072)
I0725 10:56:55.557211 13372 net.cpp:137] Memory required for data: 487526400
I0725 10:56:55.557216 13372 layer_factory.hpp:77] Creating layer score30_slicer_conv_29_split
I0725 10:56:55.557221 13372 net.cpp:84] Creating Layer score30_slicer_conv_29_split
I0725 10:56:55.557226 13372 net.cpp:406] score30_slicer_conv_29_split <- score30
I0725 10:56:55.557234 13372 net.cpp:380] score30_slicer_conv_29_split -> score30_slicer_conv_29_split_0
I0725 10:56:55.557240 13372 net.cpp:380] score30_slicer_conv_29_split -> score30_slicer_conv_29_split_1
I0725 10:56:55.557281 13372 net.cpp:122] Setting up score30_slicer_conv_29_split
I0725 10:56:55.557287 13372 net.cpp:129] Top shape: 1 1 48 64 (3072)
I0725 10:56:55.557292 13372 net.cpp:129] Top shape: 1 1 48 64 (3072)
I0725 10:56:55.557296 13372 net.cpp:137] Memory required for data: 487550976
I0725 10:56:55.557299 13372 layer_factory.hpp:77] Creating layer score31_slicer_conv_30_split
I0725 10:56:55.557317 13372 net.cpp:84] Creating Layer score31_slicer_conv_30_split
I0725 10:56:55.557320 13372 net.cpp:406] score31_slicer_conv_30_split <- score31
I0725 10:56:55.557325 13372 net.cpp:380] score31_slicer_conv_30_split -> score31_slicer_conv_30_split_0
I0725 10:56:55.557332 13372 net.cpp:380] score31_slicer_conv_30_split -> score31_slicer_conv_30_split_1
I0725 10:56:55.557376 13372 net.cpp:122] Setting up score31_slicer_conv_30_split
I0725 10:56:55.557384 13372 net.cpp:129] Top shape: 1 1 48 64 (3072)
I0725 10:56:55.557387 13372 net.cpp:129] Top shape: 1 1 48 64 (3072)
I0725 10:56:55.557391 13372 net.cpp:137] Memory required for data: 487575552
I0725 10:56:55.557395 13372 layer_factory.hpp:77] Creating layer score32_slicer_conv_31_split
I0725 10:56:55.557400 13372 net.cpp:84] Creating Layer score32_slicer_conv_31_split
I0725 10:56:55.557404 13372 net.cpp:406] score32_slicer_conv_31_split <- score32
I0725 10:56:55.557411 13372 net.cpp:380] score32_slicer_conv_31_split -> score32_slicer_conv_31_split_0
I0725 10:56:55.557416 13372 net.cpp:380] score32_slicer_conv_31_split -> score32_slicer_conv_31_split_1
I0725 10:56:55.557456 13372 net.cpp:122] Setting up score32_slicer_conv_31_split
I0725 10:56:55.557463 13372 net.cpp:129] Top shape: 1 1 48 64 (3072)
I0725 10:56:55.557467 13372 net.cpp:129] Top shape: 1 1 48 64 (3072)
I0725 10:56:55.557471 13372 net.cpp:137] Memory required for data: 487600128
I0725 10:56:55.557474 13372 layer_factory.hpp:77] Creating layer score33_slicer_conv_32_split
I0725 10:56:55.557482 13372 net.cpp:84] Creating Layer score33_slicer_conv_32_split
I0725 10:56:55.557487 13372 net.cpp:406] score33_slicer_conv_32_split <- score33
I0725 10:56:55.557492 13372 net.cpp:380] score33_slicer_conv_32_split -> score33_slicer_conv_32_split_0
I0725 10:56:55.557497 13372 net.cpp:380] score33_slicer_conv_32_split -> score33_slicer_conv_32_split_1
I0725 10:56:55.557538 13372 net.cpp:122] Setting up score33_slicer_conv_32_split
I0725 10:56:55.557545 13372 net.cpp:129] Top shape: 1 1 48 64 (3072)
I0725 10:56:55.557550 13372 net.cpp:129] Top shape: 1 1 48 64 (3072)
I0725 10:56:55.557554 13372 net.cpp:137] Memory required for data: 487624704
I0725 10:56:55.557557 13372 layer_factory.hpp:77] Creating layer score34_slicer_conv_33_split
I0725 10:56:55.557562 13372 net.cpp:84] Creating Layer score34_slicer_conv_33_split
I0725 10:56:55.557566 13372 net.cpp:406] score34_slicer_conv_33_split <- score34
I0725 10:56:55.557571 13372 net.cpp:380] score34_slicer_conv_33_split -> score34_slicer_conv_33_split_0
I0725 10:56:55.557579 13372 net.cpp:380] score34_slicer_conv_33_split -> score34_slicer_conv_33_split_1
I0725 10:56:55.557621 13372 net.cpp:122] Setting up score34_slicer_conv_33_split
I0725 10:56:55.557636 13372 net.cpp:129] Top shape: 1 1 48 64 (3072)
I0725 10:56:55.557641 13372 net.cpp:129] Top shape: 1 1 48 64 (3072)
I0725 10:56:55.557646 13372 net.cpp:137] Memory required for data: 487649280
I0725 10:56:55.557648 13372 layer_factory.hpp:77] Creating layer score35_slicer_conv_34_split
I0725 10:56:55.557656 13372 net.cpp:84] Creating Layer score35_slicer_conv_34_split
I0725 10:56:55.557660 13372 net.cpp:406] score35_slicer_conv_34_split <- score35
I0725 10:56:55.557665 13372 net.cpp:380] score35_slicer_conv_34_split -> score35_slicer_conv_34_split_0
I0725 10:56:55.557672 13372 net.cpp:380] score35_slicer_conv_34_split -> score35_slicer_conv_34_split_1
I0725 10:56:55.557718 13372 net.cpp:122] Setting up score35_slicer_conv_34_split
I0725 10:56:55.557724 13372 net.cpp:129] Top shape: 1 1 48 64 (3072)
I0725 10:56:55.557729 13372 net.cpp:129] Top shape: 1 1 48 64 (3072)
I0725 10:56:55.557731 13372 net.cpp:137] Memory required for data: 487673856
I0725 10:56:55.557735 13372 layer_factory.hpp:77] Creating layer score36_slicer_conv_35_split
I0725 10:56:55.557740 13372 net.cpp:84] Creating Layer score36_slicer_conv_35_split
I0725 10:56:55.557744 13372 net.cpp:406] score36_slicer_conv_35_split <- score36
I0725 10:56:55.557750 13372 net.cpp:380] score36_slicer_conv_35_split -> score36_slicer_conv_35_split_0
I0725 10:56:55.557755 13372 net.cpp:380] score36_slicer_conv_35_split -> score36_slicer_conv_35_split_1
I0725 10:56:55.557796 13372 net.cpp:122] Setting up score36_slicer_conv_35_split
I0725 10:56:55.557803 13372 net.cpp:129] Top shape: 1 1 48 64 (3072)
I0725 10:56:55.557807 13372 net.cpp:129] Top shape: 1 1 48 64 (3072)
I0725 10:56:55.557811 13372 net.cpp:137] Memory required for data: 487698432
I0725 10:56:55.557814 13372 layer_factory.hpp:77] Creating layer score37_slicer_conv_36_split
I0725 10:56:55.557819 13372 net.cpp:84] Creating Layer score37_slicer_conv_36_split
I0725 10:56:55.557823 13372 net.cpp:406] score37_slicer_conv_36_split <- score37
I0725 10:56:55.557829 13372 net.cpp:380] score37_slicer_conv_36_split -> score37_slicer_conv_36_split_0
I0725 10:56:55.557835 13372 net.cpp:380] score37_slicer_conv_36_split -> score37_slicer_conv_36_split_1
I0725 10:56:55.557876 13372 net.cpp:122] Setting up score37_slicer_conv_36_split
I0725 10:56:55.557883 13372 net.cpp:129] Top shape: 1 1 48 64 (3072)
I0725 10:56:55.557886 13372 net.cpp:129] Top shape: 1 1 48 64 (3072)
I0725 10:56:55.557890 13372 net.cpp:137] Memory required for data: 487723008
I0725 10:56:55.557894 13372 layer_factory.hpp:77] Creating layer score38_slicer_conv_37_split
I0725 10:56:55.557899 13372 net.cpp:84] Creating Layer score38_slicer_conv_37_split
I0725 10:56:55.557902 13372 net.cpp:406] score38_slicer_conv_37_split <- score38
I0725 10:56:55.557909 13372 net.cpp:380] score38_slicer_conv_37_split -> score38_slicer_conv_37_split_0
I0725 10:56:55.557914 13372 net.cpp:380] score38_slicer_conv_37_split -> score38_slicer_conv_37_split_1
I0725 10:56:55.557955 13372 net.cpp:122] Setting up score38_slicer_conv_37_split
I0725 10:56:55.557961 13372 net.cpp:129] Top shape: 1 1 48 64 (3072)
I0725 10:56:55.557965 13372 net.cpp:129] Top shape: 1 1 48 64 (3072)
I0725 10:56:55.557970 13372 net.cpp:137] Memory required for data: 487747584
I0725 10:56:55.557973 13372 layer_factory.hpp:77] Creating layer score39_slicer_conv_38_split
I0725 10:56:55.557978 13372 net.cpp:84] Creating Layer score39_slicer_conv_38_split
I0725 10:56:55.557982 13372 net.cpp:406] score39_slicer_conv_38_split <- score39
I0725 10:56:55.557988 13372 net.cpp:380] score39_slicer_conv_38_split -> score39_slicer_conv_38_split_0
I0725 10:56:55.557994 13372 net.cpp:380] score39_slicer_conv_38_split -> score39_slicer_conv_38_split_1
I0725 10:56:55.558037 13372 net.cpp:122] Setting up score39_slicer_conv_38_split
I0725 10:56:55.558043 13372 net.cpp:129] Top shape: 1 1 48 64 (3072)
I0725 10:56:55.558048 13372 net.cpp:129] Top shape: 1 1 48 64 (3072)
I0725 10:56:55.558050 13372 net.cpp:137] Memory required for data: 487772160
I0725 10:56:55.558054 13372 layer_factory.hpp:77] Creating layer score40_slicer_conv_39_split
I0725 10:56:55.558068 13372 net.cpp:84] Creating Layer score40_slicer_conv_39_split
I0725 10:56:55.558073 13372 net.cpp:406] score40_slicer_conv_39_split <- score40
I0725 10:56:55.558079 13372 net.cpp:380] score40_slicer_conv_39_split -> score40_slicer_conv_39_split_0
I0725 10:56:55.558085 13372 net.cpp:380] score40_slicer_conv_39_split -> score40_slicer_conv_39_split_1
I0725 10:56:55.558131 13372 net.cpp:122] Setting up score40_slicer_conv_39_split
I0725 10:56:55.558138 13372 net.cpp:129] Top shape: 1 1 48 64 (3072)
I0725 10:56:55.558142 13372 net.cpp:129] Top shape: 1 1 48 64 (3072)
I0725 10:56:55.558146 13372 net.cpp:137] Memory required for data: 487796736
I0725 10:56:55.558151 13372 layer_factory.hpp:77] Creating layer score41_slicer_conv_40_split
I0725 10:56:55.558156 13372 net.cpp:84] Creating Layer score41_slicer_conv_40_split
I0725 10:56:55.558159 13372 net.cpp:406] score41_slicer_conv_40_split <- score41
I0725 10:56:55.558166 13372 net.cpp:380] score41_slicer_conv_40_split -> score41_slicer_conv_40_split_0
I0725 10:56:55.558171 13372 net.cpp:380] score41_slicer_conv_40_split -> score41_slicer_conv_40_split_1
I0725 10:56:55.558212 13372 net.cpp:122] Setting up score41_slicer_conv_40_split
I0725 10:56:55.558218 13372 net.cpp:129] Top shape: 1 1 48 64 (3072)
I0725 10:56:55.558223 13372 net.cpp:129] Top shape: 1 1 48 64 (3072)
I0725 10:56:55.558225 13372 net.cpp:137] Memory required for data: 487821312
I0725 10:56:55.558229 13372 layer_factory.hpp:77] Creating layer score42_slicer_conv_41_split
I0725 10:56:55.558240 13372 net.cpp:84] Creating Layer score42_slicer_conv_41_split
I0725 10:56:55.558244 13372 net.cpp:406] score42_slicer_conv_41_split <- score42
I0725 10:56:55.558249 13372 net.cpp:380] score42_slicer_conv_41_split -> score42_slicer_conv_41_split_0
I0725 10:56:55.558255 13372 net.cpp:380] score42_slicer_conv_41_split -> score42_slicer_conv_41_split_1
I0725 10:56:55.558298 13372 net.cpp:122] Setting up score42_slicer_conv_41_split
I0725 10:56:55.558305 13372 net.cpp:129] Top shape: 1 1 48 64 (3072)
I0725 10:56:55.558310 13372 net.cpp:129] Top shape: 1 1 48 64 (3072)
I0725 10:56:55.558312 13372 net.cpp:137] Memory required for data: 487845888
I0725 10:56:55.558316 13372 layer_factory.hpp:77] Creating layer score43_slicer_conv_42_split
I0725 10:56:55.558322 13372 net.cpp:84] Creating Layer score43_slicer_conv_42_split
I0725 10:56:55.558326 13372 net.cpp:406] score43_slicer_conv_42_split <- score43
I0725 10:56:55.558331 13372 net.cpp:380] score43_slicer_conv_42_split -> score43_slicer_conv_42_split_0
I0725 10:56:55.558338 13372 net.cpp:380] score43_slicer_conv_42_split -> score43_slicer_conv_42_split_1
I0725 10:56:55.558378 13372 net.cpp:122] Setting up score43_slicer_conv_42_split
I0725 10:56:55.558384 13372 net.cpp:129] Top shape: 1 1 48 64 (3072)
I0725 10:56:55.558389 13372 net.cpp:129] Top shape: 1 1 48 64 (3072)
I0725 10:56:55.558393 13372 net.cpp:137] Memory required for data: 487870464
I0725 10:56:55.558396 13372 layer_factory.hpp:77] Creating layer score44_slicer_conv_43_split
I0725 10:56:55.558403 13372 net.cpp:84] Creating Layer score44_slicer_conv_43_split
I0725 10:56:55.558408 13372 net.cpp:406] score44_slicer_conv_43_split <- score44
I0725 10:56:55.558413 13372 net.cpp:380] score44_slicer_conv_43_split -> score44_slicer_conv_43_split_0
I0725 10:56:55.558418 13372 net.cpp:380] score44_slicer_conv_43_split -> score44_slicer_conv_43_split_1
I0725 10:56:55.558460 13372 net.cpp:122] Setting up score44_slicer_conv_43_split
I0725 10:56:55.558466 13372 net.cpp:129] Top shape: 1 1 48 64 (3072)
I0725 10:56:55.558470 13372 net.cpp:129] Top shape: 1 1 48 64 (3072)
I0725 10:56:55.558475 13372 net.cpp:137] Memory required for data: 487895040
I0725 10:56:55.558478 13372 layer_factory.hpp:77] Creating layer score45_slicer_conv_44_split
I0725 10:56:55.558483 13372 net.cpp:84] Creating Layer score45_slicer_conv_44_split
I0725 10:56:55.558487 13372 net.cpp:406] score45_slicer_conv_44_split <- score45
I0725 10:56:55.558492 13372 net.cpp:380] score45_slicer_conv_44_split -> score45_slicer_conv_44_split_0
I0725 10:56:55.558507 13372 net.cpp:380] score45_slicer_conv_44_split -> score45_slicer_conv_44_split_1
I0725 10:56:55.558554 13372 net.cpp:122] Setting up score45_slicer_conv_44_split
I0725 10:56:55.558560 13372 net.cpp:129] Top shape: 1 1 48 64 (3072)
I0725 10:56:55.558565 13372 net.cpp:129] Top shape: 1 1 48 64 (3072)
I0725 10:56:55.558568 13372 net.cpp:137] Memory required for data: 487919616
I0725 10:56:55.558573 13372 layer_factory.hpp:77] Creating layer score46_slicer_conv_45_split
I0725 10:56:55.558578 13372 net.cpp:84] Creating Layer score46_slicer_conv_45_split
I0725 10:56:55.558581 13372 net.cpp:406] score46_slicer_conv_45_split <- score46
I0725 10:56:55.558589 13372 net.cpp:380] score46_slicer_conv_45_split -> score46_slicer_conv_45_split_0
I0725 10:56:55.558596 13372 net.cpp:380] score46_slicer_conv_45_split -> score46_slicer_conv_45_split_1
I0725 10:56:55.558640 13372 net.cpp:122] Setting up score46_slicer_conv_45_split
I0725 10:56:55.558646 13372 net.cpp:129] Top shape: 1 1 48 64 (3072)
I0725 10:56:55.558650 13372 net.cpp:129] Top shape: 1 1 48 64 (3072)
I0725 10:56:55.558653 13372 net.cpp:137] Memory required for data: 487944192
I0725 10:56:55.558657 13372 layer_factory.hpp:77] Creating layer score47_slicer_conv_46_split
I0725 10:56:55.558663 13372 net.cpp:84] Creating Layer score47_slicer_conv_46_split
I0725 10:56:55.558666 13372 net.cpp:406] score47_slicer_conv_46_split <- score47
I0725 10:56:55.558671 13372 net.cpp:380] score47_slicer_conv_46_split -> score47_slicer_conv_46_split_0
I0725 10:56:55.558677 13372 net.cpp:380] score47_slicer_conv_46_split -> score47_slicer_conv_46_split_1
I0725 10:56:55.558718 13372 net.cpp:122] Setting up score47_slicer_conv_46_split
I0725 10:56:55.558725 13372 net.cpp:129] Top shape: 1 1 48 64 (3072)
I0725 10:56:55.558729 13372 net.cpp:129] Top shape: 1 1 48 64 (3072)
I0725 10:56:55.558732 13372 net.cpp:137] Memory required for data: 487968768
I0725 10:56:55.558737 13372 layer_factory.hpp:77] Creating layer score48_slicer_conv_47_split
I0725 10:56:55.558743 13372 net.cpp:84] Creating Layer score48_slicer_conv_47_split
I0725 10:56:55.558745 13372 net.cpp:406] score48_slicer_conv_47_split <- score48
I0725 10:56:55.558751 13372 net.cpp:380] score48_slicer_conv_47_split -> score48_slicer_conv_47_split_0
I0725 10:56:55.558758 13372 net.cpp:380] score48_slicer_conv_47_split -> score48_slicer_conv_47_split_1
I0725 10:56:55.558799 13372 net.cpp:122] Setting up score48_slicer_conv_47_split
I0725 10:56:55.558805 13372 net.cpp:129] Top shape: 1 1 48 64 (3072)
I0725 10:56:55.558809 13372 net.cpp:129] Top shape: 1 1 48 64 (3072)
I0725 10:56:55.558812 13372 net.cpp:137] Memory required for data: 487993344
I0725 10:56:55.558816 13372 layer_factory.hpp:77] Creating layer score49_slicer_conv_48_split
I0725 10:56:55.558823 13372 net.cpp:84] Creating Layer score49_slicer_conv_48_split
I0725 10:56:55.558827 13372 net.cpp:406] score49_slicer_conv_48_split <- score49
I0725 10:56:55.558832 13372 net.cpp:380] score49_slicer_conv_48_split -> score49_slicer_conv_48_split_0
I0725 10:56:55.558838 13372 net.cpp:380] score49_slicer_conv_48_split -> score49_slicer_conv_48_split_1
I0725 10:56:55.558881 13372 net.cpp:122] Setting up score49_slicer_conv_48_split
I0725 10:56:55.558887 13372 net.cpp:129] Top shape: 1 1 48 64 (3072)
I0725 10:56:55.558892 13372 net.cpp:129] Top shape: 1 1 48 64 (3072)
I0725 10:56:55.558894 13372 net.cpp:137] Memory required for data: 488017920
I0725 10:56:55.558898 13372 layer_factory.hpp:77] Creating layer score50_slicer_conv_49_split
I0725 10:56:55.558904 13372 net.cpp:84] Creating Layer score50_slicer_conv_49_split
I0725 10:56:55.558908 13372 net.cpp:406] score50_slicer_conv_49_split <- score50
I0725 10:56:55.558913 13372 net.cpp:380] score50_slicer_conv_49_split -> score50_slicer_conv_49_split_0
I0725 10:56:55.558920 13372 net.cpp:380] score50_slicer_conv_49_split -> score50_slicer_conv_49_split_1
I0725 10:56:55.558960 13372 net.cpp:122] Setting up score50_slicer_conv_49_split
I0725 10:56:55.558966 13372 net.cpp:129] Top shape: 1 1 48 64 (3072)
I0725 10:56:55.558971 13372 net.cpp:129] Top shape: 1 1 48 64 (3072)
I0725 10:56:55.558984 13372 net.cpp:137] Memory required for data: 488042496
I0725 10:56:55.558987 13372 layer_factory.hpp:77] Creating layer score51_slicer_conv_50_split
I0725 10:56:55.558995 13372 net.cpp:84] Creating Layer score51_slicer_conv_50_split
I0725 10:56:55.559000 13372 net.cpp:406] score51_slicer_conv_50_split <- score51
I0725 10:56:55.559005 13372 net.cpp:380] score51_slicer_conv_50_split -> score51_slicer_conv_50_split_0
I0725 10:56:55.559011 13372 net.cpp:380] score51_slicer_conv_50_split -> score51_slicer_conv_50_split_1
I0725 10:56:55.559056 13372 net.cpp:122] Setting up score51_slicer_conv_50_split
I0725 10:56:55.559063 13372 net.cpp:129] Top shape: 1 1 48 64 (3072)
I0725 10:56:55.559067 13372 net.cpp:129] Top shape: 1 1 48 64 (3072)
I0725 10:56:55.559070 13372 net.cpp:137] Memory required for data: 488067072
I0725 10:56:55.559074 13372 layer_factory.hpp:77] Creating layer score52_slicer_conv_51_split
I0725 10:56:55.559080 13372 net.cpp:84] Creating Layer score52_slicer_conv_51_split
I0725 10:56:55.559084 13372 net.cpp:406] score52_slicer_conv_51_split <- score52
I0725 10:56:55.559089 13372 net.cpp:380] score52_slicer_conv_51_split -> score52_slicer_conv_51_split_0
I0725 10:56:55.559094 13372 net.cpp:380] score52_slicer_conv_51_split -> score52_slicer_conv_51_split_1
I0725 10:56:55.559136 13372 net.cpp:122] Setting up score52_slicer_conv_51_split
I0725 10:56:55.559142 13372 net.cpp:129] Top shape: 1 1 48 64 (3072)
I0725 10:56:55.559147 13372 net.cpp:129] Top shape: 1 1 48 64 (3072)
I0725 10:56:55.559150 13372 net.cpp:137] Memory required for data: 488091648
I0725 10:56:55.559154 13372 layer_factory.hpp:77] Creating layer score53_slicer_conv_52_split
I0725 10:56:55.559159 13372 net.cpp:84] Creating Layer score53_slicer_conv_52_split
I0725 10:56:55.559164 13372 net.cpp:406] score53_slicer_conv_52_split <- score53
I0725 10:56:55.559170 13372 net.cpp:380] score53_slicer_conv_52_split -> score53_slicer_conv_52_split_0
I0725 10:56:55.559176 13372 net.cpp:380] score53_slicer_conv_52_split -> score53_slicer_conv_52_split_1
I0725 10:56:55.559217 13372 net.cpp:122] Setting up score53_slicer_conv_52_split
I0725 10:56:55.559224 13372 net.cpp:129] Top shape: 1 1 48 64 (3072)
I0725 10:56:55.559228 13372 net.cpp:129] Top shape: 1 1 48 64 (3072)
I0725 10:56:55.559231 13372 net.cpp:137] Memory required for data: 488116224
I0725 10:56:55.559236 13372 layer_factory.hpp:77] Creating layer score54_slicer_conv_53_split
I0725 10:56:55.559242 13372 net.cpp:84] Creating Layer score54_slicer_conv_53_split
I0725 10:56:55.559244 13372 net.cpp:406] score54_slicer_conv_53_split <- score54
I0725 10:56:55.559249 13372 net.cpp:380] score54_slicer_conv_53_split -> score54_slicer_conv_53_split_0
I0725 10:56:55.559255 13372 net.cpp:380] score54_slicer_conv_53_split -> score54_slicer_conv_53_split_1
I0725 10:56:55.559296 13372 net.cpp:122] Setting up score54_slicer_conv_53_split
I0725 10:56:55.559303 13372 net.cpp:129] Top shape: 1 1 48 64 (3072)
I0725 10:56:55.559307 13372 net.cpp:129] Top shape: 1 1 48 64 (3072)
I0725 10:56:55.559310 13372 net.cpp:137] Memory required for data: 488140800
I0725 10:56:55.559314 13372 layer_factory.hpp:77] Creating layer score55_slicer_conv_54_split
I0725 10:56:55.559320 13372 net.cpp:84] Creating Layer score55_slicer_conv_54_split
I0725 10:56:55.559324 13372 net.cpp:406] score55_slicer_conv_54_split <- score55
I0725 10:56:55.559329 13372 net.cpp:380] score55_slicer_conv_54_split -> score55_slicer_conv_54_split_0
I0725 10:56:55.559360 13372 net.cpp:380] score55_slicer_conv_54_split -> score55_slicer_conv_54_split_1
I0725 10:56:55.559403 13372 net.cpp:122] Setting up score55_slicer_conv_54_split
I0725 10:56:55.559411 13372 net.cpp:129] Top shape: 1 1 48 64 (3072)
I0725 10:56:55.559415 13372 net.cpp:129] Top shape: 1 1 48 64 (3072)
I0725 10:56:55.559418 13372 net.cpp:137] Memory required for data: 488165376
I0725 10:56:55.559422 13372 layer_factory.hpp:77] Creating layer score56_slicer_conv_55_split
I0725 10:56:55.559427 13372 net.cpp:84] Creating Layer score56_slicer_conv_55_split
I0725 10:56:55.559442 13372 net.cpp:406] score56_slicer_conv_55_split <- score56
I0725 10:56:55.559448 13372 net.cpp:380] score56_slicer_conv_55_split -> score56_slicer_conv_55_split_0
I0725 10:56:55.559454 13372 net.cpp:380] score56_slicer_conv_55_split -> score56_slicer_conv_55_split_1
I0725 10:56:55.559499 13372 net.cpp:122] Setting up score56_slicer_conv_55_split
I0725 10:56:55.559505 13372 net.cpp:129] Top shape: 1 1 48 64 (3072)
I0725 10:56:55.559509 13372 net.cpp:129] Top shape: 1 1 48 64 (3072)
I0725 10:56:55.559512 13372 net.cpp:137] Memory required for data: 488189952
I0725 10:56:55.559516 13372 layer_factory.hpp:77] Creating layer score57_slicer_conv_56_split
I0725 10:56:55.559522 13372 net.cpp:84] Creating Layer score57_slicer_conv_56_split
I0725 10:56:55.559525 13372 net.cpp:406] score57_slicer_conv_56_split <- score57
I0725 10:56:55.559532 13372 net.cpp:380] score57_slicer_conv_56_split -> score57_slicer_conv_56_split_0
I0725 10:56:55.559540 13372 net.cpp:380] score57_slicer_conv_56_split -> score57_slicer_conv_56_split_1
I0725 10:56:55.559581 13372 net.cpp:122] Setting up score57_slicer_conv_56_split
I0725 10:56:55.559587 13372 net.cpp:129] Top shape: 1 1 48 64 (3072)
I0725 10:56:55.559592 13372 net.cpp:129] Top shape: 1 1 48 64 (3072)
I0725 10:56:55.559595 13372 net.cpp:137] Memory required for data: 488214528
I0725 10:56:55.559599 13372 layer_factory.hpp:77] Creating layer score58_slicer_conv_57_split
I0725 10:56:55.559604 13372 net.cpp:84] Creating Layer score58_slicer_conv_57_split
I0725 10:56:55.559608 13372 net.cpp:406] score58_slicer_conv_57_split <- score58
I0725 10:56:55.559615 13372 net.cpp:380] score58_slicer_conv_57_split -> score58_slicer_conv_57_split_0
I0725 10:56:55.559622 13372 net.cpp:380] score58_slicer_conv_57_split -> score58_slicer_conv_57_split_1
I0725 10:56:55.559664 13372 net.cpp:122] Setting up score58_slicer_conv_57_split
I0725 10:56:55.559670 13372 net.cpp:129] Top shape: 1 1 48 64 (3072)
I0725 10:56:55.559674 13372 net.cpp:129] Top shape: 1 1 48 64 (3072)
I0725 10:56:55.559679 13372 net.cpp:137] Memory required for data: 488239104
I0725 10:56:55.559681 13372 layer_factory.hpp:77] Creating layer score59_slicer_conv_58_split
I0725 10:56:55.559689 13372 net.cpp:84] Creating Layer score59_slicer_conv_58_split
I0725 10:56:55.559692 13372 net.cpp:406] score59_slicer_conv_58_split <- score59
I0725 10:56:55.559697 13372 net.cpp:380] score59_slicer_conv_58_split -> score59_slicer_conv_58_split_0
I0725 10:56:55.559703 13372 net.cpp:380] score59_slicer_conv_58_split -> score59_slicer_conv_58_split_1
I0725 10:56:55.559747 13372 net.cpp:122] Setting up score59_slicer_conv_58_split
I0725 10:56:55.559754 13372 net.cpp:129] Top shape: 1 1 48 64 (3072)
I0725 10:56:55.559758 13372 net.cpp:129] Top shape: 1 1 48 64 (3072)
I0725 10:56:55.559762 13372 net.cpp:137] Memory required for data: 488263680
I0725 10:56:55.559765 13372 layer_factory.hpp:77] Creating layer score60_slicer_conv_59_split
I0725 10:56:55.559770 13372 net.cpp:84] Creating Layer score60_slicer_conv_59_split
I0725 10:56:55.559775 13372 net.cpp:406] score60_slicer_conv_59_split <- score60
I0725 10:56:55.559782 13372 net.cpp:380] score60_slicer_conv_59_split -> score60_slicer_conv_59_split_0
I0725 10:56:55.559787 13372 net.cpp:380] score60_slicer_conv_59_split -> score60_slicer_conv_59_split_1
I0725 10:56:55.559834 13372 net.cpp:122] Setting up score60_slicer_conv_59_split
I0725 10:56:55.559841 13372 net.cpp:129] Top shape: 1 1 48 64 (3072)
I0725 10:56:55.559845 13372 net.cpp:129] Top shape: 1 1 48 64 (3072)
I0725 10:56:55.559849 13372 net.cpp:137] Memory required for data: 488288256
I0725 10:56:55.559852 13372 layer_factory.hpp:77] Creating layer score61_slicer_conv_60_split
I0725 10:56:55.559859 13372 net.cpp:84] Creating Layer score61_slicer_conv_60_split
I0725 10:56:55.559862 13372 net.cpp:406] score61_slicer_conv_60_split <- score61
I0725 10:56:55.559870 13372 net.cpp:380] score61_slicer_conv_60_split -> score61_slicer_conv_60_split_0
I0725 10:56:55.559875 13372 net.cpp:380] score61_slicer_conv_60_split -> score61_slicer_conv_60_split_1
I0725 10:56:55.559931 13372 net.cpp:122] Setting up score61_slicer_conv_60_split
I0725 10:56:55.559939 13372 net.cpp:129] Top shape: 1 1 48 64 (3072)
I0725 10:56:55.559943 13372 net.cpp:129] Top shape: 1 1 48 64 (3072)
I0725 10:56:55.559947 13372 net.cpp:137] Memory required for data: 488312832
I0725 10:56:55.559950 13372 layer_factory.hpp:77] Creating layer score62_slicer_conv_61_split
I0725 10:56:55.559957 13372 net.cpp:84] Creating Layer score62_slicer_conv_61_split
I0725 10:56:55.559960 13372 net.cpp:406] score62_slicer_conv_61_split <- score62
I0725 10:56:55.559967 13372 net.cpp:380] score62_slicer_conv_61_split -> score62_slicer_conv_61_split_0
I0725 10:56:55.559973 13372 net.cpp:380] score62_slicer_conv_61_split -> score62_slicer_conv_61_split_1
I0725 10:56:55.560014 13372 net.cpp:122] Setting up score62_slicer_conv_61_split
I0725 10:56:55.560021 13372 net.cpp:129] Top shape: 1 1 48 64 (3072)
I0725 10:56:55.560025 13372 net.cpp:129] Top shape: 1 1 48 64 (3072)
I0725 10:56:55.560029 13372 net.cpp:137] Memory required for data: 488337408
I0725 10:56:55.560034 13372 layer_factory.hpp:77] Creating layer score63_slicer_conv_62_split
I0725 10:56:55.560039 13372 net.cpp:84] Creating Layer score63_slicer_conv_62_split
I0725 10:56:55.560042 13372 net.cpp:406] score63_slicer_conv_62_split <- score63
I0725 10:56:55.560048 13372 net.cpp:380] score63_slicer_conv_62_split -> score63_slicer_conv_62_split_0
I0725 10:56:55.560055 13372 net.cpp:380] score63_slicer_conv_62_split -> score63_slicer_conv_62_split_1
I0725 10:56:55.560096 13372 net.cpp:122] Setting up score63_slicer_conv_62_split
I0725 10:56:55.560102 13372 net.cpp:129] Top shape: 1 1 48 64 (3072)
I0725 10:56:55.560106 13372 net.cpp:129] Top shape: 1 1 48 64 (3072)
I0725 10:56:55.560109 13372 net.cpp:137] Memory required for data: 488361984
I0725 10:56:55.560113 13372 layer_factory.hpp:77] Creating layer score64_slicer_conv_63_split
I0725 10:56:55.560120 13372 net.cpp:84] Creating Layer score64_slicer_conv_63_split
I0725 10:56:55.560124 13372 net.cpp:406] score64_slicer_conv_63_split <- score64
I0725 10:56:55.560129 13372 net.cpp:380] score64_slicer_conv_63_split -> score64_slicer_conv_63_split_0
I0725 10:56:55.560135 13372 net.cpp:380] score64_slicer_conv_63_split -> score64_slicer_conv_63_split_1
I0725 10:56:55.560178 13372 net.cpp:122] Setting up score64_slicer_conv_63_split
I0725 10:56:55.560184 13372 net.cpp:129] Top shape: 1 1 48 64 (3072)
I0725 10:56:55.560189 13372 net.cpp:129] Top shape: 1 1 48 64 (3072)
I0725 10:56:55.560191 13372 net.cpp:137] Memory required for data: 488386560
I0725 10:56:55.560195 13372 layer_factory.hpp:77] Creating layer sumscore
I0725 10:56:55.586707 13372 net.cpp:84] Creating Layer sumscore
I0725 10:56:55.586722 13372 net.cpp:406] sumscore <- score1_slicer_conv_0_split_0
I0725 10:56:55.586730 13372 net.cpp:406] sumscore <- score2_slicer_conv_1_split_0
I0725 10:56:55.586735 13372 net.cpp:406] sumscore <- score3_slicer_conv_2_split_0
…
I0725 10:56:55.587910 13372 net.cpp:380] sumscore_sumscore_0_split -> sumscore_sumscore_0_split_59
I0725 10:56:55.587923 13372 net.cpp:380] sumscore_sumscore_0_split -> sumscore_sumscore_0_split_60
I0725 10:56:55.587934 13372 net.cpp:380] sumscore_sumscore_0_split -> sumscore_sumscore_0_split_61
I0725 10:56:55.587946 13372 net.cpp:380] sumscore_sumscore_0_split -> sumscore_sumscore_0_split_62
I0725 10:56:55.587959 13372 net.cpp:380] sumscore_sumscore_0_split -> sumscore_sumscore_0_split_63
I0725 10:56:55.588881 13372 net.cpp:122] Setting up sumscore_sumscore_0_split
I0725 10:56:55.588891 13372 net.cpp:129] Top shape: 1 1 48 64 (3072)
I0725 10:56:55.588896 13372 net.cpp:129] Top shape: 1 1 48 64 (3072)
I0725 10:56:55.588901 13372 net.cpp:129] Top shape: 1 1 48 64 (3072)
I0725 10:56:55.588904 13372 net.cpp:129] Top shape: 1 1 48 64 (3072)
I0725 10:56:55.588908 13372 net.cpp:129] Top shape: 1 1 48 64 (3072)
I0725 10:56:55.588912 13372 net.cpp:129] Top shape: 1 1 48 64 (3072)
I0725 10:56:55.588917 13372 net.cpp:129] Top shape: 1 1 48 64 (3072)
I0725 10:56:55.588919 13372 net.cpp:129] Top shape: 1 1 48 64 (3072)
I0725 10:56:55.588923 13372 net.cpp:129] Top shape: 1 1 48 64 (3072)
I0725 10:56:55.588927 13372 net.cpp:129] Top shape: 1 1 48 64 (3072)
I0725 10:56:55.588932 13372 net.cpp:129] Top shape: 1 1 48 64 (3072)
I0725 10:56:55.588935 13372 net.cpp:129] Top shape: 1 1 48 64 (3072)
I0725 10:56:55.588939 13372 net.cpp:129] Top shape: 1 1 48 64 (3072)
I0725 10:56:55.588943 13372 net.cpp:129] Top shape: 1 1 48 64 (3072)
I0725 10:56:55.588948 13372 net.cpp:129] Top shape: 1 1 48 64 (3072)
I0725 10:56:55.588951 13372 net.cpp:129] Top shape: 1 1 48 64 (3072)
I0725 10:56:55.588955 13372 net.cpp:129] Top shape: 1 1 48 64 (3072)
I0725 10:56:55.588959 13372 net.cpp:129] Top shape: 1 1 48 64 (3072)
I0725 10:56:55.588963 13372 net.cpp:129] Top shape: 1 1 48 64 (3072)
I0725 10:56:55.588966 13372 net.cpp:129] Top shape: 1 1 48 64 (3072)
I0725 10:56:55.588981 13372 net.cpp:129] Top shape: 1 1 48 64 (3072)
I0725 10:56:55.588985 13372 net.cpp:129] Top shape: 1 1 48 64 (3072)
I0725 10:56:55.588989 13372 net.cpp:129] Top shape: 1 1 48 64 (3072)
I0725 10:56:55.588994 13372 net.cpp:129] Top shape: 1 1 48 64 (3072)
I0725 10:56:55.588997 13372 net.cpp:129] Top shape: 1 1 48 64 (3072)
I0725 10:56:55.589001 13372 net.cpp:129] Top shape: 1 1 48 64 (3072)
I0725 10:56:55.589005 13372 net.cpp:129] Top shape: 1 1 48 64 (3072)
I0725 10:56:55.589010 13372 net.cpp:129] Top shape: 1 1 48 64 (3072)
I0725 10:56:55.589013 13372 net.cpp:129] Top shape: 1 1 48 64 (3072)
I0725 10:56:55.589017 13372 net.cpp:129] Top shape: 1 1 48 64 (3072)
I0725 10:56:55.589021 13372 net.cpp:129] Top shape: 1 1 48 64 (3072)
I0725 10:56:55.589025 13372 net.cpp:129] Top shape: 1 1 48 64 (3072)
I0725 10:56:55.589030 13372 net.cpp:129] Top shape: 1 1 48 64 (3072)
I0725 10:56:55.589032 13372 net.cpp:129] Top shape: 1 1 48 64 (3072)
I0725 10:56:55.589036 13372 net.cpp:129] Top shape: 1 1 48 64 (3072)
I0725 10:56:55.589040 13372 net.cpp:129] Top shape: 1 1 48 64 (3072)
I0725 10:56:55.589045 13372 net.cpp:129] Top shape: 1 1 48 64 (3072)
I0725 10:56:55.589048 13372 net.cpp:129] Top shape: 1 1 48 64 (3072)
I0725 10:56:55.589052 13372 net.cpp:129] Top shape: 1 1 48 64 (3072)
I0725 10:56:55.589056 13372 net.cpp:129] Top shape: 1 1 48 64 (3072)
I0725 10:56:55.589059 13372 net.cpp:129] Top shape: 1 1 48 64 (3072)
I0725 10:56:55.589063 13372 net.cpp:129] Top shape: 1 1 48 64 (3072)
I0725 10:56:55.589067 13372 net.cpp:129] Top shape: 1 1 48 64 (3072)
I0725 10:56:55.589071 13372 net.cpp:129] Top shape: 1 1 48 64 (3072)
I0725 10:56:55.589076 13372 net.cpp:129] Top shape: 1 1 48 64 (3072)
I0725 10:56:55.589079 13372 net.cpp:129] Top shape: 1 1 48 64 (3072)
I0725 10:56:55.589083 13372 net.cpp:129] Top shape: 1 1 48 64 (3072)
I0725 10:56:55.589087 13372 net.cpp:129] Top shape: 1 1 48 64 (3072)
I0725 10:56:55.589092 13372 net.cpp:129] Top shape: 1 1 48 64 (3072)
I0725 10:56:55.589095 13372 net.cpp:129] Top shape: 1 1 48 64 (3072)
I0725 10:56:55.589099 13372 net.cpp:129] Top shape: 1 1 48 64 (3072)
I0725 10:56:55.589102 13372 net.cpp:129] Top shape: 1 1 48 64 (3072)
I0725 10:56:55.589107 13372 net.cpp:129] Top shape: 1 1 48 64 (3072)
I0725 10:56:55.589110 13372 net.cpp:129] Top shape: 1 1 48 64 (3072)
I0725 10:56:55.589114 13372 net.cpp:129] Top shape: 1 1 48 64 (3072)
I0725 10:56:55.589118 13372 net.cpp:129] Top shape: 1 1 48 64 (3072)
I0725 10:56:55.589123 13372 net.cpp:129] Top shape: 1 1 48 64 (3072)
I0725 10:56:55.589126 13372 net.cpp:129] Top shape: 1 1 48 64 (3072)
I0725 10:56:55.589129 13372 net.cpp:129] Top shape: 1 1 48 64 (3072)
I0725 10:56:55.589133 13372 net.cpp:129] Top shape: 1 1 48 64 (3072)
I0725 10:56:55.589138 13372 net.cpp:129] Top shape: 1 1 48 64 (3072)
I0725 10:56:55.589141 13372 net.cpp:129] Top shape: 1 1 48 64 (3072)
I0725 10:56:55.589145 13372 net.cpp:129] Top shape: 1 1 48 64 (3072)
I0725 10:56:55.589149 13372 net.cpp:129] Top shape: 1 1 48 64 (3072)
I0725 10:56:55.589152 13372 net.cpp:137] Memory required for data: 489185280
I0725 10:56:55.589156 13372 layer_factory.hpp:77] Creating layer loss1
I0725 10:56:55.625689 13372 net.cpp:84] Creating Layer loss1
I0725 10:56:55.625705 13372 net.cpp:406] loss1 <- score1_slicer_conv_0_split_1
I0725 10:56:55.625716 13372 net.cpp:406] loss1 <- label_label_0_split_0
I0725 10:56:55.625721 13372 net.cpp:406] loss1 <- sumscore_sumscore_0_split_0
…
I0725 10:56:55.689617 13372 net.cpp:51] Initializing net from parameters: 
name: "crowd_counting"
state {
  phase: TEST
}
layer {
  name: "data"
  type: "Data"
  top: "data"
  include {
    phase: TEST
  }
  data_param {
    source: "/home/peiyong/Work/Zenglin/szl/ShanghaiTech/partA/test_8/image_lmdb"
    batch_size: 1
    backend: LMDB
  }
}
layer {
  name: "label"
  type: "Data"
  top: "label"
  include {
    phase: TEST
  }
  data_param {
    source: "/home/peiyong/Work/Zenglin/szl/ShanghaiTech/partA/test_8/dmap_lmdb"
    batch_size: 1
    backend: LMDB
  }
}
layer {
  name: "conv1_1"
  type: "Convolution"
  bottom: "data"
  top: "conv1_1"
  param {
    lr_mult: 0.1
    decay_mult: 1
  }
  param {
    lr_mult: 0.2
    decay_mult: 0
  }
  convolution_param {
    num_output: 64
    pad: 1
    kernel_size: 3
    weight_filler {
      type: "gaussian"
      std: 0.01
    }
    bias_filler {
      type: "constant"
      value: 0
    }
  }
}
layer {
  name: "relu1_1"
  type: "ReLU"
  bottom: "conv1_1"
  top: "conv1_1"
}
layer {
  name: "conv1_2"
  type: "Convolution"
  bottom: "conv1_1"
  top: "conv1_2"
  param {
    lr_mult: 0.1
    decay_mult: 1
  }
  param {
    lr_mult: 0.2
    decay_mult: 0
  }
  convolution_param {
    num_output: 64
    pad: 1
    kernel_size: 3
    weight_filler {
      type: "gaussian"
      std: 0.01
    }
    bias_filler {
      type: "constant"
      value: 0
    }
  }
}
layer {
  name: "relu1_2"
  type: "ReLU"
  bottom: "conv1_2"
  top: "conv1_2"
}
layer {
  name: "pool1"
  type: "Pooling"
  bottom: "conv1_2"
  top: "pool1"
  pooling_param {
    pool: MAX
    kernel_size: 2
    stride: 2
  }
}
layer {
  name: "conv2_1"
  type: "Convolution"
  bottom: "pool1"
  top: "conv2_1"
  param {
    lr_mult: 0.1
    decay_mult: 1
  }
  param {
    lr_mult: 0.2
    decay_mult: 0
  }
  convolution_param {
    num_output: 128
    pad: 1
    kernel_size: 3
    weight_filler {
      type: "gaussian"
      std: 0.01
    }
    bias_filler {
      type: "constant"
      value: 0
    }
  }
}
layer {
  name: "relu2_1"
  type: "ReLU"
  bottom: "conv2_1"
  top: "conv2_1"
}
layer {
  name: "conv2_2"
  type: "Convolution"
  bottom: "conv2_1"
  top: "conv2_2"
  param {
    lr_mult: 0.1
    decay_mult: 1
  }
  param {
    lr_mult: 0.2
    decay_mult: 0
  }
  convolution_param {
    num_output: 128
    pad: 1
    kernel_size: 3
    weight_filler {
      type: "gaussian"
      std: 0.01
    }
    bias_filler {
      type: "constant"
      value: 0
    }
  }
}
layer {
  name: "relu2_2"
  type: "ReLU"
  bottom: "conv2_2"
  top: "conv2_2"
}
layer {
  name: "pool2"
  type: "Pooling"
  bottom: "conv2_2"
  top: "pool2"
  pooling_param {
    pool: MAX
    kernel_size: 2
    stride: 2
  }
}
layer {
  name: "conv3_1"
  type: "Convolution"
  bottom: "pool2"
  top: "conv3_1"
  param {
    lr_mult: 0.1
    decay_mult: 1
  }
  param {
    lr_mult: 0.2
    decay_mult: 0
  }
  convolution_param {
    num_output: 256
    pad: 1
    kernel_size: 3
    weight_filler {
      type: "gaussian"
      std: 0.01
    }
    bias_filler {
      type: "constant"
      value: 0
    }
  }
}
layer {
  name: "relu3_1"
  type: "ReLU"
  bottom: "conv3_1"
  top: "conv3_1"
}
layer {
  name: "conv3_2"
  type: "Convolution"
  bottom: "conv3_1"
  top: "conv3_2"
  param {
    lr_mult: 0.1
    decay_mult: 1
  }
  param {
    lr_mult: 0.2
    decay_mult: 0
  }
  convolution_param {
    num_output: 256
    pad: 1
    kernel_size: 3
    weight_filler {
      type: "gaussian"
      std: 0.01
    }
    bias_filler {
      type: "constant"
      value: 0
    }
  }
}
layer {
  name: "relu3_2"
  type: "ReLU"
  bottom: "conv3_2"
  top: "conv3_2"
}
layer {
  name: "conv3_3"
  type: "Convolution"
  bottom: "conv3_2"
  top: "conv3_3"
  param {
    lr_mult: 0.1
    decay_mult: 1
  }
  param {
    lr_mult: 0.2
    decay_mult: 0
  }
  convolution_param {
    num_output: 256
    pad: 1
    kernel_size: 3
    weight_filler {
      type: "gaussian"
      std: 0.01
    }
    bias_filler {
      type: "constant"
      value: 0
    }
  }
}
layer {
  name: "relu3_3"
  type: "ReLU"
  bottom: "conv3_3"
  top: "conv3_3"
}
layer {
  name: "pool3"
  type: "Pooling"
  bottom: "conv3_3"
  top: "pool3"
  pooling_param {
    pool: MAX
    kernel_size: 2
    stride: 2
  }
}
layer {
  name: "conv4_1"
  type: "Convolution"
  bottom: "pool3"
  top: "conv4_1"
  param {
    lr_mult: 0.1
    decay_mult: 1
  }
  param {
    lr_mult: 0.2
    decay_mult: 0
  }
  convolution_param {
    num_output: 512
    pad: 1
    kernel_size: 3
    weight_filler {
      type: "gaussian"
      std: 0.01
    }
    bias_filler {
      type: "constant"
      value: 0
    }
  }
}
layer {
  name: "relu4_1"
  type: "ReLU"
  bottom: "conv4_1"
  top: "conv4_1"
}
layer {
  name: "conv4_2"
  type: "Convolution"
  bottom: "conv4_1"
  top: "conv4_2"
  param {
    lr_mult: 0.1
    decay_mult: 1
  }
  param {
    lr_mult: 0.2
    decay_mult: 0
  }
  convolution_param {
    num_output: 512
    pad: 1
    kernel_size: 3
    weight_filler {
      type: "gaussian"
      std: 0.01
    }
    bias_filler {
      type: "constant"
      value: 0
    }
  }
}
layer {
  name: "relu4_2"
  type: "ReLU"
  bottom: "conv4_2"
  top: "conv4_2"
}
layer {
  name: "conv4_3"
  type: "Convolution"
  bottom: "conv4_2"
  top: "conv4_3"
  param {
    lr_mult: 0.1
    decay_mult: 1
  }
  param {
    lr_mult: 0.2
    decay_mult: 0
  }
  convolution_param {
    num_output: 512
    pad: 1
    kernel_size: 3
    weight_filler {
      type: "gaussian"
      std: 0.01
    }
    bias_filler {
      type: "constant"
      value: 0
    }
  }
}
layer {
  name: "relu4_3"
  type: "ReLU"
  bottom: "conv4_3"
  top: "conv4_3"
}
layer {
  name: "pool4"
  type: "Pooling"
  bottom: "conv4_3"
  top: "pool4"
  pooling_param {
    pool: MAX
    kernel_size: 3
    stride: 1
    pad: 1
  }
}
layer {
  name: "conv5_1"
  type: "Convolution"
  bottom: "pool4"
  top: "conv5_1"
  param {
    lr_mult: 0.1
    decay_mult: 1
  }
  param {
    lr_mult: 0.2
    decay_mult: 0
  }
  convolution_param {
    num_output: 512
    pad: 2
    kernel_size: 3
    weight_filler {
      type: "gaussian"
      std: 0.01
    }
    bias_filler {
      type: "constant"
      value: 0
    }
    dilation: 2
  }
}
layer {
  name: "relu5_1"
  type: "ReLU"
  bottom: "conv5_1"
  top: "conv5_1"
}
layer {
  name: "conv5_2"
  type: "Convolution"
  bottom: "conv5_1"
  top: "conv5_2"
  param {
    lr_mult: 0.1
    decay_mult: 1
  }
  param {
    lr_mult: 0.2
    decay_mult: 0
  }
  convolution_param {
    num_output: 512
    pad: 2
    kernel_size: 3
    weight_filler {
      type: "gaussian"
      std: 0.01
    }
    bias_filler {
      type: "constant"
      value: 0
    }
    dilation: 2
  }
}
layer {
  name: "relu5_2"
  type: "ReLU"
  bottom: "conv5_2"
  top: "conv5_2"
}
layer {
  name: "conv5_3"
  type: "Convolution"
  bottom: "conv5_2"
  top: "conv5_3"
  param {
    lr_mult: 0.1
    decay_mult: 1
  }
  param {
    lr_mult: 0.2
    decay_mult: 0
  }
  convolution_param {
    num_output: 512
    pad: 2
    kernel_size: 3
    weight_filler {
      type: "gaussian"
      std: 0.01
    }
    bias_filler {
      type: "constant"
      value: 0
    }
    dilation: 2
  }
}
layer {
  name: "relu5_3"
  type: "ReLU"
  bottom: "conv5_3"
  top: "conv5_3"
}
layer {
  name: "conv_score"
  type: "Convolution"
  bottom: "conv5_3"
  top: "conv_score"
  param {
    lr_mult: 10
    decay_mult: 1
  }
  param {
    lr_mult: 20
    decay_mult: 0
  }
  convolution_param {
    num_output: 64
    pad: 0
    kernel_size: 1
    group: 64
    stride: 1
    weight_filler {
      type: "constant"
      value: 0.0001
    }
    bias_filler {
      type: "constant"
      value: 0
    }
  }
}
layer {
  name: "relu_score"
  type: "ReLU"
  bottom: "conv_score"
  top: "conv_score"
}
layer {
  name: "slicer_conv"
  type: "Slice"
  bottom: "conv_score"
  top: "score1"
  top: "score2"
  top: "score3"
  top: "score4"
  top: "score5"
  top: "score6"
  top: "score7"
  top: "score8"
  top: "score9"
  top: "score10"
  top: "score11"
  top: "score12"
  top: "score13"
  top: "score14"
  top: "score15"
  top: "score16"
  top: "score17"
  top: "score18"
  top: "score19"
  top: "score20"
  top: "score21"
  top: "score22"
  top: "score23"
  top: "score24"
  top: "score25"
  top: "score26"
  top: "score27"
  top: "score28"
  top: "score29"
  top: "score30"
  top: "score31"
  top: "score32"
  top: "score33"
  top: "score34"
  top: "score35"
  top: "score36"
  top: "score37"
  top: "score38"
  top: "score39"
  top: "score40"
  top: "score41"
  top: "score42"
  top: "score43"
  top: "score44"
  top: "score45"
  top: "score46"
  top: "score47"
  top: "score48"
  top: "score49"
  top: "score50"
  top: "score51"
  top: "score52"
  top: "score53"
  top: "score54"
  top: "score55"
  top: "score56"
  top: "score57"
  top: "score58"
  top: "score59"
  top: "score60"
  top: "score61"
  top: "score62"
  top: "score63"
  top: "score64"
  slice_param {
    axis: 1
  }
}
layer {
  name: "sumscore"
  type: "Eltwise"
  bottom: "score1"
  bottom: "score2"
  bottom: "score3"
  bottom: "score4"
  bottom: "score5"
  bottom: "score6"
  bottom: "score7"
  bottom: "score8"
  bottom: "score9"
  bottom: "score10"
  bottom: "score11"
  bottom: "score12"
  bottom: "score13"
  bottom: "score14"
  bottom: "score15"
  bottom: "score16"
  bottom: "score17"
  bottom: "score18"
  bottom: "score19"
  bottom: "score20"
  bottom: "score21"
  bottom: "score22"
  bottom: "score23"
  bottom: "score24"
  bottom: "score25"
  bottom: "score26"
  bottom: "score27"
  bottom: "score28"
  bottom: "score29"
  bottom: "score30"
  bottom: "score31"
  bottom: "score32"
  bottom: "score33"
  bottom: "score34"
  bottom: "score35"
  bottom: "score36"
  bottom: "score37"
  bottom: "score38"
  bottom: "score39"
  bottom: "score40"
  bottom: "score41"
  bottom: "score42"
  bottom: "score43"
  bottom: "score44"
  bottom: "score45"
  bottom: "score46"
  bottom: "score47"
  bottom: "score48"
  bottom: "score49"
  bottom: "score50"
  bottom: "score51"
  bottom: "score52"
  bottom: "score53"
  bottom: "score54"
  bottom: "score55"
  bottom: "score56"
  bottom: "score57"
  bottom: "score58"
  bottom: "score59"
  bottom: "score60"
  bottom: "score61"
  bottom: "score62"
  bottom: "score63"
  bottom: "score64"
  top: "sumscore"
  eltwise_param {
    operation: SUM
  }
}
layer {
  name: "avgscore"
  type: "Power"
  bottom: "sumscore"
  top: "avgscore"
  include {
    phase: TEST
  }
  power_param {
    power: 1
    scale: 0.015625
    shift: 0
  }
}
layer {
  name: "mae"
  type: "MAELoss"
  bottom: "avgscore"
  bottom: "label"
  top: "mae"
  include {
    phase: TEST
  }
}
layer {
  name: "mse"
  type: "MSELoss"
  bottom: "avgscore"
  bottom: "label"
  top: "mse"
  include {
    phase: TEST
  }
}
I0725 10:56:55.690048 13372 layer_factory.hpp:77] Creating layer data
I0725 10:56:55.691407 13372 db_lmdb.cpp:35] Opened lmdb /home/peiyong/Work/Zenglin/szl/ShanghaiTech/partA/test_8/image_lmdb
I0725 10:56:55.692337 13372 net.cpp:84] Creating Layer data
I0725 10:56:55.692348 13372 net.cpp:380] data -> data
I0725 10:56:55.699167 13372 data_layer.cpp:45] output data size: 1,3,704,1024
I0725 10:56:55.769796 13372 net.cpp:122] Setting up data
I0725 10:56:55.769829 13372 net.cpp:129] Top shape: 1 3 704 1024 (2162688)
I0725 10:56:55.769834 13372 net.cpp:137] Memory required for data: 8650752
I0725 10:56:55.769840 13372 layer_factory.hpp:77] Creating layer label
I0725 10:56:55.887257 13372 db_lmdb.cpp:35] Opened lmdb /home/peiyong/Work/Zenglin/szl/ShanghaiTech/partA/test_8/dmap_lmdb
I0725 10:56:55.924801 13372 net.cpp:84] Creating Layer label
I0725 10:56:55.924846 13372 net.cpp:380] label -> label
I0725 10:56:55.925609 13372 data_layer.cpp:45] output data size: 1,1,88,128
I0725 10:56:55.926025 13372 net.cpp:122] Setting up label
I0725 10:56:55.926048 13372 net.cpp:129] Top shape: 1 1 88 128 (11264)
I0725 10:56:55.926054 13372 net.cpp:137] Memory required for data: 8695808
I0725 10:56:55.926062 13372 layer_factory.hpp:77] Creating layer label_label_0_split
I0725 10:56:55.926077 13372 net.cpp:84] Creating Layer label_label_0_split
I0725 10:56:55.926084 13372 net.cpp:406] label_label_0_split <- label
I0725 10:56:55.926095 13372 net.cpp:380] label_label_0_split -> label_label_0_split_0
I0725 10:56:55.926110 13372 net.cpp:380] label_label_0_split -> label_label_0_split_1
I0725 10:56:55.926200 13372 net.cpp:122] Setting up label_label_0_split
I0725 10:56:55.926213 13372 net.cpp:129] Top shape: 1 1 88 128 (11264)
I0725 10:56:55.926220 13372 net.cpp:129] Top shape: 1 1 88 128 (11264)
I0725 10:56:55.926226 13372 net.cpp:137] Memory required for data: 8785920
I0725 10:56:55.926231 13372 layer_factory.hpp:77] Creating layer conv1_1
I0725 10:56:55.926252 13372 net.cpp:84] Creating Layer conv1_1
I0725 10:56:55.926259 13372 net.cpp:406] conv1_1 <- data
I0725 10:56:55.926270 13372 net.cpp:380] conv1_1 -> conv1_1
I0725 10:56:55.931875 13372 net.cpp:122] Setting up conv1_1
I0725 10:56:55.931900 13372 net.cpp:129] Top shape: 1 64 704 1024 (46137344)
I0725 10:56:55.931907 13372 net.cpp:137] Memory required for data: 193335296
I0725 10:56:55.931928 13372 layer_factory.hpp:77] Creating layer relu1_1
I0725 10:56:55.931941 13372 net.cpp:84] Creating Layer relu1_1
I0725 10:56:55.931948 13372 net.cpp:406] relu1_1 <- conv1_1
I0725 10:56:55.931957 13372 net.cpp:367] relu1_1 -> conv1_1 (in-place)
I0725 10:56:55.933038 13372 net.cpp:122] Setting up relu1_1
I0725 10:56:55.933061 13372 net.cpp:129] Top shape: 1 64 704 1024 (46137344)
I0725 10:56:55.933068 13372 net.cpp:137] Memory required for data: 377884672
I0725 10:56:55.933075 13372 layer_factory.hpp:77] Creating layer conv1_2
I0725 10:56:55.933092 13372 net.cpp:84] Creating Layer conv1_2
I0725 10:56:55.933100 13372 net.cpp:406] conv1_2 <- conv1_1
I0725 10:56:55.933112 13372 net.cpp:380] conv1_2 -> conv1_2
I0725 10:56:55.939007 13372 net.cpp:122] Setting up conv1_2
I0725 10:56:55.939028 13372 net.cpp:129] Top shape: 1 64 704 1024 (46137344)
I0725 10:56:55.939035 13372 net.cpp:137] Memory required for data: 562434048
I0725 10:56:55.939049 13372 layer_factory.hpp:77] Creating layer relu1_2
I0725 10:56:55.939059 13372 net.cpp:84] Creating Layer relu1_2
I0725 10:56:55.939065 13372 net.cpp:406] relu1_2 <- conv1_2
I0725 10:56:55.939074 13372 net.cpp:367] relu1_2 -> conv1_2 (in-place)
I0725 10:56:55.939342 13372 net.cpp:122] Setting up relu1_2
I0725 10:56:55.939354 13372 net.cpp:129] Top shape: 1 64 704 1024 (46137344)
I0725 10:56:55.939360 13372 net.cpp:137] Memory required for data: 746983424
I0725 10:56:55.939365 13372 layer_factory.hpp:77] Creating layer pool1
I0725 10:56:55.939375 13372 net.cpp:84] Creating Layer pool1
I0725 10:56:55.939380 13372 net.cpp:406] pool1 <- conv1_2
I0725 10:56:55.939388 13372 net.cpp:380] pool1 -> pool1
I0725 10:56:55.939473 13372 net.cpp:122] Setting up pool1
I0725 10:56:55.939483 13372 net.cpp:129] Top shape: 1 64 352 512 (11534336)
I0725 10:56:55.939489 13372 net.cpp:137] Memory required for data: 793120768
I0725 10:56:55.939494 13372 layer_factory.hpp:77] Creating layer conv2_1
I0725 10:56:55.939509 13372 net.cpp:84] Creating Layer conv2_1
I0725 10:56:55.939515 13372 net.cpp:406] conv2_1 <- pool1
I0725 10:56:55.939524 13372 net.cpp:380] conv2_1 -> conv2_1
I0725 10:56:55.973124 13372 net.cpp:122] Setting up conv2_1
I0725 10:56:55.973165 13372 net.cpp:129] Top shape: 1 128 352 512 (23068672)
I0725 10:56:55.973175 13372 net.cpp:137] Memory required for data: 885395456
I0725 10:56:55.973199 13372 layer_factory.hpp:77] Creating layer relu2_1
I0725 10:56:55.973217 13372 net.cpp:84] Creating Layer relu2_1
I0725 10:56:55.973227 13372 net.cpp:406] relu2_1 <- conv2_1
I0725 10:56:55.973300 13372 net.cpp:367] relu2_1 -> conv2_1 (in-place)
I0725 10:56:55.973804 13372 net.cpp:122] Setting up relu2_1
I0725 10:56:55.973843 13372 net.cpp:129] Top shape: 1 128 352 512 (23068672)
I0725 10:56:55.973851 13372 net.cpp:137] Memory required for data: 977670144
I0725 10:56:55.973860 13372 layer_factory.hpp:77] Creating layer conv2_2
I0725 10:56:55.973881 13372 net.cpp:84] Creating Layer conv2_2
I0725 10:56:55.973891 13372 net.cpp:406] conv2_2 <- conv2_1
I0725 10:56:55.973904 13372 net.cpp:380] conv2_2 -> conv2_2
I0725 10:56:55.983234 13372 net.cpp:122] Setting up conv2_2
I0725 10:56:55.983274 13372 net.cpp:129] Top shape: 1 128 352 512 (23068672)
I0725 10:56:55.983281 13372 net.cpp:137] Memory required for data: 1069944832
I0725 10:56:55.983297 13372 layer_factory.hpp:77] Creating layer relu2_2
I0725 10:56:55.983312 13372 net.cpp:84] Creating Layer relu2_2
I0725 10:56:55.983322 13372 net.cpp:406] relu2_2 <- conv2_2
I0725 10:56:55.983335 13372 net.cpp:367] relu2_2 -> conv2_2 (in-place)
I0725 10:56:55.984635 13372 net.cpp:122] Setting up relu2_2
I0725 10:56:55.984663 13372 net.cpp:129] Top shape: 1 128 352 512 (23068672)
I0725 10:56:55.984669 13372 net.cpp:137] Memory required for data: 1162219520
I0725 10:56:55.984678 13372 layer_factory.hpp:77] Creating layer pool2
I0725 10:56:55.984693 13372 net.cpp:84] Creating Layer pool2
I0725 10:56:55.984701 13372 net.cpp:406] pool2 <- conv2_2
I0725 10:56:55.984714 13372 net.cpp:380] pool2 -> pool2
I0725 10:56:55.984840 13372 net.cpp:122] Setting up pool2
I0725 10:56:55.984856 13372 net.cpp:129] Top shape: 1 128 176 256 (5767168)
I0725 10:56:55.984863 13372 net.cpp:137] Memory required for data: 1185288192
I0725 10:56:55.984871 13372 layer_factory.hpp:77] Creating layer conv3_1
I0725 10:56:55.984890 13372 net.cpp:84] Creating Layer conv3_1
I0725 10:56:55.984899 13372 net.cpp:406] conv3_1 <- pool2
I0725 10:56:55.984912 13372 net.cpp:380] conv3_1 -> conv3_1
I0725 10:56:56.046967 13372 net.cpp:122] Setting up conv3_1
I0725 10:56:56.047014 13372 net.cpp:129] Top shape: 1 256 176 256 (11534336)
I0725 10:56:56.047026 13372 net.cpp:137] Memory required for data: 1231425536
I0725 10:56:56.047056 13372 layer_factory.hpp:77] Creating layer relu3_1
I0725 10:56:56.047076 13372 net.cpp:84] Creating Layer relu3_1
I0725 10:56:56.047087 13372 net.cpp:406] relu3_1 <- conv3_1
I0725 10:56:56.047102 13372 net.cpp:367] relu3_1 -> conv3_1 (in-place)
I0725 10:56:56.047600 13372 net.cpp:122] Setting up relu3_1
I0725 10:56:56.047626 13372 net.cpp:129] Top shape: 1 256 176 256 (11534336)
I0725 10:56:56.047634 13372 net.cpp:137] Memory required for data: 1277562880
I0725 10:56:56.047643 13372 layer_factory.hpp:77] Creating layer conv3_2
I0725 10:56:56.047668 13372 net.cpp:84] Creating Layer conv3_2
I0725 10:56:56.047679 13372 net.cpp:406] conv3_2 <- conv3_1
I0725 10:56:56.047695 13372 net.cpp:380] conv3_2 -> conv3_2
I0725 10:56:56.115157 13372 net.cpp:122] Setting up conv3_2
I0725 10:56:56.115209 13372 net.cpp:129] Top shape: 1 256 176 256 (11534336)
I0725 10:56:56.115221 13372 net.cpp:137] Memory required for data: 1323700224
I0725 10:56:56.115243 13372 layer_factory.hpp:77] Creating layer relu3_2
I0725 10:56:56.115269 13372 net.cpp:84] Creating Layer relu3_2
I0725 10:56:56.115280 13372 net.cpp:406] relu3_2 <- conv3_2
I0725 10:56:56.115298 13372 net.cpp:367] relu3_2 -> conv3_2 (in-place)
I0725 10:56:56.115808 13372 net.cpp:122] Setting up relu3_2
I0725 10:56:56.115833 13372 net.cpp:129] Top shape: 1 256 176 256 (11534336)
I0725 10:56:56.115839 13372 net.cpp:137] Memory required for data: 1369837568
I0725 10:56:56.115847 13372 layer_factory.hpp:77] Creating layer conv3_3
I0725 10:56:56.115871 13372 net.cpp:84] Creating Layer conv3_3
I0725 10:56:56.115881 13372 net.cpp:406] conv3_3 <- conv3_2
I0725 10:56:56.115897 13372 net.cpp:380] conv3_3 -> conv3_3
I0725 10:56:56.136260 13372 net.cpp:122] Setting up conv3_3
I0725 10:56:56.136303 13372 net.cpp:129] Top shape: 1 256 176 256 (11534336)
I0725 10:56:56.136313 13372 net.cpp:137] Memory required for data: 1415974912
I0725 10:56:56.136389 13372 layer_factory.hpp:77] Creating layer relu3_3
I0725 10:56:56.136416 13372 net.cpp:84] Creating Layer relu3_3
I0725 10:56:56.136432 13372 net.cpp:406] relu3_3 <- conv3_3
I0725 10:56:56.136446 13372 net.cpp:367] relu3_3 -> conv3_3 (in-place)
I0725 10:56:56.137869 13372 net.cpp:122] Setting up relu3_3
I0725 10:56:56.137897 13372 net.cpp:129] Top shape: 1 256 176 256 (11534336)
I0725 10:56:56.137905 13372 net.cpp:137] Memory required for data: 1462112256
I0725 10:56:56.137914 13372 layer_factory.hpp:77] Creating layer pool3
I0725 10:56:56.137929 13372 net.cpp:84] Creating Layer pool3
I0725 10:56:56.137938 13372 net.cpp:406] pool3 <- conv3_3
I0725 10:56:56.137950 13372 net.cpp:380] pool3 -> pool3
I0725 10:56:56.138075 13372 net.cpp:122] Setting up pool3
I0725 10:56:56.138090 13372 net.cpp:129] Top shape: 1 256 88 128 (2883584)
I0725 10:56:56.138098 13372 net.cpp:137] Memory required for data: 1473646592
I0725 10:56:56.138104 13372 layer_factory.hpp:77] Creating layer conv4_1
I0725 10:56:56.138123 13372 net.cpp:84] Creating Layer conv4_1
I0725 10:56:56.138131 13372 net.cpp:406] conv4_1 <- pool3
I0725 10:56:56.138144 13372 net.cpp:380] conv4_1 -> conv4_1
I0725 10:56:56.167105 13372 net.cpp:122] Setting up conv4_1
I0725 10:56:56.167148 13372 net.cpp:129] Top shape: 1 512 88 128 (5767168)
I0725 10:56:56.167156 13372 net.cpp:137] Memory required for data: 1496715264
I0725 10:56:56.167172 13372 layer_factory.hpp:77] Creating layer relu4_1
I0725 10:56:56.167186 13372 net.cpp:84] Creating Layer relu4_1
I0725 10:56:56.167196 13372 net.cpp:406] relu4_1 <- conv4_1
I0725 10:56:56.167207 13372 net.cpp:367] relu4_1 -> conv4_1 (in-place)
I0725 10:56:56.167551 13372 net.cpp:122] Setting up relu4_1
I0725 10:56:56.167567 13372 net.cpp:129] Top shape: 1 512 88 128 (5767168)
I0725 10:56:56.167573 13372 net.cpp:137] Memory required for data: 1519783936
I0725 10:56:56.167582 13372 layer_factory.hpp:77] Creating layer conv4_2
I0725 10:56:56.167598 13372 net.cpp:84] Creating Layer conv4_2
I0725 10:56:56.167605 13372 net.cpp:406] conv4_2 <- conv4_1
I0725 10:56:56.167618 13372 net.cpp:380] conv4_2 -> conv4_2
I0725 10:56:56.211714 13372 net.cpp:122] Setting up conv4_2
I0725 10:56:56.211746 13372 net.cpp:129] Top shape: 1 512 88 128 (5767168)
I0725 10:56:56.211752 13372 net.cpp:137] Memory required for data: 1542852608
I0725 10:56:56.211771 13372 layer_factory.hpp:77] Creating layer relu4_2
I0725 10:56:56.211784 13372 net.cpp:84] Creating Layer relu4_2
I0725 10:56:56.211791 13372 net.cpp:406] relu4_2 <- conv4_2
I0725 10:56:56.211802 13372 net.cpp:367] relu4_2 -> conv4_2 (in-place)
I0725 10:56:56.212733 13372 net.cpp:122] Setting up relu4_2
I0725 10:56:56.212754 13372 net.cpp:129] Top shape: 1 512 88 128 (5767168)
I0725 10:56:56.212760 13372 net.cpp:137] Memory required for data: 1565921280
I0725 10:56:56.212766 13372 layer_factory.hpp:77] Creating layer conv4_3
I0725 10:56:56.212781 13372 net.cpp:84] Creating Layer conv4_3
I0725 10:56:56.212788 13372 net.cpp:406] conv4_3 <- conv4_2
I0725 10:56:56.212798 13372 net.cpp:380] conv4_3 -> conv4_3
I0725 10:56:56.249629 13372 net.cpp:122] Setting up conv4_3
I0725 10:56:56.249667 13372 net.cpp:129] Top shape: 1 512 88 128 (5767168)
I0725 10:56:56.249673 13372 net.cpp:137] Memory required for data: 1588989952
I0725 10:56:56.249685 13372 layer_factory.hpp:77] Creating layer relu4_3
I0725 10:56:56.249696 13372 net.cpp:84] Creating Layer relu4_3
I0725 10:56:56.249702 13372 net.cpp:406] relu4_3 <- conv4_3
I0725 10:56:56.249711 13372 net.cpp:367] relu4_3 -> conv4_3 (in-place)
I0725 10:56:56.250536 13372 net.cpp:122] Setting up relu4_3
I0725 10:56:56.250552 13372 net.cpp:129] Top shape: 1 512 88 128 (5767168)
I0725 10:56:56.250557 13372 net.cpp:137] Memory required for data: 1612058624
I0725 10:56:56.250563 13372 layer_factory.hpp:77] Creating layer pool4
I0725 10:56:56.250572 13372 net.cpp:84] Creating Layer pool4
I0725 10:56:56.250578 13372 net.cpp:406] pool4 <- conv4_3
I0725 10:56:56.250586 13372 net.cpp:380] pool4 -> pool4
I0725 10:56:56.250669 13372 net.cpp:122] Setting up pool4
I0725 10:56:56.250715 13372 net.cpp:129] Top shape: 1 512 88 128 (5767168)
I0725 10:56:56.250723 13372 net.cpp:137] Memory required for data: 1635127296
I0725 10:56:56.250731 13372 layer_factory.hpp:77] Creating layer conv5_1
I0725 10:56:56.250749 13372 net.cpp:84] Creating Layer conv5_1
I0725 10:56:56.250754 13372 net.cpp:406] conv5_1 <- pool4
I0725 10:56:56.250763 13372 net.cpp:380] conv5_1 -> conv5_1
I0725 10:56:56.281321 13372 net.cpp:122] Setting up conv5_1
I0725 10:56:56.281350 13372 net.cpp:129] Top shape: 1 512 88 128 (5767168)
I0725 10:56:56.281355 13372 net.cpp:137] Memory required for data: 1658195968
I0725 10:56:56.281366 13372 layer_factory.hpp:77] Creating layer relu5_1
I0725 10:56:56.281378 13372 net.cpp:84] Creating Layer relu5_1
I0725 10:56:56.281383 13372 net.cpp:406] relu5_1 <- conv5_1
I0725 10:56:56.281393 13372 net.cpp:367] relu5_1 -> conv5_1 (in-place)
I0725 10:56:56.281682 13372 net.cpp:122] Setting up relu5_1
I0725 10:56:56.281693 13372 net.cpp:129] Top shape: 1 512 88 128 (5767168)
I0725 10:56:56.281697 13372 net.cpp:137] Memory required for data: 1681264640
I0725 10:56:56.281702 13372 layer_factory.hpp:77] Creating layer conv5_2
I0725 10:56:56.281716 13372 net.cpp:84] Creating Layer conv5_2
I0725 10:56:56.281720 13372 net.cpp:406] conv5_2 <- conv5_1
I0725 10:56:56.281728 13372 net.cpp:380] conv5_2 -> conv5_2
I0725 10:56:56.309512 13372 net.cpp:122] Setting up conv5_2
I0725 10:56:56.309541 13372 net.cpp:129] Top shape: 1 512 88 128 (5767168)
I0725 10:56:56.309545 13372 net.cpp:137] Memory required for data: 1704333312
I0725 10:56:56.309552 13372 layer_factory.hpp:77] Creating layer relu5_2
I0725 10:56:56.309561 13372 net.cpp:84] Creating Layer relu5_2
I0725 10:56:56.309567 13372 net.cpp:406] relu5_2 <- conv5_2
I0725 10:56:56.309576 13372 net.cpp:367] relu5_2 -> conv5_2 (in-place)
I0725 10:56:56.310411 13372 net.cpp:122] Setting up relu5_2
I0725 10:56:56.310426 13372 net.cpp:129] Top shape: 1 512 88 128 (5767168)
I0725 10:56:56.310430 13372 net.cpp:137] Memory required for data: 1727401984
I0725 10:56:56.310432 13372 layer_factory.hpp:77] Creating layer conv5_3
I0725 10:56:56.310443 13372 net.cpp:84] Creating Layer conv5_3
I0725 10:56:56.310448 13372 net.cpp:406] conv5_3 <- conv5_2
I0725 10:56:56.310456 13372 net.cpp:380] conv5_3 -> conv5_3
I0725 10:56:56.336130 13372 net.cpp:122] Setting up conv5_3
I0725 10:56:56.336156 13372 net.cpp:129] Top shape: 1 512 88 128 (5767168)
I0725 10:56:56.336161 13372 net.cpp:137] Memory required for data: 1750470656
I0725 10:56:56.336170 13372 layer_factory.hpp:77] Creating layer relu5_3
I0725 10:56:56.336184 13372 net.cpp:84] Creating Layer relu5_3
I0725 10:56:56.336189 13372 net.cpp:406] relu5_3 <- conv5_3
I0725 10:56:56.336196 13372 net.cpp:367] relu5_3 -> conv5_3 (in-place)
I0725 10:56:56.336444 13372 net.cpp:122] Setting up relu5_3
I0725 10:56:56.336455 13372 net.cpp:129] Top shape: 1 512 88 128 (5767168)
I0725 10:56:56.336458 13372 net.cpp:137] Memory required for data: 1773539328
I0725 10:56:56.336462 13372 layer_factory.hpp:77] Creating layer conv_score
I0725 10:56:56.336472 13372 net.cpp:84] Creating Layer conv_score
I0725 10:56:56.336475 13372 net.cpp:406] conv_score <- conv5_3
I0725 10:56:56.336483 13372 net.cpp:380] conv_score -> conv_score
I0725 10:56:57.238304 13372 net.cpp:122] Setting up conv_score
I0725 10:56:57.238344 13372 net.cpp:129] Top shape: 1 64 88 128 (720896)
I0725 10:56:57.238353 13372 net.cpp:137] Memory required for data: 1776422912
I0725 10:56:57.238368 13372 layer_factory.hpp:77] Creating layer relu_score
I0725 10:56:57.238392 13372 net.cpp:84] Creating Layer relu_score
I0725 10:56:57.238399 13372 net.cpp:406] relu_score <- conv_score
I0725 10:56:57.238406 13372 net.cpp:367] relu_score -> conv_score (in-place)
I0725 10:56:57.238646 13372 net.cpp:122] Setting up relu_score
I0725 10:56:57.238657 13372 net.cpp:129] Top shape: 1 64 88 128 (720896)
I0725 10:56:57.238661 13372 net.cpp:137] Memory required for data: 1779306496
I0725 10:56:57.238663 13372 layer_factory.hpp:77] Creating layer slicer_conv
I0725 10:56:57.238680 13372 net.cpp:84] Creating Layer slicer_conv
I0725 10:56:57.238724 13372 net.cpp:406] slicer_conv <- conv_score
I0725 10:56:57.238739 13372 net.cpp:380] slicer_conv -> score1
I0725 10:56:57.238752 13372 net.cpp:380] slicer_conv -> score2
…
I0725 10:56:57.239282 13372 net.cpp:380] slicer_conv -> score57
I0725 10:56:57.239292 13372 net.cpp:380] slicer_conv -> score58
I0725 10:56:57.239302 13372 net.cpp:380] slicer_conv -> score59
I0725 10:56:57.239311 13372 net.cpp:380] slicer_conv -> score60
I0725 10:56:57.239320 13372 net.cpp:380] slicer_conv -> score61
I0725 10:56:57.239329 13372 net.cpp:380] slicer_conv -> score62
I0725 10:56:57.239338 13372 net.cpp:380] slicer_conv -> score63
I0725 10:56:57.239364 13372 net.cpp:380] slicer_conv -> score64
I0725 10:56:57.240836 13372 net.cpp:122] Setting up slicer_conv
I0725 10:56:57.240846 13372 net.cpp:129] Top shape: 1 1 88 128 (11264)
I0725 10:56:57.240852 13372 net.cpp:129] Top shape: 1 1 88 128 (11264)
I0725 10:56:57.240856 13372 net.cpp:129] Top shape: 1 1 88 128 (11264)
I0725 10:56:57.240861 13372 net.cpp:129] Top shape: 1 1 88 128 (11264)
I0725 10:56:57.240865 13372 net.cpp:129] Top shape: 1 1 88 128 (11264)
I0725 10:56:57.240870 13372 net.cpp:129] Top shape: 1 1 88 128 (11264)
I0725 10:56:57.240875 13372 net.cpp:129] Top shape: 1 1 88 128 (11264)
I0725 10:56:57.240880 13372 net.cpp:129] Top shape: 1 1 88 128 (11264)
I0725 10:56:57.240885 13372 net.cpp:129] Top shape: 1 1 88 128 (11264)
I0725 10:56:57.240888 13372 net.cpp:129] Top shape: 1 1 88 128 (11264)
I0725 10:56:57.240895 13372 net.cpp:129] Top shape: 1 1 88 128 (11264)
I0725 10:56:57.240900 13372 net.cpp:129] Top shape: 1 1 88 128 (11264)
I0725 10:56:57.240905 13372 net.cpp:129] Top shape: 1 1 88 128 (11264)
I0725 10:56:57.240909 13372 net.cpp:129] Top shape: 1 1 88 128 (11264)
I0725 10:56:57.240913 13372 net.cpp:129] Top shape: 1 1 88 128 (11264)
I0725 10:56:57.240918 13372 net.cpp:129] Top shape: 1 1 88 128 (11264)
I0725 10:56:57.240923 13372 net.cpp:129] Top shape: 1 1 88 128 (11264)
I0725 10:56:57.240927 13372 net.cpp:129] Top shape: 1 1 88 128 (11264)
I0725 10:56:57.240932 13372 net.cpp:129] Top shape: 1 1 88 128 (11264)
I0725 10:56:57.240936 13372 net.cpp:129] Top shape: 1 1 88 128 (11264)
I0725 10:56:57.240942 13372 net.cpp:129] Top shape: 1 1 88 128 (11264)
I0725 10:56:57.240947 13372 net.cpp:129] Top shape: 1 1 88 128 (11264)
I0725 10:56:57.240950 13372 net.cpp:129] Top shape: 1 1 88 128 (11264)
I0725 10:56:57.240955 13372 net.cpp:129] Top shape: 1 1 88 128 (11264)
I0725 10:56:57.240959 13372 net.cpp:129] Top shape: 1 1 88 128 (11264)
I0725 10:56:57.240964 13372 net.cpp:129] Top shape: 1 1 88 128 (11264)
I0725 10:56:57.240968 13372 net.cpp:129] Top shape: 1 1 88 128 (11264)
I0725 10:56:57.240973 13372 net.cpp:129] Top shape: 1 1 88 128 (11264)
I0725 10:56:57.240978 13372 net.cpp:129] Top shape: 1 1 88 128 (11264)
I0725 10:56:57.240983 13372 net.cpp:129] Top shape: 1 1 88 128 (11264)
I0725 10:56:57.240986 13372 net.cpp:129] Top shape: 1 1 88 128 (11264)
I0725 10:56:57.240991 13372 net.cpp:129] Top shape: 1 1 88 128 (11264)
I0725 10:56:57.240995 13372 net.cpp:129] Top shape: 1 1 88 128 (11264)
I0725 10:56:57.241000 13372 net.cpp:129] Top shape: 1 1 88 128 (11264)
I0725 10:56:57.241004 13372 net.cpp:129] Top shape: 1 1 88 128 (11264)
I0725 10:56:57.241009 13372 net.cpp:129] Top shape: 1 1 88 128 (11264)
I0725 10:56:57.241014 13372 net.cpp:129] Top shape: 1 1 88 128 (11264)
I0725 10:56:57.241019 13372 net.cpp:129] Top shape: 1 1 88 128 (11264)
I0725 10:56:57.241024 13372 net.cpp:129] Top shape: 1 1 88 128 (11264)
I0725 10:56:57.241027 13372 net.cpp:129] Top shape: 1 1 88 128 (11264)
I0725 10:56:57.241032 13372 net.cpp:129] Top shape: 1 1 88 128 (11264)
I0725 10:56:57.241036 13372 net.cpp:129] Top shape: 1 1 88 128 (11264)
I0725 10:56:57.241041 13372 net.cpp:129] Top shape: 1 1 88 128 (11264)
I0725 10:56:57.241046 13372 net.cpp:129] Top shape: 1 1 88 128 (11264)
I0725 10:56:57.241051 13372 net.cpp:129] Top shape: 1 1 88 128 (11264)
I0725 10:56:57.241055 13372 net.cpp:129] Top shape: 1 1 88 128 (11264)
I0725 10:56:57.241060 13372 net.cpp:129] Top shape: 1 1 88 128 (11264)
I0725 10:56:57.241065 13372 net.cpp:129] Top shape: 1 1 88 128 (11264)
I0725 10:56:57.241070 13372 net.cpp:129] Top shape: 1 1 88 128 (11264)
I0725 10:56:57.241073 13372 net.cpp:129] Top shape: 1 1 88 128 (11264)
I0725 10:56:57.241078 13372 net.cpp:129] Top shape: 1 1 88 128 (11264)
I0725 10:56:57.241082 13372 net.cpp:129] Top shape: 1 1 88 128 (11264)
I0725 10:56:57.241087 13372 net.cpp:129] Top shape: 1 1 88 128 (11264)
I0725 10:56:57.241091 13372 net.cpp:129] Top shape: 1 1 88 128 (11264)
I0725 10:56:57.241096 13372 net.cpp:129] Top shape: 1 1 88 128 (11264)
I0725 10:56:57.241101 13372 net.cpp:129] Top shape: 1 1 88 128 (11264)
I0725 10:56:57.241118 13372 net.cpp:129] Top shape: 1 1 88 128 (11264)
I0725 10:56:57.241123 13372 net.cpp:129] Top shape: 1 1 88 128 (11264)
I0725 10:56:57.241127 13372 net.cpp:129] Top shape: 1 1 88 128 (11264)
I0725 10:56:57.241132 13372 net.cpp:129] Top shape: 1 1 88 128 (11264)
I0725 10:56:57.241137 13372 net.cpp:129] Top shape: 1 1 88 128 (11264)
I0725 10:56:57.241142 13372 net.cpp:129] Top shape: 1 1 88 128 (11264)
I0725 10:56:57.241147 13372 net.cpp:129] Top shape: 1 1 88 128 (11264)
I0725 10:56:57.241152 13372 net.cpp:129] Top shape: 1 1 88 128 (11264)
I0725 10:56:57.241154 13372 net.cpp:137] Memory required for data: 1782190080
I0725 10:56:57.241159 13372 layer_factory.hpp:77] Creating layer sumscore
I0725 10:56:57.241173 13372 net.cpp:84] Creating Layer sumscore
I0725 10:56:57.241178 13372 net.cpp:406] sumscore <- score1
I0725 10:56:57.241184 13372 net.cpp:406] sumscore <- score2
I0725 10:56:57.241189 13372 net.cpp:406] sumscore <- score3
…
