…
I0616 15:26:27.294106 16745 net.cpp:51] Initializing net from parameters: 
name: "crowd_counting"
state {
  phase: TRAIN
  level: 0
  stage: ""
}
layer {
  name: "data"
  type: "Data"
  top: "data"
  include {
    phase: TRAIN
  }
  data_param {
    source: "/home/peiyong/Work/Zenglin/szl/ShanghaiTech/partA/train/image_lmdb"
    batch_size: 1
    backend: LMDB
  }
}
layer {
  name: "label"
  type: "Data"
  top: "label"
  include {
    phase: TRAIN
  }
  data_param {
    source: "/home/peiyong/Work/Zenglin/szl/ShanghaiTech/partA/train/dmap_lmdb"
    batch_size: 1
    backend: LMDB
  }
}
layer {
  name: "conv1"
  type: "Convolution"
  bottom: "data"
  top: "conv1"
  param {
    lr_mult: 1
    decay_mult: 1
  }
  param {
    lr_mult: 2
    decay_mult: 0
  }
  convolution_param {
    num_output: 16
    pad: 2
    kernel_size: 5
    stride: 1
    weight_filler {
      type: "gaussian"
      std: 0.01
    }
    bias_filler {
      type: "constant"
      value: 0
    }
  }
}
layer {
  name: "bn_conv1"
  type: "BatchNorm"
  bottom: "conv1"
  top: "conv1"
  batch_norm_param {
    use_global_stats: false
  }
}
layer {
  name: "scale_conv1"
  type: "Scale"
  bottom: "conv1"
  top: "conv1"
  scale_param {
    bias_term: true
  }
}
layer {
  name: "relu1"
  type: "ReLU"
  bottom: "conv1"
  top: "conv1"
}
layer {
  name: "pool1"
  type: "Pooling"
  bottom: "conv1"
  top: "pool1"
  pooling_param {
    pool: MAX
    kernel_size: 2
    stride: 2
  }
}
layer {
  name: "conv4_11"
  type: "Convolution"
  bottom: "pool1"
  top: "conv4_11"
  param {
    lr_mult: 1
    decay_mult: 1
  }
  param {
    lr_mult: 2
    decay_mult: 0
  }
  convolution_param {
    num_output: 24
    pad: 1
    kernel_size: 3
    stride: 1
    weight_filler {
      type: "gaussian"
      std: 0.01
    }
    bias_filler {
      type: "constant"
      value: 0
    }
  }
}
layer {
  name: "bn_conv4_11"
  type: "BatchNorm"
  bottom: "conv4_11"
  top: "conv4_11"
  batch_norm_param {
    use_global_stats: false
  }
}
layer {
  name: "scale_conv4_11"
  type: "Scale"
  bottom: "conv4_11"
  top: "conv4_11"
  scale_param {
    bias_term: true
  }
}
layer {
  name: "relu4_11"
  type: "ReLU"
  bottom: "conv4_11"
  top: "conv4_11"
}
layer {
  name: "conv4_12"
  type: "Convolution"
  bottom: "conv4_11"
  top: "conv4_12"
  param {
    lr_mult: 1
    decay_mult: 1
  }
  param {
    lr_mult: 2
    decay_mult: 0
  }
  convolution_param {
    num_output: 24
    pad: 1
    kernel_size: 3
    stride: 1
    weight_filler {
      type: "gaussian"
      std: 0.01
    }
    bias_filler {
      type: "constant"
      value: 0
    }
  }
}
layer {
  name: "bn_conv4_12"
  type: "BatchNorm"
  bottom: "conv4_12"
  top: "conv4_12"
  batch_norm_param {
    use_global_stats: false
  }
}
layer {
  name: "scale_conv4_12"
  type: "Scale"
  bottom: "conv4_12"
  top: "conv4_12"
  scale_param {
    bias_term: true
  }
}
layer {
  name: "relu4_12"
  type: "ReLU"
  bottom: "conv4_12"
  top: "conv4_12"
}
layer {
  name: "conv4_13"
  type: "Convolution"
  bottom: "conv4_12"
  top: "conv4_13"
  param {
    lr_mult: 1
    decay_mult: 1
  }
  param {
    lr_mult: 2
    decay_mult: 0
  }
  convolution_param {
    num_output: 24
    pad: 1
    kernel_size: 3
    stride: 1
    weight_filler {
      type: "gaussian"
      std: 0.01
    }
    bias_filler {
      type: "constant"
      value: 0
    }
  }
}
layer {
  name: "bn_conv4_13"
  type: "BatchNorm"
  bottom: "conv4_13"
  top: "conv4_13"
  batch_norm_param {
    use_global_stats: false
  }
}
layer {
  name: "scale_conv4_13"
  type: "Scale"
  bottom: "conv4_13"
  top: "conv4_13"
  scale_param {
    bias_term: true
  }
}
layer {
  name: "relu4_13"
  type: "ReLU"
  bottom: "conv4_13"
  top: "conv4_13"
}
layer {
  name: "conv4_21"
  type: "Convolution"
  bottom: "pool1"
  top: "conv4_21"
  param {
    lr_mult: 1
    decay_mult: 1
  }
  param {
    lr_mult: 2
    decay_mult: 0
  }
  convolution_param {
    num_output: 24
    pad: 1
    kernel_size: 3
    stride: 1
    weight_filler {
      type: "gaussian"
      std: 0.01
    }
    bias_filler {
      type: "constant"
      value: 0
    }
  }
}
layer {
  name: "bn_conv4_21"
  type: "BatchNorm"
  bottom: "conv4_21"
  top: "conv4_21"
  batch_norm_param {
    use_global_stats: false
  }
}
layer {
  name: "scale_conv4_21"
  type: "Scale"
  bottom: "conv4_21"
  top: "conv4_21"
  scale_param {
    bias_term: true
  }
}
layer {
  name: "relu4_21"
  type: "ReLU"
  bottom: "conv4_21"
  top: "conv4_21"
}
layer {
  name: "conv4_22"
  type: "Convolution"
  bottom: "conv4_21"
  top: "conv4_22"
  param {
    lr_mult: 1
    decay_mult: 1
  }
  param {
    lr_mult: 2
    decay_mult: 0
  }
  convolution_param {
    num_output: 24
    pad: 1
    kernel_size: 3
    stride: 1
    weight_filler {
      type: "gaussian"
      std: 0.01
    }
    bias_filler {
      type: "constant"
      value: 0
    }
  }
}
layer {
  name: "bn_conv4_22"
  type: "BatchNorm"
  bottom: "conv4_22"
  top: "conv4_22"
  batch_norm_param {
    use_global_stats: false
  }
}
layer {
  name: "scale_conv4_22"
  type: "Scale"
  bottom: "conv4_22"
  top: "conv4_22"
  scale_param {
    bias_term: true
  }
}
layer {
  name: "relu4_22"
  type: "ReLU"
  bottom: "conv4_22"
  top: "conv4_22"
}
layer {
  name: "conv4_31"
  type: "Convolution"
  bottom: "pool1"
  top: "conv4_31"
  param {
    lr_mult: 1
    decay_mult: 1
  }
  param {
    lr_mult: 2
    decay_mult: 0
  }
  convolution_param {
    num_output: 24
    pad: 1
    kernel_size: 3
    stride: 1
    weight_filler {
      type: "gaussian"
      std: 0.01
    }
    bias_filler {
      type: "constant"
      value: 0
    }
  }
}
layer {
  name: "bn_conv4_31"
  type: "BatchNorm"
  bottom: "conv4_31"
  top: "conv4_31"
  batch_norm_param {
    use_global_stats: false
  }
}
layer {
  name: "scale_conv4_31"
  type: "Scale"
  bottom: "conv4_31"
  top: "conv4_31"
  scale_param {
    bias_term: true
  }
}
layer {
  name: "relu4_31"
  type: "ReLU"
  bottom: "conv4_31"
  top: "conv4_31"
}
layer {
  name: "concat1"
  type: "Concat"
  bottom: "conv4_13"
  bottom: "conv4_22"
  bottom: "conv4_31"
  top: "conv4"
  concat_param {
    axis: 1
  }
}
layer {
  name: "pool2"
  type: "Pooling"
  bottom: "conv4"
  top: "pool2"
  pooling_param {
    pool: MAX
    kernel_size: 2
    stride: 2
  }
}
layer {
  name: "conv5_11"
  type: "Convolution"
  bottom: "pool2"
  top: "conv5_11"
  param {
    lr_mult: 1
    decay_mult: 1
  }
  param {
    lr_mult: 2
    decay_mult: 0
  }
  convolution_param {
    num_output: 32
    pad: 1
    kernel_size: 3
    stride: 1
    weight_filler {
      type: "gaussian"
      std: 0.01
    }
    bias_filler {
      type: "constant"
      value: 0
    }
  }
}
layer {
  name: "bn_conv5_11"
  type: "BatchNorm"
  bottom: "conv5_11"
  top: "conv5_11"
  batch_norm_param {
    use_global_stats: false
  }
}
layer {
  name: "scale_conv5_11"
  type: "Scale"
  bottom: "conv5_11"
  top: "conv5_11"
  scale_param {
    bias_term: true
  }
}
layer {
  name: "relu5_11"
  type: "ReLU"
  bottom: "conv5_11"
  top: "conv5_11"
}
layer {
  name: "conv5_12"
  type: "Convolution"
  bottom: "conv5_11"
  top: "conv5_12"
  param {
    lr_mult: 1
    decay_mult: 1
  }
  param {
    lr_mult: 2
    decay_mult: 0
  }
  convolution_param {
    num_output: 32
    pad: 1
    kernel_size: 3
    stride: 1
    weight_filler {
      type: "gaussian"
      std: 0.01
    }
    bias_filler {
      type: "constant"
      value: 0
    }
  }
}
layer {
  name: "bn_conv5_12"
  type: "BatchNorm"
  bottom: "conv5_12"
  top: "conv5_12"
  batch_norm_param {
    use_global_stats: false
  }
}
layer {
  name: "scale_conv5_12"
  type: "Scale"
  bottom: "conv5_12"
  top: "conv5_12"
  scale_param {
    bias_term: true
  }
}
layer {
  name: "relu5_12"
  type: "ReLU"
  bottom: "conv5_12"
  top: "conv5_12"
}
layer {
  name: "conv5_13"
  type: "Convolution"
  bottom: "conv5_12"
  top: "conv5_13"
  param {
    lr_mult: 1
    decay_mult: 1
  }
  param {
    lr_mult: 2
    decay_mult: 0
  }
  convolution_param {
    num_output: 32
    pad: 1
    kernel_size: 3
    stride: 1
    weight_filler {
      type: "gaussian"
      std: 0.01
    }
    bias_filler {
      type: "constant"
      value: 0
    }
  }
}
layer {
  name: "bn_conv5_13"
  type: "BatchNorm"
  bottom: "conv5_13"
  top: "conv5_13"
  batch_norm_param {
    use_global_stats: false
  }
}
layer {
  name: "scale_conv5_13"
  type: "Scale"
  bottom: "conv5_13"
  top: "conv5_13"
  scale_param {
    bias_term: true
  }
}
layer {
  name: "relu5_13"
  type: "ReLU"
  bottom: "conv5_13"
  top: "conv5_13"
}
layer {
  name: "conv5_21"
  type: "Convolution"
  bottom: "pool2"
  top: "conv5_21"
  param {
    lr_mult: 1
    decay_mult: 1
  }
  param {
    lr_mult: 2
    decay_mult: 0
  }
  convolution_param {
    num_output: 32
    pad: 1
    kernel_size: 3
    stride: 1
    weight_filler {
      type: "gaussian"
      std: 0.01
    }
    bias_filler {
      type: "constant"
      value: 0
    }
  }
}
layer {
  name: "bn_conv5_21"
  type: "BatchNorm"
  bottom: "conv5_21"
  top: "conv5_21"
  batch_norm_param {
    use_global_stats: false
  }
}
layer {
  name: "scale_conv5_21"
  type: "Scale"
  bottom: "conv5_21"
  top: "conv5_21"
  scale_param {
    bias_term: true
  }
}
layer {
  name: "relu5_21"
  type: "ReLU"
  bottom: "conv5_21"
  top: "conv5_21"
}
layer {
  name: "conv5_22"
  type: "Convolution"
  bottom: "conv5_21"
  top: "conv5_22"
  param {
    lr_mult: 1
    decay_mult: 1
  }
  param {
    lr_mult: 2
    decay_mult: 0
  }
  convolution_param {
    num_output: 32
    pad: 1
    kernel_size: 3
    stride: 1
    weight_filler {
      type: "gaussian"
      std: 0.01
    }
    bias_filler {
      type: "constant"
      value: 0
    }
  }
}
layer {
  name: "bn_conv5_22"
  type: "BatchNorm"
  bottom: "conv5_22"
  top: "conv5_22"
  batch_norm_param {
    use_global_stats: false
  }
}
layer {
  name: "scale_conv5_22"
  type: "Scale"
  bottom: "conv5_22"
  top: "conv5_22"
  scale_param {
    bias_term: true
  }
}
layer {
  name: "relu5_22"
  type: "ReLU"
  bottom: "conv5_22"
  top: "conv5_22"
}
layer {
  name: "conv5_31"
  type: "Convolution"
  bottom: "pool2"
  top: "conv5_31"
  param {
    lr_mult: 1
    decay_mult: 1
  }
  param {
    lr_mult: 2
    decay_mult: 0
  }
  convolution_param {
    num_output: 32
    pad: 1
    kernel_size: 3
    stride: 1
    weight_filler {
      type: "gaussian"
      std: 0.01
    }
    bias_filler {
      type: "constant"
      value: 0
    }
  }
}
layer {
  name: "bn_conv5_31"
  type: "BatchNorm"
  bottom: "conv5_31"
  top: "conv5_31"
  batch_norm_param {
    use_global_stats: false
  }
}
layer {
  name: "scale_conv5_31"
  type: "Scale"
  bottom: "conv5_31"
  top: "conv5_31"
  scale_param {
    bias_term: true
  }
}
layer {
  name: "relu5_31"
  type: "ReLU"
  bottom: "conv5_31"
  top: "conv5_31"
}
layer {
  name: "concat2"
  type: "Concat"
  bottom: "conv5_13"
  bottom: "conv5_22"
  bottom: "conv5_31"
  top: "conv5"
  concat_param {
    axis: 1
  }
}
layer {
  name: "conv6"
  type: "Convolution"
  bottom: "conv5"
  top: "conv_score"
  param {
    lr_mult: 1
    decay_mult: 1
  }
  param {
    lr_mult: 2
    decay_mult: 0
  }
  convolution_param {
    num_output: 32
    pad: 0
    kernel_size: 1
    group: 32
    stride: 1
    weight_filler {
      type: "gaussian"
      std: 0.01
    }
    bias_filler {
      type: "constant"
      value: 0
    }
  }
}
layer {
  name: "relu6"
  type: "ReLU"
  bottom: "conv_score"
  top: "conv_score"
}
layer {
  name: "slicer_conv"
  type: "Slice"
  bottom: "conv_score"
  top: "score1"
  top: "score2"
  top: "score3"
  top: "score4"
  top: "score5"
  top: "score6"
  top: "score7"
  top: "score8"
  top: "score9"
  top: "score10"
  top: "score11"
  top: "score12"
  top: "score13"
  top: "score14"
  top: "score15"
  top: "score16"
  top: "score17"
  top: "score18"
  top: "score19"
  top: "score20"
  top: "score21"
  top: "score22"
  top: "score23"
  top: "score24"
  top: "score25"
  top: "score26"
  top: "score27"
  top: "score28"
  top: "score29"
  top: "score30"
  top: "score31"
  top: "score32"
  slice_param {
    axis: 1
  }
}
layer {
  name: "sumscore"
  type: "Eltwise"
  bottom: "score1"
  bottom: "score2"
  bottom: "score3"
  bottom: "score4"
  bottom: "score5"
  bottom: "score6"
  bottom: "score7"
  bottom: "score8"
  bottom: "score9"
  bottom: "score10"
  bottom: "score11"
  bottom: "score12"
  bottom: "score13"
  bottom: "score14"
  bottom: "score15"
  bottom: "score16"
  bottom: "score17"
  bottom: "score18"
  bottom: "score19"
  bottom: "score20"
  bottom: "score21"
  bottom: "score22"
  bottom: "score23"
  bottom: "score24"
  bottom: "score25"
  bottom: "score26"
  bottom: "score27"
  bottom: "score28"
  bottom: "score29"
  bottom: "score30"
  bottom: "score31"
  bottom: "score32"
  top: "sumscore"
  eltwise_param {
    operation: SUM
  }
}
layer {
  name: "loss1"
  type: "NCLLoss"
  bottom: "score1"
  bottom: "label"
  bottom: "sumscore"
  top: "loss1"
  include {
    phase: TRAIN
  }
  ncl_loss_param {
    lambda: 0.0001
    net_num: 32
  }
}
layer {
  name: "loss2"
  type: "NCLLoss"
  bottom: "score2"
  bottom: "label"
  bottom: "sumscore"
  top: "loss2"
  include {
    phase: TRAIN
  }
  ncl_loss_param {
    lambda: 0.0001
    net_num: 32
  }
}
layer {
  name: "loss3"
  type: "NCLLoss"
  bottom: "score3"
  bottom: "label"
  bottom: "sumscore"
  top: "loss3"
  include {
    phase: TRAIN
  }
  ncl_loss_param {
    lambda: 0.0001
    net_num: 32
  }
}
layer {
  name: "loss4"
  type: "NCLLoss"
  bottom: "score4"
  bottom: "label"
  bottom: "sumscore"
  top: "loss4"
  include {
    phase: TRAIN
  }
  ncl_loss_param {
    lambda: 0.0001
    net_num: 32
  }
}
layer {
  name: "loss5"
  type: "NCLLoss"
  bottom: "score5"
  bottom: "label"
  bottom: "sumscore"
  top: "loss5"
  include {
    phase: TRAIN
  }
  ncl_loss_param {
    lambda: 0.0001
    net_num: 32
  }
}
layer {
  name: "loss6"
  type: "NCLLoss"
  bottom: "score6"
  bottom: "label"
  bottom: "sumscore"
  top: "loss6"
  include {
    phase: TRAIN
  }
  ncl_loss_param {
    lambda: 0.0001
    net_num: 32
  }
}
layer {
  name: "loss7"
  type: "NCLLoss"
  bottom: "score7"
  bottom: "label"
  bottom: "sumscore"
  top: "loss7"
  include {
    phase: TRAIN
  }
  ncl_loss_param {
    lambda: 0.0001
    net_num: 32
  }
}
layer {
  name: "loss8"
  type: "NCLLoss"
  bottom: "score8"
  bottom: "label"
  bottom: "sumscore"
  top: "loss8"
  include {
    phase: TRAIN
  }
  ncl_loss_param {
    lambda: 0.0001
    net_num: 32
  }
}
layer {
  name: "loss9"
  type: "NCLLoss"
  bottom: "score9"
  bottom: "label"
  bottom: "sumscore"
  top: "loss9"
  include {
    phase: TRAIN
  }
  ncl_loss_param {
    lambda: 0.0001
    net_num: 32
  }
}
layer {
  name: "loss10"
  type: "NCLLoss"
  bottom: "score10"
  bottom: "label"
  bottom: "sumscore"
  top: "loss10"
  include {
    phase: TRAIN
  }
  ncl_loss_param {
    lambda: 0.0001
    net_num: 32
  }
}
layer {
  name: "loss11"
  type: "NCLLoss"
  bottom: "score11"
  bottom: "label"
  bottom: "sumscore"
  top: "loss11"
  include {
    phase: TRAIN
  }
  ncl_loss_param {
    lambda: 0.0001
    net_num: 32
  }
}
layer {
  name: "loss12"
  type: "NCLLoss"
  bottom: "score12"
  bottom: "label"
  bottom: "sumscore"
  top: "loss12"
  include {
    phase: TRAIN
  }
  ncl_loss_param {
    lambda: 0.0001
    net_num: 32
  }
}
layer {
  name: "loss13"
  type: "NCLLoss"
  bottom: "score13"
  bottom: "label"
  bottom: "sumscore"
  top: "loss13"
  include {
    phase: TRAIN
  }
  ncl_loss_param {
    lambda: 0.0001
    net_num: 32
  }
}
layer {
  name: "loss14"
  type: "NCLLoss"
  bottom: "score14"
  bottom: "label"
  bottom: "sumscore"
  top: "loss14"
  include {
    phase: TRAIN
  }
  ncl_loss_param {
    lambda: 0.0001
    net_num: 32
  }
}
layer {
  name: "loss15"
  type: "NCLLoss"
  bottom: "score15"
  bottom: "label"
  bottom: "sumscore"
  top: "loss15"
  include {
    phase: TRAIN
  }
  ncl_loss_param {
    lambda: 0.0001
    net_num: 32
  }
}
layer {
  name: "loss16"
  type: "NCLLoss"
  bottom: "score16"
  bottom: "label"
  bottom: "sumscore"
  top: "loss16"
  include {
    phase: TRAIN
  }
  ncl_loss_param {
    lambda: 0.0001
    net_num: 32
  }
}
layer {
  name: "loss17"
  type: "NCLLoss"
  bottom: "score17"
  bottom: "label"
  bottom: "sumscore"
  top: "loss17"
  include {
    phase: TRAIN
  }
  ncl_loss_param {
    lambda: 0.0001
    net_num: 32
  }
}
layer {
  name: "loss18"
  type: "NCLLoss"
  bottom: "score18"
  bottom: "label"
  bottom: "sumscore"
  top: "loss18"
  include {
    phase: TRAIN
  }
  ncl_loss_param {
    lambda: 0.0001
    net_num: 32
  }
}
layer {
  name: "loss19"
  type: "NCLLoss"
  bottom: "score19"
  bottom: "label"
  bottom: "sumscore"
  top: "loss19"
  include {
    phase: TRAIN
  }
  ncl_loss_param {
    lambda: 0.0001
    net_num: 32
  }
}
layer {
  name: "loss20"
  type: "NCLLoss"
  bottom: "score20"
  bottom: "label"
  bottom: "sumscore"
  top: "loss20"
  include {
    phase: TRAIN
  }
  ncl_loss_param {
    lambda: 0.0001
    net_num: 32
  }
}
layer {
  name: "loss21"
  type: "NCLLoss"
  bottom: "score21"
  bottom: "label"
  bottom: "sumscore"
  top: "loss21"
  include {
    phase: TRAIN
  }
  ncl_loss_param {
    lambda: 0.0001
    net_num: 32
  }
}
layer {
  name: "loss22"
  type: "NCLLoss"
  bottom: "score22"
  bottom: "label"
  bottom: "sumscore"
  top: "loss22"
  include {
    phase: TRAIN
  }
  ncl_loss_param {
    lambda: 0.0001
    net_num: 32
  }
}
layer {
  name: "loss23"
  type: "NCLLoss"
  bottom: "score23"
  bottom: "label"
  bottom: "sumscore"
  top: "loss23"
  include {
    phase: TRAIN
  }
  ncl_loss_param {
    lambda: 0.0001
    net_num: 32
  }
}
layer {
  name: "loss24"
  type: "NCLLoss"
  bottom: "score24"
  bottom: "label"
  bottom: "sumscore"
  top: "loss24"
  include {
    phase: TRAIN
  }
  ncl_loss_param {
    lambda: 0.0001
    net_num: 32
  }
}
layer {
  name: "loss25"
  type: "NCLLoss"
  bottom: "score25"
  bottom: "label"
  bottom: "sumscore"
  top: "loss25"
  include {
    phase: TRAIN
  }
  ncl_loss_param {
    lambda: 0.0001
    net_num: 32
  }
}
layer {
  name: "loss26"
  type: "NCLLoss"
  bottom: "score26"
  bottom: "label"
  bottom: "sumscore"
  top: "loss26"
  include {
    phase: TRAIN
  }
  ncl_loss_param {
    lambda: 0.0001
    net_num: 32
  }
}
layer {
  name: "loss27"
  type: "NCLLoss"
  bottom: "score27"
  bottom: "label"
  bottom: "sumscore"
  top: "loss27"
  include {
    phase: TRAIN
  }
  ncl_loss_param {
    lambda: 0.0001
    net_num: 32
  }
}
layer {
  name: "loss28"
  type: "NCLLoss"
  bottom: "score28"
  bottom: "label"
  bottom: "sumscore"
  top: "loss28"
  include {
    phase: TRAIN
  }
  ncl_loss_param {
    lambda: 0.0001
    net_num: 32
  }
}
layer {
  name: "loss29"
  type: "NCLLoss"
  bottom: "score29"
  bottom: "label"
  bottom: "sumscore"
  top: "loss29"
  include {
    phase: TRAIN
  }
  ncl_loss_param {
    lambda: 0.0001
    net_num: 32
  }
}
layer {
  name: "loss30"
  type: "NCLLoss"
  bottom: "score30"
  bottom: "label"
  bottom: "sumscore"
  top: "loss30"
  include {
    phase: TRAIN
  }
  ncl_loss_param {
    lambda: 0.0001
    net_num: 32
  }
}
layer {
  name: "loss31"
  type: "NCLLoss"
  bottom: "score31"
  bottom: "label"
  bottom: "sumscore"
  top: "loss31"
  include {
    phase: TRAIN
  }
  ncl_loss_param {
    lambda: 0.0001
    net_num: 32
  }
}
layer {
  name: "loss32"
  type: "NCLLoss"
  bottom: "score32"
  bottom: "label"
  bottom: "sumscore"
  top: "loss32"
  include {
    phase: TRAIN
  }
  ncl_loss_param {
    lambda: 0.0001
    net_num: 32
  }
}
I0616 15:26:27.294971 16745 layer_factory.hpp:77] Creating layer data
I0616 15:26:27.297098 16745 db_lmdb.cpp:35] Opened lmdb /home/peiyong/Work/Zenglin/szl/ShanghaiTech/partA/train/image_lmdb
I0616 15:26:27.297998 16745 net.cpp:84] Creating Layer data
I0616 15:26:27.298028 16745 net.cpp:380] data -> data
I0616 15:26:27.300335 16745 data_layer.cpp:45] output data size: 1,1,410,512
I0616 15:26:27.307786 16745 net.cpp:122] Setting up data
I0616 15:26:27.307811 16745 net.cpp:129] Top shape: 1 1 410 512 (209920)
I0616 15:26:27.307816 16745 net.cpp:137] Memory required for data: 839680
I0616 15:26:27.307832 16745 layer_factory.hpp:77] Creating layer label
I0616 15:26:27.308318 16745 db_lmdb.cpp:35] Opened lmdb /home/peiyong/Work/Zenglin/szl/ShanghaiTech/partA/train/dmap_lmdb
I0616 15:26:27.309195 16745 net.cpp:84] Creating Layer label
I0616 15:26:27.309214 16745 net.cpp:380] label -> label
I0616 15:26:27.310262 16745 data_layer.cpp:45] output data size: 1,1,103,128
I0616 15:26:27.311151 16745 net.cpp:122] Setting up label
I0616 15:26:27.311177 16745 net.cpp:129] Top shape: 1 1 103 128 (13184)
I0616 15:26:27.311182 16745 net.cpp:137] Memory required for data: 892416
I0616 15:26:27.311189 16745 layer_factory.hpp:77] Creating layer label_label_0_split
I0616 15:26:27.311224 16745 net.cpp:84] Creating Layer label_label_0_split
I0616 15:26:27.311234 16745 net.cpp:406] label_label_0_split <- label
I0616 15:26:27.311259 16745 net.cpp:380] label_label_0_split -> label_label_0_split_0
…
I0616 15:26:27.311741 16745 net.cpp:380] label_label_0_split -> label_label_0_split_26
I0616 15:26:27.311790 16745 net.cpp:380] label_label_0_split -> label_label_0_split_27
I0616 15:26:27.311810 16745 net.cpp:380] label_label_0_split -> label_label_0_split_28
I0616 15:26:27.311827 16745 net.cpp:380] label_label_0_split -> label_label_0_split_29
I0616 15:26:27.311844 16745 net.cpp:380] label_label_0_split -> label_label_0_split_30
I0616 15:26:27.311868 16745 net.cpp:380] label_label_0_split -> label_label_0_split_31
I0616 15:26:27.312361 16745 net.cpp:122] Setting up label_label_0_split
I0616 15:26:27.312373 16745 net.cpp:129] Top shape: 1 1 103 128 (13184)
I0616 15:26:27.312382 16745 net.cpp:129] Top shape: 1 1 103 128 (13184)
I0616 15:26:27.312391 16745 net.cpp:129] Top shape: 1 1 103 128 (13184)
I0616 15:26:27.312398 16745 net.cpp:129] Top shape: 1 1 103 128 (13184)
I0616 15:26:27.312407 16745 net.cpp:129] Top shape: 1 1 103 128 (13184)
I0616 15:26:27.312413 16745 net.cpp:129] Top shape: 1 1 103 128 (13184)
I0616 15:26:27.312422 16745 net.cpp:129] Top shape: 1 1 103 128 (13184)
I0616 15:26:27.312430 16745 net.cpp:129] Top shape: 1 1 103 128 (13184)
I0616 15:26:27.312439 16745 net.cpp:129] Top shape: 1 1 103 128 (13184)
I0616 15:26:27.312448 16745 net.cpp:129] Top shape: 1 1 103 128 (13184)
I0616 15:26:27.312456 16745 net.cpp:129] Top shape: 1 1 103 128 (13184)
I0616 15:26:27.312464 16745 net.cpp:129] Top shape: 1 1 103 128 (13184)
I0616 15:26:27.312472 16745 net.cpp:129] Top shape: 1 1 103 128 (13184)
I0616 15:26:27.312480 16745 net.cpp:129] Top shape: 1 1 103 128 (13184)
I0616 15:26:27.312489 16745 net.cpp:129] Top shape: 1 1 103 128 (13184)
I0616 15:26:27.312496 16745 net.cpp:129] Top shape: 1 1 103 128 (13184)
I0616 15:26:27.312505 16745 net.cpp:129] Top shape: 1 1 103 128 (13184)
I0616 15:26:27.312512 16745 net.cpp:129] Top shape: 1 1 103 128 (13184)
I0616 15:26:27.312520 16745 net.cpp:129] Top shape: 1 1 103 128 (13184)
I0616 15:26:27.312528 16745 net.cpp:129] Top shape: 1 1 103 128 (13184)
I0616 15:26:27.312536 16745 net.cpp:129] Top shape: 1 1 103 128 (13184)
I0616 15:26:27.312543 16745 net.cpp:129] Top shape: 1 1 103 128 (13184)
I0616 15:26:27.312551 16745 net.cpp:129] Top shape: 1 1 103 128 (13184)
I0616 15:26:27.312559 16745 net.cpp:129] Top shape: 1 1 103 128 (13184)
I0616 15:26:27.312567 16745 net.cpp:129] Top shape: 1 1 103 128 (13184)
I0616 15:26:27.312575 16745 net.cpp:129] Top shape: 1 1 103 128 (13184)
I0616 15:26:27.312582 16745 net.cpp:129] Top shape: 1 1 103 128 (13184)
I0616 15:26:27.312590 16745 net.cpp:129] Top shape: 1 1 103 128 (13184)
I0616 15:26:27.312598 16745 net.cpp:129] Top shape: 1 1 103 128 (13184)
I0616 15:26:27.312605 16745 net.cpp:129] Top shape: 1 1 103 128 (13184)
I0616 15:26:27.312613 16745 net.cpp:129] Top shape: 1 1 103 128 (13184)
I0616 15:26:27.312621 16745 net.cpp:129] Top shape: 1 1 103 128 (13184)
I0616 15:26:27.312628 16745 net.cpp:137] Memory required for data: 2579968
I0616 15:26:27.312634 16745 layer_factory.hpp:77] Creating layer conv1
I0616 15:26:27.312655 16745 net.cpp:84] Creating Layer conv1
I0616 15:26:27.312662 16745 net.cpp:406] conv1 <- data
I0616 15:26:27.312674 16745 net.cpp:380] conv1 -> conv1
I0616 15:26:27.551120 16745 net.cpp:122] Setting up conv1
I0616 15:26:27.551147 16745 net.cpp:129] Top shape: 1 16 410 512 (3358720)
I0616 15:26:27.551151 16745 net.cpp:137] Memory required for data: 16014848
I0616 15:26:27.551170 16745 layer_factory.hpp:77] Creating layer bn_conv1
I0616 15:26:27.551182 16745 net.cpp:84] Creating Layer bn_conv1
I0616 15:26:27.551187 16745 net.cpp:406] bn_conv1 <- conv1
I0616 15:26:27.551193 16745 net.cpp:367] bn_conv1 -> conv1 (in-place)
I0616 15:26:27.551793 16745 net.cpp:122] Setting up bn_conv1
I0616 15:26:27.551805 16745 net.cpp:129] Top shape: 1 16 410 512 (3358720)
I0616 15:26:27.551807 16745 net.cpp:137] Memory required for data: 29449728
I0616 15:26:27.551816 16745 layer_factory.hpp:77] Creating layer scale_conv1
I0616 15:26:27.551823 16745 net.cpp:84] Creating Layer scale_conv1
I0616 15:26:27.551826 16745 net.cpp:406] scale_conv1 <- conv1
I0616 15:26:27.551831 16745 net.cpp:367] scale_conv1 -> conv1 (in-place)
I0616 15:26:27.551903 16745 layer_factory.hpp:77] Creating layer scale_conv1
I0616 15:26:27.552909 16745 net.cpp:122] Setting up scale_conv1
I0616 15:26:27.552922 16745 net.cpp:129] Top shape: 1 16 410 512 (3358720)
I0616 15:26:27.552924 16745 net.cpp:137] Memory required for data: 42884608
I0616 15:26:27.552929 16745 layer_factory.hpp:77] Creating layer relu1
I0616 15:26:27.552934 16745 net.cpp:84] Creating Layer relu1
I0616 15:26:27.552937 16745 net.cpp:406] relu1 <- conv1
I0616 15:26:27.552942 16745 net.cpp:367] relu1 -> conv1 (in-place)
I0616 15:26:27.553084 16745 net.cpp:122] Setting up relu1
I0616 15:26:27.553093 16745 net.cpp:129] Top shape: 1 16 410 512 (3358720)
I0616 15:26:27.553097 16745 net.cpp:137] Memory required for data: 56319488
I0616 15:26:27.553102 16745 layer_factory.hpp:77] Creating layer pool1
I0616 15:26:27.553110 16745 net.cpp:84] Creating Layer pool1
I0616 15:26:27.553113 16745 net.cpp:406] pool1 <- conv1
I0616 15:26:27.553119 16745 net.cpp:380] pool1 -> pool1
I0616 15:26:27.553164 16745 net.cpp:122] Setting up pool1
I0616 15:26:27.553170 16745 net.cpp:129] Top shape: 1 16 205 256 (839680)
I0616 15:26:27.553174 16745 net.cpp:137] Memory required for data: 59678208
I0616 15:26:27.553177 16745 layer_factory.hpp:77] Creating layer pool1_pool1_0_split
I0616 15:26:27.553184 16745 net.cpp:84] Creating Layer pool1_pool1_0_split
I0616 15:26:27.553189 16745 net.cpp:406] pool1_pool1_0_split <- pool1
I0616 15:26:27.553194 16745 net.cpp:380] pool1_pool1_0_split -> pool1_pool1_0_split_0
I0616 15:26:27.553200 16745 net.cpp:380] pool1_pool1_0_split -> pool1_pool1_0_split_1
I0616 15:26:27.553206 16745 net.cpp:380] pool1_pool1_0_split -> pool1_pool1_0_split_2
I0616 15:26:27.553253 16745 net.cpp:122] Setting up pool1_pool1_0_split
I0616 15:26:27.553262 16745 net.cpp:129] Top shape: 1 16 205 256 (839680)
I0616 15:26:27.553267 16745 net.cpp:129] Top shape: 1 16 205 256 (839680)
I0616 15:26:27.553272 16745 net.cpp:129] Top shape: 1 16 205 256 (839680)
I0616 15:26:27.553277 16745 net.cpp:137] Memory required for data: 69754368
I0616 15:26:27.553280 16745 layer_factory.hpp:77] Creating layer conv4_11
I0616 15:26:27.553292 16745 net.cpp:84] Creating Layer conv4_11
I0616 15:26:27.553295 16745 net.cpp:406] conv4_11 <- pool1_pool1_0_split_0
I0616 15:26:27.553300 16745 net.cpp:380] conv4_11 -> conv4_11
I0616 15:26:27.555740 16745 net.cpp:122] Setting up conv4_11
I0616 15:26:27.555752 16745 net.cpp:129] Top shape: 1 24 205 256 (1259520)
I0616 15:26:27.555757 16745 net.cpp:137] Memory required for data: 74792448
I0616 15:26:27.555768 16745 layer_factory.hpp:77] Creating layer bn_conv4_11
I0616 15:26:27.555776 16745 net.cpp:84] Creating Layer bn_conv4_11
I0616 15:26:27.555780 16745 net.cpp:406] bn_conv4_11 <- conv4_11
I0616 15:26:27.555788 16745 net.cpp:367] bn_conv4_11 -> conv4_11 (in-place)
I0616 15:26:27.555959 16745 net.cpp:122] Setting up bn_conv4_11
I0616 15:26:27.555968 16745 net.cpp:129] Top shape: 1 24 205 256 (1259520)
I0616 15:26:27.555972 16745 net.cpp:137] Memory required for data: 79830528
I0616 15:26:27.555982 16745 layer_factory.hpp:77] Creating layer scale_conv4_11
I0616 15:26:27.555989 16745 net.cpp:84] Creating Layer scale_conv4_11
I0616 15:26:27.555994 16745 net.cpp:406] scale_conv4_11 <- conv4_11
I0616 15:26:27.556000 16745 net.cpp:367] scale_conv4_11 -> conv4_11 (in-place)
I0616 15:26:27.556035 16745 layer_factory.hpp:77] Creating layer scale_conv4_11
I0616 15:26:27.556166 16745 net.cpp:122] Setting up scale_conv4_11
I0616 15:26:27.556175 16745 net.cpp:129] Top shape: 1 24 205 256 (1259520)
I0616 15:26:27.556180 16745 net.cpp:137] Memory required for data: 84868608
I0616 15:26:27.556187 16745 layer_factory.hpp:77] Creating layer relu4_11
I0616 15:26:27.556195 16745 net.cpp:84] Creating Layer relu4_11
I0616 15:26:27.556198 16745 net.cpp:406] relu4_11 <- conv4_11
I0616 15:26:27.556205 16745 net.cpp:367] relu4_11 -> conv4_11 (in-place)
I0616 15:26:27.556344 16745 net.cpp:122] Setting up relu4_11
I0616 15:26:27.556352 16745 net.cpp:129] Top shape: 1 24 205 256 (1259520)
I0616 15:26:27.556355 16745 net.cpp:137] Memory required for data: 89906688
I0616 15:26:27.556376 16745 layer_factory.hpp:77] Creating layer conv4_12
I0616 15:26:27.556387 16745 net.cpp:84] Creating Layer conv4_12
I0616 15:26:27.556391 16745 net.cpp:406] conv4_12 <- conv4_11
I0616 15:26:27.556398 16745 net.cpp:380] conv4_12 -> conv4_12
I0616 15:26:27.558518 16745 net.cpp:122] Setting up conv4_12
I0616 15:26:27.558532 16745 net.cpp:129] Top shape: 1 24 205 256 (1259520)
I0616 15:26:27.558537 16745 net.cpp:137] Memory required for data: 94944768
I0616 15:26:27.558547 16745 layer_factory.hpp:77] Creating layer bn_conv4_12
I0616 15:26:27.558554 16745 net.cpp:84] Creating Layer bn_conv4_12
I0616 15:26:27.558559 16745 net.cpp:406] bn_conv4_12 <- conv4_12
I0616 15:26:27.558565 16745 net.cpp:367] bn_conv4_12 -> conv4_12 (in-place)
I0616 15:26:27.558740 16745 net.cpp:122] Setting up bn_conv4_12
I0616 15:26:27.558748 16745 net.cpp:129] Top shape: 1 24 205 256 (1259520)
I0616 15:26:27.558751 16745 net.cpp:137] Memory required for data: 99982848
I0616 15:26:27.558763 16745 layer_factory.hpp:77] Creating layer scale_conv4_12
I0616 15:26:27.558769 16745 net.cpp:84] Creating Layer scale_conv4_12
I0616 15:26:27.558774 16745 net.cpp:406] scale_conv4_12 <- conv4_12
I0616 15:26:27.558780 16745 net.cpp:367] scale_conv4_12 -> conv4_12 (in-place)
I0616 15:26:27.558814 16745 layer_factory.hpp:77] Creating layer scale_conv4_12
I0616 15:26:27.558944 16745 net.cpp:122] Setting up scale_conv4_12
I0616 15:26:27.558954 16745 net.cpp:129] Top shape: 1 24 205 256 (1259520)
I0616 15:26:27.558957 16745 net.cpp:137] Memory required for data: 105020928
I0616 15:26:27.558965 16745 layer_factory.hpp:77] Creating layer relu4_12
I0616 15:26:27.558972 16745 net.cpp:84] Creating Layer relu4_12
I0616 15:26:27.558977 16745 net.cpp:406] relu4_12 <- conv4_12
I0616 15:26:27.558984 16745 net.cpp:367] relu4_12 -> conv4_12 (in-place)
I0616 15:26:27.559516 16745 net.cpp:122] Setting up relu4_12
I0616 15:26:27.559530 16745 net.cpp:129] Top shape: 1 24 205 256 (1259520)
I0616 15:26:27.559535 16745 net.cpp:137] Memory required for data: 110059008
I0616 15:26:27.559540 16745 layer_factory.hpp:77] Creating layer conv4_13
I0616 15:26:27.559554 16745 net.cpp:84] Creating Layer conv4_13
I0616 15:26:27.559559 16745 net.cpp:406] conv4_13 <- conv4_12
I0616 15:26:27.559566 16745 net.cpp:380] conv4_13 -> conv4_13
I0616 15:26:27.561678 16745 net.cpp:122] Setting up conv4_13
I0616 15:26:27.561692 16745 net.cpp:129] Top shape: 1 24 205 256 (1259520)
I0616 15:26:27.561697 16745 net.cpp:137] Memory required for data: 115097088
I0616 15:26:27.561707 16745 layer_factory.hpp:77] Creating layer bn_conv4_13
I0616 15:26:27.561713 16745 net.cpp:84] Creating Layer bn_conv4_13
I0616 15:26:27.561718 16745 net.cpp:406] bn_conv4_13 <- conv4_13
I0616 15:26:27.561724 16745 net.cpp:367] bn_conv4_13 -> conv4_13 (in-place)
I0616 15:26:27.561903 16745 net.cpp:122] Setting up bn_conv4_13
I0616 15:26:27.561913 16745 net.cpp:129] Top shape: 1 24 205 256 (1259520)
I0616 15:26:27.561916 16745 net.cpp:137] Memory required for data: 120135168
I0616 15:26:27.561924 16745 layer_factory.hpp:77] Creating layer scale_conv4_13
I0616 15:26:27.561931 16745 net.cpp:84] Creating Layer scale_conv4_13
I0616 15:26:27.561935 16745 net.cpp:406] scale_conv4_13 <- conv4_13
I0616 15:26:27.561941 16745 net.cpp:367] scale_conv4_13 -> conv4_13 (in-place)
I0616 15:26:27.561975 16745 layer_factory.hpp:77] Creating layer scale_conv4_13
I0616 15:26:27.562110 16745 net.cpp:122] Setting up scale_conv4_13
I0616 15:26:27.562119 16745 net.cpp:129] Top shape: 1 24 205 256 (1259520)
I0616 15:26:27.562124 16745 net.cpp:137] Memory required for data: 125173248
I0616 15:26:27.562130 16745 layer_factory.hpp:77] Creating layer relu4_13
I0616 15:26:27.562136 16745 net.cpp:84] Creating Layer relu4_13
I0616 15:26:27.562140 16745 net.cpp:406] relu4_13 <- conv4_13
I0616 15:26:27.562146 16745 net.cpp:367] relu4_13 -> conv4_13 (in-place)
I0616 15:26:27.562286 16745 net.cpp:122] Setting up relu4_13
I0616 15:26:27.562295 16745 net.cpp:129] Top shape: 1 24 205 256 (1259520)
I0616 15:26:27.562312 16745 net.cpp:137] Memory required for data: 130211328
I0616 15:26:27.562317 16745 layer_factory.hpp:77] Creating layer conv4_21
I0616 15:26:27.562327 16745 net.cpp:84] Creating Layer conv4_21
I0616 15:26:27.562331 16745 net.cpp:406] conv4_21 <- pool1_pool1_0_split_1
I0616 15:26:27.562340 16745 net.cpp:380] conv4_21 -> conv4_21
I0616 15:26:27.564446 16745 net.cpp:122] Setting up conv4_21
I0616 15:26:27.564460 16745 net.cpp:129] Top shape: 1 24 205 256 (1259520)
I0616 15:26:27.564465 16745 net.cpp:137] Memory required for data: 135249408
I0616 15:26:27.564474 16745 layer_factory.hpp:77] Creating layer bn_conv4_21
I0616 15:26:27.564481 16745 net.cpp:84] Creating Layer bn_conv4_21
I0616 15:26:27.564487 16745 net.cpp:406] bn_conv4_21 <- conv4_21
I0616 15:26:27.564494 16745 net.cpp:367] bn_conv4_21 -> conv4_21 (in-place)
I0616 15:26:27.564673 16745 net.cpp:122] Setting up bn_conv4_21
I0616 15:26:27.564682 16745 net.cpp:129] Top shape: 1 24 205 256 (1259520)
I0616 15:26:27.564685 16745 net.cpp:137] Memory required for data: 140287488
I0616 15:26:27.564695 16745 layer_factory.hpp:77] Creating layer scale_conv4_21
I0616 15:26:27.564702 16745 net.cpp:84] Creating Layer scale_conv4_21
I0616 15:26:27.564705 16745 net.cpp:406] scale_conv4_21 <- conv4_21
I0616 15:26:27.564710 16745 net.cpp:367] scale_conv4_21 -> conv4_21 (in-place)
I0616 15:26:27.564743 16745 layer_factory.hpp:77] Creating layer scale_conv4_21
I0616 15:26:27.564889 16745 net.cpp:122] Setting up scale_conv4_21
I0616 15:26:27.564898 16745 net.cpp:129] Top shape: 1 24 205 256 (1259520)
I0616 15:26:27.564900 16745 net.cpp:137] Memory required for data: 145325568
I0616 15:26:27.564908 16745 layer_factory.hpp:77] Creating layer relu4_21
I0616 15:26:27.564914 16745 net.cpp:84] Creating Layer relu4_21
I0616 15:26:27.564919 16745 net.cpp:406] relu4_21 <- conv4_21
I0616 15:26:27.564925 16745 net.cpp:367] relu4_21 -> conv4_21 (in-place)
I0616 15:26:27.565066 16745 net.cpp:122] Setting up relu4_21
I0616 15:26:27.565076 16745 net.cpp:129] Top shape: 1 24 205 256 (1259520)
I0616 15:26:27.565081 16745 net.cpp:137] Memory required for data: 150363648
I0616 15:26:27.565086 16745 layer_factory.hpp:77] Creating layer conv4_22
I0616 15:26:27.565095 16745 net.cpp:84] Creating Layer conv4_22
I0616 15:26:27.565100 16745 net.cpp:406] conv4_22 <- conv4_21
I0616 15:26:27.565107 16745 net.cpp:380] conv4_22 -> conv4_22
I0616 15:26:27.567602 16745 net.cpp:122] Setting up conv4_22
I0616 15:26:27.567616 16745 net.cpp:129] Top shape: 1 24 205 256 (1259520)
I0616 15:26:27.567621 16745 net.cpp:137] Memory required for data: 155401728
I0616 15:26:27.567629 16745 layer_factory.hpp:77] Creating layer bn_conv4_22
I0616 15:26:27.567636 16745 net.cpp:84] Creating Layer bn_conv4_22
I0616 15:26:27.567641 16745 net.cpp:406] bn_conv4_22 <- conv4_22
I0616 15:26:27.567646 16745 net.cpp:367] bn_conv4_22 -> conv4_22 (in-place)
I0616 15:26:27.567827 16745 net.cpp:122] Setting up bn_conv4_22
I0616 15:26:27.567836 16745 net.cpp:129] Top shape: 1 24 205 256 (1259520)
I0616 15:26:27.567840 16745 net.cpp:137] Memory required for data: 160439808
I0616 15:26:27.567849 16745 layer_factory.hpp:77] Creating layer scale_conv4_22
I0616 15:26:27.567855 16745 net.cpp:84] Creating Layer scale_conv4_22
I0616 15:26:27.567859 16745 net.cpp:406] scale_conv4_22 <- conv4_22
I0616 15:26:27.567867 16745 net.cpp:367] scale_conv4_22 -> conv4_22 (in-place)
I0616 15:26:27.567900 16745 layer_factory.hpp:77] Creating layer scale_conv4_22
I0616 15:26:27.568033 16745 net.cpp:122] Setting up scale_conv4_22
I0616 15:26:27.568040 16745 net.cpp:129] Top shape: 1 24 205 256 (1259520)
I0616 15:26:27.568044 16745 net.cpp:137] Memory required for data: 165477888
I0616 15:26:27.568050 16745 layer_factory.hpp:77] Creating layer relu4_22
I0616 15:26:27.568055 16745 net.cpp:84] Creating Layer relu4_22
I0616 15:26:27.568059 16745 net.cpp:406] relu4_22 <- conv4_22
I0616 15:26:27.568066 16745 net.cpp:367] relu4_22 -> conv4_22 (in-place)
I0616 15:26:27.568600 16745 net.cpp:122] Setting up relu4_22
I0616 15:26:27.568614 16745 net.cpp:129] Top shape: 1 24 205 256 (1259520)
I0616 15:26:27.568634 16745 net.cpp:137] Memory required for data: 170515968
I0616 15:26:27.568639 16745 layer_factory.hpp:77] Creating layer conv4_31
I0616 15:26:27.568650 16745 net.cpp:84] Creating Layer conv4_31
I0616 15:26:27.568655 16745 net.cpp:406] conv4_31 <- pool1_pool1_0_split_2
I0616 15:26:27.568661 16745 net.cpp:380] conv4_31 -> conv4_31
I0616 15:26:27.570767 16745 net.cpp:122] Setting up conv4_31
I0616 15:26:27.570781 16745 net.cpp:129] Top shape: 1 24 205 256 (1259520)
I0616 15:26:27.570786 16745 net.cpp:137] Memory required for data: 175554048
I0616 15:26:27.570796 16745 layer_factory.hpp:77] Creating layer bn_conv4_31
I0616 15:26:27.570802 16745 net.cpp:84] Creating Layer bn_conv4_31
I0616 15:26:27.570806 16745 net.cpp:406] bn_conv4_31 <- conv4_31
I0616 15:26:27.570813 16745 net.cpp:367] bn_conv4_31 -> conv4_31 (in-place)
I0616 15:26:27.570996 16745 net.cpp:122] Setting up bn_conv4_31
I0616 15:26:27.571005 16745 net.cpp:129] Top shape: 1 24 205 256 (1259520)
I0616 15:26:27.571010 16745 net.cpp:137] Memory required for data: 180592128
I0616 15:26:27.571018 16745 layer_factory.hpp:77] Creating layer scale_conv4_31
I0616 15:26:27.571025 16745 net.cpp:84] Creating Layer scale_conv4_31
I0616 15:26:27.571030 16745 net.cpp:406] scale_conv4_31 <- conv4_31
I0616 15:26:27.571036 16745 net.cpp:367] scale_conv4_31 -> conv4_31 (in-place)
I0616 15:26:27.571074 16745 layer_factory.hpp:77] Creating layer scale_conv4_31
I0616 15:26:27.571208 16745 net.cpp:122] Setting up scale_conv4_31
I0616 15:26:27.571216 16745 net.cpp:129] Top shape: 1 24 205 256 (1259520)
I0616 15:26:27.571219 16745 net.cpp:137] Memory required for data: 185630208
I0616 15:26:27.571228 16745 layer_factory.hpp:77] Creating layer relu4_31
I0616 15:26:27.571235 16745 net.cpp:84] Creating Layer relu4_31
I0616 15:26:27.571240 16745 net.cpp:406] relu4_31 <- conv4_31
I0616 15:26:27.571247 16745 net.cpp:367] relu4_31 -> conv4_31 (in-place)
I0616 15:26:27.571388 16745 net.cpp:122] Setting up relu4_31
I0616 15:26:27.571398 16745 net.cpp:129] Top shape: 1 24 205 256 (1259520)
I0616 15:26:27.571403 16745 net.cpp:137] Memory required for data: 190668288
I0616 15:26:27.571408 16745 layer_factory.hpp:77] Creating layer concat1
I0616 15:26:27.571415 16745 net.cpp:84] Creating Layer concat1
I0616 15:26:27.571419 16745 net.cpp:406] concat1 <- conv4_13
I0616 15:26:27.571425 16745 net.cpp:406] concat1 <- conv4_22
I0616 15:26:27.571429 16745 net.cpp:406] concat1 <- conv4_31
I0616 15:26:27.571436 16745 net.cpp:380] concat1 -> conv4
I0616 15:26:27.571465 16745 net.cpp:122] Setting up concat1
I0616 15:26:27.571472 16745 net.cpp:129] Top shape: 1 72 205 256 (3778560)
I0616 15:26:27.571477 16745 net.cpp:137] Memory required for data: 205782528
I0616 15:26:27.571481 16745 layer_factory.hpp:77] Creating layer pool2
I0616 15:26:27.571490 16745 net.cpp:84] Creating Layer pool2
I0616 15:26:27.571493 16745 net.cpp:406] pool2 <- conv4
I0616 15:26:27.571499 16745 net.cpp:380] pool2 -> pool2
I0616 15:26:27.571537 16745 net.cpp:122] Setting up pool2
I0616 15:26:27.571543 16745 net.cpp:129] Top shape: 1 72 103 128 (949248)
I0616 15:26:27.571547 16745 net.cpp:137] Memory required for data: 209579520
I0616 15:26:27.571550 16745 layer_factory.hpp:77] Creating layer pool2_pool2_0_split
I0616 15:26:27.571557 16745 net.cpp:84] Creating Layer pool2_pool2_0_split
I0616 15:26:27.571560 16745 net.cpp:406] pool2_pool2_0_split <- pool2
I0616 15:26:27.571568 16745 net.cpp:380] pool2_pool2_0_split -> pool2_pool2_0_split_0
I0616 15:26:27.571575 16745 net.cpp:380] pool2_pool2_0_split -> pool2_pool2_0_split_1
I0616 15:26:27.571583 16745 net.cpp:380] pool2_pool2_0_split -> pool2_pool2_0_split_2
I0616 15:26:27.571624 16745 net.cpp:122] Setting up pool2_pool2_0_split
I0616 15:26:27.571631 16745 net.cpp:129] Top shape: 1 72 103 128 (949248)
I0616 15:26:27.571638 16745 net.cpp:129] Top shape: 1 72 103 128 (949248)
I0616 15:26:27.571643 16745 net.cpp:129] Top shape: 1 72 103 128 (949248)
I0616 15:26:27.571646 16745 net.cpp:137] Memory required for data: 220970496
I0616 15:26:27.571651 16745 layer_factory.hpp:77] Creating layer conv5_11
I0616 15:26:27.571671 16745 net.cpp:84] Creating Layer conv5_11
I0616 15:26:27.571676 16745 net.cpp:406] conv5_11 <- pool2_pool2_0_split_0
I0616 15:26:27.571683 16745 net.cpp:380] conv5_11 -> conv5_11
I0616 15:26:27.573613 16745 net.cpp:122] Setting up conv5_11
I0616 15:26:27.573626 16745 net.cpp:129] Top shape: 1 32 103 128 (421888)
I0616 15:26:27.573632 16745 net.cpp:137] Memory required for data: 222658048
I0616 15:26:27.573642 16745 layer_factory.hpp:77] Creating layer bn_conv5_11
I0616 15:26:27.573648 16745 net.cpp:84] Creating Layer bn_conv5_11
I0616 15:26:27.573652 16745 net.cpp:406] bn_conv5_11 <- conv5_11
I0616 15:26:27.573659 16745 net.cpp:367] bn_conv5_11 -> conv5_11 (in-place)
I0616 15:26:27.573830 16745 net.cpp:122] Setting up bn_conv5_11
I0616 15:26:27.573839 16745 net.cpp:129] Top shape: 1 32 103 128 (421888)
I0616 15:26:27.573844 16745 net.cpp:137] Memory required for data: 224345600
I0616 15:26:27.573854 16745 layer_factory.hpp:77] Creating layer scale_conv5_11
I0616 15:26:27.573860 16745 net.cpp:84] Creating Layer scale_conv5_11
I0616 15:26:27.573864 16745 net.cpp:406] scale_conv5_11 <- conv5_11
I0616 15:26:27.573870 16745 net.cpp:367] scale_conv5_11 -> conv5_11 (in-place)
I0616 15:26:27.573906 16745 layer_factory.hpp:77] Creating layer scale_conv5_11
I0616 15:26:27.574015 16745 net.cpp:122] Setting up scale_conv5_11
I0616 15:26:27.574023 16745 net.cpp:129] Top shape: 1 32 103 128 (421888)
I0616 15:26:27.574028 16745 net.cpp:137] Memory required for data: 226033152
I0616 15:26:27.574036 16745 layer_factory.hpp:77] Creating layer relu5_11
I0616 15:26:27.574043 16745 net.cpp:84] Creating Layer relu5_11
I0616 15:26:27.574048 16745 net.cpp:406] relu5_11 <- conv5_11
I0616 15:26:27.574054 16745 net.cpp:367] relu5_11 -> conv5_11 (in-place)
I0616 15:26:27.574195 16745 net.cpp:122] Setting up relu5_11
I0616 15:26:27.574205 16745 net.cpp:129] Top shape: 1 32 103 128 (421888)
I0616 15:26:27.574210 16745 net.cpp:137] Memory required for data: 227720704
I0616 15:26:27.574214 16745 layer_factory.hpp:77] Creating layer conv5_12
I0616 15:26:27.574225 16745 net.cpp:84] Creating Layer conv5_12
I0616 15:26:27.574229 16745 net.cpp:406] conv5_12 <- conv5_11
I0616 15:26:27.574237 16745 net.cpp:380] conv5_12 -> conv5_12
I0616 15:26:27.576046 16745 net.cpp:122] Setting up conv5_12
I0616 15:26:27.576058 16745 net.cpp:129] Top shape: 1 32 103 128 (421888)
I0616 15:26:27.576061 16745 net.cpp:137] Memory required for data: 229408256
I0616 15:26:27.576066 16745 layer_factory.hpp:77] Creating layer bn_conv5_12
I0616 15:26:27.576071 16745 net.cpp:84] Creating Layer bn_conv5_12
I0616 15:26:27.576074 16745 net.cpp:406] bn_conv5_12 <- conv5_12
I0616 15:26:27.576078 16745 net.cpp:367] bn_conv5_12 -> conv5_12 (in-place)
I0616 15:26:27.576247 16745 net.cpp:122] Setting up bn_conv5_12
I0616 15:26:27.576254 16745 net.cpp:129] Top shape: 1 32 103 128 (421888)
I0616 15:26:27.576258 16745 net.cpp:137] Memory required for data: 231095808
I0616 15:26:27.576267 16745 layer_factory.hpp:77] Creating layer scale_conv5_12
I0616 15:26:27.576274 16745 net.cpp:84] Creating Layer scale_conv5_12
I0616 15:26:27.576279 16745 net.cpp:406] scale_conv5_12 <- conv5_12
I0616 15:26:27.576285 16745 net.cpp:367] scale_conv5_12 -> conv5_12 (in-place)
I0616 15:26:27.576323 16745 layer_factory.hpp:77] Creating layer scale_conv5_12
I0616 15:26:27.576432 16745 net.cpp:122] Setting up scale_conv5_12
I0616 15:26:27.576441 16745 net.cpp:129] Top shape: 1 32 103 128 (421888)
I0616 15:26:27.576445 16745 net.cpp:137] Memory required for data: 232783360
I0616 15:26:27.576452 16745 layer_factory.hpp:77] Creating layer relu5_12
I0616 15:26:27.576458 16745 net.cpp:84] Creating Layer relu5_12
I0616 15:26:27.576464 16745 net.cpp:406] relu5_12 <- conv5_12
I0616 15:26:27.576469 16745 net.cpp:367] relu5_12 -> conv5_12 (in-place)
I0616 15:26:27.576999 16745 net.cpp:122] Setting up relu5_12
I0616 15:26:27.577011 16745 net.cpp:129] Top shape: 1 32 103 128 (421888)
I0616 15:26:27.577016 16745 net.cpp:137] Memory required for data: 234470912
I0616 15:26:27.577033 16745 layer_factory.hpp:77] Creating layer conv5_13
I0616 15:26:27.577049 16745 net.cpp:84] Creating Layer conv5_13
I0616 15:26:27.577054 16745 net.cpp:406] conv5_13 <- conv5_12
I0616 15:26:27.577060 16745 net.cpp:380] conv5_13 -> conv5_13
I0616 15:26:27.578618 16745 net.cpp:122] Setting up conv5_13
I0616 15:26:27.578635 16745 net.cpp:129] Top shape: 1 32 103 128 (421888)
I0616 15:26:27.578641 16745 net.cpp:137] Memory required for data: 236158464
I0616 15:26:27.578656 16745 layer_factory.hpp:77] Creating layer bn_conv5_13
I0616 15:26:27.578666 16745 net.cpp:84] Creating Layer bn_conv5_13
I0616 15:26:27.578672 16745 net.cpp:406] bn_conv5_13 <- conv5_13
I0616 15:26:27.578680 16745 net.cpp:367] bn_conv5_13 -> conv5_13 (in-place)
I0616 15:26:27.578917 16745 net.cpp:122] Setting up bn_conv5_13
I0616 15:26:27.578927 16745 net.cpp:129] Top shape: 1 32 103 128 (421888)
I0616 15:26:27.578933 16745 net.cpp:137] Memory required for data: 237846016
I0616 15:26:27.578943 16745 layer_factory.hpp:77] Creating layer scale_conv5_13
I0616 15:26:27.578951 16745 net.cpp:84] Creating Layer scale_conv5_13
I0616 15:26:27.578956 16745 net.cpp:406] scale_conv5_13 <- conv5_13
I0616 15:26:27.578963 16745 net.cpp:367] scale_conv5_13 -> conv5_13 (in-place)
I0616 15:26:27.579010 16745 layer_factory.hpp:77] Creating layer scale_conv5_13
I0616 15:26:27.579133 16745 net.cpp:122] Setting up scale_conv5_13
I0616 15:26:27.579141 16745 net.cpp:129] Top shape: 1 32 103 128 (421888)
I0616 15:26:27.579145 16745 net.cpp:137] Memory required for data: 239533568
I0616 15:26:27.579151 16745 layer_factory.hpp:77] Creating layer relu5_13
I0616 15:26:27.579156 16745 net.cpp:84] Creating Layer relu5_13
I0616 15:26:27.579160 16745 net.cpp:406] relu5_13 <- conv5_13
I0616 15:26:27.579164 16745 net.cpp:367] relu5_13 -> conv5_13 (in-place)
I0616 15:26:27.579299 16745 net.cpp:122] Setting up relu5_13
I0616 15:26:27.579308 16745 net.cpp:129] Top shape: 1 32 103 128 (421888)
I0616 15:26:27.579313 16745 net.cpp:137] Memory required for data: 241221120
I0616 15:26:27.579315 16745 layer_factory.hpp:77] Creating layer conv5_21
I0616 15:26:27.579324 16745 net.cpp:84] Creating Layer conv5_21
I0616 15:26:27.579327 16745 net.cpp:406] conv5_21 <- pool2_pool2_0_split_1
I0616 15:26:27.579334 16745 net.cpp:380] conv5_21 -> conv5_21
I0616 15:26:27.581254 16745 net.cpp:122] Setting up conv5_21
I0616 15:26:27.581265 16745 net.cpp:129] Top shape: 1 32 103 128 (421888)
I0616 15:26:27.581269 16745 net.cpp:137] Memory required for data: 242908672
I0616 15:26:27.581274 16745 layer_factory.hpp:77] Creating layer bn_conv5_21
I0616 15:26:27.581279 16745 net.cpp:84] Creating Layer bn_conv5_21
I0616 15:26:27.581282 16745 net.cpp:406] bn_conv5_21 <- conv5_21
I0616 15:26:27.581286 16745 net.cpp:367] bn_conv5_21 -> conv5_21 (in-place)
I0616 15:26:27.581804 16745 net.cpp:122] Setting up bn_conv5_21
I0616 15:26:27.581814 16745 net.cpp:129] Top shape: 1 32 103 128 (421888)
I0616 15:26:27.581817 16745 net.cpp:137] Memory required for data: 244596224
I0616 15:26:27.581825 16745 layer_factory.hpp:77] Creating layer scale_conv5_21
I0616 15:26:27.581831 16745 net.cpp:84] Creating Layer scale_conv5_21
I0616 15:26:27.581835 16745 net.cpp:406] scale_conv5_21 <- conv5_21
I0616 15:26:27.581840 16745 net.cpp:367] scale_conv5_21 -> conv5_21 (in-place)
I0616 15:26:27.581876 16745 layer_factory.hpp:77] Creating layer scale_conv5_21
I0616 15:26:27.581979 16745 net.cpp:122] Setting up scale_conv5_21
I0616 15:26:27.581985 16745 net.cpp:129] Top shape: 1 32 103 128 (421888)
I0616 15:26:27.581989 16745 net.cpp:137] Memory required for data: 246283776
I0616 15:26:27.581993 16745 layer_factory.hpp:77] Creating layer relu5_21
I0616 15:26:27.581998 16745 net.cpp:84] Creating Layer relu5_21
I0616 15:26:27.582002 16745 net.cpp:406] relu5_21 <- conv5_21
I0616 15:26:27.582007 16745 net.cpp:367] relu5_21 -> conv5_21 (in-place)
I0616 15:26:27.582149 16745 net.cpp:122] Setting up relu5_21
I0616 15:26:27.582157 16745 net.cpp:129] Top shape: 1 32 103 128 (421888)
I0616 15:26:27.582161 16745 net.cpp:137] Memory required for data: 247971328
I0616 15:26:27.582180 16745 layer_factory.hpp:77] Creating layer conv5_22
I0616 15:26:27.582190 16745 net.cpp:84] Creating Layer conv5_22
I0616 15:26:27.582195 16745 net.cpp:406] conv5_22 <- conv5_21
I0616 15:26:27.582201 16745 net.cpp:380] conv5_22 -> conv5_22
I0616 15:26:27.583640 16745 net.cpp:122] Setting up conv5_22
I0616 15:26:27.583653 16745 net.cpp:129] Top shape: 1 32 103 128 (421888)
I0616 15:26:27.583657 16745 net.cpp:137] Memory required for data: 249658880
I0616 15:26:27.583663 16745 layer_factory.hpp:77] Creating layer bn_conv5_22
I0616 15:26:27.583669 16745 net.cpp:84] Creating Layer bn_conv5_22
I0616 15:26:27.583673 16745 net.cpp:406] bn_conv5_22 <- conv5_22
I0616 15:26:27.583678 16745 net.cpp:367] bn_conv5_22 -> conv5_22 (in-place)
I0616 15:26:27.583843 16745 net.cpp:122] Setting up bn_conv5_22
I0616 15:26:27.583850 16745 net.cpp:129] Top shape: 1 32 103 128 (421888)
I0616 15:26:27.583853 16745 net.cpp:137] Memory required for data: 251346432
I0616 15:26:27.583860 16745 layer_factory.hpp:77] Creating layer scale_conv5_22
I0616 15:26:27.583865 16745 net.cpp:84] Creating Layer scale_conv5_22
I0616 15:26:27.583869 16745 net.cpp:406] scale_conv5_22 <- conv5_22
I0616 15:26:27.583874 16745 net.cpp:367] scale_conv5_22 -> conv5_22 (in-place)
I0616 15:26:27.583905 16745 layer_factory.hpp:77] Creating layer scale_conv5_22
I0616 15:26:27.584005 16745 net.cpp:122] Setting up scale_conv5_22
I0616 15:26:27.584012 16745 net.cpp:129] Top shape: 1 32 103 128 (421888)
I0616 15:26:27.584015 16745 net.cpp:137] Memory required for data: 253033984
I0616 15:26:27.584022 16745 layer_factory.hpp:77] Creating layer relu5_22
I0616 15:26:27.584026 16745 net.cpp:84] Creating Layer relu5_22
I0616 15:26:27.584030 16745 net.cpp:406] relu5_22 <- conv5_22
I0616 15:26:27.584034 16745 net.cpp:367] relu5_22 -> conv5_22 (in-place)
I0616 15:26:27.584553 16745 net.cpp:122] Setting up relu5_22
I0616 15:26:27.584563 16745 net.cpp:129] Top shape: 1 32 103 128 (421888)
I0616 15:26:27.584568 16745 net.cpp:137] Memory required for data: 254721536
I0616 15:26:27.584571 16745 layer_factory.hpp:77] Creating layer conv5_31
I0616 15:26:27.584579 16745 net.cpp:84] Creating Layer conv5_31
I0616 15:26:27.584583 16745 net.cpp:406] conv5_31 <- pool2_pool2_0_split_2
I0616 15:26:27.584590 16745 net.cpp:380] conv5_31 -> conv5_31
I0616 15:26:27.586575 16745 net.cpp:122] Setting up conv5_31
I0616 15:26:27.586587 16745 net.cpp:129] Top shape: 1 32 103 128 (421888)
I0616 15:26:27.586591 16745 net.cpp:137] Memory required for data: 256409088
I0616 15:26:27.586598 16745 layer_factory.hpp:77] Creating layer bn_conv5_31
I0616 15:26:27.586604 16745 net.cpp:84] Creating Layer bn_conv5_31
I0616 15:26:27.586608 16745 net.cpp:406] bn_conv5_31 <- conv5_31
I0616 15:26:27.586614 16745 net.cpp:367] bn_conv5_31 -> conv5_31 (in-place)
I0616 15:26:27.586784 16745 net.cpp:122] Setting up bn_conv5_31
I0616 15:26:27.586791 16745 net.cpp:129] Top shape: 1 32 103 128 (421888)
I0616 15:26:27.586794 16745 net.cpp:137] Memory required for data: 258096640
I0616 15:26:27.586802 16745 layer_factory.hpp:77] Creating layer scale_conv5_31
I0616 15:26:27.586807 16745 net.cpp:84] Creating Layer scale_conv5_31
I0616 15:26:27.586812 16745 net.cpp:406] scale_conv5_31 <- conv5_31
I0616 15:26:27.586815 16745 net.cpp:367] scale_conv5_31 -> conv5_31 (in-place)
I0616 15:26:27.586848 16745 layer_factory.hpp:77] Creating layer scale_conv5_31
I0616 15:26:27.586951 16745 net.cpp:122] Setting up scale_conv5_31
I0616 15:26:27.586958 16745 net.cpp:129] Top shape: 1 32 103 128 (421888)
I0616 15:26:27.586961 16745 net.cpp:137] Memory required for data: 259784192
I0616 15:26:27.586967 16745 layer_factory.hpp:77] Creating layer relu5_31
I0616 15:26:27.586972 16745 net.cpp:84] Creating Layer relu5_31
I0616 15:26:27.586977 16745 net.cpp:406] relu5_31 <- conv5_31
I0616 15:26:27.586980 16745 net.cpp:367] relu5_31 -> conv5_31 (in-place)
I0616 15:26:27.587117 16745 net.cpp:122] Setting up relu5_31
I0616 15:26:27.587126 16745 net.cpp:129] Top shape: 1 32 103 128 (421888)
I0616 15:26:27.587129 16745 net.cpp:137] Memory required for data: 261471744
I0616 15:26:27.587144 16745 layer_factory.hpp:77] Creating layer concat2
I0616 15:26:27.587152 16745 net.cpp:84] Creating Layer concat2
I0616 15:26:27.587155 16745 net.cpp:406] concat2 <- conv5_13
I0616 15:26:27.587160 16745 net.cpp:406] concat2 <- conv5_22
I0616 15:26:27.587164 16745 net.cpp:406] concat2 <- conv5_31
I0616 15:26:27.587169 16745 net.cpp:380] concat2 -> conv5
I0616 15:26:27.587196 16745 net.cpp:122] Setting up concat2
I0616 15:26:27.587203 16745 net.cpp:129] Top shape: 1 96 103 128 (1265664)
I0616 15:26:27.587205 16745 net.cpp:137] Memory required for data: 266534400
I0616 15:26:27.587209 16745 layer_factory.hpp:77] Creating layer conv6
I0616 15:26:27.587218 16745 net.cpp:84] Creating Layer conv6
I0616 15:26:27.587221 16745 net.cpp:406] conv6 <- conv5
I0616 15:26:27.587226 16745 net.cpp:380] conv6 -> conv_score
I0616 15:26:27.622529 16745 net.cpp:122] Setting up conv6
I0616 15:26:27.622555 16745 net.cpp:129] Top shape: 1 32 103 128 (421888)
I0616 15:26:27.622558 16745 net.cpp:137] Memory required for data: 268221952
I0616 15:26:27.622566 16745 layer_factory.hpp:77] Creating layer relu6
I0616 15:26:27.622575 16745 net.cpp:84] Creating Layer relu6
I0616 15:26:27.622580 16745 net.cpp:406] relu6 <- conv_score
I0616 15:26:27.622586 16745 net.cpp:367] relu6 -> conv_score (in-place)
I0616 15:26:27.622735 16745 net.cpp:122] Setting up relu6
I0616 15:26:27.622745 16745 net.cpp:129] Top shape: 1 32 103 128 (421888)
I0616 15:26:27.622748 16745 net.cpp:137] Memory required for data: 269909504
I0616 15:26:27.622752 16745 layer_factory.hpp:77] Creating layer slicer_conv
I0616 15:26:27.622761 16745 net.cpp:84] Creating Layer slicer_conv
I0616 15:26:27.622764 16745 net.cpp:406] slicer_conv <- conv_score
I0616 15:26:27.622771 16745 net.cpp:380] slicer_conv -> score1
I0616 15:26:27.622782 16745 net.cpp:380] slicer_conv -> score2
…
I0616 15:26:27.622942 16745 net.cpp:380] slicer_conv -> score25
I0616 15:26:27.622948 16745 net.cpp:380] slicer_conv -> score26
I0616 15:26:27.622956 16745 net.cpp:380] slicer_conv -> score27
I0616 15:26:27.622961 16745 net.cpp:380] slicer_conv -> score28
I0616 15:26:27.622967 16745 net.cpp:380] slicer_conv -> score29
I0616 15:26:27.622974 16745 net.cpp:380] slicer_conv -> score30
I0616 15:26:27.622982 16745 net.cpp:380] slicer_conv -> score31
I0616 15:26:27.622987 16745 net.cpp:380] slicer_conv -> score32
I0616 15:26:27.623334 16745 net.cpp:122] Setting up slicer_conv
I0616 15:26:27.623342 16745 net.cpp:129] Top shape: 1 1 103 128 (13184)
I0616 15:26:27.623345 16745 net.cpp:129] Top shape: 1 1 103 128 (13184)
I0616 15:26:27.623350 16745 net.cpp:129] Top shape: 1 1 103 128 (13184)
I0616 15:26:27.623374 16745 net.cpp:129] Top shape: 1 1 103 128 (13184)
I0616 15:26:27.623379 16745 net.cpp:129] Top shape: 1 1 103 128 (13184)
I0616 15:26:27.623383 16745 net.cpp:129] Top shape: 1 1 103 128 (13184)
I0616 15:26:27.623389 16745 net.cpp:129] Top shape: 1 1 103 128 (13184)
I0616 15:26:27.623392 16745 net.cpp:129] Top shape: 1 1 103 128 (13184)
I0616 15:26:27.623396 16745 net.cpp:129] Top shape: 1 1 103 128 (13184)
I0616 15:26:27.623400 16745 net.cpp:129] Top shape: 1 1 103 128 (13184)
I0616 15:26:27.623405 16745 net.cpp:129] Top shape: 1 1 103 128 (13184)
I0616 15:26:27.623409 16745 net.cpp:129] Top shape: 1 1 103 128 (13184)
I0616 15:26:27.623414 16745 net.cpp:129] Top shape: 1 1 103 128 (13184)
I0616 15:26:27.623419 16745 net.cpp:129] Top shape: 1 1 103 128 (13184)
I0616 15:26:27.623422 16745 net.cpp:129] Top shape: 1 1 103 128 (13184)
I0616 15:26:27.623426 16745 net.cpp:129] Top shape: 1 1 103 128 (13184)
I0616 15:26:27.623430 16745 net.cpp:129] Top shape: 1 1 103 128 (13184)
I0616 15:26:27.623435 16745 net.cpp:129] Top shape: 1 1 103 128 (13184)
I0616 15:26:27.623438 16745 net.cpp:129] Top shape: 1 1 103 128 (13184)
I0616 15:26:27.623443 16745 net.cpp:129] Top shape: 1 1 103 128 (13184)
I0616 15:26:27.623447 16745 net.cpp:129] Top shape: 1 1 103 128 (13184)
I0616 15:26:27.623451 16745 net.cpp:129] Top shape: 1 1 103 128 (13184)
I0616 15:26:27.623456 16745 net.cpp:129] Top shape: 1 1 103 128 (13184)
I0616 15:26:27.623459 16745 net.cpp:129] Top shape: 1 1 103 128 (13184)
I0616 15:26:27.623463 16745 net.cpp:129] Top shape: 1 1 103 128 (13184)
I0616 15:26:27.623468 16745 net.cpp:129] Top shape: 1 1 103 128 (13184)
I0616 15:26:27.623472 16745 net.cpp:129] Top shape: 1 1 103 128 (13184)
I0616 15:26:27.623476 16745 net.cpp:129] Top shape: 1 1 103 128 (13184)
I0616 15:26:27.623481 16745 net.cpp:129] Top shape: 1 1 103 128 (13184)
I0616 15:26:27.623484 16745 net.cpp:129] Top shape: 1 1 103 128 (13184)
I0616 15:26:27.623488 16745 net.cpp:129] Top shape: 1 1 103 128 (13184)
I0616 15:26:27.623492 16745 net.cpp:129] Top shape: 1 1 103 128 (13184)
I0616 15:26:27.623497 16745 net.cpp:137] Memory required for data: 271597056
I0616 15:26:27.623500 16745 layer_factory.hpp:77] Creating layer score1_slicer_conv_0_split
I0616 15:26:27.623509 16745 net.cpp:84] Creating Layer score1_slicer_conv_0_split
I0616 15:26:27.623513 16745 net.cpp:406] score1_slicer_conv_0_split <- score1
I0616 15:26:27.623519 16745 net.cpp:380] score1_slicer_conv_0_split -> score1_slicer_conv_0_split_0
I0616 15:26:27.623527 16745 net.cpp:380] score1_slicer_conv_0_split -> score1_slicer_conv_0_split_1
I0616 15:26:27.623564 16745 net.cpp:122] Setting up score1_slicer_conv_0_split
I0616 15:26:27.623569 16745 net.cpp:129] Top shape: 1 1 103 128 (13184)
I0616 15:26:27.623574 16745 net.cpp:129] Top shape: 1 1 103 128 (13184)
I0616 15:26:27.623576 16745 net.cpp:137] Memory required for data: 271702528
I0616 15:26:27.623580 16745 layer_factory.hpp:77] Creating layer score2_slicer_conv_1_split
I0616 15:26:27.623585 16745 net.cpp:84] Creating Layer score2_slicer_conv_1_split
I0616 15:26:27.623589 16745 net.cpp:406] score2_slicer_conv_1_split <- score2
I0616 15:26:27.623597 16745 net.cpp:380] score2_slicer_conv_1_split -> score2_slicer_conv_1_split_0
I0616 15:26:27.623602 16745 net.cpp:380] score2_slicer_conv_1_split -> score2_slicer_conv_1_split_1
I0616 15:26:27.623634 16745 net.cpp:122] Setting up score2_slicer_conv_1_split
I0616 15:26:27.623639 16745 net.cpp:129] Top shape: 1 1 103 128 (13184)
I0616 15:26:27.623644 16745 net.cpp:129] Top shape: 1 1 103 128 (13184)
I0616 15:26:27.623648 16745 net.cpp:137] Memory required for data: 271808000
I0616 15:26:27.623651 16745 layer_factory.hpp:77] Creating layer score3_slicer_conv_2_split
I0616 15:26:27.623656 16745 net.cpp:84] Creating Layer score3_slicer_conv_2_split
I0616 15:26:27.623659 16745 net.cpp:406] score3_slicer_conv_2_split <- score3
I0616 15:26:27.623666 16745 net.cpp:380] score3_slicer_conv_2_split -> score3_slicer_conv_2_split_0
I0616 15:26:27.623672 16745 net.cpp:380] score3_slicer_conv_2_split -> score3_slicer_conv_2_split_1
I0616 15:26:27.623713 16745 net.cpp:122] Setting up score3_slicer_conv_2_split
I0616 15:26:27.623718 16745 net.cpp:129] Top shape: 1 1 103 128 (13184)
I0616 15:26:27.623723 16745 net.cpp:129] Top shape: 1 1 103 128 (13184)
I0616 15:26:27.623726 16745 net.cpp:137] Memory required for data: 271913472
I0616 15:26:27.623730 16745 layer_factory.hpp:77] Creating layer score4_slicer_conv_3_split
I0616 15:26:27.623735 16745 net.cpp:84] Creating Layer score4_slicer_conv_3_split
I0616 15:26:27.623739 16745 net.cpp:406] score4_slicer_conv_3_split <- score4
I0616 15:26:27.623744 16745 net.cpp:380] score4_slicer_conv_3_split -> score4_slicer_conv_3_split_0
I0616 15:26:27.623749 16745 net.cpp:380] score4_slicer_conv_3_split -> score4_slicer_conv_3_split_1
I0616 15:26:27.623780 16745 net.cpp:122] Setting up score4_slicer_conv_3_split
I0616 15:26:27.623786 16745 net.cpp:129] Top shape: 1 1 103 128 (13184)
I0616 15:26:27.623790 16745 net.cpp:129] Top shape: 1 1 103 128 (13184)
I0616 15:26:27.623793 16745 net.cpp:137] Memory required for data: 272018944
I0616 15:26:27.623797 16745 layer_factory.hpp:77] Creating layer score5_slicer_conv_4_split
I0616 15:26:27.623802 16745 net.cpp:84] Creating Layer score5_slicer_conv_4_split
I0616 15:26:27.623806 16745 net.cpp:406] score5_slicer_conv_4_split <- score5
I0616 15:26:27.623811 16745 net.cpp:380] score5_slicer_conv_4_split -> score5_slicer_conv_4_split_0
I0616 15:26:27.623817 16745 net.cpp:380] score5_slicer_conv_4_split -> score5_slicer_conv_4_split_1
I0616 15:26:27.623848 16745 net.cpp:122] Setting up score5_slicer_conv_4_split
I0616 15:26:27.623854 16745 net.cpp:129] Top shape: 1 1 103 128 (13184)
I0616 15:26:27.623858 16745 net.cpp:129] Top shape: 1 1 103 128 (13184)
I0616 15:26:27.623862 16745 net.cpp:137] Memory required for data: 272124416
I0616 15:26:27.623865 16745 layer_factory.hpp:77] Creating layer score6_slicer_conv_5_split
I0616 15:26:27.623869 16745 net.cpp:84] Creating Layer score6_slicer_conv_5_split
I0616 15:26:27.623873 16745 net.cpp:406] score6_slicer_conv_5_split <- score6
I0616 15:26:27.623878 16745 net.cpp:380] score6_slicer_conv_5_split -> score6_slicer_conv_5_split_0
I0616 15:26:27.623884 16745 net.cpp:380] score6_slicer_conv_5_split -> score6_slicer_conv_5_split_1
I0616 15:26:27.623915 16745 net.cpp:122] Setting up score6_slicer_conv_5_split
I0616 15:26:27.623920 16745 net.cpp:129] Top shape: 1 1 103 128 (13184)
I0616 15:26:27.623925 16745 net.cpp:129] Top shape: 1 1 103 128 (13184)
I0616 15:26:27.623929 16745 net.cpp:137] Memory required for data: 272229888
I0616 15:26:27.623931 16745 layer_factory.hpp:77] Creating layer score7_slicer_conv_6_split
I0616 15:26:27.623936 16745 net.cpp:84] Creating Layer score7_slicer_conv_6_split
I0616 15:26:27.623940 16745 net.cpp:406] score7_slicer_conv_6_split <- score7
I0616 15:26:27.623945 16745 net.cpp:380] score7_slicer_conv_6_split -> score7_slicer_conv_6_split_0
I0616 15:26:27.623950 16745 net.cpp:380] score7_slicer_conv_6_split -> score7_slicer_conv_6_split_1
I0616 15:26:27.623982 16745 net.cpp:122] Setting up score7_slicer_conv_6_split
I0616 15:26:27.623987 16745 net.cpp:129] Top shape: 1 1 103 128 (13184)
I0616 15:26:27.623991 16745 net.cpp:129] Top shape: 1 1 103 128 (13184)
I0616 15:26:27.623996 16745 net.cpp:137] Memory required for data: 272335360
I0616 15:26:27.623998 16745 layer_factory.hpp:77] Creating layer score8_slicer_conv_7_split
I0616 15:26:27.624004 16745 net.cpp:84] Creating Layer score8_slicer_conv_7_split
I0616 15:26:27.624007 16745 net.cpp:406] score8_slicer_conv_7_split <- score8
I0616 15:26:27.624012 16745 net.cpp:380] score8_slicer_conv_7_split -> score8_slicer_conv_7_split_0
I0616 15:26:27.624018 16745 net.cpp:380] score8_slicer_conv_7_split -> score8_slicer_conv_7_split_1
I0616 15:26:27.624049 16745 net.cpp:122] Setting up score8_slicer_conv_7_split
I0616 15:26:27.624054 16745 net.cpp:129] Top shape: 1 1 103 128 (13184)
I0616 15:26:27.624058 16745 net.cpp:129] Top shape: 1 1 103 128 (13184)
I0616 15:26:27.624063 16745 net.cpp:137] Memory required for data: 272440832
I0616 15:26:27.624071 16745 layer_factory.hpp:77] Creating layer score9_slicer_conv_8_split
I0616 15:26:27.624078 16745 net.cpp:84] Creating Layer score9_slicer_conv_8_split
I0616 15:26:27.624080 16745 net.cpp:406] score9_slicer_conv_8_split <- score9
I0616 15:26:27.624085 16745 net.cpp:380] score9_slicer_conv_8_split -> score9_slicer_conv_8_split_0
I0616 15:26:27.624091 16745 net.cpp:380] score9_slicer_conv_8_split -> score9_slicer_conv_8_split_1
I0616 15:26:27.624125 16745 net.cpp:122] Setting up score9_slicer_conv_8_split
I0616 15:26:27.624130 16745 net.cpp:129] Top shape: 1 1 103 128 (13184)
I0616 15:26:27.624135 16745 net.cpp:129] Top shape: 1 1 103 128 (13184)
I0616 15:26:27.624137 16745 net.cpp:137] Memory required for data: 272546304
I0616 15:26:27.624140 16745 layer_factory.hpp:77] Creating layer score10_slicer_conv_9_split
I0616 15:26:27.624145 16745 net.cpp:84] Creating Layer score10_slicer_conv_9_split
I0616 15:26:27.624150 16745 net.cpp:406] score10_slicer_conv_9_split <- score10
I0616 15:26:27.624155 16745 net.cpp:380] score10_slicer_conv_9_split -> score10_slicer_conv_9_split_0
I0616 15:26:27.624160 16745 net.cpp:380] score10_slicer_conv_9_split -> score10_slicer_conv_9_split_1
I0616 15:26:27.624191 16745 net.cpp:122] Setting up score10_slicer_conv_9_split
I0616 15:26:27.624197 16745 net.cpp:129] Top shape: 1 1 103 128 (13184)
I0616 15:26:27.624202 16745 net.cpp:129] Top shape: 1 1 103 128 (13184)
I0616 15:26:27.624204 16745 net.cpp:137] Memory required for data: 272651776
I0616 15:26:27.624207 16745 layer_factory.hpp:77] Creating layer score11_slicer_conv_10_split
I0616 15:26:27.624212 16745 net.cpp:84] Creating Layer score11_slicer_conv_10_split
I0616 15:26:27.624217 16745 net.cpp:406] score11_slicer_conv_10_split <- score11
I0616 15:26:27.624222 16745 net.cpp:380] score11_slicer_conv_10_split -> score11_slicer_conv_10_split_0
I0616 15:26:27.624228 16745 net.cpp:380] score11_slicer_conv_10_split -> score11_slicer_conv_10_split_1
I0616 15:26:27.624258 16745 net.cpp:122] Setting up score11_slicer_conv_10_split
I0616 15:26:27.624264 16745 net.cpp:129] Top shape: 1 1 103 128 (13184)
I0616 15:26:27.624269 16745 net.cpp:129] Top shape: 1 1 103 128 (13184)
I0616 15:26:27.624271 16745 net.cpp:137] Memory required for data: 272757248
I0616 15:26:27.624275 16745 layer_factory.hpp:77] Creating layer score12_slicer_conv_11_split
I0616 15:26:27.624279 16745 net.cpp:84] Creating Layer score12_slicer_conv_11_split
I0616 15:26:27.624284 16745 net.cpp:406] score12_slicer_conv_11_split <- score12
I0616 15:26:27.624289 16745 net.cpp:380] score12_slicer_conv_11_split -> score12_slicer_conv_11_split_0
I0616 15:26:27.624294 16745 net.cpp:380] score12_slicer_conv_11_split -> score12_slicer_conv_11_split_1
I0616 15:26:27.624325 16745 net.cpp:122] Setting up score12_slicer_conv_11_split
I0616 15:26:27.624330 16745 net.cpp:129] Top shape: 1 1 103 128 (13184)
I0616 15:26:27.624336 16745 net.cpp:129] Top shape: 1 1 103 128 (13184)
I0616 15:26:27.624338 16745 net.cpp:137] Memory required for data: 272862720
I0616 15:26:27.624341 16745 layer_factory.hpp:77] Creating layer score13_slicer_conv_12_split
I0616 15:26:27.624346 16745 net.cpp:84] Creating Layer score13_slicer_conv_12_split
I0616 15:26:27.624349 16745 net.cpp:406] score13_slicer_conv_12_split <- score13
I0616 15:26:27.624354 16745 net.cpp:380] score13_slicer_conv_12_split -> score13_slicer_conv_12_split_0
I0616 15:26:27.624361 16745 net.cpp:380] score13_slicer_conv_12_split -> score13_slicer_conv_12_split_1
I0616 15:26:27.624392 16745 net.cpp:122] Setting up score13_slicer_conv_12_split
I0616 15:26:27.624397 16745 net.cpp:129] Top shape: 1 1 103 128 (13184)
I0616 15:26:27.624400 16745 net.cpp:129] Top shape: 1 1 103 128 (13184)
I0616 15:26:27.624404 16745 net.cpp:137] Memory required for data: 272968192
I0616 15:26:27.624408 16745 layer_factory.hpp:77] Creating layer score14_slicer_conv_13_split
I0616 15:26:27.624413 16745 net.cpp:84] Creating Layer score14_slicer_conv_13_split
I0616 15:26:27.624416 16745 net.cpp:406] score14_slicer_conv_13_split <- score14
I0616 15:26:27.624421 16745 net.cpp:380] score14_slicer_conv_13_split -> score14_slicer_conv_13_split_0
I0616 15:26:27.624433 16745 net.cpp:380] score14_slicer_conv_13_split -> score14_slicer_conv_13_split_1
I0616 15:26:27.624466 16745 net.cpp:122] Setting up score14_slicer_conv_13_split
I0616 15:26:27.624472 16745 net.cpp:129] Top shape: 1 1 103 128 (13184)
I0616 15:26:27.624476 16745 net.cpp:129] Top shape: 1 1 103 128 (13184)
I0616 15:26:27.624480 16745 net.cpp:137] Memory required for data: 273073664
I0616 15:26:27.624483 16745 layer_factory.hpp:77] Creating layer score15_slicer_conv_14_split
I0616 15:26:27.624488 16745 net.cpp:84] Creating Layer score15_slicer_conv_14_split
I0616 15:26:27.624492 16745 net.cpp:406] score15_slicer_conv_14_split <- score15
I0616 15:26:27.624496 16745 net.cpp:380] score15_slicer_conv_14_split -> score15_slicer_conv_14_split_0
I0616 15:26:27.624501 16745 net.cpp:380] score15_slicer_conv_14_split -> score15_slicer_conv_14_split_1
I0616 15:26:27.624533 16745 net.cpp:122] Setting up score15_slicer_conv_14_split
I0616 15:26:27.624539 16745 net.cpp:129] Top shape: 1 1 103 128 (13184)
I0616 15:26:27.624544 16745 net.cpp:129] Top shape: 1 1 103 128 (13184)
I0616 15:26:27.624547 16745 net.cpp:137] Memory required for data: 273179136
I0616 15:26:27.624550 16745 layer_factory.hpp:77] Creating layer score16_slicer_conv_15_split
I0616 15:26:27.624555 16745 net.cpp:84] Creating Layer score16_slicer_conv_15_split
I0616 15:26:27.624559 16745 net.cpp:406] score16_slicer_conv_15_split <- score16
I0616 15:26:27.624564 16745 net.cpp:380] score16_slicer_conv_15_split -> score16_slicer_conv_15_split_0
I0616 15:26:27.624570 16745 net.cpp:380] score16_slicer_conv_15_split -> score16_slicer_conv_15_split_1
I0616 15:26:27.624601 16745 net.cpp:122] Setting up score16_slicer_conv_15_split
I0616 15:26:27.624608 16745 net.cpp:129] Top shape: 1 1 103 128 (13184)
I0616 15:26:27.624611 16745 net.cpp:129] Top shape: 1 1 103 128 (13184)
I0616 15:26:27.624614 16745 net.cpp:137] Memory required for data: 273284608
I0616 15:26:27.624619 16745 layer_factory.hpp:77] Creating layer score17_slicer_conv_16_split
I0616 15:26:27.624624 16745 net.cpp:84] Creating Layer score17_slicer_conv_16_split
I0616 15:26:27.624626 16745 net.cpp:406] score17_slicer_conv_16_split <- score17
I0616 15:26:27.624631 16745 net.cpp:380] score17_slicer_conv_16_split -> score17_slicer_conv_16_split_0
I0616 15:26:27.624637 16745 net.cpp:380] score17_slicer_conv_16_split -> score17_slicer_conv_16_split_1
I0616 15:26:27.624668 16745 net.cpp:122] Setting up score17_slicer_conv_16_split
I0616 15:26:27.624675 16745 net.cpp:129] Top shape: 1 1 103 128 (13184)
I0616 15:26:27.624678 16745 net.cpp:129] Top shape: 1 1 103 128 (13184)
I0616 15:26:27.624682 16745 net.cpp:137] Memory required for data: 273390080
I0616 15:26:27.624686 16745 layer_factory.hpp:77] Creating layer score18_slicer_conv_17_split
I0616 15:26:27.624691 16745 net.cpp:84] Creating Layer score18_slicer_conv_17_split
I0616 15:26:27.639645 16745 net.cpp:406] score18_slicer_conv_17_split <- score18
I0616 15:26:27.639672 16745 net.cpp:380] score18_slicer_conv_17_split -> score18_slicer_conv_17_split_0
I0616 15:26:27.639683 16745 net.cpp:380] score18_slicer_conv_17_split -> score18_slicer_conv_17_split_1
I0616 15:26:27.639775 16745 net.cpp:122] Setting up score18_slicer_conv_17_split
I0616 15:26:27.639785 16745 net.cpp:129] Top shape: 1 1 103 128 (13184)
I0616 15:26:27.639789 16745 net.cpp:129] Top shape: 1 1 103 128 (13184)
I0616 15:26:27.639792 16745 net.cpp:137] Memory required for data: 273495552
I0616 15:26:27.639798 16745 layer_factory.hpp:77] Creating layer score19_slicer_conv_18_split
I0616 15:26:27.639804 16745 net.cpp:84] Creating Layer score19_slicer_conv_18_split
I0616 15:26:27.639808 16745 net.cpp:406] score19_slicer_conv_18_split <- score19
I0616 15:26:27.639816 16745 net.cpp:380] score19_slicer_conv_18_split -> score19_slicer_conv_18_split_0
I0616 15:26:27.639822 16745 net.cpp:380] score19_slicer_conv_18_split -> score19_slicer_conv_18_split_1
I0616 15:26:27.639856 16745 net.cpp:122] Setting up score19_slicer_conv_18_split
I0616 15:26:27.639881 16745 net.cpp:129] Top shape: 1 1 103 128 (13184)
I0616 15:26:27.639886 16745 net.cpp:129] Top shape: 1 1 103 128 (13184)
I0616 15:26:27.639890 16745 net.cpp:137] Memory required for data: 273601024
I0616 15:26:27.639894 16745 layer_factory.hpp:77] Creating layer score20_slicer_conv_19_split
I0616 15:26:27.639900 16745 net.cpp:84] Creating Layer score20_slicer_conv_19_split
I0616 15:26:27.639904 16745 net.cpp:406] score20_slicer_conv_19_split <- score20
I0616 15:26:27.639910 16745 net.cpp:380] score20_slicer_conv_19_split -> score20_slicer_conv_19_split_0
I0616 15:26:27.639931 16745 net.cpp:380] score20_slicer_conv_19_split -> score20_slicer_conv_19_split_1
I0616 15:26:27.639969 16745 net.cpp:122] Setting up score20_slicer_conv_19_split
I0616 15:26:27.639976 16745 net.cpp:129] Top shape: 1 1 103 128 (13184)
I0616 15:26:27.639979 16745 net.cpp:129] Top shape: 1 1 103 128 (13184)
I0616 15:26:27.639983 16745 net.cpp:137] Memory required for data: 273706496
I0616 15:26:27.639986 16745 layer_factory.hpp:77] Creating layer score21_slicer_conv_20_split
I0616 15:26:27.639991 16745 net.cpp:84] Creating Layer score21_slicer_conv_20_split
I0616 15:26:27.640000 16745 net.cpp:406] score21_slicer_conv_20_split <- score21
I0616 15:26:27.640005 16745 net.cpp:380] score21_slicer_conv_20_split -> score21_slicer_conv_20_split_0
I0616 15:26:27.640012 16745 net.cpp:380] score21_slicer_conv_20_split -> score21_slicer_conv_20_split_1
I0616 15:26:27.640043 16745 net.cpp:122] Setting up score21_slicer_conv_20_split
I0616 15:26:27.640048 16745 net.cpp:129] Top shape: 1 1 103 128 (13184)
I0616 15:26:27.640053 16745 net.cpp:129] Top shape: 1 1 103 128 (13184)
I0616 15:26:27.640056 16745 net.cpp:137] Memory required for data: 273811968
I0616 15:26:27.640059 16745 layer_factory.hpp:77] Creating layer score22_slicer_conv_21_split
I0616 15:26:27.640064 16745 net.cpp:84] Creating Layer score22_slicer_conv_21_split
I0616 15:26:27.640069 16745 net.cpp:406] score22_slicer_conv_21_split <- score22
I0616 15:26:27.640074 16745 net.cpp:380] score22_slicer_conv_21_split -> score22_slicer_conv_21_split_0
I0616 15:26:27.640080 16745 net.cpp:380] score22_slicer_conv_21_split -> score22_slicer_conv_21_split_1
I0616 15:26:27.640110 16745 net.cpp:122] Setting up score22_slicer_conv_21_split
I0616 15:26:27.640116 16745 net.cpp:129] Top shape: 1 1 103 128 (13184)
I0616 15:26:27.640120 16745 net.cpp:129] Top shape: 1 1 103 128 (13184)
I0616 15:26:27.640123 16745 net.cpp:137] Memory required for data: 273917440
I0616 15:26:27.640127 16745 layer_factory.hpp:77] Creating layer score23_slicer_conv_22_split
I0616 15:26:27.640132 16745 net.cpp:84] Creating Layer score23_slicer_conv_22_split
I0616 15:26:27.640136 16745 net.cpp:406] score23_slicer_conv_22_split <- score23
I0616 15:26:27.640141 16745 net.cpp:380] score23_slicer_conv_22_split -> score23_slicer_conv_22_split_0
I0616 15:26:27.640147 16745 net.cpp:380] score23_slicer_conv_22_split -> score23_slicer_conv_22_split_1
I0616 15:26:27.640177 16745 net.cpp:122] Setting up score23_slicer_conv_22_split
I0616 15:26:27.640183 16745 net.cpp:129] Top shape: 1 1 103 128 (13184)
I0616 15:26:27.640187 16745 net.cpp:129] Top shape: 1 1 103 128 (13184)
I0616 15:26:27.640192 16745 net.cpp:137] Memory required for data: 274022912
I0616 15:26:27.640195 16745 layer_factory.hpp:77] Creating layer score24_slicer_conv_23_split
I0616 15:26:27.640199 16745 net.cpp:84] Creating Layer score24_slicer_conv_23_split
I0616 15:26:27.640203 16745 net.cpp:406] score24_slicer_conv_23_split <- score24
I0616 15:26:27.640208 16745 net.cpp:380] score24_slicer_conv_23_split -> score24_slicer_conv_23_split_0
I0616 15:26:27.640213 16745 net.cpp:380] score24_slicer_conv_23_split -> score24_slicer_conv_23_split_1
I0616 15:26:27.640244 16745 net.cpp:122] Setting up score24_slicer_conv_23_split
I0616 15:26:27.640249 16745 net.cpp:129] Top shape: 1 1 103 128 (13184)
I0616 15:26:27.640254 16745 net.cpp:129] Top shape: 1 1 103 128 (13184)
I0616 15:26:27.640257 16745 net.cpp:137] Memory required for data: 274128384
I0616 15:26:27.640269 16745 layer_factory.hpp:77] Creating layer score25_slicer_conv_24_split
I0616 15:26:27.640274 16745 net.cpp:84] Creating Layer score25_slicer_conv_24_split
I0616 15:26:27.640276 16745 net.cpp:406] score25_slicer_conv_24_split <- score25
I0616 15:26:27.640282 16745 net.cpp:380] score25_slicer_conv_24_split -> score25_slicer_conv_24_split_0
I0616 15:26:27.640287 16745 net.cpp:380] score25_slicer_conv_24_split -> score25_slicer_conv_24_split_1
I0616 15:26:27.640321 16745 net.cpp:122] Setting up score25_slicer_conv_24_split
I0616 15:26:27.640326 16745 net.cpp:129] Top shape: 1 1 103 128 (13184)
I0616 15:26:27.640331 16745 net.cpp:129] Top shape: 1 1 103 128 (13184)
I0616 15:26:27.640333 16745 net.cpp:137] Memory required for data: 274233856
I0616 15:26:27.640337 16745 layer_factory.hpp:77] Creating layer score26_slicer_conv_25_split
I0616 15:26:27.640342 16745 net.cpp:84] Creating Layer score26_slicer_conv_25_split
I0616 15:26:27.640347 16745 net.cpp:406] score26_slicer_conv_25_split <- score26
I0616 15:26:27.640352 16745 net.cpp:380] score26_slicer_conv_25_split -> score26_slicer_conv_25_split_0
I0616 15:26:27.640357 16745 net.cpp:380] score26_slicer_conv_25_split -> score26_slicer_conv_25_split_1
I0616 15:26:27.640388 16745 net.cpp:122] Setting up score26_slicer_conv_25_split
I0616 15:26:27.640393 16745 net.cpp:129] Top shape: 1 1 103 128 (13184)
I0616 15:26:27.640398 16745 net.cpp:129] Top shape: 1 1 103 128 (13184)
I0616 15:26:27.640401 16745 net.cpp:137] Memory required for data: 274339328
I0616 15:26:27.640404 16745 layer_factory.hpp:77] Creating layer score27_slicer_conv_26_split
I0616 15:26:27.640409 16745 net.cpp:84] Creating Layer score27_slicer_conv_26_split
I0616 15:26:27.640414 16745 net.cpp:406] score27_slicer_conv_26_split <- score27
I0616 15:26:27.640419 16745 net.cpp:380] score27_slicer_conv_26_split -> score27_slicer_conv_26_split_0
I0616 15:26:27.640425 16745 net.cpp:380] score27_slicer_conv_26_split -> score27_slicer_conv_26_split_1
I0616 15:26:27.640455 16745 net.cpp:122] Setting up score27_slicer_conv_26_split
I0616 15:26:27.640460 16745 net.cpp:129] Top shape: 1 1 103 128 (13184)
I0616 15:26:27.640465 16745 net.cpp:129] Top shape: 1 1 103 128 (13184)
I0616 15:26:27.640467 16745 net.cpp:137] Memory required for data: 274444800
I0616 15:26:27.640471 16745 layer_factory.hpp:77] Creating layer score28_slicer_conv_27_split
I0616 15:26:27.640476 16745 net.cpp:84] Creating Layer score28_slicer_conv_27_split
I0616 15:26:27.640480 16745 net.cpp:406] score28_slicer_conv_27_split <- score28
I0616 15:26:27.640486 16745 net.cpp:380] score28_slicer_conv_27_split -> score28_slicer_conv_27_split_0
I0616 15:26:27.640491 16745 net.cpp:380] score28_slicer_conv_27_split -> score28_slicer_conv_27_split_1
I0616 15:26:27.640522 16745 net.cpp:122] Setting up score28_slicer_conv_27_split
I0616 15:26:27.640527 16745 net.cpp:129] Top shape: 1 1 103 128 (13184)
I0616 15:26:27.640532 16745 net.cpp:129] Top shape: 1 1 103 128 (13184)
I0616 15:26:27.640534 16745 net.cpp:137] Memory required for data: 274550272
I0616 15:26:27.640538 16745 layer_factory.hpp:77] Creating layer score29_slicer_conv_28_split
I0616 15:26:27.640543 16745 net.cpp:84] Creating Layer score29_slicer_conv_28_split
I0616 15:26:27.640547 16745 net.cpp:406] score29_slicer_conv_28_split <- score29
I0616 15:26:27.640552 16745 net.cpp:380] score29_slicer_conv_28_split -> score29_slicer_conv_28_split_0
I0616 15:26:27.640558 16745 net.cpp:380] score29_slicer_conv_28_split -> score29_slicer_conv_28_split_1
I0616 15:26:27.640588 16745 net.cpp:122] Setting up score29_slicer_conv_28_split
I0616 15:26:27.640594 16745 net.cpp:129] Top shape: 1 1 103 128 (13184)
I0616 15:26:27.640599 16745 net.cpp:129] Top shape: 1 1 103 128 (13184)
I0616 15:26:27.640601 16745 net.cpp:137] Memory required for data: 274655744
I0616 15:26:27.640605 16745 layer_factory.hpp:77] Creating layer score30_slicer_conv_29_split
I0616 15:26:27.640610 16745 net.cpp:84] Creating Layer score30_slicer_conv_29_split
I0616 15:26:27.640614 16745 net.cpp:406] score30_slicer_conv_29_split <- score30
I0616 15:26:27.640626 16745 net.cpp:380] score30_slicer_conv_29_split -> score30_slicer_conv_29_split_0
I0616 15:26:27.640633 16745 net.cpp:380] score30_slicer_conv_29_split -> score30_slicer_conv_29_split_1
I0616 15:26:27.640666 16745 net.cpp:122] Setting up score30_slicer_conv_29_split
I0616 15:26:27.640671 16745 net.cpp:129] Top shape: 1 1 103 128 (13184)
I0616 15:26:27.640676 16745 net.cpp:129] Top shape: 1 1 103 128 (13184)
I0616 15:26:27.640679 16745 net.cpp:137] Memory required for data: 274761216
I0616 15:26:27.640683 16745 layer_factory.hpp:77] Creating layer score31_slicer_conv_30_split
I0616 15:26:27.640688 16745 net.cpp:84] Creating Layer score31_slicer_conv_30_split
I0616 15:26:27.640692 16745 net.cpp:406] score31_slicer_conv_30_split <- score31
I0616 15:26:27.640697 16745 net.cpp:380] score31_slicer_conv_30_split -> score31_slicer_conv_30_split_0
I0616 15:26:27.640703 16745 net.cpp:380] score31_slicer_conv_30_split -> score31_slicer_conv_30_split_1
I0616 15:26:27.640733 16745 net.cpp:122] Setting up score31_slicer_conv_30_split
I0616 15:26:27.640738 16745 net.cpp:129] Top shape: 1 1 103 128 (13184)
I0616 15:26:27.640743 16745 net.cpp:129] Top shape: 1 1 103 128 (13184)
I0616 15:26:27.640746 16745 net.cpp:137] Memory required for data: 274866688
I0616 15:26:27.640750 16745 layer_factory.hpp:77] Creating layer score32_slicer_conv_31_split
I0616 15:26:27.640755 16745 net.cpp:84] Creating Layer score32_slicer_conv_31_split
I0616 15:26:27.640759 16745 net.cpp:406] score32_slicer_conv_31_split <- score32
I0616 15:26:27.640764 16745 net.cpp:380] score32_slicer_conv_31_split -> score32_slicer_conv_31_split_0
I0616 15:26:27.640770 16745 net.cpp:380] score32_slicer_conv_31_split -> score32_slicer_conv_31_split_1
I0616 15:26:27.640800 16745 net.cpp:122] Setting up score32_slicer_conv_31_split
I0616 15:26:27.640805 16745 net.cpp:129] Top shape: 1 1 103 128 (13184)
I0616 15:26:27.640810 16745 net.cpp:129] Top shape: 1 1 103 128 (13184)
I0616 15:26:27.640813 16745 net.cpp:137] Memory required for data: 274972160
I0616 15:26:27.640828 16745 layer_factory.hpp:77] Creating layer sumscore
I0616 15:26:27.640837 16745 net.cpp:84] Creating Layer sumscore
I0616 15:26:27.640842 16745 net.cpp:406] sumscore <- score1_slicer_conv_0_split_0
I0616 15:26:27.640847 16745 net.cpp:406] sumscore <- score2_slicer_conv_1_split_0
I0616 15:26:27.640852 16745 net.cpp:406] sumscore <- score3_slicer_conv_2_split_0
…
I0616 15:26:27.641300 16745 net.cpp:380] sumscore_sumscore_0_split -> sumscore_sumscore_0_split_27
I0616 15:26:27.641309 16745 net.cpp:380] sumscore_sumscore_0_split -> sumscore_sumscore_0_split_28
I0616 15:26:27.641326 16745 net.cpp:380] sumscore_sumscore_0_split -> sumscore_sumscore_0_split_29
I0616 15:26:27.641335 16745 net.cpp:380] sumscore_sumscore_0_split -> sumscore_sumscore_0_split_30
I0616 15:26:27.641345 16745 net.cpp:380] sumscore_sumscore_0_split -> sumscore_sumscore_0_split_31
I0616 15:26:27.641683 16745 net.cpp:122] Setting up sumscore_sumscore_0_split
I0616 15:26:27.641690 16745 net.cpp:129] Top shape: 1 1 103 128 (13184)
I0616 15:26:27.641695 16745 net.cpp:129] Top shape: 1 1 103 128 (13184)
I0616 15:26:27.641698 16745 net.cpp:129] Top shape: 1 1 103 128 (13184)
I0616 15:26:27.641703 16745 net.cpp:129] Top shape: 1 1 103 128 (13184)
I0616 15:26:27.641707 16745 net.cpp:129] Top shape: 1 1 103 128 (13184)
I0616 15:26:27.641712 16745 net.cpp:129] Top shape: 1 1 103 128 (13184)
I0616 15:26:27.641717 16745 net.cpp:129] Top shape: 1 1 103 128 (13184)
I0616 15:26:27.641722 16745 net.cpp:129] Top shape: 1 1 103 128 (13184)
I0616 15:26:27.641726 16745 net.cpp:129] Top shape: 1 1 103 128 (13184)
I0616 15:26:27.641731 16745 net.cpp:129] Top shape: 1 1 103 128 (13184)
I0616 15:26:27.641736 16745 net.cpp:129] Top shape: 1 1 103 128 (13184)
I0616 15:26:27.641739 16745 net.cpp:129] Top shape: 1 1 103 128 (13184)
I0616 15:26:27.641744 16745 net.cpp:129] Top shape: 1 1 103 128 (13184)
I0616 15:26:27.641749 16745 net.cpp:129] Top shape: 1 1 103 128 (13184)
I0616 15:26:27.641754 16745 net.cpp:129] Top shape: 1 1 103 128 (13184)
I0616 15:26:27.641758 16745 net.cpp:129] Top shape: 1 1 103 128 (13184)
I0616 15:26:27.641763 16745 net.cpp:129] Top shape: 1 1 103 128 (13184)
I0616 15:26:27.641767 16745 net.cpp:129] Top shape: 1 1 103 128 (13184)
I0616 15:26:27.641772 16745 net.cpp:129] Top shape: 1 1 103 128 (13184)
I0616 15:26:27.641777 16745 net.cpp:129] Top shape: 1 1 103 128 (13184)
I0616 15:26:27.641782 16745 net.cpp:129] Top shape: 1 1 103 128 (13184)
I0616 15:26:27.641785 16745 net.cpp:129] Top shape: 1 1 103 128 (13184)
I0616 15:26:27.641790 16745 net.cpp:129] Top shape: 1 1 103 128 (13184)
I0616 15:26:27.641794 16745 net.cpp:129] Top shape: 1 1 103 128 (13184)
I0616 15:26:27.641799 16745 net.cpp:129] Top shape: 1 1 103 128 (13184)
I0616 15:26:27.641803 16745 net.cpp:129] Top shape: 1 1 103 128 (13184)
I0616 15:26:27.641808 16745 net.cpp:129] Top shape: 1 1 103 128 (13184)
I0616 15:26:27.641813 16745 net.cpp:129] Top shape: 1 1 103 128 (13184)
I0616 15:26:27.641818 16745 net.cpp:129] Top shape: 1 1 103 128 (13184)
I0616 15:26:27.641821 16745 net.cpp:129] Top shape: 1 1 103 128 (13184)
I0616 15:26:27.641826 16745 net.cpp:129] Top shape: 1 1 103 128 (13184)
I0616 15:26:27.641830 16745 net.cpp:129] Top shape: 1 1 103 128 (13184)
I0616 15:26:27.641834 16745 net.cpp:137] Memory required for data: 276712448
I0616 15:26:27.641839 16745 layer_factory.hpp:77] Creating layer loss1
I0616 15:26:27.641846 16745 net.cpp:84] Creating Layer loss1
I0616 15:26:27.641851 16745 net.cpp:406] loss1 <- score1_slicer_conv_0_split_1
I0616 15:26:27.641857 16745 net.cpp:406] loss1 <- label_label_0_split_0
I0616 15:26:27.641862 16745 net.cpp:406] loss1 <- sumscore_sumscore_0_split_0
…
I0616 15:26:27.647047 16745 net.cpp:51] Initializing net from parameters: 
name: "crowd_counting"
state {
  phase: TEST
}
layer {
  name: "data"
  type: "Data"
  top: "data"
  include {
    phase: TEST
  }
  data_param {
    source: "/home/peiyong/Work/Zenglin/szl/ShanghaiTech/partA/test/image_lmdb"
    batch_size: 1
    backend: LMDB
  }
}
layer {
  name: "label"
  type: "Data"
  top: "label"
  include {
    phase: TEST
  }
  data_param {
    source: "/home/peiyong/Work/Zenglin/szl/ShanghaiTech/partA/test/dmap_lmdb"
    batch_size: 1
    backend: LMDB
  }
}
layer {
  name: "conv1"
  type: "Convolution"
  bottom: "data"
  top: "conv1"
  param {
    lr_mult: 1
    decay_mult: 1
  }
  param {
    lr_mult: 2
    decay_mult: 0
  }
  convolution_param {
    num_output: 16
    pad: 2
    kernel_size: 5
    stride: 1
    weight_filler {
      type: "gaussian"
      std: 0.01
    }
    bias_filler {
      type: "constant"
      value: 0
    }
  }
}
layer {
  name: "bn_conv1"
  type: "BatchNorm"
  bottom: "conv1"
  top: "conv1"
  batch_norm_param {
    use_global_stats: false
  }
}
layer {
  name: "scale_conv1"
  type: "Scale"
  bottom: "conv1"
  top: "conv1"
  scale_param {
    bias_term: true
  }
}
layer {
  name: "relu1"
  type: "ReLU"
  bottom: "conv1"
  top: "conv1"
}
layer {
  name: "pool1"
  type: "Pooling"
  bottom: "conv1"
  top: "pool1"
  pooling_param {
    pool: MAX
    kernel_size: 2
    stride: 2
  }
}
layer {
  name: "conv4_11"
  type: "Convolution"
  bottom: "pool1"
  top: "conv4_11"
  param {
    lr_mult: 1
    decay_mult: 1
  }
  param {
    lr_mult: 2
    decay_mult: 0
  }
  convolution_param {
    num_output: 24
    pad: 1
    kernel_size: 3
    stride: 1
    weight_filler {
      type: "gaussian"
      std: 0.01
    }
    bias_filler {
      type: "constant"
      value: 0
    }
  }
}
layer {
  name: "bn_conv4_11"
  type: "BatchNorm"
  bottom: "conv4_11"
  top: "conv4_11"
  batch_norm_param {
    use_global_stats: false
  }
}
layer {
  name: "scale_conv4_11"
  type: "Scale"
  bottom: "conv4_11"
  top: "conv4_11"
  scale_param {
    bias_term: true
  }
}
layer {
  name: "relu4_11"
  type: "ReLU"
  bottom: "conv4_11"
  top: "conv4_11"
}
layer {
  name: "conv4_12"
  type: "Convolution"
  bottom: "conv4_11"
  top: "conv4_12"
  param {
    lr_mult: 1
    decay_mult: 1
  }
  param {
    lr_mult: 2
    decay_mult: 0
  }
  convolution_param {
    num_output: 24
    pad: 1
    kernel_size: 3
    stride: 1
    weight_filler {
      type: "gaussian"
      std: 0.01
    }
    bias_filler {
      type: "constant"
      value: 0
    }
  }
}
layer {
  name: "bn_conv4_12"
  type: "BatchNorm"
  bottom: "conv4_12"
  top: "conv4_12"
  batch_norm_param {
    use_global_stats: false
  }
}
layer {
  name: "scale_conv4_12"
  type: "Scale"
  bottom: "conv4_12"
  top: "conv4_12"
  scale_param {
    bias_term: true
  }
}
layer {
  name: "relu4_12"
  type: "ReLU"
  bottom: "conv4_12"
  top: "conv4_12"
}
layer {
  name: "conv4_13"
  type: "Convolution"
  bottom: "conv4_12"
  top: "conv4_13"
  param {
    lr_mult: 1
    decay_mult: 1
  }
  param {
    lr_mult: 2
    decay_mult: 0
  }
  convolution_param {
    num_output: 24
    pad: 1
    kernel_size: 3
    stride: 1
    weight_filler {
      type: "gaussian"
      std: 0.01
    }
    bias_filler {
      type: "constant"
      value: 0
    }
  }
}
layer {
  name: "bn_conv4_13"
  type: "BatchNorm"
  bottom: "conv4_13"
  top: "conv4_13"
  batch_norm_param {
    use_global_stats: false
  }
}
layer {
  name: "scale_conv4_13"
  type: "Scale"
  bottom: "conv4_13"
  top: "conv4_13"
  scale_param {
    bias_term: true
  }
}
layer {
  name: "relu4_13"
  type: "ReLU"
  bottom: "conv4_13"
  top: "conv4_13"
}
layer {
  name: "conv4_21"
  type: "Convolution"
  bottom: "pool1"
  top: "conv4_21"
  param {
    lr_mult: 1
    decay_mult: 1
  }
  param {
    lr_mult: 2
    decay_mult: 0
  }
  convolution_param {
    num_output: 24
    pad: 1
    kernel_size: 3
    stride: 1
    weight_filler {
      type: "gaussian"
      std: 0.01
    }
    bias_filler {
      type: "constant"
      value: 0
    }
  }
}
layer {
  name: "bn_conv4_21"
  type: "BatchNorm"
  bottom: "conv4_21"
  top: "conv4_21"
  batch_norm_param {
    use_global_stats: false
  }
}
layer {
  name: "scale_conv4_21"
  type: "Scale"
  bottom: "conv4_21"
  top: "conv4_21"
  scale_param {
    bias_term: true
  }
}
layer {
  name: "relu4_21"
  type: "ReLU"
  bottom: "conv4_21"
  top: "conv4_21"
}
layer {
  name: "conv4_22"
  type: "Convolution"
  bottom: "conv4_21"
  top: "conv4_22"
  param {
    lr_mult: 1
    decay_mult: 1
  }
  param {
    lr_mult: 2
    decay_mult: 0
  }
  convolution_param {
    num_output: 24
    pad: 1
    kernel_size: 3
    stride: 1
    weight_filler {
      type: "gaussian"
      std: 0.01
    }
    bias_filler {
      type: "constant"
      value: 0
    }
  }
}
layer {
  name: "bn_conv4_22"
  type: "BatchNorm"
  bottom: "conv4_22"
  top: "conv4_22"
  batch_norm_param {
    use_global_stats: false
  }
}
layer {
  name: "scale_conv4_22"
  type: "Scale"
  bottom: "conv4_22"
  top: "conv4_22"
  scale_param {
    bias_term: true
  }
}
layer {
  name: "relu4_22"
  type: "ReLU"
  bottom: "conv4_22"
  top: "conv4_22"
}
layer {
  name: "conv4_31"
  type: "Convolution"
  bottom: "pool1"
  top: "conv4_31"
  param {
    lr_mult: 1
    decay_mult: 1
  }
  param {
    lr_mult: 2
    decay_mult: 0
  }
  convolution_param {
    num_output: 24
    pad: 1
    kernel_size: 3
    stride: 1
    weight_filler {
      type: "gaussian"
      std: 0.01
    }
    bias_filler {
      type: "constant"
      value: 0
    }
  }
}
layer {
  name: "bn_conv4_31"
  type: "BatchNorm"
  bottom: "conv4_31"
  top: "conv4_31"
  batch_norm_param {
    use_global_stats: false
  }
}
layer {
  name: "scale_conv4_31"
  type: "Scale"
  bottom: "conv4_31"
  top: "conv4_31"
  scale_param {
    bias_term: true
  }
}
layer {
  name: "relu4_31"
  type: "ReLU"
  bottom: "conv4_31"
  top: "conv4_31"
}
layer {
  name: "concat1"
  type: "Concat"
  bottom: "conv4_13"
  bottom: "conv4_22"
  bottom: "conv4_31"
  top: "conv4"
  concat_param {
    axis: 1
  }
}
layer {
  name: "pool2"
  type: "Pooling"
  bottom: "conv4"
  top: "pool2"
  pooling_param {
    pool: MAX
    kernel_size: 2
    stride: 2
  }
}
layer {
  name: "conv5_11"
  type: "Convolution"
  bottom: "pool2"
  top: "conv5_11"
  param {
    lr_mult: 1
    decay_mult: 1
  }
  param {
    lr_mult: 2
    decay_mult: 0
  }
  convolution_param {
    num_output: 32
    pad: 1
    kernel_size: 3
    stride: 1
    weight_filler {
      type: "gaussian"
      std: 0.01
    }
    bias_filler {
      type: "constant"
      value: 0
    }
  }
}
layer {
  name: "bn_conv5_11"
  type: "BatchNorm"
  bottom: "conv5_11"
  top: "conv5_11"
  batch_norm_param {
    use_global_stats: false
  }
}
layer {
  name: "scale_conv5_11"
  type: "Scale"
  bottom: "conv5_11"
  top: "conv5_11"
  scale_param {
    bias_term: true
  }
}
layer {
  name: "relu5_11"
  type: "ReLU"
  bottom: "conv5_11"
  top: "conv5_11"
}
layer {
  name: "conv5_12"
  type: "Convolution"
  bottom: "conv5_11"
  top: "conv5_12"
  param {
    lr_mult: 1
    decay_mult: 1
  }
  param {
    lr_mult: 2
    decay_mult: 0
  }
  convolution_param {
    num_output: 32
    pad: 1
    kernel_size: 3
    stride: 1
    weight_filler {
      type: "gaussian"
      std: 0.01
    }
    bias_filler {
      type: "constant"
      value: 0
    }
  }
}
layer {
  name: "bn_conv5_12"
  type: "BatchNorm"
  bottom: "conv5_12"
  top: "conv5_12"
  batch_norm_param {
    use_global_stats: false
  }
}
layer {
  name: "scale_conv5_12"
  type: "Scale"
  bottom: "conv5_12"
  top: "conv5_12"
  scale_param {
    bias_term: true
  }
}
layer {
  name: "relu5_12"
  type: "ReLU"
  bottom: "conv5_12"
  top: "conv5_12"
}
layer {
  name: "conv5_13"
  type: "Convolution"
  bottom: "conv5_12"
  top: "conv5_13"
  param {
    lr_mult: 1
    decay_mult: 1
  }
  param {
    lr_mult: 2
    decay_mult: 0
  }
  convolution_param {
    num_output: 32
    pad: 1
    kernel_size: 3
    stride: 1
    weight_filler {
      type: "gaussian"
      std: 0.01
    }
    bias_filler {
      type: "constant"
      value: 0
    }
  }
}
layer {
  name: "bn_conv5_13"
  type: "BatchNorm"
  bottom: "conv5_13"
  top: "conv5_13"
  batch_norm_param {
    use_global_stats: false
  }
}
layer {
  name: "scale_conv5_13"
  type: "Scale"
  bottom: "conv5_13"
  top: "conv5_13"
  scale_param {
    bias_term: true
  }
}
layer {
  name: "relu5_13"
  type: "ReLU"
  bottom: "conv5_13"
  top: "conv5_13"
}
layer {
  name: "conv5_21"
  type: "Convolution"
  bottom: "pool2"
  top: "conv5_21"
  param {
    lr_mult: 1
    decay_mult: 1
  }
  param {
    lr_mult: 2
    decay_mult: 0
  }
  convolution_param {
    num_output: 32
    pad: 1
    kernel_size: 3
    stride: 1
    weight_filler {
      type: "gaussian"
      std: 0.01
    }
    bias_filler {
      type: "constant"
      value: 0
    }
  }
}
layer {
  name: "bn_conv5_21"
  type: "BatchNorm"
  bottom: "conv5_21"
  top: "conv5_21"
  batch_norm_param {
    use_global_stats: false
  }
}
layer {
  name: "scale_conv5_21"
  type: "Scale"
  bottom: "conv5_21"
  top: "conv5_21"
  scale_param {
    bias_term: true
  }
}
layer {
  name: "relu5_21"
  type: "ReLU"
  bottom: "conv5_21"
  top: "conv5_21"
}
layer {
  name: "conv5_22"
  type: "Convolution"
  bottom: "conv5_21"
  top: "conv5_22"
  param {
    lr_mult: 1
    decay_mult: 1
  }
  param {
    lr_mult: 2
    decay_mult: 0
  }
  convolution_param {
    num_output: 32
    pad: 1
    kernel_size: 3
    stride: 1
    weight_filler {
      type: "gaussian"
      std: 0.01
    }
    bias_filler {
      type: "constant"
      value: 0
    }
  }
}
layer {
  name: "bn_conv5_22"
  type: "BatchNorm"
  bottom: "conv5_22"
  top: "conv5_22"
  batch_norm_param {
    use_global_stats: false
  }
}
layer {
  name: "scale_conv5_22"
  type: "Scale"
  bottom: "conv5_22"
  top: "conv5_22"
  scale_param {
    bias_term: true
  }
}
layer {
  name: "relu5_22"
  type: "ReLU"
  bottom: "conv5_22"
  top: "conv5_22"
}
layer {
  name: "conv5_31"
  type: "Convolution"
  bottom: "pool2"
  top: "conv5_31"
  param {
    lr_mult: 1
    decay_mult: 1
  }
  param {
    lr_mult: 2
    decay_mult: 0
  }
  convolution_param {
    num_output: 32
    pad: 1
    kernel_size: 3
    stride: 1
    weight_filler {
      type: "gaussian"
      std: 0.01
    }
    bias_filler {
      type: "constant"
      value: 0
    }
  }
}
layer {
  name: "bn_conv5_31"
  type: "BatchNorm"
  bottom: "conv5_31"
  top: "conv5_31"
  batch_norm_param {
    use_global_stats: false
  }
}
layer {
  name: "scale_conv5_31"
  type: "Scale"
  bottom: "conv5_31"
  top: "conv5_31"
  scale_param {
    bias_term: true
  }
}
layer {
  name: "relu5_31"
  type: "ReLU"
  bottom: "conv5_31"
  top: "conv5_31"
}
layer {
  name: "concat2"
  type: "Concat"
  bottom: "conv5_13"
  bottom: "conv5_22"
  bottom: "conv5_31"
  top: "conv5"
  concat_param {
    axis: 1
  }
}
layer {
  name: "conv6"
  type: "Convolution"
  bottom: "conv5"
  top: "conv_score"
  param {
    lr_mult: 1
    decay_mult: 1
  }
  param {
    lr_mult: 2
    decay_mult: 0
  }
  convolution_param {
    num_output: 32
    pad: 0
    kernel_size: 1
    group: 32
    stride: 1
    weight_filler {
      type: "gaussian"
      std: 0.01
    }
    bias_filler {
      type: "constant"
      value: 0
    }
  }
}
layer {
  name: "relu6"
  type: "ReLU"
  bottom: "conv_score"
  top: "conv_score"
}
layer {
  name: "slicer_conv"
  type: "Slice"
  bottom: "conv_score"
  top: "score1"
  top: "score2"
  top: "score3"
  top: "score4"
  top: "score5"
  top: "score6"
  top: "score7"
  top: "score8"
  top: "score9"
  top: "score10"
  top: "score11"
  top: "score12"
  top: "score13"
  top: "score14"
  top: "score15"
  top: "score16"
  top: "score17"
  top: "score18"
  top: "score19"
  top: "score20"
  top: "score21"
  top: "score22"
  top: "score23"
  top: "score24"
  top: "score25"
  top: "score26"
  top: "score27"
  top: "score28"
  top: "score29"
  top: "score30"
  top: "score31"
  top: "score32"
  slice_param {
    axis: 1
  }
}
layer {
  name: "sumscore"
  type: "Eltwise"
  bottom: "score1"
  bottom: "score2"
  bottom: "score3"
  bottom: "score4"
  bottom: "score5"
  bottom: "score6"
  bottom: "score7"
  bottom: "score8"
  bottom: "score9"
  bottom: "score10"
  bottom: "score11"
  bottom: "score12"
  bottom: "score13"
  bottom: "score14"
  bottom: "score15"
  bottom: "score16"
  bottom: "score17"
  bottom: "score18"
  bottom: "score19"
  bottom: "score20"
  bottom: "score21"
  bottom: "score22"
  bottom: "score23"
  bottom: "score24"
  bottom: "score25"
  bottom: "score26"
  bottom: "score27"
  bottom: "score28"
  bottom: "score29"
  bottom: "score30"
  bottom: "score31"
  bottom: "score32"
  top: "sumscore"
  eltwise_param {
    operation: SUM
  }
}
layer {
  name: "avgscore"
  type: "Power"
  bottom: "sumscore"
  top: "avgscore"
  include {
    phase: TEST
  }
  power_param {
    power: 1
    scale: 0.03125
    shift: 0
  }
}
layer {
  name: "mae"
  type: "MAELoss"
  bottom: "avgscore"
  bottom: "label"
  top: "mae"
  include {
    phase: TEST
  }
}
layer {
  name: "mse"
  type: "MSELoss"
  bottom: "avgscore"
  bottom: "label"
  top: "mse"
  include {
    phase: TEST
  }
}
I0616 15:26:27.647438 16745 layer_factory.hpp:77] Creating layer data
I0616 15:26:27.649267 16745 db_lmdb.cpp:35] Opened lmdb /home/peiyong/Work/Zenglin/szl/ShanghaiTech/partA/test/image_lmdb
I0616 15:26:27.650094 16745 net.cpp:84] Creating Layer data
I0616 15:26:27.650105 16745 net.cpp:380] data -> data
I0616 15:26:27.652200 16745 data_layer.cpp:45] output data size: 1,1,704,1024
I0616 15:26:27.658087 16745 net.cpp:122] Setting up data
I0616 15:26:27.658104 16745 net.cpp:129] Top shape: 1 1 704 1024 (720896)
I0616 15:26:27.658107 16745 net.cpp:137] Memory required for data: 2883584
I0616 15:26:27.658112 16745 layer_factory.hpp:77] Creating layer label
I0616 15:26:27.658541 16745 db_lmdb.cpp:35] Opened lmdb /home/peiyong/Work/Zenglin/szl/ShanghaiTech/partA/test/dmap_lmdb
I0616 15:26:27.659384 16745 net.cpp:84] Creating Layer label
I0616 15:26:27.659394 16745 net.cpp:380] label -> label
I0616 15:26:27.659965 16745 data_layer.cpp:45] output data size: 1,1,176,256
I0616 15:26:27.660619 16745 net.cpp:122] Setting up label
I0616 15:26:27.660631 16745 net.cpp:129] Top shape: 1 1 176 256 (45056)
I0616 15:26:27.660634 16745 net.cpp:137] Memory required for data: 3063808
I0616 15:26:27.660637 16745 layer_factory.hpp:77] Creating layer label_label_0_split
I0616 15:26:27.660643 16745 net.cpp:84] Creating Layer label_label_0_split
I0616 15:26:27.660646 16745 net.cpp:406] label_label_0_split <- label
I0616 15:26:27.660651 16745 net.cpp:380] label_label_0_split -> label_label_0_split_0
I0616 15:26:27.660657 16745 net.cpp:380] label_label_0_split -> label_label_0_split_1
I0616 15:26:27.660899 16745 net.cpp:122] Setting up label_label_0_split
I0616 15:26:27.660928 16745 net.cpp:129] Top shape: 1 1 176 256 (45056)
I0616 15:26:27.660944 16745 net.cpp:129] Top shape: 1 1 176 256 (45056)
I0616 15:26:27.660953 16745 net.cpp:137] Memory required for data: 3424256
I0616 15:26:27.660959 16745 layer_factory.hpp:77] Creating layer conv1
I0616 15:26:27.660969 16745 net.cpp:84] Creating Layer conv1
I0616 15:26:27.660974 16745 net.cpp:406] conv1 <- data
I0616 15:26:27.660979 16745 net.cpp:380] conv1 -> conv1
I0616 15:26:27.664326 16745 net.cpp:122] Setting up conv1
I0616 15:26:27.664340 16745 net.cpp:129] Top shape: 1 16 704 1024 (11534336)
I0616 15:26:27.664343 16745 net.cpp:137] Memory required for data: 49561600
I0616 15:26:27.664352 16745 layer_factory.hpp:77] Creating layer bn_conv1
I0616 15:26:27.664361 16745 net.cpp:84] Creating Layer bn_conv1
I0616 15:26:27.664364 16745 net.cpp:406] bn_conv1 <- conv1
I0616 15:26:27.664369 16745 net.cpp:367] bn_conv1 -> conv1 (in-place)
I0616 15:26:27.665784 16745 net.cpp:122] Setting up bn_conv1
I0616 15:26:27.665796 16745 net.cpp:129] Top shape: 1 16 704 1024 (11534336)
I0616 15:26:27.665798 16745 net.cpp:137] Memory required for data: 95698944
I0616 15:26:27.665808 16745 layer_factory.hpp:77] Creating layer scale_conv1
I0616 15:26:27.665815 16745 net.cpp:84] Creating Layer scale_conv1
I0616 15:26:27.665819 16745 net.cpp:406] scale_conv1 <- conv1
I0616 15:26:27.665823 16745 net.cpp:367] scale_conv1 -> conv1 (in-place)
I0616 15:26:27.665868 16745 layer_factory.hpp:77] Creating layer scale_conv1
I0616 15:26:27.668450 16745 net.cpp:122] Setting up scale_conv1
I0616 15:26:27.668464 16745 net.cpp:129] Top shape: 1 16 704 1024 (11534336)
I0616 15:26:27.668467 16745 net.cpp:137] Memory required for data: 141836288
I0616 15:26:27.668473 16745 layer_factory.hpp:77] Creating layer relu1
I0616 15:26:27.668479 16745 net.cpp:84] Creating Layer relu1
I0616 15:26:27.668483 16745 net.cpp:406] relu1 <- conv1
I0616 15:26:27.668488 16745 net.cpp:367] relu1 -> conv1 (in-place)
I0616 15:26:27.669198 16745 net.cpp:122] Setting up relu1
I0616 15:26:27.669209 16745 net.cpp:129] Top shape: 1 16 704 1024 (11534336)
I0616 15:26:27.669212 16745 net.cpp:137] Memory required for data: 187973632
I0616 15:26:27.669215 16745 layer_factory.hpp:77] Creating layer pool1
I0616 15:26:27.669222 16745 net.cpp:84] Creating Layer pool1
I0616 15:26:27.669226 16745 net.cpp:406] pool1 <- conv1
I0616 15:26:27.669231 16745 net.cpp:380] pool1 -> pool1
I0616 15:26:27.669286 16745 net.cpp:122] Setting up pool1
I0616 15:26:27.669292 16745 net.cpp:129] Top shape: 1 16 352 512 (2883584)
I0616 15:26:27.669296 16745 net.cpp:137] Memory required for data: 199507968
I0616 15:26:27.669299 16745 layer_factory.hpp:77] Creating layer pool1_pool1_0_split
I0616 15:26:27.669307 16745 net.cpp:84] Creating Layer pool1_pool1_0_split
I0616 15:26:27.669311 16745 net.cpp:406] pool1_pool1_0_split <- pool1
I0616 15:26:27.669327 16745 net.cpp:380] pool1_pool1_0_split -> pool1_pool1_0_split_0
I0616 15:26:27.669332 16745 net.cpp:380] pool1_pool1_0_split -> pool1_pool1_0_split_1
I0616 15:26:27.669338 16745 net.cpp:380] pool1_pool1_0_split -> pool1_pool1_0_split_2
I0616 15:26:27.669396 16745 net.cpp:122] Setting up pool1_pool1_0_split
I0616 15:26:27.669402 16745 net.cpp:129] Top shape: 1 16 352 512 (2883584)
I0616 15:26:27.669412 16745 net.cpp:129] Top shape: 1 16 352 512 (2883584)
I0616 15:26:27.669419 16745 net.cpp:129] Top shape: 1 16 352 512 (2883584)
I0616 15:26:27.669422 16745 net.cpp:137] Memory required for data: 234110976
I0616 15:26:27.669425 16745 layer_factory.hpp:77] Creating layer conv4_11
I0616 15:26:27.669435 16745 net.cpp:84] Creating Layer conv4_11
I0616 15:26:27.669440 16745 net.cpp:406] conv4_11 <- pool1_pool1_0_split_0
I0616 15:26:27.669445 16745 net.cpp:380] conv4_11 -> conv4_11
I0616 15:26:27.671530 16745 net.cpp:122] Setting up conv4_11
I0616 15:26:27.671541 16745 net.cpp:129] Top shape: 1 24 352 512 (4325376)
I0616 15:26:27.671546 16745 net.cpp:137] Memory required for data: 251412480
I0616 15:26:27.671555 16745 layer_factory.hpp:77] Creating layer bn_conv4_11
I0616 15:26:27.671561 16745 net.cpp:84] Creating Layer bn_conv4_11
I0616 15:26:27.671586 16745 net.cpp:406] bn_conv4_11 <- conv4_11
I0616 15:26:27.671597 16745 net.cpp:367] bn_conv4_11 -> conv4_11 (in-place)
I0616 15:26:27.672230 16745 net.cpp:122] Setting up bn_conv4_11
I0616 15:26:27.672241 16745 net.cpp:129] Top shape: 1 24 352 512 (4325376)
I0616 15:26:27.672245 16745 net.cpp:137] Memory required for data: 268713984
I0616 15:26:27.672253 16745 layer_factory.hpp:77] Creating layer scale_conv4_11
I0616 15:26:27.672272 16745 net.cpp:84] Creating Layer scale_conv4_11
I0616 15:26:27.672276 16745 net.cpp:406] scale_conv4_11 <- conv4_11
I0616 15:26:27.672281 16745 net.cpp:367] scale_conv4_11 -> conv4_11 (in-place)
I0616 15:26:27.672324 16745 layer_factory.hpp:77] Creating layer scale_conv4_11
I0616 15:26:27.673461 16745 net.cpp:122] Setting up scale_conv4_11
I0616 15:26:27.673473 16745 net.cpp:129] Top shape: 1 24 352 512 (4325376)
I0616 15:26:27.673478 16745 net.cpp:137] Memory required for data: 286015488
I0616 15:26:27.673483 16745 layer_factory.hpp:77] Creating layer relu4_11
I0616 15:26:27.673491 16745 net.cpp:84] Creating Layer relu4_11
I0616 15:26:27.673493 16745 net.cpp:406] relu4_11 <- conv4_11
I0616 15:26:27.673499 16745 net.cpp:367] relu4_11 -> conv4_11 (in-place)
I0616 15:26:27.674044 16745 net.cpp:122] Setting up relu4_11
I0616 15:26:27.674055 16745 net.cpp:129] Top shape: 1 24 352 512 (4325376)
I0616 15:26:27.674059 16745 net.cpp:137] Memory required for data: 303316992
I0616 15:26:27.674063 16745 layer_factory.hpp:77] Creating layer conv4_12
I0616 15:26:27.674073 16745 net.cpp:84] Creating Layer conv4_12
I0616 15:26:27.674077 16745 net.cpp:406] conv4_12 <- conv4_11
I0616 15:26:27.674083 16745 net.cpp:380] conv4_12 -> conv4_12
I0616 15:26:27.676681 16745 net.cpp:122] Setting up conv4_12
I0616 15:26:27.676692 16745 net.cpp:129] Top shape: 1 24 352 512 (4325376)
I0616 15:26:27.676697 16745 net.cpp:137] Memory required for data: 320618496
I0616 15:26:27.676703 16745 layer_factory.hpp:77] Creating layer bn_conv4_12
I0616 15:26:27.676709 16745 net.cpp:84] Creating Layer bn_conv4_12
I0616 15:26:27.676713 16745 net.cpp:406] bn_conv4_12 <- conv4_12
I0616 15:26:27.676718 16745 net.cpp:367] bn_conv4_12 -> conv4_12 (in-place)
I0616 15:26:27.677495 16745 net.cpp:122] Setting up bn_conv4_12
I0616 15:26:27.677510 16745 net.cpp:129] Top shape: 1 24 352 512 (4325376)
I0616 15:26:27.677517 16745 net.cpp:137] Memory required for data: 337920000
I0616 15:26:27.677532 16745 layer_factory.hpp:77] Creating layer scale_conv4_12
I0616 15:26:27.677541 16745 net.cpp:84] Creating Layer scale_conv4_12
I0616 15:26:27.677547 16745 net.cpp:406] scale_conv4_12 <- conv4_12
I0616 15:26:27.677556 16745 net.cpp:367] scale_conv4_12 -> conv4_12 (in-place)
I0616 15:26:27.677614 16745 layer_factory.hpp:77] Creating layer scale_conv4_12
I0616 15:26:27.678645 16745 net.cpp:122] Setting up scale_conv4_12
I0616 15:26:27.678658 16745 net.cpp:129] Top shape: 1 24 352 512 (4325376)
I0616 15:26:27.678661 16745 net.cpp:137] Memory required for data: 355221504
I0616 15:26:27.678668 16745 layer_factory.hpp:77] Creating layer relu4_12
I0616 15:26:27.678676 16745 net.cpp:84] Creating Layer relu4_12
I0616 15:26:27.678680 16745 net.cpp:406] relu4_12 <- conv4_12
I0616 15:26:27.678685 16745 net.cpp:367] relu4_12 -> conv4_12 (in-place)
I0616 15:26:27.678846 16745 net.cpp:122] Setting up relu4_12
I0616 15:26:27.678855 16745 net.cpp:129] Top shape: 1 24 352 512 (4325376)
I0616 15:26:27.678859 16745 net.cpp:137] Memory required for data: 372523008
I0616 15:26:27.678864 16745 layer_factory.hpp:77] Creating layer conv4_13
I0616 15:26:27.678872 16745 net.cpp:84] Creating Layer conv4_13
I0616 15:26:27.678876 16745 net.cpp:406] conv4_13 <- conv4_12
I0616 15:26:27.678882 16745 net.cpp:380] conv4_13 -> conv4_13
I0616 15:26:27.681258 16745 net.cpp:122] Setting up conv4_13
I0616 15:26:27.681272 16745 net.cpp:129] Top shape: 1 24 352 512 (4325376)
I0616 15:26:27.681275 16745 net.cpp:137] Memory required for data: 389824512
I0616 15:26:27.681282 16745 layer_factory.hpp:77] Creating layer bn_conv4_13
I0616 15:26:27.681306 16745 net.cpp:84] Creating Layer bn_conv4_13
I0616 15:26:27.681311 16745 net.cpp:406] bn_conv4_13 <- conv4_13
I0616 15:26:27.681318 16745 net.cpp:367] bn_conv4_13 -> conv4_13 (in-place)
I0616 15:26:27.681943 16745 net.cpp:122] Setting up bn_conv4_13
I0616 15:26:27.681955 16745 net.cpp:129] Top shape: 1 24 352 512 (4325376)
I0616 15:26:27.681959 16745 net.cpp:137] Memory required for data: 407126016
I0616 15:26:27.681967 16745 layer_factory.hpp:77] Creating layer scale_conv4_13
I0616 15:26:27.681972 16745 net.cpp:84] Creating Layer scale_conv4_13
I0616 15:26:27.681977 16745 net.cpp:406] scale_conv4_13 <- conv4_13
I0616 15:26:27.681982 16745 net.cpp:367] scale_conv4_13 -> conv4_13 (in-place)
I0616 15:26:27.682024 16745 layer_factory.hpp:77] Creating layer scale_conv4_13
I0616 15:26:27.682986 16745 net.cpp:122] Setting up scale_conv4_13
I0616 15:26:27.682997 16745 net.cpp:129] Top shape: 1 24 352 512 (4325376)
I0616 15:26:27.683001 16745 net.cpp:137] Memory required for data: 424427520
I0616 15:26:27.683007 16745 layer_factory.hpp:77] Creating layer relu4_13
I0616 15:26:27.683014 16745 net.cpp:84] Creating Layer relu4_13
I0616 15:26:27.683018 16745 net.cpp:406] relu4_13 <- conv4_13
I0616 15:26:27.683023 16745 net.cpp:367] relu4_13 -> conv4_13 (in-place)
I0616 15:26:27.683571 16745 net.cpp:122] Setting up relu4_13
I0616 15:26:27.683583 16745 net.cpp:129] Top shape: 1 24 352 512 (4325376)
I0616 15:26:27.683586 16745 net.cpp:137] Memory required for data: 441729024
I0616 15:26:27.683590 16745 layer_factory.hpp:77] Creating layer conv4_21
I0616 15:26:27.683599 16745 net.cpp:84] Creating Layer conv4_21
I0616 15:26:27.683604 16745 net.cpp:406] conv4_21 <- pool1_pool1_0_split_1
I0616 15:26:27.683610 16745 net.cpp:380] conv4_21 -> conv4_21
I0616 15:26:27.685513 16745 net.cpp:122] Setting up conv4_21
I0616 15:26:27.685524 16745 net.cpp:129] Top shape: 1 24 352 512 (4325376)
I0616 15:26:27.685528 16745 net.cpp:137] Memory required for data: 459030528
I0616 15:26:27.685535 16745 layer_factory.hpp:77] Creating layer bn_conv4_21
I0616 15:26:27.685541 16745 net.cpp:84] Creating Layer bn_conv4_21
I0616 15:26:27.685545 16745 net.cpp:406] bn_conv4_21 <- conv4_21
I0616 15:26:27.685550 16745 net.cpp:367] bn_conv4_21 -> conv4_21 (in-place)
I0616 15:26:27.686178 16745 net.cpp:122] Setting up bn_conv4_21
I0616 15:26:27.686189 16745 net.cpp:129] Top shape: 1 24 352 512 (4325376)
I0616 15:26:27.686193 16745 net.cpp:137] Memory required for data: 476332032
I0616 15:26:27.686203 16745 layer_factory.hpp:77] Creating layer scale_conv4_21
I0616 15:26:27.686209 16745 net.cpp:84] Creating Layer scale_conv4_21
I0616 15:26:27.686213 16745 net.cpp:406] scale_conv4_21 <- conv4_21
I0616 15:26:27.686218 16745 net.cpp:367] scale_conv4_21 -> conv4_21 (in-place)
I0616 15:26:27.686262 16745 layer_factory.hpp:77] Creating layer scale_conv4_21
I0616 15:26:27.687239 16745 net.cpp:122] Setting up scale_conv4_21
I0616 15:26:27.687252 16745 net.cpp:129] Top shape: 1 24 352 512 (4325376)
I0616 15:26:27.687255 16745 net.cpp:137] Memory required for data: 493633536
I0616 15:26:27.687261 16745 layer_factory.hpp:77] Creating layer relu4_21
I0616 15:26:27.687268 16745 net.cpp:84] Creating Layer relu4_21
I0616 15:26:27.687271 16745 net.cpp:406] relu4_21 <- conv4_21
I0616 15:26:27.687276 16745 net.cpp:367] relu4_21 -> conv4_21 (in-place)
I0616 15:26:27.687821 16745 net.cpp:122] Setting up relu4_21
I0616 15:26:27.687832 16745 net.cpp:129] Top shape: 1 24 352 512 (4325376)
I0616 15:26:27.687836 16745 net.cpp:137] Memory required for data: 510935040
I0616 15:26:27.687840 16745 layer_factory.hpp:77] Creating layer conv4_22
I0616 15:26:27.687849 16745 net.cpp:84] Creating Layer conv4_22
I0616 15:26:27.687853 16745 net.cpp:406] conv4_22 <- conv4_21
I0616 15:26:27.687860 16745 net.cpp:380] conv4_22 -> conv4_22
I0616 15:26:27.690214 16745 net.cpp:122] Setting up conv4_22
I0616 15:26:27.690228 16745 net.cpp:129] Top shape: 1 24 352 512 (4325376)
I0616 15:26:27.690232 16745 net.cpp:137] Memory required for data: 528236544
I0616 15:26:27.690238 16745 layer_factory.hpp:77] Creating layer bn_conv4_22
I0616 15:26:27.690264 16745 net.cpp:84] Creating Layer bn_conv4_22
I0616 15:26:27.690269 16745 net.cpp:406] bn_conv4_22 <- conv4_22
I0616 15:26:27.690274 16745 net.cpp:367] bn_conv4_22 -> conv4_22 (in-place)
I0616 15:26:27.690914 16745 net.cpp:122] Setting up bn_conv4_22
I0616 15:26:27.690925 16745 net.cpp:129] Top shape: 1 24 352 512 (4325376)
I0616 15:26:27.690929 16745 net.cpp:137] Memory required for data: 545538048
I0616 15:26:27.690937 16745 layer_factory.hpp:77] Creating layer scale_conv4_22
I0616 15:26:27.690943 16745 net.cpp:84] Creating Layer scale_conv4_22
I0616 15:26:27.690946 16745 net.cpp:406] scale_conv4_22 <- conv4_22
I0616 15:26:27.690955 16745 net.cpp:367] scale_conv4_22 -> conv4_22 (in-place)
I0616 15:26:27.691002 16745 layer_factory.hpp:77] Creating layer scale_conv4_22
I0616 15:26:27.691963 16745 net.cpp:122] Setting up scale_conv4_22
I0616 15:26:27.691974 16745 net.cpp:129] Top shape: 1 24 352 512 (4325376)
I0616 15:26:27.691978 16745 net.cpp:137] Memory required for data: 562839552
I0616 15:26:27.691984 16745 layer_factory.hpp:77] Creating layer relu4_22
I0616 15:26:27.691990 16745 net.cpp:84] Creating Layer relu4_22
I0616 15:26:27.691994 16745 net.cpp:406] relu4_22 <- conv4_22
I0616 15:26:27.692000 16745 net.cpp:367] relu4_22 -> conv4_22 (in-place)
I0616 15:26:27.692173 16745 net.cpp:122] Setting up relu4_22
I0616 15:26:27.692180 16745 net.cpp:129] Top shape: 1 24 352 512 (4325376)
I0616 15:26:27.692184 16745 net.cpp:137] Memory required for data: 580141056
I0616 15:26:27.692188 16745 layer_factory.hpp:77] Creating layer conv4_31
I0616 15:26:27.692198 16745 net.cpp:84] Creating Layer conv4_31
I0616 15:26:27.692203 16745 net.cpp:406] conv4_31 <- pool1_pool1_0_split_2
I0616 15:26:27.692210 16745 net.cpp:380] conv4_31 -> conv4_31
I0616 15:26:27.694571 16745 net.cpp:122] Setting up conv4_31
I0616 15:26:27.694584 16745 net.cpp:129] Top shape: 1 24 352 512 (4325376)
I0616 15:26:27.694588 16745 net.cpp:137] Memory required for data: 597442560
I0616 15:26:27.694594 16745 layer_factory.hpp:77] Creating layer bn_conv4_31
I0616 15:26:27.694602 16745 net.cpp:84] Creating Layer bn_conv4_31
I0616 15:26:27.694605 16745 net.cpp:406] bn_conv4_31 <- conv4_31
I0616 15:26:27.694612 16745 net.cpp:367] bn_conv4_31 -> conv4_31 (in-place)
I0616 15:26:27.695256 16745 net.cpp:122] Setting up bn_conv4_31
I0616 15:26:27.695267 16745 net.cpp:129] Top shape: 1 24 352 512 (4325376)
I0616 15:26:27.695271 16745 net.cpp:137] Memory required for data: 614744064
I0616 15:26:27.695278 16745 layer_factory.hpp:77] Creating layer scale_conv4_31
I0616 15:26:27.695284 16745 net.cpp:84] Creating Layer scale_conv4_31
I0616 15:26:27.695287 16745 net.cpp:406] scale_conv4_31 <- conv4_31
I0616 15:26:27.695293 16745 net.cpp:367] scale_conv4_31 -> conv4_31 (in-place)
I0616 15:26:27.695340 16745 layer_factory.hpp:77] Creating layer scale_conv4_31
I0616 15:26:27.696302 16745 net.cpp:122] Setting up scale_conv4_31
I0616 15:26:27.696313 16745 net.cpp:129] Top shape: 1 24 352 512 (4325376)
I0616 15:26:27.696317 16745 net.cpp:137] Memory required for data: 632045568
I0616 15:26:27.696323 16745 layer_factory.hpp:77] Creating layer relu4_31
I0616 15:26:27.696336 16745 net.cpp:84] Creating Layer relu4_31
I0616 15:26:27.696339 16745 net.cpp:406] relu4_31 <- conv4_31
I0616 15:26:27.696344 16745 net.cpp:367] relu4_31 -> conv4_31 (in-place)
I0616 15:26:27.696912 16745 net.cpp:122] Setting up relu4_31
I0616 15:26:27.696923 16745 net.cpp:129] Top shape: 1 24 352 512 (4325376)
I0616 15:26:27.696926 16745 net.cpp:137] Memory required for data: 649347072
I0616 15:26:27.696930 16745 layer_factory.hpp:77] Creating layer concat1
I0616 15:26:27.696938 16745 net.cpp:84] Creating Layer concat1
I0616 15:26:27.696941 16745 net.cpp:406] concat1 <- conv4_13
I0616 15:26:27.696946 16745 net.cpp:406] concat1 <- conv4_22
I0616 15:26:27.696950 16745 net.cpp:406] concat1 <- conv4_31
I0616 15:26:27.696956 16745 net.cpp:380] concat1 -> conv4
I0616 15:26:27.696990 16745 net.cpp:122] Setting up concat1
I0616 15:26:27.696996 16745 net.cpp:129] Top shape: 1 72 352 512 (12976128)
I0616 15:26:27.697018 16745 net.cpp:137] Memory required for data: 701251584
I0616 15:26:27.697022 16745 layer_factory.hpp:77] Creating layer pool2
I0616 15:26:27.697031 16745 net.cpp:84] Creating Layer pool2
I0616 15:26:27.697036 16745 net.cpp:406] pool2 <- conv4
I0616 15:26:27.697041 16745 net.cpp:380] pool2 -> pool2
I0616 15:26:27.697093 16745 net.cpp:122] Setting up pool2
I0616 15:26:27.697100 16745 net.cpp:129] Top shape: 1 72 176 256 (3244032)
I0616 15:26:27.697103 16745 net.cpp:137] Memory required for data: 714227712
I0616 15:26:27.697108 16745 layer_factory.hpp:77] Creating layer pool2_pool2_0_split
I0616 15:26:27.697113 16745 net.cpp:84] Creating Layer pool2_pool2_0_split
I0616 15:26:27.697116 16745 net.cpp:406] pool2_pool2_0_split <- pool2
I0616 15:26:27.697123 16745 net.cpp:380] pool2_pool2_0_split -> pool2_pool2_0_split_0
I0616 15:26:27.697129 16745 net.cpp:380] pool2_pool2_0_split -> pool2_pool2_0_split_1
I0616 15:26:27.697134 16745 net.cpp:380] pool2_pool2_0_split -> pool2_pool2_0_split_2
I0616 15:26:27.697190 16745 net.cpp:122] Setting up pool2_pool2_0_split
I0616 15:26:27.697196 16745 net.cpp:129] Top shape: 1 72 176 256 (3244032)
I0616 15:26:27.697201 16745 net.cpp:129] Top shape: 1 72 176 256 (3244032)
I0616 15:26:27.697206 16745 net.cpp:129] Top shape: 1 72 176 256 (3244032)
I0616 15:26:27.697208 16745 net.cpp:137] Memory required for data: 753156096
I0616 15:26:27.697212 16745 layer_factory.hpp:77] Creating layer conv5_11
I0616 15:26:27.697221 16745 net.cpp:84] Creating Layer conv5_11
I0616 15:26:27.697226 16745 net.cpp:406] conv5_11 <- pool2_pool2_0_split_0
I0616 15:26:27.697232 16745 net.cpp:380] conv5_11 -> conv5_11
I0616 15:26:27.699295 16745 net.cpp:122] Setting up conv5_11
I0616 15:26:27.699309 16745 net.cpp:129] Top shape: 1 32 176 256 (1441792)
I0616 15:26:27.699313 16745 net.cpp:137] Memory required for data: 758923264
I0616 15:26:27.699321 16745 layer_factory.hpp:77] Creating layer bn_conv5_11
I0616 15:26:27.699326 16745 net.cpp:84] Creating Layer bn_conv5_11
I0616 15:26:27.699332 16745 net.cpp:406] bn_conv5_11 <- conv5_11
I0616 15:26:27.699337 16745 net.cpp:367] bn_conv5_11 -> conv5_11 (in-place)
I0616 15:26:27.699590 16745 net.cpp:122] Setting up bn_conv5_11
I0616 15:26:27.699600 16745 net.cpp:129] Top shape: 1 32 176 256 (1441792)
I0616 15:26:27.699604 16745 net.cpp:137] Memory required for data: 764690432
I0616 15:26:27.699610 16745 layer_factory.hpp:77] Creating layer scale_conv5_11
I0616 15:26:27.699616 16745 net.cpp:84] Creating Layer scale_conv5_11
I0616 15:26:27.699620 16745 net.cpp:406] scale_conv5_11 <- conv5_11
I0616 15:26:27.699625 16745 net.cpp:367] scale_conv5_11 -> conv5_11 (in-place)
I0616 15:26:27.699671 16745 layer_factory.hpp:77] Creating layer scale_conv5_11
I0616 15:26:27.699839 16745 net.cpp:122] Setting up scale_conv5_11
I0616 15:26:27.699847 16745 net.cpp:129] Top shape: 1 32 176 256 (1441792)
I0616 15:26:27.699851 16745 net.cpp:137] Memory required for data: 770457600
I0616 15:26:27.699856 16745 layer_factory.hpp:77] Creating layer relu5_11
I0616 15:26:27.699862 16745 net.cpp:84] Creating Layer relu5_11
I0616 15:26:27.699867 16745 net.cpp:406] relu5_11 <- conv5_11
I0616 15:26:27.699872 16745 net.cpp:367] relu5_11 -> conv5_11 (in-place)
I0616 15:26:27.700810 16745 net.cpp:122] Setting up relu5_11
I0616 15:26:27.700830 16745 net.cpp:129] Top shape: 1 32 176 256 (1441792)
I0616 15:26:27.700835 16745 net.cpp:137] Memory required for data: 776224768
I0616 15:26:27.700839 16745 layer_factory.hpp:77] Creating layer conv5_12
I0616 15:26:27.700852 16745 net.cpp:84] Creating Layer conv5_12
I0616 15:26:27.700857 16745 net.cpp:406] conv5_12 <- conv5_11
I0616 15:26:27.700865 16745 net.cpp:380] conv5_12 -> conv5_12
I0616 15:26:27.702525 16745 net.cpp:122] Setting up conv5_12
I0616 15:26:27.702538 16745 net.cpp:129] Top shape: 1 32 176 256 (1441792)
I0616 15:26:27.702540 16745 net.cpp:137] Memory required for data: 781991936
I0616 15:26:27.702545 16745 layer_factory.hpp:77] Creating layer bn_conv5_12
I0616 15:26:27.702551 16745 net.cpp:84] Creating Layer bn_conv5_12
I0616 15:26:27.702574 16745 net.cpp:406] bn_conv5_12 <- conv5_12
I0616 15:26:27.702580 16745 net.cpp:367] bn_conv5_12 -> conv5_12 (in-place)
I0616 15:26:27.703191 16745 net.cpp:122] Setting up bn_conv5_12
I0616 15:26:27.703202 16745 net.cpp:129] Top shape: 1 32 176 256 (1441792)
I0616 15:26:27.703205 16745 net.cpp:137] Memory required for data: 787759104
I0616 15:26:27.703217 16745 layer_factory.hpp:77] Creating layer scale_conv5_12
I0616 15:26:27.703222 16745 net.cpp:84] Creating Layer scale_conv5_12
I0616 15:26:27.703225 16745 net.cpp:406] scale_conv5_12 <- conv5_12
I0616 15:26:27.703232 16745 net.cpp:367] scale_conv5_12 -> conv5_12 (in-place)
I0616 15:26:27.703282 16745 layer_factory.hpp:77] Creating layer scale_conv5_12
I0616 15:26:27.703449 16745 net.cpp:122] Setting up scale_conv5_12
I0616 15:26:27.703459 16745 net.cpp:129] Top shape: 1 32 176 256 (1441792)
I0616 15:26:27.703462 16745 net.cpp:137] Memory required for data: 793526272
I0616 15:26:27.703469 16745 layer_factory.hpp:77] Creating layer relu5_12
I0616 15:26:27.703474 16745 net.cpp:84] Creating Layer relu5_12
I0616 15:26:27.703477 16745 net.cpp:406] relu5_12 <- conv5_12
I0616 15:26:27.703482 16745 net.cpp:367] relu5_12 -> conv5_12 (in-place)
I0616 15:26:27.703642 16745 net.cpp:122] Setting up relu5_12
I0616 15:26:27.703651 16745 net.cpp:129] Top shape: 1 32 176 256 (1441792)
I0616 15:26:27.703655 16745 net.cpp:137] Memory required for data: 799293440
I0616 15:26:27.703658 16745 layer_factory.hpp:77] Creating layer conv5_13
I0616 15:26:27.703668 16745 net.cpp:84] Creating Layer conv5_13
I0616 15:26:27.703673 16745 net.cpp:406] conv5_13 <- conv5_12
I0616 15:26:27.703680 16745 net.cpp:380] conv5_13 -> conv5_13
I0616 15:26:27.705322 16745 net.cpp:122] Setting up conv5_13
I0616 15:26:27.705333 16745 net.cpp:129] Top shape: 1 32 176 256 (1441792)
I0616 15:26:27.705337 16745 net.cpp:137] Memory required for data: 805060608
I0616 15:26:27.705353 16745 layer_factory.hpp:77] Creating layer bn_conv5_13
I0616 15:26:27.705361 16745 net.cpp:84] Creating Layer bn_conv5_13
I0616 15:26:27.705366 16745 net.cpp:406] bn_conv5_13 <- conv5_13
I0616 15:26:27.705373 16745 net.cpp:367] bn_conv5_13 -> conv5_13 (in-place)
I0616 15:26:27.705622 16745 net.cpp:122] Setting up bn_conv5_13
I0616 15:26:27.705631 16745 net.cpp:129] Top shape: 1 32 176 256 (1441792)
I0616 15:26:27.705633 16745 net.cpp:137] Memory required for data: 810827776
I0616 15:26:27.705641 16745 layer_factory.hpp:77] Creating layer scale_conv5_13
I0616 15:26:27.705646 16745 net.cpp:84] Creating Layer scale_conv5_13
I0616 15:26:27.705651 16745 net.cpp:406] scale_conv5_13 <- conv5_13
I0616 15:26:27.705654 16745 net.cpp:367] scale_conv5_13 -> conv5_13 (in-place)
I0616 15:26:27.705699 16745 layer_factory.hpp:77] Creating layer scale_conv5_13
I0616 15:26:27.706244 16745 net.cpp:122] Setting up scale_conv5_13
I0616 15:26:27.706255 16745 net.cpp:129] Top shape: 1 32 176 256 (1441792)
I0616 15:26:27.706259 16745 net.cpp:137] Memory required for data: 816594944
I0616 15:26:27.706265 16745 layer_factory.hpp:77] Creating layer relu5_13
I0616 15:26:27.706272 16745 net.cpp:84] Creating Layer relu5_13
I0616 15:26:27.706277 16745 net.cpp:406] relu5_13 <- conv5_13
I0616 15:26:27.706284 16745 net.cpp:367] relu5_13 -> conv5_13 (in-place)
I0616 15:26:27.706837 16745 net.cpp:122] Setting up relu5_13
I0616 15:26:27.706848 16745 net.cpp:129] Top shape: 1 32 176 256 (1441792)
I0616 15:26:27.706851 16745 net.cpp:137] Memory required for data: 822362112
I0616 15:26:27.706853 16745 layer_factory.hpp:77] Creating layer conv5_21
I0616 15:26:27.706866 16745 net.cpp:84] Creating Layer conv5_21
I0616 15:26:27.706871 16745 net.cpp:406] conv5_21 <- pool2_pool2_0_split_1
I0616 15:26:27.706877 16745 net.cpp:380] conv5_21 -> conv5_21
I0616 15:26:27.708606 16745 net.cpp:122] Setting up conv5_21
I0616 15:26:27.708618 16745 net.cpp:129] Top shape: 1 32 176 256 (1441792)
I0616 15:26:27.708621 16745 net.cpp:137] Memory required for data: 828129280
I0616 15:26:27.708627 16745 layer_factory.hpp:77] Creating layer bn_conv5_21
I0616 15:26:27.708633 16745 net.cpp:84] Creating Layer bn_conv5_21
I0616 15:26:27.708648 16745 net.cpp:406] bn_conv5_21 <- conv5_21
I0616 15:26:27.708657 16745 net.cpp:367] bn_conv5_21 -> conv5_21 (in-place)
I0616 15:26:27.708925 16745 net.cpp:122] Setting up bn_conv5_21
I0616 15:26:27.708931 16745 net.cpp:129] Top shape: 1 32 176 256 (1441792)
I0616 15:26:27.708935 16745 net.cpp:137] Memory required for data: 833896448
I0616 15:26:27.708940 16745 layer_factory.hpp:77] Creating layer scale_conv5_21
I0616 15:26:27.708947 16745 net.cpp:84] Creating Layer scale_conv5_21
I0616 15:26:27.708951 16745 net.cpp:406] scale_conv5_21 <- conv5_21
I0616 15:26:27.708956 16745 net.cpp:367] scale_conv5_21 -> conv5_21 (in-place)
I0616 15:26:27.709002 16745 layer_factory.hpp:77] Creating layer scale_conv5_21
I0616 15:26:27.709517 16745 net.cpp:122] Setting up scale_conv5_21
I0616 15:26:27.709528 16745 net.cpp:129] Top shape: 1 32 176 256 (1441792)
I0616 15:26:27.709532 16745 net.cpp:137] Memory required for data: 839663616
I0616 15:26:27.709537 16745 layer_factory.hpp:77] Creating layer relu5_21
I0616 15:26:27.709542 16745 net.cpp:84] Creating Layer relu5_21
I0616 15:26:27.709543 16745 net.cpp:406] relu5_21 <- conv5_21
I0616 15:26:27.709548 16745 net.cpp:367] relu5_21 -> conv5_21 (in-place)
I0616 15:26:27.710096 16745 net.cpp:122] Setting up relu5_21
I0616 15:26:27.710108 16745 net.cpp:129] Top shape: 1 32 176 256 (1441792)
I0616 15:26:27.710109 16745 net.cpp:137] Memory required for data: 845430784
I0616 15:26:27.710113 16745 layer_factory.hpp:77] Creating layer conv5_22
I0616 15:26:27.710121 16745 net.cpp:84] Creating Layer conv5_22
I0616 15:26:27.710125 16745 net.cpp:406] conv5_22 <- conv5_21
I0616 15:26:27.710132 16745 net.cpp:380] conv5_22 -> conv5_22
I0616 15:26:27.711774 16745 net.cpp:122] Setting up conv5_22
I0616 15:26:27.711786 16745 net.cpp:129] Top shape: 1 32 176 256 (1441792)
I0616 15:26:27.711789 16745 net.cpp:137] Memory required for data: 851197952
I0616 15:26:27.711796 16745 layer_factory.hpp:77] Creating layer bn_conv5_22
I0616 15:26:27.711800 16745 net.cpp:84] Creating Layer bn_conv5_22
I0616 15:26:27.711802 16745 net.cpp:406] bn_conv5_22 <- conv5_22
I0616 15:26:27.711808 16745 net.cpp:367] bn_conv5_22 -> conv5_22 (in-place)
I0616 15:26:27.712062 16745 net.cpp:122] Setting up bn_conv5_22
I0616 15:26:27.712070 16745 net.cpp:129] Top shape: 1 32 176 256 (1441792)
I0616 15:26:27.712072 16745 net.cpp:137] Memory required for data: 856965120
I0616 15:26:27.712079 16745 layer_factory.hpp:77] Creating layer scale_conv5_22
I0616 15:26:27.712085 16745 net.cpp:84] Creating Layer scale_conv5_22
I0616 15:26:27.712090 16745 net.cpp:406] scale_conv5_22 <- conv5_22
I0616 15:26:27.712095 16745 net.cpp:367] scale_conv5_22 -> conv5_22 (in-place)
I0616 15:26:27.712141 16745 layer_factory.hpp:77] Creating layer scale_conv5_22
I0616 15:26:27.712314 16745 net.cpp:122] Setting up scale_conv5_22
I0616 15:26:27.712321 16745 net.cpp:129] Top shape: 1 32 176 256 (1441792)
I0616 15:26:27.712326 16745 net.cpp:137] Memory required for data: 862732288
I0616 15:26:27.712330 16745 layer_factory.hpp:77] Creating layer relu5_22
I0616 15:26:27.712335 16745 net.cpp:84] Creating Layer relu5_22
I0616 15:26:27.712339 16745 net.cpp:406] relu5_22 <- conv5_22
I0616 15:26:27.712345 16745 net.cpp:367] relu5_22 -> conv5_22 (in-place)
I0616 15:26:27.712507 16745 net.cpp:122] Setting up relu5_22
I0616 15:26:27.712514 16745 net.cpp:129] Top shape: 1 32 176 256 (1441792)
I0616 15:26:27.712517 16745 net.cpp:137] Memory required for data: 868499456
I0616 15:26:27.712520 16745 layer_factory.hpp:77] Creating layer conv5_31
I0616 15:26:27.712532 16745 net.cpp:84] Creating Layer conv5_31
I0616 15:26:27.712537 16745 net.cpp:406] conv5_31 <- pool2_pool2_0_split_2
I0616 15:26:27.712543 16745 net.cpp:380] conv5_31 -> conv5_31
I0616 15:26:27.715013 16745 net.cpp:122] Setting up conv5_31
I0616 15:26:27.715026 16745 net.cpp:129] Top shape: 1 32 176 256 (1441792)
I0616 15:26:27.715030 16745 net.cpp:137] Memory required for data: 874266624
I0616 15:26:27.715035 16745 layer_factory.hpp:77] Creating layer bn_conv5_31
I0616 15:26:27.715051 16745 net.cpp:84] Creating Layer bn_conv5_31
I0616 15:26:27.715056 16745 net.cpp:406] bn_conv5_31 <- conv5_31
I0616 15:26:27.715064 16745 net.cpp:367] bn_conv5_31 -> conv5_31 (in-place)
I0616 15:26:27.715329 16745 net.cpp:122] Setting up bn_conv5_31
I0616 15:26:27.715337 16745 net.cpp:129] Top shape: 1 32 176 256 (1441792)
I0616 15:26:27.715340 16745 net.cpp:137] Memory required for data: 880033792
I0616 15:26:27.715346 16745 layer_factory.hpp:77] Creating layer scale_conv5_31
I0616 15:26:27.715351 16745 net.cpp:84] Creating Layer scale_conv5_31
I0616 15:26:27.715355 16745 net.cpp:406] scale_conv5_31 <- conv5_31
I0616 15:26:27.715359 16745 net.cpp:367] scale_conv5_31 -> conv5_31 (in-place)
I0616 15:26:27.715407 16745 layer_factory.hpp:77] Creating layer scale_conv5_31
I0616 15:26:27.715582 16745 net.cpp:122] Setting up scale_conv5_31
I0616 15:26:27.715590 16745 net.cpp:129] Top shape: 1 32 176 256 (1441792)
I0616 15:26:27.715593 16745 net.cpp:137] Memory required for data: 885800960
I0616 15:26:27.715600 16745 layer_factory.hpp:77] Creating layer relu5_31
I0616 15:26:27.715605 16745 net.cpp:84] Creating Layer relu5_31
I0616 15:26:27.715610 16745 net.cpp:406] relu5_31 <- conv5_31
I0616 15:26:27.715615 16745 net.cpp:367] relu5_31 -> conv5_31 (in-place)
I0616 15:26:27.716179 16745 net.cpp:122] Setting up relu5_31
I0616 15:26:27.716190 16745 net.cpp:129] Top shape: 1 32 176 256 (1441792)
I0616 15:26:27.716194 16745 net.cpp:137] Memory required for data: 891568128
I0616 15:26:27.716198 16745 layer_factory.hpp:77] Creating layer concat2
I0616 15:26:27.716204 16745 net.cpp:84] Creating Layer concat2
I0616 15:26:27.716208 16745 net.cpp:406] concat2 <- conv5_13
I0616 15:26:27.716215 16745 net.cpp:406] concat2 <- conv5_22
I0616 15:26:27.716220 16745 net.cpp:406] concat2 <- conv5_31
I0616 15:26:27.716224 16745 net.cpp:380] concat2 -> conv5
I0616 15:26:27.716262 16745 net.cpp:122] Setting up concat2
I0616 15:26:27.716269 16745 net.cpp:129] Top shape: 1 96 176 256 (4325376)
I0616 15:26:27.716274 16745 net.cpp:137] Memory required for data: 908869632
I0616 15:26:27.716277 16745 layer_factory.hpp:77] Creating layer conv6
I0616 15:26:27.716286 16745 net.cpp:84] Creating Layer conv6
I0616 15:26:27.716291 16745 net.cpp:406] conv6 <- conv5
I0616 15:26:27.716296 16745 net.cpp:380] conv6 -> conv_score
I0616 15:26:27.755586 16745 net.cpp:122] Setting up conv6
I0616 15:26:27.755612 16745 net.cpp:129] Top shape: 1 32 176 256 (1441792)
I0616 15:26:27.755615 16745 net.cpp:137] Memory required for data: 914636800
I0616 15:26:27.755623 16745 layer_factory.hpp:77] Creating layer relu6
I0616 15:26:27.755635 16745 net.cpp:84] Creating Layer relu6
I0616 15:26:27.755640 16745 net.cpp:406] relu6 <- conv_score
I0616 15:26:27.755647 16745 net.cpp:367] relu6 -> conv_score (in-place)
I0616 15:26:27.756222 16745 net.cpp:122] Setting up relu6
I0616 15:26:27.756233 16745 net.cpp:129] Top shape: 1 32 176 256 (1441792)
I0616 15:26:27.756237 16745 net.cpp:137] Memory required for data: 920403968
I0616 15:26:27.756238 16745 layer_factory.hpp:77] Creating layer slicer_conv
I0616 15:26:27.756247 16745 net.cpp:84] Creating Layer slicer_conv
I0616 15:26:27.756252 16745 net.cpp:406] slicer_conv <- conv_score
I0616 15:26:27.756260 16745 net.cpp:380] slicer_conv -> score1
I0616 15:26:27.756269 16745 net.cpp:380] slicer_conv -> score2
…
I0616 15:26:27.756464 16745 net.cpp:380] slicer_conv -> score25
I0616 15:26:27.756470 16745 net.cpp:380] slicer_conv -> score26
I0616 15:26:27.756477 16745 net.cpp:380] slicer_conv -> score27
I0616 15:26:27.756485 16745 net.cpp:380] slicer_conv -> score28
I0616 15:26:27.756491 16745 net.cpp:380] slicer_conv -> score29
I0616 15:26:27.756498 16745 net.cpp:380] slicer_conv -> score30
I0616 15:26:27.756506 16745 net.cpp:380] slicer_conv -> score31
I0616 15:26:27.756513 16745 net.cpp:380] slicer_conv -> score32
I0616 15:26:27.757045 16745 net.cpp:122] Setting up slicer_conv
I0616 15:26:27.757052 16745 net.cpp:129] Top shape: 1 1 176 256 (45056)
I0616 15:26:27.757057 16745 net.cpp:129] Top shape: 1 1 176 256 (45056)
I0616 15:26:27.757061 16745 net.cpp:129] Top shape: 1 1 176 256 (45056)
I0616 15:26:27.757066 16745 net.cpp:129] Top shape: 1 1 176 256 (45056)
I0616 15:26:27.757071 16745 net.cpp:129] Top shape: 1 1 176 256 (45056)
I0616 15:26:27.757076 16745 net.cpp:129] Top shape: 1 1 176 256 (45056)
I0616 15:26:27.757081 16745 net.cpp:129] Top shape: 1 1 176 256 (45056)
I0616 15:26:27.757086 16745 net.cpp:129] Top shape: 1 1 176 256 (45056)
I0616 15:26:27.757089 16745 net.cpp:129] Top shape: 1 1 176 256 (45056)
I0616 15:26:27.757093 16745 net.cpp:129] Top shape: 1 1 176 256 (45056)
I0616 15:26:27.757097 16745 net.cpp:129] Top shape: 1 1 176 256 (45056)
I0616 15:26:27.757102 16745 net.cpp:129] Top shape: 1 1 176 256 (45056)
I0616 15:26:27.757107 16745 net.cpp:129] Top shape: 1 1 176 256 (45056)
I0616 15:26:27.757112 16745 net.cpp:129] Top shape: 1 1 176 256 (45056)
I0616 15:26:27.757115 16745 net.cpp:129] Top shape: 1 1 176 256 (45056)
I0616 15:26:27.757119 16745 net.cpp:129] Top shape: 1 1 176 256 (45056)
I0616 15:26:27.757123 16745 net.cpp:129] Top shape: 1 1 176 256 (45056)
I0616 15:26:27.757128 16745 net.cpp:129] Top shape: 1 1 176 256 (45056)
I0616 15:26:27.757133 16745 net.cpp:129] Top shape: 1 1 176 256 (45056)
I0616 15:26:27.757138 16745 net.cpp:129] Top shape: 1 1 176 256 (45056)
I0616 15:26:27.757141 16745 net.cpp:129] Top shape: 1 1 176 256 (45056)
I0616 15:26:27.757145 16745 net.cpp:129] Top shape: 1 1 176 256 (45056)
I0616 15:26:27.757149 16745 net.cpp:129] Top shape: 1 1 176 256 (45056)
I0616 15:26:27.757154 16745 net.cpp:129] Top shape: 1 1 176 256 (45056)
I0616 15:26:27.757158 16745 net.cpp:129] Top shape: 1 1 176 256 (45056)
I0616 15:26:27.757163 16745 net.cpp:129] Top shape: 1 1 176 256 (45056)
I0616 15:26:27.757167 16745 net.cpp:129] Top shape: 1 1 176 256 (45056)
I0616 15:26:27.757172 16745 net.cpp:129] Top shape: 1 1 176 256 (45056)
I0616 15:26:27.757176 16745 net.cpp:129] Top shape: 1 1 176 256 (45056)
I0616 15:26:27.757180 16745 net.cpp:129] Top shape: 1 1 176 256 (45056)
I0616 15:26:27.757185 16745 net.cpp:129] Top shape: 1 1 176 256 (45056)
I0616 15:26:27.757189 16745 net.cpp:129] Top shape: 1 1 176 256 (45056)
I0616 15:26:27.757192 16745 net.cpp:137] Memory required for data: 926171136
I0616 15:26:27.757197 16745 layer_factory.hpp:77] Creating layer sumscore
I0616 15:26:27.757213 16745 net.cpp:84] Creating Layer sumscore
I0616 15:26:27.757217 16745 net.cpp:406] sumscore <- score1
I0616 15:26:27.757222 16745 net.cpp:406] sumscore <- score2
I0616 15:26:27.757227 16745 net.cpp:406] sumscore <- score3
…
