…
I0619 11:53:41.207911  6578 net.cpp:51] Initializing net from parameters: 
name: "crowd_counting"
state {
  phase: TRAIN
  level: 0
  stage: ""
}
layer {
  name: "data"
  type: "Data"
  top: "data"
  include {
    phase: TRAIN
  }
  data_param {
    source: "/home/peiyong/Work/Zenglin/szl/ShanghaiTech/partA/train/image_lmdb"
    batch_size: 1
    backend: LMDB
  }
}
layer {
  name: "label"
  type: "Data"
  top: "label"
  include {
    phase: TRAIN
  }
  data_param {
    source: "/home/peiyong/Work/Zenglin/szl/ShanghaiTech/partA/train/dmap_lmdb"
    batch_size: 1
    backend: LMDB
  }
}
layer {
  name: "conv1"
  type: "Convolution"
  bottom: "data"
  top: "conv1"
  param {
    lr_mult: 1
    decay_mult: 1
  }
  param {
    lr_mult: 2
    decay_mult: 0
  }
  convolution_param {
    num_output: 24
    pad: 2
    kernel_size: 5
    stride: 1
    weight_filler {
      type: "gaussian"
      std: 0.01
    }
    bias_filler {
      type: "constant"
      value: 0
    }
  }
}
layer {
  name: "bn_conv1"
  type: "BatchNorm"
  bottom: "conv1"
  top: "conv1"
  batch_norm_param {
    use_global_stats: false
  }
}
layer {
  name: "scale_conv1"
  type: "Scale"
  bottom: "conv1"
  top: "conv1"
  scale_param {
    bias_term: true
  }
}
layer {
  name: "relu1"
  type: "ReLU"
  bottom: "conv1"
  top: "conv1"
}
layer {
  name: "pool1"
  type: "Pooling"
  bottom: "conv1"
  top: "pool1"
  pooling_param {
    pool: MAX
    kernel_size: 2
    stride: 2
  }
}
layer {
  name: "conv4_11"
  type: "Convolution"
  bottom: "pool1"
  top: "conv4_11"
  param {
    lr_mult: 1
    decay_mult: 1
  }
  param {
    lr_mult: 2
    decay_mult: 0
  }
  convolution_param {
    num_output: 32
    pad: 1
    kernel_size: 3
    stride: 1
    weight_filler {
      type: "gaussian"
      std: 0.01
    }
    bias_filler {
      type: "constant"
      value: 0
    }
  }
}
layer {
  name: "bn_conv4_11"
  type: "BatchNorm"
  bottom: "conv4_11"
  top: "conv4_11"
  batch_norm_param {
    use_global_stats: false
  }
}
layer {
  name: "scale_conv4_11"
  type: "Scale"
  bottom: "conv4_11"
  top: "conv4_11"
  scale_param {
    bias_term: true
  }
}
layer {
  name: "relu4_11"
  type: "ReLU"
  bottom: "conv4_11"
  top: "conv4_11"
}
layer {
  name: "conv4_12"
  type: "Convolution"
  bottom: "conv4_11"
  top: "conv4_12"
  param {
    lr_mult: 1
    decay_mult: 1
  }
  param {
    lr_mult: 2
    decay_mult: 0
  }
  convolution_param {
    num_output: 32
    pad: 1
    kernel_size: 3
    stride: 1
    weight_filler {
      type: "gaussian"
      std: 0.01
    }
    bias_filler {
      type: "constant"
      value: 0
    }
  }
}
layer {
  name: "bn_conv4_12"
  type: "BatchNorm"
  bottom: "conv4_12"
  top: "conv4_12"
  batch_norm_param {
    use_global_stats: false
  }
}
layer {
  name: "scale_conv4_12"
  type: "Scale"
  bottom: "conv4_12"
  top: "conv4_12"
  scale_param {
    bias_term: true
  }
}
layer {
  name: "relu4_12"
  type: "ReLU"
  bottom: "conv4_12"
  top: "conv4_12"
}
layer {
  name: "conv4_13"
  type: "Convolution"
  bottom: "conv4_12"
  top: "conv4_13"
  param {
    lr_mult: 1
    decay_mult: 1
  }
  param {
    lr_mult: 2
    decay_mult: 0
  }
  convolution_param {
    num_output: 32
    pad: 1
    kernel_size: 3
    stride: 1
    weight_filler {
      type: "gaussian"
      std: 0.01
    }
    bias_filler {
      type: "constant"
      value: 0
    }
  }
}
layer {
  name: "bn_conv4_13"
  type: "BatchNorm"
  bottom: "conv4_13"
  top: "conv4_13"
  batch_norm_param {
    use_global_stats: false
  }
}
layer {
  name: "scale_conv4_13"
  type: "Scale"
  bottom: "conv4_13"
  top: "conv4_13"
  scale_param {
    bias_term: true
  }
}
layer {
  name: "relu4_13"
  type: "ReLU"
  bottom: "conv4_13"
  top: "conv4_13"
}
layer {
  name: "conv4_21"
  type: "Convolution"
  bottom: "pool1"
  top: "conv4_21"
  param {
    lr_mult: 1
    decay_mult: 1
  }
  param {
    lr_mult: 2
    decay_mult: 0
  }
  convolution_param {
    num_output: 32
    pad: 1
    kernel_size: 3
    stride: 1
    weight_filler {
      type: "gaussian"
      std: 0.01
    }
    bias_filler {
      type: "constant"
      value: 0
    }
  }
}
layer {
  name: "bn_conv4_21"
  type: "BatchNorm"
  bottom: "conv4_21"
  top: "conv4_21"
  batch_norm_param {
    use_global_stats: false
  }
}
layer {
  name: "scale_conv4_21"
  type: "Scale"
  bottom: "conv4_21"
  top: "conv4_21"
  scale_param {
    bias_term: true
  }
}
layer {
  name: "relu4_21"
  type: "ReLU"
  bottom: "conv4_21"
  top: "conv4_21"
}
layer {
  name: "conv4_22"
  type: "Convolution"
  bottom: "conv4_21"
  top: "conv4_22"
  param {
    lr_mult: 1
    decay_mult: 1
  }
  param {
    lr_mult: 2
    decay_mult: 0
  }
  convolution_param {
    num_output: 32
    pad: 1
    kernel_size: 3
    stride: 1
    weight_filler {
      type: "gaussian"
      std: 0.01
    }
    bias_filler {
      type: "constant"
      value: 0
    }
  }
}
layer {
  name: "bn_conv4_22"
  type: "BatchNorm"
  bottom: "conv4_22"
  top: "conv4_22"
  batch_norm_param {
    use_global_stats: false
  }
}
layer {
  name: "scale_conv4_22"
  type: "Scale"
  bottom: "conv4_22"
  top: "conv4_22"
  scale_param {
    bias_term: true
  }
}
layer {
  name: "relu4_22"
  type: "ReLU"
  bottom: "conv4_22"
  top: "conv4_22"
}
layer {
  name: "conv4_31"
  type: "Convolution"
  bottom: "pool1"
  top: "conv4_31"
  param {
    lr_mult: 1
    decay_mult: 1
  }
  param {
    lr_mult: 2
    decay_mult: 0
  }
  convolution_param {
    num_output: 32
    pad: 1
    kernel_size: 3
    stride: 1
    weight_filler {
      type: "gaussian"
      std: 0.01
    }
    bias_filler {
      type: "constant"
      value: 0
    }
  }
}
layer {
  name: "bn_conv4_31"
  type: "BatchNorm"
  bottom: "conv4_31"
  top: "conv4_31"
  batch_norm_param {
    use_global_stats: false
  }
}
layer {
  name: "scale_conv4_31"
  type: "Scale"
  bottom: "conv4_31"
  top: "conv4_31"
  scale_param {
    bias_term: true
  }
}
layer {
  name: "relu4_31"
  type: "ReLU"
  bottom: "conv4_31"
  top: "conv4_31"
}
layer {
  name: "concat1"
  type: "Concat"
  bottom: "conv4_13"
  bottom: "conv4_22"
  bottom: "conv4_31"
  top: "conv4"
  concat_param {
    axis: 1
  }
}
layer {
  name: "pool2"
  type: "Pooling"
  bottom: "conv4"
  top: "pool2"
  pooling_param {
    pool: MAX
    kernel_size: 2
    stride: 2
  }
}
layer {
  name: "conv5_11"
  type: "Convolution"
  bottom: "pool2"
  top: "conv5_11"
  param {
    lr_mult: 1
    decay_mult: 1
  }
  param {
    lr_mult: 2
    decay_mult: 0
  }
  convolution_param {
    num_output: 32
    pad: 1
    kernel_size: 3
    stride: 1
    weight_filler {
      type: "gaussian"
      std: 0.01
    }
    bias_filler {
      type: "constant"
      value: 0
    }
  }
}
layer {
  name: "bn_conv5_11"
  type: "BatchNorm"
  bottom: "conv5_11"
  top: "conv5_11"
  batch_norm_param {
    use_global_stats: false
  }
}
layer {
  name: "scale_conv5_11"
  type: "Scale"
  bottom: "conv5_11"
  top: "conv5_11"
  scale_param {
    bias_term: true
  }
}
layer {
  name: "relu5_11"
  type: "ReLU"
  bottom: "conv5_11"
  top: "conv5_11"
}
layer {
  name: "conv5_12"
  type: "Convolution"
  bottom: "conv5_11"
  top: "conv5_12"
  param {
    lr_mult: 1
    decay_mult: 1
  }
  param {
    lr_mult: 2
    decay_mult: 0
  }
  convolution_param {
    num_output: 32
    pad: 1
    kernel_size: 3
    stride: 1
    weight_filler {
      type: "gaussian"
      std: 0.01
    }
    bias_filler {
      type: "constant"
      value: 0
    }
  }
}
layer {
  name: "bn_conv5_12"
  type: "BatchNorm"
  bottom: "conv5_12"
  top: "conv5_12"
  batch_norm_param {
    use_global_stats: false
  }
}
layer {
  name: "scale_conv5_12"
  type: "Scale"
  bottom: "conv5_12"
  top: "conv5_12"
  scale_param {
    bias_term: true
  }
}
layer {
  name: "relu5_12"
  type: "ReLU"
  bottom: "conv5_12"
  top: "conv5_12"
}
layer {
  name: "conv5_13"
  type: "Convolution"
  bottom: "conv5_12"
  top: "conv5_13"
  param {
    lr_mult: 1
    decay_mult: 1
  }
  param {
    lr_mult: 2
    decay_mult: 0
  }
  convolution_param {
    num_output: 32
    pad: 1
    kernel_size: 3
    stride: 1
    weight_filler {
      type: "gaussian"
      std: 0.01
    }
    bias_filler {
      type: "constant"
      value: 0
    }
  }
}
layer {
  name: "bn_conv5_13"
  type: "BatchNorm"
  bottom: "conv5_13"
  top: "conv5_13"
  batch_norm_param {
    use_global_stats: false
  }
}
layer {
  name: "scale_conv5_13"
  type: "Scale"
  bottom: "conv5_13"
  top: "conv5_13"
  scale_param {
    bias_term: true
  }
}
layer {
  name: "relu5_13"
  type: "ReLU"
  bottom: "conv5_13"
  top: "conv5_13"
}
layer {
  name: "conv5_21"
  type: "Convolution"
  bottom: "pool2"
  top: "conv5_21"
  param {
    lr_mult: 1
    decay_mult: 1
  }
  param {
    lr_mult: 2
    decay_mult: 0
  }
  convolution_param {
    num_output: 32
    pad: 1
    kernel_size: 3
    stride: 1
    weight_filler {
      type: "gaussian"
      std: 0.01
    }
    bias_filler {
      type: "constant"
      value: 0
    }
  }
}
layer {
  name: "bn_conv5_21"
  type: "BatchNorm"
  bottom: "conv5_21"
  top: "conv5_21"
  batch_norm_param {
    use_global_stats: false
  }
}
layer {
  name: "scale_conv5_21"
  type: "Scale"
  bottom: "conv5_21"
  top: "conv5_21"
  scale_param {
    bias_term: true
  }
}
layer {
  name: "relu5_21"
  type: "ReLU"
  bottom: "conv5_21"
  top: "conv5_21"
}
layer {
  name: "conv5_22"
  type: "Convolution"
  bottom: "conv5_21"
  top: "conv5_22"
  param {
    lr_mult: 1
    decay_mult: 1
  }
  param {
    lr_mult: 2
    decay_mult: 0
  }
  convolution_param {
    num_output: 32
    pad: 1
    kernel_size: 3
    stride: 1
    weight_filler {
      type: "gaussian"
      std: 0.01
    }
    bias_filler {
      type: "constant"
      value: 0
    }
  }
}
layer {
  name: "bn_conv5_22"
  type: "BatchNorm"
  bottom: "conv5_22"
  top: "conv5_22"
  batch_norm_param {
    use_global_stats: false
  }
}
layer {
  name: "scale_conv5_22"
  type: "Scale"
  bottom: "conv5_22"
  top: "conv5_22"
  scale_param {
    bias_term: true
  }
}
layer {
  name: "relu5_22"
  type: "ReLU"
  bottom: "conv5_22"
  top: "conv5_22"
}
layer {
  name: "conv5_31"
  type: "Convolution"
  bottom: "pool2"
  top: "conv5_31"
  param {
    lr_mult: 1
    decay_mult: 1
  }
  param {
    lr_mult: 2
    decay_mult: 0
  }
  convolution_param {
    num_output: 32
    pad: 1
    kernel_size: 3
    stride: 1
    weight_filler {
      type: "gaussian"
      std: 0.01
    }
    bias_filler {
      type: "constant"
      value: 0
    }
  }
}
layer {
  name: "bn_conv5_31"
  type: "BatchNorm"
  bottom: "conv5_31"
  top: "conv5_31"
  batch_norm_param {
    use_global_stats: false
  }
}
layer {
  name: "scale_conv5_31"
  type: "Scale"
  bottom: "conv5_31"
  top: "conv5_31"
  scale_param {
    bias_term: true
  }
}
layer {
  name: "relu5_31"
  type: "ReLU"
  bottom: "conv5_31"
  top: "conv5_31"
}
layer {
  name: "concat2"
  type: "Concat"
  bottom: "conv5_13"
  bottom: "conv5_22"
  bottom: "conv5_31"
  top: "conv5"
  concat_param {
    axis: 1
  }
}
layer {
  name: "conv6"
  type: "Convolution"
  bottom: "conv5"
  top: "conv_score"
  param {
    lr_mult: 1
    decay_mult: 1
  }
  param {
    lr_mult: 2
    decay_mult: 0
  }
  convolution_param {
    num_output: 32
    pad: 0
    kernel_size: 1
    group: 32
    stride: 1
    weight_filler {
      type: "gaussian"
      std: 0.01
    }
    bias_filler {
      type: "constant"
      value: 0
    }
  }
}
layer {
  name: "relu6"
  type: "ReLU"
  bottom: "conv_score"
  top: "conv_score"
}
layer {
  name: "slicer_conv"
  type: "Slice"
  bottom: "conv_score"
  top: "score1"
  top: "score2"
  top: "score3"
  top: "score4"
  top: "score5"
  top: "score6"
  top: "score7"
  top: "score8"
  top: "score9"
  top: "score10"
  top: "score11"
  top: "score12"
  top: "score13"
  top: "score14"
  top: "score15"
  top: "score16"
  top: "score17"
  top: "score18"
  top: "score19"
  top: "score20"
  top: "score21"
  top: "score22"
  top: "score23"
  top: "score24"
  top: "score25"
  top: "score26"
  top: "score27"
  top: "score28"
  top: "score29"
  top: "score30"
  top: "score31"
  top: "score32"
  slice_param {
    axis: 1
  }
}
layer {
  name: "sumscore"
  type: "Eltwise"
  bottom: "score1"
  bottom: "score2"
  bottom: "score3"
  bottom: "score4"
  bottom: "score5"
  bottom: "score6"
  bottom: "score7"
  bottom: "score8"
  bottom: "score9"
  bottom: "score10"
  bottom: "score11"
  bottom: "score12"
  bottom: "score13"
  bottom: "score14"
  bottom: "score15"
  bottom: "score16"
  bottom: "score17"
  bottom: "score18"
  bottom: "score19"
  bottom: "score20"
  bottom: "score21"
  bottom: "score22"
  bottom: "score23"
  bottom: "score24"
  bottom: "score25"
  bottom: "score26"
  bottom: "score27"
  bottom: "score28"
  bottom: "score29"
  bottom: "score30"
  bottom: "score31"
  bottom: "score32"
  top: "sumscore"
  eltwise_param {
    operation: SUM
  }
}
layer {
  name: "loss1"
  type: "NCLLoss"
  bottom: "score1"
  bottom: "label"
  bottom: "sumscore"
  top: "loss1"
  include {
    phase: TRAIN
  }
  ncl_loss_param {
    lambda: 0.0001
    net_num: 32
  }
}
layer {
  name: "loss2"
  type: "NCLLoss"
  bottom: "score2"
  bottom: "label"
  bottom: "sumscore"
  top: "loss2"
  include {
    phase: TRAIN
  }
  ncl_loss_param {
    lambda: 0.0001
    net_num: 32
  }
}
layer {
  name: "loss3"
  type: "NCLLoss"
  bottom: "score3"
  bottom: "label"
  bottom: "sumscore"
  top: "loss3"
  include {
    phase: TRAIN
  }
  ncl_loss_param {
    lambda: 0.0001
    net_num: 32
  }
}
layer {
  name: "loss4"
  type: "NCLLoss"
  bottom: "score4"
  bottom: "label"
  bottom: "sumscore"
  top: "loss4"
  include {
    phase: TRAIN
  }
  ncl_loss_param {
    lambda: 0.0001
    net_num: 32
  }
}
layer {
  name: "loss5"
  type: "NCLLoss"
  bottom: "score5"
  bottom: "label"
  bottom: "sumscore"
  top: "loss5"
  include {
    phase: TRAIN
  }
  ncl_loss_param {
    lambda: 0.0001
    net_num: 32
  }
}
layer {
  name: "loss6"
  type: "NCLLoss"
  bottom: "score6"
  bottom: "label"
  bottom: "sumscore"
  top: "loss6"
  include {
    phase: TRAIN
  }
  ncl_loss_param {
    lambda: 0.0001
    net_num: 32
  }
}
layer {
  name: "loss7"
  type: "NCLLoss"
  bottom: "score7"
  bottom: "label"
  bottom: "sumscore"
  top: "loss7"
  include {
    phase: TRAIN
  }
  ncl_loss_param {
    lambda: 0.0001
    net_num: 32
  }
}
layer {
  name: "loss8"
  type: "NCLLoss"
  bottom: "score8"
  bottom: "label"
  bottom: "sumscore"
  top: "loss8"
  include {
    phase: TRAIN
  }
  ncl_loss_param {
    lambda: 0.0001
    net_num: 32
  }
}
layer {
  name: "loss9"
  type: "NCLLoss"
  bottom: "score9"
  bottom: "label"
  bottom: "sumscore"
  top: "loss9"
  include {
    phase: TRAIN
  }
  ncl_loss_param {
    lambda: 0.0001
    net_num: 32
  }
}
layer {
  name: "loss10"
  type: "NCLLoss"
  bottom: "score10"
  bottom: "label"
  bottom: "sumscore"
  top: "loss10"
  include {
    phase: TRAIN
  }
  ncl_loss_param {
    lambda: 0.0001
    net_num: 32
  }
}
layer {
  name: "loss11"
  type: "NCLLoss"
  bottom: "score11"
  bottom: "label"
  bottom: "sumscore"
  top: "loss11"
  include {
    phase: TRAIN
  }
  ncl_loss_param {
    lambda: 0.0001
    net_num: 32
  }
}
layer {
  name: "loss12"
  type: "NCLLoss"
  bottom: "score12"
  bottom: "label"
  bottom: "sumscore"
  top: "loss12"
  include {
    phase: TRAIN
  }
  ncl_loss_param {
    lambda: 0.0001
    net_num: 32
  }
}
layer {
  name: "loss13"
  type: "NCLLoss"
  bottom: "score13"
  bottom: "label"
  bottom: "sumscore"
  top: "loss13"
  include {
    phase: TRAIN
  }
  ncl_loss_param {
    lambda: 0.0001
    net_num: 32
  }
}
layer {
  name: "loss14"
  type: "NCLLoss"
  bottom: "score14"
  bottom: "label"
  bottom: "sumscore"
  top: "loss14"
  include {
    phase: TRAIN
  }
  ncl_loss_param {
    lambda: 0.0001
    net_num: 32
  }
}
layer {
  name: "loss15"
  type: "NCLLoss"
  bottom: "score15"
  bottom: "label"
  bottom: "sumscore"
  top: "loss15"
  include {
    phase: TRAIN
  }
  ncl_loss_param {
    lambda: 0.0001
    net_num: 32
  }
}
layer {
  name: "loss16"
  type: "NCLLoss"
  bottom: "score16"
  bottom: "label"
  bottom: "sumscore"
  top: "loss16"
  include {
    phase: TRAIN
  }
  ncl_loss_param {
    lambda: 0.0001
    net_num: 32
  }
}
layer {
  name: "loss17"
  type: "NCLLoss"
  bottom: "score17"
  bottom: "label"
  bottom: "sumscore"
  top: "loss17"
  include {
    phase: TRAIN
  }
  ncl_loss_param {
    lambda: 0.0001
    net_num: 32
  }
}
layer {
  name: "loss18"
  type: "NCLLoss"
  bottom: "score18"
  bottom: "label"
  bottom: "sumscore"
  top: "loss18"
  include {
    phase: TRAIN
  }
  ncl_loss_param {
    lambda: 0.0001
    net_num: 32
  }
}
layer {
  name: "loss19"
  type: "NCLLoss"
  bottom: "score19"
  bottom: "label"
  bottom: "sumscore"
  top: "loss19"
  include {
    phase: TRAIN
  }
  ncl_loss_param {
    lambda: 0.0001
    net_num: 32
  }
}
layer {
  name: "loss20"
  type: "NCLLoss"
  bottom: "score20"
  bottom: "label"
  bottom: "sumscore"
  top: "loss20"
  include {
    phase: TRAIN
  }
  ncl_loss_param {
    lambda: 0.0001
    net_num: 32
  }
}
layer {
  name: "loss21"
  type: "NCLLoss"
  bottom: "score21"
  bottom: "label"
  bottom: "sumscore"
  top: "loss21"
  include {
    phase: TRAIN
  }
  ncl_loss_param {
    lambda: 0.0001
    net_num: 32
  }
}
layer {
  name: "loss22"
  type: "NCLLoss"
  bottom: "score22"
  bottom: "label"
  bottom: "sumscore"
  top: "loss22"
  include {
    phase: TRAIN
  }
  ncl_loss_param {
    lambda: 0.0001
    net_num: 32
  }
}
layer {
  name: "loss23"
  type: "NCLLoss"
  bottom: "score23"
  bottom: "label"
  bottom: "sumscore"
  top: "loss23"
  include {
    phase: TRAIN
  }
  ncl_loss_param {
    lambda: 0.0001
    net_num: 32
  }
}
layer {
  name: "loss24"
  type: "NCLLoss"
  bottom: "score24"
  bottom: "label"
  bottom: "sumscore"
  top: "loss24"
  include {
    phase: TRAIN
  }
  ncl_loss_param {
    lambda: 0.0001
    net_num: 32
  }
}
layer {
  name: "loss25"
  type: "NCLLoss"
  bottom: "score25"
  bottom: "label"
  bottom: "sumscore"
  top: "loss25"
  include {
    phase: TRAIN
  }
  ncl_loss_param {
    lambda: 0.0001
    net_num: 32
  }
}
layer {
  name: "loss26"
  type: "NCLLoss"
  bottom: "score26"
  bottom: "label"
  bottom: "sumscore"
  top: "loss26"
  include {
    phase: TRAIN
  }
  ncl_loss_param {
    lambda: 0.0001
    net_num: 32
  }
}
layer {
  name: "loss27"
  type: "NCLLoss"
  bottom: "score27"
  bottom: "label"
  bottom: "sumscore"
  top: "loss27"
  include {
    phase: TRAIN
  }
  ncl_loss_param {
    lambda: 0.0001
    net_num: 32
  }
}
layer {
  name: "loss28"
  type: "NCLLoss"
  bottom: "score28"
  bottom: "label"
  bottom: "sumscore"
  top: "loss28"
  include {
    phase: TRAIN
  }
  ncl_loss_param {
    lambda: 0.0001
    net_num: 32
  }
}
layer {
  name: "loss29"
  type: "NCLLoss"
  bottom: "score29"
  bottom: "label"
  bottom: "sumscore"
  top: "loss29"
  include {
    phase: TRAIN
  }
  ncl_loss_param {
    lambda: 0.0001
    net_num: 32
  }
}
layer {
  name: "loss30"
  type: "NCLLoss"
  bottom: "score30"
  bottom: "label"
  bottom: "sumscore"
  top: "loss30"
  include {
    phase: TRAIN
  }
  ncl_loss_param {
    lambda: 0.0001
    net_num: 32
  }
}
layer {
  name: "loss31"
  type: "NCLLoss"
  bottom: "score31"
  bottom: "label"
  bottom: "sumscore"
  top: "loss31"
  include {
    phase: TRAIN
  }
  ncl_loss_param {
    lambda: 0.0001
    net_num: 32
  }
}
layer {
  name: "loss32"
  type: "NCLLoss"
  bottom: "score32"
  bottom: "label"
  bottom: "sumscore"
  top: "loss32"
  include {
    phase: TRAIN
  }
  ncl_loss_param {
    lambda: 0.0001
    net_num: 32
  }
}
I0619 11:53:41.208891  6578 layer_factory.hpp:77] Creating layer data
I0619 11:53:41.208973  6578 db_lmdb.cpp:35] Opened lmdb /home/peiyong/Work/Zenglin/szl/ShanghaiTech/partA/train/image_lmdb
I0619 11:53:41.209007  6578 net.cpp:84] Creating Layer data
I0619 11:53:41.209015  6578 net.cpp:380] data -> data
I0619 11:53:41.209630  6578 data_layer.cpp:45] output data size: 1,1,410,512
I0619 11:53:41.216032  6578 net.cpp:122] Setting up data
I0619 11:53:41.216045  6578 net.cpp:129] Top shape: 1 1 410 512 (209920)
I0619 11:53:41.216048  6578 net.cpp:137] Memory required for data: 839680
I0619 11:53:41.216053  6578 layer_factory.hpp:77] Creating layer label
I0619 11:53:41.216105  6578 db_lmdb.cpp:35] Opened lmdb /home/peiyong/Work/Zenglin/szl/ShanghaiTech/partA/train/dmap_lmdb
I0619 11:53:41.216130  6578 net.cpp:84] Creating Layer label
I0619 11:53:41.216137  6578 net.cpp:380] label -> label
I0619 11:53:41.216274  6578 data_layer.cpp:45] output data size: 1,1,103,128
I0619 11:53:41.220433  6578 net.cpp:122] Setting up label
I0619 11:53:41.220446  6578 net.cpp:129] Top shape: 1 1 103 128 (13184)
I0619 11:53:41.220449  6578 net.cpp:137] Memory required for data: 892416
I0619 11:53:41.220453  6578 layer_factory.hpp:77] Creating layer label_label_0_split
I0619 11:53:41.220461  6578 net.cpp:84] Creating Layer label_label_0_split
I0619 11:53:41.220465  6578 net.cpp:406] label_label_0_split <- label
I0619 11:53:41.220476  6578 net.cpp:380] label_label_0_split -> label_label_0_split_0
…
I0619 11:53:41.220762  6578 net.cpp:380] label_label_0_split -> label_label_0_split_26
I0619 11:53:41.220785  6578 net.cpp:380] label_label_0_split -> label_label_0_split_27
I0619 11:53:41.220798  6578 net.cpp:380] label_label_0_split -> label_label_0_split_28
I0619 11:53:41.220810  6578 net.cpp:380] label_label_0_split -> label_label_0_split_29
I0619 11:53:41.220820  6578 net.cpp:380] label_label_0_split -> label_label_0_split_30
I0619 11:53:41.220832  6578 net.cpp:380] label_label_0_split -> label_label_0_split_31
I0619 11:53:41.221096  6578 net.cpp:122] Setting up label_label_0_split
I0619 11:53:41.221107  6578 net.cpp:129] Top shape: 1 1 103 128 (13184)
I0619 11:53:41.221114  6578 net.cpp:129] Top shape: 1 1 103 128 (13184)
I0619 11:53:41.221120  6578 net.cpp:129] Top shape: 1 1 103 128 (13184)
I0619 11:53:41.221127  6578 net.cpp:129] Top shape: 1 1 103 128 (13184)
I0619 11:53:41.221132  6578 net.cpp:129] Top shape: 1 1 103 128 (13184)
I0619 11:53:41.221137  6578 net.cpp:129] Top shape: 1 1 103 128 (13184)
I0619 11:53:41.221141  6578 net.cpp:129] Top shape: 1 1 103 128 (13184)
I0619 11:53:41.221145  6578 net.cpp:129] Top shape: 1 1 103 128 (13184)
I0619 11:53:41.221150  6578 net.cpp:129] Top shape: 1 1 103 128 (13184)
I0619 11:53:41.221154  6578 net.cpp:129] Top shape: 1 1 103 128 (13184)
I0619 11:53:41.221158  6578 net.cpp:129] Top shape: 1 1 103 128 (13184)
I0619 11:53:41.221163  6578 net.cpp:129] Top shape: 1 1 103 128 (13184)
I0619 11:53:41.221168  6578 net.cpp:129] Top shape: 1 1 103 128 (13184)
I0619 11:53:41.221171  6578 net.cpp:129] Top shape: 1 1 103 128 (13184)
I0619 11:53:41.221176  6578 net.cpp:129] Top shape: 1 1 103 128 (13184)
I0619 11:53:41.221184  6578 net.cpp:129] Top shape: 1 1 103 128 (13184)
I0619 11:53:41.221189  6578 net.cpp:129] Top shape: 1 1 103 128 (13184)
I0619 11:53:41.221195  6578 net.cpp:129] Top shape: 1 1 103 128 (13184)
I0619 11:53:41.221202  6578 net.cpp:129] Top shape: 1 1 103 128 (13184)
I0619 11:53:41.221209  6578 net.cpp:129] Top shape: 1 1 103 128 (13184)
I0619 11:53:41.221215  6578 net.cpp:129] Top shape: 1 1 103 128 (13184)
I0619 11:53:41.221221  6578 net.cpp:129] Top shape: 1 1 103 128 (13184)
I0619 11:53:41.221227  6578 net.cpp:129] Top shape: 1 1 103 128 (13184)
I0619 11:53:41.221235  6578 net.cpp:129] Top shape: 1 1 103 128 (13184)
I0619 11:53:41.221240  6578 net.cpp:129] Top shape: 1 1 103 128 (13184)
I0619 11:53:41.221246  6578 net.cpp:129] Top shape: 1 1 103 128 (13184)
I0619 11:53:41.221252  6578 net.cpp:129] Top shape: 1 1 103 128 (13184)
I0619 11:53:41.221259  6578 net.cpp:129] Top shape: 1 1 103 128 (13184)
I0619 11:53:41.221266  6578 net.cpp:129] Top shape: 1 1 103 128 (13184)
I0619 11:53:41.221271  6578 net.cpp:129] Top shape: 1 1 103 128 (13184)
I0619 11:53:41.221278  6578 net.cpp:129] Top shape: 1 1 103 128 (13184)
I0619 11:53:41.221284  6578 net.cpp:129] Top shape: 1 1 103 128 (13184)
I0619 11:53:41.221289  6578 net.cpp:137] Memory required for data: 2579968
I0619 11:53:41.221295  6578 layer_factory.hpp:77] Creating layer conv1
I0619 11:53:41.221310  6578 net.cpp:84] Creating Layer conv1
I0619 11:53:41.221316  6578 net.cpp:406] conv1 <- data
I0619 11:53:41.221326  6578 net.cpp:380] conv1 -> conv1
I0619 11:53:41.496074  6578 net.cpp:122] Setting up conv1
I0619 11:53:41.496100  6578 net.cpp:129] Top shape: 1 24 410 512 (5038080)
I0619 11:53:41.496104  6578 net.cpp:137] Memory required for data: 22732288
I0619 11:53:41.496129  6578 layer_factory.hpp:77] Creating layer bn_conv1
I0619 11:53:41.496152  6578 net.cpp:84] Creating Layer bn_conv1
I0619 11:53:41.496160  6578 net.cpp:406] bn_conv1 <- conv1
I0619 11:53:41.496168  6578 net.cpp:367] bn_conv1 -> conv1 (in-place)
I0619 11:53:41.496774  6578 net.cpp:122] Setting up bn_conv1
I0619 11:53:41.496788  6578 net.cpp:129] Top shape: 1 24 410 512 (5038080)
I0619 11:53:41.496793  6578 net.cpp:137] Memory required for data: 42884608
I0619 11:53:41.496809  6578 layer_factory.hpp:77] Creating layer scale_conv1
I0619 11:53:41.496821  6578 net.cpp:84] Creating Layer scale_conv1
I0619 11:53:41.496829  6578 net.cpp:406] scale_conv1 <- conv1
I0619 11:53:41.496837  6578 net.cpp:367] scale_conv1 -> conv1 (in-place)
I0619 11:53:41.496908  6578 layer_factory.hpp:77] Creating layer scale_conv1
I0619 11:53:41.497867  6578 net.cpp:122] Setting up scale_conv1
I0619 11:53:41.497879  6578 net.cpp:129] Top shape: 1 24 410 512 (5038080)
I0619 11:53:41.497885  6578 net.cpp:137] Memory required for data: 63036928
I0619 11:53:41.497896  6578 layer_factory.hpp:77] Creating layer relu1
I0619 11:53:41.497906  6578 net.cpp:84] Creating Layer relu1
I0619 11:53:41.497913  6578 net.cpp:406] relu1 <- conv1
I0619 11:53:41.497921  6578 net.cpp:367] relu1 -> conv1 (in-place)
I0619 11:53:41.498073  6578 net.cpp:122] Setting up relu1
I0619 11:53:41.498083  6578 net.cpp:129] Top shape: 1 24 410 512 (5038080)
I0619 11:53:41.498088  6578 net.cpp:137] Memory required for data: 83189248
I0619 11:53:41.498095  6578 layer_factory.hpp:77] Creating layer pool1
I0619 11:53:41.498103  6578 net.cpp:84] Creating Layer pool1
I0619 11:53:41.498111  6578 net.cpp:406] pool1 <- conv1
I0619 11:53:41.498119  6578 net.cpp:380] pool1 -> pool1
I0619 11:53:41.498170  6578 net.cpp:122] Setting up pool1
I0619 11:53:41.498179  6578 net.cpp:129] Top shape: 1 24 205 256 (1259520)
I0619 11:53:41.498185  6578 net.cpp:137] Memory required for data: 88227328
I0619 11:53:41.498191  6578 layer_factory.hpp:77] Creating layer pool1_pool1_0_split
I0619 11:53:41.498201  6578 net.cpp:84] Creating Layer pool1_pool1_0_split
I0619 11:53:41.498208  6578 net.cpp:406] pool1_pool1_0_split <- pool1
I0619 11:53:41.498217  6578 net.cpp:380] pool1_pool1_0_split -> pool1_pool1_0_split_0
I0619 11:53:41.498229  6578 net.cpp:380] pool1_pool1_0_split -> pool1_pool1_0_split_1
I0619 11:53:41.498240  6578 net.cpp:380] pool1_pool1_0_split -> pool1_pool1_0_split_2
I0619 11:53:41.498286  6578 net.cpp:122] Setting up pool1_pool1_0_split
I0619 11:53:41.498294  6578 net.cpp:129] Top shape: 1 24 205 256 (1259520)
I0619 11:53:41.498301  6578 net.cpp:129] Top shape: 1 24 205 256 (1259520)
I0619 11:53:41.498309  6578 net.cpp:129] Top shape: 1 24 205 256 (1259520)
I0619 11:53:41.498316  6578 net.cpp:137] Memory required for data: 103341568
I0619 11:53:41.498322  6578 layer_factory.hpp:77] Creating layer conv4_11
I0619 11:53:41.498335  6578 net.cpp:84] Creating Layer conv4_11
I0619 11:53:41.498340  6578 net.cpp:406] conv4_11 <- pool1_pool1_0_split_0
I0619 11:53:41.498349  6578 net.cpp:380] conv4_11 -> conv4_11
I0619 11:53:41.502941  6578 net.cpp:122] Setting up conv4_11
I0619 11:53:41.502954  6578 net.cpp:129] Top shape: 1 32 205 256 (1679360)
I0619 11:53:41.502961  6578 net.cpp:137] Memory required for data: 110059008
I0619 11:53:41.502974  6578 layer_factory.hpp:77] Creating layer bn_conv4_11
I0619 11:53:41.502985  6578 net.cpp:84] Creating Layer bn_conv4_11
I0619 11:53:41.502991  6578 net.cpp:406] bn_conv4_11 <- conv4_11
I0619 11:53:41.503000  6578 net.cpp:367] bn_conv4_11 -> conv4_11 (in-place)
I0619 11:53:41.503180  6578 net.cpp:122] Setting up bn_conv4_11
I0619 11:53:41.503190  6578 net.cpp:129] Top shape: 1 32 205 256 (1679360)
I0619 11:53:41.503195  6578 net.cpp:137] Memory required for data: 116776448
I0619 11:53:41.503206  6578 layer_factory.hpp:77] Creating layer scale_conv4_11
I0619 11:53:41.503216  6578 net.cpp:84] Creating Layer scale_conv4_11
I0619 11:53:41.503221  6578 net.cpp:406] scale_conv4_11 <- conv4_11
I0619 11:53:41.503231  6578 net.cpp:367] scale_conv4_11 -> conv4_11 (in-place)
I0619 11:53:41.503271  6578 layer_factory.hpp:77] Creating layer scale_conv4_11
I0619 11:53:41.503412  6578 net.cpp:122] Setting up scale_conv4_11
I0619 11:53:41.503420  6578 net.cpp:129] Top shape: 1 32 205 256 (1679360)
I0619 11:53:41.503425  6578 net.cpp:137] Memory required for data: 123493888
I0619 11:53:41.503435  6578 layer_factory.hpp:77] Creating layer relu4_11
I0619 11:53:41.503443  6578 net.cpp:84] Creating Layer relu4_11
I0619 11:53:41.503449  6578 net.cpp:406] relu4_11 <- conv4_11
I0619 11:53:41.503458  6578 net.cpp:367] relu4_11 -> conv4_11 (in-place)
I0619 11:53:41.503633  6578 net.cpp:122] Setting up relu4_11
I0619 11:53:41.503643  6578 net.cpp:129] Top shape: 1 32 205 256 (1679360)
I0619 11:53:41.503660  6578 net.cpp:137] Memory required for data: 130211328
I0619 11:53:41.503669  6578 layer_factory.hpp:77] Creating layer conv4_12
I0619 11:53:41.503680  6578 net.cpp:84] Creating Layer conv4_12
I0619 11:53:41.503689  6578 net.cpp:406] conv4_12 <- conv4_11
I0619 11:53:41.503696  6578 net.cpp:380] conv4_12 -> conv4_12
I0619 11:53:41.509052  6578 net.cpp:122] Setting up conv4_12
I0619 11:53:41.509065  6578 net.cpp:129] Top shape: 1 32 205 256 (1679360)
I0619 11:53:41.509071  6578 net.cpp:137] Memory required for data: 136928768
I0619 11:53:41.509083  6578 layer_factory.hpp:77] Creating layer bn_conv4_12
I0619 11:53:41.509093  6578 net.cpp:84] Creating Layer bn_conv4_12
I0619 11:53:41.509099  6578 net.cpp:406] bn_conv4_12 <- conv4_12
I0619 11:53:41.509109  6578 net.cpp:367] bn_conv4_12 -> conv4_12 (in-place)
I0619 11:53:41.509291  6578 net.cpp:122] Setting up bn_conv4_12
I0619 11:53:41.509300  6578 net.cpp:129] Top shape: 1 32 205 256 (1679360)
I0619 11:53:41.509306  6578 net.cpp:137] Memory required for data: 143646208
I0619 11:53:41.509321  6578 layer_factory.hpp:77] Creating layer scale_conv4_12
I0619 11:53:41.509331  6578 net.cpp:84] Creating Layer scale_conv4_12
I0619 11:53:41.509338  6578 net.cpp:406] scale_conv4_12 <- conv4_12
I0619 11:53:41.509346  6578 net.cpp:367] scale_conv4_12 -> conv4_12 (in-place)
I0619 11:53:41.509387  6578 layer_factory.hpp:77] Creating layer scale_conv4_12
I0619 11:53:41.509526  6578 net.cpp:122] Setting up scale_conv4_12
I0619 11:53:41.509536  6578 net.cpp:129] Top shape: 1 32 205 256 (1679360)
I0619 11:53:41.509542  6578 net.cpp:137] Memory required for data: 150363648
I0619 11:53:41.509552  6578 layer_factory.hpp:77] Creating layer relu4_12
I0619 11:53:41.509562  6578 net.cpp:84] Creating Layer relu4_12
I0619 11:53:41.509569  6578 net.cpp:406] relu4_12 <- conv4_12
I0619 11:53:41.509578  6578 net.cpp:367] relu4_12 -> conv4_12 (in-place)
I0619 11:53:41.510108  6578 net.cpp:122] Setting up relu4_12
I0619 11:53:41.510121  6578 net.cpp:129] Top shape: 1 32 205 256 (1679360)
I0619 11:53:41.510126  6578 net.cpp:137] Memory required for data: 157081088
I0619 11:53:41.510133  6578 layer_factory.hpp:77] Creating layer conv4_13
I0619 11:53:41.510146  6578 net.cpp:84] Creating Layer conv4_13
I0619 11:53:41.510152  6578 net.cpp:406] conv4_13 <- conv4_12
I0619 11:53:41.510162  6578 net.cpp:380] conv4_13 -> conv4_13
I0619 11:53:41.514940  6578 net.cpp:122] Setting up conv4_13
I0619 11:53:41.514955  6578 net.cpp:129] Top shape: 1 32 205 256 (1679360)
I0619 11:53:41.514957  6578 net.cpp:137] Memory required for data: 163798528
I0619 11:53:41.514963  6578 layer_factory.hpp:77] Creating layer bn_conv4_13
I0619 11:53:41.514971  6578 net.cpp:84] Creating Layer bn_conv4_13
I0619 11:53:41.514976  6578 net.cpp:406] bn_conv4_13 <- conv4_13
I0619 11:53:41.514986  6578 net.cpp:367] bn_conv4_13 -> conv4_13 (in-place)
I0619 11:53:41.515180  6578 net.cpp:122] Setting up bn_conv4_13
I0619 11:53:41.515189  6578 net.cpp:129] Top shape: 1 32 205 256 (1679360)
I0619 11:53:41.515195  6578 net.cpp:137] Memory required for data: 170515968
I0619 11:53:41.515210  6578 layer_factory.hpp:77] Creating layer scale_conv4_13
I0619 11:53:41.515221  6578 net.cpp:84] Creating Layer scale_conv4_13
I0619 11:53:41.515228  6578 net.cpp:406] scale_conv4_13 <- conv4_13
I0619 11:53:41.515239  6578 net.cpp:367] scale_conv4_13 -> conv4_13 (in-place)
I0619 11:53:41.515286  6578 layer_factory.hpp:77] Creating layer scale_conv4_13
I0619 11:53:41.515436  6578 net.cpp:122] Setting up scale_conv4_13
I0619 11:53:41.515447  6578 net.cpp:129] Top shape: 1 32 205 256 (1679360)
I0619 11:53:41.515453  6578 net.cpp:137] Memory required for data: 177233408
I0619 11:53:41.515463  6578 layer_factory.hpp:77] Creating layer relu4_13
I0619 11:53:41.515472  6578 net.cpp:84] Creating Layer relu4_13
I0619 11:53:41.515480  6578 net.cpp:406] relu4_13 <- conv4_13
I0619 11:53:41.515487  6578 net.cpp:367] relu4_13 -> conv4_13 (in-place)
I0619 11:53:41.515728  6578 net.cpp:122] Setting up relu4_13
I0619 11:53:41.515739  6578 net.cpp:129] Top shape: 1 32 205 256 (1679360)
I0619 11:53:41.515761  6578 net.cpp:137] Memory required for data: 183950848
I0619 11:53:41.515769  6578 layer_factory.hpp:77] Creating layer conv4_21
I0619 11:53:41.515785  6578 net.cpp:84] Creating Layer conv4_21
I0619 11:53:41.515792  6578 net.cpp:406] conv4_21 <- pool1_pool1_0_split_1
I0619 11:53:41.515805  6578 net.cpp:380] conv4_21 -> conv4_21
I0619 11:53:41.520850  6578 net.cpp:122] Setting up conv4_21
I0619 11:53:41.520864  6578 net.cpp:129] Top shape: 1 32 205 256 (1679360)
I0619 11:53:41.520870  6578 net.cpp:137] Memory required for data: 190668288
I0619 11:53:41.520880  6578 layer_factory.hpp:77] Creating layer bn_conv4_21
I0619 11:53:41.520891  6578 net.cpp:84] Creating Layer bn_conv4_21
I0619 11:53:41.520898  6578 net.cpp:406] bn_conv4_21 <- conv4_21
I0619 11:53:41.520907  6578 net.cpp:367] bn_conv4_21 -> conv4_21 (in-place)
I0619 11:53:41.521101  6578 net.cpp:122] Setting up bn_conv4_21
I0619 11:53:41.521111  6578 net.cpp:129] Top shape: 1 32 205 256 (1679360)
I0619 11:53:41.521117  6578 net.cpp:137] Memory required for data: 197385728
I0619 11:53:41.521136  6578 layer_factory.hpp:77] Creating layer scale_conv4_21
I0619 11:53:41.521143  6578 net.cpp:84] Creating Layer scale_conv4_21
I0619 11:53:41.521149  6578 net.cpp:406] scale_conv4_21 <- conv4_21
I0619 11:53:41.521157  6578 net.cpp:367] scale_conv4_21 -> conv4_21 (in-place)
I0619 11:53:41.521203  6578 layer_factory.hpp:77] Creating layer scale_conv4_21
I0619 11:53:41.521353  6578 net.cpp:122] Setting up scale_conv4_21
I0619 11:53:41.521363  6578 net.cpp:129] Top shape: 1 32 205 256 (1679360)
I0619 11:53:41.521368  6578 net.cpp:137] Memory required for data: 204103168
I0619 11:53:41.521376  6578 layer_factory.hpp:77] Creating layer relu4_21
I0619 11:53:41.521384  6578 net.cpp:84] Creating Layer relu4_21
I0619 11:53:41.521391  6578 net.cpp:406] relu4_21 <- conv4_21
I0619 11:53:41.521404  6578 net.cpp:367] relu4_21 -> conv4_21 (in-place)
I0619 11:53:41.523730  6578 net.cpp:122] Setting up relu4_21
I0619 11:53:41.523746  6578 net.cpp:129] Top shape: 1 32 205 256 (1679360)
I0619 11:53:41.523752  6578 net.cpp:137] Memory required for data: 210820608
I0619 11:53:41.523758  6578 layer_factory.hpp:77] Creating layer conv4_22
I0619 11:53:41.523772  6578 net.cpp:84] Creating Layer conv4_22
I0619 11:53:41.523779  6578 net.cpp:406] conv4_22 <- conv4_21
I0619 11:53:41.523792  6578 net.cpp:380] conv4_22 -> conv4_22
I0619 11:53:41.533838  6578 net.cpp:122] Setting up conv4_22
I0619 11:53:41.533857  6578 net.cpp:129] Top shape: 1 32 205 256 (1679360)
I0619 11:53:41.533860  6578 net.cpp:137] Memory required for data: 217538048
I0619 11:53:41.533867  6578 layer_factory.hpp:77] Creating layer bn_conv4_22
I0619 11:53:41.533877  6578 net.cpp:84] Creating Layer bn_conv4_22
I0619 11:53:41.533885  6578 net.cpp:406] bn_conv4_22 <- conv4_22
I0619 11:53:41.533895  6578 net.cpp:367] bn_conv4_22 -> conv4_22 (in-place)
I0619 11:53:41.534095  6578 net.cpp:122] Setting up bn_conv4_22
I0619 11:53:41.534104  6578 net.cpp:129] Top shape: 1 32 205 256 (1679360)
I0619 11:53:41.534111  6578 net.cpp:137] Memory required for data: 224255488
I0619 11:53:41.534122  6578 layer_factory.hpp:77] Creating layer scale_conv4_22
I0619 11:53:41.534135  6578 net.cpp:84] Creating Layer scale_conv4_22
I0619 11:53:41.534142  6578 net.cpp:406] scale_conv4_22 <- conv4_22
I0619 11:53:41.534152  6578 net.cpp:367] scale_conv4_22 -> conv4_22 (in-place)
I0619 11:53:41.534199  6578 layer_factory.hpp:77] Creating layer scale_conv4_22
I0619 11:53:41.534351  6578 net.cpp:122] Setting up scale_conv4_22
I0619 11:53:41.534361  6578 net.cpp:129] Top shape: 1 32 205 256 (1679360)
I0619 11:53:41.534366  6578 net.cpp:137] Memory required for data: 230972928
I0619 11:53:41.534376  6578 layer_factory.hpp:77] Creating layer relu4_22
I0619 11:53:41.534385  6578 net.cpp:84] Creating Layer relu4_22
I0619 11:53:41.534391  6578 net.cpp:406] relu4_22 <- conv4_22
I0619 11:53:41.534402  6578 net.cpp:367] relu4_22 -> conv4_22 (in-place)
I0619 11:53:41.534948  6578 net.cpp:122] Setting up relu4_22
I0619 11:53:41.534960  6578 net.cpp:129] Top shape: 1 32 205 256 (1679360)
I0619 11:53:41.534988  6578 net.cpp:137] Memory required for data: 237690368
I0619 11:53:41.534996  6578 layer_factory.hpp:77] Creating layer conv4_31
I0619 11:53:41.535012  6578 net.cpp:84] Creating Layer conv4_31
I0619 11:53:41.535022  6578 net.cpp:406] conv4_31 <- pool1_pool1_0_split_2
I0619 11:53:41.535034  6578 net.cpp:380] conv4_31 -> conv4_31
I0619 11:53:41.539486  6578 net.cpp:122] Setting up conv4_31
I0619 11:53:41.539500  6578 net.cpp:129] Top shape: 1 32 205 256 (1679360)
I0619 11:53:41.539504  6578 net.cpp:137] Memory required for data: 244407808
I0619 11:53:41.539510  6578 layer_factory.hpp:77] Creating layer bn_conv4_31
I0619 11:53:41.539515  6578 net.cpp:84] Creating Layer bn_conv4_31
I0619 11:53:41.539518  6578 net.cpp:406] bn_conv4_31 <- conv4_31
I0619 11:53:41.539528  6578 net.cpp:367] bn_conv4_31 -> conv4_31 (in-place)
I0619 11:53:41.539732  6578 net.cpp:122] Setting up bn_conv4_31
I0619 11:53:41.539741  6578 net.cpp:129] Top shape: 1 32 205 256 (1679360)
I0619 11:53:41.539746  6578 net.cpp:137] Memory required for data: 251125248
I0619 11:53:41.539757  6578 layer_factory.hpp:77] Creating layer scale_conv4_31
I0619 11:53:41.539767  6578 net.cpp:84] Creating Layer scale_conv4_31
I0619 11:53:41.539772  6578 net.cpp:406] scale_conv4_31 <- conv4_31
I0619 11:53:41.539782  6578 net.cpp:367] scale_conv4_31 -> conv4_31 (in-place)
I0619 11:53:41.539827  6578 layer_factory.hpp:77] Creating layer scale_conv4_31
I0619 11:53:41.539981  6578 net.cpp:122] Setting up scale_conv4_31
I0619 11:53:41.539991  6578 net.cpp:129] Top shape: 1 32 205 256 (1679360)
I0619 11:53:41.539997  6578 net.cpp:137] Memory required for data: 257842688
I0619 11:53:41.540006  6578 layer_factory.hpp:77] Creating layer relu4_31
I0619 11:53:41.540025  6578 net.cpp:84] Creating Layer relu4_31
I0619 11:53:41.540032  6578 net.cpp:406] relu4_31 <- conv4_31
I0619 11:53:41.540040  6578 net.cpp:367] relu4_31 -> conv4_31 (in-place)
I0619 11:53:41.541672  6578 net.cpp:122] Setting up relu4_31
I0619 11:53:41.541683  6578 net.cpp:129] Top shape: 1 32 205 256 (1679360)
I0619 11:53:41.541688  6578 net.cpp:137] Memory required for data: 264560128
I0619 11:53:41.541694  6578 layer_factory.hpp:77] Creating layer concat1
I0619 11:53:41.541703  6578 net.cpp:84] Creating Layer concat1
I0619 11:53:41.541710  6578 net.cpp:406] concat1 <- conv4_13
I0619 11:53:41.541718  6578 net.cpp:406] concat1 <- conv4_22
I0619 11:53:41.541725  6578 net.cpp:406] concat1 <- conv4_31
I0619 11:53:41.541738  6578 net.cpp:380] concat1 -> conv4
I0619 11:53:41.541776  6578 net.cpp:122] Setting up concat1
I0619 11:53:41.541787  6578 net.cpp:129] Top shape: 1 96 205 256 (5038080)
I0619 11:53:41.541793  6578 net.cpp:137] Memory required for data: 284712448
I0619 11:53:41.541800  6578 layer_factory.hpp:77] Creating layer pool2
I0619 11:53:41.541808  6578 net.cpp:84] Creating Layer pool2
I0619 11:53:41.541815  6578 net.cpp:406] pool2 <- conv4
I0619 11:53:41.541823  6578 net.cpp:380] pool2 -> pool2
I0619 11:53:41.541869  6578 net.cpp:122] Setting up pool2
I0619 11:53:41.541878  6578 net.cpp:129] Top shape: 1 96 103 128 (1265664)
I0619 11:53:41.541883  6578 net.cpp:137] Memory required for data: 289775104
I0619 11:53:41.541889  6578 layer_factory.hpp:77] Creating layer pool2_pool2_0_split
I0619 11:53:41.541898  6578 net.cpp:84] Creating Layer pool2_pool2_0_split
I0619 11:53:41.541905  6578 net.cpp:406] pool2_pool2_0_split <- pool2
I0619 11:53:41.541916  6578 net.cpp:380] pool2_pool2_0_split -> pool2_pool2_0_split_0
I0619 11:53:41.541929  6578 net.cpp:380] pool2_pool2_0_split -> pool2_pool2_0_split_1
I0619 11:53:41.541939  6578 net.cpp:380] pool2_pool2_0_split -> pool2_pool2_0_split_2
I0619 11:53:41.541992  6578 net.cpp:122] Setting up pool2_pool2_0_split
I0619 11:53:41.542001  6578 net.cpp:129] Top shape: 1 96 103 128 (1265664)
I0619 11:53:41.542008  6578 net.cpp:129] Top shape: 1 96 103 128 (1265664)
I0619 11:53:41.542016  6578 net.cpp:129] Top shape: 1 96 103 128 (1265664)
I0619 11:53:41.542021  6578 net.cpp:137] Memory required for data: 304963072
I0619 11:53:41.542042  6578 layer_factory.hpp:77] Creating layer conv5_11
I0619 11:53:41.542057  6578 net.cpp:84] Creating Layer conv5_11
I0619 11:53:41.542063  6578 net.cpp:406] conv5_11 <- pool2_pool2_0_split_0
I0619 11:53:41.542074  6578 net.cpp:380] conv5_11 -> conv5_11
I0619 11:53:41.545048  6578 net.cpp:122] Setting up conv5_11
I0619 11:53:41.545063  6578 net.cpp:129] Top shape: 1 32 103 128 (421888)
I0619 11:53:41.545069  6578 net.cpp:137] Memory required for data: 306650624
I0619 11:53:41.545079  6578 layer_factory.hpp:77] Creating layer bn_conv5_11
I0619 11:53:41.545089  6578 net.cpp:84] Creating Layer bn_conv5_11
I0619 11:53:41.545095  6578 net.cpp:406] bn_conv5_11 <- conv5_11
I0619 11:53:41.545106  6578 net.cpp:367] bn_conv5_11 -> conv5_11 (in-place)
I0619 11:53:41.545289  6578 net.cpp:122] Setting up bn_conv5_11
I0619 11:53:41.545298  6578 net.cpp:129] Top shape: 1 32 103 128 (421888)
I0619 11:53:41.545305  6578 net.cpp:137] Memory required for data: 308338176
I0619 11:53:41.545315  6578 layer_factory.hpp:77] Creating layer scale_conv5_11
I0619 11:53:41.545323  6578 net.cpp:84] Creating Layer scale_conv5_11
I0619 11:53:41.545330  6578 net.cpp:406] scale_conv5_11 <- conv5_11
I0619 11:53:41.545338  6578 net.cpp:367] scale_conv5_11 -> conv5_11 (in-place)
I0619 11:53:41.545383  6578 layer_factory.hpp:77] Creating layer scale_conv5_11
I0619 11:53:41.545507  6578 net.cpp:122] Setting up scale_conv5_11
I0619 11:53:41.545517  6578 net.cpp:129] Top shape: 1 32 103 128 (421888)
I0619 11:53:41.545523  6578 net.cpp:137] Memory required for data: 310025728
I0619 11:53:41.545532  6578 layer_factory.hpp:77] Creating layer relu5_11
I0619 11:53:41.545541  6578 net.cpp:84] Creating Layer relu5_11
I0619 11:53:41.545547  6578 net.cpp:406] relu5_11 <- conv5_11
I0619 11:53:41.545557  6578 net.cpp:367] relu5_11 -> conv5_11 (in-place)
I0619 11:53:41.545713  6578 net.cpp:122] Setting up relu5_11
I0619 11:53:41.545724  6578 net.cpp:129] Top shape: 1 32 103 128 (421888)
I0619 11:53:41.545730  6578 net.cpp:137] Memory required for data: 311713280
I0619 11:53:41.545737  6578 layer_factory.hpp:77] Creating layer conv5_12
I0619 11:53:41.545750  6578 net.cpp:84] Creating Layer conv5_12
I0619 11:53:41.545758  6578 net.cpp:406] conv5_12 <- conv5_11
I0619 11:53:41.545769  6578 net.cpp:380] conv5_12 -> conv5_12
I0619 11:53:41.547628  6578 net.cpp:122] Setting up conv5_12
I0619 11:53:41.547641  6578 net.cpp:129] Top shape: 1 32 103 128 (421888)
I0619 11:53:41.547647  6578 net.cpp:137] Memory required for data: 313400832
I0619 11:53:41.547657  6578 layer_factory.hpp:77] Creating layer bn_conv5_12
I0619 11:53:41.547668  6578 net.cpp:84] Creating Layer bn_conv5_12
I0619 11:53:41.547675  6578 net.cpp:406] bn_conv5_12 <- conv5_12
I0619 11:53:41.547683  6578 net.cpp:367] bn_conv5_12 -> conv5_12 (in-place)
I0619 11:53:41.547869  6578 net.cpp:122] Setting up bn_conv5_12
I0619 11:53:41.547879  6578 net.cpp:129] Top shape: 1 32 103 128 (421888)
I0619 11:53:41.547884  6578 net.cpp:137] Memory required for data: 315088384
I0619 11:53:41.547895  6578 layer_factory.hpp:77] Creating layer scale_conv5_12
I0619 11:53:41.547904  6578 net.cpp:84] Creating Layer scale_conv5_12
I0619 11:53:41.547910  6578 net.cpp:406] scale_conv5_12 <- conv5_12
I0619 11:53:41.547921  6578 net.cpp:367] scale_conv5_12 -> conv5_12 (in-place)
I0619 11:53:41.547971  6578 layer_factory.hpp:77] Creating layer scale_conv5_12
I0619 11:53:41.548095  6578 net.cpp:122] Setting up scale_conv5_12
I0619 11:53:41.548105  6578 net.cpp:129] Top shape: 1 32 103 128 (421888)
I0619 11:53:41.548110  6578 net.cpp:137] Memory required for data: 316775936
I0619 11:53:41.548120  6578 layer_factory.hpp:77] Creating layer relu5_12
I0619 11:53:41.548128  6578 net.cpp:84] Creating Layer relu5_12
I0619 11:53:41.548135  6578 net.cpp:406] relu5_12 <- conv5_12
I0619 11:53:41.548143  6578 net.cpp:367] relu5_12 -> conv5_12 (in-place)
I0619 11:53:41.548657  6578 net.cpp:122] Setting up relu5_12
I0619 11:53:41.548669  6578 net.cpp:129] Top shape: 1 32 103 128 (421888)
I0619 11:53:41.548676  6578 net.cpp:137] Memory required for data: 318463488
I0619 11:53:41.548694  6578 layer_factory.hpp:77] Creating layer conv5_13
I0619 11:53:41.548713  6578 net.cpp:84] Creating Layer conv5_13
I0619 11:53:41.548720  6578 net.cpp:406] conv5_13 <- conv5_12
I0619 11:53:41.548730  6578 net.cpp:380] conv5_13 -> conv5_13
I0619 11:53:41.551136  6578 net.cpp:122] Setting up conv5_13
I0619 11:53:41.551149  6578 net.cpp:129] Top shape: 1 32 103 128 (421888)
I0619 11:53:41.551156  6578 net.cpp:137] Memory required for data: 320151040
I0619 11:53:41.551177  6578 layer_factory.hpp:77] Creating layer bn_conv5_13
I0619 11:53:41.551187  6578 net.cpp:84] Creating Layer bn_conv5_13
I0619 11:53:41.551194  6578 net.cpp:406] bn_conv5_13 <- conv5_13
I0619 11:53:41.551203  6578 net.cpp:367] bn_conv5_13 -> conv5_13 (in-place)
I0619 11:53:41.551389  6578 net.cpp:122] Setting up bn_conv5_13
I0619 11:53:41.551398  6578 net.cpp:129] Top shape: 1 32 103 128 (421888)
I0619 11:53:41.551404  6578 net.cpp:137] Memory required for data: 321838592
I0619 11:53:41.551415  6578 layer_factory.hpp:77] Creating layer scale_conv5_13
I0619 11:53:41.551424  6578 net.cpp:84] Creating Layer scale_conv5_13
I0619 11:53:41.551431  6578 net.cpp:406] scale_conv5_13 <- conv5_13
I0619 11:53:41.551440  6578 net.cpp:367] scale_conv5_13 -> conv5_13 (in-place)
I0619 11:53:41.551486  6578 layer_factory.hpp:77] Creating layer scale_conv5_13
I0619 11:53:41.551954  6578 net.cpp:122] Setting up scale_conv5_13
I0619 11:53:41.551965  6578 net.cpp:129] Top shape: 1 32 103 128 (421888)
I0619 11:53:41.551971  6578 net.cpp:137] Memory required for data: 323526144
I0619 11:53:41.551981  6578 layer_factory.hpp:77] Creating layer relu5_13
I0619 11:53:41.551990  6578 net.cpp:84] Creating Layer relu5_13
I0619 11:53:41.551997  6578 net.cpp:406] relu5_13 <- conv5_13
I0619 11:53:41.552007  6578 net.cpp:367] relu5_13 -> conv5_13 (in-place)
I0619 11:53:41.552163  6578 net.cpp:122] Setting up relu5_13
I0619 11:53:41.552175  6578 net.cpp:129] Top shape: 1 32 103 128 (421888)
I0619 11:53:41.552179  6578 net.cpp:137] Memory required for data: 325213696
I0619 11:53:41.552186  6578 layer_factory.hpp:77] Creating layer conv5_21
I0619 11:53:41.552201  6578 net.cpp:84] Creating Layer conv5_21
I0619 11:53:41.552208  6578 net.cpp:406] conv5_21 <- pool2_pool2_0_split_1
I0619 11:53:41.552219  6578 net.cpp:380] conv5_21 -> conv5_21
I0619 11:53:41.555476  6578 net.cpp:122] Setting up conv5_21
I0619 11:53:41.555490  6578 net.cpp:129] Top shape: 1 32 103 128 (421888)
I0619 11:53:41.555496  6578 net.cpp:137] Memory required for data: 326901248
I0619 11:53:41.555506  6578 layer_factory.hpp:77] Creating layer bn_conv5_21
I0619 11:53:41.555516  6578 net.cpp:84] Creating Layer bn_conv5_21
I0619 11:53:41.555523  6578 net.cpp:406] bn_conv5_21 <- conv5_21
I0619 11:53:41.555533  6578 net.cpp:367] bn_conv5_21 -> conv5_21 (in-place)
I0619 11:53:41.555722  6578 net.cpp:122] Setting up bn_conv5_21
I0619 11:53:41.555732  6578 net.cpp:129] Top shape: 1 32 103 128 (421888)
I0619 11:53:41.555737  6578 net.cpp:137] Memory required for data: 328588800
I0619 11:53:41.555748  6578 layer_factory.hpp:77] Creating layer scale_conv5_21
I0619 11:53:41.555757  6578 net.cpp:84] Creating Layer scale_conv5_21
I0619 11:53:41.555764  6578 net.cpp:406] scale_conv5_21 <- conv5_21
I0619 11:53:41.555773  6578 net.cpp:367] scale_conv5_21 -> conv5_21 (in-place)
I0619 11:53:41.555819  6578 layer_factory.hpp:77] Creating layer scale_conv5_21
I0619 11:53:41.555940  6578 net.cpp:122] Setting up scale_conv5_21
I0619 11:53:41.555949  6578 net.cpp:129] Top shape: 1 32 103 128 (421888)
I0619 11:53:41.555955  6578 net.cpp:137] Memory required for data: 330276352
I0619 11:53:41.555964  6578 layer_factory.hpp:77] Creating layer relu5_21
I0619 11:53:41.555972  6578 net.cpp:84] Creating Layer relu5_21
I0619 11:53:41.555979  6578 net.cpp:406] relu5_21 <- conv5_21
I0619 11:53:41.555989  6578 net.cpp:367] relu5_21 -> conv5_21 (in-place)
I0619 11:53:41.556151  6578 net.cpp:122] Setting up relu5_21
I0619 11:53:41.556162  6578 net.cpp:129] Top shape: 1 32 103 128 (421888)
I0619 11:53:41.556167  6578 net.cpp:137] Memory required for data: 331963904
I0619 11:53:41.556186  6578 layer_factory.hpp:77] Creating layer conv5_22
I0619 11:53:41.556201  6578 net.cpp:84] Creating Layer conv5_22
I0619 11:53:41.556210  6578 net.cpp:406] conv5_22 <- conv5_21
I0619 11:53:41.556221  6578 net.cpp:380] conv5_22 -> conv5_22
I0619 11:53:41.557790  6578 net.cpp:122] Setting up conv5_22
I0619 11:53:41.557806  6578 net.cpp:129] Top shape: 1 32 103 128 (421888)
I0619 11:53:41.557811  6578 net.cpp:137] Memory required for data: 333651456
I0619 11:53:41.557821  6578 layer_factory.hpp:77] Creating layer bn_conv5_22
I0619 11:53:41.557832  6578 net.cpp:84] Creating Layer bn_conv5_22
I0619 11:53:41.557837  6578 net.cpp:406] bn_conv5_22 <- conv5_22
I0619 11:53:41.557849  6578 net.cpp:367] bn_conv5_22 -> conv5_22 (in-place)
I0619 11:53:41.558035  6578 net.cpp:122] Setting up bn_conv5_22
I0619 11:53:41.558044  6578 net.cpp:129] Top shape: 1 32 103 128 (421888)
I0619 11:53:41.558049  6578 net.cpp:137] Memory required for data: 335339008
I0619 11:53:41.558060  6578 layer_factory.hpp:77] Creating layer scale_conv5_22
I0619 11:53:41.558069  6578 net.cpp:84] Creating Layer scale_conv5_22
I0619 11:53:41.558075  6578 net.cpp:406] scale_conv5_22 <- conv5_22
I0619 11:53:41.558084  6578 net.cpp:367] scale_conv5_22 -> conv5_22 (in-place)
I0619 11:53:41.558131  6578 layer_factory.hpp:77] Creating layer scale_conv5_22
I0619 11:53:41.558250  6578 net.cpp:122] Setting up scale_conv5_22
I0619 11:53:41.558260  6578 net.cpp:129] Top shape: 1 32 103 128 (421888)
I0619 11:53:41.558265  6578 net.cpp:137] Memory required for data: 337026560
I0619 11:53:41.558274  6578 layer_factory.hpp:77] Creating layer relu5_22
I0619 11:53:41.558284  6578 net.cpp:84] Creating Layer relu5_22
I0619 11:53:41.558290  6578 net.cpp:406] relu5_22 <- conv5_22
I0619 11:53:41.558300  6578 net.cpp:367] relu5_22 -> conv5_22 (in-place)
I0619 11:53:41.558816  6578 net.cpp:122] Setting up relu5_22
I0619 11:53:41.558828  6578 net.cpp:129] Top shape: 1 32 103 128 (421888)
I0619 11:53:41.558835  6578 net.cpp:137] Memory required for data: 338714112
I0619 11:53:41.558840  6578 layer_factory.hpp:77] Creating layer conv5_31
I0619 11:53:41.558856  6578 net.cpp:84] Creating Layer conv5_31
I0619 11:53:41.558861  6578 net.cpp:406] conv5_31 <- pool2_pool2_0_split_2
I0619 11:53:41.558873  6578 net.cpp:380] conv5_31 -> conv5_31
I0619 11:53:41.561255  6578 net.cpp:122] Setting up conv5_31
I0619 11:53:41.561273  6578 net.cpp:129] Top shape: 1 32 103 128 (421888)
I0619 11:53:41.561280  6578 net.cpp:137] Memory required for data: 340401664
I0619 11:53:41.561288  6578 layer_factory.hpp:77] Creating layer bn_conv5_31
I0619 11:53:41.561297  6578 net.cpp:84] Creating Layer bn_conv5_31
I0619 11:53:41.561303  6578 net.cpp:406] bn_conv5_31 <- conv5_31
I0619 11:53:41.561312  6578 net.cpp:367] bn_conv5_31 -> conv5_31 (in-place)
I0619 11:53:41.561597  6578 net.cpp:122] Setting up bn_conv5_31
I0619 11:53:41.561610  6578 net.cpp:129] Top shape: 1 32 103 128 (421888)
I0619 11:53:41.561616  6578 net.cpp:137] Memory required for data: 342089216
I0619 11:53:41.561626  6578 layer_factory.hpp:77] Creating layer scale_conv5_31
I0619 11:53:41.561635  6578 net.cpp:84] Creating Layer scale_conv5_31
I0619 11:53:41.561641  6578 net.cpp:406] scale_conv5_31 <- conv5_31
I0619 11:53:41.561650  6578 net.cpp:367] scale_conv5_31 -> conv5_31 (in-place)
I0619 11:53:41.561702  6578 layer_factory.hpp:77] Creating layer scale_conv5_31
I0619 11:53:41.561859  6578 net.cpp:122] Setting up scale_conv5_31
I0619 11:53:41.561872  6578 net.cpp:129] Top shape: 1 32 103 128 (421888)
I0619 11:53:41.561877  6578 net.cpp:137] Memory required for data: 343776768
I0619 11:53:41.561885  6578 layer_factory.hpp:77] Creating layer relu5_31
I0619 11:53:41.561893  6578 net.cpp:84] Creating Layer relu5_31
I0619 11:53:41.561900  6578 net.cpp:406] relu5_31 <- conv5_31
I0619 11:53:41.561910  6578 net.cpp:367] relu5_31 -> conv5_31 (in-place)
I0619 11:53:41.562119  6578 net.cpp:122] Setting up relu5_31
I0619 11:53:41.562130  6578 net.cpp:129] Top shape: 1 32 103 128 (421888)
I0619 11:53:41.562146  6578 net.cpp:137] Memory required for data: 345464320
I0619 11:53:41.562153  6578 layer_factory.hpp:77] Creating layer concat2
I0619 11:53:41.562161  6578 net.cpp:84] Creating Layer concat2
I0619 11:53:41.562167  6578 net.cpp:406] concat2 <- conv5_13
I0619 11:53:41.562175  6578 net.cpp:406] concat2 <- conv5_22
I0619 11:53:41.562180  6578 net.cpp:406] concat2 <- conv5_31
I0619 11:53:41.562189  6578 net.cpp:380] concat2 -> conv5
I0619 11:53:41.562225  6578 net.cpp:122] Setting up concat2
I0619 11:53:41.562235  6578 net.cpp:129] Top shape: 1 96 103 128 (1265664)
I0619 11:53:41.562240  6578 net.cpp:137] Memory required for data: 350526976
I0619 11:53:41.562245  6578 layer_factory.hpp:77] Creating layer conv6
I0619 11:53:41.562259  6578 net.cpp:84] Creating Layer conv6
I0619 11:53:41.562265  6578 net.cpp:406] conv6 <- conv5
I0619 11:53:41.562273  6578 net.cpp:380] conv6 -> conv_score
I0619 11:53:41.661258  6578 net.cpp:122] Setting up conv6
I0619 11:53:41.661283  6578 net.cpp:129] Top shape: 1 32 103 128 (421888)
I0619 11:53:41.661285  6578 net.cpp:137] Memory required for data: 352214528
I0619 11:53:41.661293  6578 layer_factory.hpp:77] Creating layer relu6
I0619 11:53:41.661306  6578 net.cpp:84] Creating Layer relu6
I0619 11:53:41.661314  6578 net.cpp:406] relu6 <- conv_score
I0619 11:53:41.661324  6578 net.cpp:367] relu6 -> conv_score (in-place)
I0619 11:53:41.662225  6578 net.cpp:122] Setting up relu6
I0619 11:53:41.662237  6578 net.cpp:129] Top shape: 1 32 103 128 (421888)
I0619 11:53:41.662242  6578 net.cpp:137] Memory required for data: 353902080
I0619 11:53:41.662248  6578 layer_factory.hpp:77] Creating layer slicer_conv
I0619 11:53:41.662262  6578 net.cpp:84] Creating Layer slicer_conv
I0619 11:53:41.662269  6578 net.cpp:406] slicer_conv <- conv_score
I0619 11:53:41.662283  6578 net.cpp:380] slicer_conv -> score1
I0619 11:53:41.662300  6578 net.cpp:380] slicer_conv -> score2
…
I0619 11:53:41.662585  6578 net.cpp:380] slicer_conv -> score25
I0619 11:53:41.662596  6578 net.cpp:380] slicer_conv -> score26
I0619 11:53:41.662608  6578 net.cpp:380] slicer_conv -> score27
I0619 11:53:41.662619  6578 net.cpp:380] slicer_conv -> score28
I0619 11:53:41.662631  6578 net.cpp:380] slicer_conv -> score29
I0619 11:53:41.662644  6578 net.cpp:380] slicer_conv -> score30
I0619 11:53:41.662655  6578 net.cpp:380] slicer_conv -> score31
I0619 11:53:41.662667  6578 net.cpp:380] slicer_conv -> score32
I0619 11:53:41.663049  6578 net.cpp:122] Setting up slicer_conv
I0619 11:53:41.663059  6578 net.cpp:129] Top shape: 1 1 103 128 (13184)
I0619 11:53:41.663066  6578 net.cpp:129] Top shape: 1 1 103 128 (13184)
I0619 11:53:41.663074  6578 net.cpp:129] Top shape: 1 1 103 128 (13184)
I0619 11:53:41.663101  6578 net.cpp:129] Top shape: 1 1 103 128 (13184)
I0619 11:53:41.663110  6578 net.cpp:129] Top shape: 1 1 103 128 (13184)
I0619 11:53:41.663117  6578 net.cpp:129] Top shape: 1 1 103 128 (13184)
I0619 11:53:41.663125  6578 net.cpp:129] Top shape: 1 1 103 128 (13184)
I0619 11:53:41.663132  6578 net.cpp:129] Top shape: 1 1 103 128 (13184)
I0619 11:53:41.663139  6578 net.cpp:129] Top shape: 1 1 103 128 (13184)
I0619 11:53:41.663146  6578 net.cpp:129] Top shape: 1 1 103 128 (13184)
I0619 11:53:41.663151  6578 net.cpp:129] Top shape: 1 1 103 128 (13184)
I0619 11:53:41.663158  6578 net.cpp:129] Top shape: 1 1 103 128 (13184)
I0619 11:53:41.663166  6578 net.cpp:129] Top shape: 1 1 103 128 (13184)
I0619 11:53:41.663172  6578 net.cpp:129] Top shape: 1 1 103 128 (13184)
I0619 11:53:41.663179  6578 net.cpp:129] Top shape: 1 1 103 128 (13184)
I0619 11:53:41.663187  6578 net.cpp:129] Top shape: 1 1 103 128 (13184)
I0619 11:53:41.663193  6578 net.cpp:129] Top shape: 1 1 103 128 (13184)
I0619 11:53:41.663200  6578 net.cpp:129] Top shape: 1 1 103 128 (13184)
I0619 11:53:41.663208  6578 net.cpp:129] Top shape: 1 1 103 128 (13184)
I0619 11:53:41.663213  6578 net.cpp:129] Top shape: 1 1 103 128 (13184)
I0619 11:53:41.663220  6578 net.cpp:129] Top shape: 1 1 103 128 (13184)
I0619 11:53:41.663228  6578 net.cpp:129] Top shape: 1 1 103 128 (13184)
I0619 11:53:41.663234  6578 net.cpp:129] Top shape: 1 1 103 128 (13184)
I0619 11:53:41.663240  6578 net.cpp:129] Top shape: 1 1 103 128 (13184)
I0619 11:53:41.663247  6578 net.cpp:129] Top shape: 1 1 103 128 (13184)
I0619 11:53:41.663254  6578 net.cpp:129] Top shape: 1 1 103 128 (13184)
I0619 11:53:41.663261  6578 net.cpp:129] Top shape: 1 1 103 128 (13184)
I0619 11:53:41.663269  6578 net.cpp:129] Top shape: 1 1 103 128 (13184)
I0619 11:53:41.663275  6578 net.cpp:129] Top shape: 1 1 103 128 (13184)
I0619 11:53:41.663281  6578 net.cpp:129] Top shape: 1 1 103 128 (13184)
I0619 11:53:41.663288  6578 net.cpp:129] Top shape: 1 1 103 128 (13184)
I0619 11:53:41.663295  6578 net.cpp:129] Top shape: 1 1 103 128 (13184)
I0619 11:53:41.663300  6578 net.cpp:137] Memory required for data: 355589632
I0619 11:53:41.663306  6578 layer_factory.hpp:77] Creating layer score1_slicer_conv_0_split
I0619 11:53:41.663326  6578 net.cpp:84] Creating Layer score1_slicer_conv_0_split
I0619 11:53:41.663331  6578 net.cpp:406] score1_slicer_conv_0_split <- score1
I0619 11:53:41.663341  6578 net.cpp:380] score1_slicer_conv_0_split -> score1_slicer_conv_0_split_0
I0619 11:53:41.663352  6578 net.cpp:380] score1_slicer_conv_0_split -> score1_slicer_conv_0_split_1
I0619 11:53:41.663403  6578 net.cpp:122] Setting up score1_slicer_conv_0_split
I0619 11:53:41.663411  6578 net.cpp:129] Top shape: 1 1 103 128 (13184)
I0619 11:53:41.663419  6578 net.cpp:129] Top shape: 1 1 103 128 (13184)
I0619 11:53:41.663424  6578 net.cpp:137] Memory required for data: 355695104
I0619 11:53:41.663430  6578 layer_factory.hpp:77] Creating layer score2_slicer_conv_1_split
I0619 11:53:41.663442  6578 net.cpp:84] Creating Layer score2_slicer_conv_1_split
I0619 11:53:41.663450  6578 net.cpp:406] score2_slicer_conv_1_split <- score2
I0619 11:53:41.663457  6578 net.cpp:380] score2_slicer_conv_1_split -> score2_slicer_conv_1_split_0
I0619 11:53:41.663468  6578 net.cpp:380] score2_slicer_conv_1_split -> score2_slicer_conv_1_split_1
I0619 11:53:41.663518  6578 net.cpp:122] Setting up score2_slicer_conv_1_split
I0619 11:53:41.663527  6578 net.cpp:129] Top shape: 1 1 103 128 (13184)
I0619 11:53:41.663534  6578 net.cpp:129] Top shape: 1 1 103 128 (13184)
I0619 11:53:41.663539  6578 net.cpp:137] Memory required for data: 355800576
I0619 11:53:41.663545  6578 layer_factory.hpp:77] Creating layer score3_slicer_conv_2_split
I0619 11:53:41.663555  6578 net.cpp:84] Creating Layer score3_slicer_conv_2_split
I0619 11:53:41.663563  6578 net.cpp:406] score3_slicer_conv_2_split <- score3
I0619 11:53:41.663570  6578 net.cpp:380] score3_slicer_conv_2_split -> score3_slicer_conv_2_split_0
I0619 11:53:41.663581  6578 net.cpp:380] score3_slicer_conv_2_split -> score3_slicer_conv_2_split_1
I0619 11:53:41.663641  6578 net.cpp:122] Setting up score3_slicer_conv_2_split
I0619 11:53:41.663650  6578 net.cpp:129] Top shape: 1 1 103 128 (13184)
I0619 11:53:41.663657  6578 net.cpp:129] Top shape: 1 1 103 128 (13184)
I0619 11:53:41.663662  6578 net.cpp:137] Memory required for data: 355906048
I0619 11:53:41.663669  6578 layer_factory.hpp:77] Creating layer score4_slicer_conv_3_split
I0619 11:53:41.663678  6578 net.cpp:84] Creating Layer score4_slicer_conv_3_split
I0619 11:53:41.663684  6578 net.cpp:406] score4_slicer_conv_3_split <- score4
I0619 11:53:41.663697  6578 net.cpp:380] score4_slicer_conv_3_split -> score4_slicer_conv_3_split_0
I0619 11:53:41.663707  6578 net.cpp:380] score4_slicer_conv_3_split -> score4_slicer_conv_3_split_1
I0619 11:53:41.663758  6578 net.cpp:122] Setting up score4_slicer_conv_3_split
I0619 11:53:41.663765  6578 net.cpp:129] Top shape: 1 1 103 128 (13184)
I0619 11:53:41.663771  6578 net.cpp:129] Top shape: 1 1 103 128 (13184)
I0619 11:53:41.663777  6578 net.cpp:137] Memory required for data: 356011520
I0619 11:53:41.663784  6578 layer_factory.hpp:77] Creating layer score5_slicer_conv_4_split
I0619 11:53:41.663791  6578 net.cpp:84] Creating Layer score5_slicer_conv_4_split
I0619 11:53:41.663797  6578 net.cpp:406] score5_slicer_conv_4_split <- score5
I0619 11:53:41.663806  6578 net.cpp:380] score5_slicer_conv_4_split -> score5_slicer_conv_4_split_0
I0619 11:53:41.663817  6578 net.cpp:380] score5_slicer_conv_4_split -> score5_slicer_conv_4_split_1
I0619 11:53:41.663866  6578 net.cpp:122] Setting up score5_slicer_conv_4_split
I0619 11:53:41.663874  6578 net.cpp:129] Top shape: 1 1 103 128 (13184)
I0619 11:53:41.663880  6578 net.cpp:129] Top shape: 1 1 103 128 (13184)
I0619 11:53:41.663887  6578 net.cpp:137] Memory required for data: 356116992
I0619 11:53:41.663892  6578 layer_factory.hpp:77] Creating layer score6_slicer_conv_5_split
I0619 11:53:41.663900  6578 net.cpp:84] Creating Layer score6_slicer_conv_5_split
I0619 11:53:41.663907  6578 net.cpp:406] score6_slicer_conv_5_split <- score6
I0619 11:53:41.663918  6578 net.cpp:380] score6_slicer_conv_5_split -> score6_slicer_conv_5_split_0
I0619 11:53:41.663928  6578 net.cpp:380] score6_slicer_conv_5_split -> score6_slicer_conv_5_split_1
I0619 11:53:41.663975  6578 net.cpp:122] Setting up score6_slicer_conv_5_split
I0619 11:53:41.663982  6578 net.cpp:129] Top shape: 1 1 103 128 (13184)
I0619 11:53:41.663988  6578 net.cpp:129] Top shape: 1 1 103 128 (13184)
I0619 11:53:41.663995  6578 net.cpp:137] Memory required for data: 356222464
I0619 11:53:41.664000  6578 layer_factory.hpp:77] Creating layer score7_slicer_conv_6_split
I0619 11:53:41.664011  6578 net.cpp:84] Creating Layer score7_slicer_conv_6_split
I0619 11:53:41.664017  6578 net.cpp:406] score7_slicer_conv_6_split <- score7
I0619 11:53:41.664026  6578 net.cpp:380] score7_slicer_conv_6_split -> score7_slicer_conv_6_split_0
I0619 11:53:41.664037  6578 net.cpp:380] score7_slicer_conv_6_split -> score7_slicer_conv_6_split_1
I0619 11:53:41.664085  6578 net.cpp:122] Setting up score7_slicer_conv_6_split
I0619 11:53:41.664094  6578 net.cpp:129] Top shape: 1 1 103 128 (13184)
I0619 11:53:41.664101  6578 net.cpp:129] Top shape: 1 1 103 128 (13184)
I0619 11:53:41.664106  6578 net.cpp:137] Memory required for data: 356327936
I0619 11:53:41.664113  6578 layer_factory.hpp:77] Creating layer score8_slicer_conv_7_split
I0619 11:53:41.664120  6578 net.cpp:84] Creating Layer score8_slicer_conv_7_split
I0619 11:53:41.664126  6578 net.cpp:406] score8_slicer_conv_7_split <- score8
I0619 11:53:41.664139  6578 net.cpp:380] score8_slicer_conv_7_split -> score8_slicer_conv_7_split_0
I0619 11:53:41.664150  6578 net.cpp:380] score8_slicer_conv_7_split -> score8_slicer_conv_7_split_1
I0619 11:53:41.664197  6578 net.cpp:122] Setting up score8_slicer_conv_7_split
I0619 11:53:41.664206  6578 net.cpp:129] Top shape: 1 1 103 128 (13184)
I0619 11:53:41.664212  6578 net.cpp:129] Top shape: 1 1 103 128 (13184)
I0619 11:53:41.664217  6578 net.cpp:137] Memory required for data: 356433408
I0619 11:53:41.664232  6578 layer_factory.hpp:77] Creating layer score9_slicer_conv_8_split
I0619 11:53:41.664243  6578 net.cpp:84] Creating Layer score9_slicer_conv_8_split
I0619 11:53:41.664250  6578 net.cpp:406] score9_slicer_conv_8_split <- score9
I0619 11:53:41.664259  6578 net.cpp:380] score9_slicer_conv_8_split -> score9_slicer_conv_8_split_0
I0619 11:53:41.664270  6578 net.cpp:380] score9_slicer_conv_8_split -> score9_slicer_conv_8_split_1
I0619 11:53:41.664319  6578 net.cpp:122] Setting up score9_slicer_conv_8_split
I0619 11:53:41.664326  6578 net.cpp:129] Top shape: 1 1 103 128 (13184)
I0619 11:53:41.664332  6578 net.cpp:129] Top shape: 1 1 103 128 (13184)
I0619 11:53:41.664338  6578 net.cpp:137] Memory required for data: 356538880
I0619 11:53:41.664345  6578 layer_factory.hpp:77] Creating layer score10_slicer_conv_9_split
I0619 11:53:41.664352  6578 net.cpp:84] Creating Layer score10_slicer_conv_9_split
I0619 11:53:41.664360  6578 net.cpp:406] score10_slicer_conv_9_split <- score10
I0619 11:53:41.664368  6578 net.cpp:380] score10_slicer_conv_9_split -> score10_slicer_conv_9_split_0
I0619 11:53:41.664379  6578 net.cpp:380] score10_slicer_conv_9_split -> score10_slicer_conv_9_split_1
I0619 11:53:41.664427  6578 net.cpp:122] Setting up score10_slicer_conv_9_split
I0619 11:53:41.664434  6578 net.cpp:129] Top shape: 1 1 103 128 (13184)
I0619 11:53:41.664441  6578 net.cpp:129] Top shape: 1 1 103 128 (13184)
I0619 11:53:41.664446  6578 net.cpp:137] Memory required for data: 356644352
I0619 11:53:41.664453  6578 layer_factory.hpp:77] Creating layer score11_slicer_conv_10_split
I0619 11:53:41.664460  6578 net.cpp:84] Creating Layer score11_slicer_conv_10_split
I0619 11:53:41.664468  6578 net.cpp:406] score11_slicer_conv_10_split <- score11
I0619 11:53:41.664479  6578 net.cpp:380] score11_slicer_conv_10_split -> score11_slicer_conv_10_split_0
I0619 11:53:41.664489  6578 net.cpp:380] score11_slicer_conv_10_split -> score11_slicer_conv_10_split_1
I0619 11:53:41.664536  6578 net.cpp:122] Setting up score11_slicer_conv_10_split
I0619 11:53:41.664544  6578 net.cpp:129] Top shape: 1 1 103 128 (13184)
I0619 11:53:41.664551  6578 net.cpp:129] Top shape: 1 1 103 128 (13184)
I0619 11:53:41.664556  6578 net.cpp:137] Memory required for data: 356749824
I0619 11:53:41.664562  6578 layer_factory.hpp:77] Creating layer score12_slicer_conv_11_split
I0619 11:53:41.664571  6578 net.cpp:84] Creating Layer score12_slicer_conv_11_split
I0619 11:53:41.664577  6578 net.cpp:406] score12_slicer_conv_11_split <- score12
I0619 11:53:41.664585  6578 net.cpp:380] score12_slicer_conv_11_split -> score12_slicer_conv_11_split_0
I0619 11:53:41.664597  6578 net.cpp:380] score12_slicer_conv_11_split -> score12_slicer_conv_11_split_1
I0619 11:53:41.664646  6578 net.cpp:122] Setting up score12_slicer_conv_11_split
I0619 11:53:41.664655  6578 net.cpp:129] Top shape: 1 1 103 128 (13184)
I0619 11:53:41.664662  6578 net.cpp:129] Top shape: 1 1 103 128 (13184)
I0619 11:53:41.664667  6578 net.cpp:137] Memory required for data: 356855296
I0619 11:53:41.664674  6578 layer_factory.hpp:77] Creating layer score13_slicer_conv_12_split
I0619 11:53:41.664681  6578 net.cpp:84] Creating Layer score13_slicer_conv_12_split
I0619 11:53:41.664687  6578 net.cpp:406] score13_slicer_conv_12_split <- score13
I0619 11:53:41.664698  6578 net.cpp:380] score13_slicer_conv_12_split -> score13_slicer_conv_12_split_0
I0619 11:53:41.664710  6578 net.cpp:380] score13_slicer_conv_12_split -> score13_slicer_conv_12_split_1
I0619 11:53:41.664757  6578 net.cpp:122] Setting up score13_slicer_conv_12_split
I0619 11:53:41.664765  6578 net.cpp:129] Top shape: 1 1 103 128 (13184)
I0619 11:53:41.664772  6578 net.cpp:129] Top shape: 1 1 103 128 (13184)
I0619 11:53:41.664777  6578 net.cpp:137] Memory required for data: 356960768
I0619 11:53:41.664783  6578 layer_factory.hpp:77] Creating layer score14_slicer_conv_13_split
I0619 11:53:41.664790  6578 net.cpp:84] Creating Layer score14_slicer_conv_13_split
I0619 11:53:41.664798  6578 net.cpp:406] score14_slicer_conv_13_split <- score14
I0619 11:53:41.664815  6578 net.cpp:380] score14_slicer_conv_13_split -> score14_slicer_conv_13_split_0
I0619 11:53:41.664827  6578 net.cpp:380] score14_slicer_conv_13_split -> score14_slicer_conv_13_split_1
I0619 11:53:41.664876  6578 net.cpp:122] Setting up score14_slicer_conv_13_split
I0619 11:53:41.664885  6578 net.cpp:129] Top shape: 1 1 103 128 (13184)
I0619 11:53:41.664891  6578 net.cpp:129] Top shape: 1 1 103 128 (13184)
I0619 11:53:41.664896  6578 net.cpp:137] Memory required for data: 357066240
I0619 11:53:41.664902  6578 layer_factory.hpp:77] Creating layer score15_slicer_conv_14_split
I0619 11:53:41.664911  6578 net.cpp:84] Creating Layer score15_slicer_conv_14_split
I0619 11:53:41.664916  6578 net.cpp:406] score15_slicer_conv_14_split <- score15
I0619 11:53:41.664927  6578 net.cpp:380] score15_slicer_conv_14_split -> score15_slicer_conv_14_split_0
I0619 11:53:41.664939  6578 net.cpp:380] score15_slicer_conv_14_split -> score15_slicer_conv_14_split_1
I0619 11:53:41.664985  6578 net.cpp:122] Setting up score15_slicer_conv_14_split
I0619 11:53:41.664994  6578 net.cpp:129] Top shape: 1 1 103 128 (13184)
I0619 11:53:41.665000  6578 net.cpp:129] Top shape: 1 1 103 128 (13184)
I0619 11:53:41.665005  6578 net.cpp:137] Memory required for data: 357171712
I0619 11:53:41.665011  6578 layer_factory.hpp:77] Creating layer score16_slicer_conv_15_split
I0619 11:53:41.665024  6578 net.cpp:84] Creating Layer score16_slicer_conv_15_split
I0619 11:53:41.665031  6578 net.cpp:406] score16_slicer_conv_15_split <- score16
I0619 11:53:41.665040  6578 net.cpp:380] score16_slicer_conv_15_split -> score16_slicer_conv_15_split_0
I0619 11:53:41.665051  6578 net.cpp:380] score16_slicer_conv_15_split -> score16_slicer_conv_15_split_1
I0619 11:53:41.665099  6578 net.cpp:122] Setting up score16_slicer_conv_15_split
I0619 11:53:41.665107  6578 net.cpp:129] Top shape: 1 1 103 128 (13184)
I0619 11:53:41.665114  6578 net.cpp:129] Top shape: 1 1 103 128 (13184)
I0619 11:53:41.665119  6578 net.cpp:137] Memory required for data: 357277184
I0619 11:53:41.665125  6578 layer_factory.hpp:77] Creating layer score17_slicer_conv_16_split
I0619 11:53:41.665133  6578 net.cpp:84] Creating Layer score17_slicer_conv_16_split
I0619 11:53:41.665139  6578 net.cpp:406] score17_slicer_conv_16_split <- score17
I0619 11:53:41.665148  6578 net.cpp:380] score17_slicer_conv_16_split -> score17_slicer_conv_16_split_0
I0619 11:53:41.665159  6578 net.cpp:380] score17_slicer_conv_16_split -> score17_slicer_conv_16_split_1
I0619 11:53:41.665208  6578 net.cpp:122] Setting up score17_slicer_conv_16_split
I0619 11:53:41.665216  6578 net.cpp:129] Top shape: 1 1 103 128 (13184)
I0619 11:53:41.665223  6578 net.cpp:129] Top shape: 1 1 103 128 (13184)
I0619 11:53:41.665228  6578 net.cpp:137] Memory required for data: 357382656
I0619 11:53:41.665235  6578 layer_factory.hpp:77] Creating layer score18_slicer_conv_17_split
I0619 11:53:41.665244  6578 net.cpp:84] Creating Layer score18_slicer_conv_17_split
I0619 11:53:41.665251  6578 net.cpp:406] score18_slicer_conv_17_split <- score18
I0619 11:53:41.665259  6578 net.cpp:380] score18_slicer_conv_17_split -> score18_slicer_conv_17_split_0
I0619 11:53:41.665271  6578 net.cpp:380] score18_slicer_conv_17_split -> score18_slicer_conv_17_split_1
I0619 11:53:41.665318  6578 net.cpp:122] Setting up score18_slicer_conv_17_split
I0619 11:53:41.665324  6578 net.cpp:129] Top shape: 1 1 103 128 (13184)
I0619 11:53:41.665331  6578 net.cpp:129] Top shape: 1 1 103 128 (13184)
I0619 11:53:41.665338  6578 net.cpp:137] Memory required for data: 357488128
I0619 11:53:41.665343  6578 layer_factory.hpp:77] Creating layer score19_slicer_conv_18_split
I0619 11:53:41.665351  6578 net.cpp:84] Creating Layer score19_slicer_conv_18_split
I0619 11:53:41.665359  6578 net.cpp:406] score19_slicer_conv_18_split <- score19
I0619 11:53:41.665366  6578 net.cpp:380] score19_slicer_conv_18_split -> score19_slicer_conv_18_split_0
I0619 11:53:41.665377  6578 net.cpp:380] score19_slicer_conv_18_split -> score19_slicer_conv_18_split_1
I0619 11:53:41.665426  6578 net.cpp:122] Setting up score19_slicer_conv_18_split
I0619 11:53:41.665441  6578 net.cpp:129] Top shape: 1 1 103 128 (13184)
I0619 11:53:41.665447  6578 net.cpp:129] Top shape: 1 1 103 128 (13184)
I0619 11:53:41.665452  6578 net.cpp:137] Memory required for data: 357593600
I0619 11:53:41.665458  6578 layer_factory.hpp:77] Creating layer score20_slicer_conv_19_split
I0619 11:53:41.665467  6578 net.cpp:84] Creating Layer score20_slicer_conv_19_split
I0619 11:53:41.665473  6578 net.cpp:406] score20_slicer_conv_19_split <- score20
I0619 11:53:41.665484  6578 net.cpp:380] score20_slicer_conv_19_split -> score20_slicer_conv_19_split_0
I0619 11:53:41.665511  6578 net.cpp:380] score20_slicer_conv_19_split -> score20_slicer_conv_19_split_1
I0619 11:53:41.665560  6578 net.cpp:122] Setting up score20_slicer_conv_19_split
I0619 11:53:41.665568  6578 net.cpp:129] Top shape: 1 1 103 128 (13184)
I0619 11:53:41.665575  6578 net.cpp:129] Top shape: 1 1 103 128 (13184)
I0619 11:53:41.665581  6578 net.cpp:137] Memory required for data: 357699072
I0619 11:53:41.665586  6578 layer_factory.hpp:77] Creating layer score21_slicer_conv_20_split
I0619 11:53:41.665594  6578 net.cpp:84] Creating Layer score21_slicer_conv_20_split
I0619 11:53:41.665601  6578 net.cpp:406] score21_slicer_conv_20_split <- score21
I0619 11:53:41.665609  6578 net.cpp:380] score21_slicer_conv_20_split -> score21_slicer_conv_20_split_0
I0619 11:53:41.665621  6578 net.cpp:380] score21_slicer_conv_20_split -> score21_slicer_conv_20_split_1
I0619 11:53:41.665670  6578 net.cpp:122] Setting up score21_slicer_conv_20_split
I0619 11:53:41.665678  6578 net.cpp:129] Top shape: 1 1 103 128 (13184)
I0619 11:53:41.665685  6578 net.cpp:129] Top shape: 1 1 103 128 (13184)
I0619 11:53:41.665691  6578 net.cpp:137] Memory required for data: 357804544
I0619 11:53:41.665696  6578 layer_factory.hpp:77] Creating layer score22_slicer_conv_21_split
I0619 11:53:41.665704  6578 net.cpp:84] Creating Layer score22_slicer_conv_21_split
I0619 11:53:41.665710  6578 net.cpp:406] score22_slicer_conv_21_split <- score22
I0619 11:53:41.665719  6578 net.cpp:380] score22_slicer_conv_21_split -> score22_slicer_conv_21_split_0
I0619 11:53:41.665730  6578 net.cpp:380] score22_slicer_conv_21_split -> score22_slicer_conv_21_split_1
I0619 11:53:41.665781  6578 net.cpp:122] Setting up score22_slicer_conv_21_split
I0619 11:53:41.665789  6578 net.cpp:129] Top shape: 1 1 103 128 (13184)
I0619 11:53:41.665796  6578 net.cpp:129] Top shape: 1 1 103 128 (13184)
I0619 11:53:41.665802  6578 net.cpp:137] Memory required for data: 357910016
I0619 11:53:41.665808  6578 layer_factory.hpp:77] Creating layer score23_slicer_conv_22_split
I0619 11:53:41.665817  6578 net.cpp:84] Creating Layer score23_slicer_conv_22_split
I0619 11:53:41.665822  6578 net.cpp:406] score23_slicer_conv_22_split <- score23
I0619 11:53:41.665833  6578 net.cpp:380] score23_slicer_conv_22_split -> score23_slicer_conv_22_split_0
I0619 11:53:41.665843  6578 net.cpp:380] score23_slicer_conv_22_split -> score23_slicer_conv_22_split_1
I0619 11:53:41.665891  6578 net.cpp:122] Setting up score23_slicer_conv_22_split
I0619 11:53:41.665899  6578 net.cpp:129] Top shape: 1 1 103 128 (13184)
I0619 11:53:41.665905  6578 net.cpp:129] Top shape: 1 1 103 128 (13184)
I0619 11:53:41.665911  6578 net.cpp:137] Memory required for data: 358015488
I0619 11:53:41.665917  6578 layer_factory.hpp:77] Creating layer score24_slicer_conv_23_split
I0619 11:53:41.665925  6578 net.cpp:84] Creating Layer score24_slicer_conv_23_split
I0619 11:53:41.665931  6578 net.cpp:406] score24_slicer_conv_23_split <- score24
I0619 11:53:41.665940  6578 net.cpp:380] score24_slicer_conv_23_split -> score24_slicer_conv_23_split_0
I0619 11:53:41.665951  6578 net.cpp:380] score24_slicer_conv_23_split -> score24_slicer_conv_23_split_1
I0619 11:53:41.665999  6578 net.cpp:122] Setting up score24_slicer_conv_23_split
I0619 11:53:41.666007  6578 net.cpp:129] Top shape: 1 1 103 128 (13184)
I0619 11:53:41.666014  6578 net.cpp:129] Top shape: 1 1 103 128 (13184)
I0619 11:53:41.666020  6578 net.cpp:137] Memory required for data: 358120960
I0619 11:53:41.666034  6578 layer_factory.hpp:77] Creating layer score25_slicer_conv_24_split
I0619 11:53:41.666043  6578 net.cpp:84] Creating Layer score25_slicer_conv_24_split
I0619 11:53:41.666050  6578 net.cpp:406] score25_slicer_conv_24_split <- score25
I0619 11:53:41.666061  6578 net.cpp:380] score25_slicer_conv_24_split -> score25_slicer_conv_24_split_0
I0619 11:53:41.666072  6578 net.cpp:380] score25_slicer_conv_24_split -> score25_slicer_conv_24_split_1
I0619 11:53:41.666121  6578 net.cpp:122] Setting up score25_slicer_conv_24_split
I0619 11:53:41.666131  6578 net.cpp:129] Top shape: 1 1 103 128 (13184)
I0619 11:53:41.666136  6578 net.cpp:129] Top shape: 1 1 103 128 (13184)
I0619 11:53:41.666142  6578 net.cpp:137] Memory required for data: 358226432
I0619 11:53:41.666148  6578 layer_factory.hpp:77] Creating layer score26_slicer_conv_25_split
I0619 11:53:41.666158  6578 net.cpp:84] Creating Layer score26_slicer_conv_25_split
I0619 11:53:41.666165  6578 net.cpp:406] score26_slicer_conv_25_split <- score26
I0619 11:53:41.666174  6578 net.cpp:380] score26_slicer_conv_25_split -> score26_slicer_conv_25_split_0
I0619 11:53:41.666184  6578 net.cpp:380] score26_slicer_conv_25_split -> score26_slicer_conv_25_split_1
I0619 11:53:41.666232  6578 net.cpp:122] Setting up score26_slicer_conv_25_split
I0619 11:53:41.666240  6578 net.cpp:129] Top shape: 1 1 103 128 (13184)
I0619 11:53:41.666247  6578 net.cpp:129] Top shape: 1 1 103 128 (13184)
I0619 11:53:41.666252  6578 net.cpp:137] Memory required for data: 358331904
I0619 11:53:41.666259  6578 layer_factory.hpp:77] Creating layer score27_slicer_conv_26_split
I0619 11:53:41.666265  6578 net.cpp:84] Creating Layer score27_slicer_conv_26_split
I0619 11:53:41.666272  6578 net.cpp:406] score27_slicer_conv_26_split <- score27
I0619 11:53:41.666281  6578 net.cpp:380] score27_slicer_conv_26_split -> score27_slicer_conv_26_split_0
I0619 11:53:41.666293  6578 net.cpp:380] score27_slicer_conv_26_split -> score27_slicer_conv_26_split_1
I0619 11:53:41.666339  6578 net.cpp:122] Setting up score27_slicer_conv_26_split
I0619 11:53:41.666348  6578 net.cpp:129] Top shape: 1 1 103 128 (13184)
I0619 11:53:41.666355  6578 net.cpp:129] Top shape: 1 1 103 128 (13184)
I0619 11:53:41.666360  6578 net.cpp:137] Memory required for data: 358437376
I0619 11:53:41.666366  6578 layer_factory.hpp:77] Creating layer score28_slicer_conv_27_split
I0619 11:53:41.666376  6578 net.cpp:84] Creating Layer score28_slicer_conv_27_split
I0619 11:53:41.666383  6578 net.cpp:406] score28_slicer_conv_27_split <- score28
I0619 11:53:41.666393  6578 net.cpp:380] score28_slicer_conv_27_split -> score28_slicer_conv_27_split_0
I0619 11:53:41.666404  6578 net.cpp:380] score28_slicer_conv_27_split -> score28_slicer_conv_27_split_1
I0619 11:53:41.666450  6578 net.cpp:122] Setting up score28_slicer_conv_27_split
I0619 11:53:41.666458  6578 net.cpp:129] Top shape: 1 1 103 128 (13184)
I0619 11:53:41.666465  6578 net.cpp:129] Top shape: 1 1 103 128 (13184)
I0619 11:53:41.666471  6578 net.cpp:137] Memory required for data: 358542848
I0619 11:53:41.666476  6578 layer_factory.hpp:77] Creating layer score29_slicer_conv_28_split
I0619 11:53:41.666484  6578 net.cpp:84] Creating Layer score29_slicer_conv_28_split
I0619 11:53:41.666491  6578 net.cpp:406] score29_slicer_conv_28_split <- score29
I0619 11:53:41.666499  6578 net.cpp:380] score29_slicer_conv_28_split -> score29_slicer_conv_28_split_0
I0619 11:53:41.666509  6578 net.cpp:380] score29_slicer_conv_28_split -> score29_slicer_conv_28_split_1
I0619 11:53:41.666556  6578 net.cpp:122] Setting up score29_slicer_conv_28_split
I0619 11:53:41.666564  6578 net.cpp:129] Top shape: 1 1 103 128 (13184)
I0619 11:53:41.666571  6578 net.cpp:129] Top shape: 1 1 103 128 (13184)
I0619 11:53:41.666576  6578 net.cpp:137] Memory required for data: 358648320
I0619 11:53:41.666582  6578 layer_factory.hpp:77] Creating layer score30_slicer_conv_29_split
I0619 11:53:41.666590  6578 net.cpp:84] Creating Layer score30_slicer_conv_29_split
I0619 11:53:41.666597  6578 net.cpp:406] score30_slicer_conv_29_split <- score30
I0619 11:53:41.666616  6578 net.cpp:380] score30_slicer_conv_29_split -> score30_slicer_conv_29_split_0
I0619 11:53:41.666630  6578 net.cpp:380] score30_slicer_conv_29_split -> score30_slicer_conv_29_split_1
I0619 11:53:41.666677  6578 net.cpp:122] Setting up score30_slicer_conv_29_split
I0619 11:53:41.666685  6578 net.cpp:129] Top shape: 1 1 103 128 (13184)
I0619 11:53:41.666693  6578 net.cpp:129] Top shape: 1 1 103 128 (13184)
I0619 11:53:41.666698  6578 net.cpp:137] Memory required for data: 358753792
I0619 11:53:41.666704  6578 layer_factory.hpp:77] Creating layer score31_slicer_conv_30_split
I0619 11:53:41.666712  6578 net.cpp:84] Creating Layer score31_slicer_conv_30_split
I0619 11:53:41.666718  6578 net.cpp:406] score31_slicer_conv_30_split <- score31
I0619 11:53:41.666728  6578 net.cpp:380] score31_slicer_conv_30_split -> score31_slicer_conv_30_split_0
I0619 11:53:41.666738  6578 net.cpp:380] score31_slicer_conv_30_split -> score31_slicer_conv_30_split_1
I0619 11:53:41.666785  6578 net.cpp:122] Setting up score31_slicer_conv_30_split
I0619 11:53:41.666792  6578 net.cpp:129] Top shape: 1 1 103 128 (13184)
I0619 11:53:41.666800  6578 net.cpp:129] Top shape: 1 1 103 128 (13184)
I0619 11:53:41.666805  6578 net.cpp:137] Memory required for data: 358859264
I0619 11:53:41.666810  6578 layer_factory.hpp:77] Creating layer score32_slicer_conv_31_split
I0619 11:53:41.666818  6578 net.cpp:84] Creating Layer score32_slicer_conv_31_split
I0619 11:53:41.666826  6578 net.cpp:406] score32_slicer_conv_31_split <- score32
I0619 11:53:41.666836  6578 net.cpp:380] score32_slicer_conv_31_split -> score32_slicer_conv_31_split_0
I0619 11:53:41.666847  6578 net.cpp:380] score32_slicer_conv_31_split -> score32_slicer_conv_31_split_1
I0619 11:53:41.666893  6578 net.cpp:122] Setting up score32_slicer_conv_31_split
I0619 11:53:41.666900  6578 net.cpp:129] Top shape: 1 1 103 128 (13184)
I0619 11:53:41.666908  6578 net.cpp:129] Top shape: 1 1 103 128 (13184)
I0619 11:53:41.666913  6578 net.cpp:137] Memory required for data: 358964736
I0619 11:53:41.666918  6578 layer_factory.hpp:77] Creating layer sumscore
I0619 11:53:41.666936  6578 net.cpp:84] Creating Layer sumscore
I0619 11:53:41.666941  6578 net.cpp:406] sumscore <- score1_slicer_conv_0_split_0
I0619 11:53:41.666949  6578 net.cpp:406] sumscore <- score2_slicer_conv_1_split_0
I0619 11:53:41.666957  6578 net.cpp:406] sumscore <- score3_slicer_conv_2_split_0
…
I0619 11:53:41.667667  6578 net.cpp:380] sumscore_sumscore_0_split -> sumscore_sumscore_0_split_27
I0619 11:53:41.667682  6578 net.cpp:380] sumscore_sumscore_0_split -> sumscore_sumscore_0_split_28
I0619 11:53:41.667704  6578 net.cpp:380] sumscore_sumscore_0_split -> sumscore_sumscore_0_split_29
I0619 11:53:41.667721  6578 net.cpp:380] sumscore_sumscore_0_split -> sumscore_sumscore_0_split_30
I0619 11:53:41.667737  6578 net.cpp:380] sumscore_sumscore_0_split -> sumscore_sumscore_0_split_31
I0619 11:53:41.668112  6578 net.cpp:122] Setting up sumscore_sumscore_0_split
I0619 11:53:41.668123  6578 net.cpp:129] Top shape: 1 1 103 128 (13184)
I0619 11:53:41.668129  6578 net.cpp:129] Top shape: 1 1 103 128 (13184)
I0619 11:53:41.668138  6578 net.cpp:129] Top shape: 1 1 103 128 (13184)
I0619 11:53:41.668144  6578 net.cpp:129] Top shape: 1 1 103 128 (13184)
I0619 11:53:41.668151  6578 net.cpp:129] Top shape: 1 1 103 128 (13184)
I0619 11:53:41.668159  6578 net.cpp:129] Top shape: 1 1 103 128 (13184)
I0619 11:53:41.668165  6578 net.cpp:129] Top shape: 1 1 103 128 (13184)
I0619 11:53:41.668174  6578 net.cpp:129] Top shape: 1 1 103 128 (13184)
I0619 11:53:41.668180  6578 net.cpp:129] Top shape: 1 1 103 128 (13184)
I0619 11:53:41.668187  6578 net.cpp:129] Top shape: 1 1 103 128 (13184)
I0619 11:53:41.668195  6578 net.cpp:129] Top shape: 1 1 103 128 (13184)
I0619 11:53:41.668201  6578 net.cpp:129] Top shape: 1 1 103 128 (13184)
I0619 11:53:41.668210  6578 net.cpp:129] Top shape: 1 1 103 128 (13184)
I0619 11:53:41.668216  6578 net.cpp:129] Top shape: 1 1 103 128 (13184)
I0619 11:53:41.668223  6578 net.cpp:129] Top shape: 1 1 103 128 (13184)
I0619 11:53:41.668231  6578 net.cpp:129] Top shape: 1 1 103 128 (13184)
I0619 11:53:41.668238  6578 net.cpp:129] Top shape: 1 1 103 128 (13184)
I0619 11:53:41.668246  6578 net.cpp:129] Top shape: 1 1 103 128 (13184)
I0619 11:53:41.668253  6578 net.cpp:129] Top shape: 1 1 103 128 (13184)
I0619 11:53:41.668262  6578 net.cpp:129] Top shape: 1 1 103 128 (13184)
I0619 11:53:41.668268  6578 net.cpp:129] Top shape: 1 1 103 128 (13184)
I0619 11:53:41.668275  6578 net.cpp:129] Top shape: 1 1 103 128 (13184)
I0619 11:53:41.668282  6578 net.cpp:129] Top shape: 1 1 103 128 (13184)
I0619 11:53:41.668290  6578 net.cpp:129] Top shape: 1 1 103 128 (13184)
I0619 11:53:41.668298  6578 net.cpp:129] Top shape: 1 1 103 128 (13184)
I0619 11:53:41.668305  6578 net.cpp:129] Top shape: 1 1 103 128 (13184)
I0619 11:53:41.668313  6578 net.cpp:129] Top shape: 1 1 103 128 (13184)
I0619 11:53:41.668320  6578 net.cpp:129] Top shape: 1 1 103 128 (13184)
I0619 11:53:41.668328  6578 net.cpp:129] Top shape: 1 1 103 128 (13184)
I0619 11:53:41.668334  6578 net.cpp:129] Top shape: 1 1 103 128 (13184)
I0619 11:53:41.668341  6578 net.cpp:129] Top shape: 1 1 103 128 (13184)
I0619 11:53:41.668349  6578 net.cpp:129] Top shape: 1 1 103 128 (13184)
I0619 11:53:41.668354  6578 net.cpp:137] Memory required for data: 360705024
I0619 11:53:41.668360  6578 layer_factory.hpp:77] Creating layer loss1
I0619 11:53:41.668373  6578 net.cpp:84] Creating Layer loss1
I0619 11:53:41.668380  6578 net.cpp:406] loss1 <- score1_slicer_conv_0_split_1
I0619 11:53:41.668390  6578 net.cpp:406] loss1 <- label_label_0_split_0
I0619 11:53:41.668397  6578 net.cpp:406] loss1 <- sumscore_sumscore_0_split_0
…
I0619 11:53:41.677814  6578 net.cpp:51] Initializing net from parameters: 
name: "crowd_counting"
state {
  phase: TEST
}
layer {
  name: "data"
  type: "Data"
  top: "data"
  include {
    phase: TEST
  }
  data_param {
    source: "/home/peiyong/Work/Zenglin/szl/ShanghaiTech/partA/test/image_lmdb"
    batch_size: 1
    backend: LMDB
  }
}
layer {
  name: "label"
  type: "Data"
  top: "label"
  include {
    phase: TEST
  }
  data_param {
    source: "/home/peiyong/Work/Zenglin/szl/ShanghaiTech/partA/test/dmap_lmdb"
    batch_size: 1
    backend: LMDB
  }
}
layer {
  name: "conv1"
  type: "Convolution"
  bottom: "data"
  top: "conv1"
  param {
    lr_mult: 1
    decay_mult: 1
  }
  param {
    lr_mult: 2
    decay_mult: 0
  }
  convolution_param {
    num_output: 24
    pad: 2
    kernel_size: 5
    stride: 1
    weight_filler {
      type: "gaussian"
      std: 0.01
    }
    bias_filler {
      type: "constant"
      value: 0
    }
  }
}
layer {
  name: "bn_conv1"
  type: "BatchNorm"
  bottom: "conv1"
  top: "conv1"
  batch_norm_param {
    use_global_stats: false
  }
}
layer {
  name: "scale_conv1"
  type: "Scale"
  bottom: "conv1"
  top: "conv1"
  scale_param {
    bias_term: true
  }
}
layer {
  name: "relu1"
  type: "ReLU"
  bottom: "conv1"
  top: "conv1"
}
layer {
  name: "pool1"
  type: "Pooling"
  bottom: "conv1"
  top: "pool1"
  pooling_param {
    pool: MAX
    kernel_size: 2
    stride: 2
  }
}
layer {
  name: "conv4_11"
  type: "Convolution"
  bottom: "pool1"
  top: "conv4_11"
  param {
    lr_mult: 1
    decay_mult: 1
  }
  param {
    lr_mult: 2
    decay_mult: 0
  }
  convolution_param {
    num_output: 32
    pad: 1
    kernel_size: 3
    stride: 1
    weight_filler {
      type: "gaussian"
      std: 0.01
    }
    bias_filler {
      type: "constant"
      value: 0
    }
  }
}
layer {
  name: "bn_conv4_11"
  type: "BatchNorm"
  bottom: "conv4_11"
  top: "conv4_11"
  batch_norm_param {
    use_global_stats: false
  }
}
layer {
  name: "scale_conv4_11"
  type: "Scale"
  bottom: "conv4_11"
  top: "conv4_11"
  scale_param {
    bias_term: true
  }
}
layer {
  name: "relu4_11"
  type: "ReLU"
  bottom: "conv4_11"
  top: "conv4_11"
}
layer {
  name: "conv4_12"
  type: "Convolution"
  bottom: "conv4_11"
  top: "conv4_12"
  param {
    lr_mult: 1
    decay_mult: 1
  }
  param {
    lr_mult: 2
    decay_mult: 0
  }
  convolution_param {
    num_output: 32
    pad: 1
    kernel_size: 3
    stride: 1
    weight_filler {
      type: "gaussian"
      std: 0.01
    }
    bias_filler {
      type: "constant"
      value: 0
    }
  }
}
layer {
  name: "bn_conv4_12"
  type: "BatchNorm"
  bottom: "conv4_12"
  top: "conv4_12"
  batch_norm_param {
    use_global_stats: false
  }
}
layer {
  name: "scale_conv4_12"
  type: "Scale"
  bottom: "conv4_12"
  top: "conv4_12"
  scale_param {
    bias_term: true
  }
}
layer {
  name: "relu4_12"
  type: "ReLU"
  bottom: "conv4_12"
  top: "conv4_12"
}
layer {
  name: "conv4_13"
  type: "Convolution"
  bottom: "conv4_12"
  top: "conv4_13"
  param {
    lr_mult: 1
    decay_mult: 1
  }
  param {
    lr_mult: 2
    decay_mult: 0
  }
  convolution_param {
    num_output: 32
    pad: 1
    kernel_size: 3
    stride: 1
    weight_filler {
      type: "gaussian"
      std: 0.01
    }
    bias_filler {
      type: "constant"
      value: 0
    }
  }
}
layer {
  name: "bn_conv4_13"
  type: "BatchNorm"
  bottom: "conv4_13"
  top: "conv4_13"
  batch_norm_param {
    use_global_stats: false
  }
}
layer {
  name: "scale_conv4_13"
  type: "Scale"
  bottom: "conv4_13"
  top: "conv4_13"
  scale_param {
    bias_term: true
  }
}
layer {
  name: "relu4_13"
  type: "ReLU"
  bottom: "conv4_13"
  top: "conv4_13"
}
layer {
  name: "conv4_21"
  type: "Convolution"
  bottom: "pool1"
  top: "conv4_21"
  param {
    lr_mult: 1
    decay_mult: 1
  }
  param {
    lr_mult: 2
    decay_mult: 0
  }
  convolution_param {
    num_output: 32
    pad: 1
    kernel_size: 3
    stride: 1
    weight_filler {
      type: "gaussian"
      std: 0.01
    }
    bias_filler {
      type: "constant"
      value: 0
    }
  }
}
layer {
  name: "bn_conv4_21"
  type: "BatchNorm"
  bottom: "conv4_21"
  top: "conv4_21"
  batch_norm_param {
    use_global_stats: false
  }
}
layer {
  name: "scale_conv4_21"
  type: "Scale"
  bottom: "conv4_21"
  top: "conv4_21"
  scale_param {
    bias_term: true
  }
}
layer {
  name: "relu4_21"
  type: "ReLU"
  bottom: "conv4_21"
  top: "conv4_21"
}
layer {
  name: "conv4_22"
  type: "Convolution"
  bottom: "conv4_21"
  top: "conv4_22"
  param {
    lr_mult: 1
    decay_mult: 1
  }
  param {
    lr_mult: 2
    decay_mult: 0
  }
  convolution_param {
    num_output: 32
    pad: 1
    kernel_size: 3
    stride: 1
    weight_filler {
      type: "gaussian"
      std: 0.01
    }
    bias_filler {
      type: "constant"
      value: 0
    }
  }
}
layer {
  name: "bn_conv4_22"
  type: "BatchNorm"
  bottom: "conv4_22"
  top: "conv4_22"
  batch_norm_param {
    use_global_stats: false
  }
}
layer {
  name: "scale_conv4_22"
  type: "Scale"
  bottom: "conv4_22"
  top: "conv4_22"
  scale_param {
    bias_term: true
  }
}
layer {
  name: "relu4_22"
  type: "ReLU"
  bottom: "conv4_22"
  top: "conv4_22"
}
layer {
  name: "conv4_31"
  type: "Convolution"
  bottom: "pool1"
  top: "conv4_31"
  param {
    lr_mult: 1
    decay_mult: 1
  }
  param {
    lr_mult: 2
    decay_mult: 0
  }
  convolution_param {
    num_output: 32
    pad: 1
    kernel_size: 3
    stride: 1
    weight_filler {
      type: "gaussian"
      std: 0.01
    }
    bias_filler {
      type: "constant"
      value: 0
    }
  }
}
layer {
  name: "bn_conv4_31"
  type: "BatchNorm"
  bottom: "conv4_31"
  top: "conv4_31"
  batch_norm_param {
    use_global_stats: false
  }
}
layer {
  name: "scale_conv4_31"
  type: "Scale"
  bottom: "conv4_31"
  top: "conv4_31"
  scale_param {
    bias_term: true
  }
}
layer {
  name: "relu4_31"
  type: "ReLU"
  bottom: "conv4_31"
  top: "conv4_31"
}
layer {
  name: "concat1"
  type: "Concat"
  bottom: "conv4_13"
  bottom: "conv4_22"
  bottom: "conv4_31"
  top: "conv4"
  concat_param {
    axis: 1
  }
}
layer {
  name: "pool2"
  type: "Pooling"
  bottom: "conv4"
  top: "pool2"
  pooling_param {
    pool: MAX
    kernel_size: 2
    stride: 2
  }
}
layer {
  name: "conv5_11"
  type: "Convolution"
  bottom: "pool2"
  top: "conv5_11"
  param {
    lr_mult: 1
    decay_mult: 1
  }
  param {
    lr_mult: 2
    decay_mult: 0
  }
  convolution_param {
    num_output: 32
    pad: 1
    kernel_size: 3
    stride: 1
    weight_filler {
      type: "gaussian"
      std: 0.01
    }
    bias_filler {
      type: "constant"
      value: 0
    }
  }
}
layer {
  name: "bn_conv5_11"
  type: "BatchNorm"
  bottom: "conv5_11"
  top: "conv5_11"
  batch_norm_param {
    use_global_stats: false
  }
}
layer {
  name: "scale_conv5_11"
  type: "Scale"
  bottom: "conv5_11"
  top: "conv5_11"
  scale_param {
    bias_term: true
  }
}
layer {
  name: "relu5_11"
  type: "ReLU"
  bottom: "conv5_11"
  top: "conv5_11"
}
layer {
  name: "conv5_12"
  type: "Convolution"
  bottom: "conv5_11"
  top: "conv5_12"
  param {
    lr_mult: 1
    decay_mult: 1
  }
  param {
    lr_mult: 2
    decay_mult: 0
  }
  convolution_param {
    num_output: 32
    pad: 1
    kernel_size: 3
    stride: 1
    weight_filler {
      type: "gaussian"
      std: 0.01
    }
    bias_filler {
      type: "constant"
      value: 0
    }
  }
}
layer {
  name: "bn_conv5_12"
  type: "BatchNorm"
  bottom: "conv5_12"
  top: "conv5_12"
  batch_norm_param {
    use_global_stats: false
  }
}
layer {
  name: "scale_conv5_12"
  type: "Scale"
  bottom: "conv5_12"
  top: "conv5_12"
  scale_param {
    bias_term: true
  }
}
layer {
  name: "relu5_12"
  type: "ReLU"
  bottom: "conv5_12"
  top: "conv5_12"
}
layer {
  name: "conv5_13"
  type: "Convolution"
  bottom: "conv5_12"
  top: "conv5_13"
  param {
    lr_mult: 1
    decay_mult: 1
  }
  param {
    lr_mult: 2
    decay_mult: 0
  }
  convolution_param {
    num_output: 32
    pad: 1
    kernel_size: 3
    stride: 1
    weight_filler {
      type: "gaussian"
      std: 0.01
    }
    bias_filler {
      type: "constant"
      value: 0
    }
  }
}
layer {
  name: "bn_conv5_13"
  type: "BatchNorm"
  bottom: "conv5_13"
  top: "conv5_13"
  batch_norm_param {
    use_global_stats: false
  }
}
layer {
  name: "scale_conv5_13"
  type: "Scale"
  bottom: "conv5_13"
  top: "conv5_13"
  scale_param {
    bias_term: true
  }
}
layer {
  name: "relu5_13"
  type: "ReLU"
  bottom: "conv5_13"
  top: "conv5_13"
}
layer {
  name: "conv5_21"
  type: "Convolution"
  bottom: "pool2"
  top: "conv5_21"
  param {
    lr_mult: 1
    decay_mult: 1
  }
  param {
    lr_mult: 2
    decay_mult: 0
  }
  convolution_param {
    num_output: 32
    pad: 1
    kernel_size: 3
    stride: 1
    weight_filler {
      type: "gaussian"
      std: 0.01
    }
    bias_filler {
      type: "constant"
      value: 0
    }
  }
}
layer {
  name: "bn_conv5_21"
  type: "BatchNorm"
  bottom: "conv5_21"
  top: "conv5_21"
  batch_norm_param {
    use_global_stats: false
  }
}
layer {
  name: "scale_conv5_21"
  type: "Scale"
  bottom: "conv5_21"
  top: "conv5_21"
  scale_param {
    bias_term: true
  }
}
layer {
  name: "relu5_21"
  type: "ReLU"
  bottom: "conv5_21"
  top: "conv5_21"
}
layer {
  name: "conv5_22"
  type: "Convolution"
  bottom: "conv5_21"
  top: "conv5_22"
  param {
    lr_mult: 1
    decay_mult: 1
  }
  param {
    lr_mult: 2
    decay_mult: 0
  }
  convolution_param {
    num_output: 32
    pad: 1
    kernel_size: 3
    stride: 1
    weight_filler {
      type: "gaussian"
      std: 0.01
    }
    bias_filler {
      type: "constant"
      value: 0
    }
  }
}
layer {
  name: "bn_conv5_22"
  type: "BatchNorm"
  bottom: "conv5_22"
  top: "conv5_22"
  batch_norm_param {
    use_global_stats: false
  }
}
layer {
  name: "scale_conv5_22"
  type: "Scale"
  bottom: "conv5_22"
  top: "conv5_22"
  scale_param {
    bias_term: true
  }
}
layer {
  name: "relu5_22"
  type: "ReLU"
  bottom: "conv5_22"
  top: "conv5_22"
}
layer {
  name: "conv5_31"
  type: "Convolution"
  bottom: "pool2"
  top: "conv5_31"
  param {
    lr_mult: 1
    decay_mult: 1
  }
  param {
    lr_mult: 2
    decay_mult: 0
  }
  convolution_param {
    num_output: 32
    pad: 1
    kernel_size: 3
    stride: 1
    weight_filler {
      type: "gaussian"
      std: 0.01
    }
    bias_filler {
      type: "constant"
      value: 0
    }
  }
}
layer {
  name: "bn_conv5_31"
  type: "BatchNorm"
  bottom: "conv5_31"
  top: "conv5_31"
  batch_norm_param {
    use_global_stats: false
  }
}
layer {
  name: "scale_conv5_31"
  type: "Scale"
  bottom: "conv5_31"
  top: "conv5_31"
  scale_param {
    bias_term: true
  }
}
layer {
  name: "relu5_31"
  type: "ReLU"
  bottom: "conv5_31"
  top: "conv5_31"
}
layer {
  name: "concat2"
  type: "Concat"
  bottom: "conv5_13"
  bottom: "conv5_22"
  bottom: "conv5_31"
  top: "conv5"
  concat_param {
    axis: 1
  }
}
layer {
  name: "conv6"
  type: "Convolution"
  bottom: "conv5"
  top: "conv_score"
  param {
    lr_mult: 1
    decay_mult: 1
  }
  param {
    lr_mult: 2
    decay_mult: 0
  }
  convolution_param {
    num_output: 32
    pad: 0
    kernel_size: 1
    group: 32
    stride: 1
    weight_filler {
      type: "gaussian"
      std: 0.01
    }
    bias_filler {
      type: "constant"
      value: 0
    }
  }
}
layer {
  name: "relu6"
  type: "ReLU"
  bottom: "conv_score"
  top: "conv_score"
}
layer {
  name: "slicer_conv"
  type: "Slice"
  bottom: "conv_score"
  top: "score1"
  top: "score2"
  top: "score3"
  top: "score4"
  top: "score5"
  top: "score6"
  top: "score7"
  top: "score8"
  top: "score9"
  top: "score10"
  top: "score11"
  top: "score12"
  top: "score13"
  top: "score14"
  top: "score15"
  top: "score16"
  top: "score17"
  top: "score18"
  top: "score19"
  top: "score20"
  top: "score21"
  top: "score22"
  top: "score23"
  top: "score24"
  top: "score25"
  top: "score26"
  top: "score27"
  top: "score28"
  top: "score29"
  top: "score30"
  top: "score31"
  top: "score32"
  slice_param {
    axis: 1
  }
}
layer {
  name: "sumscore"
  type: "Eltwise"
  bottom: "score1"
  bottom: "score2"
  bottom: "score3"
  bottom: "score4"
  bottom: "score5"
  bottom: "score6"
  bottom: "score7"
  bottom: "score8"
  bottom: "score9"
  bottom: "score10"
  bottom: "score11"
  bottom: "score12"
  bottom: "score13"
  bottom: "score14"
  bottom: "score15"
  bottom: "score16"
  bottom: "score17"
  bottom: "score18"
  bottom: "score19"
  bottom: "score20"
  bottom: "score21"
  bottom: "score22"
  bottom: "score23"
  bottom: "score24"
  bottom: "score25"
  bottom: "score26"
  bottom: "score27"
  bottom: "score28"
  bottom: "score29"
  bottom: "score30"
  bottom: "score31"
  bottom: "score32"
  top: "sumscore"
  eltwise_param {
    operation: SUM
  }
}
layer {
  name: "avgscore"
  type: "Power"
  bottom: "sumscore"
  top: "avgscore"
  include {
    phase: TEST
  }
  power_param {
    power: 1
    scale: 0.03125
    shift: 0
  }
}
layer {
  name: "mae"
  type: "MAELoss"
  bottom: "avgscore"
  bottom: "label"
  top: "mae"
  include {
    phase: TEST
  }
}
layer {
  name: "mse"
  type: "MSELoss"
  bottom: "avgscore"
  bottom: "label"
  top: "mse"
  include {
    phase: TEST
  }
}
I0619 11:53:41.678277  6578 layer_factory.hpp:77] Creating layer data
I0619 11:53:41.678333  6578 db_lmdb.cpp:35] Opened lmdb /home/peiyong/Work/Zenglin/szl/ShanghaiTech/partA/test/image_lmdb
I0619 11:53:41.678364  6578 net.cpp:84] Creating Layer data
I0619 11:53:41.678372  6578 net.cpp:380] data -> data
I0619 11:53:41.679004  6578 data_layer.cpp:45] output data size: 1,1,704,1024
I0619 11:53:41.684680  6578 net.cpp:122] Setting up data
I0619 11:53:41.684700  6578 net.cpp:129] Top shape: 1 1 704 1024 (720896)
I0619 11:53:41.684706  6578 net.cpp:137] Memory required for data: 2883584
I0619 11:53:41.684713  6578 layer_factory.hpp:77] Creating layer label
I0619 11:53:41.684779  6578 db_lmdb.cpp:35] Opened lmdb /home/peiyong/Work/Zenglin/szl/ShanghaiTech/partA/test/dmap_lmdb
I0619 11:53:41.684808  6578 net.cpp:84] Creating Layer label
I0619 11:53:41.684818  6578 net.cpp:380] label -> label
I0619 11:53:41.685037  6578 data_layer.cpp:45] output data size: 1,1,176,256
I0619 11:53:41.686225  6578 net.cpp:122] Setting up label
I0619 11:53:41.686238  6578 net.cpp:129] Top shape: 1 1 176 256 (45056)
I0619 11:53:41.686247  6578 net.cpp:137] Memory required for data: 3063808
I0619 11:53:41.686254  6578 layer_factory.hpp:77] Creating layer label_label_0_split
I0619 11:53:41.686264  6578 net.cpp:84] Creating Layer label_label_0_split
I0619 11:53:41.686271  6578 net.cpp:406] label_label_0_split <- label
I0619 11:53:41.686282  6578 net.cpp:380] label_label_0_split -> label_label_0_split_0
I0619 11:53:41.686295  6578 net.cpp:380] label_label_0_split -> label_label_0_split_1
I0619 11:53:41.686353  6578 net.cpp:122] Setting up label_label_0_split
I0619 11:53:41.686378  6578 net.cpp:129] Top shape: 1 1 176 256 (45056)
I0619 11:53:41.686386  6578 net.cpp:129] Top shape: 1 1 176 256 (45056)
I0619 11:53:41.686391  6578 net.cpp:137] Memory required for data: 3424256
I0619 11:53:41.686398  6578 layer_factory.hpp:77] Creating layer conv1
I0619 11:53:41.686415  6578 net.cpp:84] Creating Layer conv1
I0619 11:53:41.686421  6578 net.cpp:406] conv1 <- data
I0619 11:53:41.686430  6578 net.cpp:380] conv1 -> conv1
I0619 11:53:41.691473  6578 net.cpp:122] Setting up conv1
I0619 11:53:41.691493  6578 net.cpp:129] Top shape: 1 24 704 1024 (17301504)
I0619 11:53:41.691500  6578 net.cpp:137] Memory required for data: 72630272
I0619 11:53:41.691515  6578 layer_factory.hpp:77] Creating layer bn_conv1
I0619 11:53:41.691527  6578 net.cpp:84] Creating Layer bn_conv1
I0619 11:53:41.691534  6578 net.cpp:406] bn_conv1 <- conv1
I0619 11:53:41.691541  6578 net.cpp:367] bn_conv1 -> conv1 (in-place)
I0619 11:53:41.693253  6578 net.cpp:122] Setting up bn_conv1
I0619 11:53:41.693270  6578 net.cpp:129] Top shape: 1 24 704 1024 (17301504)
I0619 11:53:41.693274  6578 net.cpp:137] Memory required for data: 141836288
I0619 11:53:41.693285  6578 layer_factory.hpp:77] Creating layer scale_conv1
I0619 11:53:41.693295  6578 net.cpp:84] Creating Layer scale_conv1
I0619 11:53:41.693298  6578 net.cpp:406] scale_conv1 <- conv1
I0619 11:53:41.693303  6578 net.cpp:367] scale_conv1 -> conv1 (in-place)
I0619 11:53:41.693351  6578 layer_factory.hpp:77] Creating layer scale_conv1
I0619 11:53:41.695549  6578 net.cpp:122] Setting up scale_conv1
I0619 11:53:41.695566  6578 net.cpp:129] Top shape: 1 24 704 1024 (17301504)
I0619 11:53:41.695572  6578 net.cpp:137] Memory required for data: 211042304
I0619 11:53:41.695580  6578 layer_factory.hpp:77] Creating layer relu1
I0619 11:53:41.695588  6578 net.cpp:84] Creating Layer relu1
I0619 11:53:41.695591  6578 net.cpp:406] relu1 <- conv1
I0619 11:53:41.695597  6578 net.cpp:367] relu1 -> conv1 (in-place)
I0619 11:53:41.696498  6578 net.cpp:122] Setting up relu1
I0619 11:53:41.696511  6578 net.cpp:129] Top shape: 1 24 704 1024 (17301504)
I0619 11:53:41.696514  6578 net.cpp:137] Memory required for data: 280248320
I0619 11:53:41.696519  6578 layer_factory.hpp:77] Creating layer pool1
I0619 11:53:41.696527  6578 net.cpp:84] Creating Layer pool1
I0619 11:53:41.696529  6578 net.cpp:406] pool1 <- conv1
I0619 11:53:41.696535  6578 net.cpp:380] pool1 -> pool1
I0619 11:53:41.696593  6578 net.cpp:122] Setting up pool1
I0619 11:53:41.696600  6578 net.cpp:129] Top shape: 1 24 352 512 (4325376)
I0619 11:53:41.696604  6578 net.cpp:137] Memory required for data: 297549824
I0619 11:53:41.696606  6578 layer_factory.hpp:77] Creating layer pool1_pool1_0_split
I0619 11:53:41.696614  6578 net.cpp:84] Creating Layer pool1_pool1_0_split
I0619 11:53:41.696619  6578 net.cpp:406] pool1_pool1_0_split <- pool1
I0619 11:53:41.696624  6578 net.cpp:380] pool1_pool1_0_split -> pool1_pool1_0_split_0
I0619 11:53:41.696630  6578 net.cpp:380] pool1_pool1_0_split -> pool1_pool1_0_split_1
I0619 11:53:41.696635  6578 net.cpp:380] pool1_pool1_0_split -> pool1_pool1_0_split_2
I0619 11:53:41.696707  6578 net.cpp:122] Setting up pool1_pool1_0_split
I0619 11:53:41.696717  6578 net.cpp:129] Top shape: 1 24 352 512 (4325376)
I0619 11:53:41.696723  6578 net.cpp:129] Top shape: 1 24 352 512 (4325376)
I0619 11:53:41.696729  6578 net.cpp:129] Top shape: 1 24 352 512 (4325376)
I0619 11:53:41.696734  6578 net.cpp:137] Memory required for data: 349454336
I0619 11:53:41.696739  6578 layer_factory.hpp:77] Creating layer conv4_11
I0619 11:53:41.696753  6578 net.cpp:84] Creating Layer conv4_11
I0619 11:53:41.696758  6578 net.cpp:406] conv4_11 <- pool1_pool1_0_split_0
I0619 11:53:41.696766  6578 net.cpp:380] conv4_11 -> conv4_11
I0619 11:53:41.699543  6578 net.cpp:122] Setting up conv4_11
I0619 11:53:41.699555  6578 net.cpp:129] Top shape: 1 32 352 512 (5767168)
I0619 11:53:41.699561  6578 net.cpp:137] Memory required for data: 372523008
I0619 11:53:41.699574  6578 layer_factory.hpp:77] Creating layer bn_conv4_11
I0619 11:53:41.699607  6578 net.cpp:84] Creating Layer bn_conv4_11
I0619 11:53:41.699615  6578 net.cpp:406] bn_conv4_11 <- conv4_11
I0619 11:53:41.699625  6578 net.cpp:367] bn_conv4_11 -> conv4_11 (in-place)
I0619 11:53:41.700469  6578 net.cpp:122] Setting up bn_conv4_11
I0619 11:53:41.700481  6578 net.cpp:129] Top shape: 1 32 352 512 (5767168)
I0619 11:53:41.700486  6578 net.cpp:137] Memory required for data: 395591680
I0619 11:53:41.700498  6578 layer_factory.hpp:77] Creating layer scale_conv4_11
I0619 11:53:41.700510  6578 net.cpp:84] Creating Layer scale_conv4_11
I0619 11:53:41.700515  6578 net.cpp:406] scale_conv4_11 <- conv4_11
I0619 11:53:41.700525  6578 net.cpp:367] scale_conv4_11 -> conv4_11 (in-place)
I0619 11:53:41.700582  6578 layer_factory.hpp:77] Creating layer scale_conv4_11
I0619 11:53:41.701573  6578 net.cpp:122] Setting up scale_conv4_11
I0619 11:53:41.701586  6578 net.cpp:129] Top shape: 1 32 352 512 (5767168)
I0619 11:53:41.701591  6578 net.cpp:137] Memory required for data: 418660352
I0619 11:53:41.701601  6578 layer_factory.hpp:77] Creating layer relu4_11
I0619 11:53:41.701611  6578 net.cpp:84] Creating Layer relu4_11
I0619 11:53:41.701617  6578 net.cpp:406] relu4_11 <- conv4_11
I0619 11:53:41.701624  6578 net.cpp:367] relu4_11 -> conv4_11 (in-place)
I0619 11:53:41.702164  6578 net.cpp:122] Setting up relu4_11
I0619 11:53:41.702177  6578 net.cpp:129] Top shape: 1 32 352 512 (5767168)
I0619 11:53:41.702183  6578 net.cpp:137] Memory required for data: 441729024
I0619 11:53:41.702188  6578 layer_factory.hpp:77] Creating layer conv4_12
I0619 11:53:41.702200  6578 net.cpp:84] Creating Layer conv4_12
I0619 11:53:41.702208  6578 net.cpp:406] conv4_12 <- conv4_11
I0619 11:53:41.702217  6578 net.cpp:380] conv4_12 -> conv4_12
I0619 11:53:41.706382  6578 net.cpp:122] Setting up conv4_12
I0619 11:53:41.706394  6578 net.cpp:129] Top shape: 1 32 352 512 (5767168)
I0619 11:53:41.706400  6578 net.cpp:137] Memory required for data: 464797696
I0619 11:53:41.706409  6578 layer_factory.hpp:77] Creating layer bn_conv4_12
I0619 11:53:41.706419  6578 net.cpp:84] Creating Layer bn_conv4_12
I0619 11:53:41.706425  6578 net.cpp:406] bn_conv4_12 <- conv4_12
I0619 11:53:41.706434  6578 net.cpp:367] bn_conv4_12 -> conv4_12 (in-place)
I0619 11:53:41.707057  6578 net.cpp:122] Setting up bn_conv4_12
I0619 11:53:41.707069  6578 net.cpp:129] Top shape: 1 32 352 512 (5767168)
I0619 11:53:41.707074  6578 net.cpp:137] Memory required for data: 487866368
I0619 11:53:41.707089  6578 layer_factory.hpp:77] Creating layer scale_conv4_12
I0619 11:53:41.707100  6578 net.cpp:84] Creating Layer scale_conv4_12
I0619 11:53:41.707106  6578 net.cpp:406] scale_conv4_12 <- conv4_12
I0619 11:53:41.707115  6578 net.cpp:367] scale_conv4_12 -> conv4_12 (in-place)
I0619 11:53:41.707171  6578 layer_factory.hpp:77] Creating layer scale_conv4_12
I0619 11:53:41.708104  6578 net.cpp:122] Setting up scale_conv4_12
I0619 11:53:41.708117  6578 net.cpp:129] Top shape: 1 32 352 512 (5767168)
I0619 11:53:41.708122  6578 net.cpp:137] Memory required for data: 510935040
I0619 11:53:41.708132  6578 layer_factory.hpp:77] Creating layer relu4_12
I0619 11:53:41.708142  6578 net.cpp:84] Creating Layer relu4_12
I0619 11:53:41.708149  6578 net.cpp:406] relu4_12 <- conv4_12
I0619 11:53:41.708158  6578 net.cpp:367] relu4_12 -> conv4_12 (in-place)
I0619 11:53:41.708323  6578 net.cpp:122] Setting up relu4_12
I0619 11:53:41.708334  6578 net.cpp:129] Top shape: 1 32 352 512 (5767168)
I0619 11:53:41.708340  6578 net.cpp:137] Memory required for data: 534003712
I0619 11:53:41.708345  6578 layer_factory.hpp:77] Creating layer conv4_13
I0619 11:53:41.708359  6578 net.cpp:84] Creating Layer conv4_13
I0619 11:53:41.708364  6578 net.cpp:406] conv4_13 <- conv4_12
I0619 11:53:41.708374  6578 net.cpp:380] conv4_13 -> conv4_13
I0619 11:53:41.712061  6578 net.cpp:122] Setting up conv4_13
I0619 11:53:41.712074  6578 net.cpp:129] Top shape: 1 32 352 512 (5767168)
I0619 11:53:41.712080  6578 net.cpp:137] Memory required for data: 557072384
I0619 11:53:41.712088  6578 layer_factory.hpp:77] Creating layer bn_conv4_13
I0619 11:53:41.712116  6578 net.cpp:84] Creating Layer bn_conv4_13
I0619 11:53:41.712123  6578 net.cpp:406] bn_conv4_13 <- conv4_13
I0619 11:53:41.712132  6578 net.cpp:367] bn_conv4_13 -> conv4_13 (in-place)
I0619 11:53:41.712760  6578 net.cpp:122] Setting up bn_conv4_13
I0619 11:53:41.712772  6578 net.cpp:129] Top shape: 1 32 352 512 (5767168)
I0619 11:53:41.712777  6578 net.cpp:137] Memory required for data: 580141056
I0619 11:53:41.712788  6578 layer_factory.hpp:77] Creating layer scale_conv4_13
I0619 11:53:41.712798  6578 net.cpp:84] Creating Layer scale_conv4_13
I0619 11:53:41.712805  6578 net.cpp:406] scale_conv4_13 <- conv4_13
I0619 11:53:41.712813  6578 net.cpp:367] scale_conv4_13 -> conv4_13 (in-place)
I0619 11:53:41.712867  6578 layer_factory.hpp:77] Creating layer scale_conv4_13
I0619 11:53:41.713804  6578 net.cpp:122] Setting up scale_conv4_13
I0619 11:53:41.713815  6578 net.cpp:129] Top shape: 1 32 352 512 (5767168)
I0619 11:53:41.713821  6578 net.cpp:137] Memory required for data: 603209728
I0619 11:53:41.713830  6578 layer_factory.hpp:77] Creating layer relu4_13
I0619 11:53:41.713840  6578 net.cpp:84] Creating Layer relu4_13
I0619 11:53:41.713846  6578 net.cpp:406] relu4_13 <- conv4_13
I0619 11:53:41.713855  6578 net.cpp:367] relu4_13 -> conv4_13 (in-place)
I0619 11:53:41.714401  6578 net.cpp:122] Setting up relu4_13
I0619 11:53:41.714413  6578 net.cpp:129] Top shape: 1 32 352 512 (5767168)
I0619 11:53:41.714418  6578 net.cpp:137] Memory required for data: 626278400
I0619 11:53:41.714424  6578 layer_factory.hpp:77] Creating layer conv4_21
I0619 11:53:41.714437  6578 net.cpp:84] Creating Layer conv4_21
I0619 11:53:41.714445  6578 net.cpp:406] conv4_21 <- pool1_pool1_0_split_1
I0619 11:53:41.714455  6578 net.cpp:380] conv4_21 -> conv4_21
I0619 11:53:41.716895  6578 net.cpp:122] Setting up conv4_21
I0619 11:53:41.716907  6578 net.cpp:129] Top shape: 1 32 352 512 (5767168)
I0619 11:53:41.716913  6578 net.cpp:137] Memory required for data: 649347072
I0619 11:53:41.716922  6578 layer_factory.hpp:77] Creating layer bn_conv4_21
I0619 11:53:41.716933  6578 net.cpp:84] Creating Layer bn_conv4_21
I0619 11:53:41.716939  6578 net.cpp:406] bn_conv4_21 <- conv4_21
I0619 11:53:41.716948  6578 net.cpp:367] bn_conv4_21 -> conv4_21 (in-place)
I0619 11:53:41.717579  6578 net.cpp:122] Setting up bn_conv4_21
I0619 11:53:41.717592  6578 net.cpp:129] Top shape: 1 32 352 512 (5767168)
I0619 11:53:41.717597  6578 net.cpp:137] Memory required for data: 672415744
I0619 11:53:41.717612  6578 layer_factory.hpp:77] Creating layer scale_conv4_21
I0619 11:53:41.717622  6578 net.cpp:84] Creating Layer scale_conv4_21
I0619 11:53:41.717628  6578 net.cpp:406] scale_conv4_21 <- conv4_21
I0619 11:53:41.717638  6578 net.cpp:367] scale_conv4_21 -> conv4_21 (in-place)
I0619 11:53:41.717694  6578 layer_factory.hpp:77] Creating layer scale_conv4_21
I0619 11:53:41.718653  6578 net.cpp:122] Setting up scale_conv4_21
I0619 11:53:41.718665  6578 net.cpp:129] Top shape: 1 32 352 512 (5767168)
I0619 11:53:41.718672  6578 net.cpp:137] Memory required for data: 695484416
I0619 11:53:41.718680  6578 layer_factory.hpp:77] Creating layer relu4_21
I0619 11:53:41.718690  6578 net.cpp:84] Creating Layer relu4_21
I0619 11:53:41.718696  6578 net.cpp:406] relu4_21 <- conv4_21
I0619 11:53:41.718704  6578 net.cpp:367] relu4_21 -> conv4_21 (in-place)
I0619 11:53:41.719241  6578 net.cpp:122] Setting up relu4_21
I0619 11:53:41.719254  6578 net.cpp:129] Top shape: 1 32 352 512 (5767168)
I0619 11:53:41.719259  6578 net.cpp:137] Memory required for data: 718553088
I0619 11:53:41.719264  6578 layer_factory.hpp:77] Creating layer conv4_22
I0619 11:53:41.719277  6578 net.cpp:84] Creating Layer conv4_22
I0619 11:53:41.719285  6578 net.cpp:406] conv4_22 <- conv4_21
I0619 11:53:41.719295  6578 net.cpp:380] conv4_22 -> conv4_22
I0619 11:53:41.723543  6578 net.cpp:122] Setting up conv4_22
I0619 11:53:41.723556  6578 net.cpp:129] Top shape: 1 32 352 512 (5767168)
I0619 11:53:41.723562  6578 net.cpp:137] Memory required for data: 741621760
I0619 11:53:41.723572  6578 layer_factory.hpp:77] Creating layer bn_conv4_22
I0619 11:53:41.723598  6578 net.cpp:84] Creating Layer bn_conv4_22
I0619 11:53:41.723604  6578 net.cpp:406] bn_conv4_22 <- conv4_22
I0619 11:53:41.723613  6578 net.cpp:367] bn_conv4_22 -> conv4_22 (in-place)
I0619 11:53:41.724246  6578 net.cpp:122] Setting up bn_conv4_22
I0619 11:53:41.724257  6578 net.cpp:129] Top shape: 1 32 352 512 (5767168)
I0619 11:53:41.724262  6578 net.cpp:137] Memory required for data: 764690432
I0619 11:53:41.724273  6578 layer_factory.hpp:77] Creating layer scale_conv4_22
I0619 11:53:41.724283  6578 net.cpp:84] Creating Layer scale_conv4_22
I0619 11:53:41.724290  6578 net.cpp:406] scale_conv4_22 <- conv4_22
I0619 11:53:41.724298  6578 net.cpp:367] scale_conv4_22 -> conv4_22 (in-place)
I0619 11:53:41.724360  6578 layer_factory.hpp:77] Creating layer scale_conv4_22
I0619 11:53:41.725312  6578 net.cpp:122] Setting up scale_conv4_22
I0619 11:53:41.725324  6578 net.cpp:129] Top shape: 1 32 352 512 (5767168)
I0619 11:53:41.725330  6578 net.cpp:137] Memory required for data: 787759104
I0619 11:53:41.725339  6578 layer_factory.hpp:77] Creating layer relu4_22
I0619 11:53:41.725353  6578 net.cpp:84] Creating Layer relu4_22
I0619 11:53:41.725359  6578 net.cpp:406] relu4_22 <- conv4_22
I0619 11:53:41.725368  6578 net.cpp:367] relu4_22 -> conv4_22 (in-place)
I0619 11:53:41.725541  6578 net.cpp:122] Setting up relu4_22
I0619 11:53:41.725553  6578 net.cpp:129] Top shape: 1 32 352 512 (5767168)
I0619 11:53:41.725558  6578 net.cpp:137] Memory required for data: 810827776
I0619 11:53:41.725563  6578 layer_factory.hpp:77] Creating layer conv4_31
I0619 11:53:41.725579  6578 net.cpp:84] Creating Layer conv4_31
I0619 11:53:41.725585  6578 net.cpp:406] conv4_31 <- pool1_pool1_0_split_2
I0619 11:53:41.725595  6578 net.cpp:380] conv4_31 -> conv4_31
I0619 11:53:41.728935  6578 net.cpp:122] Setting up conv4_31
I0619 11:53:41.728950  6578 net.cpp:129] Top shape: 1 32 352 512 (5767168)
I0619 11:53:41.728955  6578 net.cpp:137] Memory required for data: 833896448
I0619 11:53:41.728961  6578 layer_factory.hpp:77] Creating layer bn_conv4_31
I0619 11:53:41.728971  6578 net.cpp:84] Creating Layer bn_conv4_31
I0619 11:53:41.728974  6578 net.cpp:406] bn_conv4_31 <- conv4_31
I0619 11:53:41.728982  6578 net.cpp:367] bn_conv4_31 -> conv4_31 (in-place)
I0619 11:53:41.729910  6578 net.cpp:122] Setting up bn_conv4_31
I0619 11:53:41.729926  6578 net.cpp:129] Top shape: 1 32 352 512 (5767168)
I0619 11:53:41.729930  6578 net.cpp:137] Memory required for data: 856965120
I0619 11:53:41.729939  6578 layer_factory.hpp:77] Creating layer scale_conv4_31
I0619 11:53:41.729946  6578 net.cpp:84] Creating Layer scale_conv4_31
I0619 11:53:41.729953  6578 net.cpp:406] scale_conv4_31 <- conv4_31
I0619 11:53:41.729962  6578 net.cpp:367] scale_conv4_31 -> conv4_31 (in-place)
I0619 11:53:41.730038  6578 layer_factory.hpp:77] Creating layer scale_conv4_31
I0619 11:53:41.731060  6578 net.cpp:122] Setting up scale_conv4_31
I0619 11:53:41.731073  6578 net.cpp:129] Top shape: 1 32 352 512 (5767168)
I0619 11:53:41.731076  6578 net.cpp:137] Memory required for data: 880033792
I0619 11:53:41.731081  6578 layer_factory.hpp:77] Creating layer relu4_31
I0619 11:53:41.731092  6578 net.cpp:84] Creating Layer relu4_31
I0619 11:53:41.731097  6578 net.cpp:406] relu4_31 <- conv4_31
I0619 11:53:41.731102  6578 net.cpp:367] relu4_31 -> conv4_31 (in-place)
I0619 11:53:41.731662  6578 net.cpp:122] Setting up relu4_31
I0619 11:53:41.731674  6578 net.cpp:129] Top shape: 1 32 352 512 (5767168)
I0619 11:53:41.731678  6578 net.cpp:137] Memory required for data: 903102464
I0619 11:53:41.731680  6578 layer_factory.hpp:77] Creating layer concat1
I0619 11:53:41.731685  6578 net.cpp:84] Creating Layer concat1
I0619 11:53:41.731688  6578 net.cpp:406] concat1 <- conv4_13
I0619 11:53:41.731691  6578 net.cpp:406] concat1 <- conv4_22
I0619 11:53:41.731694  6578 net.cpp:406] concat1 <- conv4_31
I0619 11:53:41.731698  6578 net.cpp:380] concat1 -> conv4
I0619 11:53:41.731736  6578 net.cpp:122] Setting up concat1
I0619 11:53:41.731745  6578 net.cpp:129] Top shape: 1 96 352 512 (17301504)
I0619 11:53:41.731762  6578 net.cpp:137] Memory required for data: 972308480
I0619 11:53:41.731766  6578 layer_factory.hpp:77] Creating layer pool2
I0619 11:53:41.731775  6578 net.cpp:84] Creating Layer pool2
I0619 11:53:41.731778  6578 net.cpp:406] pool2 <- conv4
I0619 11:53:41.731783  6578 net.cpp:380] pool2 -> pool2
I0619 11:53:41.731837  6578 net.cpp:122] Setting up pool2
I0619 11:53:41.731843  6578 net.cpp:129] Top shape: 1 96 176 256 (4325376)
I0619 11:53:41.731848  6578 net.cpp:137] Memory required for data: 989609984
I0619 11:53:41.731851  6578 layer_factory.hpp:77] Creating layer pool2_pool2_0_split
I0619 11:53:41.731858  6578 net.cpp:84] Creating Layer pool2_pool2_0_split
I0619 11:53:41.731861  6578 net.cpp:406] pool2_pool2_0_split <- pool2
I0619 11:53:41.731866  6578 net.cpp:380] pool2_pool2_0_split -> pool2_pool2_0_split_0
I0619 11:53:41.731873  6578 net.cpp:380] pool2_pool2_0_split -> pool2_pool2_0_split_1
I0619 11:53:41.731879  6578 net.cpp:380] pool2_pool2_0_split -> pool2_pool2_0_split_2
I0619 11:53:41.731935  6578 net.cpp:122] Setting up pool2_pool2_0_split
I0619 11:53:41.731940  6578 net.cpp:129] Top shape: 1 96 176 256 (4325376)
I0619 11:53:41.731945  6578 net.cpp:129] Top shape: 1 96 176 256 (4325376)
I0619 11:53:41.731948  6578 net.cpp:129] Top shape: 1 96 176 256 (4325376)
I0619 11:53:41.731951  6578 net.cpp:137] Memory required for data: 1041514496
I0619 11:53:41.731955  6578 layer_factory.hpp:77] Creating layer conv5_11
I0619 11:53:41.731963  6578 net.cpp:84] Creating Layer conv5_11
I0619 11:53:41.731967  6578 net.cpp:406] conv5_11 <- pool2_pool2_0_split_0
I0619 11:53:41.731973  6578 net.cpp:380] conv5_11 -> conv5_11
I0619 11:53:41.733979  6578 net.cpp:122] Setting up conv5_11
I0619 11:53:41.733991  6578 net.cpp:129] Top shape: 1 32 176 256 (1441792)
I0619 11:53:41.733996  6578 net.cpp:137] Memory required for data: 1047281664
I0619 11:53:41.734002  6578 layer_factory.hpp:77] Creating layer bn_conv5_11
I0619 11:53:41.734010  6578 net.cpp:84] Creating Layer bn_conv5_11
I0619 11:53:41.734014  6578 net.cpp:406] bn_conv5_11 <- conv5_11
I0619 11:53:41.734019  6578 net.cpp:367] bn_conv5_11 -> conv5_11 (in-place)
I0619 11:53:41.734278  6578 net.cpp:122] Setting up bn_conv5_11
I0619 11:53:41.734285  6578 net.cpp:129] Top shape: 1 32 176 256 (1441792)
I0619 11:53:41.734288  6578 net.cpp:137] Memory required for data: 1053048832
I0619 11:53:41.734294  6578 layer_factory.hpp:77] Creating layer scale_conv5_11
I0619 11:53:41.734300  6578 net.cpp:84] Creating Layer scale_conv5_11
I0619 11:53:41.734303  6578 net.cpp:406] scale_conv5_11 <- conv5_11
I0619 11:53:41.734309  6578 net.cpp:367] scale_conv5_11 -> conv5_11 (in-place)
I0619 11:53:41.734355  6578 layer_factory.hpp:77] Creating layer scale_conv5_11
I0619 11:53:41.734542  6578 net.cpp:122] Setting up scale_conv5_11
I0619 11:53:41.734550  6578 net.cpp:129] Top shape: 1 32 176 256 (1441792)
I0619 11:53:41.734553  6578 net.cpp:137] Memory required for data: 1058816000
I0619 11:53:41.734558  6578 layer_factory.hpp:77] Creating layer relu5_11
I0619 11:53:41.734563  6578 net.cpp:84] Creating Layer relu5_11
I0619 11:53:41.734566  6578 net.cpp:406] relu5_11 <- conv5_11
I0619 11:53:41.734571  6578 net.cpp:367] relu5_11 -> conv5_11 (in-place)
I0619 11:53:41.735505  6578 net.cpp:122] Setting up relu5_11
I0619 11:53:41.735519  6578 net.cpp:129] Top shape: 1 32 176 256 (1441792)
I0619 11:53:41.735525  6578 net.cpp:137] Memory required for data: 1064583168
I0619 11:53:41.735532  6578 layer_factory.hpp:77] Creating layer conv5_12
I0619 11:53:41.735545  6578 net.cpp:84] Creating Layer conv5_12
I0619 11:53:41.735554  6578 net.cpp:406] conv5_12 <- conv5_11
I0619 11:53:41.735563  6578 net.cpp:380] conv5_12 -> conv5_12
I0619 11:53:41.738016  6578 net.cpp:122] Setting up conv5_12
I0619 11:53:41.738029  6578 net.cpp:129] Top shape: 1 32 176 256 (1441792)
I0619 11:53:41.738035  6578 net.cpp:137] Memory required for data: 1070350336
I0619 11:53:41.738045  6578 layer_factory.hpp:77] Creating layer bn_conv5_12
I0619 11:53:41.738056  6578 net.cpp:84] Creating Layer bn_conv5_12
I0619 11:53:41.738075  6578 net.cpp:406] bn_conv5_12 <- conv5_12
I0619 11:53:41.738085  6578 net.cpp:367] bn_conv5_12 -> conv5_12 (in-place)
I0619 11:53:41.738359  6578 net.cpp:122] Setting up bn_conv5_12
I0619 11:53:41.738370  6578 net.cpp:129] Top shape: 1 32 176 256 (1441792)
I0619 11:53:41.738375  6578 net.cpp:137] Memory required for data: 1076117504
I0619 11:53:41.738386  6578 layer_factory.hpp:77] Creating layer scale_conv5_12
I0619 11:53:41.738395  6578 net.cpp:84] Creating Layer scale_conv5_12
I0619 11:53:41.738402  6578 net.cpp:406] scale_conv5_12 <- conv5_12
I0619 11:53:41.738410  6578 net.cpp:367] scale_conv5_12 -> conv5_12 (in-place)
I0619 11:53:41.738471  6578 layer_factory.hpp:77] Creating layer scale_conv5_12
I0619 11:53:41.738654  6578 net.cpp:122] Setting up scale_conv5_12
I0619 11:53:41.738664  6578 net.cpp:129] Top shape: 1 32 176 256 (1441792)
I0619 11:53:41.738670  6578 net.cpp:137] Memory required for data: 1081884672
I0619 11:53:41.738678  6578 layer_factory.hpp:77] Creating layer relu5_12
I0619 11:53:41.738689  6578 net.cpp:84] Creating Layer relu5_12
I0619 11:53:41.738696  6578 net.cpp:406] relu5_12 <- conv5_12
I0619 11:53:41.738703  6578 net.cpp:367] relu5_12 -> conv5_12 (in-place)
I0619 11:53:41.738874  6578 net.cpp:122] Setting up relu5_12
I0619 11:53:41.738884  6578 net.cpp:129] Top shape: 1 32 176 256 (1441792)
I0619 11:53:41.738890  6578 net.cpp:137] Memory required for data: 1087651840
I0619 11:53:41.738896  6578 layer_factory.hpp:77] Creating layer conv5_13
I0619 11:53:41.738910  6578 net.cpp:84] Creating Layer conv5_13
I0619 11:53:41.738917  6578 net.cpp:406] conv5_13 <- conv5_12
I0619 11:53:41.738929  6578 net.cpp:380] conv5_13 -> conv5_13
I0619 11:53:41.742383  6578 net.cpp:122] Setting up conv5_13
I0619 11:53:41.742395  6578 net.cpp:129] Top shape: 1 32 176 256 (1441792)
I0619 11:53:41.742400  6578 net.cpp:137] Memory required for data: 1093419008
I0619 11:53:41.742422  6578 layer_factory.hpp:77] Creating layer bn_conv5_13
I0619 11:53:41.742434  6578 net.cpp:84] Creating Layer bn_conv5_13
I0619 11:53:41.742441  6578 net.cpp:406] bn_conv5_13 <- conv5_13
I0619 11:53:41.742450  6578 net.cpp:367] bn_conv5_13 -> conv5_13 (in-place)
I0619 11:53:41.743043  6578 net.cpp:122] Setting up bn_conv5_13
I0619 11:53:41.743057  6578 net.cpp:129] Top shape: 1 32 176 256 (1441792)
I0619 11:53:41.743062  6578 net.cpp:137] Memory required for data: 1099186176
I0619 11:53:41.743072  6578 layer_factory.hpp:77] Creating layer scale_conv5_13
I0619 11:53:41.743083  6578 net.cpp:84] Creating Layer scale_conv5_13
I0619 11:53:41.743089  6578 net.cpp:406] scale_conv5_13 <- conv5_13
I0619 11:53:41.743099  6578 net.cpp:367] scale_conv5_13 -> conv5_13 (in-place)
I0619 11:53:41.743165  6578 layer_factory.hpp:77] Creating layer scale_conv5_13
I0619 11:53:41.743350  6578 net.cpp:122] Setting up scale_conv5_13
I0619 11:53:41.743361  6578 net.cpp:129] Top shape: 1 32 176 256 (1441792)
I0619 11:53:41.743367  6578 net.cpp:137] Memory required for data: 1104953344
I0619 11:53:41.743376  6578 layer_factory.hpp:77] Creating layer relu5_13
I0619 11:53:41.743384  6578 net.cpp:84] Creating Layer relu5_13
I0619 11:53:41.743391  6578 net.cpp:406] relu5_13 <- conv5_13
I0619 11:53:41.743398  6578 net.cpp:367] relu5_13 -> conv5_13 (in-place)
I0619 11:53:41.743955  6578 net.cpp:122] Setting up relu5_13
I0619 11:53:41.743968  6578 net.cpp:129] Top shape: 1 32 176 256 (1441792)
I0619 11:53:41.743973  6578 net.cpp:137] Memory required for data: 1110720512
I0619 11:53:41.743978  6578 layer_factory.hpp:77] Creating layer conv5_21
I0619 11:53:41.743996  6578 net.cpp:84] Creating Layer conv5_21
I0619 11:53:41.744002  6578 net.cpp:406] conv5_21 <- pool2_pool2_0_split_1
I0619 11:53:41.744012  6578 net.cpp:380] conv5_21 -> conv5_21
I0619 11:53:41.747323  6578 net.cpp:122] Setting up conv5_21
I0619 11:53:41.747336  6578 net.cpp:129] Top shape: 1 32 176 256 (1441792)
I0619 11:53:41.747344  6578 net.cpp:137] Memory required for data: 1116487680
I0619 11:53:41.747352  6578 layer_factory.hpp:77] Creating layer bn_conv5_21
I0619 11:53:41.747372  6578 net.cpp:84] Creating Layer bn_conv5_21
I0619 11:53:41.747380  6578 net.cpp:406] bn_conv5_21 <- conv5_21
I0619 11:53:41.747391  6578 net.cpp:367] bn_conv5_21 -> conv5_21 (in-place)
I0619 11:53:41.747659  6578 net.cpp:122] Setting up bn_conv5_21
I0619 11:53:41.747670  6578 net.cpp:129] Top shape: 1 32 176 256 (1441792)
I0619 11:53:41.747676  6578 net.cpp:137] Memory required for data: 1122254848
I0619 11:53:41.747687  6578 layer_factory.hpp:77] Creating layer scale_conv5_21
I0619 11:53:41.747695  6578 net.cpp:84] Creating Layer scale_conv5_21
I0619 11:53:41.747701  6578 net.cpp:406] scale_conv5_21 <- conv5_21
I0619 11:53:41.747709  6578 net.cpp:367] scale_conv5_21 -> conv5_21 (in-place)
I0619 11:53:41.747771  6578 layer_factory.hpp:77] Creating layer scale_conv5_21
I0619 11:53:41.748296  6578 net.cpp:122] Setting up scale_conv5_21
I0619 11:53:41.748307  6578 net.cpp:129] Top shape: 1 32 176 256 (1441792)
I0619 11:53:41.748312  6578 net.cpp:137] Memory required for data: 1128022016
I0619 11:53:41.748322  6578 layer_factory.hpp:77] Creating layer relu5_21
I0619 11:53:41.748332  6578 net.cpp:84] Creating Layer relu5_21
I0619 11:53:41.748339  6578 net.cpp:406] relu5_21 <- conv5_21
I0619 11:53:41.748347  6578 net.cpp:367] relu5_21 -> conv5_21 (in-place)
I0619 11:53:41.748899  6578 net.cpp:122] Setting up relu5_21
I0619 11:53:41.748911  6578 net.cpp:129] Top shape: 1 32 176 256 (1441792)
I0619 11:53:41.748917  6578 net.cpp:137] Memory required for data: 1133789184
I0619 11:53:41.748922  6578 layer_factory.hpp:77] Creating layer conv5_22
I0619 11:53:41.748939  6578 net.cpp:84] Creating Layer conv5_22
I0619 11:53:41.748945  6578 net.cpp:406] conv5_22 <- conv5_21
I0619 11:53:41.748956  6578 net.cpp:380] conv5_22 -> conv5_22
I0619 11:53:41.752095  6578 net.cpp:122] Setting up conv5_22
I0619 11:53:41.752110  6578 net.cpp:129] Top shape: 1 32 176 256 (1441792)
I0619 11:53:41.752116  6578 net.cpp:137] Memory required for data: 1139556352
I0619 11:53:41.752125  6578 layer_factory.hpp:77] Creating layer bn_conv5_22
I0619 11:53:41.752135  6578 net.cpp:84] Creating Layer bn_conv5_22
I0619 11:53:41.752142  6578 net.cpp:406] bn_conv5_22 <- conv5_22
I0619 11:53:41.752152  6578 net.cpp:367] bn_conv5_22 -> conv5_22 (in-place)
I0619 11:53:41.752419  6578 net.cpp:122] Setting up bn_conv5_22
I0619 11:53:41.752429  6578 net.cpp:129] Top shape: 1 32 176 256 (1441792)
I0619 11:53:41.752434  6578 net.cpp:137] Memory required for data: 1145323520
I0619 11:53:41.752444  6578 layer_factory.hpp:77] Creating layer scale_conv5_22
I0619 11:53:41.752455  6578 net.cpp:84] Creating Layer scale_conv5_22
I0619 11:53:41.752462  6578 net.cpp:406] scale_conv5_22 <- conv5_22
I0619 11:53:41.752470  6578 net.cpp:367] scale_conv5_22 -> conv5_22 (in-place)
I0619 11:53:41.752532  6578 layer_factory.hpp:77] Creating layer scale_conv5_22
I0619 11:53:41.753057  6578 net.cpp:122] Setting up scale_conv5_22
I0619 11:53:41.753068  6578 net.cpp:129] Top shape: 1 32 176 256 (1441792)
I0619 11:53:41.753074  6578 net.cpp:137] Memory required for data: 1151090688
I0619 11:53:41.753083  6578 layer_factory.hpp:77] Creating layer relu5_22
I0619 11:53:41.753094  6578 net.cpp:84] Creating Layer relu5_22
I0619 11:53:41.753101  6578 net.cpp:406] relu5_22 <- conv5_22
I0619 11:53:41.753109  6578 net.cpp:367] relu5_22 -> conv5_22 (in-place)
I0619 11:53:41.753343  6578 net.cpp:122] Setting up relu5_22
I0619 11:53:41.753355  6578 net.cpp:129] Top shape: 1 32 176 256 (1441792)
I0619 11:53:41.753360  6578 net.cpp:137] Memory required for data: 1156857856
I0619 11:53:41.753365  6578 layer_factory.hpp:77] Creating layer conv5_31
I0619 11:53:41.753379  6578 net.cpp:84] Creating Layer conv5_31
I0619 11:53:41.753386  6578 net.cpp:406] conv5_31 <- pool2_pool2_0_split_2
I0619 11:53:41.753398  6578 net.cpp:380] conv5_31 -> conv5_31
I0619 11:53:41.758090  6578 net.cpp:122] Setting up conv5_31
I0619 11:53:41.758102  6578 net.cpp:129] Top shape: 1 32 176 256 (1441792)
I0619 11:53:41.758108  6578 net.cpp:137] Memory required for data: 1162625024
I0619 11:53:41.758117  6578 layer_factory.hpp:77] Creating layer bn_conv5_31
I0619 11:53:41.758141  6578 net.cpp:84] Creating Layer bn_conv5_31
I0619 11:53:41.758149  6578 net.cpp:406] bn_conv5_31 <- conv5_31
I0619 11:53:41.758158  6578 net.cpp:367] bn_conv5_31 -> conv5_31 (in-place)
I0619 11:53:41.758435  6578 net.cpp:122] Setting up bn_conv5_31
I0619 11:53:41.758445  6578 net.cpp:129] Top shape: 1 32 176 256 (1441792)
I0619 11:53:41.758451  6578 net.cpp:137] Memory required for data: 1168392192
I0619 11:53:41.758461  6578 layer_factory.hpp:77] Creating layer scale_conv5_31
I0619 11:53:41.758471  6578 net.cpp:84] Creating Layer scale_conv5_31
I0619 11:53:41.758477  6578 net.cpp:406] scale_conv5_31 <- conv5_31
I0619 11:53:41.758486  6578 net.cpp:367] scale_conv5_31 -> conv5_31 (in-place)
I0619 11:53:41.758548  6578 layer_factory.hpp:77] Creating layer scale_conv5_31
I0619 11:53:41.758738  6578 net.cpp:122] Setting up scale_conv5_31
I0619 11:53:41.758749  6578 net.cpp:129] Top shape: 1 32 176 256 (1441792)
I0619 11:53:41.758754  6578 net.cpp:137] Memory required for data: 1174159360
I0619 11:53:41.758764  6578 layer_factory.hpp:77] Creating layer relu5_31
I0619 11:53:41.758774  6578 net.cpp:84] Creating Layer relu5_31
I0619 11:53:41.758780  6578 net.cpp:406] relu5_31 <- conv5_31
I0619 11:53:41.758788  6578 net.cpp:367] relu5_31 -> conv5_31 (in-place)
I0619 11:53:41.759353  6578 net.cpp:122] Setting up relu5_31
I0619 11:53:41.759366  6578 net.cpp:129] Top shape: 1 32 176 256 (1441792)
I0619 11:53:41.759371  6578 net.cpp:137] Memory required for data: 1179926528
I0619 11:53:41.759377  6578 layer_factory.hpp:77] Creating layer concat2
I0619 11:53:41.759388  6578 net.cpp:84] Creating Layer concat2
I0619 11:53:41.759395  6578 net.cpp:406] concat2 <- conv5_13
I0619 11:53:41.759403  6578 net.cpp:406] concat2 <- conv5_22
I0619 11:53:41.759409  6578 net.cpp:406] concat2 <- conv5_31
I0619 11:53:41.759418  6578 net.cpp:380] concat2 -> conv5
I0619 11:53:41.759464  6578 net.cpp:122] Setting up concat2
I0619 11:53:41.759474  6578 net.cpp:129] Top shape: 1 96 176 256 (4325376)
I0619 11:53:41.759479  6578 net.cpp:137] Memory required for data: 1197228032
I0619 11:53:41.759485  6578 layer_factory.hpp:77] Creating layer conv6
I0619 11:53:41.759500  6578 net.cpp:84] Creating Layer conv6
I0619 11:53:41.759506  6578 net.cpp:406] conv6 <- conv5
I0619 11:53:41.759516  6578 net.cpp:380] conv6 -> conv_score
I0619 11:53:41.844941  6578 net.cpp:122] Setting up conv6
I0619 11:53:41.844967  6578 net.cpp:129] Top shape: 1 32 176 256 (1441792)
I0619 11:53:41.844974  6578 net.cpp:137] Memory required for data: 1202995200
I0619 11:53:41.844986  6578 layer_factory.hpp:77] Creating layer relu6
I0619 11:53:41.845000  6578 net.cpp:84] Creating Layer relu6
I0619 11:53:41.845007  6578 net.cpp:406] relu6 <- conv_score
I0619 11:53:41.845018  6578 net.cpp:367] relu6 -> conv_score (in-place)
I0619 11:53:41.845597  6578 net.cpp:122] Setting up relu6
I0619 11:53:41.845608  6578 net.cpp:129] Top shape: 1 32 176 256 (1441792)
I0619 11:53:41.845614  6578 net.cpp:137] Memory required for data: 1208762368
I0619 11:53:41.845620  6578 layer_factory.hpp:77] Creating layer slicer_conv
I0619 11:53:41.845636  6578 net.cpp:84] Creating Layer slicer_conv
I0619 11:53:41.845644  6578 net.cpp:406] slicer_conv <- conv_score
I0619 11:53:41.845660  6578 net.cpp:380] slicer_conv -> score1
I0619 11:53:41.845675  6578 net.cpp:380] slicer_conv -> score2
…
I0619 11:53:41.845968  6578 net.cpp:380] slicer_conv -> score25
I0619 11:53:41.845983  6578 net.cpp:380] slicer_conv -> score26
I0619 11:53:41.845994  6578 net.cpp:380] slicer_conv -> score27
I0619 11:53:41.846004  6578 net.cpp:380] slicer_conv -> score28
I0619 11:53:41.846015  6578 net.cpp:380] slicer_conv -> score29
I0619 11:53:41.846026  6578 net.cpp:380] slicer_conv -> score30
I0619 11:53:41.846037  6578 net.cpp:380] slicer_conv -> score31
I0619 11:53:41.846048  6578 net.cpp:380] slicer_conv -> score32
I0619 11:53:41.846582  6578 net.cpp:122] Setting up slicer_conv
I0619 11:53:41.846592  6578 net.cpp:129] Top shape: 1 1 176 256 (45056)
I0619 11:53:41.846599  6578 net.cpp:129] Top shape: 1 1 176 256 (45056)
I0619 11:53:41.846606  6578 net.cpp:129] Top shape: 1 1 176 256 (45056)
I0619 11:53:41.846613  6578 net.cpp:129] Top shape: 1 1 176 256 (45056)
I0619 11:53:41.846621  6578 net.cpp:129] Top shape: 1 1 176 256 (45056)
I0619 11:53:41.846628  6578 net.cpp:129] Top shape: 1 1 176 256 (45056)
I0619 11:53:41.846635  6578 net.cpp:129] Top shape: 1 1 176 256 (45056)
I0619 11:53:41.846642  6578 net.cpp:129] Top shape: 1 1 176 256 (45056)
I0619 11:53:41.846649  6578 net.cpp:129] Top shape: 1 1 176 256 (45056)
I0619 11:53:41.846655  6578 net.cpp:129] Top shape: 1 1 176 256 (45056)
I0619 11:53:41.846662  6578 net.cpp:129] Top shape: 1 1 176 256 (45056)
I0619 11:53:41.846668  6578 net.cpp:129] Top shape: 1 1 176 256 (45056)
I0619 11:53:41.846674  6578 net.cpp:129] Top shape: 1 1 176 256 (45056)
I0619 11:53:41.846681  6578 net.cpp:129] Top shape: 1 1 176 256 (45056)
I0619 11:53:41.846688  6578 net.cpp:129] Top shape: 1 1 176 256 (45056)
I0619 11:53:41.846694  6578 net.cpp:129] Top shape: 1 1 176 256 (45056)
I0619 11:53:41.846700  6578 net.cpp:129] Top shape: 1 1 176 256 (45056)
I0619 11:53:41.846706  6578 net.cpp:129] Top shape: 1 1 176 256 (45056)
I0619 11:53:41.846712  6578 net.cpp:129] Top shape: 1 1 176 256 (45056)
I0619 11:53:41.846719  6578 net.cpp:129] Top shape: 1 1 176 256 (45056)
I0619 11:53:41.846725  6578 net.cpp:129] Top shape: 1 1 176 256 (45056)
I0619 11:53:41.846731  6578 net.cpp:129] Top shape: 1 1 176 256 (45056)
I0619 11:53:41.846738  6578 net.cpp:129] Top shape: 1 1 176 256 (45056)
I0619 11:53:41.846745  6578 net.cpp:129] Top shape: 1 1 176 256 (45056)
I0619 11:53:41.846750  6578 net.cpp:129] Top shape: 1 1 176 256 (45056)
I0619 11:53:41.846756  6578 net.cpp:129] Top shape: 1 1 176 256 (45056)
I0619 11:53:41.846763  6578 net.cpp:129] Top shape: 1 1 176 256 (45056)
I0619 11:53:41.846770  6578 net.cpp:129] Top shape: 1 1 176 256 (45056)
I0619 11:53:41.846776  6578 net.cpp:129] Top shape: 1 1 176 256 (45056)
I0619 11:53:41.846782  6578 net.cpp:129] Top shape: 1 1 176 256 (45056)
I0619 11:53:41.846788  6578 net.cpp:129] Top shape: 1 1 176 256 (45056)
I0619 11:53:41.846794  6578 net.cpp:129] Top shape: 1 1 176 256 (45056)
I0619 11:53:41.846799  6578 net.cpp:137] Memory required for data: 1214529536
I0619 11:53:41.846806  6578 layer_factory.hpp:77] Creating layer sumscore
I0619 11:53:41.846827  6578 net.cpp:84] Creating Layer sumscore
I0619 11:53:41.846833  6578 net.cpp:406] sumscore <- score1
I0619 11:53:41.846839  6578 net.cpp:406] sumscore <- score2
I0619 11:53:41.846848  6578 net.cpp:406] sumscore <- score3
…
