…
I0619 10:38:33.154579 25534 net.cpp:51] Initializing net from parameters: 
name: "crowd_counting"
state {
  phase: TRAIN
  level: 0
  stage: ""
}
layer {
  name: "data"
  type: "Data"
  top: "data"
  include {
    phase: TRAIN
  }
  data_param {
    source: "/home/peiyong/Work/Zenglin/szl/ShanghaiTech/partA/train/image_lmdb"
    batch_size: 1
    backend: LMDB
  }
}
layer {
  name: "label"
  type: "Data"
  top: "label"
  include {
    phase: TRAIN
  }
  data_param {
    source: "/home/peiyong/Work/Zenglin/szl/ShanghaiTech/partA/train/dmap_lmdb"
    batch_size: 1
    backend: LMDB
  }
}
layer {
  name: "conv1"
  type: "Convolution"
  bottom: "data"
  top: "conv1"
  param {
    lr_mult: 1
    decay_mult: 1
  }
  param {
    lr_mult: 2
    decay_mult: 0
  }
  convolution_param {
    num_output: 24
    pad: 2
    kernel_size: 5
    stride: 1
    weight_filler {
      type: "gaussian"
      std: 0.01
    }
    bias_filler {
      type: "constant"
      value: 0
    }
  }
}
layer {
  name: "bn_conv1"
  type: "BatchNorm"
  bottom: "conv1"
  top: "conv1"
  batch_norm_param {
    use_global_stats: false
  }
}
layer {
  name: "scale_conv1"
  type: "Scale"
  bottom: "conv1"
  top: "conv1"
  scale_param {
    bias_term: true
  }
}
layer {
  name: "relu1"
  type: "ReLU"
  bottom: "conv1"
  top: "conv1"
}
layer {
  name: "pool1"
  type: "Pooling"
  bottom: "conv1"
  top: "pool1"
  pooling_param {
    pool: MAX
    kernel_size: 2
    stride: 2
  }
}
layer {
  name: "conv4_11"
  type: "Convolution"
  bottom: "pool1"
  top: "conv4_11"
  param {
    lr_mult: 1
    decay_mult: 1
  }
  param {
    lr_mult: 2
    decay_mult: 0
  }
  convolution_param {
    num_output: 24
    pad: 1
    kernel_size: 3
    stride: 1
    weight_filler {
      type: "gaussian"
      std: 0.01
    }
    bias_filler {
      type: "constant"
      value: 0
    }
  }
}
layer {
  name: "bn_conv4_11"
  type: "BatchNorm"
  bottom: "conv4_11"
  top: "conv4_11"
  batch_norm_param {
    use_global_stats: false
  }
}
layer {
  name: "scale_conv4_11"
  type: "Scale"
  bottom: "conv4_11"
  top: "conv4_11"
  scale_param {
    bias_term: true
  }
}
layer {
  name: "relu4_11"
  type: "ReLU"
  bottom: "conv4_11"
  top: "conv4_11"
}
layer {
  name: "conv4_12"
  type: "Convolution"
  bottom: "conv4_11"
  top: "conv4_12"
  param {
    lr_mult: 1
    decay_mult: 1
  }
  param {
    lr_mult: 2
    decay_mult: 0
  }
  convolution_param {
    num_output: 24
    pad: 1
    kernel_size: 3
    stride: 1
    weight_filler {
      type: "gaussian"
      std: 0.01
    }
    bias_filler {
      type: "constant"
      value: 0
    }
  }
}
layer {
  name: "bn_conv4_12"
  type: "BatchNorm"
  bottom: "conv4_12"
  top: "conv4_12"
  batch_norm_param {
    use_global_stats: false
  }
}
layer {
  name: "scale_conv4_12"
  type: "Scale"
  bottom: "conv4_12"
  top: "conv4_12"
  scale_param {
    bias_term: true
  }
}
layer {
  name: "relu4_12"
  type: "ReLU"
  bottom: "conv4_12"
  top: "conv4_12"
}
layer {
  name: "conv4_13"
  type: "Convolution"
  bottom: "conv4_12"
  top: "conv4_13"
  param {
    lr_mult: 1
    decay_mult: 1
  }
  param {
    lr_mult: 2
    decay_mult: 0
  }
  convolution_param {
    num_output: 24
    pad: 1
    kernel_size: 3
    stride: 1
    weight_filler {
      type: "gaussian"
      std: 0.01
    }
    bias_filler {
      type: "constant"
      value: 0
    }
  }
}
layer {
  name: "bn_conv4_13"
  type: "BatchNorm"
  bottom: "conv4_13"
  top: "conv4_13"
  batch_norm_param {
    use_global_stats: false
  }
}
layer {
  name: "scale_conv4_13"
  type: "Scale"
  bottom: "conv4_13"
  top: "conv4_13"
  scale_param {
    bias_term: true
  }
}
layer {
  name: "relu4_13"
  type: "ReLU"
  bottom: "conv4_13"
  top: "conv4_13"
}
layer {
  name: "conv4_21"
  type: "Convolution"
  bottom: "pool1"
  top: "conv4_21"
  param {
    lr_mult: 1
    decay_mult: 1
  }
  param {
    lr_mult: 2
    decay_mult: 0
  }
  convolution_param {
    num_output: 24
    pad: 1
    kernel_size: 3
    stride: 1
    weight_filler {
      type: "gaussian"
      std: 0.01
    }
    bias_filler {
      type: "constant"
      value: 0
    }
  }
}
layer {
  name: "bn_conv4_21"
  type: "BatchNorm"
  bottom: "conv4_21"
  top: "conv4_21"
  batch_norm_param {
    use_global_stats: false
  }
}
layer {
  name: "scale_conv4_21"
  type: "Scale"
  bottom: "conv4_21"
  top: "conv4_21"
  scale_param {
    bias_term: true
  }
}
layer {
  name: "relu4_21"
  type: "ReLU"
  bottom: "conv4_21"
  top: "conv4_21"
}
layer {
  name: "conv4_22"
  type: "Convolution"
  bottom: "conv4_21"
  top: "conv4_22"
  param {
    lr_mult: 1
    decay_mult: 1
  }
  param {
    lr_mult: 2
    decay_mult: 0
  }
  convolution_param {
    num_output: 24
    pad: 1
    kernel_size: 3
    stride: 1
    weight_filler {
      type: "gaussian"
      std: 0.01
    }
    bias_filler {
      type: "constant"
      value: 0
    }
  }
}
layer {
  name: "bn_conv4_22"
  type: "BatchNorm"
  bottom: "conv4_22"
  top: "conv4_22"
  batch_norm_param {
    use_global_stats: false
  }
}
layer {
  name: "scale_conv4_22"
  type: "Scale"
  bottom: "conv4_22"
  top: "conv4_22"
  scale_param {
    bias_term: true
  }
}
layer {
  name: "relu4_22"
  type: "ReLU"
  bottom: "conv4_22"
  top: "conv4_22"
}
layer {
  name: "conv4_31"
  type: "Convolution"
  bottom: "pool1"
  top: "conv4_31"
  param {
    lr_mult: 1
    decay_mult: 1
  }
  param {
    lr_mult: 2
    decay_mult: 0
  }
  convolution_param {
    num_output: 24
    pad: 1
    kernel_size: 3
    stride: 1
    weight_filler {
      type: "gaussian"
      std: 0.01
    }
    bias_filler {
      type: "constant"
      value: 0
    }
  }
}
layer {
  name: "bn_conv4_31"
  type: "BatchNorm"
  bottom: "conv4_31"
  top: "conv4_31"
  batch_norm_param {
    use_global_stats: false
  }
}
layer {
  name: "scale_conv4_31"
  type: "Scale"
  bottom: "conv4_31"
  top: "conv4_31"
  scale_param {
    bias_term: true
  }
}
layer {
  name: "relu4_31"
  type: "ReLU"
  bottom: "conv4_31"
  top: "conv4_31"
}
layer {
  name: "concat1"
  type: "Concat"
  bottom: "conv4_13"
  bottom: "conv4_22"
  bottom: "conv4_31"
  top: "conv4"
  concat_param {
    axis: 1
  }
}
layer {
  name: "pool2"
  type: "Pooling"
  bottom: "conv4"
  top: "pool2"
  pooling_param {
    pool: MAX
    kernel_size: 2
    stride: 2
  }
}
layer {
  name: "conv5_11"
  type: "Convolution"
  bottom: "pool2"
  top: "conv5_11"
  param {
    lr_mult: 1
    decay_mult: 1
  }
  param {
    lr_mult: 2
    decay_mult: 0
  }
  convolution_param {
    num_output: 32
    pad: 1
    kernel_size: 3
    stride: 1
    weight_filler {
      type: "gaussian"
      std: 0.01
    }
    bias_filler {
      type: "constant"
      value: 0
    }
  }
}
layer {
  name: "bn_conv5_11"
  type: "BatchNorm"
  bottom: "conv5_11"
  top: "conv5_11"
  batch_norm_param {
    use_global_stats: false
  }
}
layer {
  name: "scale_conv5_11"
  type: "Scale"
  bottom: "conv5_11"
  top: "conv5_11"
  scale_param {
    bias_term: true
  }
}
layer {
  name: "relu5_11"
  type: "ReLU"
  bottom: "conv5_11"
  top: "conv5_11"
}
layer {
  name: "conv5_12"
  type: "Convolution"
  bottom: "conv5_11"
  top: "conv5_12"
  param {
    lr_mult: 1
    decay_mult: 1
  }
  param {
    lr_mult: 2
    decay_mult: 0
  }
  convolution_param {
    num_output: 32
    pad: 1
    kernel_size: 3
    stride: 1
    weight_filler {
      type: "gaussian"
      std: 0.01
    }
    bias_filler {
      type: "constant"
      value: 0
    }
  }
}
layer {
  name: "bn_conv5_12"
  type: "BatchNorm"
  bottom: "conv5_12"
  top: "conv5_12"
  batch_norm_param {
    use_global_stats: false
  }
}
layer {
  name: "scale_conv5_12"
  type: "Scale"
  bottom: "conv5_12"
  top: "conv5_12"
  scale_param {
    bias_term: true
  }
}
layer {
  name: "relu5_12"
  type: "ReLU"
  bottom: "conv5_12"
  top: "conv5_12"
}
layer {
  name: "conv5_13"
  type: "Convolution"
  bottom: "conv5_12"
  top: "conv5_13"
  param {
    lr_mult: 1
    decay_mult: 1
  }
  param {
    lr_mult: 2
    decay_mult: 0
  }
  convolution_param {
    num_output: 32
    pad: 1
    kernel_size: 3
    stride: 1
    weight_filler {
      type: "gaussian"
      std: 0.01
    }
    bias_filler {
      type: "constant"
      value: 0
    }
  }
}
layer {
  name: "bn_conv5_13"
  type: "BatchNorm"
  bottom: "conv5_13"
  top: "conv5_13"
  batch_norm_param {
    use_global_stats: false
  }
}
layer {
  name: "scale_conv5_13"
  type: "Scale"
  bottom: "conv5_13"
  top: "conv5_13"
  scale_param {
    bias_term: true
  }
}
layer {
  name: "relu5_13"
  type: "ReLU"
  bottom: "conv5_13"
  top: "conv5_13"
}
layer {
  name: "conv5_21"
  type: "Convolution"
  bottom: "pool2"
  top: "conv5_21"
  param {
    lr_mult: 1
    decay_mult: 1
  }
  param {
    lr_mult: 2
    decay_mult: 0
  }
  convolution_param {
    num_output: 32
    pad: 1
    kernel_size: 3
    stride: 1
    weight_filler {
      type: "gaussian"
      std: 0.01
    }
    bias_filler {
      type: "constant"
      value: 0
    }
  }
}
layer {
  name: "bn_conv5_21"
  type: "BatchNorm"
  bottom: "conv5_21"
  top: "conv5_21"
  batch_norm_param {
    use_global_stats: false
  }
}
layer {
  name: "scale_conv5_21"
  type: "Scale"
  bottom: "conv5_21"
  top: "conv5_21"
  scale_param {
    bias_term: true
  }
}
layer {
  name: "relu5_21"
  type: "ReLU"
  bottom: "conv5_21"
  top: "conv5_21"
}
layer {
  name: "conv5_22"
  type: "Convolution"
  bottom: "conv5_21"
  top: "conv5_22"
  param {
    lr_mult: 1
    decay_mult: 1
  }
  param {
    lr_mult: 2
    decay_mult: 0
  }
  convolution_param {
    num_output: 32
    pad: 1
    kernel_size: 3
    stride: 1
    weight_filler {
      type: "gaussian"
      std: 0.01
    }
    bias_filler {
      type: "constant"
      value: 0
    }
  }
}
layer {
  name: "bn_conv5_22"
  type: "BatchNorm"
  bottom: "conv5_22"
  top: "conv5_22"
  batch_norm_param {
    use_global_stats: false
  }
}
layer {
  name: "scale_conv5_22"
  type: "Scale"
  bottom: "conv5_22"
  top: "conv5_22"
  scale_param {
    bias_term: true
  }
}
layer {
  name: "relu5_22"
  type: "ReLU"
  bottom: "conv5_22"
  top: "conv5_22"
}
layer {
  name: "conv5_31"
  type: "Convolution"
  bottom: "pool2"
  top: "conv5_31"
  param {
    lr_mult: 1
    decay_mult: 1
  }
  param {
    lr_mult: 2
    decay_mult: 0
  }
  convolution_param {
    num_output: 32
    pad: 1
    kernel_size: 3
    stride: 1
    weight_filler {
      type: "gaussian"
      std: 0.01
    }
    bias_filler {
      type: "constant"
      value: 0
    }
  }
}
layer {
  name: "bn_conv5_31"
  type: "BatchNorm"
  bottom: "conv5_31"
  top: "conv5_31"
  batch_norm_param {
    use_global_stats: false
  }
}
layer {
  name: "scale_conv5_31"
  type: "Scale"
  bottom: "conv5_31"
  top: "conv5_31"
  scale_param {
    bias_term: true
  }
}
layer {
  name: "relu5_31"
  type: "ReLU"
  bottom: "conv5_31"
  top: "conv5_31"
}
layer {
  name: "concat2"
  type: "Concat"
  bottom: "conv5_13"
  bottom: "conv5_22"
  bottom: "conv5_31"
  top: "conv5"
  concat_param {
    axis: 1
  }
}
layer {
  name: "conv6"
  type: "Convolution"
  bottom: "conv5"
  top: "conv_score"
  param {
    lr_mult: 1
    decay_mult: 1
  }
  param {
    lr_mult: 2
    decay_mult: 0
  }
  convolution_param {
    num_output: 32
    pad: 0
    kernel_size: 1
    group: 32
    stride: 1
    weight_filler {
      type: "gaussian"
      std: 0.01
    }
    bias_filler {
      type: "constant"
      value: 0
    }
  }
}
layer {
  name: "relu6"
  type: "ReLU"
  bottom: "conv_score"
  top: "conv_score"
}
layer {
  name: "slicer_conv"
  type: "Slice"
  bottom: "conv_score"
  top: "score1"
  top: "score2"
  top: "score3"
  top: "score4"
  top: "score5"
  top: "score6"
  top: "score7"
  top: "score8"
  top: "score9"
  top: "score10"
  top: "score11"
  top: "score12"
  top: "score13"
  top: "score14"
  top: "score15"
  top: "score16"
  top: "score17"
  top: "score18"
  top: "score19"
  top: "score20"
  top: "score21"
  top: "score22"
  top: "score23"
  top: "score24"
  top: "score25"
  top: "score26"
  top: "score27"
  top: "score28"
  top: "score29"
  top: "score30"
  top: "score31"
  top: "score32"
  slice_param {
    axis: 1
  }
}
layer {
  name: "sumscore"
  type: "Eltwise"
  bottom: "score1"
  bottom: "score2"
  bottom: "score3"
  bottom: "score4"
  bottom: "score5"
  bottom: "score6"
  bottom: "score7"
  bottom: "score8"
  bottom: "score9"
  bottom: "score10"
  bottom: "score11"
  bottom: "score12"
  bottom: "score13"
  bottom: "score14"
  bottom: "score15"
  bottom: "score16"
  bottom: "score17"
  bottom: "score18"
  bottom: "score19"
  bottom: "score20"
  bottom: "score21"
  bottom: "score22"
  bottom: "score23"
  bottom: "score24"
  bottom: "score25"
  bottom: "score26"
  bottom: "score27"
  bottom: "score28"
  bottom: "score29"
  bottom: "score30"
  bottom: "score31"
  bottom: "score32"
  top: "sumscore"
  eltwise_param {
    operation: SUM
  }
}
layer {
  name: "loss1"
  type: "NCLLoss"
  bottom: "score1"
  bottom: "label"
  bottom: "sumscore"
  top: "loss1"
  include {
    phase: TRAIN
  }
  ncl_loss_param {
    lambda: 0.0001
    net_num: 32
  }
}
layer {
  name: "loss2"
  type: "NCLLoss"
  bottom: "score2"
  bottom: "label"
  bottom: "sumscore"
  top: "loss2"
  include {
    phase: TRAIN
  }
  ncl_loss_param {
    lambda: 0.0001
    net_num: 32
  }
}
layer {
  name: "loss3"
  type: "NCLLoss"
  bottom: "score3"
  bottom: "label"
  bottom: "sumscore"
  top: "loss3"
  include {
    phase: TRAIN
  }
  ncl_loss_param {
    lambda: 0.0001
    net_num: 32
  }
}
layer {
  name: "loss4"
  type: "NCLLoss"
  bottom: "score4"
  bottom: "label"
  bottom: "sumscore"
  top: "loss4"
  include {
    phase: TRAIN
  }
  ncl_loss_param {
    lambda: 0.0001
    net_num: 32
  }
}
layer {
  name: "loss5"
  type: "NCLLoss"
  bottom: "score5"
  bottom: "label"
  bottom: "sumscore"
  top: "loss5"
  include {
    phase: TRAIN
  }
  ncl_loss_param {
    lambda: 0.0001
    net_num: 32
  }
}
layer {
  name: "loss6"
  type: "NCLLoss"
  bottom: "score6"
  bottom: "label"
  bottom: "sumscore"
  top: "loss6"
  include {
    phase: TRAIN
  }
  ncl_loss_param {
    lambda: 0.0001
    net_num: 32
  }
}
layer {
  name: "loss7"
  type: "NCLLoss"
  bottom: "score7"
  bottom: "label"
  bottom: "sumscore"
  top: "loss7"
  include {
    phase: TRAIN
  }
  ncl_loss_param {
    lambda: 0.0001
    net_num: 32
  }
}
layer {
  name: "loss8"
  type: "NCLLoss"
  bottom: "score8"
  bottom: "label"
  bottom: "sumscore"
  top: "loss8"
  include {
    phase: TRAIN
  }
  ncl_loss_param {
    lambda: 0.0001
    net_num: 32
  }
}
layer {
  name: "loss9"
  type: "NCLLoss"
  bottom: "score9"
  bottom: "label"
  bottom: "sumscore"
  top: "loss9"
  include {
    phase: TRAIN
  }
  ncl_loss_param {
    lambda: 0.0001
    net_num: 32
  }
}
layer {
  name: "loss10"
  type: "NCLLoss"
  bottom: "score10"
  bottom: "label"
  bottom: "sumscore"
  top: "loss10"
  include {
    phase: TRAIN
  }
  ncl_loss_param {
    lambda: 0.0001
    net_num: 32
  }
}
layer {
  name: "loss11"
  type: "NCLLoss"
  bottom: "score11"
  bottom: "label"
  bottom: "sumscore"
  top: "loss11"
  include {
    phase: TRAIN
  }
  ncl_loss_param {
    lambda: 0.0001
    net_num: 32
  }
}
layer {
  name: "loss12"
  type: "NCLLoss"
  bottom: "score12"
  bottom: "label"
  bottom: "sumscore"
  top: "loss12"
  include {
    phase: TRAIN
  }
  ncl_loss_param {
    lambda: 0.0001
    net_num: 32
  }
}
layer {
  name: "loss13"
  type: "NCLLoss"
  bottom: "score13"
  bottom: "label"
  bottom: "sumscore"
  top: "loss13"
  include {
    phase: TRAIN
  }
  ncl_loss_param {
    lambda: 0.0001
    net_num: 32
  }
}
layer {
  name: "loss14"
  type: "NCLLoss"
  bottom: "score14"
  bottom: "label"
  bottom: "sumscore"
  top: "loss14"
  include {
    phase: TRAIN
  }
  ncl_loss_param {
    lambda: 0.0001
    net_num: 32
  }
}
layer {
  name: "loss15"
  type: "NCLLoss"
  bottom: "score15"
  bottom: "label"
  bottom: "sumscore"
  top: "loss15"
  include {
    phase: TRAIN
  }
  ncl_loss_param {
    lambda: 0.0001
    net_num: 32
  }
}
layer {
  name: "loss16"
  type: "NCLLoss"
  bottom: "score16"
  bottom: "label"
  bottom: "sumscore"
  top: "loss16"
  include {
    phase: TRAIN
  }
  ncl_loss_param {
    lambda: 0.0001
    net_num: 32
  }
}
layer {
  name: "loss17"
  type: "NCLLoss"
  bottom: "score17"
  bottom: "label"
  bottom: "sumscore"
  top: "loss17"
  include {
    phase: TRAIN
  }
  ncl_loss_param {
    lambda: 0.0001
    net_num: 32
  }
}
layer {
  name: "loss18"
  type: "NCLLoss"
  bottom: "score18"
  bottom: "label"
  bottom: "sumscore"
  top: "loss18"
  include {
    phase: TRAIN
  }
  ncl_loss_param {
    lambda: 0.0001
    net_num: 32
  }
}
layer {
  name: "loss19"
  type: "NCLLoss"
  bottom: "score19"
  bottom: "label"
  bottom: "sumscore"
  top: "loss19"
  include {
    phase: TRAIN
  }
  ncl_loss_param {
    lambda: 0.0001
    net_num: 32
  }
}
layer {
  name: "loss20"
  type: "NCLLoss"
  bottom: "score20"
  bottom: "label"
  bottom: "sumscore"
  top: "loss20"
  include {
    phase: TRAIN
  }
  ncl_loss_param {
    lambda: 0.0001
    net_num: 32
  }
}
layer {
  name: "loss21"
  type: "NCLLoss"
  bottom: "score21"
  bottom: "label"
  bottom: "sumscore"
  top: "loss21"
  include {
    phase: TRAIN
  }
  ncl_loss_param {
    lambda: 0.0001
    net_num: 32
  }
}
layer {
  name: "loss22"
  type: "NCLLoss"
  bottom: "score22"
  bottom: "label"
  bottom: "sumscore"
  top: "loss22"
  include {
    phase: TRAIN
  }
  ncl_loss_param {
    lambda: 0.0001
    net_num: 32
  }
}
layer {
  name: "loss23"
  type: "NCLLoss"
  bottom: "score23"
  bottom: "label"
  bottom: "sumscore"
  top: "loss23"
  include {
    phase: TRAIN
  }
  ncl_loss_param {
    lambda: 0.0001
    net_num: 32
  }
}
layer {
  name: "loss24"
  type: "NCLLoss"
  bottom: "score24"
  bottom: "label"
  bottom: "sumscore"
  top: "loss24"
  include {
    phase: TRAIN
  }
  ncl_loss_param {
    lambda: 0.0001
    net_num: 32
  }
}
layer {
  name: "loss25"
  type: "NCLLoss"
  bottom: "score25"
  bottom: "label"
  bottom: "sumscore"
  top: "loss25"
  include {
    phase: TRAIN
  }
  ncl_loss_param {
    lambda: 0.0001
    net_num: 32
  }
}
layer {
  name: "loss26"
  type: "NCLLoss"
  bottom: "score26"
  bottom: "label"
  bottom: "sumscore"
  top: "loss26"
  include {
    phase: TRAIN
  }
  ncl_loss_param {
    lambda: 0.0001
    net_num: 32
  }
}
layer {
  name: "loss27"
  type: "NCLLoss"
  bottom: "score27"
  bottom: "label"
  bottom: "sumscore"
  top: "loss27"
  include {
    phase: TRAIN
  }
  ncl_loss_param {
    lambda: 0.0001
    net_num: 32
  }
}
layer {
  name: "loss28"
  type: "NCLLoss"
  bottom: "score28"
  bottom: "label"
  bottom: "sumscore"
  top: "loss28"
  include {
    phase: TRAIN
  }
  ncl_loss_param {
    lambda: 0.0001
    net_num: 32
  }
}
layer {
  name: "loss29"
  type: "NCLLoss"
  bottom: "score29"
  bottom: "label"
  bottom: "sumscore"
  top: "loss29"
  include {
    phase: TRAIN
  }
  ncl_loss_param {
    lambda: 0.0001
    net_num: 32
  }
}
layer {
  name: "loss30"
  type: "NCLLoss"
  bottom: "score30"
  bottom: "label"
  bottom: "sumscore"
  top: "loss30"
  include {
    phase: TRAIN
  }
  ncl_loss_param {
    lambda: 0.0001
    net_num: 32
  }
}
layer {
  name: "loss31"
  type: "NCLLoss"
  bottom: "score31"
  bottom: "label"
  bottom: "sumscore"
  top: "loss31"
  include {
    phase: TRAIN
  }
  ncl_loss_param {
    lambda: 0.0001
    net_num: 32
  }
}
layer {
  name: "loss32"
  type: "NCLLoss"
  bottom: "score32"
  bottom: "label"
  bottom: "sumscore"
  top: "loss32"
  include {
    phase: TRAIN
  }
  ncl_loss_param {
    lambda: 0.0001
    net_num: 32
  }
}
I0619 10:38:33.155603 25534 layer_factory.hpp:77] Creating layer data
I0619 10:38:33.155683 25534 db_lmdb.cpp:35] Opened lmdb /home/peiyong/Work/Zenglin/szl/ShanghaiTech/partA/train/image_lmdb
I0619 10:38:33.155719 25534 net.cpp:84] Creating Layer data
I0619 10:38:33.155726 25534 net.cpp:380] data -> data
I0619 10:38:33.156350 25534 data_layer.cpp:45] output data size: 1,1,410,512
I0619 10:38:33.159924 25534 net.cpp:122] Setting up data
I0619 10:38:33.159936 25534 net.cpp:129] Top shape: 1 1 410 512 (209920)
I0619 10:38:33.159940 25534 net.cpp:137] Memory required for data: 839680
I0619 10:38:33.159945 25534 layer_factory.hpp:77] Creating layer label
I0619 10:38:33.159981 25534 db_lmdb.cpp:35] Opened lmdb /home/peiyong/Work/Zenglin/szl/ShanghaiTech/partA/train/dmap_lmdb
I0619 10:38:33.160007 25534 net.cpp:84] Creating Layer label
I0619 10:38:33.160013 25534 net.cpp:380] label -> label
I0619 10:38:33.160112 25534 data_layer.cpp:45] output data size: 1,1,103,128
I0619 10:38:33.160655 25534 net.cpp:122] Setting up label
I0619 10:38:33.160668 25534 net.cpp:129] Top shape: 1 1 103 128 (13184)
I0619 10:38:33.160672 25534 net.cpp:137] Memory required for data: 892416
I0619 10:38:33.160676 25534 layer_factory.hpp:77] Creating layer label_label_0_split
I0619 10:38:33.160686 25534 net.cpp:84] Creating Layer label_label_0_split
I0619 10:38:33.160691 25534 net.cpp:406] label_label_0_split <- label
I0619 10:38:33.160703 25534 net.cpp:380] label_label_0_split -> label_label_0_split_0
…
I0619 10:38:33.160920 25534 net.cpp:380] label_label_0_split -> label_label_0_split_26
I0619 10:38:33.160943 25534 net.cpp:380] label_label_0_split -> label_label_0_split_27
I0619 10:38:33.160953 25534 net.cpp:380] label_label_0_split -> label_label_0_split_28
I0619 10:38:33.160960 25534 net.cpp:380] label_label_0_split -> label_label_0_split_29
I0619 10:38:33.160969 25534 net.cpp:380] label_label_0_split -> label_label_0_split_30
I0619 10:38:33.160979 25534 net.cpp:380] label_label_0_split -> label_label_0_split_31
I0619 10:38:33.161203 25534 net.cpp:122] Setting up label_label_0_split
I0619 10:38:33.161211 25534 net.cpp:129] Top shape: 1 1 103 128 (13184)
I0619 10:38:33.161216 25534 net.cpp:129] Top shape: 1 1 103 128 (13184)
I0619 10:38:33.161219 25534 net.cpp:129] Top shape: 1 1 103 128 (13184)
I0619 10:38:33.161223 25534 net.cpp:129] Top shape: 1 1 103 128 (13184)
I0619 10:38:33.161227 25534 net.cpp:129] Top shape: 1 1 103 128 (13184)
I0619 10:38:33.161231 25534 net.cpp:129] Top shape: 1 1 103 128 (13184)
I0619 10:38:33.161234 25534 net.cpp:129] Top shape: 1 1 103 128 (13184)
I0619 10:38:33.161238 25534 net.cpp:129] Top shape: 1 1 103 128 (13184)
I0619 10:38:33.161242 25534 net.cpp:129] Top shape: 1 1 103 128 (13184)
I0619 10:38:33.161247 25534 net.cpp:129] Top shape: 1 1 103 128 (13184)
I0619 10:38:33.161250 25534 net.cpp:129] Top shape: 1 1 103 128 (13184)
I0619 10:38:33.161254 25534 net.cpp:129] Top shape: 1 1 103 128 (13184)
I0619 10:38:33.161257 25534 net.cpp:129] Top shape: 1 1 103 128 (13184)
I0619 10:38:33.161262 25534 net.cpp:129] Top shape: 1 1 103 128 (13184)
I0619 10:38:33.161265 25534 net.cpp:129] Top shape: 1 1 103 128 (13184)
I0619 10:38:33.161269 25534 net.cpp:129] Top shape: 1 1 103 128 (13184)
I0619 10:38:33.161273 25534 net.cpp:129] Top shape: 1 1 103 128 (13184)
I0619 10:38:33.161278 25534 net.cpp:129] Top shape: 1 1 103 128 (13184)
I0619 10:38:33.161280 25534 net.cpp:129] Top shape: 1 1 103 128 (13184)
I0619 10:38:33.161284 25534 net.cpp:129] Top shape: 1 1 103 128 (13184)
I0619 10:38:33.161288 25534 net.cpp:129] Top shape: 1 1 103 128 (13184)
I0619 10:38:33.161293 25534 net.cpp:129] Top shape: 1 1 103 128 (13184)
I0619 10:38:33.161296 25534 net.cpp:129] Top shape: 1 1 103 128 (13184)
I0619 10:38:33.161299 25534 net.cpp:129] Top shape: 1 1 103 128 (13184)
I0619 10:38:33.161303 25534 net.cpp:129] Top shape: 1 1 103 128 (13184)
I0619 10:38:33.161308 25534 net.cpp:129] Top shape: 1 1 103 128 (13184)
I0619 10:38:33.161311 25534 net.cpp:129] Top shape: 1 1 103 128 (13184)
I0619 10:38:33.161315 25534 net.cpp:129] Top shape: 1 1 103 128 (13184)
I0619 10:38:33.161319 25534 net.cpp:129] Top shape: 1 1 103 128 (13184)
I0619 10:38:33.161322 25534 net.cpp:129] Top shape: 1 1 103 128 (13184)
I0619 10:38:33.161326 25534 net.cpp:129] Top shape: 1 1 103 128 (13184)
I0619 10:38:33.161330 25534 net.cpp:129] Top shape: 1 1 103 128 (13184)
I0619 10:38:33.161334 25534 net.cpp:137] Memory required for data: 2579968
I0619 10:38:33.161336 25534 layer_factory.hpp:77] Creating layer conv1
I0619 10:38:33.161348 25534 net.cpp:84] Creating Layer conv1
I0619 10:38:33.161352 25534 net.cpp:406] conv1 <- data
I0619 10:38:33.161358 25534 net.cpp:380] conv1 -> conv1
I0619 10:38:33.345568 25534 net.cpp:122] Setting up conv1
I0619 10:38:33.345602 25534 net.cpp:129] Top shape: 1 24 410 512 (5038080)
I0619 10:38:33.345605 25534 net.cpp:137] Memory required for data: 22732288
I0619 10:38:33.345625 25534 layer_factory.hpp:77] Creating layer bn_conv1
I0619 10:38:33.345636 25534 net.cpp:84] Creating Layer bn_conv1
I0619 10:38:33.345641 25534 net.cpp:406] bn_conv1 <- conv1
I0619 10:38:33.345648 25534 net.cpp:367] bn_conv1 -> conv1 (in-place)
I0619 10:38:33.346248 25534 net.cpp:122] Setting up bn_conv1
I0619 10:38:33.346261 25534 net.cpp:129] Top shape: 1 24 410 512 (5038080)
I0619 10:38:33.346262 25534 net.cpp:137] Memory required for data: 42884608
I0619 10:38:33.346272 25534 layer_factory.hpp:77] Creating layer scale_conv1
I0619 10:38:33.346278 25534 net.cpp:84] Creating Layer scale_conv1
I0619 10:38:33.346282 25534 net.cpp:406] scale_conv1 <- conv1
I0619 10:38:33.346292 25534 net.cpp:367] scale_conv1 -> conv1 (in-place)
I0619 10:38:33.346354 25534 layer_factory.hpp:77] Creating layer scale_conv1
I0619 10:38:33.347306 25534 net.cpp:122] Setting up scale_conv1
I0619 10:38:33.347317 25534 net.cpp:129] Top shape: 1 24 410 512 (5038080)
I0619 10:38:33.347321 25534 net.cpp:137] Memory required for data: 63036928
I0619 10:38:33.347327 25534 layer_factory.hpp:77] Creating layer relu1
I0619 10:38:33.347334 25534 net.cpp:84] Creating Layer relu1
I0619 10:38:33.347337 25534 net.cpp:406] relu1 <- conv1
I0619 10:38:33.347344 25534 net.cpp:367] relu1 -> conv1 (in-place)
I0619 10:38:33.347496 25534 net.cpp:122] Setting up relu1
I0619 10:38:33.347506 25534 net.cpp:129] Top shape: 1 24 410 512 (5038080)
I0619 10:38:33.347510 25534 net.cpp:137] Memory required for data: 83189248
I0619 10:38:33.347513 25534 layer_factory.hpp:77] Creating layer pool1
I0619 10:38:33.347519 25534 net.cpp:84] Creating Layer pool1
I0619 10:38:33.347523 25534 net.cpp:406] pool1 <- conv1
I0619 10:38:33.347530 25534 net.cpp:380] pool1 -> pool1
I0619 10:38:33.347575 25534 net.cpp:122] Setting up pool1
I0619 10:38:33.347586 25534 net.cpp:129] Top shape: 1 24 205 256 (1259520)
I0619 10:38:33.347592 25534 net.cpp:137] Memory required for data: 88227328
I0619 10:38:33.347599 25534 layer_factory.hpp:77] Creating layer pool1_pool1_0_split
I0619 10:38:33.347605 25534 net.cpp:84] Creating Layer pool1_pool1_0_split
I0619 10:38:33.347610 25534 net.cpp:406] pool1_pool1_0_split <- pool1
I0619 10:38:33.347617 25534 net.cpp:380] pool1_pool1_0_split -> pool1_pool1_0_split_0
I0619 10:38:33.347625 25534 net.cpp:380] pool1_pool1_0_split -> pool1_pool1_0_split_1
I0619 10:38:33.347630 25534 net.cpp:380] pool1_pool1_0_split -> pool1_pool1_0_split_2
I0619 10:38:33.347672 25534 net.cpp:122] Setting up pool1_pool1_0_split
I0619 10:38:33.347679 25534 net.cpp:129] Top shape: 1 24 205 256 (1259520)
I0619 10:38:33.347684 25534 net.cpp:129] Top shape: 1 24 205 256 (1259520)
I0619 10:38:33.347688 25534 net.cpp:129] Top shape: 1 24 205 256 (1259520)
I0619 10:38:33.347692 25534 net.cpp:137] Memory required for data: 103341568
I0619 10:38:33.347695 25534 layer_factory.hpp:77] Creating layer conv4_11
I0619 10:38:33.347705 25534 net.cpp:84] Creating Layer conv4_11
I0619 10:38:33.347709 25534 net.cpp:406] conv4_11 <- pool1_pool1_0_split_0
I0619 10:38:33.347717 25534 net.cpp:380] conv4_11 -> conv4_11
I0619 10:38:33.349891 25534 net.cpp:122] Setting up conv4_11
I0619 10:38:33.349905 25534 net.cpp:129] Top shape: 1 24 205 256 (1259520)
I0619 10:38:33.349908 25534 net.cpp:137] Memory required for data: 108379648
I0619 10:38:33.349918 25534 layer_factory.hpp:77] Creating layer bn_conv4_11
I0619 10:38:33.349925 25534 net.cpp:84] Creating Layer bn_conv4_11
I0619 10:38:33.349928 25534 net.cpp:406] bn_conv4_11 <- conv4_11
I0619 10:38:33.349934 25534 net.cpp:367] bn_conv4_11 -> conv4_11 (in-place)
I0619 10:38:33.350112 25534 net.cpp:122] Setting up bn_conv4_11
I0619 10:38:33.350119 25534 net.cpp:129] Top shape: 1 24 205 256 (1259520)
I0619 10:38:33.350122 25534 net.cpp:137] Memory required for data: 113417728
I0619 10:38:33.350128 25534 layer_factory.hpp:77] Creating layer scale_conv4_11
I0619 10:38:33.350134 25534 net.cpp:84] Creating Layer scale_conv4_11
I0619 10:38:33.350138 25534 net.cpp:406] scale_conv4_11 <- conv4_11
I0619 10:38:33.350142 25534 net.cpp:367] scale_conv4_11 -> conv4_11 (in-place)
I0619 10:38:33.350175 25534 layer_factory.hpp:77] Creating layer scale_conv4_11
I0619 10:38:33.350311 25534 net.cpp:122] Setting up scale_conv4_11
I0619 10:38:33.350317 25534 net.cpp:129] Top shape: 1 24 205 256 (1259520)
I0619 10:38:33.350322 25534 net.cpp:137] Memory required for data: 118455808
I0619 10:38:33.350327 25534 layer_factory.hpp:77] Creating layer relu4_11
I0619 10:38:33.350332 25534 net.cpp:84] Creating Layer relu4_11
I0619 10:38:33.350334 25534 net.cpp:406] relu4_11 <- conv4_11
I0619 10:38:33.350340 25534 net.cpp:367] relu4_11 -> conv4_11 (in-place)
I0619 10:38:33.350483 25534 net.cpp:122] Setting up relu4_11
I0619 10:38:33.350492 25534 net.cpp:129] Top shape: 1 24 205 256 (1259520)
I0619 10:38:33.350509 25534 net.cpp:137] Memory required for data: 123493888
I0619 10:38:33.350514 25534 layer_factory.hpp:77] Creating layer conv4_12
I0619 10:38:33.350524 25534 net.cpp:84] Creating Layer conv4_12
I0619 10:38:33.350528 25534 net.cpp:406] conv4_12 <- conv4_11
I0619 10:38:33.350534 25534 net.cpp:380] conv4_12 -> conv4_12
I0619 10:38:33.352699 25534 net.cpp:122] Setting up conv4_12
I0619 10:38:33.352711 25534 net.cpp:129] Top shape: 1 24 205 256 (1259520)
I0619 10:38:33.352715 25534 net.cpp:137] Memory required for data: 128531968
I0619 10:38:33.352720 25534 layer_factory.hpp:77] Creating layer bn_conv4_12
I0619 10:38:33.352726 25534 net.cpp:84] Creating Layer bn_conv4_12
I0619 10:38:33.352730 25534 net.cpp:406] bn_conv4_12 <- conv4_12
I0619 10:38:33.352736 25534 net.cpp:367] bn_conv4_12 -> conv4_12 (in-place)
I0619 10:38:33.352922 25534 net.cpp:122] Setting up bn_conv4_12
I0619 10:38:33.352929 25534 net.cpp:129] Top shape: 1 24 205 256 (1259520)
I0619 10:38:33.352932 25534 net.cpp:137] Memory required for data: 133570048
I0619 10:38:33.352941 25534 layer_factory.hpp:77] Creating layer scale_conv4_12
I0619 10:38:33.352948 25534 net.cpp:84] Creating Layer scale_conv4_12
I0619 10:38:33.352952 25534 net.cpp:406] scale_conv4_12 <- conv4_12
I0619 10:38:33.352957 25534 net.cpp:367] scale_conv4_12 -> conv4_12 (in-place)
I0619 10:38:33.352989 25534 layer_factory.hpp:77] Creating layer scale_conv4_12
I0619 10:38:33.353130 25534 net.cpp:122] Setting up scale_conv4_12
I0619 10:38:33.353138 25534 net.cpp:129] Top shape: 1 24 205 256 (1259520)
I0619 10:38:33.353142 25534 net.cpp:137] Memory required for data: 138608128
I0619 10:38:33.353147 25534 layer_factory.hpp:77] Creating layer relu4_12
I0619 10:38:33.353154 25534 net.cpp:84] Creating Layer relu4_12
I0619 10:38:33.353158 25534 net.cpp:406] relu4_12 <- conv4_12
I0619 10:38:33.353163 25534 net.cpp:367] relu4_12 -> conv4_12 (in-place)
I0619 10:38:33.353690 25534 net.cpp:122] Setting up relu4_12
I0619 10:38:33.353701 25534 net.cpp:129] Top shape: 1 24 205 256 (1259520)
I0619 10:38:33.353705 25534 net.cpp:137] Memory required for data: 143646208
I0619 10:38:33.353708 25534 layer_factory.hpp:77] Creating layer conv4_13
I0619 10:38:33.353719 25534 net.cpp:84] Creating Layer conv4_13
I0619 10:38:33.353724 25534 net.cpp:406] conv4_13 <- conv4_12
I0619 10:38:33.353730 25534 net.cpp:380] conv4_13 -> conv4_13
I0619 10:38:33.355887 25534 net.cpp:122] Setting up conv4_13
I0619 10:38:33.355900 25534 net.cpp:129] Top shape: 1 24 205 256 (1259520)
I0619 10:38:33.355903 25534 net.cpp:137] Memory required for data: 148684288
I0619 10:38:33.355909 25534 layer_factory.hpp:77] Creating layer bn_conv4_13
I0619 10:38:33.355916 25534 net.cpp:84] Creating Layer bn_conv4_13
I0619 10:38:33.355921 25534 net.cpp:406] bn_conv4_13 <- conv4_13
I0619 10:38:33.355926 25534 net.cpp:367] bn_conv4_13 -> conv4_13 (in-place)
I0619 10:38:33.356107 25534 net.cpp:122] Setting up bn_conv4_13
I0619 10:38:33.356114 25534 net.cpp:129] Top shape: 1 24 205 256 (1259520)
I0619 10:38:33.356118 25534 net.cpp:137] Memory required for data: 153722368
I0619 10:38:33.356124 25534 layer_factory.hpp:77] Creating layer scale_conv4_13
I0619 10:38:33.356129 25534 net.cpp:84] Creating Layer scale_conv4_13
I0619 10:38:33.356132 25534 net.cpp:406] scale_conv4_13 <- conv4_13
I0619 10:38:33.356138 25534 net.cpp:367] scale_conv4_13 -> conv4_13 (in-place)
I0619 10:38:33.356169 25534 layer_factory.hpp:77] Creating layer scale_conv4_13
I0619 10:38:33.356310 25534 net.cpp:122] Setting up scale_conv4_13
I0619 10:38:33.356318 25534 net.cpp:129] Top shape: 1 24 205 256 (1259520)
I0619 10:38:33.356323 25534 net.cpp:137] Memory required for data: 158760448
I0619 10:38:33.356328 25534 layer_factory.hpp:77] Creating layer relu4_13
I0619 10:38:33.356333 25534 net.cpp:84] Creating Layer relu4_13
I0619 10:38:33.356335 25534 net.cpp:406] relu4_13 <- conv4_13
I0619 10:38:33.356340 25534 net.cpp:367] relu4_13 -> conv4_13 (in-place)
I0619 10:38:33.356483 25534 net.cpp:122] Setting up relu4_13
I0619 10:38:33.356492 25534 net.cpp:129] Top shape: 1 24 205 256 (1259520)
I0619 10:38:33.356506 25534 net.cpp:137] Memory required for data: 163798528
I0619 10:38:33.356510 25534 layer_factory.hpp:77] Creating layer conv4_21
I0619 10:38:33.356519 25534 net.cpp:84] Creating Layer conv4_21
I0619 10:38:33.356524 25534 net.cpp:406] conv4_21 <- pool1_pool1_0_split_1
I0619 10:38:33.356531 25534 net.cpp:380] conv4_21 -> conv4_21
I0619 10:38:33.358726 25534 net.cpp:122] Setting up conv4_21
I0619 10:38:33.358739 25534 net.cpp:129] Top shape: 1 24 205 256 (1259520)
I0619 10:38:33.358744 25534 net.cpp:137] Memory required for data: 168836608
I0619 10:38:33.358750 25534 layer_factory.hpp:77] Creating layer bn_conv4_21
I0619 10:38:33.358757 25534 net.cpp:84] Creating Layer bn_conv4_21
I0619 10:38:33.358759 25534 net.cpp:406] bn_conv4_21 <- conv4_21
I0619 10:38:33.358767 25534 net.cpp:367] bn_conv4_21 -> conv4_21 (in-place)
I0619 10:38:33.358948 25534 net.cpp:122] Setting up bn_conv4_21
I0619 10:38:33.358955 25534 net.cpp:129] Top shape: 1 24 205 256 (1259520)
I0619 10:38:33.358958 25534 net.cpp:137] Memory required for data: 173874688
I0619 10:38:33.358969 25534 layer_factory.hpp:77] Creating layer scale_conv4_21
I0619 10:38:33.358975 25534 net.cpp:84] Creating Layer scale_conv4_21
I0619 10:38:33.358978 25534 net.cpp:406] scale_conv4_21 <- conv4_21
I0619 10:38:33.358984 25534 net.cpp:367] scale_conv4_21 -> conv4_21 (in-place)
I0619 10:38:33.359017 25534 layer_factory.hpp:77] Creating layer scale_conv4_21
I0619 10:38:33.359160 25534 net.cpp:122] Setting up scale_conv4_21
I0619 10:38:33.359167 25534 net.cpp:129] Top shape: 1 24 205 256 (1259520)
I0619 10:38:33.359171 25534 net.cpp:137] Memory required for data: 178912768
I0619 10:38:33.359176 25534 layer_factory.hpp:77] Creating layer relu4_21
I0619 10:38:33.359182 25534 net.cpp:84] Creating Layer relu4_21
I0619 10:38:33.359186 25534 net.cpp:406] relu4_21 <- conv4_21
I0619 10:38:33.359190 25534 net.cpp:367] relu4_21 -> conv4_21 (in-place)
I0619 10:38:33.359338 25534 net.cpp:122] Setting up relu4_21
I0619 10:38:33.359346 25534 net.cpp:129] Top shape: 1 24 205 256 (1259520)
I0619 10:38:33.359349 25534 net.cpp:137] Memory required for data: 183950848
I0619 10:38:33.359354 25534 layer_factory.hpp:77] Creating layer conv4_22
I0619 10:38:33.359362 25534 net.cpp:84] Creating Layer conv4_22
I0619 10:38:33.359366 25534 net.cpp:406] conv4_22 <- conv4_21
I0619 10:38:33.359374 25534 net.cpp:380] conv4_22 -> conv4_22
I0619 10:38:33.361918 25534 net.cpp:122] Setting up conv4_22
I0619 10:38:33.361932 25534 net.cpp:129] Top shape: 1 24 205 256 (1259520)
I0619 10:38:33.361934 25534 net.cpp:137] Memory required for data: 188988928
I0619 10:38:33.361940 25534 layer_factory.hpp:77] Creating layer bn_conv4_22
I0619 10:38:33.361948 25534 net.cpp:84] Creating Layer bn_conv4_22
I0619 10:38:33.361953 25534 net.cpp:406] bn_conv4_22 <- conv4_22
I0619 10:38:33.361956 25534 net.cpp:367] bn_conv4_22 -> conv4_22 (in-place)
I0619 10:38:33.362141 25534 net.cpp:122] Setting up bn_conv4_22
I0619 10:38:33.362150 25534 net.cpp:129] Top shape: 1 24 205 256 (1259520)
I0619 10:38:33.362154 25534 net.cpp:137] Memory required for data: 194027008
I0619 10:38:33.362160 25534 layer_factory.hpp:77] Creating layer scale_conv4_22
I0619 10:38:33.362165 25534 net.cpp:84] Creating Layer scale_conv4_22
I0619 10:38:33.362169 25534 net.cpp:406] scale_conv4_22 <- conv4_22
I0619 10:38:33.362175 25534 net.cpp:367] scale_conv4_22 -> conv4_22 (in-place)
I0619 10:38:33.362207 25534 layer_factory.hpp:77] Creating layer scale_conv4_22
I0619 10:38:33.362349 25534 net.cpp:122] Setting up scale_conv4_22
I0619 10:38:33.362355 25534 net.cpp:129] Top shape: 1 24 205 256 (1259520)
I0619 10:38:33.362360 25534 net.cpp:137] Memory required for data: 199065088
I0619 10:38:33.362365 25534 layer_factory.hpp:77] Creating layer relu4_22
I0619 10:38:33.362370 25534 net.cpp:84] Creating Layer relu4_22
I0619 10:38:33.362375 25534 net.cpp:406] relu4_22 <- conv4_22
I0619 10:38:33.362380 25534 net.cpp:367] relu4_22 -> conv4_22 (in-place)
I0619 10:38:33.362910 25534 net.cpp:122] Setting up relu4_22
I0619 10:38:33.362921 25534 net.cpp:129] Top shape: 1 24 205 256 (1259520)
I0619 10:38:33.362934 25534 net.cpp:137] Memory required for data: 204103168
I0619 10:38:33.362939 25534 layer_factory.hpp:77] Creating layer conv4_31
I0619 10:38:33.362949 25534 net.cpp:84] Creating Layer conv4_31
I0619 10:38:33.362954 25534 net.cpp:406] conv4_31 <- pool1_pool1_0_split_2
I0619 10:38:33.362962 25534 net.cpp:380] conv4_31 -> conv4_31
I0619 10:38:33.365134 25534 net.cpp:122] Setting up conv4_31
I0619 10:38:33.365145 25534 net.cpp:129] Top shape: 1 24 205 256 (1259520)
I0619 10:38:33.365149 25534 net.cpp:137] Memory required for data: 209141248
I0619 10:38:33.365154 25534 layer_factory.hpp:77] Creating layer bn_conv4_31
I0619 10:38:33.365162 25534 net.cpp:84] Creating Layer bn_conv4_31
I0619 10:38:33.365166 25534 net.cpp:406] bn_conv4_31 <- conv4_31
I0619 10:38:33.365171 25534 net.cpp:367] bn_conv4_31 -> conv4_31 (in-place)
I0619 10:38:33.365371 25534 net.cpp:122] Setting up bn_conv4_31
I0619 10:38:33.365378 25534 net.cpp:129] Top shape: 1 24 205 256 (1259520)
I0619 10:38:33.365382 25534 net.cpp:137] Memory required for data: 214179328
I0619 10:38:33.365388 25534 layer_factory.hpp:77] Creating layer scale_conv4_31
I0619 10:38:33.365393 25534 net.cpp:84] Creating Layer scale_conv4_31
I0619 10:38:33.365397 25534 net.cpp:406] scale_conv4_31 <- conv4_31
I0619 10:38:33.365403 25534 net.cpp:367] scale_conv4_31 -> conv4_31 (in-place)
I0619 10:38:33.365437 25534 layer_factory.hpp:77] Creating layer scale_conv4_31
I0619 10:38:33.365576 25534 net.cpp:122] Setting up scale_conv4_31
I0619 10:38:33.365584 25534 net.cpp:129] Top shape: 1 24 205 256 (1259520)
I0619 10:38:33.365587 25534 net.cpp:137] Memory required for data: 219217408
I0619 10:38:33.365592 25534 layer_factory.hpp:77] Creating layer relu4_31
I0619 10:38:33.365602 25534 net.cpp:84] Creating Layer relu4_31
I0619 10:38:33.365607 25534 net.cpp:406] relu4_31 <- conv4_31
I0619 10:38:33.365610 25534 net.cpp:367] relu4_31 -> conv4_31 (in-place)
I0619 10:38:33.365754 25534 net.cpp:122] Setting up relu4_31
I0619 10:38:33.365763 25534 net.cpp:129] Top shape: 1 24 205 256 (1259520)
I0619 10:38:33.365767 25534 net.cpp:137] Memory required for data: 224255488
I0619 10:38:33.365770 25534 layer_factory.hpp:77] Creating layer concat1
I0619 10:38:33.365777 25534 net.cpp:84] Creating Layer concat1
I0619 10:38:33.365782 25534 net.cpp:406] concat1 <- conv4_13
I0619 10:38:33.365785 25534 net.cpp:406] concat1 <- conv4_22
I0619 10:38:33.365789 25534 net.cpp:406] concat1 <- conv4_31
I0619 10:38:33.365794 25534 net.cpp:380] concat1 -> conv4
I0619 10:38:33.365823 25534 net.cpp:122] Setting up concat1
I0619 10:38:33.365829 25534 net.cpp:129] Top shape: 1 72 205 256 (3778560)
I0619 10:38:33.365833 25534 net.cpp:137] Memory required for data: 239369728
I0619 10:38:33.365836 25534 layer_factory.hpp:77] Creating layer pool2
I0619 10:38:33.365842 25534 net.cpp:84] Creating Layer pool2
I0619 10:38:33.365845 25534 net.cpp:406] pool2 <- conv4
I0619 10:38:33.365852 25534 net.cpp:380] pool2 -> pool2
I0619 10:38:33.365887 25534 net.cpp:122] Setting up pool2
I0619 10:38:33.365893 25534 net.cpp:129] Top shape: 1 72 103 128 (949248)
I0619 10:38:33.365896 25534 net.cpp:137] Memory required for data: 243166720
I0619 10:38:33.365900 25534 layer_factory.hpp:77] Creating layer pool2_pool2_0_split
I0619 10:38:33.365906 25534 net.cpp:84] Creating Layer pool2_pool2_0_split
I0619 10:38:33.365911 25534 net.cpp:406] pool2_pool2_0_split <- pool2
I0619 10:38:33.365916 25534 net.cpp:380] pool2_pool2_0_split -> pool2_pool2_0_split_0
I0619 10:38:33.365922 25534 net.cpp:380] pool2_pool2_0_split -> pool2_pool2_0_split_1
I0619 10:38:33.365928 25534 net.cpp:380] pool2_pool2_0_split -> pool2_pool2_0_split_2
I0619 10:38:33.365968 25534 net.cpp:122] Setting up pool2_pool2_0_split
I0619 10:38:33.365974 25534 net.cpp:129] Top shape: 1 72 103 128 (949248)
I0619 10:38:33.365979 25534 net.cpp:129] Top shape: 1 72 103 128 (949248)
I0619 10:38:33.365983 25534 net.cpp:129] Top shape: 1 72 103 128 (949248)
I0619 10:38:33.365986 25534 net.cpp:137] Memory required for data: 254557696
I0619 10:38:33.365999 25534 layer_factory.hpp:77] Creating layer conv5_11
I0619 10:38:33.366010 25534 net.cpp:84] Creating Layer conv5_11
I0619 10:38:33.366014 25534 net.cpp:406] conv5_11 <- pool2_pool2_0_split_0
I0619 10:38:33.366021 25534 net.cpp:380] conv5_11 -> conv5_11
I0619 10:38:33.368021 25534 net.cpp:122] Setting up conv5_11
I0619 10:38:33.368034 25534 net.cpp:129] Top shape: 1 32 103 128 (421888)
I0619 10:38:33.368039 25534 net.cpp:137] Memory required for data: 256245248
I0619 10:38:33.368046 25534 layer_factory.hpp:77] Creating layer bn_conv5_11
I0619 10:38:33.368052 25534 net.cpp:84] Creating Layer bn_conv5_11
I0619 10:38:33.368055 25534 net.cpp:406] bn_conv5_11 <- conv5_11
I0619 10:38:33.368064 25534 net.cpp:367] bn_conv5_11 -> conv5_11 (in-place)
I0619 10:38:33.368237 25534 net.cpp:122] Setting up bn_conv5_11
I0619 10:38:33.368244 25534 net.cpp:129] Top shape: 1 32 103 128 (421888)
I0619 10:38:33.368247 25534 net.cpp:137] Memory required for data: 257932800
I0619 10:38:33.368253 25534 layer_factory.hpp:77] Creating layer scale_conv5_11
I0619 10:38:33.368263 25534 net.cpp:84] Creating Layer scale_conv5_11
I0619 10:38:33.368266 25534 net.cpp:406] scale_conv5_11 <- conv5_11
I0619 10:38:33.368270 25534 net.cpp:367] scale_conv5_11 -> conv5_11 (in-place)
I0619 10:38:33.368305 25534 layer_factory.hpp:77] Creating layer scale_conv5_11
I0619 10:38:33.368413 25534 net.cpp:122] Setting up scale_conv5_11
I0619 10:38:33.368422 25534 net.cpp:129] Top shape: 1 32 103 128 (421888)
I0619 10:38:33.368424 25534 net.cpp:137] Memory required for data: 259620352
I0619 10:38:33.368429 25534 layer_factory.hpp:77] Creating layer relu5_11
I0619 10:38:33.368434 25534 net.cpp:84] Creating Layer relu5_11
I0619 10:38:33.368438 25534 net.cpp:406] relu5_11 <- conv5_11
I0619 10:38:33.368444 25534 net.cpp:367] relu5_11 -> conv5_11 (in-place)
I0619 10:38:33.368590 25534 net.cpp:122] Setting up relu5_11
I0619 10:38:33.368599 25534 net.cpp:129] Top shape: 1 32 103 128 (421888)
I0619 10:38:33.368602 25534 net.cpp:137] Memory required for data: 261307904
I0619 10:38:33.368607 25534 layer_factory.hpp:77] Creating layer conv5_12
I0619 10:38:33.368614 25534 net.cpp:84] Creating Layer conv5_12
I0619 10:38:33.368618 25534 net.cpp:406] conv5_12 <- conv5_11
I0619 10:38:33.368625 25534 net.cpp:380] conv5_12 -> conv5_12
I0619 10:38:33.370493 25534 net.cpp:122] Setting up conv5_12
I0619 10:38:33.370507 25534 net.cpp:129] Top shape: 1 32 103 128 (421888)
I0619 10:38:33.370512 25534 net.cpp:137] Memory required for data: 262995456
I0619 10:38:33.370517 25534 layer_factory.hpp:77] Creating layer bn_conv5_12
I0619 10:38:33.370523 25534 net.cpp:84] Creating Layer bn_conv5_12
I0619 10:38:33.370527 25534 net.cpp:406] bn_conv5_12 <- conv5_12
I0619 10:38:33.370532 25534 net.cpp:367] bn_conv5_12 -> conv5_12 (in-place)
I0619 10:38:33.370707 25534 net.cpp:122] Setting up bn_conv5_12
I0619 10:38:33.370713 25534 net.cpp:129] Top shape: 1 32 103 128 (421888)
I0619 10:38:33.370717 25534 net.cpp:137] Memory required for data: 264683008
I0619 10:38:33.370723 25534 layer_factory.hpp:77] Creating layer scale_conv5_12
I0619 10:38:33.370728 25534 net.cpp:84] Creating Layer scale_conv5_12
I0619 10:38:33.370731 25534 net.cpp:406] scale_conv5_12 <- conv5_12
I0619 10:38:33.370736 25534 net.cpp:367] scale_conv5_12 -> conv5_12 (in-place)
I0619 10:38:33.370771 25534 layer_factory.hpp:77] Creating layer scale_conv5_12
I0619 10:38:33.370883 25534 net.cpp:122] Setting up scale_conv5_12
I0619 10:38:33.370890 25534 net.cpp:129] Top shape: 1 32 103 128 (421888)
I0619 10:38:33.370893 25534 net.cpp:137] Memory required for data: 266370560
I0619 10:38:33.370899 25534 layer_factory.hpp:77] Creating layer relu5_12
I0619 10:38:33.370904 25534 net.cpp:84] Creating Layer relu5_12
I0619 10:38:33.370908 25534 net.cpp:406] relu5_12 <- conv5_12
I0619 10:38:33.370913 25534 net.cpp:367] relu5_12 -> conv5_12 (in-place)
I0619 10:38:33.371454 25534 net.cpp:122] Setting up relu5_12
I0619 10:38:33.371464 25534 net.cpp:129] Top shape: 1 32 103 128 (421888)
I0619 10:38:33.371467 25534 net.cpp:137] Memory required for data: 268058112
I0619 10:38:33.371482 25534 layer_factory.hpp:77] Creating layer conv5_13
I0619 10:38:33.371493 25534 net.cpp:84] Creating Layer conv5_13
I0619 10:38:33.371497 25534 net.cpp:406] conv5_13 <- conv5_12
I0619 10:38:33.371505 25534 net.cpp:380] conv5_13 -> conv5_13
I0619 10:38:33.373000 25534 net.cpp:122] Setting up conv5_13
I0619 10:38:33.373013 25534 net.cpp:129] Top shape: 1 32 103 128 (421888)
I0619 10:38:33.373016 25534 net.cpp:137] Memory required for data: 269745664
I0619 10:38:33.373029 25534 layer_factory.hpp:77] Creating layer bn_conv5_13
I0619 10:38:33.373037 25534 net.cpp:84] Creating Layer bn_conv5_13
I0619 10:38:33.373041 25534 net.cpp:406] bn_conv5_13 <- conv5_13
I0619 10:38:33.373046 25534 net.cpp:367] bn_conv5_13 -> conv5_13 (in-place)
I0619 10:38:33.373219 25534 net.cpp:122] Setting up bn_conv5_13
I0619 10:38:33.373226 25534 net.cpp:129] Top shape: 1 32 103 128 (421888)
I0619 10:38:33.373229 25534 net.cpp:137] Memory required for data: 271433216
I0619 10:38:33.373236 25534 layer_factory.hpp:77] Creating layer scale_conv5_13
I0619 10:38:33.373241 25534 net.cpp:84] Creating Layer scale_conv5_13
I0619 10:38:33.373245 25534 net.cpp:406] scale_conv5_13 <- conv5_13
I0619 10:38:33.373250 25534 net.cpp:367] scale_conv5_13 -> conv5_13 (in-place)
I0619 10:38:33.373282 25534 layer_factory.hpp:77] Creating layer scale_conv5_13
I0619 10:38:33.373390 25534 net.cpp:122] Setting up scale_conv5_13
I0619 10:38:33.373397 25534 net.cpp:129] Top shape: 1 32 103 128 (421888)
I0619 10:38:33.373400 25534 net.cpp:137] Memory required for data: 273120768
I0619 10:38:33.373405 25534 layer_factory.hpp:77] Creating layer relu5_13
I0619 10:38:33.373410 25534 net.cpp:84] Creating Layer relu5_13
I0619 10:38:33.373414 25534 net.cpp:406] relu5_13 <- conv5_13
I0619 10:38:33.373420 25534 net.cpp:367] relu5_13 -> conv5_13 (in-place)
I0619 10:38:33.373563 25534 net.cpp:122] Setting up relu5_13
I0619 10:38:33.373571 25534 net.cpp:129] Top shape: 1 32 103 128 (421888)
I0619 10:38:33.373575 25534 net.cpp:137] Memory required for data: 274808320
I0619 10:38:33.373579 25534 layer_factory.hpp:77] Creating layer conv5_21
I0619 10:38:33.373589 25534 net.cpp:84] Creating Layer conv5_21
I0619 10:38:33.373592 25534 net.cpp:406] conv5_21 <- pool2_pool2_0_split_1
I0619 10:38:33.373598 25534 net.cpp:380] conv5_21 -> conv5_21
I0619 10:38:33.375891 25534 net.cpp:122] Setting up conv5_21
I0619 10:38:33.375905 25534 net.cpp:129] Top shape: 1 32 103 128 (421888)
I0619 10:38:33.375910 25534 net.cpp:137] Memory required for data: 276495872
I0619 10:38:33.375916 25534 layer_factory.hpp:77] Creating layer bn_conv5_21
I0619 10:38:33.375921 25534 net.cpp:84] Creating Layer bn_conv5_21
I0619 10:38:33.375924 25534 net.cpp:406] bn_conv5_21 <- conv5_21
I0619 10:38:33.375931 25534 net.cpp:367] bn_conv5_21 -> conv5_21 (in-place)
I0619 10:38:33.376106 25534 net.cpp:122] Setting up bn_conv5_21
I0619 10:38:33.376112 25534 net.cpp:129] Top shape: 1 32 103 128 (421888)
I0619 10:38:33.376116 25534 net.cpp:137] Memory required for data: 278183424
I0619 10:38:33.376122 25534 layer_factory.hpp:77] Creating layer scale_conv5_21
I0619 10:38:33.376129 25534 net.cpp:84] Creating Layer scale_conv5_21
I0619 10:38:33.376133 25534 net.cpp:406] scale_conv5_21 <- conv5_21
I0619 10:38:33.376137 25534 net.cpp:367] scale_conv5_21 -> conv5_21 (in-place)
I0619 10:38:33.376173 25534 layer_factory.hpp:77] Creating layer scale_conv5_21
I0619 10:38:33.376279 25534 net.cpp:122] Setting up scale_conv5_21
I0619 10:38:33.376287 25534 net.cpp:129] Top shape: 1 32 103 128 (421888)
I0619 10:38:33.376291 25534 net.cpp:137] Memory required for data: 279870976
I0619 10:38:33.376296 25534 layer_factory.hpp:77] Creating layer relu5_21
I0619 10:38:33.376301 25534 net.cpp:84] Creating Layer relu5_21
I0619 10:38:33.376303 25534 net.cpp:406] relu5_21 <- conv5_21
I0619 10:38:33.376309 25534 net.cpp:367] relu5_21 -> conv5_21 (in-place)
I0619 10:38:33.376458 25534 net.cpp:122] Setting up relu5_21
I0619 10:38:33.376467 25534 net.cpp:129] Top shape: 1 32 103 128 (421888)
I0619 10:38:33.376471 25534 net.cpp:137] Memory required for data: 281558528
I0619 10:38:33.376484 25534 layer_factory.hpp:77] Creating layer conv5_22
I0619 10:38:33.376495 25534 net.cpp:84] Creating Layer conv5_22
I0619 10:38:33.376499 25534 net.cpp:406] conv5_22 <- conv5_21
I0619 10:38:33.376507 25534 net.cpp:380] conv5_22 -> conv5_22
I0619 10:38:33.378005 25534 net.cpp:122] Setting up conv5_22
I0619 10:38:33.378018 25534 net.cpp:129] Top shape: 1 32 103 128 (421888)
I0619 10:38:33.378021 25534 net.cpp:137] Memory required for data: 283246080
I0619 10:38:33.378027 25534 layer_factory.hpp:77] Creating layer bn_conv5_22
I0619 10:38:33.378033 25534 net.cpp:84] Creating Layer bn_conv5_22
I0619 10:38:33.378037 25534 net.cpp:406] bn_conv5_22 <- conv5_22
I0619 10:38:33.378043 25534 net.cpp:367] bn_conv5_22 -> conv5_22 (in-place)
I0619 10:38:33.378216 25534 net.cpp:122] Setting up bn_conv5_22
I0619 10:38:33.378223 25534 net.cpp:129] Top shape: 1 32 103 128 (421888)
I0619 10:38:33.378226 25534 net.cpp:137] Memory required for data: 284933632
I0619 10:38:33.378232 25534 layer_factory.hpp:77] Creating layer scale_conv5_22
I0619 10:38:33.378240 25534 net.cpp:84] Creating Layer scale_conv5_22
I0619 10:38:33.378244 25534 net.cpp:406] scale_conv5_22 <- conv5_22
I0619 10:38:33.378249 25534 net.cpp:367] scale_conv5_22 -> conv5_22 (in-place)
I0619 10:38:33.378284 25534 layer_factory.hpp:77] Creating layer scale_conv5_22
I0619 10:38:33.378391 25534 net.cpp:122] Setting up scale_conv5_22
I0619 10:38:33.378398 25534 net.cpp:129] Top shape: 1 32 103 128 (421888)
I0619 10:38:33.378401 25534 net.cpp:137] Memory required for data: 286621184
I0619 10:38:33.378407 25534 layer_factory.hpp:77] Creating layer relu5_22
I0619 10:38:33.378412 25534 net.cpp:84] Creating Layer relu5_22
I0619 10:38:33.378415 25534 net.cpp:406] relu5_22 <- conv5_22
I0619 10:38:33.378420 25534 net.cpp:367] relu5_22 -> conv5_22 (in-place)
I0619 10:38:33.378948 25534 net.cpp:122] Setting up relu5_22
I0619 10:38:33.378959 25534 net.cpp:129] Top shape: 1 32 103 128 (421888)
I0619 10:38:33.378963 25534 net.cpp:137] Memory required for data: 288308736
I0619 10:38:33.378967 25534 layer_factory.hpp:77] Creating layer conv5_31
I0619 10:38:33.378975 25534 net.cpp:84] Creating Layer conv5_31
I0619 10:38:33.378980 25534 net.cpp:406] conv5_31 <- pool2_pool2_0_split_2
I0619 10:38:33.378988 25534 net.cpp:380] conv5_31 -> conv5_31
I0619 10:38:33.380955 25534 net.cpp:122] Setting up conv5_31
I0619 10:38:33.380969 25534 net.cpp:129] Top shape: 1 32 103 128 (421888)
I0619 10:38:33.380973 25534 net.cpp:137] Memory required for data: 289996288
I0619 10:38:33.380980 25534 layer_factory.hpp:77] Creating layer bn_conv5_31
I0619 10:38:33.380985 25534 net.cpp:84] Creating Layer bn_conv5_31
I0619 10:38:33.380988 25534 net.cpp:406] bn_conv5_31 <- conv5_31
I0619 10:38:33.380995 25534 net.cpp:367] bn_conv5_31 -> conv5_31 (in-place)
I0619 10:38:33.381173 25534 net.cpp:122] Setting up bn_conv5_31
I0619 10:38:33.381181 25534 net.cpp:129] Top shape: 1 32 103 128 (421888)
I0619 10:38:33.381183 25534 net.cpp:137] Memory required for data: 291683840
I0619 10:38:33.381189 25534 layer_factory.hpp:77] Creating layer scale_conv5_31
I0619 10:38:33.381196 25534 net.cpp:84] Creating Layer scale_conv5_31
I0619 10:38:33.381201 25534 net.cpp:406] scale_conv5_31 <- conv5_31
I0619 10:38:33.381204 25534 net.cpp:367] scale_conv5_31 -> conv5_31 (in-place)
I0619 10:38:33.381238 25534 layer_factory.hpp:77] Creating layer scale_conv5_31
I0619 10:38:33.381345 25534 net.cpp:122] Setting up scale_conv5_31
I0619 10:38:33.381352 25534 net.cpp:129] Top shape: 1 32 103 128 (421888)
I0619 10:38:33.381356 25534 net.cpp:137] Memory required for data: 293371392
I0619 10:38:33.381361 25534 layer_factory.hpp:77] Creating layer relu5_31
I0619 10:38:33.381366 25534 net.cpp:84] Creating Layer relu5_31
I0619 10:38:33.381368 25534 net.cpp:406] relu5_31 <- conv5_31
I0619 10:38:33.381374 25534 net.cpp:367] relu5_31 -> conv5_31 (in-place)
I0619 10:38:33.381521 25534 net.cpp:122] Setting up relu5_31
I0619 10:38:33.381531 25534 net.cpp:129] Top shape: 1 32 103 128 (421888)
I0619 10:38:33.381543 25534 net.cpp:137] Memory required for data: 295058944
I0619 10:38:33.381547 25534 layer_factory.hpp:77] Creating layer concat2
I0619 10:38:33.381553 25534 net.cpp:84] Creating Layer concat2
I0619 10:38:33.381557 25534 net.cpp:406] concat2 <- conv5_13
I0619 10:38:33.381561 25534 net.cpp:406] concat2 <- conv5_22
I0619 10:38:33.381566 25534 net.cpp:406] concat2 <- conv5_31
I0619 10:38:33.381572 25534 net.cpp:380] concat2 -> conv5
I0619 10:38:33.381600 25534 net.cpp:122] Setting up concat2
I0619 10:38:33.381606 25534 net.cpp:129] Top shape: 1 96 103 128 (1265664)
I0619 10:38:33.381609 25534 net.cpp:137] Memory required for data: 300121600
I0619 10:38:33.381613 25534 layer_factory.hpp:77] Creating layer conv6
I0619 10:38:33.381620 25534 net.cpp:84] Creating Layer conv6
I0619 10:38:33.381624 25534 net.cpp:406] conv6 <- conv5
I0619 10:38:33.381631 25534 net.cpp:380] conv6 -> conv_score
I0619 10:38:33.418550 25534 net.cpp:122] Setting up conv6
I0619 10:38:33.418577 25534 net.cpp:129] Top shape: 1 32 103 128 (421888)
I0619 10:38:33.418581 25534 net.cpp:137] Memory required for data: 301809152
I0619 10:38:33.418591 25534 layer_factory.hpp:77] Creating layer relu6
I0619 10:38:33.418598 25534 net.cpp:84] Creating Layer relu6
I0619 10:38:33.418603 25534 net.cpp:406] relu6 <- conv_score
I0619 10:38:33.418611 25534 net.cpp:367] relu6 -> conv_score (in-place)
I0619 10:38:33.418774 25534 net.cpp:122] Setting up relu6
I0619 10:38:33.418783 25534 net.cpp:129] Top shape: 1 32 103 128 (421888)
I0619 10:38:33.418787 25534 net.cpp:137] Memory required for data: 303496704
I0619 10:38:33.418790 25534 layer_factory.hpp:77] Creating layer slicer_conv
I0619 10:38:33.418800 25534 net.cpp:84] Creating Layer slicer_conv
I0619 10:38:33.418804 25534 net.cpp:406] slicer_conv <- conv_score
I0619 10:38:33.418812 25534 net.cpp:380] slicer_conv -> score1
I0619 10:38:33.418823 25534 net.cpp:380] slicer_conv -> score2
…
I0619 10:38:33.418977 25534 net.cpp:380] slicer_conv -> score25
I0619 10:38:33.418983 25534 net.cpp:380] slicer_conv -> score26
I0619 10:38:33.418989 25534 net.cpp:380] slicer_conv -> score27
I0619 10:38:33.418995 25534 net.cpp:380] slicer_conv -> score28
I0619 10:38:33.419001 25534 net.cpp:380] slicer_conv -> score29
I0619 10:38:33.419008 25534 net.cpp:380] slicer_conv -> score30
I0619 10:38:33.419014 25534 net.cpp:380] slicer_conv -> score31
I0619 10:38:33.419020 25534 net.cpp:380] slicer_conv -> score32
I0619 10:38:33.419390 25534 net.cpp:122] Setting up slicer_conv
I0619 10:38:33.419397 25534 net.cpp:129] Top shape: 1 1 103 128 (13184)
I0619 10:38:33.419402 25534 net.cpp:129] Top shape: 1 1 103 128 (13184)
I0619 10:38:33.419406 25534 net.cpp:129] Top shape: 1 1 103 128 (13184)
I0619 10:38:33.419430 25534 net.cpp:129] Top shape: 1 1 103 128 (13184)
I0619 10:38:33.419433 25534 net.cpp:129] Top shape: 1 1 103 128 (13184)
I0619 10:38:33.419437 25534 net.cpp:129] Top shape: 1 1 103 128 (13184)
I0619 10:38:33.419441 25534 net.cpp:129] Top shape: 1 1 103 128 (13184)
I0619 10:38:33.419445 25534 net.cpp:129] Top shape: 1 1 103 128 (13184)
I0619 10:38:33.419450 25534 net.cpp:129] Top shape: 1 1 103 128 (13184)
I0619 10:38:33.419452 25534 net.cpp:129] Top shape: 1 1 103 128 (13184)
I0619 10:38:33.419456 25534 net.cpp:129] Top shape: 1 1 103 128 (13184)
I0619 10:38:33.419461 25534 net.cpp:129] Top shape: 1 1 103 128 (13184)
I0619 10:38:33.419463 25534 net.cpp:129] Top shape: 1 1 103 128 (13184)
I0619 10:38:33.419467 25534 net.cpp:129] Top shape: 1 1 103 128 (13184)
I0619 10:38:33.419471 25534 net.cpp:129] Top shape: 1 1 103 128 (13184)
I0619 10:38:33.419474 25534 net.cpp:129] Top shape: 1 1 103 128 (13184)
I0619 10:38:33.419478 25534 net.cpp:129] Top shape: 1 1 103 128 (13184)
I0619 10:38:33.419482 25534 net.cpp:129] Top shape: 1 1 103 128 (13184)
I0619 10:38:33.419486 25534 net.cpp:129] Top shape: 1 1 103 128 (13184)
I0619 10:38:33.419489 25534 net.cpp:129] Top shape: 1 1 103 128 (13184)
I0619 10:38:33.419493 25534 net.cpp:129] Top shape: 1 1 103 128 (13184)
I0619 10:38:33.419497 25534 net.cpp:129] Top shape: 1 1 103 128 (13184)
I0619 10:38:33.419500 25534 net.cpp:129] Top shape: 1 1 103 128 (13184)
I0619 10:38:33.419503 25534 net.cpp:129] Top shape: 1 1 103 128 (13184)
I0619 10:38:33.419507 25534 net.cpp:129] Top shape: 1 1 103 128 (13184)
I0619 10:38:33.419512 25534 net.cpp:129] Top shape: 1 1 103 128 (13184)
I0619 10:38:33.419514 25534 net.cpp:129] Top shape: 1 1 103 128 (13184)
I0619 10:38:33.419518 25534 net.cpp:129] Top shape: 1 1 103 128 (13184)
I0619 10:38:33.419522 25534 net.cpp:129] Top shape: 1 1 103 128 (13184)
I0619 10:38:33.419525 25534 net.cpp:129] Top shape: 1 1 103 128 (13184)
I0619 10:38:33.419528 25534 net.cpp:129] Top shape: 1 1 103 128 (13184)
I0619 10:38:33.419533 25534 net.cpp:129] Top shape: 1 1 103 128 (13184)
I0619 10:38:33.419535 25534 net.cpp:137] Memory required for data: 305184256
I0619 10:38:33.419539 25534 layer_factory.hpp:77] Creating layer score1_slicer_conv_0_split
I0619 10:38:33.419554 25534 net.cpp:84] Creating Layer score1_slicer_conv_0_split
I0619 10:38:33.419559 25534 net.cpp:406] score1_slicer_conv_0_split <- score1
I0619 10:38:33.419564 25534 net.cpp:380] score1_slicer_conv_0_split -> score1_slicer_conv_0_split_0
I0619 10:38:33.419570 25534 net.cpp:380] score1_slicer_conv_0_split -> score1_slicer_conv_0_split_1
I0619 10:38:33.419610 25534 net.cpp:122] Setting up score1_slicer_conv_0_split
I0619 10:38:33.419615 25534 net.cpp:129] Top shape: 1 1 103 128 (13184)
I0619 10:38:33.419620 25534 net.cpp:129] Top shape: 1 1 103 128 (13184)
I0619 10:38:33.419622 25534 net.cpp:137] Memory required for data: 305289728
I0619 10:38:33.419626 25534 layer_factory.hpp:77] Creating layer score2_slicer_conv_1_split
I0619 10:38:33.419631 25534 net.cpp:84] Creating Layer score2_slicer_conv_1_split
I0619 10:38:33.419636 25534 net.cpp:406] score2_slicer_conv_1_split <- score2
I0619 10:38:33.419641 25534 net.cpp:380] score2_slicer_conv_1_split -> score2_slicer_conv_1_split_0
I0619 10:38:33.419646 25534 net.cpp:380] score2_slicer_conv_1_split -> score2_slicer_conv_1_split_1
I0619 10:38:33.419682 25534 net.cpp:122] Setting up score2_slicer_conv_1_split
I0619 10:38:33.419687 25534 net.cpp:129] Top shape: 1 1 103 128 (13184)
I0619 10:38:33.419692 25534 net.cpp:129] Top shape: 1 1 103 128 (13184)
I0619 10:38:33.419694 25534 net.cpp:137] Memory required for data: 305395200
I0619 10:38:33.419697 25534 layer_factory.hpp:77] Creating layer score3_slicer_conv_2_split
I0619 10:38:33.419703 25534 net.cpp:84] Creating Layer score3_slicer_conv_2_split
I0619 10:38:33.419705 25534 net.cpp:406] score3_slicer_conv_2_split <- score3
I0619 10:38:33.419711 25534 net.cpp:380] score3_slicer_conv_2_split -> score3_slicer_conv_2_split_0
I0619 10:38:33.419718 25534 net.cpp:380] score3_slicer_conv_2_split -> score3_slicer_conv_2_split_1
I0619 10:38:33.419762 25534 net.cpp:122] Setting up score3_slicer_conv_2_split
I0619 10:38:33.419769 25534 net.cpp:129] Top shape: 1 1 103 128 (13184)
I0619 10:38:33.419772 25534 net.cpp:129] Top shape: 1 1 103 128 (13184)
I0619 10:38:33.419775 25534 net.cpp:137] Memory required for data: 305500672
I0619 10:38:33.419778 25534 layer_factory.hpp:77] Creating layer score4_slicer_conv_3_split
I0619 10:38:33.419783 25534 net.cpp:84] Creating Layer score4_slicer_conv_3_split
I0619 10:38:33.419788 25534 net.cpp:406] score4_slicer_conv_3_split <- score4
I0619 10:38:33.419792 25534 net.cpp:380] score4_slicer_conv_3_split -> score4_slicer_conv_3_split_0
I0619 10:38:33.419798 25534 net.cpp:380] score4_slicer_conv_3_split -> score4_slicer_conv_3_split_1
I0619 10:38:33.419831 25534 net.cpp:122] Setting up score4_slicer_conv_3_split
I0619 10:38:33.419837 25534 net.cpp:129] Top shape: 1 1 103 128 (13184)
I0619 10:38:33.419842 25534 net.cpp:129] Top shape: 1 1 103 128 (13184)
I0619 10:38:33.419844 25534 net.cpp:137] Memory required for data: 305606144
I0619 10:38:33.419847 25534 layer_factory.hpp:77] Creating layer score5_slicer_conv_4_split
I0619 10:38:33.419852 25534 net.cpp:84] Creating Layer score5_slicer_conv_4_split
I0619 10:38:33.419854 25534 net.cpp:406] score5_slicer_conv_4_split <- score5
I0619 10:38:33.419860 25534 net.cpp:380] score5_slicer_conv_4_split -> score5_slicer_conv_4_split_0
I0619 10:38:33.419867 25534 net.cpp:380] score5_slicer_conv_4_split -> score5_slicer_conv_4_split_1
I0619 10:38:33.419899 25534 net.cpp:122] Setting up score5_slicer_conv_4_split
I0619 10:38:33.419904 25534 net.cpp:129] Top shape: 1 1 103 128 (13184)
I0619 10:38:33.419909 25534 net.cpp:129] Top shape: 1 1 103 128 (13184)
I0619 10:38:33.419911 25534 net.cpp:137] Memory required for data: 305711616
I0619 10:38:33.419915 25534 layer_factory.hpp:77] Creating layer score6_slicer_conv_5_split
I0619 10:38:33.419919 25534 net.cpp:84] Creating Layer score6_slicer_conv_5_split
I0619 10:38:33.419924 25534 net.cpp:406] score6_slicer_conv_5_split <- score6
I0619 10:38:33.419927 25534 net.cpp:380] score6_slicer_conv_5_split -> score6_slicer_conv_5_split_0
I0619 10:38:33.419932 25534 net.cpp:380] score6_slicer_conv_5_split -> score6_slicer_conv_5_split_1
I0619 10:38:33.419965 25534 net.cpp:122] Setting up score6_slicer_conv_5_split
I0619 10:38:33.419971 25534 net.cpp:129] Top shape: 1 1 103 128 (13184)
I0619 10:38:33.419975 25534 net.cpp:129] Top shape: 1 1 103 128 (13184)
I0619 10:38:33.419978 25534 net.cpp:137] Memory required for data: 305817088
I0619 10:38:33.419981 25534 layer_factory.hpp:77] Creating layer score7_slicer_conv_6_split
I0619 10:38:33.419986 25534 net.cpp:84] Creating Layer score7_slicer_conv_6_split
I0619 10:38:33.419989 25534 net.cpp:406] score7_slicer_conv_6_split <- score7
I0619 10:38:33.419994 25534 net.cpp:380] score7_slicer_conv_6_split -> score7_slicer_conv_6_split_0
I0619 10:38:33.420001 25534 net.cpp:380] score7_slicer_conv_6_split -> score7_slicer_conv_6_split_1
I0619 10:38:33.420032 25534 net.cpp:122] Setting up score7_slicer_conv_6_split
I0619 10:38:33.420037 25534 net.cpp:129] Top shape: 1 1 103 128 (13184)
I0619 10:38:33.420042 25534 net.cpp:129] Top shape: 1 1 103 128 (13184)
I0619 10:38:33.420044 25534 net.cpp:137] Memory required for data: 305922560
I0619 10:38:33.420047 25534 layer_factory.hpp:77] Creating layer score8_slicer_conv_7_split
I0619 10:38:33.420053 25534 net.cpp:84] Creating Layer score8_slicer_conv_7_split
I0619 10:38:33.420056 25534 net.cpp:406] score8_slicer_conv_7_split <- score8
I0619 10:38:33.420060 25534 net.cpp:380] score8_slicer_conv_7_split -> score8_slicer_conv_7_split_0
I0619 10:38:33.420065 25534 net.cpp:380] score8_slicer_conv_7_split -> score8_slicer_conv_7_split_1
I0619 10:38:33.420099 25534 net.cpp:122] Setting up score8_slicer_conv_7_split
I0619 10:38:33.420104 25534 net.cpp:129] Top shape: 1 1 103 128 (13184)
I0619 10:38:33.420109 25534 net.cpp:129] Top shape: 1 1 103 128 (13184)
I0619 10:38:33.420111 25534 net.cpp:137] Memory required for data: 306028032
I0619 10:38:33.420120 25534 layer_factory.hpp:77] Creating layer score9_slicer_conv_8_split
I0619 10:38:33.420125 25534 net.cpp:84] Creating Layer score9_slicer_conv_8_split
I0619 10:38:33.420130 25534 net.cpp:406] score9_slicer_conv_8_split <- score9
I0619 10:38:33.420133 25534 net.cpp:380] score9_slicer_conv_8_split -> score9_slicer_conv_8_split_0
I0619 10:38:33.420140 25534 net.cpp:380] score9_slicer_conv_8_split -> score9_slicer_conv_8_split_1
I0619 10:38:33.420174 25534 net.cpp:122] Setting up score9_slicer_conv_8_split
I0619 10:38:33.420181 25534 net.cpp:129] Top shape: 1 1 103 128 (13184)
I0619 10:38:33.420184 25534 net.cpp:129] Top shape: 1 1 103 128 (13184)
I0619 10:38:33.420187 25534 net.cpp:137] Memory required for data: 306133504
I0619 10:38:33.420191 25534 layer_factory.hpp:77] Creating layer score10_slicer_conv_9_split
I0619 10:38:33.420198 25534 net.cpp:84] Creating Layer score10_slicer_conv_9_split
I0619 10:38:33.420202 25534 net.cpp:406] score10_slicer_conv_9_split <- score10
I0619 10:38:33.420207 25534 net.cpp:380] score10_slicer_conv_9_split -> score10_slicer_conv_9_split_0
I0619 10:38:33.420212 25534 net.cpp:380] score10_slicer_conv_9_split -> score10_slicer_conv_9_split_1
I0619 10:38:33.420248 25534 net.cpp:122] Setting up score10_slicer_conv_9_split
I0619 10:38:33.420253 25534 net.cpp:129] Top shape: 1 1 103 128 (13184)
I0619 10:38:33.420258 25534 net.cpp:129] Top shape: 1 1 103 128 (13184)
I0619 10:38:33.420260 25534 net.cpp:137] Memory required for data: 306238976
I0619 10:38:33.420264 25534 layer_factory.hpp:77] Creating layer score11_slicer_conv_10_split
I0619 10:38:33.420269 25534 net.cpp:84] Creating Layer score11_slicer_conv_10_split
I0619 10:38:33.420271 25534 net.cpp:406] score11_slicer_conv_10_split <- score11
I0619 10:38:33.420276 25534 net.cpp:380] score11_slicer_conv_10_split -> score11_slicer_conv_10_split_0
I0619 10:38:33.420281 25534 net.cpp:380] score11_slicer_conv_10_split -> score11_slicer_conv_10_split_1
I0619 10:38:33.420315 25534 net.cpp:122] Setting up score11_slicer_conv_10_split
I0619 10:38:33.420321 25534 net.cpp:129] Top shape: 1 1 103 128 (13184)
I0619 10:38:33.420325 25534 net.cpp:129] Top shape: 1 1 103 128 (13184)
I0619 10:38:33.420328 25534 net.cpp:137] Memory required for data: 306344448
I0619 10:38:33.420331 25534 layer_factory.hpp:77] Creating layer score12_slicer_conv_11_split
I0619 10:38:33.420336 25534 net.cpp:84] Creating Layer score12_slicer_conv_11_split
I0619 10:38:33.420339 25534 net.cpp:406] score12_slicer_conv_11_split <- score12
I0619 10:38:33.420346 25534 net.cpp:380] score12_slicer_conv_11_split -> score12_slicer_conv_11_split_0
I0619 10:38:33.420351 25534 net.cpp:380] score12_slicer_conv_11_split -> score12_slicer_conv_11_split_1
I0619 10:38:33.420384 25534 net.cpp:122] Setting up score12_slicer_conv_11_split
I0619 10:38:33.420390 25534 net.cpp:129] Top shape: 1 1 103 128 (13184)
I0619 10:38:33.420394 25534 net.cpp:129] Top shape: 1 1 103 128 (13184)
I0619 10:38:33.420397 25534 net.cpp:137] Memory required for data: 306449920
I0619 10:38:33.420400 25534 layer_factory.hpp:77] Creating layer score13_slicer_conv_12_split
I0619 10:38:33.420404 25534 net.cpp:84] Creating Layer score13_slicer_conv_12_split
I0619 10:38:33.420408 25534 net.cpp:406] score13_slicer_conv_12_split <- score13
I0619 10:38:33.420413 25534 net.cpp:380] score13_slicer_conv_12_split -> score13_slicer_conv_12_split_0
I0619 10:38:33.420418 25534 net.cpp:380] score13_slicer_conv_12_split -> score13_slicer_conv_12_split_1
I0619 10:38:33.420451 25534 net.cpp:122] Setting up score13_slicer_conv_12_split
I0619 10:38:33.420457 25534 net.cpp:129] Top shape: 1 1 103 128 (13184)
I0619 10:38:33.420461 25534 net.cpp:129] Top shape: 1 1 103 128 (13184)
I0619 10:38:33.420464 25534 net.cpp:137] Memory required for data: 306555392
I0619 10:38:33.420467 25534 layer_factory.hpp:77] Creating layer score14_slicer_conv_13_split
I0619 10:38:33.420472 25534 net.cpp:84] Creating Layer score14_slicer_conv_13_split
I0619 10:38:33.420475 25534 net.cpp:406] score14_slicer_conv_13_split <- score14
I0619 10:38:33.420487 25534 net.cpp:380] score14_slicer_conv_13_split -> score14_slicer_conv_13_split_0
I0619 10:38:33.420493 25534 net.cpp:380] score14_slicer_conv_13_split -> score14_slicer_conv_13_split_1
I0619 10:38:33.420528 25534 net.cpp:122] Setting up score14_slicer_conv_13_split
I0619 10:38:33.420533 25534 net.cpp:129] Top shape: 1 1 103 128 (13184)
I0619 10:38:33.420537 25534 net.cpp:129] Top shape: 1 1 103 128 (13184)
I0619 10:38:33.420541 25534 net.cpp:137] Memory required for data: 306660864
I0619 10:38:33.420543 25534 layer_factory.hpp:77] Creating layer score15_slicer_conv_14_split
I0619 10:38:33.420549 25534 net.cpp:84] Creating Layer score15_slicer_conv_14_split
I0619 10:38:33.420553 25534 net.cpp:406] score15_slicer_conv_14_split <- score15
I0619 10:38:33.420557 25534 net.cpp:380] score15_slicer_conv_14_split -> score15_slicer_conv_14_split_0
I0619 10:38:33.420562 25534 net.cpp:380] score15_slicer_conv_14_split -> score15_slicer_conv_14_split_1
I0619 10:38:33.420596 25534 net.cpp:122] Setting up score15_slicer_conv_14_split
I0619 10:38:33.420603 25534 net.cpp:129] Top shape: 1 1 103 128 (13184)
I0619 10:38:33.420606 25534 net.cpp:129] Top shape: 1 1 103 128 (13184)
I0619 10:38:33.420609 25534 net.cpp:137] Memory required for data: 306766336
I0619 10:38:33.420613 25534 layer_factory.hpp:77] Creating layer score16_slicer_conv_15_split
I0619 10:38:33.420617 25534 net.cpp:84] Creating Layer score16_slicer_conv_15_split
I0619 10:38:33.420620 25534 net.cpp:406] score16_slicer_conv_15_split <- score16
I0619 10:38:33.420624 25534 net.cpp:380] score16_slicer_conv_15_split -> score16_slicer_conv_15_split_0
I0619 10:38:33.420632 25534 net.cpp:380] score16_slicer_conv_15_split -> score16_slicer_conv_15_split_1
I0619 10:38:33.420672 25534 net.cpp:122] Setting up score16_slicer_conv_15_split
I0619 10:38:33.420680 25534 net.cpp:129] Top shape: 1 1 103 128 (13184)
I0619 10:38:33.420682 25534 net.cpp:129] Top shape: 1 1 103 128 (13184)
I0619 10:38:33.420686 25534 net.cpp:137] Memory required for data: 306871808
I0619 10:38:33.420689 25534 layer_factory.hpp:77] Creating layer score17_slicer_conv_16_split
I0619 10:38:33.420696 25534 net.cpp:84] Creating Layer score17_slicer_conv_16_split
I0619 10:38:33.420698 25534 net.cpp:406] score17_slicer_conv_16_split <- score17
I0619 10:38:33.420703 25534 net.cpp:380] score17_slicer_conv_16_split -> score17_slicer_conv_16_split_0
I0619 10:38:33.420709 25534 net.cpp:380] score17_slicer_conv_16_split -> score17_slicer_conv_16_split_1
I0619 10:38:33.420743 25534 net.cpp:122] Setting up score17_slicer_conv_16_split
I0619 10:38:33.420749 25534 net.cpp:129] Top shape: 1 1 103 128 (13184)
I0619 10:38:33.420753 25534 net.cpp:129] Top shape: 1 1 103 128 (13184)
I0619 10:38:33.420756 25534 net.cpp:137] Memory required for data: 306977280
I0619 10:38:33.420759 25534 layer_factory.hpp:77] Creating layer score18_slicer_conv_17_split
I0619 10:38:33.420763 25534 net.cpp:84] Creating Layer score18_slicer_conv_17_split
I0619 10:38:33.430006 25534 net.cpp:406] score18_slicer_conv_17_split <- score18
I0619 10:38:33.430018 25534 net.cpp:380] score18_slicer_conv_17_split -> score18_slicer_conv_17_split_0
I0619 10:38:33.430027 25534 net.cpp:380] score18_slicer_conv_17_split -> score18_slicer_conv_17_split_1
I0619 10:38:33.430096 25534 net.cpp:122] Setting up score18_slicer_conv_17_split
I0619 10:38:33.430104 25534 net.cpp:129] Top shape: 1 1 103 128 (13184)
I0619 10:38:33.430107 25534 net.cpp:129] Top shape: 1 1 103 128 (13184)
I0619 10:38:33.430110 25534 net.cpp:137] Memory required for data: 307082752
I0619 10:38:33.430114 25534 layer_factory.hpp:77] Creating layer score19_slicer_conv_18_split
I0619 10:38:33.430119 25534 net.cpp:84] Creating Layer score19_slicer_conv_18_split
I0619 10:38:33.430122 25534 net.cpp:406] score19_slicer_conv_18_split <- score19
I0619 10:38:33.430130 25534 net.cpp:380] score19_slicer_conv_18_split -> score19_slicer_conv_18_split_0
I0619 10:38:33.430136 25534 net.cpp:380] score19_slicer_conv_18_split -> score19_slicer_conv_18_split_1
I0619 10:38:33.430171 25534 net.cpp:122] Setting up score19_slicer_conv_18_split
I0619 10:38:33.430191 25534 net.cpp:129] Top shape: 1 1 103 128 (13184)
I0619 10:38:33.430194 25534 net.cpp:129] Top shape: 1 1 103 128 (13184)
I0619 10:38:33.430197 25534 net.cpp:137] Memory required for data: 307188224
I0619 10:38:33.430202 25534 layer_factory.hpp:77] Creating layer score20_slicer_conv_19_split
I0619 10:38:33.430205 25534 net.cpp:84] Creating Layer score20_slicer_conv_19_split
I0619 10:38:33.430209 25534 net.cpp:406] score20_slicer_conv_19_split <- score20
I0619 10:38:33.430214 25534 net.cpp:380] score20_slicer_conv_19_split -> score20_slicer_conv_19_split_0
I0619 10:38:33.430233 25534 net.cpp:380] score20_slicer_conv_19_split -> score20_slicer_conv_19_split_1
I0619 10:38:33.430271 25534 net.cpp:122] Setting up score20_slicer_conv_19_split
I0619 10:38:33.430279 25534 net.cpp:129] Top shape: 1 1 103 128 (13184)
I0619 10:38:33.430281 25534 net.cpp:129] Top shape: 1 1 103 128 (13184)
I0619 10:38:33.430284 25534 net.cpp:137] Memory required for data: 307293696
I0619 10:38:33.430287 25534 layer_factory.hpp:77] Creating layer score21_slicer_conv_20_split
I0619 10:38:33.430292 25534 net.cpp:84] Creating Layer score21_slicer_conv_20_split
I0619 10:38:33.430296 25534 net.cpp:406] score21_slicer_conv_20_split <- score21
I0619 10:38:33.430300 25534 net.cpp:380] score21_slicer_conv_20_split -> score21_slicer_conv_20_split_0
I0619 10:38:33.430306 25534 net.cpp:380] score21_slicer_conv_20_split -> score21_slicer_conv_20_split_1
I0619 10:38:33.430341 25534 net.cpp:122] Setting up score21_slicer_conv_20_split
I0619 10:38:33.430346 25534 net.cpp:129] Top shape: 1 1 103 128 (13184)
I0619 10:38:33.430351 25534 net.cpp:129] Top shape: 1 1 103 128 (13184)
I0619 10:38:33.430353 25534 net.cpp:137] Memory required for data: 307399168
I0619 10:38:33.430356 25534 layer_factory.hpp:77] Creating layer score22_slicer_conv_21_split
I0619 10:38:33.430361 25534 net.cpp:84] Creating Layer score22_slicer_conv_21_split
I0619 10:38:33.430363 25534 net.cpp:406] score22_slicer_conv_21_split <- score22
I0619 10:38:33.430377 25534 net.cpp:380] score22_slicer_conv_21_split -> score22_slicer_conv_21_split_0
I0619 10:38:33.430382 25534 net.cpp:380] score22_slicer_conv_21_split -> score22_slicer_conv_21_split_1
I0619 10:38:33.430416 25534 net.cpp:122] Setting up score22_slicer_conv_21_split
I0619 10:38:33.430423 25534 net.cpp:129] Top shape: 1 1 103 128 (13184)
I0619 10:38:33.430426 25534 net.cpp:129] Top shape: 1 1 103 128 (13184)
I0619 10:38:33.430429 25534 net.cpp:137] Memory required for data: 307504640
I0619 10:38:33.430433 25534 layer_factory.hpp:77] Creating layer score23_slicer_conv_22_split
I0619 10:38:33.430438 25534 net.cpp:84] Creating Layer score23_slicer_conv_22_split
I0619 10:38:33.430440 25534 net.cpp:406] score23_slicer_conv_22_split <- score23
I0619 10:38:33.430445 25534 net.cpp:380] score23_slicer_conv_22_split -> score23_slicer_conv_22_split_0
I0619 10:38:33.430450 25534 net.cpp:380] score23_slicer_conv_22_split -> score23_slicer_conv_22_split_1
I0619 10:38:33.430485 25534 net.cpp:122] Setting up score23_slicer_conv_22_split
I0619 10:38:33.430490 25534 net.cpp:129] Top shape: 1 1 103 128 (13184)
I0619 10:38:33.430495 25534 net.cpp:129] Top shape: 1 1 103 128 (13184)
I0619 10:38:33.430497 25534 net.cpp:137] Memory required for data: 307610112
I0619 10:38:33.430500 25534 layer_factory.hpp:77] Creating layer score24_slicer_conv_23_split
I0619 10:38:33.430505 25534 net.cpp:84] Creating Layer score24_slicer_conv_23_split
I0619 10:38:33.430508 25534 net.cpp:406] score24_slicer_conv_23_split <- score24
I0619 10:38:33.430515 25534 net.cpp:380] score24_slicer_conv_23_split -> score24_slicer_conv_23_split_0
I0619 10:38:33.430521 25534 net.cpp:380] score24_slicer_conv_23_split -> score24_slicer_conv_23_split_1
I0619 10:38:33.430555 25534 net.cpp:122] Setting up score24_slicer_conv_23_split
I0619 10:38:33.430562 25534 net.cpp:129] Top shape: 1 1 103 128 (13184)
I0619 10:38:33.430565 25534 net.cpp:129] Top shape: 1 1 103 128 (13184)
I0619 10:38:33.430568 25534 net.cpp:137] Memory required for data: 307715584
I0619 10:38:33.430578 25534 layer_factory.hpp:77] Creating layer score25_slicer_conv_24_split
I0619 10:38:33.430583 25534 net.cpp:84] Creating Layer score25_slicer_conv_24_split
I0619 10:38:33.430588 25534 net.cpp:406] score25_slicer_conv_24_split <- score25
I0619 10:38:33.430593 25534 net.cpp:380] score25_slicer_conv_24_split -> score25_slicer_conv_24_split_0
I0619 10:38:33.430598 25534 net.cpp:380] score25_slicer_conv_24_split -> score25_slicer_conv_24_split_1
I0619 10:38:33.430634 25534 net.cpp:122] Setting up score25_slicer_conv_24_split
I0619 10:38:33.430640 25534 net.cpp:129] Top shape: 1 1 103 128 (13184)
I0619 10:38:33.430644 25534 net.cpp:129] Top shape: 1 1 103 128 (13184)
I0619 10:38:33.430647 25534 net.cpp:137] Memory required for data: 307821056
I0619 10:38:33.430650 25534 layer_factory.hpp:77] Creating layer score26_slicer_conv_25_split
I0619 10:38:33.430655 25534 net.cpp:84] Creating Layer score26_slicer_conv_25_split
I0619 10:38:33.430658 25534 net.cpp:406] score26_slicer_conv_25_split <- score26
I0619 10:38:33.430665 25534 net.cpp:380] score26_slicer_conv_25_split -> score26_slicer_conv_25_split_0
I0619 10:38:33.430670 25534 net.cpp:380] score26_slicer_conv_25_split -> score26_slicer_conv_25_split_1
I0619 10:38:33.430703 25534 net.cpp:122] Setting up score26_slicer_conv_25_split
I0619 10:38:33.430709 25534 net.cpp:129] Top shape: 1 1 103 128 (13184)
I0619 10:38:33.430712 25534 net.cpp:129] Top shape: 1 1 103 128 (13184)
I0619 10:38:33.430716 25534 net.cpp:137] Memory required for data: 307926528
I0619 10:38:33.430719 25534 layer_factory.hpp:77] Creating layer score27_slicer_conv_26_split
I0619 10:38:33.430724 25534 net.cpp:84] Creating Layer score27_slicer_conv_26_split
I0619 10:38:33.430728 25534 net.cpp:406] score27_slicer_conv_26_split <- score27
I0619 10:38:33.430733 25534 net.cpp:380] score27_slicer_conv_26_split -> score27_slicer_conv_26_split_0
I0619 10:38:33.430738 25534 net.cpp:380] score27_slicer_conv_26_split -> score27_slicer_conv_26_split_1
I0619 10:38:33.430771 25534 net.cpp:122] Setting up score27_slicer_conv_26_split
I0619 10:38:33.430778 25534 net.cpp:129] Top shape: 1 1 103 128 (13184)
I0619 10:38:33.430781 25534 net.cpp:129] Top shape: 1 1 103 128 (13184)
I0619 10:38:33.430784 25534 net.cpp:137] Memory required for data: 308032000
I0619 10:38:33.430788 25534 layer_factory.hpp:77] Creating layer score28_slicer_conv_27_split
I0619 10:38:33.430793 25534 net.cpp:84] Creating Layer score28_slicer_conv_27_split
I0619 10:38:33.430796 25534 net.cpp:406] score28_slicer_conv_27_split <- score28
I0619 10:38:33.430800 25534 net.cpp:380] score28_slicer_conv_27_split -> score28_slicer_conv_27_split_0
I0619 10:38:33.430807 25534 net.cpp:380] score28_slicer_conv_27_split -> score28_slicer_conv_27_split_1
I0619 10:38:33.430840 25534 net.cpp:122] Setting up score28_slicer_conv_27_split
I0619 10:38:33.430845 25534 net.cpp:129] Top shape: 1 1 103 128 (13184)
I0619 10:38:33.430850 25534 net.cpp:129] Top shape: 1 1 103 128 (13184)
I0619 10:38:33.430852 25534 net.cpp:137] Memory required for data: 308137472
I0619 10:38:33.430855 25534 layer_factory.hpp:77] Creating layer score29_slicer_conv_28_split
I0619 10:38:33.430861 25534 net.cpp:84] Creating Layer score29_slicer_conv_28_split
I0619 10:38:33.430865 25534 net.cpp:406] score29_slicer_conv_28_split <- score29
I0619 10:38:33.430869 25534 net.cpp:380] score29_slicer_conv_28_split -> score29_slicer_conv_28_split_0
I0619 10:38:33.430876 25534 net.cpp:380] score29_slicer_conv_28_split -> score29_slicer_conv_28_split_1
I0619 10:38:33.430908 25534 net.cpp:122] Setting up score29_slicer_conv_28_split
I0619 10:38:33.430914 25534 net.cpp:129] Top shape: 1 1 103 128 (13184)
I0619 10:38:33.430918 25534 net.cpp:129] Top shape: 1 1 103 128 (13184)
I0619 10:38:33.430922 25534 net.cpp:137] Memory required for data: 308242944
I0619 10:38:33.430924 25534 layer_factory.hpp:77] Creating layer score30_slicer_conv_29_split
I0619 10:38:33.430929 25534 net.cpp:84] Creating Layer score30_slicer_conv_29_split
I0619 10:38:33.430932 25534 net.cpp:406] score30_slicer_conv_29_split <- score30
I0619 10:38:33.430944 25534 net.cpp:380] score30_slicer_conv_29_split -> score30_slicer_conv_29_split_0
I0619 10:38:33.430950 25534 net.cpp:380] score30_slicer_conv_29_split -> score30_slicer_conv_29_split_1
I0619 10:38:33.430985 25534 net.cpp:122] Setting up score30_slicer_conv_29_split
I0619 10:38:33.430991 25534 net.cpp:129] Top shape: 1 1 103 128 (13184)
I0619 10:38:33.430995 25534 net.cpp:129] Top shape: 1 1 103 128 (13184)
I0619 10:38:33.430999 25534 net.cpp:137] Memory required for data: 308348416
I0619 10:38:33.431002 25534 layer_factory.hpp:77] Creating layer score31_slicer_conv_30_split
I0619 10:38:33.431006 25534 net.cpp:84] Creating Layer score31_slicer_conv_30_split
I0619 10:38:33.431010 25534 net.cpp:406] score31_slicer_conv_30_split <- score31
I0619 10:38:33.431016 25534 net.cpp:380] score31_slicer_conv_30_split -> score31_slicer_conv_30_split_0
I0619 10:38:33.431022 25534 net.cpp:380] score31_slicer_conv_30_split -> score31_slicer_conv_30_split_1
I0619 10:38:33.431061 25534 net.cpp:122] Setting up score31_slicer_conv_30_split
I0619 10:38:33.431066 25534 net.cpp:129] Top shape: 1 1 103 128 (13184)
I0619 10:38:33.431071 25534 net.cpp:129] Top shape: 1 1 103 128 (13184)
I0619 10:38:33.431073 25534 net.cpp:137] Memory required for data: 308453888
I0619 10:38:33.431077 25534 layer_factory.hpp:77] Creating layer score32_slicer_conv_31_split
I0619 10:38:33.431082 25534 net.cpp:84] Creating Layer score32_slicer_conv_31_split
I0619 10:38:33.431084 25534 net.cpp:406] score32_slicer_conv_31_split <- score32
I0619 10:38:33.431089 25534 net.cpp:380] score32_slicer_conv_31_split -> score32_slicer_conv_31_split_0
I0619 10:38:33.431094 25534 net.cpp:380] score32_slicer_conv_31_split -> score32_slicer_conv_31_split_1
I0619 10:38:33.431129 25534 net.cpp:122] Setting up score32_slicer_conv_31_split
I0619 10:38:33.431135 25534 net.cpp:129] Top shape: 1 1 103 128 (13184)
I0619 10:38:33.431139 25534 net.cpp:129] Top shape: 1 1 103 128 (13184)
I0619 10:38:33.431143 25534 net.cpp:137] Memory required for data: 308559360
I0619 10:38:33.431145 25534 layer_factory.hpp:77] Creating layer sumscore
I0619 10:38:33.431156 25534 net.cpp:84] Creating Layer sumscore
I0619 10:38:33.431160 25534 net.cpp:406] sumscore <- score1_slicer_conv_0_split_0
I0619 10:38:33.431165 25534 net.cpp:406] sumscore <- score2_slicer_conv_1_split_0
I0619 10:38:33.431169 25534 net.cpp:406] sumscore <- score3_slicer_conv_2_split_0
…
I0619 10:38:33.431592 25534 net.cpp:380] sumscore_sumscore_0_split -> sumscore_sumscore_0_split_27
I0619 10:38:33.431601 25534 net.cpp:380] sumscore_sumscore_0_split -> sumscore_sumscore_0_split_28
I0619 10:38:33.431615 25534 net.cpp:380] sumscore_sumscore_0_split -> sumscore_sumscore_0_split_29
I0619 10:38:33.431624 25534 net.cpp:380] sumscore_sumscore_0_split -> sumscore_sumscore_0_split_30
I0619 10:38:33.431632 25534 net.cpp:380] sumscore_sumscore_0_split -> sumscore_sumscore_0_split_31
I0619 10:38:33.431993 25534 net.cpp:122] Setting up sumscore_sumscore_0_split
I0619 10:38:33.431999 25534 net.cpp:129] Top shape: 1 1 103 128 (13184)
I0619 10:38:33.432003 25534 net.cpp:129] Top shape: 1 1 103 128 (13184)
I0619 10:38:33.432008 25534 net.cpp:129] Top shape: 1 1 103 128 (13184)
I0619 10:38:33.432011 25534 net.cpp:129] Top shape: 1 1 103 128 (13184)
I0619 10:38:33.432015 25534 net.cpp:129] Top shape: 1 1 103 128 (13184)
I0619 10:38:33.432018 25534 net.cpp:129] Top shape: 1 1 103 128 (13184)
I0619 10:38:33.432023 25534 net.cpp:129] Top shape: 1 1 103 128 (13184)
I0619 10:38:33.432026 25534 net.cpp:129] Top shape: 1 1 103 128 (13184)
I0619 10:38:33.432030 25534 net.cpp:129] Top shape: 1 1 103 128 (13184)
I0619 10:38:33.432034 25534 net.cpp:129] Top shape: 1 1 103 128 (13184)
I0619 10:38:33.432039 25534 net.cpp:129] Top shape: 1 1 103 128 (13184)
I0619 10:38:33.432042 25534 net.cpp:129] Top shape: 1 1 103 128 (13184)
I0619 10:38:33.432046 25534 net.cpp:129] Top shape: 1 1 103 128 (13184)
I0619 10:38:33.432050 25534 net.cpp:129] Top shape: 1 1 103 128 (13184)
I0619 10:38:33.432054 25534 net.cpp:129] Top shape: 1 1 103 128 (13184)
I0619 10:38:33.432057 25534 net.cpp:129] Top shape: 1 1 103 128 (13184)
I0619 10:38:33.432061 25534 net.cpp:129] Top shape: 1 1 103 128 (13184)
I0619 10:38:33.432065 25534 net.cpp:129] Top shape: 1 1 103 128 (13184)
I0619 10:38:33.432070 25534 net.cpp:129] Top shape: 1 1 103 128 (13184)
I0619 10:38:33.432073 25534 net.cpp:129] Top shape: 1 1 103 128 (13184)
I0619 10:38:33.432077 25534 net.cpp:129] Top shape: 1 1 103 128 (13184)
I0619 10:38:33.432081 25534 net.cpp:129] Top shape: 1 1 103 128 (13184)
I0619 10:38:33.432085 25534 net.cpp:129] Top shape: 1 1 103 128 (13184)
I0619 10:38:33.432088 25534 net.cpp:129] Top shape: 1 1 103 128 (13184)
I0619 10:38:33.432092 25534 net.cpp:129] Top shape: 1 1 103 128 (13184)
I0619 10:38:33.432096 25534 net.cpp:129] Top shape: 1 1 103 128 (13184)
I0619 10:38:33.432101 25534 net.cpp:129] Top shape: 1 1 103 128 (13184)
I0619 10:38:33.432104 25534 net.cpp:129] Top shape: 1 1 103 128 (13184)
I0619 10:38:33.432108 25534 net.cpp:129] Top shape: 1 1 103 128 (13184)
I0619 10:38:33.432112 25534 net.cpp:129] Top shape: 1 1 103 128 (13184)
I0619 10:38:33.432116 25534 net.cpp:129] Top shape: 1 1 103 128 (13184)
I0619 10:38:33.432119 25534 net.cpp:129] Top shape: 1 1 103 128 (13184)
I0619 10:38:33.432122 25534 net.cpp:137] Memory required for data: 310299648
I0619 10:38:33.432126 25534 layer_factory.hpp:77] Creating layer loss1
I0619 10:38:33.432134 25534 net.cpp:84] Creating Layer loss1
I0619 10:38:33.432138 25534 net.cpp:406] loss1 <- score1_slicer_conv_0_split_1
I0619 10:38:33.432143 25534 net.cpp:406] loss1 <- label_label_0_split_0
I0619 10:38:33.432148 25534 net.cpp:406] loss1 <- sumscore_sumscore_0_split_0
…
I0619 10:38:33.437305 25534 net.cpp:51] Initializing net from parameters: 
name: "crowd_counting"
state {
  phase: TEST
}
layer {
  name: "data"
  type: "Data"
  top: "data"
  include {
    phase: TEST
  }
  data_param {
    source: "/home/peiyong/Work/Zenglin/szl/ShanghaiTech/partA/test/image_lmdb"
    batch_size: 1
    backend: LMDB
  }
}
layer {
  name: "label"
  type: "Data"
  top: "label"
  include {
    phase: TEST
  }
  data_param {
    source: "/home/peiyong/Work/Zenglin/szl/ShanghaiTech/partA/test/dmap_lmdb"
    batch_size: 1
    backend: LMDB
  }
}
layer {
  name: "conv1"
  type: "Convolution"
  bottom: "data"
  top: "conv1"
  param {
    lr_mult: 1
    decay_mult: 1
  }
  param {
    lr_mult: 2
    decay_mult: 0
  }
  convolution_param {
    num_output: 24
    pad: 2
    kernel_size: 5
    stride: 1
    weight_filler {
      type: "gaussian"
      std: 0.01
    }
    bias_filler {
      type: "constant"
      value: 0
    }
  }
}
layer {
  name: "bn_conv1"
  type: "BatchNorm"
  bottom: "conv1"
  top: "conv1"
  batch_norm_param {
    use_global_stats: false
  }
}
layer {
  name: "scale_conv1"
  type: "Scale"
  bottom: "conv1"
  top: "conv1"
  scale_param {
    bias_term: true
  }
}
layer {
  name: "relu1"
  type: "ReLU"
  bottom: "conv1"
  top: "conv1"
}
layer {
  name: "pool1"
  type: "Pooling"
  bottom: "conv1"
  top: "pool1"
  pooling_param {
    pool: MAX
    kernel_size: 2
    stride: 2
  }
}
layer {
  name: "conv4_11"
  type: "Convolution"
  bottom: "pool1"
  top: "conv4_11"
  param {
    lr_mult: 1
    decay_mult: 1
  }
  param {
    lr_mult: 2
    decay_mult: 0
  }
  convolution_param {
    num_output: 24
    pad: 1
    kernel_size: 3
    stride: 1
    weight_filler {
      type: "gaussian"
      std: 0.01
    }
    bias_filler {
      type: "constant"
      value: 0
    }
  }
}
layer {
  name: "bn_conv4_11"
  type: "BatchNorm"
  bottom: "conv4_11"
  top: "conv4_11"
  batch_norm_param {
    use_global_stats: false
  }
}
layer {
  name: "scale_conv4_11"
  type: "Scale"
  bottom: "conv4_11"
  top: "conv4_11"
  scale_param {
    bias_term: true
  }
}
layer {
  name: "relu4_11"
  type: "ReLU"
  bottom: "conv4_11"
  top: "conv4_11"
}
layer {
  name: "conv4_12"
  type: "Convolution"
  bottom: "conv4_11"
  top: "conv4_12"
  param {
    lr_mult: 1
    decay_mult: 1
  }
  param {
    lr_mult: 2
    decay_mult: 0
  }
  convolution_param {
    num_output: 24
    pad: 1
    kernel_size: 3
    stride: 1
    weight_filler {
      type: "gaussian"
      std: 0.01
    }
    bias_filler {
      type: "constant"
      value: 0
    }
  }
}
layer {
  name: "bn_conv4_12"
  type: "BatchNorm"
  bottom: "conv4_12"
  top: "conv4_12"
  batch_norm_param {
    use_global_stats: false
  }
}
layer {
  name: "scale_conv4_12"
  type: "Scale"
  bottom: "conv4_12"
  top: "conv4_12"
  scale_param {
    bias_term: true
  }
}
layer {
  name: "relu4_12"
  type: "ReLU"
  bottom: "conv4_12"
  top: "conv4_12"
}
layer {
  name: "conv4_13"
  type: "Convolution"
  bottom: "conv4_12"
  top: "conv4_13"
  param {
    lr_mult: 1
    decay_mult: 1
  }
  param {
    lr_mult: 2
    decay_mult: 0
  }
  convolution_param {
    num_output: 24
    pad: 1
    kernel_size: 3
    stride: 1
    weight_filler {
      type: "gaussian"
      std: 0.01
    }
    bias_filler {
      type: "constant"
      value: 0
    }
  }
}
layer {
  name: "bn_conv4_13"
  type: "BatchNorm"
  bottom: "conv4_13"
  top: "conv4_13"
  batch_norm_param {
    use_global_stats: false
  }
}
layer {
  name: "scale_conv4_13"
  type: "Scale"
  bottom: "conv4_13"
  top: "conv4_13"
  scale_param {
    bias_term: true
  }
}
layer {
  name: "relu4_13"
  type: "ReLU"
  bottom: "conv4_13"
  top: "conv4_13"
}
layer {
  name: "conv4_21"
  type: "Convolution"
  bottom: "pool1"
  top: "conv4_21"
  param {
    lr_mult: 1
    decay_mult: 1
  }
  param {
    lr_mult: 2
    decay_mult: 0
  }
  convolution_param {
    num_output: 24
    pad: 1
    kernel_size: 3
    stride: 1
    weight_filler {
      type: "gaussian"
      std: 0.01
    }
    bias_filler {
      type: "constant"
      value: 0
    }
  }
}
layer {
  name: "bn_conv4_21"
  type: "BatchNorm"
  bottom: "conv4_21"
  top: "conv4_21"
  batch_norm_param {
    use_global_stats: false
  }
}
layer {
  name: "scale_conv4_21"
  type: "Scale"
  bottom: "conv4_21"
  top: "conv4_21"
  scale_param {
    bias_term: true
  }
}
layer {
  name: "relu4_21"
  type: "ReLU"
  bottom: "conv4_21"
  top: "conv4_21"
}
layer {
  name: "conv4_22"
  type: "Convolution"
  bottom: "conv4_21"
  top: "conv4_22"
  param {
    lr_mult: 1
    decay_mult: 1
  }
  param {
    lr_mult: 2
    decay_mult: 0
  }
  convolution_param {
    num_output: 24
    pad: 1
    kernel_size: 3
    stride: 1
    weight_filler {
      type: "gaussian"
      std: 0.01
    }
    bias_filler {
      type: "constant"
      value: 0
    }
  }
}
layer {
  name: "bn_conv4_22"
  type: "BatchNorm"
  bottom: "conv4_22"
  top: "conv4_22"
  batch_norm_param {
    use_global_stats: false
  }
}
layer {
  name: "scale_conv4_22"
  type: "Scale"
  bottom: "conv4_22"
  top: "conv4_22"
  scale_param {
    bias_term: true
  }
}
layer {
  name: "relu4_22"
  type: "ReLU"
  bottom: "conv4_22"
  top: "conv4_22"
}
layer {
  name: "conv4_31"
  type: "Convolution"
  bottom: "pool1"
  top: "conv4_31"
  param {
    lr_mult: 1
    decay_mult: 1
  }
  param {
    lr_mult: 2
    decay_mult: 0
  }
  convolution_param {
    num_output: 24
    pad: 1
    kernel_size: 3
    stride: 1
    weight_filler {
      type: "gaussian"
      std: 0.01
    }
    bias_filler {
      type: "constant"
      value: 0
    }
  }
}
layer {
  name: "bn_conv4_31"
  type: "BatchNorm"
  bottom: "conv4_31"
  top: "conv4_31"
  batch_norm_param {
    use_global_stats: false
  }
}
layer {
  name: "scale_conv4_31"
  type: "Scale"
  bottom: "conv4_31"
  top: "conv4_31"
  scale_param {
    bias_term: true
  }
}
layer {
  name: "relu4_31"
  type: "ReLU"
  bottom: "conv4_31"
  top: "conv4_31"
}
layer {
  name: "concat1"
  type: "Concat"
  bottom: "conv4_13"
  bottom: "conv4_22"
  bottom: "conv4_31"
  top: "conv4"
  concat_param {
    axis: 1
  }
}
layer {
  name: "pool2"
  type: "Pooling"
  bottom: "conv4"
  top: "pool2"
  pooling_param {
    pool: MAX
    kernel_size: 2
    stride: 2
  }
}
layer {
  name: "conv5_11"
  type: "Convolution"
  bottom: "pool2"
  top: "conv5_11"
  param {
    lr_mult: 1
    decay_mult: 1
  }
  param {
    lr_mult: 2
    decay_mult: 0
  }
  convolution_param {
    num_output: 32
    pad: 1
    kernel_size: 3
    stride: 1
    weight_filler {
      type: "gaussian"
      std: 0.01
    }
    bias_filler {
      type: "constant"
      value: 0
    }
  }
}
layer {
  name: "bn_conv5_11"
  type: "BatchNorm"
  bottom: "conv5_11"
  top: "conv5_11"
  batch_norm_param {
    use_global_stats: false
  }
}
layer {
  name: "scale_conv5_11"
  type: "Scale"
  bottom: "conv5_11"
  top: "conv5_11"
  scale_param {
    bias_term: true
  }
}
layer {
  name: "relu5_11"
  type: "ReLU"
  bottom: "conv5_11"
  top: "conv5_11"
}
layer {
  name: "conv5_12"
  type: "Convolution"
  bottom: "conv5_11"
  top: "conv5_12"
  param {
    lr_mult: 1
    decay_mult: 1
  }
  param {
    lr_mult: 2
    decay_mult: 0
  }
  convolution_param {
    num_output: 32
    pad: 1
    kernel_size: 3
    stride: 1
    weight_filler {
      type: "gaussian"
      std: 0.01
    }
    bias_filler {
      type: "constant"
      value: 0
    }
  }
}
layer {
  name: "bn_conv5_12"
  type: "BatchNorm"
  bottom: "conv5_12"
  top: "conv5_12"
  batch_norm_param {
    use_global_stats: false
  }
}
layer {
  name: "scale_conv5_12"
  type: "Scale"
  bottom: "conv5_12"
  top: "conv5_12"
  scale_param {
    bias_term: true
  }
}
layer {
  name: "relu5_12"
  type: "ReLU"
  bottom: "conv5_12"
  top: "conv5_12"
}
layer {
  name: "conv5_13"
  type: "Convolution"
  bottom: "conv5_12"
  top: "conv5_13"
  param {
    lr_mult: 1
    decay_mult: 1
  }
  param {
    lr_mult: 2
    decay_mult: 0
  }
  convolution_param {
    num_output: 32
    pad: 1
    kernel_size: 3
    stride: 1
    weight_filler {
      type: "gaussian"
      std: 0.01
    }
    bias_filler {
      type: "constant"
      value: 0
    }
  }
}
layer {
  name: "bn_conv5_13"
  type: "BatchNorm"
  bottom: "conv5_13"
  top: "conv5_13"
  batch_norm_param {
    use_global_stats: false
  }
}
layer {
  name: "scale_conv5_13"
  type: "Scale"
  bottom: "conv5_13"
  top: "conv5_13"
  scale_param {
    bias_term: true
  }
}
layer {
  name: "relu5_13"
  type: "ReLU"
  bottom: "conv5_13"
  top: "conv5_13"
}
layer {
  name: "conv5_21"
  type: "Convolution"
  bottom: "pool2"
  top: "conv5_21"
  param {
    lr_mult: 1
    decay_mult: 1
  }
  param {
    lr_mult: 2
    decay_mult: 0
  }
  convolution_param {
    num_output: 32
    pad: 1
    kernel_size: 3
    stride: 1
    weight_filler {
      type: "gaussian"
      std: 0.01
    }
    bias_filler {
      type: "constant"
      value: 0
    }
  }
}
layer {
  name: "bn_conv5_21"
  type: "BatchNorm"
  bottom: "conv5_21"
  top: "conv5_21"
  batch_norm_param {
    use_global_stats: false
  }
}
layer {
  name: "scale_conv5_21"
  type: "Scale"
  bottom: "conv5_21"
  top: "conv5_21"
  scale_param {
    bias_term: true
  }
}
layer {
  name: "relu5_21"
  type: "ReLU"
  bottom: "conv5_21"
  top: "conv5_21"
}
layer {
  name: "conv5_22"
  type: "Convolution"
  bottom: "conv5_21"
  top: "conv5_22"
  param {
    lr_mult: 1
    decay_mult: 1
  }
  param {
    lr_mult: 2
    decay_mult: 0
  }
  convolution_param {
    num_output: 32
    pad: 1
    kernel_size: 3
    stride: 1
    weight_filler {
      type: "gaussian"
      std: 0.01
    }
    bias_filler {
      type: "constant"
      value: 0
    }
  }
}
layer {
  name: "bn_conv5_22"
  type: "BatchNorm"
  bottom: "conv5_22"
  top: "conv5_22"
  batch_norm_param {
    use_global_stats: false
  }
}
layer {
  name: "scale_conv5_22"
  type: "Scale"
  bottom: "conv5_22"
  top: "conv5_22"
  scale_param {
    bias_term: true
  }
}
layer {
  name: "relu5_22"
  type: "ReLU"
  bottom: "conv5_22"
  top: "conv5_22"
}
layer {
  name: "conv5_31"
  type: "Convolution"
  bottom: "pool2"
  top: "conv5_31"
  param {
    lr_mult: 1
    decay_mult: 1
  }
  param {
    lr_mult: 2
    decay_mult: 0
  }
  convolution_param {
    num_output: 32
    pad: 1
    kernel_size: 3
    stride: 1
    weight_filler {
      type: "gaussian"
      std: 0.01
    }
    bias_filler {
      type: "constant"
      value: 0
    }
  }
}
layer {
  name: "bn_conv5_31"
  type: "BatchNorm"
  bottom: "conv5_31"
  top: "conv5_31"
  batch_norm_param {
    use_global_stats: false
  }
}
layer {
  name: "scale_conv5_31"
  type: "Scale"
  bottom: "conv5_31"
  top: "conv5_31"
  scale_param {
    bias_term: true
  }
}
layer {
  name: "relu5_31"
  type: "ReLU"
  bottom: "conv5_31"
  top: "conv5_31"
}
layer {
  name: "concat2"
  type: "Concat"
  bottom: "conv5_13"
  bottom: "conv5_22"
  bottom: "conv5_31"
  top: "conv5"
  concat_param {
    axis: 1
  }
}
layer {
  name: "conv6"
  type: "Convolution"
  bottom: "conv5"
  top: "conv_score"
  param {
    lr_mult: 1
    decay_mult: 1
  }
  param {
    lr_mult: 2
    decay_mult: 0
  }
  convolution_param {
    num_output: 32
    pad: 0
    kernel_size: 1
    group: 32
    stride: 1
    weight_filler {
      type: "gaussian"
      std: 0.01
    }
    bias_filler {
      type: "constant"
      value: 0
    }
  }
}
layer {
  name: "relu6"
  type: "ReLU"
  bottom: "conv_score"
  top: "conv_score"
}
layer {
  name: "slicer_conv"
  type: "Slice"
  bottom: "conv_score"
  top: "score1"
  top: "score2"
  top: "score3"
  top: "score4"
  top: "score5"
  top: "score6"
  top: "score7"
  top: "score8"
  top: "score9"
  top: "score10"
  top: "score11"
  top: "score12"
  top: "score13"
  top: "score14"
  top: "score15"
  top: "score16"
  top: "score17"
  top: "score18"
  top: "score19"
  top: "score20"
  top: "score21"
  top: "score22"
  top: "score23"
  top: "score24"
  top: "score25"
  top: "score26"
  top: "score27"
  top: "score28"
  top: "score29"
  top: "score30"
  top: "score31"
  top: "score32"
  slice_param {
    axis: 1
  }
}
layer {
  name: "sumscore"
  type: "Eltwise"
  bottom: "score1"
  bottom: "score2"
  bottom: "score3"
  bottom: "score4"
  bottom: "score5"
  bottom: "score6"
  bottom: "score7"
  bottom: "score8"
  bottom: "score9"
  bottom: "score10"
  bottom: "score11"
  bottom: "score12"
  bottom: "score13"
  bottom: "score14"
  bottom: "score15"
  bottom: "score16"
  bottom: "score17"
  bottom: "score18"
  bottom: "score19"
  bottom: "score20"
  bottom: "score21"
  bottom: "score22"
  bottom: "score23"
  bottom: "score24"
  bottom: "score25"
  bottom: "score26"
  bottom: "score27"
  bottom: "score28"
  bottom: "score29"
  bottom: "score30"
  bottom: "score31"
  bottom: "score32"
  top: "sumscore"
  eltwise_param {
    operation: SUM
  }
}
layer {
  name: "avgscore"
  type: "Power"
  bottom: "sumscore"
  top: "avgscore"
  include {
    phase: TEST
  }
  power_param {
    power: 1
    scale: 0.03125
    shift: 0
  }
}
layer {
  name: "mae"
  type: "MAELoss"
  bottom: "avgscore"
  bottom: "label"
  top: "mae"
  include {
    phase: TEST
  }
}
layer {
  name: "mse"
  type: "MSELoss"
  bottom: "avgscore"
  bottom: "label"
  top: "mse"
  include {
    phase: TEST
  }
}
I0619 10:38:33.437772 25534 layer_factory.hpp:77] Creating layer data
I0619 10:38:33.437824 25534 db_lmdb.cpp:35] Opened lmdb /home/peiyong/Work/Zenglin/szl/ShanghaiTech/partA/test/image_lmdb
I0619 10:38:33.437850 25534 net.cpp:84] Creating Layer data
I0619 10:38:33.437856 25534 net.cpp:380] data -> data
I0619 10:38:33.438464 25534 data_layer.cpp:45] output data size: 1,1,704,1024
I0619 10:38:33.444353 25534 net.cpp:122] Setting up data
I0619 10:38:33.444372 25534 net.cpp:129] Top shape: 1 1 704 1024 (720896)
I0619 10:38:33.444375 25534 net.cpp:137] Memory required for data: 2883584
I0619 10:38:33.444380 25534 layer_factory.hpp:77] Creating layer label
I0619 10:38:33.444442 25534 db_lmdb.cpp:35] Opened lmdb /home/peiyong/Work/Zenglin/szl/ShanghaiTech/partA/test/dmap_lmdb
I0619 10:38:33.444466 25534 net.cpp:84] Creating Layer label
I0619 10:38:33.444473 25534 net.cpp:380] label -> label
I0619 10:38:33.444718 25534 data_layer.cpp:45] output data size: 1,1,176,256
I0619 10:38:33.445449 25534 net.cpp:122] Setting up label
I0619 10:38:33.445461 25534 net.cpp:129] Top shape: 1 1 176 256 (45056)
I0619 10:38:33.445463 25534 net.cpp:137] Memory required for data: 3063808
I0619 10:38:33.445467 25534 layer_factory.hpp:77] Creating layer label_label_0_split
I0619 10:38:33.445474 25534 net.cpp:84] Creating Layer label_label_0_split
I0619 10:38:33.445478 25534 net.cpp:406] label_label_0_split <- label
I0619 10:38:33.445484 25534 net.cpp:380] label_label_0_split -> label_label_0_split_0
I0619 10:38:33.445492 25534 net.cpp:380] label_label_0_split -> label_label_0_split_1
I0619 10:38:33.445538 25534 net.cpp:122] Setting up label_label_0_split
I0619 10:38:33.445559 25534 net.cpp:129] Top shape: 1 1 176 256 (45056)
I0619 10:38:33.445564 25534 net.cpp:129] Top shape: 1 1 176 256 (45056)
I0619 10:38:33.445569 25534 net.cpp:137] Memory required for data: 3424256
I0619 10:38:33.445574 25534 layer_factory.hpp:77] Creating layer conv1
I0619 10:38:33.445583 25534 net.cpp:84] Creating Layer conv1
I0619 10:38:33.445587 25534 net.cpp:406] conv1 <- data
I0619 10:38:33.445592 25534 net.cpp:380] conv1 -> conv1
I0619 10:38:33.449301 25534 net.cpp:122] Setting up conv1
I0619 10:38:33.449317 25534 net.cpp:129] Top shape: 1 24 704 1024 (17301504)
I0619 10:38:33.449321 25534 net.cpp:137] Memory required for data: 72630272
I0619 10:38:33.449331 25534 layer_factory.hpp:77] Creating layer bn_conv1
I0619 10:38:33.449340 25534 net.cpp:84] Creating Layer bn_conv1
I0619 10:38:33.449344 25534 net.cpp:406] bn_conv1 <- conv1
I0619 10:38:33.449349 25534 net.cpp:367] bn_conv1 -> conv1 (in-place)
I0619 10:38:33.450685 25534 net.cpp:122] Setting up bn_conv1
I0619 10:38:33.450696 25534 net.cpp:129] Top shape: 1 24 704 1024 (17301504)
I0619 10:38:33.450700 25534 net.cpp:137] Memory required for data: 141836288
I0619 10:38:33.450708 25534 layer_factory.hpp:77] Creating layer scale_conv1
I0619 10:38:33.450716 25534 net.cpp:84] Creating Layer scale_conv1
I0619 10:38:33.450719 25534 net.cpp:406] scale_conv1 <- conv1
I0619 10:38:33.450724 25534 net.cpp:367] scale_conv1 -> conv1 (in-place)
I0619 10:38:33.450769 25534 layer_factory.hpp:77] Creating layer scale_conv1
I0619 10:38:33.453022 25534 net.cpp:122] Setting up scale_conv1
I0619 10:38:33.453037 25534 net.cpp:129] Top shape: 1 24 704 1024 (17301504)
I0619 10:38:33.453039 25534 net.cpp:137] Memory required for data: 211042304
I0619 10:38:33.453047 25534 layer_factory.hpp:77] Creating layer relu1
I0619 10:38:33.453053 25534 net.cpp:84] Creating Layer relu1
I0619 10:38:33.453057 25534 net.cpp:406] relu1 <- conv1
I0619 10:38:33.453061 25534 net.cpp:367] relu1 -> conv1 (in-place)
I0619 10:38:33.453680 25534 net.cpp:122] Setting up relu1
I0619 10:38:33.453691 25534 net.cpp:129] Top shape: 1 24 704 1024 (17301504)
I0619 10:38:33.453696 25534 net.cpp:137] Memory required for data: 280248320
I0619 10:38:33.453699 25534 layer_factory.hpp:77] Creating layer pool1
I0619 10:38:33.453706 25534 net.cpp:84] Creating Layer pool1
I0619 10:38:33.453709 25534 net.cpp:406] pool1 <- conv1
I0619 10:38:33.453714 25534 net.cpp:380] pool1 -> pool1
I0619 10:38:33.453763 25534 net.cpp:122] Setting up pool1
I0619 10:38:33.453769 25534 net.cpp:129] Top shape: 1 24 352 512 (4325376)
I0619 10:38:33.453773 25534 net.cpp:137] Memory required for data: 297549824
I0619 10:38:33.453775 25534 layer_factory.hpp:77] Creating layer pool1_pool1_0_split
I0619 10:38:33.453783 25534 net.cpp:84] Creating Layer pool1_pool1_0_split
I0619 10:38:33.453786 25534 net.cpp:406] pool1_pool1_0_split <- pool1
I0619 10:38:33.453791 25534 net.cpp:380] pool1_pool1_0_split -> pool1_pool1_0_split_0
I0619 10:38:33.453797 25534 net.cpp:380] pool1_pool1_0_split -> pool1_pool1_0_split_1
I0619 10:38:33.453802 25534 net.cpp:380] pool1_pool1_0_split -> pool1_pool1_0_split_2
I0619 10:38:33.453852 25534 net.cpp:122] Setting up pool1_pool1_0_split
I0619 10:38:33.453858 25534 net.cpp:129] Top shape: 1 24 352 512 (4325376)
I0619 10:38:33.453862 25534 net.cpp:129] Top shape: 1 24 352 512 (4325376)
I0619 10:38:33.453866 25534 net.cpp:129] Top shape: 1 24 352 512 (4325376)
I0619 10:38:33.453869 25534 net.cpp:137] Memory required for data: 349454336
I0619 10:38:33.453872 25534 layer_factory.hpp:77] Creating layer conv4_11
I0619 10:38:33.453882 25534 net.cpp:84] Creating Layer conv4_11
I0619 10:38:33.453886 25534 net.cpp:406] conv4_11 <- pool1_pool1_0_split_0
I0619 10:38:33.453891 25534 net.cpp:380] conv4_11 -> conv4_11
I0619 10:38:33.455816 25534 net.cpp:122] Setting up conv4_11
I0619 10:38:33.455828 25534 net.cpp:129] Top shape: 1 24 352 512 (4325376)
I0619 10:38:33.455832 25534 net.cpp:137] Memory required for data: 366755840
I0619 10:38:33.455838 25534 layer_factory.hpp:77] Creating layer bn_conv4_11
I0619 10:38:33.455868 25534 net.cpp:84] Creating Layer bn_conv4_11
I0619 10:38:33.455873 25534 net.cpp:406] bn_conv4_11 <- conv4_11
I0619 10:38:33.455878 25534 net.cpp:367] bn_conv4_11 -> conv4_11 (in-place)
I0619 10:38:33.456511 25534 net.cpp:122] Setting up bn_conv4_11
I0619 10:38:33.456522 25534 net.cpp:129] Top shape: 1 24 352 512 (4325376)
I0619 10:38:33.456526 25534 net.cpp:137] Memory required for data: 384057344
I0619 10:38:33.456533 25534 layer_factory.hpp:77] Creating layer scale_conv4_11
I0619 10:38:33.456540 25534 net.cpp:84] Creating Layer scale_conv4_11
I0619 10:38:33.456544 25534 net.cpp:406] scale_conv4_11 <- conv4_11
I0619 10:38:33.456548 25534 net.cpp:367] scale_conv4_11 -> conv4_11 (in-place)
I0619 10:38:33.456822 25534 layer_factory.hpp:77] Creating layer scale_conv4_11
I0619 10:38:33.457779 25534 net.cpp:122] Setting up scale_conv4_11
I0619 10:38:33.457792 25534 net.cpp:129] Top shape: 1 24 352 512 (4325376)
I0619 10:38:33.457795 25534 net.cpp:137] Memory required for data: 401358848
I0619 10:38:33.457801 25534 layer_factory.hpp:77] Creating layer relu4_11
I0619 10:38:33.457808 25534 net.cpp:84] Creating Layer relu4_11
I0619 10:38:33.457810 25534 net.cpp:406] relu4_11 <- conv4_11
I0619 10:38:33.457815 25534 net.cpp:367] relu4_11 -> conv4_11 (in-place)
I0619 10:38:33.458392 25534 net.cpp:122] Setting up relu4_11
I0619 10:38:33.458403 25534 net.cpp:129] Top shape: 1 24 352 512 (4325376)
I0619 10:38:33.458407 25534 net.cpp:137] Memory required for data: 418660352
I0619 10:38:33.458411 25534 layer_factory.hpp:77] Creating layer conv4_12
I0619 10:38:33.458420 25534 net.cpp:84] Creating Layer conv4_12
I0619 10:38:33.458423 25534 net.cpp:406] conv4_12 <- conv4_11
I0619 10:38:33.458429 25534 net.cpp:380] conv4_12 -> conv4_12
I0619 10:38:33.461033 25534 net.cpp:122] Setting up conv4_12
I0619 10:38:33.461045 25534 net.cpp:129] Top shape: 1 24 352 512 (4325376)
I0619 10:38:33.461050 25534 net.cpp:137] Memory required for data: 435961856
I0619 10:38:33.461055 25534 layer_factory.hpp:77] Creating layer bn_conv4_12
I0619 10:38:33.461061 25534 net.cpp:84] Creating Layer bn_conv4_12
I0619 10:38:33.461066 25534 net.cpp:406] bn_conv4_12 <- conv4_12
I0619 10:38:33.461071 25534 net.cpp:367] bn_conv4_12 -> conv4_12 (in-place)
I0619 10:38:33.461699 25534 net.cpp:122] Setting up bn_conv4_12
I0619 10:38:33.461710 25534 net.cpp:129] Top shape: 1 24 352 512 (4325376)
I0619 10:38:33.461714 25534 net.cpp:137] Memory required for data: 453263360
I0619 10:38:33.461724 25534 layer_factory.hpp:77] Creating layer scale_conv4_12
I0619 10:38:33.461730 25534 net.cpp:84] Creating Layer scale_conv4_12
I0619 10:38:33.461733 25534 net.cpp:406] scale_conv4_12 <- conv4_12
I0619 10:38:33.461738 25534 net.cpp:367] scale_conv4_12 -> conv4_12 (in-place)
I0619 10:38:33.461782 25534 layer_factory.hpp:77] Creating layer scale_conv4_12
I0619 10:38:33.462728 25534 net.cpp:122] Setting up scale_conv4_12
I0619 10:38:33.462739 25534 net.cpp:129] Top shape: 1 24 352 512 (4325376)
I0619 10:38:33.462743 25534 net.cpp:137] Memory required for data: 470564864
I0619 10:38:33.462749 25534 layer_factory.hpp:77] Creating layer relu4_12
I0619 10:38:33.462756 25534 net.cpp:84] Creating Layer relu4_12
I0619 10:38:33.462760 25534 net.cpp:406] relu4_12 <- conv4_12
I0619 10:38:33.462764 25534 net.cpp:367] relu4_12 -> conv4_12 (in-place)
I0619 10:38:33.462926 25534 net.cpp:122] Setting up relu4_12
I0619 10:38:33.462934 25534 net.cpp:129] Top shape: 1 24 352 512 (4325376)
I0619 10:38:33.462939 25534 net.cpp:137] Memory required for data: 487866368
I0619 10:38:33.462941 25534 layer_factory.hpp:77] Creating layer conv4_13
I0619 10:38:33.462949 25534 net.cpp:84] Creating Layer conv4_13
I0619 10:38:33.462954 25534 net.cpp:406] conv4_13 <- conv4_12
I0619 10:38:33.462959 25534 net.cpp:380] conv4_13 -> conv4_13
I0619 10:38:33.465291 25534 net.cpp:122] Setting up conv4_13
I0619 10:38:33.465304 25534 net.cpp:129] Top shape: 1 24 352 512 (4325376)
I0619 10:38:33.465307 25534 net.cpp:137] Memory required for data: 505167872
I0619 10:38:33.465314 25534 layer_factory.hpp:77] Creating layer bn_conv4_13
I0619 10:38:33.465334 25534 net.cpp:84] Creating Layer bn_conv4_13
I0619 10:38:33.465338 25534 net.cpp:406] bn_conv4_13 <- conv4_13
I0619 10:38:33.465343 25534 net.cpp:367] bn_conv4_13 -> conv4_13 (in-place)
I0619 10:38:33.465978 25534 net.cpp:122] Setting up bn_conv4_13
I0619 10:38:33.465989 25534 net.cpp:129] Top shape: 1 24 352 512 (4325376)
I0619 10:38:33.465993 25534 net.cpp:137] Memory required for data: 522469376
I0619 10:38:33.466001 25534 layer_factory.hpp:77] Creating layer scale_conv4_13
I0619 10:38:33.466006 25534 net.cpp:84] Creating Layer scale_conv4_13
I0619 10:38:33.466011 25534 net.cpp:406] scale_conv4_13 <- conv4_13
I0619 10:38:33.466014 25534 net.cpp:367] scale_conv4_13 -> conv4_13 (in-place)
I0619 10:38:33.466059 25534 layer_factory.hpp:77] Creating layer scale_conv4_13
I0619 10:38:33.467003 25534 net.cpp:122] Setting up scale_conv4_13
I0619 10:38:33.467015 25534 net.cpp:129] Top shape: 1 24 352 512 (4325376)
I0619 10:38:33.467018 25534 net.cpp:137] Memory required for data: 539770880
I0619 10:38:33.467025 25534 layer_factory.hpp:77] Creating layer relu4_13
I0619 10:38:33.467031 25534 net.cpp:84] Creating Layer relu4_13
I0619 10:38:33.467033 25534 net.cpp:406] relu4_13 <- conv4_13
I0619 10:38:33.467038 25534 net.cpp:367] relu4_13 -> conv4_13 (in-place)
I0619 10:38:33.467593 25534 net.cpp:122] Setting up relu4_13
I0619 10:38:33.467604 25534 net.cpp:129] Top shape: 1 24 352 512 (4325376)
I0619 10:38:33.467607 25534 net.cpp:137] Memory required for data: 557072384
I0619 10:38:33.467612 25534 layer_factory.hpp:77] Creating layer conv4_21
I0619 10:38:33.467619 25534 net.cpp:84] Creating Layer conv4_21
I0619 10:38:33.467623 25534 net.cpp:406] conv4_21 <- pool1_pool1_0_split_1
I0619 10:38:33.467629 25534 net.cpp:380] conv4_21 -> conv4_21
I0619 10:38:33.469594 25534 net.cpp:122] Setting up conv4_21
I0619 10:38:33.469606 25534 net.cpp:129] Top shape: 1 24 352 512 (4325376)
I0619 10:38:33.469609 25534 net.cpp:137] Memory required for data: 574373888
I0619 10:38:33.469616 25534 layer_factory.hpp:77] Creating layer bn_conv4_21
I0619 10:38:33.469622 25534 net.cpp:84] Creating Layer bn_conv4_21
I0619 10:38:33.469625 25534 net.cpp:406] bn_conv4_21 <- conv4_21
I0619 10:38:33.469630 25534 net.cpp:367] bn_conv4_21 -> conv4_21 (in-place)
I0619 10:38:33.470266 25534 net.cpp:122] Setting up bn_conv4_21
I0619 10:38:33.470278 25534 net.cpp:129] Top shape: 1 24 352 512 (4325376)
I0619 10:38:33.470280 25534 net.cpp:137] Memory required for data: 591675392
I0619 10:38:33.470291 25534 layer_factory.hpp:77] Creating layer scale_conv4_21
I0619 10:38:33.470297 25534 net.cpp:84] Creating Layer scale_conv4_21
I0619 10:38:33.470301 25534 net.cpp:406] scale_conv4_21 <- conv4_21
I0619 10:38:33.470306 25534 net.cpp:367] scale_conv4_21 -> conv4_21 (in-place)
I0619 10:38:33.470351 25534 layer_factory.hpp:77] Creating layer scale_conv4_21
I0619 10:38:33.471326 25534 net.cpp:122] Setting up scale_conv4_21
I0619 10:38:33.471338 25534 net.cpp:129] Top shape: 1 24 352 512 (4325376)
I0619 10:38:33.471341 25534 net.cpp:137] Memory required for data: 608976896
I0619 10:38:33.471348 25534 layer_factory.hpp:77] Creating layer relu4_21
I0619 10:38:33.471354 25534 net.cpp:84] Creating Layer relu4_21
I0619 10:38:33.471356 25534 net.cpp:406] relu4_21 <- conv4_21
I0619 10:38:33.471361 25534 net.cpp:367] relu4_21 -> conv4_21 (in-place)
I0619 10:38:33.471904 25534 net.cpp:122] Setting up relu4_21
I0619 10:38:33.471915 25534 net.cpp:129] Top shape: 1 24 352 512 (4325376)
I0619 10:38:33.471918 25534 net.cpp:137] Memory required for data: 626278400
I0619 10:38:33.471922 25534 layer_factory.hpp:77] Creating layer conv4_22
I0619 10:38:33.471931 25534 net.cpp:84] Creating Layer conv4_22
I0619 10:38:33.471935 25534 net.cpp:406] conv4_22 <- conv4_21
I0619 10:38:33.471940 25534 net.cpp:380] conv4_22 -> conv4_22
I0619 10:38:33.474284 25534 net.cpp:122] Setting up conv4_22
I0619 10:38:33.474298 25534 net.cpp:129] Top shape: 1 24 352 512 (4325376)
I0619 10:38:33.474301 25534 net.cpp:137] Memory required for data: 643579904
I0619 10:38:33.474308 25534 layer_factory.hpp:77] Creating layer bn_conv4_22
I0619 10:38:33.474325 25534 net.cpp:84] Creating Layer bn_conv4_22
I0619 10:38:33.474330 25534 net.cpp:406] bn_conv4_22 <- conv4_22
I0619 10:38:33.474335 25534 net.cpp:367] bn_conv4_22 -> conv4_22 (in-place)
I0619 10:38:33.474984 25534 net.cpp:122] Setting up bn_conv4_22
I0619 10:38:33.474995 25534 net.cpp:129] Top shape: 1 24 352 512 (4325376)
I0619 10:38:33.474999 25534 net.cpp:137] Memory required for data: 660881408
I0619 10:38:33.475006 25534 layer_factory.hpp:77] Creating layer scale_conv4_22
I0619 10:38:33.475013 25534 net.cpp:84] Creating Layer scale_conv4_22
I0619 10:38:33.475016 25534 net.cpp:406] scale_conv4_22 <- conv4_22
I0619 10:38:33.475021 25534 net.cpp:367] scale_conv4_22 -> conv4_22 (in-place)
I0619 10:38:33.475071 25534 layer_factory.hpp:77] Creating layer scale_conv4_22
I0619 10:38:33.476033 25534 net.cpp:122] Setting up scale_conv4_22
I0619 10:38:33.476045 25534 net.cpp:129] Top shape: 1 24 352 512 (4325376)
I0619 10:38:33.476048 25534 net.cpp:137] Memory required for data: 678182912
I0619 10:38:33.476054 25534 layer_factory.hpp:77] Creating layer relu4_22
I0619 10:38:33.476060 25534 net.cpp:84] Creating Layer relu4_22
I0619 10:38:33.476063 25534 net.cpp:406] relu4_22 <- conv4_22
I0619 10:38:33.476071 25534 net.cpp:367] relu4_22 -> conv4_22 (in-place)
I0619 10:38:33.476245 25534 net.cpp:122] Setting up relu4_22
I0619 10:38:33.476254 25534 net.cpp:129] Top shape: 1 24 352 512 (4325376)
I0619 10:38:33.476258 25534 net.cpp:137] Memory required for data: 695484416
I0619 10:38:33.476261 25534 layer_factory.hpp:77] Creating layer conv4_31
I0619 10:38:33.476270 25534 net.cpp:84] Creating Layer conv4_31
I0619 10:38:33.476274 25534 net.cpp:406] conv4_31 <- pool1_pool1_0_split_2
I0619 10:38:33.476282 25534 net.cpp:380] conv4_31 -> conv4_31
I0619 10:38:33.478709 25534 net.cpp:122] Setting up conv4_31
I0619 10:38:33.478723 25534 net.cpp:129] Top shape: 1 24 352 512 (4325376)
I0619 10:38:33.478726 25534 net.cpp:137] Memory required for data: 712785920
I0619 10:38:33.478732 25534 layer_factory.hpp:77] Creating layer bn_conv4_31
I0619 10:38:33.478739 25534 net.cpp:84] Creating Layer bn_conv4_31
I0619 10:38:33.478744 25534 net.cpp:406] bn_conv4_31 <- conv4_31
I0619 10:38:33.478749 25534 net.cpp:367] bn_conv4_31 -> conv4_31 (in-place)
I0619 10:38:33.479408 25534 net.cpp:122] Setting up bn_conv4_31
I0619 10:38:33.479418 25534 net.cpp:129] Top shape: 1 24 352 512 (4325376)
I0619 10:38:33.479421 25534 net.cpp:137] Memory required for data: 730087424
I0619 10:38:33.479427 25534 layer_factory.hpp:77] Creating layer scale_conv4_31
I0619 10:38:33.479434 25534 net.cpp:84] Creating Layer scale_conv4_31
I0619 10:38:33.479437 25534 net.cpp:406] scale_conv4_31 <- conv4_31
I0619 10:38:33.479444 25534 net.cpp:367] scale_conv4_31 -> conv4_31 (in-place)
I0619 10:38:33.479493 25534 layer_factory.hpp:77] Creating layer scale_conv4_31
I0619 10:38:33.480468 25534 net.cpp:122] Setting up scale_conv4_31
I0619 10:38:33.480479 25534 net.cpp:129] Top shape: 1 24 352 512 (4325376)
I0619 10:38:33.480482 25534 net.cpp:137] Memory required for data: 747388928
I0619 10:38:33.480489 25534 layer_factory.hpp:77] Creating layer relu4_31
I0619 10:38:33.480499 25534 net.cpp:84] Creating Layer relu4_31
I0619 10:38:33.480502 25534 net.cpp:406] relu4_31 <- conv4_31
I0619 10:38:33.480507 25534 net.cpp:367] relu4_31 -> conv4_31 (in-place)
I0619 10:38:33.481084 25534 net.cpp:122] Setting up relu4_31
I0619 10:38:33.481096 25534 net.cpp:129] Top shape: 1 24 352 512 (4325376)
I0619 10:38:33.481099 25534 net.cpp:137] Memory required for data: 764690432
I0619 10:38:33.481102 25534 layer_factory.hpp:77] Creating layer concat1
I0619 10:38:33.481111 25534 net.cpp:84] Creating Layer concat1
I0619 10:38:33.481114 25534 net.cpp:406] concat1 <- conv4_13
I0619 10:38:33.481119 25534 net.cpp:406] concat1 <- conv4_22
I0619 10:38:33.481123 25534 net.cpp:406] concat1 <- conv4_31
I0619 10:38:33.481127 25534 net.cpp:380] concat1 -> conv4
I0619 10:38:33.481164 25534 net.cpp:122] Setting up concat1
I0619 10:38:33.481171 25534 net.cpp:129] Top shape: 1 72 352 512 (12976128)
I0619 10:38:33.481189 25534 net.cpp:137] Memory required for data: 816594944
I0619 10:38:33.481194 25534 layer_factory.hpp:77] Creating layer pool2
I0619 10:38:33.481199 25534 net.cpp:84] Creating Layer pool2
I0619 10:38:33.481202 25534 net.cpp:406] pool2 <- conv4
I0619 10:38:33.481210 25534 net.cpp:380] pool2 -> pool2
I0619 10:38:33.481264 25534 net.cpp:122] Setting up pool2
I0619 10:38:33.481271 25534 net.cpp:129] Top shape: 1 72 176 256 (3244032)
I0619 10:38:33.481276 25534 net.cpp:137] Memory required for data: 829571072
I0619 10:38:33.481278 25534 layer_factory.hpp:77] Creating layer pool2_pool2_0_split
I0619 10:38:33.481283 25534 net.cpp:84] Creating Layer pool2_pool2_0_split
I0619 10:38:33.481287 25534 net.cpp:406] pool2_pool2_0_split <- pool2
I0619 10:38:33.481292 25534 net.cpp:380] pool2_pool2_0_split -> pool2_pool2_0_split_0
I0619 10:38:33.481299 25534 net.cpp:380] pool2_pool2_0_split -> pool2_pool2_0_split_1
I0619 10:38:33.481304 25534 net.cpp:380] pool2_pool2_0_split -> pool2_pool2_0_split_2
I0619 10:38:33.481362 25534 net.cpp:122] Setting up pool2_pool2_0_split
I0619 10:38:33.481369 25534 net.cpp:129] Top shape: 1 72 176 256 (3244032)
I0619 10:38:33.481372 25534 net.cpp:129] Top shape: 1 72 176 256 (3244032)
I0619 10:38:33.481376 25534 net.cpp:129] Top shape: 1 72 176 256 (3244032)
I0619 10:38:33.481379 25534 net.cpp:137] Memory required for data: 868499456
I0619 10:38:33.481382 25534 layer_factory.hpp:77] Creating layer conv5_11
I0619 10:38:33.481391 25534 net.cpp:84] Creating Layer conv5_11
I0619 10:38:33.481395 25534 net.cpp:406] conv5_11 <- pool2_pool2_0_split_0
I0619 10:38:33.481401 25534 net.cpp:380] conv5_11 -> conv5_11
I0619 10:38:33.483492 25534 net.cpp:122] Setting up conv5_11
I0619 10:38:33.483505 25534 net.cpp:129] Top shape: 1 32 176 256 (1441792)
I0619 10:38:33.483510 25534 net.cpp:137] Memory required for data: 874266624
I0619 10:38:33.483515 25534 layer_factory.hpp:77] Creating layer bn_conv5_11
I0619 10:38:33.483522 25534 net.cpp:84] Creating Layer bn_conv5_11
I0619 10:38:33.483526 25534 net.cpp:406] bn_conv5_11 <- conv5_11
I0619 10:38:33.483531 25534 net.cpp:367] bn_conv5_11 -> conv5_11 (in-place)
I0619 10:38:33.483794 25534 net.cpp:122] Setting up bn_conv5_11
I0619 10:38:33.483803 25534 net.cpp:129] Top shape: 1 32 176 256 (1441792)
I0619 10:38:33.483805 25534 net.cpp:137] Memory required for data: 880033792
I0619 10:38:33.483811 25534 layer_factory.hpp:77] Creating layer scale_conv5_11
I0619 10:38:33.483816 25534 net.cpp:84] Creating Layer scale_conv5_11
I0619 10:38:33.483820 25534 net.cpp:406] scale_conv5_11 <- conv5_11
I0619 10:38:33.483824 25534 net.cpp:367] scale_conv5_11 -> conv5_11 (in-place)
I0619 10:38:33.483871 25534 layer_factory.hpp:77] Creating layer scale_conv5_11
I0619 10:38:33.484045 25534 net.cpp:122] Setting up scale_conv5_11
I0619 10:38:33.484053 25534 net.cpp:129] Top shape: 1 32 176 256 (1441792)
I0619 10:38:33.484056 25534 net.cpp:137] Memory required for data: 885800960
I0619 10:38:33.484062 25534 layer_factory.hpp:77] Creating layer relu5_11
I0619 10:38:33.484068 25534 net.cpp:84] Creating Layer relu5_11
I0619 10:38:33.484072 25534 net.cpp:406] relu5_11 <- conv5_11
I0619 10:38:33.484076 25534 net.cpp:367] relu5_11 -> conv5_11 (in-place)
I0619 10:38:33.485013 25534 net.cpp:122] Setting up relu5_11
I0619 10:38:33.485024 25534 net.cpp:129] Top shape: 1 32 176 256 (1441792)
I0619 10:38:33.485028 25534 net.cpp:137] Memory required for data: 891568128
I0619 10:38:33.485031 25534 layer_factory.hpp:77] Creating layer conv5_12
I0619 10:38:33.485043 25534 net.cpp:84] Creating Layer conv5_12
I0619 10:38:33.485046 25534 net.cpp:406] conv5_12 <- conv5_11
I0619 10:38:33.485052 25534 net.cpp:380] conv5_12 -> conv5_12
I0619 10:38:33.486747 25534 net.cpp:122] Setting up conv5_12
I0619 10:38:33.486758 25534 net.cpp:129] Top shape: 1 32 176 256 (1441792)
I0619 10:38:33.486763 25534 net.cpp:137] Memory required for data: 897335296
I0619 10:38:33.486768 25534 layer_factory.hpp:77] Creating layer bn_conv5_12
I0619 10:38:33.486775 25534 net.cpp:84] Creating Layer bn_conv5_12
I0619 10:38:33.486791 25534 net.cpp:406] bn_conv5_12 <- conv5_12
I0619 10:38:33.486798 25534 net.cpp:367] bn_conv5_12 -> conv5_12 (in-place)
I0619 10:38:33.487413 25534 net.cpp:122] Setting up bn_conv5_12
I0619 10:38:33.487424 25534 net.cpp:129] Top shape: 1 32 176 256 (1441792)
I0619 10:38:33.487428 25534 net.cpp:137] Memory required for data: 903102464
I0619 10:38:33.487435 25534 layer_factory.hpp:77] Creating layer scale_conv5_12
I0619 10:38:33.487442 25534 net.cpp:84] Creating Layer scale_conv5_12
I0619 10:38:33.487447 25534 net.cpp:406] scale_conv5_12 <- conv5_12
I0619 10:38:33.487452 25534 net.cpp:367] scale_conv5_12 -> conv5_12 (in-place)
I0619 10:38:33.487504 25534 layer_factory.hpp:77] Creating layer scale_conv5_12
I0619 10:38:33.487678 25534 net.cpp:122] Setting up scale_conv5_12
I0619 10:38:33.487685 25534 net.cpp:129] Top shape: 1 32 176 256 (1441792)
I0619 10:38:33.487689 25534 net.cpp:137] Memory required for data: 908869632
I0619 10:38:33.487694 25534 layer_factory.hpp:77] Creating layer relu5_12
I0619 10:38:33.487699 25534 net.cpp:84] Creating Layer relu5_12
I0619 10:38:33.487702 25534 net.cpp:406] relu5_12 <- conv5_12
I0619 10:38:33.487709 25534 net.cpp:367] relu5_12 -> conv5_12 (in-place)
I0619 10:38:33.487884 25534 net.cpp:122] Setting up relu5_12
I0619 10:38:33.487895 25534 net.cpp:129] Top shape: 1 32 176 256 (1441792)
I0619 10:38:33.487898 25534 net.cpp:137] Memory required for data: 914636800
I0619 10:38:33.487901 25534 layer_factory.hpp:77] Creating layer conv5_13
I0619 10:38:33.487910 25534 net.cpp:84] Creating Layer conv5_13
I0619 10:38:33.487915 25534 net.cpp:406] conv5_13 <- conv5_12
I0619 10:38:33.487921 25534 net.cpp:380] conv5_13 -> conv5_13
I0619 10:38:33.489676 25534 net.cpp:122] Setting up conv5_13
I0619 10:38:33.489691 25534 net.cpp:129] Top shape: 1 32 176 256 (1441792)
I0619 10:38:33.489694 25534 net.cpp:137] Memory required for data: 920403968
I0619 10:38:33.489708 25534 layer_factory.hpp:77] Creating layer bn_conv5_13
I0619 10:38:33.489717 25534 net.cpp:84] Creating Layer bn_conv5_13
I0619 10:38:33.489720 25534 net.cpp:406] bn_conv5_13 <- conv5_13
I0619 10:38:33.489725 25534 net.cpp:367] bn_conv5_13 -> conv5_13 (in-place)
I0619 10:38:33.489986 25534 net.cpp:122] Setting up bn_conv5_13
I0619 10:38:33.489995 25534 net.cpp:129] Top shape: 1 32 176 256 (1441792)
I0619 10:38:33.490000 25534 net.cpp:137] Memory required for data: 926171136
I0619 10:38:33.490005 25534 layer_factory.hpp:77] Creating layer scale_conv5_13
I0619 10:38:33.490010 25534 net.cpp:84] Creating Layer scale_conv5_13
I0619 10:38:33.490015 25534 net.cpp:406] scale_conv5_13 <- conv5_13
I0619 10:38:33.490018 25534 net.cpp:367] scale_conv5_13 -> conv5_13 (in-place)
I0619 10:38:33.490067 25534 layer_factory.hpp:77] Creating layer scale_conv5_13
I0619 10:38:33.490600 25534 net.cpp:122] Setting up scale_conv5_13
I0619 10:38:33.490613 25534 net.cpp:129] Top shape: 1 32 176 256 (1441792)
I0619 10:38:33.490617 25534 net.cpp:137] Memory required for data: 931938304
I0619 10:38:33.490622 25534 layer_factory.hpp:77] Creating layer relu5_13
I0619 10:38:33.490628 25534 net.cpp:84] Creating Layer relu5_13
I0619 10:38:33.490631 25534 net.cpp:406] relu5_13 <- conv5_13
I0619 10:38:33.490636 25534 net.cpp:367] relu5_13 -> conv5_13 (in-place)
I0619 10:38:33.491196 25534 net.cpp:122] Setting up relu5_13
I0619 10:38:33.491207 25534 net.cpp:129] Top shape: 1 32 176 256 (1441792)
I0619 10:38:33.491211 25534 net.cpp:137] Memory required for data: 937705472
I0619 10:38:33.491214 25534 layer_factory.hpp:77] Creating layer conv5_21
I0619 10:38:33.491225 25534 net.cpp:84] Creating Layer conv5_21
I0619 10:38:33.491230 25534 net.cpp:406] conv5_21 <- pool2_pool2_0_split_1
I0619 10:38:33.491236 25534 net.cpp:380] conv5_21 -> conv5_21
I0619 10:38:33.493008 25534 net.cpp:122] Setting up conv5_21
I0619 10:38:33.493021 25534 net.cpp:129] Top shape: 1 32 176 256 (1441792)
I0619 10:38:33.493024 25534 net.cpp:137] Memory required for data: 943472640
I0619 10:38:33.493031 25534 layer_factory.hpp:77] Creating layer bn_conv5_21
I0619 10:38:33.493052 25534 net.cpp:84] Creating Layer bn_conv5_21
I0619 10:38:33.493058 25534 net.cpp:406] bn_conv5_21 <- conv5_21
I0619 10:38:33.493063 25534 net.cpp:367] bn_conv5_21 -> conv5_21 (in-place)
I0619 10:38:33.493335 25534 net.cpp:122] Setting up bn_conv5_21
I0619 10:38:33.493342 25534 net.cpp:129] Top shape: 1 32 176 256 (1441792)
I0619 10:38:33.493346 25534 net.cpp:137] Memory required for data: 949239808
I0619 10:38:33.493353 25534 layer_factory.hpp:77] Creating layer scale_conv5_21
I0619 10:38:33.493358 25534 net.cpp:84] Creating Layer scale_conv5_21
I0619 10:38:33.493361 25534 net.cpp:406] scale_conv5_21 <- conv5_21
I0619 10:38:33.493366 25534 net.cpp:367] scale_conv5_21 -> conv5_21 (in-place)
I0619 10:38:33.493415 25534 layer_factory.hpp:77] Creating layer scale_conv5_21
I0619 10:38:33.493934 25534 net.cpp:122] Setting up scale_conv5_21
I0619 10:38:33.493945 25534 net.cpp:129] Top shape: 1 32 176 256 (1441792)
I0619 10:38:33.493949 25534 net.cpp:137] Memory required for data: 955006976
I0619 10:38:33.493955 25534 layer_factory.hpp:77] Creating layer relu5_21
I0619 10:38:33.493963 25534 net.cpp:84] Creating Layer relu5_21
I0619 10:38:33.493966 25534 net.cpp:406] relu5_21 <- conv5_21
I0619 10:38:33.493971 25534 net.cpp:367] relu5_21 -> conv5_21 (in-place)
I0619 10:38:33.494526 25534 net.cpp:122] Setting up relu5_21
I0619 10:38:33.494537 25534 net.cpp:129] Top shape: 1 32 176 256 (1441792)
I0619 10:38:33.494540 25534 net.cpp:137] Memory required for data: 960774144
I0619 10:38:33.494544 25534 layer_factory.hpp:77] Creating layer conv5_22
I0619 10:38:33.494554 25534 net.cpp:84] Creating Layer conv5_22
I0619 10:38:33.494559 25534 net.cpp:406] conv5_22 <- conv5_21
I0619 10:38:33.494563 25534 net.cpp:380] conv5_22 -> conv5_22
I0619 10:38:33.496253 25534 net.cpp:122] Setting up conv5_22
I0619 10:38:33.496265 25534 net.cpp:129] Top shape: 1 32 176 256 (1441792)
I0619 10:38:33.496269 25534 net.cpp:137] Memory required for data: 966541312
I0619 10:38:33.496275 25534 layer_factory.hpp:77] Creating layer bn_conv5_22
I0619 10:38:33.496280 25534 net.cpp:84] Creating Layer bn_conv5_22
I0619 10:38:33.496284 25534 net.cpp:406] bn_conv5_22 <- conv5_22
I0619 10:38:33.496290 25534 net.cpp:367] bn_conv5_22 -> conv5_22 (in-place)
I0619 10:38:33.496553 25534 net.cpp:122] Setting up bn_conv5_22
I0619 10:38:33.496562 25534 net.cpp:129] Top shape: 1 32 176 256 (1441792)
I0619 10:38:33.496567 25534 net.cpp:137] Memory required for data: 972308480
I0619 10:38:33.496572 25534 layer_factory.hpp:77] Creating layer scale_conv5_22
I0619 10:38:33.496577 25534 net.cpp:84] Creating Layer scale_conv5_22
I0619 10:38:33.496582 25534 net.cpp:406] scale_conv5_22 <- conv5_22
I0619 10:38:33.496585 25534 net.cpp:367] scale_conv5_22 -> conv5_22 (in-place)
I0619 10:38:33.496634 25534 layer_factory.hpp:77] Creating layer scale_conv5_22
I0619 10:38:33.496817 25534 net.cpp:122] Setting up scale_conv5_22
I0619 10:38:33.496826 25534 net.cpp:129] Top shape: 1 32 176 256 (1441792)
I0619 10:38:33.496829 25534 net.cpp:137] Memory required for data: 978075648
I0619 10:38:33.496834 25534 layer_factory.hpp:77] Creating layer relu5_22
I0619 10:38:33.496840 25534 net.cpp:84] Creating Layer relu5_22
I0619 10:38:33.496843 25534 net.cpp:406] relu5_22 <- conv5_22
I0619 10:38:33.496848 25534 net.cpp:367] relu5_22 -> conv5_22 (in-place)
I0619 10:38:33.497014 25534 net.cpp:122] Setting up relu5_22
I0619 10:38:33.497022 25534 net.cpp:129] Top shape: 1 32 176 256 (1441792)
I0619 10:38:33.497025 25534 net.cpp:137] Memory required for data: 983842816
I0619 10:38:33.497030 25534 layer_factory.hpp:77] Creating layer conv5_31
I0619 10:38:33.497038 25534 net.cpp:84] Creating Layer conv5_31
I0619 10:38:33.497043 25534 net.cpp:406] conv5_31 <- pool2_pool2_0_split_2
I0619 10:38:33.497050 25534 net.cpp:380] conv5_31 -> conv5_31
I0619 10:38:33.499547 25534 net.cpp:122] Setting up conv5_31
I0619 10:38:33.499558 25534 net.cpp:129] Top shape: 1 32 176 256 (1441792)
I0619 10:38:33.499562 25534 net.cpp:137] Memory required for data: 989609984
I0619 10:38:33.499568 25534 layer_factory.hpp:77] Creating layer bn_conv5_31
I0619 10:38:33.499585 25534 net.cpp:84] Creating Layer bn_conv5_31
I0619 10:38:33.499590 25534 net.cpp:406] bn_conv5_31 <- conv5_31
I0619 10:38:33.499595 25534 net.cpp:367] bn_conv5_31 -> conv5_31 (in-place)
I0619 10:38:33.499867 25534 net.cpp:122] Setting up bn_conv5_31
I0619 10:38:33.499876 25534 net.cpp:129] Top shape: 1 32 176 256 (1441792)
I0619 10:38:33.499881 25534 net.cpp:137] Memory required for data: 995377152
I0619 10:38:33.499886 25534 layer_factory.hpp:77] Creating layer scale_conv5_31
I0619 10:38:33.499892 25534 net.cpp:84] Creating Layer scale_conv5_31
I0619 10:38:33.499896 25534 net.cpp:406] scale_conv5_31 <- conv5_31
I0619 10:38:33.499902 25534 net.cpp:367] scale_conv5_31 -> conv5_31 (in-place)
I0619 10:38:33.499951 25534 layer_factory.hpp:77] Creating layer scale_conv5_31
I0619 10:38:33.500128 25534 net.cpp:122] Setting up scale_conv5_31
I0619 10:38:33.500136 25534 net.cpp:129] Top shape: 1 32 176 256 (1441792)
I0619 10:38:33.500139 25534 net.cpp:137] Memory required for data: 1001144320
I0619 10:38:33.500144 25534 layer_factory.hpp:77] Creating layer relu5_31
I0619 10:38:33.500151 25534 net.cpp:84] Creating Layer relu5_31
I0619 10:38:33.500154 25534 net.cpp:406] relu5_31 <- conv5_31
I0619 10:38:33.500159 25534 net.cpp:367] relu5_31 -> conv5_31 (in-place)
I0619 10:38:33.500735 25534 net.cpp:122] Setting up relu5_31
I0619 10:38:33.500746 25534 net.cpp:129] Top shape: 1 32 176 256 (1441792)
I0619 10:38:33.500751 25534 net.cpp:137] Memory required for data: 1006911488
I0619 10:38:33.500754 25534 layer_factory.hpp:77] Creating layer concat2
I0619 10:38:33.500762 25534 net.cpp:84] Creating Layer concat2
I0619 10:38:33.500766 25534 net.cpp:406] concat2 <- conv5_13
I0619 10:38:33.500771 25534 net.cpp:406] concat2 <- conv5_22
I0619 10:38:33.500774 25534 net.cpp:406] concat2 <- conv5_31
I0619 10:38:33.500779 25534 net.cpp:380] concat2 -> conv5
I0619 10:38:33.500818 25534 net.cpp:122] Setting up concat2
I0619 10:38:33.500825 25534 net.cpp:129] Top shape: 1 96 176 256 (4325376)
I0619 10:38:33.500828 25534 net.cpp:137] Memory required for data: 1024212992
I0619 10:38:33.500833 25534 layer_factory.hpp:77] Creating layer conv6
I0619 10:38:33.500840 25534 net.cpp:84] Creating Layer conv6
I0619 10:38:33.500844 25534 net.cpp:406] conv6 <- conv5
I0619 10:38:33.500851 25534 net.cpp:380] conv6 -> conv_score
I0619 10:38:33.540320 25534 net.cpp:122] Setting up conv6
I0619 10:38:33.540347 25534 net.cpp:129] Top shape: 1 32 176 256 (1441792)
I0619 10:38:33.540351 25534 net.cpp:137] Memory required for data: 1029980160
I0619 10:38:33.540359 25534 layer_factory.hpp:77] Creating layer relu6
I0619 10:38:33.540369 25534 net.cpp:84] Creating Layer relu6
I0619 10:38:33.540372 25534 net.cpp:406] relu6 <- conv_score
I0619 10:38:33.540379 25534 net.cpp:367] relu6 -> conv_score (in-place)
I0619 10:38:33.540969 25534 net.cpp:122] Setting up relu6
I0619 10:38:33.540982 25534 net.cpp:129] Top shape: 1 32 176 256 (1441792)
I0619 10:38:33.540985 25534 net.cpp:137] Memory required for data: 1035747328
I0619 10:38:33.540987 25534 layer_factory.hpp:77] Creating layer slicer_conv
I0619 10:38:33.540997 25534 net.cpp:84] Creating Layer slicer_conv
I0619 10:38:33.541002 25534 net.cpp:406] slicer_conv <- conv_score
I0619 10:38:33.541009 25534 net.cpp:380] slicer_conv -> score1
I0619 10:38:33.541018 25534 net.cpp:380] slicer_conv -> score2
…
I0619 10:38:33.541193 25534 net.cpp:380] slicer_conv -> score25
I0619 10:38:33.541198 25534 net.cpp:380] slicer_conv -> score26
I0619 10:38:33.541205 25534 net.cpp:380] slicer_conv -> score27
I0619 10:38:33.541213 25534 net.cpp:380] slicer_conv -> score28
I0619 10:38:33.541218 25534 net.cpp:380] slicer_conv -> score29
I0619 10:38:33.541224 25534 net.cpp:380] slicer_conv -> score30
I0619 10:38:33.541229 25534 net.cpp:380] slicer_conv -> score31
I0619 10:38:33.541235 25534 net.cpp:380] slicer_conv -> score32
I0619 10:38:33.541771 25534 net.cpp:122] Setting up slicer_conv
I0619 10:38:33.541779 25534 net.cpp:129] Top shape: 1 1 176 256 (45056)
I0619 10:38:33.541784 25534 net.cpp:129] Top shape: 1 1 176 256 (45056)
I0619 10:38:33.541787 25534 net.cpp:129] Top shape: 1 1 176 256 (45056)
I0619 10:38:33.541790 25534 net.cpp:129] Top shape: 1 1 176 256 (45056)
I0619 10:38:33.541796 25534 net.cpp:129] Top shape: 1 1 176 256 (45056)
I0619 10:38:33.541800 25534 net.cpp:129] Top shape: 1 1 176 256 (45056)
I0619 10:38:33.541805 25534 net.cpp:129] Top shape: 1 1 176 256 (45056)
I0619 10:38:33.541807 25534 net.cpp:129] Top shape: 1 1 176 256 (45056)
I0619 10:38:33.541811 25534 net.cpp:129] Top shape: 1 1 176 256 (45056)
I0619 10:38:33.541815 25534 net.cpp:129] Top shape: 1 1 176 256 (45056)
I0619 10:38:33.541820 25534 net.cpp:129] Top shape: 1 1 176 256 (45056)
I0619 10:38:33.541822 25534 net.cpp:129] Top shape: 1 1 176 256 (45056)
I0619 10:38:33.541826 25534 net.cpp:129] Top shape: 1 1 176 256 (45056)
I0619 10:38:33.541831 25534 net.cpp:129] Top shape: 1 1 176 256 (45056)
I0619 10:38:33.541833 25534 net.cpp:129] Top shape: 1 1 176 256 (45056)
I0619 10:38:33.541838 25534 net.cpp:129] Top shape: 1 1 176 256 (45056)
I0619 10:38:33.541842 25534 net.cpp:129] Top shape: 1 1 176 256 (45056)
I0619 10:38:33.541846 25534 net.cpp:129] Top shape: 1 1 176 256 (45056)
I0619 10:38:33.541849 25534 net.cpp:129] Top shape: 1 1 176 256 (45056)
I0619 10:38:33.541853 25534 net.cpp:129] Top shape: 1 1 176 256 (45056)
I0619 10:38:33.541857 25534 net.cpp:129] Top shape: 1 1 176 256 (45056)
I0619 10:38:33.541860 25534 net.cpp:129] Top shape: 1 1 176 256 (45056)
I0619 10:38:33.541864 25534 net.cpp:129] Top shape: 1 1 176 256 (45056)
I0619 10:38:33.541868 25534 net.cpp:129] Top shape: 1 1 176 256 (45056)
I0619 10:38:33.541872 25534 net.cpp:129] Top shape: 1 1 176 256 (45056)
I0619 10:38:33.541875 25534 net.cpp:129] Top shape: 1 1 176 256 (45056)
I0619 10:38:33.541879 25534 net.cpp:129] Top shape: 1 1 176 256 (45056)
I0619 10:38:33.541882 25534 net.cpp:129] Top shape: 1 1 176 256 (45056)
I0619 10:38:33.541887 25534 net.cpp:129] Top shape: 1 1 176 256 (45056)
I0619 10:38:33.541890 25534 net.cpp:129] Top shape: 1 1 176 256 (45056)
I0619 10:38:33.541893 25534 net.cpp:129] Top shape: 1 1 176 256 (45056)
I0619 10:38:33.541898 25534 net.cpp:129] Top shape: 1 1 176 256 (45056)
I0619 10:38:33.541900 25534 net.cpp:137] Memory required for data: 1041514496
I0619 10:38:33.541904 25534 layer_factory.hpp:77] Creating layer sumscore
I0619 10:38:33.541918 25534 net.cpp:84] Creating Layer sumscore
I0619 10:38:33.541923 25534 net.cpp:406] sumscore <- score1
I0619 10:38:33.541926 25534 net.cpp:406] sumscore <- score2
I0619 10:38:33.541931 25534 net.cpp:406] sumscore <- score3
…
