…
I0727 10:34:52.670228 24021 net.cpp:51] Initializing net from parameters: 
name: "crowd_counting"
state {
  phase: TRAIN
  level: 0
  stage: ""
}
layer {
  name: "data"
  type: "Data"
  top: "data"
  include {
    phase: TRAIN
  }
  data_param {
    source: "/home/peiyong/Work/Zenglin/szl/ShanghaiTech/partA/train_8/image_lmdb"
    batch_size: 1
    backend: LMDB
  }
}
layer {
  name: "label"
  type: "Data"
  top: "label"
  include {
    phase: TRAIN
  }
  data_param {
    source: "/home/peiyong/Work/Zenglin/szl/ShanghaiTech/partA/train_8/dmap_lmdb"
    batch_size: 1
    backend: LMDB
  }
}
layer {
  name: "conv1_1"
  type: "Convolution"
  bottom: "data"
  top: "conv1_1"
  param {
    lr_mult: 0.1
    decay_mult: 1
  }
  param {
    lr_mult: 0.2
    decay_mult: 0
  }
  convolution_param {
    num_output: 64
    pad: 1
    kernel_size: 3
    weight_filler {
      type: "gaussian"
      std: 0.01
    }
    bias_filler {
      type: "constant"
      value: 0
    }
  }
}
layer {
  name: "relu1_1"
  type: "ReLU"
  bottom: "conv1_1"
  top: "conv1_1"
}
layer {
  name: "conv1_2"
  type: "Convolution"
  bottom: "conv1_1"
  top: "conv1_2"
  param {
    lr_mult: 0.1
    decay_mult: 1
  }
  param {
    lr_mult: 0.2
    decay_mult: 0
  }
  convolution_param {
    num_output: 64
    pad: 1
    kernel_size: 3
    weight_filler {
      type: "gaussian"
      std: 0.01
    }
    bias_filler {
      type: "constant"
      value: 0
    }
  }
}
layer {
  name: "relu1_2"
  type: "ReLU"
  bottom: "conv1_2"
  top: "conv1_2"
}
layer {
  name: "pool1"
  type: "Pooling"
  bottom: "conv1_2"
  top: "pool1"
  pooling_param {
    pool: MAX
    kernel_size: 2
    stride: 2
  }
}
layer {
  name: "conv2_1"
  type: "Convolution"
  bottom: "pool1"
  top: "conv2_1"
  param {
    lr_mult: 0.1
    decay_mult: 1
  }
  param {
    lr_mult: 0.2
    decay_mult: 0
  }
  convolution_param {
    num_output: 128
    pad: 1
    kernel_size: 3
    weight_filler {
      type: "gaussian"
      std: 0.01
    }
    bias_filler {
      type: "constant"
      value: 0
    }
  }
}
layer {
  name: "relu2_1"
  type: "ReLU"
  bottom: "conv2_1"
  top: "conv2_1"
}
layer {
  name: "conv2_2"
  type: "Convolution"
  bottom: "conv2_1"
  top: "conv2_2"
  param {
    lr_mult: 0.1
    decay_mult: 1
  }
  param {
    lr_mult: 0.2
    decay_mult: 0
  }
  convolution_param {
    num_output: 128
    pad: 1
    kernel_size: 3
    weight_filler {
      type: "gaussian"
      std: 0.01
    }
    bias_filler {
      type: "constant"
      value: 0
    }
  }
}
layer {
  name: "relu2_2"
  type: "ReLU"
  bottom: "conv2_2"
  top: "conv2_2"
}
layer {
  name: "pool2"
  type: "Pooling"
  bottom: "conv2_2"
  top: "pool2"
  pooling_param {
    pool: MAX
    kernel_size: 2
    stride: 2
  }
}
layer {
  name: "conv3_1"
  type: "Convolution"
  bottom: "pool2"
  top: "conv3_1"
  param {
    lr_mult: 0.1
    decay_mult: 1
  }
  param {
    lr_mult: 0.2
    decay_mult: 0
  }
  convolution_param {
    num_output: 256
    pad: 1
    kernel_size: 3
    weight_filler {
      type: "gaussian"
      std: 0.01
    }
    bias_filler {
      type: "constant"
      value: 0
    }
  }
}
layer {
  name: "relu3_1"
  type: "ReLU"
  bottom: "conv3_1"
  top: "conv3_1"
}
layer {
  name: "conv3_2"
  type: "Convolution"
  bottom: "conv3_1"
  top: "conv3_2"
  param {
    lr_mult: 0.1
    decay_mult: 1
  }
  param {
    lr_mult: 0.2
    decay_mult: 0
  }
  convolution_param {
    num_output: 256
    pad: 1
    kernel_size: 3
    weight_filler {
      type: "gaussian"
      std: 0.01
    }
    bias_filler {
      type: "constant"
      value: 0
    }
  }
}
layer {
  name: "relu3_2"
  type: "ReLU"
  bottom: "conv3_2"
  top: "conv3_2"
}
layer {
  name: "conv3_3"
  type: "Convolution"
  bottom: "conv3_2"
  top: "conv3_3"
  param {
    lr_mult: 0.1
    decay_mult: 1
  }
  param {
    lr_mult: 0.2
    decay_mult: 0
  }
  convolution_param {
    num_output: 256
    pad: 1
    kernel_size: 3
    weight_filler {
      type: "gaussian"
      std: 0.01
    }
    bias_filler {
      type: "constant"
      value: 0
    }
  }
}
layer {
  name: "relu3_3"
  type: "ReLU"
  bottom: "conv3_3"
  top: "conv3_3"
}
layer {
  name: "pool3"
  type: "Pooling"
  bottom: "conv3_3"
  top: "pool3"
  pooling_param {
    pool: MAX
    kernel_size: 2
    stride: 2
  }
}
layer {
  name: "conv4_1"
  type: "Convolution"
  bottom: "pool3"
  top: "conv4_1"
  param {
    lr_mult: 0.1
    decay_mult: 1
  }
  param {
    lr_mult: 0.2
    decay_mult: 0
  }
  convolution_param {
    num_output: 512
    pad: 1
    kernel_size: 3
    weight_filler {
      type: "gaussian"
      std: 0.01
    }
    bias_filler {
      type: "constant"
      value: 0
    }
  }
}
layer {
  name: "relu4_1"
  type: "ReLU"
  bottom: "conv4_1"
  top: "conv4_1"
}
layer {
  name: "conv4_2"
  type: "Convolution"
  bottom: "conv4_1"
  top: "conv4_2"
  param {
    lr_mult: 0.1
    decay_mult: 1
  }
  param {
    lr_mult: 0.2
    decay_mult: 0
  }
  convolution_param {
    num_output: 512
    pad: 1
    kernel_size: 3
    weight_filler {
      type: "gaussian"
      std: 0.01
    }
    bias_filler {
      type: "constant"
      value: 0
    }
  }
}
layer {
  name: "relu4_2"
  type: "ReLU"
  bottom: "conv4_2"
  top: "conv4_2"
}
layer {
  name: "conv4_3"
  type: "Convolution"
  bottom: "conv4_2"
  top: "conv4_3"
  param {
    lr_mult: 0.1
    decay_mult: 1
  }
  param {
    lr_mult: 0.2
    decay_mult: 0
  }
  convolution_param {
    num_output: 512
    pad: 1
    kernel_size: 3
    weight_filler {
      type: "gaussian"
      std: 0.01
    }
    bias_filler {
      type: "constant"
      value: 0
    }
  }
}
layer {
  name: "relu4_3"
  type: "ReLU"
  bottom: "conv4_3"
  top: "conv4_3"
}
layer {
  name: "pool4"
  type: "Pooling"
  bottom: "conv4_3"
  top: "pool4"
  pooling_param {
    pool: MAX
    kernel_size: 3
    stride: 1
    pad: 1
  }
}
layer {
  name: "conv5_1"
  type: "Convolution"
  bottom: "pool4"
  top: "conv5_1"
  param {
    lr_mult: 0.1
    decay_mult: 1
  }
  param {
    lr_mult: 0.2
    decay_mult: 0
  }
  convolution_param {
    num_output: 512
    pad: 2
    kernel_size: 3
    weight_filler {
      type: "gaussian"
      std: 0.01
    }
    bias_filler {
      type: "constant"
      value: 0
    }
    dilation: 2
  }
}
layer {
  name: "relu5_1"
  type: "ReLU"
  bottom: "conv5_1"
  top: "conv5_1"
}
layer {
  name: "conv5_2"
  type: "Convolution"
  bottom: "conv5_1"
  top: "conv5_2"
  param {
    lr_mult: 0.1
    decay_mult: 1
  }
  param {
    lr_mult: 0.2
    decay_mult: 0
  }
  convolution_param {
    num_output: 512
    pad: 2
    kernel_size: 3
    weight_filler {
      type: "gaussian"
      std: 0.01
    }
    bias_filler {
      type: "constant"
      value: 0
    }
    dilation: 2
  }
}
layer {
  name: "relu5_2"
  type: "ReLU"
  bottom: "conv5_2"
  top: "conv5_2"
}
layer {
  name: "conv5_3"
  type: "Convolution"
  bottom: "conv5_2"
  top: "conv5_3"
  param {
    lr_mult: 0.1
    decay_mult: 1
  }
  param {
    lr_mult: 0.2
    decay_mult: 0
  }
  convolution_param {
    num_output: 512
    pad: 2
    kernel_size: 3
    weight_filler {
      type: "gaussian"
      std: 0.01
    }
    bias_filler {
      type: "constant"
      value: 0
    }
    dilation: 2
  }
}
layer {
  name: "relu5_3"
  type: "ReLU"
  bottom: "conv5_3"
  top: "conv5_3"
}
layer {
  name: "conv_score"
  type: "Convolution"
  bottom: "conv5_3"
  top: "conv_score"
  param {
    lr_mult: 10
    decay_mult: 1
  }
  param {
    lr_mult: 20
    decay_mult: 0
  }
  convolution_param {
    num_output: 64
    pad: 0
    kernel_size: 1
    group: 64
    stride: 1
    weight_filler {
      type: "constant"
      value: 0.0001
    }
    bias_filler {
      type: "constant"
      value: 0
    }
  }
}
layer {
  name: "relu_score"
  type: "ReLU"
  bottom: "conv_score"
  top: "conv_score"
}
layer {
  name: "slicer_conv"
  type: "Slice"
  bottom: "conv_score"
  top: "score1"
  top: "score2"
  top: "score3"
  top: "score4"
  top: "score5"
  top: "score6"
  top: "score7"
  top: "score8"
  top: "score9"
  top: "score10"
  top: "score11"
  top: "score12"
  top: "score13"
  top: "score14"
  top: "score15"
  top: "score16"
  top: "score17"
  top: "score18"
  top: "score19"
  top: "score20"
  top: "score21"
  top: "score22"
  top: "score23"
  top: "score24"
  top: "score25"
  top: "score26"
  top: "score27"
  top: "score28"
  top: "score29"
  top: "score30"
  top: "score31"
  top: "score32"
  top: "score33"
  top: "score34"
  top: "score35"
  top: "score36"
  top: "score37"
  top: "score38"
  top: "score39"
  top: "score40"
  top: "score41"
  top: "score42"
  top: "score43"
  top: "score44"
  top: "score45"
  top: "score46"
  top: "score47"
  top: "score48"
  top: "score49"
  top: "score50"
  top: "score51"
  top: "score52"
  top: "score53"
  top: "score54"
  top: "score55"
  top: "score56"
  top: "score57"
  top: "score58"
  top: "score59"
  top: "score60"
  top: "score61"
  top: "score62"
  top: "score63"
  top: "score64"
  slice_param {
    axis: 1
  }
}
layer {
  name: "sumscore"
  type: "Eltwise"
  bottom: "score1"
  bottom: "score2"
  bottom: "score3"
  bottom: "score4"
  bottom: "score5"
  bottom: "score6"
  bottom: "score7"
  bottom: "score8"
  bottom: "score9"
  bottom: "score10"
  bottom: "score11"
  bottom: "score12"
  bottom: "score13"
  bottom: "score14"
  bottom: "score15"
  bottom: "score16"
  bottom: "score17"
  bottom: "score18"
  bottom: "score19"
  bottom: "score20"
  bottom: "score21"
  bottom: "score22"
  bottom: "score23"
  bottom: "score24"
  bottom: "score25"
  bottom: "score26"
  bottom: "score27"
  bottom: "score28"
  bottom: "score29"
  bottom: "score30"
  bottom: "score31"
  bottom: "score32"
  bottom: "score33"
  bottom: "score34"
  bottom: "score35"
  bottom: "score36"
  bottom: "score37"
  bottom: "score38"
  bottom: "score39"
  bottom: "score40"
  bottom: "score41"
  bottom: "score42"
  bottom: "score43"
  bottom: "score44"
  bottom: "score45"
  bottom: "score46"
  bottom: "score47"
  bottom: "score48"
  bottom: "score49"
  bottom: "score50"
  bottom: "score51"
  bottom: "score52"
  bottom: "score53"
  bottom: "score54"
  bottom: "score55"
  bottom: "score56"
  bottom: "score57"
  bottom: "score58"
  bottom: "score59"
  bottom: "score60"
  bottom: "score61"
  bottom: "score62"
  bottom: "score63"
  bottom: "score64"
  top: "sumscore"
  eltwise_param {
    operation: SUM
  }
}
layer {
  name: "loss1"
  type: "NCLLoss"
  bottom: "score1"
  bottom: "label"
  bottom: "sumscore"
  top: "loss1"
  include {
    phase: TRAIN
  }
  ncl_loss_param {
    lambda: 0.001
    net_num: 64
  }
}
layer {
  name: "loss2"
  type: "NCLLoss"
  bottom: "score2"
  bottom: "label"
  bottom: "sumscore"
  top: "loss2"
  include {
    phase: TRAIN
  }
  ncl_loss_param {
    lambda: 0.001
    net_num: 64
  }
}
layer {
  name: "loss3"
  type: "NCLLoss"
  bottom: "score3"
  bottom: "label"
  bottom: "sumscore"
  top: "loss3"
  include {
    phase: TRAIN
  }
  ncl_loss_param {
    lambda: 0.001
    net_num: 64
  }
}
layer {
  name: "loss4"
  type: "NCLLoss"
  bottom: "score4"
  bottom: "label"
  bottom: "sumscore"
  top: "loss4"
  include {
    phase: TRAIN
  }
  ncl_loss_param {
    lambda: 0.001
    net_num: 64
  }
}
layer {
  name: "loss5"
  type: "NCLLoss"
  bottom: "score5"
  bottom: "label"
  bottom: "sumscore"
  top: "loss5"
  include {
    phase: TRAIN
  }
  ncl_loss_param {
    lambda: 0.001
    net_num: 64
  }
}
layer {
  name: "loss6"
  type: "NCLLoss"
  bottom: "score6"
  bottom: "label"
  bottom: "sumscore"
  top: "loss6"
  include {
    phase: TRAIN
  }
  ncl_loss_param {
    lambda: 0.001
    net_num: 64
  }
}
layer {
  name: "loss7"
  type: "NCLLoss"
  bottom: "score7"
  bottom: "label"
  bottom: "sumscore"
  top: "loss7"
  include {
    phase: TRAIN
  }
  ncl_loss_param {
    lambda: 0.001
    net_num: 64
  }
}
layer {
  name: "loss8"
  type: "NCLLoss"
  bottom: "score8"
  bottom: "label"
  bottom: "sumscore"
  top: "loss8"
  include {
    phase: TRAIN
  }
  ncl_loss_param {
    lambda: 0.001
    net_num: 64
  }
}
layer {
  name: "loss9"
  type: "NCLLoss"
  bottom: "score9"
  bottom: "label"
  bottom: "sumscore"
  top: "loss9"
  include {
    phase: TRAIN
  }
  ncl_loss_param {
    lambda: 0.001
    net_num: 64
  }
}
layer {
  name: "loss10"
  type: "NCLLoss"
  bottom: "score10"
  bottom: "label"
  bottom: "sumscore"
  top: "loss10"
  include {
    phase: TRAIN
  }
  ncl_loss_param {
    lambda: 0.001
    net_num: 64
  }
}
layer {
  name: "loss11"
  type: "NCLLoss"
  bottom: "score11"
  bottom: "label"
  bottom: "sumscore"
  top: "loss11"
  include {
    phase: TRAIN
  }
  ncl_loss_param {
    lambda: 0.001
    net_num: 64
  }
}
layer {
  name: "loss12"
  type: "NCLLoss"
  bottom: "score12"
  bottom: "label"
  bottom: "sumscore"
  top: "loss12"
  include {
    phase: TRAIN
  }
  ncl_loss_param {
    lambda: 0.001
    net_num: 64
  }
}
layer {
  name: "loss13"
  type: "NCLLoss"
  bottom: "score13"
  bottom: "label"
  bottom: "sumscore"
  top: "loss13"
  include {
    phase: TRAIN
  }
  ncl_loss_param {
    lambda: 0.001
    net_num: 64
  }
}
layer {
  name: "loss14"
  type: "NCLLoss"
  bottom: "score14"
  bottom: "label"
  bottom: "sumscore"
  top: "loss14"
  include {
    phase: TRAIN
  }
  ncl_loss_param {
    lambda: 0.001
    net_num: 64
  }
}
layer {
  name: "loss15"
  type: "NCLLoss"
  bottom: "score15"
  bottom: "label"
  bottom: "sumscore"
  top: "loss15"
  include {
    phase: TRAIN
  }
  ncl_loss_param {
    lambda: 0.001
    net_num: 64
  }
}
layer {
  name: "loss16"
  type: "NCLLoss"
  bottom: "score16"
  bottom: "label"
  bottom: "sumscore"
  top: "loss16"
  include {
    phase: TRAIN
  }
  ncl_loss_param {
    lambda: 0.001
    net_num: 64
  }
}
layer {
  name: "loss17"
  type: "NCLLoss"
  bottom: "score17"
  bottom: "label"
  bottom: "sumscore"
  top: "loss17"
  include {
    phase: TRAIN
  }
  ncl_loss_param {
    lambda: 0.001
    net_num: 64
  }
}
layer {
  name: "loss18"
  type: "NCLLoss"
  bottom: "score18"
  bottom: "label"
  bottom: "sumscore"
  top: "loss18"
  include {
    phase: TRAIN
  }
  ncl_loss_param {
    lambda: 0.001
    net_num: 64
  }
}
layer {
  name: "loss19"
  type: "NCLLoss"
  bottom: "score19"
  bottom: "label"
  bottom: "sumscore"
  top: "loss19"
  include {
    phase: TRAIN
  }
  ncl_loss_param {
    lambda: 0.001
    net_num: 64
  }
}
layer {
  name: "loss20"
  type: "NCLLoss"
  bottom: "score20"
  bottom: "label"
  bottom: "sumscore"
  top: "loss20"
  include {
    phase: TRAIN
  }
  ncl_loss_param {
    lambda: 0.001
    net_num: 64
  }
}
layer {
  name: "loss21"
  type: "NCLLoss"
  bottom: "score21"
  bottom: "label"
  bottom: "sumscore"
  top: "loss21"
  include {
    phase: TRAIN
  }
  ncl_loss_param {
    lambda: 0.001
    net_num: 64
  }
}
layer {
  name: "loss22"
  type: "NCLLoss"
  bottom: "score22"
  bottom: "label"
  bottom: "sumscore"
  top: "loss22"
  include {
    phase: TRAIN
  }
  ncl_loss_param {
    lambda: 0.001
    net_num: 64
  }
}
layer {
  name: "loss23"
  type: "NCLLoss"
  bottom: "score23"
  bottom: "label"
  bottom: "sumscore"
  top: "loss23"
  include {
    phase: TRAIN
  }
  ncl_loss_param {
    lambda: 0.001
    net_num: 64
  }
}
layer {
  name: "loss24"
  type: "NCLLoss"
  bottom: "score24"
  bottom: "label"
  bottom: "sumscore"
  top: "loss24"
  include {
    phase: TRAIN
  }
  ncl_loss_param {
    lambda: 0.001
    net_num: 64
  }
}
layer {
  name: "loss25"
  type: "NCLLoss"
  bottom: "score25"
  bottom: "label"
  bottom: "sumscore"
  top: "loss25"
  include {
    phase: TRAIN
  }
  ncl_loss_param {
    lambda: 0.001
    net_num: 64
  }
}
layer {
  name: "loss26"
  type: "NCLLoss"
  bottom: "score26"
  bottom: "label"
  bottom: "sumscore"
  top: "loss26"
  include {
    phase: TRAIN
  }
  ncl_loss_param {
    lambda: 0.001
    net_num: 64
  }
}
layer {
  name: "loss27"
  type: "NCLLoss"
  bottom: "score27"
  bottom: "label"
  bottom: "sumscore"
  top: "loss27"
  include {
    phase: TRAIN
  }
  ncl_loss_param {
    lambda: 0.001
    net_num: 64
  }
}
layer {
  name: "loss28"
  type: "NCLLoss"
  bottom: "score28"
  bottom: "label"
  bottom: "sumscore"
  top: "loss28"
  include {
    phase: TRAIN
  }
  ncl_loss_param {
    lambda: 0.001
    net_num: 64
  }
}
layer {
  name: "loss29"
  type: "NCLLoss"
  bottom: "score29"
  bottom: "label"
  bottom: "sumscore"
  top: "loss29"
  include {
    phase: TRAIN
  }
  ncl_loss_param {
    lambda: 0.001
    net_num: 64
  }
}
layer {
  name: "loss30"
  type: "NCLLoss"
  bottom: "score30"
  bottom: "label"
  bottom: "sumscore"
  top: "loss30"
  include {
    phase: TRAIN
  }
  ncl_loss_param {
    lambda: 0.001
    net_num: 64
  }
}
layer {
  name: "loss31"
  type: "NCLLoss"
  bottom: "score31"
  bottom: "label"
  bottom: "sumscore"
  top: "loss31"
  include {
    phase: TRAIN
  }
  ncl_loss_param {
    lambda: 0.001
    net_num: 64
  }
}
layer {
  name: "loss32"
  type: "NCLLoss"
  bottom: "score32"
  bottom: "label"
  bottom: "sumscore"
  top: "loss32"
  include {
    phase: TRAIN
  }
  ncl_loss_param {
    lambda: 0.001
    net_num: 64
  }
}
layer {
  name: "loss33"
  type: "NCLLoss"
  bottom: "score33"
  bottom: "label"
  bottom: "sumscore"
  top: "loss33"
  include {
    phase: TRAIN
  }
  ncl_loss_param {
    lambda: 0.001
    net_num: 64
  }
}
layer {
  name: "loss34"
  type: "NCLLoss"
  bottom: "score34"
  bottom: "label"
  bottom: "sumscore"
  top: "loss34"
  include {
    phase: TRAIN
  }
  ncl_loss_param {
    lambda: 0.001
    net_num: 64
  }
}
layer {
  name: "loss35"
  type: "NCLLoss"
  bottom: "score35"
  bottom: "label"
  bottom: "sumscore"
  top: "loss35"
  include {
    phase: TRAIN
  }
  ncl_loss_param {
    lambda: 0.001
    net_num: 64
  }
}
layer {
  name: "loss36"
  type: "NCLLoss"
  bottom: "score36"
  bottom: "label"
  bottom: "sumscore"
  top: "loss36"
  include {
    phase: TRAIN
  }
  ncl_loss_param {
    lambda: 0.001
    net_num: 64
  }
}
layer {
  name: "loss37"
  type: "NCLLoss"
  bottom: "score37"
  bottom: "label"
  bottom: "sumscore"
  top: "loss37"
  include {
    phase: TRAIN
  }
  ncl_loss_param {
    lambda: 0.001
    net_num: 64
  }
}
layer {
  name: "loss38"
  type: "NCLLoss"
  bottom: "score38"
  bottom: "label"
  bottom: "sumscore"
  top: "loss38"
  include {
    phase: TRAIN
  }
  ncl_loss_param {
    lambda: 0.001
    net_num: 64
  }
}
layer {
  name: "loss39"
  type: "NCLLoss"
  bottom: "score39"
  bottom: "label"
  bottom: "sumscore"
  top: "loss39"
  include {
    phase: TRAIN
  }
  ncl_loss_param {
    lambda: 0.001
    net_num: 64
  }
}
layer {
  name: "loss40"
  type: "NCLLoss"
  bottom: "score40"
  bottom: "label"
  bottom: "sumscore"
  top: "loss40"
  include {
    phase: TRAIN
  }
  ncl_loss_param {
    lambda: 0.001
    net_num: 64
  }
}
layer {
  name: "loss41"
  type: "NCLLoss"
  bottom: "score41"
  bottom: "label"
  bottom: "sumscore"
  top: "loss41"
  include {
    phase: TRAIN
  }
  ncl_loss_param {
    lambda: 0.001
    net_num: 64
  }
}
layer {
  name: "loss42"
  type: "NCLLoss"
  bottom: "score42"
  bottom: "label"
  bottom: "sumscore"
  top: "loss42"
  include {
    phase: TRAIN
  }
  ncl_loss_param {
    lambda: 0.001
    net_num: 64
  }
}
layer {
  name: "loss43"
  type: "NCLLoss"
  bottom: "score43"
  bottom: "label"
  bottom: "sumscore"
  top: "loss43"
  include {
    phase: TRAIN
  }
  ncl_loss_param {
    lambda: 0.001
    net_num: 64
  }
}
layer {
  name: "loss44"
  type: "NCLLoss"
  bottom: "score44"
  bottom: "label"
  bottom: "sumscore"
  top: "loss44"
  include {
    phase: TRAIN
  }
  ncl_loss_param {
    lambda: 0.001
    net_num: 64
  }
}
layer {
  name: "loss45"
  type: "NCLLoss"
  bottom: "score45"
  bottom: "label"
  bottom: "sumscore"
  top: "loss45"
  include {
    phase: TRAIN
  }
  ncl_loss_param {
    lambda: 0.001
    net_num: 64
  }
}
layer {
  name: "loss46"
  type: "NCLLoss"
  bottom: "score46"
  bottom: "label"
  bottom: "sumscore"
  top: "loss46"
  include {
    phase: TRAIN
  }
  ncl_loss_param {
    lambda: 0.001
    net_num: 64
  }
}
layer {
  name: "loss47"
  type: "NCLLoss"
  bottom: "score47"
  bottom: "label"
  bottom: "sumscore"
  top: "loss47"
  include {
    phase: TRAIN
  }
  ncl_loss_param {
    lambda: 0.001
    net_num: 64
  }
}
layer {
  name: "loss48"
  type: "NCLLoss"
  bottom: "score48"
  bottom: "label"
  bottom: "sumscore"
  top: "loss48"
  include {
    phase: TRAIN
  }
  ncl_loss_param {
    lambda: 0.001
    net_num: 64
  }
}
layer {
  name: "loss49"
  type: "NCLLoss"
  bottom: "score49"
  bottom: "label"
  bottom: "sumscore"
  top: "loss49"
  include {
    phase: TRAIN
  }
  ncl_loss_param {
    lambda: 0.001
    net_num: 64
  }
}
layer {
  name: "loss50"
  type: "NCLLoss"
  bottom: "score50"
  bottom: "label"
  bottom: "sumscore"
  top: "loss50"
  include {
    phase: TRAIN
  }
  ncl_loss_param {
    lambda: 0.001
    net_num: 64
  }
}
layer {
  name: "loss51"
  type: "NCLLoss"
  bottom: "score51"
  bottom: "label"
  bottom: "sumscore"
  top: "loss51"
  include {
    phase: TRAIN
  }
  ncl_loss_param {
    lambda: 0.001
    net_num: 64
  }
}
layer {
  name: "loss52"
  type: "NCLLoss"
  bottom: "score52"
  bottom: "label"
  bottom: "sumscore"
  top: "loss52"
  include {
    phase: TRAIN
  }
  ncl_loss_param {
    lambda: 0.001
    net_num: 64
  }
}
layer {
  name: "loss53"
  type: "NCLLoss"
  bottom: "score53"
  bottom: "label"
  bottom: "sumscore"
  top: "loss53"
  include {
    phase: TRAIN
  }
  ncl_loss_param {
    lambda: 0.001
    net_num: 64
  }
}
layer {
  name: "loss54"
  type: "NCLLoss"
  bottom: "score54"
  bottom: "label"
  bottom: "sumscore"
  top: "loss54"
  include {
    phase: TRAIN
  }
  ncl_loss_param {
    lambda: 0.001
    net_num: 64
  }
}
layer {
  name: "loss55"
  type: "NCLLoss"
  bottom: "score55"
  bottom: "label"
  bottom: "sumscore"
  top: "loss55"
  include {
    phase: TRAIN
  }
  ncl_loss_param {
    lambda: 0.001
    net_num: 64
  }
}
layer {
  name: "loss56"
  type: "NCLLoss"
  bottom: "score56"
  bottom: "label"
  bottom: "sumscore"
  top: "loss56"
  include {
    phase: TRAIN
  }
  ncl_loss_param {
    lambda: 0.001
    net_num: 64
  }
}
layer {
  name: "loss57"
  type: "NCLLoss"
  bottom: "score57"
  bottom: "label"
  bottom: "sumscore"
  top: "loss57"
  include {
    phase: TRAIN
  }
  ncl_loss_param {
    lambda: 0.001
    net_num: 64
  }
}
layer {
  name: "loss58"
  type: "NCLLoss"
  bottom: "score58"
  bottom: "label"
  bottom: "sumscore"
  top: "loss58"
  include {
    phase: TRAIN
  }
  ncl_loss_param {
    lambda: 0.001
    net_num: 64
  }
}
layer {
  name: "loss59"
  type: "NCLLoss"
  bottom: "score59"
  bottom: "label"
  bottom: "sumscore"
  top: "loss59"
  include {
    phase: TRAIN
  }
  ncl_loss_param {
    lambda: 0.001
    net_num: 64
  }
}
layer {
  name: "loss60"
  type: "NCLLoss"
  bottom: "score60"
  bottom: "label"
  bottom: "sumscore"
  top: "loss60"
  include {
    phase: TRAIN
  }
  ncl_loss_param {
    lambda: 0.001
    net_num: 64
  }
}
layer {
  name: "loss61"
  type: "NCLLoss"
  bottom: "score61"
  bottom: "label"
  bottom: "sumscore"
  top: "loss61"
  include {
    phase: TRAIN
  }
  ncl_loss_param {
    lambda: 0.001
    net_num: 64
  }
}
layer {
  name: "loss62"
  type: "NCLLoss"
  bottom: "score62"
  bottom: "label"
  bottom: "sumscore"
  top: "loss62"
  include {
    phase: TRAIN
  }
  ncl_loss_param {
    lambda: 0.001
    net_num: 64
  }
}
layer {
  name: "loss63"
  type: "NCLLoss"
  bottom: "score63"
  bottom: "label"
  bottom: "sumscore"
  top: "loss63"
  include {
    phase: TRAIN
  }
  ncl_loss_param {
    lambda: 0.001
    net_num: 64
  }
}
layer {
  name: "loss64"
  type: "NCLLoss"
  bottom: "score64"
  bottom: "label"
  bottom: "sumscore"
  top: "loss64"
  include {
    phase: TRAIN
  }
  ncl_loss_param {
    lambda: 0.001
    net_num: 64
  }
}
I0727 10:34:52.671651 24021 layer_factory.hpp:77] Creating layer data
I0727 10:34:52.672029 24021 db_lmdb.cpp:35] Opened lmdb /home/peiyong/Work/Zenglin/szl/ShanghaiTech/partA/train_8/image_lmdb
I0727 10:34:52.672065 24021 net.cpp:84] Creating Layer data
I0727 10:34:52.672075 24021 net.cpp:380] data -> data
I0727 10:34:52.675256 24021 data_layer.cpp:45] output data size: 1,3,384,512
I0727 10:34:52.681762 24021 net.cpp:122] Setting up data
I0727 10:34:52.681783 24021 net.cpp:129] Top shape: 1 3 384 512 (589824)
I0727 10:34:52.681787 24021 net.cpp:137] Memory required for data: 2359296
I0727 10:34:52.681795 24021 layer_factory.hpp:77] Creating layer label
I0727 10:34:52.681973 24021 db_lmdb.cpp:35] Opened lmdb /home/peiyong/Work/Zenglin/szl/ShanghaiTech/partA/train_8/dmap_lmdb
I0727 10:34:52.681996 24021 net.cpp:84] Creating Layer label
I0727 10:34:52.682004 24021 net.cpp:380] label -> label
I0727 10:34:52.682101 24021 data_layer.cpp:45] output data size: 1,1,48,64
I0727 10:34:52.683147 24021 net.cpp:122] Setting up label
I0727 10:34:52.683166 24021 net.cpp:129] Top shape: 1 1 48 64 (3072)
I0727 10:34:52.683169 24021 net.cpp:137] Memory required for data: 2371584
I0727 10:34:52.683172 24021 layer_factory.hpp:77] Creating layer label_label_0_split
I0727 10:34:52.683188 24021 net.cpp:84] Creating Layer label_label_0_split
I0727 10:34:52.683195 24021 net.cpp:406] label_label_0_split <- label
I0727 10:34:52.683212 24021 net.cpp:380] label_label_0_split -> label_label_0_split_0
…
I0727 10:34:52.683954 24021 net.cpp:380] label_label_0_split -> label_label_0_split_58
I0727 10:34:52.683964 24021 net.cpp:380] label_label_0_split -> label_label_0_split_59
I0727 10:34:52.683976 24021 net.cpp:380] label_label_0_split -> label_label_0_split_60
I0727 10:34:52.683989 24021 net.cpp:380] label_label_0_split -> label_label_0_split_61
I0727 10:34:52.684000 24021 net.cpp:380] label_label_0_split -> label_label_0_split_62
I0727 10:34:52.684020 24021 net.cpp:380] label_label_0_split -> label_label_0_split_63
I0727 10:34:52.684459 24021 net.cpp:122] Setting up label_label_0_split
I0727 10:34:52.684468 24021 net.cpp:129] Top shape: 1 1 48 64 (3072)
I0727 10:34:52.684473 24021 net.cpp:129] Top shape: 1 1 48 64 (3072)
I0727 10:34:52.684478 24021 net.cpp:129] Top shape: 1 1 48 64 (3072)
I0727 10:34:52.684482 24021 net.cpp:129] Top shape: 1 1 48 64 (3072)
I0727 10:34:52.684486 24021 net.cpp:129] Top shape: 1 1 48 64 (3072)
I0727 10:34:52.684491 24021 net.cpp:129] Top shape: 1 1 48 64 (3072)
I0727 10:34:52.684495 24021 net.cpp:129] Top shape: 1 1 48 64 (3072)
I0727 10:34:52.684499 24021 net.cpp:129] Top shape: 1 1 48 64 (3072)
I0727 10:34:52.684504 24021 net.cpp:129] Top shape: 1 1 48 64 (3072)
I0727 10:34:52.684509 24021 net.cpp:129] Top shape: 1 1 48 64 (3072)
I0727 10:34:52.684525 24021 net.cpp:129] Top shape: 1 1 48 64 (3072)
I0727 10:34:52.684531 24021 net.cpp:129] Top shape: 1 1 48 64 (3072)
I0727 10:34:52.684535 24021 net.cpp:129] Top shape: 1 1 48 64 (3072)
I0727 10:34:52.684537 24021 net.cpp:129] Top shape: 1 1 48 64 (3072)
I0727 10:34:52.684541 24021 net.cpp:129] Top shape: 1 1 48 64 (3072)
I0727 10:34:52.684546 24021 net.cpp:129] Top shape: 1 1 48 64 (3072)
I0727 10:34:52.684551 24021 net.cpp:129] Top shape: 1 1 48 64 (3072)
I0727 10:34:52.684554 24021 net.cpp:129] Top shape: 1 1 48 64 (3072)
I0727 10:34:52.684558 24021 net.cpp:129] Top shape: 1 1 48 64 (3072)
I0727 10:34:52.684563 24021 net.cpp:129] Top shape: 1 1 48 64 (3072)
I0727 10:34:52.684581 24021 net.cpp:129] Top shape: 1 1 48 64 (3072)
I0727 10:34:52.684586 24021 net.cpp:129] Top shape: 1 1 48 64 (3072)
I0727 10:34:52.684590 24021 net.cpp:129] Top shape: 1 1 48 64 (3072)
I0727 10:34:52.684614 24021 net.cpp:129] Top shape: 1 1 48 64 (3072)
I0727 10:34:52.684617 24021 net.cpp:129] Top shape: 1 1 48 64 (3072)
I0727 10:34:52.684623 24021 net.cpp:129] Top shape: 1 1 48 64 (3072)
I0727 10:34:52.684626 24021 net.cpp:129] Top shape: 1 1 48 64 (3072)
I0727 10:34:52.684633 24021 net.cpp:129] Top shape: 1 1 48 64 (3072)
I0727 10:34:52.684638 24021 net.cpp:129] Top shape: 1 1 48 64 (3072)
I0727 10:34:52.684645 24021 net.cpp:129] Top shape: 1 1 48 64 (3072)
I0727 10:34:52.684649 24021 net.cpp:129] Top shape: 1 1 48 64 (3072)
I0727 10:34:52.684654 24021 net.cpp:129] Top shape: 1 1 48 64 (3072)
I0727 10:34:52.684659 24021 net.cpp:129] Top shape: 1 1 48 64 (3072)
I0727 10:34:52.684666 24021 net.cpp:129] Top shape: 1 1 48 64 (3072)
I0727 10:34:52.684672 24021 net.cpp:129] Top shape: 1 1 48 64 (3072)
I0727 10:34:52.684677 24021 net.cpp:129] Top shape: 1 1 48 64 (3072)
I0727 10:34:52.684684 24021 net.cpp:129] Top shape: 1 1 48 64 (3072)
I0727 10:34:52.684689 24021 net.cpp:129] Top shape: 1 1 48 64 (3072)
I0727 10:34:52.684692 24021 net.cpp:129] Top shape: 1 1 48 64 (3072)
I0727 10:34:52.684696 24021 net.cpp:129] Top shape: 1 1 48 64 (3072)
I0727 10:34:52.684701 24021 net.cpp:129] Top shape: 1 1 48 64 (3072)
I0727 10:34:52.684706 24021 net.cpp:129] Top shape: 1 1 48 64 (3072)
I0727 10:34:52.684710 24021 net.cpp:129] Top shape: 1 1 48 64 (3072)
I0727 10:34:52.684720 24021 net.cpp:129] Top shape: 1 1 48 64 (3072)
I0727 10:34:52.684725 24021 net.cpp:129] Top shape: 1 1 48 64 (3072)
I0727 10:34:52.684729 24021 net.cpp:129] Top shape: 1 1 48 64 (3072)
I0727 10:34:52.684734 24021 net.cpp:129] Top shape: 1 1 48 64 (3072)
I0727 10:34:52.684742 24021 net.cpp:129] Top shape: 1 1 48 64 (3072)
I0727 10:34:52.684746 24021 net.cpp:129] Top shape: 1 1 48 64 (3072)
I0727 10:34:52.684751 24021 net.cpp:129] Top shape: 1 1 48 64 (3072)
I0727 10:34:52.684754 24021 net.cpp:129] Top shape: 1 1 48 64 (3072)
I0727 10:34:52.684759 24021 net.cpp:129] Top shape: 1 1 48 64 (3072)
I0727 10:34:52.684763 24021 net.cpp:129] Top shape: 1 1 48 64 (3072)
I0727 10:34:52.684768 24021 net.cpp:129] Top shape: 1 1 48 64 (3072)
I0727 10:34:52.684773 24021 net.cpp:129] Top shape: 1 1 48 64 (3072)
I0727 10:34:52.684777 24021 net.cpp:129] Top shape: 1 1 48 64 (3072)
I0727 10:34:52.684782 24021 net.cpp:129] Top shape: 1 1 48 64 (3072)
I0727 10:34:52.684787 24021 net.cpp:129] Top shape: 1 1 48 64 (3072)
I0727 10:34:52.684792 24021 net.cpp:129] Top shape: 1 1 48 64 (3072)
I0727 10:34:52.684797 24021 net.cpp:129] Top shape: 1 1 48 64 (3072)
I0727 10:34:52.684801 24021 net.cpp:129] Top shape: 1 1 48 64 (3072)
I0727 10:34:52.684806 24021 net.cpp:129] Top shape: 1 1 48 64 (3072)
I0727 10:34:52.684811 24021 net.cpp:129] Top shape: 1 1 48 64 (3072)
I0727 10:34:52.684816 24021 net.cpp:129] Top shape: 1 1 48 64 (3072)
I0727 10:34:52.684820 24021 net.cpp:137] Memory required for data: 3158016
I0727 10:34:52.684825 24021 layer_factory.hpp:77] Creating layer conv1_1
I0727 10:34:52.684841 24021 net.cpp:84] Creating Layer conv1_1
I0727 10:34:52.684846 24021 net.cpp:406] conv1_1 <- data
I0727 10:34:52.684854 24021 net.cpp:380] conv1_1 -> conv1_1
I0727 10:34:53.162922 24021 net.cpp:122] Setting up conv1_1
I0727 10:34:53.162964 24021 net.cpp:129] Top shape: 1 64 384 512 (12582912)
I0727 10:34:53.162969 24021 net.cpp:137] Memory required for data: 53489664
I0727 10:34:53.163000 24021 layer_factory.hpp:77] Creating layer relu1_1
I0727 10:34:53.163019 24021 net.cpp:84] Creating Layer relu1_1
I0727 10:34:53.163028 24021 net.cpp:406] relu1_1 <- conv1_1
I0727 10:34:53.163038 24021 net.cpp:367] relu1_1 -> conv1_1 (in-place)
I0727 10:34:53.163275 24021 net.cpp:122] Setting up relu1_1
I0727 10:34:53.163292 24021 net.cpp:129] Top shape: 1 64 384 512 (12582912)
I0727 10:34:53.163298 24021 net.cpp:137] Memory required for data: 103821312
I0727 10:34:53.163305 24021 layer_factory.hpp:77] Creating layer conv1_2
I0727 10:34:53.163324 24021 net.cpp:84] Creating Layer conv1_2
I0727 10:34:53.163331 24021 net.cpp:406] conv1_2 <- conv1_1
I0727 10:34:53.163341 24021 net.cpp:380] conv1_2 -> conv1_2
I0727 10:34:53.168009 24021 net.cpp:122] Setting up conv1_2
I0727 10:34:53.168031 24021 net.cpp:129] Top shape: 1 64 384 512 (12582912)
I0727 10:34:53.168036 24021 net.cpp:137] Memory required for data: 154152960
I0727 10:34:53.168050 24021 layer_factory.hpp:77] Creating layer relu1_2
I0727 10:34:53.168062 24021 net.cpp:84] Creating Layer relu1_2
I0727 10:34:53.168071 24021 net.cpp:406] relu1_2 <- conv1_2
I0727 10:34:53.168079 24021 net.cpp:367] relu1_2 -> conv1_2 (in-place)
I0727 10:34:53.168328 24021 net.cpp:122] Setting up relu1_2
I0727 10:34:53.168344 24021 net.cpp:129] Top shape: 1 64 384 512 (12582912)
I0727 10:34:53.168349 24021 net.cpp:137] Memory required for data: 204484608
I0727 10:34:53.168355 24021 layer_factory.hpp:77] Creating layer pool1
I0727 10:34:53.168371 24021 net.cpp:84] Creating Layer pool1
I0727 10:34:53.168380 24021 net.cpp:406] pool1 <- conv1_2
I0727 10:34:53.168387 24021 net.cpp:380] pool1 -> pool1
I0727 10:34:53.168473 24021 net.cpp:122] Setting up pool1
I0727 10:34:53.168486 24021 net.cpp:129] Top shape: 1 64 192 256 (3145728)
I0727 10:34:53.168491 24021 net.cpp:137] Memory required for data: 217067520
I0727 10:34:53.168499 24021 layer_factory.hpp:77] Creating layer conv2_1
I0727 10:34:53.168516 24021 net.cpp:84] Creating Layer conv2_1
I0727 10:34:53.168524 24021 net.cpp:406] conv2_1 <- pool1
I0727 10:34:53.168536 24021 net.cpp:380] conv2_1 -> conv2_1
I0727 10:34:53.172961 24021 net.cpp:122] Setting up conv2_1
I0727 10:34:53.172983 24021 net.cpp:129] Top shape: 1 128 192 256 (6291456)
I0727 10:34:53.172988 24021 net.cpp:137] Memory required for data: 242233344
I0727 10:34:53.173003 24021 layer_factory.hpp:77] Creating layer relu2_1
I0727 10:34:53.173015 24021 net.cpp:84] Creating Layer relu2_1
I0727 10:34:53.173022 24021 net.cpp:406] relu2_1 <- conv2_1
I0727 10:34:53.173029 24021 net.cpp:367] relu2_1 -> conv2_1 (in-place)
I0727 10:34:53.173884 24021 net.cpp:122] Setting up relu2_1
I0727 10:34:53.173905 24021 net.cpp:129] Top shape: 1 128 192 256 (6291456)
I0727 10:34:53.173912 24021 net.cpp:137] Memory required for data: 267399168
I0727 10:34:53.173918 24021 layer_factory.hpp:77] Creating layer conv2_2
I0727 10:34:53.173934 24021 net.cpp:84] Creating Layer conv2_2
I0727 10:34:53.173941 24021 net.cpp:406] conv2_2 <- conv2_1
I0727 10:34:53.173954 24021 net.cpp:380] conv2_2 -> conv2_2
I0727 10:34:53.178962 24021 net.cpp:122] Setting up conv2_2
I0727 10:34:53.178985 24021 net.cpp:129] Top shape: 1 128 192 256 (6291456)
I0727 10:34:53.178992 24021 net.cpp:137] Memory required for data: 292564992
I0727 10:34:53.179003 24021 layer_factory.hpp:77] Creating layer relu2_2
I0727 10:34:53.179015 24021 net.cpp:84] Creating Layer relu2_2
I0727 10:34:53.179023 24021 net.cpp:406] relu2_2 <- conv2_2
I0727 10:34:53.179031 24021 net.cpp:367] relu2_2 -> conv2_2 (in-place)
I0727 10:34:53.179266 24021 net.cpp:122] Setting up relu2_2
I0727 10:34:53.179282 24021 net.cpp:129] Top shape: 1 128 192 256 (6291456)
I0727 10:34:53.179288 24021 net.cpp:137] Memory required for data: 317730816
I0727 10:34:53.179296 24021 layer_factory.hpp:77] Creating layer pool2
I0727 10:34:53.179304 24021 net.cpp:84] Creating Layer pool2
I0727 10:34:53.179358 24021 net.cpp:406] pool2 <- conv2_2
I0727 10:34:53.179373 24021 net.cpp:380] pool2 -> pool2
I0727 10:34:53.179450 24021 net.cpp:122] Setting up pool2
I0727 10:34:53.179464 24021 net.cpp:129] Top shape: 1 128 96 128 (1572864)
I0727 10:34:53.179469 24021 net.cpp:137] Memory required for data: 324022272
I0727 10:34:53.179476 24021 layer_factory.hpp:77] Creating layer conv3_1
I0727 10:34:53.179491 24021 net.cpp:84] Creating Layer conv3_1
I0727 10:34:53.179498 24021 net.cpp:406] conv3_1 <- pool2
I0727 10:34:53.179510 24021 net.cpp:380] conv3_1 -> conv3_1
I0727 10:34:53.187001 24021 net.cpp:122] Setting up conv3_1
I0727 10:34:53.187022 24021 net.cpp:129] Top shape: 1 256 96 128 (3145728)
I0727 10:34:53.187026 24021 net.cpp:137] Memory required for data: 336605184
I0727 10:34:53.187041 24021 layer_factory.hpp:77] Creating layer relu3_1
I0727 10:34:53.187052 24021 net.cpp:84] Creating Layer relu3_1
I0727 10:34:53.187058 24021 net.cpp:406] relu3_1 <- conv3_1
I0727 10:34:53.187067 24021 net.cpp:367] relu3_1 -> conv3_1 (in-place)
I0727 10:34:53.187300 24021 net.cpp:122] Setting up relu3_1
I0727 10:34:53.187317 24021 net.cpp:129] Top shape: 1 256 96 128 (3145728)
I0727 10:34:53.187322 24021 net.cpp:137] Memory required for data: 349188096
I0727 10:34:53.187328 24021 layer_factory.hpp:77] Creating layer conv3_2
I0727 10:34:53.187342 24021 net.cpp:84] Creating Layer conv3_2
I0727 10:34:53.187350 24021 net.cpp:406] conv3_2 <- conv3_1
I0727 10:34:53.187360 24021 net.cpp:380] conv3_2 -> conv3_2
I0727 10:34:53.199856 24021 net.cpp:122] Setting up conv3_2
I0727 10:34:53.199878 24021 net.cpp:129] Top shape: 1 256 96 128 (3145728)
I0727 10:34:53.199882 24021 net.cpp:137] Memory required for data: 361771008
I0727 10:34:53.199892 24021 layer_factory.hpp:77] Creating layer relu3_2
I0727 10:34:53.199903 24021 net.cpp:84] Creating Layer relu3_2
I0727 10:34:53.199910 24021 net.cpp:406] relu3_2 <- conv3_2
I0727 10:34:53.199918 24021 net.cpp:367] relu3_2 -> conv3_2 (in-place)
I0727 10:34:53.200673 24021 net.cpp:122] Setting up relu3_2
I0727 10:34:53.200691 24021 net.cpp:129] Top shape: 1 256 96 128 (3145728)
I0727 10:34:53.200696 24021 net.cpp:137] Memory required for data: 374353920
I0727 10:34:53.200702 24021 layer_factory.hpp:77] Creating layer conv3_3
I0727 10:34:53.200716 24021 net.cpp:84] Creating Layer conv3_3
I0727 10:34:53.200728 24021 net.cpp:406] conv3_3 <- conv3_2
I0727 10:34:53.200738 24021 net.cpp:380] conv3_3 -> conv3_3
I0727 10:34:53.210770 24021 net.cpp:122] Setting up conv3_3
I0727 10:34:53.210789 24021 net.cpp:129] Top shape: 1 256 96 128 (3145728)
I0727 10:34:53.210794 24021 net.cpp:137] Memory required for data: 386936832
I0727 10:34:53.210803 24021 layer_factory.hpp:77] Creating layer relu3_3
I0727 10:34:53.210813 24021 net.cpp:84] Creating Layer relu3_3
I0727 10:34:53.210817 24021 net.cpp:406] relu3_3 <- conv3_3
I0727 10:34:53.210826 24021 net.cpp:367] relu3_3 -> conv3_3 (in-place)
I0727 10:34:53.211038 24021 net.cpp:122] Setting up relu3_3
I0727 10:34:53.211051 24021 net.cpp:129] Top shape: 1 256 96 128 (3145728)
I0727 10:34:53.211056 24021 net.cpp:137] Memory required for data: 399519744
I0727 10:34:53.211061 24021 layer_factory.hpp:77] Creating layer pool3
I0727 10:34:53.211071 24021 net.cpp:84] Creating Layer pool3
I0727 10:34:53.211077 24021 net.cpp:406] pool3 <- conv3_3
I0727 10:34:53.211086 24021 net.cpp:380] pool3 -> pool3
I0727 10:34:53.211153 24021 net.cpp:122] Setting up pool3
I0727 10:34:53.211161 24021 net.cpp:129] Top shape: 1 256 48 64 (786432)
I0727 10:34:53.211166 24021 net.cpp:137] Memory required for data: 402665472
I0727 10:34:53.211170 24021 layer_factory.hpp:77] Creating layer conv4_1
I0727 10:34:53.211182 24021 net.cpp:84] Creating Layer conv4_1
I0727 10:34:53.211189 24021 net.cpp:406] conv4_1 <- pool3
I0727 10:34:53.211199 24021 net.cpp:380] conv4_1 -> conv4_1
I0727 10:34:53.229137 24021 net.cpp:122] Setting up conv4_1
I0727 10:34:53.229171 24021 net.cpp:129] Top shape: 1 512 48 64 (1572864)
I0727 10:34:53.229181 24021 net.cpp:137] Memory required for data: 408956928
I0727 10:34:53.229239 24021 layer_factory.hpp:77] Creating layer relu4_1
I0727 10:34:53.229255 24021 net.cpp:84] Creating Layer relu4_1
I0727 10:34:53.229264 24021 net.cpp:406] relu4_1 <- conv4_1
I0727 10:34:53.229275 24021 net.cpp:367] relu4_1 -> conv4_1 (in-place)
I0727 10:34:53.229580 24021 net.cpp:122] Setting up relu4_1
I0727 10:34:53.229600 24021 net.cpp:129] Top shape: 1 512 48 64 (1572864)
I0727 10:34:53.229609 24021 net.cpp:137] Memory required for data: 415248384
I0727 10:34:53.229616 24021 layer_factory.hpp:77] Creating layer conv4_2
I0727 10:34:53.229635 24021 net.cpp:84] Creating Layer conv4_2
I0727 10:34:53.229645 24021 net.cpp:406] conv4_2 <- conv4_1
I0727 10:34:53.229657 24021 net.cpp:380] conv4_2 -> conv4_2
I0727 10:34:53.256673 24021 net.cpp:122] Setting up conv4_2
I0727 10:34:53.256703 24021 net.cpp:129] Top shape: 1 512 48 64 (1572864)
I0727 10:34:53.256709 24021 net.cpp:137] Memory required for data: 421539840
I0727 10:34:53.256726 24021 layer_factory.hpp:77] Creating layer relu4_2
I0727 10:34:53.256736 24021 net.cpp:84] Creating Layer relu4_2
I0727 10:34:53.256743 24021 net.cpp:406] relu4_2 <- conv4_2
I0727 10:34:53.256752 24021 net.cpp:367] relu4_2 -> conv4_2 (in-place)
I0727 10:34:53.257624 24021 net.cpp:122] Setting up relu4_2
I0727 10:34:53.257639 24021 net.cpp:129] Top shape: 1 512 48 64 (1572864)
I0727 10:34:53.257643 24021 net.cpp:137] Memory required for data: 427831296
I0727 10:34:53.257648 24021 layer_factory.hpp:77] Creating layer conv4_3
I0727 10:34:53.257661 24021 net.cpp:84] Creating Layer conv4_3
I0727 10:34:53.257666 24021 net.cpp:406] conv4_3 <- conv4_2
I0727 10:34:53.257674 24021 net.cpp:380] conv4_3 -> conv4_3
I0727 10:34:53.282508 24021 net.cpp:122] Setting up conv4_3
I0727 10:34:53.282536 24021 net.cpp:129] Top shape: 1 512 48 64 (1572864)
I0727 10:34:53.282539 24021 net.cpp:137] Memory required for data: 434122752
I0727 10:34:53.282547 24021 layer_factory.hpp:77] Creating layer relu4_3
I0727 10:34:53.282559 24021 net.cpp:84] Creating Layer relu4_3
I0727 10:34:53.282565 24021 net.cpp:406] relu4_3 <- conv4_3
I0727 10:34:53.282572 24021 net.cpp:367] relu4_3 -> conv4_3 (in-place)
I0727 10:34:53.282739 24021 net.cpp:122] Setting up relu4_3
I0727 10:34:53.282750 24021 net.cpp:129] Top shape: 1 512 48 64 (1572864)
I0727 10:34:53.282754 24021 net.cpp:137] Memory required for data: 440414208
I0727 10:34:53.282758 24021 layer_factory.hpp:77] Creating layer pool4
I0727 10:34:53.282768 24021 net.cpp:84] Creating Layer pool4
I0727 10:34:53.282773 24021 net.cpp:406] pool4 <- conv4_3
I0727 10:34:53.282779 24021 net.cpp:380] pool4 -> pool4
I0727 10:34:53.282825 24021 net.cpp:122] Setting up pool4
I0727 10:34:53.282833 24021 net.cpp:129] Top shape: 1 512 48 64 (1572864)
I0727 10:34:53.282836 24021 net.cpp:137] Memory required for data: 446705664
I0727 10:34:53.282840 24021 layer_factory.hpp:77] Creating layer conv5_1
I0727 10:34:53.282852 24021 net.cpp:84] Creating Layer conv5_1
I0727 10:34:53.282856 24021 net.cpp:406] conv5_1 <- pool4
I0727 10:34:53.282865 24021 net.cpp:380] conv5_1 -> conv5_1
I0727 10:34:53.305897 24021 net.cpp:122] Setting up conv5_1
I0727 10:34:53.305922 24021 net.cpp:129] Top shape: 1 512 48 64 (1572864)
I0727 10:34:53.305924 24021 net.cpp:137] Memory required for data: 452997120
I0727 10:34:53.305932 24021 layer_factory.hpp:77] Creating layer relu5_1
I0727 10:34:53.305939 24021 net.cpp:84] Creating Layer relu5_1
I0727 10:34:53.305944 24021 net.cpp:406] relu5_1 <- conv5_1
I0727 10:34:53.305953 24021 net.cpp:367] relu5_1 -> conv5_1 (in-place)
I0727 10:34:53.306584 24021 net.cpp:122] Setting up relu5_1
I0727 10:34:53.306596 24021 net.cpp:129] Top shape: 1 512 48 64 (1572864)
I0727 10:34:53.306599 24021 net.cpp:137] Memory required for data: 459288576
I0727 10:34:53.306602 24021 layer_factory.hpp:77] Creating layer conv5_2
I0727 10:34:53.306613 24021 net.cpp:84] Creating Layer conv5_2
I0727 10:34:53.306617 24021 net.cpp:406] conv5_2 <- conv5_1
I0727 10:34:53.306624 24021 net.cpp:380] conv5_2 -> conv5_2
I0727 10:34:53.328009 24021 net.cpp:122] Setting up conv5_2
I0727 10:34:53.328061 24021 net.cpp:129] Top shape: 1 512 48 64 (1572864)
I0727 10:34:53.328065 24021 net.cpp:137] Memory required for data: 465580032
I0727 10:34:53.328071 24021 layer_factory.hpp:77] Creating layer relu5_2
I0727 10:34:53.328078 24021 net.cpp:84] Creating Layer relu5_2
I0727 10:34:53.328083 24021 net.cpp:406] relu5_2 <- conv5_2
I0727 10:34:53.328088 24021 net.cpp:367] relu5_2 -> conv5_2 (in-place)
I0727 10:34:53.328279 24021 net.cpp:122] Setting up relu5_2
I0727 10:34:53.328290 24021 net.cpp:129] Top shape: 1 512 48 64 (1572864)
I0727 10:34:53.328294 24021 net.cpp:137] Memory required for data: 471871488
I0727 10:34:53.328299 24021 layer_factory.hpp:77] Creating layer conv5_3
I0727 10:34:53.328311 24021 net.cpp:84] Creating Layer conv5_3
I0727 10:34:53.328316 24021 net.cpp:406] conv5_3 <- conv5_2
I0727 10:34:53.328323 24021 net.cpp:380] conv5_3 -> conv5_3
I0727 10:34:53.351233 24021 net.cpp:122] Setting up conv5_3
I0727 10:34:53.351258 24021 net.cpp:129] Top shape: 1 512 48 64 (1572864)
I0727 10:34:53.351263 24021 net.cpp:137] Memory required for data: 478162944
I0727 10:34:53.351271 24021 layer_factory.hpp:77] Creating layer relu5_3
I0727 10:34:53.351286 24021 net.cpp:84] Creating Layer relu5_3
I0727 10:34:53.351292 24021 net.cpp:406] relu5_3 <- conv5_3
I0727 10:34:53.351300 24021 net.cpp:367] relu5_3 -> conv5_3 (in-place)
I0727 10:34:53.351959 24021 net.cpp:122] Setting up relu5_3
I0727 10:34:53.351972 24021 net.cpp:129] Top shape: 1 512 48 64 (1572864)
I0727 10:34:53.351976 24021 net.cpp:137] Memory required for data: 484454400
I0727 10:34:53.351981 24021 layer_factory.hpp:77] Creating layer conv_score
I0727 10:34:53.351994 24021 net.cpp:84] Creating Layer conv_score
I0727 10:34:53.351999 24021 net.cpp:406] conv_score <- conv5_3
I0727 10:34:53.352007 24021 net.cpp:380] conv_score -> conv_score
I0727 10:34:53.429823 24021 net.cpp:122] Setting up conv_score
I0727 10:34:53.429846 24021 net.cpp:129] Top shape: 1 64 48 64 (196608)
I0727 10:34:53.429848 24021 net.cpp:137] Memory required for data: 485240832
I0727 10:34:53.429857 24021 layer_factory.hpp:77] Creating layer relu_score
I0727 10:34:53.429864 24021 net.cpp:84] Creating Layer relu_score
I0727 10:34:53.429868 24021 net.cpp:406] relu_score <- conv_score
I0727 10:34:53.429877 24021 net.cpp:367] relu_score -> conv_score (in-place)
I0727 10:34:53.430059 24021 net.cpp:122] Setting up relu_score
I0727 10:34:53.430069 24021 net.cpp:129] Top shape: 1 64 48 64 (196608)
I0727 10:34:53.430073 24021 net.cpp:137] Memory required for data: 486027264
I0727 10:34:53.430076 24021 layer_factory.hpp:77] Creating layer slicer_conv
I0727 10:34:53.430089 24021 net.cpp:84] Creating Layer slicer_conv
I0727 10:34:53.430094 24021 net.cpp:406] slicer_conv <- conv_score
I0727 10:34:53.430104 24021 net.cpp:380] slicer_conv -> score1
I0727 10:34:53.430119 24021 net.cpp:380] slicer_conv -> score2
…
I0727 10:34:53.430655 24021 net.cpp:380] slicer_conv -> score57
I0727 10:34:53.430663 24021 net.cpp:380] slicer_conv -> score58
I0727 10:34:53.430671 24021 net.cpp:380] slicer_conv -> score59
I0727 10:34:53.430680 24021 net.cpp:380] slicer_conv -> score60
I0727 10:34:53.430690 24021 net.cpp:380] slicer_conv -> score61
I0727 10:34:53.430697 24021 net.cpp:380] slicer_conv -> score62
I0727 10:34:53.430706 24021 net.cpp:380] slicer_conv -> score63
I0727 10:34:53.430716 24021 net.cpp:380] slicer_conv -> score64
I0727 10:34:53.431489 24021 net.cpp:122] Setting up slicer_conv
I0727 10:34:53.431498 24021 net.cpp:129] Top shape: 1 1 48 64 (3072)
I0727 10:34:53.431502 24021 net.cpp:129] Top shape: 1 1 48 64 (3072)
I0727 10:34:53.431506 24021 net.cpp:129] Top shape: 1 1 48 64 (3072)
I0727 10:34:53.431510 24021 net.cpp:129] Top shape: 1 1 48 64 (3072)
I0727 10:34:53.431515 24021 net.cpp:129] Top shape: 1 1 48 64 (3072)
I0727 10:34:53.431519 24021 net.cpp:129] Top shape: 1 1 48 64 (3072)
I0727 10:34:53.431524 24021 net.cpp:129] Top shape: 1 1 48 64 (3072)
I0727 10:34:53.431527 24021 net.cpp:129] Top shape: 1 1 48 64 (3072)
I0727 10:34:53.431532 24021 net.cpp:129] Top shape: 1 1 48 64 (3072)
I0727 10:34:53.431536 24021 net.cpp:129] Top shape: 1 1 48 64 (3072)
I0727 10:34:53.431540 24021 net.cpp:129] Top shape: 1 1 48 64 (3072)
I0727 10:34:53.431545 24021 net.cpp:129] Top shape: 1 1 48 64 (3072)
I0727 10:34:53.431548 24021 net.cpp:129] Top shape: 1 1 48 64 (3072)
I0727 10:34:53.431553 24021 net.cpp:129] Top shape: 1 1 48 64 (3072)
I0727 10:34:53.431557 24021 net.cpp:129] Top shape: 1 1 48 64 (3072)
I0727 10:34:53.431561 24021 net.cpp:129] Top shape: 1 1 48 64 (3072)
I0727 10:34:53.431565 24021 net.cpp:129] Top shape: 1 1 48 64 (3072)
I0727 10:34:53.431569 24021 net.cpp:129] Top shape: 1 1 48 64 (3072)
I0727 10:34:53.431574 24021 net.cpp:129] Top shape: 1 1 48 64 (3072)
I0727 10:34:53.431591 24021 net.cpp:129] Top shape: 1 1 48 64 (3072)
I0727 10:34:53.431594 24021 net.cpp:129] Top shape: 1 1 48 64 (3072)
I0727 10:34:53.431597 24021 net.cpp:129] Top shape: 1 1 48 64 (3072)
I0727 10:34:53.431599 24021 net.cpp:129] Top shape: 1 1 48 64 (3072)
I0727 10:34:53.431602 24021 net.cpp:129] Top shape: 1 1 48 64 (3072)
I0727 10:34:53.431605 24021 net.cpp:129] Top shape: 1 1 48 64 (3072)
I0727 10:34:53.431608 24021 net.cpp:129] Top shape: 1 1 48 64 (3072)
I0727 10:34:53.431610 24021 net.cpp:129] Top shape: 1 1 48 64 (3072)
I0727 10:34:53.431613 24021 net.cpp:129] Top shape: 1 1 48 64 (3072)
I0727 10:34:53.431617 24021 net.cpp:129] Top shape: 1 1 48 64 (3072)
I0727 10:34:53.431620 24021 net.cpp:129] Top shape: 1 1 48 64 (3072)
I0727 10:34:53.431624 24021 net.cpp:129] Top shape: 1 1 48 64 (3072)
I0727 10:34:53.431629 24021 net.cpp:129] Top shape: 1 1 48 64 (3072)
I0727 10:34:53.431633 24021 net.cpp:129] Top shape: 1 1 48 64 (3072)
I0727 10:34:53.431638 24021 net.cpp:129] Top shape: 1 1 48 64 (3072)
I0727 10:34:53.431641 24021 net.cpp:129] Top shape: 1 1 48 64 (3072)
I0727 10:34:53.431645 24021 net.cpp:129] Top shape: 1 1 48 64 (3072)
I0727 10:34:53.431649 24021 net.cpp:129] Top shape: 1 1 48 64 (3072)
I0727 10:34:53.431653 24021 net.cpp:129] Top shape: 1 1 48 64 (3072)
I0727 10:34:53.431656 24021 net.cpp:129] Top shape: 1 1 48 64 (3072)
I0727 10:34:53.431660 24021 net.cpp:129] Top shape: 1 1 48 64 (3072)
I0727 10:34:53.431664 24021 net.cpp:129] Top shape: 1 1 48 64 (3072)
I0727 10:34:53.431669 24021 net.cpp:129] Top shape: 1 1 48 64 (3072)
I0727 10:34:53.431673 24021 net.cpp:129] Top shape: 1 1 48 64 (3072)
I0727 10:34:53.431677 24021 net.cpp:129] Top shape: 1 1 48 64 (3072)
I0727 10:34:53.431681 24021 net.cpp:129] Top shape: 1 1 48 64 (3072)
I0727 10:34:53.431686 24021 net.cpp:129] Top shape: 1 1 48 64 (3072)
I0727 10:34:53.431690 24021 net.cpp:129] Top shape: 1 1 48 64 (3072)
I0727 10:34:53.431694 24021 net.cpp:129] Top shape: 1 1 48 64 (3072)
I0727 10:34:53.431699 24021 net.cpp:129] Top shape: 1 1 48 64 (3072)
I0727 10:34:53.431702 24021 net.cpp:129] Top shape: 1 1 48 64 (3072)
I0727 10:34:53.431706 24021 net.cpp:129] Top shape: 1 1 48 64 (3072)
I0727 10:34:53.431711 24021 net.cpp:129] Top shape: 1 1 48 64 (3072)
I0727 10:34:53.431715 24021 net.cpp:129] Top shape: 1 1 48 64 (3072)
I0727 10:34:53.431720 24021 net.cpp:129] Top shape: 1 1 48 64 (3072)
I0727 10:34:53.431723 24021 net.cpp:129] Top shape: 1 1 48 64 (3072)
I0727 10:34:53.431727 24021 net.cpp:129] Top shape: 1 1 48 64 (3072)
I0727 10:34:53.431731 24021 net.cpp:129] Top shape: 1 1 48 64 (3072)
I0727 10:34:53.431735 24021 net.cpp:129] Top shape: 1 1 48 64 (3072)
I0727 10:34:53.431740 24021 net.cpp:129] Top shape: 1 1 48 64 (3072)
I0727 10:34:53.431743 24021 net.cpp:129] Top shape: 1 1 48 64 (3072)
I0727 10:34:53.431747 24021 net.cpp:129] Top shape: 1 1 48 64 (3072)
I0727 10:34:53.431752 24021 net.cpp:129] Top shape: 1 1 48 64 (3072)
I0727 10:34:53.431756 24021 net.cpp:129] Top shape: 1 1 48 64 (3072)
I0727 10:34:53.431761 24021 net.cpp:129] Top shape: 1 1 48 64 (3072)
I0727 10:34:53.431763 24021 net.cpp:137] Memory required for data: 486813696
I0727 10:34:53.431768 24021 layer_factory.hpp:77] Creating layer score1_slicer_conv_0_split
I0727 10:34:53.431776 24021 net.cpp:84] Creating Layer score1_slicer_conv_0_split
I0727 10:34:53.431780 24021 net.cpp:406] score1_slicer_conv_0_split <- score1
I0727 10:34:53.431788 24021 net.cpp:380] score1_slicer_conv_0_split -> score1_slicer_conv_0_split_0
I0727 10:34:53.431795 24021 net.cpp:380] score1_slicer_conv_0_split -> score1_slicer_conv_0_split_1
I0727 10:34:53.431841 24021 net.cpp:122] Setting up score1_slicer_conv_0_split
I0727 10:34:53.431849 24021 net.cpp:129] Top shape: 1 1 48 64 (3072)
I0727 10:34:53.431854 24021 net.cpp:129] Top shape: 1 1 48 64 (3072)
I0727 10:34:53.431857 24021 net.cpp:137] Memory required for data: 486838272
I0727 10:34:53.431861 24021 layer_factory.hpp:77] Creating layer score2_slicer_conv_1_split
I0727 10:34:53.431866 24021 net.cpp:84] Creating Layer score2_slicer_conv_1_split
I0727 10:34:53.431879 24021 net.cpp:406] score2_slicer_conv_1_split <- score2
I0727 10:34:53.431885 24021 net.cpp:380] score2_slicer_conv_1_split -> score2_slicer_conv_1_split_0
I0727 10:34:53.431892 24021 net.cpp:380] score2_slicer_conv_1_split -> score2_slicer_conv_1_split_1
I0727 10:34:53.431937 24021 net.cpp:122] Setting up score2_slicer_conv_1_split
I0727 10:34:53.431944 24021 net.cpp:129] Top shape: 1 1 48 64 (3072)
I0727 10:34:53.431948 24021 net.cpp:129] Top shape: 1 1 48 64 (3072)
I0727 10:34:53.431951 24021 net.cpp:137] Memory required for data: 486862848
I0727 10:34:53.431957 24021 layer_factory.hpp:77] Creating layer score3_slicer_conv_2_split
I0727 10:34:53.431962 24021 net.cpp:84] Creating Layer score3_slicer_conv_2_split
I0727 10:34:53.431967 24021 net.cpp:406] score3_slicer_conv_2_split <- score3
I0727 10:34:53.431972 24021 net.cpp:380] score3_slicer_conv_2_split -> score3_slicer_conv_2_split_0
I0727 10:34:53.431978 24021 net.cpp:380] score3_slicer_conv_2_split -> score3_slicer_conv_2_split_1
I0727 10:34:53.432020 24021 net.cpp:122] Setting up score3_slicer_conv_2_split
I0727 10:34:53.432026 24021 net.cpp:129] Top shape: 1 1 48 64 (3072)
I0727 10:34:53.432031 24021 net.cpp:129] Top shape: 1 1 48 64 (3072)
I0727 10:34:53.432034 24021 net.cpp:137] Memory required for data: 486887424
I0727 10:34:53.432039 24021 layer_factory.hpp:77] Creating layer score4_slicer_conv_3_split
I0727 10:34:53.432044 24021 net.cpp:84] Creating Layer score4_slicer_conv_3_split
I0727 10:34:53.432049 24021 net.cpp:406] score4_slicer_conv_3_split <- score4
I0727 10:34:53.432054 24021 net.cpp:380] score4_slicer_conv_3_split -> score4_slicer_conv_3_split_0
I0727 10:34:53.432061 24021 net.cpp:380] score4_slicer_conv_3_split -> score4_slicer_conv_3_split_1
I0727 10:34:53.432102 24021 net.cpp:122] Setting up score4_slicer_conv_3_split
I0727 10:34:53.432109 24021 net.cpp:129] Top shape: 1 1 48 64 (3072)
I0727 10:34:53.432113 24021 net.cpp:129] Top shape: 1 1 48 64 (3072)
I0727 10:34:53.432117 24021 net.cpp:137] Memory required for data: 486912000
I0727 10:34:53.432121 24021 layer_factory.hpp:77] Creating layer score5_slicer_conv_4_split
I0727 10:34:53.432126 24021 net.cpp:84] Creating Layer score5_slicer_conv_4_split
I0727 10:34:53.432129 24021 net.cpp:406] score5_slicer_conv_4_split <- score5
I0727 10:34:53.432137 24021 net.cpp:380] score5_slicer_conv_4_split -> score5_slicer_conv_4_split_0
I0727 10:34:53.432142 24021 net.cpp:380] score5_slicer_conv_4_split -> score5_slicer_conv_4_split_1
I0727 10:34:53.432183 24021 net.cpp:122] Setting up score5_slicer_conv_4_split
I0727 10:34:53.432188 24021 net.cpp:129] Top shape: 1 1 48 64 (3072)
I0727 10:34:53.432193 24021 net.cpp:129] Top shape: 1 1 48 64 (3072)
I0727 10:34:53.432196 24021 net.cpp:137] Memory required for data: 486936576
I0727 10:34:53.432200 24021 layer_factory.hpp:77] Creating layer score6_slicer_conv_5_split
I0727 10:34:53.432205 24021 net.cpp:84] Creating Layer score6_slicer_conv_5_split
I0727 10:34:53.432209 24021 net.cpp:406] score6_slicer_conv_5_split <- score6
I0727 10:34:53.432214 24021 net.cpp:380] score6_slicer_conv_5_split -> score6_slicer_conv_5_split_0
I0727 10:34:53.432220 24021 net.cpp:380] score6_slicer_conv_5_split -> score6_slicer_conv_5_split_1
I0727 10:34:53.432258 24021 net.cpp:122] Setting up score6_slicer_conv_5_split
I0727 10:34:53.432265 24021 net.cpp:129] Top shape: 1 1 48 64 (3072)
I0727 10:34:53.432270 24021 net.cpp:129] Top shape: 1 1 48 64 (3072)
I0727 10:34:53.432272 24021 net.cpp:137] Memory required for data: 486961152
I0727 10:34:53.432276 24021 layer_factory.hpp:77] Creating layer score7_slicer_conv_6_split
I0727 10:34:53.432281 24021 net.cpp:84] Creating Layer score7_slicer_conv_6_split
I0727 10:34:53.432284 24021 net.cpp:406] score7_slicer_conv_6_split <- score7
I0727 10:34:53.432291 24021 net.cpp:380] score7_slicer_conv_6_split -> score7_slicer_conv_6_split_0
I0727 10:34:53.432297 24021 net.cpp:380] score7_slicer_conv_6_split -> score7_slicer_conv_6_split_1
I0727 10:34:53.432335 24021 net.cpp:122] Setting up score7_slicer_conv_6_split
I0727 10:34:53.432350 24021 net.cpp:129] Top shape: 1 1 48 64 (3072)
I0727 10:34:53.432354 24021 net.cpp:129] Top shape: 1 1 48 64 (3072)
I0727 10:34:53.432358 24021 net.cpp:137] Memory required for data: 486985728
I0727 10:34:53.432363 24021 layer_factory.hpp:77] Creating layer score8_slicer_conv_7_split
I0727 10:34:53.432369 24021 net.cpp:84] Creating Layer score8_slicer_conv_7_split
I0727 10:34:53.432374 24021 net.cpp:406] score8_slicer_conv_7_split <- score8
I0727 10:34:53.432379 24021 net.cpp:380] score8_slicer_conv_7_split -> score8_slicer_conv_7_split_0
I0727 10:34:53.432385 24021 net.cpp:380] score8_slicer_conv_7_split -> score8_slicer_conv_7_split_1
I0727 10:34:53.432431 24021 net.cpp:122] Setting up score8_slicer_conv_7_split
I0727 10:34:53.432438 24021 net.cpp:129] Top shape: 1 1 48 64 (3072)
I0727 10:34:53.432442 24021 net.cpp:129] Top shape: 1 1 48 64 (3072)
I0727 10:34:53.432446 24021 net.cpp:137] Memory required for data: 487010304
I0727 10:34:53.432449 24021 layer_factory.hpp:77] Creating layer score9_slicer_conv_8_split
I0727 10:34:53.432456 24021 net.cpp:84] Creating Layer score9_slicer_conv_8_split
I0727 10:34:53.432459 24021 net.cpp:406] score9_slicer_conv_8_split <- score9
I0727 10:34:53.432466 24021 net.cpp:380] score9_slicer_conv_8_split -> score9_slicer_conv_8_split_0
I0727 10:34:53.432472 24021 net.cpp:380] score9_slicer_conv_8_split -> score9_slicer_conv_8_split_1
I0727 10:34:53.432512 24021 net.cpp:122] Setting up score9_slicer_conv_8_split
I0727 10:34:53.432518 24021 net.cpp:129] Top shape: 1 1 48 64 (3072)
I0727 10:34:53.432523 24021 net.cpp:129] Top shape: 1 1 48 64 (3072)
I0727 10:34:53.432525 24021 net.cpp:137] Memory required for data: 487034880
I0727 10:34:53.432528 24021 layer_factory.hpp:77] Creating layer score10_slicer_conv_9_split
I0727 10:34:53.432534 24021 net.cpp:84] Creating Layer score10_slicer_conv_9_split
I0727 10:34:53.432539 24021 net.cpp:406] score10_slicer_conv_9_split <- score10
I0727 10:34:53.432545 24021 net.cpp:380] score10_slicer_conv_9_split -> score10_slicer_conv_9_split_0
I0727 10:34:53.432551 24021 net.cpp:380] score10_slicer_conv_9_split -> score10_slicer_conv_9_split_1
I0727 10:34:53.432590 24021 net.cpp:122] Setting up score10_slicer_conv_9_split
I0727 10:34:53.432597 24021 net.cpp:129] Top shape: 1 1 48 64 (3072)
I0727 10:34:53.432601 24021 net.cpp:129] Top shape: 1 1 48 64 (3072)
I0727 10:34:53.432605 24021 net.cpp:137] Memory required for data: 487059456
I0727 10:34:53.432608 24021 layer_factory.hpp:77] Creating layer score11_slicer_conv_10_split
I0727 10:34:53.432615 24021 net.cpp:84] Creating Layer score11_slicer_conv_10_split
I0727 10:34:53.432620 24021 net.cpp:406] score11_slicer_conv_10_split <- score11
I0727 10:34:53.432624 24021 net.cpp:380] score11_slicer_conv_10_split -> score11_slicer_conv_10_split_0
I0727 10:34:53.432631 24021 net.cpp:380] score11_slicer_conv_10_split -> score11_slicer_conv_10_split_1
I0727 10:34:53.432672 24021 net.cpp:122] Setting up score11_slicer_conv_10_split
I0727 10:34:53.432678 24021 net.cpp:129] Top shape: 1 1 48 64 (3072)
I0727 10:34:53.432682 24021 net.cpp:129] Top shape: 1 1 48 64 (3072)
I0727 10:34:53.432687 24021 net.cpp:137] Memory required for data: 487084032
I0727 10:34:53.432689 24021 layer_factory.hpp:77] Creating layer score12_slicer_conv_11_split
I0727 10:34:53.432695 24021 net.cpp:84] Creating Layer score12_slicer_conv_11_split
I0727 10:34:53.432699 24021 net.cpp:406] score12_slicer_conv_11_split <- score12
I0727 10:34:53.432705 24021 net.cpp:380] score12_slicer_conv_11_split -> score12_slicer_conv_11_split_0
I0727 10:34:53.432713 24021 net.cpp:380] score12_slicer_conv_11_split -> score12_slicer_conv_11_split_1
I0727 10:34:53.432752 24021 net.cpp:122] Setting up score12_slicer_conv_11_split
I0727 10:34:53.432760 24021 net.cpp:129] Top shape: 1 1 48 64 (3072)
I0727 10:34:53.432763 24021 net.cpp:129] Top shape: 1 1 48 64 (3072)
I0727 10:34:53.432766 24021 net.cpp:137] Memory required for data: 487108608
I0727 10:34:53.432770 24021 layer_factory.hpp:77] Creating layer score13_slicer_conv_12_split
I0727 10:34:53.432783 24021 net.cpp:84] Creating Layer score13_slicer_conv_12_split
I0727 10:34:53.432788 24021 net.cpp:406] score13_slicer_conv_12_split <- score13
I0727 10:34:53.432793 24021 net.cpp:380] score13_slicer_conv_12_split -> score13_slicer_conv_12_split_0
I0727 10:34:53.432801 24021 net.cpp:380] score13_slicer_conv_12_split -> score13_slicer_conv_12_split_1
I0727 10:34:53.432842 24021 net.cpp:122] Setting up score13_slicer_conv_12_split
I0727 10:34:53.432848 24021 net.cpp:129] Top shape: 1 1 48 64 (3072)
I0727 10:34:53.432853 24021 net.cpp:129] Top shape: 1 1 48 64 (3072)
I0727 10:34:53.432857 24021 net.cpp:137] Memory required for data: 487133184
I0727 10:34:53.432860 24021 layer_factory.hpp:77] Creating layer score14_slicer_conv_13_split
I0727 10:34:53.432865 24021 net.cpp:84] Creating Layer score14_slicer_conv_13_split
I0727 10:34:53.432870 24021 net.cpp:406] score14_slicer_conv_13_split <- score14
I0727 10:34:53.432876 24021 net.cpp:380] score14_slicer_conv_13_split -> score14_slicer_conv_13_split_0
I0727 10:34:53.432883 24021 net.cpp:380] score14_slicer_conv_13_split -> score14_slicer_conv_13_split_1
I0727 10:34:53.432924 24021 net.cpp:122] Setting up score14_slicer_conv_13_split
I0727 10:34:53.432929 24021 net.cpp:129] Top shape: 1 1 48 64 (3072)
I0727 10:34:53.432934 24021 net.cpp:129] Top shape: 1 1 48 64 (3072)
I0727 10:34:53.432937 24021 net.cpp:137] Memory required for data: 487157760
I0727 10:34:53.432941 24021 layer_factory.hpp:77] Creating layer score15_slicer_conv_14_split
I0727 10:34:53.432946 24021 net.cpp:84] Creating Layer score15_slicer_conv_14_split
I0727 10:34:53.432950 24021 net.cpp:406] score15_slicer_conv_14_split <- score15
I0727 10:34:53.432955 24021 net.cpp:380] score15_slicer_conv_14_split -> score15_slicer_conv_14_split_0
I0727 10:34:53.432960 24021 net.cpp:380] score15_slicer_conv_14_split -> score15_slicer_conv_14_split_1
I0727 10:34:53.433001 24021 net.cpp:122] Setting up score15_slicer_conv_14_split
I0727 10:34:53.433007 24021 net.cpp:129] Top shape: 1 1 48 64 (3072)
I0727 10:34:53.433012 24021 net.cpp:129] Top shape: 1 1 48 64 (3072)
I0727 10:34:53.433015 24021 net.cpp:137] Memory required for data: 487182336
I0727 10:34:53.433019 24021 layer_factory.hpp:77] Creating layer score16_slicer_conv_15_split
I0727 10:34:53.433023 24021 net.cpp:84] Creating Layer score16_slicer_conv_15_split
I0727 10:34:53.433027 24021 net.cpp:406] score16_slicer_conv_15_split <- score16
I0727 10:34:53.433033 24021 net.cpp:380] score16_slicer_conv_15_split -> score16_slicer_conv_15_split_0
I0727 10:34:53.433040 24021 net.cpp:380] score16_slicer_conv_15_split -> score16_slicer_conv_15_split_1
I0727 10:34:53.433079 24021 net.cpp:122] Setting up score16_slicer_conv_15_split
I0727 10:34:53.433084 24021 net.cpp:129] Top shape: 1 1 48 64 (3072)
I0727 10:34:53.433089 24021 net.cpp:129] Top shape: 1 1 48 64 (3072)
I0727 10:34:53.433091 24021 net.cpp:137] Memory required for data: 487206912
I0727 10:34:53.433096 24021 layer_factory.hpp:77] Creating layer score17_slicer_conv_16_split
I0727 10:34:53.433102 24021 net.cpp:84] Creating Layer score17_slicer_conv_16_split
I0727 10:34:53.433107 24021 net.cpp:406] score17_slicer_conv_16_split <- score17
I0727 10:34:53.433112 24021 net.cpp:380] score17_slicer_conv_16_split -> score17_slicer_conv_16_split_0
I0727 10:34:53.433120 24021 net.cpp:380] score17_slicer_conv_16_split -> score17_slicer_conv_16_split_1
I0727 10:34:53.433157 24021 net.cpp:122] Setting up score17_slicer_conv_16_split
I0727 10:34:53.433164 24021 net.cpp:129] Top shape: 1 1 48 64 (3072)
I0727 10:34:53.433169 24021 net.cpp:129] Top shape: 1 1 48 64 (3072)
I0727 10:34:53.433172 24021 net.cpp:137] Memory required for data: 487231488
I0727 10:34:53.433176 24021 layer_factory.hpp:77] Creating layer score18_slicer_conv_17_split
I0727 10:34:53.433182 24021 net.cpp:84] Creating Layer score18_slicer_conv_17_split
I0727 10:34:53.433184 24021 net.cpp:406] score18_slicer_conv_17_split <- score18
I0727 10:34:53.433190 24021 net.cpp:380] score18_slicer_conv_17_split -> score18_slicer_conv_17_split_0
I0727 10:34:53.433204 24021 net.cpp:380] score18_slicer_conv_17_split -> score18_slicer_conv_17_split_1
I0727 10:34:53.433246 24021 net.cpp:122] Setting up score18_slicer_conv_17_split
I0727 10:34:53.433254 24021 net.cpp:129] Top shape: 1 1 48 64 (3072)
I0727 10:34:53.433257 24021 net.cpp:129] Top shape: 1 1 48 64 (3072)
I0727 10:34:53.433260 24021 net.cpp:137] Memory required for data: 487256064
I0727 10:34:53.433264 24021 layer_factory.hpp:77] Creating layer score19_slicer_conv_18_split
I0727 10:34:53.433271 24021 net.cpp:84] Creating Layer score19_slicer_conv_18_split
I0727 10:34:53.433275 24021 net.cpp:406] score19_slicer_conv_18_split <- score19
I0727 10:34:53.433280 24021 net.cpp:380] score19_slicer_conv_18_split -> score19_slicer_conv_18_split_0
I0727 10:34:53.433287 24021 net.cpp:380] score19_slicer_conv_18_split -> score19_slicer_conv_18_split_1
I0727 10:34:53.433344 24021 net.cpp:122] Setting up score19_slicer_conv_18_split
I0727 10:34:53.433353 24021 net.cpp:129] Top shape: 1 1 48 64 (3072)
I0727 10:34:53.433358 24021 net.cpp:129] Top shape: 1 1 48 64 (3072)
I0727 10:34:53.433362 24021 net.cpp:137] Memory required for data: 487280640
I0727 10:34:53.433365 24021 layer_factory.hpp:77] Creating layer score20_slicer_conv_19_split
I0727 10:34:53.433370 24021 net.cpp:84] Creating Layer score20_slicer_conv_19_split
I0727 10:34:53.433374 24021 net.cpp:406] score20_slicer_conv_19_split <- score20
I0727 10:34:53.433380 24021 net.cpp:380] score20_slicer_conv_19_split -> score20_slicer_conv_19_split_0
I0727 10:34:53.433387 24021 net.cpp:380] score20_slicer_conv_19_split -> score20_slicer_conv_19_split_1
I0727 10:34:53.433429 24021 net.cpp:122] Setting up score20_slicer_conv_19_split
I0727 10:34:53.433435 24021 net.cpp:129] Top shape: 1 1 48 64 (3072)
I0727 10:34:53.433439 24021 net.cpp:129] Top shape: 1 1 48 64 (3072)
I0727 10:34:53.433444 24021 net.cpp:137] Memory required for data: 487305216
I0727 10:34:53.433446 24021 layer_factory.hpp:77] Creating layer score21_slicer_conv_20_split
I0727 10:34:53.433452 24021 net.cpp:84] Creating Layer score21_slicer_conv_20_split
I0727 10:34:53.433456 24021 net.cpp:406] score21_slicer_conv_20_split <- score21
I0727 10:34:53.433462 24021 net.cpp:380] score21_slicer_conv_20_split -> score21_slicer_conv_20_split_0
I0727 10:34:53.433470 24021 net.cpp:380] score21_slicer_conv_20_split -> score21_slicer_conv_20_split_1
I0727 10:34:53.433508 24021 net.cpp:122] Setting up score21_slicer_conv_20_split
I0727 10:34:53.433514 24021 net.cpp:129] Top shape: 1 1 48 64 (3072)
I0727 10:34:53.433518 24021 net.cpp:129] Top shape: 1 1 48 64 (3072)
I0727 10:34:53.433522 24021 net.cpp:137] Memory required for data: 487329792
I0727 10:34:53.433524 24021 layer_factory.hpp:77] Creating layer score22_slicer_conv_21_split
I0727 10:34:53.433529 24021 net.cpp:84] Creating Layer score22_slicer_conv_21_split
I0727 10:34:53.433533 24021 net.cpp:406] score22_slicer_conv_21_split <- score22
I0727 10:34:53.433539 24021 net.cpp:380] score22_slicer_conv_21_split -> score22_slicer_conv_21_split_0
I0727 10:34:53.433544 24021 net.cpp:380] score22_slicer_conv_21_split -> score22_slicer_conv_21_split_1
I0727 10:34:53.433583 24021 net.cpp:122] Setting up score22_slicer_conv_21_split
I0727 10:34:53.433590 24021 net.cpp:129] Top shape: 1 1 48 64 (3072)
I0727 10:34:53.433594 24021 net.cpp:129] Top shape: 1 1 48 64 (3072)
I0727 10:34:53.433598 24021 net.cpp:137] Memory required for data: 487354368
I0727 10:34:53.433601 24021 layer_factory.hpp:77] Creating layer score23_slicer_conv_22_split
I0727 10:34:53.433606 24021 net.cpp:84] Creating Layer score23_slicer_conv_22_split
I0727 10:34:53.433609 24021 net.cpp:406] score23_slicer_conv_22_split <- score23
I0727 10:34:53.433619 24021 net.cpp:380] score23_slicer_conv_22_split -> score23_slicer_conv_22_split_0
I0727 10:34:53.433624 24021 net.cpp:380] score23_slicer_conv_22_split -> score23_slicer_conv_22_split_1
I0727 10:34:53.433663 24021 net.cpp:122] Setting up score23_slicer_conv_22_split
I0727 10:34:53.433670 24021 net.cpp:129] Top shape: 1 1 48 64 (3072)
I0727 10:34:53.433683 24021 net.cpp:129] Top shape: 1 1 48 64 (3072)
I0727 10:34:53.433688 24021 net.cpp:137] Memory required for data: 487378944
I0727 10:34:53.433692 24021 layer_factory.hpp:77] Creating layer score24_slicer_conv_23_split
I0727 10:34:53.433699 24021 net.cpp:84] Creating Layer score24_slicer_conv_23_split
I0727 10:34:53.433703 24021 net.cpp:406] score24_slicer_conv_23_split <- score24
I0727 10:34:53.433708 24021 net.cpp:380] score24_slicer_conv_23_split -> score24_slicer_conv_23_split_0
I0727 10:34:53.433715 24021 net.cpp:380] score24_slicer_conv_23_split -> score24_slicer_conv_23_split_1
I0727 10:34:53.433758 24021 net.cpp:122] Setting up score24_slicer_conv_23_split
I0727 10:34:53.433765 24021 net.cpp:129] Top shape: 1 1 48 64 (3072)
I0727 10:34:53.433769 24021 net.cpp:129] Top shape: 1 1 48 64 (3072)
I0727 10:34:53.433773 24021 net.cpp:137] Memory required for data: 487403520
I0727 10:34:53.433776 24021 layer_factory.hpp:77] Creating layer score25_slicer_conv_24_split
I0727 10:34:53.433781 24021 net.cpp:84] Creating Layer score25_slicer_conv_24_split
I0727 10:34:53.433786 24021 net.cpp:406] score25_slicer_conv_24_split <- score25
I0727 10:34:53.433791 24021 net.cpp:380] score25_slicer_conv_24_split -> score25_slicer_conv_24_split_0
I0727 10:34:53.433799 24021 net.cpp:380] score25_slicer_conv_24_split -> score25_slicer_conv_24_split_1
I0727 10:34:53.433837 24021 net.cpp:122] Setting up score25_slicer_conv_24_split
I0727 10:34:53.433843 24021 net.cpp:129] Top shape: 1 1 48 64 (3072)
I0727 10:34:53.433848 24021 net.cpp:129] Top shape: 1 1 48 64 (3072)
I0727 10:34:53.433851 24021 net.cpp:137] Memory required for data: 487428096
I0727 10:34:53.433856 24021 layer_factory.hpp:77] Creating layer score26_slicer_conv_25_split
I0727 10:34:53.433861 24021 net.cpp:84] Creating Layer score26_slicer_conv_25_split
I0727 10:34:53.433866 24021 net.cpp:406] score26_slicer_conv_25_split <- score26
I0727 10:34:53.433871 24021 net.cpp:380] score26_slicer_conv_25_split -> score26_slicer_conv_25_split_0
I0727 10:34:53.433877 24021 net.cpp:380] score26_slicer_conv_25_split -> score26_slicer_conv_25_split_1
I0727 10:34:53.433915 24021 net.cpp:122] Setting up score26_slicer_conv_25_split
I0727 10:34:53.433921 24021 net.cpp:129] Top shape: 1 1 48 64 (3072)
I0727 10:34:53.433925 24021 net.cpp:129] Top shape: 1 1 48 64 (3072)
I0727 10:34:53.433929 24021 net.cpp:137] Memory required for data: 487452672
I0727 10:34:53.433933 24021 layer_factory.hpp:77] Creating layer score27_slicer_conv_26_split
I0727 10:34:53.433939 24021 net.cpp:84] Creating Layer score27_slicer_conv_26_split
I0727 10:34:53.433943 24021 net.cpp:406] score27_slicer_conv_26_split <- score27
I0727 10:34:53.433948 24021 net.cpp:380] score27_slicer_conv_26_split -> score27_slicer_conv_26_split_0
I0727 10:34:53.433954 24021 net.cpp:380] score27_slicer_conv_26_split -> score27_slicer_conv_26_split_1
I0727 10:34:53.433992 24021 net.cpp:122] Setting up score27_slicer_conv_26_split
I0727 10:34:53.434000 24021 net.cpp:129] Top shape: 1 1 48 64 (3072)
I0727 10:34:53.434003 24021 net.cpp:129] Top shape: 1 1 48 64 (3072)
I0727 10:34:53.434006 24021 net.cpp:137] Memory required for data: 487477248
I0727 10:34:53.434011 24021 layer_factory.hpp:77] Creating layer score28_slicer_conv_27_split
I0727 10:34:53.434016 24021 net.cpp:84] Creating Layer score28_slicer_conv_27_split
I0727 10:34:53.434020 24021 net.cpp:406] score28_slicer_conv_27_split <- score28
I0727 10:34:53.434029 24021 net.cpp:380] score28_slicer_conv_27_split -> score28_slicer_conv_27_split_0
I0727 10:34:53.434036 24021 net.cpp:380] score28_slicer_conv_27_split -> score28_slicer_conv_27_split_1
I0727 10:34:53.434075 24021 net.cpp:122] Setting up score28_slicer_conv_27_split
I0727 10:34:53.434082 24021 net.cpp:129] Top shape: 1 1 48 64 (3072)
I0727 10:34:53.434087 24021 net.cpp:129] Top shape: 1 1 48 64 (3072)
I0727 10:34:53.434089 24021 net.cpp:137] Memory required for data: 487501824
I0727 10:34:53.434093 24021 layer_factory.hpp:77] Creating layer score29_slicer_conv_28_split
I0727 10:34:53.434105 24021 net.cpp:84] Creating Layer score29_slicer_conv_28_split
I0727 10:34:53.434118 24021 net.cpp:406] score29_slicer_conv_28_split <- score29
I0727 10:34:53.434124 24021 net.cpp:380] score29_slicer_conv_28_split -> score29_slicer_conv_28_split_0
I0727 10:34:53.434131 24021 net.cpp:380] score29_slicer_conv_28_split -> score29_slicer_conv_28_split_1
I0727 10:34:53.434175 24021 net.cpp:122] Setting up score29_slicer_conv_28_split
I0727 10:34:53.434182 24021 net.cpp:129] Top shape: 1 1 48 64 (3072)
I0727 10:34:53.434186 24021 net.cpp:129] Top shape: 1 1 48 64 (3072)
I0727 10:34:53.434190 24021 net.cpp:137] Memory required for data: 487526400
I0727 10:34:53.434195 24021 layer_factory.hpp:77] Creating layer score30_slicer_conv_29_split
I0727 10:34:53.434200 24021 net.cpp:84] Creating Layer score30_slicer_conv_29_split
I0727 10:34:53.434203 24021 net.cpp:406] score30_slicer_conv_29_split <- score30
I0727 10:34:53.434209 24021 net.cpp:380] score30_slicer_conv_29_split -> score30_slicer_conv_29_split_0
I0727 10:34:53.434216 24021 net.cpp:380] score30_slicer_conv_29_split -> score30_slicer_conv_29_split_1
I0727 10:34:53.434254 24021 net.cpp:122] Setting up score30_slicer_conv_29_split
I0727 10:34:53.434260 24021 net.cpp:129] Top shape: 1 1 48 64 (3072)
I0727 10:34:53.434265 24021 net.cpp:129] Top shape: 1 1 48 64 (3072)
I0727 10:34:53.434268 24021 net.cpp:137] Memory required for data: 487550976
I0727 10:34:53.434273 24021 layer_factory.hpp:77] Creating layer score31_slicer_conv_30_split
I0727 10:34:53.434278 24021 net.cpp:84] Creating Layer score31_slicer_conv_30_split
I0727 10:34:53.434283 24021 net.cpp:406] score31_slicer_conv_30_split <- score31
I0727 10:34:53.434288 24021 net.cpp:380] score31_slicer_conv_30_split -> score31_slicer_conv_30_split_0
I0727 10:34:53.434294 24021 net.cpp:380] score31_slicer_conv_30_split -> score31_slicer_conv_30_split_1
I0727 10:34:53.434332 24021 net.cpp:122] Setting up score31_slicer_conv_30_split
I0727 10:34:53.434339 24021 net.cpp:129] Top shape: 1 1 48 64 (3072)
I0727 10:34:53.434342 24021 net.cpp:129] Top shape: 1 1 48 64 (3072)
I0727 10:34:53.434346 24021 net.cpp:137] Memory required for data: 487575552
I0727 10:34:53.434350 24021 layer_factory.hpp:77] Creating layer score32_slicer_conv_31_split
I0727 10:34:53.434355 24021 net.cpp:84] Creating Layer score32_slicer_conv_31_split
I0727 10:34:53.434360 24021 net.cpp:406] score32_slicer_conv_31_split <- score32
I0727 10:34:53.434365 24021 net.cpp:380] score32_slicer_conv_31_split -> score32_slicer_conv_31_split_0
I0727 10:34:53.434370 24021 net.cpp:380] score32_slicer_conv_31_split -> score32_slicer_conv_31_split_1
I0727 10:34:53.434409 24021 net.cpp:122] Setting up score32_slicer_conv_31_split
I0727 10:34:53.434417 24021 net.cpp:129] Top shape: 1 1 48 64 (3072)
I0727 10:34:53.434422 24021 net.cpp:129] Top shape: 1 1 48 64 (3072)
I0727 10:34:53.434424 24021 net.cpp:137] Memory required for data: 487600128
I0727 10:34:53.434428 24021 layer_factory.hpp:77] Creating layer score33_slicer_conv_32_split
I0727 10:34:53.434433 24021 net.cpp:84] Creating Layer score33_slicer_conv_32_split
I0727 10:34:53.434437 24021 net.cpp:406] score33_slicer_conv_32_split <- score33
I0727 10:34:53.434442 24021 net.cpp:380] score33_slicer_conv_32_split -> score33_slicer_conv_32_split_0
I0727 10:34:53.434449 24021 net.cpp:380] score33_slicer_conv_32_split -> score33_slicer_conv_32_split_1
I0727 10:34:53.434489 24021 net.cpp:122] Setting up score33_slicer_conv_32_split
I0727 10:34:53.434495 24021 net.cpp:129] Top shape: 1 1 48 64 (3072)
I0727 10:34:53.434499 24021 net.cpp:129] Top shape: 1 1 48 64 (3072)
I0727 10:34:53.434504 24021 net.cpp:137] Memory required for data: 487624704
I0727 10:34:53.434507 24021 layer_factory.hpp:77] Creating layer score34_slicer_conv_33_split
I0727 10:34:53.434511 24021 net.cpp:84] Creating Layer score34_slicer_conv_33_split
I0727 10:34:53.434515 24021 net.cpp:406] score34_slicer_conv_33_split <- score34
I0727 10:34:53.434520 24021 net.cpp:380] score34_slicer_conv_33_split -> score34_slicer_conv_33_split_0
I0727 10:34:53.434526 24021 net.cpp:380] score34_slicer_conv_33_split -> score34_slicer_conv_33_split_1
I0727 10:34:53.434576 24021 net.cpp:122] Setting up score34_slicer_conv_33_split
I0727 10:34:53.434583 24021 net.cpp:129] Top shape: 1 1 48 64 (3072)
I0727 10:34:53.434587 24021 net.cpp:129] Top shape: 1 1 48 64 (3072)
I0727 10:34:53.434590 24021 net.cpp:137] Memory required for data: 487649280
I0727 10:34:53.434594 24021 layer_factory.hpp:77] Creating layer score35_slicer_conv_34_split
I0727 10:34:53.434599 24021 net.cpp:84] Creating Layer score35_slicer_conv_34_split
I0727 10:34:53.434604 24021 net.cpp:406] score35_slicer_conv_34_split <- score35
I0727 10:34:53.434610 24021 net.cpp:380] score35_slicer_conv_34_split -> score35_slicer_conv_34_split_0
I0727 10:34:53.434617 24021 net.cpp:380] score35_slicer_conv_34_split -> score35_slicer_conv_34_split_1
I0727 10:34:53.434654 24021 net.cpp:122] Setting up score35_slicer_conv_34_split
I0727 10:34:53.434660 24021 net.cpp:129] Top shape: 1 1 48 64 (3072)
I0727 10:34:53.434664 24021 net.cpp:129] Top shape: 1 1 48 64 (3072)
I0727 10:34:53.434669 24021 net.cpp:137] Memory required for data: 487673856
I0727 10:34:53.434671 24021 layer_factory.hpp:77] Creating layer score36_slicer_conv_35_split
I0727 10:34:53.434679 24021 net.cpp:84] Creating Layer score36_slicer_conv_35_split
I0727 10:34:53.434682 24021 net.cpp:406] score36_slicer_conv_35_split <- score36
I0727 10:34:53.434687 24021 net.cpp:380] score36_slicer_conv_35_split -> score36_slicer_conv_35_split_0
I0727 10:34:53.434693 24021 net.cpp:380] score36_slicer_conv_35_split -> score36_slicer_conv_35_split_1
I0727 10:34:53.434732 24021 net.cpp:122] Setting up score36_slicer_conv_35_split
I0727 10:34:53.434739 24021 net.cpp:129] Top shape: 1 1 48 64 (3072)
I0727 10:34:53.434743 24021 net.cpp:129] Top shape: 1 1 48 64 (3072)
I0727 10:34:53.434746 24021 net.cpp:137] Memory required for data: 487698432
I0727 10:34:53.434751 24021 layer_factory.hpp:77] Creating layer score37_slicer_conv_36_split
I0727 10:34:53.434756 24021 net.cpp:84] Creating Layer score37_slicer_conv_36_split
I0727 10:34:53.434761 24021 net.cpp:406] score37_slicer_conv_36_split <- score37
I0727 10:34:53.434765 24021 net.cpp:380] score37_slicer_conv_36_split -> score37_slicer_conv_36_split_0
I0727 10:34:53.434772 24021 net.cpp:380] score37_slicer_conv_36_split -> score37_slicer_conv_36_split_1
I0727 10:34:53.434810 24021 net.cpp:122] Setting up score37_slicer_conv_36_split
I0727 10:34:53.434818 24021 net.cpp:129] Top shape: 1 1 48 64 (3072)
I0727 10:34:53.434821 24021 net.cpp:129] Top shape: 1 1 48 64 (3072)
I0727 10:34:53.434824 24021 net.cpp:137] Memory required for data: 487723008
I0727 10:34:53.434828 24021 layer_factory.hpp:77] Creating layer score38_slicer_conv_37_split
I0727 10:34:53.434834 24021 net.cpp:84] Creating Layer score38_slicer_conv_37_split
I0727 10:34:53.434839 24021 net.cpp:406] score38_slicer_conv_37_split <- score38
I0727 10:34:53.434844 24021 net.cpp:380] score38_slicer_conv_37_split -> score38_slicer_conv_37_split_0
I0727 10:34:53.434850 24021 net.cpp:380] score38_slicer_conv_37_split -> score38_slicer_conv_37_split_1
I0727 10:34:53.434890 24021 net.cpp:122] Setting up score38_slicer_conv_37_split
I0727 10:34:53.434895 24021 net.cpp:129] Top shape: 1 1 48 64 (3072)
I0727 10:34:53.434900 24021 net.cpp:129] Top shape: 1 1 48 64 (3072)
I0727 10:34:53.434903 24021 net.cpp:137] Memory required for data: 487747584
I0727 10:34:53.434907 24021 layer_factory.hpp:77] Creating layer score39_slicer_conv_38_split
I0727 10:34:53.434912 24021 net.cpp:84] Creating Layer score39_slicer_conv_38_split
I0727 10:34:53.434916 24021 net.cpp:406] score39_slicer_conv_38_split <- score39
I0727 10:34:53.434921 24021 net.cpp:380] score39_slicer_conv_38_split -> score39_slicer_conv_38_split_0
I0727 10:34:53.434927 24021 net.cpp:380] score39_slicer_conv_38_split -> score39_slicer_conv_38_split_1
I0727 10:34:53.434967 24021 net.cpp:122] Setting up score39_slicer_conv_38_split
I0727 10:34:53.434973 24021 net.cpp:129] Top shape: 1 1 48 64 (3072)
I0727 10:34:53.434978 24021 net.cpp:129] Top shape: 1 1 48 64 (3072)
I0727 10:34:53.434980 24021 net.cpp:137] Memory required for data: 487772160
I0727 10:34:53.434991 24021 layer_factory.hpp:77] Creating layer score40_slicer_conv_39_split
I0727 10:34:53.434998 24021 net.cpp:84] Creating Layer score40_slicer_conv_39_split
I0727 10:34:53.435003 24021 net.cpp:406] score40_slicer_conv_39_split <- score40
I0727 10:34:53.435009 24021 net.cpp:380] score40_slicer_conv_39_split -> score40_slicer_conv_39_split_0
I0727 10:34:53.435015 24021 net.cpp:380] score40_slicer_conv_39_split -> score40_slicer_conv_39_split_1
I0727 10:34:53.435058 24021 net.cpp:122] Setting up score40_slicer_conv_39_split
I0727 10:34:53.435065 24021 net.cpp:129] Top shape: 1 1 48 64 (3072)
I0727 10:34:53.435070 24021 net.cpp:129] Top shape: 1 1 48 64 (3072)
I0727 10:34:53.435073 24021 net.cpp:137] Memory required for data: 487796736
I0727 10:34:53.435077 24021 layer_factory.hpp:77] Creating layer score41_slicer_conv_40_split
I0727 10:34:53.435082 24021 net.cpp:84] Creating Layer score41_slicer_conv_40_split
I0727 10:34:53.435086 24021 net.cpp:406] score41_slicer_conv_40_split <- score41
I0727 10:34:53.435091 24021 net.cpp:380] score41_slicer_conv_40_split -> score41_slicer_conv_40_split_0
I0727 10:34:53.435097 24021 net.cpp:380] score41_slicer_conv_40_split -> score41_slicer_conv_40_split_1
I0727 10:34:53.435137 24021 net.cpp:122] Setting up score41_slicer_conv_40_split
I0727 10:34:53.435144 24021 net.cpp:129] Top shape: 1 1 48 64 (3072)
I0727 10:34:53.435148 24021 net.cpp:129] Top shape: 1 1 48 64 (3072)
I0727 10:34:53.435151 24021 net.cpp:137] Memory required for data: 487821312
I0727 10:34:53.435155 24021 layer_factory.hpp:77] Creating layer score42_slicer_conv_41_split
I0727 10:34:53.435161 24021 net.cpp:84] Creating Layer score42_slicer_conv_41_split
I0727 10:34:53.435165 24021 net.cpp:406] score42_slicer_conv_41_split <- score42
I0727 10:34:53.435171 24021 net.cpp:380] score42_slicer_conv_41_split -> score42_slicer_conv_41_split_0
I0727 10:34:53.435178 24021 net.cpp:380] score42_slicer_conv_41_split -> score42_slicer_conv_41_split_1
I0727 10:34:53.435217 24021 net.cpp:122] Setting up score42_slicer_conv_41_split
I0727 10:34:53.435225 24021 net.cpp:129] Top shape: 1 1 48 64 (3072)
I0727 10:34:53.435228 24021 net.cpp:129] Top shape: 1 1 48 64 (3072)
I0727 10:34:53.435231 24021 net.cpp:137] Memory required for data: 487845888
I0727 10:34:53.435235 24021 layer_factory.hpp:77] Creating layer score43_slicer_conv_42_split
I0727 10:34:53.435240 24021 net.cpp:84] Creating Layer score43_slicer_conv_42_split
I0727 10:34:53.435243 24021 net.cpp:406] score43_slicer_conv_42_split <- score43
I0727 10:34:53.435250 24021 net.cpp:380] score43_slicer_conv_42_split -> score43_slicer_conv_42_split_0
I0727 10:34:53.435256 24021 net.cpp:380] score43_slicer_conv_42_split -> score43_slicer_conv_42_split_1
I0727 10:34:53.435294 24021 net.cpp:122] Setting up score43_slicer_conv_42_split
I0727 10:34:53.435300 24021 net.cpp:129] Top shape: 1 1 48 64 (3072)
I0727 10:34:53.435304 24021 net.cpp:129] Top shape: 1 1 48 64 (3072)
I0727 10:34:53.435308 24021 net.cpp:137] Memory required for data: 487870464
I0727 10:34:53.435312 24021 layer_factory.hpp:77] Creating layer score44_slicer_conv_43_split
I0727 10:34:53.435318 24021 net.cpp:84] Creating Layer score44_slicer_conv_43_split
I0727 10:34:53.435322 24021 net.cpp:406] score44_slicer_conv_43_split <- score44
I0727 10:34:53.435328 24021 net.cpp:380] score44_slicer_conv_43_split -> score44_slicer_conv_43_split_0
I0727 10:34:53.435335 24021 net.cpp:380] score44_slicer_conv_43_split -> score44_slicer_conv_43_split_1
I0727 10:34:53.435374 24021 net.cpp:122] Setting up score44_slicer_conv_43_split
I0727 10:34:53.435380 24021 net.cpp:129] Top shape: 1 1 48 64 (3072)
I0727 10:34:53.435384 24021 net.cpp:129] Top shape: 1 1 48 64 (3072)
I0727 10:34:53.435387 24021 net.cpp:137] Memory required for data: 487895040
I0727 10:34:53.435391 24021 layer_factory.hpp:77] Creating layer score45_slicer_conv_44_split
I0727 10:34:53.435397 24021 net.cpp:84] Creating Layer score45_slicer_conv_44_split
I0727 10:34:53.435402 24021 net.cpp:406] score45_slicer_conv_44_split <- score45
I0727 10:34:53.435415 24021 net.cpp:380] score45_slicer_conv_44_split -> score45_slicer_conv_44_split_0
I0727 10:34:53.435422 24021 net.cpp:380] score45_slicer_conv_44_split -> score45_slicer_conv_44_split_1
I0727 10:34:53.435467 24021 net.cpp:122] Setting up score45_slicer_conv_44_split
I0727 10:34:53.435473 24021 net.cpp:129] Top shape: 1 1 48 64 (3072)
I0727 10:34:53.435477 24021 net.cpp:129] Top shape: 1 1 48 64 (3072)
I0727 10:34:53.435482 24021 net.cpp:137] Memory required for data: 487919616
I0727 10:34:53.435484 24021 layer_factory.hpp:77] Creating layer score46_slicer_conv_45_split
I0727 10:34:53.435490 24021 net.cpp:84] Creating Layer score46_slicer_conv_45_split
I0727 10:34:53.435494 24021 net.cpp:406] score46_slicer_conv_45_split <- score46
I0727 10:34:53.435499 24021 net.cpp:380] score46_slicer_conv_45_split -> score46_slicer_conv_45_split_0
I0727 10:34:53.435510 24021 net.cpp:380] score46_slicer_conv_45_split -> score46_slicer_conv_45_split_1
I0727 10:34:53.435550 24021 net.cpp:122] Setting up score46_slicer_conv_45_split
I0727 10:34:53.435556 24021 net.cpp:129] Top shape: 1 1 48 64 (3072)
I0727 10:34:53.435560 24021 net.cpp:129] Top shape: 1 1 48 64 (3072)
I0727 10:34:53.435564 24021 net.cpp:137] Memory required for data: 487944192
I0727 10:34:53.435569 24021 layer_factory.hpp:77] Creating layer score47_slicer_conv_46_split
I0727 10:34:53.435575 24021 net.cpp:84] Creating Layer score47_slicer_conv_46_split
I0727 10:34:53.435580 24021 net.cpp:406] score47_slicer_conv_46_split <- score47
I0727 10:34:53.435585 24021 net.cpp:380] score47_slicer_conv_46_split -> score47_slicer_conv_46_split_0
I0727 10:34:53.435590 24021 net.cpp:380] score47_slicer_conv_46_split -> score47_slicer_conv_46_split_1
I0727 10:34:53.435631 24021 net.cpp:122] Setting up score47_slicer_conv_46_split
I0727 10:34:53.435637 24021 net.cpp:129] Top shape: 1 1 48 64 (3072)
I0727 10:34:53.435642 24021 net.cpp:129] Top shape: 1 1 48 64 (3072)
I0727 10:34:53.435645 24021 net.cpp:137] Memory required for data: 487968768
I0727 10:34:53.435648 24021 layer_factory.hpp:77] Creating layer score48_slicer_conv_47_split
I0727 10:34:53.435653 24021 net.cpp:84] Creating Layer score48_slicer_conv_47_split
I0727 10:34:53.435657 24021 net.cpp:406] score48_slicer_conv_47_split <- score48
I0727 10:34:53.435662 24021 net.cpp:380] score48_slicer_conv_47_split -> score48_slicer_conv_47_split_0
I0727 10:34:53.435668 24021 net.cpp:380] score48_slicer_conv_47_split -> score48_slicer_conv_47_split_1
I0727 10:34:53.435708 24021 net.cpp:122] Setting up score48_slicer_conv_47_split
I0727 10:34:53.435714 24021 net.cpp:129] Top shape: 1 1 48 64 (3072)
I0727 10:34:53.435719 24021 net.cpp:129] Top shape: 1 1 48 64 (3072)
I0727 10:34:53.435722 24021 net.cpp:137] Memory required for data: 487993344
I0727 10:34:53.435726 24021 layer_factory.hpp:77] Creating layer score49_slicer_conv_48_split
I0727 10:34:53.435731 24021 net.cpp:84] Creating Layer score49_slicer_conv_48_split
I0727 10:34:53.435735 24021 net.cpp:406] score49_slicer_conv_48_split <- score49
I0727 10:34:53.435742 24021 net.cpp:380] score49_slicer_conv_48_split -> score49_slicer_conv_48_split_0
I0727 10:34:53.435748 24021 net.cpp:380] score49_slicer_conv_48_split -> score49_slicer_conv_48_split_1
I0727 10:34:53.435788 24021 net.cpp:122] Setting up score49_slicer_conv_48_split
I0727 10:34:53.435796 24021 net.cpp:129] Top shape: 1 1 48 64 (3072)
I0727 10:34:53.435799 24021 net.cpp:129] Top shape: 1 1 48 64 (3072)
I0727 10:34:53.435802 24021 net.cpp:137] Memory required for data: 488017920
I0727 10:34:53.435807 24021 layer_factory.hpp:77] Creating layer score50_slicer_conv_49_split
I0727 10:34:53.435811 24021 net.cpp:84] Creating Layer score50_slicer_conv_49_split
I0727 10:34:53.435816 24021 net.cpp:406] score50_slicer_conv_49_split <- score50
I0727 10:34:53.435820 24021 net.cpp:380] score50_slicer_conv_49_split -> score50_slicer_conv_49_split_0
I0727 10:34:53.435827 24021 net.cpp:380] score50_slicer_conv_49_split -> score50_slicer_conv_49_split_1
I0727 10:34:53.435865 24021 net.cpp:122] Setting up score50_slicer_conv_49_split
I0727 10:34:53.435879 24021 net.cpp:129] Top shape: 1 1 48 64 (3072)
I0727 10:34:53.435884 24021 net.cpp:129] Top shape: 1 1 48 64 (3072)
I0727 10:34:53.435889 24021 net.cpp:137] Memory required for data: 488042496
I0727 10:34:53.435892 24021 layer_factory.hpp:77] Creating layer score51_slicer_conv_50_split
I0727 10:34:53.435897 24021 net.cpp:84] Creating Layer score51_slicer_conv_50_split
I0727 10:34:53.435901 24021 net.cpp:406] score51_slicer_conv_50_split <- score51
I0727 10:34:53.435909 24021 net.cpp:380] score51_slicer_conv_50_split -> score51_slicer_conv_50_split_0
I0727 10:34:53.435915 24021 net.cpp:380] score51_slicer_conv_50_split -> score51_slicer_conv_50_split_1
I0727 10:34:53.435956 24021 net.cpp:122] Setting up score51_slicer_conv_50_split
I0727 10:34:53.435962 24021 net.cpp:129] Top shape: 1 1 48 64 (3072)
I0727 10:34:53.435966 24021 net.cpp:129] Top shape: 1 1 48 64 (3072)
I0727 10:34:53.435969 24021 net.cpp:137] Memory required for data: 488067072
I0727 10:34:53.435973 24021 layer_factory.hpp:77] Creating layer score52_slicer_conv_51_split
I0727 10:34:53.435981 24021 net.cpp:84] Creating Layer score52_slicer_conv_51_split
I0727 10:34:53.435986 24021 net.cpp:406] score52_slicer_conv_51_split <- score52
I0727 10:34:53.435991 24021 net.cpp:380] score52_slicer_conv_51_split -> score52_slicer_conv_51_split_0
I0727 10:34:53.435995 24021 net.cpp:380] score52_slicer_conv_51_split -> score52_slicer_conv_51_split_1
I0727 10:34:53.436035 24021 net.cpp:122] Setting up score52_slicer_conv_51_split
I0727 10:34:53.436043 24021 net.cpp:129] Top shape: 1 1 48 64 (3072)
I0727 10:34:53.436046 24021 net.cpp:129] Top shape: 1 1 48 64 (3072)
I0727 10:34:53.436049 24021 net.cpp:137] Memory required for data: 488091648
I0727 10:34:53.436053 24021 layer_factory.hpp:77] Creating layer score53_slicer_conv_52_split
I0727 10:34:53.436058 24021 net.cpp:84] Creating Layer score53_slicer_conv_52_split
I0727 10:34:53.436061 24021 net.cpp:406] score53_slicer_conv_52_split <- score53
I0727 10:34:53.436067 24021 net.cpp:380] score53_slicer_conv_52_split -> score53_slicer_conv_52_split_0
I0727 10:34:53.436074 24021 net.cpp:380] score53_slicer_conv_52_split -> score53_slicer_conv_52_split_1
I0727 10:34:53.436112 24021 net.cpp:122] Setting up score53_slicer_conv_52_split
I0727 10:34:53.436120 24021 net.cpp:129] Top shape: 1 1 48 64 (3072)
I0727 10:34:53.436123 24021 net.cpp:129] Top shape: 1 1 48 64 (3072)
I0727 10:34:53.436126 24021 net.cpp:137] Memory required for data: 488116224
I0727 10:34:53.436131 24021 layer_factory.hpp:77] Creating layer score54_slicer_conv_53_split
I0727 10:34:53.436137 24021 net.cpp:84] Creating Layer score54_slicer_conv_53_split
I0727 10:34:53.436141 24021 net.cpp:406] score54_slicer_conv_53_split <- score54
I0727 10:34:53.436146 24021 net.cpp:380] score54_slicer_conv_53_split -> score54_slicer_conv_53_split_0
I0727 10:34:53.436152 24021 net.cpp:380] score54_slicer_conv_53_split -> score54_slicer_conv_53_split_1
I0727 10:34:53.436192 24021 net.cpp:122] Setting up score54_slicer_conv_53_split
I0727 10:34:53.436198 24021 net.cpp:129] Top shape: 1 1 48 64 (3072)
I0727 10:34:53.436203 24021 net.cpp:129] Top shape: 1 1 48 64 (3072)
I0727 10:34:53.436205 24021 net.cpp:137] Memory required for data: 488140800
I0727 10:34:53.436210 24021 layer_factory.hpp:77] Creating layer score55_slicer_conv_54_split
I0727 10:34:53.436215 24021 net.cpp:84] Creating Layer score55_slicer_conv_54_split
I0727 10:34:53.436219 24021 net.cpp:406] score55_slicer_conv_54_split <- score55
I0727 10:34:53.436224 24021 net.cpp:380] score55_slicer_conv_54_split -> score55_slicer_conv_54_split_0
I0727 10:34:53.436250 24021 net.cpp:380] score55_slicer_conv_54_split -> score55_slicer_conv_54_split_1
I0727 10:34:53.436293 24021 net.cpp:122] Setting up score55_slicer_conv_54_split
I0727 10:34:53.436300 24021 net.cpp:129] Top shape: 1 1 48 64 (3072)
I0727 10:34:53.436305 24021 net.cpp:129] Top shape: 1 1 48 64 (3072)
I0727 10:34:53.436308 24021 net.cpp:137] Memory required for data: 488165376
I0727 10:34:53.436312 24021 layer_factory.hpp:77] Creating layer score56_slicer_conv_55_split
I0727 10:34:53.436326 24021 net.cpp:84] Creating Layer score56_slicer_conv_55_split
I0727 10:34:53.436329 24021 net.cpp:406] score56_slicer_conv_55_split <- score56
I0727 10:34:53.436336 24021 net.cpp:380] score56_slicer_conv_55_split -> score56_slicer_conv_55_split_0
I0727 10:34:53.436342 24021 net.cpp:380] score56_slicer_conv_55_split -> score56_slicer_conv_55_split_1
I0727 10:34:53.436383 24021 net.cpp:122] Setting up score56_slicer_conv_55_split
I0727 10:34:53.436388 24021 net.cpp:129] Top shape: 1 1 48 64 (3072)
I0727 10:34:53.436393 24021 net.cpp:129] Top shape: 1 1 48 64 (3072)
I0727 10:34:53.436396 24021 net.cpp:137] Memory required for data: 488189952
I0727 10:34:53.436400 24021 layer_factory.hpp:77] Creating layer score57_slicer_conv_56_split
I0727 10:34:53.436405 24021 net.cpp:84] Creating Layer score57_slicer_conv_56_split
I0727 10:34:53.436410 24021 net.cpp:406] score57_slicer_conv_56_split <- score57
I0727 10:34:53.436415 24021 net.cpp:380] score57_slicer_conv_56_split -> score57_slicer_conv_56_split_0
I0727 10:34:53.436421 24021 net.cpp:380] score57_slicer_conv_56_split -> score57_slicer_conv_56_split_1
I0727 10:34:53.436462 24021 net.cpp:122] Setting up score57_slicer_conv_56_split
I0727 10:34:53.436470 24021 net.cpp:129] Top shape: 1 1 48 64 (3072)
I0727 10:34:53.436473 24021 net.cpp:129] Top shape: 1 1 48 64 (3072)
I0727 10:34:53.436477 24021 net.cpp:137] Memory required for data: 488214528
I0727 10:34:53.436481 24021 layer_factory.hpp:77] Creating layer score58_slicer_conv_57_split
I0727 10:34:53.436486 24021 net.cpp:84] Creating Layer score58_slicer_conv_57_split
I0727 10:34:53.436489 24021 net.cpp:406] score58_slicer_conv_57_split <- score58
I0727 10:34:53.436494 24021 net.cpp:380] score58_slicer_conv_57_split -> score58_slicer_conv_57_split_0
I0727 10:34:53.436501 24021 net.cpp:380] score58_slicer_conv_57_split -> score58_slicer_conv_57_split_1
I0727 10:34:53.436542 24021 net.cpp:122] Setting up score58_slicer_conv_57_split
I0727 10:34:53.436549 24021 net.cpp:129] Top shape: 1 1 48 64 (3072)
I0727 10:34:53.436553 24021 net.cpp:129] Top shape: 1 1 48 64 (3072)
I0727 10:34:53.436556 24021 net.cpp:137] Memory required for data: 488239104
I0727 10:34:53.436560 24021 layer_factory.hpp:77] Creating layer score59_slicer_conv_58_split
I0727 10:34:53.436565 24021 net.cpp:84] Creating Layer score59_slicer_conv_58_split
I0727 10:34:53.436569 24021 net.cpp:406] score59_slicer_conv_58_split <- score59
I0727 10:34:53.436574 24021 net.cpp:380] score59_slicer_conv_58_split -> score59_slicer_conv_58_split_0
I0727 10:34:53.436583 24021 net.cpp:380] score59_slicer_conv_58_split -> score59_slicer_conv_58_split_1
I0727 10:34:53.436624 24021 net.cpp:122] Setting up score59_slicer_conv_58_split
I0727 10:34:53.436630 24021 net.cpp:129] Top shape: 1 1 48 64 (3072)
I0727 10:34:53.436635 24021 net.cpp:129] Top shape: 1 1 48 64 (3072)
I0727 10:34:53.436637 24021 net.cpp:137] Memory required for data: 488263680
I0727 10:34:53.436641 24021 layer_factory.hpp:77] Creating layer score60_slicer_conv_59_split
I0727 10:34:53.436648 24021 net.cpp:84] Creating Layer score60_slicer_conv_59_split
I0727 10:34:53.436653 24021 net.cpp:406] score60_slicer_conv_59_split <- score60
I0727 10:34:53.436658 24021 net.cpp:380] score60_slicer_conv_59_split -> score60_slicer_conv_59_split_0
I0727 10:34:53.436666 24021 net.cpp:380] score60_slicer_conv_59_split -> score60_slicer_conv_59_split_1
I0727 10:34:53.436705 24021 net.cpp:122] Setting up score60_slicer_conv_59_split
I0727 10:34:53.436712 24021 net.cpp:129] Top shape: 1 1 48 64 (3072)
I0727 10:34:53.436717 24021 net.cpp:129] Top shape: 1 1 48 64 (3072)
I0727 10:34:53.436720 24021 net.cpp:137] Memory required for data: 488288256
I0727 10:34:53.436724 24021 layer_factory.hpp:77] Creating layer score61_slicer_conv_60_split
I0727 10:34:53.436730 24021 net.cpp:84] Creating Layer score61_slicer_conv_60_split
I0727 10:34:53.436735 24021 net.cpp:406] score61_slicer_conv_60_split <- score61
I0727 10:34:53.436740 24021 net.cpp:380] score61_slicer_conv_60_split -> score61_slicer_conv_60_split_0
I0727 10:34:53.436756 24021 net.cpp:380] score61_slicer_conv_60_split -> score61_slicer_conv_60_split_1
I0727 10:34:53.436801 24021 net.cpp:122] Setting up score61_slicer_conv_60_split
I0727 10:34:53.436808 24021 net.cpp:129] Top shape: 1 1 48 64 (3072)
I0727 10:34:53.436812 24021 net.cpp:129] Top shape: 1 1 48 64 (3072)
I0727 10:34:53.436815 24021 net.cpp:137] Memory required for data: 488312832
I0727 10:34:53.436820 24021 layer_factory.hpp:77] Creating layer score62_slicer_conv_61_split
I0727 10:34:53.436825 24021 net.cpp:84] Creating Layer score62_slicer_conv_61_split
I0727 10:34:53.436830 24021 net.cpp:406] score62_slicer_conv_61_split <- score62
I0727 10:34:53.436836 24021 net.cpp:380] score62_slicer_conv_61_split -> score62_slicer_conv_61_split_0
I0727 10:34:53.436842 24021 net.cpp:380] score62_slicer_conv_61_split -> score62_slicer_conv_61_split_1
I0727 10:34:53.436882 24021 net.cpp:122] Setting up score62_slicer_conv_61_split
I0727 10:34:53.436888 24021 net.cpp:129] Top shape: 1 1 48 64 (3072)
I0727 10:34:53.436893 24021 net.cpp:129] Top shape: 1 1 48 64 (3072)
I0727 10:34:53.436897 24021 net.cpp:137] Memory required for data: 488337408
I0727 10:34:53.436900 24021 layer_factory.hpp:77] Creating layer score63_slicer_conv_62_split
I0727 10:34:53.436905 24021 net.cpp:84] Creating Layer score63_slicer_conv_62_split
I0727 10:34:53.436909 24021 net.cpp:406] score63_slicer_conv_62_split <- score63
I0727 10:34:53.436914 24021 net.cpp:380] score63_slicer_conv_62_split -> score63_slicer_conv_62_split_0
I0727 10:34:53.436920 24021 net.cpp:380] score63_slicer_conv_62_split -> score63_slicer_conv_62_split_1
I0727 10:34:53.436964 24021 net.cpp:122] Setting up score63_slicer_conv_62_split
I0727 10:34:53.436970 24021 net.cpp:129] Top shape: 1 1 48 64 (3072)
I0727 10:34:53.436975 24021 net.cpp:129] Top shape: 1 1 48 64 (3072)
I0727 10:34:53.436977 24021 net.cpp:137] Memory required for data: 488361984
I0727 10:34:53.436981 24021 layer_factory.hpp:77] Creating layer score64_slicer_conv_63_split
I0727 10:34:53.436986 24021 net.cpp:84] Creating Layer score64_slicer_conv_63_split
I0727 10:34:53.436990 24021 net.cpp:406] score64_slicer_conv_63_split <- score64
I0727 10:34:53.436997 24021 net.cpp:380] score64_slicer_conv_63_split -> score64_slicer_conv_63_split_0
I0727 10:34:53.437003 24021 net.cpp:380] score64_slicer_conv_63_split -> score64_slicer_conv_63_split_1
I0727 10:34:53.437044 24021 net.cpp:122] Setting up score64_slicer_conv_63_split
I0727 10:34:53.437052 24021 net.cpp:129] Top shape: 1 1 48 64 (3072)
I0727 10:34:53.437055 24021 net.cpp:129] Top shape: 1 1 48 64 (3072)
I0727 10:34:53.437058 24021 net.cpp:137] Memory required for data: 488386560
I0727 10:34:53.437062 24021 layer_factory.hpp:77] Creating layer sumscore
I0727 10:34:53.437077 24021 net.cpp:84] Creating Layer sumscore
I0727 10:34:53.437083 24021 net.cpp:406] sumscore <- score1_slicer_conv_0_split_0
I0727 10:34:53.437088 24021 net.cpp:406] sumscore <- score2_slicer_conv_1_split_0
I0727 10:34:53.437093 24021 net.cpp:406] sumscore <- score3_slicer_conv_2_split_0
…
I0727 10:34:53.438221 24021 net.cpp:380] sumscore_sumscore_0_split -> sumscore_sumscore_0_split_59
I0727 10:34:53.438233 24021 net.cpp:380] sumscore_sumscore_0_split -> sumscore_sumscore_0_split_60
I0727 10:34:53.438247 24021 net.cpp:380] sumscore_sumscore_0_split -> sumscore_sumscore_0_split_61
I0727 10:34:53.438259 24021 net.cpp:380] sumscore_sumscore_0_split -> sumscore_sumscore_0_split_62
I0727 10:34:53.438271 24021 net.cpp:380] sumscore_sumscore_0_split -> sumscore_sumscore_0_split_63
I0727 10:34:53.439050 24021 net.cpp:122] Setting up sumscore_sumscore_0_split
I0727 10:34:53.439059 24021 net.cpp:129] Top shape: 1 1 48 64 (3072)
I0727 10:34:53.439066 24021 net.cpp:129] Top shape: 1 1 48 64 (3072)
I0727 10:34:53.439070 24021 net.cpp:129] Top shape: 1 1 48 64 (3072)
I0727 10:34:53.439075 24021 net.cpp:129] Top shape: 1 1 48 64 (3072)
I0727 10:34:53.439079 24021 net.cpp:129] Top shape: 1 1 48 64 (3072)
I0727 10:34:53.439083 24021 net.cpp:129] Top shape: 1 1 48 64 (3072)
I0727 10:34:53.439088 24021 net.cpp:129] Top shape: 1 1 48 64 (3072)
I0727 10:34:53.439092 24021 net.cpp:129] Top shape: 1 1 48 64 (3072)
I0727 10:34:53.439096 24021 net.cpp:129] Top shape: 1 1 48 64 (3072)
I0727 10:34:53.439100 24021 net.cpp:129] Top shape: 1 1 48 64 (3072)
I0727 10:34:53.439105 24021 net.cpp:129] Top shape: 1 1 48 64 (3072)
I0727 10:34:53.439108 24021 net.cpp:129] Top shape: 1 1 48 64 (3072)
I0727 10:34:53.439112 24021 net.cpp:129] Top shape: 1 1 48 64 (3072)
I0727 10:34:53.439117 24021 net.cpp:129] Top shape: 1 1 48 64 (3072)
I0727 10:34:53.439121 24021 net.cpp:129] Top shape: 1 1 48 64 (3072)
I0727 10:34:53.439126 24021 net.cpp:129] Top shape: 1 1 48 64 (3072)
I0727 10:34:53.439131 24021 net.cpp:129] Top shape: 1 1 48 64 (3072)
I0727 10:34:53.439134 24021 net.cpp:129] Top shape: 1 1 48 64 (3072)
I0727 10:34:53.439146 24021 net.cpp:129] Top shape: 1 1 48 64 (3072)
I0727 10:34:53.439151 24021 net.cpp:129] Top shape: 1 1 48 64 (3072)
I0727 10:34:53.439155 24021 net.cpp:129] Top shape: 1 1 48 64 (3072)
I0727 10:34:53.439159 24021 net.cpp:129] Top shape: 1 1 48 64 (3072)
I0727 10:34:53.439163 24021 net.cpp:129] Top shape: 1 1 48 64 (3072)
I0727 10:34:53.439168 24021 net.cpp:129] Top shape: 1 1 48 64 (3072)
I0727 10:34:53.439172 24021 net.cpp:129] Top shape: 1 1 48 64 (3072)
I0727 10:34:53.439177 24021 net.cpp:129] Top shape: 1 1 48 64 (3072)
I0727 10:34:53.439180 24021 net.cpp:129] Top shape: 1 1 48 64 (3072)
I0727 10:34:53.439184 24021 net.cpp:129] Top shape: 1 1 48 64 (3072)
I0727 10:34:53.439189 24021 net.cpp:129] Top shape: 1 1 48 64 (3072)
I0727 10:34:53.439193 24021 net.cpp:129] Top shape: 1 1 48 64 (3072)
I0727 10:34:53.439198 24021 net.cpp:129] Top shape: 1 1 48 64 (3072)
I0727 10:34:53.439201 24021 net.cpp:129] Top shape: 1 1 48 64 (3072)
I0727 10:34:53.439205 24021 net.cpp:129] Top shape: 1 1 48 64 (3072)
I0727 10:34:53.439209 24021 net.cpp:129] Top shape: 1 1 48 64 (3072)
I0727 10:34:53.439214 24021 net.cpp:129] Top shape: 1 1 48 64 (3072)
I0727 10:34:53.439218 24021 net.cpp:129] Top shape: 1 1 48 64 (3072)
I0727 10:34:53.439223 24021 net.cpp:129] Top shape: 1 1 48 64 (3072)
I0727 10:34:53.439227 24021 net.cpp:129] Top shape: 1 1 48 64 (3072)
I0727 10:34:53.439231 24021 net.cpp:129] Top shape: 1 1 48 64 (3072)
I0727 10:34:53.439235 24021 net.cpp:129] Top shape: 1 1 48 64 (3072)
I0727 10:34:53.439240 24021 net.cpp:129] Top shape: 1 1 48 64 (3072)
I0727 10:34:53.439244 24021 net.cpp:129] Top shape: 1 1 48 64 (3072)
I0727 10:34:53.439249 24021 net.cpp:129] Top shape: 1 1 48 64 (3072)
I0727 10:34:53.439254 24021 net.cpp:129] Top shape: 1 1 48 64 (3072)
I0727 10:34:53.439257 24021 net.cpp:129] Top shape: 1 1 48 64 (3072)
I0727 10:34:53.439261 24021 net.cpp:129] Top shape: 1 1 48 64 (3072)
I0727 10:34:53.439265 24021 net.cpp:129] Top shape: 1 1 48 64 (3072)
I0727 10:34:53.439270 24021 net.cpp:129] Top shape: 1 1 48 64 (3072)
I0727 10:34:53.439275 24021 net.cpp:129] Top shape: 1 1 48 64 (3072)
I0727 10:34:53.439278 24021 net.cpp:129] Top shape: 1 1 48 64 (3072)
I0727 10:34:53.439283 24021 net.cpp:129] Top shape: 1 1 48 64 (3072)
I0727 10:34:53.439287 24021 net.cpp:129] Top shape: 1 1 48 64 (3072)
I0727 10:34:53.439291 24021 net.cpp:129] Top shape: 1 1 48 64 (3072)
I0727 10:34:53.439296 24021 net.cpp:129] Top shape: 1 1 48 64 (3072)
I0727 10:34:53.439301 24021 net.cpp:129] Top shape: 1 1 48 64 (3072)
I0727 10:34:53.439304 24021 net.cpp:129] Top shape: 1 1 48 64 (3072)
I0727 10:34:53.439308 24021 net.cpp:129] Top shape: 1 1 48 64 (3072)
I0727 10:34:53.439313 24021 net.cpp:129] Top shape: 1 1 48 64 (3072)
I0727 10:34:53.439317 24021 net.cpp:129] Top shape: 1 1 48 64 (3072)
I0727 10:34:53.439321 24021 net.cpp:129] Top shape: 1 1 48 64 (3072)
I0727 10:34:53.439327 24021 net.cpp:129] Top shape: 1 1 48 64 (3072)
I0727 10:34:53.439330 24021 net.cpp:129] Top shape: 1 1 48 64 (3072)
I0727 10:34:53.439334 24021 net.cpp:129] Top shape: 1 1 48 64 (3072)
I0727 10:34:53.439338 24021 net.cpp:129] Top shape: 1 1 48 64 (3072)
I0727 10:34:53.439342 24021 net.cpp:137] Memory required for data: 489185280
I0727 10:34:53.439347 24021 layer_factory.hpp:77] Creating layer loss1
I0727 10:34:53.439354 24021 net.cpp:84] Creating Layer loss1
I0727 10:34:53.439359 24021 net.cpp:406] loss1 <- score1_slicer_conv_0_split_1
I0727 10:34:53.439364 24021 net.cpp:406] loss1 <- label_label_0_split_0
I0727 10:34:53.439369 24021 net.cpp:406] loss1 <- sumscore_sumscore_0_split_0
…
I0727 10:34:53.467599 24021 net.cpp:51] Initializing net from parameters: 
name: "crowd_counting"
state {
  phase: TEST
}
layer {
  name: "data"
  type: "Data"
  top: "data"
  include {
    phase: TEST
  }
  data_param {
    source: "/home/peiyong/Work/Zenglin/szl/ShanghaiTech/partA/test_8/image_lmdb"
    batch_size: 1
    backend: LMDB
  }
}
layer {
  name: "label"
  type: "Data"
  top: "label"
  include {
    phase: TEST
  }
  data_param {
    source: "/home/peiyong/Work/Zenglin/szl/ShanghaiTech/partA/test_8/dmap_lmdb"
    batch_size: 1
    backend: LMDB
  }
}
layer {
  name: "conv1_1"
  type: "Convolution"
  bottom: "data"
  top: "conv1_1"
  param {
    lr_mult: 0.1
    decay_mult: 1
  }
  param {
    lr_mult: 0.2
    decay_mult: 0
  }
  convolution_param {
    num_output: 64
    pad: 1
    kernel_size: 3
    weight_filler {
      type: "gaussian"
      std: 0.01
    }
    bias_filler {
      type: "constant"
      value: 0
    }
  }
}
layer {
  name: "relu1_1"
  type: "ReLU"
  bottom: "conv1_1"
  top: "conv1_1"
}
layer {
  name: "conv1_2"
  type: "Convolution"
  bottom: "conv1_1"
  top: "conv1_2"
  param {
    lr_mult: 0.1
    decay_mult: 1
  }
  param {
    lr_mult: 0.2
    decay_mult: 0
  }
  convolution_param {
    num_output: 64
    pad: 1
    kernel_size: 3
    weight_filler {
      type: "gaussian"
      std: 0.01
    }
    bias_filler {
      type: "constant"
      value: 0
    }
  }
}
layer {
  name: "relu1_2"
  type: "ReLU"
  bottom: "conv1_2"
  top: "conv1_2"
}
layer {
  name: "pool1"
  type: "Pooling"
  bottom: "conv1_2"
  top: "pool1"
  pooling_param {
    pool: MAX
    kernel_size: 2
    stride: 2
  }
}
layer {
  name: "conv2_1"
  type: "Convolution"
  bottom: "pool1"
  top: "conv2_1"
  param {
    lr_mult: 0.1
    decay_mult: 1
  }
  param {
    lr_mult: 0.2
    decay_mult: 0
  }
  convolution_param {
    num_output: 128
    pad: 1
    kernel_size: 3
    weight_filler {
      type: "gaussian"
      std: 0.01
    }
    bias_filler {
      type: "constant"
      value: 0
    }
  }
}
layer {
  name: "relu2_1"
  type: "ReLU"
  bottom: "conv2_1"
  top: "conv2_1"
}
layer {
  name: "conv2_2"
  type: "Convolution"
  bottom: "conv2_1"
  top: "conv2_2"
  param {
    lr_mult: 0.1
    decay_mult: 1
  }
  param {
    lr_mult: 0.2
    decay_mult: 0
  }
  convolution_param {
    num_output: 128
    pad: 1
    kernel_size: 3
    weight_filler {
      type: "gaussian"
      std: 0.01
    }
    bias_filler {
      type: "constant"
      value: 0
    }
  }
}
layer {
  name: "relu2_2"
  type: "ReLU"
  bottom: "conv2_2"
  top: "conv2_2"
}
layer {
  name: "pool2"
  type: "Pooling"
  bottom: "conv2_2"
  top: "pool2"
  pooling_param {
    pool: MAX
    kernel_size: 2
    stride: 2
  }
}
layer {
  name: "conv3_1"
  type: "Convolution"
  bottom: "pool2"
  top: "conv3_1"
  param {
    lr_mult: 0.1
    decay_mult: 1
  }
  param {
    lr_mult: 0.2
    decay_mult: 0
  }
  convolution_param {
    num_output: 256
    pad: 1
    kernel_size: 3
    weight_filler {
      type: "gaussian"
      std: 0.01
    }
    bias_filler {
      type: "constant"
      value: 0
    }
  }
}
layer {
  name: "relu3_1"
  type: "ReLU"
  bottom: "conv3_1"
  top: "conv3_1"
}
layer {
  name: "conv3_2"
  type: "Convolution"
  bottom: "conv3_1"
  top: "conv3_2"
  param {
    lr_mult: 0.1
    decay_mult: 1
  }
  param {
    lr_mult: 0.2
    decay_mult: 0
  }
  convolution_param {
    num_output: 256
    pad: 1
    kernel_size: 3
    weight_filler {
      type: "gaussian"
      std: 0.01
    }
    bias_filler {
      type: "constant"
      value: 0
    }
  }
}
layer {
  name: "relu3_2"
  type: "ReLU"
  bottom: "conv3_2"
  top: "conv3_2"
}
layer {
  name: "conv3_3"
  type: "Convolution"
  bottom: "conv3_2"
  top: "conv3_3"
  param {
    lr_mult: 0.1
    decay_mult: 1
  }
  param {
    lr_mult: 0.2
    decay_mult: 0
  }
  convolution_param {
    num_output: 256
    pad: 1
    kernel_size: 3
    weight_filler {
      type: "gaussian"
      std: 0.01
    }
    bias_filler {
      type: "constant"
      value: 0
    }
  }
}
layer {
  name: "relu3_3"
  type: "ReLU"
  bottom: "conv3_3"
  top: "conv3_3"
}
layer {
  name: "pool3"
  type: "Pooling"
  bottom: "conv3_3"
  top: "pool3"
  pooling_param {
    pool: MAX
    kernel_size: 2
    stride: 2
  }
}
layer {
  name: "conv4_1"
  type: "Convolution"
  bottom: "pool3"
  top: "conv4_1"
  param {
    lr_mult: 0.1
    decay_mult: 1
  }
  param {
    lr_mult: 0.2
    decay_mult: 0
  }
  convolution_param {
    num_output: 512
    pad: 1
    kernel_size: 3
    weight_filler {
      type: "gaussian"
      std: 0.01
    }
    bias_filler {
      type: "constant"
      value: 0
    }
  }
}
layer {
  name: "relu4_1"
  type: "ReLU"
  bottom: "conv4_1"
  top: "conv4_1"
}
layer {
  name: "conv4_2"
  type: "Convolution"
  bottom: "conv4_1"
  top: "conv4_2"
  param {
    lr_mult: 0.1
    decay_mult: 1
  }
  param {
    lr_mult: 0.2
    decay_mult: 0
  }
  convolution_param {
    num_output: 512
    pad: 1
    kernel_size: 3
    weight_filler {
      type: "gaussian"
      std: 0.01
    }
    bias_filler {
      type: "constant"
      value: 0
    }
  }
}
layer {
  name: "relu4_2"
  type: "ReLU"
  bottom: "conv4_2"
  top: "conv4_2"
}
layer {
  name: "conv4_3"
  type: "Convolution"
  bottom: "conv4_2"
  top: "conv4_3"
  param {
    lr_mult: 0.1
    decay_mult: 1
  }
  param {
    lr_mult: 0.2
    decay_mult: 0
  }
  convolution_param {
    num_output: 512
    pad: 1
    kernel_size: 3
    weight_filler {
      type: "gaussian"
      std: 0.01
    }
    bias_filler {
      type: "constant"
      value: 0
    }
  }
}
layer {
  name: "relu4_3"
  type: "ReLU"
  bottom: "conv4_3"
  top: "conv4_3"
}
layer {
  name: "pool4"
  type: "Pooling"
  bottom: "conv4_3"
  top: "pool4"
  pooling_param {
    pool: MAX
    kernel_size: 3
    stride: 1
    pad: 1
  }
}
layer {
  name: "conv5_1"
  type: "Convolution"
  bottom: "pool4"
  top: "conv5_1"
  param {
    lr_mult: 0.1
    decay_mult: 1
  }
  param {
    lr_mult: 0.2
    decay_mult: 0
  }
  convolution_param {
    num_output: 512
    pad: 2
    kernel_size: 3
    weight_filler {
      type: "gaussian"
      std: 0.01
    }
    bias_filler {
      type: "constant"
      value: 0
    }
    dilation: 2
  }
}
layer {
  name: "relu5_1"
  type: "ReLU"
  bottom: "conv5_1"
  top: "conv5_1"
}
layer {
  name: "conv5_2"
  type: "Convolution"
  bottom: "conv5_1"
  top: "conv5_2"
  param {
    lr_mult: 0.1
    decay_mult: 1
  }
  param {
    lr_mult: 0.2
    decay_mult: 0
  }
  convolution_param {
    num_output: 512
    pad: 2
    kernel_size: 3
    weight_filler {
      type: "gaussian"
      std: 0.01
    }
    bias_filler {
      type: "constant"
      value: 0
    }
    dilation: 2
  }
}
layer {
  name: "relu5_2"
  type: "ReLU"
  bottom: "conv5_2"
  top: "conv5_2"
}
layer {
  name: "conv5_3"
  type: "Convolution"
  bottom: "conv5_2"
  top: "conv5_3"
  param {
    lr_mult: 0.1
    decay_mult: 1
  }
  param {
    lr_mult: 0.2
    decay_mult: 0
  }
  convolution_param {
    num_output: 512
    pad: 2
    kernel_size: 3
    weight_filler {
      type: "gaussian"
      std: 0.01
    }
    bias_filler {
      type: "constant"
      value: 0
    }
    dilation: 2
  }
}
layer {
  name: "relu5_3"
  type: "ReLU"
  bottom: "conv5_3"
  top: "conv5_3"
}
layer {
  name: "conv_score"
  type: "Convolution"
  bottom: "conv5_3"
  top: "conv_score"
  param {
    lr_mult: 10
    decay_mult: 1
  }
  param {
    lr_mult: 20
    decay_mult: 0
  }
  convolution_param {
    num_output: 64
    pad: 0
    kernel_size: 1
    group: 64
    stride: 1
    weight_filler {
      type: "constant"
      value: 0.0001
    }
    bias_filler {
      type: "constant"
      value: 0
    }
  }
}
layer {
  name: "relu_score"
  type: "ReLU"
  bottom: "conv_score"
  top: "conv_score"
}
layer {
  name: "slicer_conv"
  type: "Slice"
  bottom: "conv_score"
  top: "score1"
  top: "score2"
  top: "score3"
  top: "score4"
  top: "score5"
  top: "score6"
  top: "score7"
  top: "score8"
  top: "score9"
  top: "score10"
  top: "score11"
  top: "score12"
  top: "score13"
  top: "score14"
  top: "score15"
  top: "score16"
  top: "score17"
  top: "score18"
  top: "score19"
  top: "score20"
  top: "score21"
  top: "score22"
  top: "score23"
  top: "score24"
  top: "score25"
  top: "score26"
  top: "score27"
  top: "score28"
  top: "score29"
  top: "score30"
  top: "score31"
  top: "score32"
  top: "score33"
  top: "score34"
  top: "score35"
  top: "score36"
  top: "score37"
  top: "score38"
  top: "score39"
  top: "score40"
  top: "score41"
  top: "score42"
  top: "score43"
  top: "score44"
  top: "score45"
  top: "score46"
  top: "score47"
  top: "score48"
  top: "score49"
  top: "score50"
  top: "score51"
  top: "score52"
  top: "score53"
  top: "score54"
  top: "score55"
  top: "score56"
  top: "score57"
  top: "score58"
  top: "score59"
  top: "score60"
  top: "score61"
  top: "score62"
  top: "score63"
  top: "score64"
  slice_param {
    axis: 1
  }
}
layer {
  name: "sumscore"
  type: "Eltwise"
  bottom: "score1"
  bottom: "score2"
  bottom: "score3"
  bottom: "score4"
  bottom: "score5"
  bottom: "score6"
  bottom: "score7"
  bottom: "score8"
  bottom: "score9"
  bottom: "score10"
  bottom: "score11"
  bottom: "score12"
  bottom: "score13"
  bottom: "score14"
  bottom: "score15"
  bottom: "score16"
  bottom: "score17"
  bottom: "score18"
  bottom: "score19"
  bottom: "score20"
  bottom: "score21"
  bottom: "score22"
  bottom: "score23"
  bottom: "score24"
  bottom: "score25"
  bottom: "score26"
  bottom: "score27"
  bottom: "score28"
  bottom: "score29"
  bottom: "score30"
  bottom: "score31"
  bottom: "score32"
  bottom: "score33"
  bottom: "score34"
  bottom: "score35"
  bottom: "score36"
  bottom: "score37"
  bottom: "score38"
  bottom: "score39"
  bottom: "score40"
  bottom: "score41"
  bottom: "score42"
  bottom: "score43"
  bottom: "score44"
  bottom: "score45"
  bottom: "score46"
  bottom: "score47"
  bottom: "score48"
  bottom: "score49"
  bottom: "score50"
  bottom: "score51"
  bottom: "score52"
  bottom: "score53"
  bottom: "score54"
  bottom: "score55"
  bottom: "score56"
  bottom: "score57"
  bottom: "score58"
  bottom: "score59"
  bottom: "score60"
  bottom: "score61"
  bottom: "score62"
  bottom: "score63"
  bottom: "score64"
  top: "sumscore"
  eltwise_param {
    operation: SUM
  }
}
layer {
  name: "avgscore"
  type: "Power"
  bottom: "sumscore"
  top: "avgscore"
  include {
    phase: TEST
  }
  power_param {
    power: 1
    scale: 0.015625
    shift: 0
  }
}
layer {
  name: "mae"
  type: "MAELoss"
  bottom: "avgscore"
  bottom: "label"
  top: "mae"
  include {
    phase: TEST
  }
}
layer {
  name: "mse"
  type: "MSELoss"
  bottom: "avgscore"
  bottom: "label"
  top: "mse"
  include {
    phase: TEST
  }
}
I0727 10:34:53.467960 24021 layer_factory.hpp:77] Creating layer data
I0727 10:34:53.468394 24021 db_lmdb.cpp:35] Opened lmdb /home/peiyong/Work/Zenglin/szl/ShanghaiTech/partA/test_8/image_lmdb
I0727 10:34:53.469326 24021 net.cpp:84] Creating Layer data
I0727 10:34:53.469338 24021 net.cpp:380] data -> data
I0727 10:34:53.474769 24021 data_layer.cpp:45] output data size: 1,3,704,1024
I0727 10:34:53.490459 24021 net.cpp:122] Setting up data
I0727 10:34:53.490492 24021 net.cpp:129] Top shape: 1 3 704 1024 (2162688)
I0727 10:34:53.490497 24021 net.cpp:137] Memory required for data: 8650752
I0727 10:34:53.490504 24021 layer_factory.hpp:77] Creating layer label
I0727 10:34:53.490906 24021 db_lmdb.cpp:35] Opened lmdb /home/peiyong/Work/Zenglin/szl/ShanghaiTech/partA/test_8/dmap_lmdb
I0727 10:34:53.491605 24021 net.cpp:84] Creating Layer label
I0727 10:34:53.491617 24021 net.cpp:380] label -> label
I0727 10:34:53.491791 24021 data_layer.cpp:45] output data size: 1,1,88,128
I0727 10:34:53.491966 24021 net.cpp:122] Setting up label
I0727 10:34:53.491977 24021 net.cpp:129] Top shape: 1 1 88 128 (11264)
I0727 10:34:53.492005 24021 net.cpp:137] Memory required for data: 8695808
I0727 10:34:53.492014 24021 layer_factory.hpp:77] Creating layer label_label_0_split
I0727 10:34:53.492023 24021 net.cpp:84] Creating Layer label_label_0_split
I0727 10:34:53.492028 24021 net.cpp:406] label_label_0_split <- label
I0727 10:34:53.492035 24021 net.cpp:380] label_label_0_split -> label_label_0_split_0
I0727 10:34:53.492061 24021 net.cpp:380] label_label_0_split -> label_label_0_split_1
I0727 10:34:53.492116 24021 net.cpp:122] Setting up label_label_0_split
I0727 10:34:53.492125 24021 net.cpp:129] Top shape: 1 1 88 128 (11264)
I0727 10:34:53.492128 24021 net.cpp:129] Top shape: 1 1 88 128 (11264)
I0727 10:34:53.492137 24021 net.cpp:137] Memory required for data: 8785920
I0727 10:34:53.492141 24021 layer_factory.hpp:77] Creating layer conv1_1
I0727 10:34:53.492159 24021 net.cpp:84] Creating Layer conv1_1
I0727 10:34:53.492163 24021 net.cpp:406] conv1_1 <- data
I0727 10:34:53.492168 24021 net.cpp:380] conv1_1 -> conv1_1
I0727 10:34:53.496222 24021 net.cpp:122] Setting up conv1_1
I0727 10:34:53.496243 24021 net.cpp:129] Top shape: 1 64 704 1024 (46137344)
I0727 10:34:53.496245 24021 net.cpp:137] Memory required for data: 193335296
I0727 10:34:53.496256 24021 layer_factory.hpp:77] Creating layer relu1_1
I0727 10:34:53.496264 24021 net.cpp:84] Creating Layer relu1_1
I0727 10:34:53.496268 24021 net.cpp:406] relu1_1 <- conv1_1
I0727 10:34:53.496273 24021 net.cpp:367] relu1_1 -> conv1_1 (in-place)
I0727 10:34:53.496909 24021 net.cpp:122] Setting up relu1_1
I0727 10:34:53.496922 24021 net.cpp:129] Top shape: 1 64 704 1024 (46137344)
I0727 10:34:53.496927 24021 net.cpp:137] Memory required for data: 377884672
I0727 10:34:53.496930 24021 layer_factory.hpp:77] Creating layer conv1_2
I0727 10:34:53.496942 24021 net.cpp:84] Creating Layer conv1_2
I0727 10:34:53.496947 24021 net.cpp:406] conv1_2 <- conv1_1
I0727 10:34:53.496953 24021 net.cpp:380] conv1_2 -> conv1_2
I0727 10:34:53.501096 24021 net.cpp:122] Setting up conv1_2
I0727 10:34:53.501112 24021 net.cpp:129] Top shape: 1 64 704 1024 (46137344)
I0727 10:34:53.501114 24021 net.cpp:137] Memory required for data: 562434048
I0727 10:34:53.501123 24021 layer_factory.hpp:77] Creating layer relu1_2
I0727 10:34:53.501130 24021 net.cpp:84] Creating Layer relu1_2
I0727 10:34:53.501133 24021 net.cpp:406] relu1_2 <- conv1_2
I0727 10:34:53.501137 24021 net.cpp:367] relu1_2 -> conv1_2 (in-place)
I0727 10:34:53.501328 24021 net.cpp:122] Setting up relu1_2
I0727 10:34:53.501338 24021 net.cpp:129] Top shape: 1 64 704 1024 (46137344)
I0727 10:34:53.501343 24021 net.cpp:137] Memory required for data: 746983424
I0727 10:34:53.501346 24021 layer_factory.hpp:77] Creating layer pool1
I0727 10:34:53.501353 24021 net.cpp:84] Creating Layer pool1
I0727 10:34:53.501358 24021 net.cpp:406] pool1 <- conv1_2
I0727 10:34:53.501363 24021 net.cpp:380] pool1 -> pool1
I0727 10:34:53.501422 24021 net.cpp:122] Setting up pool1
I0727 10:34:53.501430 24021 net.cpp:129] Top shape: 1 64 352 512 (11534336)
I0727 10:34:53.501432 24021 net.cpp:137] Memory required for data: 793120768
I0727 10:34:53.501436 24021 layer_factory.hpp:77] Creating layer conv2_1
I0727 10:34:53.501447 24021 net.cpp:84] Creating Layer conv2_1
I0727 10:34:53.501452 24021 net.cpp:406] conv2_1 <- pool1
I0727 10:34:53.501458 24021 net.cpp:380] conv2_1 -> conv2_1
I0727 10:34:53.504500 24021 net.cpp:122] Setting up conv2_1
I0727 10:34:53.504514 24021 net.cpp:129] Top shape: 1 128 352 512 (23068672)
I0727 10:34:53.504518 24021 net.cpp:137] Memory required for data: 885395456
I0727 10:34:53.504528 24021 layer_factory.hpp:77] Creating layer relu2_1
I0727 10:34:53.504555 24021 net.cpp:84] Creating Layer relu2_1
I0727 10:34:53.504562 24021 net.cpp:406] relu2_1 <- conv2_1
I0727 10:34:53.504567 24021 net.cpp:367] relu2_1 -> conv2_1 (in-place)
I0727 10:34:53.505143 24021 net.cpp:122] Setting up relu2_1
I0727 10:34:53.505156 24021 net.cpp:129] Top shape: 1 128 352 512 (23068672)
I0727 10:34:53.505159 24021 net.cpp:137] Memory required for data: 977670144
I0727 10:34:53.505164 24021 layer_factory.hpp:77] Creating layer conv2_2
I0727 10:34:53.505173 24021 net.cpp:84] Creating Layer conv2_2
I0727 10:34:53.505177 24021 net.cpp:406] conv2_2 <- conv2_1
I0727 10:34:53.505183 24021 net.cpp:380] conv2_2 -> conv2_2
I0727 10:34:53.510228 24021 net.cpp:122] Setting up conv2_2
I0727 10:34:53.510246 24021 net.cpp:129] Top shape: 1 128 352 512 (23068672)
I0727 10:34:53.510249 24021 net.cpp:137] Memory required for data: 1069944832
I0727 10:34:53.510257 24021 layer_factory.hpp:77] Creating layer relu2_2
I0727 10:34:53.510264 24021 net.cpp:84] Creating Layer relu2_2
I0727 10:34:53.510269 24021 net.cpp:406] relu2_2 <- conv2_2
I0727 10:34:53.510275 24021 net.cpp:367] relu2_2 -> conv2_2 (in-place)
I0727 10:34:53.510877 24021 net.cpp:122] Setting up relu2_2
I0727 10:34:53.510890 24021 net.cpp:129] Top shape: 1 128 352 512 (23068672)
I0727 10:34:53.510893 24021 net.cpp:137] Memory required for data: 1162219520
I0727 10:34:53.510898 24021 layer_factory.hpp:77] Creating layer pool2
I0727 10:34:53.510905 24021 net.cpp:84] Creating Layer pool2
I0727 10:34:53.510910 24021 net.cpp:406] pool2 <- conv2_2
I0727 10:34:53.510915 24021 net.cpp:380] pool2 -> pool2
I0727 10:34:53.510977 24021 net.cpp:122] Setting up pool2
I0727 10:34:53.510984 24021 net.cpp:129] Top shape: 1 128 176 256 (5767168)
I0727 10:34:53.510987 24021 net.cpp:137] Memory required for data: 1185288192
I0727 10:34:53.510992 24021 layer_factory.hpp:77] Creating layer conv3_1
I0727 10:34:53.511001 24021 net.cpp:84] Creating Layer conv3_1
I0727 10:34:53.511005 24021 net.cpp:406] conv3_1 <- pool2
I0727 10:34:53.511013 24021 net.cpp:380] conv3_1 -> conv3_1
I0727 10:34:53.515964 24021 net.cpp:122] Setting up conv3_1
I0727 10:34:53.515978 24021 net.cpp:129] Top shape: 1 256 176 256 (11534336)
I0727 10:34:53.515981 24021 net.cpp:137] Memory required for data: 1231425536
I0727 10:34:53.515992 24021 layer_factory.hpp:77] Creating layer relu3_1
I0727 10:34:53.516000 24021 net.cpp:84] Creating Layer relu3_1
I0727 10:34:53.516005 24021 net.cpp:406] relu3_1 <- conv3_1
I0727 10:34:53.516010 24021 net.cpp:367] relu3_1 -> conv3_1 (in-place)
I0727 10:34:53.516191 24021 net.cpp:122] Setting up relu3_1
I0727 10:34:53.516199 24021 net.cpp:129] Top shape: 1 256 176 256 (11534336)
I0727 10:34:53.516203 24021 net.cpp:137] Memory required for data: 1277562880
I0727 10:34:53.516208 24021 layer_factory.hpp:77] Creating layer conv3_2
I0727 10:34:53.516217 24021 net.cpp:84] Creating Layer conv3_2
I0727 10:34:53.516222 24021 net.cpp:406] conv3_2 <- conv3_1
I0727 10:34:53.516228 24021 net.cpp:380] conv3_2 -> conv3_2
I0727 10:34:53.523700 24021 net.cpp:122] Setting up conv3_2
I0727 10:34:53.523717 24021 net.cpp:129] Top shape: 1 256 176 256 (11534336)
I0727 10:34:53.523720 24021 net.cpp:137] Memory required for data: 1323700224
I0727 10:34:53.523727 24021 layer_factory.hpp:77] Creating layer relu3_2
I0727 10:34:53.523737 24021 net.cpp:84] Creating Layer relu3_2
I0727 10:34:53.523742 24021 net.cpp:406] relu3_2 <- conv3_2
I0727 10:34:53.523747 24021 net.cpp:367] relu3_2 -> conv3_2 (in-place)
I0727 10:34:53.524582 24021 net.cpp:122] Setting up relu3_2
I0727 10:34:53.524595 24021 net.cpp:129] Top shape: 1 256 176 256 (11534336)
I0727 10:34:53.524600 24021 net.cpp:137] Memory required for data: 1369837568
I0727 10:34:53.524603 24021 layer_factory.hpp:77] Creating layer conv3_3
I0727 10:34:53.524613 24021 net.cpp:84] Creating Layer conv3_3
I0727 10:34:53.524617 24021 net.cpp:406] conv3_3 <- conv3_2
I0727 10:34:53.524624 24021 net.cpp:380] conv3_3 -> conv3_3
I0727 10:34:53.532150 24021 net.cpp:122] Setting up conv3_3
I0727 10:34:53.532188 24021 net.cpp:129] Top shape: 1 256 176 256 (11534336)
I0727 10:34:53.532193 24021 net.cpp:137] Memory required for data: 1415974912
I0727 10:34:53.532202 24021 layer_factory.hpp:77] Creating layer relu3_3
I0727 10:34:53.532208 24021 net.cpp:84] Creating Layer relu3_3
I0727 10:34:53.532213 24021 net.cpp:406] relu3_3 <- conv3_3
I0727 10:34:53.532218 24021 net.cpp:367] relu3_3 -> conv3_3 (in-place)
I0727 10:34:53.533095 24021 net.cpp:122] Setting up relu3_3
I0727 10:34:53.533107 24021 net.cpp:129] Top shape: 1 256 176 256 (11534336)
I0727 10:34:53.533110 24021 net.cpp:137] Memory required for data: 1462112256
I0727 10:34:53.533113 24021 layer_factory.hpp:77] Creating layer pool3
I0727 10:34:53.533119 24021 net.cpp:84] Creating Layer pool3
I0727 10:34:53.533123 24021 net.cpp:406] pool3 <- conv3_3
I0727 10:34:53.533128 24021 net.cpp:380] pool3 -> pool3
I0727 10:34:53.533187 24021 net.cpp:122] Setting up pool3
I0727 10:34:53.533195 24021 net.cpp:129] Top shape: 1 256 88 128 (2883584)
I0727 10:34:53.533200 24021 net.cpp:137] Memory required for data: 1473646592
I0727 10:34:53.533201 24021 layer_factory.hpp:77] Creating layer conv4_1
I0727 10:34:53.533211 24021 net.cpp:84] Creating Layer conv4_1
I0727 10:34:53.533215 24021 net.cpp:406] conv4_1 <- pool3
I0727 10:34:53.533223 24021 net.cpp:380] conv4_1 -> conv4_1
I0727 10:34:53.547333 24021 net.cpp:122] Setting up conv4_1
I0727 10:34:53.547355 24021 net.cpp:129] Top shape: 1 512 88 128 (5767168)
I0727 10:34:53.547358 24021 net.cpp:137] Memory required for data: 1496715264
I0727 10:34:53.547365 24021 layer_factory.hpp:77] Creating layer relu4_1
I0727 10:34:53.547374 24021 net.cpp:84] Creating Layer relu4_1
I0727 10:34:53.547376 24021 net.cpp:406] relu4_1 <- conv4_1
I0727 10:34:53.547384 24021 net.cpp:367] relu4_1 -> conv4_1 (in-place)
I0727 10:34:53.547560 24021 net.cpp:122] Setting up relu4_1
I0727 10:34:53.547571 24021 net.cpp:129] Top shape: 1 512 88 128 (5767168)
I0727 10:34:53.547574 24021 net.cpp:137] Memory required for data: 1519783936
I0727 10:34:53.547580 24021 layer_factory.hpp:77] Creating layer conv4_2
I0727 10:34:53.547590 24021 net.cpp:84] Creating Layer conv4_2
I0727 10:34:53.547593 24021 net.cpp:406] conv4_2 <- conv4_1
I0727 10:34:53.547600 24021 net.cpp:380] conv4_2 -> conv4_2
I0727 10:34:53.571039 24021 net.cpp:122] Setting up conv4_2
I0727 10:34:53.571066 24021 net.cpp:129] Top shape: 1 512 88 128 (5767168)
I0727 10:34:53.571069 24021 net.cpp:137] Memory required for data: 1542852608
I0727 10:34:53.571082 24021 layer_factory.hpp:77] Creating layer relu4_2
I0727 10:34:53.571092 24021 net.cpp:84] Creating Layer relu4_2
I0727 10:34:53.571097 24021 net.cpp:406] relu4_2 <- conv4_2
I0727 10:34:53.571104 24021 net.cpp:367] relu4_2 -> conv4_2 (in-place)
I0727 10:34:53.571689 24021 net.cpp:122] Setting up relu4_2
I0727 10:34:53.571702 24021 net.cpp:129] Top shape: 1 512 88 128 (5767168)
I0727 10:34:53.571704 24021 net.cpp:137] Memory required for data: 1565921280
I0727 10:34:53.571707 24021 layer_factory.hpp:77] Creating layer conv4_3
I0727 10:34:53.571717 24021 net.cpp:84] Creating Layer conv4_3
I0727 10:34:53.571719 24021 net.cpp:406] conv4_3 <- conv4_2
I0727 10:34:53.571725 24021 net.cpp:380] conv4_3 -> conv4_3
I0727 10:34:53.596405 24021 net.cpp:122] Setting up conv4_3
I0727 10:34:53.596436 24021 net.cpp:129] Top shape: 1 512 88 128 (5767168)
I0727 10:34:53.596439 24021 net.cpp:137] Memory required for data: 1588989952
I0727 10:34:53.596447 24021 layer_factory.hpp:77] Creating layer relu4_3
I0727 10:34:53.596456 24021 net.cpp:84] Creating Layer relu4_3
I0727 10:34:53.596462 24021 net.cpp:406] relu4_3 <- conv4_3
I0727 10:34:53.596468 24021 net.cpp:367] relu4_3 -> conv4_3 (in-place)
I0727 10:34:53.597064 24021 net.cpp:122] Setting up relu4_3
I0727 10:34:53.597076 24021 net.cpp:129] Top shape: 1 512 88 128 (5767168)
I0727 10:34:53.597079 24021 net.cpp:137] Memory required for data: 1612058624
I0727 10:34:53.597081 24021 layer_factory.hpp:77] Creating layer pool4
I0727 10:34:53.597088 24021 net.cpp:84] Creating Layer pool4
I0727 10:34:53.597091 24021 net.cpp:406] pool4 <- conv4_3
I0727 10:34:53.597128 24021 net.cpp:380] pool4 -> pool4
I0727 10:34:53.597195 24021 net.cpp:122] Setting up pool4
I0727 10:34:53.597203 24021 net.cpp:129] Top shape: 1 512 88 128 (5767168)
I0727 10:34:53.597206 24021 net.cpp:137] Memory required for data: 1635127296
I0727 10:34:53.597209 24021 layer_factory.hpp:77] Creating layer conv5_1
I0727 10:34:53.597220 24021 net.cpp:84] Creating Layer conv5_1
I0727 10:34:53.597225 24021 net.cpp:406] conv5_1 <- pool4
I0727 10:34:53.597232 24021 net.cpp:380] conv5_1 -> conv5_1
I0727 10:34:53.620308 24021 net.cpp:122] Setting up conv5_1
I0727 10:34:53.620335 24021 net.cpp:129] Top shape: 1 512 88 128 (5767168)
I0727 10:34:53.620338 24021 net.cpp:137] Memory required for data: 1658195968
I0727 10:34:53.620345 24021 layer_factory.hpp:77] Creating layer relu5_1
I0727 10:34:53.620355 24021 net.cpp:84] Creating Layer relu5_1
I0727 10:34:53.620360 24021 net.cpp:406] relu5_1 <- conv5_1
I0727 10:34:53.620368 24021 net.cpp:367] relu5_1 -> conv5_1 (in-place)
I0727 10:34:53.620597 24021 net.cpp:122] Setting up relu5_1
I0727 10:34:53.620609 24021 net.cpp:129] Top shape: 1 512 88 128 (5767168)
I0727 10:34:53.620610 24021 net.cpp:137] Memory required for data: 1681264640
I0727 10:34:53.620613 24021 layer_factory.hpp:77] Creating layer conv5_2
I0727 10:34:53.620622 24021 net.cpp:84] Creating Layer conv5_2
I0727 10:34:53.620625 24021 net.cpp:406] conv5_2 <- conv5_1
I0727 10:34:53.620630 24021 net.cpp:380] conv5_2 -> conv5_2
I0727 10:34:53.645038 24021 net.cpp:122] Setting up conv5_2
I0727 10:34:53.645067 24021 net.cpp:129] Top shape: 1 512 88 128 (5767168)
I0727 10:34:53.645071 24021 net.cpp:137] Memory required for data: 1704333312
I0727 10:34:53.645079 24021 layer_factory.hpp:77] Creating layer relu5_2
I0727 10:34:53.645089 24021 net.cpp:84] Creating Layer relu5_2
I0727 10:34:53.645094 24021 net.cpp:406] relu5_2 <- conv5_2
I0727 10:34:53.645102 24021 net.cpp:367] relu5_2 -> conv5_2 (in-place)
I0727 10:34:53.645865 24021 net.cpp:122] Setting up relu5_2
I0727 10:34:53.645879 24021 net.cpp:129] Top shape: 1 512 88 128 (5767168)
I0727 10:34:53.645881 24021 net.cpp:137] Memory required for data: 1727401984
I0727 10:34:53.645884 24021 layer_factory.hpp:77] Creating layer conv5_3
I0727 10:34:53.645895 24021 net.cpp:84] Creating Layer conv5_3
I0727 10:34:53.645898 24021 net.cpp:406] conv5_3 <- conv5_2
I0727 10:34:53.645903 24021 net.cpp:380] conv5_3 -> conv5_3
I0727 10:34:53.667716 24021 net.cpp:122] Setting up conv5_3
I0727 10:34:53.667747 24021 net.cpp:129] Top shape: 1 512 88 128 (5767168)
I0727 10:34:53.667749 24021 net.cpp:137] Memory required for data: 1750470656
I0727 10:34:53.667757 24021 layer_factory.hpp:77] Creating layer relu5_3
I0727 10:34:53.667771 24021 net.cpp:84] Creating Layer relu5_3
I0727 10:34:53.667778 24021 net.cpp:406] relu5_3 <- conv5_3
I0727 10:34:53.667783 24021 net.cpp:367] relu5_3 -> conv5_3 (in-place)
I0727 10:34:53.668015 24021 net.cpp:122] Setting up relu5_3
I0727 10:34:53.668025 24021 net.cpp:129] Top shape: 1 512 88 128 (5767168)
I0727 10:34:53.668026 24021 net.cpp:137] Memory required for data: 1773539328
I0727 10:34:53.668030 24021 layer_factory.hpp:77] Creating layer conv_score
I0727 10:34:53.668038 24021 net.cpp:84] Creating Layer conv_score
I0727 10:34:53.668041 24021 net.cpp:406] conv_score <- conv5_3
I0727 10:34:53.668047 24021 net.cpp:380] conv_score -> conv_score
I0727 10:34:53.751209 24021 net.cpp:122] Setting up conv_score
I0727 10:34:53.751238 24021 net.cpp:129] Top shape: 1 64 88 128 (720896)
I0727 10:34:53.751241 24021 net.cpp:137] Memory required for data: 1776422912
I0727 10:34:53.751251 24021 layer_factory.hpp:77] Creating layer relu_score
I0727 10:34:53.751265 24021 net.cpp:84] Creating Layer relu_score
I0727 10:34:53.751271 24021 net.cpp:406] relu_score <- conv_score
I0727 10:34:53.751277 24021 net.cpp:367] relu_score -> conv_score (in-place)
I0727 10:34:53.751480 24021 net.cpp:122] Setting up relu_score
I0727 10:34:53.751490 24021 net.cpp:129] Top shape: 1 64 88 128 (720896)
I0727 10:34:53.751493 24021 net.cpp:137] Memory required for data: 1779306496
I0727 10:34:53.751528 24021 layer_factory.hpp:77] Creating layer slicer_conv
I0727 10:34:53.751550 24021 net.cpp:84] Creating Layer slicer_conv
I0727 10:34:53.751555 24021 net.cpp:406] slicer_conv <- conv_score
I0727 10:34:53.751566 24021 net.cpp:380] slicer_conv -> score1
I0727 10:34:53.751577 24021 net.cpp:380] slicer_conv -> score2
…
I0727 10:34:53.752048 24021 net.cpp:380] slicer_conv -> score57
I0727 10:34:53.752055 24021 net.cpp:380] slicer_conv -> score58
I0727 10:34:53.752063 24021 net.cpp:380] slicer_conv -> score59
I0727 10:34:53.752071 24021 net.cpp:380] slicer_conv -> score60
I0727 10:34:53.752079 24021 net.cpp:380] slicer_conv -> score61
I0727 10:34:53.752097 24021 net.cpp:380] slicer_conv -> score62
I0727 10:34:53.752107 24021 net.cpp:380] slicer_conv -> score63
I0727 10:34:53.752115 24021 net.cpp:380] slicer_conv -> score64
I0727 10:34:53.753450 24021 net.cpp:122] Setting up slicer_conv
I0727 10:34:53.753460 24021 net.cpp:129] Top shape: 1 1 88 128 (11264)
I0727 10:34:53.753464 24021 net.cpp:129] Top shape: 1 1 88 128 (11264)
I0727 10:34:53.753469 24021 net.cpp:129] Top shape: 1 1 88 128 (11264)
I0727 10:34:53.753473 24021 net.cpp:129] Top shape: 1 1 88 128 (11264)
I0727 10:34:53.753476 24021 net.cpp:129] Top shape: 1 1 88 128 (11264)
I0727 10:34:53.753480 24021 net.cpp:129] Top shape: 1 1 88 128 (11264)
I0727 10:34:53.753484 24021 net.cpp:129] Top shape: 1 1 88 128 (11264)
I0727 10:34:53.753489 24021 net.cpp:129] Top shape: 1 1 88 128 (11264)
I0727 10:34:53.753492 24021 net.cpp:129] Top shape: 1 1 88 128 (11264)
I0727 10:34:53.753495 24021 net.cpp:129] Top shape: 1 1 88 128 (11264)
I0727 10:34:53.753500 24021 net.cpp:129] Top shape: 1 1 88 128 (11264)
I0727 10:34:53.753504 24021 net.cpp:129] Top shape: 1 1 88 128 (11264)
I0727 10:34:53.753507 24021 net.cpp:129] Top shape: 1 1 88 128 (11264)
I0727 10:34:53.753511 24021 net.cpp:129] Top shape: 1 1 88 128 (11264)
I0727 10:34:53.753515 24021 net.cpp:129] Top shape: 1 1 88 128 (11264)
I0727 10:34:53.753520 24021 net.cpp:129] Top shape: 1 1 88 128 (11264)
I0727 10:34:53.753523 24021 net.cpp:129] Top shape: 1 1 88 128 (11264)
I0727 10:34:53.753527 24021 net.cpp:129] Top shape: 1 1 88 128 (11264)
I0727 10:34:53.753531 24021 net.cpp:129] Top shape: 1 1 88 128 (11264)
I0727 10:34:53.753535 24021 net.cpp:129] Top shape: 1 1 88 128 (11264)
I0727 10:34:53.753538 24021 net.cpp:129] Top shape: 1 1 88 128 (11264)
I0727 10:34:53.753542 24021 net.cpp:129] Top shape: 1 1 88 128 (11264)
I0727 10:34:53.753546 24021 net.cpp:129] Top shape: 1 1 88 128 (11264)
I0727 10:34:53.753551 24021 net.cpp:129] Top shape: 1 1 88 128 (11264)
I0727 10:34:53.753553 24021 net.cpp:129] Top shape: 1 1 88 128 (11264)
I0727 10:34:53.753557 24021 net.cpp:129] Top shape: 1 1 88 128 (11264)
I0727 10:34:53.753561 24021 net.cpp:129] Top shape: 1 1 88 128 (11264)
I0727 10:34:53.753564 24021 net.cpp:129] Top shape: 1 1 88 128 (11264)
I0727 10:34:53.753568 24021 net.cpp:129] Top shape: 1 1 88 128 (11264)
I0727 10:34:53.753572 24021 net.cpp:129] Top shape: 1 1 88 128 (11264)
I0727 10:34:53.753576 24021 net.cpp:129] Top shape: 1 1 88 128 (11264)
I0727 10:34:53.753581 24021 net.cpp:129] Top shape: 1 1 88 128 (11264)
I0727 10:34:53.753584 24021 net.cpp:129] Top shape: 1 1 88 128 (11264)
I0727 10:34:53.753587 24021 net.cpp:129] Top shape: 1 1 88 128 (11264)
I0727 10:34:53.753592 24021 net.cpp:129] Top shape: 1 1 88 128 (11264)
I0727 10:34:53.753595 24021 net.cpp:129] Top shape: 1 1 88 128 (11264)
I0727 10:34:53.753598 24021 net.cpp:129] Top shape: 1 1 88 128 (11264)
I0727 10:34:53.753602 24021 net.cpp:129] Top shape: 1 1 88 128 (11264)
I0727 10:34:53.753607 24021 net.cpp:129] Top shape: 1 1 88 128 (11264)
I0727 10:34:53.753610 24021 net.cpp:129] Top shape: 1 1 88 128 (11264)
I0727 10:34:53.753614 24021 net.cpp:129] Top shape: 1 1 88 128 (11264)
I0727 10:34:53.753618 24021 net.cpp:129] Top shape: 1 1 88 128 (11264)
I0727 10:34:53.753623 24021 net.cpp:129] Top shape: 1 1 88 128 (11264)
I0727 10:34:53.753625 24021 net.cpp:129] Top shape: 1 1 88 128 (11264)
I0727 10:34:53.753629 24021 net.cpp:129] Top shape: 1 1 88 128 (11264)
I0727 10:34:53.753633 24021 net.cpp:129] Top shape: 1 1 88 128 (11264)
I0727 10:34:53.753638 24021 net.cpp:129] Top shape: 1 1 88 128 (11264)
I0727 10:34:53.753640 24021 net.cpp:129] Top shape: 1 1 88 128 (11264)
I0727 10:34:53.753644 24021 net.cpp:129] Top shape: 1 1 88 128 (11264)
I0727 10:34:53.753648 24021 net.cpp:129] Top shape: 1 1 88 128 (11264)
I0727 10:34:53.753653 24021 net.cpp:129] Top shape: 1 1 88 128 (11264)
I0727 10:34:53.753656 24021 net.cpp:129] Top shape: 1 1 88 128 (11264)
I0727 10:34:53.753659 24021 net.cpp:129] Top shape: 1 1 88 128 (11264)
I0727 10:34:53.753664 24021 net.cpp:129] Top shape: 1 1 88 128 (11264)
I0727 10:34:53.753677 24021 net.cpp:129] Top shape: 1 1 88 128 (11264)
I0727 10:34:53.753681 24021 net.cpp:129] Top shape: 1 1 88 128 (11264)
I0727 10:34:53.753685 24021 net.cpp:129] Top shape: 1 1 88 128 (11264)
I0727 10:34:53.753690 24021 net.cpp:129] Top shape: 1 1 88 128 (11264)
I0727 10:34:53.753693 24021 net.cpp:129] Top shape: 1 1 88 128 (11264)
I0727 10:34:53.753696 24021 net.cpp:129] Top shape: 1 1 88 128 (11264)
I0727 10:34:53.753700 24021 net.cpp:129] Top shape: 1 1 88 128 (11264)
I0727 10:34:53.753703 24021 net.cpp:129] Top shape: 1 1 88 128 (11264)
I0727 10:34:53.753707 24021 net.cpp:129] Top shape: 1 1 88 128 (11264)
I0727 10:34:53.753711 24021 net.cpp:129] Top shape: 1 1 88 128 (11264)
I0727 10:34:53.753715 24021 net.cpp:137] Memory required for data: 1782190080
I0727 10:34:53.753718 24021 layer_factory.hpp:77] Creating layer sumscore
I0727 10:34:53.753733 24021 net.cpp:84] Creating Layer sumscore
I0727 10:34:53.753737 24021 net.cpp:406] sumscore <- score1
I0727 10:34:53.753742 24021 net.cpp:406] sumscore <- score2
I0727 10:34:53.753747 24021 net.cpp:406] sumscore <- score3
…
