…
I0724 10:07:20.812510  7845 net.cpp:51] Initializing net from parameters: 
name: "crowd_counting"
state {
  phase: TRAIN
  level: 0
  stage: ""
}
layer {
  name: "data"
  type: "Data"
  top: "data"
  include {
    phase: TRAIN
  }
  data_param {
    source: "/home/peiyong/Work/Zenglin/szl/ShanghaiTech/partA/train_8/image_lmdb"
    batch_size: 1
    backend: LMDB
  }
}
layer {
  name: "label"
  type: "Data"
  top: "label"
  include {
    phase: TRAIN
  }
  data_param {
    source: "/home/peiyong/Work/Zenglin/szl/ShanghaiTech/partA/train_8/dmap_lmdb"
    batch_size: 1
    backend: LMDB
  }
}
layer {
  name: "conv1_1"
  type: "Convolution"
  bottom: "data"
  top: "conv1_1"
  param {
    lr_mult: 0.1
    decay_mult: 1
  }
  param {
    lr_mult: 0.2
    decay_mult: 0
  }
  convolution_param {
    num_output: 64
    pad: 1
    kernel_size: 3
    weight_filler {
      type: "gaussian"
      std: 0.01
    }
    bias_filler {
      type: "constant"
      value: 0
    }
  }
}
layer {
  name: "relu1_1"
  type: "ReLU"
  bottom: "conv1_1"
  top: "conv1_1"
}
layer {
  name: "conv1_2"
  type: "Convolution"
  bottom: "conv1_1"
  top: "conv1_2"
  param {
    lr_mult: 0.1
    decay_mult: 1
  }
  param {
    lr_mult: 0.2
    decay_mult: 0
  }
  convolution_param {
    num_output: 64
    pad: 1
    kernel_size: 3
    weight_filler {
      type: "gaussian"
      std: 0.01
    }
    bias_filler {
      type: "constant"
      value: 0
    }
  }
}
layer {
  name: "relu1_2"
  type: "ReLU"
  bottom: "conv1_2"
  top: "conv1_2"
}
layer {
  name: "pool1"
  type: "Pooling"
  bottom: "conv1_2"
  top: "pool1"
  pooling_param {
    pool: MAX
    kernel_size: 2
    stride: 2
  }
}
layer {
  name: "conv2_1"
  type: "Convolution"
  bottom: "pool1"
  top: "conv2_1"
  param {
    lr_mult: 0.1
    decay_mult: 1
  }
  param {
    lr_mult: 0.2
    decay_mult: 0
  }
  convolution_param {
    num_output: 128
    pad: 1
    kernel_size: 3
    weight_filler {
      type: "gaussian"
      std: 0.01
    }
    bias_filler {
      type: "constant"
      value: 0
    }
  }
}
layer {
  name: "relu2_1"
  type: "ReLU"
  bottom: "conv2_1"
  top: "conv2_1"
}
layer {
  name: "conv2_2"
  type: "Convolution"
  bottom: "conv2_1"
  top: "conv2_2"
  param {
    lr_mult: 0.1
    decay_mult: 1
  }
  param {
    lr_mult: 0.2
    decay_mult: 0
  }
  convolution_param {
    num_output: 128
    pad: 1
    kernel_size: 3
    weight_filler {
      type: "gaussian"
      std: 0.01
    }
    bias_filler {
      type: "constant"
      value: 0
    }
  }
}
layer {
  name: "relu2_2"
  type: "ReLU"
  bottom: "conv2_2"
  top: "conv2_2"
}
layer {
  name: "pool2"
  type: "Pooling"
  bottom: "conv2_2"
  top: "pool2"
  pooling_param {
    pool: MAX
    kernel_size: 2
    stride: 2
  }
}
layer {
  name: "conv3_1"
  type: "Convolution"
  bottom: "pool2"
  top: "conv3_1"
  param {
    lr_mult: 0.1
    decay_mult: 1
  }
  param {
    lr_mult: 0.2
    decay_mult: 0
  }
  convolution_param {
    num_output: 256
    pad: 1
    kernel_size: 3
    weight_filler {
      type: "gaussian"
      std: 0.01
    }
    bias_filler {
      type: "constant"
      value: 0
    }
  }
}
layer {
  name: "relu3_1"
  type: "ReLU"
  bottom: "conv3_1"
  top: "conv3_1"
}
layer {
  name: "conv3_2"
  type: "Convolution"
  bottom: "conv3_1"
  top: "conv3_2"
  param {
    lr_mult: 0.1
    decay_mult: 1
  }
  param {
    lr_mult: 0.2
    decay_mult: 0
  }
  convolution_param {
    num_output: 256
    pad: 1
    kernel_size: 3
    weight_filler {
      type: "gaussian"
      std: 0.01
    }
    bias_filler {
      type: "constant"
      value: 0
    }
  }
}
layer {
  name: "relu3_2"
  type: "ReLU"
  bottom: "conv3_2"
  top: "conv3_2"
}
layer {
  name: "conv3_3"
  type: "Convolution"
  bottom: "conv3_2"
  top: "conv3_3"
  param {
    lr_mult: 0.1
    decay_mult: 1
  }
  param {
    lr_mult: 0.2
    decay_mult: 0
  }
  convolution_param {
    num_output: 256
    pad: 1
    kernel_size: 3
    weight_filler {
      type: "gaussian"
      std: 0.01
    }
    bias_filler {
      type: "constant"
      value: 0
    }
  }
}
layer {
  name: "relu3_3"
  type: "ReLU"
  bottom: "conv3_3"
  top: "conv3_3"
}
layer {
  name: "pool3"
  type: "Pooling"
  bottom: "conv3_3"
  top: "pool3"
  pooling_param {
    pool: MAX
    kernel_size: 2
    stride: 2
  }
}
layer {
  name: "conv4_1"
  type: "Convolution"
  bottom: "pool3"
  top: "conv4_1"
  param {
    lr_mult: 0.1
    decay_mult: 1
  }
  param {
    lr_mult: 0.2
    decay_mult: 0
  }
  convolution_param {
    num_output: 512
    pad: 1
    kernel_size: 3
    weight_filler {
      type: "gaussian"
      std: 0.01
    }
    bias_filler {
      type: "constant"
      value: 0
    }
  }
}
layer {
  name: "relu4_1"
  type: "ReLU"
  bottom: "conv4_1"
  top: "conv4_1"
}
layer {
  name: "conv4_2"
  type: "Convolution"
  bottom: "conv4_1"
  top: "conv4_2"
  param {
    lr_mult: 0.1
    decay_mult: 1
  }
  param {
    lr_mult: 0.2
    decay_mult: 0
  }
  convolution_param {
    num_output: 512
    pad: 1
    kernel_size: 3
    weight_filler {
      type: "gaussian"
      std: 0.01
    }
    bias_filler {
      type: "constant"
      value: 0
    }
  }
}
layer {
  name: "relu4_2"
  type: "ReLU"
  bottom: "conv4_2"
  top: "conv4_2"
}
layer {
  name: "conv4_3"
  type: "Convolution"
  bottom: "conv4_2"
  top: "conv4_3"
  param {
    lr_mult: 0.1
    decay_mult: 1
  }
  param {
    lr_mult: 0.2
    decay_mult: 0
  }
  convolution_param {
    num_output: 512
    pad: 1
    kernel_size: 3
    weight_filler {
      type: "gaussian"
      std: 0.01
    }
    bias_filler {
      type: "constant"
      value: 0
    }
  }
}
layer {
  name: "relu4_3"
  type: "ReLU"
  bottom: "conv4_3"
  top: "conv4_3"
}
layer {
  name: "pool4"
  type: "Pooling"
  bottom: "conv4_3"
  top: "pool4"
  pooling_param {
    pool: MAX
    kernel_size: 3
    stride: 1
    pad: 1
  }
}
layer {
  name: "conv5_1"
  type: "Convolution"
  bottom: "pool4"
  top: "conv5_1"
  param {
    lr_mult: 0.1
    decay_mult: 1
  }
  param {
    lr_mult: 0.2
    decay_mult: 0
  }
  convolution_param {
    num_output: 512
    pad: 2
    kernel_size: 3
    weight_filler {
      type: "gaussian"
      std: 0.01
    }
    bias_filler {
      type: "constant"
      value: 0
    }
    dilation: 2
  }
}
layer {
  name: "relu5_1"
  type: "ReLU"
  bottom: "conv5_1"
  top: "conv5_1"
}
layer {
  name: "conv5_2"
  type: "Convolution"
  bottom: "conv5_1"
  top: "conv5_2"
  param {
    lr_mult: 0.1
    decay_mult: 1
  }
  param {
    lr_mult: 0.2
    decay_mult: 0
  }
  convolution_param {
    num_output: 512
    pad: 2
    kernel_size: 3
    weight_filler {
      type: "gaussian"
      std: 0.01
    }
    bias_filler {
      type: "constant"
      value: 0
    }
    dilation: 2
  }
}
layer {
  name: "relu5_2"
  type: "ReLU"
  bottom: "conv5_2"
  top: "conv5_2"
}
layer {
  name: "conv5_3"
  type: "Convolution"
  bottom: "conv5_2"
  top: "conv5_3"
  param {
    lr_mult: 0.1
    decay_mult: 1
  }
  param {
    lr_mult: 0.2
    decay_mult: 0
  }
  convolution_param {
    num_output: 512
    pad: 2
    kernel_size: 3
    weight_filler {
      type: "gaussian"
      std: 0.01
    }
    bias_filler {
      type: "constant"
      value: 0
    }
    dilation: 2
  }
}
layer {
  name: "relu5_3"
  type: "ReLU"
  bottom: "conv5_3"
  top: "conv5_3"
}
layer {
  name: "conv_score"
  type: "Convolution"
  bottom: "conv5_3"
  top: "conv_score"
  param {
    lr_mult: 10
    decay_mult: 1
  }
  param {
    lr_mult: 20
    decay_mult: 0
  }
  convolution_param {
    num_output: 64
    pad: 0
    kernel_size: 1
    group: 64
    stride: 1
    weight_filler {
      type: "constant"
      value: 0.0001
    }
    bias_filler {
      type: "constant"
      value: 0
    }
  }
}
layer {
  name: "relu_score"
  type: "ReLU"
  bottom: "conv_score"
  top: "conv_score"
}
layer {
  name: "slicer_conv"
  type: "Slice"
  bottom: "conv_score"
  top: "score1"
  top: "score2"
  top: "score3"
  top: "score4"
  top: "score5"
  top: "score6"
  top: "score7"
  top: "score8"
  top: "score9"
  top: "score10"
  top: "score11"
  top: "score12"
  top: "score13"
  top: "score14"
  top: "score15"
  top: "score16"
  top: "score17"
  top: "score18"
  top: "score19"
  top: "score20"
  top: "score21"
  top: "score22"
  top: "score23"
  top: "score24"
  top: "score25"
  top: "score26"
  top: "score27"
  top: "score28"
  top: "score29"
  top: "score30"
  top: "score31"
  top: "score32"
  top: "score33"
  top: "score34"
  top: "score35"
  top: "score36"
  top: "score37"
  top: "score38"
  top: "score39"
  top: "score40"
  top: "score41"
  top: "score42"
  top: "score43"
  top: "score44"
  top: "score45"
  top: "score46"
  top: "score47"
  top: "score48"
  top: "score49"
  top: "score50"
  top: "score51"
  top: "score52"
  top: "score53"
  top: "score54"
  top: "score55"
  top: "score56"
  top: "score57"
  top: "score58"
  top: "score59"
  top: "score60"
  top: "score61"
  top: "score62"
  top: "score63"
  top: "score64"
  slice_param {
    axis: 1
  }
}
layer {
  name: "sumscore"
  type: "Eltwise"
  bottom: "score1"
  bottom: "score2"
  bottom: "score3"
  bottom: "score4"
  bottom: "score5"
  bottom: "score6"
  bottom: "score7"
  bottom: "score8"
  bottom: "score9"
  bottom: "score10"
  bottom: "score11"
  bottom: "score12"
  bottom: "score13"
  bottom: "score14"
  bottom: "score15"
  bottom: "score16"
  bottom: "score17"
  bottom: "score18"
  bottom: "score19"
  bottom: "score20"
  bottom: "score21"
  bottom: "score22"
  bottom: "score23"
  bottom: "score24"
  bottom: "score25"
  bottom: "score26"
  bottom: "score27"
  bottom: "score28"
  bottom: "score29"
  bottom: "score30"
  bottom: "score31"
  bottom: "score32"
  bottom: "score33"
  bottom: "score34"
  bottom: "score35"
  bottom: "score36"
  bottom: "score37"
  bottom: "score38"
  bottom: "score39"
  bottom: "score40"
  bottom: "score41"
  bottom: "score42"
  bottom: "score43"
  bottom: "score44"
  bottom: "score45"
  bottom: "score46"
  bottom: "score47"
  bottom: "score48"
  bottom: "score49"
  bottom: "score50"
  bottom: "score51"
  bottom: "score52"
  bottom: "score53"
  bottom: "score54"
  bottom: "score55"
  bottom: "score56"
  bottom: "score57"
  bottom: "score58"
  bottom: "score59"
  bottom: "score60"
  bottom: "score61"
  bottom: "score62"
  bottom: "score63"
  bottom: "score64"
  top: "sumscore"
  eltwise_param {
    operation: SUM
  }
}
layer {
  name: "loss1"
  type: "NCLLoss"
  bottom: "score1"
  bottom: "label"
  bottom: "sumscore"
  top: "loss1"
  include {
    phase: TRAIN
  }
  ncl_loss_param {
    lambda: 0.01
    net_num: 64
  }
}
layer {
  name: "loss2"
  type: "NCLLoss"
  bottom: "score2"
  bottom: "label"
  bottom: "sumscore"
  top: "loss2"
  include {
    phase: TRAIN
  }
  ncl_loss_param {
    lambda: 0.01
    net_num: 64
  }
}
layer {
  name: "loss3"
  type: "NCLLoss"
  bottom: "score3"
  bottom: "label"
  bottom: "sumscore"
  top: "loss3"
  include {
    phase: TRAIN
  }
  ncl_loss_param {
    lambda: 0.01
    net_num: 64
  }
}
layer {
  name: "loss4"
  type: "NCLLoss"
  bottom: "score4"
  bottom: "label"
  bottom: "sumscore"
  top: "loss4"
  include {
    phase: TRAIN
  }
  ncl_loss_param {
    lambda: 0.01
    net_num: 64
  }
}
layer {
  name: "loss5"
  type: "NCLLoss"
  bottom: "score5"
  bottom: "label"
  bottom: "sumscore"
  top: "loss5"
  include {
    phase: TRAIN
  }
  ncl_loss_param {
    lambda: 0.01
    net_num: 64
  }
}
layer {
  name: "loss6"
  type: "NCLLoss"
  bottom: "score6"
  bottom: "label"
  bottom: "sumscore"
  top: "loss6"
  include {
    phase: TRAIN
  }
  ncl_loss_param {
    lambda: 0.01
    net_num: 64
  }
}
layer {
  name: "loss7"
  type: "NCLLoss"
  bottom: "score7"
  bottom: "label"
  bottom: "sumscore"
  top: "loss7"
  include {
    phase: TRAIN
  }
  ncl_loss_param {
    lambda: 0.01
    net_num: 64
  }
}
layer {
  name: "loss8"
  type: "NCLLoss"
  bottom: "score8"
  bottom: "label"
  bottom: "sumscore"
  top: "loss8"
  include {
    phase: TRAIN
  }
  ncl_loss_param {
    lambda: 0.01
    net_num: 64
  }
}
layer {
  name: "loss9"
  type: "NCLLoss"
  bottom: "score9"
  bottom: "label"
  bottom: "sumscore"
  top: "loss9"
  include {
    phase: TRAIN
  }
  ncl_loss_param {
    lambda: 0.01
    net_num: 64
  }
}
layer {
  name: "loss10"
  type: "NCLLoss"
  bottom: "score10"
  bottom: "label"
  bottom: "sumscore"
  top: "loss10"
  include {
    phase: TRAIN
  }
  ncl_loss_param {
    lambda: 0.01
    net_num: 64
  }
}
layer {
  name: "loss11"
  type: "NCLLoss"
  bottom: "score11"
  bottom: "label"
  bottom: "sumscore"
  top: "loss11"
  include {
    phase: TRAIN
  }
  ncl_loss_param {
    lambda: 0.01
    net_num: 64
  }
}
layer {
  name: "loss12"
  type: "NCLLoss"
  bottom: "score12"
  bottom: "label"
  bottom: "sumscore"
  top: "loss12"
  include {
    phase: TRAIN
  }
  ncl_loss_param {
    lambda: 0.01
    net_num: 64
  }
}
layer {
  name: "loss13"
  type: "NCLLoss"
  bottom: "score13"
  bottom: "label"
  bottom: "sumscore"
  top: "loss13"
  include {
    phase: TRAIN
  }
  ncl_loss_param {
    lambda: 0.01
    net_num: 64
  }
}
layer {
  name: "loss14"
  type: "NCLLoss"
  bottom: "score14"
  bottom: "label"
  bottom: "sumscore"
  top: "loss14"
  include {
    phase: TRAIN
  }
  ncl_loss_param {
    lambda: 0.01
    net_num: 64
  }
}
layer {
  name: "loss15"
  type: "NCLLoss"
  bottom: "score15"
  bottom: "label"
  bottom: "sumscore"
  top: "loss15"
  include {
    phase: TRAIN
  }
  ncl_loss_param {
    lambda: 0.01
    net_num: 64
  }
}
layer {
  name: "loss16"
  type: "NCLLoss"
  bottom: "score16"
  bottom: "label"
  bottom: "sumscore"
  top: "loss16"
  include {
    phase: TRAIN
  }
  ncl_loss_param {
    lambda: 0.01
    net_num: 64
  }
}
layer {
  name: "loss17"
  type: "NCLLoss"
  bottom: "score17"
  bottom: "label"
  bottom: "sumscore"
  top: "loss17"
  include {
    phase: TRAIN
  }
  ncl_loss_param {
    lambda: 0.01
    net_num: 64
  }
}
layer {
  name: "loss18"
  type: "NCLLoss"
  bottom: "score18"
  bottom: "label"
  bottom: "sumscore"
  top: "loss18"
  include {
    phase: TRAIN
  }
  ncl_loss_param {
    lambda: 0.01
    net_num: 64
  }
}
layer {
  name: "loss19"
  type: "NCLLoss"
  bottom: "score19"
  bottom: "label"
  bottom: "sumscore"
  top: "loss19"
  include {
    phase: TRAIN
  }
  ncl_loss_param {
    lambda: 0.01
    net_num: 64
  }
}
layer {
  name: "loss20"
  type: "NCLLoss"
  bottom: "score20"
  bottom: "label"
  bottom: "sumscore"
  top: "loss20"
  include {
    phase: TRAIN
  }
  ncl_loss_param {
    lambda: 0.01
    net_num: 64
  }
}
layer {
  name: "loss21"
  type: "NCLLoss"
  bottom: "score21"
  bottom: "label"
  bottom: "sumscore"
  top: "loss21"
  include {
    phase: TRAIN
  }
  ncl_loss_param {
    lambda: 0.01
    net_num: 64
  }
}
layer {
  name: "loss22"
  type: "NCLLoss"
  bottom: "score22"
  bottom: "label"
  bottom: "sumscore"
  top: "loss22"
  include {
    phase: TRAIN
  }
  ncl_loss_param {
    lambda: 0.01
    net_num: 64
  }
}
layer {
  name: "loss23"
  type: "NCLLoss"
  bottom: "score23"
  bottom: "label"
  bottom: "sumscore"
  top: "loss23"
  include {
    phase: TRAIN
  }
  ncl_loss_param {
    lambda: 0.01
    net_num: 64
  }
}
layer {
  name: "loss24"
  type: "NCLLoss"
  bottom: "score24"
  bottom: "label"
  bottom: "sumscore"
  top: "loss24"
  include {
    phase: TRAIN
  }
  ncl_loss_param {
    lambda: 0.01
    net_num: 64
  }
}
layer {
  name: "loss25"
  type: "NCLLoss"
  bottom: "score25"
  bottom: "label"
  bottom: "sumscore"
  top: "loss25"
  include {
    phase: TRAIN
  }
  ncl_loss_param {
    lambda: 0.01
    net_num: 64
  }
}
layer {
  name: "loss26"
  type: "NCLLoss"
  bottom: "score26"
  bottom: "label"
  bottom: "sumscore"
  top: "loss26"
  include {
    phase: TRAIN
  }
  ncl_loss_param {
    lambda: 0.01
    net_num: 64
  }
}
layer {
  name: "loss27"
  type: "NCLLoss"
  bottom: "score27"
  bottom: "label"
  bottom: "sumscore"
  top: "loss27"
  include {
    phase: TRAIN
  }
  ncl_loss_param {
    lambda: 0.01
    net_num: 64
  }
}
layer {
  name: "loss28"
  type: "NCLLoss"
  bottom: "score28"
  bottom: "label"
  bottom: "sumscore"
  top: "loss28"
  include {
    phase: TRAIN
  }
  ncl_loss_param {
    lambda: 0.01
    net_num: 64
  }
}
layer {
  name: "loss29"
  type: "NCLLoss"
  bottom: "score29"
  bottom: "label"
  bottom: "sumscore"
  top: "loss29"
  include {
    phase: TRAIN
  }
  ncl_loss_param {
    lambda: 0.01
    net_num: 64
  }
}
layer {
  name: "loss30"
  type: "NCLLoss"
  bottom: "score30"
  bottom: "label"
  bottom: "sumscore"
  top: "loss30"
  include {
    phase: TRAIN
  }
  ncl_loss_param {
    lambda: 0.01
    net_num: 64
  }
}
layer {
  name: "loss31"
  type: "NCLLoss"
  bottom: "score31"
  bottom: "label"
  bottom: "sumscore"
  top: "loss31"
  include {
    phase: TRAIN
  }
  ncl_loss_param {
    lambda: 0.01
    net_num: 64
  }
}
layer {
  name: "loss32"
  type: "NCLLoss"
  bottom: "score32"
  bottom: "label"
  bottom: "sumscore"
  top: "loss32"
  include {
    phase: TRAIN
  }
  ncl_loss_param {
    lambda: 0.01
    net_num: 64
  }
}
layer {
  name: "loss33"
  type: "NCLLoss"
  bottom: "score33"
  bottom: "label"
  bottom: "sumscore"
  top: "loss33"
  include {
    phase: TRAIN
  }
  ncl_loss_param {
    lambda: 0.01
    net_num: 64
  }
}
layer {
  name: "loss34"
  type: "NCLLoss"
  bottom: "score34"
  bottom: "label"
  bottom: "sumscore"
  top: "loss34"
  include {
    phase: TRAIN
  }
  ncl_loss_param {
    lambda: 0.01
    net_num: 64
  }
}
layer {
  name: "loss35"
  type: "NCLLoss"
  bottom: "score35"
  bottom: "label"
  bottom: "sumscore"
  top: "loss35"
  include {
    phase: TRAIN
  }
  ncl_loss_param {
    lambda: 0.01
    net_num: 64
  }
}
layer {
  name: "loss36"
  type: "NCLLoss"
  bottom: "score36"
  bottom: "label"
  bottom: "sumscore"
  top: "loss36"
  include {
    phase: TRAIN
  }
  ncl_loss_param {
    lambda: 0.01
    net_num: 64
  }
}
layer {
  name: "loss37"
  type: "NCLLoss"
  bottom: "score37"
  bottom: "label"
  bottom: "sumscore"
  top: "loss37"
  include {
    phase: TRAIN
  }
  ncl_loss_param {
    lambda: 0.01
    net_num: 64
  }
}
layer {
  name: "loss38"
  type: "NCLLoss"
  bottom: "score38"
  bottom: "label"
  bottom: "sumscore"
  top: "loss38"
  include {
    phase: TRAIN
  }
  ncl_loss_param {
    lambda: 0.01
    net_num: 64
  }
}
layer {
  name: "loss39"
  type: "NCLLoss"
  bottom: "score39"
  bottom: "label"
  bottom: "sumscore"
  top: "loss39"
  include {
    phase: TRAIN
  }
  ncl_loss_param {
    lambda: 0.01
    net_num: 64
  }
}
layer {
  name: "loss40"
  type: "NCLLoss"
  bottom: "score40"
  bottom: "label"
  bottom: "sumscore"
  top: "loss40"
  include {
    phase: TRAIN
  }
  ncl_loss_param {
    lambda: 0.01
    net_num: 64
  }
}
layer {
  name: "loss41"
  type: "NCLLoss"
  bottom: "score41"
  bottom: "label"
  bottom: "sumscore"
  top: "loss41"
  include {
    phase: TRAIN
  }
  ncl_loss_param {
    lambda: 0.01
    net_num: 64
  }
}
layer {
  name: "loss42"
  type: "NCLLoss"
  bottom: "score42"
  bottom: "label"
  bottom: "sumscore"
  top: "loss42"
  include {
    phase: TRAIN
  }
  ncl_loss_param {
    lambda: 0.01
    net_num: 64
  }
}
layer {
  name: "loss43"
  type: "NCLLoss"
  bottom: "score43"
  bottom: "label"
  bottom: "sumscore"
  top: "loss43"
  include {
    phase: TRAIN
  }
  ncl_loss_param {
    lambda: 0.01
    net_num: 64
  }
}
layer {
  name: "loss44"
  type: "NCLLoss"
  bottom: "score44"
  bottom: "label"
  bottom: "sumscore"
  top: "loss44"
  include {
    phase: TRAIN
  }
  ncl_loss_param {
    lambda: 0.01
    net_num: 64
  }
}
layer {
  name: "loss45"
  type: "NCLLoss"
  bottom: "score45"
  bottom: "label"
  bottom: "sumscore"
  top: "loss45"
  include {
    phase: TRAIN
  }
  ncl_loss_param {
    lambda: 0.01
    net_num: 64
  }
}
layer {
  name: "loss46"
  type: "NCLLoss"
  bottom: "score46"
  bottom: "label"
  bottom: "sumscore"
  top: "loss46"
  include {
    phase: TRAIN
  }
  ncl_loss_param {
    lambda: 0.01
    net_num: 64
  }
}
layer {
  name: "loss47"
  type: "NCLLoss"
  bottom: "score47"
  bottom: "label"
  bottom: "sumscore"
  top: "loss47"
  include {
    phase: TRAIN
  }
  ncl_loss_param {
    lambda: 0.01
    net_num: 64
  }
}
layer {
  name: "loss48"
  type: "NCLLoss"
  bottom: "score48"
  bottom: "label"
  bottom: "sumscore"
  top: "loss48"
  include {
    phase: TRAIN
  }
  ncl_loss_param {
    lambda: 0.01
    net_num: 64
  }
}
layer {
  name: "loss49"
  type: "NCLLoss"
  bottom: "score49"
  bottom: "label"
  bottom: "sumscore"
  top: "loss49"
  include {
    phase: TRAIN
  }
  ncl_loss_param {
    lambda: 0.01
    net_num: 64
  }
}
layer {
  name: "loss50"
  type: "NCLLoss"
  bottom: "score50"
  bottom: "label"
  bottom: "sumscore"
  top: "loss50"
  include {
    phase: TRAIN
  }
  ncl_loss_param {
    lambda: 0.01
    net_num: 64
  }
}
layer {
  name: "loss51"
  type: "NCLLoss"
  bottom: "score51"
  bottom: "label"
  bottom: "sumscore"
  top: "loss51"
  include {
    phase: TRAIN
  }
  ncl_loss_param {
    lambda: 0.01
    net_num: 64
  }
}
layer {
  name: "loss52"
  type: "NCLLoss"
  bottom: "score52"
  bottom: "label"
  bottom: "sumscore"
  top: "loss52"
  include {
    phase: TRAIN
  }
  ncl_loss_param {
    lambda: 0.01
    net_num: 64
  }
}
layer {
  name: "loss53"
  type: "NCLLoss"
  bottom: "score53"
  bottom: "label"
  bottom: "sumscore"
  top: "loss53"
  include {
    phase: TRAIN
  }
  ncl_loss_param {
    lambda: 0.01
    net_num: 64
  }
}
layer {
  name: "loss54"
  type: "NCLLoss"
  bottom: "score54"
  bottom: "label"
  bottom: "sumscore"
  top: "loss54"
  include {
    phase: TRAIN
  }
  ncl_loss_param {
    lambda: 0.01
    net_num: 64
  }
}
layer {
  name: "loss55"
  type: "NCLLoss"
  bottom: "score55"
  bottom: "label"
  bottom: "sumscore"
  top: "loss55"
  include {
    phase: TRAIN
  }
  ncl_loss_param {
    lambda: 0.01
    net_num: 64
  }
}
layer {
  name: "loss56"
  type: "NCLLoss"
  bottom: "score56"
  bottom: "label"
  bottom: "sumscore"
  top: "loss56"
  include {
    phase: TRAIN
  }
  ncl_loss_param {
    lambda: 0.01
    net_num: 64
  }
}
layer {
  name: "loss57"
  type: "NCLLoss"
  bottom: "score57"
  bottom: "label"
  bottom: "sumscore"
  top: "loss57"
  include {
    phase: TRAIN
  }
  ncl_loss_param {
    lambda: 0.01
    net_num: 64
  }
}
layer {
  name: "loss58"
  type: "NCLLoss"
  bottom: "score58"
  bottom: "label"
  bottom: "sumscore"
  top: "loss58"
  include {
    phase: TRAIN
  }
  ncl_loss_param {
    lambda: 0.01
    net_num: 64
  }
}
layer {
  name: "loss59"
  type: "NCLLoss"
  bottom: "score59"
  bottom: "label"
  bottom: "sumscore"
  top: "loss59"
  include {
    phase: TRAIN
  }
  ncl_loss_param {
    lambda: 0.01
    net_num: 64
  }
}
layer {
  name: "loss60"
  type: "NCLLoss"
  bottom: "score60"
  bottom: "label"
  bottom: "sumscore"
  top: "loss60"
  include {
    phase: TRAIN
  }
  ncl_loss_param {
    lambda: 0.01
    net_num: 64
  }
}
layer {
  name: "loss61"
  type: "NCLLoss"
  bottom: "score61"
  bottom: "label"
  bottom: "sumscore"
  top: "loss61"
  include {
    phase: TRAIN
  }
  ncl_loss_param {
    lambda: 0.01
    net_num: 64
  }
}
layer {
  name: "loss62"
  type: "NCLLoss"
  bottom: "score62"
  bottom: "label"
  bottom: "sumscore"
  top: "loss62"
  include {
    phase: TRAIN
  }
  ncl_loss_param {
    lambda: 0.01
    net_num: 64
  }
}
layer {
  name: "loss63"
  type: "NCLLoss"
  bottom: "score63"
  bottom: "label"
  bottom: "sumscore"
  top: "loss63"
  include {
    phase: TRAIN
  }
  ncl_loss_param {
    lambda: 0.01
    net_num: 64
  }
}
layer {
  name: "loss64"
  type: "NCLLoss"
  bottom: "score64"
  bottom: "label"
  bottom: "sumscore"
  top: "loss64"
  include {
    phase: TRAIN
  }
  ncl_loss_param {
    lambda: 0.01
    net_num: 64
  }
}
I0724 10:07:20.813769  7845 layer_factory.hpp:77] Creating layer data
I0724 10:07:20.813858  7845 db_lmdb.cpp:35] Opened lmdb /home/peiyong/Work/Zenglin/szl/ShanghaiTech/partA/train_8/image_lmdb
I0724 10:07:20.813890  7845 net.cpp:84] Creating Layer data
I0724 10:07:20.813899  7845 net.cpp:380] data -> data
I0724 10:07:20.814729  7845 data_layer.cpp:45] output data size: 1,3,384,512
I0724 10:07:20.819905  7845 net.cpp:122] Setting up data
I0724 10:07:20.819931  7845 net.cpp:129] Top shape: 1 3 384 512 (589824)
I0724 10:07:20.819934  7845 net.cpp:137] Memory required for data: 2359296
I0724 10:07:20.819941  7845 layer_factory.hpp:77] Creating layer label
I0724 10:07:20.819980  7845 db_lmdb.cpp:35] Opened lmdb /home/peiyong/Work/Zenglin/szl/ShanghaiTech/partA/train_8/dmap_lmdb
I0724 10:07:20.820003  7845 net.cpp:84] Creating Layer label
I0724 10:07:20.820008  7845 net.cpp:380] label -> label
I0724 10:07:20.820111  7845 data_layer.cpp:45] output data size: 1,1,48,64
I0724 10:07:20.820932  7845 net.cpp:122] Setting up label
I0724 10:07:20.820945  7845 net.cpp:129] Top shape: 1 1 48 64 (3072)
I0724 10:07:20.820948  7845 net.cpp:137] Memory required for data: 2371584
I0724 10:07:20.820951  7845 layer_factory.hpp:77] Creating layer label_label_0_split
I0724 10:07:20.820963  7845 net.cpp:84] Creating Layer label_label_0_split
I0724 10:07:20.820969  7845 net.cpp:406] label_label_0_split <- label
I0724 10:07:20.820982  7845 net.cpp:380] label_label_0_split -> label_label_0_split_0
…
I0724 10:07:20.821686  7845 net.cpp:380] label_label_0_split -> label_label_0_split_58
I0724 10:07:20.821696  7845 net.cpp:380] label_label_0_split -> label_label_0_split_59
I0724 10:07:20.821707  7845 net.cpp:380] label_label_0_split -> label_label_0_split_60
I0724 10:07:20.821719  7845 net.cpp:380] label_label_0_split -> label_label_0_split_61
I0724 10:07:20.821730  7845 net.cpp:380] label_label_0_split -> label_label_0_split_62
I0724 10:07:20.821746  7845 net.cpp:380] label_label_0_split -> label_label_0_split_63
I0724 10:07:20.822355  7845 net.cpp:122] Setting up label_label_0_split
I0724 10:07:20.822363  7845 net.cpp:129] Top shape: 1 1 48 64 (3072)
I0724 10:07:20.822368  7845 net.cpp:129] Top shape: 1 1 48 64 (3072)
I0724 10:07:20.822373  7845 net.cpp:129] Top shape: 1 1 48 64 (3072)
I0724 10:07:20.822377  7845 net.cpp:129] Top shape: 1 1 48 64 (3072)
I0724 10:07:20.822381  7845 net.cpp:129] Top shape: 1 1 48 64 (3072)
I0724 10:07:20.822386  7845 net.cpp:129] Top shape: 1 1 48 64 (3072)
I0724 10:07:20.822391  7845 net.cpp:129] Top shape: 1 1 48 64 (3072)
I0724 10:07:20.822394  7845 net.cpp:129] Top shape: 1 1 48 64 (3072)
I0724 10:07:20.822398  7845 net.cpp:129] Top shape: 1 1 48 64 (3072)
I0724 10:07:20.822402  7845 net.cpp:129] Top shape: 1 1 48 64 (3072)
I0724 10:07:20.822407  7845 net.cpp:129] Top shape: 1 1 48 64 (3072)
I0724 10:07:20.822420  7845 net.cpp:129] Top shape: 1 1 48 64 (3072)
I0724 10:07:20.822424  7845 net.cpp:129] Top shape: 1 1 48 64 (3072)
I0724 10:07:20.822438  7845 net.cpp:129] Top shape: 1 1 48 64 (3072)
I0724 10:07:20.822443  7845 net.cpp:129] Top shape: 1 1 48 64 (3072)
I0724 10:07:20.822446  7845 net.cpp:129] Top shape: 1 1 48 64 (3072)
I0724 10:07:20.822450  7845 net.cpp:129] Top shape: 1 1 48 64 (3072)
I0724 10:07:20.822455  7845 net.cpp:129] Top shape: 1 1 48 64 (3072)
I0724 10:07:20.822460  7845 net.cpp:129] Top shape: 1 1 48 64 (3072)
I0724 10:07:20.822464  7845 net.cpp:129] Top shape: 1 1 48 64 (3072)
I0724 10:07:20.822468  7845 net.cpp:129] Top shape: 1 1 48 64 (3072)
I0724 10:07:20.822473  7845 net.cpp:129] Top shape: 1 1 48 64 (3072)
I0724 10:07:20.822476  7845 net.cpp:129] Top shape: 1 1 48 64 (3072)
I0724 10:07:20.822481  7845 net.cpp:129] Top shape: 1 1 48 64 (3072)
I0724 10:07:20.822485  7845 net.cpp:129] Top shape: 1 1 48 64 (3072)
I0724 10:07:20.822489  7845 net.cpp:129] Top shape: 1 1 48 64 (3072)
I0724 10:07:20.822494  7845 net.cpp:129] Top shape: 1 1 48 64 (3072)
I0724 10:07:20.822497  7845 net.cpp:129] Top shape: 1 1 48 64 (3072)
I0724 10:07:20.822502  7845 net.cpp:129] Top shape: 1 1 48 64 (3072)
I0724 10:07:20.822506  7845 net.cpp:129] Top shape: 1 1 48 64 (3072)
I0724 10:07:20.822511  7845 net.cpp:129] Top shape: 1 1 48 64 (3072)
I0724 10:07:20.822515  7845 net.cpp:129] Top shape: 1 1 48 64 (3072)
I0724 10:07:20.822520  7845 net.cpp:129] Top shape: 1 1 48 64 (3072)
I0724 10:07:20.822525  7845 net.cpp:129] Top shape: 1 1 48 64 (3072)
I0724 10:07:20.822528  7845 net.cpp:129] Top shape: 1 1 48 64 (3072)
I0724 10:07:20.822532  7845 net.cpp:129] Top shape: 1 1 48 64 (3072)
I0724 10:07:20.822537  7845 net.cpp:129] Top shape: 1 1 48 64 (3072)
I0724 10:07:20.822541  7845 net.cpp:129] Top shape: 1 1 48 64 (3072)
I0724 10:07:20.822546  7845 net.cpp:129] Top shape: 1 1 48 64 (3072)
I0724 10:07:20.822551  7845 net.cpp:129] Top shape: 1 1 48 64 (3072)
I0724 10:07:20.822554  7845 net.cpp:129] Top shape: 1 1 48 64 (3072)
I0724 10:07:20.822558  7845 net.cpp:129] Top shape: 1 1 48 64 (3072)
I0724 10:07:20.822563  7845 net.cpp:129] Top shape: 1 1 48 64 (3072)
I0724 10:07:20.822567  7845 net.cpp:129] Top shape: 1 1 48 64 (3072)
I0724 10:07:20.822572  7845 net.cpp:129] Top shape: 1 1 48 64 (3072)
I0724 10:07:20.822576  7845 net.cpp:129] Top shape: 1 1 48 64 (3072)
I0724 10:07:20.822580  7845 net.cpp:129] Top shape: 1 1 48 64 (3072)
I0724 10:07:20.822584  7845 net.cpp:129] Top shape: 1 1 48 64 (3072)
I0724 10:07:20.822589  7845 net.cpp:129] Top shape: 1 1 48 64 (3072)
I0724 10:07:20.822593  7845 net.cpp:129] Top shape: 1 1 48 64 (3072)
I0724 10:07:20.822597  7845 net.cpp:129] Top shape: 1 1 48 64 (3072)
I0724 10:07:20.822602  7845 net.cpp:129] Top shape: 1 1 48 64 (3072)
I0724 10:07:20.822607  7845 net.cpp:129] Top shape: 1 1 48 64 (3072)
I0724 10:07:20.822610  7845 net.cpp:129] Top shape: 1 1 48 64 (3072)
I0724 10:07:20.822614  7845 net.cpp:129] Top shape: 1 1 48 64 (3072)
I0724 10:07:20.822619  7845 net.cpp:129] Top shape: 1 1 48 64 (3072)
I0724 10:07:20.822623  7845 net.cpp:129] Top shape: 1 1 48 64 (3072)
I0724 10:07:20.822628  7845 net.cpp:129] Top shape: 1 1 48 64 (3072)
I0724 10:07:20.822631  7845 net.cpp:129] Top shape: 1 1 48 64 (3072)
I0724 10:07:20.822636  7845 net.cpp:129] Top shape: 1 1 48 64 (3072)
I0724 10:07:20.822640  7845 net.cpp:129] Top shape: 1 1 48 64 (3072)
I0724 10:07:20.822644  7845 net.cpp:129] Top shape: 1 1 48 64 (3072)
I0724 10:07:20.822649  7845 net.cpp:129] Top shape: 1 1 48 64 (3072)
I0724 10:07:20.822654  7845 net.cpp:129] Top shape: 1 1 48 64 (3072)
I0724 10:07:20.822657  7845 net.cpp:137] Memory required for data: 3158016
I0724 10:07:20.822661  7845 layer_factory.hpp:77] Creating layer conv1_1
I0724 10:07:20.822674  7845 net.cpp:84] Creating Layer conv1_1
I0724 10:07:20.822679  7845 net.cpp:406] conv1_1 <- data
I0724 10:07:20.822685  7845 net.cpp:380] conv1_1 -> conv1_1
I0724 10:07:21.001598  7845 net.cpp:122] Setting up conv1_1
I0724 10:07:21.001680  7845 net.cpp:129] Top shape: 1 64 384 512 (12582912)
I0724 10:07:21.001687  7845 net.cpp:137] Memory required for data: 53489664
I0724 10:07:21.001706  7845 layer_factory.hpp:77] Creating layer relu1_1
I0724 10:07:21.001718  7845 net.cpp:84] Creating Layer relu1_1
I0724 10:07:21.001724  7845 net.cpp:406] relu1_1 <- conv1_1
I0724 10:07:21.001729  7845 net.cpp:367] relu1_1 -> conv1_1 (in-place)
I0724 10:07:21.001868  7845 net.cpp:122] Setting up relu1_1
I0724 10:07:21.001876  7845 net.cpp:129] Top shape: 1 64 384 512 (12582912)
I0724 10:07:21.001880  7845 net.cpp:137] Memory required for data: 103821312
I0724 10:07:21.001884  7845 layer_factory.hpp:77] Creating layer conv1_2
I0724 10:07:21.001895  7845 net.cpp:84] Creating Layer conv1_2
I0724 10:07:21.001899  7845 net.cpp:406] conv1_2 <- conv1_1
I0724 10:07:21.001904  7845 net.cpp:380] conv1_2 -> conv1_2
I0724 10:07:21.004586  7845 net.cpp:122] Setting up conv1_2
I0724 10:07:21.004600  7845 net.cpp:129] Top shape: 1 64 384 512 (12582912)
I0724 10:07:21.004603  7845 net.cpp:137] Memory required for data: 154152960
I0724 10:07:21.004611  7845 layer_factory.hpp:77] Creating layer relu1_2
I0724 10:07:21.004617  7845 net.cpp:84] Creating Layer relu1_2
I0724 10:07:21.004621  7845 net.cpp:406] relu1_2 <- conv1_2
I0724 10:07:21.004626  7845 net.cpp:367] relu1_2 -> conv1_2 (in-place)
I0724 10:07:21.004757  7845 net.cpp:122] Setting up relu1_2
I0724 10:07:21.004765  7845 net.cpp:129] Top shape: 1 64 384 512 (12582912)
I0724 10:07:21.004770  7845 net.cpp:137] Memory required for data: 204484608
I0724 10:07:21.004772  7845 layer_factory.hpp:77] Creating layer pool1
I0724 10:07:21.004779  7845 net.cpp:84] Creating Layer pool1
I0724 10:07:21.004783  7845 net.cpp:406] pool1 <- conv1_2
I0724 10:07:21.004789  7845 net.cpp:380] pool1 -> pool1
I0724 10:07:21.004832  7845 net.cpp:122] Setting up pool1
I0724 10:07:21.004837  7845 net.cpp:129] Top shape: 1 64 192 256 (3145728)
I0724 10:07:21.004842  7845 net.cpp:137] Memory required for data: 217067520
I0724 10:07:21.004844  7845 layer_factory.hpp:77] Creating layer conv2_1
I0724 10:07:21.004853  7845 net.cpp:84] Creating Layer conv2_1
I0724 10:07:21.004858  7845 net.cpp:406] conv2_1 <- pool1
I0724 10:07:21.004863  7845 net.cpp:380] conv2_1 -> conv2_1
I0724 10:07:21.007529  7845 net.cpp:122] Setting up conv2_1
I0724 10:07:21.007542  7845 net.cpp:129] Top shape: 1 128 192 256 (6291456)
I0724 10:07:21.007546  7845 net.cpp:137] Memory required for data: 242233344
I0724 10:07:21.007555  7845 layer_factory.hpp:77] Creating layer relu2_1
I0724 10:07:21.007560  7845 net.cpp:84] Creating Layer relu2_1
I0724 10:07:21.007565  7845 net.cpp:406] relu2_1 <- conv2_1
I0724 10:07:21.007570  7845 net.cpp:367] relu2_1 -> conv2_1 (in-place)
I0724 10:07:21.008066  7845 net.cpp:122] Setting up relu2_1
I0724 10:07:21.008077  7845 net.cpp:129] Top shape: 1 128 192 256 (6291456)
I0724 10:07:21.008081  7845 net.cpp:137] Memory required for data: 267399168
I0724 10:07:21.008085  7845 layer_factory.hpp:77] Creating layer conv2_2
I0724 10:07:21.008093  7845 net.cpp:84] Creating Layer conv2_2
I0724 10:07:21.008097  7845 net.cpp:406] conv2_2 <- conv2_1
I0724 10:07:21.008102  7845 net.cpp:380] conv2_2 -> conv2_2
I0724 10:07:21.010953  7845 net.cpp:122] Setting up conv2_2
I0724 10:07:21.010965  7845 net.cpp:129] Top shape: 1 128 192 256 (6291456)
I0724 10:07:21.010969  7845 net.cpp:137] Memory required for data: 292564992
I0724 10:07:21.010975  7845 layer_factory.hpp:77] Creating layer relu2_2
I0724 10:07:21.010982  7845 net.cpp:84] Creating Layer relu2_2
I0724 10:07:21.010985  7845 net.cpp:406] relu2_2 <- conv2_2
I0724 10:07:21.010990  7845 net.cpp:367] relu2_2 -> conv2_2 (in-place)
I0724 10:07:21.011129  7845 net.cpp:122] Setting up relu2_2
I0724 10:07:21.011137  7845 net.cpp:129] Top shape: 1 128 192 256 (6291456)
I0724 10:07:21.011140  7845 net.cpp:137] Memory required for data: 317730816
I0724 10:07:21.011144  7845 layer_factory.hpp:77] Creating layer pool2
I0724 10:07:21.011150  7845 net.cpp:84] Creating Layer pool2
I0724 10:07:21.011155  7845 net.cpp:406] pool2 <- conv2_2
I0724 10:07:21.011184  7845 net.cpp:380] pool2 -> pool2
I0724 10:07:21.011222  7845 net.cpp:122] Setting up pool2
I0724 10:07:21.011229  7845 net.cpp:129] Top shape: 1 128 96 128 (1572864)
I0724 10:07:21.011232  7845 net.cpp:137] Memory required for data: 324022272
I0724 10:07:21.011236  7845 layer_factory.hpp:77] Creating layer conv3_1
I0724 10:07:21.011247  7845 net.cpp:84] Creating Layer conv3_1
I0724 10:07:21.011251  7845 net.cpp:406] conv3_1 <- pool2
I0724 10:07:21.011261  7845 net.cpp:380] conv3_1 -> conv3_1
I0724 10:07:21.016027  7845 net.cpp:122] Setting up conv3_1
I0724 10:07:21.016039  7845 net.cpp:129] Top shape: 1 256 96 128 (3145728)
I0724 10:07:21.016044  7845 net.cpp:137] Memory required for data: 336605184
I0724 10:07:21.016053  7845 layer_factory.hpp:77] Creating layer relu3_1
I0724 10:07:21.016059  7845 net.cpp:84] Creating Layer relu3_1
I0724 10:07:21.016063  7845 net.cpp:406] relu3_1 <- conv3_1
I0724 10:07:21.016068  7845 net.cpp:367] relu3_1 -> conv3_1 (in-place)
I0724 10:07:21.016221  7845 net.cpp:122] Setting up relu3_1
I0724 10:07:21.016229  7845 net.cpp:129] Top shape: 1 256 96 128 (3145728)
I0724 10:07:21.016232  7845 net.cpp:137] Memory required for data: 349188096
I0724 10:07:21.016235  7845 layer_factory.hpp:77] Creating layer conv3_2
I0724 10:07:21.016244  7845 net.cpp:84] Creating Layer conv3_2
I0724 10:07:21.016248  7845 net.cpp:406] conv3_2 <- conv3_1
I0724 10:07:21.016257  7845 net.cpp:380] conv3_2 -> conv3_2
I0724 10:07:21.023177  7845 net.cpp:122] Setting up conv3_2
I0724 10:07:21.023192  7845 net.cpp:129] Top shape: 1 256 96 128 (3145728)
I0724 10:07:21.023195  7845 net.cpp:137] Memory required for data: 361771008
I0724 10:07:21.023200  7845 layer_factory.hpp:77] Creating layer relu3_2
I0724 10:07:21.023210  7845 net.cpp:84] Creating Layer relu3_2
I0724 10:07:21.023213  7845 net.cpp:406] relu3_2 <- conv3_2
I0724 10:07:21.023218  7845 net.cpp:367] relu3_2 -> conv3_2 (in-place)
I0724 10:07:21.023741  7845 net.cpp:122] Setting up relu3_2
I0724 10:07:21.023751  7845 net.cpp:129] Top shape: 1 256 96 128 (3145728)
I0724 10:07:21.023764  7845 net.cpp:137] Memory required for data: 374353920
I0724 10:07:21.023767  7845 layer_factory.hpp:77] Creating layer conv3_3
I0724 10:07:21.023777  7845 net.cpp:84] Creating Layer conv3_3
I0724 10:07:21.023780  7845 net.cpp:406] conv3_3 <- conv3_2
I0724 10:07:21.023785  7845 net.cpp:380] conv3_3 -> conv3_3
I0724 10:07:21.030611  7845 net.cpp:122] Setting up conv3_3
I0724 10:07:21.030625  7845 net.cpp:129] Top shape: 1 256 96 128 (3145728)
I0724 10:07:21.030627  7845 net.cpp:137] Memory required for data: 386936832
I0724 10:07:21.030633  7845 layer_factory.hpp:77] Creating layer relu3_3
I0724 10:07:21.030638  7845 net.cpp:84] Creating Layer relu3_3
I0724 10:07:21.030642  7845 net.cpp:406] relu3_3 <- conv3_3
I0724 10:07:21.030644  7845 net.cpp:367] relu3_3 -> conv3_3 (in-place)
I0724 10:07:21.030789  7845 net.cpp:122] Setting up relu3_3
I0724 10:07:21.030798  7845 net.cpp:129] Top shape: 1 256 96 128 (3145728)
I0724 10:07:21.030802  7845 net.cpp:137] Memory required for data: 399519744
I0724 10:07:21.030805  7845 layer_factory.hpp:77] Creating layer pool3
I0724 10:07:21.030812  7845 net.cpp:84] Creating Layer pool3
I0724 10:07:21.030817  7845 net.cpp:406] pool3 <- conv3_3
I0724 10:07:21.030823  7845 net.cpp:380] pool3 -> pool3
I0724 10:07:21.030860  7845 net.cpp:122] Setting up pool3
I0724 10:07:21.030867  7845 net.cpp:129] Top shape: 1 256 48 64 (786432)
I0724 10:07:21.030871  7845 net.cpp:137] Memory required for data: 402665472
I0724 10:07:21.030875  7845 layer_factory.hpp:77] Creating layer conv4_1
I0724 10:07:21.030884  7845 net.cpp:84] Creating Layer conv4_1
I0724 10:07:21.030887  7845 net.cpp:406] conv4_1 <- pool3
I0724 10:07:21.030894  7845 net.cpp:380] conv4_1 -> conv4_1
I0724 10:07:21.043467  7845 net.cpp:122] Setting up conv4_1
I0724 10:07:21.043483  7845 net.cpp:129] Top shape: 1 512 48 64 (1572864)
I0724 10:07:21.043486  7845 net.cpp:137] Memory required for data: 408956928
I0724 10:07:21.043493  7845 layer_factory.hpp:77] Creating layer relu4_1
I0724 10:07:21.043527  7845 net.cpp:84] Creating Layer relu4_1
I0724 10:07:21.043531  7845 net.cpp:406] relu4_1 <- conv4_1
I0724 10:07:21.043539  7845 net.cpp:367] relu4_1 -> conv4_1 (in-place)
I0724 10:07:21.043685  7845 net.cpp:122] Setting up relu4_1
I0724 10:07:21.043694  7845 net.cpp:129] Top shape: 1 512 48 64 (1572864)
I0724 10:07:21.043697  7845 net.cpp:137] Memory required for data: 415248384
I0724 10:07:21.043702  7845 layer_factory.hpp:77] Creating layer conv4_2
I0724 10:07:21.043711  7845 net.cpp:84] Creating Layer conv4_2
I0724 10:07:21.043715  7845 net.cpp:406] conv4_2 <- conv4_1
I0724 10:07:21.043722  7845 net.cpp:380] conv4_2 -> conv4_2
I0724 10:07:21.065292  7845 net.cpp:122] Setting up conv4_2
I0724 10:07:21.065317  7845 net.cpp:129] Top shape: 1 512 48 64 (1572864)
I0724 10:07:21.065321  7845 net.cpp:137] Memory required for data: 421539840
I0724 10:07:21.065335  7845 layer_factory.hpp:77] Creating layer relu4_2
I0724 10:07:21.065342  7845 net.cpp:84] Creating Layer relu4_2
I0724 10:07:21.065347  7845 net.cpp:406] relu4_2 <- conv4_2
I0724 10:07:21.065353  7845 net.cpp:367] relu4_2 -> conv4_2 (in-place)
I0724 10:07:21.065874  7845 net.cpp:122] Setting up relu4_2
I0724 10:07:21.065886  7845 net.cpp:129] Top shape: 1 512 48 64 (1572864)
I0724 10:07:21.065888  7845 net.cpp:137] Memory required for data: 427831296
I0724 10:07:21.065892  7845 layer_factory.hpp:77] Creating layer conv4_3
I0724 10:07:21.065903  7845 net.cpp:84] Creating Layer conv4_3
I0724 10:07:21.065907  7845 net.cpp:406] conv4_3 <- conv4_2
I0724 10:07:21.065914  7845 net.cpp:380] conv4_3 -> conv4_3
I0724 10:07:21.087616  7845 net.cpp:122] Setting up conv4_3
I0724 10:07:21.087641  7845 net.cpp:129] Top shape: 1 512 48 64 (1572864)
I0724 10:07:21.087644  7845 net.cpp:137] Memory required for data: 434122752
I0724 10:07:21.087652  7845 layer_factory.hpp:77] Creating layer relu4_3
I0724 10:07:21.087661  7845 net.cpp:84] Creating Layer relu4_3
I0724 10:07:21.087666  7845 net.cpp:406] relu4_3 <- conv4_3
I0724 10:07:21.087672  7845 net.cpp:367] relu4_3 -> conv4_3 (in-place)
I0724 10:07:21.087818  7845 net.cpp:122] Setting up relu4_3
I0724 10:07:21.087826  7845 net.cpp:129] Top shape: 1 512 48 64 (1572864)
I0724 10:07:21.087831  7845 net.cpp:137] Memory required for data: 440414208
I0724 10:07:21.087833  7845 layer_factory.hpp:77] Creating layer pool4
I0724 10:07:21.087841  7845 net.cpp:84] Creating Layer pool4
I0724 10:07:21.087844  7845 net.cpp:406] pool4 <- conv4_3
I0724 10:07:21.087851  7845 net.cpp:380] pool4 -> pool4
I0724 10:07:21.087891  7845 net.cpp:122] Setting up pool4
I0724 10:07:21.087898  7845 net.cpp:129] Top shape: 1 512 48 64 (1572864)
I0724 10:07:21.087900  7845 net.cpp:137] Memory required for data: 446705664
I0724 10:07:21.087904  7845 layer_factory.hpp:77] Creating layer conv5_1
I0724 10:07:21.087914  7845 net.cpp:84] Creating Layer conv5_1
I0724 10:07:21.087918  7845 net.cpp:406] conv5_1 <- pool4
I0724 10:07:21.087924  7845 net.cpp:380] conv5_1 -> conv5_1
I0724 10:07:21.108355  7845 net.cpp:122] Setting up conv5_1
I0724 10:07:21.108376  7845 net.cpp:129] Top shape: 1 512 48 64 (1572864)
I0724 10:07:21.108378  7845 net.cpp:137] Memory required for data: 452997120
I0724 10:07:21.108384  7845 layer_factory.hpp:77] Creating layer relu5_1
I0724 10:07:21.108392  7845 net.cpp:84] Creating Layer relu5_1
I0724 10:07:21.108397  7845 net.cpp:406] relu5_1 <- conv5_1
I0724 10:07:21.108404  7845 net.cpp:367] relu5_1 -> conv5_1 (in-place)
I0724 10:07:21.108973  7845 net.cpp:122] Setting up relu5_1
I0724 10:07:21.108983  7845 net.cpp:129] Top shape: 1 512 48 64 (1572864)
I0724 10:07:21.108985  7845 net.cpp:137] Memory required for data: 459288576
I0724 10:07:21.108989  7845 layer_factory.hpp:77] Creating layer conv5_2
I0724 10:07:21.108997  7845 net.cpp:84] Creating Layer conv5_2
I0724 10:07:21.109000  7845 net.cpp:406] conv5_2 <- conv5_1
I0724 10:07:21.109006  7845 net.cpp:380] conv5_2 -> conv5_2
I0724 10:07:21.129709  7845 net.cpp:122] Setting up conv5_2
I0724 10:07:21.129732  7845 net.cpp:129] Top shape: 1 512 48 64 (1572864)
I0724 10:07:21.129762  7845 net.cpp:137] Memory required for data: 465580032
I0724 10:07:21.129771  7845 layer_factory.hpp:77] Creating layer relu5_2
I0724 10:07:21.129779  7845 net.cpp:84] Creating Layer relu5_2
I0724 10:07:21.129783  7845 net.cpp:406] relu5_2 <- conv5_2
I0724 10:07:21.129791  7845 net.cpp:367] relu5_2 -> conv5_2 (in-place)
I0724 10:07:21.129976  7845 net.cpp:122] Setting up relu5_2
I0724 10:07:21.129984  7845 net.cpp:129] Top shape: 1 512 48 64 (1572864)
I0724 10:07:21.129988  7845 net.cpp:137] Memory required for data: 471871488
I0724 10:07:21.129992  7845 layer_factory.hpp:77] Creating layer conv5_3
I0724 10:07:21.130002  7845 net.cpp:84] Creating Layer conv5_3
I0724 10:07:21.130007  7845 net.cpp:406] conv5_3 <- conv5_2
I0724 10:07:21.130013  7845 net.cpp:380] conv5_3 -> conv5_3
I0724 10:07:21.150468  7845 net.cpp:122] Setting up conv5_3
I0724 10:07:21.150490  7845 net.cpp:129] Top shape: 1 512 48 64 (1572864)
I0724 10:07:21.150493  7845 net.cpp:137] Memory required for data: 478162944
I0724 10:07:21.150501  7845 layer_factory.hpp:77] Creating layer relu5_3
I0724 10:07:21.150513  7845 net.cpp:84] Creating Layer relu5_3
I0724 10:07:21.150518  7845 net.cpp:406] relu5_3 <- conv5_3
I0724 10:07:21.150526  7845 net.cpp:367] relu5_3 -> conv5_3 (in-place)
I0724 10:07:21.151135  7845 net.cpp:122] Setting up relu5_3
I0724 10:07:21.151146  7845 net.cpp:129] Top shape: 1 512 48 64 (1572864)
I0724 10:07:21.151150  7845 net.cpp:137] Memory required for data: 484454400
I0724 10:07:21.151154  7845 layer_factory.hpp:77] Creating layer conv_score
I0724 10:07:21.151165  7845 net.cpp:84] Creating Layer conv_score
I0724 10:07:21.151170  7845 net.cpp:406] conv_score <- conv5_3
I0724 10:07:21.151176  7845 net.cpp:380] conv_score -> conv_score
I0724 10:07:21.237128  7845 net.cpp:122] Setting up conv_score
I0724 10:07:21.237165  7845 net.cpp:129] Top shape: 1 64 48 64 (196608)
I0724 10:07:21.237172  7845 net.cpp:137] Memory required for data: 485240832
I0724 10:07:21.237190  7845 layer_factory.hpp:77] Creating layer relu_score
I0724 10:07:21.237205  7845 net.cpp:84] Creating Layer relu_score
I0724 10:07:21.237215  7845 net.cpp:406] relu_score <- conv_score
I0724 10:07:21.237227  7845 net.cpp:367] relu_score -> conv_score (in-place)
I0724 10:07:21.237602  7845 net.cpp:122] Setting up relu_score
I0724 10:07:21.237622  7845 net.cpp:129] Top shape: 1 64 48 64 (196608)
I0724 10:07:21.237629  7845 net.cpp:137] Memory required for data: 486027264
I0724 10:07:21.237637  7845 layer_factory.hpp:77] Creating layer slicer_conv
I0724 10:07:21.237659  7845 net.cpp:84] Creating Layer slicer_conv
I0724 10:07:21.237668  7845 net.cpp:406] slicer_conv <- conv_score
I0724 10:07:21.237690  7845 net.cpp:380] slicer_conv -> score1
I0724 10:07:21.237715  7845 net.cpp:380] slicer_conv -> score2
…
I0724 10:07:21.238775  7845 net.cpp:380] slicer_conv -> score57
I0724 10:07:21.238792  7845 net.cpp:380] slicer_conv -> score58
I0724 10:07:21.238811  7845 net.cpp:380] slicer_conv -> score59
I0724 10:07:21.238827  7845 net.cpp:380] slicer_conv -> score60
I0724 10:07:21.238845  7845 net.cpp:380] slicer_conv -> score61
I0724 10:07:21.238862  7845 net.cpp:380] slicer_conv -> score62
I0724 10:07:21.238880  7845 net.cpp:380] slicer_conv -> score63
I0724 10:07:21.238898  7845 net.cpp:380] slicer_conv -> score64
I0724 10:07:21.240609  7845 net.cpp:122] Setting up slicer_conv
I0724 10:07:21.240623  7845 net.cpp:129] Top shape: 1 1 48 64 (3072)
I0724 10:07:21.240634  7845 net.cpp:129] Top shape: 1 1 48 64 (3072)
I0724 10:07:21.240643  7845 net.cpp:129] Top shape: 1 1 48 64 (3072)
I0724 10:07:21.240651  7845 net.cpp:129] Top shape: 1 1 48 64 (3072)
I0724 10:07:21.240659  7845 net.cpp:129] Top shape: 1 1 48 64 (3072)
I0724 10:07:21.240667  7845 net.cpp:129] Top shape: 1 1 48 64 (3072)
I0724 10:07:21.240675  7845 net.cpp:129] Top shape: 1 1 48 64 (3072)
I0724 10:07:21.240684  7845 net.cpp:129] Top shape: 1 1 48 64 (3072)
I0724 10:07:21.240691  7845 net.cpp:129] Top shape: 1 1 48 64 (3072)
I0724 10:07:21.240700  7845 net.cpp:129] Top shape: 1 1 48 64 (3072)
I0724 10:07:21.240708  7845 net.cpp:129] Top shape: 1 1 48 64 (3072)
I0724 10:07:21.240716  7845 net.cpp:129] Top shape: 1 1 48 64 (3072)
I0724 10:07:21.240725  7845 net.cpp:129] Top shape: 1 1 48 64 (3072)
I0724 10:07:21.240732  7845 net.cpp:129] Top shape: 1 1 48 64 (3072)
I0724 10:07:21.240741  7845 net.cpp:129] Top shape: 1 1 48 64 (3072)
I0724 10:07:21.240748  7845 net.cpp:129] Top shape: 1 1 48 64 (3072)
I0724 10:07:21.240756  7845 net.cpp:129] Top shape: 1 1 48 64 (3072)
I0724 10:07:21.240764  7845 net.cpp:129] Top shape: 1 1 48 64 (3072)
I0724 10:07:21.240772  7845 net.cpp:129] Top shape: 1 1 48 64 (3072)
I0724 10:07:21.240780  7845 net.cpp:129] Top shape: 1 1 48 64 (3072)
I0724 10:07:21.240804  7845 net.cpp:129] Top shape: 1 1 48 64 (3072)
I0724 10:07:21.240813  7845 net.cpp:129] Top shape: 1 1 48 64 (3072)
I0724 10:07:21.240821  7845 net.cpp:129] Top shape: 1 1 48 64 (3072)
I0724 10:07:21.240829  7845 net.cpp:129] Top shape: 1 1 48 64 (3072)
I0724 10:07:21.240839  7845 net.cpp:129] Top shape: 1 1 48 64 (3072)
I0724 10:07:21.240846  7845 net.cpp:129] Top shape: 1 1 48 64 (3072)
I0724 10:07:21.240854  7845 net.cpp:129] Top shape: 1 1 48 64 (3072)
I0724 10:07:21.240862  7845 net.cpp:129] Top shape: 1 1 48 64 (3072)
I0724 10:07:21.240870  7845 net.cpp:129] Top shape: 1 1 48 64 (3072)
I0724 10:07:21.240878  7845 net.cpp:129] Top shape: 1 1 48 64 (3072)
I0724 10:07:21.240886  7845 net.cpp:129] Top shape: 1 1 48 64 (3072)
I0724 10:07:21.240895  7845 net.cpp:129] Top shape: 1 1 48 64 (3072)
I0724 10:07:21.240902  7845 net.cpp:129] Top shape: 1 1 48 64 (3072)
I0724 10:07:21.240911  7845 net.cpp:129] Top shape: 1 1 48 64 (3072)
I0724 10:07:21.240919  7845 net.cpp:129] Top shape: 1 1 48 64 (3072)
I0724 10:07:21.240927  7845 net.cpp:129] Top shape: 1 1 48 64 (3072)
I0724 10:07:21.240936  7845 net.cpp:129] Top shape: 1 1 48 64 (3072)
I0724 10:07:21.240943  7845 net.cpp:129] Top shape: 1 1 48 64 (3072)
I0724 10:07:21.240952  7845 net.cpp:129] Top shape: 1 1 48 64 (3072)
I0724 10:07:21.240959  7845 net.cpp:129] Top shape: 1 1 48 64 (3072)
I0724 10:07:21.240967  7845 net.cpp:129] Top shape: 1 1 48 64 (3072)
I0724 10:07:21.240975  7845 net.cpp:129] Top shape: 1 1 48 64 (3072)
I0724 10:07:21.240983  7845 net.cpp:129] Top shape: 1 1 48 64 (3072)
I0724 10:07:21.240991  7845 net.cpp:129] Top shape: 1 1 48 64 (3072)
I0724 10:07:21.241000  7845 net.cpp:129] Top shape: 1 1 48 64 (3072)
I0724 10:07:21.241009  7845 net.cpp:129] Top shape: 1 1 48 64 (3072)
I0724 10:07:21.241017  7845 net.cpp:129] Top shape: 1 1 48 64 (3072)
I0724 10:07:21.241025  7845 net.cpp:129] Top shape: 1 1 48 64 (3072)
I0724 10:07:21.241034  7845 net.cpp:129] Top shape: 1 1 48 64 (3072)
I0724 10:07:21.241041  7845 net.cpp:129] Top shape: 1 1 48 64 (3072)
I0724 10:07:21.241050  7845 net.cpp:129] Top shape: 1 1 48 64 (3072)
I0724 10:07:21.241058  7845 net.cpp:129] Top shape: 1 1 48 64 (3072)
I0724 10:07:21.241066  7845 net.cpp:129] Top shape: 1 1 48 64 (3072)
I0724 10:07:21.241075  7845 net.cpp:129] Top shape: 1 1 48 64 (3072)
I0724 10:07:21.241082  7845 net.cpp:129] Top shape: 1 1 48 64 (3072)
I0724 10:07:21.241091  7845 net.cpp:129] Top shape: 1 1 48 64 (3072)
I0724 10:07:21.241098  7845 net.cpp:129] Top shape: 1 1 48 64 (3072)
I0724 10:07:21.241106  7845 net.cpp:129] Top shape: 1 1 48 64 (3072)
I0724 10:07:21.241114  7845 net.cpp:129] Top shape: 1 1 48 64 (3072)
I0724 10:07:21.241122  7845 net.cpp:129] Top shape: 1 1 48 64 (3072)
I0724 10:07:21.241132  7845 net.cpp:129] Top shape: 1 1 48 64 (3072)
I0724 10:07:21.241138  7845 net.cpp:129] Top shape: 1 1 48 64 (3072)
I0724 10:07:21.241147  7845 net.cpp:129] Top shape: 1 1 48 64 (3072)
I0724 10:07:21.241155  7845 net.cpp:129] Top shape: 1 1 48 64 (3072)
I0724 10:07:21.241161  7845 net.cpp:137] Memory required for data: 486813696
I0724 10:07:21.241170  7845 layer_factory.hpp:77] Creating layer score1_slicer_conv_0_split
I0724 10:07:21.241181  7845 net.cpp:84] Creating Layer score1_slicer_conv_0_split
I0724 10:07:21.241189  7845 net.cpp:406] score1_slicer_conv_0_split <- score1
I0724 10:07:21.241204  7845 net.cpp:380] score1_slicer_conv_0_split -> score1_slicer_conv_0_split_0
I0724 10:07:21.241219  7845 net.cpp:380] score1_slicer_conv_0_split -> score1_slicer_conv_0_split_1
I0724 10:07:21.241310  7845 net.cpp:122] Setting up score1_slicer_conv_0_split
I0724 10:07:21.241324  7845 net.cpp:129] Top shape: 1 1 48 64 (3072)
I0724 10:07:21.241333  7845 net.cpp:129] Top shape: 1 1 48 64 (3072)
I0724 10:07:21.241339  7845 net.cpp:137] Memory required for data: 486838272
I0724 10:07:21.241346  7845 layer_factory.hpp:77] Creating layer score2_slicer_conv_1_split
I0724 10:07:21.241356  7845 net.cpp:84] Creating Layer score2_slicer_conv_1_split
I0724 10:07:21.241364  7845 net.cpp:406] score2_slicer_conv_1_split <- score2
I0724 10:07:21.241392  7845 net.cpp:380] score2_slicer_conv_1_split -> score2_slicer_conv_1_split_0
I0724 10:07:21.241406  7845 net.cpp:380] score2_slicer_conv_1_split -> score2_slicer_conv_1_split_1
I0724 10:07:21.241487  7845 net.cpp:122] Setting up score2_slicer_conv_1_split
I0724 10:07:21.241498  7845 net.cpp:129] Top shape: 1 1 48 64 (3072)
I0724 10:07:21.241506  7845 net.cpp:129] Top shape: 1 1 48 64 (3072)
I0724 10:07:21.241513  7845 net.cpp:137] Memory required for data: 486862848
I0724 10:07:21.241520  7845 layer_factory.hpp:77] Creating layer score3_slicer_conv_2_split
I0724 10:07:21.241531  7845 net.cpp:84] Creating Layer score3_slicer_conv_2_split
I0724 10:07:21.241539  7845 net.cpp:406] score3_slicer_conv_2_split <- score3
I0724 10:07:21.241554  7845 net.cpp:380] score3_slicer_conv_2_split -> score3_slicer_conv_2_split_0
I0724 10:07:21.241565  7845 net.cpp:380] score3_slicer_conv_2_split -> score3_slicer_conv_2_split_1
I0724 10:07:21.241638  7845 net.cpp:122] Setting up score3_slicer_conv_2_split
I0724 10:07:21.241652  7845 net.cpp:129] Top shape: 1 1 48 64 (3072)
I0724 10:07:21.241660  7845 net.cpp:129] Top shape: 1 1 48 64 (3072)
I0724 10:07:21.241667  7845 net.cpp:137] Memory required for data: 486887424
I0724 10:07:21.241673  7845 layer_factory.hpp:77] Creating layer score4_slicer_conv_3_split
I0724 10:07:21.241683  7845 net.cpp:84] Creating Layer score4_slicer_conv_3_split
I0724 10:07:21.241690  7845 net.cpp:406] score4_slicer_conv_3_split <- score4
I0724 10:07:21.241701  7845 net.cpp:380] score4_slicer_conv_3_split -> score4_slicer_conv_3_split_0
I0724 10:07:21.241716  7845 net.cpp:380] score4_slicer_conv_3_split -> score4_slicer_conv_3_split_1
I0724 10:07:21.241789  7845 net.cpp:122] Setting up score4_slicer_conv_3_split
I0724 10:07:21.241801  7845 net.cpp:129] Top shape: 1 1 48 64 (3072)
I0724 10:07:21.241809  7845 net.cpp:129] Top shape: 1 1 48 64 (3072)
I0724 10:07:21.241816  7845 net.cpp:137] Memory required for data: 486912000
I0724 10:07:21.241823  7845 layer_factory.hpp:77] Creating layer score5_slicer_conv_4_split
I0724 10:07:21.241834  7845 net.cpp:84] Creating Layer score5_slicer_conv_4_split
I0724 10:07:21.241842  7845 net.cpp:406] score5_slicer_conv_4_split <- score5
I0724 10:07:21.241852  7845 net.cpp:380] score5_slicer_conv_4_split -> score5_slicer_conv_4_split_0
I0724 10:07:21.241864  7845 net.cpp:380] score5_slicer_conv_4_split -> score5_slicer_conv_4_split_1
I0724 10:07:21.241937  7845 net.cpp:122] Setting up score5_slicer_conv_4_split
I0724 10:07:21.241948  7845 net.cpp:129] Top shape: 1 1 48 64 (3072)
I0724 10:07:21.241956  7845 net.cpp:129] Top shape: 1 1 48 64 (3072)
I0724 10:07:21.241963  7845 net.cpp:137] Memory required for data: 486936576
I0724 10:07:21.241971  7845 layer_factory.hpp:77] Creating layer score6_slicer_conv_5_split
I0724 10:07:21.241979  7845 net.cpp:84] Creating Layer score6_slicer_conv_5_split
I0724 10:07:21.241986  7845 net.cpp:406] score6_slicer_conv_5_split <- score6
I0724 10:07:21.241997  7845 net.cpp:380] score6_slicer_conv_5_split -> score6_slicer_conv_5_split_0
I0724 10:07:21.242008  7845 net.cpp:380] score6_slicer_conv_5_split -> score6_slicer_conv_5_split_1
I0724 10:07:21.242080  7845 net.cpp:122] Setting up score6_slicer_conv_5_split
I0724 10:07:21.242091  7845 net.cpp:129] Top shape: 1 1 48 64 (3072)
I0724 10:07:21.242100  7845 net.cpp:129] Top shape: 1 1 48 64 (3072)
I0724 10:07:21.242106  7845 net.cpp:137] Memory required for data: 486961152
I0724 10:07:21.242113  7845 layer_factory.hpp:77] Creating layer score7_slicer_conv_6_split
I0724 10:07:21.242122  7845 net.cpp:84] Creating Layer score7_slicer_conv_6_split
I0724 10:07:21.242130  7845 net.cpp:406] score7_slicer_conv_6_split <- score7
I0724 10:07:21.242142  7845 net.cpp:380] score7_slicer_conv_6_split -> score7_slicer_conv_6_split_0
I0724 10:07:21.242154  7845 net.cpp:380] score7_slicer_conv_6_split -> score7_slicer_conv_6_split_1
I0724 10:07:21.242228  7845 net.cpp:122] Setting up score7_slicer_conv_6_split
I0724 10:07:21.242238  7845 net.cpp:129] Top shape: 1 1 48 64 (3072)
I0724 10:07:21.242261  7845 net.cpp:129] Top shape: 1 1 48 64 (3072)
I0724 10:07:21.242269  7845 net.cpp:137] Memory required for data: 486985728
I0724 10:07:21.242275  7845 layer_factory.hpp:77] Creating layer score8_slicer_conv_7_split
I0724 10:07:21.242285  7845 net.cpp:84] Creating Layer score8_slicer_conv_7_split
I0724 10:07:21.242292  7845 net.cpp:406] score8_slicer_conv_7_split <- score8
I0724 10:07:21.242303  7845 net.cpp:380] score8_slicer_conv_7_split -> score8_slicer_conv_7_split_0
I0724 10:07:21.242316  7845 net.cpp:380] score8_slicer_conv_7_split -> score8_slicer_conv_7_split_1
I0724 10:07:21.242393  7845 net.cpp:122] Setting up score8_slicer_conv_7_split
I0724 10:07:21.242405  7845 net.cpp:129] Top shape: 1 1 48 64 (3072)
I0724 10:07:21.242413  7845 net.cpp:129] Top shape: 1 1 48 64 (3072)
I0724 10:07:21.242419  7845 net.cpp:137] Memory required for data: 487010304
I0724 10:07:21.242427  7845 layer_factory.hpp:77] Creating layer score9_slicer_conv_8_split
I0724 10:07:21.242436  7845 net.cpp:84] Creating Layer score9_slicer_conv_8_split
I0724 10:07:21.242444  7845 net.cpp:406] score9_slicer_conv_8_split <- score9
I0724 10:07:21.242455  7845 net.cpp:380] score9_slicer_conv_8_split -> score9_slicer_conv_8_split_0
I0724 10:07:21.242467  7845 net.cpp:380] score9_slicer_conv_8_split -> score9_slicer_conv_8_split_1
I0724 10:07:21.242542  7845 net.cpp:122] Setting up score9_slicer_conv_8_split
I0724 10:07:21.242554  7845 net.cpp:129] Top shape: 1 1 48 64 (3072)
I0724 10:07:21.242563  7845 net.cpp:129] Top shape: 1 1 48 64 (3072)
I0724 10:07:21.242569  7845 net.cpp:137] Memory required for data: 487034880
I0724 10:07:21.242576  7845 layer_factory.hpp:77] Creating layer score10_slicer_conv_9_split
I0724 10:07:21.242585  7845 net.cpp:84] Creating Layer score10_slicer_conv_9_split
I0724 10:07:21.242594  7845 net.cpp:406] score10_slicer_conv_9_split <- score10
I0724 10:07:21.242604  7845 net.cpp:380] score10_slicer_conv_9_split -> score10_slicer_conv_9_split_0
I0724 10:07:21.242616  7845 net.cpp:380] score10_slicer_conv_9_split -> score10_slicer_conv_9_split_1
I0724 10:07:21.242691  7845 net.cpp:122] Setting up score10_slicer_conv_9_split
I0724 10:07:21.242703  7845 net.cpp:129] Top shape: 1 1 48 64 (3072)
I0724 10:07:21.242712  7845 net.cpp:129] Top shape: 1 1 48 64 (3072)
I0724 10:07:21.242718  7845 net.cpp:137] Memory required for data: 487059456
I0724 10:07:21.242725  7845 layer_factory.hpp:77] Creating layer score11_slicer_conv_10_split
I0724 10:07:21.242735  7845 net.cpp:84] Creating Layer score11_slicer_conv_10_split
I0724 10:07:21.242743  7845 net.cpp:406] score11_slicer_conv_10_split <- score11
I0724 10:07:21.242755  7845 net.cpp:380] score11_slicer_conv_10_split -> score11_slicer_conv_10_split_0
I0724 10:07:21.242768  7845 net.cpp:380] score11_slicer_conv_10_split -> score11_slicer_conv_10_split_1
I0724 10:07:21.242839  7845 net.cpp:122] Setting up score11_slicer_conv_10_split
I0724 10:07:21.242851  7845 net.cpp:129] Top shape: 1 1 48 64 (3072)
I0724 10:07:21.242858  7845 net.cpp:129] Top shape: 1 1 48 64 (3072)
I0724 10:07:21.242866  7845 net.cpp:137] Memory required for data: 487084032
I0724 10:07:21.242872  7845 layer_factory.hpp:77] Creating layer score12_slicer_conv_11_split
I0724 10:07:21.242883  7845 net.cpp:84] Creating Layer score12_slicer_conv_11_split
I0724 10:07:21.242892  7845 net.cpp:406] score12_slicer_conv_11_split <- score12
I0724 10:07:21.242902  7845 net.cpp:380] score12_slicer_conv_11_split -> score12_slicer_conv_11_split_0
I0724 10:07:21.242913  7845 net.cpp:380] score12_slicer_conv_11_split -> score12_slicer_conv_11_split_1
I0724 10:07:21.242985  7845 net.cpp:122] Setting up score12_slicer_conv_11_split
I0724 10:07:21.242997  7845 net.cpp:129] Top shape: 1 1 48 64 (3072)
I0724 10:07:21.243005  7845 net.cpp:129] Top shape: 1 1 48 64 (3072)
I0724 10:07:21.243012  7845 net.cpp:137] Memory required for data: 487108608
I0724 10:07:21.243019  7845 layer_factory.hpp:77] Creating layer score13_slicer_conv_12_split
I0724 10:07:21.243028  7845 net.cpp:84] Creating Layer score13_slicer_conv_12_split
I0724 10:07:21.243049  7845 net.cpp:406] score13_slicer_conv_12_split <- score13
I0724 10:07:21.243060  7845 net.cpp:380] score13_slicer_conv_12_split -> score13_slicer_conv_12_split_0
I0724 10:07:21.243074  7845 net.cpp:380] score13_slicer_conv_12_split -> score13_slicer_conv_12_split_1
I0724 10:07:21.243150  7845 net.cpp:122] Setting up score13_slicer_conv_12_split
I0724 10:07:21.243161  7845 net.cpp:129] Top shape: 1 1 48 64 (3072)
I0724 10:07:21.243170  7845 net.cpp:129] Top shape: 1 1 48 64 (3072)
I0724 10:07:21.243176  7845 net.cpp:137] Memory required for data: 487133184
I0724 10:07:21.243183  7845 layer_factory.hpp:77] Creating layer score14_slicer_conv_13_split
I0724 10:07:21.243194  7845 net.cpp:84] Creating Layer score14_slicer_conv_13_split
I0724 10:07:21.243202  7845 net.cpp:406] score14_slicer_conv_13_split <- score14
I0724 10:07:21.243212  7845 net.cpp:380] score14_slicer_conv_13_split -> score14_slicer_conv_13_split_0
I0724 10:07:21.243224  7845 net.cpp:380] score14_slicer_conv_13_split -> score14_slicer_conv_13_split_1
I0724 10:07:21.243296  7845 net.cpp:122] Setting up score14_slicer_conv_13_split
I0724 10:07:21.243309  7845 net.cpp:129] Top shape: 1 1 48 64 (3072)
I0724 10:07:21.243316  7845 net.cpp:129] Top shape: 1 1 48 64 (3072)
I0724 10:07:21.243324  7845 net.cpp:137] Memory required for data: 487157760
I0724 10:07:21.243330  7845 layer_factory.hpp:77] Creating layer score15_slicer_conv_14_split
I0724 10:07:21.243340  7845 net.cpp:84] Creating Layer score15_slicer_conv_14_split
I0724 10:07:21.243346  7845 net.cpp:406] score15_slicer_conv_14_split <- score15
I0724 10:07:21.243357  7845 net.cpp:380] score15_slicer_conv_14_split -> score15_slicer_conv_14_split_0
I0724 10:07:21.243368  7845 net.cpp:380] score15_slicer_conv_14_split -> score15_slicer_conv_14_split_1
I0724 10:07:21.243441  7845 net.cpp:122] Setting up score15_slicer_conv_14_split
I0724 10:07:21.243453  7845 net.cpp:129] Top shape: 1 1 48 64 (3072)
I0724 10:07:21.243461  7845 net.cpp:129] Top shape: 1 1 48 64 (3072)
I0724 10:07:21.243468  7845 net.cpp:137] Memory required for data: 487182336
I0724 10:07:21.243474  7845 layer_factory.hpp:77] Creating layer score16_slicer_conv_15_split
I0724 10:07:21.243484  7845 net.cpp:84] Creating Layer score16_slicer_conv_15_split
I0724 10:07:21.243491  7845 net.cpp:406] score16_slicer_conv_15_split <- score16
I0724 10:07:21.243504  7845 net.cpp:380] score16_slicer_conv_15_split -> score16_slicer_conv_15_split_0
I0724 10:07:21.243515  7845 net.cpp:380] score16_slicer_conv_15_split -> score16_slicer_conv_15_split_1
I0724 10:07:21.243587  7845 net.cpp:122] Setting up score16_slicer_conv_15_split
I0724 10:07:21.243598  7845 net.cpp:129] Top shape: 1 1 48 64 (3072)
I0724 10:07:21.243607  7845 net.cpp:129] Top shape: 1 1 48 64 (3072)
I0724 10:07:21.243613  7845 net.cpp:137] Memory required for data: 487206912
I0724 10:07:21.243620  7845 layer_factory.hpp:77] Creating layer score17_slicer_conv_16_split
I0724 10:07:21.243629  7845 net.cpp:84] Creating Layer score17_slicer_conv_16_split
I0724 10:07:21.243638  7845 net.cpp:406] score17_slicer_conv_16_split <- score17
I0724 10:07:21.243647  7845 net.cpp:380] score17_slicer_conv_16_split -> score17_slicer_conv_16_split_0
I0724 10:07:21.243659  7845 net.cpp:380] score17_slicer_conv_16_split -> score17_slicer_conv_16_split_1
I0724 10:07:21.243731  7845 net.cpp:122] Setting up score17_slicer_conv_16_split
I0724 10:07:21.243742  7845 net.cpp:129] Top shape: 1 1 48 64 (3072)
I0724 10:07:21.243751  7845 net.cpp:129] Top shape: 1 1 48 64 (3072)
I0724 10:07:21.243757  7845 net.cpp:137] Memory required for data: 487231488
I0724 10:07:21.243764  7845 layer_factory.hpp:77] Creating layer score18_slicer_conv_17_split
I0724 10:07:21.243773  7845 net.cpp:84] Creating Layer score18_slicer_conv_17_split
I0724 10:07:21.243782  7845 net.cpp:406] score18_slicer_conv_17_split <- score18
I0724 10:07:21.243793  7845 net.cpp:380] score18_slicer_conv_17_split -> score18_slicer_conv_17_split_0
I0724 10:07:21.243805  7845 net.cpp:380] score18_slicer_conv_17_split -> score18_slicer_conv_17_split_1
I0724 10:07:21.243892  7845 net.cpp:122] Setting up score18_slicer_conv_17_split
I0724 10:07:21.243904  7845 net.cpp:129] Top shape: 1 1 48 64 (3072)
I0724 10:07:21.243912  7845 net.cpp:129] Top shape: 1 1 48 64 (3072)
I0724 10:07:21.243919  7845 net.cpp:137] Memory required for data: 487256064
I0724 10:07:21.243927  7845 layer_factory.hpp:77] Creating layer score19_slicer_conv_18_split
I0724 10:07:21.243939  7845 net.cpp:84] Creating Layer score19_slicer_conv_18_split
I0724 10:07:21.243947  7845 net.cpp:406] score19_slicer_conv_18_split <- score19
I0724 10:07:21.243957  7845 net.cpp:380] score19_slicer_conv_18_split -> score19_slicer_conv_18_split_0
I0724 10:07:21.243969  7845 net.cpp:380] score19_slicer_conv_18_split -> score19_slicer_conv_18_split_1
I0724 10:07:21.244042  7845 net.cpp:122] Setting up score19_slicer_conv_18_split
I0724 10:07:21.244053  7845 net.cpp:129] Top shape: 1 1 48 64 (3072)
I0724 10:07:21.244061  7845 net.cpp:129] Top shape: 1 1 48 64 (3072)
I0724 10:07:21.244068  7845 net.cpp:137] Memory required for data: 487280640
I0724 10:07:21.244076  7845 layer_factory.hpp:77] Creating layer score20_slicer_conv_19_split
I0724 10:07:21.244084  7845 net.cpp:84] Creating Layer score20_slicer_conv_19_split
I0724 10:07:21.244092  7845 net.cpp:406] score20_slicer_conv_19_split <- score20
I0724 10:07:21.244103  7845 net.cpp:380] score20_slicer_conv_19_split -> score20_slicer_conv_19_split_0
I0724 10:07:21.244117  7845 net.cpp:380] score20_slicer_conv_19_split -> score20_slicer_conv_19_split_1
I0724 10:07:21.244189  7845 net.cpp:122] Setting up score20_slicer_conv_19_split
I0724 10:07:21.244199  7845 net.cpp:129] Top shape: 1 1 48 64 (3072)
I0724 10:07:21.244207  7845 net.cpp:129] Top shape: 1 1 48 64 (3072)
I0724 10:07:21.244213  7845 net.cpp:137] Memory required for data: 487305216
I0724 10:07:21.244220  7845 layer_factory.hpp:77] Creating layer score21_slicer_conv_20_split
I0724 10:07:21.244231  7845 net.cpp:84] Creating Layer score21_slicer_conv_20_split
I0724 10:07:21.244240  7845 net.cpp:406] score21_slicer_conv_20_split <- score21
I0724 10:07:21.244249  7845 net.cpp:380] score21_slicer_conv_20_split -> score21_slicer_conv_20_split_0
I0724 10:07:21.244261  7845 net.cpp:380] score21_slicer_conv_20_split -> score21_slicer_conv_20_split_1
I0724 10:07:21.244333  7845 net.cpp:122] Setting up score21_slicer_conv_20_split
I0724 10:07:21.244344  7845 net.cpp:129] Top shape: 1 1 48 64 (3072)
I0724 10:07:21.244352  7845 net.cpp:129] Top shape: 1 1 48 64 (3072)
I0724 10:07:21.244359  7845 net.cpp:137] Memory required for data: 487329792
I0724 10:07:21.244366  7845 layer_factory.hpp:77] Creating layer score22_slicer_conv_21_split
I0724 10:07:21.244375  7845 net.cpp:84] Creating Layer score22_slicer_conv_21_split
I0724 10:07:21.244382  7845 net.cpp:406] score22_slicer_conv_21_split <- score22
I0724 10:07:21.244393  7845 net.cpp:380] score22_slicer_conv_21_split -> score22_slicer_conv_21_split_0
I0724 10:07:21.244405  7845 net.cpp:380] score22_slicer_conv_21_split -> score22_slicer_conv_21_split_1
I0724 10:07:21.244477  7845 net.cpp:122] Setting up score22_slicer_conv_21_split
I0724 10:07:21.244488  7845 net.cpp:129] Top shape: 1 1 48 64 (3072)
I0724 10:07:21.244495  7845 net.cpp:129] Top shape: 1 1 48 64 (3072)
I0724 10:07:21.244503  7845 net.cpp:137] Memory required for data: 487354368
I0724 10:07:21.244509  7845 layer_factory.hpp:77] Creating layer score23_slicer_conv_22_split
I0724 10:07:21.244518  7845 net.cpp:84] Creating Layer score23_slicer_conv_22_split
I0724 10:07:21.244526  7845 net.cpp:406] score23_slicer_conv_22_split <- score23
I0724 10:07:21.244544  7845 net.cpp:380] score23_slicer_conv_22_split -> score23_slicer_conv_22_split_0
I0724 10:07:21.244555  7845 net.cpp:380] score23_slicer_conv_22_split -> score23_slicer_conv_22_split_1
I0724 10:07:21.244628  7845 net.cpp:122] Setting up score23_slicer_conv_22_split
I0724 10:07:21.244639  7845 net.cpp:129] Top shape: 1 1 48 64 (3072)
I0724 10:07:21.244647  7845 net.cpp:129] Top shape: 1 1 48 64 (3072)
I0724 10:07:21.244674  7845 net.cpp:137] Memory required for data: 487378944
I0724 10:07:21.244683  7845 layer_factory.hpp:77] Creating layer score24_slicer_conv_23_split
I0724 10:07:21.244693  7845 net.cpp:84] Creating Layer score24_slicer_conv_23_split
I0724 10:07:21.244700  7845 net.cpp:406] score24_slicer_conv_23_split <- score24
I0724 10:07:21.244710  7845 net.cpp:380] score24_slicer_conv_23_split -> score24_slicer_conv_23_split_0
I0724 10:07:21.244722  7845 net.cpp:380] score24_slicer_conv_23_split -> score24_slicer_conv_23_split_1
I0724 10:07:21.244799  7845 net.cpp:122] Setting up score24_slicer_conv_23_split
I0724 10:07:21.244812  7845 net.cpp:129] Top shape: 1 1 48 64 (3072)
I0724 10:07:21.244819  7845 net.cpp:129] Top shape: 1 1 48 64 (3072)
I0724 10:07:21.244825  7845 net.cpp:137] Memory required for data: 487403520
I0724 10:07:21.244832  7845 layer_factory.hpp:77] Creating layer score25_slicer_conv_24_split
I0724 10:07:21.244841  7845 net.cpp:84] Creating Layer score25_slicer_conv_24_split
I0724 10:07:21.244849  7845 net.cpp:406] score25_slicer_conv_24_split <- score25
I0724 10:07:21.244861  7845 net.cpp:380] score25_slicer_conv_24_split -> score25_slicer_conv_24_split_0
I0724 10:07:21.244873  7845 net.cpp:380] score25_slicer_conv_24_split -> score25_slicer_conv_24_split_1
I0724 10:07:21.244945  7845 net.cpp:122] Setting up score25_slicer_conv_24_split
I0724 10:07:21.244956  7845 net.cpp:129] Top shape: 1 1 48 64 (3072)
I0724 10:07:21.244964  7845 net.cpp:129] Top shape: 1 1 48 64 (3072)
I0724 10:07:21.244971  7845 net.cpp:137] Memory required for data: 487428096
I0724 10:07:21.244977  7845 layer_factory.hpp:77] Creating layer score26_slicer_conv_25_split
I0724 10:07:21.244987  7845 net.cpp:84] Creating Layer score26_slicer_conv_25_split
I0724 10:07:21.244993  7845 net.cpp:406] score26_slicer_conv_25_split <- score26
I0724 10:07:21.245003  7845 net.cpp:380] score26_slicer_conv_25_split -> score26_slicer_conv_25_split_0
I0724 10:07:21.245015  7845 net.cpp:380] score26_slicer_conv_25_split -> score26_slicer_conv_25_split_1
I0724 10:07:21.245086  7845 net.cpp:122] Setting up score26_slicer_conv_25_split
I0724 10:07:21.245097  7845 net.cpp:129] Top shape: 1 1 48 64 (3072)
I0724 10:07:21.245105  7845 net.cpp:129] Top shape: 1 1 48 64 (3072)
I0724 10:07:21.245112  7845 net.cpp:137] Memory required for data: 487452672
I0724 10:07:21.245120  7845 layer_factory.hpp:77] Creating layer score27_slicer_conv_26_split
I0724 10:07:21.245128  7845 net.cpp:84] Creating Layer score27_slicer_conv_26_split
I0724 10:07:21.245136  7845 net.cpp:406] score27_slicer_conv_26_split <- score27
I0724 10:07:21.245146  7845 net.cpp:380] score27_slicer_conv_26_split -> score27_slicer_conv_26_split_0
I0724 10:07:21.245158  7845 net.cpp:380] score27_slicer_conv_26_split -> score27_slicer_conv_26_split_1
I0724 10:07:21.245229  7845 net.cpp:122] Setting up score27_slicer_conv_26_split
I0724 10:07:21.245239  7845 net.cpp:129] Top shape: 1 1 48 64 (3072)
I0724 10:07:21.245247  7845 net.cpp:129] Top shape: 1 1 48 64 (3072)
I0724 10:07:21.245254  7845 net.cpp:137] Memory required for data: 487477248
I0724 10:07:21.245260  7845 layer_factory.hpp:77] Creating layer score28_slicer_conv_27_split
I0724 10:07:21.245272  7845 net.cpp:84] Creating Layer score28_slicer_conv_27_split
I0724 10:07:21.245280  7845 net.cpp:406] score28_slicer_conv_27_split <- score28
I0724 10:07:21.245290  7845 net.cpp:380] score28_slicer_conv_27_split -> score28_slicer_conv_27_split_0
I0724 10:07:21.245301  7845 net.cpp:380] score28_slicer_conv_27_split -> score28_slicer_conv_27_split_1
I0724 10:07:21.245398  7845 net.cpp:122] Setting up score28_slicer_conv_27_split
I0724 10:07:21.245409  7845 net.cpp:129] Top shape: 1 1 48 64 (3072)
I0724 10:07:21.245416  7845 net.cpp:129] Top shape: 1 1 48 64 (3072)
I0724 10:07:21.245422  7845 net.cpp:137] Memory required for data: 487501824
I0724 10:07:21.245429  7845 layer_factory.hpp:77] Creating layer score29_slicer_conv_28_split
I0724 10:07:21.245450  7845 net.cpp:84] Creating Layer score29_slicer_conv_28_split
I0724 10:07:21.245456  7845 net.cpp:406] score29_slicer_conv_28_split <- score29
I0724 10:07:21.245481  7845 net.cpp:380] score29_slicer_conv_28_split -> score29_slicer_conv_28_split_0
I0724 10:07:21.245494  7845 net.cpp:380] score29_slicer_conv_28_split -> score29_slicer_conv_28_split_1
I0724 10:07:21.245568  7845 net.cpp:122] Setting up score29_slicer_conv_28_split
I0724 10:07:21.245579  7845 net.cpp:129] Top shape: 1 1 48 64 (3072)
I0724 10:07:21.245586  7845 net.cpp:129] Top shape: 1 1 48 64 (3072)
I0724 10:07:21.245592  7845 net.cpp:137] Memory required for data: 487526400
I0724 10:07:21.245600  7845 layer_factory.hpp:77] Creating layer score30_slicer_conv_29_split
I0724 10:07:21.245609  7845 net.cpp:84] Creating Layer score30_slicer_conv_29_split
I0724 10:07:21.245616  7845 net.cpp:406] score30_slicer_conv_29_split <- score30
I0724 10:07:21.245628  7845 net.cpp:380] score30_slicer_conv_29_split -> score30_slicer_conv_29_split_0
I0724 10:07:21.245640  7845 net.cpp:380] score30_slicer_conv_29_split -> score30_slicer_conv_29_split_1
I0724 10:07:21.245707  7845 net.cpp:122] Setting up score30_slicer_conv_29_split
I0724 10:07:21.245718  7845 net.cpp:129] Top shape: 1 1 48 64 (3072)
I0724 10:07:21.245725  7845 net.cpp:129] Top shape: 1 1 48 64 (3072)
I0724 10:07:21.245731  7845 net.cpp:137] Memory required for data: 487550976
I0724 10:07:21.245738  7845 layer_factory.hpp:77] Creating layer score31_slicer_conv_30_split
I0724 10:07:21.245746  7845 net.cpp:84] Creating Layer score31_slicer_conv_30_split
I0724 10:07:21.245754  7845 net.cpp:406] score31_slicer_conv_30_split <- score31
I0724 10:07:21.245764  7845 net.cpp:380] score31_slicer_conv_30_split -> score31_slicer_conv_30_split_0
I0724 10:07:21.245774  7845 net.cpp:380] score31_slicer_conv_30_split -> score31_slicer_conv_30_split_1
I0724 10:07:21.245843  7845 net.cpp:122] Setting up score31_slicer_conv_30_split
I0724 10:07:21.245853  7845 net.cpp:129] Top shape: 1 1 48 64 (3072)
I0724 10:07:21.245862  7845 net.cpp:129] Top shape: 1 1 48 64 (3072)
I0724 10:07:21.245867  7845 net.cpp:137] Memory required for data: 487575552
I0724 10:07:21.245874  7845 layer_factory.hpp:77] Creating layer score32_slicer_conv_31_split
I0724 10:07:21.245882  7845 net.cpp:84] Creating Layer score32_slicer_conv_31_split
I0724 10:07:21.245889  7845 net.cpp:406] score32_slicer_conv_31_split <- score32
I0724 10:07:21.245901  7845 net.cpp:380] score32_slicer_conv_31_split -> score32_slicer_conv_31_split_0
I0724 10:07:21.245911  7845 net.cpp:380] score32_slicer_conv_31_split -> score32_slicer_conv_31_split_1
I0724 10:07:21.245978  7845 net.cpp:122] Setting up score32_slicer_conv_31_split
I0724 10:07:21.245988  7845 net.cpp:129] Top shape: 1 1 48 64 (3072)
I0724 10:07:21.245996  7845 net.cpp:129] Top shape: 1 1 48 64 (3072)
I0724 10:07:21.246002  7845 net.cpp:137] Memory required for data: 487600128
I0724 10:07:21.246008  7845 layer_factory.hpp:77] Creating layer score33_slicer_conv_32_split
I0724 10:07:21.246019  7845 net.cpp:84] Creating Layer score33_slicer_conv_32_split
I0724 10:07:21.246026  7845 net.cpp:406] score33_slicer_conv_32_split <- score33
I0724 10:07:21.246037  7845 net.cpp:380] score33_slicer_conv_32_split -> score33_slicer_conv_32_split_0
I0724 10:07:21.246047  7845 net.cpp:380] score33_slicer_conv_32_split -> score33_slicer_conv_32_split_1
I0724 10:07:21.246114  7845 net.cpp:122] Setting up score33_slicer_conv_32_split
I0724 10:07:21.246127  7845 net.cpp:129] Top shape: 1 1 48 64 (3072)
I0724 10:07:21.246134  7845 net.cpp:129] Top shape: 1 1 48 64 (3072)
I0724 10:07:21.246141  7845 net.cpp:137] Memory required for data: 487624704
I0724 10:07:21.246148  7845 layer_factory.hpp:77] Creating layer score34_slicer_conv_33_split
I0724 10:07:21.246156  7845 net.cpp:84] Creating Layer score34_slicer_conv_33_split
I0724 10:07:21.246163  7845 net.cpp:406] score34_slicer_conv_33_split <- score34
I0724 10:07:21.246172  7845 net.cpp:380] score34_slicer_conv_33_split -> score34_slicer_conv_33_split_0
I0724 10:07:21.246182  7845 net.cpp:380] score34_slicer_conv_33_split -> score34_slicer_conv_33_split_1
I0724 10:07:21.246250  7845 net.cpp:122] Setting up score34_slicer_conv_33_split
I0724 10:07:21.246273  7845 net.cpp:129] Top shape: 1 1 48 64 (3072)
I0724 10:07:21.246282  7845 net.cpp:129] Top shape: 1 1 48 64 (3072)
I0724 10:07:21.246289  7845 net.cpp:137] Memory required for data: 487649280
I0724 10:07:21.246294  7845 layer_factory.hpp:77] Creating layer score35_slicer_conv_34_split
I0724 10:07:21.246305  7845 net.cpp:84] Creating Layer score35_slicer_conv_34_split
I0724 10:07:21.246312  7845 net.cpp:406] score35_slicer_conv_34_split <- score35
I0724 10:07:21.246322  7845 net.cpp:380] score35_slicer_conv_34_split -> score35_slicer_conv_34_split_0
I0724 10:07:21.246333  7845 net.cpp:380] score35_slicer_conv_34_split -> score35_slicer_conv_34_split_1
I0724 10:07:21.246405  7845 net.cpp:122] Setting up score35_slicer_conv_34_split
I0724 10:07:21.246417  7845 net.cpp:129] Top shape: 1 1 48 64 (3072)
I0724 10:07:21.246424  7845 net.cpp:129] Top shape: 1 1 48 64 (3072)
I0724 10:07:21.246431  7845 net.cpp:137] Memory required for data: 487673856
I0724 10:07:21.246438  7845 layer_factory.hpp:77] Creating layer score36_slicer_conv_35_split
I0724 10:07:21.246446  7845 net.cpp:84] Creating Layer score36_slicer_conv_35_split
I0724 10:07:21.246454  7845 net.cpp:406] score36_slicer_conv_35_split <- score36
I0724 10:07:21.246462  7845 net.cpp:380] score36_slicer_conv_35_split -> score36_slicer_conv_35_split_0
I0724 10:07:21.246474  7845 net.cpp:380] score36_slicer_conv_35_split -> score36_slicer_conv_35_split_1
I0724 10:07:21.246542  7845 net.cpp:122] Setting up score36_slicer_conv_35_split
I0724 10:07:21.246552  7845 net.cpp:129] Top shape: 1 1 48 64 (3072)
I0724 10:07:21.246559  7845 net.cpp:129] Top shape: 1 1 48 64 (3072)
I0724 10:07:21.246567  7845 net.cpp:137] Memory required for data: 487698432
I0724 10:07:21.246572  7845 layer_factory.hpp:77] Creating layer score37_slicer_conv_36_split
I0724 10:07:21.246582  7845 net.cpp:84] Creating Layer score37_slicer_conv_36_split
I0724 10:07:21.246588  7845 net.cpp:406] score37_slicer_conv_36_split <- score37
I0724 10:07:21.246599  7845 net.cpp:380] score37_slicer_conv_36_split -> score37_slicer_conv_36_split_0
I0724 10:07:21.246610  7845 net.cpp:380] score37_slicer_conv_36_split -> score37_slicer_conv_36_split_1
I0724 10:07:21.246678  7845 net.cpp:122] Setting up score37_slicer_conv_36_split
I0724 10:07:21.246688  7845 net.cpp:129] Top shape: 1 1 48 64 (3072)
I0724 10:07:21.246696  7845 net.cpp:129] Top shape: 1 1 48 64 (3072)
I0724 10:07:21.246702  7845 net.cpp:137] Memory required for data: 487723008
I0724 10:07:21.246709  7845 layer_factory.hpp:77] Creating layer score38_slicer_conv_37_split
I0724 10:07:21.246717  7845 net.cpp:84] Creating Layer score38_slicer_conv_37_split
I0724 10:07:21.246724  7845 net.cpp:406] score38_slicer_conv_37_split <- score38
I0724 10:07:21.246734  7845 net.cpp:380] score38_slicer_conv_37_split -> score38_slicer_conv_37_split_0
I0724 10:07:21.246745  7845 net.cpp:380] score38_slicer_conv_37_split -> score38_slicer_conv_37_split_1
I0724 10:07:21.246814  7845 net.cpp:122] Setting up score38_slicer_conv_37_split
I0724 10:07:21.246824  7845 net.cpp:129] Top shape: 1 1 48 64 (3072)
I0724 10:07:21.246831  7845 net.cpp:129] Top shape: 1 1 48 64 (3072)
I0724 10:07:21.246837  7845 net.cpp:137] Memory required for data: 487747584
I0724 10:07:21.246845  7845 layer_factory.hpp:77] Creating layer score39_slicer_conv_38_split
I0724 10:07:21.246852  7845 net.cpp:84] Creating Layer score39_slicer_conv_38_split
I0724 10:07:21.246860  7845 net.cpp:406] score39_slicer_conv_38_split <- score39
I0724 10:07:21.246871  7845 net.cpp:380] score39_slicer_conv_38_split -> score39_slicer_conv_38_split_0
I0724 10:07:21.246882  7845 net.cpp:380] score39_slicer_conv_38_split -> score39_slicer_conv_38_split_1
I0724 10:07:21.246949  7845 net.cpp:122] Setting up score39_slicer_conv_38_split
I0724 10:07:21.246959  7845 net.cpp:129] Top shape: 1 1 48 64 (3072)
I0724 10:07:21.246968  7845 net.cpp:129] Top shape: 1 1 48 64 (3072)
I0724 10:07:21.246973  7845 net.cpp:137] Memory required for data: 487772160
I0724 10:07:21.246991  7845 layer_factory.hpp:77] Creating layer score40_slicer_conv_39_split
I0724 10:07:21.247004  7845 net.cpp:84] Creating Layer score40_slicer_conv_39_split
I0724 10:07:21.247011  7845 net.cpp:406] score40_slicer_conv_39_split <- score40
I0724 10:07:21.247020  7845 net.cpp:380] score40_slicer_conv_39_split -> score40_slicer_conv_39_split_0
I0724 10:07:21.247031  7845 net.cpp:380] score40_slicer_conv_39_split -> score40_slicer_conv_39_split_1
I0724 10:07:21.247104  7845 net.cpp:122] Setting up score40_slicer_conv_39_split
I0724 10:07:21.247115  7845 net.cpp:129] Top shape: 1 1 48 64 (3072)
I0724 10:07:21.247123  7845 net.cpp:129] Top shape: 1 1 48 64 (3072)
I0724 10:07:21.247129  7845 net.cpp:137] Memory required for data: 487796736
I0724 10:07:21.247135  7845 layer_factory.hpp:77] Creating layer score41_slicer_conv_40_split
I0724 10:07:21.247144  7845 net.cpp:84] Creating Layer score41_slicer_conv_40_split
I0724 10:07:21.247151  7845 net.cpp:406] score41_slicer_conv_40_split <- score41
I0724 10:07:21.247160  7845 net.cpp:380] score41_slicer_conv_40_split -> score41_slicer_conv_40_split_0
I0724 10:07:21.247174  7845 net.cpp:380] score41_slicer_conv_40_split -> score41_slicer_conv_40_split_1
I0724 10:07:21.247242  7845 net.cpp:122] Setting up score41_slicer_conv_40_split
I0724 10:07:21.247252  7845 net.cpp:129] Top shape: 1 1 48 64 (3072)
I0724 10:07:21.247261  7845 net.cpp:129] Top shape: 1 1 48 64 (3072)
I0724 10:07:21.247265  7845 net.cpp:137] Memory required for data: 487821312
I0724 10:07:21.247272  7845 layer_factory.hpp:77] Creating layer score42_slicer_conv_41_split
I0724 10:07:21.247282  7845 net.cpp:84] Creating Layer score42_slicer_conv_41_split
I0724 10:07:21.247289  7845 net.cpp:406] score42_slicer_conv_41_split <- score42
I0724 10:07:21.247299  7845 net.cpp:380] score42_slicer_conv_41_split -> score42_slicer_conv_41_split_0
I0724 10:07:21.247309  7845 net.cpp:380] score42_slicer_conv_41_split -> score42_slicer_conv_41_split_1
I0724 10:07:21.247377  7845 net.cpp:122] Setting up score42_slicer_conv_41_split
I0724 10:07:21.247388  7845 net.cpp:129] Top shape: 1 1 48 64 (3072)
I0724 10:07:21.247396  7845 net.cpp:129] Top shape: 1 1 48 64 (3072)
I0724 10:07:21.247401  7845 net.cpp:137] Memory required for data: 487845888
I0724 10:07:21.247408  7845 layer_factory.hpp:77] Creating layer score43_slicer_conv_42_split
I0724 10:07:21.247416  7845 net.cpp:84] Creating Layer score43_slicer_conv_42_split
I0724 10:07:21.247423  7845 net.cpp:406] score43_slicer_conv_42_split <- score43
I0724 10:07:21.247432  7845 net.cpp:380] score43_slicer_conv_42_split -> score43_slicer_conv_42_split_0
I0724 10:07:21.247443  7845 net.cpp:380] score43_slicer_conv_42_split -> score43_slicer_conv_42_split_1
I0724 10:07:21.247511  7845 net.cpp:122] Setting up score43_slicer_conv_42_split
I0724 10:07:21.247522  7845 net.cpp:129] Top shape: 1 1 48 64 (3072)
I0724 10:07:21.247529  7845 net.cpp:129] Top shape: 1 1 48 64 (3072)
I0724 10:07:21.247536  7845 net.cpp:137] Memory required for data: 487870464
I0724 10:07:21.247542  7845 layer_factory.hpp:77] Creating layer score44_slicer_conv_43_split
I0724 10:07:21.247550  7845 net.cpp:84] Creating Layer score44_slicer_conv_43_split
I0724 10:07:21.247557  7845 net.cpp:406] score44_slicer_conv_43_split <- score44
I0724 10:07:21.247568  7845 net.cpp:380] score44_slicer_conv_43_split -> score44_slicer_conv_43_split_0
I0724 10:07:21.247579  7845 net.cpp:380] score44_slicer_conv_43_split -> score44_slicer_conv_43_split_1
I0724 10:07:21.247648  7845 net.cpp:122] Setting up score44_slicer_conv_43_split
I0724 10:07:21.247659  7845 net.cpp:129] Top shape: 1 1 48 64 (3072)
I0724 10:07:21.247666  7845 net.cpp:129] Top shape: 1 1 48 64 (3072)
I0724 10:07:21.247673  7845 net.cpp:137] Memory required for data: 487895040
I0724 10:07:21.247679  7845 layer_factory.hpp:77] Creating layer score45_slicer_conv_44_split
I0724 10:07:21.247687  7845 net.cpp:84] Creating Layer score45_slicer_conv_44_split
I0724 10:07:21.247694  7845 net.cpp:406] score45_slicer_conv_44_split <- score45
I0724 10:07:21.247704  7845 net.cpp:380] score45_slicer_conv_44_split -> score45_slicer_conv_44_split_0
I0724 10:07:21.247727  7845 net.cpp:380] score45_slicer_conv_44_split -> score45_slicer_conv_44_split_1
I0724 10:07:21.247803  7845 net.cpp:122] Setting up score45_slicer_conv_44_split
I0724 10:07:21.247814  7845 net.cpp:129] Top shape: 1 1 48 64 (3072)
I0724 10:07:21.247822  7845 net.cpp:129] Top shape: 1 1 48 64 (3072)
I0724 10:07:21.247828  7845 net.cpp:137] Memory required for data: 487919616
I0724 10:07:21.247835  7845 layer_factory.hpp:77] Creating layer score46_slicer_conv_45_split
I0724 10:07:21.247843  7845 net.cpp:84] Creating Layer score46_slicer_conv_45_split
I0724 10:07:21.247851  7845 net.cpp:406] score46_slicer_conv_45_split <- score46
I0724 10:07:21.247862  7845 net.cpp:380] score46_slicer_conv_45_split -> score46_slicer_conv_45_split_0
I0724 10:07:21.247874  7845 net.cpp:380] score46_slicer_conv_45_split -> score46_slicer_conv_45_split_1
I0724 10:07:21.247943  7845 net.cpp:122] Setting up score46_slicer_conv_45_split
I0724 10:07:21.247953  7845 net.cpp:129] Top shape: 1 1 48 64 (3072)
I0724 10:07:21.247961  7845 net.cpp:129] Top shape: 1 1 48 64 (3072)
I0724 10:07:21.247967  7845 net.cpp:137] Memory required for data: 487944192
I0724 10:07:21.247973  7845 layer_factory.hpp:77] Creating layer score47_slicer_conv_46_split
I0724 10:07:21.247982  7845 net.cpp:84] Creating Layer score47_slicer_conv_46_split
I0724 10:07:21.247989  7845 net.cpp:406] score47_slicer_conv_46_split <- score47
I0724 10:07:21.247998  7845 net.cpp:380] score47_slicer_conv_46_split -> score47_slicer_conv_46_split_0
I0724 10:07:21.248009  7845 net.cpp:380] score47_slicer_conv_46_split -> score47_slicer_conv_46_split_1
I0724 10:07:21.248078  7845 net.cpp:122] Setting up score47_slicer_conv_46_split
I0724 10:07:21.248088  7845 net.cpp:129] Top shape: 1 1 48 64 (3072)
I0724 10:07:21.248096  7845 net.cpp:129] Top shape: 1 1 48 64 (3072)
I0724 10:07:21.248102  7845 net.cpp:137] Memory required for data: 487968768
I0724 10:07:21.248108  7845 layer_factory.hpp:77] Creating layer score48_slicer_conv_47_split
I0724 10:07:21.248116  7845 net.cpp:84] Creating Layer score48_slicer_conv_47_split
I0724 10:07:21.248123  7845 net.cpp:406] score48_slicer_conv_47_split <- score48
I0724 10:07:21.248136  7845 net.cpp:380] score48_slicer_conv_47_split -> score48_slicer_conv_47_split_0
I0724 10:07:21.248145  7845 net.cpp:380] score48_slicer_conv_47_split -> score48_slicer_conv_47_split_1
I0724 10:07:21.248212  7845 net.cpp:122] Setting up score48_slicer_conv_47_split
I0724 10:07:21.248222  7845 net.cpp:129] Top shape: 1 1 48 64 (3072)
I0724 10:07:21.248230  7845 net.cpp:129] Top shape: 1 1 48 64 (3072)
I0724 10:07:21.248236  7845 net.cpp:137] Memory required for data: 487993344
I0724 10:07:21.248242  7845 layer_factory.hpp:77] Creating layer score49_slicer_conv_48_split
I0724 10:07:21.248252  7845 net.cpp:84] Creating Layer score49_slicer_conv_48_split
I0724 10:07:21.248260  7845 net.cpp:406] score49_slicer_conv_48_split <- score49
I0724 10:07:21.248268  7845 net.cpp:380] score49_slicer_conv_48_split -> score49_slicer_conv_48_split_0
I0724 10:07:21.248280  7845 net.cpp:380] score49_slicer_conv_48_split -> score49_slicer_conv_48_split_1
I0724 10:07:21.248348  7845 net.cpp:122] Setting up score49_slicer_conv_48_split
I0724 10:07:21.248359  7845 net.cpp:129] Top shape: 1 1 48 64 (3072)
I0724 10:07:21.248368  7845 net.cpp:129] Top shape: 1 1 48 64 (3072)
I0724 10:07:21.248373  7845 net.cpp:137] Memory required for data: 488017920
I0724 10:07:21.248379  7845 layer_factory.hpp:77] Creating layer score50_slicer_conv_49_split
I0724 10:07:21.248387  7845 net.cpp:84] Creating Layer score50_slicer_conv_49_split
I0724 10:07:21.248394  7845 net.cpp:406] score50_slicer_conv_49_split <- score50
I0724 10:07:21.248404  7845 net.cpp:380] score50_slicer_conv_49_split -> score50_slicer_conv_49_split_0
I0724 10:07:21.248414  7845 net.cpp:380] score50_slicer_conv_49_split -> score50_slicer_conv_49_split_1
I0724 10:07:21.248482  7845 net.cpp:122] Setting up score50_slicer_conv_49_split
I0724 10:07:21.248493  7845 net.cpp:129] Top shape: 1 1 48 64 (3072)
I0724 10:07:21.248513  7845 net.cpp:129] Top shape: 1 1 48 64 (3072)
I0724 10:07:21.248519  7845 net.cpp:137] Memory required for data: 488042496
I0724 10:07:21.248527  7845 layer_factory.hpp:77] Creating layer score51_slicer_conv_50_split
I0724 10:07:21.248536  7845 net.cpp:84] Creating Layer score51_slicer_conv_50_split
I0724 10:07:21.248543  7845 net.cpp:406] score51_slicer_conv_50_split <- score51
I0724 10:07:21.248553  7845 net.cpp:380] score51_slicer_conv_50_split -> score51_slicer_conv_50_split_0
I0724 10:07:21.248564  7845 net.cpp:380] score51_slicer_conv_50_split -> score51_slicer_conv_50_split_1
I0724 10:07:21.248636  7845 net.cpp:122] Setting up score51_slicer_conv_50_split
I0724 10:07:21.248646  7845 net.cpp:129] Top shape: 1 1 48 64 (3072)
I0724 10:07:21.248653  7845 net.cpp:129] Top shape: 1 1 48 64 (3072)
I0724 10:07:21.248659  7845 net.cpp:137] Memory required for data: 488067072
I0724 10:07:21.248666  7845 layer_factory.hpp:77] Creating layer score52_slicer_conv_51_split
I0724 10:07:21.248674  7845 net.cpp:84] Creating Layer score52_slicer_conv_51_split
I0724 10:07:21.248682  7845 net.cpp:406] score52_slicer_conv_51_split <- score52
I0724 10:07:21.248690  7845 net.cpp:380] score52_slicer_conv_51_split -> score52_slicer_conv_51_split_0
I0724 10:07:21.248700  7845 net.cpp:380] score52_slicer_conv_51_split -> score52_slicer_conv_51_split_1
I0724 10:07:21.248769  7845 net.cpp:122] Setting up score52_slicer_conv_51_split
I0724 10:07:21.248780  7845 net.cpp:129] Top shape: 1 1 48 64 (3072)
I0724 10:07:21.248787  7845 net.cpp:129] Top shape: 1 1 48 64 (3072)
I0724 10:07:21.248793  7845 net.cpp:137] Memory required for data: 488091648
I0724 10:07:21.248800  7845 layer_factory.hpp:77] Creating layer score53_slicer_conv_52_split
I0724 10:07:21.248807  7845 net.cpp:84] Creating Layer score53_slicer_conv_52_split
I0724 10:07:21.248814  7845 net.cpp:406] score53_slicer_conv_52_split <- score53
I0724 10:07:21.248827  7845 net.cpp:380] score53_slicer_conv_52_split -> score53_slicer_conv_52_split_0
I0724 10:07:21.248838  7845 net.cpp:380] score53_slicer_conv_52_split -> score53_slicer_conv_52_split_1
I0724 10:07:21.248908  7845 net.cpp:122] Setting up score53_slicer_conv_52_split
I0724 10:07:21.248917  7845 net.cpp:129] Top shape: 1 1 48 64 (3072)
I0724 10:07:21.248925  7845 net.cpp:129] Top shape: 1 1 48 64 (3072)
I0724 10:07:21.248931  7845 net.cpp:137] Memory required for data: 488116224
I0724 10:07:21.248937  7845 layer_factory.hpp:77] Creating layer score54_slicer_conv_53_split
I0724 10:07:21.248945  7845 net.cpp:84] Creating Layer score54_slicer_conv_53_split
I0724 10:07:21.248952  7845 net.cpp:406] score54_slicer_conv_53_split <- score54
I0724 10:07:21.248961  7845 net.cpp:380] score54_slicer_conv_53_split -> score54_slicer_conv_53_split_0
I0724 10:07:21.248972  7845 net.cpp:380] score54_slicer_conv_53_split -> score54_slicer_conv_53_split_1
I0724 10:07:21.249040  7845 net.cpp:122] Setting up score54_slicer_conv_53_split
I0724 10:07:21.249052  7845 net.cpp:129] Top shape: 1 1 48 64 (3072)
I0724 10:07:21.249059  7845 net.cpp:129] Top shape: 1 1 48 64 (3072)
I0724 10:07:21.249064  7845 net.cpp:137] Memory required for data: 488140800
I0724 10:07:21.249075  7845 layer_factory.hpp:77] Creating layer score55_slicer_conv_54_split
I0724 10:07:21.249084  7845 net.cpp:84] Creating Layer score55_slicer_conv_54_split
I0724 10:07:21.249091  7845 net.cpp:406] score55_slicer_conv_54_split <- score55
I0724 10:07:21.249102  7845 net.cpp:380] score55_slicer_conv_54_split -> score55_slicer_conv_54_split_0
I0724 10:07:21.249152  7845 net.cpp:380] score55_slicer_conv_54_split -> score55_slicer_conv_54_split_1
I0724 10:07:21.249225  7845 net.cpp:122] Setting up score55_slicer_conv_54_split
I0724 10:07:21.249238  7845 net.cpp:129] Top shape: 1 1 48 64 (3072)
I0724 10:07:21.249245  7845 net.cpp:129] Top shape: 1 1 48 64 (3072)
I0724 10:07:21.249251  7845 net.cpp:137] Memory required for data: 488165376
I0724 10:07:21.249258  7845 layer_factory.hpp:77] Creating layer score56_slicer_conv_55_split
I0724 10:07:21.249289  7845 net.cpp:84] Creating Layer score56_slicer_conv_55_split
I0724 10:07:21.249296  7845 net.cpp:406] score56_slicer_conv_55_split <- score56
I0724 10:07:21.249312  7845 net.cpp:380] score56_slicer_conv_55_split -> score56_slicer_conv_55_split_0
I0724 10:07:21.249325  7845 net.cpp:380] score56_slicer_conv_55_split -> score56_slicer_conv_55_split_1
I0724 10:07:21.249399  7845 net.cpp:122] Setting up score56_slicer_conv_55_split
I0724 10:07:21.249410  7845 net.cpp:129] Top shape: 1 1 48 64 (3072)
I0724 10:07:21.249418  7845 net.cpp:129] Top shape: 1 1 48 64 (3072)
I0724 10:07:21.249423  7845 net.cpp:137] Memory required for data: 488189952
I0724 10:07:21.249430  7845 layer_factory.hpp:77] Creating layer score57_slicer_conv_56_split
I0724 10:07:21.249439  7845 net.cpp:84] Creating Layer score57_slicer_conv_56_split
I0724 10:07:21.249445  7845 net.cpp:406] score57_slicer_conv_56_split <- score57
I0724 10:07:21.249457  7845 net.cpp:380] score57_slicer_conv_56_split -> score57_slicer_conv_56_split_0
I0724 10:07:21.249469  7845 net.cpp:380] score57_slicer_conv_56_split -> score57_slicer_conv_56_split_1
I0724 10:07:21.249537  7845 net.cpp:122] Setting up score57_slicer_conv_56_split
I0724 10:07:21.249548  7845 net.cpp:129] Top shape: 1 1 48 64 (3072)
I0724 10:07:21.249557  7845 net.cpp:129] Top shape: 1 1 48 64 (3072)
I0724 10:07:21.249562  7845 net.cpp:137] Memory required for data: 488214528
I0724 10:07:21.249568  7845 layer_factory.hpp:77] Creating layer score58_slicer_conv_57_split
I0724 10:07:21.249577  7845 net.cpp:84] Creating Layer score58_slicer_conv_57_split
I0724 10:07:21.249583  7845 net.cpp:406] score58_slicer_conv_57_split <- score58
I0724 10:07:21.249595  7845 net.cpp:380] score58_slicer_conv_57_split -> score58_slicer_conv_57_split_0
I0724 10:07:21.249606  7845 net.cpp:380] score58_slicer_conv_57_split -> score58_slicer_conv_57_split_1
I0724 10:07:21.249676  7845 net.cpp:122] Setting up score58_slicer_conv_57_split
I0724 10:07:21.249686  7845 net.cpp:129] Top shape: 1 1 48 64 (3072)
I0724 10:07:21.249694  7845 net.cpp:129] Top shape: 1 1 48 64 (3072)
I0724 10:07:21.249701  7845 net.cpp:137] Memory required for data: 488239104
I0724 10:07:21.249706  7845 layer_factory.hpp:77] Creating layer score59_slicer_conv_58_split
I0724 10:07:21.249716  7845 net.cpp:84] Creating Layer score59_slicer_conv_58_split
I0724 10:07:21.249722  7845 net.cpp:406] score59_slicer_conv_58_split <- score59
I0724 10:07:21.249733  7845 net.cpp:380] score59_slicer_conv_58_split -> score59_slicer_conv_58_split_0
I0724 10:07:21.249744  7845 net.cpp:380] score59_slicer_conv_58_split -> score59_slicer_conv_58_split_1
I0724 10:07:21.249817  7845 net.cpp:122] Setting up score59_slicer_conv_58_split
I0724 10:07:21.249827  7845 net.cpp:129] Top shape: 1 1 48 64 (3072)
I0724 10:07:21.249835  7845 net.cpp:129] Top shape: 1 1 48 64 (3072)
I0724 10:07:21.249841  7845 net.cpp:137] Memory required for data: 488263680
I0724 10:07:21.249848  7845 layer_factory.hpp:77] Creating layer score60_slicer_conv_59_split
I0724 10:07:21.249857  7845 net.cpp:84] Creating Layer score60_slicer_conv_59_split
I0724 10:07:21.249864  7845 net.cpp:406] score60_slicer_conv_59_split <- score60
I0724 10:07:21.249877  7845 net.cpp:380] score60_slicer_conv_59_split -> score60_slicer_conv_59_split_0
I0724 10:07:21.249888  7845 net.cpp:380] score60_slicer_conv_59_split -> score60_slicer_conv_59_split_1
I0724 10:07:21.249960  7845 net.cpp:122] Setting up score60_slicer_conv_59_split
I0724 10:07:21.249972  7845 net.cpp:129] Top shape: 1 1 48 64 (3072)
I0724 10:07:21.249980  7845 net.cpp:129] Top shape: 1 1 48 64 (3072)
I0724 10:07:21.249986  7845 net.cpp:137] Memory required for data: 488288256
I0724 10:07:21.249992  7845 layer_factory.hpp:77] Creating layer score61_slicer_conv_60_split
I0724 10:07:21.250001  7845 net.cpp:84] Creating Layer score61_slicer_conv_60_split
I0724 10:07:21.250008  7845 net.cpp:406] score61_slicer_conv_60_split <- score61
I0724 10:07:21.250020  7845 net.cpp:380] score61_slicer_conv_60_split -> score61_slicer_conv_60_split_0
I0724 10:07:21.250044  7845 net.cpp:380] score61_slicer_conv_60_split -> score61_slicer_conv_60_split_1
I0724 10:07:21.250118  7845 net.cpp:122] Setting up score61_slicer_conv_60_split
I0724 10:07:21.250129  7845 net.cpp:129] Top shape: 1 1 48 64 (3072)
I0724 10:07:21.250138  7845 net.cpp:129] Top shape: 1 1 48 64 (3072)
I0724 10:07:21.250144  7845 net.cpp:137] Memory required for data: 488312832
I0724 10:07:21.250150  7845 layer_factory.hpp:77] Creating layer score62_slicer_conv_61_split
I0724 10:07:21.250161  7845 net.cpp:84] Creating Layer score62_slicer_conv_61_split
I0724 10:07:21.250169  7845 net.cpp:406] score62_slicer_conv_61_split <- score62
I0724 10:07:21.250178  7845 net.cpp:380] score62_slicer_conv_61_split -> score62_slicer_conv_61_split_0
I0724 10:07:21.250188  7845 net.cpp:380] score62_slicer_conv_61_split -> score62_slicer_conv_61_split_1
I0724 10:07:21.250258  7845 net.cpp:122] Setting up score62_slicer_conv_61_split
I0724 10:07:21.250269  7845 net.cpp:129] Top shape: 1 1 48 64 (3072)
I0724 10:07:21.250277  7845 net.cpp:129] Top shape: 1 1 48 64 (3072)
I0724 10:07:21.250283  7845 net.cpp:137] Memory required for data: 488337408
I0724 10:07:21.250289  7845 layer_factory.hpp:77] Creating layer score63_slicer_conv_62_split
I0724 10:07:21.250298  7845 net.cpp:84] Creating Layer score63_slicer_conv_62_split
I0724 10:07:21.250304  7845 net.cpp:406] score63_slicer_conv_62_split <- score63
I0724 10:07:21.250314  7845 net.cpp:380] score63_slicer_conv_62_split -> score63_slicer_conv_62_split_0
I0724 10:07:21.250326  7845 net.cpp:380] score63_slicer_conv_62_split -> score63_slicer_conv_62_split_1
I0724 10:07:21.250394  7845 net.cpp:122] Setting up score63_slicer_conv_62_split
I0724 10:07:21.250406  7845 net.cpp:129] Top shape: 1 1 48 64 (3072)
I0724 10:07:21.250412  7845 net.cpp:129] Top shape: 1 1 48 64 (3072)
I0724 10:07:21.250419  7845 net.cpp:137] Memory required for data: 488361984
I0724 10:07:21.250425  7845 layer_factory.hpp:77] Creating layer score64_slicer_conv_63_split
I0724 10:07:21.250435  7845 net.cpp:84] Creating Layer score64_slicer_conv_63_split
I0724 10:07:21.250443  7845 net.cpp:406] score64_slicer_conv_63_split <- score64
I0724 10:07:21.250452  7845 net.cpp:380] score64_slicer_conv_63_split -> score64_slicer_conv_63_split_0
I0724 10:07:21.250463  7845 net.cpp:380] score64_slicer_conv_63_split -> score64_slicer_conv_63_split_1
I0724 10:07:21.250535  7845 net.cpp:122] Setting up score64_slicer_conv_63_split
I0724 10:07:21.250545  7845 net.cpp:129] Top shape: 1 1 48 64 (3072)
I0724 10:07:21.250553  7845 net.cpp:129] Top shape: 1 1 48 64 (3072)
I0724 10:07:21.250560  7845 net.cpp:137] Memory required for data: 488386560
I0724 10:07:21.250566  7845 layer_factory.hpp:77] Creating layer sumscore
I0724 10:07:21.250594  7845 net.cpp:84] Creating Layer sumscore
I0724 10:07:21.250603  7845 net.cpp:406] sumscore <- score1_slicer_conv_0_split_0
I0724 10:07:21.250612  7845 net.cpp:406] sumscore <- score2_slicer_conv_1_split_0
I0724 10:07:21.250622  7845 net.cpp:406] sumscore <- score3_slicer_conv_2_split_0
…
I0724 10:07:21.253985  7845 net.cpp:380] sumscore_sumscore_0_split -> sumscore_sumscore_0_split_59
I0724 10:07:21.254009  7845 net.cpp:380] sumscore_sumscore_0_split -> sumscore_sumscore_0_split_60
I0724 10:07:21.254034  7845 net.cpp:380] sumscore_sumscore_0_split -> sumscore_sumscore_0_split_61
I0724 10:07:21.254057  7845 net.cpp:380] sumscore_sumscore_0_split -> sumscore_sumscore_0_split_62
I0724 10:07:21.254081  7845 net.cpp:380] sumscore_sumscore_0_split -> sumscore_sumscore_0_split_63
I0724 10:07:21.255695  7845 net.cpp:122] Setting up sumscore_sumscore_0_split
I0724 10:07:21.255708  7845 net.cpp:129] Top shape: 1 1 48 64 (3072)
I0724 10:07:21.255717  7845 net.cpp:129] Top shape: 1 1 48 64 (3072)
I0724 10:07:21.255726  7845 net.cpp:129] Top shape: 1 1 48 64 (3072)
I0724 10:07:21.255733  7845 net.cpp:129] Top shape: 1 1 48 64 (3072)
I0724 10:07:21.255741  7845 net.cpp:129] Top shape: 1 1 48 64 (3072)
I0724 10:07:21.255750  7845 net.cpp:129] Top shape: 1 1 48 64 (3072)
I0724 10:07:21.255758  7845 net.cpp:129] Top shape: 1 1 48 64 (3072)
I0724 10:07:21.255765  7845 net.cpp:129] Top shape: 1 1 48 64 (3072)
I0724 10:07:21.255774  7845 net.cpp:129] Top shape: 1 1 48 64 (3072)
I0724 10:07:21.255781  7845 net.cpp:129] Top shape: 1 1 48 64 (3072)
I0724 10:07:21.255789  7845 net.cpp:129] Top shape: 1 1 48 64 (3072)
I0724 10:07:21.255797  7845 net.cpp:129] Top shape: 1 1 48 64 (3072)
I0724 10:07:21.255805  7845 net.cpp:129] Top shape: 1 1 48 64 (3072)
I0724 10:07:21.255813  7845 net.cpp:129] Top shape: 1 1 48 64 (3072)
I0724 10:07:21.255821  7845 net.cpp:129] Top shape: 1 1 48 64 (3072)
I0724 10:07:21.255830  7845 net.cpp:129] Top shape: 1 1 48 64 (3072)
I0724 10:07:21.255837  7845 net.cpp:129] Top shape: 1 1 48 64 (3072)
I0724 10:07:21.255846  7845 net.cpp:129] Top shape: 1 1 48 64 (3072)
I0724 10:07:21.255853  7845 net.cpp:129] Top shape: 1 1 48 64 (3072)
I0724 10:07:21.255875  7845 net.cpp:129] Top shape: 1 1 48 64 (3072)
I0724 10:07:21.255883  7845 net.cpp:129] Top shape: 1 1 48 64 (3072)
I0724 10:07:21.255892  7845 net.cpp:129] Top shape: 1 1 48 64 (3072)
I0724 10:07:21.255899  7845 net.cpp:129] Top shape: 1 1 48 64 (3072)
I0724 10:07:21.255908  7845 net.cpp:129] Top shape: 1 1 48 64 (3072)
I0724 10:07:21.255915  7845 net.cpp:129] Top shape: 1 1 48 64 (3072)
I0724 10:07:21.255923  7845 net.cpp:129] Top shape: 1 1 48 64 (3072)
I0724 10:07:21.255931  7845 net.cpp:129] Top shape: 1 1 48 64 (3072)
I0724 10:07:21.255939  7845 net.cpp:129] Top shape: 1 1 48 64 (3072)
I0724 10:07:21.255947  7845 net.cpp:129] Top shape: 1 1 48 64 (3072)
I0724 10:07:21.255955  7845 net.cpp:129] Top shape: 1 1 48 64 (3072)
I0724 10:07:21.255964  7845 net.cpp:129] Top shape: 1 1 48 64 (3072)
I0724 10:07:21.255971  7845 net.cpp:129] Top shape: 1 1 48 64 (3072)
I0724 10:07:21.255980  7845 net.cpp:129] Top shape: 1 1 48 64 (3072)
I0724 10:07:21.255987  7845 net.cpp:129] Top shape: 1 1 48 64 (3072)
I0724 10:07:21.255995  7845 net.cpp:129] Top shape: 1 1 48 64 (3072)
I0724 10:07:21.256003  7845 net.cpp:129] Top shape: 1 1 48 64 (3072)
I0724 10:07:21.256011  7845 net.cpp:129] Top shape: 1 1 48 64 (3072)
I0724 10:07:21.256019  7845 net.cpp:129] Top shape: 1 1 48 64 (3072)
I0724 10:07:21.256026  7845 net.cpp:129] Top shape: 1 1 48 64 (3072)
I0724 10:07:21.256036  7845 net.cpp:129] Top shape: 1 1 48 64 (3072)
I0724 10:07:21.256042  7845 net.cpp:129] Top shape: 1 1 48 64 (3072)
I0724 10:07:21.256050  7845 net.cpp:129] Top shape: 1 1 48 64 (3072)
I0724 10:07:21.256058  7845 net.cpp:129] Top shape: 1 1 48 64 (3072)
I0724 10:07:21.256067  7845 net.cpp:129] Top shape: 1 1 48 64 (3072)
I0724 10:07:21.256074  7845 net.cpp:129] Top shape: 1 1 48 64 (3072)
I0724 10:07:21.256083  7845 net.cpp:129] Top shape: 1 1 48 64 (3072)
I0724 10:07:21.256090  7845 net.cpp:129] Top shape: 1 1 48 64 (3072)
I0724 10:07:21.256098  7845 net.cpp:129] Top shape: 1 1 48 64 (3072)
I0724 10:07:21.256105  7845 net.cpp:129] Top shape: 1 1 48 64 (3072)
I0724 10:07:21.256114  7845 net.cpp:129] Top shape: 1 1 48 64 (3072)
I0724 10:07:21.256121  7845 net.cpp:129] Top shape: 1 1 48 64 (3072)
I0724 10:07:21.256129  7845 net.cpp:129] Top shape: 1 1 48 64 (3072)
I0724 10:07:21.256137  7845 net.cpp:129] Top shape: 1 1 48 64 (3072)
I0724 10:07:21.256145  7845 net.cpp:129] Top shape: 1 1 48 64 (3072)
I0724 10:07:21.256153  7845 net.cpp:129] Top shape: 1 1 48 64 (3072)
I0724 10:07:21.256162  7845 net.cpp:129] Top shape: 1 1 48 64 (3072)
I0724 10:07:21.256170  7845 net.cpp:129] Top shape: 1 1 48 64 (3072)
I0724 10:07:21.256178  7845 net.cpp:129] Top shape: 1 1 48 64 (3072)
I0724 10:07:21.256186  7845 net.cpp:129] Top shape: 1 1 48 64 (3072)
I0724 10:07:21.256194  7845 net.cpp:129] Top shape: 1 1 48 64 (3072)
I0724 10:07:21.256202  7845 net.cpp:129] Top shape: 1 1 48 64 (3072)
I0724 10:07:21.256211  7845 net.cpp:129] Top shape: 1 1 48 64 (3072)
I0724 10:07:21.256218  7845 net.cpp:129] Top shape: 1 1 48 64 (3072)
I0724 10:07:21.256227  7845 net.cpp:129] Top shape: 1 1 48 64 (3072)
I0724 10:07:21.256232  7845 net.cpp:137] Memory required for data: 489185280
I0724 10:07:21.256240  7845 layer_factory.hpp:77] Creating layer loss1
I0724 10:07:21.256253  7845 net.cpp:84] Creating Layer loss1
I0724 10:07:21.256261  7845 net.cpp:406] loss1 <- score1_slicer_conv_0_split_1
I0724 10:07:21.256271  7845 net.cpp:406] loss1 <- label_label_0_split_0
I0724 10:07:21.256281  7845 net.cpp:406] loss1 <- sumscore_sumscore_0_split_0
…
I0724 10:07:21.277776  7845 net.cpp:51] Initializing net from parameters: 
name: "crowd_counting"
state {
  phase: TEST
}
layer {
  name: "data"
  type: "Data"
  top: "data"
  include {
    phase: TEST
  }
  data_param {
    source: "/home/peiyong/Work/Zenglin/szl/ShanghaiTech/partA/test_8/image_lmdb"
    batch_size: 1
    backend: LMDB
  }
}
layer {
  name: "label"
  type: "Data"
  top: "label"
  include {
    phase: TEST
  }
  data_param {
    source: "/home/peiyong/Work/Zenglin/szl/ShanghaiTech/partA/test_8/dmap_lmdb"
    batch_size: 1
    backend: LMDB
  }
}
layer {
  name: "conv1_1"
  type: "Convolution"
  bottom: "data"
  top: "conv1_1"
  param {
    lr_mult: 0.1
    decay_mult: 1
  }
  param {
    lr_mult: 0.2
    decay_mult: 0
  }
  convolution_param {
    num_output: 64
    pad: 1
    kernel_size: 3
    weight_filler {
      type: "gaussian"
      std: 0.01
    }
    bias_filler {
      type: "constant"
      value: 0
    }
  }
}
layer {
  name: "relu1_1"
  type: "ReLU"
  bottom: "conv1_1"
  top: "conv1_1"
}
layer {
  name: "conv1_2"
  type: "Convolution"
  bottom: "conv1_1"
  top: "conv1_2"
  param {
    lr_mult: 0.1
    decay_mult: 1
  }
  param {
    lr_mult: 0.2
    decay_mult: 0
  }
  convolution_param {
    num_output: 64
    pad: 1
    kernel_size: 3
    weight_filler {
      type: "gaussian"
      std: 0.01
    }
    bias_filler {
      type: "constant"
      value: 0
    }
  }
}
layer {
  name: "relu1_2"
  type: "ReLU"
  bottom: "conv1_2"
  top: "conv1_2"
}
layer {
  name: "pool1"
  type: "Pooling"
  bottom: "conv1_2"
  top: "pool1"
  pooling_param {
    pool: MAX
    kernel_size: 2
    stride: 2
  }
}
layer {
  name: "conv2_1"
  type: "Convolution"
  bottom: "pool1"
  top: "conv2_1"
  param {
    lr_mult: 0.1
    decay_mult: 1
  }
  param {
    lr_mult: 0.2
    decay_mult: 0
  }
  convolution_param {
    num_output: 128
    pad: 1
    kernel_size: 3
    weight_filler {
      type: "gaussian"
      std: 0.01
    }
    bias_filler {
      type: "constant"
      value: 0
    }
  }
}
layer {
  name: "relu2_1"
  type: "ReLU"
  bottom: "conv2_1"
  top: "conv2_1"
}
layer {
  name: "conv2_2"
  type: "Convolution"
  bottom: "conv2_1"
  top: "conv2_2"
  param {
    lr_mult: 0.1
    decay_mult: 1
  }
  param {
    lr_mult: 0.2
    decay_mult: 0
  }
  convolution_param {
    num_output: 128
    pad: 1
    kernel_size: 3
    weight_filler {
      type: "gaussian"
      std: 0.01
    }
    bias_filler {
      type: "constant"
      value: 0
    }
  }
}
layer {
  name: "relu2_2"
  type: "ReLU"
  bottom: "conv2_2"
  top: "conv2_2"
}
layer {
  name: "pool2"
  type: "Pooling"
  bottom: "conv2_2"
  top: "pool2"
  pooling_param {
    pool: MAX
    kernel_size: 2
    stride: 2
  }
}
layer {
  name: "conv3_1"
  type: "Convolution"
  bottom: "pool2"
  top: "conv3_1"
  param {
    lr_mult: 0.1
    decay_mult: 1
  }
  param {
    lr_mult: 0.2
    decay_mult: 0
  }
  convolution_param {
    num_output: 256
    pad: 1
    kernel_size: 3
    weight_filler {
      type: "gaussian"
      std: 0.01
    }
    bias_filler {
      type: "constant"
      value: 0
    }
  }
}
layer {
  name: "relu3_1"
  type: "ReLU"
  bottom: "conv3_1"
  top: "conv3_1"
}
layer {
  name: "conv3_2"
  type: "Convolution"
  bottom: "conv3_1"
  top: "conv3_2"
  param {
    lr_mult: 0.1
    decay_mult: 1
  }
  param {
    lr_mult: 0.2
    decay_mult: 0
  }
  convolution_param {
    num_output: 256
    pad: 1
    kernel_size: 3
    weight_filler {
      type: "gaussian"
      std: 0.01
    }
    bias_filler {
      type: "constant"
      value: 0
    }
  }
}
layer {
  name: "relu3_2"
  type: "ReLU"
  bottom: "conv3_2"
  top: "conv3_2"
}
layer {
  name: "conv3_3"
  type: "Convolution"
  bottom: "conv3_2"
  top: "conv3_3"
  param {
    lr_mult: 0.1
    decay_mult: 1
  }
  param {
    lr_mult: 0.2
    decay_mult: 0
  }
  convolution_param {
    num_output: 256
    pad: 1
    kernel_size: 3
    weight_filler {
      type: "gaussian"
      std: 0.01
    }
    bias_filler {
      type: "constant"
      value: 0
    }
  }
}
layer {
  name: "relu3_3"
  type: "ReLU"
  bottom: "conv3_3"
  top: "conv3_3"
}
layer {
  name: "pool3"
  type: "Pooling"
  bottom: "conv3_3"
  top: "pool3"
  pooling_param {
    pool: MAX
    kernel_size: 2
    stride: 2
  }
}
layer {
  name: "conv4_1"
  type: "Convolution"
  bottom: "pool3"
  top: "conv4_1"
  param {
    lr_mult: 0.1
    decay_mult: 1
  }
  param {
    lr_mult: 0.2
    decay_mult: 0
  }
  convolution_param {
    num_output: 512
    pad: 1
    kernel_size: 3
    weight_filler {
      type: "gaussian"
      std: 0.01
    }
    bias_filler {
      type: "constant"
      value: 0
    }
  }
}
layer {
  name: "relu4_1"
  type: "ReLU"
  bottom: "conv4_1"
  top: "conv4_1"
}
layer {
  name: "conv4_2"
  type: "Convolution"
  bottom: "conv4_1"
  top: "conv4_2"
  param {
    lr_mult: 0.1
    decay_mult: 1
  }
  param {
    lr_mult: 0.2
    decay_mult: 0
  }
  convolution_param {
    num_output: 512
    pad: 1
    kernel_size: 3
    weight_filler {
      type: "gaussian"
      std: 0.01
    }
    bias_filler {
      type: "constant"
      value: 0
    }
  }
}
layer {
  name: "relu4_2"
  type: "ReLU"
  bottom: "conv4_2"
  top: "conv4_2"
}
layer {
  name: "conv4_3"
  type: "Convolution"
  bottom: "conv4_2"
  top: "conv4_3"
  param {
    lr_mult: 0.1
    decay_mult: 1
  }
  param {
    lr_mult: 0.2
    decay_mult: 0
  }
  convolution_param {
    num_output: 512
    pad: 1
    kernel_size: 3
    weight_filler {
      type: "gaussian"
      std: 0.01
    }
    bias_filler {
      type: "constant"
      value: 0
    }
  }
}
layer {
  name: "relu4_3"
  type: "ReLU"
  bottom: "conv4_3"
  top: "conv4_3"
}
layer {
  name: "pool4"
  type: "Pooling"
  bottom: "conv4_3"
  top: "pool4"
  pooling_param {
    pool: MAX
    kernel_size: 3
    stride: 1
    pad: 1
  }
}
layer {
  name: "conv5_1"
  type: "Convolution"
  bottom: "pool4"
  top: "conv5_1"
  param {
    lr_mult: 0.1
    decay_mult: 1
  }
  param {
    lr_mult: 0.2
    decay_mult: 0
  }
  convolution_param {
    num_output: 512
    pad: 2
    kernel_size: 3
    weight_filler {
      type: "gaussian"
      std: 0.01
    }
    bias_filler {
      type: "constant"
      value: 0
    }
    dilation: 2
  }
}
layer {
  name: "relu5_1"
  type: "ReLU"
  bottom: "conv5_1"
  top: "conv5_1"
}
layer {
  name: "conv5_2"
  type: "Convolution"
  bottom: "conv5_1"
  top: "conv5_2"
  param {
    lr_mult: 0.1
    decay_mult: 1
  }
  param {
    lr_mult: 0.2
    decay_mult: 0
  }
  convolution_param {
    num_output: 512
    pad: 2
    kernel_size: 3
    weight_filler {
      type: "gaussian"
      std: 0.01
    }
    bias_filler {
      type: "constant"
      value: 0
    }
    dilation: 2
  }
}
layer {
  name: "relu5_2"
  type: "ReLU"
  bottom: "conv5_2"
  top: "conv5_2"
}
layer {
  name: "conv5_3"
  type: "Convolution"
  bottom: "conv5_2"
  top: "conv5_3"
  param {
    lr_mult: 0.1
    decay_mult: 1
  }
  param {
    lr_mult: 0.2
    decay_mult: 0
  }
  convolution_param {
    num_output: 512
    pad: 2
    kernel_size: 3
    weight_filler {
      type: "gaussian"
      std: 0.01
    }
    bias_filler {
      type: "constant"
      value: 0
    }
    dilation: 2
  }
}
layer {
  name: "relu5_3"
  type: "ReLU"
  bottom: "conv5_3"
  top: "conv5_3"
}
layer {
  name: "conv_score"
  type: "Convolution"
  bottom: "conv5_3"
  top: "conv_score"
  param {
    lr_mult: 10
    decay_mult: 1
  }
  param {
    lr_mult: 20
    decay_mult: 0
  }
  convolution_param {
    num_output: 64
    pad: 0
    kernel_size: 1
    group: 64
    stride: 1
    weight_filler {
      type: "constant"
      value: 0.0001
    }
    bias_filler {
      type: "constant"
      value: 0
    }
  }
}
layer {
  name: "relu_score"
  type: "ReLU"
  bottom: "conv_score"
  top: "conv_score"
}
layer {
  name: "slicer_conv"
  type: "Slice"
  bottom: "conv_score"
  top: "score1"
  top: "score2"
  top: "score3"
  top: "score4"
  top: "score5"
  top: "score6"
  top: "score7"
  top: "score8"
  top: "score9"
  top: "score10"
  top: "score11"
  top: "score12"
  top: "score13"
  top: "score14"
  top: "score15"
  top: "score16"
  top: "score17"
  top: "score18"
  top: "score19"
  top: "score20"
  top: "score21"
  top: "score22"
  top: "score23"
  top: "score24"
  top: "score25"
  top: "score26"
  top: "score27"
  top: "score28"
  top: "score29"
  top: "score30"
  top: "score31"
  top: "score32"
  top: "score33"
  top: "score34"
  top: "score35"
  top: "score36"
  top: "score37"
  top: "score38"
  top: "score39"
  top: "score40"
  top: "score41"
  top: "score42"
  top: "score43"
  top: "score44"
  top: "score45"
  top: "score46"
  top: "score47"
  top: "score48"
  top: "score49"
  top: "score50"
  top: "score51"
  top: "score52"
  top: "score53"
  top: "score54"
  top: "score55"
  top: "score56"
  top: "score57"
  top: "score58"
  top: "score59"
  top: "score60"
  top: "score61"
  top: "score62"
  top: "score63"
  top: "score64"
  slice_param {
    axis: 1
  }
}
layer {
  name: "sumscore"
  type: "Eltwise"
  bottom: "score1"
  bottom: "score2"
  bottom: "score3"
  bottom: "score4"
  bottom: "score5"
  bottom: "score6"
  bottom: "score7"
  bottom: "score8"
  bottom: "score9"
  bottom: "score10"
  bottom: "score11"
  bottom: "score12"
  bottom: "score13"
  bottom: "score14"
  bottom: "score15"
  bottom: "score16"
  bottom: "score17"
  bottom: "score18"
  bottom: "score19"
  bottom: "score20"
  bottom: "score21"
  bottom: "score22"
  bottom: "score23"
  bottom: "score24"
  bottom: "score25"
  bottom: "score26"
  bottom: "score27"
  bottom: "score28"
  bottom: "score29"
  bottom: "score30"
  bottom: "score31"
  bottom: "score32"
  bottom: "score33"
  bottom: "score34"
  bottom: "score35"
  bottom: "score36"
  bottom: "score37"
  bottom: "score38"
  bottom: "score39"
  bottom: "score40"
  bottom: "score41"
  bottom: "score42"
  bottom: "score43"
  bottom: "score44"
  bottom: "score45"
  bottom: "score46"
  bottom: "score47"
  bottom: "score48"
  bottom: "score49"
  bottom: "score50"
  bottom: "score51"
  bottom: "score52"
  bottom: "score53"
  bottom: "score54"
  bottom: "score55"
  bottom: "score56"
  bottom: "score57"
  bottom: "score58"
  bottom: "score59"
  bottom: "score60"
  bottom: "score61"
  bottom: "score62"
  bottom: "score63"
  bottom: "score64"
  top: "sumscore"
  eltwise_param {
    operation: SUM
  }
}
layer {
  name: "avgscore"
  type: "Power"
  bottom: "sumscore"
  top: "avgscore"
  include {
    phase: TEST
  }
  power_param {
    power: 1
    scale: 0.015625
    shift: 0
  }
}
layer {
  name: "mae"
  type: "MAELoss"
  bottom: "avgscore"
  bottom: "label"
  top: "mae"
  include {
    phase: TEST
  }
}
layer {
  name: "mse"
  type: "MSELoss"
  bottom: "avgscore"
  bottom: "label"
  top: "mse"
  include {
    phase: TEST
  }
}
I0724 10:07:21.278646  7845 layer_factory.hpp:77] Creating layer data
I0724 10:07:21.278724  7845 db_lmdb.cpp:35] Opened lmdb /home/peiyong/Work/Zenglin/szl/ShanghaiTech/partA/test_8/image_lmdb
I0724 10:07:21.278771  7845 net.cpp:84] Creating Layer data
I0724 10:07:21.278784  7845 net.cpp:380] data -> data
I0724 10:07:21.280247  7845 data_layer.cpp:45] output data size: 1,3,704,1024
I0724 10:07:21.300127  7845 net.cpp:122] Setting up data
I0724 10:07:21.300166  7845 net.cpp:129] Top shape: 1 3 704 1024 (2162688)
I0724 10:07:21.300176  7845 net.cpp:137] Memory required for data: 8650752
I0724 10:07:21.300189  7845 layer_factory.hpp:77] Creating layer label
I0724 10:07:21.300268  7845 db_lmdb.cpp:35] Opened lmdb /home/peiyong/Work/Zenglin/szl/ShanghaiTech/partA/test_8/dmap_lmdb
I0724 10:07:21.300331  7845 net.cpp:84] Creating Layer label
I0724 10:07:21.300345  7845 net.cpp:380] label -> label
I0724 10:07:21.300588  7845 data_layer.cpp:45] output data size: 1,1,88,128
I0724 10:07:21.300807  7845 net.cpp:122] Setting up label
I0724 10:07:21.300824  7845 net.cpp:129] Top shape: 1 1 88 128 (11264)
I0724 10:07:21.300834  7845 net.cpp:137] Memory required for data: 8695808
I0724 10:07:21.300843  7845 layer_factory.hpp:77] Creating layer label_label_0_split
I0724 10:07:21.300858  7845 net.cpp:84] Creating Layer label_label_0_split
I0724 10:07:21.300865  7845 net.cpp:406] label_label_0_split <- label
I0724 10:07:21.300879  7845 net.cpp:380] label_label_0_split -> label_label_0_split_0
I0724 10:07:21.300891  7845 net.cpp:380] label_label_0_split -> label_label_0_split_1
I0724 10:07:21.300976  7845 net.cpp:122] Setting up label_label_0_split
I0724 10:07:21.300989  7845 net.cpp:129] Top shape: 1 1 88 128 (11264)
I0724 10:07:21.301000  7845 net.cpp:129] Top shape: 1 1 88 128 (11264)
I0724 10:07:21.301007  7845 net.cpp:137] Memory required for data: 8785920
I0724 10:07:21.301015  7845 layer_factory.hpp:77] Creating layer conv1_1
I0724 10:07:21.301035  7845 net.cpp:84] Creating Layer conv1_1
I0724 10:07:21.301043  7845 net.cpp:406] conv1_1 <- data
I0724 10:07:21.301056  7845 net.cpp:380] conv1_1 -> conv1_1
I0724 10:07:21.307008  7845 net.cpp:122] Setting up conv1_1
I0724 10:07:21.307039  7845 net.cpp:129] Top shape: 1 64 704 1024 (46137344)
I0724 10:07:21.307047  7845 net.cpp:137] Memory required for data: 193335296
I0724 10:07:21.307068  7845 layer_factory.hpp:77] Creating layer relu1_1
I0724 10:07:21.307083  7845 net.cpp:84] Creating Layer relu1_1
I0724 10:07:21.307091  7845 net.cpp:406] relu1_1 <- conv1_1
I0724 10:07:21.307102  7845 net.cpp:367] relu1_1 -> conv1_1 (in-place)
I0724 10:07:21.308250  7845 net.cpp:122] Setting up relu1_1
I0724 10:07:21.308270  7845 net.cpp:129] Top shape: 1 64 704 1024 (46137344)
I0724 10:07:21.308279  7845 net.cpp:137] Memory required for data: 377884672
I0724 10:07:21.308287  7845 layer_factory.hpp:77] Creating layer conv1_2
I0724 10:07:21.308305  7845 net.cpp:84] Creating Layer conv1_2
I0724 10:07:21.308313  7845 net.cpp:406] conv1_2 <- conv1_1
I0724 10:07:21.308326  7845 net.cpp:380] conv1_2 -> conv1_2
I0724 10:07:21.314615  7845 net.cpp:122] Setting up conv1_2
I0724 10:07:21.314644  7845 net.cpp:129] Top shape: 1 64 704 1024 (46137344)
I0724 10:07:21.314652  7845 net.cpp:137] Memory required for data: 562434048
I0724 10:07:21.314672  7845 layer_factory.hpp:77] Creating layer relu1_2
I0724 10:07:21.314685  7845 net.cpp:84] Creating Layer relu1_2
I0724 10:07:21.314692  7845 net.cpp:406] relu1_2 <- conv1_2
I0724 10:07:21.314703  7845 net.cpp:367] relu1_2 -> conv1_2 (in-place)
I0724 10:07:21.315685  7845 net.cpp:122] Setting up relu1_2
I0724 10:07:21.315703  7845 net.cpp:129] Top shape: 1 64 704 1024 (46137344)
I0724 10:07:21.315711  7845 net.cpp:137] Memory required for data: 746983424
I0724 10:07:21.315718  7845 layer_factory.hpp:77] Creating layer pool1
I0724 10:07:21.315729  7845 net.cpp:84] Creating Layer pool1
I0724 10:07:21.315737  7845 net.cpp:406] pool1 <- conv1_2
I0724 10:07:21.315747  7845 net.cpp:380] pool1 -> pool1
I0724 10:07:21.315835  7845 net.cpp:122] Setting up pool1
I0724 10:07:21.315847  7845 net.cpp:129] Top shape: 1 64 352 512 (11534336)
I0724 10:07:21.315855  7845 net.cpp:137] Memory required for data: 793120768
I0724 10:07:21.315861  7845 layer_factory.hpp:77] Creating layer conv2_1
I0724 10:07:21.315878  7845 net.cpp:84] Creating Layer conv2_1
I0724 10:07:21.315886  7845 net.cpp:406] conv2_1 <- pool1
I0724 10:07:21.315897  7845 net.cpp:380] conv2_1 -> conv2_1
I0724 10:07:21.321300  7845 net.cpp:122] Setting up conv2_1
I0724 10:07:21.321334  7845 net.cpp:129] Top shape: 1 128 352 512 (23068672)
I0724 10:07:21.321343  7845 net.cpp:137] Memory required for data: 885395456
I0724 10:07:21.321360  7845 layer_factory.hpp:77] Creating layer relu2_1
I0724 10:07:21.321372  7845 net.cpp:84] Creating Layer relu2_1
I0724 10:07:21.321413  7845 net.cpp:406] relu2_1 <- conv2_1
I0724 10:07:21.321427  7845 net.cpp:367] relu2_1 -> conv2_1 (in-place)
I0724 10:07:21.322293  7845 net.cpp:122] Setting up relu2_1
I0724 10:07:21.322311  7845 net.cpp:129] Top shape: 1 128 352 512 (23068672)
I0724 10:07:21.322320  7845 net.cpp:137] Memory required for data: 977670144
I0724 10:07:21.322327  7845 layer_factory.hpp:77] Creating layer conv2_2
I0724 10:07:21.322343  7845 net.cpp:84] Creating Layer conv2_2
I0724 10:07:21.322350  7845 net.cpp:406] conv2_2 <- conv2_1
I0724 10:07:21.322362  7845 net.cpp:380] conv2_2 -> conv2_2
I0724 10:07:21.327651  7845 net.cpp:122] Setting up conv2_2
I0724 10:07:21.327672  7845 net.cpp:129] Top shape: 1 128 352 512 (23068672)
I0724 10:07:21.327680  7845 net.cpp:137] Memory required for data: 1069944832
I0724 10:07:21.327692  7845 layer_factory.hpp:77] Creating layer relu2_2
I0724 10:07:21.327702  7845 net.cpp:84] Creating Layer relu2_2
I0724 10:07:21.327708  7845 net.cpp:406] relu2_2 <- conv2_2
I0724 10:07:21.327718  7845 net.cpp:367] relu2_2 -> conv2_2 (in-place)
I0724 10:07:21.328537  7845 net.cpp:122] Setting up relu2_2
I0724 10:07:21.328555  7845 net.cpp:129] Top shape: 1 128 352 512 (23068672)
I0724 10:07:21.328563  7845 net.cpp:137] Memory required for data: 1162219520
I0724 10:07:21.328570  7845 layer_factory.hpp:77] Creating layer pool2
I0724 10:07:21.328582  7845 net.cpp:84] Creating Layer pool2
I0724 10:07:21.328588  7845 net.cpp:406] pool2 <- conv2_2
I0724 10:07:21.328598  7845 net.cpp:380] pool2 -> pool2
I0724 10:07:21.328675  7845 net.cpp:122] Setting up pool2
I0724 10:07:21.328686  7845 net.cpp:129] Top shape: 1 128 176 256 (5767168)
I0724 10:07:21.328693  7845 net.cpp:137] Memory required for data: 1185288192
I0724 10:07:21.328701  7845 layer_factory.hpp:77] Creating layer conv3_1
I0724 10:07:21.328716  7845 net.cpp:84] Creating Layer conv3_1
I0724 10:07:21.328722  7845 net.cpp:406] conv3_1 <- pool2
I0724 10:07:21.328732  7845 net.cpp:380] conv3_1 -> conv3_1
I0724 10:07:21.335808  7845 net.cpp:122] Setting up conv3_1
I0724 10:07:21.335827  7845 net.cpp:129] Top shape: 1 256 176 256 (11534336)
I0724 10:07:21.335836  7845 net.cpp:137] Memory required for data: 1231425536
I0724 10:07:21.335851  7845 layer_factory.hpp:77] Creating layer relu3_1
I0724 10:07:21.335862  7845 net.cpp:84] Creating Layer relu3_1
I0724 10:07:21.335868  7845 net.cpp:406] relu3_1 <- conv3_1
I0724 10:07:21.335878  7845 net.cpp:367] relu3_1 -> conv3_1 (in-place)
I0724 10:07:21.336125  7845 net.cpp:122] Setting up relu3_1
I0724 10:07:21.336140  7845 net.cpp:129] Top shape: 1 256 176 256 (11534336)
I0724 10:07:21.336148  7845 net.cpp:137] Memory required for data: 1277562880
I0724 10:07:21.336154  7845 layer_factory.hpp:77] Creating layer conv3_2
I0724 10:07:21.336169  7845 net.cpp:84] Creating Layer conv3_2
I0724 10:07:21.336176  7845 net.cpp:406] conv3_2 <- conv3_1
I0724 10:07:21.336187  7845 net.cpp:380] conv3_2 -> conv3_2
I0724 10:07:21.346879  7845 net.cpp:122] Setting up conv3_2
I0724 10:07:21.346899  7845 net.cpp:129] Top shape: 1 256 176 256 (11534336)
I0724 10:07:21.346906  7845 net.cpp:137] Memory required for data: 1323700224
I0724 10:07:21.346918  7845 layer_factory.hpp:77] Creating layer relu3_2
I0724 10:07:21.346930  7845 net.cpp:84] Creating Layer relu3_2
I0724 10:07:21.346936  7845 net.cpp:406] relu3_2 <- conv3_2
I0724 10:07:21.346946  7845 net.cpp:367] relu3_2 -> conv3_2 (in-place)
I0724 10:07:21.347740  7845 net.cpp:122] Setting up relu3_2
I0724 10:07:21.347757  7845 net.cpp:129] Top shape: 1 256 176 256 (11534336)
I0724 10:07:21.347765  7845 net.cpp:137] Memory required for data: 1369837568
I0724 10:07:21.347772  7845 layer_factory.hpp:77] Creating layer conv3_3
I0724 10:07:21.347786  7845 net.cpp:84] Creating Layer conv3_3
I0724 10:07:21.347792  7845 net.cpp:406] conv3_3 <- conv3_2
I0724 10:07:21.347803  7845 net.cpp:380] conv3_3 -> conv3_3
I0724 10:07:21.357992  7845 net.cpp:122] Setting up conv3_3
I0724 10:07:21.358014  7845 net.cpp:129] Top shape: 1 256 176 256 (11534336)
I0724 10:07:21.358052  7845 net.cpp:137] Memory required for data: 1415974912
I0724 10:07:21.358064  7845 layer_factory.hpp:77] Creating layer relu3_3
I0724 10:07:21.358075  7845 net.cpp:84] Creating Layer relu3_3
I0724 10:07:21.358083  7845 net.cpp:406] relu3_3 <- conv3_3
I0724 10:07:21.358091  7845 net.cpp:367] relu3_3 -> conv3_3 (in-place)
I0724 10:07:21.358852  7845 net.cpp:122] Setting up relu3_3
I0724 10:07:21.358867  7845 net.cpp:129] Top shape: 1 256 176 256 (11534336)
I0724 10:07:21.358872  7845 net.cpp:137] Memory required for data: 1462112256
I0724 10:07:21.358877  7845 layer_factory.hpp:77] Creating layer pool3
I0724 10:07:21.358886  7845 net.cpp:84] Creating Layer pool3
I0724 10:07:21.358891  7845 net.cpp:406] pool3 <- conv3_3
I0724 10:07:21.358897  7845 net.cpp:380] pool3 -> pool3
I0724 10:07:21.358968  7845 net.cpp:122] Setting up pool3
I0724 10:07:21.358976  7845 net.cpp:129] Top shape: 1 256 88 128 (2883584)
I0724 10:07:21.358980  7845 net.cpp:137] Memory required for data: 1473646592
I0724 10:07:21.358985  7845 layer_factory.hpp:77] Creating layer conv4_1
I0724 10:07:21.358995  7845 net.cpp:84] Creating Layer conv4_1
I0724 10:07:21.359001  7845 net.cpp:406] conv4_1 <- pool3
I0724 10:07:21.359011  7845 net.cpp:380] conv4_1 -> conv4_1
I0724 10:07:21.376004  7845 net.cpp:122] Setting up conv4_1
I0724 10:07:21.376021  7845 net.cpp:129] Top shape: 1 512 88 128 (5767168)
I0724 10:07:21.376035  7845 net.cpp:137] Memory required for data: 1496715264
I0724 10:07:21.376046  7845 layer_factory.hpp:77] Creating layer relu4_1
I0724 10:07:21.376055  7845 net.cpp:84] Creating Layer relu4_1
I0724 10:07:21.376061  7845 net.cpp:406] relu4_1 <- conv4_1
I0724 10:07:21.376070  7845 net.cpp:367] relu4_1 -> conv4_1 (in-place)
I0724 10:07:21.376288  7845 net.cpp:122] Setting up relu4_1
I0724 10:07:21.376302  7845 net.cpp:129] Top shape: 1 512 88 128 (5767168)
I0724 10:07:21.376308  7845 net.cpp:137] Memory required for data: 1519783936
I0724 10:07:21.376314  7845 layer_factory.hpp:77] Creating layer conv4_2
I0724 10:07:21.376327  7845 net.cpp:84] Creating Layer conv4_2
I0724 10:07:21.376333  7845 net.cpp:406] conv4_2 <- conv4_1
I0724 10:07:21.376343  7845 net.cpp:380] conv4_2 -> conv4_2
I0724 10:07:21.405483  7845 net.cpp:122] Setting up conv4_2
I0724 10:07:21.405510  7845 net.cpp:129] Top shape: 1 512 88 128 (5767168)
I0724 10:07:21.405516  7845 net.cpp:137] Memory required for data: 1542852608
I0724 10:07:21.405532  7845 layer_factory.hpp:77] Creating layer relu4_2
I0724 10:07:21.405544  7845 net.cpp:84] Creating Layer relu4_2
I0724 10:07:21.405550  7845 net.cpp:406] relu4_2 <- conv4_2
I0724 10:07:21.405557  7845 net.cpp:367] relu4_2 -> conv4_2 (in-place)
I0724 10:07:21.406229  7845 net.cpp:122] Setting up relu4_2
I0724 10:07:21.406244  7845 net.cpp:129] Top shape: 1 512 88 128 (5767168)
I0724 10:07:21.406251  7845 net.cpp:137] Memory required for data: 1565921280
I0724 10:07:21.406257  7845 layer_factory.hpp:77] Creating layer conv4_3
I0724 10:07:21.406270  7845 net.cpp:84] Creating Layer conv4_3
I0724 10:07:21.406275  7845 net.cpp:406] conv4_3 <- conv4_2
I0724 10:07:21.406285  7845 net.cpp:380] conv4_3 -> conv4_3
I0724 10:07:21.432849  7845 net.cpp:122] Setting up conv4_3
I0724 10:07:21.432876  7845 net.cpp:129] Top shape: 1 512 88 128 (5767168)
I0724 10:07:21.432883  7845 net.cpp:137] Memory required for data: 1588989952
I0724 10:07:21.432894  7845 layer_factory.hpp:77] Creating layer relu4_3
I0724 10:07:21.432904  7845 net.cpp:84] Creating Layer relu4_3
I0724 10:07:21.432910  7845 net.cpp:406] relu4_3 <- conv4_3
I0724 10:07:21.432917  7845 net.cpp:367] relu4_3 -> conv4_3 (in-place)
I0724 10:07:21.433588  7845 net.cpp:122] Setting up relu4_3
I0724 10:07:21.433604  7845 net.cpp:129] Top shape: 1 512 88 128 (5767168)
I0724 10:07:21.433610  7845 net.cpp:137] Memory required for data: 1612058624
I0724 10:07:21.433615  7845 layer_factory.hpp:77] Creating layer pool4
I0724 10:07:21.433624  7845 net.cpp:84] Creating Layer pool4
I0724 10:07:21.433629  7845 net.cpp:406] pool4 <- conv4_3
I0724 10:07:21.433637  7845 net.cpp:380] pool4 -> pool4
I0724 10:07:21.433733  7845 net.cpp:122] Setting up pool4
I0724 10:07:21.433743  7845 net.cpp:129] Top shape: 1 512 88 128 (5767168)
I0724 10:07:21.433748  7845 net.cpp:137] Memory required for data: 1635127296
I0724 10:07:21.433753  7845 layer_factory.hpp:77] Creating layer conv5_1
I0724 10:07:21.433765  7845 net.cpp:84] Creating Layer conv5_1
I0724 10:07:21.433769  7845 net.cpp:406] conv5_1 <- pool4
I0724 10:07:21.433779  7845 net.cpp:380] conv5_1 -> conv5_1
I0724 10:07:21.457295  7845 net.cpp:122] Setting up conv5_1
I0724 10:07:21.457326  7845 net.cpp:129] Top shape: 1 512 88 128 (5767168)
I0724 10:07:21.457332  7845 net.cpp:137] Memory required for data: 1658195968
I0724 10:07:21.457343  7845 layer_factory.hpp:77] Creating layer relu5_1
I0724 10:07:21.457353  7845 net.cpp:84] Creating Layer relu5_1
I0724 10:07:21.457360  7845 net.cpp:406] relu5_1 <- conv5_1
I0724 10:07:21.457366  7845 net.cpp:367] relu5_1 -> conv5_1 (in-place)
I0724 10:07:21.457588  7845 net.cpp:122] Setting up relu5_1
I0724 10:07:21.457599  7845 net.cpp:129] Top shape: 1 512 88 128 (5767168)
I0724 10:07:21.457605  7845 net.cpp:137] Memory required for data: 1681264640
I0724 10:07:21.457610  7845 layer_factory.hpp:77] Creating layer conv5_2
I0724 10:07:21.457623  7845 net.cpp:84] Creating Layer conv5_2
I0724 10:07:21.457626  7845 net.cpp:406] conv5_2 <- conv5_1
I0724 10:07:21.457634  7845 net.cpp:380] conv5_2 -> conv5_2
I0724 10:07:21.479810  7845 net.cpp:122] Setting up conv5_2
I0724 10:07:21.479836  7845 net.cpp:129] Top shape: 1 512 88 128 (5767168)
I0724 10:07:21.479842  7845 net.cpp:137] Memory required for data: 1704333312
I0724 10:07:21.479852  7845 layer_factory.hpp:77] Creating layer relu5_2
I0724 10:07:21.479861  7845 net.cpp:84] Creating Layer relu5_2
I0724 10:07:21.479866  7845 net.cpp:406] relu5_2 <- conv5_2
I0724 10:07:21.479873  7845 net.cpp:367] relu5_2 -> conv5_2 (in-place)
I0724 10:07:21.480579  7845 net.cpp:122] Setting up relu5_2
I0724 10:07:21.480593  7845 net.cpp:129] Top shape: 1 512 88 128 (5767168)
I0724 10:07:21.480598  7845 net.cpp:137] Memory required for data: 1727401984
I0724 10:07:21.480603  7845 layer_factory.hpp:77] Creating layer conv5_3
I0724 10:07:21.480615  7845 net.cpp:84] Creating Layer conv5_3
I0724 10:07:21.480619  7845 net.cpp:406] conv5_3 <- conv5_2
I0724 10:07:21.480628  7845 net.cpp:380] conv5_3 -> conv5_3
I0724 10:07:21.501931  7845 net.cpp:122] Setting up conv5_3
I0724 10:07:21.501952  7845 net.cpp:129] Top shape: 1 512 88 128 (5767168)
I0724 10:07:21.501957  7845 net.cpp:137] Memory required for data: 1750470656
I0724 10:07:21.501966  7845 layer_factory.hpp:77] Creating layer relu5_3
I0724 10:07:21.501977  7845 net.cpp:84] Creating Layer relu5_3
I0724 10:07:21.501982  7845 net.cpp:406] relu5_3 <- conv5_3
I0724 10:07:21.501989  7845 net.cpp:367] relu5_3 -> conv5_3 (in-place)
I0724 10:07:21.502182  7845 net.cpp:122] Setting up relu5_3
I0724 10:07:21.502193  7845 net.cpp:129] Top shape: 1 512 88 128 (5767168)
I0724 10:07:21.502198  7845 net.cpp:137] Memory required for data: 1773539328
I0724 10:07:21.502202  7845 layer_factory.hpp:77] Creating layer conv_score
I0724 10:07:21.502213  7845 net.cpp:84] Creating Layer conv_score
I0724 10:07:21.502218  7845 net.cpp:406] conv_score <- conv5_3
I0724 10:07:21.502225  7845 net.cpp:380] conv_score -> conv_score
I0724 10:07:21.583781  7845 net.cpp:122] Setting up conv_score
I0724 10:07:21.583811  7845 net.cpp:129] Top shape: 1 64 88 128 (720896)
I0724 10:07:21.583817  7845 net.cpp:137] Memory required for data: 1776422912
I0724 10:07:21.583827  7845 layer_factory.hpp:77] Creating layer relu_score
I0724 10:07:21.583838  7845 net.cpp:84] Creating Layer relu_score
I0724 10:07:21.583844  7845 net.cpp:406] relu_score <- conv_score
I0724 10:07:21.583854  7845 net.cpp:367] relu_score -> conv_score (in-place)
I0724 10:07:21.584058  7845 net.cpp:122] Setting up relu_score
I0724 10:07:21.584069  7845 net.cpp:129] Top shape: 1 64 88 128 (720896)
I0724 10:07:21.584074  7845 net.cpp:137] Memory required for data: 1779306496
I0724 10:07:21.584079  7845 layer_factory.hpp:77] Creating layer slicer_conv
I0724 10:07:21.584131  7845 net.cpp:84] Creating Layer slicer_conv
I0724 10:07:21.584136  7845 net.cpp:406] slicer_conv <- conv_score
I0724 10:07:21.584147  7845 net.cpp:380] slicer_conv -> score1
I0724 10:07:21.584159  7845 net.cpp:380] slicer_conv -> score2
…
I0724 10:07:21.584717  7845 net.cpp:380] slicer_conv -> score57
I0724 10:07:21.584725  7845 net.cpp:380] slicer_conv -> score58
I0724 10:07:21.584735  7845 net.cpp:380] slicer_conv -> score59
I0724 10:07:21.584745  7845 net.cpp:380] slicer_conv -> score60
I0724 10:07:21.584755  7845 net.cpp:380] slicer_conv -> score61
I0724 10:07:21.584764  7845 net.cpp:380] slicer_conv -> score62
I0724 10:07:21.584789  7845 net.cpp:380] slicer_conv -> score63
I0724 10:07:21.584800  7845 net.cpp:380] slicer_conv -> score64
I0724 10:07:21.586056  7845 net.cpp:122] Setting up slicer_conv
I0724 10:07:21.586067  7845 net.cpp:129] Top shape: 1 1 88 128 (11264)
I0724 10:07:21.586073  7845 net.cpp:129] Top shape: 1 1 88 128 (11264)
I0724 10:07:21.586078  7845 net.cpp:129] Top shape: 1 1 88 128 (11264)
I0724 10:07:21.586084  7845 net.cpp:129] Top shape: 1 1 88 128 (11264)
I0724 10:07:21.586089  7845 net.cpp:129] Top shape: 1 1 88 128 (11264)
I0724 10:07:21.586094  7845 net.cpp:129] Top shape: 1 1 88 128 (11264)
I0724 10:07:21.586099  7845 net.cpp:129] Top shape: 1 1 88 128 (11264)
I0724 10:07:21.586104  7845 net.cpp:129] Top shape: 1 1 88 128 (11264)
I0724 10:07:21.586110  7845 net.cpp:129] Top shape: 1 1 88 128 (11264)
I0724 10:07:21.586115  7845 net.cpp:129] Top shape: 1 1 88 128 (11264)
I0724 10:07:21.586122  7845 net.cpp:129] Top shape: 1 1 88 128 (11264)
I0724 10:07:21.586125  7845 net.cpp:129] Top shape: 1 1 88 128 (11264)
I0724 10:07:21.586132  7845 net.cpp:129] Top shape: 1 1 88 128 (11264)
I0724 10:07:21.586138  7845 net.cpp:129] Top shape: 1 1 88 128 (11264)
I0724 10:07:21.586141  7845 net.cpp:129] Top shape: 1 1 88 128 (11264)
I0724 10:07:21.586145  7845 net.cpp:129] Top shape: 1 1 88 128 (11264)
I0724 10:07:21.586149  7845 net.cpp:129] Top shape: 1 1 88 128 (11264)
I0724 10:07:21.586153  7845 net.cpp:129] Top shape: 1 1 88 128 (11264)
I0724 10:07:21.586158  7845 net.cpp:129] Top shape: 1 1 88 128 (11264)
I0724 10:07:21.586161  7845 net.cpp:129] Top shape: 1 1 88 128 (11264)
I0724 10:07:21.586166  7845 net.cpp:129] Top shape: 1 1 88 128 (11264)
I0724 10:07:21.586172  7845 net.cpp:129] Top shape: 1 1 88 128 (11264)
I0724 10:07:21.586177  7845 net.cpp:129] Top shape: 1 1 88 128 (11264)
I0724 10:07:21.586182  7845 net.cpp:129] Top shape: 1 1 88 128 (11264)
I0724 10:07:21.586187  7845 net.cpp:129] Top shape: 1 1 88 128 (11264)
I0724 10:07:21.586192  7845 net.cpp:129] Top shape: 1 1 88 128 (11264)
I0724 10:07:21.586199  7845 net.cpp:129] Top shape: 1 1 88 128 (11264)
I0724 10:07:21.586202  7845 net.cpp:129] Top shape: 1 1 88 128 (11264)
I0724 10:07:21.586206  7845 net.cpp:129] Top shape: 1 1 88 128 (11264)
I0724 10:07:21.586210  7845 net.cpp:129] Top shape: 1 1 88 128 (11264)
I0724 10:07:21.586215  7845 net.cpp:129] Top shape: 1 1 88 128 (11264)
I0724 10:07:21.586220  7845 net.cpp:129] Top shape: 1 1 88 128 (11264)
I0724 10:07:21.586225  7845 net.cpp:129] Top shape: 1 1 88 128 (11264)
I0724 10:07:21.586230  7845 net.cpp:129] Top shape: 1 1 88 128 (11264)
I0724 10:07:21.586236  7845 net.cpp:129] Top shape: 1 1 88 128 (11264)
I0724 10:07:21.586241  7845 net.cpp:129] Top shape: 1 1 88 128 (11264)
I0724 10:07:21.586246  7845 net.cpp:129] Top shape: 1 1 88 128 (11264)
I0724 10:07:21.586249  7845 net.cpp:129] Top shape: 1 1 88 128 (11264)
I0724 10:07:21.586253  7845 net.cpp:129] Top shape: 1 1 88 128 (11264)
I0724 10:07:21.586258  7845 net.cpp:129] Top shape: 1 1 88 128 (11264)
I0724 10:07:21.586263  7845 net.cpp:129] Top shape: 1 1 88 128 (11264)
I0724 10:07:21.586268  7845 net.cpp:129] Top shape: 1 1 88 128 (11264)
I0724 10:07:21.586275  7845 net.cpp:129] Top shape: 1 1 88 128 (11264)
I0724 10:07:21.586280  7845 net.cpp:129] Top shape: 1 1 88 128 (11264)
I0724 10:07:21.586285  7845 net.cpp:129] Top shape: 1 1 88 128 (11264)
I0724 10:07:21.586290  7845 net.cpp:129] Top shape: 1 1 88 128 (11264)
I0724 10:07:21.586295  7845 net.cpp:129] Top shape: 1 1 88 128 (11264)
I0724 10:07:21.586302  7845 net.cpp:129] Top shape: 1 1 88 128 (11264)
I0724 10:07:21.586305  7845 net.cpp:129] Top shape: 1 1 88 128 (11264)
I0724 10:07:21.586309  7845 net.cpp:129] Top shape: 1 1 88 128 (11264)
I0724 10:07:21.586314  7845 net.cpp:129] Top shape: 1 1 88 128 (11264)
I0724 10:07:21.586318  7845 net.cpp:129] Top shape: 1 1 88 128 (11264)
I0724 10:07:21.586323  7845 net.cpp:129] Top shape: 1 1 88 128 (11264)
I0724 10:07:21.586328  7845 net.cpp:129] Top shape: 1 1 88 128 (11264)
I0724 10:07:21.586333  7845 net.cpp:129] Top shape: 1 1 88 128 (11264)
I0724 10:07:21.586349  7845 net.cpp:129] Top shape: 1 1 88 128 (11264)
I0724 10:07:21.586355  7845 net.cpp:129] Top shape: 1 1 88 128 (11264)
I0724 10:07:21.586360  7845 net.cpp:129] Top shape: 1 1 88 128 (11264)
I0724 10:07:21.586365  7845 net.cpp:129] Top shape: 1 1 88 128 (11264)
I0724 10:07:21.586370  7845 net.cpp:129] Top shape: 1 1 88 128 (11264)
I0724 10:07:21.586375  7845 net.cpp:129] Top shape: 1 1 88 128 (11264)
I0724 10:07:21.586381  7845 net.cpp:129] Top shape: 1 1 88 128 (11264)
I0724 10:07:21.586385  7845 net.cpp:129] Top shape: 1 1 88 128 (11264)
I0724 10:07:21.586390  7845 net.cpp:129] Top shape: 1 1 88 128 (11264)
I0724 10:07:21.586392  7845 net.cpp:137] Memory required for data: 1782190080
I0724 10:07:21.586397  7845 layer_factory.hpp:77] Creating layer sumscore
I0724 10:07:21.586411  7845 net.cpp:84] Creating Layer sumscore
I0724 10:07:21.586416  7845 net.cpp:406] sumscore <- score1
I0724 10:07:21.586423  7845 net.cpp:406] sumscore <- score2
I0724 10:07:21.586428  7845 net.cpp:406] sumscore <- score3
…
