…
I0729 16:26:56.644510 29217 net.cpp:51] Initializing net from parameters: 
name: "crowd_counting"
state {
  phase: TRAIN
  level: 0
  stage: ""
}
layer {
  name: "data"
  type: "Data"
  top: "data"
  include {
    phase: TRAIN
  }
  data_param {
    source: "/home/peiyong/Work/Zenglin/szl/ShanghaiTech/partA/train_8/image_lmdb"
    batch_size: 1
    backend: LMDB
  }
}
layer {
  name: "label"
  type: "Data"
  top: "label"
  include {
    phase: TRAIN
  }
  data_param {
    source: "/home/peiyong/Work/Zenglin/szl/ShanghaiTech/partA/train_8/dmap_lmdb"
    batch_size: 1
    backend: LMDB
  }
}
layer {
  name: "conv1_1"
  type: "Convolution"
  bottom: "data"
  top: "conv1_1"
  param {
    lr_mult: 0.1
    decay_mult: 1
  }
  param {
    lr_mult: 0.2
    decay_mult: 0
  }
  convolution_param {
    num_output: 64
    pad: 1
    kernel_size: 3
    weight_filler {
      type: "gaussian"
      std: 0.01
    }
    bias_filler {
      type: "constant"
      value: 0
    }
  }
}
layer {
  name: "relu1_1"
  type: "ReLU"
  bottom: "conv1_1"
  top: "conv1_1"
}
layer {
  name: "conv1_2"
  type: "Convolution"
  bottom: "conv1_1"
  top: "conv1_2"
  param {
    lr_mult: 0.1
    decay_mult: 1
  }
  param {
    lr_mult: 0.2
    decay_mult: 0
  }
  convolution_param {
    num_output: 64
    pad: 1
    kernel_size: 3
    weight_filler {
      type: "gaussian"
      std: 0.01
    }
    bias_filler {
      type: "constant"
      value: 0
    }
  }
}
layer {
  name: "relu1_2"
  type: "ReLU"
  bottom: "conv1_2"
  top: "conv1_2"
}
layer {
  name: "pool1"
  type: "Pooling"
  bottom: "conv1_2"
  top: "pool1"
  pooling_param {
    pool: MAX
    kernel_size: 2
    stride: 2
  }
}
layer {
  name: "conv2_1"
  type: "Convolution"
  bottom: "pool1"
  top: "conv2_1"
  param {
    lr_mult: 0.1
    decay_mult: 1
  }
  param {
    lr_mult: 0.2
    decay_mult: 0
  }
  convolution_param {
    num_output: 128
    pad: 1
    kernel_size: 3
    weight_filler {
      type: "gaussian"
      std: 0.01
    }
    bias_filler {
      type: "constant"
      value: 0
    }
  }
}
layer {
  name: "relu2_1"
  type: "ReLU"
  bottom: "conv2_1"
  top: "conv2_1"
}
layer {
  name: "conv2_2"
  type: "Convolution"
  bottom: "conv2_1"
  top: "conv2_2"
  param {
    lr_mult: 0.1
    decay_mult: 1
  }
  param {
    lr_mult: 0.2
    decay_mult: 0
  }
  convolution_param {
    num_output: 128
    pad: 1
    kernel_size: 3
    weight_filler {
      type: "gaussian"
      std: 0.01
    }
    bias_filler {
      type: "constant"
      value: 0
    }
  }
}
layer {
  name: "relu2_2"
  type: "ReLU"
  bottom: "conv2_2"
  top: "conv2_2"
}
layer {
  name: "pool2"
  type: "Pooling"
  bottom: "conv2_2"
  top: "pool2"
  pooling_param {
    pool: MAX
    kernel_size: 2
    stride: 2
  }
}
layer {
  name: "conv3_1"
  type: "Convolution"
  bottom: "pool2"
  top: "conv3_1"
  param {
    lr_mult: 0.1
    decay_mult: 1
  }
  param {
    lr_mult: 0.2
    decay_mult: 0
  }
  convolution_param {
    num_output: 256
    pad: 1
    kernel_size: 3
    weight_filler {
      type: "gaussian"
      std: 0.01
    }
    bias_filler {
      type: "constant"
      value: 0
    }
  }
}
layer {
  name: "relu3_1"
  type: "ReLU"
  bottom: "conv3_1"
  top: "conv3_1"
}
layer {
  name: "conv3_2"
  type: "Convolution"
  bottom: "conv3_1"
  top: "conv3_2"
  param {
    lr_mult: 0.1
    decay_mult: 1
  }
  param {
    lr_mult: 0.2
    decay_mult: 0
  }
  convolution_param {
    num_output: 256
    pad: 1
    kernel_size: 3
    weight_filler {
      type: "gaussian"
      std: 0.01
    }
    bias_filler {
      type: "constant"
      value: 0
    }
  }
}
layer {
  name: "relu3_2"
  type: "ReLU"
  bottom: "conv3_2"
  top: "conv3_2"
}
layer {
  name: "conv3_3"
  type: "Convolution"
  bottom: "conv3_2"
  top: "conv3_3"
  param {
    lr_mult: 0.1
    decay_mult: 1
  }
  param {
    lr_mult: 0.2
    decay_mult: 0
  }
  convolution_param {
    num_output: 256
    pad: 1
    kernel_size: 3
    weight_filler {
      type: "gaussian"
      std: 0.01
    }
    bias_filler {
      type: "constant"
      value: 0
    }
  }
}
layer {
  name: "relu3_3"
  type: "ReLU"
  bottom: "conv3_3"
  top: "conv3_3"
}
layer {
  name: "pool3"
  type: "Pooling"
  bottom: "conv3_3"
  top: "pool3"
  pooling_param {
    pool: MAX
    kernel_size: 2
    stride: 2
  }
}
layer {
  name: "conv4_1"
  type: "Convolution"
  bottom: "pool3"
  top: "conv4_1"
  param {
    lr_mult: 0.1
    decay_mult: 1
  }
  param {
    lr_mult: 0.2
    decay_mult: 0
  }
  convolution_param {
    num_output: 512
    pad: 1
    kernel_size: 3
    weight_filler {
      type: "gaussian"
      std: 0.01
    }
    bias_filler {
      type: "constant"
      value: 0
    }
  }
}
layer {
  name: "relu4_1"
  type: "ReLU"
  bottom: "conv4_1"
  top: "conv4_1"
}
layer {
  name: "conv4_2"
  type: "Convolution"
  bottom: "conv4_1"
  top: "conv4_2"
  param {
    lr_mult: 0.1
    decay_mult: 1
  }
  param {
    lr_mult: 0.2
    decay_mult: 0
  }
  convolution_param {
    num_output: 512
    pad: 1
    kernel_size: 3
    weight_filler {
      type: "gaussian"
      std: 0.01
    }
    bias_filler {
      type: "constant"
      value: 0
    }
  }
}
layer {
  name: "relu4_2"
  type: "ReLU"
  bottom: "conv4_2"
  top: "conv4_2"
}
layer {
  name: "conv4_3"
  type: "Convolution"
  bottom: "conv4_2"
  top: "conv4_3"
  param {
    lr_mult: 0.1
    decay_mult: 1
  }
  param {
    lr_mult: 0.2
    decay_mult: 0
  }
  convolution_param {
    num_output: 512
    pad: 1
    kernel_size: 3
    weight_filler {
      type: "gaussian"
      std: 0.01
    }
    bias_filler {
      type: "constant"
      value: 0
    }
  }
}
layer {
  name: "relu4_3"
  type: "ReLU"
  bottom: "conv4_3"
  top: "conv4_3"
}
layer {
  name: "pool4"
  type: "Pooling"
  bottom: "conv4_3"
  top: "pool4"
  pooling_param {
    pool: MAX
    kernel_size: 3
    stride: 1
    pad: 1
  }
}
layer {
  name: "conv5_1"
  type: "Convolution"
  bottom: "pool4"
  top: "conv5_1"
  param {
    lr_mult: 0.1
    decay_mult: 1
  }
  param {
    lr_mult: 0.2
    decay_mult: 0
  }
  convolution_param {
    num_output: 512
    pad: 2
    kernel_size: 3
    weight_filler {
      type: "gaussian"
      std: 0.01
    }
    bias_filler {
      type: "constant"
      value: 0
    }
    dilation: 2
  }
}
layer {
  name: "relu5_1"
  type: "ReLU"
  bottom: "conv5_1"
  top: "conv5_1"
}
layer {
  name: "conv5_2"
  type: "Convolution"
  bottom: "conv5_1"
  top: "conv5_2"
  param {
    lr_mult: 0.1
    decay_mult: 1
  }
  param {
    lr_mult: 0.2
    decay_mult: 0
  }
  convolution_param {
    num_output: 512
    pad: 2
    kernel_size: 3
    weight_filler {
      type: "gaussian"
      std: 0.01
    }
    bias_filler {
      type: "constant"
      value: 0
    }
    dilation: 2
  }
}
layer {
  name: "relu5_2"
  type: "ReLU"
  bottom: "conv5_2"
  top: "conv5_2"
}
layer {
  name: "conv5_3"
  type: "Convolution"
  bottom: "conv5_2"
  top: "conv5_3"
  param {
    lr_mult: 0.1
    decay_mult: 1
  }
  param {
    lr_mult: 0.2
    decay_mult: 0
  }
  convolution_param {
    num_output: 512
    pad: 2
    kernel_size: 3
    weight_filler {
      type: "gaussian"
      std: 0.01
    }
    bias_filler {
      type: "constant"
      value: 0
    }
    dilation: 2
  }
}
layer {
  name: "relu5_3"
  type: "ReLU"
  bottom: "conv5_3"
  top: "conv5_3"
}
layer {
  name: "conv_score"
  type: "Convolution"
  bottom: "conv5_3"
  top: "conv_score"
  param {
    lr_mult: 10
    decay_mult: 1
  }
  param {
    lr_mult: 20
    decay_mult: 0
  }
  convolution_param {
    num_output: 512
    pad: 0
    kernel_size: 1
    group: 512
    stride: 1
    weight_filler {
      type: "constant"
      value: 0.0001
    }
    bias_filler {
      type: "constant"
      value: 0
    }
  }
}
layer {
  name: "relu_score"
  type: "ReLU"
  bottom: "conv_score"
  top: "conv_score"
}
layer {
  name: "slicer_conv"
  type: "Slice"
  bottom: "conv_score"
  top: "score1"
  top: "score2"
  top: "score3"
  top: "score4"
  top: "score5"
  top: "score6"
  top: "score7"
  top: "score8"
  top: "score9"
  top: "score10"
  top: "score11"
  top: "score12"
  top: "score13"
  top: "score14"
  top: "score15"
  top: "score16"
  top: "score17"
  top: "score18"
  top: "score19"
  top: "score20"
  top: "score21"
  top: "score22"
  top: "score23"
  top: "score24"
…
  top: "score484"
  top: "score485"
  top: "score486"
  top: "score487"
  top: "score488"
  top: "score489"
  top: "score490"
  top: "score491"
  top: "score492"
  top: "score493"
  top: "score494"
  top: "score495"
  top: "score496"
  top: "score497"
  top: "score498"
  top: "score499"
  top: "score500"
  top: "score501"
  top: "score502"
  top: "score503"
  top: "score504"
  top: "score505"
  top: "score506"
  top: "score507"
  top: "score508"
  top: "score509"
  top: "score510"
  top: "score511"
  top: "score512"
  slice_param {
    axis: 1
  }
}
layer {
  name: "sumscore"
  type: "Eltwise"
  bottom: "score1"
  bottom: "score2"
  bottom: "score3"
  bottom: "score4"
  bottom: "score5"
  bottom: "score6"
  bottom: "score7"
  bottom: "score8"
  bottom: "score9"
  bottom: "score10"
  bottom: "score11"
  bottom: "score12"
  bottom: "score13"
  bottom: "score14"
  bottom: "score15"
  bottom: "score16"
  bottom: "score17"
  bottom: "score18"
  bottom: "score19"
  bottom: "score20"
  bottom: "score21"
  bottom: "score22"
  bottom: "score23"
  bottom: "score24"
  bottom: "score25"
  bottom: "score26"
  bottom: "score27"
  bottom: "score28"
  bottom: "score29"
  bottom: "score30"
  bottom: "score31"
  bottom: "score32"
  bottom: "score33"
  bottom: "score34"
  bottom: "score35"
  bottom: "score36"
  bottom: "score37"
  bottom: "score38"
  bottom: "score39"
  bottom: "score40"
  bottom: "score41"
  bottom: "score42"
  bottom: "score43"
  bottom: "score44"
  bottom: "score45"
  bottom: "score46"
  bottom: "score47"
  bottom: "score48"
  bottom: "score49"
  bottom: "score50"
  bottom: "score51"
  bottom: "score52"
  bottom: "score53"
  bottom: "score54"
  bottom: "score55"
  bottom: "score56"
  bottom: "score57"
  bottom: "score58"
  bottom: "score59"
  bottom: "score60"
  bottom: "score61"
  bottom: "score62"
  bottom: "score63"
  bottom: "score64"
  bottom: "score65"
  bottom: "score66"
  bottom: "score67"
  bottom: "score68"
  bottom: "score69"
  bottom: "score70"
  bottom: "score71"
  bottom: "score72"
  bottom: "score73"
  bottom: "score74"
  bottom: "score75"
  bottom: "score76"
  bottom: "score77"
  bottom: "score78"
  bottom: "score79"
  bottom: "score80"
  bottom: "score81"
  bottom: "score82"
  bottom: "score83"
  bottom: "score84"
  bottom: "score85"
  bottom: "score86"
  bottom: "score87"
  bottom: "score88"
  bottom: "score89"
  bottom: "score90"
  bottom: "score91"
  bottom: "score92"
  bottom: "score93"
  bottom: "score94"
  bottom: "score95"
  bottom: "score96"
  bottom: "score97"
  bottom: "score98"
  bottom: "score99"
  bottom: "score100"
  bottom: "score101"
  bottom: "score102"
  bottom: "score103"
  bottom: "score104"
  bottom: "score105"
  bottom: "score106"
  bottom: "score107"
  bottom: "score108"
  bottom: "score109"
  bottom: "score110"
  bottom: "score111"
  bottom: "score112"
  bottom: "score113"
  bottom: "score114"
  bottom: "score115"
  bottom: "score116"
  bottom: "score117"
  bottom: "score118"
  bottom: "score119"
  bottom: "score120"
  bottom: "score121"
  bottom: "score122"
  bottom: "score123"
  bottom: "score124"
  bottom: "score125"
  bottom: "score126"
  bottom: "score127"
  bottom: "score128"
  bottom: "score129"
  bottom: "score130"
  bottom: "score131"
  bottom: "score132"
  bottom: "score133"
  bottom: "score134"
  bottom: "score135"
  bottom: "score136"
  bottom: "score137"
  bottom: "score138"
  bottom: "score139"
  bottom: "score140"
  bottom: "score141"
  bottom: "score142"
  bottom: "score143"
  bottom: "score144"
  bottom: "score145"
  bottom: "score146"
  bottom: "score147"
  bottom: "score148"
  bottom: "score149"
  bottom: "score150"
  bottom: "score151"
  bottom: "score152"
  bottom: "score153"
  bottom: "score154"
  bottom: "score155"
  bottom: "score156"
  bottom: "score157"
  bottom: "score158"
  bottom: "score159"
  bottom: "score160"
  bottom: "score161"
  bottom: "score162"
  bottom: "score163"
  bottom: "score164"
  bottom: "score165"
  bottom: "score166"
  bottom: "score167"
  bottom: "score168"
  bottom: "score169"
  bottom: "score170"
  bottom: "score171"
  bottom: "score172"
  bottom: "score173"
  bottom: "score174"
  bottom: "score175"
  bottom: "score176"
  bottom: "score177"
  bottom: "score178"
  bottom: "score179"
  bottom: "score180"
  bottom: "score181"
  bottom: "score182"
  bottom: "score183"
  bottom: "score184"
  bottom: "score185"
  bottom: "score186"
  bottom: "score187"
  bottom: "score188"
  bottom: "score189"
  bottom: "score190"
  bottom: "score191"
  bottom: "score192"
  bottom: "score193"
  bottom: "score194"
  bottom: "score195"
  bottom: "score196"
  bottom: "score197"
  bottom: "score198"
  bottom: "score199"
  bottom: "score200"
  bottom: "score201"
  bottom: "score202"
  bottom: "score203"
  bottom: "score204"
  bottom: "score205"
  bottom: "score206"
  bottom: "score207"
  bottom: "score208"
  bottom: "score209"
  bottom: "score210"
  bottom: "score211"
  bottom: "score212"
  bottom: "score213"
  bottom: "score214"
  bottom: "score215"
  bottom: "score216"
  bottom: "score217"
  bottom: "score218"
  bottom: "score219"
  bottom: "score220"
  bottom: "score221"
  bottom: "score222"
  bottom: "score223"
  bottom: "score224"
  bottom: "score225"
  bottom: "score226"
  bottom: "score227"
  bottom: "score228"
  bottom: "score229"
  bottom: "score230"
  bottom: "score231"
  bottom: "score232"
  bottom: "score233"
  bottom: "score234"
  bottom: "score235"
  bottom: "score236"
  bottom: "score237"
  bottom: "score238"
  bottom: "score239"
  bottom: "score240"
  bottom: "score241"
  bottom: "score242"
  bottom: "score243"
  bottom: "score244"
  bottom: "score245"
  bottom: "score246"
  bottom: "score247"
  bottom: "score248"
  bottom: "score249"
  bottom: "score250"
  bottom: "score251"
  bottom: "score252"
  bottom: "score253"
  bottom: "score254"
  bottom: "score255"
  bottom: "score256"
  bottom: "score257"
  bottom: "score258"
  bottom: "score259"
  bottom: "score260"
  bottom: "score261"
  bottom: "score262"
  bottom: "score263"
  bottom: "score264"
  bottom: "score265"
  bottom: "score266"
  bottom: "score267"
  bottom: "score268"
  bottom: "score269"
  bottom: "score270"
  bottom: "score271"
  bottom: "score272"
  bottom: "score273"
  bottom: "score274"
  bottom: "score275"
  bottom: "score276"
  bottom: "score277"
  bottom: "score278"
  bottom: "score279"
  bottom: "score280"
  bottom: "score281"
  bottom: "score282"
  bottom: "score283"
  bottom: "score284"
  bottom: "score285"
  bottom: "score286"
  bottom: "score287"
  bottom: "score288"
  bottom: "score289"
  bottom: "score290"
  bottom: "score291"
  bottom: "score292"
  bottom: "score293"
  bottom: "score294"
  bottom: "score295"
  bottom: "score296"
  bottom: "score297"
  bottom: "score298"
  bottom: "score299"
  bottom: "score300"
  bottom: "score301"
  bottom: "score302"
  bottom: "score303"
  bottom: "score304"
  bottom: "score305"
  bottom: "score306"
  bottom: "score307"
  bottom: "score308"
  bottom: "score309"
  bottom: "score310"
  bottom: "score311"
  bottom: "score312"
  bottom: "score313"
  bottom: "score314"
  bottom: "score315"
  bottom: "score316"
  bottom: "score317"
  bottom: "score318"
  bottom: "score319"
  bottom: "score320"
  bottom: "score321"
  bottom: "score322"
  bottom: "score323"
  bottom: "score324"
  bottom: "score325"
  bottom: "score326"
  bottom: "score327"
  bottom: "score328"
  bottom: "score329"
  bottom: "score330"
  bottom: "score331"
  bottom: "score332"
  bottom: "score333"
  bottom: "score334"
  bottom: "score335"
  bottom: "score336"
  bottom: "score337"
  bottom: "score338"
  bottom: "score339"
  bottom: "score340"
  bottom: "score341"
  bottom: "score342"
  bottom: "score343"
  bottom: "score344"
  bottom: "score345"
  bottom: "score346"
  bottom: "score347"
  bottom: "score348"
  bottom: "score349"
  bottom: "score350"
  bottom: "score351"
  bottom: "score352"
  bottom: "score353"
  bottom: "score354"
  bottom: "score355"
  bottom: "score356"
  bottom: "score357"
  bottom: "score358"
  bottom: "score359"
  bottom: "score360"
  bottom: "score361"
  bottom: "score362"
  bottom: "score363"
  bottom: "score364"
  bottom: "score365"
  bottom: "score366"
  bottom: "score367"
  bottom: "score368"
  bottom: "score369"
  bottom: "score370"
  bottom: "score371"
  bottom: "score372"
  bottom: "score373"
  bottom: "score374"
  bottom: "score375"
  bottom: "score376"
  bottom: "score377"
  bottom: "score378"
  bottom: "score379"
  bottom: "score380"
  bottom: "score381"
  bottom: "score382"
  bottom: "score383"
  bottom: "score384"
  bottom: "score385"
  bottom: "score386"
  bottom: "score387"
  bottom: "score388"
  bottom: "score389"
  bottom: "score390"
  bottom: "score391"
  bottom: "score392"
  bottom: "score393"
  bottom: "score394"
  bottom: "score395"
  bottom: "score396"
  bottom: "score397"
  bottom: "score398"
  bottom: "score399"
  bottom: "score400"
  bottom: "score401"
  bottom: "score402"
  bottom: "score403"
  bottom: "score404"
  bottom: "score405"
  bottom: "score406"
  bottom: "score407"
  bottom: "score408"
  bottom: "score409"
  bottom: "score410"
  bottom: "score411"
  bottom: "score412"
  bottom: "score413"
  bottom: "score414"
  bottom: "score415"
  bottom: "score416"
  bottom: "score417"
  bottom: "score418"
  bottom: "score419"
  bottom: "score420"
  bottom: "score421"
  bottom: "score422"
  bottom: "score423"
  bottom: "score424"
  bottom: "score425"
  bottom: "score426"
  bottom: "score427"
  bottom: "score428"
  bottom: "score429"
  bottom: "score430"
  bottom: "score431"
  bottom: "score432"
  bottom: "score433"
  bottom: "score434"
  bottom: "score435"
  bottom: "score436"
  bottom: "score437"
  bottom: "score438"
  bottom: "score439"
  bottom: "score440"
  bottom: "score441"
  bottom: "score442"
  bottom: "score443"
  bottom: "score444"
  bottom: "score445"
  bottom: "score446"
  bottom: "score447"
  bottom: "score448"
  bottom: "score449"
  bottom: "score450"
  bottom: "score451"
  bottom: "score452"
  bottom: "score453"
  bottom: "score454"
  bottom: "score455"
  bottom: "score456"
  bottom: "score457"
  bottom: "score458"
  bottom: "score459"
  bottom: "score460"
  bottom: "score461"
  bottom: "score462"
  bottom: "score463"
  bottom: "score464"
  bottom: "score465"
  bottom: "score466"
  bottom: "score467"
  bottom: "score468"
  bottom: "score469"
  bottom: "score470"
  bottom: "score471"
  bottom: "score472"
  bottom: "score473"
  bottom: "score474"
  bottom: "score475"
  bottom: "score476"
  bottom: "score477"
  bottom: "score478"
  bottom: "score479"
  bottom: "score480"
  bottom: "score481"
  bottom: "score482"
  bottom: "score483"
  bottom: "score484"
  bottom: "score485"
  bottom: "score486"
  bottom: "score487"
  bottom: "score488"
  bottom: "score489"
  bottom: "score490"
  bottom: "score491"
  bottom: "score492"
  bottom: "score493"
  bottom: "score494"
  bottom: "score495"
  bottom: "score496"
  bottom: "score497"
  bottom: "score498"
  bottom: "score499"
  bottom: "score500"
  bottom: "score501"
  bottom: "score502"
  bottom: "score503"
  bottom: "score504"
  bottom: "score505"
  bottom: "score506"
  bottom: "score507"
  bottom: "score508"
  bottom: "score509"
  bottom: "score510"
  bottom: "score511"
  bottom: "score512"
  top: "sumscore"
  eltwise_param {
    operation: SUM
  }
}
layer {
  name: "loss1"
  type: "NCLLoss"
  bottom: "score1"
  bottom: "label"
  bottom: "sumscore"
  top: "loss1"
  include {
    phase: TRAIN
  }
  ncl_loss_param {
    lambda: 1.01
    net_num: 512
  }
}
layer {
  name: "loss2"
  type: "NCLLoss"
  bottom: "score2"
  bottom: "label"
  bottom: "sumscore"
  top: "loss2"
  include {
    phase: TRAIN
  }
  ncl_loss_param {
    lambda: 1.01
    net_num: 512
  }
}
layer {
  name: "loss3"
  type: "NCLLoss"
  bottom: "score3"
  bottom: "label"
  bottom: "sumscore"
  top: "loss3"
  include {
    phase: TRAIN
  }
  ncl_loss_param {
    lambda: 1.01
    net_num: 512
  }
}
layer {
  name: "loss4"
  type: "NCLLoss"
  bottom: "score4"
  bottom: "label"
  bottom: "sumscore"
  top: "loss4"
  include {
    phase: TRAIN
  }
  ncl_loss_param {
    lambda: 1.01
    net_num: 512
  }
}
layer {
  name: "loss5"
  type: "NCLLoss"
  bottom: "score5"
  bottom: "label"
  bottom: "sumscore"
  top: "loss5"
  include {
    phase: TRAIN
  }
  ncl_loss_param {
    lambda: 1.01
    net_num: 512
  }
}
layer {
  name: "loss6"
  type: "NCLLoss"
  bottom: "score6"
  bottom: "label"
  bottom: "sumscore"
  top: "loss6"
  include {
    phase: TRAIN
  }
  ncl_loss_param {
    lambda: 1.01
    net_num: 512
  }
}
layer {
  name: "loss7"
  type: "NCLLoss"
  bottom: "score7"
  bottom: "label"
  bottom: "sumscore"
  top: "loss7"
  include {
    phase: TRAIN
  }
  ncl_loss_param {
    lambda: 1.01
    net_num: 512
  }
}
layer {
  name: "loss8"
  type: "NCLLoss"
  bottom: "score8"
  bottom: "label"
  bottom: "sumscore"
  top: "loss8"
  include {
    phase: TRAIN
  }
  ncl_loss_param {
    lambda: 1.01
    net_num: 512
  }
}
layer {
  name: "loss9"
  type: "NCLLoss"
  bottom: "score9"
  bottom: "label"
  bottom: "sumscore"
  top: "loss9"
  include {
    phase: TRAIN
  }
  ncl_loss_param {
    lambda: 1.01
    net_num: 512
  }
}
layer {
  name: "loss10"
  type: "NCLLoss"
  bottom: "score10"
  bottom: "label"
  bottom: "sumscore"
  top: "loss10"
  include {
    phase: TRAIN
  }
  ncl_loss_param {
    lambda: 1.01
    net_num: 512
  }
}
layer {
  name: "loss11"
  type: "NCLLoss"
  bottom: "score11"
  bottom: "label"
  bottom: "sumscore"
  top: "loss11"
  include {
 
I0729 16:26:56.666715 29217 layer_factory.hpp:77] Creating layer data
I0729 16:26:56.666851 29217 db_lmdb.cpp:35] Opened lmdb /home/peiyong/Work/Zenglin/szl/ShanghaiTech/partA/train_8/image_lmdb
I0729 16:26:56.666911 29217 net.cpp:84] Creating Layer data
I0729 16:26:56.666931 29217 net.cpp:380] data -> data
I0729 16:26:56.668246 29217 data_layer.cpp:45] output data size: 1,3,384,512
I0729 16:26:56.675547 29217 net.cpp:122] Setting up data
I0729 16:26:56.675588 29217 net.cpp:129] Top shape: 1 3 384 512 (589824)
I0729 16:26:56.675601 29217 net.cpp:137] Memory required for data: 2359296
I0729 16:26:56.675621 29217 layer_factory.hpp:77] Creating layer label
I0729 16:26:56.675690 29217 db_lmdb.cpp:35] Opened lmdb /home/peiyong/Work/Zenglin/szl/ShanghaiTech/partA/train_8/dmap_lmdb
I0729 16:26:56.675734 29217 net.cpp:84] Creating Layer label
I0729 16:26:56.675752 29217 net.cpp:380] label -> label
I0729 16:26:56.675884 29217 data_layer.cpp:45] output data size: 1,1,48,64
I0729 16:26:56.677141 29217 net.cpp:122] Setting up label
I0729 16:26:56.677171 29217 net.cpp:129] Top shape: 1 1 48 64 (3072)
I0729 16:26:56.677186 29217 net.cpp:137] Memory required for data: 2371584
I0729 16:26:56.677199 29217 layer_factory.hpp:77] Creating layer label_label_0_split
I0729 16:26:56.677332 29217 net.cpp:84] Creating Layer label_label_0_split
I0729 16:26:56.677353 29217 net.cpp:406] label_label_0_split <- label
I0729 16:26:56.677440 29217 net.cpp:380] label_label_0_split -> label_label_0_split_0
…
I0729 16:26:56.741588 29217 net.cpp:380] label_label_0_split -> label_label_0_split_506
I0729 16:26:56.741690 29217 net.cpp:380] label_label_0_split -> label_label_0_split_507
I0729 16:26:56.741791 29217 net.cpp:380] label_label_0_split -> label_label_0_split_508
I0729 16:26:56.741892 29217 net.cpp:380] label_label_0_split -> label_label_0_split_509
I0729 16:26:56.741993 29217 net.cpp:380] label_label_0_split -> label_label_0_split_510
I0729 16:26:56.742163 29217 net.cpp:380] label_label_0_split -> label_label_0_split_511
I0729 16:26:56.747401 29217 net.cpp:122] Setting up label_label_0_split
I0729 16:26:56.747426 29217 net.cpp:129] Top shape: 1 1 48 64 (3072)
I0729 16:26:56.747433 29217 net.cpp:129] Top shape: 1 1 48 64 (3072)
I0729 16:26:56.747499 29217 net.cpp:129] Top shape: 1 1 48 64 (3072)
I0729 16:26:56.747509 29217 net.cpp:129] Top shape: 1 1 48 64 (3072)
I0729 16:26:56.747515 29217 net.cpp:129] Top shape: 1 1 48 64 (3072)
I0729 16:26:56.747522 29217 net.cpp:129] Top shape: 1 1 48 64 (3072)
I0729 16:26:56.747529 29217 net.cpp:129] Top shape: 1 1 48 64 (3072)
I0729 16:26:56.747535 29217 net.cpp:129] Top shape: 1 1 48 64 (3072)
I0729 16:26:56.747542 29217 net.cpp:129] Top shape: 1 1 48 64 (3072)
I0729 16:26:56.747548 29217 net.cpp:129] Top shape: 1 1 48 64 (3072)
I0729 16:26:56.747555 29217 net.cpp:129] Top shape: 1 1 48 64 (3072)
I0729 16:26:56.747561 29217 net.cpp:129] Top shape: 1 1 48 64 (3072)
I0729 16:26:56.747568 29217 net.cpp:129] Top shape: 1 1 48 64 (3072)
I0729 16:26:56.747575 29217 net.cpp:129] Top shape: 1 1 48 64 (3072)
I0729 16:26:56.747581 29217 net.cpp:129] Top shape: 1 1 48 64 (3072)
I0729 16:26:56.747588 29217 net.cpp:129] Top shape: 1 1 48 64 (3072)
I0729 16:26:56.747596 29217 net.cpp:129] Top shape: 1 1 48 64 (3072)
I0729 16:26:56.747601 29217 net.cpp:129] Top shape: 1 1 48 64 (3072)
I0729 16:26:56.747608 29217 net.cpp:129] Top shape: 1 1 48 64 (3072)
I0729 16:26:56.747614 29217 net.cpp:129] Top shape: 1 1 48 64 (3072)
I0729 16:26:56.747622 29217 net.cpp:129] Top shape: 1 1 48 64 (3072)
I0729 16:26:56.747627 29217 net.cpp:129] Top shape: 1 1 48 64 (3072)
I0729 16:26:56.747634 29217 net.cpp:129] Top shape: 1 1 48 64 (3072)
I0729 16:26:56.747640 29217 net.cpp:129] Top shape: 1 1 48 64 (3072)
I0729 16:26:56.747648 29217 net.cpp:129] Top shape: 1 1 48 64 (3072)
I0729 16:26:56.747654 29217 net.cpp:129] Top shape: 1 1 48 64 (3072)
I0729 16:26:56.747660 29217 net.cpp:129] Top shape: 1 1 48 64 (3072)
I0729 16:26:56.747666 29217 net.cpp:129] Top shape: 1 1 48 64 (3072)
I0729 16:26:56.747673 29217 net.cpp:129] Top shape: 1 1 48 64 (3072)
I0729 16:26:56.747680 29217 net.cpp:129] Top shape: 1 1 48 64 (3072)
I0729 16:26:56.747686 29217 net.cpp:129] Top shape: 1 1 48 64 (3072)
I0729 16:26:56.747694 29217 net.cpp:129] Top shape: 1 1 48 64 (3072)
I0729 16:26:56.747700 29217 net.cpp:129] Top shape: 1 1 48 64 (3072)
I0729 16:26:56.747706 29217 net.cpp:129] Top shape: 1 1 48 64 (3072)
I0729 16:26:56.747714 29217 net.cpp:129] Top shape: 1 1 48 64 (3072)
I0729 16:26:56.747720 29217 net.cpp:129] Top shape: 1 1 48 64 (3072)
I0729 16:26:56.747726 29217 net.cpp:129] Top shape: 1 1 48 64 (3072)
I0729 16:26:56.747732 29217 net.cpp:129] Top shape: 1 1 48 64 (3072)
I0729 16:26:56.747740 29217 net.cpp:129] Top shape: 1 1 48 64 (3072)
I0729 16:26:56.747746 29217 net.cpp:129] Top shape: 1 1 48 64 (3072)
I0729 16:26:56.747752 29217 net.cpp:129] Top shape: 1 1 48 64 (3072)
I0729 16:26:56.747759 29217 net.cpp:129] Top shape: 1 1 48 64 (3072)
I0729 16:26:56.747766 29217 net.cpp:129] Top shape: 1 1 48 64 (3072)
I0729 16:26:56.747772 29217 net.cpp:129] Top shape: 1 1 48 64 (3072)
I0729 16:26:56.747778 29217 net.cpp:129] Top shape: 1 1 48 64 (3072)
I0729 16:26:56.747786 29217 net.cpp:129] Top shape: 1 1 48 64 (3072)
I0729 16:26:56.747792 29217 net.cpp:129] Top shape: 1 1 48 64 (3072)
I0729 16:26:56.747799 29217 net.cpp:129] Top shape: 1 1 48 64 (3072)
I0729 16:26:56.747805 29217 net.cpp:129] Top shape: 1 1 48 64 (3072)
I0729 16:26:56.747812 29217 net.cpp:129] Top shape: 1 1 48 64 (3072)
I0729 16:26:56.747818 29217 net.cpp:129] Top shape: 1 1 48 64 (3072)
I0729 16:26:56.747825 29217 net.cpp:129] Top shape: 1 1 48 64 (3072)
I0729 16:26:56.747831 29217 net.cpp:129] Top shape: 1 1 48 64 (3072)
I0729 16:26:56.747838 29217 net.cpp:129] Top shape: 1 1 48 64 (3072)
I0729 16:26:56.747844 29217 net.cpp:129] Top shape: 1 1 48 64 (3072)
I0729 16:26:56.747851 29217 net.cpp:129] Top shape: 1 1 48 64 (3072)
I0729 16:26:56.747858 29217 net.cpp:129] Top shape: 1 1 48 64 (3072)
I0729 16:26:56.747864 29217 net.cpp:129] Top shape: 1 1 48 64 (3072)
I0729 16:26:56.747871 29217 net.cpp:129] Top shape: 1 1 48 64 (3072)
I0729 16:26:56.747877 29217 net.cpp:129] Top shape: 1 1 48 64 (3072)
I0729 16:26:56.747884 29217 net.cpp:129] Top shape: 1 1 48 64 (3072)
I0729 16:26:56.747905 29217 net.cpp:129] Top shape: 1 1 48 64 (3072)
I0729 16:26:56.747913 29217 net.cpp:129] Top shape: 1 1 48 64 (3072)
I0729 16:26:56.747920 29217 net.cpp:129] Top shape: 1 1 48 64 (3072)
I0729 16:26:56.747926 29217 net.cpp:129] Top shape: 1 1 48 64 (3072)
I0729 16:26:56.747932 29217 net.cpp:129] Top shape: 1 1 48 64 (3072)
I0729 16:26:56.747938 29217 net.cpp:129] Top shape: 1 1 48 64 (3072)
I0729 16:26:56.747946 29217 net.cpp:129] Top shape: 1 1 48 64 (3072)
I0729 16:26:56.747951 29217 net.cpp:129] Top shape: 1 1 48 64 (3072)
I0729 16:26:56.747958 29217 net.cpp:129] Top shape: 1 1 48 64 (3072)
I0729 16:26:56.747964 29217 net.cpp:129] Top shape: 1 1 48 64 (3072)
I0729 16:26:56.747972 29217 net.cpp:129] Top shape: 1 1 48 64 (3072)
I0729 16:26:56.747977 29217 net.cpp:129] Top shape: 1 1 48 64 (3072)
I0729 16:26:56.747984 29217 net.cpp:129] Top shape: 1 1 48 64 (3072)
I0729 16:26:56.747990 29217 net.cpp:129] Top shape: 1 1 48 64 (3072)
I0729 16:26:56.747997 29217 net.cpp:129] Top shape: 1 1 48 64 (3072)
I0729 16:26:56.748003 29217 net.cpp:129] Top shape: 1 1 48 64 (3072)
I0729 16:26:56.748010 29217 net.cpp:129] Top shape: 1 1 48 64 (3072)
I0729 16:26:56.748016 29217 net.cpp:129] Top shape: 1 1 48 64 (3072)
I0729 16:26:56.748023 29217 net.cpp:129] Top shape: 1 1 48 64 (3072)
I0729 16:26:56.748029 29217 net.cpp:129] Top shape: 1 1 48 64 (3072)
I0729 16:26:56.748036 29217 net.cpp:129] Top shape: 1 1 48 64 (3072)
I0729 16:26:56.748042 29217 net.cpp:129] Top shape: 1 1 48 64 (3072)
I0729 16:26:56.748049 29217 net.cpp:129] Top shape: 1 1 48 64 (3072)
I0729 16:26:56.748055 29217 net.cpp:129] Top shape: 1 1 48 64 (3072)
I0729 16:26:56.748061 29217 net.cpp:129] Top shape: 1 1 48 64 (3072)
I0729 16:26:56.748069 29217 net.cpp:129] Top shape: 1 1 48 64 (3072)
I0729 16:26:56.748075 29217 net.cpp:129] Top shape: 1 1 48 64 (3072)
I0729 16:26:56.748081 29217 net.cpp:129] Top shape: 1 1 48 64 (3072)
I0729 16:26:56.748087 29217 net.cpp:129] Top shape: 1 1 48 64 (3072)
I0729 16:26:56.748095 29217 net.cpp:129] Top shape: 1 1 48 64 (3072)
I0729 16:26:56.748100 29217 net.cpp:129] Top shape: 1 1 48 64 (3072)
I0729 16:26:56.748107 29217 net.cpp:129] Top shape: 1 1 48 64 (3072)
I0729 16:26:56.748113 29217 net.cpp:129] Top shape: 1 1 48 64 (3072)
I0729 16:26:56.748119 29217 net.cpp:129] Top shape: 1 1 48 64 (3072)
I0729 16:26:56.748126 29217 net.cpp:129] Top shape: 1 1 48 64 (3072)
I0729 16:26:56.748132 29217 net.cpp:129] Top shape: 1 1 48 64 (3072)
I0729 16:26:56.748139 29217 net.cpp:129] Top shape: 1 1 48 64 (3072)
I0729 16:26:56.748145 29217 net.cpp:129] Top shape: 1 1 48 64 (3072)
I0729 16:26:56.748152 29217 net.cpp:129] Top shape: 1 1 48 64 (3072)
I0729 16:26:56.748158 29217 net.cpp:129] Top shape: 1 1 48 64 (3072)
I0729 16:26:56.748165 29217 net.cpp:129] Top shape: 1 1 48 64 (3072)
I0729 16:26:56.748172 29217 net.cpp:129] Top shape: 1 1 48 64 (3072)
I0729 16:26:56.748178 29217 net.cpp:129] Top shape: 1 1 48 64 (3072)
I0729 16:26:56.748184 29217 net.cpp:129] Top shape: 1 1 48 64 (3072)
I0729 16:26:56.748191 29217 net.cpp:129] Top shape: 1 1 48 64 (3072)
I0729 16:26:56.748198 29217 net.cpp:129] Top shape: 1 1 48 64 (3072)
I0729 16:26:56.748204 29217 net.cpp:129] Top shape: 1 1 48 64 (3072)
I0729 16:26:56.748210 29217 net.cpp:129] Top shape: 1 1 48 64 (3072)
I0729 16:26:56.748217 29217 net.cpp:129] Top shape: 1 1 48 64 (3072)
I0729 16:26:56.748224 29217 net.cpp:129] Top shape: 1 1 48 64 (3072)
I0729 16:26:56.748230 29217 net.cpp:129] Top shape: 1 1 48 64 (3072)
I0729 16:26:56.748236 29217 net.cpp:129] Top shape: 1 1 48 64 (3072)
I0729 16:26:56.748242 29217 net.cpp:129] Top shape: 1 1 48 64 (3072)
I0729 16:26:56.748250 29217 net.cpp:129] Top shape: 1 1 48 64 (3072)
I0729 16:26:56.748255 29217 net.cpp:129] Top shape: 1 1 48 64 (3072)
I0729 16:26:56.748262 29217 net.cpp:129] Top shape: 1 1 48 64 (3072)
I0729 16:26:56.748268 29217 net.cpp:129] Top shape: 1 1 48 64 (3072)
I0729 16:26:56.748275 29217 net.cpp:129] Top shape: 1 1 48 64 (3072)
I0729 16:26:56.748281 29217 net.cpp:129] Top shape: 1 1 48 64 (3072)
I0729 16:26:56.748288 29217 net.cpp:129] Top shape: 1 1 48 64 (3072)
I0729 16:26:56.748303 29217 net.cpp:129] Top shape: 1 1 48 64 (3072)
I0729 16:26:56.748311 29217 net.cpp:129] Top shape: 1 1 48 64 (3072)
I0729 16:26:56.748317 29217 net.cpp:129] Top shape: 1 1 48 64 (3072)
I0729 16:26:56.748323 29217 net.cpp:129] Top shape: 1 1 48 64 (3072)
I0729 16:26:56.748329 29217 net.cpp:129] Top shape: 1 1 48 64 (3072)
I0729 16:26:56.748337 29217 net.cpp:129] Top shape: 1 1 48 64 (3072)
I0729 16:26:56.748343 29217 net.cpp:129] Top shape: 1 1 48 64 (3072)
I0729 16:26:56.748349 29217 net.cpp:129] Top shape: 1 1 48 64 (3072)
I0729 16:26:56.748356 29217 net.cpp:129] Top shape: 1 1 48 64 (3072)
I0729 16:26:56.748363 29217 net.cpp:129] Top shape: 1 1 48 64 (3072)
I0729 16:26:56.748369 29217 net.cpp:129] Top shape: 1 1 48 64 (3072)
I0729 16:26:56.748375 29217 net.cpp:129] Top shape: 1 1 48 64 (3072)
I0729 16:26:56.748383 29217 net.cpp:129] Top shape: 1 1 48 64 (3072)
I0729 16:26:56.748389 29217 net.cpp:129] Top shape: 1 1 48 64 (3072)
I0729 16:26:56.748394 29217 net.cpp:129] Top shape: 1 1 48 64 (3072)
I0729 16:26:56.748401 29217 net.cpp:129] Top shape: 1 1 48 64 (3072)
I0729 16:26:56.748407 29217 net.cpp:129] Top shape: 1 1 48 64 (3072)
I0729 16:26:56.748414 29217 net.cpp:129] Top shape: 1 1 48 64 (3072)
I0729 16:26:56.748420 29217 net.cpp:129] Top shape: 1 1 48 64 (3072)
I0729 16:26:56.748427 29217 net.cpp:129] Top shape: 1 1 48 64 (3072)
I0729 16:26:56.748433 29217 net.cpp:129] Top shape: 1 1 48 64 (3072)
I0729 16:26:56.748440 29217 net.cpp:129] Top shape: 1 1 48 64 (3072)
I0729 16:26:56.748446 29217 net.cpp:129] Top shape: 1 1 48 64 (3072)
I0729 16:26:56.748453 29217 net.cpp:129] Top shape: 1 1 48 64 (3072)
I0729 16:26:56.748459 29217 net.cpp:129] Top shape: 1 1 48 64 (3072)
I0729 16:26:56.748466 29217 net.cpp:129] Top shape: 1 1 48 64 (3072)
I0729 16:26:56.748472 29217 net.cpp:129] Top shape: 1 1 48 64 (3072)
I0729 16:26:56.748478 29217 net.cpp:129] Top shape: 1 1 48 64 (3072)
I0729 16:26:56.748486 29217 net.cpp:129] Top shape: 1 1 48 64 (3072)
I0729 16:26:56.748492 29217 net.cpp:129] Top shape: 1 1 48 64 (3072)
I0729 16:26:56.748498 29217 net.cpp:129] Top shape: 1 1 48 64 (3072)
I0729 16:26:56.748504 29217 net.cpp:129] Top shape: 1 1 48 64 (3072)
I0729 16:26:56.748512 29217 net.cpp:129] Top shape: 1 1 48 64 (3072)
I0729 16:26:56.748517 29217 net.cpp:129] Top shape: 1 1 48 64 (3072)
I0729 16:26:56.748523 29217 net.cpp:129] Top shape: 1 1 48 64 (3072)
I0729 16:26:56.748530 29217 net.cpp:129] Top shape: 1 1 48 64 (3072)
I0729 16:26:56.748536 29217 net.cpp:129] Top shape: 1 1 48 64 (3072)
I0729 16:26:56.748543 29217 net.cpp:129] Top shape: 1 1 48 64 (3072)
I0729 16:26:56.748549 29217 net.cpp:129] Top shape: 1 1 48 64 (3072)
I0729 16:26:56.748556 29217 net.cpp:129] Top shape: 1 1 48 64 (3072)
I0729 16:26:56.748563 29217 net.cpp:129] Top shape: 1 1 48 64 (3072)
I0729 16:26:56.748569 29217 net.cpp:129] Top shape: 1 1 48 64 (3072)
I0729 16:26:56.748575 29217 net.cpp:129] Top shape: 1 1 48 64 (3072)
I0729 16:26:56.748581 29217 net.cpp:129] Top shape: 1 1 48 64 (3072)
I0729 16:26:56.748589 29217 net.cpp:129] Top shape: 1 1 48 64 (3072)
I0729 16:26:56.748594 29217 net.cpp:129] Top shape: 1 1 48 64 (3072)
I0729 16:26:56.748601 29217 net.cpp:129] Top shape: 1 1 48 64 (3072)
I0729 16:26:56.748607 29217 net.cpp:129] Top shape: 1 1 48 64 (3072)
I0729 16:26:56.748615 29217 net.cpp:129] Top shape: 1 1 48 64 (3072)
I0729 16:26:56.748620 29217 net.cpp:129] Top shape: 1 1 48 64 (3072)
I0729 16:26:56.748626 29217 net.cpp:129] Top shape: 1 1 48 64 (3072)
I0729 16:26:56.748633 29217 net.cpp:129] Top shape: 1 1 48 64 (3072)
I0729 16:26:56.748639 29217 net.cpp:129] Top shape: 1 1 48 64 (3072)
I0729 16:26:56.748646 29217 net.cpp:129] Top shape: 1 1 48 64 (3072)
I0729 16:26:56.748652 29217 net.cpp:129] Top shape: 1 1 48 64 (3072)
I0729 16:26:56.748658 29217 net.cpp:129] Top shape: 1 1 48 64 (3072)
I0729 16:26:56.748666 29217 net.cpp:129] Top shape: 1 1 48 64 (3072)
I0729 16:26:56.748672 29217 net.cpp:129] Top shape: 1 1 48 64 (3072)
I0729 16:26:56.748678 29217 net.cpp:129] Top shape: 1 1 48 64 (3072)
I0729 16:26:56.748699 29217 net.cpp:129] Top shape: 1 1 48 64 (3072)
I0729 16:26:56.748706 29217 net.cpp:129] Top shape: 1 1 48 64 (3072)
I0729 16:26:56.748713 29217 net.cpp:129] Top shape: 1 1 48 64 (3072)
I0729 16:26:56.748719 29217 net.cpp:129] Top shape: 1 1 48 64 (3072)
I0729 16:26:56.748726 29217 net.cpp:129] Top shape: 1 1 48 64 (3072)
I0729 16:26:56.748733 29217 net.cpp:129] Top shape: 1 1 48 64 (3072)
I0729 16:26:56.748739 29217 net.cpp:129] Top shape: 1 1 48 64 (3072)
I0729 16:26:56.748745 29217 net.cpp:129] Top shape: 1 1 48 64 (3072)
I0729 16:26:56.748752 29217 net.cpp:129] Top shape: 1 1 48 64 (3072)
I0729 16:26:56.748759 29217 net.cpp:129] Top shape: 1 1 48 64 (3072)
I0729 16:26:56.748764 29217 net.cpp:129] Top shape: 1 1 48 64 (3072)
I0729 16:26:56.748771 29217 net.cpp:129] Top shape: 1 1 48 64 (3072)
I0729 16:26:56.748777 29217 net.cpp:129] Top shape: 1 1 48 64 (3072)
I0729 16:26:56.748785 29217 net.cpp:129] Top shape: 1 1 48 64 (3072)
I0729 16:26:56.748790 29217 net.cpp:129] Top shape: 1 1 48 64 (3072)
I0729 16:26:56.748797 29217 net.cpp:129] Top shape: 1 1 48 64 (3072)
I0729 16:26:56.748803 29217 net.cpp:129] Top shape: 1 1 48 64 (3072)
I0729 16:26:56.748809 29217 net.cpp:129] Top shape: 1 1 48 64 (3072)
I0729 16:26:56.748816 29217 net.cpp:129] Top shape: 1 1 48 64 (3072)
I0729 16:26:56.748822 29217 net.cpp:129] Top shape: 1 1 48 64 (3072)
I0729 16:26:56.748829 29217 net.cpp:129] Top shape: 1 1 48 64 (3072)
I0729 16:26:56.748836 29217 net.cpp:129] Top shape: 1 1 48 64 (3072)
I0729 16:26:56.748842 29217 net.cpp:129] Top shape: 1 1 48 64 (3072)
I0729 16:26:56.748848 29217 net.cpp:129] Top shape: 1 1 48 64 (3072)
I0729 16:26:56.748855 29217 net.cpp:129] Top shape: 1 1 48 64 (3072)
I0729 16:26:56.748862 29217 net.cpp:129] Top shape: 1 1 48 64 (3072)
I0729 16:26:56.748867 29217 net.cpp:129] Top shape: 1 1 48 64 (3072)
I0729 16:26:56.748873 29217 net.cpp:129] Top shape: 1 1 48 64 (3072)
I0729 16:26:56.748879 29217 net.cpp:129] Top shape: 1 1 48 64 (3072)
I0729 16:26:56.748885 29217 net.cpp:129] Top shape: 1 1 48 64 (3072)
I0729 16:26:56.748891 29217 net.cpp:129] Top shape: 1 1 48 64 (3072)
I0729 16:26:56.748898 29217 net.cpp:129] Top shape: 1 1 48 64 (3072)
I0729 16:26:56.748903 29217 net.cpp:129] Top shape: 1 1 48 64 (3072)
I0729 16:26:56.748909 29217 net.cpp:129] Top shape: 1 1 48 64 (3072)
I0729 16:26:56.748915 29217 net.cpp:129] Top shape: 1 1 48 64 (3072)
I0729 16:26:56.748921 29217 net.cpp:129] Top shape: 1 1 48 64 (3072)
I0729 16:26:56.748927 29217 net.cpp:129] Top shape: 1 1 48 64 (3072)
I0729 16:26:56.748934 29217 net.cpp:129] Top shape: 1 1 48 64 (3072)
I0729 16:26:56.748939 29217 net.cpp:129] Top shape: 1 1 48 64 (3072)
I0729 16:26:56.748946 29217 net.cpp:129] Top shape: 1 1 48 64 (3072)
I0729 16:26:56.748952 29217 net.cpp:129] Top shape: 1 1 48 64 (3072)
I0729 16:26:56.748958 29217 net.cpp:129] Top shape: 1 1 48 64 (3072)
I0729 16:26:56.748965 29217 net.cpp:129] Top shape: 1 1 48 64 (3072)
I0729 16:26:56.748970 29217 net.cpp:129] Top shape: 1 1 48 64 (3072)
I0729 16:26:56.748976 29217 net.cpp:129] Top shape: 1 1 48 64 (3072)
I0729 16:26:56.748982 29217 net.cpp:129] Top shape: 1 1 48 64 (3072)
I0729 16:26:56.748988 29217 net.cpp:129] Top shape: 1 1 48 64 (3072)
I0729 16:26:56.748994 29217 net.cpp:129] Top shape: 1 1 48 64 (3072)
I0729 16:26:56.749001 29217 net.cpp:129] Top shape: 1 1 48 64 (3072)
I0729 16:26:56.749006 29217 net.cpp:129] Top shape: 1 1 48 64 (3072)
I0729 16:26:56.749012 29217 net.cpp:129] Top shape: 1 1 48 64 (3072)
I0729 16:26:56.749018 29217 net.cpp:129] Top shape: 1 1 48 64 (3072)
I0729 16:26:56.749024 29217 net.cpp:129] Top shape: 1 1 48 64 (3072)
I0729 16:26:56.749032 29217 net.cpp:129] Top shape: 1 1 48 64 (3072)
I0729 16:26:56.749037 29217 net.cpp:129] Top shape: 1 1 48 64 (3072)
I0729 16:26:56.749043 29217 net.cpp:129] Top shape: 1 1 48 64 (3072)
I0729 16:26:56.749049 29217 net.cpp:129] Top shape: 1 1 48 64 (3072)
I0729 16:26:56.749055 29217 net.cpp:129] Top shape: 1 1 48 64 (3072)
I0729 16:26:56.749060 29217 net.cpp:129] Top shape: 1 1 48 64 (3072)
I0729 16:26:56.749076 29217 net.cpp:129] Top shape: 1 1 48 64 (3072)
I0729 16:26:56.749083 29217 net.cpp:129] Top shape: 1 1 48 64 (3072)
I0729 16:26:56.749089 29217 net.cpp:129] Top shape: 1 1 48 64 (3072)
I0729 16:26:56.749095 29217 net.cpp:129] Top shape: 1 1 48 64 (3072)
I0729 16:26:56.749101 29217 net.cpp:129] Top shape: 1 1 48 64 (3072)
I0729 16:26:56.749107 29217 net.cpp:129] Top shape: 1 1 48 64 (3072)
I0729 16:26:56.749114 29217 net.cpp:129] Top shape: 1 1 48 64 (3072)
I0729 16:26:56.749119 29217 net.cpp:129] Top shape: 1 1 48 64 (3072)
I0729 16:26:56.749125 29217 net.cpp:129] Top shape: 1 1 48 64 (3072)
I0729 16:26:56.749131 29217 net.cpp:129] Top shape: 1 1 48 64 (3072)
I0729 16:26:56.764425 29217 net.cpp:129] Top shape: 1 1 48 64 (3072)
I0729 16:26:56.764438 29217 net.cpp:129] Top shape: 1 1 48 64 (3072)
I0729 16:26:56.764446 29217 net.cpp:129] Top shape: 1 1 48 64 (3072)
I0729 16:26:56.764451 29217 net.cpp:129] Top shape: 1 1 48 64 (3072)
I0729 16:26:56.764458 29217 net.cpp:129] Top shape: 1 1 48 64 (3072)
I0729 16:26:56.764467 29217 net.cpp:129] Top shape: 1 1 48 64 (3072)
I0729 16:26:56.764472 29217 net.cpp:129] Top shape: 1 1 48 64 (3072)
I0729 16:26:56.764479 29217 net.cpp:129] Top shape: 1 1 48 64 (3072)
I0729 16:26:56.764495 29217 net.cpp:129] Top shape: 1 1 48 64 (3072)
I0729 16:26:56.764505 29217 net.cpp:129] Top shape: 1 1 48 64 (3072)
I0729 16:26:56.764514 29217 net.cpp:129] Top shape: 1 1 48 64 (3072)
I0729 16:26:56.764526 29217 net.cpp:129] Top shape: 1 1 48 64 (3072)
I0729 16:26:56.764535 29217 net.cpp:129] Top shape: 1 1 48 64 (3072)
I0729 16:26:56.764544 29217 net.cpp:129] Top shape: 1 1 48 64 (3072)
I0729 16:26:56.764554 29217 net.cpp:129] Top shape: 1 1 48 64 (3072)
I0729 16:26:56.764562 29217 net.cpp:129] Top shape: 1 1 48 64 (3072)
I0729 16:26:56.764571 29217 net.cpp:129] Top shape: 1 1 48 64 (3072)
I0729 16:26:56.764583 29217 net.cpp:129] Top shape: 1 1 48 64 (3072)
I0729 16:26:56.764592 29217 net.cpp:129] Top shape: 1 1 48 64 (3072)
I0729 16:26:56.764605 29217 net.cpp:129] Top shape: 1 1 48 64 (3072)
I0729 16:26:56.764613 29217 net.cpp:129] Top shape: 1 1 48 64 (3072)
I0729 16:26:56.764626 29217 net.cpp:129] Top shape: 1 1 48 64 (3072)
I0729 16:26:56.764634 29217 net.cpp:129] Top shape: 1 1 48 64 (3072)
I0729 16:26:56.764647 29217 net.cpp:129] Top shape: 1 1 48 64 (3072)
I0729 16:26:56.764655 29217 net.cpp:129] Top shape: 1 1 48 64 (3072)
I0729 16:26:56.764664 29217 net.cpp:129] Top shape: 1 1 48 64 (3072)
I0729 16:26:56.764677 29217 net.cpp:129] Top shape: 1 1 48 64 (3072)
I0729 16:26:56.764685 29217 net.cpp:129] Top shape: 1 1 48 64 (3072)
I0729 16:26:56.764694 29217 net.cpp:129] Top shape: 1 1 48 64 (3072)
I0729 16:26:56.764704 29217 net.cpp:129] Top shape: 1 1 48 64 (3072)
I0729 16:26:56.764714 29217 net.cpp:129] Top shape: 1 1 48 64 (3072)
I0729 16:26:56.764724 29217 net.cpp:129] Top shape: 1 1 48 64 (3072)
I0729 16:26:56.764734 29217 net.cpp:129] Top shape: 1 1 48 64 (3072)
I0729 16:26:56.764744 29217 net.cpp:129] Top shape: 1 1 48 64 (3072)
I0729 16:26:56.764752 29217 net.cpp:129] Top shape: 1 1 48 64 (3072)
I0729 16:26:56.764761 29217 net.cpp:129] Top shape: 1 1 48 64 (3072)
I0729 16:26:56.764772 29217 net.cpp:129] Top shape: 1 1 48 64 (3072)
I0729 16:26:56.764781 29217 net.cpp:129] Top shape: 1 1 48 64 (3072)
I0729 16:26:56.764791 29217 net.cpp:129] Top shape: 1 1 48 64 (3072)
I0729 16:26:56.764802 29217 net.cpp:129] Top shape: 1 1 48 64 (3072)
I0729 16:26:56.764812 29217 net.cpp:129] Top shape: 1 1 48 64 (3072)
I0729 16:26:56.764822 29217 net.cpp:129] Top shape: 1 1 48 64 (3072)
I0729 16:26:56.764830 29217 net.cpp:129] Top shape: 1 1 48 64 (3072)
I0729 16:26:56.764840 29217 net.cpp:129] Top shape: 1 1 48 64 (3072)
I0729 16:26:56.764850 29217 net.cpp:129] Top shape: 1 1 48 64 (3072)
I0729 16:26:56.764859 29217 net.cpp:129] Top shape: 1 1 48 64 (3072)
I0729 16:26:56.764871 29217 net.cpp:129] Top shape: 1 1 48 64 (3072)
I0729 16:26:56.764880 29217 net.cpp:129] Top shape: 1 1 48 64 (3072)
I0729 16:26:56.764889 29217 net.cpp:129] Top shape: 1 1 48 64 (3072)
I0729 16:26:56.764897 29217 net.cpp:129] Top shape: 1 1 48 64 (3072)
I0729 16:26:56.764925 29217 net.cpp:129] Top shape: 1 1 48 64 (3072)
I0729 16:26:56.764935 29217 net.cpp:129] Top shape: 1 1 48 64 (3072)
I0729 16:26:56.764943 29217 net.cpp:129] Top shape: 1 1 48 64 (3072)
I0729 16:26:56.764952 29217 net.cpp:129] Top shape: 1 1 48 64 (3072)
I0729 16:26:56.764963 29217 net.cpp:129] Top shape: 1 1 48 64 (3072)
I0729 16:26:56.764972 29217 net.cpp:129] Top shape: 1 1 48 64 (3072)
I0729 16:26:56.764981 29217 net.cpp:129] Top shape: 1 1 48 64 (3072)
I0729 16:26:56.764991 29217 net.cpp:129] Top shape: 1 1 48 64 (3072)
I0729 16:26:56.765002 29217 net.cpp:129] Top shape: 1 1 48 64 (3072)
I0729 16:26:56.765012 29217 net.cpp:129] Top shape: 1 1 48 64 (3072)
I0729 16:26:56.765020 29217 net.cpp:129] Top shape: 1 1 48 64 (3072)
I0729 16:26:56.765031 29217 net.cpp:129] Top shape: 1 1 48 64 (3072)
I0729 16:26:56.765040 29217 net.cpp:129] Top shape: 1 1 48 64 (3072)
I0729 16:26:56.765049 29217 net.cpp:129] Top shape: 1 1 48 64 (3072)
I0729 16:26:56.765063 29217 net.cpp:129] Top shape: 1 1 48 64 (3072)
I0729 16:26:56.765071 29217 net.cpp:129] Top shape: 1 1 48 64 (3072)
I0729 16:26:56.765080 29217 net.cpp:129] Top shape: 1 1 48 64 (3072)
I0729 16:26:56.765089 29217 net.cpp:129] Top shape: 1 1 48 64 (3072)
I0729 16:26:56.765099 29217 net.cpp:129] Top shape: 1 1 48 64 (3072)
I0729 16:26:56.765107 29217 net.cpp:129] Top shape: 1 1 48 64 (3072)
I0729 16:26:56.765116 29217 net.cpp:129] Top shape: 1 1 48 64 (3072)
I0729 16:26:56.765125 29217 net.cpp:129] Top shape: 1 1 48 64 (3072)
I0729 16:26:56.765137 29217 net.cpp:129] Top shape: 1 1 48 64 (3072)
I0729 16:26:56.765148 29217 net.cpp:129] Top shape: 1 1 48 64 (3072)
I0729 16:26:56.765157 29217 net.cpp:129] Top shape: 1 1 48 64 (3072)
I0729 16:26:56.765167 29217 net.cpp:129] Top shape: 1 1 48 64 (3072)
I0729 16:26:56.765178 29217 net.cpp:129] Top shape: 1 1 48 64 (3072)
I0729 16:26:56.765187 29217 net.cpp:129] Top shape: 1 1 48 64 (3072)
I0729 16:26:56.765197 29217 net.cpp:129] Top shape: 1 1 48 64 (3072)
I0729 16:26:56.765205 29217 net.cpp:129] Top shape: 1 1 48 64 (3072)
I0729 16:26:56.765216 29217 net.cpp:129] Top shape: 1 1 48 64 (3072)
I0729 16:26:56.765225 29217 net.cpp:129] Top shape: 1 1 48 64 (3072)
I0729 16:26:56.765234 29217 net.cpp:129] Top shape: 1 1 48 64 (3072)
I0729 16:26:56.765245 29217 net.cpp:129] Top shape: 1 1 48 64 (3072)
I0729 16:26:56.765254 29217 net.cpp:129] Top shape: 1 1 48 64 (3072)
I0729 16:26:56.765264 29217 net.cpp:129] Top shape: 1 1 48 64 (3072)
I0729 16:26:56.765275 29217 net.cpp:129] Top shape: 1 1 48 64 (3072)
I0729 16:26:56.765283 29217 net.cpp:129] Top shape: 1 1 48 64 (3072)
I0729 16:26:56.765292 29217 net.cpp:129] Top shape: 1 1 48 64 (3072)
I0729 16:26:56.765301 29217 net.cpp:129] Top shape: 1 1 48 64 (3072)
I0729 16:26:56.765326 29217 net.cpp:129] Top shape: 1 1 48 64 (3072)
I0729 16:26:56.765336 29217 net.cpp:129] Top shape: 1 1 48 64 (3072)
I0729 16:26:56.765344 29217 net.cpp:129] Top shape: 1 1 48 64 (3072)
I0729 16:26:56.765353 29217 net.cpp:129] Top shape: 1 1 48 64 (3072)
I0729 16:26:56.765367 29217 net.cpp:129] Top shape: 1 1 48 64 (3072)
I0729 16:26:56.765375 29217 net.cpp:129] Top shape: 1 1 48 64 (3072)
I0729 16:26:56.765384 29217 net.cpp:129] Top shape: 1 1 48 64 (3072)
I0729 16:26:56.765393 29217 net.cpp:129] Top shape: 1 1 48 64 (3072)
I0729 16:26:56.765403 29217 net.cpp:129] Top shape: 1 1 48 64 (3072)
I0729 16:26:56.765409 29217 net.cpp:129] Top shape: 1 1 48 64 (3072)
I0729 16:26:56.765419 29217 net.cpp:129] Top shape: 1 1 48 64 (3072)
I0729 16:26:56.765424 29217 net.cpp:129] Top shape: 1 1 48 64 (3072)
I0729 16:26:56.765431 29217 net.cpp:129] Top shape: 1 1 48 64 (3072)
I0729 16:26:56.765437 29217 net.cpp:129] Top shape: 1 1 48 64 (3072)
I0729 16:26:56.765444 29217 net.cpp:129] Top shape: 1 1 48 64 (3072)
I0729 16:26:56.765451 29217 net.cpp:129] Top shape: 1 1 48 64 (3072)
I0729 16:26:56.765457 29217 net.cpp:129] Top shape: 1 1 48 64 (3072)
I0729 16:26:56.765465 29217 net.cpp:129] Top shape: 1 1 48 64 (3072)
I0729 16:26:56.765471 29217 net.cpp:129] Top shape: 1 1 48 64 (3072)
I0729 16:26:56.765486 29217 net.cpp:129] Top shape: 1 1 48 64 (3072)
I0729 16:26:56.765493 29217 net.cpp:129] Top shape: 1 1 48 64 (3072)
I0729 16:26:56.765501 29217 net.cpp:129] Top shape: 1 1 48 64 (3072)
I0729 16:26:56.765507 29217 net.cpp:129] Top shape: 1 1 48 64 (3072)
I0729 16:26:56.765513 29217 net.cpp:129] Top shape: 1 1 48 64 (3072)
I0729 16:26:56.765521 29217 net.cpp:129] Top shape: 1 1 48 64 (3072)
I0729 16:26:56.765527 29217 net.cpp:129] Top shape: 1 1 48 64 (3072)
I0729 16:26:56.765533 29217 net.cpp:129] Top shape: 1 1 48 64 (3072)
I0729 16:26:56.765539 29217 net.cpp:129] Top shape: 1 1 48 64 (3072)
I0729 16:26:56.765547 29217 net.cpp:129] Top shape: 1 1 48 64 (3072)
I0729 16:26:56.765552 29217 net.cpp:129] Top shape: 1 1 48 64 (3072)
I0729 16:26:56.765559 29217 net.cpp:129] Top shape: 1 1 48 64 (3072)
I0729 16:26:56.765565 29217 net.cpp:129] Top shape: 1 1 48 64 (3072)
I0729 16:26:56.765573 29217 net.cpp:129] Top shape: 1 1 48 64 (3072)
I0729 16:26:56.765578 29217 net.cpp:129] Top shape: 1 1 48 64 (3072)
I0729 16:26:56.765585 29217 net.cpp:129] Top shape: 1 1 48 64 (3072)
I0729 16:26:56.765591 29217 net.cpp:129] Top shape: 1 1 48 64 (3072)
I0729 16:26:56.765599 29217 net.cpp:129] Top shape: 1 1 48 64 (3072)
I0729 16:26:56.765605 29217 net.cpp:129] Top shape: 1 1 48 64 (3072)
I0729 16:26:56.765611 29217 net.cpp:129] Top shape: 1 1 48 64 (3072)
I0729 16:26:56.765617 29217 net.cpp:129] Top shape: 1 1 48 64 (3072)
I0729 16:26:56.765625 29217 net.cpp:129] Top shape: 1 1 48 64 (3072)
I0729 16:26:56.765630 29217 net.cpp:129] Top shape: 1 1 48 64 (3072)
I0729 16:26:56.765637 29217 net.cpp:129] Top shape: 1 1 48 64 (3072)
I0729 16:26:56.765645 29217 net.cpp:129] Top shape: 1 1 48 64 (3072)
I0729 16:26:56.765650 29217 net.cpp:129] Top shape: 1 1 48 64 (3072)
I0729 16:26:56.765657 29217 net.cpp:129] Top shape: 1 1 48 64 (3072)
I0729 16:26:56.765663 29217 net.cpp:129] Top shape: 1 1 48 64 (3072)
I0729 16:26:56.765669 29217 net.cpp:129] Top shape: 1 1 48 64 (3072)
I0729 16:26:56.765676 29217 net.cpp:129] Top shape: 1 1 48 64 (3072)
I0729 16:26:56.765682 29217 net.cpp:129] Top shape: 1 1 48 64 (3072)
I0729 16:26:56.765689 29217 net.cpp:129] Top shape: 1 1 48 64 (3072)
I0729 16:26:56.765697 29217 net.cpp:129] Top shape: 1 1 48 64 (3072)
I0729 16:26:56.765702 29217 net.cpp:129] Top shape: 1 1 48 64 (3072)
I0729 16:26:56.765709 29217 net.cpp:129] Top shape: 1 1 48 64 (3072)
I0729 16:26:56.765715 29217 net.cpp:129] Top shape: 1 1 48 64 (3072)
I0729 16:26:56.765722 29217 net.cpp:129] Top shape: 1 1 48 64 (3072)
I0729 16:26:56.765728 29217 net.cpp:129] Top shape: 1 1 48 64 (3072)
I0729 16:26:56.765735 29217 net.cpp:129] Top shape: 1 1 48 64 (3072)
I0729 16:26:56.765743 29217 net.cpp:129] Top shape: 1 1 48 64 (3072)
I0729 16:26:56.765748 29217 net.cpp:129] Top shape: 1 1 48 64 (3072)
I0729 16:26:56.765755 29217 net.cpp:129] Top shape: 1 1 48 64 (3072)
I0729 16:26:56.765761 29217 net.cpp:129] Top shape: 1 1 48 64 (3072)
I0729 16:26:56.765769 29217 net.cpp:129] Top shape: 1 1 48 64 (3072)
I0729 16:26:56.765774 29217 net.cpp:129] Top shape: 1 1 48 64 (3072)
I0729 16:26:56.765781 29217 net.cpp:129] Top shape: 1 1 48 64 (3072)
I0729 16:26:56.765787 29217 net.cpp:129] Top shape: 1 1 48 64 (3072)
I0729 16:26:56.765794 29217 net.cpp:129] Top shape: 1 1 48 64 (3072)
I0729 16:26:56.765801 29217 net.cpp:129] Top shape: 1 1 48 64 (3072)
I0729 16:26:56.765807 29217 net.cpp:129] Top shape: 1 1 48 64 (3072)
I0729 16:26:56.765815 29217 net.cpp:129] Top shape: 1 1 48 64 (3072)
I0729 16:26:56.765820 29217 net.cpp:129] Top shape: 1 1 48 64 (3072)
I0729 16:26:56.765827 29217 net.cpp:129] Top shape: 1 1 48 64 (3072)
I0729 16:26:56.765833 29217 net.cpp:129] Top shape: 1 1 48 64 (3072)
I0729 16:26:56.765841 29217 net.cpp:129] Top shape: 1 1 48 64 (3072)
I0729 16:26:56.765849 29217 net.cpp:129] Top shape: 1 1 48 64 (3072)
I0729 16:26:56.765857 29217 net.cpp:129] Top shape: 1 1 48 64 (3072)
I0729 16:26:56.765864 29217 net.cpp:129] Top shape: 1 1 48 64 (3072)
I0729 16:26:56.765871 29217 net.cpp:129] Top shape: 1 1 48 64 (3072)
I0729 16:26:56.765884 29217 net.cpp:129] Top shape: 1 1 48 64 (3072)
I0729 16:26:56.765892 29217 net.cpp:129] Top shape: 1 1 48 64 (3072)
I0729 16:26:56.765898 29217 net.cpp:129] Top shape: 1 1 48 64 (3072)
I0729 16:26:56.765904 29217 net.cpp:129] Top shape: 1 1 48 64 (3072)
I0729 16:26:56.765911 29217 net.cpp:129] Top shape: 1 1 48 64 (3072)
I0729 16:26:56.765918 29217 net.cpp:129] Top shape: 1 1 48 64 (3072)
I0729 16:26:56.765924 29217 net.cpp:129] Top shape: 1 1 48 64 (3072)
I0729 16:26:56.765933 29217 net.cpp:129] Top shape: 1 1 48 64 (3072)
I0729 16:26:56.765941 29217 net.cpp:129] Top shape: 1 1 48 64 (3072)
I0729 16:26:56.765949 29217 net.cpp:129] Top shape: 1 1 48 64 (3072)
I0729 16:26:56.765956 29217 net.cpp:129] Top shape: 1 1 48 64 (3072)
I0729 16:26:56.765964 29217 net.cpp:129] Top shape: 1 1 48 64 (3072)
I0729 16:26:56.765970 29217 net.cpp:129] Top shape: 1 1 48 64 (3072)
I0729 16:26:56.765977 29217 net.cpp:129] Top shape: 1 1 48 64 (3072)
I0729 16:26:56.765985 29217 net.cpp:129] Top shape: 1 1 48 64 (3072)
I0729 16:26:56.765990 29217 net.cpp:129] Top shape: 1 1 48 64 (3072)
I0729 16:26:56.765997 29217 net.cpp:129] Top shape: 1 1 48 64 (3072)
I0729 16:26:56.766005 29217 net.cpp:129] Top shape: 1 1 48 64 (3072)
I0729 16:26:56.766010 29217 net.cpp:129] Top shape: 1 1 48 64 (3072)
I0729 16:26:56.766017 29217 net.cpp:129] Top shape: 1 1 48 64 (3072)
I0729 16:26:56.766023 29217 net.cpp:129] Top shape: 1 1 48 64 (3072)
I0729 16:26:56.766031 29217 net.cpp:129] Top shape: 1 1 48 64 (3072)
I0729 16:26:56.766036 29217 net.cpp:129] Top shape: 1 1 48 64 (3072)
I0729 16:26:56.766043 29217 net.cpp:129] Top shape: 1 1 48 64 (3072)
I0729 16:26:56.766049 29217 net.cpp:129] Top shape: 1 1 48 64 (3072)
I0729 16:26:56.766057 29217 net.cpp:129] Top shape: 1 1 48 64 (3072)
I0729 16:26:56.766062 29217 net.cpp:129] Top shape: 1 1 48 64 (3072)
I0729 16:26:56.766069 29217 net.cpp:129] Top shape: 1 1 48 64 (3072)
I0729 16:26:56.766077 29217 net.cpp:129] Top shape: 1 1 48 64 (3072)
I0729 16:26:56.766083 29217 net.cpp:129] Top shape: 1 1 48 64 (3072)
I0729 16:26:56.766088 29217 net.cpp:129] Top shape: 1 1 48 64 (3072)
I0729 16:26:56.766093 29217 net.cpp:129] Top shape: 1 1 48 64 (3072)
I0729 16:26:56.766098 29217 net.cpp:129] Top shape: 1 1 48 64 (3072)
I0729 16:26:56.766103 29217 net.cpp:129] Top shape: 1 1 48 64 (3072)
I0729 16:26:56.766108 29217 net.cpp:129] Top shape: 1 1 48 64 (3072)
I0729 16:26:56.766113 29217 net.cpp:129] Top shape: 1 1 48 64 (3072)
I0729 16:26:56.766118 29217 net.cpp:129] Top shape: 1 1 48 64 (3072)
I0729 16:26:56.766122 29217 net.cpp:129] Top shape: 1 1 48 64 (3072)
I0729 16:26:56.766127 29217 net.cpp:129] Top shape: 1 1 48 64 (3072)
I0729 16:26:56.766132 29217 net.cpp:129] Top shape: 1 1 48 64 (3072)
I0729 16:26:56.766139 29217 net.cpp:129] Top shape: 1 1 48 64 (3072)
I0729 16:26:56.766145 29217 net.cpp:129] Top shape: 1 1 48 64 (3072)
I0729 16:26:56.766151 29217 net.cpp:129] Top shape: 1 1 48 64 (3072)
I0729 16:26:56.766157 29217 net.cpp:129] Top shape: 1 1 48 64 (3072)
I0729 16:26:56.766165 29217 net.cpp:129] Top shape: 1 1 48 64 (3072)
I0729 16:26:56.766170 29217 net.cpp:129] Top shape: 1 1 48 64 (3072)
I0729 16:26:56.766177 29217 net.cpp:129] Top shape: 1 1 48 64 (3072)
I0729 16:26:56.766183 29217 net.cpp:129] Top shape: 1 1 48 64 (3072)
I0729 16:26:56.766189 29217 net.cpp:129] Top shape: 1 1 48 64 (3072)
I0729 16:26:56.766196 29217 net.cpp:129] Top shape: 1 1 48 64 (3072)
I0729 16:26:56.766202 29217 net.cpp:129] Top shape: 1 1 48 64 (3072)
I0729 16:26:56.766208 29217 net.cpp:129] Top shape: 1 1 48 64 (3072)
I0729 16:26:56.766216 29217 net.cpp:129] Top shape: 1 1 48 64 (3072)
I0729 16:26:56.766222 29217 net.cpp:129] Top shape: 1 1 48 64 (3072)
I0729 16:26:56.766228 29217 net.cpp:129] Top shape: 1 1 48 64 (3072)
I0729 16:26:56.766234 29217 net.cpp:129] Top shape: 1 1 48 64 (3072)
I0729 16:26:56.766240 29217 net.cpp:129] Top shape: 1 1 48 64 (3072)
I0729 16:26:56.766247 29217 net.cpp:129] Top shape: 1 1 48 64 (3072)
I0729 16:26:56.766253 29217 net.cpp:129] Top shape: 1 1 48 64 (3072)
I0729 16:26:56.766260 29217 net.cpp:129] Top shape: 1 1 48 64 (3072)
I0729 16:26:56.766274 29217 net.cpp:129] Top shape: 1 1 48 64 (3072)
I0729 16:26:56.766281 29217 net.cpp:129] Top shape: 1 1 48 64 (3072)
I0729 16:26:56.766288 29217 net.cpp:129] Top shape: 1 1 48 64 (3072)
I0729 16:26:56.766294 29217 net.cpp:129] Top shape: 1 1 48 64 (3072)
I0729 16:26:56.766300 29217 net.cpp:129] Top shape: 1 1 48 64 (3072)
I0729 16:26:56.766306 29217 net.cpp:129] Top shape: 1 1 48 64 (3072)
I0729 16:26:56.766314 29217 net.cpp:129] Top shape: 1 1 48 64 (3072)
I0729 16:26:56.766319 29217 net.cpp:129] Top shape: 1 1 48 64 (3072)
I0729 16:26:56.766325 29217 net.cpp:129] Top shape: 1 1 48 64 (3072)
I0729 16:26:56.766332 29217 net.cpp:129] Top shape: 1 1 48 64 (3072)
I0729 16:26:56.766338 29217 net.cpp:129] Top shape: 1 1 48 64 (3072)
I0729 16:26:56.766345 29217 net.cpp:129] Top shape: 1 1 48 64 (3072)
I0729 16:26:56.766351 29217 net.cpp:129] Top shape: 1 1 48 64 (3072)
I0729 16:26:56.766358 29217 net.cpp:129] Top shape: 1 1 48 64 (3072)
I0729 16:26:56.766365 29217 net.cpp:129] Top shape: 1 1 48 64 (3072)
I0729 16:26:56.766371 29217 net.cpp:129] Top shape: 1 1 48 64 (3072)
I0729 16:26:56.766377 29217 net.cpp:129] Top shape: 1 1 48 64 (3072)
I0729 16:26:56.766383 29217 net.cpp:129] Top shape: 1 1 48 64 (3072)
I0729 16:26:56.766389 29217 net.cpp:129] Top shape: 1 1 48 64 (3072)
I0729 16:26:56.766396 29217 net.cpp:129] Top shape: 1 1 48 64 (3072)
I0729 16:26:56.766402 29217 net.cpp:129] Top shape: 1 1 48 64 (3072)
I0729 16:26:56.766409 29217 net.cpp:129] Top shape: 1 1 48 64 (3072)
I0729 16:26:56.766415 29217 net.cpp:129] Top shape: 1 1 48 64 (3072)
I0729 16:26:56.766422 29217 net.cpp:129] Top shape: 1 1 48 64 (3072)
I0729 16:26:56.766428 29217 net.cpp:129] Top shape: 1 1 48 64 (3072)
I0729 16:26:56.766434 29217 net.cpp:129] Top shape: 1 1 48 64 (3072)
I0729 16:26:56.766441 29217 net.cpp:129] Top shape: 1 1 48 64 (3072)
I0729 16:26:56.766448 29217 net.cpp:129] Top shape: 1 1 48 64 (3072)
I0729 16:26:56.766453 29217 net.cpp:129] Top shape: 1 1 48 64 (3072)
I0729 16:26:56.766460 29217 net.cpp:129] Top shape: 1 1 48 64 (3072)
I0729 16:26:56.766466 29217 net.cpp:129] Top shape: 1 1 48 64 (3072)
I0729 16:26:56.766474 29217 net.cpp:129] Top shape: 1 1 48 64 (3072)
I0729 16:26:56.766479 29217 net.cpp:129] Top shape: 1 1 48 64 (3072)
I0729 16:26:56.766487 29217 net.cpp:129] Top shape: 1 1 48 64 (3072)
I0729 16:26:56.766494 29217 net.cpp:129] Top shape: 1 1 48 64 (3072)
I0729 16:26:56.766499 29217 net.cpp:137] Memory required for data: 8663040
I0729 16:26:56.766506 29217 layer_factory.hpp:77] Creating layer conv1_1
I0729 16:26:56.766531 29217 net.cpp:84] Creating Layer conv1_1
I0729 16:26:56.766541 29217 net.cpp:406] conv1_1 <- data
I0729 16:26:56.766552 29217 net.cpp:380] conv1_1 -> conv1_1
I0729 16:26:57.006485 29217 net.cpp:122] Setting up conv1_1
I0729 16:26:57.006589 29217 net.cpp:129] Top shape: 1 64 384 512 (12582912)
I0729 16:26:57.006631 29217 net.cpp:137] Memory required for data: 58994688
I0729 16:26:57.006691 29217 layer_factory.hpp:77] Creating layer relu1_1
I0729 16:26:57.006742 29217 net.cpp:84] Creating Layer relu1_1
I0729 16:26:57.006785 29217 net.cpp:406] relu1_1 <- conv1_1
I0729 16:26:57.006829 29217 net.cpp:367] relu1_1 -> conv1_1 (in-place)
I0729 16:26:57.007050 29217 net.cpp:122] Setting up relu1_1
I0729 16:26:57.007104 29217 net.cpp:129] Top shape: 1 64 384 512 (12582912)
I0729 16:26:57.007144 29217 net.cpp:137] Memory required for data: 109326336
I0729 16:26:57.007184 29217 layer_factory.hpp:77] Creating layer conv1_2
I0729 16:26:57.007232 29217 net.cpp:84] Creating Layer conv1_2
I0729 16:26:57.007274 29217 net.cpp:406] conv1_2 <- conv1_1
I0729 16:26:57.007318 29217 net.cpp:380] conv1_2 -> conv1_2
I0729 16:26:57.010787 29217 net.cpp:122] Setting up conv1_2
I0729 16:26:57.010851 29217 net.cpp:129] Top shape: 1 64 384 512 (12582912)
I0729 16:26:57.010893 29217 net.cpp:137] Memory required for data: 159657984
I0729 16:26:57.010938 29217 layer_factory.hpp:77] Creating layer relu1_2
I0729 16:26:57.010982 29217 net.cpp:84] Creating Layer relu1_2
I0729 16:26:57.011023 29217 net.cpp:406] relu1_2 <- conv1_2
I0729 16:26:57.011153 29217 net.cpp:367] relu1_2 -> conv1_2 (in-place)
I0729 16:26:57.011374 29217 net.cpp:122] Setting up relu1_2
I0729 16:26:57.011428 29217 net.cpp:129] Top shape: 1 64 384 512 (12582912)
I0729 16:26:57.011468 29217 net.cpp:137] Memory required for data: 209989632
I0729 16:26:57.011507 29217 layer_factory.hpp:77] Creating layer pool1
I0729 16:26:57.011550 29217 net.cpp:84] Creating Layer pool1
I0729 16:26:57.011590 29217 net.cpp:406] pool1 <- conv1_2
I0729 16:26:57.011634 29217 net.cpp:380] pool1 -> pool1
I0729 16:26:57.011730 29217 net.cpp:122] Setting up pool1
I0729 16:26:57.011780 29217 net.cpp:129] Top shape: 1 64 192 256 (3145728)
I0729 16:26:57.011819 29217 net.cpp:137] Memory required for data: 222572544
I0729 16:26:57.011857 29217 layer_factory.hpp:77] Creating layer conv2_1
I0729 16:26:57.011906 29217 net.cpp:84] Creating Layer conv2_1
I0729 16:26:57.011948 29217 net.cpp:406] conv2_1 <- pool1
I0729 16:26:57.011992 29217 net.cpp:380] conv2_1 -> conv2_1
I0729 16:26:57.015365 29217 net.cpp:122] Setting up conv2_1
I0729 16:26:57.015429 29217 net.cpp:129] Top shape: 1 128 192 256 (6291456)
I0729 16:26:57.015470 29217 net.cpp:137] Memory required for data: 247738368
I0729 16:26:57.015517 29217 layer_factory.hpp:77] Creating layer relu2_1
I0729 16:26:57.015527 29217 net.cpp:84] Creating Layer relu2_1
I0729 16:26:57.015537 29217 net.cpp:406] relu2_1 <- conv2_1
I0729 16:26:57.015552 29217 net.cpp:367] relu2_1 -> conv2_1 (in-place)
I0729 16:26:57.016185 29217 net.cpp:122] Setting up relu2_1
I0729 16:26:57.016247 29217 net.cpp:129] Top shape: 1 128 192 256 (6291456)
I0729 16:26:57.016288 29217 net.cpp:137] Memory required for data: 272904192
I0729 16:26:57.016326 29217 layer_factory.hpp:77] Creating layer conv2_2
I0729 16:26:57.016372 29217 net.cpp:84] Creating Layer conv2_2
I0729 16:26:57.016414 29217 net.cpp:406] conv2_2 <- conv2_1
I0729 16:26:57.016458 29217 net.cpp:380] conv2_2 -> conv2_2
I0729 16:26:57.021610 29217 net.cpp:122] Setting up conv2_2
I0729 16:26:57.021677 29217 net.cpp:129] Top shape: 1 128 192 256 (6291456)
I0729 16:26:57.021719 29217 net.cpp:137] Memory required for data: 298070016
I0729 16:26:57.021761 29217 layer_factory.hpp:77] Creating layer relu2_2
I0729 16:26:57.021803 29217 net.cpp:84] Creating Layer relu2_2
I0729 16:26:57.021843 29217 net.cpp:406] relu2_2 <- conv2_2
I0729 16:26:57.021886 29217 net.cpp:367] relu2_2 -> conv2_2 (in-place)
I0729 16:26:57.022111 29217 net.cpp:122] Setting up relu2_2
I0729 16:26:57.022167 29217 net.cpp:129] Top shape: 1 128 192 256 (6291456)
I0729 16:26:57.022207 29217 net.cpp:137] Memory required for data: 323235840
I0729 16:26:57.022245 29217 layer_factory.hpp:77] Creating layer pool2
I0729 16:26:57.022287 29217 net.cpp:84] Creating Layer pool2
I0729 16:26:57.022327 29217 net.cpp:406] pool2 <- conv2_2
I0729 16:26:57.022372 29217 net.cpp:380] pool2 -> pool2
I0729 16:26:57.022456 29217 net.cpp:122] Setting up pool2
I0729 16:26:57.022505 29217 net.cpp:129] Top shape: 1 128 96 128 (1572864)
I0729 16:26:57.022545 29217 net.cpp:137] Memory required for data: 329527296
I0729 16:26:57.022583 29217 layer_factory.hpp:77] Creating layer conv3_1
I0729 16:26:57.022630 29217 net.cpp:84] Creating Layer conv3_1
I0729 16:26:57.022672 29217 net.cpp:406] conv3_1 <- pool2
I0729 16:26:57.022716 29217 net.cpp:380] conv3_1 -> conv3_1
I0729 16:26:57.029039 29217 net.cpp:122] Setting up conv3_1
I0729 16:26:57.029103 29217 net.cpp:129] Top shape: 1 256 96 128 (3145728)
I0729 16:26:57.029142 29217 net.cpp:137] Memory required for data: 342110208
I0729 16:26:57.029189 29217 layer_factory.hpp:77] Creating layer relu3_1
I0729 16:26:57.029233 29217 net.cpp:84] Creating Layer relu3_1
I0729 16:26:57.029273 29217 net.cpp:406] relu3_1 <- conv3_1
I0729 16:26:57.029322 29217 net.cpp:367] relu3_1 -> conv3_1 (in-place)
I0729 16:26:57.029549 29217 net.cpp:122] Setting up relu3_1
I0729 16:26:57.029603 29217 net.cpp:129] Top shape: 1 256 96 128 (3145728)
I0729 16:26:57.029644 29217 net.cpp:137] Memory required for data: 354693120
I0729 16:26:57.029683 29217 layer_factory.hpp:77] Creating layer conv3_2
I0729 16:26:57.029757 29217 net.cpp:84] Creating Layer conv3_2
I0729 16:26:57.029800 29217 net.cpp:406] conv3_2 <- conv3_1
I0729 16:26:57.029845 29217 net.cpp:380] conv3_2 -> conv3_2
I0729 16:26:57.049721 29217 net.cpp:122] Setting up conv3_2
I0729 16:26:57.049803 29217 net.cpp:129] Top shape: 1 256 96 128 (3145728)
I0729 16:26:57.049844 29217 net.cpp:137] Memory required for data: 367276032
I0729 16:26:57.049890 29217 layer_factory.hpp:77] Creating layer relu3_2
I0729 16:26:57.049942 29217 net.cpp:84] Creating Layer relu3_2
I0729 16:26:57.049985 29217 net.cpp:406] relu3_2 <- conv3_2
I0729 16:26:57.050029 29217 net.cpp:367] relu3_2 -> conv3_2 (in-place)
I0729 16:26:57.050688 29217 net.cpp:122] Setting up relu3_2
I0729 16:26:57.050748 29217 net.cpp:129] Top shape: 1 256 96 128 (3145728)
I0729 16:26:57.050788 29217 net.cpp:137] Memory required for data: 379858944
I0729 16:26:57.050827 29217 layer_factory.hpp:77] Creating layer conv3_3
I0729 16:26:57.050880 29217 net.cpp:84] Creating Layer conv3_3
I0729 16:26:57.050923 29217 net.cpp:406] conv3_3 <- conv3_2
I0729 16:26:57.050968 29217 net.cpp:380] conv3_3 -> conv3_3
I0729 16:26:57.060552 29217 net.cpp:122] Setting up conv3_3
I0729 16:26:57.060570 29217 net.cpp:129] Top shape: 1 256 96 128 (3145728)
I0729 16:26:57.060576 29217 net.cpp:137] Memory required for data: 392441856
I0729 16:26:57.060585 29217 layer_factory.hpp:77] Creating layer relu3_3
I0729 16:26:57.060592 29217 net.cpp:84] Creating Layer relu3_3
I0729 16:26:57.060598 29217 net.cpp:406] relu3_3 <- conv3_3
I0729 16:26:57.072055 29217 net.cpp:367] relu3_3 -> conv3_3 (in-place)
I0729 16:26:57.072314 29217 net.cpp:122] Setting up relu3_3
I0729 16:26:57.072329 29217 net.cpp:129] Top shape: 1 256 96 128 (3145728)
I0729 16:26:57.072334 29217 net.cpp:137] Memory required for data: 405024768
I0729 16:26:57.072340 29217 layer_factory.hpp:77] Creating layer pool3
I0729 16:26:57.072348 29217 net.cpp:84] Creating Layer pool3
I0729 16:26:57.072355 29217 net.cpp:406] pool3 <- conv3_3
I0729 16:26:57.072365 29217 net.cpp:380] pool3 -> pool3
I0729 16:26:57.072427 29217 net.cpp:122] Setting up pool3
I0729 16:26:57.072437 29217 net.cpp:129] Top shape: 1 256 48 64 (786432)
I0729 16:26:57.072441 29217 net.cpp:137] Memory required for data: 408170496
I0729 16:26:57.072446 29217 layer_factory.hpp:77] Creating layer conv4_1
I0729 16:26:57.072461 29217 net.cpp:84] Creating Layer conv4_1
I0729 16:26:57.072468 29217 net.cpp:406] conv4_1 <- pool3
I0729 16:26:57.072475 29217 net.cpp:380] conv4_1 -> conv4_1
I0729 16:26:57.103057 29217 net.cpp:122] Setting up conv4_1
I0729 16:26:57.103085 29217 net.cpp:129] Top shape: 1 512 48 64 (1572864)
I0729 16:26:57.103097 29217 net.cpp:137] Memory required for data: 414461952
I0729 16:26:57.103112 29217 layer_factory.hpp:77] Creating layer relu4_1
I0729 16:26:57.103127 29217 net.cpp:84] Creating Layer relu4_1
I0729 16:26:57.103185 29217 net.cpp:406] relu4_1 <- conv4_1
I0729 16:26:57.103232 29217 net.cpp:367] relu4_1 -> conv4_1 (in-place)
I0729 16:26:57.103456 29217 net.cpp:122] Setting up relu4_1
I0729 16:26:57.103467 29217 net.cpp:129] Top shape: 1 512 48 64 (1572864)
I0729 16:26:57.103477 29217 net.cpp:137] Memory required for data: 420753408
I0729 16:26:57.103485 29217 layer_factory.hpp:77] Creating layer conv4_2
I0729 16:26:57.103505 29217 net.cpp:84] Creating Layer conv4_2
I0729 16:26:57.103513 29217 net.cpp:406] conv4_2 <- conv4_1
I0729 16:26:57.103528 29217 net.cpp:380] conv4_2 -> conv4_2
I0729 16:26:57.133054 29217 net.cpp:122] Setting up conv4_2
I0729 16:26:57.133080 29217 net.cpp:129] Top shape: 1 512 48 64 (1572864)
I0729 16:26:57.133092 29217 net.cpp:137] Memory required for data: 427044864
I0729 16:26:57.133116 29217 layer_factory.hpp:77] Creating layer relu4_2
I0729 16:26:57.133137 29217 net.cpp:84] Creating Layer relu4_2
I0729 16:26:57.133152 29217 net.cpp:406] relu4_2 <- conv4_2
I0729 16:26:57.133167 29217 net.cpp:367] relu4_2 -> conv4_2 (in-place)
I0729 16:26:57.133741 29217 net.cpp:122] Setting up relu4_2
I0729 16:26:57.133754 29217 net.cpp:129] Top shape: 1 512 48 64 (1572864)
I0729 16:26:57.133788 29217 net.cpp:137] Memory required for data: 433336320
I0729 16:26:57.133846 29217 layer_factory.hpp:77] Creating layer conv4_3
I0729 16:26:57.133899 29217 net.cpp:84] Creating Layer conv4_3
I0729 16:26:57.133942 29217 net.cpp:406] conv4_3 <- conv4_2
I0729 16:26:57.133988 29217 net.cpp:380] conv4_3 -> conv4_3
I0729 16:26:57.172771 29217 net.cpp:122] Setting up conv4_3
I0729 16:26:57.172798 29217 net.cpp:129] Top shape: 1 512 48 64 (1572864)
I0729 16:26:57.172806 29217 net.cpp:137] Memory required for data: 439627776
I0729 16:26:57.172818 29217 layer_factory.hpp:77] Creating layer relu4_3
I0729 16:26:57.172832 29217 net.cpp:84] Creating Layer relu4_3
I0729 16:26:57.172842 29217 net.cpp:406] relu4_3 <- conv4_3
I0729 16:26:57.172854 29217 net.cpp:367] relu4_3 -> conv4_3 (in-place)
I0729 16:26:57.173050 29217 net.cpp:122] Setting up relu4_3
I0729 16:26:57.173063 29217 net.cpp:129] Top shape: 1 512 48 64 (1572864)
I0729 16:26:57.173069 29217 net.cpp:137] Memory required for data: 445919232
I0729 16:26:57.173074 29217 layer_factory.hpp:77] Creating layer pool4
I0729 16:26:57.173085 29217 net.cpp:84] Creating Layer pool4
I0729 16:26:57.173094 29217 net.cpp:406] pool4 <- conv4_3
I0729 16:26:57.173104 29217 net.cpp:380] pool4 -> pool4
I0729 16:26:57.173163 29217 net.cpp:122] Setting up pool4
I0729 16:26:57.173174 29217 net.cpp:129] Top shape: 1 512 48 64 (1572864)
I0729 16:26:57.173179 29217 net.cpp:137] Memory required for data: 452210688
I0729 16:26:57.173184 29217 layer_factory.hpp:77] Creating layer conv5_1
I0729 16:26:57.173200 29217 net.cpp:84] Creating Layer conv5_1
I0729 16:26:57.173208 29217 net.cpp:406] conv5_1 <- pool4
I0729 16:26:57.173218 29217 net.cpp:380] conv5_1 -> conv5_1
I0729 16:26:57.217116 29217 net.cpp:122] Setting up conv5_1
I0729 16:26:57.217147 29217 net.cpp:129] Top shape: 1 512 48 64 (1572864)
I0729 16:26:57.217154 29217 net.cpp:137] Memory required for data: 458502144
I0729 16:26:57.217165 29217 layer_factory.hpp:77] Creating layer relu5_1
I0729 16:26:57.217178 29217 net.cpp:84] Creating Layer relu5_1
I0729 16:26:57.217187 29217 net.cpp:406] relu5_1 <- conv5_1
I0729 16:26:57.217196 29217 net.cpp:367] relu5_1 -> conv5_1 (in-place)
I0729 16:26:57.217968 29217 net.cpp:122] Setting up relu5_1
I0729 16:26:57.217983 29217 net.cpp:129] Top shape: 1 512 48 64 (1572864)
I0729 16:26:57.217989 29217 net.cpp:137] Memory required for data: 464793600
I0729 16:26:57.217994 29217 layer_factory.hpp:77] Creating layer conv5_2
I0729 16:26:57.218010 29217 net.cpp:84] Creating Layer conv5_2
I0729 16:26:57.218016 29217 net.cpp:406] conv5_2 <- conv5_1
I0729 16:26:57.218025 29217 net.cpp:380] conv5_2 -> conv5_2
I0729 16:26:57.257912 29217 net.cpp:122] Setting up conv5_2
I0729 16:26:57.257943 29217 net.cpp:129] Top shape: 1 512 48 64 (1572864)
I0729 16:26:57.257956 29217 net.cpp:137] Memory required for data: 471085056
I0729 16:26:57.257972 29217 layer_factory.hpp:77] Creating layer relu5_2
I0729 16:26:57.257988 29217 net.cpp:84] Creating Layer relu5_2
I0729 16:26:57.258002 29217 net.cpp:406] relu5_2 <- conv5_2
I0729 16:26:57.258021 29217 net.cpp:367] relu5_2 -> conv5_2 (in-place)
I0729 16:26:57.258293 29217 net.cpp:122] Setting up relu5_2
I0729 16:26:57.258307 29217 net.cpp:129] Top shape: 1 512 48 64 (1572864)
I0729 16:26:57.258312 29217 net.cpp:137] Memory required for data: 477376512
I0729 16:26:57.258317 29217 layer_factory.hpp:77] Creating layer conv5_3
I0729 16:26:57.258332 29217 net.cpp:84] Creating Layer conv5_3
I0729 16:26:57.258339 29217 net.cpp:406] conv5_3 <- conv5_2
I0729 16:26:57.258349 29217 net.cpp:380] conv5_3 -> conv5_3
I0729 16:26:57.292276 29217 net.cpp:122] Setting up conv5_3
I0729 16:26:57.292306 29217 net.cpp:129] Top shape: 1 512 48 64 (1572864)
I0729 16:26:57.292311 29217 net.cpp:137] Memory required for data: 483667968
I0729 16:26:57.292323 29217 layer_factory.hpp:77] Creating layer relu5_3
I0729 16:26:57.292342 29217 net.cpp:84] Creating Layer relu5_3
I0729 16:26:57.292351 29217 net.cpp:406] relu5_3 <- conv5_3
I0729 16:26:57.292361 29217 net.cpp:367] relu5_3 -> conv5_3 (in-place)
I0729 16:26:57.293241 29217 net.cpp:122] Setting up relu5_3
I0729 16:26:57.293256 29217 net.cpp:129] Top shape: 1 512 48 64 (1572864)
I0729 16:26:57.293262 29217 net.cpp:137] Memory required for data: 489959424
I0729 16:26:57.293267 29217 layer_factory.hpp:77] Creating layer conv_score
I0729 16:26:57.293282 29217 net.cpp:84] Creating Layer conv_score
I0729 16:26:57.293289 29217 net.cpp:406] conv_score <- conv5_3
I0729 16:26:57.293300 29217 net.cpp:380] conv_score -> conv_score
I0729 16:26:58.146311 29217 net.cpp:122] Setting up conv_score
I0729 16:26:58.146414 29217 net.cpp:129] Top shape: 1 512 48 64 (1572864)
I0729 16:26:58.146461 29217 net.cpp:137] Memory required for data: 496250880
I0729 16:26:58.146510 29217 layer_factory.hpp:77] Creating layer relu_score
I0729 16:26:58.146560 29217 net.cpp:84] Creating Layer relu_score
I0729 16:26:58.146606 29217 net.cpp:406] relu_score <- conv_score
I0729 16:26:58.146656 29217 net.cpp:367] relu_score -> conv_score (in-place)
I0729 16:26:58.147495 29217 net.cpp:122] Setting up relu_score
I0729 16:26:58.147558 29217 net.cpp:129] Top shape: 1 512 48 64 (1572864)
I0729 16:26:58.147603 29217 net.cpp:137] Memory required for data: 502542336
I0729 16:26:58.147644 29217 layer_factory.hpp:77] Creating layer slicer_conv
I0729 16:26:58.147733 29217 net.cpp:84] Creating Layer slicer_conv
I0729 16:26:58.147780 29217 net.cpp:406] slicer_conv <- conv_score
I0729 16:26:58.147871 29217 net.cpp:380] slicer_conv -> score1
I0729 16:26:58.147976 29217 net.cpp:380] slicer_conv -> score2
…
I0729 16:26:58.194574 29217 net.cpp:380] slicer_conv -> score505
I0729 16:26:58.194630 29217 net.cpp:380] slicer_conv -> score506
I0729 16:26:58.194687 29217 net.cpp:380] slicer_conv -> score507
I0729 16:26:58.194743 29217 net.cpp:380] slicer_conv -> score508
I0729 16:26:58.194799 29217 net.cpp:380] slicer_conv -> score509
I0729 16:26:58.194855 29217 net.cpp:380] slicer_conv -> score510
I0729 16:26:58.194911 29217 net.cpp:380] slicer_conv -> score511
I0729 16:26:58.194967 29217 net.cpp:380] slicer_conv -> score512
I0729 16:26:58.240087 29217 net.cpp:122] Setting up slicer_conv
I0729 16:26:58.240126 29217 net.cpp:129] Top shape: 1 1 48 64 (3072)
I0729 16:26:58.240134 29217 net.cpp:129] Top shape: 1 1 48 64 (3072)
I0729 16:26:58.240140 29217 net.cpp:129] Top shape: 1 1 48 64 (3072)
I0729 16:26:58.240146 29217 net.cpp:129] Top shape: 1 1 48 64 (3072)
I0729 16:26:58.240151 29217 net.cpp:129] Top shape: 1 1 48 64 (3072)
I0729 16:26:58.240155 29217 net.cpp:129] Top shape: 1 1 48 64 (3072)
I0729 16:26:58.240160 29217 net.cpp:129] Top shape: 1 1 48 64 (3072)
I0729 16:26:58.240165 29217 net.cpp:129] Top shape: 1 1 48 64 (3072)
I0729 16:26:58.240171 29217 net.cpp:129] Top shape: 1 1 48 64 (3072)
I0729 16:26:58.240177 29217 net.cpp:129] Top shape: 1 1 48 64 (3072)
I0729 16:26:58.240183 29217 net.cpp:129] Top shape: 1 1 48 64 (3072)
I0729 16:26:58.240190 29217 net.cpp:129] Top shape: 1 1 48 64 (3072)
I0729 16:26:58.240196 29217 net.cpp:129] Top shape: 1 1 48 64 (3072)
I0729 16:26:58.240203 29217 net.cpp:129] Top shape: 1 1 48 64 (3072)
I0729 16:26:58.240211 29217 net.cpp:129] Top shape: 1 1 48 64 (3072)
I0729 16:26:58.240217 29217 net.cpp:129] Top shape: 1 1 48 64 (3072)
I0729 16:26:58.240224 29217 net.cpp:129] Top shape: 1 1 48 64 (3072)
I0729 16:26:58.240231 29217 net.cpp:129] Top shape: 1 1 48 64 (3072)
I0729 16:26:58.240238 29217 net.cpp:129] Top shape: 1 1 48 64 (3072)
I0729 16:26:58.240245 29217 net.cpp:129] Top shape: 1 1 48 64 (3072)
I0729 16:26:58.240252 29217 net.cpp:129] Top shape: 1 1 48 64 (3072)
I0729 16:26:58.240259 29217 net.cpp:129] Top shape: 1 1 48 64 (3072)
I0729 16:26:58.240265 29217 net.cpp:129] Top shape: 1 1 48 64 (3072)
I0729 16:26:58.240272 29217 net.cpp:129] Top shape: 1 1 48 64 (3072)
I0729 16:26:58.240279 29217 net.cpp:129] Top shape: 1 1 48 64 (3072)
I0729 16:26:58.240286 29217 net.cpp:129] Top shape: 1 1 48 64 (3072)
I0729 16:26:58.240293 29217 net.cpp:129] Top shape: 1 1 48 64 (3072)
I0729 16:26:58.240299 29217 net.cpp:129] Top shape: 1 1 48 64 (3072)
I0729 16:26:58.240306 29217 net.cpp:129] Top shape: 1 1 48 64 (3072)
I0729 16:26:58.240314 29217 net.cpp:129] Top shape: 1 1 48 64 (3072)
I0729 16:26:58.240320 29217 net.cpp:129] Top shape: 1 1 48 64 (3072)
I0729 16:26:58.240326 29217 net.cpp:129] Top shape: 1 1 48 64 (3072)
I0729 16:26:58.240355 29217 net.cpp:129] Top shape: 1 1 48 64 (3072)
I0729 16:26:58.240363 29217 net.cpp:129] Top shape: 1 1 48 64 (3072)
I0729 16:26:58.240370 29217 net.cpp:129] Top shape: 1 1 48 64 (3072)
I0729 16:26:58.240377 29217 net.cpp:129] Top shape: 1 1 48 64 (3072)
I0729 16:26:58.240384 29217 net.cpp:129] Top shape: 1 1 48 64 (3072)
I0729 16:26:58.240391 29217 net.cpp:129] Top shape: 1 1 48 64 (3072)
I0729 16:26:58.240397 29217 net.cpp:129] Top shape: 1 1 48 64 (3072)
I0729 16:26:58.240404 29217 net.cpp:129] Top shape: 1 1 48 64 (3072)
I0729 16:26:58.240411 29217 net.cpp:129] Top shape: 1 1 48 64 (3072)
I0729 16:26:58.240418 29217 net.cpp:129] Top shape: 1 1 48 64 (3072)
I0729 16:26:58.240424 29217 net.cpp:129] Top shape: 1 1 48 64 (3072)
I0729 16:26:58.240432 29217 net.cpp:129] Top shape: 1 1 48 64 (3072)
I0729 16:26:58.240438 29217 net.cpp:129] Top shape: 1 1 48 64 (3072)
I0729 16:26:58.240445 29217 net.cpp:129] Top shape: 1 1 48 64 (3072)
I0729 16:26:58.240453 29217 net.cpp:129] Top shape: 1 1 48 64 (3072)
I0729 16:26:58.240458 29217 net.cpp:129] Top shape: 1 1 48 64 (3072)
I0729 16:26:58.240465 29217 net.cpp:129] Top shape: 1 1 48 64 (3072)
I0729 16:26:58.240473 29217 net.cpp:129] Top shape: 1 1 48 64 (3072)
I0729 16:26:58.240479 29217 net.cpp:129] Top shape: 1 1 48 64 (3072)
I0729 16:26:58.240486 29217 net.cpp:129] Top shape: 1 1 48 64 (3072)
I0729 16:26:58.240494 29217 net.cpp:129] Top shape: 1 1 48 64 (3072)
I0729 16:26:58.240500 29217 net.cpp:129] Top shape: 1 1 48 64 (3072)
I0729 16:26:58.240506 29217 net.cpp:129] Top shape: 1 1 48 64 (3072)
I0729 16:26:58.240514 29217 net.cpp:129] Top shape: 1 1 48 64 (3072)
I0729 16:26:58.240520 29217 net.cpp:129] Top shape: 1 1 48 64 (3072)
I0729 16:26:58.240527 29217 net.cpp:129] Top shape: 1 1 48 64 (3072)
I0729 16:26:58.240535 29217 net.cpp:129] Top shape: 1 1 48 64 (3072)
I0729 16:26:58.240541 29217 net.cpp:129] Top shape: 1 1 48 64 (3072)
I0729 16:26:58.240548 29217 net.cpp:129] Top shape: 1 1 48 64 (3072)
I0729 16:26:58.240555 29217 net.cpp:129] Top shape: 1 1 48 64 (3072)
I0729 16:26:58.240561 29217 net.cpp:129] Top shape: 1 1 48 64 (3072)
I0729 16:26:58.240568 29217 net.cpp:129] Top shape: 1 1 48 64 (3072)
I0729 16:26:58.240576 29217 net.cpp:129] Top shape: 1 1 48 64 (3072)
I0729 16:26:58.240582 29217 net.cpp:129] Top shape: 1 1 48 64 (3072)
I0729 16:26:58.240589 29217 net.cpp:129] Top shape: 1 1 48 64 (3072)
I0729 16:26:58.240595 29217 net.cpp:129] Top shape: 1 1 48 64 (3072)
I0729 16:26:58.240602 29217 net.cpp:129] Top shape: 1 1 48 64 (3072)
I0729 16:26:58.240609 29217 net.cpp:129] Top shape: 1 1 48 64 (3072)
I0729 16:26:58.240617 29217 net.cpp:129] Top shape: 1 1 48 64 (3072)
I0729 16:26:58.240622 29217 net.cpp:129] Top shape: 1 1 48 64 (3072)
I0729 16:26:58.240629 29217 net.cpp:129] Top shape: 1 1 48 64 (3072)
I0729 16:26:58.240636 29217 net.cpp:129] Top shape: 1 1 48 64 (3072)
I0729 16:26:58.240643 29217 net.cpp:129] Top shape: 1 1 48 64 (3072)
I0729 16:26:58.240650 29217 net.cpp:129] Top shape: 1 1 48 64 (3072)
I0729 16:26:58.240656 29217 net.cpp:129] Top shape: 1 1 48 64 (3072)
I0729 16:26:58.240664 29217 net.cpp:129] Top shape: 1 1 48 64 (3072)
I0729 16:26:58.240670 29217 net.cpp:129] Top shape: 1 1 48 64 (3072)
I0729 16:26:58.240676 29217 net.cpp:129] Top shape: 1 1 48 64 (3072)
I0729 16:26:58.240684 29217 net.cpp:129] Top shape: 1 1 48 64 (3072)
I0729 16:26:58.240690 29217 net.cpp:129] Top shape: 1 1 48 64 (3072)
I0729 16:26:58.240697 29217 net.cpp:129] Top shape: 1 1 48 64 (3072)
I0729 16:26:58.240703 29217 net.cpp:129] Top shape: 1 1 48 64 (3072)
I0729 16:26:58.240710 29217 net.cpp:129] Top shape: 1 1 48 64 (3072)
I0729 16:26:58.240717 29217 net.cpp:129] Top shape: 1 1 48 64 (3072)
I0729 16:26:58.240725 29217 net.cpp:129] Top shape: 1 1 48 64 (3072)
I0729 16:26:58.240731 29217 net.cpp:129] Top shape: 1 1 48 64 (3072)
I0729 16:26:58.240737 29217 net.cpp:129] Top shape: 1 1 48 64 (3072)
I0729 16:26:58.240744 29217 net.cpp:129] Top shape: 1 1 48 64 (3072)
I0729 16:26:58.240751 29217 net.cpp:129] Top shape: 1 1 48 64 (3072)
I0729 16:26:58.240767 29217 net.cpp:129] Top shape: 1 1 48 64 (3072)
I0729 16:26:58.240775 29217 net.cpp:129] Top shape: 1 1 48 64 (3072)
I0729 16:26:58.240782 29217 net.cpp:129] Top shape: 1 1 48 64 (3072)
I0729 16:26:58.240788 29217 net.cpp:129] Top shape: 1 1 48 64 (3072)
I0729 16:26:58.240795 29217 net.cpp:129] Top shape: 1 1 48 64 (3072)
I0729 16:26:58.240803 29217 net.cpp:129] Top shape: 1 1 48 64 (3072)
I0729 16:26:58.240809 29217 net.cpp:129] Top shape: 1 1 48 64 (3072)
I0729 16:26:58.240815 29217 net.cpp:129] Top shape: 1 1 48 64 (3072)
I0729 16:26:58.240823 29217 net.cpp:129] Top shape: 1 1 48 64 (3072)
I0729 16:26:58.240828 29217 net.cpp:129] Top shape: 1 1 48 64 (3072)
I0729 16:26:58.240835 29217 net.cpp:129] Top shape: 1 1 48 64 (3072)
I0729 16:26:58.240842 29217 net.cpp:129] Top shape: 1 1 48 64 (3072)
I0729 16:26:58.240849 29217 net.cpp:129] Top shape: 1 1 48 64 (3072)
I0729 16:26:58.240856 29217 net.cpp:129] Top shape: 1 1 48 64 (3072)
I0729 16:26:58.240862 29217 net.cpp:129] Top shape: 1 1 48 64 (3072)
I0729 16:26:58.240869 29217 net.cpp:129] Top shape: 1 1 48 64 (3072)
I0729 16:26:58.240876 29217 net.cpp:129] Top shape: 1 1 48 64 (3072)
I0729 16:26:58.240883 29217 net.cpp:129] Top shape: 1 1 48 64 (3072)
I0729 16:26:58.240890 29217 net.cpp:129] Top shape: 1 1 48 64 (3072)
I0729 16:26:58.240896 29217 net.cpp:129] Top shape: 1 1 48 64 (3072)
I0729 16:26:58.240903 29217 net.cpp:129] Top shape: 1 1 48 64 (3072)
I0729 16:26:58.240911 29217 net.cpp:129] Top shape: 1 1 48 64 (3072)
I0729 16:26:58.240917 29217 net.cpp:129] Top shape: 1 1 48 64 (3072)
I0729 16:26:58.240924 29217 net.cpp:129] Top shape: 1 1 48 64 (3072)
I0729 16:26:58.240931 29217 net.cpp:129] Top shape: 1 1 48 64 (3072)
I0729 16:26:58.240937 29217 net.cpp:129] Top shape: 1 1 48 64 (3072)
I0729 16:26:58.240944 29217 net.cpp:129] Top shape: 1 1 48 64 (3072)
I0729 16:26:58.240952 29217 net.cpp:129] Top shape: 1 1 48 64 (3072)
I0729 16:26:58.240958 29217 net.cpp:129] Top shape: 1 1 48 64 (3072)
I0729 16:26:58.240964 29217 net.cpp:129] Top shape: 1 1 48 64 (3072)
I0729 16:26:58.240972 29217 net.cpp:129] Top shape: 1 1 48 64 (3072)
I0729 16:26:58.240978 29217 net.cpp:129] Top shape: 1 1 48 64 (3072)
I0729 16:26:58.240985 29217 net.cpp:129] Top shape: 1 1 48 64 (3072)
I0729 16:26:58.240991 29217 net.cpp:129] Top shape: 1 1 48 64 (3072)
I0729 16:26:58.240998 29217 net.cpp:129] Top shape: 1 1 48 64 (3072)
I0729 16:26:58.241005 29217 net.cpp:129] Top shape: 1 1 48 64 (3072)
I0729 16:26:58.241013 29217 net.cpp:129] Top shape: 1 1 48 64 (3072)
I0729 16:26:58.241019 29217 net.cpp:129] Top shape: 1 1 48 64 (3072)
I0729 16:26:58.241025 29217 net.cpp:129] Top shape: 1 1 48 64 (3072)
I0729 16:26:58.241032 29217 net.cpp:129] Top shape: 1 1 48 64 (3072)
I0729 16:26:58.241039 29217 net.cpp:129] Top shape: 1 1 48 64 (3072)
I0729 16:26:58.241045 29217 net.cpp:129] Top shape: 1 1 48 64 (3072)
I0729 16:26:58.241052 29217 net.cpp:129] Top shape: 1 1 48 64 (3072)
I0729 16:26:58.241060 29217 net.cpp:129] Top shape: 1 1 48 64 (3072)
I0729 16:26:58.241066 29217 net.cpp:129] Top shape: 1 1 48 64 (3072)
I0729 16:26:58.241072 29217 net.cpp:129] Top shape: 1 1 48 64 (3072)
I0729 16:26:58.241080 29217 net.cpp:129] Top shape: 1 1 48 64 (3072)
I0729 16:26:58.241086 29217 net.cpp:129] Top shape: 1 1 48 64 (3072)
I0729 16:26:58.241093 29217 net.cpp:129] Top shape: 1 1 48 64 (3072)
I0729 16:26:58.241101 29217 net.cpp:129] Top shape: 1 1 48 64 (3072)
I0729 16:26:58.241106 29217 net.cpp:129] Top shape: 1 1 48 64 (3072)
I0729 16:26:58.241113 29217 net.cpp:129] Top shape: 1 1 48 64 (3072)
I0729 16:26:58.241120 29217 net.cpp:129] Top shape: 1 1 48 64 (3072)
I0729 16:26:58.241127 29217 net.cpp:129] Top shape: 1 1 48 64 (3072)
I0729 16:26:58.241133 29217 net.cpp:129] Top shape: 1 1 48 64 (3072)
I0729 16:26:58.241140 29217 net.cpp:129] Top shape: 1 1 48 64 (3072)
I0729 16:26:58.241147 29217 net.cpp:129] Top shape: 1 1 48 64 (3072)
I0729 16:26:58.241154 29217 net.cpp:129] Top shape: 1 1 48 64 (3072)
I0729 16:26:58.241161 29217 net.cpp:129] Top shape: 1 1 48 64 (3072)
I0729 16:26:58.241168 29217 net.cpp:129] Top shape: 1 1 48 64 (3072)
I0729 16:26:58.241184 29217 net.cpp:129] Top shape: 1 1 48 64 (3072)
I0729 16:26:58.241192 29217 net.cpp:129] Top shape: 1 1 48 64 (3072)
I0729 16:26:58.241199 29217 net.cpp:129] Top shape: 1 1 48 64 (3072)
I0729 16:26:58.241206 29217 net.cpp:129] Top shape: 1 1 48 64 (3072)
I0729 16:26:58.241212 29217 net.cpp:129] Top shape: 1 1 48 64 (3072)
I0729 16:26:58.241219 29217 net.cpp:129] Top shape: 1 1 48 64 (3072)
I0729 16:26:58.241226 29217 net.cpp:129] Top shape: 1 1 48 64 (3072)
I0729 16:26:58.241233 29217 net.cpp:129] Top shape: 1 1 48 64 (3072)
I0729 16:26:58.241240 29217 net.cpp:129] Top shape: 1 1 48 64 (3072)
I0729 16:26:58.241247 29217 net.cpp:129] Top shape: 1 1 48 64 (3072)
I0729 16:26:58.241255 29217 net.cpp:129] Top shape: 1 1 48 64 (3072)
I0729 16:26:58.241261 29217 net.cpp:129] Top shape: 1 1 48 64 (3072)
I0729 16:26:58.241267 29217 net.cpp:129] Top shape: 1 1 48 64 (3072)
I0729 16:26:58.241274 29217 net.cpp:129] Top shape: 1 1 48 64 (3072)
I0729 16:26:58.241281 29217 net.cpp:129] Top shape: 1 1 48 64 (3072)
I0729 16:26:58.241288 29217 net.cpp:129] Top shape: 1 1 48 64 (3072)
I0729 16:26:58.241294 29217 net.cpp:129] Top shape: 1 1 48 64 (3072)
I0729 16:26:58.241302 29217 net.cpp:129] Top shape: 1 1 48 64 (3072)
I0729 16:26:58.241313 29217 net.cpp:129] Top shape: 1 1 48 64 (3072)
I0729 16:26:58.241319 29217 net.cpp:129] Top shape: 1 1 48 64 (3072)
I0729 16:26:58.241327 29217 net.cpp:129] Top shape: 1 1 48 64 (3072)
I0729 16:26:58.241333 29217 net.cpp:129] Top shape: 1 1 48 64 (3072)
I0729 16:26:58.241340 29217 net.cpp:129] Top shape: 1 1 48 64 (3072)
I0729 16:26:58.241346 29217 net.cpp:129] Top shape: 1 1 48 64 (3072)
I0729 16:26:58.241353 29217 net.cpp:129] Top shape: 1 1 48 64 (3072)
I0729 16:26:58.241360 29217 net.cpp:129] Top shape: 1 1 48 64 (3072)
I0729 16:26:58.241367 29217 net.cpp:129] Top shape: 1 1 48 64 (3072)
I0729 16:26:58.241374 29217 net.cpp:129] Top shape: 1 1 48 64 (3072)
I0729 16:26:58.241380 29217 net.cpp:129] Top shape: 1 1 48 64 (3072)
I0729 16:26:58.241387 29217 net.cpp:129] Top shape: 1 1 48 64 (3072)
I0729 16:26:58.241394 29217 net.cpp:129] Top shape: 1 1 48 64 (3072)
I0729 16:26:58.241400 29217 net.cpp:129] Top shape: 1 1 48 64 (3072)
I0729 16:26:58.241407 29217 net.cpp:129] Top shape: 1 1 48 64 (3072)
I0729 16:26:58.241415 29217 net.cpp:129] Top shape: 1 1 48 64 (3072)
I0729 16:26:58.241421 29217 net.cpp:129] Top shape: 1 1 48 64 (3072)
I0729 16:26:58.241427 29217 net.cpp:129] Top shape: 1 1 48 64 (3072)
I0729 16:26:58.241435 29217 net.cpp:129] Top shape: 1 1 48 64 (3072)
I0729 16:26:58.241441 29217 net.cpp:129] Top shape: 1 1 48 64 (3072)
I0729 16:26:58.241448 29217 net.cpp:129] Top shape: 1 1 48 64 (3072)
I0729 16:26:58.241454 29217 net.cpp:129] Top shape: 1 1 48 64 (3072)
I0729 16:26:58.241461 29217 net.cpp:129] Top shape: 1 1 48 64 (3072)
I0729 16:26:58.241468 29217 net.cpp:129] Top shape: 1 1 48 64 (3072)
I0729 16:26:58.241475 29217 net.cpp:129] Top shape: 1 1 48 64 (3072)
I0729 16:26:58.241482 29217 net.cpp:129] Top shape: 1 1 48 64 (3072)
I0729 16:26:58.241488 29217 net.cpp:129] Top shape: 1 1 48 64 (3072)
I0729 16:26:58.241495 29217 net.cpp:129] Top shape: 1 1 48 64 (3072)
I0729 16:26:58.241503 29217 net.cpp:129] Top shape: 1 1 48 64 (3072)
I0729 16:26:58.241509 29217 net.cpp:129] Top shape: 1 1 48 64 (3072)
I0729 16:26:58.241515 29217 net.cpp:129] Top shape: 1 1 48 64 (3072)
I0729 16:26:58.241523 29217 net.cpp:129] Top shape: 1 1 48 64 (3072)
I0729 16:26:58.241529 29217 net.cpp:129] Top shape: 1 1 48 64 (3072)
I0729 16:26:58.241536 29217 net.cpp:129] Top shape: 1 1 48 64 (3072)
I0729 16:26:58.241544 29217 net.cpp:129] Top shape: 1 1 48 64 (3072)
I0729 16:26:58.241549 29217 net.cpp:129] Top shape: 1 1 48 64 (3072)
I0729 16:26:58.241556 29217 net.cpp:129] Top shape: 1 1 48 64 (3072)
I0729 16:26:58.241564 29217 net.cpp:129] Top shape: 1 1 48 64 (3072)
I0729 16:26:58.241570 29217 net.cpp:129] Top shape: 1 1 48 64 (3072)
I0729 16:26:58.241576 29217 net.cpp:129] Top shape: 1 1 48 64 (3072)
I0729 16:26:58.241583 29217 net.cpp:129] Top shape: 1 1 48 64 (3072)
I0729 16:26:58.241600 29217 net.cpp:129] Top shape: 1 1 48 64 (3072)
I0729 16:26:58.241608 29217 net.cpp:129] Top shape: 1 1 48 64 (3072)
I0729 16:26:58.241616 29217 net.cpp:129] Top shape: 1 1 48 64 (3072)
I0729 16:26:58.241622 29217 net.cpp:129] Top shape: 1 1 48 64 (3072)
I0729 16:26:58.241628 29217 net.cpp:129] Top shape: 1 1 48 64 (3072)
I0729 16:26:58.241636 29217 net.cpp:129] Top shape: 1 1 48 64 (3072)
I0729 16:26:58.241642 29217 net.cpp:129] Top shape: 1 1 48 64 (3072)
I0729 16:26:58.241649 29217 net.cpp:129] Top shape: 1 1 48 64 (3072)
I0729 16:26:58.241657 29217 net.cpp:129] Top shape: 1 1 48 64 (3072)
I0729 16:26:58.241663 29217 net.cpp:129] Top shape: 1 1 48 64 (3072)
I0729 16:26:58.241669 29217 net.cpp:129] Top shape: 1 1 48 64 (3072)
I0729 16:26:58.241677 29217 net.cpp:129] Top shape: 1 1 48 64 (3072)
I0729 16:26:58.241683 29217 net.cpp:129] Top shape: 1 1 48 64 (3072)
I0729 16:26:58.241690 29217 net.cpp:129] Top shape: 1 1 48 64 (3072)
I0729 16:26:58.241698 29217 net.cpp:129] Top shape: 1 1 48 64 (3072)
I0729 16:26:58.241704 29217 net.cpp:129] Top shape: 1 1 48 64 (3072)
I0729 16:26:58.241711 29217 net.cpp:129] Top shape: 1 1 48 64 (3072)
I0729 16:26:58.241717 29217 net.cpp:129] Top shape: 1 1 48 64 (3072)
I0729 16:26:58.241724 29217 net.cpp:129] Top shape: 1 1 48 64 (3072)
I0729 16:26:58.241731 29217 net.cpp:129] Top shape: 1 1 48 64 (3072)
I0729 16:26:58.241739 29217 net.cpp:129] Top shape: 1 1 48 64 (3072)
I0729 16:26:58.241744 29217 net.cpp:129] Top shape: 1 1 48 64 (3072)
I0729 16:26:58.241751 29217 net.cpp:129] Top shape: 1 1 48 64 (3072)
I0729 16:26:58.241758 29217 net.cpp:129] Top shape: 1 1 48 64 (3072)
I0729 16:26:58.241765 29217 net.cpp:129] Top shape: 1 1 48 64 (3072)
I0729 16:26:58.241771 29217 net.cpp:129] Top shape: 1 1 48 64 (3072)
I0729 16:26:58.241778 29217 net.cpp:129] Top shape: 1 1 48 64 (3072)
I0729 16:26:58.241786 29217 net.cpp:129] Top shape: 1 1 48 64 (3072)
I0729 16:26:58.241792 29217 net.cpp:129] Top shape: 1 1 48 64 (3072)
I0729 16:26:58.241799 29217 net.cpp:129] Top shape: 1 1 48 64 (3072)
I0729 16:26:58.241806 29217 net.cpp:129] Top shape: 1 1 48 64 (3072)
I0729 16:26:58.241812 29217 net.cpp:129] Top shape: 1 1 48 64 (3072)
I0729 16:26:58.241819 29217 net.cpp:129] Top shape: 1 1 48 64 (3072)
I0729 16:26:58.241825 29217 net.cpp:129] Top shape: 1 1 48 64 (3072)
I0729 16:26:58.241832 29217 net.cpp:129] Top shape: 1 1 48 64 (3072)
I0729 16:26:58.241839 29217 net.cpp:129] Top shape: 1 1 48 64 (3072)
I0729 16:26:58.241847 29217 net.cpp:129] Top shape: 1 1 48 64 (3072)
I0729 16:26:58.241852 29217 net.cpp:129] Top shape: 1 1 48 64 (3072)
I0729 16:26:58.241859 29217 net.cpp:129] Top shape: 1 1 48 64 (3072)
I0729 16:26:58.241866 29217 net.cpp:129] Top shape: 1 1 48 64 (3072)
I0729 16:26:58.241873 29217 net.cpp:129] Top shape: 1 1 48 64 (3072)
I0729 16:26:58.241879 29217 net.cpp:129] Top shape: 1 1 48 64 (3072)
I0729 16:26:58.241886 29217 net.cpp:129] Top shape: 1 1 48 64 (3072)
I0729 16:26:58.241894 29217 net.cpp:129] Top shape: 1 1 48 64 (3072)
I0729 16:26:58.241900 29217 net.cpp:129] Top shape: 1 1 48 64 (3072)
I0729 16:26:58.241906 29217 net.cpp:129] Top shape: 1 1 48 64 (3072)
I0729 16:26:58.241914 29217 net.cpp:129] Top shape: 1 1 48 64 (3072)
I0729 16:26:58.241920 29217 net.cpp:129] Top shape: 1 1 48 64 (3072)
I0729 16:26:58.241927 29217 net.cpp:129] Top shape: 1 1 48 64 (3072)
I0729 16:26:58.241933 29217 net.cpp:129] Top shape: 1 1 48 64 (3072)
I0729 16:26:58.241940 29217 net.cpp:129] Top shape: 1 1 48 64 (3072)
I0729 16:26:58.241947 29217 net.cpp:129] Top shape: 1 1 48 64 (3072)
I0729 16:26:58.241955 29217 net.cpp:129] Top shape: 1 1 48 64 (3072)
I0729 16:26:58.241961 29217 net.cpp:129] Top shape: 1 1 48 64 (3072)
I0729 16:26:58.241967 29217 net.cpp:129] Top shape: 1 1 48 64 (3072)
I0729 16:26:58.241974 29217 net.cpp:129] Top shape: 1 1 48 64 (3072)
I0729 16:26:58.241981 29217 net.cpp:129] Top shape: 1 1 48 64 (3072)
I0729 16:26:58.241987 29217 net.cpp:129] Top shape: 1 1 48 64 (3072)
I0729 16:26:58.241994 29217 net.cpp:129] Top shape: 1 1 48 64 (3072)
I0729 16:26:58.242010 29217 net.cpp:129] Top shape: 1 1 48 64 (3072)
I0729 16:26:58.242018 29217 net.cpp:129] Top shape: 1 1 48 64 (3072)
I0729 16:26:58.242024 29217 net.cpp:129] Top shape: 1 1 48 64 (3072)
I0729 16:26:58.242032 29217 net.cpp:129] Top shape: 1 1 48 64 (3072)
I0729 16:26:58.242038 29217 net.cpp:129] Top shape: 1 1 48 64 (3072)
I0729 16:26:58.242045 29217 net.cpp:129] Top shape: 1 1 48 64 (3072)
I0729 16:26:58.242051 29217 net.cpp:129] Top shape: 1 1 48 64 (3072)
I0729 16:26:58.242058 29217 net.cpp:129] Top shape: 1 1 48 64 (3072)
I0729 16:26:58.242065 29217 net.cpp:129] Top shape: 1 1 48 64 (3072)
I0729 16:26:58.242072 29217 net.cpp:129] Top shape: 1 1 48 64 (3072)
I0729 16:26:58.242079 29217 net.cpp:129] Top shape: 1 1 48 64 (3072)
I0729 16:26:58.242085 29217 net.cpp:129] Top shape: 1 1 48 64 (3072)
I0729 16:26:58.242092 29217 net.cpp:129] Top shape: 1 1 48 64 (3072)
I0729 16:26:58.242100 29217 net.cpp:129] Top shape: 1 1 48 64 (3072)
I0729 16:26:58.242105 29217 net.cpp:129] Top shape: 1 1 48 64 (3072)
I0729 16:26:58.242113 29217 net.cpp:129] Top shape: 1 1 48 64 (3072)
I0729 16:26:58.242120 29217 net.cpp:129] Top shape: 1 1 48 64 (3072)
I0729 16:26:58.242126 29217 net.cpp:129] Top shape: 1 1 48 64 (3072)
I0729 16:26:58.242133 29217 net.cpp:129] Top shape: 1 1 48 64 (3072)
I0729 16:26:58.242141 29217 net.cpp:129] Top shape: 1 1 48 64 (3072)
I0729 16:26:58.242146 29217 net.cpp:129] Top shape: 1 1 48 64 (3072)
I0729 16:26:58.242153 29217 net.cpp:129] Top shape: 1 1 48 64 (3072)
I0729 16:26:58.242161 29217 net.cpp:129] Top shape: 1 1 48 64 (3072)
I0729 16:26:58.242167 29217 net.cpp:129] Top shape: 1 1 48 64 (3072)
I0729 16:26:58.242173 29217 net.cpp:129] Top shape: 1 1 48 64 (3072)
I0729 16:26:58.242180 29217 net.cpp:129] Top shape: 1 1 48 64 (3072)
I0729 16:26:58.242187 29217 net.cpp:129] Top shape: 1 1 48 64 (3072)
I0729 16:26:58.242194 29217 net.cpp:129] Top shape: 1 1 48 64 (3072)
I0729 16:26:58.242202 29217 net.cpp:129] Top shape: 1 1 48 64 (3072)
I0729 16:26:58.242208 29217 net.cpp:129] Top shape: 1 1 48 64 (3072)
I0729 16:26:58.242214 29217 net.cpp:129] Top shape: 1 1 48 64 (3072)
I0729 16:26:58.242221 29217 net.cpp:129] Top shape: 1 1 48 64 (3072)
I0729 16:26:58.242228 29217 net.cpp:129] Top shape: 1 1 48 64 (3072)
I0729 16:26:58.242235 29217 net.cpp:129] Top shape: 1 1 48 64 (3072)
I0729 16:26:58.242241 29217 net.cpp:129] Top shape: 1 1 48 64 (3072)
I0729 16:26:58.242249 29217 net.cpp:129] Top shape: 1 1 48 64 (3072)
I0729 16:26:58.242255 29217 net.cpp:129] Top shape: 1 1 48 64 (3072)
I0729 16:26:58.242262 29217 net.cpp:129] Top shape: 1 1 48 64 (3072)
I0729 16:26:58.242269 29217 net.cpp:129] Top shape: 1 1 48 64 (3072)
I0729 16:26:58.242276 29217 net.cpp:129] Top shape: 1 1 48 64 (3072)
I0729 16:26:58.242282 29217 net.cpp:129] Top shape: 1 1 48 64 (3072)
I0729 16:26:58.242290 29217 net.cpp:129] Top shape: 1 1 48 64 (3072)
I0729 16:26:58.242296 29217 net.cpp:129] Top shape: 1 1 48 64 (3072)
I0729 16:26:58.242303 29217 net.cpp:129] Top shape: 1 1 48 64 (3072)
I0729 16:26:58.242310 29217 net.cpp:129] Top shape: 1 1 48 64 (3072)
I0729 16:26:58.242316 29217 net.cpp:129] Top shape: 1 1 48 64 (3072)
I0729 16:26:58.242323 29217 net.cpp:129] Top shape: 1 1 48 64 (3072)
I0729 16:26:58.242331 29217 net.cpp:129] Top shape: 1 1 48 64 (3072)
I0729 16:26:58.242337 29217 net.cpp:129] Top shape: 1 1 48 64 (3072)
I0729 16:26:58.242343 29217 net.cpp:129] Top shape: 1 1 48 64 (3072)
I0729 16:26:58.242350 29217 net.cpp:129] Top shape: 1 1 48 64 (3072)
I0729 16:26:58.242357 29217 net.cpp:129] Top shape: 1 1 48 64 (3072)
I0729 16:26:58.242364 29217 net.cpp:129] Top shape: 1 1 48 64 (3072)
I0729 16:26:58.242370 29217 net.cpp:129] Top shape: 1 1 48 64 (3072)
I0729 16:26:58.242377 29217 net.cpp:129] Top shape: 1 1 48 64 (3072)
I0729 16:26:58.242384 29217 net.cpp:129] Top shape: 1 1 48 64 (3072)
I0729 16:26:58.242390 29217 net.cpp:129] Top shape: 1 1 48 64 (3072)
I0729 16:26:58.242408 29217 net.cpp:129] Top shape: 1 1 48 64 (3072)
I0729 16:26:58.242414 29217 net.cpp:129] Top shape: 1 1 48 64 (3072)
I0729 16:26:58.242421 29217 net.cpp:129] Top shape: 1 1 48 64 (3072)
I0729 16:26:58.245712 29217 net.cpp:129] Top shape: 1 1 48 64 (3072)
I0729 16:26:58.245725 29217 net.cpp:129] Top shape: 1 1 48 64 (3072)
I0729 16:26:58.245731 29217 net.cpp:129] Top shape: 1 1 48 64 (3072)
I0729 16:26:58.245738 29217 net.cpp:129] Top shape: 1 1 48 64 (3072)
I0729 16:26:58.245743 29217 net.cpp:129] Top shape: 1 1 48 64 (3072)
I0729 16:26:58.245748 29217 net.cpp:129] Top shape: 1 1 48 64 (3072)
I0729 16:26:58.245754 29217 net.cpp:129] Top shape: 1 1 48 64 (3072)
I0729 16:26:58.245760 29217 net.cpp:129] Top shape: 1 1 48 64 (3072)
I0729 16:26:58.245766 29217 net.cpp:129] Top shape: 1 1 48 64 (3072)
I0729 16:26:58.245772 29217 net.cpp:129] Top shape: 1 1 48 64 (3072)
I0729 16:26:58.245779 29217 net.cpp:129] Top shape: 1 1 48 64 (3072)
I0729 16:26:58.245786 29217 net.cpp:129] Top shape: 1 1 48 64 (3072)
I0729 16:26:58.245792 29217 net.cpp:129] Top shape: 1 1 48 64 (3072)
I0729 16:26:58.245800 29217 net.cpp:129] Top shape: 1 1 48 64 (3072)
I0729 16:26:58.245806 29217 net.cpp:129] Top shape: 1 1 48 64 (3072)
I0729 16:26:58.245812 29217 net.cpp:129] Top shape: 1 1 48 64 (3072)
I0729 16:26:58.245820 29217 net.cpp:129] Top shape: 1 1 48 64 (3072)
I0729 16:26:58.245826 29217 net.cpp:129] Top shape: 1 1 48 64 (3072)
I0729 16:26:58.245833 29217 net.cpp:129] Top shape: 1 1 48 64 (3072)
I0729 16:26:58.245839 29217 net.cpp:129] Top shape: 1 1 48 64 (3072)
I0729 16:26:58.245846 29217 net.cpp:129] Top shape: 1 1 48 64 (3072)
I0729 16:26:58.245853 29217 net.cpp:129] Top shape: 1 1 48 64 (3072)
I0729 16:26:58.245860 29217 net.cpp:129] Top shape: 1 1 48 64 (3072)
I0729 16:26:58.245867 29217 net.cpp:129] Top shape: 1 1 48 64 (3072)
I0729 16:26:58.245873 29217 net.cpp:129] Top shape: 1 1 48 64 (3072)
I0729 16:26:58.245880 29217 net.cpp:129] Top shape: 1 1 48 64 (3072)
I0729 16:26:58.245887 29217 net.cpp:129] Top shape: 1 1 48 64 (3072)
I0729 16:26:58.245894 29217 net.cpp:129] Top shape: 1 1 48 64 (3072)
I0729 16:26:58.245901 29217 net.cpp:129] Top shape: 1 1 48 64 (3072)
I0729 16:26:58.245908 29217 net.cpp:129] Top shape: 1 1 48 64 (3072)
I0729 16:26:58.245914 29217 net.cpp:129] Top shape: 1 1 48 64 (3072)
I0729 16:26:58.245921 29217 net.cpp:129] Top shape: 1 1 48 64 (3072)
I0729 16:26:58.245929 29217 net.cpp:129] Top shape: 1 1 48 64 (3072)
I0729 16:26:58.245934 29217 net.cpp:129] Top shape: 1 1 48 64 (3072)
I0729 16:26:58.245941 29217 net.cpp:129] Top shape: 1 1 48 64 (3072)
I0729 16:26:58.245949 29217 net.cpp:129] Top shape: 1 1 48 64 (3072)
I0729 16:26:58.245954 29217 net.cpp:129] Top shape: 1 1 48 64 (3072)
I0729 16:26:58.245961 29217 net.cpp:129] Top shape: 1 1 48 64 (3072)
I0729 16:26:58.245968 29217 net.cpp:129] Top shape: 1 1 48 64 (3072)
I0729 16:26:58.245975 29217 net.cpp:129] Top shape: 1 1 48 64 (3072)
I0729 16:26:58.245981 29217 net.cpp:129] Top shape: 1 1 48 64 (3072)
I0729 16:26:58.245988 29217 net.cpp:129] Top shape: 1 1 48 64 (3072)
I0729 16:26:58.245995 29217 net.cpp:129] Top shape: 1 1 48 64 (3072)
I0729 16:26:58.246002 29217 net.cpp:129] Top shape: 1 1 48 64 (3072)
I0729 16:26:58.246008 29217 net.cpp:129] Top shape: 1 1 48 64 (3072)
I0729 16:26:58.246016 29217 net.cpp:129] Top shape: 1 1 48 64 (3072)
I0729 16:26:58.246022 29217 net.cpp:129] Top shape: 1 1 48 64 (3072)
I0729 16:26:58.246029 29217 net.cpp:129] Top shape: 1 1 48 64 (3072)
I0729 16:26:58.246035 29217 net.cpp:129] Top shape: 1 1 48 64 (3072)
I0729 16:26:58.246042 29217 net.cpp:129] Top shape: 1 1 48 64 (3072)
I0729 16:26:58.246049 29217 net.cpp:129] Top shape: 1 1 48 64 (3072)
I0729 16:26:58.246057 29217 net.cpp:129] Top shape: 1 1 48 64 (3072)
I0729 16:26:58.246062 29217 net.cpp:129] Top shape: 1 1 48 64 (3072)
I0729 16:26:58.246069 29217 net.cpp:129] Top shape: 1 1 48 64 (3072)
I0729 16:26:58.246076 29217 net.cpp:129] Top shape: 1 1 48 64 (3072)
I0729 16:26:58.246083 29217 net.cpp:129] Top shape: 1 1 48 64 (3072)
I0729 16:26:58.246089 29217 net.cpp:129] Top shape: 1 1 48 64 (3072)
I0729 16:26:58.246096 29217 net.cpp:129] Top shape: 1 1 48 64 (3072)
I0729 16:26:58.246104 29217 net.cpp:129] Top shape: 1 1 48 64 (3072)
I0729 16:26:58.246121 29217 net.cpp:129] Top shape: 1 1 48 64 (3072)
I0729 16:26:58.246129 29217 net.cpp:129] Top shape: 1 1 48 64 (3072)
I0729 16:26:58.246135 29217 net.cpp:129] Top shape: 1 1 48 64 (3072)
I0729 16:26:58.246142 29217 net.cpp:129] Top shape: 1 1 48 64 (3072)
I0729 16:26:58.246150 29217 net.cpp:129] Top shape: 1 1 48 64 (3072)
I0729 16:26:58.246155 29217 net.cpp:129] Top shape: 1 1 48 64 (3072)
I0729 16:26:58.246162 29217 net.cpp:129] Top shape: 1 1 48 64 (3072)
I0729 16:26:58.246168 29217 net.cpp:129] Top shape: 1 1 48 64 (3072)
I0729 16:26:58.246176 29217 net.cpp:129] Top shape: 1 1 48 64 (3072)
I0729 16:26:58.246182 29217 net.cpp:129] Top shape: 1 1 48 64 (3072)
I0729 16:26:58.246188 29217 net.cpp:129] Top shape: 1 1 48 64 (3072)
I0729 16:26:58.246196 29217 net.cpp:129] Top shape: 1 1 48 64 (3072)
I0729 16:26:58.246202 29217 net.cpp:129] Top shape: 1 1 48 64 (3072)
I0729 16:26:58.246208 29217 net.cpp:129] Top shape: 1 1 48 64 (3072)
I0729 16:26:58.246215 29217 net.cpp:129] Top shape: 1 1 48 64 (3072)
I0729 16:26:58.246222 29217 net.cpp:129] Top shape: 1 1 48 64 (3072)
I0729 16:26:58.246228 29217 net.cpp:129] Top shape: 1 1 48 64 (3072)
I0729 16:26:58.246235 29217 net.cpp:129] Top shape: 1 1 48 64 (3072)
I0729 16:26:58.246243 29217 net.cpp:129] Top shape: 1 1 48 64 (3072)
I0729 16:26:58.246249 29217 net.cpp:129] Top shape: 1 1 48 64 (3072)
I0729 16:26:58.246256 29217 net.cpp:129] Top shape: 1 1 48 64 (3072)
I0729 16:26:58.246263 29217 net.cpp:129] Top shape: 1 1 48 64 (3072)
I0729 16:26:58.246269 29217 net.cpp:129] Top shape: 1 1 48 64 (3072)
I0729 16:26:58.246276 29217 net.cpp:129] Top shape: 1 1 48 64 (3072)
I0729 16:26:58.246282 29217 net.cpp:129] Top shape: 1 1 48 64 (3072)
I0729 16:26:58.246289 29217 net.cpp:129] Top shape: 1 1 48 64 (3072)
I0729 16:26:58.246296 29217 net.cpp:129] Top shape: 1 1 48 64 (3072)
I0729 16:26:58.246302 29217 net.cpp:129] Top shape: 1 1 48 64 (3072)
I0729 16:26:58.246309 29217 net.cpp:129] Top shape: 1 1 48 64 (3072)
I0729 16:26:58.246316 29217 net.cpp:129] Top shape: 1 1 48 64 (3072)
I0729 16:26:58.246322 29217 net.cpp:129] Top shape: 1 1 48 64 (3072)
I0729 16:26:58.246330 29217 net.cpp:129] Top shape: 1 1 48 64 (3072)
I0729 16:26:58.246335 29217 net.cpp:129] Top shape: 1 1 48 64 (3072)
I0729 16:26:58.246342 29217 net.cpp:129] Top shape: 1 1 48 64 (3072)
I0729 16:26:58.246350 29217 net.cpp:129] Top shape: 1 1 48 64 (3072)
I0729 16:26:58.246356 29217 net.cpp:129] Top shape: 1 1 48 64 (3072)
I0729 16:26:58.246362 29217 net.cpp:129] Top shape: 1 1 48 64 (3072)
I0729 16:26:58.246369 29217 net.cpp:129] Top shape: 1 1 48 64 (3072)
I0729 16:26:58.246376 29217 net.cpp:129] Top shape: 1 1 48 64 (3072)
I0729 16:26:58.246382 29217 net.cpp:129] Top shape: 1 1 48 64 (3072)
I0729 16:26:58.246389 29217 net.cpp:129] Top shape: 1 1 48 64 (3072)
I0729 16:26:58.246395 29217 net.cpp:129] Top shape: 1 1 48 64 (3072)
I0729 16:26:58.246402 29217 net.cpp:129] Top shape: 1 1 48 64 (3072)
I0729 16:26:58.246409 29217 net.cpp:129] Top shape: 1 1 48 64 (3072)
I0729 16:26:58.246415 29217 net.cpp:129] Top shape: 1 1 48 64 (3072)
I0729 16:26:58.246423 29217 net.cpp:129] Top shape: 1 1 48 64 (3072)
I0729 16:26:58.246429 29217 net.cpp:129] Top shape: 1 1 48 64 (3072)
I0729 16:26:58.246435 29217 net.cpp:129] Top shape: 1 1 48 64 (3072)
I0729 16:26:58.246443 29217 net.cpp:129] Top shape: 1 1 48 64 (3072)
I0729 16:26:58.246449 29217 net.cpp:129] Top shape: 1 1 48 64 (3072)
I0729 16:26:58.246456 29217 net.cpp:129] Top shape: 1 1 48 64 (3072)
I0729 16:26:58.246462 29217 net.cpp:129] Top shape: 1 1 48 64 (3072)
I0729 16:26:58.246469 29217 net.cpp:129] Top shape: 1 1 48 64 (3072)
I0729 16:26:58.246476 29217 net.cpp:129] Top shape: 1 1 48 64 (3072)
I0729 16:26:58.246482 29217 net.cpp:129] Top shape: 1 1 48 64 (3072)
I0729 16:26:58.246490 29217 net.cpp:129] Top shape: 1 1 48 64 (3072)
I0729 16:26:58.246495 29217 net.cpp:129] Top shape: 1 1 48 64 (3072)
I0729 16:26:58.246502 29217 net.cpp:129] Top shape: 1 1 48 64 (3072)
I0729 16:26:58.246510 29217 net.cpp:129] Top shape: 1 1 48 64 (3072)
I0729 16:26:58.246525 29217 net.cpp:129] Top shape: 1 1 48 64 (3072)
I0729 16:26:58.246532 29217 net.cpp:129] Top shape: 1 1 48 64 (3072)
I0729 16:26:58.246539 29217 net.cpp:129] Top shape: 1 1 48 64 (3072)
I0729 16:26:58.246546 29217 net.cpp:129] Top shape: 1 1 48 64 (3072)
I0729 16:26:58.246552 29217 net.cpp:129] Top shape: 1 1 48 64 (3072)
I0729 16:26:58.246559 29217 net.cpp:129] Top shape: 1 1 48 64 (3072)
I0729 16:26:58.246565 29217 net.cpp:129] Top shape: 1 1 48 64 (3072)
I0729 16:26:58.246572 29217 net.cpp:129] Top shape: 1 1 48 64 (3072)
I0729 16:26:58.246578 29217 net.cpp:129] Top shape: 1 1 48 64 (3072)
I0729 16:26:58.246585 29217 net.cpp:129] Top shape: 1 1 48 64 (3072)
I0729 16:26:58.246592 29217 net.cpp:129] Top shape: 1 1 48 64 (3072)
I0729 16:26:58.246599 29217 net.cpp:129] Top shape: 1 1 48 64 (3072)
I0729 16:26:58.246605 29217 net.cpp:129] Top shape: 1 1 48 64 (3072)
I0729 16:26:58.246613 29217 net.cpp:129] Top shape: 1 1 48 64 (3072)
I0729 16:26:58.246619 29217 net.cpp:129] Top shape: 1 1 48 64 (3072)
I0729 16:26:58.246626 29217 net.cpp:129] Top shape: 1 1 48 64 (3072)
I0729 16:26:58.246632 29217 net.cpp:129] Top shape: 1 1 48 64 (3072)
I0729 16:26:58.246639 29217 net.cpp:129] Top shape: 1 1 48 64 (3072)
I0729 16:26:58.246646 29217 net.cpp:129] Top shape: 1 1 48 64 (3072)
I0729 16:26:58.246652 29217 net.cpp:129] Top shape: 1 1 48 64 (3072)
I0729 16:26:58.246659 29217 net.cpp:129] Top shape: 1 1 48 64 (3072)
I0729 16:26:58.246666 29217 net.cpp:129] Top shape: 1 1 48 64 (3072)
I0729 16:26:58.246672 29217 net.cpp:129] Top shape: 1 1 48 64 (3072)
I0729 16:26:58.246680 29217 net.cpp:129] Top shape: 1 1 48 64 (3072)
I0729 16:26:58.246685 29217 net.cpp:129] Top shape: 1 1 48 64 (3072)
I0729 16:26:58.246692 29217 net.cpp:129] Top shape: 1 1 48 64 (3072)
I0729 16:26:58.246700 29217 net.cpp:129] Top shape: 1 1 48 64 (3072)
I0729 16:26:58.246706 29217 net.cpp:129] Top shape: 1 1 48 64 (3072)
I0729 16:26:58.246712 29217 net.cpp:129] Top shape: 1 1 48 64 (3072)
I0729 16:26:58.246719 29217 net.cpp:129] Top shape: 1 1 48 64 (3072)
I0729 16:26:58.246726 29217 net.cpp:129] Top shape: 1 1 48 64 (3072)
I0729 16:26:58.246732 29217 net.cpp:129] Top shape: 1 1 48 64 (3072)
I0729 16:26:58.246739 29217 net.cpp:129] Top shape: 1 1 48 64 (3072)
I0729 16:26:58.246747 29217 net.cpp:129] Top shape: 1 1 48 64 (3072)
I0729 16:26:58.246752 29217 net.cpp:129] Top shape: 1 1 48 64 (3072)
I0729 16:26:58.246759 29217 net.cpp:129] Top shape: 1 1 48 64 (3072)
I0729 16:26:58.246767 29217 net.cpp:129] Top shape: 1 1 48 64 (3072)
I0729 16:26:58.246773 29217 net.cpp:129] Top shape: 1 1 48 64 (3072)
I0729 16:26:58.246779 29217 net.cpp:129] Top shape: 1 1 48 64 (3072)
I0729 16:26:58.246785 29217 net.cpp:129] Top shape: 1 1 48 64 (3072)
I0729 16:26:58.246793 29217 net.cpp:129] Top shape: 1 1 48 64 (3072)
I0729 16:26:58.246799 29217 net.cpp:129] Top shape: 1 1 48 64 (3072)
I0729 16:26:58.246806 29217 net.cpp:129] Top shape: 1 1 48 64 (3072)
I0729 16:26:58.246812 29217 net.cpp:129] Top shape: 1 1 48 64 (3072)
I0729 16:26:58.246819 29217 net.cpp:129] Top shape: 1 1 48 64 (3072)
I0729 16:26:58.246831 29217 net.cpp:129] Top shape: 1 1 48 64 (3072)
I0729 16:26:58.246839 29217 net.cpp:129] Top shape: 1 1 48 64 (3072)
I0729 16:26:58.246845 29217 net.cpp:129] Top shape: 1 1 48 64 (3072)
I0729 16:26:58.246852 29217 net.cpp:129] Top shape: 1 1 48 64 (3072)
I0729 16:26:58.246858 29217 net.cpp:129] Top shape: 1 1 48 64 (3072)
I0729 16:26:58.246865 29217 net.cpp:129] Top shape: 1 1 48 64 (3072)
I0729 16:26:58.246871 29217 net.cpp:129] Top shape: 1 1 48 64 (3072)
I0729 16:26:58.246878 29217 net.cpp:129] Top shape: 1 1 48 64 (3072)
I0729 16:26:58.246884 29217 net.cpp:129] Top shape: 1 1 48 64 (3072)
I0729 16:26:58.246891 29217 net.cpp:129] Top shape: 1 1 48 64 (3072)
I0729 16:26:58.246897 29217 net.cpp:129] Top shape: 1 1 48 64 (3072)
I0729 16:26:58.246904 29217 net.cpp:129] Top shape: 1 1 48 64 (3072)
I0729 16:26:58.246912 29217 net.cpp:129] Top shape: 1 1 48 64 (3072)
I0729 16:26:58.246917 29217 net.cpp:129] Top shape: 1 1 48 64 (3072)
I0729 16:26:58.246924 29217 net.cpp:129] Top shape: 1 1 48 64 (3072)
I0729 16:26:58.246940 29217 net.cpp:129] Top shape: 1 1 48 64 (3072)
I0729 16:26:58.246948 29217 net.cpp:129] Top shape: 1 1 48 64 (3072)
I0729 16:26:58.246954 29217 net.cpp:129] Top shape: 1 1 48 64 (3072)
I0729 16:26:58.246960 29217 net.cpp:129] Top shape: 1 1 48 64 (3072)
I0729 16:26:58.246968 29217 net.cpp:129] Top shape: 1 1 48 64 (3072)
I0729 16:26:58.246973 29217 net.cpp:137] Memory required for data: 508833792
I0729 16:26:58.246981 29217 layer_factory.hpp:77] Creating layer score1_slicer_conv_0_split
I0729 16:26:58.246995 29217 net.cpp:84] Creating Layer score1_slicer_conv_0_split
I0729 16:26:58.247005 29217 net.cpp:406] score1_slicer_conv_0_split <- score1
I0729 16:26:58.247020 29217 net.cpp:380] score1_slicer_conv_0_split -> score1_slicer_conv_0_split_0
I0729 16:26:58.247035 29217 net.cpp:380] score1_slicer_conv_0_split -> score1_slicer_conv_0_split_1
I0729 16:26:58.247229 29217 net.cpp:122] Setting up score1_slicer_conv_0_split
I0729 16:26:58.247242 29217 net.cpp:129] Top shape: 1 1 48 64 (3072)
I0729 16:26:58.247248 29217 net.cpp:129] Top shape: 1 1 48 64 (3072)
I0729 16:26:58.247253 29217 net.cpp:137] Memory required for data: 508858368
I0729 16:26:58.247258 29217 layer_factory.hpp:77] Creating layer score2_slicer_conv_1_split
I0729 16:26:58.247270 29217 net.cpp:84] Creating Layer score2_slicer_conv_1_split
I0729 16:26:58.247277 29217 net.cpp:406] score2_slicer_conv_1_split <- score2
I0729 16:26:58.247287 29217 net.cpp:380] score2_slicer_conv_1_split -> score2_slicer_conv_1_split_0
I0729 16:26:58.247301 29217 net.cpp:380] score2_slicer_conv_1_split -> score2_slicer_conv_1_split_1
I0729 16:26:58.250649 29217 net.cpp:122] Setting up score2_slicer_conv_1_split
I0729 16:26:58.250661 29217 net.cpp:129] Top shape: 1 1 48 64 (3072)
I0729 16:26:58.250669 29217 net.cpp:129] Top shape: 1 1 48 64 (3072)
I0729 16:26:58.250674 29217 net.cpp:137] Memory required for data: 508882944
I0729 16:26:58.250679 29217 layer_factory.hpp:77] Creating layer score3_slicer_conv_2_split
I0729 16:26:58.250689 29217 net.cpp:84] Creating Layer score3_slicer_conv_2_split
I0729 16:26:58.250696 29217 net.cpp:406] score3_slicer_conv_2_split <- score3
I0729 16:26:58.250707 29217 net.cpp:380] score3_slicer_conv_2_split -> score3_slicer_conv_2_split_0
I0729 16:26:58.250718 29217 net.cpp:380] score3_slicer_conv_2_split -> score3_slicer_conv_2_split_1
I0729 16:26:58.250885 29217 net.cpp:122] Setting up score3_slicer_conv_2_split
I0729 16:26:58.250896 29217 net.cpp:129] Top shape: 1 1 48 64 (3072)
I0729 16:26:58.250903 29217 net.cpp:129] Top shape: 1 1 48 64 (3072)
I0729 16:26:58.250908 29217 net.cpp:137] Memory required for data: 508907520
I0729 16:26:58.250913 29217 layer_factory.hpp:77] Creating layer score4_slicer_conv_3_split
I0729 16:26:58.250923 29217 net.cpp:84] Creating Layer score4_slicer_conv_3_split
I0729 16:26:58.250931 29217 net.cpp:406] score4_slicer_conv_3_split <- score4
I0729 16:26:58.250939 29217 net.cpp:380] score4_slicer_conv_3_split -> score4_slicer_conv_3_split_0
I0729 16:26:58.250952 29217 net.cpp:380] score4_slicer_conv_3_split -> score4_slicer_conv_3_split_1
I0729 16:26:58.251116 29217 net.cpp:122] Setting up score4_slicer_conv_3_split
I0729 16:26:58.251127 29217 net.cpp:129] Top shape: 1 1 48 64 (3072)
I0729 16:26:58.251133 29217 net.cpp:129] Top shape: 1 1 48 64 (3072)
I0729 16:26:58.251138 29217 net.cpp:137] Memory required for data: 508932096
I0729 16:26:58.251144 29217 layer_factory.hpp:77] Creating layer score5_slicer_conv_4_split
I0729 16:26:58.251152 29217 net.cpp:84] Creating Layer score5_slicer_conv_4_split
I0729 16:26:58.251158 29217 net.cpp:406] score5_slicer_conv_4_split <- score5
I0729 16:26:58.251168 29217 net.cpp:380] score5_slicer_conv_4_split -> score5_slicer_conv_4_split_0
I0729 16:26:58.251179 29217 net.cpp:380] score5_slicer_conv_4_split -> score5_slicer_conv_4_split_1
I0729 16:26:58.251343 29217 net.cpp:122] Setting up score5_slicer_conv_4_split
I0729 16:26:58.251355 29217 net.cpp:129] Top shape: 1 1 48 64 (3072)
I0729 16:26:58.251361 29217 net.cpp:129] Top shape: 1 1 48 64 (3072)
I0729 16:26:58.251380 29217 net.cpp:137] Memory required for data: 508956672
I0729 16:26:58.251387 29217 layer_factory.hpp:77] Creating layer score6_slicer_conv_5_split
I0729 16:26:58.251395 29217 net.cpp:84] Creating Layer score6_slicer_conv_5_split
I0729 16:26:58.251402 29217 net.cpp:406] score6_slicer_conv_5_split <- score6
I0729 16:26:58.251415 29217 net.cpp:380] score6_slicer_conv_5_split -> score6_slicer_conv_5_split_0
I0729 16:26:58.251425 29217 net.cpp:380] score6_slicer_conv_5_split -> score6_slicer_conv_5_split_1
I0729 16:26:58.251590 29217 net.cpp:122] Setting up score6_slicer_conv_5_split
I0729 16:26:58.251601 29217 net.cpp:129] Top shape: 1 1 48 64 (3072)
I0729 16:26:58.251607 29217 net.cpp:129] Top shape: 1 1 48 64 (3072)
I0729 16:26:58.251612 29217 net.cpp:137] Memory required for data: 508981248
I0729 16:26:58.251617 29217 layer_factory.hpp:77] Creating layer score7_slicer_conv_6_split
I0729 16:26:58.251626 29217 net.cpp:84] Creating Layer score7_slicer_conv_6_split
I0729 16:26:58.251632 29217 net.cpp:406] score7_slicer_conv_6_split <- score7
I0729 16:26:58.251642 29217 net.cpp:380] score7_slicer_conv_6_split -> score7_slicer_conv_6_split_0
I0729 16:26:58.251653 29217 net.cpp:380] score7_slicer_conv_6_split -> score7_slicer_conv_6_split_1
I0729 16:26:58.251818 29217 net.cpp:122] Setting up score7_slicer_conv_6_split
I0729 16:26:58.251829 29217 net.cpp:129] Top shape: 1 1 48 64 (3072)
I0729 16:26:58.251835 29217 net.cpp:129] Top shape: 1 1 48 64 (3072)
I0729 16:26:58.251840 29217 net.cpp:137] Memory required for data: 509005824
I0729 16:26:58.251845 29217 layer_factory.hpp:77] Creating layer score8_slicer_conv_7_split
I0729 16:26:58.251853 29217 net.cpp:84] Creating Layer score8_slicer_conv_7_split
I0729 16:26:58.251860 29217 net.cpp:406] score8_slicer_conv_7_split <- score8
I0729 16:26:58.251871 29217 net.cpp:380] score8_slicer_conv_7_split -> score8_slicer_conv_7_split_0
I0729 16:26:58.251883 29217 net.cpp:380] score8_slicer_conv_7_split -> score8_slicer_conv_7_split_1
I0729 16:26:58.252044 29217 net.cpp:122] Setting up score8_slicer_conv_7_split
I0729 16:26:58.252055 29217 net.cpp:129] Top shape: 1 1 48 64 (3072)
I0729 16:26:58.252061 29217 net.cpp:129] Top shape: 1 1 48 64 (3072)
I0729 16:26:58.252066 29217 net.cpp:137] Memory required for data: 509030400
I0729 16:26:58.252071 29217 layer_factory.hpp:77] Creating layer score9_slicer_conv_8_split
I0729 16:26:58.252084 29217 net.cpp:84] Creating Layer score9_slicer_conv_8_split
I0729 16:26:58.252091 29217 net.cpp:406] score9_slicer_conv_8_split <- score9
I0729 16:26:58.252100 29217 net.cpp:380] score9_slicer_conv_8_split -> score9_slicer_conv_8_split_0
I0729 16:26:58.252111 29217 net.cpp:380] score9_slicer_conv_8_split -> score9_slicer_conv_8_split_1
I0729 16:26:58.255481 29217 net.cpp:122] Setting up score9_slicer_conv_8_split
I0729 16:26:58.255493 29217 net.cpp:129] Top shape: 1 1 48 64 (3072)
I0729 16:26:58.255501 29217 net.cpp:129] Top shape: 1 1 48 64 (3072)
I0729 16:26:58.255506 29217 net.cpp:137] Memory required for data: 509054976
I0729 16:26:58.255511 29217 layer_factory.hpp:77] Creating layer score10_slicer_conv_9_split
I0729 16:26:58.255518 29217 net.cpp:84] Creating Layer score10_slicer_conv_9_split
I0729 16:26:58.255527 29217 net.cpp:406] score10_slicer_conv_9_split <- score10
I0729 16:26:58.255537 29217 net.cpp:380] score10_slicer_conv_9_split -> score10_slicer_conv_9_split_0
I0729 16:26:58.255550 29217 net.cpp:380] score10_slicer_conv_9_split -> score10_slicer_conv_9_split_1
I0729 16:26:58.255713 29217 net.cpp:122] Setting up score10_slicer_conv_9_split
I0729 16:26:58.255725 29217 net.cpp:129] Top shape: 1 1 48 64 (3072)
I0729 16:26:58.255731 29217 net.cpp:129] Top shape: 1 1 48 64 (3072)
I0729 16:26:58.255736 29217 net.cpp:137] Memory required for data: 509079552
I0729 16:26:58.255741 29217 layer_factory.hpp:77] Creating layer score11_slicer_conv_10_split
I0729 16:26:58.255753 29217 net.cpp:84] Creating Layer score11_slicer_conv_10_split
I0729 16:26:58.255759 29217 net.cpp:406] score11_slicer_conv_10_split <- score11
I0729 16:26:58.255792 29217 net.cpp:380] score11_slicer_conv_10_split -> score11_slicer_conv_10_split_0
I0729 16:26:58.255805 29217 net.cpp:380] score11_slicer_conv_10_split -> score11_slicer_conv_10_split_1
I0729 16:26:58.255970 29217 net.cpp:122] Setting up score11_slicer_conv_10_split
I0729 16:26:58.255982 29217 net.cpp:129] Top shape: 1 1 48 64 (3072)
I0729 16:26:58.255988 29217 net.cpp:129] Top shape: 1 1 48 64 (3072)
I0729 16:26:58.255993 29217 net.cpp:137] Memory required for data: 509104128
I0729 16:26:58.255998 29217 layer_factory.hpp:77] Creating layer score12_slicer_conv_11_split
I0729 16:26:58.256006 29217 net.cpp:84] Creating Layer score12_slicer_conv_11_split
I0729 16:26:58.256011 29217 net.cpp:406] score12_slicer_conv_11_split <- score12
I0729 16:26:58.256019 29217 net.cpp:380] score12_slicer_conv_11_split -> score12_slicer_conv_11_split_0
I0729 16:26:58.256028 29217 net.cpp:380] score12_slicer_conv_11_split -> score12_slicer_conv_11_split_1
I0729 16:26:58.256202 29217 net.cpp:122] Setting up score12_slicer_conv_11_split
I0729 16:26:58.256216 29217 net.cpp:129] Top shape: 1 1 48 64 (3072)
I0729 16:26:58.256222 29217 net.cpp:129] Top shape: 1 1 48 64 (3072)
I0729 16:26:58.256225 29217 net.cpp:137] Memory required for data: 509128704
I0729 16:26:58.256230 29217 layer_factory.hpp:77] Creating layer score13_slicer_conv_12_split
I0729 16:26:58.256237 29217 net.cpp:84] Creating Layer score13_slicer_conv_12_split
I0729 16:26:58.256243 29217 net.cpp:406] score13_slicer_conv_12_split <- score13
I0729 16:26:58.256253 29217 net.cpp:380] score13_slicer_conv_12_split -> score13_slicer_conv_12_split_0
I0729 16:26:58.256263 29217 net.cpp:380] score13_slicer_conv_12_split -> score13_slicer_conv_12_split_1
I0729 16:26:58.256435 29217 net.cpp:122] Setting up score13_slicer_conv_12_split
I0729 16:26:58.256446 29217 net.cpp:129] Top shape: 1 1 48 64 (3072)
I0729 16:26:58.256453 29217 net.cpp:129] Top shape: 1 1 48 64 (3072)
I0729 16:26:58.256458 29217 net.cpp:137] Memory required for data: 509153280
I0729 16:26:58.256463 29217 layer_factory.hpp:77] Creating layer score14_slicer_conv_13_split
I0729 16:26:58.256469 29217 net.cpp:84] Creating Layer score14_slicer_conv_13_split
I0729 16:26:58.256474 29217 net.cpp:406] score14_slicer_conv_13_split <- score14
I0729 16:26:58.256482 29217 net.cpp:380] score14_slicer_conv_13_split -> score14_slicer_conv_13_split_0
I0729 16:26:58.256491 29217 net.cpp:380] score14_slicer_conv_13_split -> score14_slicer_conv_13_split_1
I0729 16:26:58.256659 29217 net.cpp:122] Setting up score14_slicer_conv_13_split
I0729 16:26:58.256671 29217 net.cpp:129] Top shape: 1 1 48 64 (3072)
I0729 16:26:58.256677 29217 net.cpp:129] Top shape: 1 1 48 64 (3072)
I0729 16:26:58.256681 29217 net.cpp:137] Memory required for data: 509177856
I0729 16:26:58.256686 29217 layer_factory.hpp:77] Creating layer score15_slicer_conv_14_split
I0729 16:26:58.256693 29217 net.cpp:84] Creating Layer score15_slicer_conv_14_split
I0729 16:26:58.256698 29217 net.cpp:406] score15_slicer_conv_14_split <- score15
I0729 16:26:58.256707 29217 net.cpp:380] score15_slicer_conv_14_split -> score15_slicer_conv_14_split_0
I0729 16:26:58.256716 29217 net.cpp:380] score15_slicer_conv_14_split -> score15_slicer_conv_14_split_1
I0729 16:26:58.256873 29217 net.cpp:122] Setting up score15_slicer_conv_14_split
I0729 16:26:58.256884 29217 net.cpp:129] Top shape: 1 1 48 64 (3072)
I0729 16:26:58.256889 29217 net.cpp:129] Top shape: 1 1 48 64 (3072)
I0729 16:26:58.256894 29217 net.cpp:137] Memory required for data: 509202432
I0729 16:26:58.256898 29217 layer_factory.hpp:77] Creating layer score16_slicer_conv_15_split
I0729 16:26:58.256908 29217 net.cpp:84] Creating Layer score16_slicer_conv_15_split
I0729 16:26:58.256913 29217 net.cpp:406] score16_slicer_conv_15_split <- score16
I0729 16:26:58.256920 29217 net.cpp:380] score16_slicer_conv_15_split -> score16_slicer_conv_15_split_0
I0729 16:26:58.256929 29217 net.cpp:380] score16_slicer_conv_15_split -> score16_slicer_conv_15_split_1
I0729 16:26:58.260296 29217 net.cpp:122] Setting up score16_slicer_conv_15_split
I0729 16:26:58.260336 29217 net.cpp:129] Top shape: 1 1 48 64 (3072)
I0729 16:26:58.260344 29217 net.cpp:129] Top shape: 1 1 48 64 (3072)
I0729 16:26:58.260349 29217 net.cpp:137] Memory required for data: 509227008
I0729 16:26:58.260354 29217 layer_factory.hpp:77] Creating layer score17_slicer_conv_16_split
I0729 16:26:58.260361 29217 net.cpp:84] Creating Layer score17_slicer_conv_16_split
I0729 16:26:58.260366 29217 net.cpp:406] score17_slicer_conv_16_split <- score17
I0729 16:26:58.260375 29217 net.cpp:380] score17_slicer_conv_16_split -> score17_slicer_conv_16_split_0
I0729 16:26:58.260388 29217 net.cpp:380] score17_slicer_conv_16_split -> score17_slicer_conv_16_split_1
I0729 16:26:58.260556 29217 net.cpp:122] Setting up score17_slicer_conv_16_split
I0729 16:26:58.260567 29217 net.cpp:129] Top shape: 1 1 48 64 (3072)
I0729 16:26:58.260573 29217 net.cpp:129] Top shape: 1 1 48 64 (3072)
I0729 16:26:58.260577 29217 net.cpp:137] Memory required for data: 509251584
I0729 16:26:58.260581 29217 layer_factory.hpp:77] Creating layer score18_slicer_conv_17_split
I0729 16:26:58.260591 29217 net.cpp:84] Creating Layer score18_slicer_conv_17_split
I0729 16:26:58.260596 29217 net.cpp:406] score18_slicer_conv_17_split <- score18
I0729 16:26:58.260604 29217 net.cpp:380] score18_slicer_conv_17_split -> score18_slicer_conv_17_split_0
I0729 16:26:58.260612 29217 net.cpp:380] score18_slicer_conv_17_split -> score18_slicer_conv_17_split_1
I0729 16:26:58.260774 29217 net.cpp:122] Setting up score18_slicer_conv_17_split
I0729 16:26:58.260784 29217 net.cpp:129] Top shape: 1 1 48 64 (3072)
I0729 16:26:58.260789 29217 net.cpp:129] Top shape: 1 1 48 64 (3072)
I0729 16:26:58.260794 29217 net.cpp:137] Memory required for data: 509276160
I0729 16:26:58.260798 29217 layer_factory.hpp:77] Creating layer score19_slicer_conv_18_split
I0729 16:26:58.260805 29217 net.cpp:84] Creating Layer score19_slicer_conv_18_split
I0729 16:26:58.260810 29217 net.cpp:406] score19_slicer_conv_18_split <- score19
I0729 16:26:58.260818 29217 net.cpp:380] score19_slicer_conv_18_split -> score19_slicer_conv_18_split_0
I0729 16:26:58.260826 29217 net.cpp:380] score19_slicer_conv_18_split -> score19_slicer_conv_18_split_1
I0729 16:26:58.260988 29217 net.cpp:122] Setting up score19_slicer_conv_18_split
I0729 16:26:58.260998 29217 net.cpp:129] Top shape: 1 1 48 64 (3072)
I0729 16:26:58.261004 29217 net.cpp:129] Top shape: 1 1 48 64 (3072)
I0729 16:26:58.261008 29217 net.cpp:137] Memory required for data: 509300736
I0729 16:26:58.261013 29217 layer_factory.hpp:77] Creating layer score20_slicer_conv_19_split
I0729 16:26:58.261021 29217 net.cpp:84] Creating Layer score20_slicer_conv_19_split
I0729 16:26:58.261026 29217 net.cpp:406] score20_slicer_conv_19_split <- score20
I0729 16:26:58.261034 29217 net.cpp:380] score20_slicer_conv_19_split -> score20_slicer_conv_19_split_0
I0729 16:26:58.261042 29217 net.cpp:380] score20_slicer_conv_19_split -> score20_slicer_conv_19_split_1
I0729 16:26:58.261203 29217 net.cpp:122] Setting up score20_slicer_conv_19_split
I0729 16:26:58.261211 29217 net.cpp:129] Top shape: 1 1 48 64 (3072)
I0729 16:26:58.261217 29217 net.cpp:129] Top shape: 1 1 48 64 (3072)
I0729 16:26:58.261221 29217 net.cpp:137] Memory required for data: 509325312
I0729 16:26:58.261226 29217 layer_factory.hpp:77] Creating layer score21_slicer_conv_20_split
I0729 16:26:58.261232 29217 net.cpp:84] Creating Layer score21_slicer_conv_20_split
I0729 16:26:58.261238 29217 net.cpp:406] score21_slicer_conv_20_split <- score21
I0729 16:26:58.261245 29217 net.cpp:380] score21_slicer_conv_20_split -> score21_slicer_conv_20_split_0
I0729 16:26:58.261253 29217 net.cpp:380] score21_slicer_conv_20_split -> score21_slicer_conv_20_split_1
I0729 16:26:58.261441 29217 net.cpp:122] Setting up score21_slicer_conv_20_split
I0729 16:26:58.261456 29217 net.cpp:129] Top shape: 1 1 48 64 (3072)
I0729 16:26:58.261461 29217 net.cpp:129] Top shape: 1 1 48 64 (3072)
I0729 16:26:58.261466 29217 net.cpp:137] Memory required for data: 509349888
I0729 16:26:58.261471 29217 layer_factory.hpp:77] Creating layer score22_slicer_conv_21_split
I0729 16:26:58.261490 29217 net.cpp:84] Creating Layer score22_slicer_conv_21_split
I0729 16:26:58.261497 29217 net.cpp:406] score22_slicer_conv_21_split <- score22
I0729 16:26:58.261507 29217 net.cpp:380] score22_slicer_conv_21_split -> score22_slicer_conv_21_split_0
I0729 16:26:58.261517 29217 net.cpp:380] score22_slicer_conv_21_split -> score22_slicer_conv_21_split_1
I0729 16:26:58.261678 29217 net.cpp:122] Setting up score22_slicer_conv_21_split
I0729 16:26:58.261688 29217 net.cpp:129] Top shape: 1 1 48 64 (3072)
I0729 16:26:58.261694 29217 net.cpp:129] Top shape: 1 1 48 64 (3072)
I0729 16:26:58.261699 29217 net.cpp:137] Memory required for data: 509374464
I0729 16:26:58.261704 29217 layer_factory.hpp:77] Creating layer score23_slicer_conv_22_split
I0729 16:26:58.261711 29217 net.cpp:84] Creating Layer score23_slicer_conv_22_split
I0729 16:26:58.263309 29217 net.cpp:406] score23_slicer_conv_22_split <- score23
I0729 16:26:58.263321 29217 net.cpp:380] score23_slicer_conv_22_split -> score23_slicer_conv_22_split_0
I0729 16:26:58.263330 29217 net.cpp:380] score23_slicer_conv_22_split -> score23_slicer_conv_22_split_1
I0729 16:26:58.263500 29217 net.cpp:122] Setting up score23_slicer_conv_22_split
I0729 16:26:58.263510 29217 net.cpp:129] Top shape: 1 1 48 64 (3072)
I0729 16:26:58.263516 29217 net.cpp:129] Top shape: 1 1 48 64 (3072)
I0729 16:26:58.263521 29217 net.cpp:137] Memory required for data: 509399040
I0729 16:26:58.263526 29217 layer_factory.hpp:77] Creating layer score24_slicer_conv_23_split
I0729 16:26:58.263533 29217 net.cpp:84] Creating Layer score24_slicer_conv_23_split
I0729 16:26:58.263538 29217 net.cpp:406] score24_slicer_conv_23_split <- score24
I0729 16:26:58.263548 29217 net.cpp:380] score24_slicer_conv_23_split -> score24_slicer_conv_23_split_0
I0729 16:26:58.263557 29217 net.cpp:380] score24_slicer_conv_23_split -> score24_slicer_conv_23_split_1
I0729 16:26:58.263715 29217 net.cpp:122] Setting up score24_slicer_conv_23_split
I0729 16:26:58.263725 29217 net.cpp:129] Top shape: 1 1 48 64 (3072)
I0729 16:26:58.263731 29217 net.cpp:129] Top shape: 1 1 48 64 (3072)
I0729 16:26:58.263736 29217 net.cpp:137] Memory required for data: 509423616
I0729 16:26:58.263741 29217 layer_factory.hpp:77] Creating layer score25_slicer_conv_24_split
I0729 16:26:58.263749 29217 net.cpp:84] Creating Layer score25_slicer_conv_24_split
I0729 16:26:58.263756 29217 net.cpp:406] score25_slicer_conv_24_split <- score25
I0729 16:26:58.263762 29217 net.cpp:380] score25_slicer_conv_24_split -> score25_slicer_conv_24_split_0
I0729 16:26:58.263772 29217 net.cpp:380] score25_slicer_conv_24_split -> score25_slicer_conv_24_split_1
I0729 16:26:58.263931 29217 net.cpp:122] Setting up score25_slicer_conv_24_split
I0729 16:26:58.263941 29217 net.cpp:129] Top shape: 1 1 48 64 (3072)
I0729 16:26:58.263947 29217 net.cpp:129] Top shape: 1 1 48 64 (3072)
I0729 16:26:58.263952 29217 net.cpp:137] Memory required for data: 509448192
I0729 16:26:58.263957 29217 layer_factory.hpp:77] Creating layer score26_slicer_conv_25_split
I0729 16:26:58.263963 29217 net.cpp:84] Creating Layer score26_slicer_conv_25_split
I0729 16:26:58.263968 29217 net.cpp:406] score26_slicer_conv_25_split <- score26
I0729 16:26:58.263978 29217 net.cpp:380] score26_slicer_conv_25_split -> score26_slicer_conv_25_split_0
I0729 16:26:58.263986 29217 net.cpp:380] score26_slicer_conv_25_split -> score26_slicer_conv_25_split_1
I0729 16:26:58.264143 29217 net.cpp:122] Setting up score26_slicer_conv_25_split
I0729 16:26:58.264154 29217 net.cpp:129] Top shape: 1 1 48 64 (3072)
I0729 16:26:58.264160 29217 net.cpp:129] Top shape: 1 1 48 64 (3072)
I0729 16:26:58.264164 29217 net.cpp:137] Memory required for data: 509472768
I0729 16:26:58.264169 29217 layer_factory.hpp:77] Creating layer score27_slicer_conv_26_split
I0729 16:26:58.264178 29217 net.cpp:84] Creating Layer score27_slicer_conv_26_split
I0729 16:26:58.264184 29217 net.cpp:406] score27_slicer_conv_26_split <- score27
I0729 16:26:58.264191 29217 net.cpp:380] score27_slicer_conv_26_split -> score27_slicer_conv_26_split_0
I0729 16:26:58.264217 29217 net.cpp:380] score27_slicer_conv_26_split -> score27_slicer_conv_26_split_1
I0729 16:26:58.264379 29217 net.cpp:122] Setting up score27_slicer_conv_26_split
I0729 16:26:58.264389 29217 net.cpp:129] Top shape: 1 1 48 64 (3072)
I0729 16:26:58.264395 29217 net.cpp:129] Top shape: 1 1 48 64 (3072)
I0729 16:26:58.264400 29217 net.cpp:137] Memory required for data: 509497344
I0729 16:26:58.264405 29217 layer_factory.hpp:77] Creating layer score28_slicer_conv_27_split
I0729 16:26:58.264410 29217 net.cpp:84] Creating Layer score28_slicer_conv_27_split
I0729 16:26:58.264416 29217 net.cpp:406] score28_slicer_conv_27_split <- score28
I0729 16:26:58.264425 29217 net.cpp:380] score28_slicer_conv_27_split -> score28_slicer_conv_27_split_0
I0729 16:26:58.264432 29217 net.cpp:380] score28_slicer_conv_27_split -> score28_slicer_conv_27_split_1
I0729 16:26:58.264600 29217 net.cpp:122] Setting up score28_slicer_conv_27_split
I0729 16:26:58.264612 29217 net.cpp:129] Top shape: 1 1 48 64 (3072)
I0729 16:26:58.264619 29217 net.cpp:129] Top shape: 1 1 48 64 (3072)
I0729 16:26:58.264623 29217 net.cpp:137] Memory required for data: 509521920
I0729 16:26:58.264629 29217 layer_factory.hpp:77] Creating layer score29_slicer_conv_28_split
I0729 16:26:58.264647 29217 net.cpp:84] Creating Layer score29_slicer_conv_28_split
I0729 16:26:58.264653 29217 net.cpp:406] score29_slicer_conv_28_split <- score29
I0729 16:26:58.264662 29217 net.cpp:380] score29_slicer_conv_28_split -> score29_slicer_conv_28_split_0
I0729 16:26:58.264672 29217 net.cpp:380] score29_slicer_conv_28_split -> score29_slicer_conv_28_split_1
I0729 16:26:58.264840 29217 net.cpp:122] Setting up score29_slicer_conv_28_split
I0729 16:26:58.264850 29217 net.cpp:129] Top shape: 1 1 48 64 (3072)
I0729 16:26:58.264856 29217 net.cpp:129] Top shape: 1 1 48 64 (3072)
I0729 16:26:58.264861 29217 net.cpp:137] Memory required for data: 509546496
I0729 16:26:58.264868 29217 layer_factory.hpp:77] Creating layer score30_slicer_conv_29_split
I0729 16:26:58.264876 29217 net.cpp:84] Creating Layer score30_slicer_conv_29_split
I0729 16:26:58.264883 29217 net.cpp:406] score30_slicer_conv_29_split <- score30
I0729 16:26:58.264890 29217 net.cpp:380] score30_slicer_conv_29_split -> score30_slicer_conv_29_split_0
I0729 16:26:58.264899 29217 net.cpp:380] score30_slicer_conv_29_split -> score30_slicer_conv_29_split_1
I0729 16:26:58.265067 29217 net.cpp:122] Setting up score30_slicer_conv_29_split
I0729 16:26:58.265079 29217 net.cpp:129] Top shape: 1 1 48 64 (3072)
I0729 16:26:58.265085 29217 net.cpp:129] Top shape: 1 1 48 64 (3072)
I0729 16:26:58.265090 29217 net.cpp:137] Memory required for data: 509571072
I0729 16:26:58.265096 29217 layer_factory.hpp:77] Creating layer score31_slicer_conv_30_split
I0729 16:26:58.265103 29217 net.cpp:84] Creating Layer score31_slicer_conv_30_split
I0729 16:26:58.265110 29217 net.cpp:406] score31_slicer_conv_30_split <- score31
I0729 16:26:58.265118 29217 net.cpp:380] score31_slicer_conv_30_split -> score31_slicer_conv_30_split_0
I0729 16:26:58.265130 29217 net.cpp:380] score31_slicer_conv_30_split -> score31_slicer_conv_30_split_1
I0729 16:26:58.265295 29217 net.cpp:122] Setting up score31_slicer_conv_30_split
I0729 16:26:58.265312 29217 net.cpp:129] Top shape: 1 1 48 64 (3072)
I0729 16:26:58.265319 29217 net.cpp:129] Top shape: 1 1 48 64 (3072)
I0729 16:26:58.265324 29217 net.cpp:137] Memory required for data: 509595648
I0729 16:26:58.265331 29217 layer_factory.hpp:77] Creating layer score32_slicer_conv_31_split
I0729 16:26:58.265339 29217 net.cpp:84] Creating Layer score32_slicer_conv_31_split
I0729 16:26:58.265347 29217 net.cpp:406] score32_slicer_conv_31_split <- score32
I0729 16:26:58.265354 29217 net.cpp:380] score32_slicer_conv_31_split -> score32_slicer_conv_31_split_0
I0729 16:26:58.265364 29217 net.cpp:380] score32_slicer_conv_31_split -> score32_slicer_conv_31_split_1
I0729 16:26:58.265533 29217 net.cpp:122] Setting up score32_slicer_conv_31_split
I0729 16:26:58.265544 29217 net.cpp:129] Top shape: 1 1 48 64 (3072)
I0729 16:26:58.265578 29217 net.cpp:129] Top shape: 1 1 48 64 (3072)
I0729 16:26:58.265585 29217 net.cpp:137] Memory required for data: 509620224
I0729 16:26:58.265590 29217 layer_factory.hpp:77] Creating layer score33_slicer_conv_32_split
I0729 16:26:58.265599 29217 net.cpp:84] Creating Layer score33_slicer_conv_32_split
I0729 16:26:58.265605 29217 net.cpp:406] score33_slicer_conv_32_split <- score33
I0729 16:26:58.265614 29217 net.cpp:380] score33_slicer_conv_32_split -> score33_slicer_conv_32_split_0
I0729 16:26:58.265624 29217 net.cpp:380] score33_slicer_conv_32_split -> score33_slicer_conv_32_split_1
I0729 16:26:58.265794 29217 net.cpp:122] Setting up score33_slicer_conv_32_split
I0729 16:26:58.265806 29217 net.cpp:129] Top shape: 1 1 48 64 (3072)
I0729 16:26:58.265812 29217 net.cpp:129] Top shape: 1 1 48 64 (3072)
I0729 16:26:58.265817 29217 net.cpp:137] Memory required for data: 509644800
I0729 16:26:58.265823 29217 layer_factory.hpp:77] Creating layer score34_slicer_conv_33_split
I0729 16:26:58.265830 29217 net.cpp:84] Creating Layer score34_slicer_conv_33_split
I0729 16:26:58.265836 29217 net.cpp:406] score34_slicer_conv_33_split <- score34
I0729 16:26:58.265846 29217 net.cpp:380] score34_slicer_conv_33_split -> score34_slicer_conv_33_split_0
I0729 16:26:58.265856 29217 net.cpp:380] score34_slicer_conv_33_split -> score34_slicer_conv_33_split_1
I0729 16:26:58.266023 29217 net.cpp:122] Setting up score34_slicer_conv_33_split
I0729 16:26:58.266034 29217 net.cpp:129] Top shape: 1 1 48 64 (3072)
I0729 16:26:58.266041 29217 net.cpp:129] Top shape: 1 1 48 64 (3072)
I0729 16:26:58.266047 29217 net.cpp:137] Memory required for data: 509669376
I0729 16:26:58.266052 29217 layer_factory.hpp:77] Creating layer score35_slicer_conv_34_split
I0729 16:26:58.266058 29217 net.cpp:84] Creating Layer score35_slicer_conv_34_split
I0729 16:26:58.266065 29217 net.cpp:406] score35_slicer_conv_34_split <- score35
I0729 16:26:58.266073 29217 net.cpp:380] score35_slicer_conv_34_split -> score35_slicer_conv_34_split_0
I0729 16:26:58.266083 29217 net.cpp:380] score35_slicer_conv_34_split -> score35_slicer_conv_34_split_1
I0729 16:26:58.266250 29217 net.cpp:122] Setting up score35_slicer_conv_34_split
I0729 16:26:58.266261 29217 net.cpp:129] Top shape: 1 1 48 64 (3072)
I0729 16:26:58.266268 29217 net.cpp:129] Top shape: 1 1 48 64 (3072)
I0729 16:26:58.266273 29217 net.cpp:137] Memory required for data: 509693952
I0729 16:26:58.266278 29217 layer_factory.hpp:77] Creating layer score36_slicer_conv_35_split
I0729 16:26:58.266285 29217 net.cpp:84] Creating Layer score36_slicer_conv_35_split
I0729 16:26:58.266291 29217 net.cpp:406] score36_slicer_conv_35_split <- score36
I0729 16:26:58.266304 29217 net.cpp:380] score36_slicer_conv_35_split -> score36_slicer_conv_35_split_0
I0729 16:26:58.266314 29217 net.cpp:380] score36_slicer_conv_35_split -> score36_slicer_conv_35_split_1
I0729 16:26:58.266479 29217 net.cpp:122] Setting up score36_slicer_conv_35_split
I0729 16:26:58.266489 29217 net.cpp:129] Top shape: 1 1 48 64 (3072)
I0729 16:26:58.266495 29217 net.cpp:129] Top shape: 1 1 48 64 (3072)
I0729 16:26:58.266500 29217 net.cpp:137] Memory required for data: 509718528
I0729 16:26:58.266505 29217 layer_factory.hpp:77] Creating layer score37_slicer_conv_36_split
I0729 16:26:58.266515 29217 net.cpp:84] Creating Layer score37_slicer_conv_36_split
I0729 16:26:58.266520 29217 net.cpp:406] score37_slicer_conv_36_split <- score37
I0729 16:26:58.266530 29217 net.cpp:380] score37_slicer_conv_36_split -> score37_slicer_conv_36_split_0
I0729 16:26:58.266540 29217 net.cpp:380] score37_slicer_conv_36_split -> score37_slicer_conv_36_split_1
I0729 16:26:58.266716 29217 net.cpp:122] Setting up score37_slicer_conv_36_split
I0729 16:26:58.284845 29217 net.cpp:129] Top shape: 1 1 48 64 (3072)
I0729 16:26:58.284864 29217 net.cpp:129] Top shape: 1 1 48 64 (3072)
I0729 16:26:58.284869 29217 net.cpp:137] Memory required for data: 509743104
I0729 16:26:58.284876 29217 layer_factory.hpp:77] Creating layer score38_slicer_conv_37_split
I0729 16:26:58.284889 29217 net.cpp:84] Creating Layer score38_slicer_conv_37_split
I0729 16:26:58.284921 29217 net.cpp:406] score38_slicer_conv_37_split <- score38
I0729 16:26:58.284934 29217 net.cpp:380] score38_slicer_conv_37_split -> score38_slicer_conv_37_split_0
I0729 16:26:58.284951 29217 net.cpp:380] score38_slicer_conv_37_split -> score38_slicer_conv_37_split_1
I0729 16:26:58.285320 29217 net.cpp:122] Setting up score38_slicer_conv_37_split
I0729 16:26:58.285331 29217 net.cpp:129] Top shape: 1 1 48 64 (3072)
I0729 16:26:58.285338 29217 net.cpp:129] Top shape: 1 1 48 64 (3072)
I0729 16:26:58.285342 29217 net.cpp:137] Memory required for data: 509767680
I0729 16:26:58.285348 29217 layer_factory.hpp:77] Creating layer score39_slicer_conv_38_split
I0729 16:26:58.285362 29217 net.cpp:84] Creating Layer score39_slicer_conv_38_split
I0729 16:26:58.285369 29217 net.cpp:406] score39_slicer_conv_38_split <- score39
I0729 16:26:58.285377 29217 net.cpp:380] score39_slicer_conv_38_split -> score39_slicer_conv_38_split_0
I0729 16:26:58.285387 29217 net.cpp:380] score39_slicer_conv_38_split -> score39_slicer_conv_38_split_1
I0729 16:26:58.285550 29217 net.cpp:122] Setting up score39_slicer_conv_38_split
I0729 16:26:58.285560 29217 net.cpp:129] Top shape: 1 1 48 64 (3072)
I0729 16:26:58.285567 29217 net.cpp:129] Top shape: 1 1 48 64 (3072)
I0729 16:26:58.285571 29217 net.cpp:137] Memory required for data: 509792256
I0729 16:26:58.285576 29217 layer_factory.hpp:77] Creating layer score40_slicer_conv_39_split
I0729 16:26:58.285584 29217 net.cpp:84] Creating Layer score40_slicer_conv_39_split
I0729 16:26:58.285589 29217 net.cpp:406] score40_slicer_conv_39_split <- score40
I0729 16:26:58.285598 29217 net.cpp:380] score40_slicer_conv_39_split -> score40_slicer_conv_39_split_0
I0729 16:26:58.285607 29217 net.cpp:380] score40_slicer_conv_39_split -> score40_slicer_conv_39_split_1
I0729 16:26:58.285768 29217 net.cpp:122] Setting up score40_slicer_conv_39_split
I0729 16:26:58.285778 29217 net.cpp:129] Top shape: 1 1 48 64 (3072)
I0729 16:26:58.285784 29217 net.cpp:129] Top shape: 1 1 48 64 (3072)
I0729 16:26:58.285789 29217 net.cpp:137] Memory required for data: 509816832
I0729 16:26:58.285794 29217 layer_factory.hpp:77] Creating layer score41_slicer_conv_40_split
I0729 16:26:58.285800 29217 net.cpp:84] Creating Layer score41_slicer_conv_40_split
I0729 16:26:58.285806 29217 net.cpp:406] score41_slicer_conv_40_split <- score41
I0729 16:26:58.285818 29217 net.cpp:380] score41_slicer_conv_40_split -> score41_slicer_conv_40_split_0
I0729 16:26:58.285826 29217 net.cpp:380] score41_slicer_conv_40_split -> score41_slicer_conv_40_split_1
I0729 16:26:58.285987 29217 net.cpp:122] Setting up score41_slicer_conv_40_split
I0729 16:26:58.285996 29217 net.cpp:129] Top shape: 1 1 48 64 (3072)
I0729 16:26:58.286002 29217 net.cpp:129] Top shape: 1 1 48 64 (3072)
I0729 16:26:58.286007 29217 net.cpp:137] Memory required for data: 509841408
I0729 16:26:58.286012 29217 layer_factory.hpp:77] Creating layer score42_slicer_conv_41_split
I0729 16:26:58.286020 29217 net.cpp:84] Creating Layer score42_slicer_conv_41_split
I0729 16:26:58.286026 29217 net.cpp:406] score42_slicer_conv_41_split <- score42
I0729 16:26:58.286033 29217 net.cpp:380] score42_slicer_conv_41_split -> score42_slicer_conv_41_split_0
I0729 16:26:58.286041 29217 net.cpp:380] score42_slicer_conv_41_split -> score42_slicer_conv_41_split_1
I0729 16:26:58.286201 29217 net.cpp:122] Setting up score42_slicer_conv_41_split
I0729 16:26:58.286211 29217 net.cpp:129] Top shape: 1 1 48 64 (3072)
I0729 16:26:58.286217 29217 net.cpp:129] Top shape: 1 1 48 64 (3072)
I0729 16:26:58.286221 29217 net.cpp:137] Memory required for data: 509865984
I0729 16:26:58.286226 29217 layer_factory.hpp:77] Creating layer score43_slicer_conv_42_split
I0729 16:26:58.286233 29217 net.cpp:84] Creating Layer score43_slicer_conv_42_split
I0729 16:26:58.286239 29217 net.cpp:406] score43_slicer_conv_42_split <- score43
I0729 16:26:58.286247 29217 net.cpp:380] score43_slicer_conv_42_split -> score43_slicer_conv_42_split_0
I0729 16:26:58.286257 29217 net.cpp:380] score43_slicer_conv_42_split -> score43_slicer_conv_42_split_1
I0729 16:26:58.286428 29217 net.cpp:122] Setting up score43_slicer_conv_42_split
I0729 16:26:58.286438 29217 net.cpp:129] Top shape: 1 1 48 64 (3072)
I0729 16:26:58.286444 29217 net.cpp:129] Top shape: 1 1 48 64 (3072)
I0729 16:26:58.286449 29217 net.cpp:137] Memory required for data: 509890560
I0729 16:26:58.286454 29217 layer_factory.hpp:77] Creating layer score44_slicer_conv_43_split
I0729 16:26:58.286461 29217 net.cpp:84] Creating Layer score44_slicer_conv_43_split
I0729 16:26:58.286468 29217 net.cpp:406] score44_slicer_conv_43_split <- score44
I0729 16:26:58.286475 29217 net.cpp:380] score44_slicer_conv_43_split -> score44_slicer_conv_43_split_0
I0729 16:26:58.286484 29217 net.cpp:380] score44_slicer_conv_43_split -> score44_slicer_conv_43_split_1
I0729 16:26:58.286644 29217 net.cpp:122] Setting up score44_slicer_conv_43_split
I0729 16:26:58.286654 29217 net.cpp:129] Top shape: 1 1 48 64 (3072)
I0729 16:26:58.286660 29217 net.cpp:129] Top shape: 1 1 48 64 (3072)
I0729 16:26:58.286665 29217 net.cpp:137] Memory required for data: 509915136
I0729 16:26:58.286669 29217 layer_factory.hpp:77] Creating layer score45_slicer_conv_44_split
I0729 16:26:58.286676 29217 net.cpp:84] Creating Layer score45_slicer_conv_44_split
I0729 16:26:58.286682 29217 net.cpp:406] score45_slicer_conv_44_split <- score45
I0729 16:26:58.286691 29217 net.cpp:380] score45_slicer_conv_44_split -> score45_slicer_conv_44_split_0
I0729 16:26:58.286700 29217 net.cpp:380] score45_slicer_conv_44_split -> score45_slicer_conv_44_split_1
I0729 16:26:58.286856 29217 net.cpp:122] Setting up score45_slicer_conv_44_split
I0729 16:26:58.286866 29217 net.cpp:129] Top shape: 1 1 48 64 (3072)
I0729 16:26:58.286872 29217 net.cpp:129] Top shape: 1 1 48 64 (3072)
I0729 16:26:58.286876 29217 net.cpp:137] Memory required for data: 509939712
I0729 16:26:58.286881 29217 layer_factory.hpp:77] Creating layer score46_slicer_conv_45_split
I0729 16:26:58.286890 29217 net.cpp:84] Creating Layer score46_slicer_conv_45_split
I0729 16:26:58.286895 29217 net.cpp:406] score46_slicer_conv_45_split <- score46
I0729 16:26:58.286902 29217 net.cpp:380] score46_slicer_conv_45_split -> score46_slicer_conv_45_split_0
I0729 16:26:58.286911 29217 net.cpp:380] score46_slicer_conv_45_split -> score46_slicer_conv_45_split_1
I0729 16:26:58.287070 29217 net.cpp:122] Setting up score46_slicer_conv_45_split
I0729 16:26:58.287080 29217 net.cpp:129] Top shape: 1 1 48 64 (3072)
I0729 16:26:58.287084 29217 net.cpp:129] Top shape: 1 1 48 64 (3072)
I0729 16:26:58.287088 29217 net.cpp:137] Memory required for data: 509964288
I0729 16:26:58.287093 29217 layer_factory.hpp:77] Creating layer score47_slicer_conv_46_split
I0729 16:26:58.287101 29217 net.cpp:84] Creating Layer score47_slicer_conv_46_split
I0729 16:26:58.287106 29217 net.cpp:406] score47_slicer_conv_46_split <- score47
I0729 16:26:58.287112 29217 net.cpp:380] score47_slicer_conv_46_split -> score47_slicer_conv_46_split_0
I0729 16:26:58.287122 29217 net.cpp:380] score47_slicer_conv_46_split -> score47_slicer_conv_46_split_1
I0729 16:26:58.287279 29217 net.cpp:122] Setting up score47_slicer_conv_46_split
I0729 16:26:58.287289 29217 net.cpp:129] Top shape: 1 1 48 64 (3072)
I0729 16:26:58.287297 29217 net.cpp:129] Top shape: 1 1 48 64 (3072)
I0729 16:26:58.287300 29217 net.cpp:137] Memory required for data: 509988864
I0729 16:26:58.287305 29217 layer_factory.hpp:77] Creating layer score48_slicer_conv_47_split
I0729 16:26:58.287314 29217 net.cpp:84] Creating Layer score48_slicer_conv_47_split
I0729 16:26:58.287319 29217 net.cpp:406] score48_slicer_conv_47_split <- score48
I0729 16:26:58.287328 29217 net.cpp:380] score48_slicer_conv_47_split -> score48_slicer_conv_47_split_0
I0729 16:26:58.287336 29217 net.cpp:380] score48_slicer_conv_47_split -> score48_slicer_conv_47_split_1
I0729 16:26:58.287495 29217 net.cpp:122] Setting up score48_slicer_conv_47_split
I0729 16:26:58.287505 29217 net.cpp:129] Top shape: 1 1 48 64 (3072)
I0729 16:26:58.287511 29217 net.cpp:129] Top shape: 1 1 48 64 (3072)
I0729 16:26:58.287516 29217 net.cpp:137] Memory required for data: 510013440
I0729 16:26:58.287530 29217 layer_factory.hpp:77] Creating layer score49_slicer_conv_48_split
I0729 16:26:58.287539 29217 net.cpp:84] Creating Layer score49_slicer_conv_48_split
I0729 16:26:58.287544 29217 net.cpp:406] score49_slicer_conv_48_split <- score49
I0729 16:26:58.287551 29217 net.cpp:380] score49_slicer_conv_48_split -> score49_slicer_conv_48_split_0
I0729 16:26:58.287560 29217 net.cpp:380] score49_slicer_conv_48_split -> score49_slicer_conv_48_split_1
I0729 16:26:58.287722 29217 net.cpp:122] Setting up score49_slicer_conv_48_split
I0729 16:26:58.287732 29217 net.cpp:129] Top shape: 1 1 48 64 (3072)
I0729 16:26:58.287739 29217 net.cpp:129] Top shape: 1 1 48 64 (3072)
I0729 16:26:58.287742 29217 net.cpp:137] Memory required for data: 510038016
I0729 16:26:58.287747 29217 layer_factory.hpp:77] Creating layer score50_slicer_conv_49_split
I0729 16:26:58.287753 29217 net.cpp:84] Creating Layer score50_slicer_conv_49_split
I0729 16:26:58.287760 29217 net.cpp:406] score50_slicer_conv_49_split <- score50
I0729 16:26:58.287767 29217 net.cpp:380] score50_slicer_conv_49_split -> score50_slicer_conv_49_split_0
I0729 16:26:58.287777 29217 net.cpp:380] score50_slicer_conv_49_split -> score50_slicer_conv_49_split_1
I0729 16:26:58.287936 29217 net.cpp:122] Setting up score50_slicer_conv_49_split
I0729 16:26:58.287946 29217 net.cpp:129] Top shape: 1 1 48 64 (3072)
I0729 16:26:58.287952 29217 net.cpp:129] Top shape: 1 1 48 64 (3072)
I0729 16:26:58.287956 29217 net.cpp:137] Memory required for data: 510062592
I0729 16:26:58.287961 29217 layer_factory.hpp:77] Creating layer score51_slicer_conv_50_split
I0729 16:26:58.287967 29217 net.cpp:84] Creating Layer score51_slicer_conv_50_split
I0729 16:26:58.287972 29217 net.cpp:406] score51_slicer_conv_50_split <- score51
I0729 16:26:58.287981 29217 net.cpp:380] score51_slicer_conv_50_split -> score51_slicer_conv_50_split_0
I0729 16:26:58.287988 29217 net.cpp:380] score51_slicer_conv_50_split -> score51_slicer_conv_50_split_1
I0729 16:26:58.288133 29217 net.cpp:122] Setting up score51_slicer_conv_50_split
I0729 16:26:58.288141 29217 net.cpp:129] Top shape: 1 1 48 64 (3072)
I0729 16:26:58.288146 29217 net.cpp:129] Top shape: 1 1 48 64 (3072)
I0729 16:26:58.288151 29217 net.cpp:137] Memory required for data: 510087168
I0729 16:26:58.288153 29217 layer_factory.hpp:77] Creating layer score52_slicer_conv_51_split
I0729 16:26:58.288158 29217 net.cpp:84] Creating Layer score52_slicer_conv_51_split
I0729 16:26:58.288162 29217 net.cpp:406] score52_slicer_conv_51_split <- score52
I0729 16:26:58.288169 29217 net.cpp:380] score52_slicer_conv_51_split -> score52_slicer_conv_51_split_0
I0729 16:26:58.288175 29217 net.cpp:380] score52_slicer_conv_51_split -> score52_slicer_conv_51_split_1
…
I0729 16:26:58.728809 29217 layer_factory.hpp:77] Creating layer relu2_1
I0729 16:26:58.728817 29217 net.cpp:84] Creating Layer relu2_1
I0729 16:26:58.728823 29217 net.cpp:406] relu2_1 <- conv2_1
I0729 16:26:58.728830 29217 net.cpp:367] relu2_1 -> conv2_1 (in-place)
I0729 16:26:58.729554 29217 net.cpp:122] Setting up relu2_1
I0729 16:26:58.729569 29217 net.cpp:129] Top shape: 1 128 352 512 (23068672)
I0729 16:26:58.729574 29217 net.cpp:137] Memory required for data: 977670144
I0729 16:26:58.729580 29217 layer_factory.hpp:77] Creating layer conv2_2
I0729 16:26:58.729594 29217 net.cpp:84] Creating Layer conv2_2
I0729 16:26:58.729599 29217 net.cpp:406] conv2_2 <- conv2_1
I0729 16:26:58.729609 29217 net.cpp:380] conv2_2 -> conv2_2
I0729 16:26:58.748541 29217 net.cpp:122] Setting up conv2_2
I0729 16:26:58.748569 29217 net.cpp:129] Top shape: 1 128 352 512 (23068672)
I0729 16:26:58.748576 29217 net.cpp:137] Memory required for data: 1069944832
I0729 16:26:58.748591 29217 layer_factory.hpp:77] Creating layer relu2_2
I0729 16:26:58.748605 29217 net.cpp:84] Creating Layer relu2_2
I0729 16:26:58.748610 29217 net.cpp:406] relu2_2 <- conv2_2
I0729 16:26:58.748621 29217 net.cpp:367] relu2_2 -> conv2_2 (in-place)
I0729 16:26:58.748858 29217 net.cpp:122] Setting up relu2_2
I0729 16:26:58.748870 29217 net.cpp:129] Top shape: 1 128 352 512 (23068672)
I0729 16:26:58.748877 29217 net.cpp:137] Memory required for data: 1162219520
I0729 16:26:58.748883 29217 layer_factory.hpp:77] Creating layer pool2
I0729 16:26:58.748890 29217 net.cpp:84] Creating Layer pool2
I0729 16:26:58.748896 29217 net.cpp:406] pool2 <- conv2_2
I0729 16:26:58.748903 29217 net.cpp:380] pool2 -> pool2
I0729 16:26:58.748963 29217 net.cpp:122] Setting up pool2
I0729 16:26:58.748973 29217 net.cpp:129] Top shape: 1 128 176 256 (5767168)
I0729 16:26:58.748978 29217 net.cpp:137] Memory required for data: 1185288192
I0729 16:26:58.748983 29217 layer_factory.hpp:77] Creating layer conv3_1
I0729 16:26:58.748998 29217 net.cpp:84] Creating Layer conv3_1
I0729 16:26:58.749004 29217 net.cpp:406] conv3_1 <- pool2
I0729 16:26:58.749012 29217 net.cpp:380] conv3_1 -> conv3_1
I0729 16:26:58.756091 29217 net.cpp:122] Setting up conv3_1
I0729 16:26:58.756112 29217 net.cpp:129] Top shape: 1 256 176 256 (11534336)
I0729 16:26:58.756117 29217 net.cpp:137] Memory required for data: 1231425536
I0729 16:26:58.757956 29217 layer_factory.hpp:77] Creating layer relu3_1
I0729 16:26:58.757972 29217 net.cpp:84] Creating Layer relu3_1
I0729 16:26:58.757980 29217 net.cpp:406] relu3_1 <- conv3_1
I0729 16:26:58.757989 29217 net.cpp:367] relu3_1 -> conv3_1 (in-place)
I0729 16:26:58.758833 29217 net.cpp:122] Setting up relu3_1
I0729 16:26:58.758848 29217 net.cpp:129] Top shape: 1 256 176 256 (11534336)
I0729 16:26:58.758854 29217 net.cpp:137] Memory required for data: 1277562880
I0729 16:26:58.758862 29217 layer_factory.hpp:77] Creating layer conv3_2
I0729 16:26:58.758877 29217 net.cpp:84] Creating Layer conv3_2
I0729 16:26:58.758883 29217 net.cpp:406] conv3_2 <- conv3_1
I0729 16:26:58.758893 29217 net.cpp:380] conv3_2 -> conv3_2
I0729 16:26:58.767666 29217 net.cpp:122] Setting up conv3_2
I0729 16:26:58.767684 29217 net.cpp:129] Top shape: 1 256 176 256 (11534336)
I0729 16:26:58.767688 29217 net.cpp:137] Memory required for data: 1323700224
I0729 16:26:58.767696 29217 layer_factory.hpp:77] Creating layer relu3_2
I0729 16:26:58.767706 29217 net.cpp:84] Creating Layer relu3_2
I0729 16:26:58.767711 29217 net.cpp:406] relu3_2 <- conv3_2
I0729 16:26:58.767719 29217 net.cpp:367] relu3_2 -> conv3_2 (in-place)
I0729 16:26:58.768311 29217 net.cpp:122] Setting up relu3_2
I0729 16:26:58.768322 29217 net.cpp:129] Top shape: 1 256 176 256 (11534336)
I0729 16:26:58.768326 29217 net.cpp:137] Memory required for data: 1369837568
I0729 16:26:58.768331 29217 layer_factory.hpp:77] Creating layer conv3_3
I0729 16:26:58.768340 29217 net.cpp:84] Creating Layer conv3_3
I0729 16:26:58.768345 29217 net.cpp:406] conv3_3 <- conv3_2
I0729 16:26:58.768352 29217 net.cpp:380] conv3_3 -> conv3_3
I0729 16:26:58.777999 29217 net.cpp:122] Setting up conv3_3
I0729 16:26:58.778017 29217 net.cpp:129] Top shape: 1 256 176 256 (11534336)
I0729 16:26:58.778022 29217 net.cpp:137] Memory required for data: 1415974912
I0729 16:26:58.778031 29217 layer_factory.hpp:77] Creating layer relu3_3
I0729 16:26:58.778039 29217 net.cpp:84] Creating Layer relu3_3
I0729 16:26:58.778045 29217 net.cpp:406] relu3_3 <- conv3_3
I0729 16:26:58.778053 29217 net.cpp:367] relu3_3 -> conv3_3 (in-place)
I0729 16:26:58.778256 29217 net.cpp:122] Setting up relu3_3
I0729 16:26:58.778268 29217 net.cpp:129] Top shape: 1 256 176 256 (11534336)
I0729 16:26:58.778273 29217 net.cpp:137] Memory required for data: 1462112256
I0729 16:26:58.778278 29217 layer_factory.hpp:77] Creating layer pool3
I0729 16:26:58.778287 29217 net.cpp:84] Creating Layer pool3
I0729 16:26:58.778292 29217 net.cpp:406] pool3 <- conv3_3
I0729 16:26:58.778301 29217 net.cpp:380] pool3 -> pool3
I0729 16:26:58.778350 29217 net.cpp:122] Setting up pool3
I0729 16:26:58.778358 29217 net.cpp:129] Top shape: 1 256 88 128 (2883584)
I0729 16:26:58.778363 29217 net.cpp:137] Memory required for data: 1473646592
I0729 16:26:58.778368 29217 layer_factory.hpp:77] Creating layer conv4_1
I0729 16:26:58.778380 29217 net.cpp:84] Creating Layer conv4_1
I0729 16:26:58.778385 29217 net.cpp:406] conv4_1 <- pool3
I0729 16:26:58.778394 29217 net.cpp:380] conv4_1 -> conv4_1
I0729 16:26:58.796159 29217 net.cpp:122] Setting up conv4_1
I0729 16:26:58.796185 29217 net.cpp:129] Top shape: 1 512 88 128 (5767168)
I0729 16:26:58.796191 29217 net.cpp:137] Memory required for data: 1496715264
I0729 16:26:58.796203 29217 layer_factory.hpp:77] Creating layer relu4_1
I0729 16:26:58.796214 29217 net.cpp:84] Creating Layer relu4_1
I0729 16:26:58.796221 29217 net.cpp:406] relu4_1 <- conv4_1
I0729 16:26:58.796229 29217 net.cpp:367] relu4_1 -> conv4_1 (in-place)
I0729 16:26:58.796958 29217 net.cpp:122] Setting up relu4_1
I0729 16:26:58.796972 29217 net.cpp:129] Top shape: 1 512 88 128 (5767168)
I0729 16:26:58.796978 29217 net.cpp:137] Memory required for data: 1519783936
I0729 16:26:58.796983 29217 layer_factory.hpp:77] Creating layer conv4_2
I0729 16:26:58.796998 29217 net.cpp:84] Creating Layer conv4_2
I0729 16:26:58.797004 29217 net.cpp:406] conv4_2 <- conv4_1
I0729 16:26:58.797013 29217 net.cpp:380] conv4_2 -> conv4_2
I0729 16:26:58.829027 29217 net.cpp:122] Setting up conv4_2
I0729 16:26:58.829103 29217 net.cpp:129] Top shape: 1 512 88 128 (5767168)
I0729 16:26:58.829113 29217 net.cpp:137] Memory required for data: 1542852608
I0729 16:26:58.829133 29217 layer_factory.hpp:77] Creating layer relu4_2
I0729 16:26:58.829149 29217 net.cpp:84] Creating Layer relu4_2
I0729 16:26:58.829156 29217 net.cpp:406] relu4_2 <- conv4_2
I0729 16:26:58.829167 29217 net.cpp:367] relu4_2 -> conv4_2 (in-place)
I0729 16:26:58.830108 29217 net.cpp:122] Setting up relu4_2
I0729 16:26:58.830127 29217 net.cpp:129] Top shape: 1 512 88 128 (5767168)
I0729 16:26:58.830135 29217 net.cpp:137] Memory required for data: 1565921280
I0729 16:26:58.830142 29217 layer_factory.hpp:77] Creating layer conv4_3
I0729 16:26:58.830160 29217 net.cpp:84] Creating Layer conv4_3
I0729 16:26:58.830168 29217 net.cpp:406] conv4_3 <- conv4_2
I0729 16:26:58.830179 29217 net.cpp:380] conv4_3 -> conv4_3
I0729 16:26:58.862155 29217 net.cpp:122] Setting up conv4_3
I0729 16:26:58.862192 29217 net.cpp:129] Top shape: 1 512 88 128 (5767168)
I0729 16:26:58.862200 29217 net.cpp:137] Memory required for data: 1588989952
I0729 16:26:58.862215 29217 layer_factory.hpp:77] Creating layer relu4_3
I0729 16:26:58.862229 29217 net.cpp:84] Creating Layer relu4_3
I0729 16:26:58.862238 29217 net.cpp:406] relu4_3 <- conv4_3
I0729 16:26:58.862249 29217 net.cpp:367] relu4_3 -> conv4_3 (in-place)
I0729 16:26:58.862452 29217 net.cpp:122] Setting up relu4_3
I0729 16:26:58.862468 29217 net.cpp:129] Top shape: 1 512 88 128 (5767168)
I0729 16:26:58.862475 29217 net.cpp:137] Memory required for data: 1612058624
I0729 16:26:58.862483 29217 layer_factory.hpp:77] Creating layer pool4
I0729 16:26:58.862493 29217 net.cpp:84] Creating Layer pool4
I0729 16:26:58.862500 29217 net.cpp:406] pool4 <- conv4_3
I0729 16:26:58.862509 29217 net.cpp:380] pool4 -> pool4
I0729 16:26:58.862565 29217 net.cpp:122] Setting up pool4
I0729 16:26:58.862576 29217 net.cpp:129] Top shape: 1 512 88 128 (5767168)
I0729 16:26:58.862583 29217 net.cpp:137] Memory required for data: 1635127296
I0729 16:26:58.862591 29217 layer_factory.hpp:77] Creating layer conv5_1
I0729 16:26:58.862607 29217 net.cpp:84] Creating Layer conv5_1
I0729 16:26:58.862613 29217 net.cpp:406] conv5_1 <- pool4
I0729 16:26:58.862623 29217 net.cpp:380] conv5_1 -> conv5_1
I0729 16:26:58.892740 29217 net.cpp:122] Setting up conv5_1
I0729 16:26:58.892837 29217 net.cpp:129] Top shape: 1 512 88 128 (5767168)
I0729 16:26:58.892877 29217 net.cpp:137] Memory required for data: 1658195968
I0729 16:26:58.892923 29217 layer_factory.hpp:77] Creating layer relu5_1
I0729 16:26:58.892971 29217 net.cpp:84] Creating Layer relu5_1
I0729 16:26:58.893012 29217 net.cpp:406] relu5_1 <- conv5_1
I0729 16:26:58.893054 29217 net.cpp:367] relu5_1 -> conv5_1 (in-place)
I0729 16:26:58.894125 29217 net.cpp:122] Setting up relu5_1
I0729 16:26:58.894186 29217 net.cpp:129] Top shape: 1 512 88 128 (5767168)
I0729 16:26:58.894227 29217 net.cpp:137] Memory required for data: 1681264640
I0729 16:26:58.894266 29217 layer_factory.hpp:77] Creating layer conv5_2
I0729 16:26:58.894315 29217 net.cpp:84] Creating Layer conv5_2
I0729 16:26:58.894357 29217 net.cpp:406] conv5_2 <- conv5_1
I0729 16:26:58.894402 29217 net.cpp:380] conv5_2 -> conv5_2
I0729 16:26:58.926309 29217 net.cpp:122] Setting up conv5_2
I0729 16:26:58.926409 29217 net.cpp:129] Top shape: 1 512 88 128 (5767168)
I0729 16:26:58.926451 29217 net.cpp:137] Memory required for data: 1704333312
I0729 16:26:58.926498 29217 layer_factory.hpp:77] Creating layer relu5_2
I0729 16:26:58.926547 29217 net.cpp:84] Creating Layer relu5_2
I0729 16:26:58.926587 29217 net.cpp:406] relu5_2 <- conv5_2
I0729 16:26:58.926631 29217 net.cpp:367] relu5_2 -> conv5_2 (in-place)
I0729 16:26:58.926936 29217 net.cpp:122] Setting up relu5_2
I0729 16:26:58.926993 29217 net.cpp:129] Top shape: 1 512 88 128 (5767168)
I0729 16:26:58.927032 29217 net.cpp:137] Memory required for data: 1727401984
I0729 16:26:58.927075 29217 layer_factory.hpp:77] Creating layer conv5_3
I0729 16:26:58.927130 29217 net.cpp:84] Creating Layer conv5_3
I0729 16:26:58.927217 29217 net.cpp:406] conv5_3 <- conv5_2
I0729 16:26:58.927263 29217 net.cpp:380] conv5_3 -> conv5_3
I0729 16:26:58.966681 29217 net.cpp:122] Setting up conv5_3
I0729 16:26:58.966779 29217 net.cpp:129] Top shape: 1 512 88 128 (5767168)
I0729 16:26:58.966821 29217 net.cpp:137] Memory required for data: 1750470656
I0729 16:26:58.966881 29217 layer_factory.hpp:77] Creating layer relu5_3
I0729 16:26:58.966943 29217 net.cpp:84] Creating Layer relu5_3
I0729 16:26:58.966953 29217 net.cpp:406] relu5_3 <- conv5_3
I0729 16:26:58.966967 29217 net.cpp:367] relu5_3 -> conv5_3 (in-place)
I0729 16:26:58.968027 29217 net.cpp:122] Setting up relu5_3
I0729 16:26:58.968042 29217 net.cpp:129] Top shape: 1 512 88 128 (5767168)
I0729 16:26:58.968049 29217 net.cpp:137] Memory required for data: 1773539328
I0729 16:26:58.968055 29217 layer_factory.hpp:77] Creating layer conv_score
I0729 16:26:58.968070 29217 net.cpp:84] Creating Layer conv_score
I0729 16:26:58.968077 29217 net.cpp:406] conv_score <- conv5_3
I0729 16:26:58.968087 29217 net.cpp:380] conv_score -> conv_score
I0729 16:26:59.858078 29217 net.cpp:122] Setting up conv_score
I0729 16:26:59.858117 29217 net.cpp:129] Top shape: 1 512 88 128 (5767168)
I0729 16:26:59.858181 29217 net.cpp:137] Memory required for data: 1796608000
I0729 16:26:59.858230 29217 layer_factory.hpp:77] Creating layer relu_score
I0729 16:26:59.858278 29217 net.cpp:84] Creating Layer relu_score
I0729 16:26:59.858319 29217 net.cpp:406] relu_score <- conv_score
I0729 16:26:59.858361 29217 net.cpp:367] relu_score -> conv_score (in-place)
I0729 16:26:59.859220 29217 net.cpp:122] Setting up relu_score
I0729 16:26:59.859280 29217 net.cpp:129] Top shape: 1 512 88 128 (5767168)
I0729 16:26:59.859320 29217 net.cpp:137] Memory required for data: 1819676672
I0729 16:26:59.859359 29217 layer_factory.hpp:77] Creating layer slicer_conv
I0729 16:26:59.859450 29217 net.cpp:84] Creating Layer slicer_conv
I0729 16:26:59.859494 29217 net.cpp:406] slicer_conv <- conv_score
I0729 16:26:59.859572 29217 net.cpp:380] slicer_conv -> score1
I0729 16:26:59.859664 29217 net.cpp:380] slicer_conv -> score2
…
I0729 16:26:59.897754 29217 net.cpp:380] slicer_conv -> score505
I0729 16:26:59.897817 29217 net.cpp:380] slicer_conv -> score506
I0729 16:26:59.897881 29217 net.cpp:380] slicer_conv -> score507
I0729 16:26:59.897945 29217 net.cpp:380] slicer_conv -> score508
I0729 16:26:59.898007 29217 net.cpp:380] slicer_conv -> score509
I0729 16:26:59.898072 29217 net.cpp:380] slicer_conv -> score510
I0729 16:26:59.898136 29217 net.cpp:380] slicer_conv -> score511
I0729 16:26:59.898200 29217 net.cpp:380] slicer_conv -> score512
I0729 16:26:59.941954 29217 net.cpp:122] Setting up slicer_conv
I0729 16:26:59.941987 29217 net.cpp:129] Top shape: 1 1 88 128 (11264)
I0729 16:26:59.941993 29217 net.cpp:129] Top shape: 1 1 88 128 (11264)
I0729 16:26:59.942000 29217 net.cpp:129] Top shape: 1 1 88 128 (11264)
I0729 16:26:59.942008 29217 net.cpp:129] Top shape: 1 1 88 128 (11264)
I0729 16:26:59.942013 29217 net.cpp:129] Top shape: 1 1 88 128 (11264)
I0729 16:26:59.942020 29217 net.cpp:129] Top shape: 1 1 88 128 (11264)
I0729 16:26:59.942026 29217 net.cpp:129] Top shape: 1 1 88 128 (11264)
I0729 16:26:59.942034 29217 net.cpp:129] Top shape: 1 1 88 128 (11264)
I0729 16:26:59.942046 29217 net.cpp:129] Top shape: 1 1 88 128 (11264)
I0729 16:26:59.942055 29217 net.cpp:129] Top shape: 1 1 88 128 (11264)
I0729 16:26:59.942065 29217 net.cpp:129] Top shape: 1 1 88 128 (11264)
I0729 16:26:59.942075 29217 net.cpp:129] Top shape: 1 1 88 128 (11264)
I0729 16:26:59.942083 29217 net.cpp:129] Top shape: 1 1 88 128 (11264)
I0729 16:26:59.942092 29217 net.cpp:129] Top shape: 1 1 88 128 (11264)
I0729 16:26:59.942101 29217 net.cpp:129] Top shape: 1 1 88 128 (11264)
I0729 16:26:59.942109 29217 net.cpp:129] Top shape: 1 1 88 128 (11264)
I0729 16:26:59.942118 29217 net.cpp:129] Top shape: 1 1 88 128 (11264)
I0729 16:26:59.942127 29217 net.cpp:129] Top shape: 1 1 88 128 (11264)
I0729 16:26:59.942137 29217 net.cpp:129] Top shape: 1 1 88 128 (11264)
I0729 16:26:59.942144 29217 net.cpp:129] Top shape: 1 1 88 128 (11264)
I0729 16:26:59.942153 29217 net.cpp:129] Top shape: 1 1 88 128 (11264)
I0729 16:26:59.942162 29217 net.cpp:129] Top shape: 1 1 88 128 (11264)
I0729 16:26:59.942172 29217 net.cpp:129] Top shape: 1 1 88 128 (11264)
I0729 16:26:59.942203 29217 net.cpp:129] Top shape: 1 1 88 128 (11264)
I0729 16:26:59.942214 29217 net.cpp:129] Top shape: 1 1 88 128 (11264)
I0729 16:26:59.942222 29217 net.cpp:129] Top shape: 1 1 88 128 (11264)
I0729 16:26:59.942230 29217 net.cpp:129] Top shape: 1 1 88 128 (11264)
I0729 16:26:59.942239 29217 net.cpp:129] Top shape: 1 1 88 128 (11264)
I0729 16:26:59.942248 29217 net.cpp:129] Top shape: 1 1 88 128 (11264)
I0729 16:26:59.942256 29217 net.cpp:129] Top shape: 1 1 88 128 (11264)
I0729 16:26:59.942265 29217 net.cpp:129] Top shape: 1 1 88 128 (11264)
I0729 16:26:59.942273 29217 net.cpp:129] Top shape: 1 1 88 128 (11264)
I0729 16:26:59.942282 29217 net.cpp:129] Top shape: 1 1 88 128 (11264)
I0729 16:26:59.942291 29217 net.cpp:129] Top shape: 1 1 88 128 (11264)
I0729 16:26:59.942299 29217 net.cpp:129] Top shape: 1 1 88 128 (11264)
I0729 16:26:59.942308 29217 net.cpp:129] Top shape: 1 1 88 128 (11264)
I0729 16:26:59.942317 29217 net.cpp:129] Top shape: 1 1 88 128 (11264)
I0729 16:26:59.942327 29217 net.cpp:129] Top shape: 1 1 88 128 (11264)
I0729 16:26:59.942335 29217 net.cpp:129] Top shape: 1 1 88 128 (11264)
I0729 16:26:59.942343 29217 net.cpp:129] Top shape: 1 1 88 128 (11264)
I0729 16:26:59.942353 29217 net.cpp:129] Top shape: 1 1 88 128 (11264)
I0729 16:26:59.942361 29217 net.cpp:129] Top shape: 1 1 88 128 (11264)
I0729 16:26:59.942370 29217 net.cpp:129] Top shape: 1 1 88 128 (11264)
I0729 16:26:59.942379 29217 net.cpp:129] Top shape: 1 1 88 128 (11264)
I0729 16:26:59.942389 29217 net.cpp:129] Top shape: 1 1 88 128 (11264)
I0729 16:26:59.942396 29217 net.cpp:129] Top shape: 1 1 88 128 (11264)
I0729 16:26:59.942405 29217 net.cpp:129] Top shape: 1 1 88 128 (11264)
I0729 16:26:59.942414 29217 net.cpp:129] Top shape: 1 1 88 128 (11264)
I0729 16:26:59.942422 29217 net.cpp:129] Top shape: 1 1 88 128 (11264)
I0729 16:26:59.942431 29217 net.cpp:129] Top shape: 1 1 88 128 (11264)
I0729 16:26:59.942440 29217 net.cpp:129] Top shape: 1 1 88 128 (11264)
I0729 16:26:59.942448 29217 net.cpp:129] Top shape: 1 1 88 128 (11264)
I0729 16:26:59.942456 29217 net.cpp:129] Top shape: 1 1 88 128 (11264)
I0729 16:26:59.942466 29217 net.cpp:129] Top shape: 1 1 88 128 (11264)
I0729 16:26:59.942473 29217 net.cpp:129] Top shape: 1 1 88 128 (11264)
I0729 16:26:59.942482 29217 net.cpp:129] Top shape: 1 1 88 128 (11264)
I0729 16:26:59.942490 29217 net.cpp:129] Top shape: 1 1 88 128 (11264)
I0729 16:26:59.942499 29217 net.cpp:129] Top shape: 1 1 88 128 (11264)
I0729 16:26:59.942507 29217 net.cpp:129] Top shape: 1 1 88 128 (11264)
I0729 16:26:59.942515 29217 net.cpp:129] Top shape: 1 1 88 128 (11264)
I0729 16:26:59.942524 29217 net.cpp:129] Top shape: 1 1 88 128 (11264)
I0729 16:26:59.942533 29217 net.cpp:129] Top shape: 1 1 88 128 (11264)
I0729 16:26:59.942540 29217 net.cpp:129] Top shape: 1 1 88 128 (11264)
I0729 16:26:59.942548 29217 net.cpp:129] Top shape: 1 1 88 128 (11264)
I0729 16:26:59.942558 29217 net.cpp:129] Top shape: 1 1 88 128 (11264)
I0729 16:26:59.942565 29217 net.cpp:129] Top shape: 1 1 88 128 (11264)
I0729 16:26:59.942574 29217 net.cpp:129] Top shape: 1 1 88 128 (11264)
I0729 16:26:59.942582 29217 net.cpp:129] Top shape: 1 1 88 128 (11264)
I0729 16:26:59.942590 29217 net.cpp:129] Top shape: 1 1 88 128 (11264)
I0729 16:26:59.942600 29217 net.cpp:129] Top shape: 1 1 88 128 (11264)
I0729 16:26:59.942607 29217 net.cpp:129] Top shape: 1 1 88 128 (11264)
I0729 16:26:59.942615 29217 net.cpp:129] Top shape: 1 1 88 128 (11264)
I0729 16:26:59.942625 29217 net.cpp:129] Top shape: 1 1 88 128 (11264)
I0729 16:26:59.942632 29217 net.cpp:129] Top shape: 1 1 88 128 (11264)
I0729 16:26:59.942641 29217 net.cpp:129] Top shape: 1 1 88 128 (11264)
I0729 16:26:59.942649 29217 net.cpp:129] Top shape: 1 1 88 128 (11264)
I0729 16:26:59.942657 29217 net.cpp:129] Top shape: 1 1 88 128 (11264)
I0729 16:26:59.942665 29217 net.cpp:129] Top shape: 1 1 88 128 (11264)
I0729 16:26:59.942674 29217 net.cpp:129] Top shape: 1 1 88 128 (11264)
I0729 16:26:59.942682 29217 net.cpp:129] Top shape: 1 1 88 128 (11264)
I0729 16:26:59.942699 29217 net.cpp:129] Top shape: 1 1 88 128 (11264)
I0729 16:26:59.942708 29217 net.cpp:129] Top shape: 1 1 88 128 (11264)
I0729 16:26:59.942716 29217 net.cpp:129] Top shape: 1 1 88 128 (11264)
I0729 16:26:59.942725 29217 net.cpp:129] Top shape: 1 1 88 128 (11264)
I0729 16:26:59.942734 29217 net.cpp:129] Top shape: 1 1 88 128 (11264)
I0729 16:26:59.942741 29217 net.cpp:129] Top shape: 1 1 88 128 (11264)
I0729 16:26:59.942750 29217 net.cpp:129] Top shape: 1 1 88 128 (11264)
I0729 16:26:59.942759 29217 net.cpp:129] Top shape: 1 1 88 128 (11264)
I0729 16:26:59.942767 29217 net.cpp:129] Top shape: 1 1 88 128 (11264)
I0729 16:26:59.942775 29217 net.cpp:129] Top shape: 1 1 88 128 (11264)
I0729 16:26:59.942783 29217 net.cpp:129] Top shape: 1 1 88 128 (11264)
I0729 16:26:59.942792 29217 net.cpp:129] Top shape: 1 1 88 128 (11264)
I0729 16:26:59.942800 29217 net.cpp:129] Top shape: 1 1 88 128 (11264)
I0729 16:26:59.942809 29217 net.cpp:129] Top shape: 1 1 88 128 (11264)
I0729 16:26:59.942817 29217 net.cpp:129] Top shape: 1 1 88 128 (11264)
I0729 16:26:59.942826 29217 net.cpp:129] Top shape: 1 1 88 128 (11264)
I0729 16:26:59.942834 29217 net.cpp:129] Top shape: 1 1 88 128 (11264)
I0729 16:26:59.942842 29217 net.cpp:129] Top shape: 1 1 88 128 (11264)
I0729 16:26:59.942850 29217 net.cpp:129] Top shape: 1 1 88 128 (11264)
I0729 16:26:59.942859 29217 net.cpp:129] Top shape: 1 1 88 128 (11264)
I0729 16:26:59.942867 29217 net.cpp:129] Top shape: 1 1 88 128 (11264)
I0729 16:26:59.942875 29217 net.cpp:129] Top shape: 1 1 88 128 (11264)
I0729 16:26:59.942884 29217 net.cpp:129] Top shape: 1 1 88 128 (11264)
I0729 16:26:59.942893 29217 net.cpp:129] Top shape: 1 1 88 128 (11264)
I0729 16:26:59.942901 29217 net.cpp:129] Top shape: 1 1 88 128 (11264)
I0729 16:26:59.942909 29217 net.cpp:129] Top shape: 1 1 88 128 (11264)
I0729 16:26:59.942919 29217 net.cpp:129] Top shape: 1 1 88 128 (11264)
I0729 16:26:59.942927 29217 net.cpp:129] Top shape: 1 1 88 128 (11264)
I0729 16:26:59.942935 29217 net.cpp:129] Top shape: 1 1 88 128 (11264)
I0729 16:26:59.942945 29217 net.cpp:129] Top shape: 1 1 88 128 (11264)
I0729 16:26:59.942952 29217 net.cpp:129] Top shape: 1 1 88 128 (11264)
I0729 16:26:59.942960 29217 net.cpp:129] Top shape: 1 1 88 128 (11264)
I0729 16:26:59.942970 29217 net.cpp:129] Top shape: 1 1 88 128 (11264)
I0729 16:26:59.942977 29217 net.cpp:129] Top shape: 1 1 88 128 (11264)
I0729 16:26:59.942986 29217 net.cpp:129] Top shape: 1 1 88 128 (11264)
I0729 16:26:59.942994 29217 net.cpp:129] Top shape: 1 1 88 128 (11264)
I0729 16:26:59.943002 29217 net.cpp:129] Top shape: 1 1 88 128 (11264)
I0729 16:26:59.943011 29217 net.cpp:129] Top shape: 1 1 88 128 (11264)
I0729 16:26:59.943019 29217 net.cpp:129] Top shape: 1 1 88 128 (11264)
I0729 16:26:59.943027 29217 net.cpp:129] Top shape: 1 1 88 128 (11264)
I0729 16:26:59.943037 29217 net.cpp:129] Top shape: 1 1 88 128 (11264)
I0729 16:26:59.943044 29217 net.cpp:129] Top shape: 1 1 88 128 (11264)
I0729 16:26:59.943053 29217 net.cpp:129] Top shape: 1 1 88 128 (11264)
I0729 16:26:59.943061 29217 net.cpp:129] Top shape: 1 1 88 128 (11264)
I0729 16:26:59.943069 29217 net.cpp:129] Top shape: 1 1 88 128 (11264)
I0729 16:26:59.943078 29217 net.cpp:129] Top shape: 1 1 88 128 (11264)
I0729 16:26:59.943086 29217 net.cpp:129] Top shape: 1 1 88 128 (11264)
I0729 16:26:59.943094 29217 net.cpp:129] Top shape: 1 1 88 128 (11264)
I0729 16:26:59.943102 29217 net.cpp:129] Top shape: 1 1 88 128 (11264)
I0729 16:26:59.943111 29217 net.cpp:129] Top shape: 1 1 88 128 (11264)
I0729 16:26:59.943120 29217 net.cpp:129] Top shape: 1 1 88 128 (11264)
I0729 16:26:59.943128 29217 net.cpp:129] Top shape: 1 1 88 128 (11264)
I0729 16:26:59.943136 29217 net.cpp:129] Top shape: 1 1 88 128 (11264)
I0729 16:26:59.943145 29217 net.cpp:129] Top shape: 1 1 88 128 (11264)
I0729 16:26:59.943153 29217 net.cpp:129] Top shape: 1 1 88 128 (11264)
I0729 16:26:59.943161 29217 net.cpp:129] Top shape: 1 1 88 128 (11264)
I0729 16:26:59.943171 29217 net.cpp:129] Top shape: 1 1 88 128 (11264)
I0729 16:26:59.943178 29217 net.cpp:129] Top shape: 1 1 88 128 (11264)
I0729 16:26:59.943194 29217 net.cpp:129] Top shape: 1 1 88 128 (11264)
I0729 16:26:59.943203 29217 net.cpp:129] Top shape: 1 1 88 128 (11264)
I0729 16:26:59.943212 29217 net.cpp:129] Top shape: 1 1 88 128 (11264)
I0729 16:26:59.943220 29217 net.cpp:129] Top shape: 1 1 88 128 (11264)
I0729 16:26:59.943228 29217 net.cpp:129] Top shape: 1 1 88 128 (11264)
I0729 16:26:59.943236 29217 net.cpp:129] Top shape: 1 1 88 128 (11264)
I0729 16:26:59.943245 29217 net.cpp:129] Top shape: 1 1 88 128 (11264)
I0729 16:26:59.943253 29217 net.cpp:129] Top shape: 1 1 88 128 (11264)
I0729 16:26:59.943262 29217 net.cpp:129] Top shape: 1 1 88 128 (11264)
I0729 16:26:59.943270 29217 net.cpp:129] Top shape: 1 1 88 128 (11264)
I0729 16:26:59.943279 29217 net.cpp:129] Top shape: 1 1 88 128 (11264)
I0729 16:26:59.943287 29217 net.cpp:129] Top shape: 1 1 88 128 (11264)
I0729 16:26:59.943295 29217 net.cpp:129] Top shape: 1 1 88 128 (11264)
I0729 16:26:59.943305 29217 net.cpp:129] Top shape: 1 1 88 128 (11264)
I0729 16:26:59.943312 29217 net.cpp:129] Top shape: 1 1 88 128 (11264)
I0729 16:26:59.943320 29217 net.cpp:129] Top shape: 1 1 88 128 (11264)
I0729 16:26:59.943330 29217 net.cpp:129] Top shape: 1 1 88 128 (11264)
I0729 16:26:59.943347 29217 net.cpp:129] Top shape: 1 1 88 128 (11264)
I0729 16:26:59.943357 29217 net.cpp:129] Top shape: 1 1 88 128 (11264)
I0729 16:26:59.943367 29217 net.cpp:129] Top shape: 1 1 88 128 (11264)
I0729 16:26:59.943375 29217 net.cpp:129] Top shape: 1 1 88 128 (11264)
I0729 16:26:59.943385 29217 net.cpp:129] Top shape: 1 1 88 128 (11264)
I0729 16:26:59.943397 29217 net.cpp:129] Top shape: 1 1 88 128 (11264)
I0729 16:26:59.943405 29217 net.cpp:129] Top shape: 1 1 88 128 (11264)
I0729 16:26:59.943414 29217 net.cpp:129] Top shape: 1 1 88 128 (11264)
I0729 16:26:59.943423 29217 net.cpp:129] Top shape: 1 1 88 128 (11264)
I0729 16:26:59.943436 29217 net.cpp:129] Top shape: 1 1 88 128 (11264)
I0729 16:26:59.943445 29217 net.cpp:129] Top shape: 1 1 88 128 (11264)
I0729 16:26:59.943454 29217 net.cpp:129] Top shape: 1 1 88 128 (11264)
I0729 16:26:59.943462 29217 net.cpp:129] Top shape: 1 1 88 128 (11264)
I0729 16:26:59.943473 29217 net.cpp:129] Top shape: 1 1 88 128 (11264)
I0729 16:26:59.943482 29217 net.cpp:129] Top shape: 1 1 88 128 (11264)
I0729 16:26:59.943490 29217 net.cpp:129] Top shape: 1 1 88 128 (11264)
I0729 16:26:59.943500 29217 net.cpp:129] Top shape: 1 1 88 128 (11264)
I0729 16:26:59.943508 29217 net.cpp:129] Top shape: 1 1 88 128 (11264)
I0729 16:26:59.943516 29217 net.cpp:129] Top shape: 1 1 88 128 (11264)
I0729 16:26:59.943526 29217 net.cpp:129] Top shape: 1 1 88 128 (11264)
I0729 16:26:59.943536 29217 net.cpp:129] Top shape: 1 1 88 128 (11264)
I0729 16:26:59.943545 29217 net.cpp:129] Top shape: 1 1 88 128 (11264)
I0729 16:26:59.943554 29217 net.cpp:129] Top shape: 1 1 88 128 (11264)
I0729 16:26:59.943563 29217 net.cpp:129] Top shape: 1 1 88 128 (11264)
I0729 16:26:59.943575 29217 net.cpp:129] Top shape: 1 1 88 128 (11264)
I0729 16:26:59.943584 29217 net.cpp:129] Top shape: 1 1 88 128 (11264)
I0729 16:26:59.943596 29217 net.cpp:129] Top shape: 1 1 88 128 (11264)
I0729 16:26:59.943608 29217 net.cpp:129] Top shape: 1 1 88 128 (11264)
I0729 16:26:59.943616 29217 net.cpp:129] Top shape: 1 1 88 128 (11264)
I0729 16:26:59.943627 29217 net.cpp:129] Top shape: 1 1 88 128 (11264)
I0729 16:26:59.943637 29217 net.cpp:129] Top shape: 1 1 88 128 (11264)
I0729 16:26:59.943648 29217 net.cpp:129] Top shape: 1 1 88 128 (11264)
I0729 16:26:59.943657 29217 net.cpp:129] Top shape: 1 1 88 128 (11264)
I0729 16:26:59.943670 29217 net.cpp:129] Top shape: 1 1 88 128 (11264)
I0729 16:26:59.943682 29217 net.cpp:129] Top shape: 1 1 88 128 (11264)
I0729 16:26:59.943691 29217 net.cpp:129] Top shape: 1 1 88 128 (11264)
I0729 16:26:59.943702 29217 net.cpp:129] Top shape: 1 1 88 128 (11264)
I0729 16:26:59.943711 29217 net.cpp:129] Top shape: 1 1 88 128 (11264)
I0729 16:26:59.943722 29217 net.cpp:129] Top shape: 1 1 88 128 (11264)
I0729 16:26:59.943733 29217 net.cpp:129] Top shape: 1 1 88 128 (11264)
I0729 16:26:59.943742 29217 net.cpp:129] Top shape: 1 1 88 128 (11264)
I0729 16:26:59.943763 29217 net.cpp:129] Top shape: 1 1 88 128 (11264)
I0729 16:26:59.943771 29217 net.cpp:129] Top shape: 1 1 88 128 (11264)
I0729 16:26:59.943783 29217 net.cpp:129] Top shape: 1 1 88 128 (11264)
I0729 16:26:59.943792 29217 net.cpp:129] Top shape: 1 1 88 128 (11264)
I0729 16:26:59.943801 29217 net.cpp:129] Top shape: 1 1 88 128 (11264)
I0729 16:26:59.943811 29217 net.cpp:129] Top shape: 1 1 88 128 (11264)
I0729 16:26:59.943821 29217 net.cpp:129] Top shape: 1 1 88 128 (11264)
I0729 16:26:59.943835 29217 net.cpp:129] Top shape: 1 1 88 128 (11264)
I0729 16:26:59.943843 29217 net.cpp:129] Top shape: 1 1 88 128 (11264)
I0729 16:26:59.943852 29217 net.cpp:129] Top shape: 1 1 88 128 (11264)
I0729 16:26:59.943861 29217 net.cpp:129] Top shape: 1 1 88 128 (11264)
I0729 16:26:59.943871 29217 net.cpp:129] Top shape: 1 1 88 128 (11264)
I0729 16:26:59.943882 29217 net.cpp:129] Top shape: 1 1 88 128 (11264)
I0729 16:26:59.943892 29217 net.cpp:129] Top shape: 1 1 88 128 (11264)
I0729 16:26:59.943902 29217 net.cpp:129] Top shape: 1 1 88 128 (11264)
I0729 16:26:59.943908 29217 net.cpp:129] Top shape: 1 1 88 128 (11264)
I0729 16:26:59.943914 29217 net.cpp:129] Top shape: 1 1 88 128 (11264)
I0729 16:26:59.943922 29217 net.cpp:129] Top shape: 1 1 88 128 (11264)
I0729 16:26:59.943928 29217 net.cpp:129] Top shape: 1 1 88 128 (11264)
I0729 16:26:59.943934 29217 net.cpp:129] Top shape: 1 1 88 128 (11264)
I0729 16:26:59.943941 29217 net.cpp:129] Top shape: 1 1 88 128 (11264)
I0729 16:26:59.943948 29217 net.cpp:129] Top shape: 1 1 88 128 (11264)
I0729 16:26:59.943954 29217 net.cpp:129] Top shape: 1 1 88 128 (11264)
I0729 16:26:59.943961 29217 net.cpp:129] Top shape: 1 1 88 128 (11264)
I0729 16:26:59.943967 29217 net.cpp:129] Top shape: 1 1 88 128 (11264)
I0729 16:26:59.943974 29217 net.cpp:129] Top shape: 1 1 88 128 (11264)
I0729 16:26:59.943980 29217 net.cpp:129] Top shape: 1 1 88 128 (11264)
I0729 16:26:59.943987 29217 net.cpp:129] Top shape: 1 1 88 128 (11264)
I0729 16:26:59.943994 29217 net.cpp:129] Top shape: 1 1 88 128 (11264)
I0729 16:26:59.944000 29217 net.cpp:129] Top shape: 1 1 88 128 (11264)
I0729 16:26:59.944006 29217 net.cpp:129] Top shape: 1 1 88 128 (11264)
I0729 16:26:59.944013 29217 net.cpp:129] Top shape: 1 1 88 128 (11264)
I0729 16:26:59.944020 29217 net.cpp:129] Top shape: 1 1 88 128 (11264)
I0729 16:26:59.944026 29217 net.cpp:129] Top shape: 1 1 88 128 (11264)
I0729 16:26:59.944033 29217 net.cpp:129] Top shape: 1 1 88 128 (11264)
I0729 16:26:59.944039 29217 net.cpp:129] Top shape: 1 1 88 128 (11264)
I0729 16:26:59.944046 29217 net.cpp:129] Top shape: 1 1 88 128 (11264)
I0729 16:26:59.944052 29217 net.cpp:129] Top shape: 1 1 88 128 (11264)
I0729 16:26:59.944062 29217 net.cpp:129] Top shape: 1 1 88 128 (11264)
I0729 16:26:59.944069 29217 net.cpp:129] Top shape: 1 1 88 128 (11264)
I0729 16:26:59.944075 29217 net.cpp:129] Top shape: 1 1 88 128 (11264)
I0729 16:26:59.944082 29217 net.cpp:129] Top shape: 1 1 88 128 (11264)
I0729 16:26:59.944088 29217 net.cpp:129] Top shape: 1 1 88 128 (11264)
I0729 16:26:59.944095 29217 net.cpp:129] Top shape: 1 1 88 128 (11264)
I0729 16:26:59.944102 29217 net.cpp:129] Top shape: 1 1 88 128 (11264)
I0729 16:26:59.944108 29217 net.cpp:129] Top shape: 1 1 88 128 (11264)
I0729 16:26:59.944115 29217 net.cpp:129] Top shape: 1 1 88 128 (11264)
I0729 16:26:59.944121 29217 net.cpp:129] Top shape: 1 1 88 128 (11264)
I0729 16:26:59.944128 29217 net.cpp:129] Top shape: 1 1 88 128 (11264)
I0729 16:26:59.944134 29217 net.cpp:129] Top shape: 1 1 88 128 (11264)
I0729 16:26:59.944141 29217 net.cpp:129] Top shape: 1 1 88 128 (11264)
I0729 16:26:59.944147 29217 net.cpp:129] Top shape: 1 1 88 128 (11264)
I0729 16:26:59.944154 29217 net.cpp:129] Top shape: 1 1 88 128 (11264)
I0729 16:26:59.944160 29217 net.cpp:129] Top shape: 1 1 88 128 (11264)
I0729 16:26:59.944167 29217 net.cpp:129] Top shape: 1 1 88 128 (11264)
I0729 16:26:59.944173 29217 net.cpp:129] Top shape: 1 1 88 128 (11264)
I0729 16:26:59.944180 29217 net.cpp:129] Top shape: 1 1 88 128 (11264)
I0729 16:26:59.944186 29217 net.cpp:129] Top shape: 1 1 88 128 (11264)
I0729 16:26:59.944200 29217 net.cpp:129] Top shape: 1 1 88 128 (11264)
I0729 16:26:59.944207 29217 net.cpp:129] Top shape: 1 1 88 128 (11264)
I0729 16:26:59.944214 29217 net.cpp:129] Top shape: 1 1 88 128 (11264)
I0729 16:26:59.944221 29217 net.cpp:129] Top shape: 1 1 88 128 (11264)
I0729 16:26:59.944227 29217 net.cpp:129] Top shape: 1 1 88 128 (11264)
I0729 16:26:59.944233 29217 net.cpp:129] Top shape: 1 1 88 128 (11264)
I0729 16:26:59.944241 29217 net.cpp:129] Top shape: 1 1 88 128 (11264)
I0729 16:26:59.944247 29217 net.cpp:129] Top shape: 1 1 88 128 (11264)
I0729 16:26:59.944253 29217 net.cpp:129] Top shape: 1 1 88 128 (11264)
I0729 16:26:59.944259 29217 net.cpp:129] Top shape: 1 1 88 128 (11264)
I0729 16:26:59.944267 29217 net.cpp:129] Top shape: 1 1 88 128 (11264)
I0729 16:26:59.944272 29217 net.cpp:129] Top shape: 1 1 88 128 (11264)
I0729 16:26:59.944279 29217 net.cpp:129] Top shape: 1 1 88 128 (11264)
I0729 16:26:59.944285 29217 net.cpp:129] Top shape: 1 1 88 128 (11264)
I0729 16:26:59.944293 29217 net.cpp:129] Top shape: 1 1 88 128 (11264)
I0729 16:26:59.944298 29217 net.cpp:129] Top shape: 1 1 88 128 (11264)
I0729 16:26:59.944305 29217 net.cpp:129] Top shape: 1 1 88 128 (11264)
I0729 16:26:59.944311 29217 net.cpp:129] Top shape: 1 1 88 128 (11264)
I0729 16:26:59.944319 29217 net.cpp:129] Top shape: 1 1 88 128 (11264)
I0729 16:26:59.944324 29217 net.cpp:129] Top shape: 1 1 88 128 (11264)
I0729 16:26:59.944331 29217 net.cpp:129] Top shape: 1 1 88 128 (11264)
I0729 16:26:59.944337 29217 net.cpp:129] Top shape: 1 1 88 128 (11264)
I0729 16:26:59.944344 29217 net.cpp:129] Top shape: 1 1 88 128 (11264)
I0729 16:26:59.944350 29217 net.cpp:129] Top shape: 1 1 88 128 (11264)
I0729 16:26:59.944357 29217 net.cpp:129] Top shape: 1 1 88 128 (11264)
I0729 16:26:59.944363 29217 net.cpp:129] Top shape: 1 1 88 128 (11264)
I0729 16:26:59.944370 29217 net.cpp:129] Top shape: 1 1 88 128 (11264)
I0729 16:26:59.944376 29217 net.cpp:129] Top shape: 1 1 88 128 (11264)
I0729 16:26:59.944382 29217 net.cpp:129] Top shape: 1 1 88 128 (11264)
I0729 16:26:59.944389 29217 net.cpp:129] Top shape: 1 1 88 128 (11264)
I0729 16:26:59.944396 29217 net.cpp:129] Top shape: 1 1 88 128 (11264)
I0729 16:26:59.944402 29217 net.cpp:129] Top shape: 1 1 88 128 (11264)
I0729 16:26:59.944408 29217 net.cpp:129] Top shape: 1 1 88 128 (11264)
I0729 16:26:59.944416 29217 net.cpp:129] Top shape: 1 1 88 128 (11264)
I0729 16:26:59.944422 29217 net.cpp:129] Top shape: 1 1 88 128 (11264)
I0729 16:26:59.944428 29217 net.cpp:129] Top shape: 1 1 88 128 (11264)
I0729 16:26:59.944434 29217 net.cpp:129] Top shape: 1 1 88 128 (11264)
I0729 16:26:59.944442 29217 net.cpp:129] Top shape: 1 1 88 128 (11264)
I0729 16:26:59.944447 29217 net.cpp:129] Top shape: 1 1 88 128 (11264)
I0729 16:26:59.944454 29217 net.cpp:129] Top shape: 1 1 88 128 (11264)
I0729 16:26:59.944460 29217 net.cpp:129] Top shape: 1 1 88 128 (11264)
I0729 16:26:59.944468 29217 net.cpp:129] Top shape: 1 1 88 128 (11264)
I0729 16:26:59.944473 29217 net.cpp:129] Top shape: 1 1 88 128 (11264)
I0729 16:26:59.944480 29217 net.cpp:129] Top shape: 1 1 88 128 (11264)
I0729 16:26:59.944486 29217 net.cpp:129] Top shape: 1 1 88 128 (11264)
I0729 16:26:59.944494 29217 net.cpp:129] Top shape: 1 1 88 128 (11264)
I0729 16:26:59.944499 29217 net.cpp:129] Top shape: 1 1 88 128 (11264)
I0729 16:26:59.944506 29217 net.cpp:129] Top shape: 1 1 88 128 (11264)
I0729 16:26:59.944512 29217 net.cpp:129] Top shape: 1 1 88 128 (11264)
I0729 16:26:59.944519 29217 net.cpp:129] Top shape: 1 1 88 128 (11264)
I0729 16:26:59.944525 29217 net.cpp:129] Top shape: 1 1 88 128 (11264)
I0729 16:26:59.944532 29217 net.cpp:129] Top shape: 1 1 88 128 (11264)
I0729 16:26:59.944538 29217 net.cpp:129] Top shape: 1 1 88 128 (11264)
I0729 16:26:59.944545 29217 net.cpp:129] Top shape: 1 1 88 128 (11264)
I0729 16:26:59.944551 29217 net.cpp:129] Top shape: 1 1 88 128 (11264)
I0729 16:26:59.944558 29217 net.cpp:129] Top shape: 1 1 88 128 (11264)
I0729 16:26:59.944564 29217 net.cpp:129] Top shape: 1 1 88 128 (11264)
I0729 16:26:59.944577 29217 net.cpp:129] Top shape: 1 1 88 128 (11264)
I0729 16:26:59.944586 29217 net.cpp:129] Top shape: 1 1 88 128 (11264)
I0729 16:26:59.944591 29217 net.cpp:129] Top shape: 1 1 88 128 (11264)
I0729 16:26:59.944598 29217 net.cpp:129] Top shape: 1 1 88 128 (11264)
I0729 16:26:59.944604 29217 net.cpp:129] Top shape: 1 1 88 128 (11264)
I0729 16:26:59.944612 29217 net.cpp:129] Top shape: 1 1 88 128 (11264)
I0729 16:26:59.944617 29217 net.cpp:129] Top shape: 1 1 88 128 (11264)
I0729 16:26:59.944624 29217 net.cpp:129] Top shape: 1 1 88 128 (11264)
I0729 16:26:59.944631 29217 net.cpp:129] Top shape: 1 1 88 128 (11264)
I0729 16:26:59.944638 29217 net.cpp:129] Top shape: 1 1 88 128 (11264)
I0729 16:26:59.944644 29217 net.cpp:129] Top shape: 1 1 88 128 (11264)
I0729 16:26:59.944650 29217 net.cpp:129] Top shape: 1 1 88 128 (11264)
I0729 16:26:59.944658 29217 net.cpp:129] Top shape: 1 1 88 128 (11264)
I0729 16:26:59.944664 29217 net.cpp:129] Top shape: 1 1 88 128 (11264)
I0729 16:26:59.944670 29217 net.cpp:129] Top shape: 1 1 88 128 (11264)
I0729 16:26:59.944676 29217 net.cpp:129] Top shape: 1 1 88 128 (11264)
I0729 16:26:59.944684 29217 net.cpp:129] Top shape: 1 1 88 128 (11264)
I0729 16:26:59.944689 29217 net.cpp:129] Top shape: 1 1 88 128 (11264)
I0729 16:26:59.944696 29217 net.cpp:129] Top shape: 1 1 88 128 (11264)
I0729 16:26:59.944702 29217 net.cpp:129] Top shape: 1 1 88 128 (11264)
I0729 16:26:59.944710 29217 net.cpp:129] Top shape: 1 1 88 128 (11264)
I0729 16:26:59.944715 29217 net.cpp:129] Top shape: 1 1 88 128 (11264)
I0729 16:26:59.944722 29217 net.cpp:129] Top shape: 1 1 88 128 (11264)
I0729 16:26:59.944728 29217 net.cpp:129] Top shape: 1 1 88 128 (11264)
I0729 16:26:59.944735 29217 net.cpp:129] Top shape: 1 1 88 128 (11264)
I0729 16:26:59.944741 29217 net.cpp:129] Top shape: 1 1 88 128 (11264)
I0729 16:26:59.944747 29217 net.cpp:129] Top shape: 1 1 88 128 (11264)
I0729 16:26:59.944754 29217 net.cpp:129] Top shape: 1 1 88 128 (11264)
I0729 16:26:59.944761 29217 net.cpp:129] Top shape: 1 1 88 128 (11264)
I0729 16:26:59.944767 29217 net.cpp:129] Top shape: 1 1 88 128 (11264)
I0729 16:26:59.944773 29217 net.cpp:129] Top shape: 1 1 88 128 (11264)
I0729 16:26:59.944780 29217 net.cpp:129] Top shape: 1 1 88 128 (11264)
I0729 16:26:59.944787 29217 net.cpp:129] Top shape: 1 1 88 128 (11264)
I0729 16:26:59.944793 29217 net.cpp:129] Top shape: 1 1 88 128 (11264)
I0729 16:26:59.944799 29217 net.cpp:129] Top shape: 1 1 88 128 (11264)
I0729 16:26:59.944806 29217 net.cpp:129] Top shape: 1 1 88 128 (11264)
I0729 16:26:59.944813 29217 net.cpp:129] Top shape: 1 1 88 128 (11264)
I0729 16:26:59.944819 29217 net.cpp:129] Top shape: 1 1 88 128 (11264)
I0729 16:26:59.944825 29217 net.cpp:129] Top shape: 1 1 88 128 (11264)
I0729 16:26:59.944831 29217 net.cpp:129] Top shape: 1 1 88 128 (11264)
I0729 16:26:59.944839 29217 net.cpp:129] Top shape: 1 1 88 128 (11264)
I0729 16:26:59.944844 29217 net.cpp:129] Top shape: 1 1 88 128 (11264)
I0729 16:26:59.944851 29217 net.cpp:129] Top shape: 1 1 88 128 (11264)
I0729 16:26:59.944857 29217 net.cpp:129] Top shape: 1 1 88 128 (11264)
I0729 16:26:59.944864 29217 net.cpp:129] Top shape: 1 1 88 128 (11264)
I0729 16:26:59.944870 29217 net.cpp:129] Top shape: 1 1 88 128 (11264)
I0729 16:26:59.944877 29217 net.cpp:129] Top shape: 1 1 88 128 (11264)
I0729 16:26:59.944883 29217 net.cpp:129] Top shape: 1 1 88 128 (11264)
I0729 16:26:59.944890 29217 net.cpp:129] Top shape: 1 1 88 128 (11264)
I0729 16:26:59.944897 29217 net.cpp:129] Top shape: 1 1 88 128 (11264)
I0729 16:26:59.944903 29217 net.cpp:129] Top shape: 1 1 88 128 (11264)
I0729 16:26:59.944911 29217 net.cpp:129] Top shape: 1 1 88 128 (11264)
I0729 16:26:59.944917 29217 net.cpp:129] Top shape: 1 1 88 128 (11264)
I0729 16:26:59.944923 29217 net.cpp:129] Top shape: 1 1 88 128 (11264)
I0729 16:26:59.944929 29217 net.cpp:129] Top shape: 1 1 88 128 (11264)
I0729 16:26:59.944936 29217 net.cpp:129] Top shape: 1 1 88 128 (11264)
I0729 16:26:59.944943 29217 net.cpp:129] Top shape: 1 1 88 128 (11264)
I0729 16:26:59.944949 29217 net.cpp:129] Top shape: 1 1 88 128 (11264)
I0729 16:26:59.944963 29217 net.cpp:129] Top shape: 1 1 88 128 (11264)
I0729 16:26:59.944970 29217 net.cpp:129] Top shape: 1 1 88 128 (11264)
I0729 16:26:59.944977 29217 net.cpp:129] Top shape: 1 1 88 128 (11264)
I0729 16:26:59.944984 29217 net.cpp:129] Top shape: 1 1 88 128 (11264)
I0729 16:26:59.944990 29217 net.cpp:129] Top shape: 1 1 88 128 (11264)
I0729 16:26:59.944998 29217 net.cpp:129] Top shape: 1 1 88 128 (11264)
I0729 16:26:59.945003 29217 net.cpp:129] Top shape: 1 1 88 128 (11264)
I0729 16:26:59.945010 29217 net.cpp:129] Top shape: 1 1 88 128 (11264)
I0729 16:26:59.945016 29217 net.cpp:129] Top shape: 1 1 88 128 (11264)
I0729 16:26:59.945022 29217 net.cpp:129] Top shape: 1 1 88 128 (11264)
I0729 16:26:59.945029 29217 net.cpp:129] Top shape: 1 1 88 128 (11264)
I0729 16:26:59.945035 29217 net.cpp:129] Top shape: 1 1 88 128 (11264)
I0729 16:26:59.945042 29217 net.cpp:129] Top shape: 1 1 88 128 (11264)
I0729 16:26:59.945049 29217 net.cpp:129] Top shape: 1 1 88 128 (11264)
I0729 16:26:59.945055 29217 net.cpp:129] Top shape: 1 1 88 128 (11264)
I0729 16:26:59.945062 29217 net.cpp:129] Top shape: 1 1 88 128 (11264)
I0729 16:26:59.945068 29217 net.cpp:129] Top shape: 1 1 88 128 (11264)
I0729 16:26:59.945075 29217 net.cpp:129] Top shape: 1 1 88 128 (11264)
I0729 16:26:59.945081 29217 net.cpp:129] Top shape: 1 1 88 128 (11264)
I0729 16:26:59.945088 29217 net.cpp:129] Top shape: 1 1 88 128 (11264)
I0729 16:26:59.945094 29217 net.cpp:129] Top shape: 1 1 88 128 (11264)
I0729 16:26:59.945101 29217 net.cpp:129] Top shape: 1 1 88 128 (11264)
I0729 16:26:59.945107 29217 net.cpp:129] Top shape: 1 1 88 128 (11264)
I0729 16:26:59.945114 29217 net.cpp:129] Top shape: 1 1 88 128 (11264)
I0729 16:26:59.945121 29217 net.cpp:129] Top shape: 1 1 88 128 (11264)
I0729 16:26:59.945127 29217 net.cpp:129] Top shape: 1 1 88 128 (11264)
I0729 16:26:59.945133 29217 net.cpp:129] Top shape: 1 1 88 128 (11264)
I0729 16:26:59.945140 29217 net.cpp:129] Top shape: 1 1 88 128 (11264)
I0729 16:26:59.945147 29217 net.cpp:129] Top shape: 1 1 88 128 (11264)
I0729 16:26:59.945153 29217 net.cpp:129] Top shape: 1 1 88 128 (11264)
I0729 16:26:59.945159 29217 net.cpp:129] Top shape: 1 1 88 128 (11264)
I0729 16:26:59.945165 29217 net.cpp:129] Top shape: 1 1 88 128 (11264)
I0729 16:26:59.945173 29217 net.cpp:129] Top shape: 1 1 88 128 (11264)
I0729 16:26:59.945178 29217 net.cpp:129] Top shape: 1 1 88 128 (11264)
I0729 16:26:59.945185 29217 net.cpp:129] Top shape: 1 1 88 128 (11264)
I0729 16:26:59.945191 29217 net.cpp:129] Top shape: 1 1 88 128 (11264)
I0729 16:26:59.945199 29217 net.cpp:129] Top shape: 1 1 88 128 (11264)
I0729 16:26:59.945204 29217 net.cpp:129] Top shape: 1 1 88 128 (11264)
I0729 16:26:59.945211 29217 net.cpp:129] Top shape: 1 1 88 128 (11264)
I0729 16:26:59.945217 29217 net.cpp:129] Top shape: 1 1 88 128 (11264)
I0729 16:26:59.945225 29217 net.cpp:129] Top shape: 1 1 88 128 (11264)
I0729 16:26:59.945230 29217 net.cpp:129] Top shape: 1 1 88 128 (11264)
I0729 16:26:59.945237 29217 net.cpp:129] Top shape: 1 1 88 128 (11264)
I0729 16:26:59.945243 29217 net.cpp:129] Top shape: 1 1 88 128 (11264)
I0729 16:26:59.945250 29217 net.cpp:129] Top shape: 1 1 88 128 (11264)
I0729 16:26:59.945256 29217 net.cpp:129] Top shape: 1 1 88 128 (11264)
I0729 16:26:59.945263 29217 net.cpp:129] Top shape: 1 1 88 128 (11264)
I0729 16:26:59.945269 29217 net.cpp:129] Top shape: 1 1 88 128 (11264)
I0729 16:26:59.945276 29217 net.cpp:129] Top shape: 1 1 88 128 (11264)
I0729 16:26:59.945282 29217 net.cpp:129] Top shape: 1 1 88 128 (11264)
I0729 16:26:59.945289 29217 net.cpp:129] Top shape: 1 1 88 128 (11264)
I0729 16:26:59.945296 29217 net.cpp:129] Top shape: 1 1 88 128 (11264)
I0729 16:26:59.945302 29217 net.cpp:129] Top shape: 1 1 88 128 (11264)
I0729 16:26:59.945313 29217 net.cpp:129] Top shape: 1 1 88 128 (11264)
I0729 16:26:59.945320 29217 net.cpp:129] Top shape: 1 1 88 128 (11264)
I0729 16:26:59.945327 29217 net.cpp:129] Top shape: 1 1 88 128 (11264)
I0729 16:26:59.945333 29217 net.cpp:129] Top shape: 1 1 88 128 (11264)
I0729 16:26:59.945339 29217 net.cpp:129] Top shape: 1 1 88 128 (11264)
I0729 16:26:59.945354 29217 net.cpp:129] Top shape: 1 1 88 128 (11264)
I0729 16:26:59.945361 29217 net.cpp:129] Top shape: 1 1 88 128 (11264)
I0729 16:26:59.945367 29217 net.cpp:129] Top shape: 1 1 88 128 (11264)
I0729 16:26:59.945374 29217 net.cpp:129] Top shape: 1 1 88 128 (11264)
I0729 16:26:59.945380 29217 net.cpp:129] Top shape: 1 1 88 128 (11264)
I0729 16:26:59.945387 29217 net.cpp:129] Top shape: 1 1 88 128 (11264)
I0729 16:26:59.945394 29217 net.cpp:129] Top shape: 1 1 88 128 (11264)
I0729 16:26:59.945399 29217 net.cpp:129] Top shape: 1 1 88 128 (11264)
I0729 16:26:59.945406 29217 net.cpp:129] Top shape: 1 1 88 128 (11264)
I0729 16:26:59.945412 29217 net.cpp:129] Top shape: 1 1 88 128 (11264)
I0729 16:26:59.945420 29217 net.cpp:129] Top shape: 1 1 88 128 (11264)
I0729 16:26:59.945425 29217 net.cpp:129] Top shape: 1 1 88 128 (11264)
I0729 16:26:59.945432 29217 net.cpp:129] Top shape: 1 1 88 128 (11264)
I0729 16:26:59.945438 29217 net.cpp:129] Top shape: 1 1 88 128 (11264)
I0729 16:26:59.945446 29217 net.cpp:129] Top shape: 1 1 88 128 (11264)
I0729 16:26:59.945451 29217 net.cpp:129] Top shape: 1 1 88 128 (11264)
I0729 16:26:59.945457 29217 net.cpp:129] Top shape: 1 1 88 128 (11264)
I0729 16:26:59.945464 29217 net.cpp:129] Top shape: 1 1 88 128 (11264)
I0729 16:26:59.945471 29217 net.cpp:129] Top shape: 1 1 88 128 (11264)
I0729 16:26:59.945477 29217 net.cpp:129] Top shape: 1 1 88 128 (11264)
I0729 16:26:59.945483 29217 net.cpp:129] Top shape: 1 1 88 128 (11264)
I0729 16:26:59.945489 29217 net.cpp:129] Top shape: 1 1 88 128 (11264)
I0729 16:26:59.945497 29217 net.cpp:129] Top shape: 1 1 88 128 (11264)
I0729 16:26:59.945502 29217 net.cpp:129] Top shape: 1 1 88 128 (11264)
I0729 16:26:59.945509 29217 net.cpp:129] Top shape: 1 1 88 128 (11264)
I0729 16:26:59.945515 29217 net.cpp:129] Top shape: 1 1 88 128 (11264)
I0729 16:26:59.945523 29217 net.cpp:129] Top shape: 1 1 88 128 (11264)
I0729 16:26:59.945528 29217 net.cpp:129] Top shape: 1 1 88 128 (11264)
I0729 16:26:59.945534 29217 net.cpp:129] Top shape: 1 1 88 128 (11264)
I0729 16:26:59.945541 29217 net.cpp:129] Top shape: 1 1 88 128 (11264)
I0729 16:26:59.945547 29217 net.cpp:129] Top shape: 1 1 88 128 (11264)
I0729 16:26:59.945554 29217 net.cpp:129] Top shape: 1 1 88 128 (11264)
I0729 16:26:59.945560 29217 net.cpp:129] Top shape: 1 1 88 128 (11264)
I0729 16:26:59.945566 29217 net.cpp:129] Top shape: 1 1 88 128 (11264)
I0729 16:26:59.945574 29217 net.cpp:129] Top shape: 1 1 88 128 (11264)
I0729 16:26:59.945580 29217 net.cpp:129] Top shape: 1 1 88 128 (11264)
I0729 16:26:59.945585 29217 net.cpp:129] Top shape: 1 1 88 128 (11264)
I0729 16:26:59.945592 29217 net.cpp:129] Top shape: 1 1 88 128 (11264)
I0729 16:26:59.945598 29217 net.cpp:129] Top shape: 1 1 88 128 (11264)
I0729 16:26:59.945605 29217 net.cpp:129] Top shape: 1 1 88 128 (11264)
I0729 16:26:59.945611 29217 net.cpp:129] Top shape: 1 1 88 128 (11264)
I0729 16:26:59.945617 29217 net.cpp:129] Top shape: 1 1 88 128 (11264)
I0729 16:26:59.945624 29217 net.cpp:129] Top shape: 1 1 88 128 (11264)
I0729 16:26:59.945631 29217 net.cpp:129] Top shape: 1 1 88 128 (11264)
I0729 16:26:59.945637 29217 net.cpp:129] Top shape: 1 1 88 128 (11264)
I0729 16:26:59.945643 29217 net.cpp:129] Top shape: 1 1 88 128 (11264)
I0729 16:26:59.945649 29217 net.cpp:129] Top shape: 1 1 88 128 (11264)
I0729 16:26:59.945657 29217 net.cpp:129] Top shape: 1 1 88 128 (11264)
I0729 16:26:59.945662 29217 net.cpp:129] Top shape: 1 1 88 128 (11264)
I0729 16:26:59.945668 29217 net.cpp:129] Top shape: 1 1 88 128 (11264)
I0729 16:26:59.945675 29217 net.cpp:129] Top shape: 1 1 88 128 (11264)
I0729 16:26:59.945682 29217 net.cpp:129] Top shape: 1 1 88 128 (11264)
I0729 16:26:59.945688 29217 net.cpp:129] Top shape: 1 1 88 128 (11264)
I0729 16:26:59.945694 29217 net.cpp:129] Top shape: 1 1 88 128 (11264)
I0729 16:26:59.945700 29217 net.cpp:129] Top shape: 1 1 88 128 (11264)
I0729 16:26:59.945708 29217 net.cpp:129] Top shape: 1 1 88 128 (11264)
I0729 16:26:59.945713 29217 net.cpp:129] Top shape: 1 1 88 128 (11264)
I0729 16:26:59.945726 29217 net.cpp:129] Top shape: 1 1 88 128 (11264)
I0729 16:26:59.945734 29217 net.cpp:129] Top shape: 1 1 88 128 (11264)
I0729 16:26:59.945740 29217 net.cpp:129] Top shape: 1 1 88 128 (11264)
I0729 16:26:59.945746 29217 net.cpp:129] Top shape: 1 1 88 128 (11264)
I0729 16:26:59.945752 29217 net.cpp:129] Top shape: 1 1 88 128 (11264)
I0729 16:26:59.945760 29217 net.cpp:129] Top shape: 1 1 88 128 (11264)
I0729 16:26:59.945770 29217 net.cpp:129] Top shape: 1 1 88 128 (11264)
I0729 16:26:59.945776 29217 net.cpp:129] Top shape: 1 1 88 128 (11264)
I0729 16:26:59.945782 29217 net.cpp:129] Top shape: 1 1 88 128 (11264)
I0729 16:26:59.945789 29217 net.cpp:129] Top shape: 1 1 88 128 (11264)
I0729 16:26:59.945796 29217 net.cpp:129] Top shape: 1 1 88 128 (11264)
I0729 16:26:59.945801 29217 net.cpp:129] Top shape: 1 1 88 128 (11264)
I0729 16:26:59.945808 29217 net.cpp:129] Top shape: 1 1 88 128 (11264)
I0729 16:26:59.945814 29217 net.cpp:129] Top shape: 1 1 88 128 (11264)
I0729 16:26:59.945821 29217 net.cpp:129] Top shape: 1 1 88 128 (11264)
I0729 16:26:59.945827 29217 net.cpp:129] Top shape: 1 1 88 128 (11264)
I0729 16:26:59.945833 29217 net.cpp:129] Top shape: 1 1 88 128 (11264)
I0729 16:26:59.945839 29217 net.cpp:129] Top shape: 1 1 88 128 (11264)
I0729 16:26:59.945847 29217 net.cpp:129] Top shape: 1 1 88 128 (11264)
I0729 16:26:59.945852 29217 net.cpp:129] Top shape: 1 1 88 128 (11264)
I0729 16:26:59.945858 29217 net.cpp:129] Top shape: 1 1 88 128 (11264)
I0729 16:26:59.945865 29217 net.cpp:129] Top shape: 1 1 88 128 (11264)
I0729 16:26:59.945871 29217 net.cpp:129] Top shape: 1 1 88 128 (11264)
I0729 16:26:59.945878 29217 net.cpp:129] Top shape: 1 1 88 128 (11264)
I0729 16:26:59.945884 29217 net.cpp:129] Top shape: 1 1 88 128 (11264)
I0729 16:26:59.945890 29217 net.cpp:129] Top shape: 1 1 88 128 (11264)
I0729 16:26:59.945897 29217 net.cpp:129] Top shape: 1 1 88 128 (11264)
I0729 16:26:59.945904 29217 net.cpp:129] Top shape: 1 1 88 128 (11264)
I0729 16:26:59.945909 29217 net.cpp:137] Memory required for data: 1842745344
I0729 16:26:59.945917 29217 layer_factory.hpp:77] Creating layer sumscore
I0729 16:26:59.945973 29217 net.cpp:84] Creating Layer sumscore
I0729 16:26:59.945982 29217 net.cpp:406] sumscore <- score1
I0729 16:26:59.945992 29217 net.cpp:406] sumscore <- score2
I0729 16:26:59.946000 29217 net.cpp:406] sumscore <- score3
…
