…
I0726 09:51:08.636739 27891 net.cpp:51] Initializing net from parameters: 
name: "crowd_counting"
state {
  phase: TRAIN
  level: 0
  stage: ""
}
layer {
  name: "data"
  type: "Data"
  top: "data"
  include {
    phase: TRAIN
  }
  data_param {
    source: "/home/peiyong/Work/Zenglin/szl/ShanghaiTech/partA/train_8/image_lmdb"
    batch_size: 1
    backend: LMDB
  }
}
layer {
  name: "label"
  type: "Data"
  top: "label"
  include {
    phase: TRAIN
  }
  data_param {
    source: "/home/peiyong/Work/Zenglin/szl/ShanghaiTech/partA/train_8/dmap_lmdb"
    batch_size: 1
    backend: LMDB
  }
}
layer {
  name: "conv1_1"
  type: "Convolution"
  bottom: "data"
  top: "conv1_1"
  param {
    lr_mult: 0.1
    decay_mult: 1
  }
  param {
    lr_mult: 0.2
    decay_mult: 0
  }
  convolution_param {
    num_output: 64
    pad: 1
    kernel_size: 3
    weight_filler {
      type: "gaussian"
      std: 0.01
    }
    bias_filler {
      type: "constant"
      value: 0
    }
  }
}
layer {
  name: "relu1_1"
  type: "ReLU"
  bottom: "conv1_1"
  top: "conv1_1"
}
layer {
  name: "conv1_2"
  type: "Convolution"
  bottom: "conv1_1"
  top: "conv1_2"
  param {
    lr_mult: 0.1
    decay_mult: 1
  }
  param {
    lr_mult: 0.2
    decay_mult: 0
  }
  convolution_param {
    num_output: 64
    pad: 1
    kernel_size: 3
    weight_filler {
      type: "gaussian"
      std: 0.01
    }
    bias_filler {
      type: "constant"
      value: 0
    }
  }
}
layer {
  name: "relu1_2"
  type: "ReLU"
  bottom: "conv1_2"
  top: "conv1_2"
}
layer {
  name: "pool1"
  type: "Pooling"
  bottom: "conv1_2"
  top: "pool1"
  pooling_param {
    pool: MAX
    kernel_size: 2
    stride: 2
  }
}
layer {
  name: "conv2_1"
  type: "Convolution"
  bottom: "pool1"
  top: "conv2_1"
  param {
    lr_mult: 0.1
    decay_mult: 1
  }
  param {
    lr_mult: 0.2
    decay_mult: 0
  }
  convolution_param {
    num_output: 128
    pad: 1
    kernel_size: 3
    weight_filler {
      type: "gaussian"
      std: 0.01
    }
    bias_filler {
      type: "constant"
      value: 0
    }
  }
}
layer {
  name: "relu2_1"
  type: "ReLU"
  bottom: "conv2_1"
  top: "conv2_1"
}
layer {
  name: "conv2_2"
  type: "Convolution"
  bottom: "conv2_1"
  top: "conv2_2"
  param {
    lr_mult: 0.1
    decay_mult: 1
  }
  param {
    lr_mult: 0.2
    decay_mult: 0
  }
  convolution_param {
    num_output: 128
    pad: 1
    kernel_size: 3
    weight_filler {
      type: "gaussian"
      std: 0.01
    }
    bias_filler {
      type: "constant"
      value: 0
    }
  }
}
layer {
  name: "relu2_2"
  type: "ReLU"
  bottom: "conv2_2"
  top: "conv2_2"
}
layer {
  name: "pool2"
  type: "Pooling"
  bottom: "conv2_2"
  top: "pool2"
  pooling_param {
    pool: MAX
    kernel_size: 2
    stride: 2
  }
}
layer {
  name: "conv3_1"
  type: "Convolution"
  bottom: "pool2"
  top: "conv3_1"
  param {
    lr_mult: 0.1
    decay_mult: 1
  }
  param {
    lr_mult: 0.2
    decay_mult: 0
  }
  convolution_param {
    num_output: 256
    pad: 1
    kernel_size: 3
    weight_filler {
      type: "gaussian"
      std: 0.01
    }
    bias_filler {
      type: "constant"
      value: 0
    }
  }
}
layer {
  name: "relu3_1"
  type: "ReLU"
  bottom: "conv3_1"
  top: "conv3_1"
}
layer {
  name: "conv3_2"
  type: "Convolution"
  bottom: "conv3_1"
  top: "conv3_2"
  param {
    lr_mult: 0.1
    decay_mult: 1
  }
  param {
    lr_mult: 0.2
    decay_mult: 0
  }
  convolution_param {
    num_output: 256
    pad: 1
    kernel_size: 3
    weight_filler {
      type: "gaussian"
      std: 0.01
    }
    bias_filler {
      type: "constant"
      value: 0
    }
  }
}
layer {
  name: "relu3_2"
  type: "ReLU"
  bottom: "conv3_2"
  top: "conv3_2"
}
layer {
  name: "conv3_3"
  type: "Convolution"
  bottom: "conv3_2"
  top: "conv3_3"
  param {
    lr_mult: 0.1
    decay_mult: 1
  }
  param {
    lr_mult: 0.2
    decay_mult: 0
  }
  convolution_param {
    num_output: 256
    pad: 1
    kernel_size: 3
    weight_filler {
      type: "gaussian"
      std: 0.01
    }
    bias_filler {
      type: "constant"
      value: 0
    }
  }
}
layer {
  name: "relu3_3"
  type: "ReLU"
  bottom: "conv3_3"
  top: "conv3_3"
}
layer {
  name: "pool3"
  type: "Pooling"
  bottom: "conv3_3"
  top: "pool3"
  pooling_param {
    pool: MAX
    kernel_size: 2
    stride: 2
  }
}
layer {
  name: "conv4_1"
  type: "Convolution"
  bottom: "pool3"
  top: "conv4_1"
  param {
    lr_mult: 0.1
    decay_mult: 1
  }
  param {
    lr_mult: 0.2
    decay_mult: 0
  }
  convolution_param {
    num_output: 512
    pad: 1
    kernel_size: 3
    weight_filler {
      type: "gaussian"
      std: 0.01
    }
    bias_filler {
      type: "constant"
      value: 0
    }
  }
}
layer {
  name: "relu4_1"
  type: "ReLU"
  bottom: "conv4_1"
  top: "conv4_1"
}
layer {
  name: "conv4_2"
  type: "Convolution"
  bottom: "conv4_1"
  top: "conv4_2"
  param {
    lr_mult: 0.1
    decay_mult: 1
  }
  param {
    lr_mult: 0.2
    decay_mult: 0
  }
  convolution_param {
    num_output: 512
    pad: 1
    kernel_size: 3
    weight_filler {
      type: "gaussian"
      std: 0.01
    }
    bias_filler {
      type: "constant"
      value: 0
    }
  }
}
layer {
  name: "relu4_2"
  type: "ReLU"
  bottom: "conv4_2"
  top: "conv4_2"
}
layer {
  name: "conv4_3"
  type: "Convolution"
  bottom: "conv4_2"
  top: "conv4_3"
  param {
    lr_mult: 0.1
    decay_mult: 1
  }
  param {
    lr_mult: 0.2
    decay_mult: 0
  }
  convolution_param {
    num_output: 512
    pad: 1
    kernel_size: 3
    weight_filler {
      type: "gaussian"
      std: 0.01
    }
    bias_filler {
      type: "constant"
      value: 0
    }
  }
}
layer {
  name: "relu4_3"
  type: "ReLU"
  bottom: "conv4_3"
  top: "conv4_3"
}
layer {
  name: "pool4"
  type: "Pooling"
  bottom: "conv4_3"
  top: "pool4"
  pooling_param {
    pool: MAX
    kernel_size: 3
    stride: 1
    pad: 1
  }
}
layer {
  name: "conv5_1"
  type: "Convolution"
  bottom: "pool4"
  top: "conv5_1"
  param {
    lr_mult: 0.1
    decay_mult: 1
  }
  param {
    lr_mult: 0.2
    decay_mult: 0
  }
  convolution_param {
    num_output: 512
    pad: 2
    kernel_size: 3
    weight_filler {
      type: "gaussian"
      std: 0.01
    }
    bias_filler {
      type: "constant"
      value: 0
    }
    dilation: 2
  }
}
layer {
  name: "relu5_1"
  type: "ReLU"
  bottom: "conv5_1"
  top: "conv5_1"
}
layer {
  name: "conv5_2"
  type: "Convolution"
  bottom: "conv5_1"
  top: "conv5_2"
  param {
    lr_mult: 0.1
    decay_mult: 1
  }
  param {
    lr_mult: 0.2
    decay_mult: 0
  }
  convolution_param {
    num_output: 512
    pad: 2
    kernel_size: 3
    weight_filler {
      type: "gaussian"
      std: 0.01
    }
    bias_filler {
      type: "constant"
      value: 0
    }
    dilation: 2
  }
}
layer {
  name: "relu5_2"
  type: "ReLU"
  bottom: "conv5_2"
  top: "conv5_2"
}
layer {
  name: "conv5_3"
  type: "Convolution"
  bottom: "conv5_2"
  top: "conv5_3"
  param {
    lr_mult: 0.1
    decay_mult: 1
  }
  param {
    lr_mult: 0.2
    decay_mult: 0
  }
  convolution_param {
    num_output: 512
    pad: 2
    kernel_size: 3
    weight_filler {
      type: "gaussian"
      std: 0.01
    }
    bias_filler {
      type: "constant"
      value: 0
    }
    dilation: 2
  }
}
layer {
  name: "relu5_3"
  type: "ReLU"
  bottom: "conv5_3"
  top: "conv5_3"
}
layer {
  name: "conv_score"
  type: "Convolution"
  bottom: "conv5_3"
  top: "conv_score"
  param {
    lr_mult: 10
    decay_mult: 1
  }
  param {
    lr_mult: 20
    decay_mult: 0
  }
  convolution_param {
    num_output: 64
    pad: 0
    kernel_size: 1
    group: 64
    stride: 1
    weight_filler {
      type: "constant"
      value: 0.0001
    }
    bias_filler {
      type: "constant"
      value: 0
    }
  }
}
layer {
  name: "relu_score"
  type: "ReLU"
  bottom: "conv_score"
  top: "conv_score"
}
layer {
  name: "slicer_conv"
  type: "Slice"
  bottom: "conv_score"
  top: "score1"
  top: "score2"
  top: "score3"
  top: "score4"
  top: "score5"
  top: "score6"
  top: "score7"
  top: "score8"
  top: "score9"
  top: "score10"
  top: "score11"
  top: "score12"
  top: "score13"
  top: "score14"
  top: "score15"
  top: "score16"
  top: "score17"
  top: "score18"
  top: "score19"
  top: "score20"
  top: "score21"
  top: "score22"
  top: "score23"
  top: "score24"
  top: "score25"
  top: "score26"
  top: "score27"
  top: "score28"
  top: "score29"
  top: "score30"
  top: "score31"
  top: "score32"
  top: "score33"
  top: "score34"
  top: "score35"
  top: "score36"
  top: "score37"
  top: "score38"
  top: "score39"
  top: "score40"
  top: "score41"
  top: "score42"
  top: "score43"
  top: "score44"
  top: "score45"
  top: "score46"
  top: "score47"
  top: "score48"
  top: "score49"
  top: "score50"
  top: "score51"
  top: "score52"
  top: "score53"
  top: "score54"
  top: "score55"
  top: "score56"
  top: "score57"
  top: "score58"
  top: "score59"
  top: "score60"
  top: "score61"
  top: "score62"
  top: "score63"
  top: "score64"
  slice_param {
    axis: 1
  }
}
layer {
  name: "sumscore"
  type: "Eltwise"
  bottom: "score1"
  bottom: "score2"
  bottom: "score3"
  bottom: "score4"
  bottom: "score5"
  bottom: "score6"
  bottom: "score7"
  bottom: "score8"
  bottom: "score9"
  bottom: "score10"
  bottom: "score11"
  bottom: "score12"
  bottom: "score13"
  bottom: "score14"
  bottom: "score15"
  bottom: "score16"
  bottom: "score17"
  bottom: "score18"
  bottom: "score19"
  bottom: "score20"
  bottom: "score21"
  bottom: "score22"
  bottom: "score23"
  bottom: "score24"
  bottom: "score25"
  bottom: "score26"
  bottom: "score27"
  bottom: "score28"
  bottom: "score29"
  bottom: "score30"
  bottom: "score31"
  bottom: "score32"
  bottom: "score33"
  bottom: "score34"
  bottom: "score35"
  bottom: "score36"
  bottom: "score37"
  bottom: "score38"
  bottom: "score39"
  bottom: "score40"
  bottom: "score41"
  bottom: "score42"
  bottom: "score43"
  bottom: "score44"
  bottom: "score45"
  bottom: "score46"
  bottom: "score47"
  bottom: "score48"
  bottom: "score49"
  bottom: "score50"
  bottom: "score51"
  bottom: "score52"
  bottom: "score53"
  bottom: "score54"
  bottom: "score55"
  bottom: "score56"
  bottom: "score57"
  bottom: "score58"
  bottom: "score59"
  bottom: "score60"
  bottom: "score61"
  bottom: "score62"
  bottom: "score63"
  bottom: "score64"
  top: "sumscore"
  eltwise_param {
    operation: SUM
  }
}
layer {
  name: "loss1"
  type: "NCLLoss"
  bottom: "score1"
  bottom: "label"
  bottom: "sumscore"
  top: "loss1"
  include {
    phase: TRAIN
  }
  ncl_loss_param {
    lambda: 1
    net_num: 64
  }
}
layer {
  name: "loss2"
  type: "NCLLoss"
  bottom: "score2"
  bottom: "label"
  bottom: "sumscore"
  top: "loss2"
  include {
    phase: TRAIN
  }
  ncl_loss_param {
    lambda: 1
    net_num: 64
  }
}
layer {
  name: "loss3"
  type: "NCLLoss"
  bottom: "score3"
  bottom: "label"
  bottom: "sumscore"
  top: "loss3"
  include {
    phase: TRAIN
  }
  ncl_loss_param {
    lambda: 1
    net_num: 64
  }
}
layer {
  name: "loss4"
  type: "NCLLoss"
  bottom: "score4"
  bottom: "label"
  bottom: "sumscore"
  top: "loss4"
  include {
    phase: TRAIN
  }
  ncl_loss_param {
    lambda: 1
    net_num: 64
  }
}
layer {
  name: "loss5"
  type: "NCLLoss"
  bottom: "score5"
  bottom: "label"
  bottom: "sumscore"
  top: "loss5"
  include {
    phase: TRAIN
  }
  ncl_loss_param {
    lambda: 1
    net_num: 64
  }
}
layer {
  name: "loss6"
  type: "NCLLoss"
  bottom: "score6"
  bottom: "label"
  bottom: "sumscore"
  top: "loss6"
  include {
    phase: TRAIN
  }
  ncl_loss_param {
    lambda: 1
    net_num: 64
  }
}
layer {
  name: "loss7"
  type: "NCLLoss"
  bottom: "score7"
  bottom: "label"
  bottom: "sumscore"
  top: "loss7"
  include {
    phase: TRAIN
  }
  ncl_loss_param {
    lambda: 1
    net_num: 64
  }
}
layer {
  name: "loss8"
  type: "NCLLoss"
  bottom: "score8"
  bottom: "label"
  bottom: "sumscore"
  top: "loss8"
  include {
    phase: TRAIN
  }
  ncl_loss_param {
    lambda: 1
    net_num: 64
  }
}
layer {
  name: "loss9"
  type: "NCLLoss"
  bottom: "score9"
  bottom: "label"
  bottom: "sumscore"
  top: "loss9"
  include {
    phase: TRAIN
  }
  ncl_loss_param {
    lambda: 1
    net_num: 64
  }
}
layer {
  name: "loss10"
  type: "NCLLoss"
  bottom: "score10"
  bottom: "label"
  bottom: "sumscore"
  top: "loss10"
  include {
    phase: TRAIN
  }
  ncl_loss_param {
    lambda: 1
    net_num: 64
  }
}
layer {
  name: "loss11"
  type: "NCLLoss"
  bottom: "score11"
  bottom: "label"
  bottom: "sumscore"
  top: "loss11"
  include {
    phase: TRAIN
  }
  ncl_loss_param {
    lambda: 1
    net_num: 64
  }
}
layer {
  name: "loss12"
  type: "NCLLoss"
  bottom: "score12"
  bottom: "label"
  bottom: "sumscore"
  top: "loss12"
  include {
    phase: TRAIN
  }
  ncl_loss_param {
    lambda: 1
    net_num: 64
  }
}
layer {
  name: "loss13"
  type: "NCLLoss"
  bottom: "score13"
  bottom: "label"
  bottom: "sumscore"
  top: "loss13"
  include {
    phase: TRAIN
  }
  ncl_loss_param {
    lambda: 1
    net_num: 64
  }
}
layer {
  name: "loss14"
  type: "NCLLoss"
  bottom: "score14"
  bottom: "label"
  bottom: "sumscore"
  top: "loss14"
  include {
    phase: TRAIN
  }
  ncl_loss_param {
    lambda: 1
    net_num: 64
  }
}
layer {
  name: "loss15"
  type: "NCLLoss"
  bottom: "score15"
  bottom: "label"
  bottom: "sumscore"
  top: "loss15"
  include {
    phase: TRAIN
  }
  ncl_loss_param {
    lambda: 1
    net_num: 64
  }
}
layer {
  name: "loss16"
  type: "NCLLoss"
  bottom: "score16"
  bottom: "label"
  bottom: "sumscore"
  top: "loss16"
  include {
    phase: TRAIN
  }
  ncl_loss_param {
    lambda: 1
    net_num: 64
  }
}
layer {
  name: "loss17"
  type: "NCLLoss"
  bottom: "score17"
  bottom: "label"
  bottom: "sumscore"
  top: "loss17"
  include {
    phase: TRAIN
  }
  ncl_loss_param {
    lambda: 1
    net_num: 64
  }
}
layer {
  name: "loss18"
  type: "NCLLoss"
  bottom: "score18"
  bottom: "label"
  bottom: "sumscore"
  top: "loss18"
  include {
    phase: TRAIN
  }
  ncl_loss_param {
    lambda: 1
    net_num: 64
  }
}
layer {
  name: "loss19"
  type: "NCLLoss"
  bottom: "score19"
  bottom: "label"
  bottom: "sumscore"
  top: "loss19"
  include {
    phase: TRAIN
  }
  ncl_loss_param {
    lambda: 1
    net_num: 64
  }
}
layer {
  name: "loss20"
  type: "NCLLoss"
  bottom: "score20"
  bottom: "label"
  bottom: "sumscore"
  top: "loss20"
  include {
    phase: TRAIN
  }
  ncl_loss_param {
    lambda: 1
    net_num: 64
  }
}
layer {
  name: "loss21"
  type: "NCLLoss"
  bottom: "score21"
  bottom: "label"
  bottom: "sumscore"
  top: "loss21"
  include {
    phase: TRAIN
  }
  ncl_loss_param {
    lambda: 1
    net_num: 64
  }
}
layer {
  name: "loss22"
  type: "NCLLoss"
  bottom: "score22"
  bottom: "label"
  bottom: "sumscore"
  top: "loss22"
  include {
    phase: TRAIN
  }
  ncl_loss_param {
    lambda: 1
    net_num: 64
  }
}
layer {
  name: "loss23"
  type: "NCLLoss"
  bottom: "score23"
  bottom: "label"
  bottom: "sumscore"
  top: "loss23"
  include {
    phase: TRAIN
  }
  ncl_loss_param {
    lambda: 1
    net_num: 64
  }
}
layer {
  name: "loss24"
  type: "NCLLoss"
  bottom: "score24"
  bottom: "label"
  bottom: "sumscore"
  top: "loss24"
  include {
    phase: TRAIN
  }
  ncl_loss_param {
    lambda: 1
    net_num: 64
  }
}
layer {
  name: "loss25"
  type: "NCLLoss"
  bottom: "score25"
  bottom: "label"
  bottom: "sumscore"
  top: "loss25"
  include {
    phase: TRAIN
  }
  ncl_loss_param {
    lambda: 1
    net_num: 64
  }
}
layer {
  name: "loss26"
  type: "NCLLoss"
  bottom: "score26"
  bottom: "label"
  bottom: "sumscore"
  top: "loss26"
  include {
    phase: TRAIN
  }
  ncl_loss_param {
    lambda: 1
    net_num: 64
  }
}
layer {
  name: "loss27"
  type: "NCLLoss"
  bottom: "score27"
  bottom: "label"
  bottom: "sumscore"
  top: "loss27"
  include {
    phase: TRAIN
  }
  ncl_loss_param {
    lambda: 1
    net_num: 64
  }
}
layer {
  name: "loss28"
  type: "NCLLoss"
  bottom: "score28"
  bottom: "label"
  bottom: "sumscore"
  top: "loss28"
  include {
    phase: TRAIN
  }
  ncl_loss_param {
    lambda: 1
    net_num: 64
  }
}
layer {
  name: "loss29"
  type: "NCLLoss"
  bottom: "score29"
  bottom: "label"
  bottom: "sumscore"
  top: "loss29"
  include {
    phase: TRAIN
  }
  ncl_loss_param {
    lambda: 1
    net_num: 64
  }
}
layer {
  name: "loss30"
  type: "NCLLoss"
  bottom: "score30"
  bottom: "label"
  bottom: "sumscore"
  top: "loss30"
  include {
    phase: TRAIN
  }
  ncl_loss_param {
    lambda: 1
    net_num: 64
  }
}
layer {
  name: "loss31"
  type: "NCLLoss"
  bottom: "score31"
  bottom: "label"
  bottom: "sumscore"
  top: "loss31"
  include {
    phase: TRAIN
  }
  ncl_loss_param {
    lambda: 1
    net_num: 64
  }
}
layer {
  name: "loss32"
  type: "NCLLoss"
  bottom: "score32"
  bottom: "label"
  bottom: "sumscore"
  top: "loss32"
  include {
    phase: TRAIN
  }
  ncl_loss_param {
    lambda: 1
    net_num: 64
  }
}
layer {
  name: "loss33"
  type: "NCLLoss"
  bottom: "score33"
  bottom: "label"
  bottom: "sumscore"
  top: "loss33"
  include {
    phase: TRAIN
  }
  ncl_loss_param {
    lambda: 1
    net_num: 64
  }
}
layer {
  name: "loss34"
  type: "NCLLoss"
  bottom: "score34"
  bottom: "label"
  bottom: "sumscore"
  top: "loss34"
  include {
    phase: TRAIN
  }
  ncl_loss_param {
    lambda: 1
    net_num: 64
  }
}
layer {
  name: "loss35"
  type: "NCLLoss"
  bottom: "score35"
  bottom: "label"
  bottom: "sumscore"
  top: "loss35"
  include {
    phase: TRAIN
  }
  ncl_loss_param {
    lambda: 1
    net_num: 64
  }
}
layer {
  name: "loss36"
  type: "NCLLoss"
  bottom: "score36"
  bottom: "label"
  bottom: "sumscore"
  top: "loss36"
  include {
    phase: TRAIN
  }
  ncl_loss_param {
    lambda: 1
    net_num: 64
  }
}
layer {
  name: "loss37"
  type: "NCLLoss"
  bottom: "score37"
  bottom: "label"
  bottom: "sumscore"
  top: "loss37"
  include {
    phase: TRAIN
  }
  ncl_loss_param {
    lambda: 1
    net_num: 64
  }
}
layer {
  name: "loss38"
  type: "NCLLoss"
  bottom: "score38"
  bottom: "label"
  bottom: "sumscore"
  top: "loss38"
  include {
    phase: TRAIN
  }
  ncl_loss_param {
    lambda: 1
    net_num: 64
  }
}
layer {
  name: "loss39"
  type: "NCLLoss"
  bottom: "score39"
  bottom: "label"
  bottom: "sumscore"
  top: "loss39"
  include {
    phase: TRAIN
  }
  ncl_loss_param {
    lambda: 1
    net_num: 64
  }
}
layer {
  name: "loss40"
  type: "NCLLoss"
  bottom: "score40"
  bottom: "label"
  bottom: "sumscore"
  top: "loss40"
  include {
    phase: TRAIN
  }
  ncl_loss_param {
    lambda: 1
    net_num: 64
  }
}
layer {
  name: "loss41"
  type: "NCLLoss"
  bottom: "score41"
  bottom: "label"
  bottom: "sumscore"
  top: "loss41"
  include {
    phase: TRAIN
  }
  ncl_loss_param {
    lambda: 1
    net_num: 64
  }
}
layer {
  name: "loss42"
  type: "NCLLoss"
  bottom: "score42"
  bottom: "label"
  bottom: "sumscore"
  top: "loss42"
  include {
    phase: TRAIN
  }
  ncl_loss_param {
    lambda: 1
    net_num: 64
  }
}
layer {
  name: "loss43"
  type: "NCLLoss"
  bottom: "score43"
  bottom: "label"
  bottom: "sumscore"
  top: "loss43"
  include {
    phase: TRAIN
  }
  ncl_loss_param {
    lambda: 1
    net_num: 64
  }
}
layer {
  name: "loss44"
  type: "NCLLoss"
  bottom: "score44"
  bottom: "label"
  bottom: "sumscore"
  top: "loss44"
  include {
    phase: TRAIN
  }
  ncl_loss_param {
    lambda: 1
    net_num: 64
  }
}
layer {
  name: "loss45"
  type: "NCLLoss"
  bottom: "score45"
  bottom: "label"
  bottom: "sumscore"
  top: "loss45"
  include {
    phase: TRAIN
  }
  ncl_loss_param {
    lambda: 1
    net_num: 64
  }
}
layer {
  name: "loss46"
  type: "NCLLoss"
  bottom: "score46"
  bottom: "label"
  bottom: "sumscore"
  top: "loss46"
  include {
    phase: TRAIN
  }
  ncl_loss_param {
    lambda: 1
    net_num: 64
  }
}
layer {
  name: "loss47"
  type: "NCLLoss"
  bottom: "score47"
  bottom: "label"
  bottom: "sumscore"
  top: "loss47"
  include {
    phase: TRAIN
  }
  ncl_loss_param {
    lambda: 1
    net_num: 64
  }
}
layer {
  name: "loss48"
  type: "NCLLoss"
  bottom: "score48"
  bottom: "label"
  bottom: "sumscore"
  top: "loss48"
  include {
    phase: TRAIN
  }
  ncl_loss_param {
    lambda: 1
    net_num: 64
  }
}
layer {
  name: "loss49"
  type: "NCLLoss"
  bottom: "score49"
  bottom: "label"
  bottom: "sumscore"
  top: "loss49"
  include {
    phase: TRAIN
  }
  ncl_loss_param {
    lambda: 1
    net_num: 64
  }
}
layer {
  name: "loss50"
  type: "NCLLoss"
  bottom: "score50"
  bottom: "label"
  bottom: "sumscore"
  top: "loss50"
  include {
    phase: TRAIN
  }
  ncl_loss_param {
    lambda: 1
    net_num: 64
  }
}
layer {
  name: "loss51"
  type: "NCLLoss"
  bottom: "score51"
  bottom: "label"
  bottom: "sumscore"
  top: "loss51"
  include {
    phase: TRAIN
  }
  ncl_loss_param {
    lambda: 1
    net_num: 64
  }
}
layer {
  name: "loss52"
  type: "NCLLoss"
  bottom: "score52"
  bottom: "label"
  bottom: "sumscore"
  top: "loss52"
  include {
    phase: TRAIN
  }
  ncl_loss_param {
    lambda: 1
    net_num: 64
  }
}
layer {
  name: "loss53"
  type: "NCLLoss"
  bottom: "score53"
  bottom: "label"
  bottom: "sumscore"
  top: "loss53"
  include {
    phase: TRAIN
  }
  ncl_loss_param {
    lambda: 1
    net_num: 64
  }
}
layer {
  name: "loss54"
  type: "NCLLoss"
  bottom: "score54"
  bottom: "label"
  bottom: "sumscore"
  top: "loss54"
  include {
    phase: TRAIN
  }
  ncl_loss_param {
    lambda: 1
    net_num: 64
  }
}
layer {
  name: "loss55"
  type: "NCLLoss"
  bottom: "score55"
  bottom: "label"
  bottom: "sumscore"
  top: "loss55"
  include {
    phase: TRAIN
  }
  ncl_loss_param {
    lambda: 1
    net_num: 64
  }
}
layer {
  name: "loss56"
  type: "NCLLoss"
  bottom: "score56"
  bottom: "label"
  bottom: "sumscore"
  top: "loss56"
  include {
    phase: TRAIN
  }
  ncl_loss_param {
    lambda: 1
    net_num: 64
  }
}
layer {
  name: "loss57"
  type: "NCLLoss"
  bottom: "score57"
  bottom: "label"
  bottom: "sumscore"
  top: "loss57"
  include {
    phase: TRAIN
  }
  ncl_loss_param {
    lambda: 1
    net_num: 64
  }
}
layer {
  name: "loss58"
  type: "NCLLoss"
  bottom: "score58"
  bottom: "label"
  bottom: "sumscore"
  top: "loss58"
  include {
    phase: TRAIN
  }
  ncl_loss_param {
    lambda: 1
    net_num: 64
  }
}
layer {
  name: "loss59"
  type: "NCLLoss"
  bottom: "score59"
  bottom: "label"
  bottom: "sumscore"
  top: "loss59"
  include {
    phase: TRAIN
  }
  ncl_loss_param {
    lambda: 1
    net_num: 64
  }
}
layer {
  name: "loss60"
  type: "NCLLoss"
  bottom: "score60"
  bottom: "label"
  bottom: "sumscore"
  top: "loss60"
  include {
    phase: TRAIN
  }
  ncl_loss_param {
    lambda: 1
    net_num: 64
  }
}
layer {
  name: "loss61"
  type: "NCLLoss"
  bottom: "score61"
  bottom: "label"
  bottom: "sumscore"
  top: "loss61"
  include {
    phase: TRAIN
  }
  ncl_loss_param {
    lambda: 1
    net_num: 64
  }
}
layer {
  name: "loss62"
  type: "NCLLoss"
  bottom: "score62"
  bottom: "label"
  bottom: "sumscore"
  top: "loss62"
  include {
    phase: TRAIN
  }
  ncl_loss_param {
    lambda: 1
    net_num: 64
  }
}
layer {
  name: "loss63"
  type: "NCLLoss"
  bottom: "score63"
  bottom: "label"
  bottom: "sumscore"
  top: "loss63"
  include {
    phase: TRAIN
  }
  ncl_loss_param {
    lambda: 1
    net_num: 64
  }
}
layer {
  name: "loss64"
  type: "NCLLoss"
  bottom: "score64"
  bottom: "label"
  bottom: "sumscore"
  top: "loss64"
  include {
    phase: TRAIN
  }
  ncl_loss_param {
    lambda: 1
    net_num: 64
  }
}
I0726 09:51:08.640043 27891 layer_factory.hpp:77] Creating layer data
I0726 09:51:08.640275 27891 db_lmdb.cpp:35] Opened lmdb /home/peiyong/Work/Zenglin/szl/ShanghaiTech/partA/train_8/image_lmdb
I0726 09:51:08.640326 27891 net.cpp:84] Creating Layer data
I0726 09:51:08.640338 27891 net.cpp:380] data -> data
I0726 09:51:08.641504 27891 data_layer.cpp:45] output data size: 1,3,384,512
I0726 09:51:08.648078 27891 net.cpp:122] Setting up data
I0726 09:51:08.648104 27891 net.cpp:129] Top shape: 1 3 384 512 (589824)
I0726 09:51:08.648111 27891 net.cpp:137] Memory required for data: 2359296
I0726 09:51:08.648121 27891 layer_factory.hpp:77] Creating layer label
I0726 09:51:08.648288 27891 db_lmdb.cpp:35] Opened lmdb /home/peiyong/Work/Zenglin/szl/ShanghaiTech/partA/train_8/dmap_lmdb
I0726 09:51:08.648321 27891 net.cpp:84] Creating Layer label
I0726 09:51:08.648331 27891 net.cpp:380] label -> label
I0726 09:51:08.648440 27891 data_layer.cpp:45] output data size: 1,1,48,64
I0726 09:51:08.649426 27891 net.cpp:122] Setting up label
I0726 09:51:08.649444 27891 net.cpp:129] Top shape: 1 1 48 64 (3072)
I0726 09:51:08.649451 27891 net.cpp:137] Memory required for data: 2371584
I0726 09:51:08.649457 27891 layer_factory.hpp:77] Creating layer label_label_0_split
I0726 09:51:08.649477 27891 net.cpp:84] Creating Layer label_label_0_split
I0726 09:51:08.649484 27891 net.cpp:406] label_label_0_split <- label
I0726 09:51:08.649504 27891 net.cpp:380] label_label_0_split -> label_label_0_split_0
…
I0726 09:51:08.651366 27891 net.cpp:380] label_label_0_split -> label_label_0_split_58
I0726 09:51:08.651382 27891 net.cpp:380] label_label_0_split -> label_label_0_split_59
I0726 09:51:08.651398 27891 net.cpp:380] label_label_0_split -> label_label_0_split_60
I0726 09:51:08.651414 27891 net.cpp:380] label_label_0_split -> label_label_0_split_61
I0726 09:51:08.651430 27891 net.cpp:380] label_label_0_split -> label_label_0_split_62
I0726 09:51:08.651454 27891 net.cpp:380] label_label_0_split -> label_label_0_split_63
I0726 09:51:08.652048 27891 net.cpp:122] Setting up label_label_0_split
I0726 09:51:08.652058 27891 net.cpp:129] Top shape: 1 1 48 64 (3072)
I0726 09:51:08.652065 27891 net.cpp:129] Top shape: 1 1 48 64 (3072)
I0726 09:51:08.652072 27891 net.cpp:129] Top shape: 1 1 48 64 (3072)
I0726 09:51:08.652079 27891 net.cpp:129] Top shape: 1 1 48 64 (3072)
I0726 09:51:08.652086 27891 net.cpp:129] Top shape: 1 1 48 64 (3072)
I0726 09:51:08.652101 27891 net.cpp:129] Top shape: 1 1 48 64 (3072)
I0726 09:51:08.652108 27891 net.cpp:129] Top shape: 1 1 48 64 (3072)
I0726 09:51:08.652114 27891 net.cpp:129] Top shape: 1 1 48 64 (3072)
I0726 09:51:08.652122 27891 net.cpp:129] Top shape: 1 1 48 64 (3072)
I0726 09:51:08.652127 27891 net.cpp:129] Top shape: 1 1 48 64 (3072)
I0726 09:51:08.652134 27891 net.cpp:129] Top shape: 1 1 48 64 (3072)
I0726 09:51:08.652140 27891 net.cpp:129] Top shape: 1 1 48 64 (3072)
I0726 09:51:08.652146 27891 net.cpp:129] Top shape: 1 1 48 64 (3072)
I0726 09:51:08.652165 27891 net.cpp:129] Top shape: 1 1 48 64 (3072)
I0726 09:51:08.652173 27891 net.cpp:129] Top shape: 1 1 48 64 (3072)
I0726 09:51:08.652179 27891 net.cpp:129] Top shape: 1 1 48 64 (3072)
I0726 09:51:08.652185 27891 net.cpp:129] Top shape: 1 1 48 64 (3072)
I0726 09:51:08.652191 27891 net.cpp:129] Top shape: 1 1 48 64 (3072)
I0726 09:51:08.652199 27891 net.cpp:129] Top shape: 1 1 48 64 (3072)
I0726 09:51:08.652204 27891 net.cpp:129] Top shape: 1 1 48 64 (3072)
I0726 09:51:08.652210 27891 net.cpp:129] Top shape: 1 1 48 64 (3072)
I0726 09:51:08.652217 27891 net.cpp:129] Top shape: 1 1 48 64 (3072)
I0726 09:51:08.652223 27891 net.cpp:129] Top shape: 1 1 48 64 (3072)
I0726 09:51:08.652230 27891 net.cpp:129] Top shape: 1 1 48 64 (3072)
I0726 09:51:08.652236 27891 net.cpp:129] Top shape: 1 1 48 64 (3072)
I0726 09:51:08.652242 27891 net.cpp:129] Top shape: 1 1 48 64 (3072)
I0726 09:51:08.652248 27891 net.cpp:129] Top shape: 1 1 48 64 (3072)
I0726 09:51:08.652256 27891 net.cpp:129] Top shape: 1 1 48 64 (3072)
I0726 09:51:08.652261 27891 net.cpp:129] Top shape: 1 1 48 64 (3072)
I0726 09:51:08.652267 27891 net.cpp:129] Top shape: 1 1 48 64 (3072)
I0726 09:51:08.652274 27891 net.cpp:129] Top shape: 1 1 48 64 (3072)
I0726 09:51:08.652281 27891 net.cpp:129] Top shape: 1 1 48 64 (3072)
I0726 09:51:08.652287 27891 net.cpp:129] Top shape: 1 1 48 64 (3072)
I0726 09:51:08.652293 27891 net.cpp:129] Top shape: 1 1 48 64 (3072)
I0726 09:51:08.652299 27891 net.cpp:129] Top shape: 1 1 48 64 (3072)
I0726 09:51:08.652307 27891 net.cpp:129] Top shape: 1 1 48 64 (3072)
I0726 09:51:08.652312 27891 net.cpp:129] Top shape: 1 1 48 64 (3072)
I0726 09:51:08.652318 27891 net.cpp:129] Top shape: 1 1 48 64 (3072)
I0726 09:51:08.652325 27891 net.cpp:129] Top shape: 1 1 48 64 (3072)
I0726 09:51:08.652331 27891 net.cpp:129] Top shape: 1 1 48 64 (3072)
I0726 09:51:08.652338 27891 net.cpp:129] Top shape: 1 1 48 64 (3072)
I0726 09:51:08.652344 27891 net.cpp:129] Top shape: 1 1 48 64 (3072)
I0726 09:51:08.652350 27891 net.cpp:129] Top shape: 1 1 48 64 (3072)
I0726 09:51:08.652357 27891 net.cpp:129] Top shape: 1 1 48 64 (3072)
I0726 09:51:08.652364 27891 net.cpp:129] Top shape: 1 1 48 64 (3072)
I0726 09:51:08.652370 27891 net.cpp:129] Top shape: 1 1 48 64 (3072)
I0726 09:51:08.652376 27891 net.cpp:129] Top shape: 1 1 48 64 (3072)
I0726 09:51:08.652384 27891 net.cpp:129] Top shape: 1 1 48 64 (3072)
I0726 09:51:08.652390 27891 net.cpp:129] Top shape: 1 1 48 64 (3072)
I0726 09:51:08.652395 27891 net.cpp:129] Top shape: 1 1 48 64 (3072)
I0726 09:51:08.652402 27891 net.cpp:129] Top shape: 1 1 48 64 (3072)
I0726 09:51:08.652408 27891 net.cpp:129] Top shape: 1 1 48 64 (3072)
I0726 09:51:08.652415 27891 net.cpp:129] Top shape: 1 1 48 64 (3072)
I0726 09:51:08.652421 27891 net.cpp:129] Top shape: 1 1 48 64 (3072)
I0726 09:51:08.652427 27891 net.cpp:129] Top shape: 1 1 48 64 (3072)
I0726 09:51:08.652434 27891 net.cpp:129] Top shape: 1 1 48 64 (3072)
I0726 09:51:08.652441 27891 net.cpp:129] Top shape: 1 1 48 64 (3072)
I0726 09:51:08.652446 27891 net.cpp:129] Top shape: 1 1 48 64 (3072)
I0726 09:51:08.652453 27891 net.cpp:129] Top shape: 1 1 48 64 (3072)
I0726 09:51:08.652459 27891 net.cpp:129] Top shape: 1 1 48 64 (3072)
I0726 09:51:08.652465 27891 net.cpp:129] Top shape: 1 1 48 64 (3072)
I0726 09:51:08.652472 27891 net.cpp:129] Top shape: 1 1 48 64 (3072)
I0726 09:51:08.652478 27891 net.cpp:129] Top shape: 1 1 48 64 (3072)
I0726 09:51:08.652485 27891 net.cpp:129] Top shape: 1 1 48 64 (3072)
I0726 09:51:08.652490 27891 net.cpp:137] Memory required for data: 3158016
I0726 09:51:08.652496 27891 layer_factory.hpp:77] Creating layer conv1_1
I0726 09:51:08.652514 27891 net.cpp:84] Creating Layer conv1_1
I0726 09:51:08.652520 27891 net.cpp:406] conv1_1 <- data
I0726 09:51:08.652529 27891 net.cpp:380] conv1_1 -> conv1_1
I0726 09:51:09.058389 27891 net.cpp:122] Setting up conv1_1
I0726 09:51:09.058419 27891 net.cpp:129] Top shape: 1 64 384 512 (12582912)
I0726 09:51:09.058423 27891 net.cpp:137] Memory required for data: 53489664
I0726 09:51:09.058444 27891 layer_factory.hpp:77] Creating layer relu1_1
I0726 09:51:09.058531 27891 net.cpp:84] Creating Layer relu1_1
I0726 09:51:09.058538 27891 net.cpp:406] relu1_1 <- conv1_1
I0726 09:51:09.058545 27891 net.cpp:367] relu1_1 -> conv1_1 (in-place)
I0726 09:51:09.058686 27891 net.cpp:122] Setting up relu1_1
I0726 09:51:09.058696 27891 net.cpp:129] Top shape: 1 64 384 512 (12582912)
I0726 09:51:09.058699 27891 net.cpp:137] Memory required for data: 103821312
I0726 09:51:09.058703 27891 layer_factory.hpp:77] Creating layer conv1_2
I0726 09:51:09.058714 27891 net.cpp:84] Creating Layer conv1_2
I0726 09:51:09.058718 27891 net.cpp:406] conv1_2 <- conv1_1
I0726 09:51:09.058724 27891 net.cpp:380] conv1_2 -> conv1_2
I0726 09:51:09.061512 27891 net.cpp:122] Setting up conv1_2
I0726 09:51:09.061533 27891 net.cpp:129] Top shape: 1 64 384 512 (12582912)
I0726 09:51:09.061537 27891 net.cpp:137] Memory required for data: 154152960
I0726 09:51:09.061545 27891 layer_factory.hpp:77] Creating layer relu1_2
I0726 09:51:09.061552 27891 net.cpp:84] Creating Layer relu1_2
I0726 09:51:09.061555 27891 net.cpp:406] relu1_2 <- conv1_2
I0726 09:51:09.061560 27891 net.cpp:367] relu1_2 -> conv1_2 (in-place)
I0726 09:51:09.061704 27891 net.cpp:122] Setting up relu1_2
I0726 09:51:09.061713 27891 net.cpp:129] Top shape: 1 64 384 512 (12582912)
I0726 09:51:09.061717 27891 net.cpp:137] Memory required for data: 204484608
I0726 09:51:09.061722 27891 layer_factory.hpp:77] Creating layer pool1
I0726 09:51:09.061728 27891 net.cpp:84] Creating Layer pool1
I0726 09:51:09.061733 27891 net.cpp:406] pool1 <- conv1_2
I0726 09:51:09.061739 27891 net.cpp:380] pool1 -> pool1
I0726 09:51:09.061781 27891 net.cpp:122] Setting up pool1
I0726 09:51:09.061789 27891 net.cpp:129] Top shape: 1 64 192 256 (3145728)
I0726 09:51:09.061794 27891 net.cpp:137] Memory required for data: 217067520
I0726 09:51:09.061796 27891 layer_factory.hpp:77] Creating layer conv2_1
I0726 09:51:09.061806 27891 net.cpp:84] Creating Layer conv2_1
I0726 09:51:09.061810 27891 net.cpp:406] conv2_1 <- pool1
I0726 09:51:09.061816 27891 net.cpp:380] conv2_1 -> conv2_1
I0726 09:51:09.064450 27891 net.cpp:122] Setting up conv2_1
I0726 09:51:09.064463 27891 net.cpp:129] Top shape: 1 128 192 256 (6291456)
I0726 09:51:09.064467 27891 net.cpp:137] Memory required for data: 242233344
I0726 09:51:09.064476 27891 layer_factory.hpp:77] Creating layer relu2_1
I0726 09:51:09.064481 27891 net.cpp:84] Creating Layer relu2_1
I0726 09:51:09.064486 27891 net.cpp:406] relu2_1 <- conv2_1
I0726 09:51:09.064491 27891 net.cpp:367] relu2_1 -> conv2_1 (in-place)
I0726 09:51:09.065006 27891 net.cpp:122] Setting up relu2_1
I0726 09:51:09.065016 27891 net.cpp:129] Top shape: 1 128 192 256 (6291456)
I0726 09:51:09.065021 27891 net.cpp:137] Memory required for data: 267399168
I0726 09:51:09.065024 27891 layer_factory.hpp:77] Creating layer conv2_2
I0726 09:51:09.065035 27891 net.cpp:84] Creating Layer conv2_2
I0726 09:51:09.065039 27891 net.cpp:406] conv2_2 <- conv2_1
I0726 09:51:09.065045 27891 net.cpp:380] conv2_2 -> conv2_2
I0726 09:51:09.067927 27891 net.cpp:122] Setting up conv2_2
I0726 09:51:09.067939 27891 net.cpp:129] Top shape: 1 128 192 256 (6291456)
I0726 09:51:09.067944 27891 net.cpp:137] Memory required for data: 292564992
I0726 09:51:09.067950 27891 layer_factory.hpp:77] Creating layer relu2_2
I0726 09:51:09.067956 27891 net.cpp:84] Creating Layer relu2_2
I0726 09:51:09.067960 27891 net.cpp:406] relu2_2 <- conv2_2
I0726 09:51:09.067967 27891 net.cpp:367] relu2_2 -> conv2_2 (in-place)
I0726 09:51:09.068110 27891 net.cpp:122] Setting up relu2_2
I0726 09:51:09.068120 27891 net.cpp:129] Top shape: 1 128 192 256 (6291456)
I0726 09:51:09.068122 27891 net.cpp:137] Memory required for data: 317730816
I0726 09:51:09.068126 27891 layer_factory.hpp:77] Creating layer pool2
I0726 09:51:09.068132 27891 net.cpp:84] Creating Layer pool2
I0726 09:51:09.068136 27891 net.cpp:406] pool2 <- conv2_2
I0726 09:51:09.068141 27891 net.cpp:380] pool2 -> pool2
I0726 09:51:09.068177 27891 net.cpp:122] Setting up pool2
I0726 09:51:09.068183 27891 net.cpp:129] Top shape: 1 128 96 128 (1572864)
I0726 09:51:09.068217 27891 net.cpp:137] Memory required for data: 324022272
I0726 09:51:09.068225 27891 layer_factory.hpp:77] Creating layer conv3_1
I0726 09:51:09.068238 27891 net.cpp:84] Creating Layer conv3_1
I0726 09:51:09.068243 27891 net.cpp:406] conv3_1 <- pool2
I0726 09:51:09.068248 27891 net.cpp:380] conv3_1 -> conv3_1
I0726 09:51:09.073446 27891 net.cpp:122] Setting up conv3_1
I0726 09:51:09.073465 27891 net.cpp:129] Top shape: 1 256 96 128 (3145728)
I0726 09:51:09.073472 27891 net.cpp:137] Memory required for data: 336605184
I0726 09:51:09.073487 27891 layer_factory.hpp:77] Creating layer relu3_1
I0726 09:51:09.073495 27891 net.cpp:84] Creating Layer relu3_1
I0726 09:51:09.073503 27891 net.cpp:406] relu3_1 <- conv3_1
I0726 09:51:09.073510 27891 net.cpp:367] relu3_1 -> conv3_1 (in-place)
I0726 09:51:09.073720 27891 net.cpp:122] Setting up relu3_1
I0726 09:51:09.073732 27891 net.cpp:129] Top shape: 1 256 96 128 (3145728)
I0726 09:51:09.073737 27891 net.cpp:137] Memory required for data: 349188096
I0726 09:51:09.073743 27891 layer_factory.hpp:77] Creating layer conv3_2
I0726 09:51:09.073757 27891 net.cpp:84] Creating Layer conv3_2
I0726 09:51:09.073763 27891 net.cpp:406] conv3_2 <- conv3_1
I0726 09:51:09.073773 27891 net.cpp:380] conv3_2 -> conv3_2
I0726 09:51:09.084496 27891 net.cpp:122] Setting up conv3_2
I0726 09:51:09.084513 27891 net.cpp:129] Top shape: 1 256 96 128 (3145728)
I0726 09:51:09.084519 27891 net.cpp:137] Memory required for data: 361771008
I0726 09:51:09.084529 27891 layer_factory.hpp:77] Creating layer relu3_2
I0726 09:51:09.084542 27891 net.cpp:84] Creating Layer relu3_2
I0726 09:51:09.084548 27891 net.cpp:406] relu3_2 <- conv3_2
I0726 09:51:09.084556 27891 net.cpp:367] relu3_2 -> conv3_2 (in-place)
I0726 09:51:09.085227 27891 net.cpp:122] Setting up relu3_2
I0726 09:51:09.085242 27891 net.cpp:129] Top shape: 1 256 96 128 (3145728)
I0726 09:51:09.085247 27891 net.cpp:137] Memory required for data: 374353920
I0726 09:51:09.085253 27891 layer_factory.hpp:77] Creating layer conv3_3
I0726 09:51:09.085266 27891 net.cpp:84] Creating Layer conv3_3
I0726 09:51:09.085273 27891 net.cpp:406] conv3_3 <- conv3_2
I0726 09:51:09.085281 27891 net.cpp:380] conv3_3 -> conv3_3
I0726 09:51:09.096189 27891 net.cpp:122] Setting up conv3_3
I0726 09:51:09.096220 27891 net.cpp:129] Top shape: 1 256 96 128 (3145728)
I0726 09:51:09.096226 27891 net.cpp:137] Memory required for data: 386936832
I0726 09:51:09.096237 27891 layer_factory.hpp:77] Creating layer relu3_3
I0726 09:51:09.096249 27891 net.cpp:84] Creating Layer relu3_3
I0726 09:51:09.096256 27891 net.cpp:406] relu3_3 <- conv3_3
I0726 09:51:09.096266 27891 net.cpp:367] relu3_3 -> conv3_3 (in-place)
I0726 09:51:09.096474 27891 net.cpp:122] Setting up relu3_3
I0726 09:51:09.096487 27891 net.cpp:129] Top shape: 1 256 96 128 (3145728)
I0726 09:51:09.096491 27891 net.cpp:137] Memory required for data: 399519744
I0726 09:51:09.096498 27891 layer_factory.hpp:77] Creating layer pool3
I0726 09:51:09.096508 27891 net.cpp:84] Creating Layer pool3
I0726 09:51:09.096513 27891 net.cpp:406] pool3 <- conv3_3
I0726 09:51:09.096523 27891 net.cpp:380] pool3 -> pool3
I0726 09:51:09.096575 27891 net.cpp:122] Setting up pool3
I0726 09:51:09.096585 27891 net.cpp:129] Top shape: 1 256 48 64 (786432)
I0726 09:51:09.096590 27891 net.cpp:137] Memory required for data: 402665472
I0726 09:51:09.096596 27891 layer_factory.hpp:77] Creating layer conv4_1
I0726 09:51:09.096609 27891 net.cpp:84] Creating Layer conv4_1
I0726 09:51:09.096616 27891 net.cpp:406] conv4_1 <- pool3
I0726 09:51:09.096624 27891 net.cpp:380] conv4_1 -> conv4_1
I0726 09:51:09.116726 27891 net.cpp:122] Setting up conv4_1
I0726 09:51:09.116765 27891 net.cpp:129] Top shape: 1 512 48 64 (1572864)
I0726 09:51:09.116771 27891 net.cpp:137] Memory required for data: 408956928
I0726 09:51:09.116782 27891 layer_factory.hpp:77] Creating layer relu4_1
I0726 09:51:09.116793 27891 net.cpp:84] Creating Layer relu4_1
I0726 09:51:09.116801 27891 net.cpp:406] relu4_1 <- conv4_1
I0726 09:51:09.116812 27891 net.cpp:367] relu4_1 -> conv4_1 (in-place)
I0726 09:51:09.117065 27891 net.cpp:122] Setting up relu4_1
I0726 09:51:09.117080 27891 net.cpp:129] Top shape: 1 512 48 64 (1572864)
I0726 09:51:09.117087 27891 net.cpp:137] Memory required for data: 415248384
I0726 09:51:09.117094 27891 layer_factory.hpp:77] Creating layer conv4_2
I0726 09:51:09.117110 27891 net.cpp:84] Creating Layer conv4_2
I0726 09:51:09.117118 27891 net.cpp:406] conv4_2 <- conv4_1
I0726 09:51:09.117130 27891 net.cpp:380] conv4_2 -> conv4_2
I0726 09:51:09.142771 27891 net.cpp:122] Setting up conv4_2
I0726 09:51:09.142804 27891 net.cpp:129] Top shape: 1 512 48 64 (1572864)
I0726 09:51:09.142809 27891 net.cpp:137] Memory required for data: 421539840
I0726 09:51:09.142828 27891 layer_factory.hpp:77] Creating layer relu4_2
I0726 09:51:09.142840 27891 net.cpp:84] Creating Layer relu4_2
I0726 09:51:09.142856 27891 net.cpp:406] relu4_2 <- conv4_2
I0726 09:51:09.142865 27891 net.cpp:367] relu4_2 -> conv4_2 (in-place)
I0726 09:51:09.143471 27891 net.cpp:122] Setting up relu4_2
I0726 09:51:09.143482 27891 net.cpp:129] Top shape: 1 512 48 64 (1572864)
I0726 09:51:09.143486 27891 net.cpp:137] Memory required for data: 427831296
I0726 09:51:09.143489 27891 layer_factory.hpp:77] Creating layer conv4_3
I0726 09:51:09.143501 27891 net.cpp:84] Creating Layer conv4_3
I0726 09:51:09.143504 27891 net.cpp:406] conv4_3 <- conv4_2
I0726 09:51:09.143512 27891 net.cpp:380] conv4_3 -> conv4_3
I0726 09:51:09.165585 27891 net.cpp:122] Setting up conv4_3
I0726 09:51:09.165611 27891 net.cpp:129] Top shape: 1 512 48 64 (1572864)
I0726 09:51:09.165614 27891 net.cpp:137] Memory required for data: 434122752
I0726 09:51:09.165623 27891 layer_factory.hpp:77] Creating layer relu4_3
I0726 09:51:09.165632 27891 net.cpp:84] Creating Layer relu4_3
I0726 09:51:09.165637 27891 net.cpp:406] relu4_3 <- conv4_3
I0726 09:51:09.165643 27891 net.cpp:367] relu4_3 -> conv4_3 (in-place)
I0726 09:51:09.165787 27891 net.cpp:122] Setting up relu4_3
I0726 09:51:09.165796 27891 net.cpp:129] Top shape: 1 512 48 64 (1572864)
I0726 09:51:09.165799 27891 net.cpp:137] Memory required for data: 440414208
I0726 09:51:09.165802 27891 layer_factory.hpp:77] Creating layer pool4
I0726 09:51:09.165810 27891 net.cpp:84] Creating Layer pool4
I0726 09:51:09.165814 27891 net.cpp:406] pool4 <- conv4_3
I0726 09:51:09.165819 27891 net.cpp:380] pool4 -> pool4
I0726 09:51:09.165858 27891 net.cpp:122] Setting up pool4
I0726 09:51:09.165865 27891 net.cpp:129] Top shape: 1 512 48 64 (1572864)
I0726 09:51:09.165868 27891 net.cpp:137] Memory required for data: 446705664
I0726 09:51:09.165871 27891 layer_factory.hpp:77] Creating layer conv5_1
I0726 09:51:09.165881 27891 net.cpp:84] Creating Layer conv5_1
I0726 09:51:09.165885 27891 net.cpp:406] conv5_1 <- pool4
I0726 09:51:09.165892 27891 net.cpp:380] conv5_1 -> conv5_1
I0726 09:51:09.189473 27891 net.cpp:122] Setting up conv5_1
I0726 09:51:09.189507 27891 net.cpp:129] Top shape: 1 512 48 64 (1572864)
I0726 09:51:09.189512 27891 net.cpp:137] Memory required for data: 452997120
I0726 09:51:09.189523 27891 layer_factory.hpp:77] Creating layer relu5_1
I0726 09:51:09.189538 27891 net.cpp:84] Creating Layer relu5_1
I0726 09:51:09.189544 27891 net.cpp:406] relu5_1 <- conv5_1
I0726 09:51:09.189554 27891 net.cpp:367] relu5_1 -> conv5_1 (in-place)
I0726 09:51:09.190309 27891 net.cpp:122] Setting up relu5_1
I0726 09:51:09.190322 27891 net.cpp:129] Top shape: 1 512 48 64 (1572864)
I0726 09:51:09.190328 27891 net.cpp:137] Memory required for data: 459288576
I0726 09:51:09.190335 27891 layer_factory.hpp:77] Creating layer conv5_2
I0726 09:51:09.190351 27891 net.cpp:84] Creating Layer conv5_2
I0726 09:51:09.190356 27891 net.cpp:406] conv5_2 <- conv5_1
I0726 09:51:09.190367 27891 net.cpp:380] conv5_2 -> conv5_2
I0726 09:51:09.220088 27891 net.cpp:122] Setting up conv5_2
I0726 09:51:09.220130 27891 net.cpp:129] Top shape: 1 512 48 64 (1572864)
I0726 09:51:09.220139 27891 net.cpp:137] Memory required for data: 465580032
I0726 09:51:09.220165 27891 layer_factory.hpp:77] Creating layer relu5_2
I0726 09:51:09.220181 27891 net.cpp:84] Creating Layer relu5_2
I0726 09:51:09.220234 27891 net.cpp:406] relu5_2 <- conv5_2
I0726 09:51:09.220247 27891 net.cpp:367] relu5_2 -> conv5_2 (in-place)
I0726 09:51:09.220494 27891 net.cpp:122] Setting up relu5_2
I0726 09:51:09.220506 27891 net.cpp:129] Top shape: 1 512 48 64 (1572864)
I0726 09:51:09.220512 27891 net.cpp:137] Memory required for data: 471871488
I0726 09:51:09.220517 27891 layer_factory.hpp:77] Creating layer conv5_3
I0726 09:51:09.220532 27891 net.cpp:84] Creating Layer conv5_3
I0726 09:51:09.220538 27891 net.cpp:406] conv5_3 <- conv5_2
I0726 09:51:09.220551 27891 net.cpp:380] conv5_3 -> conv5_3
I0726 09:51:09.250205 27891 net.cpp:122] Setting up conv5_3
I0726 09:51:09.250238 27891 net.cpp:129] Top shape: 1 512 48 64 (1572864)
I0726 09:51:09.250244 27891 net.cpp:137] Memory required for data: 478162944
I0726 09:51:09.250255 27891 layer_factory.hpp:77] Creating layer relu5_3
I0726 09:51:09.250273 27891 net.cpp:84] Creating Layer relu5_3
I0726 09:51:09.250282 27891 net.cpp:406] relu5_3 <- conv5_3
I0726 09:51:09.250290 27891 net.cpp:367] relu5_3 -> conv5_3 (in-place)
I0726 09:51:09.251070 27891 net.cpp:122] Setting up relu5_3
I0726 09:51:09.251085 27891 net.cpp:129] Top shape: 1 512 48 64 (1572864)
I0726 09:51:09.251090 27891 net.cpp:137] Memory required for data: 484454400
I0726 09:51:09.251096 27891 layer_factory.hpp:77] Creating layer conv_score
I0726 09:51:09.251111 27891 net.cpp:84] Creating Layer conv_score
I0726 09:51:09.251118 27891 net.cpp:406] conv_score <- conv5_3
I0726 09:51:09.251127 27891 net.cpp:380] conv_score -> conv_score
I0726 09:51:09.342447 27891 net.cpp:122] Setting up conv_score
I0726 09:51:09.342474 27891 net.cpp:129] Top shape: 1 64 48 64 (196608)
I0726 09:51:09.342480 27891 net.cpp:137] Memory required for data: 485240832
I0726 09:51:09.342494 27891 layer_factory.hpp:77] Creating layer relu_score
I0726 09:51:09.342509 27891 net.cpp:84] Creating Layer relu_score
I0726 09:51:09.342515 27891 net.cpp:406] relu_score <- conv_score
I0726 09:51:09.342525 27891 net.cpp:367] relu_score -> conv_score (in-place)
I0726 09:51:09.342738 27891 net.cpp:122] Setting up relu_score
I0726 09:51:09.342751 27891 net.cpp:129] Top shape: 1 64 48 64 (196608)
I0726 09:51:09.342756 27891 net.cpp:137] Memory required for data: 486027264
I0726 09:51:09.342761 27891 layer_factory.hpp:77] Creating layer slicer_conv
I0726 09:51:09.342777 27891 net.cpp:84] Creating Layer slicer_conv
I0726 09:51:09.342783 27891 net.cpp:406] slicer_conv <- conv_score
I0726 09:51:09.342798 27891 net.cpp:380] slicer_conv -> score1
I0726 09:51:09.342814 27891 net.cpp:380] slicer_conv -> score2
…
I0726 09:51:09.343559 27891 net.cpp:380] slicer_conv -> score57
I0726 09:51:09.343569 27891 net.cpp:380] slicer_conv -> score58
I0726 09:51:09.343580 27891 net.cpp:380] slicer_conv -> score59
I0726 09:51:09.343590 27891 net.cpp:380] slicer_conv -> score60
I0726 09:51:09.343601 27891 net.cpp:380] slicer_conv -> score61
I0726 09:51:09.343612 27891 net.cpp:380] slicer_conv -> score62
I0726 09:51:09.343623 27891 net.cpp:380] slicer_conv -> score63
I0726 09:51:09.343634 27891 net.cpp:380] slicer_conv -> score64
I0726 09:51:09.344617 27891 net.cpp:122] Setting up slicer_conv
I0726 09:51:09.344630 27891 net.cpp:129] Top shape: 1 1 48 64 (3072)
I0726 09:51:09.344637 27891 net.cpp:129] Top shape: 1 1 48 64 (3072)
I0726 09:51:09.344643 27891 net.cpp:129] Top shape: 1 1 48 64 (3072)
I0726 09:51:09.344650 27891 net.cpp:129] Top shape: 1 1 48 64 (3072)
I0726 09:51:09.344656 27891 net.cpp:129] Top shape: 1 1 48 64 (3072)
I0726 09:51:09.344662 27891 net.cpp:129] Top shape: 1 1 48 64 (3072)
I0726 09:51:09.344668 27891 net.cpp:129] Top shape: 1 1 48 64 (3072)
I0726 09:51:09.344676 27891 net.cpp:129] Top shape: 1 1 48 64 (3072)
I0726 09:51:09.344681 27891 net.cpp:129] Top shape: 1 1 48 64 (3072)
I0726 09:51:09.344687 27891 net.cpp:129] Top shape: 1 1 48 64 (3072)
I0726 09:51:09.344693 27891 net.cpp:129] Top shape: 1 1 48 64 (3072)
I0726 09:51:09.344699 27891 net.cpp:129] Top shape: 1 1 48 64 (3072)
I0726 09:51:09.344707 27891 net.cpp:129] Top shape: 1 1 48 64 (3072)
I0726 09:51:09.344712 27891 net.cpp:129] Top shape: 1 1 48 64 (3072)
I0726 09:51:09.344718 27891 net.cpp:129] Top shape: 1 1 48 64 (3072)
I0726 09:51:09.344724 27891 net.cpp:129] Top shape: 1 1 48 64 (3072)
I0726 09:51:09.344730 27891 net.cpp:129] Top shape: 1 1 48 64 (3072)
I0726 09:51:09.344738 27891 net.cpp:129] Top shape: 1 1 48 64 (3072)
I0726 09:51:09.344743 27891 net.cpp:129] Top shape: 1 1 48 64 (3072)
I0726 09:51:09.344749 27891 net.cpp:129] Top shape: 1 1 48 64 (3072)
I0726 09:51:09.344755 27891 net.cpp:129] Top shape: 1 1 48 64 (3072)
I0726 09:51:09.344761 27891 net.cpp:129] Top shape: 1 1 48 64 (3072)
I0726 09:51:09.344789 27891 net.cpp:129] Top shape: 1 1 48 64 (3072)
I0726 09:51:09.344796 27891 net.cpp:129] Top shape: 1 1 48 64 (3072)
I0726 09:51:09.344802 27891 net.cpp:129] Top shape: 1 1 48 64 (3072)
I0726 09:51:09.344808 27891 net.cpp:129] Top shape: 1 1 48 64 (3072)
I0726 09:51:09.344815 27891 net.cpp:129] Top shape: 1 1 48 64 (3072)
I0726 09:51:09.344821 27891 net.cpp:129] Top shape: 1 1 48 64 (3072)
I0726 09:51:09.344827 27891 net.cpp:129] Top shape: 1 1 48 64 (3072)
I0726 09:51:09.344833 27891 net.cpp:129] Top shape: 1 1 48 64 (3072)
I0726 09:51:09.344840 27891 net.cpp:129] Top shape: 1 1 48 64 (3072)
I0726 09:51:09.344846 27891 net.cpp:129] Top shape: 1 1 48 64 (3072)
I0726 09:51:09.344852 27891 net.cpp:129] Top shape: 1 1 48 64 (3072)
I0726 09:51:09.344858 27891 net.cpp:129] Top shape: 1 1 48 64 (3072)
I0726 09:51:09.344864 27891 net.cpp:129] Top shape: 1 1 48 64 (3072)
I0726 09:51:09.344871 27891 net.cpp:129] Top shape: 1 1 48 64 (3072)
I0726 09:51:09.344877 27891 net.cpp:129] Top shape: 1 1 48 64 (3072)
I0726 09:51:09.344882 27891 net.cpp:129] Top shape: 1 1 48 64 (3072)
I0726 09:51:09.344889 27891 net.cpp:129] Top shape: 1 1 48 64 (3072)
I0726 09:51:09.344895 27891 net.cpp:129] Top shape: 1 1 48 64 (3072)
I0726 09:51:09.344902 27891 net.cpp:129] Top shape: 1 1 48 64 (3072)
I0726 09:51:09.344907 27891 net.cpp:129] Top shape: 1 1 48 64 (3072)
I0726 09:51:09.344914 27891 net.cpp:129] Top shape: 1 1 48 64 (3072)
I0726 09:51:09.344920 27891 net.cpp:129] Top shape: 1 1 48 64 (3072)
I0726 09:51:09.344928 27891 net.cpp:129] Top shape: 1 1 48 64 (3072)
I0726 09:51:09.344933 27891 net.cpp:129] Top shape: 1 1 48 64 (3072)
I0726 09:51:09.344939 27891 net.cpp:129] Top shape: 1 1 48 64 (3072)
I0726 09:51:09.344946 27891 net.cpp:129] Top shape: 1 1 48 64 (3072)
I0726 09:51:09.344952 27891 net.cpp:129] Top shape: 1 1 48 64 (3072)
I0726 09:51:09.344959 27891 net.cpp:129] Top shape: 1 1 48 64 (3072)
I0726 09:51:09.344964 27891 net.cpp:129] Top shape: 1 1 48 64 (3072)
I0726 09:51:09.344970 27891 net.cpp:129] Top shape: 1 1 48 64 (3072)
I0726 09:51:09.344976 27891 net.cpp:129] Top shape: 1 1 48 64 (3072)
I0726 09:51:09.344982 27891 net.cpp:129] Top shape: 1 1 48 64 (3072)
I0726 09:51:09.344990 27891 net.cpp:129] Top shape: 1 1 48 64 (3072)
I0726 09:51:09.344995 27891 net.cpp:129] Top shape: 1 1 48 64 (3072)
I0726 09:51:09.345001 27891 net.cpp:129] Top shape: 1 1 48 64 (3072)
I0726 09:51:09.345007 27891 net.cpp:129] Top shape: 1 1 48 64 (3072)
I0726 09:51:09.345013 27891 net.cpp:129] Top shape: 1 1 48 64 (3072)
I0726 09:51:09.345019 27891 net.cpp:129] Top shape: 1 1 48 64 (3072)
I0726 09:51:09.345026 27891 net.cpp:129] Top shape: 1 1 48 64 (3072)
I0726 09:51:09.345032 27891 net.cpp:129] Top shape: 1 1 48 64 (3072)
I0726 09:51:09.345038 27891 net.cpp:129] Top shape: 1 1 48 64 (3072)
I0726 09:51:09.345044 27891 net.cpp:129] Top shape: 1 1 48 64 (3072)
I0726 09:51:09.345049 27891 net.cpp:137] Memory required for data: 486813696
I0726 09:51:09.345054 27891 layer_factory.hpp:77] Creating layer score1_slicer_conv_0_split
I0726 09:51:09.345063 27891 net.cpp:84] Creating Layer score1_slicer_conv_0_split
I0726 09:51:09.345069 27891 net.cpp:406] score1_slicer_conv_0_split <- score1
I0726 09:51:09.345079 27891 net.cpp:380] score1_slicer_conv_0_split -> score1_slicer_conv_0_split_0
I0726 09:51:09.345088 27891 net.cpp:380] score1_slicer_conv_0_split -> score1_slicer_conv_0_split_1
I0726 09:51:09.345146 27891 net.cpp:122] Setting up score1_slicer_conv_0_split
I0726 09:51:09.345155 27891 net.cpp:129] Top shape: 1 1 48 64 (3072)
I0726 09:51:09.345161 27891 net.cpp:129] Top shape: 1 1 48 64 (3072)
I0726 09:51:09.345166 27891 net.cpp:137] Memory required for data: 486838272
I0726 09:51:09.345171 27891 layer_factory.hpp:77] Creating layer score2_slicer_conv_1_split
I0726 09:51:09.345178 27891 net.cpp:84] Creating Layer score2_slicer_conv_1_split
I0726 09:51:09.345183 27891 net.cpp:406] score2_slicer_conv_1_split <- score2
I0726 09:51:09.345191 27891 net.cpp:380] score2_slicer_conv_1_split -> score2_slicer_conv_1_split_0
I0726 09:51:09.345199 27891 net.cpp:380] score2_slicer_conv_1_split -> score2_slicer_conv_1_split_1
I0726 09:51:09.345260 27891 net.cpp:122] Setting up score2_slicer_conv_1_split
I0726 09:51:09.345269 27891 net.cpp:129] Top shape: 1 1 48 64 (3072)
I0726 09:51:09.345274 27891 net.cpp:129] Top shape: 1 1 48 64 (3072)
I0726 09:51:09.345279 27891 net.cpp:137] Memory required for data: 486862848
I0726 09:51:09.345284 27891 layer_factory.hpp:77] Creating layer score3_slicer_conv_2_split
I0726 09:51:09.345293 27891 net.cpp:84] Creating Layer score3_slicer_conv_2_split
I0726 09:51:09.345297 27891 net.cpp:406] score3_slicer_conv_2_split <- score3
I0726 09:51:09.345311 27891 net.cpp:380] score3_slicer_conv_2_split -> score3_slicer_conv_2_split_0
I0726 09:51:09.345321 27891 net.cpp:380] score3_slicer_conv_2_split -> score3_slicer_conv_2_split_1
I0726 09:51:09.345371 27891 net.cpp:122] Setting up score3_slicer_conv_2_split
I0726 09:51:09.345382 27891 net.cpp:129] Top shape: 1 1 48 64 (3072)
I0726 09:51:09.345389 27891 net.cpp:129] Top shape: 1 1 48 64 (3072)
I0726 09:51:09.345394 27891 net.cpp:137] Memory required for data: 486887424
I0726 09:51:09.345399 27891 layer_factory.hpp:77] Creating layer score4_slicer_conv_3_split
I0726 09:51:09.345407 27891 net.cpp:84] Creating Layer score4_slicer_conv_3_split
I0726 09:51:09.345412 27891 net.cpp:406] score4_slicer_conv_3_split <- score4
I0726 09:51:09.345420 27891 net.cpp:380] score4_slicer_conv_3_split -> score4_slicer_conv_3_split_0
I0726 09:51:09.345430 27891 net.cpp:380] score4_slicer_conv_3_split -> score4_slicer_conv_3_split_1
I0726 09:51:09.345489 27891 net.cpp:122] Setting up score4_slicer_conv_3_split
I0726 09:51:09.345499 27891 net.cpp:129] Top shape: 1 1 48 64 (3072)
I0726 09:51:09.345504 27891 net.cpp:129] Top shape: 1 1 48 64 (3072)
I0726 09:51:09.345510 27891 net.cpp:137] Memory required for data: 486912000
I0726 09:51:09.345515 27891 layer_factory.hpp:77] Creating layer score5_slicer_conv_4_split
I0726 09:51:09.345523 27891 net.cpp:84] Creating Layer score5_slicer_conv_4_split
I0726 09:51:09.345528 27891 net.cpp:406] score5_slicer_conv_4_split <- score5
I0726 09:51:09.345536 27891 net.cpp:380] score5_slicer_conv_4_split -> score5_slicer_conv_4_split_0
I0726 09:51:09.345546 27891 net.cpp:380] score5_slicer_conv_4_split -> score5_slicer_conv_4_split_1
I0726 09:51:09.345592 27891 net.cpp:122] Setting up score5_slicer_conv_4_split
I0726 09:51:09.345600 27891 net.cpp:129] Top shape: 1 1 48 64 (3072)
I0726 09:51:09.345607 27891 net.cpp:129] Top shape: 1 1 48 64 (3072)
I0726 09:51:09.345613 27891 net.cpp:137] Memory required for data: 486936576
I0726 09:51:09.345618 27891 layer_factory.hpp:77] Creating layer score6_slicer_conv_5_split
I0726 09:51:09.345624 27891 net.cpp:84] Creating Layer score6_slicer_conv_5_split
I0726 09:51:09.345629 27891 net.cpp:406] score6_slicer_conv_5_split <- score6
I0726 09:51:09.345638 27891 net.cpp:380] score6_slicer_conv_5_split -> score6_slicer_conv_5_split_0
I0726 09:51:09.345645 27891 net.cpp:380] score6_slicer_conv_5_split -> score6_slicer_conv_5_split_1
I0726 09:51:09.345692 27891 net.cpp:122] Setting up score6_slicer_conv_5_split
I0726 09:51:09.345701 27891 net.cpp:129] Top shape: 1 1 48 64 (3072)
I0726 09:51:09.345708 27891 net.cpp:129] Top shape: 1 1 48 64 (3072)
I0726 09:51:09.345713 27891 net.cpp:137] Memory required for data: 486961152
I0726 09:51:09.345718 27891 layer_factory.hpp:77] Creating layer score7_slicer_conv_6_split
I0726 09:51:09.345727 27891 net.cpp:84] Creating Layer score7_slicer_conv_6_split
I0726 09:51:09.345732 27891 net.cpp:406] score7_slicer_conv_6_split <- score7
I0726 09:51:09.345741 27891 net.cpp:380] score7_slicer_conv_6_split -> score7_slicer_conv_6_split_0
I0726 09:51:09.345748 27891 net.cpp:380] score7_slicer_conv_6_split -> score7_slicer_conv_6_split_1
I0726 09:51:09.345796 27891 net.cpp:122] Setting up score7_slicer_conv_6_split
I0726 09:51:09.345805 27891 net.cpp:129] Top shape: 1 1 48 64 (3072)
I0726 09:51:09.345811 27891 net.cpp:129] Top shape: 1 1 48 64 (3072)
I0726 09:51:09.345816 27891 net.cpp:137] Memory required for data: 486985728
I0726 09:51:09.345832 27891 layer_factory.hpp:77] Creating layer score8_slicer_conv_7_split
I0726 09:51:09.345840 27891 net.cpp:84] Creating Layer score8_slicer_conv_7_split
I0726 09:51:09.345846 27891 net.cpp:406] score8_slicer_conv_7_split <- score8
I0726 09:51:09.345854 27891 net.cpp:380] score8_slicer_conv_7_split -> score8_slicer_conv_7_split_0
I0726 09:51:09.345862 27891 net.cpp:380] score8_slicer_conv_7_split -> score8_slicer_conv_7_split_1
I0726 09:51:09.345913 27891 net.cpp:122] Setting up score8_slicer_conv_7_split
I0726 09:51:09.345922 27891 net.cpp:129] Top shape: 1 1 48 64 (3072)
I0726 09:51:09.345929 27891 net.cpp:129] Top shape: 1 1 48 64 (3072)
I0726 09:51:09.345934 27891 net.cpp:137] Memory required for data: 487010304
I0726 09:51:09.345939 27891 layer_factory.hpp:77] Creating layer score9_slicer_conv_8_split
I0726 09:51:09.345947 27891 net.cpp:84] Creating Layer score9_slicer_conv_8_split
I0726 09:51:09.345952 27891 net.cpp:406] score9_slicer_conv_8_split <- score9
I0726 09:51:09.345962 27891 net.cpp:380] score9_slicer_conv_8_split -> score9_slicer_conv_8_split_0
I0726 09:51:09.345969 27891 net.cpp:380] score9_slicer_conv_8_split -> score9_slicer_conv_8_split_1
I0726 09:51:09.346019 27891 net.cpp:122] Setting up score9_slicer_conv_8_split
I0726 09:51:09.346026 27891 net.cpp:129] Top shape: 1 1 48 64 (3072)
I0726 09:51:09.346034 27891 net.cpp:129] Top shape: 1 1 48 64 (3072)
I0726 09:51:09.346038 27891 net.cpp:137] Memory required for data: 487034880
I0726 09:51:09.346043 27891 layer_factory.hpp:77] Creating layer score10_slicer_conv_9_split
I0726 09:51:09.346050 27891 net.cpp:84] Creating Layer score10_slicer_conv_9_split
I0726 09:51:09.346056 27891 net.cpp:406] score10_slicer_conv_9_split <- score10
I0726 09:51:09.346065 27891 net.cpp:380] score10_slicer_conv_9_split -> score10_slicer_conv_9_split_0
I0726 09:51:09.346072 27891 net.cpp:380] score10_slicer_conv_9_split -> score10_slicer_conv_9_split_1
I0726 09:51:09.346122 27891 net.cpp:122] Setting up score10_slicer_conv_9_split
I0726 09:51:09.346132 27891 net.cpp:129] Top shape: 1 1 48 64 (3072)
I0726 09:51:09.346138 27891 net.cpp:129] Top shape: 1 1 48 64 (3072)
I0726 09:51:09.346143 27891 net.cpp:137] Memory required for data: 487059456
I0726 09:51:09.346148 27891 layer_factory.hpp:77] Creating layer score11_slicer_conv_10_split
I0726 09:51:09.346155 27891 net.cpp:84] Creating Layer score11_slicer_conv_10_split
I0726 09:51:09.346161 27891 net.cpp:406] score11_slicer_conv_10_split <- score11
I0726 09:51:09.346170 27891 net.cpp:380] score11_slicer_conv_10_split -> score11_slicer_conv_10_split_0
I0726 09:51:09.346179 27891 net.cpp:380] score11_slicer_conv_10_split -> score11_slicer_conv_10_split_1
I0726 09:51:09.346225 27891 net.cpp:122] Setting up score11_slicer_conv_10_split
I0726 09:51:09.346233 27891 net.cpp:129] Top shape: 1 1 48 64 (3072)
I0726 09:51:09.346240 27891 net.cpp:129] Top shape: 1 1 48 64 (3072)
I0726 09:51:09.346246 27891 net.cpp:137] Memory required for data: 487084032
I0726 09:51:09.346251 27891 layer_factory.hpp:77] Creating layer score12_slicer_conv_11_split
I0726 09:51:09.346261 27891 net.cpp:84] Creating Layer score12_slicer_conv_11_split
I0726 09:51:09.346266 27891 net.cpp:406] score12_slicer_conv_11_split <- score12
I0726 09:51:09.346274 27891 net.cpp:380] score12_slicer_conv_11_split -> score12_slicer_conv_11_split_0
I0726 09:51:09.346282 27891 net.cpp:380] score12_slicer_conv_11_split -> score12_slicer_conv_11_split_1
I0726 09:51:09.346329 27891 net.cpp:122] Setting up score12_slicer_conv_11_split
I0726 09:51:09.346338 27891 net.cpp:129] Top shape: 1 1 48 64 (3072)
I0726 09:51:09.346345 27891 net.cpp:129] Top shape: 1 1 48 64 (3072)
I0726 09:51:09.346350 27891 net.cpp:137] Memory required for data: 487108608
I0726 09:51:09.346355 27891 layer_factory.hpp:77] Creating layer score13_slicer_conv_12_split
I0726 09:51:09.346362 27891 net.cpp:84] Creating Layer score13_slicer_conv_12_split
I0726 09:51:09.346367 27891 net.cpp:406] score13_slicer_conv_12_split <- score13
I0726 09:51:09.346375 27891 net.cpp:380] score13_slicer_conv_12_split -> score13_slicer_conv_12_split_0
I0726 09:51:09.346396 27891 net.cpp:380] score13_slicer_conv_12_split -> score13_slicer_conv_12_split_1
I0726 09:51:09.346446 27891 net.cpp:122] Setting up score13_slicer_conv_12_split
I0726 09:51:09.346454 27891 net.cpp:129] Top shape: 1 1 48 64 (3072)
I0726 09:51:09.346460 27891 net.cpp:129] Top shape: 1 1 48 64 (3072)
I0726 09:51:09.346465 27891 net.cpp:137] Memory required for data: 487133184
I0726 09:51:09.346472 27891 layer_factory.hpp:77] Creating layer score14_slicer_conv_13_split
I0726 09:51:09.346479 27891 net.cpp:84] Creating Layer score14_slicer_conv_13_split
I0726 09:51:09.346485 27891 net.cpp:406] score14_slicer_conv_13_split <- score14
I0726 09:51:09.346493 27891 net.cpp:380] score14_slicer_conv_13_split -> score14_slicer_conv_13_split_0
I0726 09:51:09.346501 27891 net.cpp:380] score14_slicer_conv_13_split -> score14_slicer_conv_13_split_1
I0726 09:51:09.346556 27891 net.cpp:122] Setting up score14_slicer_conv_13_split
I0726 09:51:09.346565 27891 net.cpp:129] Top shape: 1 1 48 64 (3072)
I0726 09:51:09.346571 27891 net.cpp:129] Top shape: 1 1 48 64 (3072)
I0726 09:51:09.346576 27891 net.cpp:137] Memory required for data: 487157760
I0726 09:51:09.346581 27891 layer_factory.hpp:77] Creating layer score15_slicer_conv_14_split
I0726 09:51:09.346588 27891 net.cpp:84] Creating Layer score15_slicer_conv_14_split
I0726 09:51:09.346593 27891 net.cpp:406] score15_slicer_conv_14_split <- score15
I0726 09:51:09.346601 27891 net.cpp:380] score15_slicer_conv_14_split -> score15_slicer_conv_14_split_0
I0726 09:51:09.346609 27891 net.cpp:380] score15_slicer_conv_14_split -> score15_slicer_conv_14_split_1
I0726 09:51:09.346655 27891 net.cpp:122] Setting up score15_slicer_conv_14_split
I0726 09:51:09.346663 27891 net.cpp:129] Top shape: 1 1 48 64 (3072)
I0726 09:51:09.346670 27891 net.cpp:129] Top shape: 1 1 48 64 (3072)
I0726 09:51:09.346675 27891 net.cpp:137] Memory required for data: 487182336
I0726 09:51:09.346680 27891 layer_factory.hpp:77] Creating layer score16_slicer_conv_15_split
I0726 09:51:09.346688 27891 net.cpp:84] Creating Layer score16_slicer_conv_15_split
I0726 09:51:09.346693 27891 net.cpp:406] score16_slicer_conv_15_split <- score16
I0726 09:51:09.346701 27891 net.cpp:380] score16_slicer_conv_15_split -> score16_slicer_conv_15_split_0
I0726 09:51:09.346709 27891 net.cpp:380] score16_slicer_conv_15_split -> score16_slicer_conv_15_split_1
I0726 09:51:09.346755 27891 net.cpp:122] Setting up score16_slicer_conv_15_split
I0726 09:51:09.346765 27891 net.cpp:129] Top shape: 1 1 48 64 (3072)
I0726 09:51:09.346771 27891 net.cpp:129] Top shape: 1 1 48 64 (3072)
I0726 09:51:09.346776 27891 net.cpp:137] Memory required for data: 487206912
I0726 09:51:09.346781 27891 layer_factory.hpp:77] Creating layer score17_slicer_conv_16_split
I0726 09:51:09.346787 27891 net.cpp:84] Creating Layer score17_slicer_conv_16_split
I0726 09:51:09.346793 27891 net.cpp:406] score17_slicer_conv_16_split <- score17
I0726 09:51:09.346801 27891 net.cpp:380] score17_slicer_conv_16_split -> score17_slicer_conv_16_split_0
I0726 09:51:09.346808 27891 net.cpp:380] score17_slicer_conv_16_split -> score17_slicer_conv_16_split_1
I0726 09:51:09.346854 27891 net.cpp:122] Setting up score17_slicer_conv_16_split
I0726 09:51:09.346863 27891 net.cpp:129] Top shape: 1 1 48 64 (3072)
I0726 09:51:09.346869 27891 net.cpp:129] Top shape: 1 1 48 64 (3072)
I0726 09:51:09.346874 27891 net.cpp:137] Memory required for data: 487231488
I0726 09:51:09.346879 27891 layer_factory.hpp:77] Creating layer score18_slicer_conv_17_split
I0726 09:51:09.346886 27891 net.cpp:84] Creating Layer score18_slicer_conv_17_split
I0726 09:51:09.346891 27891 net.cpp:406] score18_slicer_conv_17_split <- score18
I0726 09:51:09.346900 27891 net.cpp:380] score18_slicer_conv_17_split -> score18_slicer_conv_17_split_0
I0726 09:51:09.346909 27891 net.cpp:380] score18_slicer_conv_17_split -> score18_slicer_conv_17_split_1
I0726 09:51:09.346953 27891 net.cpp:122] Setting up score18_slicer_conv_17_split
I0726 09:51:09.346961 27891 net.cpp:129] Top shape: 1 1 48 64 (3072)
I0726 09:51:09.346977 27891 net.cpp:129] Top shape: 1 1 48 64 (3072)
I0726 09:51:09.346982 27891 net.cpp:137] Memory required for data: 487256064
I0726 09:51:09.346988 27891 layer_factory.hpp:77] Creating layer score19_slicer_conv_18_split
I0726 09:51:09.346997 27891 net.cpp:84] Creating Layer score19_slicer_conv_18_split
I0726 09:51:09.347002 27891 net.cpp:406] score19_slicer_conv_18_split <- score19
I0726 09:51:09.347007 27891 net.cpp:380] score19_slicer_conv_18_split -> score19_slicer_conv_18_split_0
I0726 09:51:09.347018 27891 net.cpp:380] score19_slicer_conv_18_split -> score19_slicer_conv_18_split_1
I0726 09:51:09.347069 27891 net.cpp:122] Setting up score19_slicer_conv_18_split
I0726 09:51:09.347079 27891 net.cpp:129] Top shape: 1 1 48 64 (3072)
I0726 09:51:09.347084 27891 net.cpp:129] Top shape: 1 1 48 64 (3072)
I0726 09:51:09.347090 27891 net.cpp:137] Memory required for data: 487280640
I0726 09:51:09.347095 27891 layer_factory.hpp:77] Creating layer score20_slicer_conv_19_split
I0726 09:51:09.347101 27891 net.cpp:84] Creating Layer score20_slicer_conv_19_split
I0726 09:51:09.347107 27891 net.cpp:406] score20_slicer_conv_19_split <- score20
I0726 09:51:09.347115 27891 net.cpp:380] score20_slicer_conv_19_split -> score20_slicer_conv_19_split_0
I0726 09:51:09.347126 27891 net.cpp:380] score20_slicer_conv_19_split -> score20_slicer_conv_19_split_1
I0726 09:51:09.347170 27891 net.cpp:122] Setting up score20_slicer_conv_19_split
I0726 09:51:09.347179 27891 net.cpp:129] Top shape: 1 1 48 64 (3072)
I0726 09:51:09.347185 27891 net.cpp:129] Top shape: 1 1 48 64 (3072)
I0726 09:51:09.347190 27891 net.cpp:137] Memory required for data: 487305216
I0726 09:51:09.347196 27891 layer_factory.hpp:77] Creating layer score21_slicer_conv_20_split
I0726 09:51:09.347204 27891 net.cpp:84] Creating Layer score21_slicer_conv_20_split
I0726 09:51:09.347210 27891 net.cpp:406] score21_slicer_conv_20_split <- score21
I0726 09:51:09.347218 27891 net.cpp:380] score21_slicer_conv_20_split -> score21_slicer_conv_20_split_0
I0726 09:51:09.347225 27891 net.cpp:380] score21_slicer_conv_20_split -> score21_slicer_conv_20_split_1
I0726 09:51:09.347272 27891 net.cpp:122] Setting up score21_slicer_conv_20_split
I0726 09:51:09.347281 27891 net.cpp:129] Top shape: 1 1 48 64 (3072)
I0726 09:51:09.347287 27891 net.cpp:129] Top shape: 1 1 48 64 (3072)
I0726 09:51:09.347292 27891 net.cpp:137] Memory required for data: 487329792
I0726 09:51:09.347297 27891 layer_factory.hpp:77] Creating layer score22_slicer_conv_21_split
I0726 09:51:09.347306 27891 net.cpp:84] Creating Layer score22_slicer_conv_21_split
I0726 09:51:09.347311 27891 net.cpp:406] score22_slicer_conv_21_split <- score22
I0726 09:51:09.347318 27891 net.cpp:380] score22_slicer_conv_21_split -> score22_slicer_conv_21_split_0
I0726 09:51:09.347326 27891 net.cpp:380] score22_slicer_conv_21_split -> score22_slicer_conv_21_split_1
I0726 09:51:09.347373 27891 net.cpp:122] Setting up score22_slicer_conv_21_split
I0726 09:51:09.347381 27891 net.cpp:129] Top shape: 1 1 48 64 (3072)
I0726 09:51:09.347388 27891 net.cpp:129] Top shape: 1 1 48 64 (3072)
I0726 09:51:09.347393 27891 net.cpp:137] Memory required for data: 487354368
I0726 09:51:09.347398 27891 layer_factory.hpp:77] Creating layer score23_slicer_conv_22_split
I0726 09:51:09.347407 27891 net.cpp:84] Creating Layer score23_slicer_conv_22_split
I0726 09:51:09.347414 27891 net.cpp:406] score23_slicer_conv_22_split <- score23
I0726 09:51:09.347421 27891 net.cpp:380] score23_slicer_conv_22_split -> score23_slicer_conv_22_split_0
I0726 09:51:09.347429 27891 net.cpp:380] score23_slicer_conv_22_split -> score23_slicer_conv_22_split_1
I0726 09:51:09.347476 27891 net.cpp:122] Setting up score23_slicer_conv_22_split
I0726 09:51:09.347486 27891 net.cpp:129] Top shape: 1 1 48 64 (3072)
I0726 09:51:09.347491 27891 net.cpp:129] Top shape: 1 1 48 64 (3072)
I0726 09:51:09.347497 27891 net.cpp:137] Memory required for data: 487378944
I0726 09:51:09.347502 27891 layer_factory.hpp:77] Creating layer score24_slicer_conv_23_split
I0726 09:51:09.347509 27891 net.cpp:84] Creating Layer score24_slicer_conv_23_split
I0726 09:51:09.347524 27891 net.cpp:406] score24_slicer_conv_23_split <- score24
I0726 09:51:09.347533 27891 net.cpp:380] score24_slicer_conv_23_split -> score24_slicer_conv_23_split_0
I0726 09:51:09.347542 27891 net.cpp:380] score24_slicer_conv_23_split -> score24_slicer_conv_23_split_1
I0726 09:51:09.347590 27891 net.cpp:122] Setting up score24_slicer_conv_23_split
I0726 09:51:09.347600 27891 net.cpp:129] Top shape: 1 1 48 64 (3072)
I0726 09:51:09.347606 27891 net.cpp:129] Top shape: 1 1 48 64 (3072)
I0726 09:51:09.347611 27891 net.cpp:137] Memory required for data: 487403520
I0726 09:51:09.347616 27891 layer_factory.hpp:77] Creating layer score25_slicer_conv_24_split
I0726 09:51:09.347623 27891 net.cpp:84] Creating Layer score25_slicer_conv_24_split
I0726 09:51:09.347630 27891 net.cpp:406] score25_slicer_conv_24_split <- score25
I0726 09:51:09.347637 27891 net.cpp:380] score25_slicer_conv_24_split -> score25_slicer_conv_24_split_0
I0726 09:51:09.347646 27891 net.cpp:380] score25_slicer_conv_24_split -> score25_slicer_conv_24_split_1
I0726 09:51:09.347692 27891 net.cpp:122] Setting up score25_slicer_conv_24_split
I0726 09:51:09.347700 27891 net.cpp:129] Top shape: 1 1 48 64 (3072)
I0726 09:51:09.347707 27891 net.cpp:129] Top shape: 1 1 48 64 (3072)
I0726 09:51:09.347712 27891 net.cpp:137] Memory required for data: 487428096
I0726 09:51:09.347718 27891 layer_factory.hpp:77] Creating layer score26_slicer_conv_25_split
I0726 09:51:09.347724 27891 net.cpp:84] Creating Layer score26_slicer_conv_25_split
I0726 09:51:09.347729 27891 net.cpp:406] score26_slicer_conv_25_split <- score26
I0726 09:51:09.347738 27891 net.cpp:380] score26_slicer_conv_25_split -> score26_slicer_conv_25_split_0
I0726 09:51:09.347745 27891 net.cpp:380] score26_slicer_conv_25_split -> score26_slicer_conv_25_split_1
I0726 09:51:09.347791 27891 net.cpp:122] Setting up score26_slicer_conv_25_split
I0726 09:51:09.347800 27891 net.cpp:129] Top shape: 1 1 48 64 (3072)
I0726 09:51:09.347806 27891 net.cpp:129] Top shape: 1 1 48 64 (3072)
I0726 09:51:09.347811 27891 net.cpp:137] Memory required for data: 487452672
I0726 09:51:09.347816 27891 layer_factory.hpp:77] Creating layer score27_slicer_conv_26_split
I0726 09:51:09.347823 27891 net.cpp:84] Creating Layer score27_slicer_conv_26_split
I0726 09:51:09.347828 27891 net.cpp:406] score27_slicer_conv_26_split <- score27
I0726 09:51:09.347837 27891 net.cpp:380] score27_slicer_conv_26_split -> score27_slicer_conv_26_split_0
I0726 09:51:09.347846 27891 net.cpp:380] score27_slicer_conv_26_split -> score27_slicer_conv_26_split_1
I0726 09:51:09.347889 27891 net.cpp:122] Setting up score27_slicer_conv_26_split
I0726 09:51:09.347898 27891 net.cpp:129] Top shape: 1 1 48 64 (3072)
I0726 09:51:09.347904 27891 net.cpp:129] Top shape: 1 1 48 64 (3072)
I0726 09:51:09.347909 27891 net.cpp:137] Memory required for data: 487477248
I0726 09:51:09.347914 27891 layer_factory.hpp:77] Creating layer score28_slicer_conv_27_split
I0726 09:51:09.347923 27891 net.cpp:84] Creating Layer score28_slicer_conv_27_split
I0726 09:51:09.347929 27891 net.cpp:406] score28_slicer_conv_27_split <- score28
I0726 09:51:09.347936 27891 net.cpp:380] score28_slicer_conv_27_split -> score28_slicer_conv_27_split_0
I0726 09:51:09.347944 27891 net.cpp:380] score28_slicer_conv_27_split -> score28_slicer_conv_27_split_1
I0726 09:51:09.347990 27891 net.cpp:122] Setting up score28_slicer_conv_27_split
I0726 09:51:09.347998 27891 net.cpp:129] Top shape: 1 1 48 64 (3072)
I0726 09:51:09.348004 27891 net.cpp:129] Top shape: 1 1 48 64 (3072)
I0726 09:51:09.348009 27891 net.cpp:137] Memory required for data: 487501824
I0726 09:51:09.348014 27891 layer_factory.hpp:77] Creating layer score29_slicer_conv_28_split
I0726 09:51:09.348031 27891 net.cpp:84] Creating Layer score29_slicer_conv_28_split
I0726 09:51:09.348037 27891 net.cpp:406] score29_slicer_conv_28_split <- score29
I0726 09:51:09.348044 27891 net.cpp:380] score29_slicer_conv_28_split -> score29_slicer_conv_28_split_0
I0726 09:51:09.348053 27891 net.cpp:380] score29_slicer_conv_28_split -> score29_slicer_conv_28_split_1
I0726 09:51:09.348114 27891 net.cpp:122] Setting up score29_slicer_conv_28_split
I0726 09:51:09.348124 27891 net.cpp:129] Top shape: 1 1 48 64 (3072)
I0726 09:51:09.348130 27891 net.cpp:129] Top shape: 1 1 48 64 (3072)
I0726 09:51:09.348135 27891 net.cpp:137] Memory required for data: 487526400
I0726 09:51:09.348140 27891 layer_factory.hpp:77] Creating layer score30_slicer_conv_29_split
I0726 09:51:09.348148 27891 net.cpp:84] Creating Layer score30_slicer_conv_29_split
I0726 09:51:09.348155 27891 net.cpp:406] score30_slicer_conv_29_split <- score30
I0726 09:51:09.348163 27891 net.cpp:380] score30_slicer_conv_29_split -> score30_slicer_conv_29_split_0
I0726 09:51:09.348171 27891 net.cpp:380] score30_slicer_conv_29_split -> score30_slicer_conv_29_split_1
I0726 09:51:09.348217 27891 net.cpp:122] Setting up score30_slicer_conv_29_split
I0726 09:51:09.348225 27891 net.cpp:129] Top shape: 1 1 48 64 (3072)
I0726 09:51:09.348232 27891 net.cpp:129] Top shape: 1 1 48 64 (3072)
I0726 09:51:09.348237 27891 net.cpp:137] Memory required for data: 487550976
I0726 09:51:09.348242 27891 layer_factory.hpp:77] Creating layer score31_slicer_conv_30_split
I0726 09:51:09.348249 27891 net.cpp:84] Creating Layer score31_slicer_conv_30_split
I0726 09:51:09.348255 27891 net.cpp:406] score31_slicer_conv_30_split <- score31
I0726 09:51:09.348263 27891 net.cpp:380] score31_slicer_conv_30_split -> score31_slicer_conv_30_split_0
I0726 09:51:09.348270 27891 net.cpp:380] score31_slicer_conv_30_split -> score31_slicer_conv_30_split_1
I0726 09:51:09.348316 27891 net.cpp:122] Setting up score31_slicer_conv_30_split
I0726 09:51:09.348325 27891 net.cpp:129] Top shape: 1 1 48 64 (3072)
I0726 09:51:09.348331 27891 net.cpp:129] Top shape: 1 1 48 64 (3072)
I0726 09:51:09.348336 27891 net.cpp:137] Memory required for data: 487575552
I0726 09:51:09.348341 27891 layer_factory.hpp:77] Creating layer score32_slicer_conv_31_split
I0726 09:51:09.348348 27891 net.cpp:84] Creating Layer score32_slicer_conv_31_split
I0726 09:51:09.348353 27891 net.cpp:406] score32_slicer_conv_31_split <- score32
I0726 09:51:09.348362 27891 net.cpp:380] score32_slicer_conv_31_split -> score32_slicer_conv_31_split_0
I0726 09:51:09.348371 27891 net.cpp:380] score32_slicer_conv_31_split -> score32_slicer_conv_31_split_1
I0726 09:51:09.348414 27891 net.cpp:122] Setting up score32_slicer_conv_31_split
I0726 09:51:09.348423 27891 net.cpp:129] Top shape: 1 1 48 64 (3072)
I0726 09:51:09.348429 27891 net.cpp:129] Top shape: 1 1 48 64 (3072)
I0726 09:51:09.348434 27891 net.cpp:137] Memory required for data: 487600128
I0726 09:51:09.348439 27891 layer_factory.hpp:77] Creating layer score33_slicer_conv_32_split
I0726 09:51:09.348448 27891 net.cpp:84] Creating Layer score33_slicer_conv_32_split
I0726 09:51:09.348453 27891 net.cpp:406] score33_slicer_conv_32_split <- score33
I0726 09:51:09.348460 27891 net.cpp:380] score33_slicer_conv_32_split -> score33_slicer_conv_32_split_0
I0726 09:51:09.348469 27891 net.cpp:380] score33_slicer_conv_32_split -> score33_slicer_conv_32_split_1
I0726 09:51:09.348515 27891 net.cpp:122] Setting up score33_slicer_conv_32_split
I0726 09:51:09.348523 27891 net.cpp:129] Top shape: 1 1 48 64 (3072)
I0726 09:51:09.348531 27891 net.cpp:129] Top shape: 1 1 48 64 (3072)
I0726 09:51:09.348536 27891 net.cpp:137] Memory required for data: 487624704
I0726 09:51:09.348541 27891 layer_factory.hpp:77] Creating layer score34_slicer_conv_33_split
I0726 09:51:09.348547 27891 net.cpp:84] Creating Layer score34_slicer_conv_33_split
I0726 09:51:09.348552 27891 net.cpp:406] score34_slicer_conv_33_split <- score34
I0726 09:51:09.348559 27891 net.cpp:380] score34_slicer_conv_33_split -> score34_slicer_conv_33_split_0
I0726 09:51:09.348568 27891 net.cpp:380] score34_slicer_conv_33_split -> score34_slicer_conv_33_split_1
I0726 09:51:09.348610 27891 net.cpp:122] Setting up score34_slicer_conv_33_split
I0726 09:51:09.348618 27891 net.cpp:129] Top shape: 1 1 48 64 (3072)
I0726 09:51:09.348620 27891 net.cpp:129] Top shape: 1 1 48 64 (3072)
I0726 09:51:09.348633 27891 net.cpp:137] Memory required for data: 487649280
I0726 09:51:09.348636 27891 layer_factory.hpp:77] Creating layer score35_slicer_conv_34_split
I0726 09:51:09.348642 27891 net.cpp:84] Creating Layer score35_slicer_conv_34_split
I0726 09:51:09.348646 27891 net.cpp:406] score35_slicer_conv_34_split <- score35
I0726 09:51:09.348652 27891 net.cpp:380] score35_slicer_conv_34_split -> score35_slicer_conv_34_split_0
I0726 09:51:09.348661 27891 net.cpp:380] score35_slicer_conv_34_split -> score35_slicer_conv_34_split_1
I0726 09:51:09.348711 27891 net.cpp:122] Setting up score35_slicer_conv_34_split
I0726 09:51:09.348727 27891 net.cpp:129] Top shape: 1 1 48 64 (3072)
I0726 09:51:09.348733 27891 net.cpp:129] Top shape: 1 1 48 64 (3072)
I0726 09:51:09.348738 27891 net.cpp:137] Memory required for data: 487673856
I0726 09:51:09.348743 27891 layer_factory.hpp:77] Creating layer score36_slicer_conv_35_split
I0726 09:51:09.348750 27891 net.cpp:84] Creating Layer score36_slicer_conv_35_split
I0726 09:51:09.348755 27891 net.cpp:406] score36_slicer_conv_35_split <- score36
I0726 09:51:09.348762 27891 net.cpp:380] score36_slicer_conv_35_split -> score36_slicer_conv_35_split_0
I0726 09:51:09.348770 27891 net.cpp:380] score36_slicer_conv_35_split -> score36_slicer_conv_35_split_1
I0726 09:51:09.348817 27891 net.cpp:122] Setting up score36_slicer_conv_35_split
I0726 09:51:09.348825 27891 net.cpp:129] Top shape: 1 1 48 64 (3072)
I0726 09:51:09.348831 27891 net.cpp:129] Top shape: 1 1 48 64 (3072)
I0726 09:51:09.348836 27891 net.cpp:137] Memory required for data: 487698432
I0726 09:51:09.348841 27891 layer_factory.hpp:77] Creating layer score37_slicer_conv_36_split
I0726 09:51:09.348847 27891 net.cpp:84] Creating Layer score37_slicer_conv_36_split
I0726 09:51:09.348853 27891 net.cpp:406] score37_slicer_conv_36_split <- score37
I0726 09:51:09.348862 27891 net.cpp:380] score37_slicer_conv_36_split -> score37_slicer_conv_36_split_0
I0726 09:51:09.348870 27891 net.cpp:380] score37_slicer_conv_36_split -> score37_slicer_conv_36_split_1
I0726 09:51:09.348917 27891 net.cpp:122] Setting up score37_slicer_conv_36_split
I0726 09:51:09.348925 27891 net.cpp:129] Top shape: 1 1 48 64 (3072)
I0726 09:51:09.348932 27891 net.cpp:129] Top shape: 1 1 48 64 (3072)
I0726 09:51:09.348935 27891 net.cpp:137] Memory required for data: 487723008
I0726 09:51:09.348940 27891 layer_factory.hpp:77] Creating layer score38_slicer_conv_37_split
I0726 09:51:09.348948 27891 net.cpp:84] Creating Layer score38_slicer_conv_37_split
I0726 09:51:09.348953 27891 net.cpp:406] score38_slicer_conv_37_split <- score38
I0726 09:51:09.348959 27891 net.cpp:380] score38_slicer_conv_37_split -> score38_slicer_conv_37_split_0
I0726 09:51:09.348968 27891 net.cpp:380] score38_slicer_conv_37_split -> score38_slicer_conv_37_split_1
I0726 09:51:09.349014 27891 net.cpp:122] Setting up score38_slicer_conv_37_split
I0726 09:51:09.349022 27891 net.cpp:129] Top shape: 1 1 48 64 (3072)
I0726 09:51:09.349028 27891 net.cpp:129] Top shape: 1 1 48 64 (3072)
I0726 09:51:09.349032 27891 net.cpp:137] Memory required for data: 487747584
I0726 09:51:09.349037 27891 layer_factory.hpp:77] Creating layer score39_slicer_conv_38_split
I0726 09:51:09.349045 27891 net.cpp:84] Creating Layer score39_slicer_conv_38_split
I0726 09:51:09.349050 27891 net.cpp:406] score39_slicer_conv_38_split <- score39
I0726 09:51:09.349057 27891 net.cpp:380] score39_slicer_conv_38_split -> score39_slicer_conv_38_split_0
I0726 09:51:09.349066 27891 net.cpp:380] score39_slicer_conv_38_split -> score39_slicer_conv_38_split_1
I0726 09:51:09.349112 27891 net.cpp:122] Setting up score39_slicer_conv_38_split
I0726 09:51:09.349119 27891 net.cpp:129] Top shape: 1 1 48 64 (3072)
I0726 09:51:09.349125 27891 net.cpp:129] Top shape: 1 1 48 64 (3072)
I0726 09:51:09.349129 27891 net.cpp:137] Memory required for data: 487772160
I0726 09:51:09.349134 27891 layer_factory.hpp:77] Creating layer score40_slicer_conv_39_split
I0726 09:51:09.349143 27891 net.cpp:84] Creating Layer score40_slicer_conv_39_split
I0726 09:51:09.349148 27891 net.cpp:406] score40_slicer_conv_39_split <- score40
I0726 09:51:09.349165 27891 net.cpp:380] score40_slicer_conv_39_split -> score40_slicer_conv_39_split_0
I0726 09:51:09.349174 27891 net.cpp:380] score40_slicer_conv_39_split -> score40_slicer_conv_39_split_1
I0726 09:51:09.349223 27891 net.cpp:122] Setting up score40_slicer_conv_39_split
I0726 09:51:09.349232 27891 net.cpp:129] Top shape: 1 1 48 64 (3072)
I0726 09:51:09.349238 27891 net.cpp:129] Top shape: 1 1 48 64 (3072)
I0726 09:51:09.349242 27891 net.cpp:137] Memory required for data: 487796736
I0726 09:51:09.349247 27891 layer_factory.hpp:77] Creating layer score41_slicer_conv_40_split
I0726 09:51:09.349254 27891 net.cpp:84] Creating Layer score41_slicer_conv_40_split
I0726 09:51:09.349259 27891 net.cpp:406] score41_slicer_conv_40_split <- score41
I0726 09:51:09.349267 27891 net.cpp:380] score41_slicer_conv_40_split -> score41_slicer_conv_40_split_0
I0726 09:51:09.349277 27891 net.cpp:380] score41_slicer_conv_40_split -> score41_slicer_conv_40_split_1
I0726 09:51:09.349333 27891 net.cpp:122] Setting up score41_slicer_conv_40_split
I0726 09:51:09.349342 27891 net.cpp:129] Top shape: 1 1 48 64 (3072)
I0726 09:51:09.349349 27891 net.cpp:129] Top shape: 1 1 48 64 (3072)
I0726 09:51:09.349352 27891 net.cpp:137] Memory required for data: 487821312
I0726 09:51:09.349357 27891 layer_factory.hpp:77] Creating layer score42_slicer_conv_41_split
I0726 09:51:09.349366 27891 net.cpp:84] Creating Layer score42_slicer_conv_41_split
I0726 09:51:09.349371 27891 net.cpp:406] score42_slicer_conv_41_split <- score42
I0726 09:51:09.349380 27891 net.cpp:380] score42_slicer_conv_41_split -> score42_slicer_conv_41_split_0
I0726 09:51:09.349387 27891 net.cpp:380] score42_slicer_conv_41_split -> score42_slicer_conv_41_split_1
I0726 09:51:09.349436 27891 net.cpp:122] Setting up score42_slicer_conv_41_split
I0726 09:51:09.349443 27891 net.cpp:129] Top shape: 1 1 48 64 (3072)
I0726 09:51:09.349449 27891 net.cpp:129] Top shape: 1 1 48 64 (3072)
I0726 09:51:09.349454 27891 net.cpp:137] Memory required for data: 487845888
I0726 09:51:09.349459 27891 layer_factory.hpp:77] Creating layer score43_slicer_conv_42_split
I0726 09:51:09.349465 27891 net.cpp:84] Creating Layer score43_slicer_conv_42_split
I0726 09:51:09.349470 27891 net.cpp:406] score43_slicer_conv_42_split <- score43
I0726 09:51:09.349478 27891 net.cpp:380] score43_slicer_conv_42_split -> score43_slicer_conv_42_split_0
I0726 09:51:09.349485 27891 net.cpp:380] score43_slicer_conv_42_split -> score43_slicer_conv_42_split_1
I0726 09:51:09.349532 27891 net.cpp:122] Setting up score43_slicer_conv_42_split
I0726 09:51:09.349540 27891 net.cpp:129] Top shape: 1 1 48 64 (3072)
I0726 09:51:09.349546 27891 net.cpp:129] Top shape: 1 1 48 64 (3072)
I0726 09:51:09.349551 27891 net.cpp:137] Memory required for data: 487870464
I0726 09:51:09.349556 27891 layer_factory.hpp:77] Creating layer score44_slicer_conv_43_split
I0726 09:51:09.349563 27891 net.cpp:84] Creating Layer score44_slicer_conv_43_split
I0726 09:51:09.349568 27891 net.cpp:406] score44_slicer_conv_43_split <- score44
I0726 09:51:09.349576 27891 net.cpp:380] score44_slicer_conv_43_split -> score44_slicer_conv_43_split_0
I0726 09:51:09.349584 27891 net.cpp:380] score44_slicer_conv_43_split -> score44_slicer_conv_43_split_1
I0726 09:51:09.349632 27891 net.cpp:122] Setting up score44_slicer_conv_43_split
I0726 09:51:09.349639 27891 net.cpp:129] Top shape: 1 1 48 64 (3072)
I0726 09:51:09.349645 27891 net.cpp:129] Top shape: 1 1 48 64 (3072)
I0726 09:51:09.349650 27891 net.cpp:137] Memory required for data: 487895040
I0726 09:51:09.349655 27891 layer_factory.hpp:77] Creating layer score45_slicer_conv_44_split
I0726 09:51:09.349663 27891 net.cpp:84] Creating Layer score45_slicer_conv_44_split
I0726 09:51:09.349668 27891 net.cpp:406] score45_slicer_conv_44_split <- score45
I0726 09:51:09.349674 27891 net.cpp:380] score45_slicer_conv_44_split -> score45_slicer_conv_44_split_0
I0726 09:51:09.349683 27891 net.cpp:380] score45_slicer_conv_44_split -> score45_slicer_conv_44_split_1
I0726 09:51:09.349731 27891 net.cpp:122] Setting up score45_slicer_conv_44_split
I0726 09:51:09.349751 27891 net.cpp:129] Top shape: 1 1 48 64 (3072)
I0726 09:51:09.349758 27891 net.cpp:129] Top shape: 1 1 48 64 (3072)
I0726 09:51:09.349763 27891 net.cpp:137] Memory required for data: 487919616
I0726 09:51:09.349768 27891 layer_factory.hpp:77] Creating layer score46_slicer_conv_45_split
I0726 09:51:09.349776 27891 net.cpp:84] Creating Layer score46_slicer_conv_45_split
I0726 09:51:09.349781 27891 net.cpp:406] score46_slicer_conv_45_split <- score46
I0726 09:51:09.349791 27891 net.cpp:380] score46_slicer_conv_45_split -> score46_slicer_conv_45_split_0
I0726 09:51:09.349798 27891 net.cpp:380] score46_slicer_conv_45_split -> score46_slicer_conv_45_split_1
I0726 09:51:09.349858 27891 net.cpp:122] Setting up score46_slicer_conv_45_split
I0726 09:51:09.349865 27891 net.cpp:129] Top shape: 1 1 48 64 (3072)
I0726 09:51:09.349871 27891 net.cpp:129] Top shape: 1 1 48 64 (3072)
I0726 09:51:09.349876 27891 net.cpp:137] Memory required for data: 487944192
I0726 09:51:09.349881 27891 layer_factory.hpp:77] Creating layer score47_slicer_conv_46_split
I0726 09:51:09.349887 27891 net.cpp:84] Creating Layer score47_slicer_conv_46_split
I0726 09:51:09.349894 27891 net.cpp:406] score47_slicer_conv_46_split <- score47
I0726 09:51:09.349900 27891 net.cpp:380] score47_slicer_conv_46_split -> score47_slicer_conv_46_split_0
I0726 09:51:09.349907 27891 net.cpp:380] score47_slicer_conv_46_split -> score47_slicer_conv_46_split_1
I0726 09:51:09.349954 27891 net.cpp:122] Setting up score47_slicer_conv_46_split
I0726 09:51:09.349962 27891 net.cpp:129] Top shape: 1 1 48 64 (3072)
I0726 09:51:09.349968 27891 net.cpp:129] Top shape: 1 1 48 64 (3072)
I0726 09:51:09.349973 27891 net.cpp:137] Memory required for data: 487968768
I0726 09:51:09.349977 27891 layer_factory.hpp:77] Creating layer score48_slicer_conv_47_split
I0726 09:51:09.349984 27891 net.cpp:84] Creating Layer score48_slicer_conv_47_split
I0726 09:51:09.349989 27891 net.cpp:406] score48_slicer_conv_47_split <- score48
I0726 09:51:09.350000 27891 net.cpp:380] score48_slicer_conv_47_split -> score48_slicer_conv_47_split_0
I0726 09:51:09.350008 27891 net.cpp:380] score48_slicer_conv_47_split -> score48_slicer_conv_47_split_1
I0726 09:51:09.350054 27891 net.cpp:122] Setting up score48_slicer_conv_47_split
I0726 09:51:09.350062 27891 net.cpp:129] Top shape: 1 1 48 64 (3072)
I0726 09:51:09.350069 27891 net.cpp:129] Top shape: 1 1 48 64 (3072)
I0726 09:51:09.350075 27891 net.cpp:137] Memory required for data: 487993344
I0726 09:51:09.350080 27891 layer_factory.hpp:77] Creating layer score49_slicer_conv_48_split
I0726 09:51:09.350087 27891 net.cpp:84] Creating Layer score49_slicer_conv_48_split
I0726 09:51:09.350092 27891 net.cpp:406] score49_slicer_conv_48_split <- score49
I0726 09:51:09.350100 27891 net.cpp:380] score49_slicer_conv_48_split -> score49_slicer_conv_48_split_0
I0726 09:51:09.350107 27891 net.cpp:380] score49_slicer_conv_48_split -> score49_slicer_conv_48_split_1
I0726 09:51:09.350154 27891 net.cpp:122] Setting up score49_slicer_conv_48_split
I0726 09:51:09.350162 27891 net.cpp:129] Top shape: 1 1 48 64 (3072)
I0726 09:51:09.350168 27891 net.cpp:129] Top shape: 1 1 48 64 (3072)
I0726 09:51:09.350172 27891 net.cpp:137] Memory required for data: 488017920
I0726 09:51:09.350178 27891 layer_factory.hpp:77] Creating layer score50_slicer_conv_49_split
I0726 09:51:09.350184 27891 net.cpp:84] Creating Layer score50_slicer_conv_49_split
I0726 09:51:09.350189 27891 net.cpp:406] score50_slicer_conv_49_split <- score50
I0726 09:51:09.350196 27891 net.cpp:380] score50_slicer_conv_49_split -> score50_slicer_conv_49_split_0
I0726 09:51:09.350205 27891 net.cpp:380] score50_slicer_conv_49_split -> score50_slicer_conv_49_split_1
I0726 09:51:09.350250 27891 net.cpp:122] Setting up score50_slicer_conv_49_split
I0726 09:51:09.350257 27891 net.cpp:129] Top shape: 1 1 48 64 (3072)
I0726 09:51:09.350263 27891 net.cpp:129] Top shape: 1 1 48 64 (3072)
I0726 09:51:09.350268 27891 net.cpp:137] Memory required for data: 488042496
I0726 09:51:09.350281 27891 layer_factory.hpp:77] Creating layer score51_slicer_conv_50_split
I0726 09:51:09.350288 27891 net.cpp:84] Creating Layer score51_slicer_conv_50_split
I0726 09:51:09.350292 27891 net.cpp:406] score51_slicer_conv_50_split <- score51
I0726 09:51:09.350297 27891 net.cpp:380] score51_slicer_conv_50_split -> score51_slicer_conv_50_split_0
I0726 09:51:09.350303 27891 net.cpp:380] score51_slicer_conv_50_split -> score51_slicer_conv_50_split_1
I0726 09:51:09.350354 27891 net.cpp:122] Setting up score51_slicer_conv_50_split
I0726 09:51:09.350364 27891 net.cpp:129] Top shape: 1 1 48 64 (3072)
I0726 09:51:09.350371 27891 net.cpp:129] Top shape: 1 1 48 64 (3072)
I0726 09:51:09.350376 27891 net.cpp:137] Memory required for data: 488067072
I0726 09:51:09.350381 27891 layer_factory.hpp:77] Creating layer score52_slicer_conv_51_split
I0726 09:51:09.350389 27891 net.cpp:84] Creating Layer score52_slicer_conv_51_split
I0726 09:51:09.350394 27891 net.cpp:406] score52_slicer_conv_51_split <- score52
I0726 09:51:09.350401 27891 net.cpp:380] score52_slicer_conv_51_split -> score52_slicer_conv_51_split_0
I0726 09:51:09.350410 27891 net.cpp:380] score52_slicer_conv_51_split -> score52_slicer_conv_51_split_1
I0726 09:51:09.350457 27891 net.cpp:122] Setting up score52_slicer_conv_51_split
I0726 09:51:09.350466 27891 net.cpp:129] Top shape: 1 1 48 64 (3072)
I0726 09:51:09.350472 27891 net.cpp:129] Top shape: 1 1 48 64 (3072)
I0726 09:51:09.350477 27891 net.cpp:137] Memory required for data: 488091648
I0726 09:51:09.350482 27891 layer_factory.hpp:77] Creating layer score53_slicer_conv_52_split
I0726 09:51:09.350491 27891 net.cpp:84] Creating Layer score53_slicer_conv_52_split
I0726 09:51:09.350495 27891 net.cpp:406] score53_slicer_conv_52_split <- score53
I0726 09:51:09.350504 27891 net.cpp:380] score53_slicer_conv_52_split -> score53_slicer_conv_52_split_0
I0726 09:51:09.350512 27891 net.cpp:380] score53_slicer_conv_52_split -> score53_slicer_conv_52_split_1
I0726 09:51:09.350558 27891 net.cpp:122] Setting up score53_slicer_conv_52_split
I0726 09:51:09.350566 27891 net.cpp:129] Top shape: 1 1 48 64 (3072)
I0726 09:51:09.350574 27891 net.cpp:129] Top shape: 1 1 48 64 (3072)
I0726 09:51:09.350579 27891 net.cpp:137] Memory required for data: 488116224
I0726 09:51:09.350584 27891 layer_factory.hpp:77] Creating layer score54_slicer_conv_53_split
I0726 09:51:09.350590 27891 net.cpp:84] Creating Layer score54_slicer_conv_53_split
I0726 09:51:09.350596 27891 net.cpp:406] score54_slicer_conv_53_split <- score54
I0726 09:51:09.350603 27891 net.cpp:380] score54_slicer_conv_53_split -> score54_slicer_conv_53_split_0
I0726 09:51:09.350611 27891 net.cpp:380] score54_slicer_conv_53_split -> score54_slicer_conv_53_split_1
I0726 09:51:09.350658 27891 net.cpp:122] Setting up score54_slicer_conv_53_split
I0726 09:51:09.350667 27891 net.cpp:129] Top shape: 1 1 48 64 (3072)
I0726 09:51:09.350673 27891 net.cpp:129] Top shape: 1 1 48 64 (3072)
I0726 09:51:09.350678 27891 net.cpp:137] Memory required for data: 488140800
I0726 09:51:09.350684 27891 layer_factory.hpp:77] Creating layer score55_slicer_conv_54_split
I0726 09:51:09.350692 27891 net.cpp:84] Creating Layer score55_slicer_conv_54_split
I0726 09:51:09.350697 27891 net.cpp:406] score55_slicer_conv_54_split <- score55
I0726 09:51:09.350705 27891 net.cpp:380] score55_slicer_conv_54_split -> score55_slicer_conv_54_split_0
I0726 09:51:09.350739 27891 net.cpp:380] score55_slicer_conv_54_split -> score55_slicer_conv_54_split_1
I0726 09:51:09.350788 27891 net.cpp:122] Setting up score55_slicer_conv_54_split
I0726 09:51:09.350797 27891 net.cpp:129] Top shape: 1 1 48 64 (3072)
I0726 09:51:09.350805 27891 net.cpp:129] Top shape: 1 1 48 64 (3072)
I0726 09:51:09.350810 27891 net.cpp:137] Memory required for data: 488165376
I0726 09:51:09.350814 27891 layer_factory.hpp:77] Creating layer score56_slicer_conv_55_split
I0726 09:51:09.350821 27891 net.cpp:84] Creating Layer score56_slicer_conv_55_split
I0726 09:51:09.350827 27891 net.cpp:406] score56_slicer_conv_55_split <- score56
I0726 09:51:09.350834 27891 net.cpp:380] score56_slicer_conv_55_split -> score56_slicer_conv_55_split_0
I0726 09:51:09.350853 27891 net.cpp:380] score56_slicer_conv_55_split -> score56_slicer_conv_55_split_1
I0726 09:51:09.350901 27891 net.cpp:122] Setting up score56_slicer_conv_55_split
I0726 09:51:09.350910 27891 net.cpp:129] Top shape: 1 1 48 64 (3072)
I0726 09:51:09.350915 27891 net.cpp:129] Top shape: 1 1 48 64 (3072)
I0726 09:51:09.350920 27891 net.cpp:137] Memory required for data: 488189952
I0726 09:51:09.350925 27891 layer_factory.hpp:77] Creating layer score57_slicer_conv_56_split
I0726 09:51:09.350932 27891 net.cpp:84] Creating Layer score57_slicer_conv_56_split
I0726 09:51:09.350937 27891 net.cpp:406] score57_slicer_conv_56_split <- score57
I0726 09:51:09.350946 27891 net.cpp:380] score57_slicer_conv_56_split -> score57_slicer_conv_56_split_0
I0726 09:51:09.350955 27891 net.cpp:380] score57_slicer_conv_56_split -> score57_slicer_conv_56_split_1
I0726 09:51:09.350999 27891 net.cpp:122] Setting up score57_slicer_conv_56_split
I0726 09:51:09.351008 27891 net.cpp:129] Top shape: 1 1 48 64 (3072)
I0726 09:51:09.351014 27891 net.cpp:129] Top shape: 1 1 48 64 (3072)
I0726 09:51:09.351018 27891 net.cpp:137] Memory required for data: 488214528
I0726 09:51:09.351023 27891 layer_factory.hpp:77] Creating layer score58_slicer_conv_57_split
I0726 09:51:09.351029 27891 net.cpp:84] Creating Layer score58_slicer_conv_57_split
I0726 09:51:09.351034 27891 net.cpp:406] score58_slicer_conv_57_split <- score58
I0726 09:51:09.351043 27891 net.cpp:380] score58_slicer_conv_57_split -> score58_slicer_conv_57_split_0
I0726 09:51:09.351052 27891 net.cpp:380] score58_slicer_conv_57_split -> score58_slicer_conv_57_split_1
I0726 09:51:09.351097 27891 net.cpp:122] Setting up score58_slicer_conv_57_split
I0726 09:51:09.351105 27891 net.cpp:129] Top shape: 1 1 48 64 (3072)
I0726 09:51:09.351111 27891 net.cpp:129] Top shape: 1 1 48 64 (3072)
I0726 09:51:09.351116 27891 net.cpp:137] Memory required for data: 488239104
I0726 09:51:09.351121 27891 layer_factory.hpp:77] Creating layer score59_slicer_conv_58_split
I0726 09:51:09.351127 27891 net.cpp:84] Creating Layer score59_slicer_conv_58_split
I0726 09:51:09.351132 27891 net.cpp:406] score59_slicer_conv_58_split <- score59
I0726 09:51:09.351141 27891 net.cpp:380] score59_slicer_conv_58_split -> score59_slicer_conv_58_split_0
I0726 09:51:09.351150 27891 net.cpp:380] score59_slicer_conv_58_split -> score59_slicer_conv_58_split_1
I0726 09:51:09.351197 27891 net.cpp:122] Setting up score59_slicer_conv_58_split
I0726 09:51:09.351207 27891 net.cpp:129] Top shape: 1 1 48 64 (3072)
I0726 09:51:09.351212 27891 net.cpp:129] Top shape: 1 1 48 64 (3072)
I0726 09:51:09.351217 27891 net.cpp:137] Memory required for data: 488263680
I0726 09:51:09.351222 27891 layer_factory.hpp:77] Creating layer score60_slicer_conv_59_split
I0726 09:51:09.351227 27891 net.cpp:84] Creating Layer score60_slicer_conv_59_split
I0726 09:51:09.351233 27891 net.cpp:406] score60_slicer_conv_59_split <- score60
I0726 09:51:09.351241 27891 net.cpp:380] score60_slicer_conv_59_split -> score60_slicer_conv_59_split_0
I0726 09:51:09.351249 27891 net.cpp:380] score60_slicer_conv_59_split -> score60_slicer_conv_59_split_1
I0726 09:51:09.351296 27891 net.cpp:122] Setting up score60_slicer_conv_59_split
I0726 09:51:09.351305 27891 net.cpp:129] Top shape: 1 1 48 64 (3072)
I0726 09:51:09.351310 27891 net.cpp:129] Top shape: 1 1 48 64 (3072)
I0726 09:51:09.351315 27891 net.cpp:137] Memory required for data: 488288256
I0726 09:51:09.351320 27891 layer_factory.hpp:77] Creating layer score61_slicer_conv_60_split
I0726 09:51:09.351326 27891 net.cpp:84] Creating Layer score61_slicer_conv_60_split
I0726 09:51:09.351331 27891 net.cpp:406] score61_slicer_conv_60_split <- score61
I0726 09:51:09.351339 27891 net.cpp:380] score61_slicer_conv_60_split -> score61_slicer_conv_60_split_0
I0726 09:51:09.351347 27891 net.cpp:380] score61_slicer_conv_60_split -> score61_slicer_conv_60_split_1
I0726 09:51:09.351395 27891 net.cpp:122] Setting up score61_slicer_conv_60_split
I0726 09:51:09.351403 27891 net.cpp:129] Top shape: 1 1 48 64 (3072)
I0726 09:51:09.351418 27891 net.cpp:129] Top shape: 1 1 48 64 (3072)
I0726 09:51:09.351423 27891 net.cpp:137] Memory required for data: 488312832
I0726 09:51:09.351428 27891 layer_factory.hpp:77] Creating layer score62_slicer_conv_61_split
I0726 09:51:09.351436 27891 net.cpp:84] Creating Layer score62_slicer_conv_61_split
I0726 09:51:09.351442 27891 net.cpp:406] score62_slicer_conv_61_split <- score62
I0726 09:51:09.351449 27891 net.cpp:380] score62_slicer_conv_61_split -> score62_slicer_conv_61_split_0
I0726 09:51:09.351457 27891 net.cpp:380] score62_slicer_conv_61_split -> score62_slicer_conv_61_split_1
I0726 09:51:09.351505 27891 net.cpp:122] Setting up score62_slicer_conv_61_split
I0726 09:51:09.351513 27891 net.cpp:129] Top shape: 1 1 48 64 (3072)
I0726 09:51:09.351519 27891 net.cpp:129] Top shape: 1 1 48 64 (3072)
I0726 09:51:09.351524 27891 net.cpp:137] Memory required for data: 488337408
I0726 09:51:09.351528 27891 layer_factory.hpp:77] Creating layer score63_slicer_conv_62_split
I0726 09:51:09.351536 27891 net.cpp:84] Creating Layer score63_slicer_conv_62_split
I0726 09:51:09.351541 27891 net.cpp:406] score63_slicer_conv_62_split <- score63
I0726 09:51:09.351547 27891 net.cpp:380] score63_slicer_conv_62_split -> score63_slicer_conv_62_split_0
I0726 09:51:09.351557 27891 net.cpp:380] score63_slicer_conv_62_split -> score63_slicer_conv_62_split_1
I0726 09:51:09.351600 27891 net.cpp:122] Setting up score63_slicer_conv_62_split
I0726 09:51:09.351608 27891 net.cpp:129] Top shape: 1 1 48 64 (3072)
I0726 09:51:09.351614 27891 net.cpp:129] Top shape: 1 1 48 64 (3072)
I0726 09:51:09.351619 27891 net.cpp:137] Memory required for data: 488361984
I0726 09:51:09.351624 27891 layer_factory.hpp:77] Creating layer score64_slicer_conv_63_split
I0726 09:51:09.351631 27891 net.cpp:84] Creating Layer score64_slicer_conv_63_split
I0726 09:51:09.351637 27891 net.cpp:406] score64_slicer_conv_63_split <- score64
I0726 09:51:09.351644 27891 net.cpp:380] score64_slicer_conv_63_split -> score64_slicer_conv_63_split_0
I0726 09:51:09.351651 27891 net.cpp:380] score64_slicer_conv_63_split -> score64_slicer_conv_63_split_1
I0726 09:51:09.351697 27891 net.cpp:122] Setting up score64_slicer_conv_63_split
I0726 09:51:09.351706 27891 net.cpp:129] Top shape: 1 1 48 64 (3072)
I0726 09:51:09.351711 27891 net.cpp:129] Top shape: 1 1 48 64 (3072)
I0726 09:51:09.351716 27891 net.cpp:137] Memory required for data: 488386560
I0726 09:51:09.351721 27891 layer_factory.hpp:77] Creating layer sumscore
I0726 09:51:09.351743 27891 net.cpp:84] Creating Layer sumscore
I0726 09:51:09.351749 27891 net.cpp:406] sumscore <- score1_slicer_conv_0_split_0
I0726 09:51:09.351757 27891 net.cpp:406] sumscore <- score2_slicer_conv_1_split_0
I0726 09:51:09.351763 27891 net.cpp:406] sumscore <- score3_slicer_conv_2_split_0
…
I0726 09:51:09.353195 27891 net.cpp:380] sumscore_sumscore_0_split -> sumscore_sumscore_0_split_59
I0726 09:51:09.353211 27891 net.cpp:380] sumscore_sumscore_0_split -> sumscore_sumscore_0_split_60
I0726 09:51:09.353227 27891 net.cpp:380] sumscore_sumscore_0_split -> sumscore_sumscore_0_split_61
I0726 09:51:09.353242 27891 net.cpp:380] sumscore_sumscore_0_split -> sumscore_sumscore_0_split_62
I0726 09:51:09.353258 27891 net.cpp:380] sumscore_sumscore_0_split -> sumscore_sumscore_0_split_63
I0726 09:51:09.354259 27891 net.cpp:122] Setting up sumscore_sumscore_0_split
I0726 09:51:09.354269 27891 net.cpp:129] Top shape: 1 1 48 64 (3072)
I0726 09:51:09.354277 27891 net.cpp:129] Top shape: 1 1 48 64 (3072)
I0726 09:51:09.354284 27891 net.cpp:129] Top shape: 1 1 48 64 (3072)
I0726 09:51:09.354290 27891 net.cpp:129] Top shape: 1 1 48 64 (3072)
I0726 09:51:09.354296 27891 net.cpp:129] Top shape: 1 1 48 64 (3072)
I0726 09:51:09.354302 27891 net.cpp:129] Top shape: 1 1 48 64 (3072)
I0726 09:51:09.354308 27891 net.cpp:129] Top shape: 1 1 48 64 (3072)
I0726 09:51:09.354315 27891 net.cpp:129] Top shape: 1 1 48 64 (3072)
I0726 09:51:09.354321 27891 net.cpp:129] Top shape: 1 1 48 64 (3072)
I0726 09:51:09.354327 27891 net.cpp:129] Top shape: 1 1 48 64 (3072)
I0726 09:51:09.354333 27891 net.cpp:129] Top shape: 1 1 48 64 (3072)
I0726 09:51:09.354339 27891 net.cpp:129] Top shape: 1 1 48 64 (3072)
I0726 09:51:09.354346 27891 net.cpp:129] Top shape: 1 1 48 64 (3072)
I0726 09:51:09.354352 27891 net.cpp:129] Top shape: 1 1 48 64 (3072)
I0726 09:51:09.354358 27891 net.cpp:129] Top shape: 1 1 48 64 (3072)
I0726 09:51:09.354365 27891 net.cpp:129] Top shape: 1 1 48 64 (3072)
I0726 09:51:09.354372 27891 net.cpp:129] Top shape: 1 1 48 64 (3072)
I0726 09:51:09.354377 27891 net.cpp:129] Top shape: 1 1 48 64 (3072)
I0726 09:51:09.354384 27891 net.cpp:129] Top shape: 1 1 48 64 (3072)
I0726 09:51:09.354390 27891 net.cpp:129] Top shape: 1 1 48 64 (3072)
I0726 09:51:09.354396 27891 net.cpp:129] Top shape: 1 1 48 64 (3072)
I0726 09:51:09.354403 27891 net.cpp:129] Top shape: 1 1 48 64 (3072)
I0726 09:51:09.354420 27891 net.cpp:129] Top shape: 1 1 48 64 (3072)
I0726 09:51:09.354427 27891 net.cpp:129] Top shape: 1 1 48 64 (3072)
I0726 09:51:09.354434 27891 net.cpp:129] Top shape: 1 1 48 64 (3072)
I0726 09:51:09.354440 27891 net.cpp:129] Top shape: 1 1 48 64 (3072)
I0726 09:51:09.354446 27891 net.cpp:129] Top shape: 1 1 48 64 (3072)
I0726 09:51:09.354452 27891 net.cpp:129] Top shape: 1 1 48 64 (3072)
I0726 09:51:09.354460 27891 net.cpp:129] Top shape: 1 1 48 64 (3072)
I0726 09:51:09.354465 27891 net.cpp:129] Top shape: 1 1 48 64 (3072)
I0726 09:51:09.354472 27891 net.cpp:129] Top shape: 1 1 48 64 (3072)
I0726 09:51:09.354478 27891 net.cpp:129] Top shape: 1 1 48 64 (3072)
I0726 09:51:09.354485 27891 net.cpp:129] Top shape: 1 1 48 64 (3072)
I0726 09:51:09.354490 27891 net.cpp:129] Top shape: 1 1 48 64 (3072)
I0726 09:51:09.354497 27891 net.cpp:129] Top shape: 1 1 48 64 (3072)
I0726 09:51:09.354503 27891 net.cpp:129] Top shape: 1 1 48 64 (3072)
I0726 09:51:09.354509 27891 net.cpp:129] Top shape: 1 1 48 64 (3072)
I0726 09:51:09.354516 27891 net.cpp:129] Top shape: 1 1 48 64 (3072)
I0726 09:51:09.354522 27891 net.cpp:129] Top shape: 1 1 48 64 (3072)
I0726 09:51:09.354528 27891 net.cpp:129] Top shape: 1 1 48 64 (3072)
I0726 09:51:09.354535 27891 net.cpp:129] Top shape: 1 1 48 64 (3072)
I0726 09:51:09.354542 27891 net.cpp:129] Top shape: 1 1 48 64 (3072)
I0726 09:51:09.354547 27891 net.cpp:129] Top shape: 1 1 48 64 (3072)
I0726 09:51:09.354554 27891 net.cpp:129] Top shape: 1 1 48 64 (3072)
I0726 09:51:09.354560 27891 net.cpp:129] Top shape: 1 1 48 64 (3072)
I0726 09:51:09.354567 27891 net.cpp:129] Top shape: 1 1 48 64 (3072)
I0726 09:51:09.354573 27891 net.cpp:129] Top shape: 1 1 48 64 (3072)
I0726 09:51:09.354579 27891 net.cpp:129] Top shape: 1 1 48 64 (3072)
I0726 09:51:09.354585 27891 net.cpp:129] Top shape: 1 1 48 64 (3072)
I0726 09:51:09.354591 27891 net.cpp:129] Top shape: 1 1 48 64 (3072)
I0726 09:51:09.354598 27891 net.cpp:129] Top shape: 1 1 48 64 (3072)
I0726 09:51:09.354604 27891 net.cpp:129] Top shape: 1 1 48 64 (3072)
I0726 09:51:09.354610 27891 net.cpp:129] Top shape: 1 1 48 64 (3072)
I0726 09:51:09.354616 27891 net.cpp:129] Top shape: 1 1 48 64 (3072)
I0726 09:51:09.354624 27891 net.cpp:129] Top shape: 1 1 48 64 (3072)
I0726 09:51:09.354629 27891 net.cpp:129] Top shape: 1 1 48 64 (3072)
I0726 09:51:09.354635 27891 net.cpp:129] Top shape: 1 1 48 64 (3072)
I0726 09:51:09.354642 27891 net.cpp:129] Top shape: 1 1 48 64 (3072)
I0726 09:51:09.354648 27891 net.cpp:129] Top shape: 1 1 48 64 (3072)
I0726 09:51:09.354655 27891 net.cpp:129] Top shape: 1 1 48 64 (3072)
I0726 09:51:09.354660 27891 net.cpp:129] Top shape: 1 1 48 64 (3072)
I0726 09:51:09.354667 27891 net.cpp:129] Top shape: 1 1 48 64 (3072)
I0726 09:51:09.354673 27891 net.cpp:129] Top shape: 1 1 48 64 (3072)
I0726 09:51:09.354679 27891 net.cpp:129] Top shape: 1 1 48 64 (3072)
I0726 09:51:09.354684 27891 net.cpp:137] Memory required for data: 489185280
I0726 09:51:09.354691 27891 layer_factory.hpp:77] Creating layer loss1
I0726 09:51:09.354701 27891 net.cpp:84] Creating Layer loss1
I0726 09:51:09.354707 27891 net.cpp:406] loss1 <- score1_slicer_conv_0_split_1
I0726 09:51:09.354714 27891 net.cpp:406] loss1 <- label_label_0_split_0
I0726 09:51:09.354722 27891 net.cpp:406] loss1 <- sumscore_sumscore_0_split_0
…
I0726 09:51:09.389328 27891 net.cpp:51] Initializing net from parameters: 
name: "crowd_counting"
state {
  phase: TEST
}
layer {
  name: "data"
  type: "Data"
  top: "data"
  include {
    phase: TEST
  }
  data_param {
    source: "/home/peiyong/Work/Zenglin/szl/ShanghaiTech/partA/test_8/image_lmdb"
    batch_size: 1
    backend: LMDB
  }
}
layer {
  name: "label"
  type: "Data"
  top: "label"
  include {
    phase: TEST
  }
  data_param {
    source: "/home/peiyong/Work/Zenglin/szl/ShanghaiTech/partA/test_8/dmap_lmdb"
    batch_size: 1
    backend: LMDB
  }
}
layer {
  name: "conv1_1"
  type: "Convolution"
  bottom: "data"
  top: "conv1_1"
  param {
    lr_mult: 0.1
    decay_mult: 1
  }
  param {
    lr_mult: 0.2
    decay_mult: 0
  }
  convolution_param {
    num_output: 64
    pad: 1
    kernel_size: 3
    weight_filler {
      type: "gaussian"
      std: 0.01
    }
    bias_filler {
      type: "constant"
      value: 0
    }
  }
}
layer {
  name: "relu1_1"
  type: "ReLU"
  bottom: "conv1_1"
  top: "conv1_1"
}
layer {
  name: "conv1_2"
  type: "Convolution"
  bottom: "conv1_1"
  top: "conv1_2"
  param {
    lr_mult: 0.1
    decay_mult: 1
  }
  param {
    lr_mult: 0.2
    decay_mult: 0
  }
  convolution_param {
    num_output: 64
    pad: 1
    kernel_size: 3
    weight_filler {
      type: "gaussian"
      std: 0.01
    }
    bias_filler {
      type: "constant"
      value: 0
    }
  }
}
layer {
  name: "relu1_2"
  type: "ReLU"
  bottom: "conv1_2"
  top: "conv1_2"
}
layer {
  name: "pool1"
  type: "Pooling"
  bottom: "conv1_2"
  top: "pool1"
  pooling_param {
    pool: MAX
    kernel_size: 2
    stride: 2
  }
}
layer {
  name: "conv2_1"
  type: "Convolution"
  bottom: "pool1"
  top: "conv2_1"
  param {
    lr_mult: 0.1
    decay_mult: 1
  }
  param {
    lr_mult: 0.2
    decay_mult: 0
  }
  convolution_param {
    num_output: 128
    pad: 1
    kernel_size: 3
    weight_filler {
      type: "gaussian"
      std: 0.01
    }
    bias_filler {
      type: "constant"
      value: 0
    }
  }
}
layer {
  name: "relu2_1"
  type: "ReLU"
  bottom: "conv2_1"
  top: "conv2_1"
}
layer {
  name: "conv2_2"
  type: "Convolution"
  bottom: "conv2_1"
  top: "conv2_2"
  param {
    lr_mult: 0.1
    decay_mult: 1
  }
  param {
    lr_mult: 0.2
    decay_mult: 0
  }
  convolution_param {
    num_output: 128
    pad: 1
    kernel_size: 3
    weight_filler {
      type: "gaussian"
      std: 0.01
    }
    bias_filler {
      type: "constant"
      value: 0
    }
  }
}
layer {
  name: "relu2_2"
  type: "ReLU"
  bottom: "conv2_2"
  top: "conv2_2"
}
layer {
  name: "pool2"
  type: "Pooling"
  bottom: "conv2_2"
  top: "pool2"
  pooling_param {
    pool: MAX
    kernel_size: 2
    stride: 2
  }
}
layer {
  name: "conv3_1"
  type: "Convolution"
  bottom: "pool2"
  top: "conv3_1"
  param {
    lr_mult: 0.1
    decay_mult: 1
  }
  param {
    lr_mult: 0.2
    decay_mult: 0
  }
  convolution_param {
    num_output: 256
    pad: 1
    kernel_size: 3
    weight_filler {
      type: "gaussian"
      std: 0.01
    }
    bias_filler {
      type: "constant"
      value: 0
    }
  }
}
layer {
  name: "relu3_1"
  type: "ReLU"
  bottom: "conv3_1"
  top: "conv3_1"
}
layer {
  name: "conv3_2"
  type: "Convolution"
  bottom: "conv3_1"
  top: "conv3_2"
  param {
    lr_mult: 0.1
    decay_mult: 1
  }
  param {
    lr_mult: 0.2
    decay_mult: 0
  }
  convolution_param {
    num_output: 256
    pad: 1
    kernel_size: 3
    weight_filler {
      type: "gaussian"
      std: 0.01
    }
    bias_filler {
      type: "constant"
      value: 0
    }
  }
}
layer {
  name: "relu3_2"
  type: "ReLU"
  bottom: "conv3_2"
  top: "conv3_2"
}
layer {
  name: "conv3_3"
  type: "Convolution"
  bottom: "conv3_2"
  top: "conv3_3"
  param {
    lr_mult: 0.1
    decay_mult: 1
  }
  param {
    lr_mult: 0.2
    decay_mult: 0
  }
  convolution_param {
    num_output: 256
    pad: 1
    kernel_size: 3
    weight_filler {
      type: "gaussian"
      std: 0.01
    }
    bias_filler {
      type: "constant"
      value: 0
    }
  }
}
layer {
  name: "relu3_3"
  type: "ReLU"
  bottom: "conv3_3"
  top: "conv3_3"
}
layer {
  name: "pool3"
  type: "Pooling"
  bottom: "conv3_3"
  top: "pool3"
  pooling_param {
    pool: MAX
    kernel_size: 2
    stride: 2
  }
}
layer {
  name: "conv4_1"
  type: "Convolution"
  bottom: "pool3"
  top: "conv4_1"
  param {
    lr_mult: 0.1
    decay_mult: 1
  }
  param {
    lr_mult: 0.2
    decay_mult: 0
  }
  convolution_param {
    num_output: 512
    pad: 1
    kernel_size: 3
    weight_filler {
      type: "gaussian"
      std: 0.01
    }
    bias_filler {
      type: "constant"
      value: 0
    }
  }
}
layer {
  name: "relu4_1"
  type: "ReLU"
  bottom: "conv4_1"
  top: "conv4_1"
}
layer {
  name: "conv4_2"
  type: "Convolution"
  bottom: "conv4_1"
  top: "conv4_2"
  param {
    lr_mult: 0.1
    decay_mult: 1
  }
  param {
    lr_mult: 0.2
    decay_mult: 0
  }
  convolution_param {
    num_output: 512
    pad: 1
    kernel_size: 3
    weight_filler {
      type: "gaussian"
      std: 0.01
    }
    bias_filler {
      type: "constant"
      value: 0
    }
  }
}
layer {
  name: "relu4_2"
  type: "ReLU"
  bottom: "conv4_2"
  top: "conv4_2"
}
layer {
  name: "conv4_3"
  type: "Convolution"
  bottom: "conv4_2"
  top: "conv4_3"
  param {
    lr_mult: 0.1
    decay_mult: 1
  }
  param {
    lr_mult: 0.2
    decay_mult: 0
  }
  convolution_param {
    num_output: 512
    pad: 1
    kernel_size: 3
    weight_filler {
      type: "gaussian"
      std: 0.01
    }
    bias_filler {
      type: "constant"
      value: 0
    }
  }
}
layer {
  name: "relu4_3"
  type: "ReLU"
  bottom: "conv4_3"
  top: "conv4_3"
}
layer {
  name: "pool4"
  type: "Pooling"
  bottom: "conv4_3"
  top: "pool4"
  pooling_param {
    pool: MAX
    kernel_size: 3
    stride: 1
    pad: 1
  }
}
layer {
  name: "conv5_1"
  type: "Convolution"
  bottom: "pool4"
  top: "conv5_1"
  param {
    lr_mult: 0.1
    decay_mult: 1
  }
  param {
    lr_mult: 0.2
    decay_mult: 0
  }
  convolution_param {
    num_output: 512
    pad: 2
    kernel_size: 3
    weight_filler {
      type: "gaussian"
      std: 0.01
    }
    bias_filler {
      type: "constant"
      value: 0
    }
    dilation: 2
  }
}
layer {
  name: "relu5_1"
  type: "ReLU"
  bottom: "conv5_1"
  top: "conv5_1"
}
layer {
  name: "conv5_2"
  type: "Convolution"
  bottom: "conv5_1"
  top: "conv5_2"
  param {
    lr_mult: 0.1
    decay_mult: 1
  }
  param {
    lr_mult: 0.2
    decay_mult: 0
  }
  convolution_param {
    num_output: 512
    pad: 2
    kernel_size: 3
    weight_filler {
      type: "gaussian"
      std: 0.01
    }
    bias_filler {
      type: "constant"
      value: 0
    }
    dilation: 2
  }
}
layer {
  name: "relu5_2"
  type: "ReLU"
  bottom: "conv5_2"
  top: "conv5_2"
}
layer {
  name: "conv5_3"
  type: "Convolution"
  bottom: "conv5_2"
  top: "conv5_3"
  param {
    lr_mult: 0.1
    decay_mult: 1
  }
  param {
    lr_mult: 0.2
    decay_mult: 0
  }
  convolution_param {
    num_output: 512
    pad: 2
    kernel_size: 3
    weight_filler {
      type: "gaussian"
      std: 0.01
    }
    bias_filler {
      type: "constant"
      value: 0
    }
    dilation: 2
  }
}
layer {
  name: "relu5_3"
  type: "ReLU"
  bottom: "conv5_3"
  top: "conv5_3"
}
layer {
  name: "conv_score"
  type: "Convolution"
  bottom: "conv5_3"
  top: "conv_score"
  param {
    lr_mult: 10
    decay_mult: 1
  }
  param {
    lr_mult: 20
    decay_mult: 0
  }
  convolution_param {
    num_output: 64
    pad: 0
    kernel_size: 1
    group: 64
    stride: 1
    weight_filler {
      type: "constant"
      value: 0.0001
    }
    bias_filler {
      type: "constant"
      value: 0
    }
  }
}
layer {
  name: "relu_score"
  type: "ReLU"
  bottom: "conv_score"
  top: "conv_score"
}
layer {
  name: "slicer_conv"
  type: "Slice"
  bottom: "conv_score"
  top: "score1"
  top: "score2"
  top: "score3"
  top: "score4"
  top: "score5"
  top: "score6"
  top: "score7"
  top: "score8"
  top: "score9"
  top: "score10"
  top: "score11"
  top: "score12"
  top: "score13"
  top: "score14"
  top: "score15"
  top: "score16"
  top: "score17"
  top: "score18"
  top: "score19"
  top: "score20"
  top: "score21"
  top: "score22"
  top: "score23"
  top: "score24"
  top: "score25"
  top: "score26"
  top: "score27"
  top: "score28"
  top: "score29"
  top: "score30"
  top: "score31"
  top: "score32"
  top: "score33"
  top: "score34"
  top: "score35"
  top: "score36"
  top: "score37"
  top: "score38"
  top: "score39"
  top: "score40"
  top: "score41"
  top: "score42"
  top: "score43"
  top: "score44"
  top: "score45"
  top: "score46"
  top: "score47"
  top: "score48"
  top: "score49"
  top: "score50"
  top: "score51"
  top: "score52"
  top: "score53"
  top: "score54"
  top: "score55"
  top: "score56"
  top: "score57"
  top: "score58"
  top: "score59"
  top: "score60"
  top: "score61"
  top: "score62"
  top: "score63"
  top: "score64"
  slice_param {
    axis: 1
  }
}
layer {
  name: "sumscore"
  type: "Eltwise"
  bottom: "score1"
  bottom: "score2"
  bottom: "score3"
  bottom: "score4"
  bottom: "score5"
  bottom: "score6"
  bottom: "score7"
  bottom: "score8"
  bottom: "score9"
  bottom: "score10"
  bottom: "score11"
  bottom: "score12"
  bottom: "score13"
  bottom: "score14"
  bottom: "score15"
  bottom: "score16"
  bottom: "score17"
  bottom: "score18"
  bottom: "score19"
  bottom: "score20"
  bottom: "score21"
  bottom: "score22"
  bottom: "score23"
  bottom: "score24"
  bottom: "score25"
  bottom: "score26"
  bottom: "score27"
  bottom: "score28"
  bottom: "score29"
  bottom: "score30"
  bottom: "score31"
  bottom: "score32"
  bottom: "score33"
  bottom: "score34"
  bottom: "score35"
  bottom: "score36"
  bottom: "score37"
  bottom: "score38"
  bottom: "score39"
  bottom: "score40"
  bottom: "score41"
  bottom: "score42"
  bottom: "score43"
  bottom: "score44"
  bottom: "score45"
  bottom: "score46"
  bottom: "score47"
  bottom: "score48"
  bottom: "score49"
  bottom: "score50"
  bottom: "score51"
  bottom: "score52"
  bottom: "score53"
  bottom: "score54"
  bottom: "score55"
  bottom: "score56"
  bottom: "score57"
  bottom: "score58"
  bottom: "score59"
  bottom: "score60"
  bottom: "score61"
  bottom: "score62"
  bottom: "score63"
  bottom: "score64"
  top: "sumscore"
  eltwise_param {
    operation: SUM
  }
}
layer {
  name: "avgscore"
  type: "Power"
  bottom: "sumscore"
  top: "avgscore"
  include {
    phase: TEST
  }
  power_param {
    power: 1
    scale: 0.015625
    shift: 0
  }
}
layer {
  name: "mae"
  type: "MAELoss"
  bottom: "avgscore"
  bottom: "label"
  top: "mae"
  include {
    phase: TEST
  }
}
layer {
  name: "mse"
  type: "MSELoss"
  bottom: "avgscore"
  bottom: "label"
  top: "mse"
  include {
    phase: TEST
  }
}
I0726 09:51:09.390111 27891 layer_factory.hpp:77] Creating layer data
I0726 09:51:09.390313 27891 db_lmdb.cpp:35] Opened lmdb /home/peiyong/Work/Zenglin/szl/ShanghaiTech/partA/test_8/image_lmdb
I0726 09:51:09.390353 27891 net.cpp:84] Creating Layer data
I0726 09:51:09.390363 27891 net.cpp:380] data -> data
I0726 09:51:09.392323 27891 data_layer.cpp:45] output data size: 1,3,704,1024
I0726 09:51:09.408244 27891 net.cpp:122] Setting up data
I0726 09:51:09.408274 27891 net.cpp:129] Top shape: 1 3 704 1024 (2162688)
I0726 09:51:09.408278 27891 net.cpp:137] Memory required for data: 8650752
I0726 09:51:09.408284 27891 layer_factory.hpp:77] Creating layer label
I0726 09:51:09.408555 27891 db_lmdb.cpp:35] Opened lmdb /home/peiyong/Work/Zenglin/szl/ShanghaiTech/partA/test_8/dmap_lmdb
I0726 09:51:09.408584 27891 net.cpp:84] Creating Layer label
I0726 09:51:09.408591 27891 net.cpp:380] label -> label
I0726 09:51:09.408764 27891 data_layer.cpp:45] output data size: 1,1,88,128
I0726 09:51:09.408910 27891 net.cpp:122] Setting up label
I0726 09:51:09.408921 27891 net.cpp:129] Top shape: 1 1 88 128 (11264)
I0726 09:51:09.408924 27891 net.cpp:137] Memory required for data: 8695808
I0726 09:51:09.408929 27891 layer_factory.hpp:77] Creating layer label_label_0_split
I0726 09:51:09.408936 27891 net.cpp:84] Creating Layer label_label_0_split
I0726 09:51:09.408941 27891 net.cpp:406] label_label_0_split <- label
I0726 09:51:09.408946 27891 net.cpp:380] label_label_0_split -> label_label_0_split_0
I0726 09:51:09.408953 27891 net.cpp:380] label_label_0_split -> label_label_0_split_1
I0726 09:51:09.409031 27891 net.cpp:122] Setting up label_label_0_split
I0726 09:51:09.409039 27891 net.cpp:129] Top shape: 1 1 88 128 (11264)
I0726 09:51:09.409044 27891 net.cpp:129] Top shape: 1 1 88 128 (11264)
I0726 09:51:09.409046 27891 net.cpp:137] Memory required for data: 8785920
I0726 09:51:09.409049 27891 layer_factory.hpp:77] Creating layer conv1_1
I0726 09:51:09.409061 27891 net.cpp:84] Creating Layer conv1_1
I0726 09:51:09.409065 27891 net.cpp:406] conv1_1 <- data
I0726 09:51:09.409071 27891 net.cpp:380] conv1_1 -> conv1_1
I0726 09:51:09.413002 27891 net.cpp:122] Setting up conv1_1
I0726 09:51:09.413022 27891 net.cpp:129] Top shape: 1 64 704 1024 (46137344)
I0726 09:51:09.413028 27891 net.cpp:137] Memory required for data: 193335296
I0726 09:51:09.413038 27891 layer_factory.hpp:77] Creating layer relu1_1
I0726 09:51:09.413048 27891 net.cpp:84] Creating Layer relu1_1
I0726 09:51:09.413053 27891 net.cpp:406] relu1_1 <- conv1_1
I0726 09:51:09.413058 27891 net.cpp:367] relu1_1 -> conv1_1 (in-place)
I0726 09:51:09.413636 27891 net.cpp:122] Setting up relu1_1
I0726 09:51:09.413648 27891 net.cpp:129] Top shape: 1 64 704 1024 (46137344)
I0726 09:51:09.413652 27891 net.cpp:137] Memory required for data: 377884672
I0726 09:51:09.413655 27891 layer_factory.hpp:77] Creating layer conv1_2
I0726 09:51:09.413667 27891 net.cpp:84] Creating Layer conv1_2
I0726 09:51:09.413671 27891 net.cpp:406] conv1_2 <- conv1_1
I0726 09:51:09.413677 27891 net.cpp:380] conv1_2 -> conv1_2
I0726 09:51:09.417376 27891 net.cpp:122] Setting up conv1_2
I0726 09:51:09.417394 27891 net.cpp:129] Top shape: 1 64 704 1024 (46137344)
I0726 09:51:09.417398 27891 net.cpp:137] Memory required for data: 562434048
I0726 09:51:09.417408 27891 layer_factory.hpp:77] Creating layer relu1_2
I0726 09:51:09.417415 27891 net.cpp:84] Creating Layer relu1_2
I0726 09:51:09.417420 27891 net.cpp:406] relu1_2 <- conv1_2
I0726 09:51:09.417426 27891 net.cpp:367] relu1_2 -> conv1_2 (in-place)
I0726 09:51:09.418261 27891 net.cpp:122] Setting up relu1_2
I0726 09:51:09.418272 27891 net.cpp:129] Top shape: 1 64 704 1024 (46137344)
I0726 09:51:09.418274 27891 net.cpp:137] Memory required for data: 746983424
I0726 09:51:09.418278 27891 layer_factory.hpp:77] Creating layer pool1
I0726 09:51:09.418284 27891 net.cpp:84] Creating Layer pool1
I0726 09:51:09.418287 27891 net.cpp:406] pool1 <- conv1_2
I0726 09:51:09.418293 27891 net.cpp:380] pool1 -> pool1
I0726 09:51:09.418350 27891 net.cpp:122] Setting up pool1
I0726 09:51:09.418357 27891 net.cpp:129] Top shape: 1 64 352 512 (11534336)
I0726 09:51:09.418360 27891 net.cpp:137] Memory required for data: 793120768
I0726 09:51:09.418364 27891 layer_factory.hpp:77] Creating layer conv2_1
I0726 09:51:09.418375 27891 net.cpp:84] Creating Layer conv2_1
I0726 09:51:09.418378 27891 net.cpp:406] conv2_1 <- pool1
I0726 09:51:09.418383 27891 net.cpp:380] conv2_1 -> conv2_1
I0726 09:51:09.421339 27891 net.cpp:122] Setting up conv2_1
I0726 09:51:09.421365 27891 net.cpp:129] Top shape: 1 128 352 512 (23068672)
I0726 09:51:09.421368 27891 net.cpp:137] Memory required for data: 885395456
I0726 09:51:09.421380 27891 layer_factory.hpp:77] Creating layer relu2_1
I0726 09:51:09.421386 27891 net.cpp:84] Creating Layer relu2_1
I0726 09:51:09.421391 27891 net.cpp:406] relu2_1 <- conv2_1
I0726 09:51:09.421396 27891 net.cpp:367] relu2_1 -> conv2_1 (in-place)
I0726 09:51:09.421964 27891 net.cpp:122] Setting up relu2_1
I0726 09:51:09.422010 27891 net.cpp:129] Top shape: 1 128 352 512 (23068672)
I0726 09:51:09.422014 27891 net.cpp:137] Memory required for data: 977670144
I0726 09:51:09.422019 27891 layer_factory.hpp:77] Creating layer conv2_2
I0726 09:51:09.422029 27891 net.cpp:84] Creating Layer conv2_2
I0726 09:51:09.422032 27891 net.cpp:406] conv2_2 <- conv2_1
I0726 09:51:09.422039 27891 net.cpp:380] conv2_2 -> conv2_2
I0726 09:51:09.425825 27891 net.cpp:122] Setting up conv2_2
I0726 09:51:09.425843 27891 net.cpp:129] Top shape: 1 128 352 512 (23068672)
I0726 09:51:09.425848 27891 net.cpp:137] Memory required for data: 1069944832
I0726 09:51:09.425854 27891 layer_factory.hpp:77] Creating layer relu2_2
I0726 09:51:09.425861 27891 net.cpp:84] Creating Layer relu2_2
I0726 09:51:09.425865 27891 net.cpp:406] relu2_2 <- conv2_2
I0726 09:51:09.425871 27891 net.cpp:367] relu2_2 -> conv2_2 (in-place)
I0726 09:51:09.427155 27891 net.cpp:122] Setting up relu2_2
I0726 09:51:09.427170 27891 net.cpp:129] Top shape: 1 128 352 512 (23068672)
I0726 09:51:09.427173 27891 net.cpp:137] Memory required for data: 1162219520
I0726 09:51:09.427176 27891 layer_factory.hpp:77] Creating layer pool2
I0726 09:51:09.427184 27891 net.cpp:84] Creating Layer pool2
I0726 09:51:09.427188 27891 net.cpp:406] pool2 <- conv2_2
I0726 09:51:09.427194 27891 net.cpp:380] pool2 -> pool2
I0726 09:51:09.427254 27891 net.cpp:122] Setting up pool2
I0726 09:51:09.427261 27891 net.cpp:129] Top shape: 1 128 176 256 (5767168)
I0726 09:51:09.427265 27891 net.cpp:137] Memory required for data: 1185288192
I0726 09:51:09.427268 27891 layer_factory.hpp:77] Creating layer conv3_1
I0726 09:51:09.427278 27891 net.cpp:84] Creating Layer conv3_1
I0726 09:51:09.427283 27891 net.cpp:406] conv3_1 <- pool2
I0726 09:51:09.427287 27891 net.cpp:380] conv3_1 -> conv3_1
I0726 09:51:09.431900 27891 net.cpp:122] Setting up conv3_1
I0726 09:51:09.431912 27891 net.cpp:129] Top shape: 1 256 176 256 (11534336)
I0726 09:51:09.431916 27891 net.cpp:137] Memory required for data: 1231425536
I0726 09:51:09.431926 27891 layer_factory.hpp:77] Creating layer relu3_1
I0726 09:51:09.431931 27891 net.cpp:84] Creating Layer relu3_1
I0726 09:51:09.431936 27891 net.cpp:406] relu3_1 <- conv3_1
I0726 09:51:09.431941 27891 net.cpp:367] relu3_1 -> conv3_1 (in-place)
I0726 09:51:09.432101 27891 net.cpp:122] Setting up relu3_1
I0726 09:51:09.432109 27891 net.cpp:129] Top shape: 1 256 176 256 (11534336)
I0726 09:51:09.432112 27891 net.cpp:137] Memory required for data: 1277562880
I0726 09:51:09.432116 27891 layer_factory.hpp:77] Creating layer conv3_2
I0726 09:51:09.432124 27891 net.cpp:84] Creating Layer conv3_2
I0726 09:51:09.432128 27891 net.cpp:406] conv3_2 <- conv3_1
I0726 09:51:09.432133 27891 net.cpp:380] conv3_2 -> conv3_2
I0726 09:51:09.439252 27891 net.cpp:122] Setting up conv3_2
I0726 09:51:09.439268 27891 net.cpp:129] Top shape: 1 256 176 256 (11534336)
I0726 09:51:09.439271 27891 net.cpp:137] Memory required for data: 1323700224
I0726 09:51:09.439277 27891 layer_factory.hpp:77] Creating layer relu3_2
I0726 09:51:09.439285 27891 net.cpp:84] Creating Layer relu3_2
I0726 09:51:09.439288 27891 net.cpp:406] relu3_2 <- conv3_2
I0726 09:51:09.439294 27891 net.cpp:367] relu3_2 -> conv3_2 (in-place)
I0726 09:51:09.439836 27891 net.cpp:122] Setting up relu3_2
I0726 09:51:09.439847 27891 net.cpp:129] Top shape: 1 256 176 256 (11534336)
I0726 09:51:09.439851 27891 net.cpp:137] Memory required for data: 1369837568
I0726 09:51:09.439855 27891 layer_factory.hpp:77] Creating layer conv3_3
I0726 09:51:09.439864 27891 net.cpp:84] Creating Layer conv3_3
I0726 09:51:09.439868 27891 net.cpp:406] conv3_3 <- conv3_2
I0726 09:51:09.439874 27891 net.cpp:380] conv3_3 -> conv3_3
I0726 09:51:09.446880 27891 net.cpp:122] Setting up conv3_3
I0726 09:51:09.446893 27891 net.cpp:129] Top shape: 1 256 176 256 (11534336)
I0726 09:51:09.446897 27891 net.cpp:137] Memory required for data: 1415974912
I0726 09:51:09.446903 27891 layer_factory.hpp:77] Creating layer relu3_3
I0726 09:51:09.446909 27891 net.cpp:84] Creating Layer relu3_3
I0726 09:51:09.446935 27891 net.cpp:406] relu3_3 <- conv3_3
I0726 09:51:09.446940 27891 net.cpp:367] relu3_3 -> conv3_3 (in-place)
I0726 09:51:09.447485 27891 net.cpp:122] Setting up relu3_3
I0726 09:51:09.447496 27891 net.cpp:129] Top shape: 1 256 176 256 (11534336)
I0726 09:51:09.447499 27891 net.cpp:137] Memory required for data: 1462112256
I0726 09:51:09.447502 27891 layer_factory.hpp:77] Creating layer pool3
I0726 09:51:09.447507 27891 net.cpp:84] Creating Layer pool3
I0726 09:51:09.447511 27891 net.cpp:406] pool3 <- conv3_3
I0726 09:51:09.447516 27891 net.cpp:380] pool3 -> pool3
I0726 09:51:09.447571 27891 net.cpp:122] Setting up pool3
I0726 09:51:09.447577 27891 net.cpp:129] Top shape: 1 256 88 128 (2883584)
I0726 09:51:09.447580 27891 net.cpp:137] Memory required for data: 1473646592
I0726 09:51:09.447583 27891 layer_factory.hpp:77] Creating layer conv4_1
I0726 09:51:09.447592 27891 net.cpp:84] Creating Layer conv4_1
I0726 09:51:09.447595 27891 net.cpp:406] conv4_1 <- pool3
I0726 09:51:09.447602 27891 net.cpp:380] conv4_1 -> conv4_1
I0726 09:51:09.459626 27891 net.cpp:122] Setting up conv4_1
I0726 09:51:09.459642 27891 net.cpp:129] Top shape: 1 512 88 128 (5767168)
I0726 09:51:09.459645 27891 net.cpp:137] Memory required for data: 1496715264
I0726 09:51:09.459651 27891 layer_factory.hpp:77] Creating layer relu4_1
I0726 09:51:09.459657 27891 net.cpp:84] Creating Layer relu4_1
I0726 09:51:09.459661 27891 net.cpp:406] relu4_1 <- conv4_1
I0726 09:51:09.459666 27891 net.cpp:367] relu4_1 -> conv4_1 (in-place)
I0726 09:51:09.459831 27891 net.cpp:122] Setting up relu4_1
I0726 09:51:09.459841 27891 net.cpp:129] Top shape: 1 512 88 128 (5767168)
I0726 09:51:09.459843 27891 net.cpp:137] Memory required for data: 1519783936
I0726 09:51:09.459847 27891 layer_factory.hpp:77] Creating layer conv4_2
I0726 09:51:09.459856 27891 net.cpp:84] Creating Layer conv4_2
I0726 09:51:09.459859 27891 net.cpp:406] conv4_2 <- conv4_1
I0726 09:51:09.459866 27891 net.cpp:380] conv4_2 -> conv4_2
I0726 09:51:09.482276 27891 net.cpp:122] Setting up conv4_2
I0726 09:51:09.482302 27891 net.cpp:129] Top shape: 1 512 88 128 (5767168)
I0726 09:51:09.482306 27891 net.cpp:137] Memory required for data: 1542852608
I0726 09:51:09.482316 27891 layer_factory.hpp:77] Creating layer relu4_2
I0726 09:51:09.482326 27891 net.cpp:84] Creating Layer relu4_2
I0726 09:51:09.482331 27891 net.cpp:406] relu4_2 <- conv4_2
I0726 09:51:09.482336 27891 net.cpp:367] relu4_2 -> conv4_2 (in-place)
I0726 09:51:09.482892 27891 net.cpp:122] Setting up relu4_2
I0726 09:51:09.482903 27891 net.cpp:129] Top shape: 1 512 88 128 (5767168)
I0726 09:51:09.482904 27891 net.cpp:137] Memory required for data: 1565921280
I0726 09:51:09.482908 27891 layer_factory.hpp:77] Creating layer conv4_3
I0726 09:51:09.482915 27891 net.cpp:84] Creating Layer conv4_3
I0726 09:51:09.482920 27891 net.cpp:406] conv4_3 <- conv4_2
I0726 09:51:09.482926 27891 net.cpp:380] conv4_3 -> conv4_3
I0726 09:51:09.508502 27891 net.cpp:122] Setting up conv4_3
I0726 09:51:09.508527 27891 net.cpp:129] Top shape: 1 512 88 128 (5767168)
I0726 09:51:09.508532 27891 net.cpp:137] Memory required for data: 1588989952
I0726 09:51:09.508540 27891 layer_factory.hpp:77] Creating layer relu4_3
I0726 09:51:09.508549 27891 net.cpp:84] Creating Layer relu4_3
I0726 09:51:09.508553 27891 net.cpp:406] relu4_3 <- conv4_3
I0726 09:51:09.508559 27891 net.cpp:367] relu4_3 -> conv4_3 (in-place)
I0726 09:51:09.509112 27891 net.cpp:122] Setting up relu4_3
I0726 09:51:09.509124 27891 net.cpp:129] Top shape: 1 512 88 128 (5767168)
I0726 09:51:09.509127 27891 net.cpp:137] Memory required for data: 1612058624
I0726 09:51:09.509131 27891 layer_factory.hpp:77] Creating layer pool4
I0726 09:51:09.509138 27891 net.cpp:84] Creating Layer pool4
I0726 09:51:09.509142 27891 net.cpp:406] pool4 <- conv4_3
I0726 09:51:09.509147 27891 net.cpp:380] pool4 -> pool4
I0726 09:51:09.509204 27891 net.cpp:122] Setting up pool4
I0726 09:51:09.509212 27891 net.cpp:129] Top shape: 1 512 88 128 (5767168)
I0726 09:51:09.509214 27891 net.cpp:137] Memory required for data: 1635127296
I0726 09:51:09.509250 27891 layer_factory.hpp:77] Creating layer conv5_1
I0726 09:51:09.509261 27891 net.cpp:84] Creating Layer conv5_1
I0726 09:51:09.509264 27891 net.cpp:406] conv5_1 <- pool4
I0726 09:51:09.509270 27891 net.cpp:380] conv5_1 -> conv5_1
I0726 09:51:09.535538 27891 net.cpp:122] Setting up conv5_1
I0726 09:51:09.535568 27891 net.cpp:129] Top shape: 1 512 88 128 (5767168)
I0726 09:51:09.535574 27891 net.cpp:137] Memory required for data: 1658195968
I0726 09:51:09.535586 27891 layer_factory.hpp:77] Creating layer relu5_1
I0726 09:51:09.535598 27891 net.cpp:84] Creating Layer relu5_1
I0726 09:51:09.535606 27891 net.cpp:406] relu5_1 <- conv5_1
I0726 09:51:09.535617 27891 net.cpp:367] relu5_1 -> conv5_1 (in-place)
I0726 09:51:09.535871 27891 net.cpp:122] Setting up relu5_1
I0726 09:51:09.535883 27891 net.cpp:129] Top shape: 1 512 88 128 (5767168)
I0726 09:51:09.535889 27891 net.cpp:137] Memory required for data: 1681264640
I0726 09:51:09.535895 27891 layer_factory.hpp:77] Creating layer conv5_2
I0726 09:51:09.535909 27891 net.cpp:84] Creating Layer conv5_2
I0726 09:51:09.535917 27891 net.cpp:406] conv5_2 <- conv5_1
I0726 09:51:09.535928 27891 net.cpp:380] conv5_2 -> conv5_2
I0726 09:51:09.564518 27891 net.cpp:122] Setting up conv5_2
I0726 09:51:09.564553 27891 net.cpp:129] Top shape: 1 512 88 128 (5767168)
I0726 09:51:09.564560 27891 net.cpp:137] Memory required for data: 1704333312
I0726 09:51:09.564573 27891 layer_factory.hpp:77] Creating layer relu5_2
I0726 09:51:09.564584 27891 net.cpp:84] Creating Layer relu5_2
I0726 09:51:09.564591 27891 net.cpp:406] relu5_2 <- conv5_2
I0726 09:51:09.564600 27891 net.cpp:367] relu5_2 -> conv5_2 (in-place)
I0726 09:51:09.565446 27891 net.cpp:122] Setting up relu5_2
I0726 09:51:09.565462 27891 net.cpp:129] Top shape: 1 512 88 128 (5767168)
I0726 09:51:09.565467 27891 net.cpp:137] Memory required for data: 1727401984
I0726 09:51:09.565474 27891 layer_factory.hpp:77] Creating layer conv5_3
I0726 09:51:09.565487 27891 net.cpp:84] Creating Layer conv5_3
I0726 09:51:09.565493 27891 net.cpp:406] conv5_3 <- conv5_2
I0726 09:51:09.565502 27891 net.cpp:380] conv5_3 -> conv5_3
I0726 09:51:09.594480 27891 net.cpp:122] Setting up conv5_3
I0726 09:51:09.594513 27891 net.cpp:129] Top shape: 1 512 88 128 (5767168)
I0726 09:51:09.594519 27891 net.cpp:137] Memory required for data: 1750470656
I0726 09:51:09.594530 27891 layer_factory.hpp:77] Creating layer relu5_3
I0726 09:51:09.594547 27891 net.cpp:84] Creating Layer relu5_3
I0726 09:51:09.594552 27891 net.cpp:406] relu5_3 <- conv5_3
I0726 09:51:09.594561 27891 net.cpp:367] relu5_3 -> conv5_3 (in-place)
I0726 09:51:09.594823 27891 net.cpp:122] Setting up relu5_3
I0726 09:51:09.594836 27891 net.cpp:129] Top shape: 1 512 88 128 (5767168)
I0726 09:51:09.594841 27891 net.cpp:137] Memory required for data: 1773539328
I0726 09:51:09.594846 27891 layer_factory.hpp:77] Creating layer conv_score
I0726 09:51:09.594861 27891 net.cpp:84] Creating Layer conv_score
I0726 09:51:09.594866 27891 net.cpp:406] conv_score <- conv5_3
I0726 09:51:09.594874 27891 net.cpp:380] conv_score -> conv_score
I0726 09:51:09.680233 27891 net.cpp:122] Setting up conv_score
I0726 09:51:09.680260 27891 net.cpp:129] Top shape: 1 64 88 128 (720896)
I0726 09:51:09.680266 27891 net.cpp:137] Memory required for data: 1776422912
I0726 09:51:09.680279 27891 layer_factory.hpp:77] Creating layer relu_score
I0726 09:51:09.680292 27891 net.cpp:84] Creating Layer relu_score
I0726 09:51:09.680299 27891 net.cpp:406] relu_score <- conv_score
I0726 09:51:09.680306 27891 net.cpp:367] relu_score -> conv_score (in-place)
I0726 09:51:09.680496 27891 net.cpp:122] Setting up relu_score
I0726 09:51:09.680506 27891 net.cpp:129] Top shape: 1 64 88 128 (720896)
I0726 09:51:09.680511 27891 net.cpp:137] Memory required for data: 1779306496
I0726 09:51:09.680517 27891 layer_factory.hpp:77] Creating layer slicer_conv
I0726 09:51:09.680533 27891 net.cpp:84] Creating Layer slicer_conv
I0726 09:51:09.680537 27891 net.cpp:406] slicer_conv <- conv_score
I0726 09:51:09.680550 27891 net.cpp:380] slicer_conv -> score1
I0726 09:51:09.680591 27891 net.cpp:380] slicer_conv -> score2
…
I0726 09:51:09.681376 27891 net.cpp:380] slicer_conv -> score57
I0726 09:51:09.681391 27891 net.cpp:380] slicer_conv -> score58
I0726 09:51:09.681404 27891 net.cpp:380] slicer_conv -> score59
I0726 09:51:09.681417 27891 net.cpp:380] slicer_conv -> score60
I0726 09:51:09.681433 27891 net.cpp:380] slicer_conv -> score61
I0726 09:51:09.681447 27891 net.cpp:380] slicer_conv -> score62
I0726 09:51:09.681462 27891 net.cpp:380] slicer_conv -> score63
I0726 09:51:09.681474 27891 net.cpp:380] slicer_conv -> score64
I0726 09:51:09.682940 27891 net.cpp:122] Setting up slicer_conv
I0726 09:51:09.682982 27891 net.cpp:129] Top shape: 1 1 88 128 (11264)
I0726 09:51:09.682992 27891 net.cpp:129] Top shape: 1 1 88 128 (11264)
I0726 09:51:09.682999 27891 net.cpp:129] Top shape: 1 1 88 128 (11264)
I0726 09:51:09.683006 27891 net.cpp:129] Top shape: 1 1 88 128 (11264)
I0726 09:51:09.683012 27891 net.cpp:129] Top shape: 1 1 88 128 (11264)
I0726 09:51:09.683018 27891 net.cpp:129] Top shape: 1 1 88 128 (11264)
I0726 09:51:09.683024 27891 net.cpp:129] Top shape: 1 1 88 128 (11264)
I0726 09:51:09.683030 27891 net.cpp:129] Top shape: 1 1 88 128 (11264)
I0726 09:51:09.683037 27891 net.cpp:129] Top shape: 1 1 88 128 (11264)
I0726 09:51:09.683043 27891 net.cpp:129] Top shape: 1 1 88 128 (11264)
I0726 09:51:09.683050 27891 net.cpp:129] Top shape: 1 1 88 128 (11264)
I0726 09:51:09.683056 27891 net.cpp:129] Top shape: 1 1 88 128 (11264)
I0726 09:51:09.683063 27891 net.cpp:129] Top shape: 1 1 88 128 (11264)
I0726 09:51:09.683069 27891 net.cpp:129] Top shape: 1 1 88 128 (11264)
I0726 09:51:09.683075 27891 net.cpp:129] Top shape: 1 1 88 128 (11264)
I0726 09:51:09.683081 27891 net.cpp:129] Top shape: 1 1 88 128 (11264)
I0726 09:51:09.683087 27891 net.cpp:129] Top shape: 1 1 88 128 (11264)
I0726 09:51:09.683094 27891 net.cpp:129] Top shape: 1 1 88 128 (11264)
I0726 09:51:09.683100 27891 net.cpp:129] Top shape: 1 1 88 128 (11264)
I0726 09:51:09.683106 27891 net.cpp:129] Top shape: 1 1 88 128 (11264)
I0726 09:51:09.683112 27891 net.cpp:129] Top shape: 1 1 88 128 (11264)
I0726 09:51:09.683120 27891 net.cpp:129] Top shape: 1 1 88 128 (11264)
I0726 09:51:09.683125 27891 net.cpp:129] Top shape: 1 1 88 128 (11264)
I0726 09:51:09.683131 27891 net.cpp:129] Top shape: 1 1 88 128 (11264)
I0726 09:51:09.683138 27891 net.cpp:129] Top shape: 1 1 88 128 (11264)
I0726 09:51:09.683145 27891 net.cpp:129] Top shape: 1 1 88 128 (11264)
I0726 09:51:09.683151 27891 net.cpp:129] Top shape: 1 1 88 128 (11264)
I0726 09:51:09.683156 27891 net.cpp:129] Top shape: 1 1 88 128 (11264)
I0726 09:51:09.683162 27891 net.cpp:129] Top shape: 1 1 88 128 (11264)
I0726 09:51:09.683169 27891 net.cpp:129] Top shape: 1 1 88 128 (11264)
I0726 09:51:09.683176 27891 net.cpp:129] Top shape: 1 1 88 128 (11264)
I0726 09:51:09.683182 27891 net.cpp:129] Top shape: 1 1 88 128 (11264)
I0726 09:51:09.683187 27891 net.cpp:129] Top shape: 1 1 88 128 (11264)
I0726 09:51:09.683193 27891 net.cpp:129] Top shape: 1 1 88 128 (11264)
I0726 09:51:09.683200 27891 net.cpp:129] Top shape: 1 1 88 128 (11264)
I0726 09:51:09.683207 27891 net.cpp:129] Top shape: 1 1 88 128 (11264)
I0726 09:51:09.683212 27891 net.cpp:129] Top shape: 1 1 88 128 (11264)
I0726 09:51:09.683218 27891 net.cpp:129] Top shape: 1 1 88 128 (11264)
I0726 09:51:09.683225 27891 net.cpp:129] Top shape: 1 1 88 128 (11264)
I0726 09:51:09.683231 27891 net.cpp:129] Top shape: 1 1 88 128 (11264)
I0726 09:51:09.683238 27891 net.cpp:129] Top shape: 1 1 88 128 (11264)
I0726 09:51:09.683243 27891 net.cpp:129] Top shape: 1 1 88 128 (11264)
I0726 09:51:09.683250 27891 net.cpp:129] Top shape: 1 1 88 128 (11264)
I0726 09:51:09.683256 27891 net.cpp:129] Top shape: 1 1 88 128 (11264)
I0726 09:51:09.683262 27891 net.cpp:129] Top shape: 1 1 88 128 (11264)
I0726 09:51:09.683269 27891 net.cpp:129] Top shape: 1 1 88 128 (11264)
I0726 09:51:09.683275 27891 net.cpp:129] Top shape: 1 1 88 128 (11264)
I0726 09:51:09.683281 27891 net.cpp:129] Top shape: 1 1 88 128 (11264)
I0726 09:51:09.683287 27891 net.cpp:129] Top shape: 1 1 88 128 (11264)
I0726 09:51:09.683293 27891 net.cpp:129] Top shape: 1 1 88 128 (11264)
I0726 09:51:09.683300 27891 net.cpp:129] Top shape: 1 1 88 128 (11264)
I0726 09:51:09.683306 27891 net.cpp:129] Top shape: 1 1 88 128 (11264)
I0726 09:51:09.683312 27891 net.cpp:129] Top shape: 1 1 88 128 (11264)
I0726 09:51:09.683318 27891 net.cpp:129] Top shape: 1 1 88 128 (11264)
I0726 09:51:09.683324 27891 net.cpp:129] Top shape: 1 1 88 128 (11264)
I0726 09:51:09.683331 27891 net.cpp:129] Top shape: 1 1 88 128 (11264)
I0726 09:51:09.683337 27891 net.cpp:129] Top shape: 1 1 88 128 (11264)
I0726 09:51:09.683343 27891 net.cpp:129] Top shape: 1 1 88 128 (11264)
I0726 09:51:09.683358 27891 net.cpp:129] Top shape: 1 1 88 128 (11264)
I0726 09:51:09.683363 27891 net.cpp:129] Top shape: 1 1 88 128 (11264)
I0726 09:51:09.683367 27891 net.cpp:129] Top shape: 1 1 88 128 (11264)
I0726 09:51:09.683372 27891 net.cpp:129] Top shape: 1 1 88 128 (11264)
I0726 09:51:09.683377 27891 net.cpp:129] Top shape: 1 1 88 128 (11264)
I0726 09:51:09.683380 27891 net.cpp:129] Top shape: 1 1 88 128 (11264)
I0726 09:51:09.683384 27891 net.cpp:137] Memory required for data: 1782190080
I0726 09:51:09.683388 27891 layer_factory.hpp:77] Creating layer sumscore
I0726 09:51:09.683400 27891 net.cpp:84] Creating Layer sumscore
I0726 09:51:09.683405 27891 net.cpp:406] sumscore <- score1
I0726 09:51:09.683410 27891 net.cpp:406] sumscore <- score2
I0726 09:51:09.683414 27891 net.cpp:406] sumscore <- score3
…
