…
I0728 10:01:18.519147 22015 net.cpp:51] Initializing net from parameters: 
name: "crowd_counting"
state {
  phase: TRAIN
  level: 0
  stage: ""
}
layer {
  name: "data"
  type: "Data"
  top: "data"
  include {
    phase: TRAIN
  }
  data_param {
    source: "/home/peiyong/Work/Zenglin/szl/ShanghaiTech/partA/train_8/image_lmdb"
    batch_size: 1
    backend: LMDB
  }
}
layer {
  name: "label"
  type: "Data"
  top: "label"
  include {
    phase: TRAIN
  }
  data_param {
    source: "/home/peiyong/Work/Zenglin/szl/ShanghaiTech/partA/train_8/dmap_lmdb"
    batch_size: 1
    backend: LMDB
  }
}
layer {
  name: "conv1_1"
  type: "Convolution"
  bottom: "data"
  top: "conv1_1"
  param {
    lr_mult: 0.1
    decay_mult: 1
  }
  param {
    lr_mult: 0.2
    decay_mult: 0
  }
  convolution_param {
    num_output: 64
    pad: 1
    kernel_size: 3
    weight_filler {
      type: "gaussian"
      std: 0.01
    }
    bias_filler {
      type: "constant"
      value: 0
    }
  }
}
layer {
  name: "relu1_1"
  type: "ReLU"
  bottom: "conv1_1"
  top: "conv1_1"
}
layer {
  name: "conv1_2"
  type: "Convolution"
  bottom: "conv1_1"
  top: "conv1_2"
  param {
    lr_mult: 0.1
    decay_mult: 1
  }
  param {
    lr_mult: 0.2
    decay_mult: 0
  }
  convolution_param {
    num_output: 64
    pad: 1
    kernel_size: 3
    weight_filler {
      type: "gaussian"
      std: 0.01
    }
    bias_filler {
      type: "constant"
      value: 0
    }
  }
}
layer {
  name: "relu1_2"
  type: "ReLU"
  bottom: "conv1_2"
  top: "conv1_2"
}
layer {
  name: "pool1"
  type: "Pooling"
  bottom: "conv1_2"
  top: "pool1"
  pooling_param {
    pool: MAX
    kernel_size: 2
    stride: 2
  }
}
layer {
  name: "conv2_1"
  type: "Convolution"
  bottom: "pool1"
  top: "conv2_1"
  param {
    lr_mult: 0.1
    decay_mult: 1
  }
  param {
    lr_mult: 0.2
    decay_mult: 0
  }
  convolution_param {
    num_output: 128
    pad: 1
    kernel_size: 3
    weight_filler {
      type: "gaussian"
      std: 0.01
    }
    bias_filler {
      type: "constant"
      value: 0
    }
  }
}
layer {
  name: "relu2_1"
  type: "ReLU"
  bottom: "conv2_1"
  top: "conv2_1"
}
layer {
  name: "conv2_2"
  type: "Convolution"
  bottom: "conv2_1"
  top: "conv2_2"
  param {
    lr_mult: 0.1
    decay_mult: 1
  }
  param {
    lr_mult: 0.2
    decay_mult: 0
  }
  convolution_param {
    num_output: 128
    pad: 1
    kernel_size: 3
    weight_filler {
      type: "gaussian"
      std: 0.01
    }
    bias_filler {
      type: "constant"
      value: 0
    }
  }
}
layer {
  name: "relu2_2"
  type: "ReLU"
  bottom: "conv2_2"
  top: "conv2_2"
}
layer {
  name: "pool2"
  type: "Pooling"
  bottom: "conv2_2"
  top: "pool2"
  pooling_param {
    pool: MAX
    kernel_size: 2
    stride: 2
  }
}
layer {
  name: "conv3_1"
  type: "Convolution"
  bottom: "pool2"
  top: "conv3_1"
  param {
    lr_mult: 0.1
    decay_mult: 1
  }
  param {
    lr_mult: 0.2
    decay_mult: 0
  }
  convolution_param {
    num_output: 256
    pad: 1
    kernel_size: 3
    weight_filler {
      type: "gaussian"
      std: 0.01
    }
    bias_filler {
      type: "constant"
      value: 0
    }
  }
}
layer {
  name: "relu3_1"
  type: "ReLU"
  bottom: "conv3_1"
  top: "conv3_1"
}
layer {
  name: "conv3_2"
  type: "Convolution"
  bottom: "conv3_1"
  top: "conv3_2"
  param {
    lr_mult: 0.1
    decay_mult: 1
  }
  param {
    lr_mult: 0.2
    decay_mult: 0
  }
  convolution_param {
    num_output: 256
    pad: 1
    kernel_size: 3
    weight_filler {
      type: "gaussian"
      std: 0.01
    }
    bias_filler {
      type: "constant"
      value: 0
    }
  }
}
layer {
  name: "relu3_2"
  type: "ReLU"
  bottom: "conv3_2"
  top: "conv3_2"
}
layer {
  name: "conv3_3"
  type: "Convolution"
  bottom: "conv3_2"
  top: "conv3_3"
  param {
    lr_mult: 0.1
    decay_mult: 1
  }
  param {
    lr_mult: 0.2
    decay_mult: 0
  }
  convolution_param {
    num_output: 256
    pad: 1
    kernel_size: 3
    weight_filler {
      type: "gaussian"
      std: 0.01
    }
    bias_filler {
      type: "constant"
      value: 0
    }
  }
}
layer {
  name: "relu3_3"
  type: "ReLU"
  bottom: "conv3_3"
  top: "conv3_3"
}
layer {
  name: "pool3"
  type: "Pooling"
  bottom: "conv3_3"
  top: "pool3"
  pooling_param {
    pool: MAX
    kernel_size: 2
    stride: 2
  }
}
layer {
  name: "conv4_1"
  type: "Convolution"
  bottom: "pool3"
  top: "conv4_1"
  param {
    lr_mult: 0.1
    decay_mult: 1
  }
  param {
    lr_mult: 0.2
    decay_mult: 0
  }
  convolution_param {
    num_output: 512
    pad: 1
    kernel_size: 3
    weight_filler {
      type: "gaussian"
      std: 0.01
    }
    bias_filler {
      type: "constant"
      value: 0
    }
  }
}
layer {
  name: "relu4_1"
  type: "ReLU"
  bottom: "conv4_1"
  top: "conv4_1"
}
layer {
  name: "conv4_2"
  type: "Convolution"
  bottom: "conv4_1"
  top: "conv4_2"
  param {
    lr_mult: 0.1
    decay_mult: 1
  }
  param {
    lr_mult: 0.2
    decay_mult: 0
  }
  convolution_param {
    num_output: 512
    pad: 1
    kernel_size: 3
    weight_filler {
      type: "gaussian"
      std: 0.01
    }
    bias_filler {
      type: "constant"
      value: 0
    }
  }
}
layer {
  name: "relu4_2"
  type: "ReLU"
  bottom: "conv4_2"
  top: "conv4_2"
}
layer {
  name: "conv4_3"
  type: "Convolution"
  bottom: "conv4_2"
  top: "conv4_3"
  param {
    lr_mult: 0.1
    decay_mult: 1
  }
  param {
    lr_mult: 0.2
    decay_mult: 0
  }
  convolution_param {
    num_output: 512
    pad: 1
    kernel_size: 3
    weight_filler {
      type: "gaussian"
      std: 0.01
    }
    bias_filler {
      type: "constant"
      value: 0
    }
  }
}
layer {
  name: "relu4_3"
  type: "ReLU"
  bottom: "conv4_3"
  top: "conv4_3"
}
layer {
  name: "pool4"
  type: "Pooling"
  bottom: "conv4_3"
  top: "pool4"
  pooling_param {
    pool: MAX
    kernel_size: 3
    stride: 1
    pad: 1
  }
}
layer {
  name: "conv5_1"
  type: "Convolution"
  bottom: "pool4"
  top: "conv5_1"
  param {
    lr_mult: 0.1
    decay_mult: 1
  }
  param {
    lr_mult: 0.2
    decay_mult: 0
  }
  convolution_param {
    num_output: 512
    pad: 2
    kernel_size: 3
    weight_filler {
      type: "gaussian"
      std: 0.01
    }
    bias_filler {
      type: "constant"
      value: 0
    }
    dilation: 2
  }
}
layer {
  name: "relu5_1"
  type: "ReLU"
  bottom: "conv5_1"
  top: "conv5_1"
}
layer {
  name: "conv5_2"
  type: "Convolution"
  bottom: "conv5_1"
  top: "conv5_2"
  param {
    lr_mult: 0.1
    decay_mult: 1
  }
  param {
    lr_mult: 0.2
    decay_mult: 0
  }
  convolution_param {
    num_output: 512
    pad: 2
    kernel_size: 3
    weight_filler {
      type: "gaussian"
      std: 0.01
    }
    bias_filler {
      type: "constant"
      value: 0
    }
    dilation: 2
  }
}
layer {
  name: "relu5_2"
  type: "ReLU"
  bottom: "conv5_2"
  top: "conv5_2"
}
layer {
  name: "conv5_3"
  type: "Convolution"
  bottom: "conv5_2"
  top: "conv5_3"
  param {
    lr_mult: 0.1
    decay_mult: 1
  }
  param {
    lr_mult: 0.2
    decay_mult: 0
  }
  convolution_param {
    num_output: 512
    pad: 2
    kernel_size: 3
    weight_filler {
      type: "gaussian"
      std: 0.01
    }
    bias_filler {
      type: "constant"
      value: 0
    }
    dilation: 2
  }
}
layer {
  name: "relu5_3"
  type: "ReLU"
  bottom: "conv5_3"
  top: "conv5_3"
}
layer {
  name: "conv_score"
  type: "Convolution"
  bottom: "conv5_3"
  top: "conv_score"
  param {
    lr_mult: 10
    decay_mult: 1
  }
  param {
    lr_mult: 20
    decay_mult: 0
  }
  convolution_param {
    num_output: 64
    pad: 0
    kernel_size: 1
    group: 64
    stride: 1
    weight_filler {
      type: "constant"
      value: 0.0001
    }
    bias_filler {
      type: "constant"
      value: 0
    }
  }
}
layer {
  name: "relu_score"
  type: "ReLU"
  bottom: "conv_score"
  top: "conv_score"
}
layer {
  name: "slicer_conv"
  type: "Slice"
  bottom: "conv_score"
  top: "score1"
  top: "score2"
  top: "score3"
  top: "score4"
  top: "score5"
  top: "score6"
  top: "score7"
  top: "score8"
  top: "score9"
  top: "score10"
  top: "score11"
  top: "score12"
  top: "score13"
  top: "score14"
  top: "score15"
  top: "score16"
  top: "score17"
  top: "score18"
  top: "score19"
  top: "score20"
  top: "score21"
  top: "score22"
  top: "score23"
  top: "score24"
  top: "score25"
  top: "score26"
  top: "score27"
  top: "score28"
  top: "score29"
  top: "score30"
  top: "score31"
  top: "score32"
  top: "score33"
  top: "score34"
  top: "score35"
  top: "score36"
  top: "score37"
  top: "score38"
  top: "score39"
  top: "score40"
  top: "score41"
  top: "score42"
  top: "score43"
  top: "score44"
  top: "score45"
  top: "score46"
  top: "score47"
  top: "score48"
  top: "score49"
  top: "score50"
  top: "score51"
  top: "score52"
  top: "score53"
  top: "score54"
  top: "score55"
  top: "score56"
  top: "score57"
  top: "score58"
  top: "score59"
  top: "score60"
  top: "score61"
  top: "score62"
  top: "score63"
  top: "score64"
  slice_param {
    axis: 1
  }
}
layer {
  name: "sumscore"
  type: "Eltwise"
  bottom: "score1"
  bottom: "score2"
  bottom: "score3"
  bottom: "score4"
  bottom: "score5"
  bottom: "score6"
  bottom: "score7"
  bottom: "score8"
  bottom: "score9"
  bottom: "score10"
  bottom: "score11"
  bottom: "score12"
  bottom: "score13"
  bottom: "score14"
  bottom: "score15"
  bottom: "score16"
  bottom: "score17"
  bottom: "score18"
  bottom: "score19"
  bottom: "score20"
  bottom: "score21"
  bottom: "score22"
  bottom: "score23"
  bottom: "score24"
  bottom: "score25"
  bottom: "score26"
  bottom: "score27"
  bottom: "score28"
  bottom: "score29"
  bottom: "score30"
  bottom: "score31"
  bottom: "score32"
  bottom: "score33"
  bottom: "score34"
  bottom: "score35"
  bottom: "score36"
  bottom: "score37"
  bottom: "score38"
  bottom: "score39"
  bottom: "score40"
  bottom: "score41"
  bottom: "score42"
  bottom: "score43"
  bottom: "score44"
  bottom: "score45"
  bottom: "score46"
  bottom: "score47"
  bottom: "score48"
  bottom: "score49"
  bottom: "score50"
  bottom: "score51"
  bottom: "score52"
  bottom: "score53"
  bottom: "score54"
  bottom: "score55"
  bottom: "score56"
  bottom: "score57"
  bottom: "score58"
  bottom: "score59"
  bottom: "score60"
  bottom: "score61"
  bottom: "score62"
  bottom: "score63"
  bottom: "score64"
  top: "sumscore"
  eltwise_param {
    operation: SUM
  }
}
layer {
  name: "loss1"
  type: "NCLLoss"
  bottom: "score1"
  bottom: "label"
  bottom: "sumscore"
  top: "loss1"
  include {
    phase: TRAIN
  }
  ncl_loss_param {
    lambda: 0
    net_num: 64
  }
}
layer {
  name: "loss2"
  type: "NCLLoss"
  bottom: "score2"
  bottom: "label"
  bottom: "sumscore"
  top: "loss2"
  include {
    phase: TRAIN
  }
  ncl_loss_param {
    lambda: 0
    net_num: 64
  }
}
layer {
  name: "loss3"
  type: "NCLLoss"
  bottom: "score3"
  bottom: "label"
  bottom: "sumscore"
  top: "loss3"
  include {
    phase: TRAIN
  }
  ncl_loss_param {
    lambda: 0
    net_num: 64
  }
}
layer {
  name: "loss4"
  type: "NCLLoss"
  bottom: "score4"
  bottom: "label"
  bottom: "sumscore"
  top: "loss4"
  include {
    phase: TRAIN
  }
  ncl_loss_param {
    lambda: 0
    net_num: 64
  }
}
layer {
  name: "loss5"
  type: "NCLLoss"
  bottom: "score5"
  bottom: "label"
  bottom: "sumscore"
  top: "loss5"
  include {
    phase: TRAIN
  }
  ncl_loss_param {
    lambda: 0
    net_num: 64
  }
}
layer {
  name: "loss6"
  type: "NCLLoss"
  bottom: "score6"
  bottom: "label"
  bottom: "sumscore"
  top: "loss6"
  include {
    phase: TRAIN
  }
  ncl_loss_param {
    lambda: 0
    net_num: 64
  }
}
layer {
  name: "loss7"
  type: "NCLLoss"
  bottom: "score7"
  bottom: "label"
  bottom: "sumscore"
  top: "loss7"
  include {
    phase: TRAIN
  }
  ncl_loss_param {
    lambda: 0
    net_num: 64
  }
}
layer {
  name: "loss8"
  type: "NCLLoss"
  bottom: "score8"
  bottom: "label"
  bottom: "sumscore"
  top: "loss8"
  include {
    phase: TRAIN
  }
  ncl_loss_param {
    lambda: 0
    net_num: 64
  }
}
layer {
  name: "loss9"
  type: "NCLLoss"
  bottom: "score9"
  bottom: "label"
  bottom: "sumscore"
  top: "loss9"
  include {
    phase: TRAIN
  }
  ncl_loss_param {
    lambda: 0
    net_num: 64
  }
}
layer {
  name: "loss10"
  type: "NCLLoss"
  bottom: "score10"
  bottom: "label"
  bottom: "sumscore"
  top: "loss10"
  include {
    phase: TRAIN
  }
  ncl_loss_param {
    lambda: 0
    net_num: 64
  }
}
layer {
  name: "loss11"
  type: "NCLLoss"
  bottom: "score11"
  bottom: "label"
  bottom: "sumscore"
  top: "loss11"
  include {
    phase: TRAIN
  }
  ncl_loss_param {
    lambda: 0
    net_num: 64
  }
}
layer {
  name: "loss12"
  type: "NCLLoss"
  bottom: "score12"
  bottom: "label"
  bottom: "sumscore"
  top: "loss12"
  include {
    phase: TRAIN
  }
  ncl_loss_param {
    lambda: 0
    net_num: 64
  }
}
layer {
  name: "loss13"
  type: "NCLLoss"
  bottom: "score13"
  bottom: "label"
  bottom: "sumscore"
  top: "loss13"
  include {
    phase: TRAIN
  }
  ncl_loss_param {
    lambda: 0
    net_num: 64
  }
}
layer {
  name: "loss14"
  type: "NCLLoss"
  bottom: "score14"
  bottom: "label"
  bottom: "sumscore"
  top: "loss14"
  include {
    phase: TRAIN
  }
  ncl_loss_param {
    lambda: 0
    net_num: 64
  }
}
layer {
  name: "loss15"
  type: "NCLLoss"
  bottom: "score15"
  bottom: "label"
  bottom: "sumscore"
  top: "loss15"
  include {
    phase: TRAIN
  }
  ncl_loss_param {
    lambda: 0
    net_num: 64
  }
}
layer {
  name: "loss16"
  type: "NCLLoss"
  bottom: "score16"
  bottom: "label"
  bottom: "sumscore"
  top: "loss16"
  include {
    phase: TRAIN
  }
  ncl_loss_param {
    lambda: 0
    net_num: 64
  }
}
layer {
  name: "loss17"
  type: "NCLLoss"
  bottom: "score17"
  bottom: "label"
  bottom: "sumscore"
  top: "loss17"
  include {
    phase: TRAIN
  }
  ncl_loss_param {
    lambda: 0
    net_num: 64
  }
}
layer {
  name: "loss18"
  type: "NCLLoss"
  bottom: "score18"
  bottom: "label"
  bottom: "sumscore"
  top: "loss18"
  include {
    phase: TRAIN
  }
  ncl_loss_param {
    lambda: 0
    net_num: 64
  }
}
layer {
  name: "loss19"
  type: "NCLLoss"
  bottom: "score19"
  bottom: "label"
  bottom: "sumscore"
  top: "loss19"
  include {
    phase: TRAIN
  }
  ncl_loss_param {
    lambda: 0
    net_num: 64
  }
}
layer {
  name: "loss20"
  type: "NCLLoss"
  bottom: "score20"
  bottom: "label"
  bottom: "sumscore"
  top: "loss20"
  include {
    phase: TRAIN
  }
  ncl_loss_param {
    lambda: 0
    net_num: 64
  }
}
layer {
  name: "loss21"
  type: "NCLLoss"
  bottom: "score21"
  bottom: "label"
  bottom: "sumscore"
  top: "loss21"
  include {
    phase: TRAIN
  }
  ncl_loss_param {
    lambda: 0
    net_num: 64
  }
}
layer {
  name: "loss22"
  type: "NCLLoss"
  bottom: "score22"
  bottom: "label"
  bottom: "sumscore"
  top: "loss22"
  include {
    phase: TRAIN
  }
  ncl_loss_param {
    lambda: 0
    net_num: 64
  }
}
layer {
  name: "loss23"
  type: "NCLLoss"
  bottom: "score23"
  bottom: "label"
  bottom: "sumscore"
  top: "loss23"
  include {
    phase: TRAIN
  }
  ncl_loss_param {
    lambda: 0
    net_num: 64
  }
}
layer {
  name: "loss24"
  type: "NCLLoss"
  bottom: "score24"
  bottom: "label"
  bottom: "sumscore"
  top: "loss24"
  include {
    phase: TRAIN
  }
  ncl_loss_param {
    lambda: 0
    net_num: 64
  }
}
layer {
  name: "loss25"
  type: "NCLLoss"
  bottom: "score25"
  bottom: "label"
  bottom: "sumscore"
  top: "loss25"
  include {
    phase: TRAIN
  }
  ncl_loss_param {
    lambda: 0
    net_num: 64
  }
}
layer {
  name: "loss26"
  type: "NCLLoss"
  bottom: "score26"
  bottom: "label"
  bottom: "sumscore"
  top: "loss26"
  include {
    phase: TRAIN
  }
  ncl_loss_param {
    lambda: 0
    net_num: 64
  }
}
layer {
  name: "loss27"
  type: "NCLLoss"
  bottom: "score27"
  bottom: "label"
  bottom: "sumscore"
  top: "loss27"
  include {
    phase: TRAIN
  }
  ncl_loss_param {
    lambda: 0
    net_num: 64
  }
}
layer {
  name: "loss28"
  type: "NCLLoss"
  bottom: "score28"
  bottom: "label"
  bottom: "sumscore"
  top: "loss28"
  include {
    phase: TRAIN
  }
  ncl_loss_param {
    lambda: 0
    net_num: 64
  }
}
layer {
  name: "loss29"
  type: "NCLLoss"
  bottom: "score29"
  bottom: "label"
  bottom: "sumscore"
  top: "loss29"
  include {
    phase: TRAIN
  }
  ncl_loss_param {
    lambda: 0
    net_num: 64
  }
}
layer {
  name: "loss30"
  type: "NCLLoss"
  bottom: "score30"
  bottom: "label"
  bottom: "sumscore"
  top: "loss30"
  include {
    phase: TRAIN
  }
  ncl_loss_param {
    lambda: 0
    net_num: 64
  }
}
layer {
  name: "loss31"
  type: "NCLLoss"
  bottom: "score31"
  bottom: "label"
  bottom: "sumscore"
  top: "loss31"
  include {
    phase: TRAIN
  }
  ncl_loss_param {
    lambda: 0
    net_num: 64
  }
}
layer {
  name: "loss32"
  type: "NCLLoss"
  bottom: "score32"
  bottom: "label"
  bottom: "sumscore"
  top: "loss32"
  include {
    phase: TRAIN
  }
  ncl_loss_param {
    lambda: 0
    net_num: 64
  }
}
layer {
  name: "loss33"
  type: "NCLLoss"
  bottom: "score33"
  bottom: "label"
  bottom: "sumscore"
  top: "loss33"
  include {
    phase: TRAIN
  }
  ncl_loss_param {
    lambda: 0
    net_num: 64
  }
}
layer {
  name: "loss34"
  type: "NCLLoss"
  bottom: "score34"
  bottom: "label"
  bottom: "sumscore"
  top: "loss34"
  include {
    phase: TRAIN
  }
  ncl_loss_param {
    lambda: 0
    net_num: 64
  }
}
layer {
  name: "loss35"
  type: "NCLLoss"
  bottom: "score35"
  bottom: "label"
  bottom: "sumscore"
  top: "loss35"
  include {
    phase: TRAIN
  }
  ncl_loss_param {
    lambda: 0
    net_num: 64
  }
}
layer {
  name: "loss36"
  type: "NCLLoss"
  bottom: "score36"
  bottom: "label"
  bottom: "sumscore"
  top: "loss36"
  include {
    phase: TRAIN
  }
  ncl_loss_param {
    lambda: 0
    net_num: 64
  }
}
layer {
  name: "loss37"
  type: "NCLLoss"
  bottom: "score37"
  bottom: "label"
  bottom: "sumscore"
  top: "loss37"
  include {
    phase: TRAIN
  }
  ncl_loss_param {
    lambda: 0
    net_num: 64
  }
}
layer {
  name: "loss38"
  type: "NCLLoss"
  bottom: "score38"
  bottom: "label"
  bottom: "sumscore"
  top: "loss38"
  include {
    phase: TRAIN
  }
  ncl_loss_param {
    lambda: 0
    net_num: 64
  }
}
layer {
  name: "loss39"
  type: "NCLLoss"
  bottom: "score39"
  bottom: "label"
  bottom: "sumscore"
  top: "loss39"
  include {
    phase: TRAIN
  }
  ncl_loss_param {
    lambda: 0
    net_num: 64
  }
}
layer {
  name: "loss40"
  type: "NCLLoss"
  bottom: "score40"
  bottom: "label"
  bottom: "sumscore"
  top: "loss40"
  include {
    phase: TRAIN
  }
  ncl_loss_param {
    lambda: 0
    net_num: 64
  }
}
layer {
  name: "loss41"
  type: "NCLLoss"
  bottom: "score41"
  bottom: "label"
  bottom: "sumscore"
  top: "loss41"
  include {
    phase: TRAIN
  }
  ncl_loss_param {
    lambda: 0
    net_num: 64
  }
}
layer {
  name: "loss42"
  type: "NCLLoss"
  bottom: "score42"
  bottom: "label"
  bottom: "sumscore"
  top: "loss42"
  include {
    phase: TRAIN
  }
  ncl_loss_param {
    lambda: 0
    net_num: 64
  }
}
layer {
  name: "loss43"
  type: "NCLLoss"
  bottom: "score43"
  bottom: "label"
  bottom: "sumscore"
  top: "loss43"
  include {
    phase: TRAIN
  }
  ncl_loss_param {
    lambda: 0
    net_num: 64
  }
}
layer {
  name: "loss44"
  type: "NCLLoss"
  bottom: "score44"
  bottom: "label"
  bottom: "sumscore"
  top: "loss44"
  include {
    phase: TRAIN
  }
  ncl_loss_param {
    lambda: 0
    net_num: 64
  }
}
layer {
  name: "loss45"
  type: "NCLLoss"
  bottom: "score45"
  bottom: "label"
  bottom: "sumscore"
  top: "loss45"
  include {
    phase: TRAIN
  }
  ncl_loss_param {
    lambda: 0
    net_num: 64
  }
}
layer {
  name: "loss46"
  type: "NCLLoss"
  bottom: "score46"
  bottom: "label"
  bottom: "sumscore"
  top: "loss46"
  include {
    phase: TRAIN
  }
  ncl_loss_param {
    lambda: 0
    net_num: 64
  }
}
layer {
  name: "loss47"
  type: "NCLLoss"
  bottom: "score47"
  bottom: "label"
  bottom: "sumscore"
  top: "loss47"
  include {
    phase: TRAIN
  }
  ncl_loss_param {
    lambda: 0
    net_num: 64
  }
}
layer {
  name: "loss48"
  type: "NCLLoss"
  bottom: "score48"
  bottom: "label"
  bottom: "sumscore"
  top: "loss48"
  include {
    phase: TRAIN
  }
  ncl_loss_param {
    lambda: 0
    net_num: 64
  }
}
layer {
  name: "loss49"
  type: "NCLLoss"
  bottom: "score49"
  bottom: "label"
  bottom: "sumscore"
  top: "loss49"
  include {
    phase: TRAIN
  }
  ncl_loss_param {
    lambda: 0
    net_num: 64
  }
}
layer {
  name: "loss50"
  type: "NCLLoss"
  bottom: "score50"
  bottom: "label"
  bottom: "sumscore"
  top: "loss50"
  include {
    phase: TRAIN
  }
  ncl_loss_param {
    lambda: 0
    net_num: 64
  }
}
layer {
  name: "loss51"
  type: "NCLLoss"
  bottom: "score51"
  bottom: "label"
  bottom: "sumscore"
  top: "loss51"
  include {
    phase: TRAIN
  }
  ncl_loss_param {
    lambda: 0
    net_num: 64
  }
}
layer {
  name: "loss52"
  type: "NCLLoss"
  bottom: "score52"
  bottom: "label"
  bottom: "sumscore"
  top: "loss52"
  include {
    phase: TRAIN
  }
  ncl_loss_param {
    lambda: 0
    net_num: 64
  }
}
layer {
  name: "loss53"
  type: "NCLLoss"
  bottom: "score53"
  bottom: "label"
  bottom: "sumscore"
  top: "loss53"
  include {
    phase: TRAIN
  }
  ncl_loss_param {
    lambda: 0
    net_num: 64
  }
}
layer {
  name: "loss54"
  type: "NCLLoss"
  bottom: "score54"
  bottom: "label"
  bottom: "sumscore"
  top: "loss54"
  include {
    phase: TRAIN
  }
  ncl_loss_param {
    lambda: 0
    net_num: 64
  }
}
layer {
  name: "loss55"
  type: "NCLLoss"
  bottom: "score55"
  bottom: "label"
  bottom: "sumscore"
  top: "loss55"
  include {
    phase: TRAIN
  }
  ncl_loss_param {
    lambda: 0
    net_num: 64
  }
}
layer {
  name: "loss56"
  type: "NCLLoss"
  bottom: "score56"
  bottom: "label"
  bottom: "sumscore"
  top: "loss56"
  include {
    phase: TRAIN
  }
  ncl_loss_param {
    lambda: 0
    net_num: 64
  }
}
layer {
  name: "loss57"
  type: "NCLLoss"
  bottom: "score57"
  bottom: "label"
  bottom: "sumscore"
  top: "loss57"
  include {
    phase: TRAIN
  }
  ncl_loss_param {
    lambda: 0
    net_num: 64
  }
}
layer {
  name: "loss58"
  type: "NCLLoss"
  bottom: "score58"
  bottom: "label"
  bottom: "sumscore"
  top: "loss58"
  include {
    phase: TRAIN
  }
  ncl_loss_param {
    lambda: 0
    net_num: 64
  }
}
layer {
  name: "loss59"
  type: "NCLLoss"
  bottom: "score59"
  bottom: "label"
  bottom: "sumscore"
  top: "loss59"
  include {
    phase: TRAIN
  }
  ncl_loss_param {
    lambda: 0
    net_num: 64
  }
}
layer {
  name: "loss60"
  type: "NCLLoss"
  bottom: "score60"
  bottom: "label"
  bottom: "sumscore"
  top: "loss60"
  include {
    phase: TRAIN
  }
  ncl_loss_param {
    lambda: 0
    net_num: 64
  }
}
layer {
  name: "loss61"
  type: "NCLLoss"
  bottom: "score61"
  bottom: "label"
  bottom: "sumscore"
  top: "loss61"
  include {
    phase: TRAIN
  }
  ncl_loss_param {
    lambda: 0
    net_num: 64
  }
}
layer {
  name: "loss62"
  type: "NCLLoss"
  bottom: "score62"
  bottom: "label"
  bottom: "sumscore"
  top: "loss62"
  include {
    phase: TRAIN
  }
  ncl_loss_param {
    lambda: 0
    net_num: 64
  }
}
layer {
  name: "loss63"
  type: "NCLLoss"
  bottom: "score63"
  bottom: "label"
  bottom: "sumscore"
  top: "loss63"
  include {
    phase: TRAIN
  }
  ncl_loss_param {
    lambda: 0
    net_num: 64
  }
}
layer {
  name: "loss64"
  type: "NCLLoss"
  bottom: "score64"
  bottom: "label"
  bottom: "sumscore"
  top: "loss64"
  include {
    phase: TRAIN
  }
  ncl_loss_param {
    lambda: 0
    net_num: 64
  }
}
I0728 10:01:18.520624 22015 layer_factory.hpp:77] Creating layer data
I0728 10:01:18.520712 22015 db_lmdb.cpp:35] Opened lmdb /home/peiyong/Work/Zenglin/szl/ShanghaiTech/partA/train_8/image_lmdb
I0728 10:01:18.520754 22015 net.cpp:84] Creating Layer data
I0728 10:01:18.520763 22015 net.cpp:380] data -> data
I0728 10:01:18.521747 22015 data_layer.cpp:45] output data size: 1,3,384,512
I0728 10:01:18.527626 22015 net.cpp:122] Setting up data
I0728 10:01:18.527643 22015 net.cpp:129] Top shape: 1 3 384 512 (589824)
I0728 10:01:18.527647 22015 net.cpp:137] Memory required for data: 2359296
I0728 10:01:18.527654 22015 layer_factory.hpp:77] Creating layer label
I0728 10:01:18.527715 22015 db_lmdb.cpp:35] Opened lmdb /home/peiyong/Work/Zenglin/szl/ShanghaiTech/partA/train_8/dmap_lmdb
I0728 10:01:18.527743 22015 net.cpp:84] Creating Layer label
I0728 10:01:18.527750 22015 net.cpp:380] label -> label
I0728 10:01:18.527873 22015 data_layer.cpp:45] output data size: 1,1,48,64
I0728 10:01:18.528775 22015 net.cpp:122] Setting up label
I0728 10:01:18.528791 22015 net.cpp:129] Top shape: 1 1 48 64 (3072)
I0728 10:01:18.528795 22015 net.cpp:137] Memory required for data: 2371584
I0728 10:01:18.528800 22015 layer_factory.hpp:77] Creating layer label_label_0_split
I0728 10:01:18.528816 22015 net.cpp:84] Creating Layer label_label_0_split
I0728 10:01:18.528828 22015 net.cpp:406] label_label_0_split <- label
I0728 10:01:18.528856 22015 net.cpp:380] label_label_0_split -> label_label_0_split_0
…
I0728 10:01:18.529629 22015 net.cpp:380] label_label_0_split -> label_label_0_split_58
I0728 10:01:18.529640 22015 net.cpp:380] label_label_0_split -> label_label_0_split_59
I0728 10:01:18.529652 22015 net.cpp:380] label_label_0_split -> label_label_0_split_60
I0728 10:01:18.529664 22015 net.cpp:380] label_label_0_split -> label_label_0_split_61
I0728 10:01:18.529675 22015 net.cpp:380] label_label_0_split -> label_label_0_split_62
I0728 10:01:18.529693 22015 net.cpp:380] label_label_0_split -> label_label_0_split_63
I0728 10:01:18.530199 22015 net.cpp:122] Setting up label_label_0_split
I0728 10:01:18.530206 22015 net.cpp:129] Top shape: 1 1 48 64 (3072)
I0728 10:01:18.530211 22015 net.cpp:129] Top shape: 1 1 48 64 (3072)
I0728 10:01:18.530216 22015 net.cpp:129] Top shape: 1 1 48 64 (3072)
I0728 10:01:18.530220 22015 net.cpp:129] Top shape: 1 1 48 64 (3072)
I0728 10:01:18.530225 22015 net.cpp:129] Top shape: 1 1 48 64 (3072)
I0728 10:01:18.530228 22015 net.cpp:129] Top shape: 1 1 48 64 (3072)
I0728 10:01:18.530233 22015 net.cpp:129] Top shape: 1 1 48 64 (3072)
I0728 10:01:18.530237 22015 net.cpp:129] Top shape: 1 1 48 64 (3072)
I0728 10:01:18.530241 22015 net.cpp:129] Top shape: 1 1 48 64 (3072)
I0728 10:01:18.530246 22015 net.cpp:129] Top shape: 1 1 48 64 (3072)
I0728 10:01:18.530251 22015 net.cpp:129] Top shape: 1 1 48 64 (3072)
I0728 10:01:18.530254 22015 net.cpp:129] Top shape: 1 1 48 64 (3072)
I0728 10:01:18.530259 22015 net.cpp:129] Top shape: 1 1 48 64 (3072)
I0728 10:01:18.530274 22015 net.cpp:129] Top shape: 1 1 48 64 (3072)
I0728 10:01:18.530279 22015 net.cpp:129] Top shape: 1 1 48 64 (3072)
I0728 10:01:18.530284 22015 net.cpp:129] Top shape: 1 1 48 64 (3072)
I0728 10:01:18.530288 22015 net.cpp:129] Top shape: 1 1 48 64 (3072)
I0728 10:01:18.530292 22015 net.cpp:129] Top shape: 1 1 48 64 (3072)
I0728 10:01:18.530310 22015 net.cpp:129] Top shape: 1 1 48 64 (3072)
I0728 10:01:18.530314 22015 net.cpp:129] Top shape: 1 1 48 64 (3072)
I0728 10:01:18.530318 22015 net.cpp:129] Top shape: 1 1 48 64 (3072)
I0728 10:01:18.530323 22015 net.cpp:129] Top shape: 1 1 48 64 (3072)
I0728 10:01:18.530328 22015 net.cpp:129] Top shape: 1 1 48 64 (3072)
I0728 10:01:18.530331 22015 net.cpp:129] Top shape: 1 1 48 64 (3072)
I0728 10:01:18.530335 22015 net.cpp:129] Top shape: 1 1 48 64 (3072)
I0728 10:01:18.530340 22015 net.cpp:129] Top shape: 1 1 48 64 (3072)
I0728 10:01:18.530344 22015 net.cpp:129] Top shape: 1 1 48 64 (3072)
I0728 10:01:18.530349 22015 net.cpp:129] Top shape: 1 1 48 64 (3072)
I0728 10:01:18.530352 22015 net.cpp:129] Top shape: 1 1 48 64 (3072)
I0728 10:01:18.530356 22015 net.cpp:129] Top shape: 1 1 48 64 (3072)
I0728 10:01:18.530361 22015 net.cpp:129] Top shape: 1 1 48 64 (3072)
I0728 10:01:18.530365 22015 net.cpp:129] Top shape: 1 1 48 64 (3072)
I0728 10:01:18.530369 22015 net.cpp:129] Top shape: 1 1 48 64 (3072)
I0728 10:01:18.530390 22015 net.cpp:129] Top shape: 1 1 48 64 (3072)
I0728 10:01:18.530395 22015 net.cpp:129] Top shape: 1 1 48 64 (3072)
I0728 10:01:18.530398 22015 net.cpp:129] Top shape: 1 1 48 64 (3072)
I0728 10:01:18.530402 22015 net.cpp:129] Top shape: 1 1 48 64 (3072)
I0728 10:01:18.530407 22015 net.cpp:129] Top shape: 1 1 48 64 (3072)
I0728 10:01:18.530411 22015 net.cpp:129] Top shape: 1 1 48 64 (3072)
I0728 10:01:18.530416 22015 net.cpp:129] Top shape: 1 1 48 64 (3072)
I0728 10:01:18.530419 22015 net.cpp:129] Top shape: 1 1 48 64 (3072)
I0728 10:01:18.530423 22015 net.cpp:129] Top shape: 1 1 48 64 (3072)
I0728 10:01:18.530427 22015 net.cpp:129] Top shape: 1 1 48 64 (3072)
I0728 10:01:18.530432 22015 net.cpp:129] Top shape: 1 1 48 64 (3072)
I0728 10:01:18.530436 22015 net.cpp:129] Top shape: 1 1 48 64 (3072)
I0728 10:01:18.530441 22015 net.cpp:129] Top shape: 1 1 48 64 (3072)
I0728 10:01:18.530445 22015 net.cpp:129] Top shape: 1 1 48 64 (3072)
I0728 10:01:18.530449 22015 net.cpp:129] Top shape: 1 1 48 64 (3072)
I0728 10:01:18.530453 22015 net.cpp:129] Top shape: 1 1 48 64 (3072)
I0728 10:01:18.530457 22015 net.cpp:129] Top shape: 1 1 48 64 (3072)
I0728 10:01:18.530462 22015 net.cpp:129] Top shape: 1 1 48 64 (3072)
I0728 10:01:18.530467 22015 net.cpp:129] Top shape: 1 1 48 64 (3072)
I0728 10:01:18.530470 22015 net.cpp:129] Top shape: 1 1 48 64 (3072)
I0728 10:01:18.530474 22015 net.cpp:129] Top shape: 1 1 48 64 (3072)
I0728 10:01:18.530478 22015 net.cpp:129] Top shape: 1 1 48 64 (3072)
I0728 10:01:18.530483 22015 net.cpp:129] Top shape: 1 1 48 64 (3072)
I0728 10:01:18.530488 22015 net.cpp:129] Top shape: 1 1 48 64 (3072)
I0728 10:01:18.530491 22015 net.cpp:129] Top shape: 1 1 48 64 (3072)
I0728 10:01:18.530495 22015 net.cpp:129] Top shape: 1 1 48 64 (3072)
I0728 10:01:18.530499 22015 net.cpp:129] Top shape: 1 1 48 64 (3072)
I0728 10:01:18.530504 22015 net.cpp:129] Top shape: 1 1 48 64 (3072)
I0728 10:01:18.530508 22015 net.cpp:129] Top shape: 1 1 48 64 (3072)
I0728 10:01:18.530513 22015 net.cpp:129] Top shape: 1 1 48 64 (3072)
I0728 10:01:18.530516 22015 net.cpp:129] Top shape: 1 1 48 64 (3072)
I0728 10:01:18.530520 22015 net.cpp:137] Memory required for data: 3158016
I0728 10:01:18.530524 22015 layer_factory.hpp:77] Creating layer conv1_1
I0728 10:01:18.530539 22015 net.cpp:84] Creating Layer conv1_1
I0728 10:01:18.530544 22015 net.cpp:406] conv1_1 <- data
I0728 10:01:18.530560 22015 net.cpp:380] conv1_1 -> conv1_1
I0728 10:01:18.728312 22015 net.cpp:122] Setting up conv1_1
I0728 10:01:18.728343 22015 net.cpp:129] Top shape: 1 64 384 512 (12582912)
I0728 10:01:18.728345 22015 net.cpp:137] Memory required for data: 53489664
I0728 10:01:18.728368 22015 layer_factory.hpp:77] Creating layer relu1_1
I0728 10:01:18.728413 22015 net.cpp:84] Creating Layer relu1_1
I0728 10:01:18.728423 22015 net.cpp:406] relu1_1 <- conv1_1
I0728 10:01:18.728433 22015 net.cpp:367] relu1_1 -> conv1_1 (in-place)
I0728 10:01:18.728585 22015 net.cpp:122] Setting up relu1_1
I0728 10:01:18.728595 22015 net.cpp:129] Top shape: 1 64 384 512 (12582912)
I0728 10:01:18.728600 22015 net.cpp:137] Memory required for data: 103821312
I0728 10:01:18.728603 22015 layer_factory.hpp:77] Creating layer conv1_2
I0728 10:01:18.728616 22015 net.cpp:84] Creating Layer conv1_2
I0728 10:01:18.728621 22015 net.cpp:406] conv1_2 <- conv1_1
I0728 10:01:18.728626 22015 net.cpp:380] conv1_2 -> conv1_2
I0728 10:01:18.731587 22015 net.cpp:122] Setting up conv1_2
I0728 10:01:18.731602 22015 net.cpp:129] Top shape: 1 64 384 512 (12582912)
I0728 10:01:18.731606 22015 net.cpp:137] Memory required for data: 154152960
I0728 10:01:18.731616 22015 layer_factory.hpp:77] Creating layer relu1_2
I0728 10:01:18.731622 22015 net.cpp:84] Creating Layer relu1_2
I0728 10:01:18.731626 22015 net.cpp:406] relu1_2 <- conv1_2
I0728 10:01:18.731632 22015 net.cpp:367] relu1_2 -> conv1_2 (in-place)
I0728 10:01:18.731775 22015 net.cpp:122] Setting up relu1_2
I0728 10:01:18.731784 22015 net.cpp:129] Top shape: 1 64 384 512 (12582912)
I0728 10:01:18.731788 22015 net.cpp:137] Memory required for data: 204484608
I0728 10:01:18.731792 22015 layer_factory.hpp:77] Creating layer pool1
I0728 10:01:18.731801 22015 net.cpp:84] Creating Layer pool1
I0728 10:01:18.731804 22015 net.cpp:406] pool1 <- conv1_2
I0728 10:01:18.731811 22015 net.cpp:380] pool1 -> pool1
I0728 10:01:18.731858 22015 net.cpp:122] Setting up pool1
I0728 10:01:18.731865 22015 net.cpp:129] Top shape: 1 64 192 256 (3145728)
I0728 10:01:18.731868 22015 net.cpp:137] Memory required for data: 217067520
I0728 10:01:18.731871 22015 layer_factory.hpp:77] Creating layer conv2_1
I0728 10:01:18.731880 22015 net.cpp:84] Creating Layer conv2_1
I0728 10:01:18.731884 22015 net.cpp:406] conv2_1 <- pool1
I0728 10:01:18.731890 22015 net.cpp:380] conv2_1 -> conv2_1
I0728 10:01:18.734647 22015 net.cpp:122] Setting up conv2_1
I0728 10:01:18.734661 22015 net.cpp:129] Top shape: 1 128 192 256 (6291456)
I0728 10:01:18.734665 22015 net.cpp:137] Memory required for data: 242233344
I0728 10:01:18.734674 22015 layer_factory.hpp:77] Creating layer relu2_1
I0728 10:01:18.734683 22015 net.cpp:84] Creating Layer relu2_1
I0728 10:01:18.734686 22015 net.cpp:406] relu2_1 <- conv2_1
I0728 10:01:18.734693 22015 net.cpp:367] relu2_1 -> conv2_1 (in-place)
I0728 10:01:18.735232 22015 net.cpp:122] Setting up relu2_1
I0728 10:01:18.735244 22015 net.cpp:129] Top shape: 1 128 192 256 (6291456)
I0728 10:01:18.735249 22015 net.cpp:137] Memory required for data: 267399168
I0728 10:01:18.735254 22015 layer_factory.hpp:77] Creating layer conv2_2
I0728 10:01:18.735263 22015 net.cpp:84] Creating Layer conv2_2
I0728 10:01:18.735268 22015 net.cpp:406] conv2_2 <- conv2_1
I0728 10:01:18.735275 22015 net.cpp:380] conv2_2 -> conv2_2
I0728 10:01:18.738296 22015 net.cpp:122] Setting up conv2_2
I0728 10:01:18.738309 22015 net.cpp:129] Top shape: 1 128 192 256 (6291456)
I0728 10:01:18.738313 22015 net.cpp:137] Memory required for data: 292564992
I0728 10:01:18.738320 22015 layer_factory.hpp:77] Creating layer relu2_2
I0728 10:01:18.738328 22015 net.cpp:84] Creating Layer relu2_2
I0728 10:01:18.738332 22015 net.cpp:406] relu2_2 <- conv2_2
I0728 10:01:18.738338 22015 net.cpp:367] relu2_2 -> conv2_2 (in-place)
I0728 10:01:18.738489 22015 net.cpp:122] Setting up relu2_2
I0728 10:01:18.738498 22015 net.cpp:129] Top shape: 1 128 192 256 (6291456)
I0728 10:01:18.738502 22015 net.cpp:137] Memory required for data: 317730816
I0728 10:01:18.738507 22015 layer_factory.hpp:77] Creating layer pool2
I0728 10:01:18.738514 22015 net.cpp:84] Creating Layer pool2
I0728 10:01:18.738518 22015 net.cpp:406] pool2 <- conv2_2
I0728 10:01:18.738528 22015 net.cpp:380] pool2 -> pool2
I0728 10:01:18.738569 22015 net.cpp:122] Setting up pool2
I0728 10:01:18.738574 22015 net.cpp:129] Top shape: 1 128 96 128 (1572864)
I0728 10:01:18.738595 22015 net.cpp:137] Memory required for data: 324022272
I0728 10:01:18.738602 22015 layer_factory.hpp:77] Creating layer conv3_1
I0728 10:01:18.738613 22015 net.cpp:84] Creating Layer conv3_1
I0728 10:01:18.738618 22015 net.cpp:406] conv3_1 <- pool2
I0728 10:01:18.738626 22015 net.cpp:380] conv3_1 -> conv3_1
I0728 10:01:18.743580 22015 net.cpp:122] Setting up conv3_1
I0728 10:01:18.743594 22015 net.cpp:129] Top shape: 1 256 96 128 (3145728)
I0728 10:01:18.743599 22015 net.cpp:137] Memory required for data: 336605184
I0728 10:01:18.743608 22015 layer_factory.hpp:77] Creating layer relu3_1
I0728 10:01:18.743616 22015 net.cpp:84] Creating Layer relu3_1
I0728 10:01:18.743621 22015 net.cpp:406] relu3_1 <- conv3_1
I0728 10:01:18.743626 22015 net.cpp:367] relu3_1 -> conv3_1 (in-place)
I0728 10:01:18.743784 22015 net.cpp:122] Setting up relu3_1
I0728 10:01:18.743794 22015 net.cpp:129] Top shape: 1 256 96 128 (3145728)
I0728 10:01:18.743798 22015 net.cpp:137] Memory required for data: 349188096
I0728 10:01:18.743803 22015 layer_factory.hpp:77] Creating layer conv3_2
I0728 10:01:18.743813 22015 net.cpp:84] Creating Layer conv3_2
I0728 10:01:18.743818 22015 net.cpp:406] conv3_2 <- conv3_1
I0728 10:01:18.743824 22015 net.cpp:380] conv3_2 -> conv3_2
I0728 10:01:18.751086 22015 net.cpp:122] Setting up conv3_2
I0728 10:01:18.751102 22015 net.cpp:129] Top shape: 1 256 96 128 (3145728)
I0728 10:01:18.751106 22015 net.cpp:137] Memory required for data: 361771008
I0728 10:01:18.751111 22015 layer_factory.hpp:77] Creating layer relu3_2
I0728 10:01:18.751121 22015 net.cpp:84] Creating Layer relu3_2
I0728 10:01:18.751124 22015 net.cpp:406] relu3_2 <- conv3_2
I0728 10:01:18.751129 22015 net.cpp:367] relu3_2 -> conv3_2 (in-place)
I0728 10:01:18.751677 22015 net.cpp:122] Setting up relu3_2
I0728 10:01:18.751689 22015 net.cpp:129] Top shape: 1 256 96 128 (3145728)
I0728 10:01:18.751693 22015 net.cpp:137] Memory required for data: 374353920
I0728 10:01:18.751695 22015 layer_factory.hpp:77] Creating layer conv3_3
I0728 10:01:18.751704 22015 net.cpp:84] Creating Layer conv3_3
I0728 10:01:18.751708 22015 net.cpp:406] conv3_3 <- conv3_2
I0728 10:01:18.751714 22015 net.cpp:380] conv3_3 -> conv3_3
I0728 10:01:18.758976 22015 net.cpp:122] Setting up conv3_3
I0728 10:01:18.758996 22015 net.cpp:129] Top shape: 1 256 96 128 (3145728)
I0728 10:01:18.758998 22015 net.cpp:137] Memory required for data: 386936832
I0728 10:01:18.759004 22015 layer_factory.hpp:77] Creating layer relu3_3
I0728 10:01:18.759013 22015 net.cpp:84] Creating Layer relu3_3
I0728 10:01:18.759018 22015 net.cpp:406] relu3_3 <- conv3_3
I0728 10:01:18.759022 22015 net.cpp:367] relu3_3 -> conv3_3 (in-place)
I0728 10:01:18.759181 22015 net.cpp:122] Setting up relu3_3
I0728 10:01:18.759192 22015 net.cpp:129] Top shape: 1 256 96 128 (3145728)
I0728 10:01:18.759197 22015 net.cpp:137] Memory required for data: 399519744
I0728 10:01:18.759202 22015 layer_factory.hpp:77] Creating layer pool3
I0728 10:01:18.759208 22015 net.cpp:84] Creating Layer pool3
I0728 10:01:18.759212 22015 net.cpp:406] pool3 <- conv3_3
I0728 10:01:18.759218 22015 net.cpp:380] pool3 -> pool3
I0728 10:01:18.759263 22015 net.cpp:122] Setting up pool3
I0728 10:01:18.759270 22015 net.cpp:129] Top shape: 1 256 48 64 (786432)
I0728 10:01:18.759272 22015 net.cpp:137] Memory required for data: 402665472
I0728 10:01:18.759276 22015 layer_factory.hpp:77] Creating layer conv4_1
I0728 10:01:18.759284 22015 net.cpp:84] Creating Layer conv4_1
I0728 10:01:18.759289 22015 net.cpp:406] conv4_1 <- pool3
I0728 10:01:18.759294 22015 net.cpp:380] conv4_1 -> conv4_1
I0728 10:01:18.772800 22015 net.cpp:122] Setting up conv4_1
I0728 10:01:18.772830 22015 net.cpp:129] Top shape: 1 512 48 64 (1572864)
I0728 10:01:18.772832 22015 net.cpp:137] Memory required for data: 408956928
I0728 10:01:18.772841 22015 layer_factory.hpp:77] Creating layer relu4_1
I0728 10:01:18.772850 22015 net.cpp:84] Creating Layer relu4_1
I0728 10:01:18.772857 22015 net.cpp:406] relu4_1 <- conv4_1
I0728 10:01:18.772864 22015 net.cpp:367] relu4_1 -> conv4_1 (in-place)
I0728 10:01:18.773068 22015 net.cpp:122] Setting up relu4_1
I0728 10:01:18.773079 22015 net.cpp:129] Top shape: 1 512 48 64 (1572864)
I0728 10:01:18.773082 22015 net.cpp:137] Memory required for data: 415248384
I0728 10:01:18.773088 22015 layer_factory.hpp:77] Creating layer conv4_2
I0728 10:01:18.773102 22015 net.cpp:84] Creating Layer conv4_2
I0728 10:01:18.773106 22015 net.cpp:406] conv4_2 <- conv4_1
I0728 10:01:18.773118 22015 net.cpp:380] conv4_2 -> conv4_2
I0728 10:01:18.796023 22015 net.cpp:122] Setting up conv4_2
I0728 10:01:18.796048 22015 net.cpp:129] Top shape: 1 512 48 64 (1572864)
I0728 10:01:18.796052 22015 net.cpp:137] Memory required for data: 421539840
I0728 10:01:18.796066 22015 layer_factory.hpp:77] Creating layer relu4_2
I0728 10:01:18.796075 22015 net.cpp:84] Creating Layer relu4_2
I0728 10:01:18.796082 22015 net.cpp:406] relu4_2 <- conv4_2
I0728 10:01:18.796089 22015 net.cpp:367] relu4_2 -> conv4_2 (in-place)
I0728 10:01:18.796639 22015 net.cpp:122] Setting up relu4_2
I0728 10:01:18.796651 22015 net.cpp:129] Top shape: 1 512 48 64 (1572864)
I0728 10:01:18.796654 22015 net.cpp:137] Memory required for data: 427831296
I0728 10:01:18.796658 22015 layer_factory.hpp:77] Creating layer conv4_3
I0728 10:01:18.796669 22015 net.cpp:84] Creating Layer conv4_3
I0728 10:01:18.796672 22015 net.cpp:406] conv4_3 <- conv4_2
I0728 10:01:18.796677 22015 net.cpp:380] conv4_3 -> conv4_3
I0728 10:01:18.819468 22015 net.cpp:122] Setting up conv4_3
I0728 10:01:18.819501 22015 net.cpp:129] Top shape: 1 512 48 64 (1572864)
I0728 10:01:18.819504 22015 net.cpp:137] Memory required for data: 434122752
I0728 10:01:18.819512 22015 layer_factory.hpp:77] Creating layer relu4_3
I0728 10:01:18.819521 22015 net.cpp:84] Creating Layer relu4_3
I0728 10:01:18.819527 22015 net.cpp:406] relu4_3 <- conv4_3
I0728 10:01:18.819535 22015 net.cpp:367] relu4_3 -> conv4_3 (in-place)
I0728 10:01:18.819694 22015 net.cpp:122] Setting up relu4_3
I0728 10:01:18.819705 22015 net.cpp:129] Top shape: 1 512 48 64 (1572864)
I0728 10:01:18.819708 22015 net.cpp:137] Memory required for data: 440414208
I0728 10:01:18.819712 22015 layer_factory.hpp:77] Creating layer pool4
I0728 10:01:18.819720 22015 net.cpp:84] Creating Layer pool4
I0728 10:01:18.819725 22015 net.cpp:406] pool4 <- conv4_3
I0728 10:01:18.819731 22015 net.cpp:380] pool4 -> pool4
I0728 10:01:18.819775 22015 net.cpp:122] Setting up pool4
I0728 10:01:18.819782 22015 net.cpp:129] Top shape: 1 512 48 64 (1572864)
I0728 10:01:18.819787 22015 net.cpp:137] Memory required for data: 446705664
I0728 10:01:18.819789 22015 layer_factory.hpp:77] Creating layer conv5_1
I0728 10:01:18.819802 22015 net.cpp:84] Creating Layer conv5_1
I0728 10:01:18.819806 22015 net.cpp:406] conv5_1 <- pool4
I0728 10:01:18.819813 22015 net.cpp:380] conv5_1 -> conv5_1
I0728 10:01:18.841492 22015 net.cpp:122] Setting up conv5_1
I0728 10:01:18.841518 22015 net.cpp:129] Top shape: 1 512 48 64 (1572864)
I0728 10:01:18.841523 22015 net.cpp:137] Memory required for data: 452997120
I0728 10:01:18.841532 22015 layer_factory.hpp:77] Creating layer relu5_1
I0728 10:01:18.841543 22015 net.cpp:84] Creating Layer relu5_1
I0728 10:01:18.841554 22015 net.cpp:406] relu5_1 <- conv5_1
I0728 10:01:18.841562 22015 net.cpp:367] relu5_1 -> conv5_1 (in-place)
I0728 10:01:18.842243 22015 net.cpp:122] Setting up relu5_1
I0728 10:01:18.842257 22015 net.cpp:129] Top shape: 1 512 48 64 (1572864)
I0728 10:01:18.842260 22015 net.cpp:137] Memory required for data: 459288576
I0728 10:01:18.842264 22015 layer_factory.hpp:77] Creating layer conv5_2
I0728 10:01:18.842278 22015 net.cpp:84] Creating Layer conv5_2
I0728 10:01:18.842283 22015 net.cpp:406] conv5_2 <- conv5_1
I0728 10:01:18.842289 22015 net.cpp:380] conv5_2 -> conv5_2
I0728 10:01:18.863833 22015 net.cpp:122] Setting up conv5_2
I0728 10:01:18.863862 22015 net.cpp:129] Top shape: 1 512 48 64 (1572864)
I0728 10:01:18.863864 22015 net.cpp:137] Memory required for data: 465580032
I0728 10:01:18.863873 22015 layer_factory.hpp:77] Creating layer relu5_2
I0728 10:01:18.863883 22015 net.cpp:84] Creating Layer relu5_2
I0728 10:01:18.863922 22015 net.cpp:406] relu5_2 <- conv5_2
I0728 10:01:18.863934 22015 net.cpp:367] relu5_2 -> conv5_2 (in-place)
I0728 10:01:18.864161 22015 net.cpp:122] Setting up relu5_2
I0728 10:01:18.864171 22015 net.cpp:129] Top shape: 1 512 48 64 (1572864)
I0728 10:01:18.864174 22015 net.cpp:137] Memory required for data: 471871488
I0728 10:01:18.864176 22015 layer_factory.hpp:77] Creating layer conv5_3
I0728 10:01:18.864188 22015 net.cpp:84] Creating Layer conv5_3
I0728 10:01:18.864193 22015 net.cpp:406] conv5_3 <- conv5_2
I0728 10:01:18.864202 22015 net.cpp:380] conv5_3 -> conv5_3
I0728 10:01:18.885808 22015 net.cpp:122] Setting up conv5_3
I0728 10:01:18.885840 22015 net.cpp:129] Top shape: 1 512 48 64 (1572864)
I0728 10:01:18.885843 22015 net.cpp:137] Memory required for data: 478162944
I0728 10:01:18.885851 22015 layer_factory.hpp:77] Creating layer relu5_3
I0728 10:01:18.885865 22015 net.cpp:84] Creating Layer relu5_3
I0728 10:01:18.885871 22015 net.cpp:406] relu5_3 <- conv5_3
I0728 10:01:18.885879 22015 net.cpp:367] relu5_3 -> conv5_3 (in-place)
I0728 10:01:18.886575 22015 net.cpp:122] Setting up relu5_3
I0728 10:01:18.886591 22015 net.cpp:129] Top shape: 1 512 48 64 (1572864)
I0728 10:01:18.886595 22015 net.cpp:137] Memory required for data: 484454400
I0728 10:01:18.886597 22015 layer_factory.hpp:77] Creating layer conv_score
I0728 10:01:18.886610 22015 net.cpp:84] Creating Layer conv_score
I0728 10:01:18.886613 22015 net.cpp:406] conv_score <- conv5_3
I0728 10:01:18.886620 22015 net.cpp:380] conv_score -> conv_score
I0728 10:01:18.963053 22015 net.cpp:122] Setting up conv_score
I0728 10:01:18.963080 22015 net.cpp:129] Top shape: 1 64 48 64 (196608)
I0728 10:01:18.963083 22015 net.cpp:137] Memory required for data: 485240832
I0728 10:01:18.963093 22015 layer_factory.hpp:77] Creating layer relu_score
I0728 10:01:18.963100 22015 net.cpp:84] Creating Layer relu_score
I0728 10:01:18.963107 22015 net.cpp:406] relu_score <- conv_score
I0728 10:01:18.963116 22015 net.cpp:367] relu_score -> conv_score (in-place)
I0728 10:01:18.963291 22015 net.cpp:122] Setting up relu_score
I0728 10:01:18.963301 22015 net.cpp:129] Top shape: 1 64 48 64 (196608)
I0728 10:01:18.963305 22015 net.cpp:137] Memory required for data: 486027264
I0728 10:01:18.963309 22015 layer_factory.hpp:77] Creating layer slicer_conv
I0728 10:01:18.963320 22015 net.cpp:84] Creating Layer slicer_conv
I0728 10:01:18.963325 22015 net.cpp:406] slicer_conv <- conv_score
I0728 10:01:18.963335 22015 net.cpp:380] slicer_conv -> score1
I0728 10:01:18.963349 22015 net.cpp:380] slicer_conv -> score2
…
I0728 10:01:18.963873 22015 net.cpp:380] slicer_conv -> score57
I0728 10:01:18.963881 22015 net.cpp:380] slicer_conv -> score58
I0728 10:01:18.963891 22015 net.cpp:380] slicer_conv -> score59
I0728 10:01:18.963898 22015 net.cpp:380] slicer_conv -> score60
I0728 10:01:18.963907 22015 net.cpp:380] slicer_conv -> score61
I0728 10:01:18.963915 22015 net.cpp:380] slicer_conv -> score62
I0728 10:01:18.963923 22015 net.cpp:380] slicer_conv -> score63
I0728 10:01:18.963932 22015 net.cpp:380] slicer_conv -> score64
I0728 10:01:18.964771 22015 net.cpp:122] Setting up slicer_conv
I0728 10:01:18.964782 22015 net.cpp:129] Top shape: 1 1 48 64 (3072)
I0728 10:01:18.964787 22015 net.cpp:129] Top shape: 1 1 48 64 (3072)
I0728 10:01:18.964790 22015 net.cpp:129] Top shape: 1 1 48 64 (3072)
I0728 10:01:18.964794 22015 net.cpp:129] Top shape: 1 1 48 64 (3072)
I0728 10:01:18.964797 22015 net.cpp:129] Top shape: 1 1 48 64 (3072)
I0728 10:01:18.964802 22015 net.cpp:129] Top shape: 1 1 48 64 (3072)
I0728 10:01:18.964807 22015 net.cpp:129] Top shape: 1 1 48 64 (3072)
I0728 10:01:18.964810 22015 net.cpp:129] Top shape: 1 1 48 64 (3072)
I0728 10:01:18.964814 22015 net.cpp:129] Top shape: 1 1 48 64 (3072)
I0728 10:01:18.964823 22015 net.cpp:129] Top shape: 1 1 48 64 (3072)
I0728 10:01:18.964830 22015 net.cpp:129] Top shape: 1 1 48 64 (3072)
I0728 10:01:18.964838 22015 net.cpp:129] Top shape: 1 1 48 64 (3072)
I0728 10:01:18.964843 22015 net.cpp:129] Top shape: 1 1 48 64 (3072)
I0728 10:01:18.964848 22015 net.cpp:129] Top shape: 1 1 48 64 (3072)
I0728 10:01:18.964849 22015 net.cpp:129] Top shape: 1 1 48 64 (3072)
I0728 10:01:18.964853 22015 net.cpp:129] Top shape: 1 1 48 64 (3072)
I0728 10:01:18.964855 22015 net.cpp:129] Top shape: 1 1 48 64 (3072)
I0728 10:01:18.964859 22015 net.cpp:129] Top shape: 1 1 48 64 (3072)
I0728 10:01:18.964860 22015 net.cpp:129] Top shape: 1 1 48 64 (3072)
I0728 10:01:18.964864 22015 net.cpp:129] Top shape: 1 1 48 64 (3072)
I0728 10:01:18.964869 22015 net.cpp:129] Top shape: 1 1 48 64 (3072)
I0728 10:01:18.964874 22015 net.cpp:129] Top shape: 1 1 48 64 (3072)
I0728 10:01:18.964893 22015 net.cpp:129] Top shape: 1 1 48 64 (3072)
I0728 10:01:18.964901 22015 net.cpp:129] Top shape: 1 1 48 64 (3072)
I0728 10:01:18.964907 22015 net.cpp:129] Top shape: 1 1 48 64 (3072)
I0728 10:01:18.964912 22015 net.cpp:129] Top shape: 1 1 48 64 (3072)
I0728 10:01:18.964916 22015 net.cpp:129] Top shape: 1 1 48 64 (3072)
I0728 10:01:18.964920 22015 net.cpp:129] Top shape: 1 1 48 64 (3072)
I0728 10:01:18.964925 22015 net.cpp:129] Top shape: 1 1 48 64 (3072)
I0728 10:01:18.964928 22015 net.cpp:129] Top shape: 1 1 48 64 (3072)
I0728 10:01:18.964932 22015 net.cpp:129] Top shape: 1 1 48 64 (3072)
I0728 10:01:18.964936 22015 net.cpp:129] Top shape: 1 1 48 64 (3072)
I0728 10:01:18.964941 22015 net.cpp:129] Top shape: 1 1 48 64 (3072)
I0728 10:01:18.964944 22015 net.cpp:129] Top shape: 1 1 48 64 (3072)
I0728 10:01:18.964948 22015 net.cpp:129] Top shape: 1 1 48 64 (3072)
I0728 10:01:18.964952 22015 net.cpp:129] Top shape: 1 1 48 64 (3072)
I0728 10:01:18.964956 22015 net.cpp:129] Top shape: 1 1 48 64 (3072)
I0728 10:01:18.964960 22015 net.cpp:129] Top shape: 1 1 48 64 (3072)
I0728 10:01:18.964964 22015 net.cpp:129] Top shape: 1 1 48 64 (3072)
I0728 10:01:18.964968 22015 net.cpp:129] Top shape: 1 1 48 64 (3072)
I0728 10:01:18.964973 22015 net.cpp:129] Top shape: 1 1 48 64 (3072)
I0728 10:01:18.964977 22015 net.cpp:129] Top shape: 1 1 48 64 (3072)
I0728 10:01:18.964980 22015 net.cpp:129] Top shape: 1 1 48 64 (3072)
I0728 10:01:18.964984 22015 net.cpp:129] Top shape: 1 1 48 64 (3072)
I0728 10:01:18.964993 22015 net.cpp:129] Top shape: 1 1 48 64 (3072)
I0728 10:01:18.964998 22015 net.cpp:129] Top shape: 1 1 48 64 (3072)
I0728 10:01:18.965001 22015 net.cpp:129] Top shape: 1 1 48 64 (3072)
I0728 10:01:18.965005 22015 net.cpp:129] Top shape: 1 1 48 64 (3072)
I0728 10:01:18.965009 22015 net.cpp:129] Top shape: 1 1 48 64 (3072)
I0728 10:01:18.965013 22015 net.cpp:129] Top shape: 1 1 48 64 (3072)
I0728 10:01:18.965018 22015 net.cpp:129] Top shape: 1 1 48 64 (3072)
I0728 10:01:18.965021 22015 net.cpp:129] Top shape: 1 1 48 64 (3072)
I0728 10:01:18.965025 22015 net.cpp:129] Top shape: 1 1 48 64 (3072)
I0728 10:01:18.965029 22015 net.cpp:129] Top shape: 1 1 48 64 (3072)
I0728 10:01:18.965034 22015 net.cpp:129] Top shape: 1 1 48 64 (3072)
I0728 10:01:18.965037 22015 net.cpp:129] Top shape: 1 1 48 64 (3072)
I0728 10:01:18.965041 22015 net.cpp:129] Top shape: 1 1 48 64 (3072)
I0728 10:01:18.965045 22015 net.cpp:129] Top shape: 1 1 48 64 (3072)
I0728 10:01:18.965049 22015 net.cpp:129] Top shape: 1 1 48 64 (3072)
I0728 10:01:18.965054 22015 net.cpp:129] Top shape: 1 1 48 64 (3072)
I0728 10:01:18.965057 22015 net.cpp:129] Top shape: 1 1 48 64 (3072)
I0728 10:01:18.965062 22015 net.cpp:129] Top shape: 1 1 48 64 (3072)
I0728 10:01:18.965065 22015 net.cpp:129] Top shape: 1 1 48 64 (3072)
I0728 10:01:18.965070 22015 net.cpp:129] Top shape: 1 1 48 64 (3072)
I0728 10:01:18.965073 22015 net.cpp:137] Memory required for data: 486813696
I0728 10:01:18.965077 22015 layer_factory.hpp:77] Creating layer score1_slicer_conv_0_split
I0728 10:01:18.965085 22015 net.cpp:84] Creating Layer score1_slicer_conv_0_split
I0728 10:01:18.965090 22015 net.cpp:406] score1_slicer_conv_0_split <- score1
I0728 10:01:18.965097 22015 net.cpp:380] score1_slicer_conv_0_split -> score1_slicer_conv_0_split_0
I0728 10:01:18.965104 22015 net.cpp:380] score1_slicer_conv_0_split -> score1_slicer_conv_0_split_1
I0728 10:01:18.965157 22015 net.cpp:122] Setting up score1_slicer_conv_0_split
I0728 10:01:18.965164 22015 net.cpp:129] Top shape: 1 1 48 64 (3072)
I0728 10:01:18.965169 22015 net.cpp:129] Top shape: 1 1 48 64 (3072)
I0728 10:01:18.965173 22015 net.cpp:137] Memory required for data: 486838272
I0728 10:01:18.965176 22015 layer_factory.hpp:77] Creating layer score2_slicer_conv_1_split
I0728 10:01:18.965183 22015 net.cpp:84] Creating Layer score2_slicer_conv_1_split
I0728 10:01:18.965186 22015 net.cpp:406] score2_slicer_conv_1_split <- score2
I0728 10:01:18.965193 22015 net.cpp:380] score2_slicer_conv_1_split -> score2_slicer_conv_1_split_0
I0728 10:01:18.965199 22015 net.cpp:380] score2_slicer_conv_1_split -> score2_slicer_conv_1_split_1
I0728 10:01:18.965260 22015 net.cpp:122] Setting up score2_slicer_conv_1_split
I0728 10:01:18.965268 22015 net.cpp:129] Top shape: 1 1 48 64 (3072)
I0728 10:01:18.965272 22015 net.cpp:129] Top shape: 1 1 48 64 (3072)
I0728 10:01:18.965276 22015 net.cpp:137] Memory required for data: 486862848
I0728 10:01:18.965281 22015 layer_factory.hpp:77] Creating layer score3_slicer_conv_2_split
I0728 10:01:18.965286 22015 net.cpp:84] Creating Layer score3_slicer_conv_2_split
I0728 10:01:18.965291 22015 net.cpp:406] score3_slicer_conv_2_split <- score3
I0728 10:01:18.965296 22015 net.cpp:380] score3_slicer_conv_2_split -> score3_slicer_conv_2_split_0
I0728 10:01:18.965307 22015 net.cpp:380] score3_slicer_conv_2_split -> score3_slicer_conv_2_split_1
I0728 10:01:18.965360 22015 net.cpp:122] Setting up score3_slicer_conv_2_split
I0728 10:01:18.965368 22015 net.cpp:129] Top shape: 1 1 48 64 (3072)
I0728 10:01:18.965371 22015 net.cpp:129] Top shape: 1 1 48 64 (3072)
I0728 10:01:18.965374 22015 net.cpp:137] Memory required for data: 486887424
I0728 10:01:18.965378 22015 layer_factory.hpp:77] Creating layer score4_slicer_conv_3_split
I0728 10:01:18.965385 22015 net.cpp:84] Creating Layer score4_slicer_conv_3_split
I0728 10:01:18.965390 22015 net.cpp:406] score4_slicer_conv_3_split <- score4
I0728 10:01:18.965395 22015 net.cpp:380] score4_slicer_conv_3_split -> score4_slicer_conv_3_split_0
I0728 10:01:18.965401 22015 net.cpp:380] score4_slicer_conv_3_split -> score4_slicer_conv_3_split_1
I0728 10:01:18.965442 22015 net.cpp:122] Setting up score4_slicer_conv_3_split
I0728 10:01:18.965450 22015 net.cpp:129] Top shape: 1 1 48 64 (3072)
I0728 10:01:18.965454 22015 net.cpp:129] Top shape: 1 1 48 64 (3072)
I0728 10:01:18.965457 22015 net.cpp:137] Memory required for data: 486912000
I0728 10:01:18.965461 22015 layer_factory.hpp:77] Creating layer score5_slicer_conv_4_split
I0728 10:01:18.965467 22015 net.cpp:84] Creating Layer score5_slicer_conv_4_split
I0728 10:01:18.965471 22015 net.cpp:406] score5_slicer_conv_4_split <- score5
I0728 10:01:18.965476 22015 net.cpp:380] score5_slicer_conv_4_split -> score5_slicer_conv_4_split_0
I0728 10:01:18.965482 22015 net.cpp:380] score5_slicer_conv_4_split -> score5_slicer_conv_4_split_1
I0728 10:01:18.965525 22015 net.cpp:122] Setting up score5_slicer_conv_4_split
I0728 10:01:18.965533 22015 net.cpp:129] Top shape: 1 1 48 64 (3072)
I0728 10:01:18.965536 22015 net.cpp:129] Top shape: 1 1 48 64 (3072)
I0728 10:01:18.965540 22015 net.cpp:137] Memory required for data: 486936576
I0728 10:01:18.965543 22015 layer_factory.hpp:77] Creating layer score6_slicer_conv_5_split
I0728 10:01:18.965548 22015 net.cpp:84] Creating Layer score6_slicer_conv_5_split
I0728 10:01:18.965553 22015 net.cpp:406] score6_slicer_conv_5_split <- score6
I0728 10:01:18.965559 22015 net.cpp:380] score6_slicer_conv_5_split -> score6_slicer_conv_5_split_0
I0728 10:01:18.965564 22015 net.cpp:380] score6_slicer_conv_5_split -> score6_slicer_conv_5_split_1
I0728 10:01:18.965605 22015 net.cpp:122] Setting up score6_slicer_conv_5_split
I0728 10:01:18.965610 22015 net.cpp:129] Top shape: 1 1 48 64 (3072)
I0728 10:01:18.965615 22015 net.cpp:129] Top shape: 1 1 48 64 (3072)
I0728 10:01:18.965618 22015 net.cpp:137] Memory required for data: 486961152
I0728 10:01:18.965622 22015 layer_factory.hpp:77] Creating layer score7_slicer_conv_6_split
I0728 10:01:18.965627 22015 net.cpp:84] Creating Layer score7_slicer_conv_6_split
I0728 10:01:18.965631 22015 net.cpp:406] score7_slicer_conv_6_split <- score7
I0728 10:01:18.965636 22015 net.cpp:380] score7_slicer_conv_6_split -> score7_slicer_conv_6_split_0
I0728 10:01:18.965642 22015 net.cpp:380] score7_slicer_conv_6_split -> score7_slicer_conv_6_split_1
I0728 10:01:18.965682 22015 net.cpp:122] Setting up score7_slicer_conv_6_split
I0728 10:01:18.965689 22015 net.cpp:129] Top shape: 1 1 48 64 (3072)
I0728 10:01:18.965693 22015 net.cpp:129] Top shape: 1 1 48 64 (3072)
I0728 10:01:18.965697 22015 net.cpp:137] Memory required for data: 486985728
I0728 10:01:18.965709 22015 layer_factory.hpp:77] Creating layer score8_slicer_conv_7_split
I0728 10:01:18.965715 22015 net.cpp:84] Creating Layer score8_slicer_conv_7_split
I0728 10:01:18.965719 22015 net.cpp:406] score8_slicer_conv_7_split <- score8
I0728 10:01:18.965728 22015 net.cpp:380] score8_slicer_conv_7_split -> score8_slicer_conv_7_split_0
I0728 10:01:18.965734 22015 net.cpp:380] score8_slicer_conv_7_split -> score8_slicer_conv_7_split_1
I0728 10:01:18.965775 22015 net.cpp:122] Setting up score8_slicer_conv_7_split
I0728 10:01:18.965781 22015 net.cpp:129] Top shape: 1 1 48 64 (3072)
I0728 10:01:18.965786 22015 net.cpp:129] Top shape: 1 1 48 64 (3072)
I0728 10:01:18.965790 22015 net.cpp:137] Memory required for data: 487010304
I0728 10:01:18.965793 22015 layer_factory.hpp:77] Creating layer score9_slicer_conv_8_split
I0728 10:01:18.965801 22015 net.cpp:84] Creating Layer score9_slicer_conv_8_split
I0728 10:01:18.965804 22015 net.cpp:406] score9_slicer_conv_8_split <- score9
I0728 10:01:18.965809 22015 net.cpp:380] score9_slicer_conv_8_split -> score9_slicer_conv_8_split_0
I0728 10:01:18.965816 22015 net.cpp:380] score9_slicer_conv_8_split -> score9_slicer_conv_8_split_1
I0728 10:01:18.965855 22015 net.cpp:122] Setting up score9_slicer_conv_8_split
I0728 10:01:18.965862 22015 net.cpp:129] Top shape: 1 1 48 64 (3072)
I0728 10:01:18.965865 22015 net.cpp:129] Top shape: 1 1 48 64 (3072)
I0728 10:01:18.965869 22015 net.cpp:137] Memory required for data: 487034880
I0728 10:01:18.965873 22015 layer_factory.hpp:77] Creating layer score10_slicer_conv_9_split
I0728 10:01:18.965878 22015 net.cpp:84] Creating Layer score10_slicer_conv_9_split
I0728 10:01:18.965883 22015 net.cpp:406] score10_slicer_conv_9_split <- score10
I0728 10:01:18.965888 22015 net.cpp:380] score10_slicer_conv_9_split -> score10_slicer_conv_9_split_0
I0728 10:01:18.965894 22015 net.cpp:380] score10_slicer_conv_9_split -> score10_slicer_conv_9_split_1
I0728 10:01:18.965934 22015 net.cpp:122] Setting up score10_slicer_conv_9_split
I0728 10:01:18.965939 22015 net.cpp:129] Top shape: 1 1 48 64 (3072)
I0728 10:01:18.965943 22015 net.cpp:129] Top shape: 1 1 48 64 (3072)
I0728 10:01:18.965946 22015 net.cpp:137] Memory required for data: 487059456
I0728 10:01:18.965950 22015 layer_factory.hpp:77] Creating layer score11_slicer_conv_10_split
I0728 10:01:18.965957 22015 net.cpp:84] Creating Layer score11_slicer_conv_10_split
I0728 10:01:18.965961 22015 net.cpp:406] score11_slicer_conv_10_split <- score11
I0728 10:01:18.965966 22015 net.cpp:380] score11_slicer_conv_10_split -> score11_slicer_conv_10_split_0
I0728 10:01:18.965972 22015 net.cpp:380] score11_slicer_conv_10_split -> score11_slicer_conv_10_split_1
I0728 10:01:18.966013 22015 net.cpp:122] Setting up score11_slicer_conv_10_split
I0728 10:01:18.966020 22015 net.cpp:129] Top shape: 1 1 48 64 (3072)
I0728 10:01:18.966024 22015 net.cpp:129] Top shape: 1 1 48 64 (3072)
I0728 10:01:18.966027 22015 net.cpp:137] Memory required for data: 487084032
I0728 10:01:18.966030 22015 layer_factory.hpp:77] Creating layer score12_slicer_conv_11_split
I0728 10:01:18.966037 22015 net.cpp:84] Creating Layer score12_slicer_conv_11_split
I0728 10:01:18.966040 22015 net.cpp:406] score12_slicer_conv_11_split <- score12
I0728 10:01:18.966045 22015 net.cpp:380] score12_slicer_conv_11_split -> score12_slicer_conv_11_split_0
I0728 10:01:18.966051 22015 net.cpp:380] score12_slicer_conv_11_split -> score12_slicer_conv_11_split_1
I0728 10:01:18.966091 22015 net.cpp:122] Setting up score12_slicer_conv_11_split
I0728 10:01:18.966099 22015 net.cpp:129] Top shape: 1 1 48 64 (3072)
I0728 10:01:18.966102 22015 net.cpp:129] Top shape: 1 1 48 64 (3072)
I0728 10:01:18.966105 22015 net.cpp:137] Memory required for data: 487108608
I0728 10:01:18.966109 22015 layer_factory.hpp:77] Creating layer score13_slicer_conv_12_split
I0728 10:01:18.966114 22015 net.cpp:84] Creating Layer score13_slicer_conv_12_split
I0728 10:01:18.966119 22015 net.cpp:406] score13_slicer_conv_12_split <- score13
I0728 10:01:18.966125 22015 net.cpp:380] score13_slicer_conv_12_split -> score13_slicer_conv_12_split_0
I0728 10:01:18.966140 22015 net.cpp:380] score13_slicer_conv_12_split -> score13_slicer_conv_12_split_1
I0728 10:01:18.966182 22015 net.cpp:122] Setting up score13_slicer_conv_12_split
I0728 10:01:18.966189 22015 net.cpp:129] Top shape: 1 1 48 64 (3072)
I0728 10:01:18.966193 22015 net.cpp:129] Top shape: 1 1 48 64 (3072)
I0728 10:01:18.966197 22015 net.cpp:137] Memory required for data: 487133184
I0728 10:01:18.966200 22015 layer_factory.hpp:77] Creating layer score14_slicer_conv_13_split
I0728 10:01:18.966205 22015 net.cpp:84] Creating Layer score14_slicer_conv_13_split
I0728 10:01:18.966209 22015 net.cpp:406] score14_slicer_conv_13_split <- score14
I0728 10:01:18.966215 22015 net.cpp:380] score14_slicer_conv_13_split -> score14_slicer_conv_13_split_0
I0728 10:01:18.966220 22015 net.cpp:380] score14_slicer_conv_13_split -> score14_slicer_conv_13_split_1
I0728 10:01:18.966259 22015 net.cpp:122] Setting up score14_slicer_conv_13_split
I0728 10:01:18.966265 22015 net.cpp:129] Top shape: 1 1 48 64 (3072)
I0728 10:01:18.966269 22015 net.cpp:129] Top shape: 1 1 48 64 (3072)
I0728 10:01:18.966274 22015 net.cpp:137] Memory required for data: 487157760
I0728 10:01:18.966276 22015 layer_factory.hpp:77] Creating layer score15_slicer_conv_14_split
I0728 10:01:18.966282 22015 net.cpp:84] Creating Layer score15_slicer_conv_14_split
I0728 10:01:18.966286 22015 net.cpp:406] score15_slicer_conv_14_split <- score15
I0728 10:01:18.966292 22015 net.cpp:380] score15_slicer_conv_14_split -> score15_slicer_conv_14_split_0
I0728 10:01:18.966298 22015 net.cpp:380] score15_slicer_conv_14_split -> score15_slicer_conv_14_split_1
I0728 10:01:18.966337 22015 net.cpp:122] Setting up score15_slicer_conv_14_split
I0728 10:01:18.966343 22015 net.cpp:129] Top shape: 1 1 48 64 (3072)
I0728 10:01:18.966348 22015 net.cpp:129] Top shape: 1 1 48 64 (3072)
I0728 10:01:18.966351 22015 net.cpp:137] Memory required for data: 487182336
I0728 10:01:18.966353 22015 layer_factory.hpp:77] Creating layer score16_slicer_conv_15_split
I0728 10:01:18.966358 22015 net.cpp:84] Creating Layer score16_slicer_conv_15_split
I0728 10:01:18.966362 22015 net.cpp:406] score16_slicer_conv_15_split <- score16
I0728 10:01:18.966367 22015 net.cpp:380] score16_slicer_conv_15_split -> score16_slicer_conv_15_split_0
I0728 10:01:18.966373 22015 net.cpp:380] score16_slicer_conv_15_split -> score16_slicer_conv_15_split_1
I0728 10:01:18.966413 22015 net.cpp:122] Setting up score16_slicer_conv_15_split
I0728 10:01:18.966419 22015 net.cpp:129] Top shape: 1 1 48 64 (3072)
I0728 10:01:18.966423 22015 net.cpp:129] Top shape: 1 1 48 64 (3072)
I0728 10:01:18.966426 22015 net.cpp:137] Memory required for data: 487206912
I0728 10:01:18.966430 22015 layer_factory.hpp:77] Creating layer score17_slicer_conv_16_split
I0728 10:01:18.966435 22015 net.cpp:84] Creating Layer score17_slicer_conv_16_split
I0728 10:01:18.966439 22015 net.cpp:406] score17_slicer_conv_16_split <- score17
I0728 10:01:18.966446 22015 net.cpp:380] score17_slicer_conv_16_split -> score17_slicer_conv_16_split_0
I0728 10:01:18.966451 22015 net.cpp:380] score17_slicer_conv_16_split -> score17_slicer_conv_16_split_1
I0728 10:01:18.966490 22015 net.cpp:122] Setting up score17_slicer_conv_16_split
I0728 10:01:18.966495 22015 net.cpp:129] Top shape: 1 1 48 64 (3072)
I0728 10:01:18.966500 22015 net.cpp:129] Top shape: 1 1 48 64 (3072)
I0728 10:01:18.966503 22015 net.cpp:137] Memory required for data: 487231488
I0728 10:01:18.966507 22015 layer_factory.hpp:77] Creating layer score18_slicer_conv_17_split
I0728 10:01:18.966513 22015 net.cpp:84] Creating Layer score18_slicer_conv_17_split
I0728 10:01:18.966518 22015 net.cpp:406] score18_slicer_conv_17_split <- score18
I0728 10:01:18.966523 22015 net.cpp:380] score18_slicer_conv_17_split -> score18_slicer_conv_17_split_0
I0728 10:01:18.966529 22015 net.cpp:380] score18_slicer_conv_17_split -> score18_slicer_conv_17_split_1
I0728 10:01:18.966568 22015 net.cpp:122] Setting up score18_slicer_conv_17_split
I0728 10:01:18.966574 22015 net.cpp:129] Top shape: 1 1 48 64 (3072)
I0728 10:01:18.966586 22015 net.cpp:129] Top shape: 1 1 48 64 (3072)
I0728 10:01:18.966591 22015 net.cpp:137] Memory required for data: 487256064
I0728 10:01:18.966595 22015 layer_factory.hpp:77] Creating layer score19_slicer_conv_18_split
I0728 10:01:18.966600 22015 net.cpp:84] Creating Layer score19_slicer_conv_18_split
I0728 10:01:18.966604 22015 net.cpp:406] score19_slicer_conv_18_split <- score19
I0728 10:01:18.966609 22015 net.cpp:380] score19_slicer_conv_18_split -> score19_slicer_conv_18_split_0
I0728 10:01:18.966615 22015 net.cpp:380] score19_slicer_conv_18_split -> score19_slicer_conv_18_split_1
I0728 10:01:18.966657 22015 net.cpp:122] Setting up score19_slicer_conv_18_split
I0728 10:01:18.966665 22015 net.cpp:129] Top shape: 1 1 48 64 (3072)
I0728 10:01:18.966668 22015 net.cpp:129] Top shape: 1 1 48 64 (3072)
I0728 10:01:18.966671 22015 net.cpp:137] Memory required for data: 487280640
I0728 10:01:18.966675 22015 layer_factory.hpp:77] Creating layer score20_slicer_conv_19_split
I0728 10:01:18.966682 22015 net.cpp:84] Creating Layer score20_slicer_conv_19_split
I0728 10:01:18.966686 22015 net.cpp:406] score20_slicer_conv_19_split <- score20
I0728 10:01:18.966691 22015 net.cpp:380] score20_slicer_conv_19_split -> score20_slicer_conv_19_split_0
I0728 10:01:18.966697 22015 net.cpp:380] score20_slicer_conv_19_split -> score20_slicer_conv_19_split_1
I0728 10:01:18.966737 22015 net.cpp:122] Setting up score20_slicer_conv_19_split
I0728 10:01:18.966743 22015 net.cpp:129] Top shape: 1 1 48 64 (3072)
I0728 10:01:18.966748 22015 net.cpp:129] Top shape: 1 1 48 64 (3072)
I0728 10:01:18.966751 22015 net.cpp:137] Memory required for data: 487305216
I0728 10:01:18.966754 22015 layer_factory.hpp:77] Creating layer score21_slicer_conv_20_split
I0728 10:01:18.966759 22015 net.cpp:84] Creating Layer score21_slicer_conv_20_split
I0728 10:01:18.966763 22015 net.cpp:406] score21_slicer_conv_20_split <- score21
I0728 10:01:18.966768 22015 net.cpp:380] score21_slicer_conv_20_split -> score21_slicer_conv_20_split_0
I0728 10:01:18.966774 22015 net.cpp:380] score21_slicer_conv_20_split -> score21_slicer_conv_20_split_1
I0728 10:01:18.966814 22015 net.cpp:122] Setting up score21_slicer_conv_20_split
I0728 10:01:18.966820 22015 net.cpp:129] Top shape: 1 1 48 64 (3072)
I0728 10:01:18.966825 22015 net.cpp:129] Top shape: 1 1 48 64 (3072)
I0728 10:01:18.966827 22015 net.cpp:137] Memory required for data: 487329792
I0728 10:01:18.966830 22015 layer_factory.hpp:77] Creating layer score22_slicer_conv_21_split
I0728 10:01:18.966835 22015 net.cpp:84] Creating Layer score22_slicer_conv_21_split
I0728 10:01:18.966840 22015 net.cpp:406] score22_slicer_conv_21_split <- score22
I0728 10:01:18.966848 22015 net.cpp:380] score22_slicer_conv_21_split -> score22_slicer_conv_21_split_0
I0728 10:01:18.966859 22015 net.cpp:380] score22_slicer_conv_21_split -> score22_slicer_conv_21_split_1
I0728 10:01:18.966913 22015 net.cpp:122] Setting up score22_slicer_conv_21_split
I0728 10:01:18.966922 22015 net.cpp:129] Top shape: 1 1 48 64 (3072)
I0728 10:01:18.966926 22015 net.cpp:129] Top shape: 1 1 48 64 (3072)
I0728 10:01:18.966929 22015 net.cpp:137] Memory required for data: 487354368
I0728 10:01:18.966933 22015 layer_factory.hpp:77] Creating layer score23_slicer_conv_22_split
I0728 10:01:18.966939 22015 net.cpp:84] Creating Layer score23_slicer_conv_22_split
I0728 10:01:18.966943 22015 net.cpp:406] score23_slicer_conv_22_split <- score23
I0728 10:01:18.966949 22015 net.cpp:380] score23_slicer_conv_22_split -> score23_slicer_conv_22_split_0
I0728 10:01:18.966954 22015 net.cpp:380] score23_slicer_conv_22_split -> score23_slicer_conv_22_split_1
I0728 10:01:18.967000 22015 net.cpp:122] Setting up score23_slicer_conv_22_split
I0728 10:01:18.967006 22015 net.cpp:129] Top shape: 1 1 48 64 (3072)
I0728 10:01:18.967010 22015 net.cpp:129] Top shape: 1 1 48 64 (3072)
I0728 10:01:18.967015 22015 net.cpp:137] Memory required for data: 487378944
I0728 10:01:18.967017 22015 layer_factory.hpp:77] Creating layer score24_slicer_conv_23_split
I0728 10:01:18.967023 22015 net.cpp:84] Creating Layer score24_slicer_conv_23_split
I0728 10:01:18.967036 22015 net.cpp:406] score24_slicer_conv_23_split <- score24
I0728 10:01:18.967046 22015 net.cpp:380] score24_slicer_conv_23_split -> score24_slicer_conv_23_split_0
I0728 10:01:18.967053 22015 net.cpp:380] score24_slicer_conv_23_split -> score24_slicer_conv_23_split_1
I0728 10:01:18.967097 22015 net.cpp:122] Setting up score24_slicer_conv_23_split
I0728 10:01:18.967103 22015 net.cpp:129] Top shape: 1 1 48 64 (3072)
I0728 10:01:18.967108 22015 net.cpp:129] Top shape: 1 1 48 64 (3072)
I0728 10:01:18.967110 22015 net.cpp:137] Memory required for data: 487403520
I0728 10:01:18.967114 22015 layer_factory.hpp:77] Creating layer score25_slicer_conv_24_split
I0728 10:01:18.967120 22015 net.cpp:84] Creating Layer score25_slicer_conv_24_split
I0728 10:01:18.967125 22015 net.cpp:406] score25_slicer_conv_24_split <- score25
I0728 10:01:18.967130 22015 net.cpp:380] score25_slicer_conv_24_split -> score25_slicer_conv_24_split_0
I0728 10:01:18.967136 22015 net.cpp:380] score25_slicer_conv_24_split -> score25_slicer_conv_24_split_1
I0728 10:01:18.967176 22015 net.cpp:122] Setting up score25_slicer_conv_24_split
I0728 10:01:18.967182 22015 net.cpp:129] Top shape: 1 1 48 64 (3072)
I0728 10:01:18.967186 22015 net.cpp:129] Top shape: 1 1 48 64 (3072)
I0728 10:01:18.967190 22015 net.cpp:137] Memory required for data: 487428096
I0728 10:01:18.967195 22015 layer_factory.hpp:77] Creating layer score26_slicer_conv_25_split
I0728 10:01:18.967200 22015 net.cpp:84] Creating Layer score26_slicer_conv_25_split
I0728 10:01:18.967203 22015 net.cpp:406] score26_slicer_conv_25_split <- score26
I0728 10:01:18.967208 22015 net.cpp:380] score26_slicer_conv_25_split -> score26_slicer_conv_25_split_0
I0728 10:01:18.967216 22015 net.cpp:380] score26_slicer_conv_25_split -> score26_slicer_conv_25_split_1
I0728 10:01:18.967254 22015 net.cpp:122] Setting up score26_slicer_conv_25_split
I0728 10:01:18.967260 22015 net.cpp:129] Top shape: 1 1 48 64 (3072)
I0728 10:01:18.967264 22015 net.cpp:129] Top shape: 1 1 48 64 (3072)
I0728 10:01:18.967267 22015 net.cpp:137] Memory required for data: 487452672
I0728 10:01:18.967272 22015 layer_factory.hpp:77] Creating layer score27_slicer_conv_26_split
I0728 10:01:18.967278 22015 net.cpp:84] Creating Layer score27_slicer_conv_26_split
I0728 10:01:18.967283 22015 net.cpp:406] score27_slicer_conv_26_split <- score27
I0728 10:01:18.967288 22015 net.cpp:380] score27_slicer_conv_26_split -> score27_slicer_conv_26_split_0
I0728 10:01:18.967293 22015 net.cpp:380] score27_slicer_conv_26_split -> score27_slicer_conv_26_split_1
I0728 10:01:18.967332 22015 net.cpp:122] Setting up score27_slicer_conv_26_split
I0728 10:01:18.967339 22015 net.cpp:129] Top shape: 1 1 48 64 (3072)
I0728 10:01:18.967342 22015 net.cpp:129] Top shape: 1 1 48 64 (3072)
I0728 10:01:18.967346 22015 net.cpp:137] Memory required for data: 487477248
I0728 10:01:18.967350 22015 layer_factory.hpp:77] Creating layer score28_slicer_conv_27_split
I0728 10:01:18.967355 22015 net.cpp:84] Creating Layer score28_slicer_conv_27_split
I0728 10:01:18.967358 22015 net.cpp:406] score28_slicer_conv_27_split <- score28
I0728 10:01:18.967363 22015 net.cpp:380] score28_slicer_conv_27_split -> score28_slicer_conv_27_split_0
I0728 10:01:18.967370 22015 net.cpp:380] score28_slicer_conv_27_split -> score28_slicer_conv_27_split_1
I0728 10:01:18.967408 22015 net.cpp:122] Setting up score28_slicer_conv_27_split
I0728 10:01:18.967416 22015 net.cpp:129] Top shape: 1 1 48 64 (3072)
I0728 10:01:18.967419 22015 net.cpp:129] Top shape: 1 1 48 64 (3072)
I0728 10:01:18.967422 22015 net.cpp:137] Memory required for data: 487501824
I0728 10:01:18.967427 22015 layer_factory.hpp:77] Creating layer score29_slicer_conv_28_split
I0728 10:01:18.967439 22015 net.cpp:84] Creating Layer score29_slicer_conv_28_split
I0728 10:01:18.967443 22015 net.cpp:406] score29_slicer_conv_28_split <- score29
I0728 10:01:18.967448 22015 net.cpp:380] score29_slicer_conv_28_split -> score29_slicer_conv_28_split_0
I0728 10:01:18.967454 22015 net.cpp:380] score29_slicer_conv_28_split -> score29_slicer_conv_28_split_1
I0728 10:01:18.967505 22015 net.cpp:122] Setting up score29_slicer_conv_28_split
I0728 10:01:18.967514 22015 net.cpp:129] Top shape: 1 1 48 64 (3072)
I0728 10:01:18.967517 22015 net.cpp:129] Top shape: 1 1 48 64 (3072)
I0728 10:01:18.967521 22015 net.cpp:137] Memory required for data: 487526400
I0728 10:01:18.967525 22015 layer_factory.hpp:77] Creating layer score30_slicer_conv_29_split
I0728 10:01:18.967531 22015 net.cpp:84] Creating Layer score30_slicer_conv_29_split
I0728 10:01:18.967536 22015 net.cpp:406] score30_slicer_conv_29_split <- score30
I0728 10:01:18.967541 22015 net.cpp:380] score30_slicer_conv_29_split -> score30_slicer_conv_29_split_0
I0728 10:01:18.967546 22015 net.cpp:380] score30_slicer_conv_29_split -> score30_slicer_conv_29_split_1
I0728 10:01:18.967586 22015 net.cpp:122] Setting up score30_slicer_conv_29_split
I0728 10:01:18.967592 22015 net.cpp:129] Top shape: 1 1 48 64 (3072)
I0728 10:01:18.967597 22015 net.cpp:129] Top shape: 1 1 48 64 (3072)
I0728 10:01:18.967600 22015 net.cpp:137] Memory required for data: 487550976
I0728 10:01:18.967604 22015 layer_factory.hpp:77] Creating layer score31_slicer_conv_30_split
I0728 10:01:18.967609 22015 net.cpp:84] Creating Layer score31_slicer_conv_30_split
I0728 10:01:18.967613 22015 net.cpp:406] score31_slicer_conv_30_split <- score31
I0728 10:01:18.967618 22015 net.cpp:380] score31_slicer_conv_30_split -> score31_slicer_conv_30_split_0
I0728 10:01:18.967625 22015 net.cpp:380] score31_slicer_conv_30_split -> score31_slicer_conv_30_split_1
I0728 10:01:18.967664 22015 net.cpp:122] Setting up score31_slicer_conv_30_split
I0728 10:01:18.967671 22015 net.cpp:129] Top shape: 1 1 48 64 (3072)
I0728 10:01:18.967675 22015 net.cpp:129] Top shape: 1 1 48 64 (3072)
I0728 10:01:18.967679 22015 net.cpp:137] Memory required for data: 487575552
I0728 10:01:18.967682 22015 layer_factory.hpp:77] Creating layer score32_slicer_conv_31_split
I0728 10:01:18.967689 22015 net.cpp:84] Creating Layer score32_slicer_conv_31_split
I0728 10:01:18.967694 22015 net.cpp:406] score32_slicer_conv_31_split <- score32
I0728 10:01:18.967699 22015 net.cpp:380] score32_slicer_conv_31_split -> score32_slicer_conv_31_split_0
I0728 10:01:18.967703 22015 net.cpp:380] score32_slicer_conv_31_split -> score32_slicer_conv_31_split_1
I0728 10:01:18.967743 22015 net.cpp:122] Setting up score32_slicer_conv_31_split
I0728 10:01:18.967749 22015 net.cpp:129] Top shape: 1 1 48 64 (3072)
I0728 10:01:18.967753 22015 net.cpp:129] Top shape: 1 1 48 64 (3072)
I0728 10:01:18.967757 22015 net.cpp:137] Memory required for data: 487600128
I0728 10:01:18.967761 22015 layer_factory.hpp:77] Creating layer score33_slicer_conv_32_split
I0728 10:01:18.967766 22015 net.cpp:84] Creating Layer score33_slicer_conv_32_split
I0728 10:01:18.967769 22015 net.cpp:406] score33_slicer_conv_32_split <- score33
I0728 10:01:18.967774 22015 net.cpp:380] score33_slicer_conv_32_split -> score33_slicer_conv_32_split_0
I0728 10:01:18.967780 22015 net.cpp:380] score33_slicer_conv_32_split -> score33_slicer_conv_32_split_1
I0728 10:01:18.967820 22015 net.cpp:122] Setting up score33_slicer_conv_32_split
I0728 10:01:18.967826 22015 net.cpp:129] Top shape: 1 1 48 64 (3072)
I0728 10:01:18.967830 22015 net.cpp:129] Top shape: 1 1 48 64 (3072)
I0728 10:01:18.967834 22015 net.cpp:137] Memory required for data: 487624704
I0728 10:01:18.967839 22015 layer_factory.hpp:77] Creating layer score34_slicer_conv_33_split
I0728 10:01:18.967844 22015 net.cpp:84] Creating Layer score34_slicer_conv_33_split
I0728 10:01:18.967847 22015 net.cpp:406] score34_slicer_conv_33_split <- score34
I0728 10:01:18.967852 22015 net.cpp:380] score34_slicer_conv_33_split -> score34_slicer_conv_33_split_0
I0728 10:01:18.967859 22015 net.cpp:380] score34_slicer_conv_33_split -> score34_slicer_conv_33_split_1
I0728 10:01:18.967897 22015 net.cpp:122] Setting up score34_slicer_conv_33_split
I0728 10:01:18.967903 22015 net.cpp:129] Top shape: 1 1 48 64 (3072)
I0728 10:01:18.967907 22015 net.cpp:129] Top shape: 1 1 48 64 (3072)
I0728 10:01:18.967918 22015 net.cpp:137] Memory required for data: 487649280
I0728 10:01:18.967922 22015 layer_factory.hpp:77] Creating layer score35_slicer_conv_34_split
I0728 10:01:18.967927 22015 net.cpp:84] Creating Layer score35_slicer_conv_34_split
I0728 10:01:18.967932 22015 net.cpp:406] score35_slicer_conv_34_split <- score35
I0728 10:01:18.967937 22015 net.cpp:380] score35_slicer_conv_34_split -> score35_slicer_conv_34_split_0
I0728 10:01:18.967943 22015 net.cpp:380] score35_slicer_conv_34_split -> score35_slicer_conv_34_split_1
I0728 10:01:18.967985 22015 net.cpp:122] Setting up score35_slicer_conv_34_split
I0728 10:01:18.967993 22015 net.cpp:129] Top shape: 1 1 48 64 (3072)
I0728 10:01:18.967996 22015 net.cpp:129] Top shape: 1 1 48 64 (3072)
I0728 10:01:18.967999 22015 net.cpp:137] Memory required for data: 487673856
I0728 10:01:18.968003 22015 layer_factory.hpp:77] Creating layer score36_slicer_conv_35_split
I0728 10:01:18.968008 22015 net.cpp:84] Creating Layer score36_slicer_conv_35_split
I0728 10:01:18.968013 22015 net.cpp:406] score36_slicer_conv_35_split <- score36
I0728 10:01:18.968019 22015 net.cpp:380] score36_slicer_conv_35_split -> score36_slicer_conv_35_split_0
I0728 10:01:18.968025 22015 net.cpp:380] score36_slicer_conv_35_split -> score36_slicer_conv_35_split_1
I0728 10:01:18.968080 22015 net.cpp:122] Setting up score36_slicer_conv_35_split
I0728 10:01:18.968086 22015 net.cpp:129] Top shape: 1 1 48 64 (3072)
I0728 10:01:18.968091 22015 net.cpp:129] Top shape: 1 1 48 64 (3072)
I0728 10:01:18.968094 22015 net.cpp:137] Memory required for data: 487698432
I0728 10:01:18.968097 22015 layer_factory.hpp:77] Creating layer score37_slicer_conv_36_split
I0728 10:01:18.968104 22015 net.cpp:84] Creating Layer score37_slicer_conv_36_split
I0728 10:01:18.968109 22015 net.cpp:406] score37_slicer_conv_36_split <- score37
I0728 10:01:18.968113 22015 net.cpp:380] score37_slicer_conv_36_split -> score37_slicer_conv_36_split_0
I0728 10:01:18.968119 22015 net.cpp:380] score37_slicer_conv_36_split -> score37_slicer_conv_36_split_1
I0728 10:01:18.968158 22015 net.cpp:122] Setting up score37_slicer_conv_36_split
I0728 10:01:18.968165 22015 net.cpp:129] Top shape: 1 1 48 64 (3072)
I0728 10:01:18.968169 22015 net.cpp:129] Top shape: 1 1 48 64 (3072)
I0728 10:01:18.968173 22015 net.cpp:137] Memory required for data: 487723008
I0728 10:01:18.968175 22015 layer_factory.hpp:77] Creating layer score38_slicer_conv_37_split
I0728 10:01:18.968180 22015 net.cpp:84] Creating Layer score38_slicer_conv_37_split
I0728 10:01:18.968184 22015 net.cpp:406] score38_slicer_conv_37_split <- score38
I0728 10:01:18.968189 22015 net.cpp:380] score38_slicer_conv_37_split -> score38_slicer_conv_37_split_0
I0728 10:01:18.968196 22015 net.cpp:380] score38_slicer_conv_37_split -> score38_slicer_conv_37_split_1
I0728 10:01:18.968233 22015 net.cpp:122] Setting up score38_slicer_conv_37_split
I0728 10:01:18.968240 22015 net.cpp:129] Top shape: 1 1 48 64 (3072)
I0728 10:01:18.968245 22015 net.cpp:129] Top shape: 1 1 48 64 (3072)
I0728 10:01:18.968247 22015 net.cpp:137] Memory required for data: 487747584
I0728 10:01:18.968251 22015 layer_factory.hpp:77] Creating layer score39_slicer_conv_38_split
I0728 10:01:18.968257 22015 net.cpp:84] Creating Layer score39_slicer_conv_38_split
I0728 10:01:18.968261 22015 net.cpp:406] score39_slicer_conv_38_split <- score39
I0728 10:01:18.968266 22015 net.cpp:380] score39_slicer_conv_38_split -> score39_slicer_conv_38_split_0
I0728 10:01:18.968272 22015 net.cpp:380] score39_slicer_conv_38_split -> score39_slicer_conv_38_split_1
I0728 10:01:18.968312 22015 net.cpp:122] Setting up score39_slicer_conv_38_split
I0728 10:01:18.968318 22015 net.cpp:129] Top shape: 1 1 48 64 (3072)
I0728 10:01:18.968322 22015 net.cpp:129] Top shape: 1 1 48 64 (3072)
I0728 10:01:18.968325 22015 net.cpp:137] Memory required for data: 487772160
I0728 10:01:18.968328 22015 layer_factory.hpp:77] Creating layer score40_slicer_conv_39_split
I0728 10:01:18.968333 22015 net.cpp:84] Creating Layer score40_slicer_conv_39_split
I0728 10:01:18.968338 22015 net.cpp:406] score40_slicer_conv_39_split <- score40
I0728 10:01:18.968350 22015 net.cpp:380] score40_slicer_conv_39_split -> score40_slicer_conv_39_split_0
I0728 10:01:18.968356 22015 net.cpp:380] score40_slicer_conv_39_split -> score40_slicer_conv_39_split_1
I0728 10:01:18.968400 22015 net.cpp:122] Setting up score40_slicer_conv_39_split
I0728 10:01:18.968407 22015 net.cpp:129] Top shape: 1 1 48 64 (3072)
I0728 10:01:18.968411 22015 net.cpp:129] Top shape: 1 1 48 64 (3072)
I0728 10:01:18.968415 22015 net.cpp:137] Memory required for data: 487796736
I0728 10:01:18.968418 22015 layer_factory.hpp:77] Creating layer score41_slicer_conv_40_split
I0728 10:01:18.968423 22015 net.cpp:84] Creating Layer score41_slicer_conv_40_split
I0728 10:01:18.968427 22015 net.cpp:406] score41_slicer_conv_40_split <- score41
I0728 10:01:18.968433 22015 net.cpp:380] score41_slicer_conv_40_split -> score41_slicer_conv_40_split_0
I0728 10:01:18.968439 22015 net.cpp:380] score41_slicer_conv_40_split -> score41_slicer_conv_40_split_1
I0728 10:01:18.968478 22015 net.cpp:122] Setting up score41_slicer_conv_40_split
I0728 10:01:18.968485 22015 net.cpp:129] Top shape: 1 1 48 64 (3072)
I0728 10:01:18.968489 22015 net.cpp:129] Top shape: 1 1 48 64 (3072)
I0728 10:01:18.968493 22015 net.cpp:137] Memory required for data: 487821312
I0728 10:01:18.968497 22015 layer_factory.hpp:77] Creating layer score42_slicer_conv_41_split
I0728 10:01:18.968502 22015 net.cpp:84] Creating Layer score42_slicer_conv_41_split
I0728 10:01:18.968505 22015 net.cpp:406] score42_slicer_conv_41_split <- score42
I0728 10:01:18.968510 22015 net.cpp:380] score42_slicer_conv_41_split -> score42_slicer_conv_41_split_0
I0728 10:01:18.968516 22015 net.cpp:380] score42_slicer_conv_41_split -> score42_slicer_conv_41_split_1
I0728 10:01:18.968555 22015 net.cpp:122] Setting up score42_slicer_conv_41_split
I0728 10:01:18.968562 22015 net.cpp:129] Top shape: 1 1 48 64 (3072)
I0728 10:01:18.968566 22015 net.cpp:129] Top shape: 1 1 48 64 (3072)
I0728 10:01:18.968569 22015 net.cpp:137] Memory required for data: 487845888
I0728 10:01:18.968572 22015 layer_factory.hpp:77] Creating layer score43_slicer_conv_42_split
I0728 10:01:18.968577 22015 net.cpp:84] Creating Layer score43_slicer_conv_42_split
I0728 10:01:18.968581 22015 net.cpp:406] score43_slicer_conv_42_split <- score43
I0728 10:01:18.968590 22015 net.cpp:380] score43_slicer_conv_42_split -> score43_slicer_conv_42_split_0
I0728 10:01:18.968596 22015 net.cpp:380] score43_slicer_conv_42_split -> score43_slicer_conv_42_split_1
I0728 10:01:18.968636 22015 net.cpp:122] Setting up score43_slicer_conv_42_split
I0728 10:01:18.968643 22015 net.cpp:129] Top shape: 1 1 48 64 (3072)
I0728 10:01:18.968647 22015 net.cpp:129] Top shape: 1 1 48 64 (3072)
I0728 10:01:18.968650 22015 net.cpp:137] Memory required for data: 487870464
I0728 10:01:18.968654 22015 layer_factory.hpp:77] Creating layer score44_slicer_conv_43_split
I0728 10:01:18.968659 22015 net.cpp:84] Creating Layer score44_slicer_conv_43_split
I0728 10:01:18.968664 22015 net.cpp:406] score44_slicer_conv_43_split <- score44
I0728 10:01:18.968669 22015 net.cpp:380] score44_slicer_conv_43_split -> score44_slicer_conv_43_split_0
I0728 10:01:18.968675 22015 net.cpp:380] score44_slicer_conv_43_split -> score44_slicer_conv_43_split_1
I0728 10:01:18.968714 22015 net.cpp:122] Setting up score44_slicer_conv_43_split
I0728 10:01:18.968720 22015 net.cpp:129] Top shape: 1 1 48 64 (3072)
I0728 10:01:18.968724 22015 net.cpp:129] Top shape: 1 1 48 64 (3072)
I0728 10:01:18.968729 22015 net.cpp:137] Memory required for data: 487895040
I0728 10:01:18.968731 22015 layer_factory.hpp:77] Creating layer score45_slicer_conv_44_split
I0728 10:01:18.968736 22015 net.cpp:84] Creating Layer score45_slicer_conv_44_split
I0728 10:01:18.968740 22015 net.cpp:406] score45_slicer_conv_44_split <- score45
I0728 10:01:18.968746 22015 net.cpp:380] score45_slicer_conv_44_split -> score45_slicer_conv_44_split_0
I0728 10:01:18.968752 22015 net.cpp:380] score45_slicer_conv_44_split -> score45_slicer_conv_44_split_1
I0728 10:01:18.968791 22015 net.cpp:122] Setting up score45_slicer_conv_44_split
I0728 10:01:18.968806 22015 net.cpp:129] Top shape: 1 1 48 64 (3072)
I0728 10:01:18.968811 22015 net.cpp:129] Top shape: 1 1 48 64 (3072)
I0728 10:01:18.968814 22015 net.cpp:137] Memory required for data: 487919616
I0728 10:01:18.968818 22015 layer_factory.hpp:77] Creating layer score46_slicer_conv_45_split
I0728 10:01:18.968827 22015 net.cpp:84] Creating Layer score46_slicer_conv_45_split
I0728 10:01:18.968830 22015 net.cpp:406] score46_slicer_conv_45_split <- score46
I0728 10:01:18.968837 22015 net.cpp:380] score46_slicer_conv_45_split -> score46_slicer_conv_45_split_0
I0728 10:01:18.968842 22015 net.cpp:380] score46_slicer_conv_45_split -> score46_slicer_conv_45_split_1
I0728 10:01:18.968885 22015 net.cpp:122] Setting up score46_slicer_conv_45_split
I0728 10:01:18.968893 22015 net.cpp:129] Top shape: 1 1 48 64 (3072)
I0728 10:01:18.968896 22015 net.cpp:129] Top shape: 1 1 48 64 (3072)
I0728 10:01:18.968899 22015 net.cpp:137] Memory required for data: 487944192
I0728 10:01:18.968904 22015 layer_factory.hpp:77] Creating layer score47_slicer_conv_46_split
I0728 10:01:18.968909 22015 net.cpp:84] Creating Layer score47_slicer_conv_46_split
I0728 10:01:18.968912 22015 net.cpp:406] score47_slicer_conv_46_split <- score47
I0728 10:01:18.968917 22015 net.cpp:380] score47_slicer_conv_46_split -> score47_slicer_conv_46_split_0
I0728 10:01:18.968924 22015 net.cpp:380] score47_slicer_conv_46_split -> score47_slicer_conv_46_split_1
I0728 10:01:18.968964 22015 net.cpp:122] Setting up score47_slicer_conv_46_split
I0728 10:01:18.968971 22015 net.cpp:129] Top shape: 1 1 48 64 (3072)
I0728 10:01:18.968974 22015 net.cpp:129] Top shape: 1 1 48 64 (3072)
I0728 10:01:18.968977 22015 net.cpp:137] Memory required for data: 487968768
I0728 10:01:18.968981 22015 layer_factory.hpp:77] Creating layer score48_slicer_conv_47_split
I0728 10:01:18.968988 22015 net.cpp:84] Creating Layer score48_slicer_conv_47_split
I0728 10:01:18.968992 22015 net.cpp:406] score48_slicer_conv_47_split <- score48
I0728 10:01:18.968997 22015 net.cpp:380] score48_slicer_conv_47_split -> score48_slicer_conv_47_split_0
I0728 10:01:18.969003 22015 net.cpp:380] score48_slicer_conv_47_split -> score48_slicer_conv_47_split_1
I0728 10:01:18.969043 22015 net.cpp:122] Setting up score48_slicer_conv_47_split
I0728 10:01:18.969049 22015 net.cpp:129] Top shape: 1 1 48 64 (3072)
I0728 10:01:18.969053 22015 net.cpp:129] Top shape: 1 1 48 64 (3072)
I0728 10:01:18.969058 22015 net.cpp:137] Memory required for data: 487993344
I0728 10:01:18.969061 22015 layer_factory.hpp:77] Creating layer score49_slicer_conv_48_split
I0728 10:01:18.969066 22015 net.cpp:84] Creating Layer score49_slicer_conv_48_split
I0728 10:01:18.969070 22015 net.cpp:406] score49_slicer_conv_48_split <- score49
I0728 10:01:18.969075 22015 net.cpp:380] score49_slicer_conv_48_split -> score49_slicer_conv_48_split_0
I0728 10:01:18.969081 22015 net.cpp:380] score49_slicer_conv_48_split -> score49_slicer_conv_48_split_1
I0728 10:01:18.969121 22015 net.cpp:122] Setting up score49_slicer_conv_48_split
I0728 10:01:18.969127 22015 net.cpp:129] Top shape: 1 1 48 64 (3072)
I0728 10:01:18.969131 22015 net.cpp:129] Top shape: 1 1 48 64 (3072)
I0728 10:01:18.969135 22015 net.cpp:137] Memory required for data: 488017920
I0728 10:01:18.969137 22015 layer_factory.hpp:77] Creating layer score50_slicer_conv_49_split
I0728 10:01:18.969142 22015 net.cpp:84] Creating Layer score50_slicer_conv_49_split
I0728 10:01:18.969146 22015 net.cpp:406] score50_slicer_conv_49_split <- score50
I0728 10:01:18.969152 22015 net.cpp:380] score50_slicer_conv_49_split -> score50_slicer_conv_49_split_0
I0728 10:01:18.969158 22015 net.cpp:380] score50_slicer_conv_49_split -> score50_slicer_conv_49_split_1
I0728 10:01:18.969197 22015 net.cpp:122] Setting up score50_slicer_conv_49_split
I0728 10:01:18.969203 22015 net.cpp:129] Top shape: 1 1 48 64 (3072)
I0728 10:01:18.969208 22015 net.cpp:129] Top shape: 1 1 48 64 (3072)
I0728 10:01:18.969211 22015 net.cpp:137] Memory required for data: 488042496
I0728 10:01:18.969223 22015 layer_factory.hpp:77] Creating layer score51_slicer_conv_50_split
I0728 10:01:18.969228 22015 net.cpp:84] Creating Layer score51_slicer_conv_50_split
I0728 10:01:18.969231 22015 net.cpp:406] score51_slicer_conv_50_split <- score51
I0728 10:01:18.969238 22015 net.cpp:380] score51_slicer_conv_50_split -> score51_slicer_conv_50_split_0
I0728 10:01:18.969244 22015 net.cpp:380] score51_slicer_conv_50_split -> score51_slicer_conv_50_split_1
I0728 10:01:18.969285 22015 net.cpp:122] Setting up score51_slicer_conv_50_split
I0728 10:01:18.969291 22015 net.cpp:129] Top shape: 1 1 48 64 (3072)
I0728 10:01:18.969295 22015 net.cpp:129] Top shape: 1 1 48 64 (3072)
I0728 10:01:18.969300 22015 net.cpp:137] Memory required for data: 488067072
I0728 10:01:18.969307 22015 layer_factory.hpp:77] Creating layer score52_slicer_conv_51_split
I0728 10:01:18.969313 22015 net.cpp:84] Creating Layer score52_slicer_conv_51_split
I0728 10:01:18.969317 22015 net.cpp:406] score52_slicer_conv_51_split <- score52
I0728 10:01:18.969323 22015 net.cpp:380] score52_slicer_conv_51_split -> score52_slicer_conv_51_split_0
I0728 10:01:18.969329 22015 net.cpp:380] score52_slicer_conv_51_split -> score52_slicer_conv_51_split_1
I0728 10:01:18.969369 22015 net.cpp:122] Setting up score52_slicer_conv_51_split
I0728 10:01:18.969375 22015 net.cpp:129] Top shape: 1 1 48 64 (3072)
I0728 10:01:18.969380 22015 net.cpp:129] Top shape: 1 1 48 64 (3072)
I0728 10:01:18.969383 22015 net.cpp:137] Memory required for data: 488091648
I0728 10:01:18.969385 22015 layer_factory.hpp:77] Creating layer score53_slicer_conv_52_split
I0728 10:01:18.969393 22015 net.cpp:84] Creating Layer score53_slicer_conv_52_split
I0728 10:01:18.969396 22015 net.cpp:406] score53_slicer_conv_52_split <- score53
I0728 10:01:18.969401 22015 net.cpp:380] score53_slicer_conv_52_split -> score53_slicer_conv_52_split_0
I0728 10:01:18.969408 22015 net.cpp:380] score53_slicer_conv_52_split -> score53_slicer_conv_52_split_1
I0728 10:01:18.969446 22015 net.cpp:122] Setting up score53_slicer_conv_52_split
I0728 10:01:18.969452 22015 net.cpp:129] Top shape: 1 1 48 64 (3072)
I0728 10:01:18.969456 22015 net.cpp:129] Top shape: 1 1 48 64 (3072)
I0728 10:01:18.969460 22015 net.cpp:137] Memory required for data: 488116224
I0728 10:01:18.969463 22015 layer_factory.hpp:77] Creating layer score54_slicer_conv_53_split
I0728 10:01:18.969468 22015 net.cpp:84] Creating Layer score54_slicer_conv_53_split
I0728 10:01:18.969472 22015 net.cpp:406] score54_slicer_conv_53_split <- score54
I0728 10:01:18.969478 22015 net.cpp:380] score54_slicer_conv_53_split -> score54_slicer_conv_53_split_0
I0728 10:01:18.969485 22015 net.cpp:380] score54_slicer_conv_53_split -> score54_slicer_conv_53_split_1
I0728 10:01:18.969525 22015 net.cpp:122] Setting up score54_slicer_conv_53_split
I0728 10:01:18.969532 22015 net.cpp:129] Top shape: 1 1 48 64 (3072)
I0728 10:01:18.969535 22015 net.cpp:129] Top shape: 1 1 48 64 (3072)
I0728 10:01:18.969538 22015 net.cpp:137] Memory required for data: 488140800
I0728 10:01:18.969542 22015 layer_factory.hpp:77] Creating layer score55_slicer_conv_54_split
I0728 10:01:18.969548 22015 net.cpp:84] Creating Layer score55_slicer_conv_54_split
I0728 10:01:18.969552 22015 net.cpp:406] score55_slicer_conv_54_split <- score55
I0728 10:01:18.969558 22015 net.cpp:380] score55_slicer_conv_54_split -> score55_slicer_conv_54_split_0
I0728 10:01:18.969583 22015 net.cpp:380] score55_slicer_conv_54_split -> score55_slicer_conv_54_split_1
I0728 10:01:18.969625 22015 net.cpp:122] Setting up score55_slicer_conv_54_split
I0728 10:01:18.969631 22015 net.cpp:129] Top shape: 1 1 48 64 (3072)
I0728 10:01:18.969636 22015 net.cpp:129] Top shape: 1 1 48 64 (3072)
I0728 10:01:18.969640 22015 net.cpp:137] Memory required for data: 488165376
I0728 10:01:18.969643 22015 layer_factory.hpp:77] Creating layer score56_slicer_conv_55_split
I0728 10:01:18.969648 22015 net.cpp:84] Creating Layer score56_slicer_conv_55_split
I0728 10:01:18.969652 22015 net.cpp:406] score56_slicer_conv_55_split <- score56
I0728 10:01:18.969657 22015 net.cpp:380] score56_slicer_conv_55_split -> score56_slicer_conv_55_split_0
I0728 10:01:18.969672 22015 net.cpp:380] score56_slicer_conv_55_split -> score56_slicer_conv_55_split_1
I0728 10:01:18.969715 22015 net.cpp:122] Setting up score56_slicer_conv_55_split
I0728 10:01:18.969722 22015 net.cpp:129] Top shape: 1 1 48 64 (3072)
I0728 10:01:18.969727 22015 net.cpp:129] Top shape: 1 1 48 64 (3072)
I0728 10:01:18.969729 22015 net.cpp:137] Memory required for data: 488189952
I0728 10:01:18.969733 22015 layer_factory.hpp:77] Creating layer score57_slicer_conv_56_split
I0728 10:01:18.969738 22015 net.cpp:84] Creating Layer score57_slicer_conv_56_split
I0728 10:01:18.969743 22015 net.cpp:406] score57_slicer_conv_56_split <- score57
I0728 10:01:18.969748 22015 net.cpp:380] score57_slicer_conv_56_split -> score57_slicer_conv_56_split_0
I0728 10:01:18.969754 22015 net.cpp:380] score57_slicer_conv_56_split -> score57_slicer_conv_56_split_1
I0728 10:01:18.969794 22015 net.cpp:122] Setting up score57_slicer_conv_56_split
I0728 10:01:18.969800 22015 net.cpp:129] Top shape: 1 1 48 64 (3072)
I0728 10:01:18.969805 22015 net.cpp:129] Top shape: 1 1 48 64 (3072)
I0728 10:01:18.969808 22015 net.cpp:137] Memory required for data: 488214528
I0728 10:01:18.969811 22015 layer_factory.hpp:77] Creating layer score58_slicer_conv_57_split
I0728 10:01:18.969816 22015 net.cpp:84] Creating Layer score58_slicer_conv_57_split
I0728 10:01:18.969820 22015 net.cpp:406] score58_slicer_conv_57_split <- score58
I0728 10:01:18.969825 22015 net.cpp:380] score58_slicer_conv_57_split -> score58_slicer_conv_57_split_0
I0728 10:01:18.969831 22015 net.cpp:380] score58_slicer_conv_57_split -> score58_slicer_conv_57_split_1
I0728 10:01:18.969872 22015 net.cpp:122] Setting up score58_slicer_conv_57_split
I0728 10:01:18.969879 22015 net.cpp:129] Top shape: 1 1 48 64 (3072)
I0728 10:01:18.969883 22015 net.cpp:129] Top shape: 1 1 48 64 (3072)
I0728 10:01:18.969887 22015 net.cpp:137] Memory required for data: 488239104
I0728 10:01:18.969892 22015 layer_factory.hpp:77] Creating layer score59_slicer_conv_58_split
I0728 10:01:18.969897 22015 net.cpp:84] Creating Layer score59_slicer_conv_58_split
I0728 10:01:18.969899 22015 net.cpp:406] score59_slicer_conv_58_split <- score59
I0728 10:01:18.969907 22015 net.cpp:380] score59_slicer_conv_58_split -> score59_slicer_conv_58_split_0
I0728 10:01:18.969913 22015 net.cpp:380] score59_slicer_conv_58_split -> score59_slicer_conv_58_split_1
I0728 10:01:18.969952 22015 net.cpp:122] Setting up score59_slicer_conv_58_split
I0728 10:01:18.969959 22015 net.cpp:129] Top shape: 1 1 48 64 (3072)
I0728 10:01:18.969964 22015 net.cpp:129] Top shape: 1 1 48 64 (3072)
I0728 10:01:18.969967 22015 net.cpp:137] Memory required for data: 488263680
I0728 10:01:18.969971 22015 layer_factory.hpp:77] Creating layer score60_slicer_conv_59_split
I0728 10:01:18.969976 22015 net.cpp:84] Creating Layer score60_slicer_conv_59_split
I0728 10:01:18.969980 22015 net.cpp:406] score60_slicer_conv_59_split <- score60
I0728 10:01:18.969985 22015 net.cpp:380] score60_slicer_conv_59_split -> score60_slicer_conv_59_split_0
I0728 10:01:18.969991 22015 net.cpp:380] score60_slicer_conv_59_split -> score60_slicer_conv_59_split_1
I0728 10:01:18.970032 22015 net.cpp:122] Setting up score60_slicer_conv_59_split
I0728 10:01:18.970038 22015 net.cpp:129] Top shape: 1 1 48 64 (3072)
I0728 10:01:18.970043 22015 net.cpp:129] Top shape: 1 1 48 64 (3072)
I0728 10:01:18.970046 22015 net.cpp:137] Memory required for data: 488288256
I0728 10:01:18.970051 22015 layer_factory.hpp:77] Creating layer score61_slicer_conv_60_split
I0728 10:01:18.970057 22015 net.cpp:84] Creating Layer score61_slicer_conv_60_split
I0728 10:01:18.970060 22015 net.cpp:406] score61_slicer_conv_60_split <- score61
I0728 10:01:18.970065 22015 net.cpp:380] score61_slicer_conv_60_split -> score61_slicer_conv_60_split_0
I0728 10:01:18.970075 22015 net.cpp:380] score61_slicer_conv_60_split -> score61_slicer_conv_60_split_1
I0728 10:01:18.970116 22015 net.cpp:122] Setting up score61_slicer_conv_60_split
I0728 10:01:18.970124 22015 net.cpp:129] Top shape: 1 1 48 64 (3072)
I0728 10:01:18.970135 22015 net.cpp:129] Top shape: 1 1 48 64 (3072)
I0728 10:01:18.970139 22015 net.cpp:137] Memory required for data: 488312832
I0728 10:01:18.970144 22015 layer_factory.hpp:77] Creating layer score62_slicer_conv_61_split
I0728 10:01:18.970149 22015 net.cpp:84] Creating Layer score62_slicer_conv_61_split
I0728 10:01:18.970154 22015 net.cpp:406] score62_slicer_conv_61_split <- score62
I0728 10:01:18.970160 22015 net.cpp:380] score62_slicer_conv_61_split -> score62_slicer_conv_61_split_0
I0728 10:01:18.970165 22015 net.cpp:380] score62_slicer_conv_61_split -> score62_slicer_conv_61_split_1
I0728 10:01:18.970208 22015 net.cpp:122] Setting up score62_slicer_conv_61_split
I0728 10:01:18.970214 22015 net.cpp:129] Top shape: 1 1 48 64 (3072)
I0728 10:01:18.970219 22015 net.cpp:129] Top shape: 1 1 48 64 (3072)
I0728 10:01:18.970222 22015 net.cpp:137] Memory required for data: 488337408
I0728 10:01:18.970227 22015 layer_factory.hpp:77] Creating layer score63_slicer_conv_62_split
I0728 10:01:18.970232 22015 net.cpp:84] Creating Layer score63_slicer_conv_62_split
I0728 10:01:18.970235 22015 net.cpp:406] score63_slicer_conv_62_split <- score63
I0728 10:01:18.970242 22015 net.cpp:380] score63_slicer_conv_62_split -> score63_slicer_conv_62_split_0
I0728 10:01:18.970248 22015 net.cpp:380] score63_slicer_conv_62_split -> score63_slicer_conv_62_split_1
I0728 10:01:18.970288 22015 net.cpp:122] Setting up score63_slicer_conv_62_split
I0728 10:01:18.970294 22015 net.cpp:129] Top shape: 1 1 48 64 (3072)
I0728 10:01:18.970299 22015 net.cpp:129] Top shape: 1 1 48 64 (3072)
I0728 10:01:18.970302 22015 net.cpp:137] Memory required for data: 488361984
I0728 10:01:18.970304 22015 layer_factory.hpp:77] Creating layer score64_slicer_conv_63_split
I0728 10:01:18.970310 22015 net.cpp:84] Creating Layer score64_slicer_conv_63_split
I0728 10:01:18.970314 22015 net.cpp:406] score64_slicer_conv_63_split <- score64
I0728 10:01:18.970319 22015 net.cpp:380] score64_slicer_conv_63_split -> score64_slicer_conv_63_split_0
I0728 10:01:18.970325 22015 net.cpp:380] score64_slicer_conv_63_split -> score64_slicer_conv_63_split_1
I0728 10:01:18.970366 22015 net.cpp:122] Setting up score64_slicer_conv_63_split
I0728 10:01:18.970372 22015 net.cpp:129] Top shape: 1 1 48 64 (3072)
I0728 10:01:18.970376 22015 net.cpp:129] Top shape: 1 1 48 64 (3072)
I0728 10:01:18.970379 22015 net.cpp:137] Memory required for data: 488386560
I0728 10:01:18.970383 22015 layer_factory.hpp:77] Creating layer sumscore
I0728 10:01:18.970398 22015 net.cpp:84] Creating Layer sumscore
I0728 10:01:18.970402 22015 net.cpp:406] sumscore <- score1_slicer_conv_0_split_0
I0728 10:01:18.970408 22015 net.cpp:406] sumscore <- score2_slicer_conv_1_split_0
I0728 10:01:18.970413 22015 net.cpp:406] sumscore <- score3_slicer_conv_2_split_0
…
I0728 10:01:18.971467 22015 net.cpp:380] sumscore_sumscore_0_split -> sumscore_sumscore_0_split_59
I0728 10:01:18.971479 22015 net.cpp:380] sumscore_sumscore_0_split -> sumscore_sumscore_0_split_60
I0728 10:01:18.971491 22015 net.cpp:380] sumscore_sumscore_0_split -> sumscore_sumscore_0_split_61
I0728 10:01:18.971503 22015 net.cpp:380] sumscore_sumscore_0_split -> sumscore_sumscore_0_split_62
I0728 10:01:18.971513 22015 net.cpp:380] sumscore_sumscore_0_split -> sumscore_sumscore_0_split_63
I0728 10:01:18.972319 22015 net.cpp:122] Setting up sumscore_sumscore_0_split
I0728 10:01:18.972327 22015 net.cpp:129] Top shape: 1 1 48 64 (3072)
I0728 10:01:18.972332 22015 net.cpp:129] Top shape: 1 1 48 64 (3072)
I0728 10:01:18.972335 22015 net.cpp:129] Top shape: 1 1 48 64 (3072)
I0728 10:01:18.972340 22015 net.cpp:129] Top shape: 1 1 48 64 (3072)
I0728 10:01:18.972344 22015 net.cpp:129] Top shape: 1 1 48 64 (3072)
I0728 10:01:18.972348 22015 net.cpp:129] Top shape: 1 1 48 64 (3072)
I0728 10:01:18.972352 22015 net.cpp:129] Top shape: 1 1 48 64 (3072)
I0728 10:01:18.972357 22015 net.cpp:129] Top shape: 1 1 48 64 (3072)
I0728 10:01:18.972360 22015 net.cpp:129] Top shape: 1 1 48 64 (3072)
I0728 10:01:18.972364 22015 net.cpp:129] Top shape: 1 1 48 64 (3072)
I0728 10:01:18.972368 22015 net.cpp:129] Top shape: 1 1 48 64 (3072)
I0728 10:01:18.972373 22015 net.cpp:129] Top shape: 1 1 48 64 (3072)
I0728 10:01:18.972376 22015 net.cpp:129] Top shape: 1 1 48 64 (3072)
I0728 10:01:18.972380 22015 net.cpp:129] Top shape: 1 1 48 64 (3072)
I0728 10:01:18.972384 22015 net.cpp:129] Top shape: 1 1 48 64 (3072)
I0728 10:01:18.972388 22015 net.cpp:129] Top shape: 1 1 48 64 (3072)
I0728 10:01:18.972393 22015 net.cpp:129] Top shape: 1 1 48 64 (3072)
I0728 10:01:18.972398 22015 net.cpp:129] Top shape: 1 1 48 64 (3072)
I0728 10:01:18.972400 22015 net.cpp:129] Top shape: 1 1 48 64 (3072)
I0728 10:01:18.972405 22015 net.cpp:129] Top shape: 1 1 48 64 (3072)
I0728 10:01:18.972409 22015 net.cpp:129] Top shape: 1 1 48 64 (3072)
I0728 10:01:18.972414 22015 net.cpp:129] Top shape: 1 1 48 64 (3072)
I0728 10:01:18.972426 22015 net.cpp:129] Top shape: 1 1 48 64 (3072)
I0728 10:01:18.972430 22015 net.cpp:129] Top shape: 1 1 48 64 (3072)
I0728 10:01:18.972434 22015 net.cpp:129] Top shape: 1 1 48 64 (3072)
I0728 10:01:18.972439 22015 net.cpp:129] Top shape: 1 1 48 64 (3072)
I0728 10:01:18.972442 22015 net.cpp:129] Top shape: 1 1 48 64 (3072)
I0728 10:01:18.972446 22015 net.cpp:129] Top shape: 1 1 48 64 (3072)
I0728 10:01:18.972450 22015 net.cpp:129] Top shape: 1 1 48 64 (3072)
I0728 10:01:18.972455 22015 net.cpp:129] Top shape: 1 1 48 64 (3072)
I0728 10:01:18.972460 22015 net.cpp:129] Top shape: 1 1 48 64 (3072)
I0728 10:01:18.972463 22015 net.cpp:129] Top shape: 1 1 48 64 (3072)
I0728 10:01:18.972467 22015 net.cpp:129] Top shape: 1 1 48 64 (3072)
I0728 10:01:18.972471 22015 net.cpp:129] Top shape: 1 1 48 64 (3072)
I0728 10:01:18.972476 22015 net.cpp:129] Top shape: 1 1 48 64 (3072)
I0728 10:01:18.972479 22015 net.cpp:129] Top shape: 1 1 48 64 (3072)
I0728 10:01:18.972483 22015 net.cpp:129] Top shape: 1 1 48 64 (3072)
I0728 10:01:18.972487 22015 net.cpp:129] Top shape: 1 1 48 64 (3072)
I0728 10:01:18.972491 22015 net.cpp:129] Top shape: 1 1 48 64 (3072)
I0728 10:01:18.972496 22015 net.cpp:129] Top shape: 1 1 48 64 (3072)
I0728 10:01:18.972499 22015 net.cpp:129] Top shape: 1 1 48 64 (3072)
I0728 10:01:18.972503 22015 net.cpp:129] Top shape: 1 1 48 64 (3072)
I0728 10:01:18.972508 22015 net.cpp:129] Top shape: 1 1 48 64 (3072)
I0728 10:01:18.972512 22015 net.cpp:129] Top shape: 1 1 48 64 (3072)
I0728 10:01:18.972517 22015 net.cpp:129] Top shape: 1 1 48 64 (3072)
I0728 10:01:18.972520 22015 net.cpp:129] Top shape: 1 1 48 64 (3072)
I0728 10:01:18.972524 22015 net.cpp:129] Top shape: 1 1 48 64 (3072)
I0728 10:01:18.972528 22015 net.cpp:129] Top shape: 1 1 48 64 (3072)
I0728 10:01:18.972532 22015 net.cpp:129] Top shape: 1 1 48 64 (3072)
I0728 10:01:18.972537 22015 net.cpp:129] Top shape: 1 1 48 64 (3072)
I0728 10:01:18.972542 22015 net.cpp:129] Top shape: 1 1 48 64 (3072)
I0728 10:01:18.972545 22015 net.cpp:129] Top shape: 1 1 48 64 (3072)
I0728 10:01:18.972549 22015 net.cpp:129] Top shape: 1 1 48 64 (3072)
I0728 10:01:18.972553 22015 net.cpp:129] Top shape: 1 1 48 64 (3072)
I0728 10:01:18.972558 22015 net.cpp:129] Top shape: 1 1 48 64 (3072)
I0728 10:01:18.972561 22015 net.cpp:129] Top shape: 1 1 48 64 (3072)
I0728 10:01:18.972565 22015 net.cpp:129] Top shape: 1 1 48 64 (3072)
I0728 10:01:18.972569 22015 net.cpp:129] Top shape: 1 1 48 64 (3072)
I0728 10:01:18.972573 22015 net.cpp:129] Top shape: 1 1 48 64 (3072)
I0728 10:01:18.972579 22015 net.cpp:129] Top shape: 1 1 48 64 (3072)
I0728 10:01:18.972582 22015 net.cpp:129] Top shape: 1 1 48 64 (3072)
I0728 10:01:18.972586 22015 net.cpp:129] Top shape: 1 1 48 64 (3072)
I0728 10:01:18.972590 22015 net.cpp:129] Top shape: 1 1 48 64 (3072)
I0728 10:01:18.972594 22015 net.cpp:129] Top shape: 1 1 48 64 (3072)
I0728 10:01:18.972597 22015 net.cpp:137] Memory required for data: 489185280
I0728 10:01:18.972601 22015 layer_factory.hpp:77] Creating layer loss1
I0728 10:01:18.972609 22015 net.cpp:84] Creating Layer loss1
I0728 10:01:18.972615 22015 net.cpp:406] loss1 <- score1_slicer_conv_0_split_1
I0728 10:01:18.972620 22015 net.cpp:406] loss1 <- label_label_0_split_0
I0728 10:01:18.972625 22015 net.cpp:406] loss1 <- sumscore_sumscore_0_split_0
…
I0728 10:01:18.994761 22015 net.cpp:51] Initializing net from parameters: 
name: "crowd_counting"
state {
  phase: TEST
}
layer {
  name: "data"
  type: "Data"
  top: "data"
  include {
    phase: TEST
  }
  data_param {
    source: "/home/peiyong/Work/Zenglin/szl/ShanghaiTech/partA/test_8/image_lmdb"
    batch_size: 1
    backend: LMDB
  }
}
layer {
  name: "label"
  type: "Data"
  top: "label"
  include {
    phase: TEST
  }
  data_param {
    source: "/home/peiyong/Work/Zenglin/szl/ShanghaiTech/partA/test_8/dmap_lmdb"
    batch_size: 1
    backend: LMDB
  }
}
layer {
  name: "conv1_1"
  type: "Convolution"
  bottom: "data"
  top: "conv1_1"
  param {
    lr_mult: 0.1
    decay_mult: 1
  }
  param {
    lr_mult: 0.2
    decay_mult: 0
  }
  convolution_param {
    num_output: 64
    pad: 1
    kernel_size: 3
    weight_filler {
      type: "gaussian"
      std: 0.01
    }
    bias_filler {
      type: "constant"
      value: 0
    }
  }
}
layer {
  name: "relu1_1"
  type: "ReLU"
  bottom: "conv1_1"
  top: "conv1_1"
}
layer {
  name: "conv1_2"
  type: "Convolution"
  bottom: "conv1_1"
  top: "conv1_2"
  param {
    lr_mult: 0.1
    decay_mult: 1
  }
  param {
    lr_mult: 0.2
    decay_mult: 0
  }
  convolution_param {
    num_output: 64
    pad: 1
    kernel_size: 3
    weight_filler {
      type: "gaussian"
      std: 0.01
    }
    bias_filler {
      type: "constant"
      value: 0
    }
  }
}
layer {
  name: "relu1_2"
  type: "ReLU"
  bottom: "conv1_2"
  top: "conv1_2"
}
layer {
  name: "pool1"
  type: "Pooling"
  bottom: "conv1_2"
  top: "pool1"
  pooling_param {
    pool: MAX
    kernel_size: 2
    stride: 2
  }
}
layer {
  name: "conv2_1"
  type: "Convolution"
  bottom: "pool1"
  top: "conv2_1"
  param {
    lr_mult: 0.1
    decay_mult: 1
  }
  param {
    lr_mult: 0.2
    decay_mult: 0
  }
  convolution_param {
    num_output: 128
    pad: 1
    kernel_size: 3
    weight_filler {
      type: "gaussian"
      std: 0.01
    }
    bias_filler {
      type: "constant"
      value: 0
    }
  }
}
layer {
  name: "relu2_1"
  type: "ReLU"
  bottom: "conv2_1"
  top: "conv2_1"
}
layer {
  name: "conv2_2"
  type: "Convolution"
  bottom: "conv2_1"
  top: "conv2_2"
  param {
    lr_mult: 0.1
    decay_mult: 1
  }
  param {
    lr_mult: 0.2
    decay_mult: 0
  }
  convolution_param {
    num_output: 128
    pad: 1
    kernel_size: 3
    weight_filler {
      type: "gaussian"
      std: 0.01
    }
    bias_filler {
      type: "constant"
      value: 0
    }
  }
}
layer {
  name: "relu2_2"
  type: "ReLU"
  bottom: "conv2_2"
  top: "conv2_2"
}
layer {
  name: "pool2"
  type: "Pooling"
  bottom: "conv2_2"
  top: "pool2"
  pooling_param {
    pool: MAX
    kernel_size: 2
    stride: 2
  }
}
layer {
  name: "conv3_1"
  type: "Convolution"
  bottom: "pool2"
  top: "conv3_1"
  param {
    lr_mult: 0.1
    decay_mult: 1
  }
  param {
    lr_mult: 0.2
    decay_mult: 0
  }
  convolution_param {
    num_output: 256
    pad: 1
    kernel_size: 3
    weight_filler {
      type: "gaussian"
      std: 0.01
    }
    bias_filler {
      type: "constant"
      value: 0
    }
  }
}
layer {
  name: "relu3_1"
  type: "ReLU"
  bottom: "conv3_1"
  top: "conv3_1"
}
layer {
  name: "conv3_2"
  type: "Convolution"
  bottom: "conv3_1"
  top: "conv3_2"
  param {
    lr_mult: 0.1
    decay_mult: 1
  }
  param {
    lr_mult: 0.2
    decay_mult: 0
  }
  convolution_param {
    num_output: 256
    pad: 1
    kernel_size: 3
    weight_filler {
      type: "gaussian"
      std: 0.01
    }
    bias_filler {
      type: "constant"
      value: 0
    }
  }
}
layer {
  name: "relu3_2"
  type: "ReLU"
  bottom: "conv3_2"
  top: "conv3_2"
}
layer {
  name: "conv3_3"
  type: "Convolution"
  bottom: "conv3_2"
  top: "conv3_3"
  param {
    lr_mult: 0.1
    decay_mult: 1
  }
  param {
    lr_mult: 0.2
    decay_mult: 0
  }
  convolution_param {
    num_output: 256
    pad: 1
    kernel_size: 3
    weight_filler {
      type: "gaussian"
      std: 0.01
    }
    bias_filler {
      type: "constant"
      value: 0
    }
  }
}
layer {
  name: "relu3_3"
  type: "ReLU"
  bottom: "conv3_3"
  top: "conv3_3"
}
layer {
  name: "pool3"
  type: "Pooling"
  bottom: "conv3_3"
  top: "pool3"
  pooling_param {
    pool: MAX
    kernel_size: 2
    stride: 2
  }
}
layer {
  name: "conv4_1"
  type: "Convolution"
  bottom: "pool3"
  top: "conv4_1"
  param {
    lr_mult: 0.1
    decay_mult: 1
  }
  param {
    lr_mult: 0.2
    decay_mult: 0
  }
  convolution_param {
    num_output: 512
    pad: 1
    kernel_size: 3
    weight_filler {
      type: "gaussian"
      std: 0.01
    }
    bias_filler {
      type: "constant"
      value: 0
    }
  }
}
layer {
  name: "relu4_1"
  type: "ReLU"
  bottom: "conv4_1"
  top: "conv4_1"
}
layer {
  name: "conv4_2"
  type: "Convolution"
  bottom: "conv4_1"
  top: "conv4_2"
  param {
    lr_mult: 0.1
    decay_mult: 1
  }
  param {
    lr_mult: 0.2
    decay_mult: 0
  }
  convolution_param {
    num_output: 512
    pad: 1
    kernel_size: 3
    weight_filler {
      type: "gaussian"
      std: 0.01
    }
    bias_filler {
      type: "constant"
      value: 0
    }
  }
}
layer {
  name: "relu4_2"
  type: "ReLU"
  bottom: "conv4_2"
  top: "conv4_2"
}
layer {
  name: "conv4_3"
  type: "Convolution"
  bottom: "conv4_2"
  top: "conv4_3"
  param {
    lr_mult: 0.1
    decay_mult: 1
  }
  param {
    lr_mult: 0.2
    decay_mult: 0
  }
  convolution_param {
    num_output: 512
    pad: 1
    kernel_size: 3
    weight_filler {
      type: "gaussian"
      std: 0.01
    }
    bias_filler {
      type: "constant"
      value: 0
    }
  }
}
layer {
  name: "relu4_3"
  type: "ReLU"
  bottom: "conv4_3"
  top: "conv4_3"
}
layer {
  name: "pool4"
  type: "Pooling"
  bottom: "conv4_3"
  top: "pool4"
  pooling_param {
    pool: MAX
    kernel_size: 3
    stride: 1
    pad: 1
  }
}
layer {
  name: "conv5_1"
  type: "Convolution"
  bottom: "pool4"
  top: "conv5_1"
  param {
    lr_mult: 0.1
    decay_mult: 1
  }
  param {
    lr_mult: 0.2
    decay_mult: 0
  }
  convolution_param {
    num_output: 512
    pad: 2
    kernel_size: 3
    weight_filler {
      type: "gaussian"
      std: 0.01
    }
    bias_filler {
      type: "constant"
      value: 0
    }
    dilation: 2
  }
}
layer {
  name: "relu5_1"
  type: "ReLU"
  bottom: "conv5_1"
  top: "conv5_1"
}
layer {
  name: "conv5_2"
  type: "Convolution"
  bottom: "conv5_1"
  top: "conv5_2"
  param {
    lr_mult: 0.1
    decay_mult: 1
  }
  param {
    lr_mult: 0.2
    decay_mult: 0
  }
  convolution_param {
    num_output: 512
    pad: 2
    kernel_size: 3
    weight_filler {
      type: "gaussian"
      std: 0.01
    }
    bias_filler {
      type: "constant"
      value: 0
    }
    dilation: 2
  }
}
layer {
  name: "relu5_2"
  type: "ReLU"
  bottom: "conv5_2"
  top: "conv5_2"
}
layer {
  name: "conv5_3"
  type: "Convolution"
  bottom: "conv5_2"
  top: "conv5_3"
  param {
    lr_mult: 0.1
    decay_mult: 1
  }
  param {
    lr_mult: 0.2
    decay_mult: 0
  }
  convolution_param {
    num_output: 512
    pad: 2
    kernel_size: 3
    weight_filler {
      type: "gaussian"
      std: 0.01
    }
    bias_filler {
      type: "constant"
      value: 0
    }
    dilation: 2
  }
}
layer {
  name: "relu5_3"
  type: "ReLU"
  bottom: "conv5_3"
  top: "conv5_3"
}
layer {
  name: "conv_score"
  type: "Convolution"
  bottom: "conv5_3"
  top: "conv_score"
  param {
    lr_mult: 10
    decay_mult: 1
  }
  param {
    lr_mult: 20
    decay_mult: 0
  }
  convolution_param {
    num_output: 64
    pad: 0
    kernel_size: 1
    group: 64
    stride: 1
    weight_filler {
      type: "constant"
      value: 0.0001
    }
    bias_filler {
      type: "constant"
      value: 0
    }
  }
}
layer {
  name: "relu_score"
  type: "ReLU"
  bottom: "conv_score"
  top: "conv_score"
}
layer {
  name: "slicer_conv"
  type: "Slice"
  bottom: "conv_score"
  top: "score1"
  top: "score2"
  top: "score3"
  top: "score4"
  top: "score5"
  top: "score6"
  top: "score7"
  top: "score8"
  top: "score9"
  top: "score10"
  top: "score11"
  top: "score12"
  top: "score13"
  top: "score14"
  top: "score15"
  top: "score16"
  top: "score17"
  top: "score18"
  top: "score19"
  top: "score20"
  top: "score21"
  top: "score22"
  top: "score23"
  top: "score24"
  top: "score25"
  top: "score26"
  top: "score27"
  top: "score28"
  top: "score29"
  top: "score30"
  top: "score31"
  top: "score32"
  top: "score33"
  top: "score34"
  top: "score35"
  top: "score36"
  top: "score37"
  top: "score38"
  top: "score39"
  top: "score40"
  top: "score41"
  top: "score42"
  top: "score43"
  top: "score44"
  top: "score45"
  top: "score46"
  top: "score47"
  top: "score48"
  top: "score49"
  top: "score50"
  top: "score51"
  top: "score52"
  top: "score53"
  top: "score54"
  top: "score55"
  top: "score56"
  top: "score57"
  top: "score58"
  top: "score59"
  top: "score60"
  top: "score61"
  top: "score62"
  top: "score63"
  top: "score64"
  slice_param {
    axis: 1
  }
}
layer {
  name: "sumscore"
  type: "Eltwise"
  bottom: "score1"
  bottom: "score2"
  bottom: "score3"
  bottom: "score4"
  bottom: "score5"
  bottom: "score6"
  bottom: "score7"
  bottom: "score8"
  bottom: "score9"
  bottom: "score10"
  bottom: "score11"
  bottom: "score12"
  bottom: "score13"
  bottom: "score14"
  bottom: "score15"
  bottom: "score16"
  bottom: "score17"
  bottom: "score18"
  bottom: "score19"
  bottom: "score20"
  bottom: "score21"
  bottom: "score22"
  bottom: "score23"
  bottom: "score24"
  bottom: "score25"
  bottom: "score26"
  bottom: "score27"
  bottom: "score28"
  bottom: "score29"
  bottom: "score30"
  bottom: "score31"
  bottom: "score32"
  bottom: "score33"
  bottom: "score34"
  bottom: "score35"
  bottom: "score36"
  bottom: "score37"
  bottom: "score38"
  bottom: "score39"
  bottom: "score40"
  bottom: "score41"
  bottom: "score42"
  bottom: "score43"
  bottom: "score44"
  bottom: "score45"
  bottom: "score46"
  bottom: "score47"
  bottom: "score48"
  bottom: "score49"
  bottom: "score50"
  bottom: "score51"
  bottom: "score52"
  bottom: "score53"
  bottom: "score54"
  bottom: "score55"
  bottom: "score56"
  bottom: "score57"
  bottom: "score58"
  bottom: "score59"
  bottom: "score60"
  bottom: "score61"
  bottom: "score62"
  bottom: "score63"
  bottom: "score64"
  top: "sumscore"
  eltwise_param {
    operation: SUM
  }
}
layer {
  name: "avgscore"
  type: "Power"
  bottom: "sumscore"
  top: "avgscore"
  include {
    phase: TEST
  }
  power_param {
    power: 1
    scale: 0.015625
    shift: 0
  }
}
layer {
  name: "mae"
  type: "MAELoss"
  bottom: "avgscore"
  bottom: "label"
  top: "mae"
  include {
    phase: TEST
  }
}
layer {
  name: "mse"
  type: "MSELoss"
  bottom: "avgscore"
  bottom: "label"
  top: "mse"
  include {
    phase: TEST
  }
}
I0728 10:01:19.011427 22015 layer_factory.hpp:77] Creating layer data
I0728 10:01:19.011549 22015 db_lmdb.cpp:35] Opened lmdb /home/peiyong/Work/Zenglin/szl/ShanghaiTech/partA/test_8/image_lmdb
I0728 10:01:19.011602 22015 net.cpp:84] Creating Layer data
I0728 10:01:19.011615 22015 net.cpp:380] data -> data
I0728 10:01:19.014869 22015 data_layer.cpp:45] output data size: 1,3,704,1024
I0728 10:01:19.038053 22015 net.cpp:122] Setting up data
I0728 10:01:19.038094 22015 net.cpp:129] Top shape: 1 3 704 1024 (2162688)
I0728 10:01:19.038101 22015 net.cpp:137] Memory required for data: 8650752
I0728 10:01:19.038111 22015 layer_factory.hpp:77] Creating layer label
I0728 10:01:19.038194 22015 db_lmdb.cpp:35] Opened lmdb /home/peiyong/Work/Zenglin/szl/ShanghaiTech/partA/test_8/dmap_lmdb
I0728 10:01:19.038236 22015 net.cpp:84] Creating Layer label
I0728 10:01:19.038247 22015 net.cpp:380] label -> label
I0728 10:01:19.038560 22015 data_layer.cpp:45] output data size: 1,1,88,128
I0728 10:01:19.038801 22015 net.cpp:122] Setting up label
I0728 10:01:19.038818 22015 net.cpp:129] Top shape: 1 1 88 128 (11264)
I0728 10:01:19.038825 22015 net.cpp:137] Memory required for data: 8695808
I0728 10:01:19.038831 22015 layer_factory.hpp:77] Creating layer label_label_0_split
I0728 10:01:19.038844 22015 net.cpp:84] Creating Layer label_label_0_split
I0728 10:01:19.038851 22015 net.cpp:406] label_label_0_split <- label
I0728 10:01:19.038861 22015 net.cpp:380] label_label_0_split -> label_label_0_split_0
I0728 10:01:19.038873 22015 net.cpp:380] label_label_0_split -> label_label_0_split_1
I0728 10:01:19.039065 22015 net.cpp:122] Setting up label_label_0_split
I0728 10:01:19.039078 22015 net.cpp:129] Top shape: 1 1 88 128 (11264)
I0728 10:01:19.039086 22015 net.cpp:129] Top shape: 1 1 88 128 (11264)
I0728 10:01:19.039093 22015 net.cpp:137] Memory required for data: 8785920
I0728 10:01:19.039099 22015 layer_factory.hpp:77] Creating layer conv1_1
I0728 10:01:19.039115 22015 net.cpp:84] Creating Layer conv1_1
I0728 10:01:19.039122 22015 net.cpp:406] conv1_1 <- data
I0728 10:01:19.039132 22015 net.cpp:380] conv1_1 -> conv1_1
I0728 10:01:19.045826 22015 net.cpp:122] Setting up conv1_1
I0728 10:01:19.045862 22015 net.cpp:129] Top shape: 1 64 704 1024 (46137344)
I0728 10:01:19.045869 22015 net.cpp:137] Memory required for data: 193335296
I0728 10:01:19.045891 22015 layer_factory.hpp:77] Creating layer relu1_1
I0728 10:01:19.045907 22015 net.cpp:84] Creating Layer relu1_1
I0728 10:01:19.045914 22015 net.cpp:406] relu1_1 <- conv1_1
I0728 10:01:19.045924 22015 net.cpp:367] relu1_1 -> conv1_1 (in-place)
I0728 10:01:19.047014 22015 net.cpp:122] Setting up relu1_1
I0728 10:01:19.047036 22015 net.cpp:129] Top shape: 1 64 704 1024 (46137344)
I0728 10:01:19.047042 22015 net.cpp:137] Memory required for data: 377884672
I0728 10:01:19.047049 22015 layer_factory.hpp:77] Creating layer conv1_2
I0728 10:01:19.047067 22015 net.cpp:84] Creating Layer conv1_2
I0728 10:01:19.047075 22015 net.cpp:406] conv1_2 <- conv1_1
I0728 10:01:19.047086 22015 net.cpp:380] conv1_2 -> conv1_2
I0728 10:01:19.054061 22015 net.cpp:122] Setting up conv1_2
I0728 10:01:19.054095 22015 net.cpp:129] Top shape: 1 64 704 1024 (46137344)
I0728 10:01:19.054101 22015 net.cpp:137] Memory required for data: 562434048
I0728 10:01:19.054121 22015 layer_factory.hpp:77] Creating layer relu1_2
I0728 10:01:19.054134 22015 net.cpp:84] Creating Layer relu1_2
I0728 10:01:19.054141 22015 net.cpp:406] relu1_2 <- conv1_2
I0728 10:01:19.054150 22015 net.cpp:367] relu1_2 -> conv1_2 (in-place)
I0728 10:01:19.054474 22015 net.cpp:122] Setting up relu1_2
I0728 10:01:19.054491 22015 net.cpp:129] Top shape: 1 64 704 1024 (46137344)
I0728 10:01:19.054497 22015 net.cpp:137] Memory required for data: 746983424
I0728 10:01:19.054502 22015 layer_factory.hpp:77] Creating layer pool1
I0728 10:01:19.054512 22015 net.cpp:84] Creating Layer pool1
I0728 10:01:19.054518 22015 net.cpp:406] pool1 <- conv1_2
I0728 10:01:19.054527 22015 net.cpp:380] pool1 -> pool1
I0728 10:01:19.054631 22015 net.cpp:122] Setting up pool1
I0728 10:01:19.054642 22015 net.cpp:129] Top shape: 1 64 352 512 (11534336)
I0728 10:01:19.054647 22015 net.cpp:137] Memory required for data: 793120768
I0728 10:01:19.054653 22015 layer_factory.hpp:77] Creating layer conv2_1
I0728 10:01:19.054672 22015 net.cpp:84] Creating Layer conv2_1
I0728 10:01:19.054677 22015 net.cpp:406] conv2_1 <- pool1
I0728 10:01:19.054687 22015 net.cpp:380] conv2_1 -> conv2_1
I0728 10:01:19.059907 22015 net.cpp:122] Setting up conv2_1
I0728 10:01:19.059939 22015 net.cpp:129] Top shape: 1 128 352 512 (23068672)
I0728 10:01:19.059947 22015 net.cpp:137] Memory required for data: 885395456
I0728 10:01:19.059962 22015 layer_factory.hpp:77] Creating layer relu2_1
I0728 10:01:19.059973 22015 net.cpp:84] Creating Layer relu2_1
I0728 10:01:19.059980 22015 net.cpp:406] relu2_1 <- conv2_1
I0728 10:01:19.059988 22015 net.cpp:367] relu2_1 -> conv2_1 (in-place)
I0728 10:01:19.061686 22015 net.cpp:122] Setting up relu2_1
I0728 10:01:19.061749 22015 net.cpp:129] Top shape: 1 128 352 512 (23068672)
I0728 10:01:19.061758 22015 net.cpp:137] Memory required for data: 977670144
I0728 10:01:19.061765 22015 layer_factory.hpp:77] Creating layer conv2_2
I0728 10:01:19.061781 22015 net.cpp:84] Creating Layer conv2_2
I0728 10:01:19.061789 22015 net.cpp:406] conv2_2 <- conv2_1
I0728 10:01:19.061799 22015 net.cpp:380] conv2_2 -> conv2_2
I0728 10:01:19.068662 22015 net.cpp:122] Setting up conv2_2
I0728 10:01:19.068691 22015 net.cpp:129] Top shape: 1 128 352 512 (23068672)
I0728 10:01:19.068698 22015 net.cpp:137] Memory required for data: 1069944832
I0728 10:01:19.068711 22015 layer_factory.hpp:77] Creating layer relu2_2
I0728 10:01:19.068722 22015 net.cpp:84] Creating Layer relu2_2
I0728 10:01:19.068729 22015 net.cpp:406] relu2_2 <- conv2_2
I0728 10:01:19.068738 22015 net.cpp:367] relu2_2 -> conv2_2 (in-place)
I0728 10:01:19.069728 22015 net.cpp:122] Setting up relu2_2
I0728 10:01:19.069748 22015 net.cpp:129] Top shape: 1 128 352 512 (23068672)
I0728 10:01:19.069754 22015 net.cpp:137] Memory required for data: 1162219520
I0728 10:01:19.069761 22015 layer_factory.hpp:77] Creating layer pool2
I0728 10:01:19.069772 22015 net.cpp:84] Creating Layer pool2
I0728 10:01:19.069777 22015 net.cpp:406] pool2 <- conv2_2
I0728 10:01:19.069787 22015 net.cpp:380] pool2 -> pool2
I0728 10:01:19.069874 22015 net.cpp:122] Setting up pool2
I0728 10:01:19.069885 22015 net.cpp:129] Top shape: 1 128 176 256 (5767168)
I0728 10:01:19.069890 22015 net.cpp:137] Memory required for data: 1185288192
I0728 10:01:19.069895 22015 layer_factory.hpp:77] Creating layer conv3_1
I0728 10:01:19.069908 22015 net.cpp:84] Creating Layer conv3_1
I0728 10:01:19.069914 22015 net.cpp:406] conv3_1 <- pool2
I0728 10:01:19.069923 22015 net.cpp:380] conv3_1 -> conv3_1
I0728 10:01:19.077805 22015 net.cpp:122] Setting up conv3_1
I0728 10:01:19.077828 22015 net.cpp:129] Top shape: 1 256 176 256 (11534336)
I0728 10:01:19.077836 22015 net.cpp:137] Memory required for data: 1231425536
I0728 10:01:19.077850 22015 layer_factory.hpp:77] Creating layer relu3_1
I0728 10:01:19.077860 22015 net.cpp:84] Creating Layer relu3_1
I0728 10:01:19.077867 22015 net.cpp:406] relu3_1 <- conv3_1
I0728 10:01:19.077874 22015 net.cpp:367] relu3_1 -> conv3_1 (in-place)
I0728 10:01:19.078145 22015 net.cpp:122] Setting up relu3_1
I0728 10:01:19.078160 22015 net.cpp:129] Top shape: 1 256 176 256 (11534336)
I0728 10:01:19.078166 22015 net.cpp:137] Memory required for data: 1277562880
I0728 10:01:19.078171 22015 layer_factory.hpp:77] Creating layer conv3_2
I0728 10:01:19.078183 22015 net.cpp:84] Creating Layer conv3_2
I0728 10:01:19.078191 22015 net.cpp:406] conv3_2 <- conv3_1
I0728 10:01:19.078199 22015 net.cpp:380] conv3_2 -> conv3_2
I0728 10:01:19.090188 22015 net.cpp:122] Setting up conv3_2
I0728 10:01:19.090211 22015 net.cpp:129] Top shape: 1 256 176 256 (11534336)
I0728 10:01:19.090217 22015 net.cpp:137] Memory required for data: 1323700224
I0728 10:01:19.090229 22015 layer_factory.hpp:77] Creating layer relu3_2
I0728 10:01:19.090240 22015 net.cpp:84] Creating Layer relu3_2
I0728 10:01:19.090246 22015 net.cpp:406] relu3_2 <- conv3_2
I0728 10:01:19.090255 22015 net.cpp:367] relu3_2 -> conv3_2 (in-place)
I0728 10:01:19.091123 22015 net.cpp:122] Setting up relu3_2
I0728 10:01:19.091140 22015 net.cpp:129] Top shape: 1 256 176 256 (11534336)
I0728 10:01:19.091146 22015 net.cpp:137] Memory required for data: 1369837568
I0728 10:01:19.091152 22015 layer_factory.hpp:77] Creating layer conv3_3
I0728 10:01:19.091166 22015 net.cpp:84] Creating Layer conv3_3
I0728 10:01:19.091171 22015 net.cpp:406] conv3_3 <- conv3_2
I0728 10:01:19.091181 22015 net.cpp:380] conv3_3 -> conv3_3
I0728 10:01:19.102833 22015 net.cpp:122] Setting up conv3_3
I0728 10:01:19.102865 22015 net.cpp:129] Top shape: 1 256 176 256 (11534336)
I0728 10:01:19.102871 22015 net.cpp:137] Memory required for data: 1415974912
I0728 10:01:19.102882 22015 layer_factory.hpp:77] Creating layer relu3_3
I0728 10:01:19.102893 22015 net.cpp:84] Creating Layer relu3_3
I0728 10:01:19.102934 22015 net.cpp:406] relu3_3 <- conv3_3
I0728 10:01:19.102942 22015 net.cpp:367] relu3_3 -> conv3_3 (in-place)
I0728 10:01:19.103786 22015 net.cpp:122] Setting up relu3_3
I0728 10:01:19.103803 22015 net.cpp:129] Top shape: 1 256 176 256 (11534336)
I0728 10:01:19.103807 22015 net.cpp:137] Memory required for data: 1462112256
I0728 10:01:19.103811 22015 layer_factory.hpp:77] Creating layer pool3
I0728 10:01:19.103821 22015 net.cpp:84] Creating Layer pool3
I0728 10:01:19.103826 22015 net.cpp:406] pool3 <- conv3_3
I0728 10:01:19.103834 22015 net.cpp:380] pool3 -> pool3
I0728 10:01:19.103914 22015 net.cpp:122] Setting up pool3
I0728 10:01:19.103924 22015 net.cpp:129] Top shape: 1 256 88 128 (2883584)
I0728 10:01:19.103929 22015 net.cpp:137] Memory required for data: 1473646592
I0728 10:01:19.103934 22015 layer_factory.hpp:77] Creating layer conv4_1
I0728 10:01:19.103945 22015 net.cpp:84] Creating Layer conv4_1
I0728 10:01:19.103951 22015 net.cpp:406] conv4_1 <- pool3
I0728 10:01:19.103960 22015 net.cpp:380] conv4_1 -> conv4_1
I0728 10:01:19.122407 22015 net.cpp:122] Setting up conv4_1
I0728 10:01:19.122426 22015 net.cpp:129] Top shape: 1 512 88 128 (5767168)
I0728 10:01:19.122431 22015 net.cpp:137] Memory required for data: 1496715264
I0728 10:01:19.122438 22015 layer_factory.hpp:77] Creating layer relu4_1
I0728 10:01:19.122447 22015 net.cpp:84] Creating Layer relu4_1
I0728 10:01:19.122452 22015 net.cpp:406] relu4_1 <- conv4_1
I0728 10:01:19.122460 22015 net.cpp:367] relu4_1 -> conv4_1 (in-place)
I0728 10:01:19.122686 22015 net.cpp:122] Setting up relu4_1
I0728 10:01:19.122699 22015 net.cpp:129] Top shape: 1 512 88 128 (5767168)
I0728 10:01:19.122704 22015 net.cpp:137] Memory required for data: 1519783936
I0728 10:01:19.122709 22015 layer_factory.hpp:77] Creating layer conv4_2
I0728 10:01:19.122720 22015 net.cpp:84] Creating Layer conv4_2
I0728 10:01:19.122725 22015 net.cpp:406] conv4_2 <- conv4_1
I0728 10:01:19.122733 22015 net.cpp:380] conv4_2 -> conv4_2
I0728 10:01:19.154309 22015 net.cpp:122] Setting up conv4_2
I0728 10:01:19.154340 22015 net.cpp:129] Top shape: 1 512 88 128 (5767168)
I0728 10:01:19.154345 22015 net.cpp:137] Memory required for data: 1542852608
I0728 10:01:19.154361 22015 layer_factory.hpp:77] Creating layer relu4_2
I0728 10:01:19.154371 22015 net.cpp:84] Creating Layer relu4_2
I0728 10:01:19.154376 22015 net.cpp:406] relu4_2 <- conv4_2
I0728 10:01:19.154384 22015 net.cpp:367] relu4_2 -> conv4_2 (in-place)
I0728 10:01:19.155099 22015 net.cpp:122] Setting up relu4_2
I0728 10:01:19.155113 22015 net.cpp:129] Top shape: 1 512 88 128 (5767168)
I0728 10:01:19.155118 22015 net.cpp:137] Memory required for data: 1565921280
I0728 10:01:19.155122 22015 layer_factory.hpp:77] Creating layer conv4_3
I0728 10:01:19.155135 22015 net.cpp:84] Creating Layer conv4_3
I0728 10:01:19.155139 22015 net.cpp:406] conv4_3 <- conv4_2
I0728 10:01:19.155148 22015 net.cpp:380] conv4_3 -> conv4_3
I0728 10:01:19.183508 22015 net.cpp:122] Setting up conv4_3
I0728 10:01:19.183537 22015 net.cpp:129] Top shape: 1 512 88 128 (5767168)
I0728 10:01:19.183542 22015 net.cpp:137] Memory required for data: 1588989952
I0728 10:01:19.183552 22015 layer_factory.hpp:77] Creating layer relu4_3
I0728 10:01:19.183562 22015 net.cpp:84] Creating Layer relu4_3
I0728 10:01:19.183568 22015 net.cpp:406] relu4_3 <- conv4_3
I0728 10:01:19.183575 22015 net.cpp:367] relu4_3 -> conv4_3 (in-place)
I0728 10:01:19.184248 22015 net.cpp:122] Setting up relu4_3
I0728 10:01:19.184263 22015 net.cpp:129] Top shape: 1 512 88 128 (5767168)
I0728 10:01:19.184267 22015 net.cpp:137] Memory required for data: 1612058624
I0728 10:01:19.184273 22015 layer_factory.hpp:77] Creating layer pool4
I0728 10:01:19.184280 22015 net.cpp:84] Creating Layer pool4
I0728 10:01:19.184285 22015 net.cpp:406] pool4 <- conv4_3
I0728 10:01:19.184293 22015 net.cpp:380] pool4 -> pool4
I0728 10:01:19.184363 22015 net.cpp:122] Setting up pool4
I0728 10:01:19.184372 22015 net.cpp:129] Top shape: 1 512 88 128 (5767168)
I0728 10:01:19.184376 22015 net.cpp:137] Memory required for data: 1635127296
I0728 10:01:19.184415 22015 layer_factory.hpp:77] Creating layer conv5_1
I0728 10:01:19.184430 22015 net.cpp:84] Creating Layer conv5_1
I0728 10:01:19.184435 22015 net.cpp:406] conv5_1 <- pool4
I0728 10:01:19.184443 22015 net.cpp:380] conv5_1 -> conv5_1
I0728 10:01:19.209514 22015 net.cpp:122] Setting up conv5_1
I0728 10:01:19.209545 22015 net.cpp:129] Top shape: 1 512 88 128 (5767168)
I0728 10:01:19.209549 22015 net.cpp:137] Memory required for data: 1658195968
I0728 10:01:19.209559 22015 layer_factory.hpp:77] Creating layer relu5_1
I0728 10:01:19.209569 22015 net.cpp:84] Creating Layer relu5_1
I0728 10:01:19.209575 22015 net.cpp:406] relu5_1 <- conv5_1
I0728 10:01:19.209583 22015 net.cpp:367] relu5_1 -> conv5_1 (in-place)
I0728 10:01:19.209836 22015 net.cpp:122] Setting up relu5_1
I0728 10:01:19.209846 22015 net.cpp:129] Top shape: 1 512 88 128 (5767168)
I0728 10:01:19.209851 22015 net.cpp:137] Memory required for data: 1681264640
I0728 10:01:19.209854 22015 layer_factory.hpp:77] Creating layer conv5_2
I0728 10:01:19.209866 22015 net.cpp:84] Creating Layer conv5_2
I0728 10:01:19.209870 22015 net.cpp:406] conv5_2 <- conv5_1
I0728 10:01:19.209877 22015 net.cpp:380] conv5_2 -> conv5_2
I0728 10:01:19.233325 22015 net.cpp:122] Setting up conv5_2
I0728 10:01:19.233355 22015 net.cpp:129] Top shape: 1 512 88 128 (5767168)
I0728 10:01:19.233359 22015 net.cpp:137] Memory required for data: 1704333312
I0728 10:01:19.233368 22015 layer_factory.hpp:77] Creating layer relu5_2
I0728 10:01:19.233377 22015 net.cpp:84] Creating Layer relu5_2
I0728 10:01:19.233382 22015 net.cpp:406] relu5_2 <- conv5_2
I0728 10:01:19.233391 22015 net.cpp:367] relu5_2 -> conv5_2 (in-place)
I0728 10:01:19.234165 22015 net.cpp:122] Setting up relu5_2
I0728 10:01:19.234179 22015 net.cpp:129] Top shape: 1 512 88 128 (5767168)
I0728 10:01:19.234184 22015 net.cpp:137] Memory required for data: 1727401984
I0728 10:01:19.234187 22015 layer_factory.hpp:77] Creating layer conv5_3
I0728 10:01:19.234200 22015 net.cpp:84] Creating Layer conv5_3
I0728 10:01:19.234203 22015 net.cpp:406] conv5_3 <- conv5_2
I0728 10:01:19.234210 22015 net.cpp:380] conv5_3 -> conv5_3
I0728 10:01:19.256491 22015 net.cpp:122] Setting up conv5_3
I0728 10:01:19.256515 22015 net.cpp:129] Top shape: 1 512 88 128 (5767168)
I0728 10:01:19.256520 22015 net.cpp:137] Memory required for data: 1750470656
I0728 10:01:19.256527 22015 layer_factory.hpp:77] Creating layer relu5_3
I0728 10:01:19.256541 22015 net.cpp:84] Creating Layer relu5_3
I0728 10:01:19.256546 22015 net.cpp:406] relu5_3 <- conv5_3
I0728 10:01:19.256552 22015 net.cpp:367] relu5_3 -> conv5_3 (in-place)
I0728 10:01:19.256775 22015 net.cpp:122] Setting up relu5_3
I0728 10:01:19.256786 22015 net.cpp:129] Top shape: 1 512 88 128 (5767168)
I0728 10:01:19.256789 22015 net.cpp:137] Memory required for data: 1773539328
I0728 10:01:19.256793 22015 layer_factory.hpp:77] Creating layer conv_score
I0728 10:01:19.256804 22015 net.cpp:84] Creating Layer conv_score
I0728 10:01:19.256808 22015 net.cpp:406] conv_score <- conv5_3
I0728 10:01:19.256814 22015 net.cpp:380] conv_score -> conv_score
I0728 10:01:19.339707 22015 net.cpp:122] Setting up conv_score
I0728 10:01:19.339738 22015 net.cpp:129] Top shape: 1 64 88 128 (720896)
I0728 10:01:19.339742 22015 net.cpp:137] Memory required for data: 1776422912
I0728 10:01:19.339753 22015 layer_factory.hpp:77] Creating layer relu_score
I0728 10:01:19.339763 22015 net.cpp:84] Creating Layer relu_score
I0728 10:01:19.339768 22015 net.cpp:406] relu_score <- conv_score
I0728 10:01:19.339774 22015 net.cpp:367] relu_score -> conv_score (in-place)
I0728 10:01:19.339985 22015 net.cpp:122] Setting up relu_score
I0728 10:01:19.339998 22015 net.cpp:129] Top shape: 1 64 88 128 (720896)
I0728 10:01:19.340000 22015 net.cpp:137] Memory required for data: 1779306496
I0728 10:01:19.340004 22015 layer_factory.hpp:77] Creating layer slicer_conv
I0728 10:01:19.340020 22015 net.cpp:84] Creating Layer slicer_conv
I0728 10:01:19.340024 22015 net.cpp:406] slicer_conv <- conv_score
I0728 10:01:19.340034 22015 net.cpp:380] slicer_conv -> score1
I0728 10:01:19.340076 22015 net.cpp:380] slicer_conv -> score2
…
I0728 10:01:19.340548 22015 net.cpp:380] slicer_conv -> score57
I0728 10:01:19.340555 22015 net.cpp:380] slicer_conv -> score58
I0728 10:01:19.340564 22015 net.cpp:380] slicer_conv -> score59
I0728 10:01:19.340572 22015 net.cpp:380] slicer_conv -> score60
I0728 10:01:19.340581 22015 net.cpp:380] slicer_conv -> score61
I0728 10:01:19.340589 22015 net.cpp:380] slicer_conv -> score62
I0728 10:01:19.340596 22015 net.cpp:380] slicer_conv -> score63
I0728 10:01:19.340605 22015 net.cpp:380] slicer_conv -> score64
I0728 10:01:19.341970 22015 net.cpp:122] Setting up slicer_conv
I0728 10:01:19.341996 22015 net.cpp:129] Top shape: 1 1 88 128 (11264)
I0728 10:01:19.342002 22015 net.cpp:129] Top shape: 1 1 88 128 (11264)
I0728 10:01:19.342006 22015 net.cpp:129] Top shape: 1 1 88 128 (11264)
I0728 10:01:19.342010 22015 net.cpp:129] Top shape: 1 1 88 128 (11264)
I0728 10:01:19.342015 22015 net.cpp:129] Top shape: 1 1 88 128 (11264)
I0728 10:01:19.342020 22015 net.cpp:129] Top shape: 1 1 88 128 (11264)
I0728 10:01:19.342023 22015 net.cpp:129] Top shape: 1 1 88 128 (11264)
I0728 10:01:19.342027 22015 net.cpp:129] Top shape: 1 1 88 128 (11264)
I0728 10:01:19.342031 22015 net.cpp:129] Top shape: 1 1 88 128 (11264)
I0728 10:01:19.342036 22015 net.cpp:129] Top shape: 1 1 88 128 (11264)
I0728 10:01:19.342039 22015 net.cpp:129] Top shape: 1 1 88 128 (11264)
I0728 10:01:19.342043 22015 net.cpp:129] Top shape: 1 1 88 128 (11264)
I0728 10:01:19.342047 22015 net.cpp:129] Top shape: 1 1 88 128 (11264)
I0728 10:01:19.342051 22015 net.cpp:129] Top shape: 1 1 88 128 (11264)
I0728 10:01:19.342054 22015 net.cpp:129] Top shape: 1 1 88 128 (11264)
I0728 10:01:19.342058 22015 net.cpp:129] Top shape: 1 1 88 128 (11264)
I0728 10:01:19.342062 22015 net.cpp:129] Top shape: 1 1 88 128 (11264)
I0728 10:01:19.342067 22015 net.cpp:129] Top shape: 1 1 88 128 (11264)
I0728 10:01:19.342070 22015 net.cpp:129] Top shape: 1 1 88 128 (11264)
I0728 10:01:19.342074 22015 net.cpp:129] Top shape: 1 1 88 128 (11264)
I0728 10:01:19.342078 22015 net.cpp:129] Top shape: 1 1 88 128 (11264)
I0728 10:01:19.342082 22015 net.cpp:129] Top shape: 1 1 88 128 (11264)
I0728 10:01:19.342087 22015 net.cpp:129] Top shape: 1 1 88 128 (11264)
I0728 10:01:19.342090 22015 net.cpp:129] Top shape: 1 1 88 128 (11264)
I0728 10:01:19.342094 22015 net.cpp:129] Top shape: 1 1 88 128 (11264)
I0728 10:01:19.342098 22015 net.cpp:129] Top shape: 1 1 88 128 (11264)
I0728 10:01:19.342103 22015 net.cpp:129] Top shape: 1 1 88 128 (11264)
I0728 10:01:19.342106 22015 net.cpp:129] Top shape: 1 1 88 128 (11264)
I0728 10:01:19.342110 22015 net.cpp:129] Top shape: 1 1 88 128 (11264)
I0728 10:01:19.342114 22015 net.cpp:129] Top shape: 1 1 88 128 (11264)
I0728 10:01:19.342118 22015 net.cpp:129] Top shape: 1 1 88 128 (11264)
I0728 10:01:19.342121 22015 net.cpp:129] Top shape: 1 1 88 128 (11264)
I0728 10:01:19.342126 22015 net.cpp:129] Top shape: 1 1 88 128 (11264)
I0728 10:01:19.342129 22015 net.cpp:129] Top shape: 1 1 88 128 (11264)
I0728 10:01:19.342133 22015 net.cpp:129] Top shape: 1 1 88 128 (11264)
I0728 10:01:19.342137 22015 net.cpp:129] Top shape: 1 1 88 128 (11264)
I0728 10:01:19.342141 22015 net.cpp:129] Top shape: 1 1 88 128 (11264)
I0728 10:01:19.342145 22015 net.cpp:129] Top shape: 1 1 88 128 (11264)
I0728 10:01:19.342149 22015 net.cpp:129] Top shape: 1 1 88 128 (11264)
I0728 10:01:19.342154 22015 net.cpp:129] Top shape: 1 1 88 128 (11264)
I0728 10:01:19.342157 22015 net.cpp:129] Top shape: 1 1 88 128 (11264)
I0728 10:01:19.342161 22015 net.cpp:129] Top shape: 1 1 88 128 (11264)
I0728 10:01:19.342165 22015 net.cpp:129] Top shape: 1 1 88 128 (11264)
I0728 10:01:19.342170 22015 net.cpp:129] Top shape: 1 1 88 128 (11264)
I0728 10:01:19.342173 22015 net.cpp:129] Top shape: 1 1 88 128 (11264)
I0728 10:01:19.342177 22015 net.cpp:129] Top shape: 1 1 88 128 (11264)
I0728 10:01:19.342181 22015 net.cpp:129] Top shape: 1 1 88 128 (11264)
I0728 10:01:19.342185 22015 net.cpp:129] Top shape: 1 1 88 128 (11264)
I0728 10:01:19.342190 22015 net.cpp:129] Top shape: 1 1 88 128 (11264)
I0728 10:01:19.342193 22015 net.cpp:129] Top shape: 1 1 88 128 (11264)
I0728 10:01:19.342197 22015 net.cpp:129] Top shape: 1 1 88 128 (11264)
I0728 10:01:19.342201 22015 net.cpp:129] Top shape: 1 1 88 128 (11264)
I0728 10:01:19.342206 22015 net.cpp:129] Top shape: 1 1 88 128 (11264)
I0728 10:01:19.342209 22015 net.cpp:129] Top shape: 1 1 88 128 (11264)
I0728 10:01:19.342213 22015 net.cpp:129] Top shape: 1 1 88 128 (11264)
I0728 10:01:19.342217 22015 net.cpp:129] Top shape: 1 1 88 128 (11264)
I0728 10:01:19.342221 22015 net.cpp:129] Top shape: 1 1 88 128 (11264)
I0728 10:01:19.342226 22015 net.cpp:129] Top shape: 1 1 88 128 (11264)
I0728 10:01:19.342236 22015 net.cpp:129] Top shape: 1 1 88 128 (11264)
I0728 10:01:19.342241 22015 net.cpp:129] Top shape: 1 1 88 128 (11264)
I0728 10:01:19.342243 22015 net.cpp:129] Top shape: 1 1 88 128 (11264)
I0728 10:01:19.342247 22015 net.cpp:129] Top shape: 1 1 88 128 (11264)
I0728 10:01:19.342252 22015 net.cpp:129] Top shape: 1 1 88 128 (11264)
I0728 10:01:19.342255 22015 net.cpp:129] Top shape: 1 1 88 128 (11264)
I0728 10:01:19.342259 22015 net.cpp:137] Memory required for data: 1782190080
I0728 10:01:19.342263 22015 layer_factory.hpp:77] Creating layer sumscore
I0728 10:01:19.342275 22015 net.cpp:84] Creating Layer sumscore
I0728 10:01:19.342279 22015 net.cpp:406] sumscore <- score1
I0728 10:01:19.342285 22015 net.cpp:406] sumscore <- score2
I0728 10:01:19.342289 22015 net.cpp:406] sumscore <- score3
…
