…
I0713 10:06:50.031538 28254 net.cpp:51] Initializing net from parameters: 
name: "crowd_counting"
state {
  phase: TRAIN
  level: 0
  stage: ""
}
layer {
  name: "data"
  type: "Data"
  top: "data"
  include {
    phase: TRAIN
  }
  data_param {
    source: "/home/peiyong/Work/Zenglin/szl/ShanghaiTech/partB/train8_5/image_lmdb"
    batch_size: 12
    backend: LMDB
  }
}
layer {
  name: "label"
  type: "Data"
  top: "label"
  include {
    phase: TRAIN
  }
  data_param {
    source: "/home/peiyong/Work/Zenglin/szl/ShanghaiTech/partB/train8_5/dmap_lmdb"
    batch_size: 12
    backend: LMDB
  }
}
layer {
  name: "conv1_1"
  type: "Convolution"
  bottom: "data"
  top: "conv1_1"
  param {
    lr_mult: 0.1
    decay_mult: 1
  }
  param {
    lr_mult: 0.2
    decay_mult: 0
  }
  convolution_param {
    num_output: 64
    pad: 1
    kernel_size: 3
    weight_filler {
      type: "gaussian"
      std: 0.01
    }
    bias_filler {
      type: "constant"
      value: 0
    }
  }
}
layer {
  name: "relu1_1"
  type: "ReLU"
  bottom: "conv1_1"
  top: "conv1_1"
}
layer {
  name: "conv1_2"
  type: "Convolution"
  bottom: "conv1_1"
  top: "conv1_2"
  param {
    lr_mult: 0.1
    decay_mult: 1
  }
  param {
    lr_mult: 0.2
    decay_mult: 0
  }
  convolution_param {
    num_output: 64
    pad: 1
    kernel_size: 3
    weight_filler {
      type: "gaussian"
      std: 0.01
    }
    bias_filler {
      type: "constant"
      value: 0
    }
  }
}
layer {
  name: "relu1_2"
  type: "ReLU"
  bottom: "conv1_2"
  top: "conv1_2"
}
layer {
  name: "pool1"
  type: "Pooling"
  bottom: "conv1_2"
  top: "pool1"
  pooling_param {
    pool: MAX
    kernel_size: 2
    stride: 2
  }
}
layer {
  name: "conv2_1"
  type: "Convolution"
  bottom: "pool1"
  top: "conv2_1"
  param {
    lr_mult: 0.1
    decay_mult: 1
  }
  param {
    lr_mult: 0.2
    decay_mult: 0
  }
  convolution_param {
    num_output: 128
    pad: 1
    kernel_size: 3
    weight_filler {
      type: "gaussian"
      std: 0.01
    }
    bias_filler {
      type: "constant"
      value: 0
    }
  }
}
layer {
  name: "relu2_1"
  type: "ReLU"
  bottom: "conv2_1"
  top: "conv2_1"
}
layer {
  name: "conv2_2"
  type: "Convolution"
  bottom: "conv2_1"
  top: "conv2_2"
  param {
    lr_mult: 0.1
    decay_mult: 1
  }
  param {
    lr_mult: 0.2
    decay_mult: 0
  }
  convolution_param {
    num_output: 128
    pad: 1
    kernel_size: 3
    weight_filler {
      type: "gaussian"
      std: 0.01
    }
    bias_filler {
      type: "constant"
      value: 0
    }
  }
}
layer {
  name: "relu2_2"
  type: "ReLU"
  bottom: "conv2_2"
  top: "conv2_2"
}
layer {
  name: "pool2"
  type: "Pooling"
  bottom: "conv2_2"
  top: "pool2"
  pooling_param {
    pool: MAX
    kernel_size: 2
    stride: 2
  }
}
layer {
  name: "conv3_1"
  type: "Convolution"
  bottom: "pool2"
  top: "conv3_1"
  param {
    lr_mult: 0.1
    decay_mult: 1
  }
  param {
    lr_mult: 0.2
    decay_mult: 0
  }
  convolution_param {
    num_output: 256
    pad: 1
    kernel_size: 3
    weight_filler {
      type: "gaussian"
      std: 0.01
    }
    bias_filler {
      type: "constant"
      value: 0
    }
  }
}
layer {
  name: "relu3_1"
  type: "ReLU"
  bottom: "conv3_1"
  top: "conv3_1"
}
layer {
  name: "conv3_2"
  type: "Convolution"
  bottom: "conv3_1"
  top: "conv3_2"
  param {
    lr_mult: 0.1
    decay_mult: 1
  }
  param {
    lr_mult: 0.2
    decay_mult: 0
  }
  convolution_param {
    num_output: 256
    pad: 1
    kernel_size: 3
    weight_filler {
      type: "gaussian"
      std: 0.01
    }
    bias_filler {
      type: "constant"
      value: 0
    }
  }
}
layer {
  name: "relu3_2"
  type: "ReLU"
  bottom: "conv3_2"
  top: "conv3_2"
}
layer {
  name: "conv3_3"
  type: "Convolution"
  bottom: "conv3_2"
  top: "conv3_3"
  param {
    lr_mult: 0.1
    decay_mult: 1
  }
  param {
    lr_mult: 0.2
    decay_mult: 0
  }
  convolution_param {
    num_output: 256
    pad: 1
    kernel_size: 3
    weight_filler {
      type: "gaussian"
      std: 0.01
    }
    bias_filler {
      type: "constant"
      value: 0
    }
  }
}
layer {
  name: "relu3_3"
  type: "ReLU"
  bottom: "conv3_3"
  top: "conv3_3"
}
layer {
  name: "pool3"
  type: "Pooling"
  bottom: "conv3_3"
  top: "pool3"
  pooling_param {
    pool: MAX
    kernel_size: 2
    stride: 2
  }
}
layer {
  name: "conv4_1"
  type: "Convolution"
  bottom: "pool3"
  top: "conv4_1"
  param {
    lr_mult: 0.1
    decay_mult: 1
  }
  param {
    lr_mult: 0.2
    decay_mult: 0
  }
  convolution_param {
    num_output: 512
    pad: 1
    kernel_size: 3
    weight_filler {
      type: "gaussian"
      std: 0.01
    }
    bias_filler {
      type: "constant"
      value: 0
    }
  }
}
layer {
  name: "relu4_1"
  type: "ReLU"
  bottom: "conv4_1"
  top: "conv4_1"
}
layer {
  name: "conv4_2"
  type: "Convolution"
  bottom: "conv4_1"
  top: "conv4_2"
  param {
    lr_mult: 0.1
    decay_mult: 1
  }
  param {
    lr_mult: 0.2
    decay_mult: 0
  }
  convolution_param {
    num_output: 512
    pad: 1
    kernel_size: 3
    weight_filler {
      type: "gaussian"
      std: 0.01
    }
    bias_filler {
      type: "constant"
      value: 0
    }
  }
}
layer {
  name: "relu4_2"
  type: "ReLU"
  bottom: "conv4_2"
  top: "conv4_2"
}
layer {
  name: "conv4_3"
  type: "Convolution"
  bottom: "conv4_2"
  top: "conv4_3"
  param {
    lr_mult: 0.1
    decay_mult: 1
  }
  param {
    lr_mult: 0.2
    decay_mult: 0
  }
  convolution_param {
    num_output: 512
    pad: 1
    kernel_size: 3
    weight_filler {
      type: "gaussian"
      std: 0.01
    }
    bias_filler {
      type: "constant"
      value: 0
    }
  }
}
layer {
  name: "relu4_3"
  type: "ReLU"
  bottom: "conv4_3"
  top: "conv4_3"
}
layer {
  name: "pool4"
  type: "Pooling"
  bottom: "conv4_3"
  top: "pool4"
  pooling_param {
    pool: MAX
    kernel_size: 3
    stride: 1
    pad: 1
  }
}
layer {
  name: "conv5_1"
  type: "Convolution"
  bottom: "pool4"
  top: "conv5_1"
  param {
    lr_mult: 1
    decay_mult: 1
  }
  param {
    lr_mult: 2
    decay_mult: 0
  }
  convolution_param {
    num_output: 512
    pad: 2
    kernel_size: 3
    weight_filler {
      type: "gaussian"
      std: 0.01
    }
    bias_filler {
      type: "constant"
      value: 0
    }
    dilation: 2
  }
}
layer {
  name: "relu5_1"
  type: "ReLU"
  bottom: "conv5_1"
  top: "conv5_1"
}
layer {
  name: "conv5_2"
  type: "Convolution"
  bottom: "conv5_1"
  top: "conv5_2"
  param {
    lr_mult: 1
    decay_mult: 1
  }
  param {
    lr_mult: 2
    decay_mult: 0
  }
  convolution_param {
    num_output: 512
    pad: 2
    kernel_size: 3
    weight_filler {
      type: "gaussian"
      std: 0.01
    }
    bias_filler {
      type: "constant"
      value: 0
    }
    dilation: 2
  }
}
layer {
  name: "relu5_2"
  type: "ReLU"
  bottom: "conv5_2"
  top: "conv5_2"
}
layer {
  name: "conv5_3"
  type: "Convolution"
  bottom: "conv5_2"
  top: "conv5_3"
  param {
    lr_mult: 1
    decay_mult: 1
  }
  param {
    lr_mult: 2
    decay_mult: 0
  }
  convolution_param {
    num_output: 512
    pad: 2
    kernel_size: 3
    weight_filler {
      type: "gaussian"
      std: 0.01
    }
    bias_filler {
      type: "constant"
      value: 0
    }
    dilation: 2
  }
}
layer {
  name: "relu5_3"
  type: "ReLU"
  bottom: "conv5_3"
  top: "conv5_3"
}
layer {
  name: "conv_score"
  type: "Convolution"
  bottom: "conv5_3"
  top: "conv_score"
  param {
    lr_mult: 1
    decay_mult: 1
  }
  param {
    lr_mult: 2
    decay_mult: 0
  }
  convolution_param {
    num_output: 64
    pad: 0
    kernel_size: 1
    group: 64
    stride: 1
    weight_filler {
      type: "constant"
      value: 0.0001
    }
    bias_filler {
      type: "constant"
      value: 0
    }
  }
}
layer {
  name: "relu_score"
  type: "ReLU"
  bottom: "conv_score"
  top: "conv_score"
}
layer {
  name: "slicer_conv"
  type: "Slice"
  bottom: "conv_score"
  top: "score1"
  top: "score2"
  top: "score3"
  top: "score4"
  top: "score5"
  top: "score6"
  top: "score7"
  top: "score8"
  top: "score9"
  top: "score10"
  top: "score11"
  top: "score12"
  top: "score13"
  top: "score14"
  top: "score15"
  top: "score16"
  top: "score17"
  top: "score18"
  top: "score19"
  top: "score20"
  top: "score21"
  top: "score22"
  top: "score23"
  top: "score24"
  top: "score25"
  top: "score26"
  top: "score27"
  top: "score28"
  top: "score29"
  top: "score30"
  top: "score31"
  top: "score32"
  top: "score33"
  top: "score34"
  top: "score35"
  top: "score36"
  top: "score37"
  top: "score38"
  top: "score39"
  top: "score40"
  top: "score41"
  top: "score42"
  top: "score43"
  top: "score44"
  top: "score45"
  top: "score46"
  top: "score47"
  top: "score48"
  top: "score49"
  top: "score50"
  top: "score51"
  top: "score52"
  top: "score53"
  top: "score54"
  top: "score55"
  top: "score56"
  top: "score57"
  top: "score58"
  top: "score59"
  top: "score60"
  top: "score61"
  top: "score62"
  top: "score63"
  top: "score64"
  slice_param {
    axis: 1
  }
}
layer {
  name: "sumscore"
  type: "Eltwise"
  bottom: "score1"
  bottom: "score2"
  bottom: "score3"
  bottom: "score4"
  bottom: "score5"
  bottom: "score6"
  bottom: "score7"
  bottom: "score8"
  bottom: "score9"
  bottom: "score10"
  bottom: "score11"
  bottom: "score12"
  bottom: "score13"
  bottom: "score14"
  bottom: "score15"
  bottom: "score16"
  bottom: "score17"
  bottom: "score18"
  bottom: "score19"
  bottom: "score20"
  bottom: "score21"
  bottom: "score22"
  bottom: "score23"
  bottom: "score24"
  bottom: "score25"
  bottom: "score26"
  bottom: "score27"
  bottom: "score28"
  bottom: "score29"
  bottom: "score30"
  bottom: "score31"
  bottom: "score32"
  bottom: "score33"
  bottom: "score34"
  bottom: "score35"
  bottom: "score36"
  bottom: "score37"
  bottom: "score38"
  bottom: "score39"
  bottom: "score40"
  bottom: "score41"
  bottom: "score42"
  bottom: "score43"
  bottom: "score44"
  bottom: "score45"
  bottom: "score46"
  bottom: "score47"
  bottom: "score48"
  bottom: "score49"
  bottom: "score50"
  bottom: "score51"
  bottom: "score52"
  bottom: "score53"
  bottom: "score54"
  bottom: "score55"
  bottom: "score56"
  bottom: "score57"
  bottom: "score58"
  bottom: "score59"
  bottom: "score60"
  bottom: "score61"
  bottom: "score62"
  bottom: "score63"
  bottom: "score64"
  top: "sumscore"
  eltwise_param {
    operation: SUM
  }
}
layer {
  name: "loss1"
  type: "NCLLoss"
  bottom: "score1"
  bottom: "label"
  bottom: "sumscore"
  top: "loss1"
  include {
    phase: TRAIN
  }
  ncl_loss_param {
    lambda: 0.0001
    net_num: 64
  }
}
layer {
  name: "loss2"
  type: "NCLLoss"
  bottom: "score2"
  bottom: "label"
  bottom: "sumscore"
  top: "loss2"
  include {
    phase: TRAIN
  }
  ncl_loss_param {
    lambda: 0.0001
    net_num: 64
  }
}
layer {
  name: "loss3"
  type: "NCLLoss"
  bottom: "score3"
  bottom: "label"
  bottom: "sumscore"
  top: "loss3"
  include {
    phase: TRAIN
  }
  ncl_loss_param {
    lambda: 0.0001
    net_num: 64
  }
}
layer {
  name: "loss4"
  type: "NCLLoss"
  bottom: "score4"
  bottom: "label"
  bottom: "sumscore"
  top: "loss4"
  include {
    phase: TRAIN
  }
  ncl_loss_param {
    lambda: 0.0001
    net_num: 64
  }
}
layer {
  name: "loss5"
  type: "NCLLoss"
  bottom: "score5"
  bottom: "label"
  bottom: "sumscore"
  top: "loss5"
  include {
    phase: TRAIN
  }
  ncl_loss_param {
    lambda: 0.0001
    net_num: 64
  }
}
layer {
  name: "loss6"
  type: "NCLLoss"
  bottom: "score6"
  bottom: "label"
  bottom: "sumscore"
  top: "loss6"
  include {
    phase: TRAIN
  }
  ncl_loss_param {
    lambda: 0.0001
    net_num: 64
  }
}
layer {
  name: "loss7"
  type: "NCLLoss"
  bottom: "score7"
  bottom: "label"
  bottom: "sumscore"
  top: "loss7"
  include {
    phase: TRAIN
  }
  ncl_loss_param {
    lambda: 0.0001
    net_num: 64
  }
}
layer {
  name: "loss8"
  type: "NCLLoss"
  bottom: "score8"
  bottom: "label"
  bottom: "sumscore"
  top: "loss8"
  include {
    phase: TRAIN
  }
  ncl_loss_param {
    lambda: 0.0001
    net_num: 64
  }
}
layer {
  name: "loss9"
  type: "NCLLoss"
  bottom: "score9"
  bottom: "label"
  bottom: "sumscore"
  top: "loss9"
  include {
    phase: TRAIN
  }
  ncl_loss_param {
    lambda: 0.0001
    net_num: 64
  }
}
layer {
  name: "loss10"
  type: "NCLLoss"
  bottom: "score10"
  bottom: "label"
  bottom: "sumscore"
  top: "loss10"
  include {
    phase: TRAIN
  }
  ncl_loss_param {
    lambda: 0.0001
    net_num: 64
  }
}
layer {
  name: "loss11"
  type: "NCLLoss"
  bottom: "score11"
  bottom: "label"
  bottom: "sumscore"
  top: "loss11"
  include {
    phase: TRAIN
  }
  ncl_loss_param {
    lambda: 0.0001
    net_num: 64
  }
}
layer {
  name: "loss12"
  type: "NCLLoss"
  bottom: "score12"
  bottom: "label"
  bottom: "sumscore"
  top: "loss12"
  include {
    phase: TRAIN
  }
  ncl_loss_param {
    lambda: 0.0001
    net_num: 64
  }
}
layer {
  name: "loss13"
  type: "NCLLoss"
  bottom: "score13"
  bottom: "label"
  bottom: "sumscore"
  top: "loss13"
  include {
    phase: TRAIN
  }
  ncl_loss_param {
    lambda: 0.0001
    net_num: 64
  }
}
layer {
  name: "loss14"
  type: "NCLLoss"
  bottom: "score14"
  bottom: "label"
  bottom: "sumscore"
  top: "loss14"
  include {
    phase: TRAIN
  }
  ncl_loss_param {
    lambda: 0.0001
    net_num: 64
  }
}
layer {
  name: "loss15"
  type: "NCLLoss"
  bottom: "score15"
  bottom: "label"
  bottom: "sumscore"
  top: "loss15"
  include {
    phase: TRAIN
  }
  ncl_loss_param {
    lambda: 0.0001
    net_num: 64
  }
}
layer {
  name: "loss16"
  type: "NCLLoss"
  bottom: "score16"
  bottom: "label"
  bottom: "sumscore"
  top: "loss16"
  include {
    phase: TRAIN
  }
  ncl_loss_param {
    lambda: 0.0001
    net_num: 64
  }
}
layer {
  name: "loss17"
  type: "NCLLoss"
  bottom: "score17"
  bottom: "label"
  bottom: "sumscore"
  top: "loss17"
  include {
    phase: TRAIN
  }
  ncl_loss_param {
    lambda: 0.0001
    net_num: 64
  }
}
layer {
  name: "loss18"
  type: "NCLLoss"
  bottom: "score18"
  bottom: "label"
  bottom: "sumscore"
  top: "loss18"
  include {
    phase: TRAIN
  }
  ncl_loss_param {
    lambda: 0.0001
    net_num: 64
  }
}
layer {
  name: "loss19"
  type: "NCLLoss"
  bottom: "score19"
  bottom: "label"
  bottom: "sumscore"
  top: "loss19"
  include {
    phase: TRAIN
  }
  ncl_loss_param {
    lambda: 0.0001
    net_num: 64
  }
}
layer {
  name: "loss20"
  type: "NCLLoss"
  bottom: "score20"
  bottom: "label"
  bottom: "sumscore"
  top: "loss20"
  include {
    phase: TRAIN
  }
  ncl_loss_param {
    lambda: 0.0001
    net_num: 64
  }
}
layer {
  name: "loss21"
  type: "NCLLoss"
  bottom: "score21"
  bottom: "label"
  bottom: "sumscore"
  top: "loss21"
  include {
    phase: TRAIN
  }
  ncl_loss_param {
    lambda: 0.0001
    net_num: 64
  }
}
layer {
  name: "loss22"
  type: "NCLLoss"
  bottom: "score22"
  bottom: "label"
  bottom: "sumscore"
  top: "loss22"
  include {
    phase: TRAIN
  }
  ncl_loss_param {
    lambda: 0.0001
    net_num: 64
  }
}
layer {
  name: "loss23"
  type: "NCLLoss"
  bottom: "score23"
  bottom: "label"
  bottom: "sumscore"
  top: "loss23"
  include {
    phase: TRAIN
  }
  ncl_loss_param {
    lambda: 0.0001
    net_num: 64
  }
}
layer {
  name: "loss24"
  type: "NCLLoss"
  bottom: "score24"
  bottom: "label"
  bottom: "sumscore"
  top: "loss24"
  include {
    phase: TRAIN
  }
  ncl_loss_param {
    lambda: 0.0001
    net_num: 64
  }
}
layer {
  name: "loss25"
  type: "NCLLoss"
  bottom: "score25"
  bottom: "label"
  bottom: "sumscore"
  top: "loss25"
  include {
    phase: TRAIN
  }
  ncl_loss_param {
    lambda: 0.0001
    net_num: 64
  }
}
layer {
  name: "loss26"
  type: "NCLLoss"
  bottom: "score26"
  bottom: "label"
  bottom: "sumscore"
  top: "loss26"
  include {
    phase: TRAIN
  }
  ncl_loss_param {
    lambda: 0.0001
    net_num: 64
  }
}
layer {
  name: "loss27"
  type: "NCLLoss"
  bottom: "score27"
  bottom: "label"
  bottom: "sumscore"
  top: "loss27"
  include {
    phase: TRAIN
  }
  ncl_loss_param {
    lambda: 0.0001
    net_num: 64
  }
}
layer {
  name: "loss28"
  type: "NCLLoss"
  bottom: "score28"
  bottom: "label"
  bottom: "sumscore"
  top: "loss28"
  include {
    phase: TRAIN
  }
  ncl_loss_param {
    lambda: 0.0001
    net_num: 64
  }
}
layer {
  name: "loss29"
  type: "NCLLoss"
  bottom: "score29"
  bottom: "label"
  bottom: "sumscore"
  top: "loss29"
  include {
    phase: TRAIN
  }
  ncl_loss_param {
    lambda: 0.0001
    net_num: 64
  }
}
layer {
  name: "loss30"
  type: "NCLLoss"
  bottom: "score30"
  bottom: "label"
  bottom: "sumscore"
  top: "loss30"
  include {
    phase: TRAIN
  }
  ncl_loss_param {
    lambda: 0.0001
    net_num: 64
  }
}
layer {
  name: "loss31"
  type: "NCLLoss"
  bottom: "score31"
  bottom: "label"
  bottom: "sumscore"
  top: "loss31"
  include {
    phase: TRAIN
  }
  ncl_loss_param {
    lambda: 0.0001
    net_num: 64
  }
}
layer {
  name: "loss32"
  type: "NCLLoss"
  bottom: "score32"
  bottom: "label"
  bottom: "sumscore"
  top: "loss32"
  include {
    phase: TRAIN
  }
  ncl_loss_param {
    lambda: 0.0001
    net_num: 64
  }
}
layer {
  name: "loss33"
  type: "NCLLoss"
  bottom: "score33"
  bottom: "label"
  bottom: "sumscore"
  top: "loss33"
  include {
    phase: TRAIN
  }
  ncl_loss_param {
    lambda: 0.0001
    net_num: 64
  }
}
layer {
  name: "loss34"
  type: "NCLLoss"
  bottom: "score34"
  bottom: "label"
  bottom: "sumscore"
  top: "loss34"
  include {
    phase: TRAIN
  }
  ncl_loss_param {
    lambda: 0.0001
    net_num: 64
  }
}
layer {
  name: "loss35"
  type: "NCLLoss"
  bottom: "score35"
  bottom: "label"
  bottom: "sumscore"
  top: "loss35"
  include {
    phase: TRAIN
  }
  ncl_loss_param {
    lambda: 0.0001
    net_num: 64
  }
}
layer {
  name: "loss36"
  type: "NCLLoss"
  bottom: "score36"
  bottom: "label"
  bottom: "sumscore"
  top: "loss36"
  include {
    phase: TRAIN
  }
  ncl_loss_param {
    lambda: 0.0001
    net_num: 64
  }
}
layer {
  name: "loss37"
  type: "NCLLoss"
  bottom: "score37"
  bottom: "label"
  bottom: "sumscore"
  top: "loss37"
  include {
    phase: TRAIN
  }
  ncl_loss_param {
    lambda: 0.0001
    net_num: 64
  }
}
layer {
  name: "loss38"
  type: "NCLLoss"
  bottom: "score38"
  bottom: "label"
  bottom: "sumscore"
  top: "loss38"
  include {
    phase: TRAIN
  }
  ncl_loss_param {
    lambda: 0.0001
    net_num: 64
  }
}
layer {
  name: "loss39"
  type: "NCLLoss"
  bottom: "score39"
  bottom: "label"
  bottom: "sumscore"
  top: "loss39"
  include {
    phase: TRAIN
  }
  ncl_loss_param {
    lambda: 0.0001
    net_num: 64
  }
}
layer {
  name: "loss40"
  type: "NCLLoss"
  bottom: "score40"
  bottom: "label"
  bottom: "sumscore"
  top: "loss40"
  include {
    phase: TRAIN
  }
  ncl_loss_param {
    lambda: 0.0001
    net_num: 64
  }
}
layer {
  name: "loss41"
  type: "NCLLoss"
  bottom: "score41"
  bottom: "label"
  bottom: "sumscore"
  top: "loss41"
  include {
    phase: TRAIN
  }
  ncl_loss_param {
    lambda: 0.0001
    net_num: 64
  }
}
layer {
  name: "loss42"
  type: "NCLLoss"
  bottom: "score42"
  bottom: "label"
  bottom: "sumscore"
  top: "loss42"
  include {
    phase: TRAIN
  }
  ncl_loss_param {
    lambda: 0.0001
    net_num: 64
  }
}
layer {
  name: "loss43"
  type: "NCLLoss"
  bottom: "score43"
  bottom: "label"
  bottom: "sumscore"
  top: "loss43"
  include {
    phase: TRAIN
  }
  ncl_loss_param {
    lambda: 0.0001
    net_num: 64
  }
}
layer {
  name: "loss44"
  type: "NCLLoss"
  bottom: "score44"
  bottom: "label"
  bottom: "sumscore"
  top: "loss44"
  include {
    phase: TRAIN
  }
  ncl_loss_param {
    lambda: 0.0001
    net_num: 64
  }
}
layer {
  name: "loss45"
  type: "NCLLoss"
  bottom: "score45"
  bottom: "label"
  bottom: "sumscore"
  top: "loss45"
  include {
    phase: TRAIN
  }
  ncl_loss_param {
    lambda: 0.0001
    net_num: 64
  }
}
layer {
  name: "loss46"
  type: "NCLLoss"
  bottom: "score46"
  bottom: "label"
  bottom: "sumscore"
  top: "loss46"
  include {
    phase: TRAIN
  }
  ncl_loss_param {
    lambda: 0.0001
    net_num: 64
  }
}
layer {
  name: "loss47"
  type: "NCLLoss"
  bottom: "score47"
  bottom: "label"
  bottom: "sumscore"
  top: "loss47"
  include {
    phase: TRAIN
  }
  ncl_loss_param {
    lambda: 0.0001
    net_num: 64
  }
}
layer {
  name: "loss48"
  type: "NCLLoss"
  bottom: "score48"
  bottom: "label"
  bottom: "sumscore"
  top: "loss48"
  include {
    phase: TRAIN
  }
  ncl_loss_param {
    lambda: 0.0001
    net_num: 64
  }
}
layer {
  name: "loss49"
  type: "NCLLoss"
  bottom: "score49"
  bottom: "label"
  bottom: "sumscore"
  top: "loss49"
  include {
    phase: TRAIN
  }
  ncl_loss_param {
    lambda: 0.0001
    net_num: 64
  }
}
layer {
  name: "loss50"
  type: "NCLLoss"
  bottom: "score50"
  bottom: "label"
  bottom: "sumscore"
  top: "loss50"
  include {
    phase: TRAIN
  }
  ncl_loss_param {
    lambda: 0.0001
    net_num: 64
  }
}
layer {
  name: "loss51"
  type: "NCLLoss"
  bottom: "score51"
  bottom: "label"
  bottom: "sumscore"
  top: "loss51"
  include {
    phase: TRAIN
  }
  ncl_loss_param {
    lambda: 0.0001
    net_num: 64
  }
}
layer {
  name: "loss52"
  type: "NCLLoss"
  bottom: "score52"
  bottom: "label"
  bottom: "sumscore"
  top: "loss52"
  include {
    phase: TRAIN
  }
  ncl_loss_param {
    lambda: 0.0001
    net_num: 64
  }
}
layer {
  name: "loss53"
  type: "NCLLoss"
  bottom: "score53"
  bottom: "label"
  bottom: "sumscore"
  top: "loss53"
  include {
    phase: TRAIN
  }
  ncl_loss_param {
    lambda: 0.0001
    net_num: 64
  }
}
layer {
  name: "loss54"
  type: "NCLLoss"
  bottom: "score54"
  bottom: "label"
  bottom: "sumscore"
  top: "loss54"
  include {
    phase: TRAIN
  }
  ncl_loss_param {
    lambda: 0.0001
    net_num: 64
  }
}
layer {
  name: "loss55"
  type: "NCLLoss"
  bottom: "score55"
  bottom: "label"
  bottom: "sumscore"
  top: "loss55"
  include {
    phase: TRAIN
  }
  ncl_loss_param {
    lambda: 0.0001
    net_num: 64
  }
}
layer {
  name: "loss56"
  type: "NCLLoss"
  bottom: "score56"
  bottom: "label"
  bottom: "sumscore"
  top: "loss56"
  include {
    phase: TRAIN
  }
  ncl_loss_param {
    lambda: 0.0001
    net_num: 64
  }
}
layer {
  name: "loss57"
  type: "NCLLoss"
  bottom: "score57"
  bottom: "label"
  bottom: "sumscore"
  top: "loss57"
  include {
    phase: TRAIN
  }
  ncl_loss_param {
    lambda: 0.0001
    net_num: 64
  }
}
layer {
  name: "loss58"
  type: "NCLLoss"
  bottom: "score58"
  bottom: "label"
  bottom: "sumscore"
  top: "loss58"
  include {
    phase: TRAIN
  }
  ncl_loss_param {
    lambda: 0.0001
    net_num: 64
  }
}
layer {
  name: "loss59"
  type: "NCLLoss"
  bottom: "score59"
  bottom: "label"
  bottom: "sumscore"
  top: "loss59"
  include {
    phase: TRAIN
  }
  ncl_loss_param {
    lambda: 0.0001
    net_num: 64
  }
}
layer {
  name: "loss60"
  type: "NCLLoss"
  bottom: "score60"
  bottom: "label"
  bottom: "sumscore"
  top: "loss60"
  include {
    phase: TRAIN
  }
  ncl_loss_param {
    lambda: 0.0001
    net_num: 64
  }
}
layer {
  name: "loss61"
  type: "NCLLoss"
  bottom: "score61"
  bottom: "label"
  bottom: "sumscore"
  top: "loss61"
  include {
    phase: TRAIN
  }
  ncl_loss_param {
    lambda: 0.0001
    net_num: 64
  }
}
layer {
  name: "loss62"
  type: "NCLLoss"
  bottom: "score62"
  bottom: "label"
  bottom: "sumscore"
  top: "loss62"
  include {
    phase: TRAIN
  }
  ncl_loss_param {
    lambda: 0.0001
    net_num: 64
  }
}
layer {
  name: "loss63"
  type: "NCLLoss"
  bottom: "score63"
  bottom: "label"
  bottom: "sumscore"
  top: "loss63"
  include {
    phase: TRAIN
  }
  ncl_loss_param {
    lambda: 0.0001
    net_num: 64
  }
}
layer {
  name: "loss64"
  type: "NCLLoss"
  bottom: "score64"
  bottom: "label"
  bottom: "sumscore"
  top: "loss64"
  include {
    phase: TRAIN
  }
  ncl_loss_param {
    lambda: 0.0001
    net_num: 64
  }
}
I0713 10:06:50.032882 28254 layer_factory.hpp:77] Creating layer data
I0713 10:06:50.033001 28254 db_lmdb.cpp:35] Opened lmdb /home/peiyong/Work/Zenglin/szl/ShanghaiTech/partB/train8_5/image_lmdb
I0713 10:06:50.033038 28254 net.cpp:84] Creating Layer data
I0713 10:06:50.033051 28254 net.cpp:380] data -> data
I0713 10:06:50.034076 28254 data_layer.cpp:45] output data size: 12,3,384,512
I0713 10:06:50.085408 28254 net.cpp:122] Setting up data
I0713 10:06:50.085441 28254 net.cpp:129] Top shape: 12 3 384 512 (7077888)
I0713 10:06:50.085446 28254 net.cpp:137] Memory required for data: 28311552
I0713 10:06:50.085456 28254 layer_factory.hpp:77] Creating layer label
I0713 10:06:50.085539 28254 db_lmdb.cpp:35] Opened lmdb /home/peiyong/Work/Zenglin/szl/ShanghaiTech/partB/train8_5/dmap_lmdb
I0713 10:06:50.085566 28254 net.cpp:84] Creating Layer label
I0713 10:06:50.085578 28254 net.cpp:380] label -> label
I0713 10:06:50.085701 28254 data_layer.cpp:45] output data size: 12,1,48,64
I0713 10:06:50.086849 28254 net.cpp:122] Setting up label
I0713 10:06:50.086864 28254 net.cpp:129] Top shape: 12 1 48 64 (36864)
I0713 10:06:50.086889 28254 net.cpp:137] Memory required for data: 28459008
I0713 10:06:50.086902 28254 layer_factory.hpp:77] Creating layer label_label_0_split
I0713 10:06:50.086926 28254 net.cpp:84] Creating Layer label_label_0_split
I0713 10:06:50.086938 28254 net.cpp:406] label_label_0_split <- label
I0713 10:06:50.086962 28254 net.cpp:380] label_label_0_split -> label_label_0_split_0
…
I0713 10:06:50.088099 28254 net.cpp:380] label_label_0_split -> label_label_0_split_58
I0713 10:06:50.088119 28254 net.cpp:380] label_label_0_split -> label_label_0_split_59
I0713 10:06:50.088136 28254 net.cpp:380] label_label_0_split -> label_label_0_split_60
I0713 10:06:50.088155 28254 net.cpp:380] label_label_0_split -> label_label_0_split_61
I0713 10:06:50.088174 28254 net.cpp:380] label_label_0_split -> label_label_0_split_62
I0713 10:06:50.088201 28254 net.cpp:380] label_label_0_split -> label_label_0_split_63
I0713 10:06:50.088654 28254 net.cpp:122] Setting up label_label_0_split
I0713 10:06:50.088665 28254 net.cpp:129] Top shape: 12 1 48 64 (36864)
I0713 10:06:50.088668 28254 net.cpp:129] Top shape: 12 1 48 64 (36864)
I0713 10:06:50.088671 28254 net.cpp:129] Top shape: 12 1 48 64 (36864)
I0713 10:06:50.088675 28254 net.cpp:129] Top shape: 12 1 48 64 (36864)
I0713 10:06:50.088677 28254 net.cpp:129] Top shape: 12 1 48 64 (36864)
I0713 10:06:50.088680 28254 net.cpp:129] Top shape: 12 1 48 64 (36864)
I0713 10:06:50.088685 28254 net.cpp:129] Top shape: 12 1 48 64 (36864)
I0713 10:06:50.088687 28254 net.cpp:129] Top shape: 12 1 48 64 (36864)
I0713 10:06:50.088703 28254 net.cpp:129] Top shape: 12 1 48 64 (36864)
I0713 10:06:50.088712 28254 net.cpp:129] Top shape: 12 1 48 64 (36864)
I0713 10:06:50.088721 28254 net.cpp:129] Top shape: 12 1 48 64 (36864)
I0713 10:06:50.088727 28254 net.cpp:129] Top shape: 12 1 48 64 (36864)
I0713 10:06:50.088734 28254 net.cpp:129] Top shape: 12 1 48 64 (36864)
I0713 10:06:50.088742 28254 net.cpp:129] Top shape: 12 1 48 64 (36864)
I0713 10:06:50.088749 28254 net.cpp:129] Top shape: 12 1 48 64 (36864)
I0713 10:06:50.088757 28254 net.cpp:129] Top shape: 12 1 48 64 (36864)
I0713 10:06:50.088766 28254 net.cpp:129] Top shape: 12 1 48 64 (36864)
I0713 10:06:50.088774 28254 net.cpp:129] Top shape: 12 1 48 64 (36864)
I0713 10:06:50.088780 28254 net.cpp:129] Top shape: 12 1 48 64 (36864)
I0713 10:06:50.088788 28254 net.cpp:129] Top shape: 12 1 48 64 (36864)
I0713 10:06:50.088795 28254 net.cpp:129] Top shape: 12 1 48 64 (36864)
I0713 10:06:50.088801 28254 net.cpp:129] Top shape: 12 1 48 64 (36864)
I0713 10:06:50.088809 28254 net.cpp:129] Top shape: 12 1 48 64 (36864)
I0713 10:06:50.088817 28254 net.cpp:129] Top shape: 12 1 48 64 (36864)
I0713 10:06:50.088824 28254 net.cpp:129] Top shape: 12 1 48 64 (36864)
I0713 10:06:50.088831 28254 net.cpp:129] Top shape: 12 1 48 64 (36864)
I0713 10:06:50.088838 28254 net.cpp:129] Top shape: 12 1 48 64 (36864)
I0713 10:06:50.088845 28254 net.cpp:129] Top shape: 12 1 48 64 (36864)
I0713 10:06:50.088853 28254 net.cpp:129] Top shape: 12 1 48 64 (36864)
I0713 10:06:50.088860 28254 net.cpp:129] Top shape: 12 1 48 64 (36864)
I0713 10:06:50.088868 28254 net.cpp:129] Top shape: 12 1 48 64 (36864)
I0713 10:06:50.088877 28254 net.cpp:129] Top shape: 12 1 48 64 (36864)
I0713 10:06:50.088883 28254 net.cpp:129] Top shape: 12 1 48 64 (36864)
I0713 10:06:50.088891 28254 net.cpp:129] Top shape: 12 1 48 64 (36864)
I0713 10:06:50.088898 28254 net.cpp:129] Top shape: 12 1 48 64 (36864)
I0713 10:06:50.088904 28254 net.cpp:129] Top shape: 12 1 48 64 (36864)
I0713 10:06:50.088912 28254 net.cpp:129] Top shape: 12 1 48 64 (36864)
I0713 10:06:50.088919 28254 net.cpp:129] Top shape: 12 1 48 64 (36864)
I0713 10:06:50.088927 28254 net.cpp:129] Top shape: 12 1 48 64 (36864)
I0713 10:06:50.088934 28254 net.cpp:129] Top shape: 12 1 48 64 (36864)
I0713 10:06:50.088942 28254 net.cpp:129] Top shape: 12 1 48 64 (36864)
I0713 10:06:50.088948 28254 net.cpp:129] Top shape: 12 1 48 64 (36864)
I0713 10:06:50.088955 28254 net.cpp:129] Top shape: 12 1 48 64 (36864)
I0713 10:06:50.088961 28254 net.cpp:129] Top shape: 12 1 48 64 (36864)
I0713 10:06:50.088969 28254 net.cpp:129] Top shape: 12 1 48 64 (36864)
I0713 10:06:50.088977 28254 net.cpp:129] Top shape: 12 1 48 64 (36864)
I0713 10:06:50.088984 28254 net.cpp:129] Top shape: 12 1 48 64 (36864)
I0713 10:06:50.088991 28254 net.cpp:129] Top shape: 12 1 48 64 (36864)
I0713 10:06:50.088999 28254 net.cpp:129] Top shape: 12 1 48 64 (36864)
I0713 10:06:50.089004 28254 net.cpp:129] Top shape: 12 1 48 64 (36864)
I0713 10:06:50.089012 28254 net.cpp:129] Top shape: 12 1 48 64 (36864)
I0713 10:06:50.089018 28254 net.cpp:129] Top shape: 12 1 48 64 (36864)
I0713 10:06:50.089026 28254 net.cpp:129] Top shape: 12 1 48 64 (36864)
I0713 10:06:50.089035 28254 net.cpp:129] Top shape: 12 1 48 64 (36864)
I0713 10:06:50.089041 28254 net.cpp:129] Top shape: 12 1 48 64 (36864)
I0713 10:06:50.089048 28254 net.cpp:129] Top shape: 12 1 48 64 (36864)
I0713 10:06:50.089056 28254 net.cpp:129] Top shape: 12 1 48 64 (36864)
I0713 10:06:50.089062 28254 net.cpp:129] Top shape: 12 1 48 64 (36864)
I0713 10:06:50.089069 28254 net.cpp:129] Top shape: 12 1 48 64 (36864)
I0713 10:06:50.089076 28254 net.cpp:129] Top shape: 12 1 48 64 (36864)
I0713 10:06:50.089082 28254 net.cpp:129] Top shape: 12 1 48 64 (36864)
I0713 10:06:50.089088 28254 net.cpp:129] Top shape: 12 1 48 64 (36864)
I0713 10:06:50.089095 28254 net.cpp:129] Top shape: 12 1 48 64 (36864)
I0713 10:06:50.089102 28254 net.cpp:129] Top shape: 12 1 48 64 (36864)
I0713 10:06:50.089107 28254 net.cpp:137] Memory required for data: 37896192
I0713 10:06:50.089114 28254 layer_factory.hpp:77] Creating layer conv1_1
I0713 10:06:50.089144 28254 net.cpp:84] Creating Layer conv1_1
I0713 10:06:50.089154 28254 net.cpp:406] conv1_1 <- data
I0713 10:06:50.089162 28254 net.cpp:380] conv1_1 -> conv1_1
I0713 10:06:50.305081 28254 net.cpp:122] Setting up conv1_1
I0713 10:06:50.305114 28254 net.cpp:129] Top shape: 12 64 384 512 (150994944)
I0713 10:06:50.305117 28254 net.cpp:137] Memory required for data: 641875968
I0713 10:06:50.305138 28254 layer_factory.hpp:77] Creating layer relu1_1
I0713 10:06:50.305155 28254 net.cpp:84] Creating Layer relu1_1
I0713 10:06:50.305163 28254 net.cpp:406] relu1_1 <- conv1_1
I0713 10:06:50.305172 28254 net.cpp:367] relu1_1 -> conv1_1 (in-place)
I0713 10:06:50.305336 28254 net.cpp:122] Setting up relu1_1
I0713 10:06:50.305348 28254 net.cpp:129] Top shape: 12 64 384 512 (150994944)
I0713 10:06:50.305353 28254 net.cpp:137] Memory required for data: 1245855744
I0713 10:06:50.305361 28254 layer_factory.hpp:77] Creating layer conv1_2
I0713 10:06:50.305377 28254 net.cpp:84] Creating Layer conv1_2
I0713 10:06:50.305384 28254 net.cpp:406] conv1_2 <- conv1_1
I0713 10:06:50.305394 28254 net.cpp:380] conv1_2 -> conv1_2
I0713 10:06:50.307955 28254 net.cpp:122] Setting up conv1_2
I0713 10:06:50.307970 28254 net.cpp:129] Top shape: 12 64 384 512 (150994944)
I0713 10:06:50.307976 28254 net.cpp:137] Memory required for data: 1849835520
I0713 10:06:50.307988 28254 layer_factory.hpp:77] Creating layer relu1_2
I0713 10:06:50.307999 28254 net.cpp:84] Creating Layer relu1_2
I0713 10:06:50.308007 28254 net.cpp:406] relu1_2 <- conv1_2
I0713 10:06:50.308015 28254 net.cpp:367] relu1_2 -> conv1_2 (in-place)
I0713 10:06:50.308166 28254 net.cpp:122] Setting up relu1_2
I0713 10:06:50.308176 28254 net.cpp:129] Top shape: 12 64 384 512 (150994944)
I0713 10:06:50.308181 28254 net.cpp:137] Memory required for data: 2453815296
I0713 10:06:50.308187 28254 layer_factory.hpp:77] Creating layer pool1
I0713 10:06:50.308197 28254 net.cpp:84] Creating Layer pool1
I0713 10:06:50.308203 28254 net.cpp:406] pool1 <- conv1_2
I0713 10:06:50.308213 28254 net.cpp:380] pool1 -> pool1
I0713 10:06:50.308269 28254 net.cpp:122] Setting up pool1
I0713 10:06:50.308279 28254 net.cpp:129] Top shape: 12 64 192 256 (37748736)
I0713 10:06:50.308284 28254 net.cpp:137] Memory required for data: 2604810240
I0713 10:06:50.308290 28254 layer_factory.hpp:77] Creating layer conv2_1
I0713 10:06:50.308305 28254 net.cpp:84] Creating Layer conv2_1
I0713 10:06:50.308312 28254 net.cpp:406] conv2_1 <- pool1
I0713 10:06:50.308323 28254 net.cpp:380] conv2_1 -> conv2_1
I0713 10:06:50.311081 28254 net.cpp:122] Setting up conv2_1
I0713 10:06:50.311096 28254 net.cpp:129] Top shape: 12 128 192 256 (75497472)
I0713 10:06:50.311102 28254 net.cpp:137] Memory required for data: 2906800128
I0713 10:06:50.311116 28254 layer_factory.hpp:77] Creating layer relu2_1
I0713 10:06:50.311126 28254 net.cpp:84] Creating Layer relu2_1
I0713 10:06:50.311133 28254 net.cpp:406] relu2_1 <- conv2_1
I0713 10:06:50.311142 28254 net.cpp:367] relu2_1 -> conv2_1 (in-place)
I0713 10:06:50.311681 28254 net.cpp:122] Setting up relu2_1
I0713 10:06:50.311693 28254 net.cpp:129] Top shape: 12 128 192 256 (75497472)
I0713 10:06:50.311699 28254 net.cpp:137] Memory required for data: 3208790016
I0713 10:06:50.311707 28254 layer_factory.hpp:77] Creating layer conv2_2
I0713 10:06:50.311719 28254 net.cpp:84] Creating Layer conv2_2
I0713 10:06:50.311728 28254 net.cpp:406] conv2_2 <- conv2_1
I0713 10:06:50.311738 28254 net.cpp:380] conv2_2 -> conv2_2
I0713 10:06:50.315109 28254 net.cpp:122] Setting up conv2_2
I0713 10:06:50.315124 28254 net.cpp:129] Top shape: 12 128 192 256 (75497472)
I0713 10:06:50.315130 28254 net.cpp:137] Memory required for data: 3510779904
I0713 10:06:50.315141 28254 layer_factory.hpp:77] Creating layer relu2_2
I0713 10:06:50.315151 28254 net.cpp:84] Creating Layer relu2_2
I0713 10:06:50.315160 28254 net.cpp:406] relu2_2 <- conv2_2
I0713 10:06:50.315167 28254 net.cpp:367] relu2_2 -> conv2_2 (in-place)
I0713 10:06:50.315318 28254 net.cpp:122] Setting up relu2_2
I0713 10:06:50.315330 28254 net.cpp:129] Top shape: 12 128 192 256 (75497472)
I0713 10:06:50.315366 28254 net.cpp:137] Memory required for data: 3812769792
I0713 10:06:50.315374 28254 layer_factory.hpp:77] Creating layer pool2
I0713 10:06:50.315383 28254 net.cpp:84] Creating Layer pool2
I0713 10:06:50.315389 28254 net.cpp:406] pool2 <- conv2_2
I0713 10:06:50.315398 28254 net.cpp:380] pool2 -> pool2
I0713 10:06:50.315449 28254 net.cpp:122] Setting up pool2
I0713 10:06:50.315460 28254 net.cpp:129] Top shape: 12 128 96 128 (18874368)
I0713 10:06:50.315465 28254 net.cpp:137] Memory required for data: 3888267264
I0713 10:06:50.315471 28254 layer_factory.hpp:77] Creating layer conv3_1
I0713 10:06:50.315490 28254 net.cpp:84] Creating Layer conv3_1
I0713 10:06:50.315496 28254 net.cpp:406] conv3_1 <- pool2
I0713 10:06:50.315510 28254 net.cpp:380] conv3_1 -> conv3_1
I0713 10:06:50.320910 28254 net.cpp:122] Setting up conv3_1
I0713 10:06:50.320929 28254 net.cpp:129] Top shape: 12 256 96 128 (37748736)
I0713 10:06:50.320935 28254 net.cpp:137] Memory required for data: 4039262208
I0713 10:06:50.320950 28254 layer_factory.hpp:77] Creating layer relu3_1
I0713 10:06:50.320960 28254 net.cpp:84] Creating Layer relu3_1
I0713 10:06:50.320968 28254 net.cpp:406] relu3_1 <- conv3_1
I0713 10:06:50.320981 28254 net.cpp:367] relu3_1 -> conv3_1 (in-place)
I0713 10:06:50.321144 28254 net.cpp:122] Setting up relu3_1
I0713 10:06:50.321156 28254 net.cpp:129] Top shape: 12 256 96 128 (37748736)
I0713 10:06:50.321162 28254 net.cpp:137] Memory required for data: 4190257152
I0713 10:06:50.321168 28254 layer_factory.hpp:77] Creating layer conv3_2
I0713 10:06:50.321183 28254 net.cpp:84] Creating Layer conv3_2
I0713 10:06:50.321192 28254 net.cpp:406] conv3_2 <- conv3_1
I0713 10:06:50.321203 28254 net.cpp:380] conv3_2 -> conv3_2
I0713 10:06:50.328456 28254 net.cpp:122] Setting up conv3_2
I0713 10:06:50.328472 28254 net.cpp:129] Top shape: 12 256 96 128 (37748736)
I0713 10:06:50.328480 28254 net.cpp:137] Memory required for data: 4341252096
I0713 10:06:50.328490 28254 layer_factory.hpp:77] Creating layer relu3_2
I0713 10:06:50.328505 28254 net.cpp:84] Creating Layer relu3_2
I0713 10:06:50.328513 28254 net.cpp:406] relu3_2 <- conv3_2
I0713 10:06:50.328523 28254 net.cpp:367] relu3_2 -> conv3_2 (in-place)
I0713 10:06:50.329102 28254 net.cpp:122] Setting up relu3_2
I0713 10:06:50.329115 28254 net.cpp:129] Top shape: 12 256 96 128 (37748736)
I0713 10:06:50.329121 28254 net.cpp:137] Memory required for data: 4492247040
I0713 10:06:50.329128 28254 layer_factory.hpp:77] Creating layer conv3_3
I0713 10:06:50.329144 28254 net.cpp:84] Creating Layer conv3_3
I0713 10:06:50.329151 28254 net.cpp:406] conv3_3 <- conv3_2
I0713 10:06:50.329164 28254 net.cpp:380] conv3_3 -> conv3_3
I0713 10:06:50.337033 28254 net.cpp:122] Setting up conv3_3
I0713 10:06:50.337049 28254 net.cpp:129] Top shape: 12 256 96 128 (37748736)
I0713 10:06:50.337051 28254 net.cpp:137] Memory required for data: 4643241984
I0713 10:06:50.337057 28254 layer_factory.hpp:77] Creating layer relu3_3
I0713 10:06:50.337062 28254 net.cpp:84] Creating Layer relu3_3
I0713 10:06:50.337065 28254 net.cpp:406] relu3_3 <- conv3_3
I0713 10:06:50.337074 28254 net.cpp:367] relu3_3 -> conv3_3 (in-place)
I0713 10:06:50.337235 28254 net.cpp:122] Setting up relu3_3
I0713 10:06:50.337245 28254 net.cpp:129] Top shape: 12 256 96 128 (37748736)
I0713 10:06:50.337249 28254 net.cpp:137] Memory required for data: 4794236928
I0713 10:06:50.337252 28254 layer_factory.hpp:77] Creating layer pool3
I0713 10:06:50.337260 28254 net.cpp:84] Creating Layer pool3
I0713 10:06:50.337263 28254 net.cpp:406] pool3 <- conv3_3
I0713 10:06:50.337270 28254 net.cpp:380] pool3 -> pool3
I0713 10:06:50.337311 28254 net.cpp:122] Setting up pool3
I0713 10:06:50.337318 28254 net.cpp:129] Top shape: 12 256 48 64 (9437184)
I0713 10:06:50.337321 28254 net.cpp:137] Memory required for data: 4831985664
I0713 10:06:50.337326 28254 layer_factory.hpp:77] Creating layer conv4_1
I0713 10:06:50.337335 28254 net.cpp:84] Creating Layer conv4_1
I0713 10:06:50.337339 28254 net.cpp:406] conv4_1 <- pool3
I0713 10:06:50.337368 28254 net.cpp:380] conv4_1 -> conv4_1
I0713 10:06:50.350762 28254 net.cpp:122] Setting up conv4_1
I0713 10:06:50.350783 28254 net.cpp:129] Top shape: 12 512 48 64 (18874368)
I0713 10:06:50.350787 28254 net.cpp:137] Memory required for data: 4907483136
I0713 10:06:50.350795 28254 layer_factory.hpp:77] Creating layer relu4_1
I0713 10:06:50.350800 28254 net.cpp:84] Creating Layer relu4_1
I0713 10:06:50.350805 28254 net.cpp:406] relu4_1 <- conv4_1
I0713 10:06:50.350813 28254 net.cpp:367] relu4_1 -> conv4_1 (in-place)
I0713 10:06:50.350985 28254 net.cpp:122] Setting up relu4_1
I0713 10:06:50.350996 28254 net.cpp:129] Top shape: 12 512 48 64 (18874368)
I0713 10:06:50.351001 28254 net.cpp:137] Memory required for data: 4982980608
I0713 10:06:50.351008 28254 layer_factory.hpp:77] Creating layer conv4_2
I0713 10:06:50.351027 28254 net.cpp:84] Creating Layer conv4_2
I0713 10:06:50.351034 28254 net.cpp:406] conv4_2 <- conv4_1
I0713 10:06:50.351043 28254 net.cpp:380] conv4_2 -> conv4_2
I0713 10:06:50.373978 28254 net.cpp:122] Setting up conv4_2
I0713 10:06:50.374004 28254 net.cpp:129] Top shape: 12 512 48 64 (18874368)
I0713 10:06:50.374009 28254 net.cpp:137] Memory required for data: 5058478080
I0713 10:06:50.374025 28254 layer_factory.hpp:77] Creating layer relu4_2
I0713 10:06:50.374039 28254 net.cpp:84] Creating Layer relu4_2
I0713 10:06:50.374049 28254 net.cpp:406] relu4_2 <- conv4_2
I0713 10:06:50.374061 28254 net.cpp:367] relu4_2 -> conv4_2 (in-place)
I0713 10:06:50.374786 28254 net.cpp:122] Setting up relu4_2
I0713 10:06:50.374804 28254 net.cpp:129] Top shape: 12 512 48 64 (18874368)
I0713 10:06:50.374809 28254 net.cpp:137] Memory required for data: 5133975552
I0713 10:06:50.374814 28254 layer_factory.hpp:77] Creating layer conv4_3
I0713 10:06:50.374830 28254 net.cpp:84] Creating Layer conv4_3
I0713 10:06:50.374837 28254 net.cpp:406] conv4_3 <- conv4_2
I0713 10:06:50.374846 28254 net.cpp:380] conv4_3 -> conv4_3
I0713 10:06:50.397835 28254 net.cpp:122] Setting up conv4_3
I0713 10:06:50.397863 28254 net.cpp:129] Top shape: 12 512 48 64 (18874368)
I0713 10:06:50.397867 28254 net.cpp:137] Memory required for data: 5209473024
I0713 10:06:50.397876 28254 layer_factory.hpp:77] Creating layer relu4_3
I0713 10:06:50.397883 28254 net.cpp:84] Creating Layer relu4_3
I0713 10:06:50.397889 28254 net.cpp:406] relu4_3 <- conv4_3
I0713 10:06:50.397898 28254 net.cpp:367] relu4_3 -> conv4_3 (in-place)
I0713 10:06:50.398072 28254 net.cpp:122] Setting up relu4_3
I0713 10:06:50.398082 28254 net.cpp:129] Top shape: 12 512 48 64 (18874368)
I0713 10:06:50.398087 28254 net.cpp:137] Memory required for data: 5284970496
I0713 10:06:50.398093 28254 layer_factory.hpp:77] Creating layer pool4
I0713 10:06:50.398105 28254 net.cpp:84] Creating Layer pool4
I0713 10:06:50.398113 28254 net.cpp:406] pool4 <- conv4_3
I0713 10:06:50.398123 28254 net.cpp:380] pool4 -> pool4
I0713 10:06:50.398180 28254 net.cpp:122] Setting up pool4
I0713 10:06:50.398190 28254 net.cpp:129] Top shape: 12 512 48 64 (18874368)
I0713 10:06:50.398195 28254 net.cpp:137] Memory required for data: 5360467968
I0713 10:06:50.398201 28254 layer_factory.hpp:77] Creating layer conv5_1
I0713 10:06:50.398218 28254 net.cpp:84] Creating Layer conv5_1
I0713 10:06:50.398227 28254 net.cpp:406] conv5_1 <- pool4
I0713 10:06:50.398241 28254 net.cpp:380] conv5_1 -> conv5_1
I0713 10:06:50.420379 28254 net.cpp:122] Setting up conv5_1
I0713 10:06:50.420406 28254 net.cpp:129] Top shape: 12 512 48 64 (18874368)
I0713 10:06:50.420410 28254 net.cpp:137] Memory required for data: 5435965440
I0713 10:06:50.420419 28254 layer_factory.hpp:77] Creating layer relu5_1
I0713 10:06:50.420428 28254 net.cpp:84] Creating Layer relu5_1
I0713 10:06:50.420434 28254 net.cpp:406] relu5_1 <- conv5_1
I0713 10:06:50.420440 28254 net.cpp:367] relu5_1 -> conv5_1 (in-place)
I0713 10:06:50.421078 28254 net.cpp:122] Setting up relu5_1
I0713 10:06:50.421092 28254 net.cpp:129] Top shape: 12 512 48 64 (18874368)
I0713 10:06:50.421095 28254 net.cpp:137] Memory required for data: 5511462912
I0713 10:06:50.421100 28254 layer_factory.hpp:77] Creating layer conv5_2
I0713 10:06:50.421139 28254 net.cpp:84] Creating Layer conv5_2
I0713 10:06:50.421145 28254 net.cpp:406] conv5_2 <- conv5_1
I0713 10:06:50.421152 28254 net.cpp:380] conv5_2 -> conv5_2
I0713 10:06:50.442740 28254 net.cpp:122] Setting up conv5_2
I0713 10:06:50.442769 28254 net.cpp:129] Top shape: 12 512 48 64 (18874368)
I0713 10:06:50.442775 28254 net.cpp:137] Memory required for data: 5586960384
I0713 10:06:50.442787 28254 layer_factory.hpp:77] Creating layer relu5_2
I0713 10:06:50.442800 28254 net.cpp:84] Creating Layer relu5_2
I0713 10:06:50.442812 28254 net.cpp:406] relu5_2 <- conv5_2
I0713 10:06:50.442824 28254 net.cpp:367] relu5_2 -> conv5_2 (in-place)
I0713 10:06:50.443040 28254 net.cpp:122] Setting up relu5_2
I0713 10:06:50.443051 28254 net.cpp:129] Top shape: 12 512 48 64 (18874368)
I0713 10:06:50.443058 28254 net.cpp:137] Memory required for data: 5662457856
I0713 10:06:50.443063 28254 layer_factory.hpp:77] Creating layer conv5_3
I0713 10:06:50.443083 28254 net.cpp:84] Creating Layer conv5_3
I0713 10:06:50.443089 28254 net.cpp:406] conv5_3 <- conv5_2
I0713 10:06:50.443101 28254 net.cpp:380] conv5_3 -> conv5_3
I0713 10:06:50.465225 28254 net.cpp:122] Setting up conv5_3
I0713 10:06:50.465250 28254 net.cpp:129] Top shape: 12 512 48 64 (18874368)
I0713 10:06:50.465255 28254 net.cpp:137] Memory required for data: 5737955328
I0713 10:06:50.465265 28254 layer_factory.hpp:77] Creating layer relu5_3
I0713 10:06:50.465278 28254 net.cpp:84] Creating Layer relu5_3
I0713 10:06:50.465284 28254 net.cpp:406] relu5_3 <- conv5_3
I0713 10:06:50.465291 28254 net.cpp:367] relu5_3 -> conv5_3 (in-place)
I0713 10:06:50.465929 28254 net.cpp:122] Setting up relu5_3
I0713 10:06:50.465942 28254 net.cpp:129] Top shape: 12 512 48 64 (18874368)
I0713 10:06:50.465945 28254 net.cpp:137] Memory required for data: 5813452800
I0713 10:06:50.465947 28254 layer_factory.hpp:77] Creating layer conv_score
I0713 10:06:50.465958 28254 net.cpp:84] Creating Layer conv_score
I0713 10:06:50.465961 28254 net.cpp:406] conv_score <- conv5_3
I0713 10:06:50.465966 28254 net.cpp:380] conv_score -> conv_score
I0713 10:06:50.543345 28254 net.cpp:122] Setting up conv_score
I0713 10:06:50.543375 28254 net.cpp:129] Top shape: 12 64 48 64 (2359296)
I0713 10:06:50.543380 28254 net.cpp:137] Memory required for data: 5822889984
I0713 10:06:50.543387 28254 layer_factory.hpp:77] Creating layer relu_score
I0713 10:06:50.543395 28254 net.cpp:84] Creating Layer relu_score
I0713 10:06:50.543401 28254 net.cpp:406] relu_score <- conv_score
I0713 10:06:50.543408 28254 net.cpp:367] relu_score -> conv_score (in-place)
I0713 10:06:50.543607 28254 net.cpp:122] Setting up relu_score
I0713 10:06:50.543618 28254 net.cpp:129] Top shape: 12 64 48 64 (2359296)
I0713 10:06:50.543622 28254 net.cpp:137] Memory required for data: 5832327168
I0713 10:06:50.543627 28254 layer_factory.hpp:77] Creating layer slicer_conv
I0713 10:06:50.543648 28254 net.cpp:84] Creating Layer slicer_conv
I0713 10:06:50.543656 28254 net.cpp:406] slicer_conv <- conv_score
I0713 10:06:50.543674 28254 net.cpp:380] slicer_conv -> score1
I0713 10:06:50.543696 28254 net.cpp:380] slicer_conv -> score2
…
I0713 10:06:50.544560 28254 net.cpp:380] slicer_conv -> score57
I0713 10:06:50.544574 28254 net.cpp:380] slicer_conv -> score58
I0713 10:06:50.544589 28254 net.cpp:380] slicer_conv -> score59
I0713 10:06:50.544603 28254 net.cpp:380] slicer_conv -> score60
I0713 10:06:50.544618 28254 net.cpp:380] slicer_conv -> score61
I0713 10:06:50.544633 28254 net.cpp:380] slicer_conv -> score62
I0713 10:06:50.544653 28254 net.cpp:380] slicer_conv -> score63
I0713 10:06:50.544669 28254 net.cpp:380] slicer_conv -> score64
I0713 10:06:50.545459 28254 net.cpp:122] Setting up slicer_conv
I0713 10:06:50.545469 28254 net.cpp:129] Top shape: 12 1 48 64 (36864)
I0713 10:06:50.545476 28254 net.cpp:129] Top shape: 12 1 48 64 (36864)
I0713 10:06:50.545485 28254 net.cpp:129] Top shape: 12 1 48 64 (36864)
I0713 10:06:50.545491 28254 net.cpp:129] Top shape: 12 1 48 64 (36864)
I0713 10:06:50.545498 28254 net.cpp:129] Top shape: 12 1 48 64 (36864)
I0713 10:06:50.545506 28254 net.cpp:129] Top shape: 12 1 48 64 (36864)
I0713 10:06:50.545511 28254 net.cpp:129] Top shape: 12 1 48 64 (36864)
I0713 10:06:50.545518 28254 net.cpp:129] Top shape: 12 1 48 64 (36864)
I0713 10:06:50.545524 28254 net.cpp:129] Top shape: 12 1 48 64 (36864)
I0713 10:06:50.545531 28254 net.cpp:129] Top shape: 12 1 48 64 (36864)
I0713 10:06:50.545538 28254 net.cpp:129] Top shape: 12 1 48 64 (36864)
I0713 10:06:50.545545 28254 net.cpp:129] Top shape: 12 1 48 64 (36864)
I0713 10:06:50.545552 28254 net.cpp:129] Top shape: 12 1 48 64 (36864)
I0713 10:06:50.545558 28254 net.cpp:129] Top shape: 12 1 48 64 (36864)
I0713 10:06:50.545579 28254 net.cpp:129] Top shape: 12 1 48 64 (36864)
I0713 10:06:50.545588 28254 net.cpp:129] Top shape: 12 1 48 64 (36864)
I0713 10:06:50.545596 28254 net.cpp:129] Top shape: 12 1 48 64 (36864)
I0713 10:06:50.545603 28254 net.cpp:129] Top shape: 12 1 48 64 (36864)
I0713 10:06:50.545609 28254 net.cpp:129] Top shape: 12 1 48 64 (36864)
I0713 10:06:50.545616 28254 net.cpp:129] Top shape: 12 1 48 64 (36864)
I0713 10:06:50.545624 28254 net.cpp:129] Top shape: 12 1 48 64 (36864)
I0713 10:06:50.545631 28254 net.cpp:129] Top shape: 12 1 48 64 (36864)
I0713 10:06:50.545639 28254 net.cpp:129] Top shape: 12 1 48 64 (36864)
I0713 10:06:50.545646 28254 net.cpp:129] Top shape: 12 1 48 64 (36864)
I0713 10:06:50.545653 28254 net.cpp:129] Top shape: 12 1 48 64 (36864)
I0713 10:06:50.545661 28254 net.cpp:129] Top shape: 12 1 48 64 (36864)
I0713 10:06:50.545667 28254 net.cpp:129] Top shape: 12 1 48 64 (36864)
I0713 10:06:50.545675 28254 net.cpp:129] Top shape: 12 1 48 64 (36864)
I0713 10:06:50.545681 28254 net.cpp:129] Top shape: 12 1 48 64 (36864)
I0713 10:06:50.545687 28254 net.cpp:129] Top shape: 12 1 48 64 (36864)
I0713 10:06:50.545696 28254 net.cpp:129] Top shape: 12 1 48 64 (36864)
I0713 10:06:50.545702 28254 net.cpp:129] Top shape: 12 1 48 64 (36864)
I0713 10:06:50.545711 28254 net.cpp:129] Top shape: 12 1 48 64 (36864)
I0713 10:06:50.545717 28254 net.cpp:129] Top shape: 12 1 48 64 (36864)
I0713 10:06:50.545723 28254 net.cpp:129] Top shape: 12 1 48 64 (36864)
I0713 10:06:50.545729 28254 net.cpp:129] Top shape: 12 1 48 64 (36864)
I0713 10:06:50.545737 28254 net.cpp:129] Top shape: 12 1 48 64 (36864)
I0713 10:06:50.545743 28254 net.cpp:129] Top shape: 12 1 48 64 (36864)
I0713 10:06:50.545749 28254 net.cpp:129] Top shape: 12 1 48 64 (36864)
I0713 10:06:50.545756 28254 net.cpp:129] Top shape: 12 1 48 64 (36864)
I0713 10:06:50.545763 28254 net.cpp:129] Top shape: 12 1 48 64 (36864)
I0713 10:06:50.545770 28254 net.cpp:129] Top shape: 12 1 48 64 (36864)
I0713 10:06:50.545776 28254 net.cpp:129] Top shape: 12 1 48 64 (36864)
I0713 10:06:50.545783 28254 net.cpp:129] Top shape: 12 1 48 64 (36864)
I0713 10:06:50.545791 28254 net.cpp:129] Top shape: 12 1 48 64 (36864)
I0713 10:06:50.545799 28254 net.cpp:129] Top shape: 12 1 48 64 (36864)
I0713 10:06:50.545804 28254 net.cpp:129] Top shape: 12 1 48 64 (36864)
I0713 10:06:50.545811 28254 net.cpp:129] Top shape: 12 1 48 64 (36864)
I0713 10:06:50.545819 28254 net.cpp:129] Top shape: 12 1 48 64 (36864)
I0713 10:06:50.545825 28254 net.cpp:129] Top shape: 12 1 48 64 (36864)
I0713 10:06:50.545831 28254 net.cpp:129] Top shape: 12 1 48 64 (36864)
I0713 10:06:50.545838 28254 net.cpp:129] Top shape: 12 1 48 64 (36864)
I0713 10:06:50.545845 28254 net.cpp:129] Top shape: 12 1 48 64 (36864)
I0713 10:06:50.545851 28254 net.cpp:129] Top shape: 12 1 48 64 (36864)
I0713 10:06:50.545857 28254 net.cpp:129] Top shape: 12 1 48 64 (36864)
I0713 10:06:50.545864 28254 net.cpp:129] Top shape: 12 1 48 64 (36864)
I0713 10:06:50.545871 28254 net.cpp:129] Top shape: 12 1 48 64 (36864)
I0713 10:06:50.545878 28254 net.cpp:129] Top shape: 12 1 48 64 (36864)
I0713 10:06:50.545884 28254 net.cpp:129] Top shape: 12 1 48 64 (36864)
I0713 10:06:50.545892 28254 net.cpp:129] Top shape: 12 1 48 64 (36864)
I0713 10:06:50.545897 28254 net.cpp:129] Top shape: 12 1 48 64 (36864)
I0713 10:06:50.545904 28254 net.cpp:129] Top shape: 12 1 48 64 (36864)
I0713 10:06:50.545910 28254 net.cpp:129] Top shape: 12 1 48 64 (36864)
I0713 10:06:50.545917 28254 net.cpp:129] Top shape: 12 1 48 64 (36864)
I0713 10:06:50.545922 28254 net.cpp:137] Memory required for data: 5841764352
I0713 10:06:50.545929 28254 layer_factory.hpp:77] Creating layer score1_slicer_conv_0_split
I0713 10:06:50.545938 28254 net.cpp:84] Creating Layer score1_slicer_conv_0_split
I0713 10:06:50.545946 28254 net.cpp:406] score1_slicer_conv_0_split <- score1
I0713 10:06:50.545958 28254 net.cpp:380] score1_slicer_conv_0_split -> score1_slicer_conv_0_split_0
I0713 10:06:50.545971 28254 net.cpp:380] score1_slicer_conv_0_split -> score1_slicer_conv_0_split_1
I0713 10:06:50.546046 28254 net.cpp:122] Setting up score1_slicer_conv_0_split
I0713 10:06:50.546056 28254 net.cpp:129] Top shape: 12 1 48 64 (36864)
I0713 10:06:50.546062 28254 net.cpp:129] Top shape: 12 1 48 64 (36864)
I0713 10:06:50.546067 28254 net.cpp:137] Memory required for data: 5842059264
I0713 10:06:50.546074 28254 layer_factory.hpp:77] Creating layer score2_slicer_conv_1_split
I0713 10:06:50.546083 28254 net.cpp:84] Creating Layer score2_slicer_conv_1_split
I0713 10:06:50.546090 28254 net.cpp:406] score2_slicer_conv_1_split <- score2
I0713 10:06:50.546102 28254 net.cpp:380] score2_slicer_conv_1_split -> score2_slicer_conv_1_split_0
I0713 10:06:50.546113 28254 net.cpp:380] score2_slicer_conv_1_split -> score2_slicer_conv_1_split_1
I0713 10:06:50.546172 28254 net.cpp:122] Setting up score2_slicer_conv_1_split
I0713 10:06:50.546180 28254 net.cpp:129] Top shape: 12 1 48 64 (36864)
I0713 10:06:50.546186 28254 net.cpp:129] Top shape: 12 1 48 64 (36864)
I0713 10:06:50.546192 28254 net.cpp:137] Memory required for data: 5842354176
I0713 10:06:50.546200 28254 layer_factory.hpp:77] Creating layer score3_slicer_conv_2_split
I0713 10:06:50.546208 28254 net.cpp:84] Creating Layer score3_slicer_conv_2_split
I0713 10:06:50.546214 28254 net.cpp:406] score3_slicer_conv_2_split <- score3
I0713 10:06:50.546224 28254 net.cpp:380] score3_slicer_conv_2_split -> score3_slicer_conv_2_split_0
I0713 10:06:50.546236 28254 net.cpp:380] score3_slicer_conv_2_split -> score3_slicer_conv_2_split_1
I0713 10:06:50.546298 28254 net.cpp:122] Setting up score3_slicer_conv_2_split
I0713 10:06:50.546308 28254 net.cpp:129] Top shape: 12 1 48 64 (36864)
I0713 10:06:50.546314 28254 net.cpp:129] Top shape: 12 1 48 64 (36864)
I0713 10:06:50.546319 28254 net.cpp:137] Memory required for data: 5842649088
I0713 10:06:50.546325 28254 layer_factory.hpp:77] Creating layer score4_slicer_conv_3_split
I0713 10:06:50.546334 28254 net.cpp:84] Creating Layer score4_slicer_conv_3_split
I0713 10:06:50.546340 28254 net.cpp:406] score4_slicer_conv_3_split <- score4
I0713 10:06:50.546352 28254 net.cpp:380] score4_slicer_conv_3_split -> score4_slicer_conv_3_split_0
I0713 10:06:50.546363 28254 net.cpp:380] score4_slicer_conv_3_split -> score4_slicer_conv_3_split_1
I0713 10:06:50.546421 28254 net.cpp:122] Setting up score4_slicer_conv_3_split
I0713 10:06:50.546428 28254 net.cpp:129] Top shape: 12 1 48 64 (36864)
I0713 10:06:50.546434 28254 net.cpp:129] Top shape: 12 1 48 64 (36864)
I0713 10:06:50.546440 28254 net.cpp:137] Memory required for data: 5842944000
I0713 10:06:50.546447 28254 layer_factory.hpp:77] Creating layer score5_slicer_conv_4_split
I0713 10:06:50.546455 28254 net.cpp:84] Creating Layer score5_slicer_conv_4_split
I0713 10:06:50.546461 28254 net.cpp:406] score5_slicer_conv_4_split <- score5
I0713 10:06:50.546473 28254 net.cpp:380] score5_slicer_conv_4_split -> score5_slicer_conv_4_split_0
I0713 10:06:50.546484 28254 net.cpp:380] score5_slicer_conv_4_split -> score5_slicer_conv_4_split_1
I0713 10:06:50.546541 28254 net.cpp:122] Setting up score5_slicer_conv_4_split
I0713 10:06:50.546550 28254 net.cpp:129] Top shape: 12 1 48 64 (36864)
I0713 10:06:50.546556 28254 net.cpp:129] Top shape: 12 1 48 64 (36864)
I0713 10:06:50.546562 28254 net.cpp:137] Memory required for data: 5843238912
I0713 10:06:50.546568 28254 layer_factory.hpp:77] Creating layer score6_slicer_conv_5_split
I0713 10:06:50.546579 28254 net.cpp:84] Creating Layer score6_slicer_conv_5_split
I0713 10:06:50.546587 28254 net.cpp:406] score6_slicer_conv_5_split <- score6
I0713 10:06:50.546597 28254 net.cpp:380] score6_slicer_conv_5_split -> score6_slicer_conv_5_split_0
I0713 10:06:50.546608 28254 net.cpp:380] score6_slicer_conv_5_split -> score6_slicer_conv_5_split_1
I0713 10:06:50.546665 28254 net.cpp:122] Setting up score6_slicer_conv_5_split
I0713 10:06:50.546674 28254 net.cpp:129] Top shape: 12 1 48 64 (36864)
I0713 10:06:50.546681 28254 net.cpp:129] Top shape: 12 1 48 64 (36864)
I0713 10:06:50.546687 28254 net.cpp:137] Memory required for data: 5843533824
I0713 10:06:50.546694 28254 layer_factory.hpp:77] Creating layer score7_slicer_conv_6_split
I0713 10:06:50.546713 28254 net.cpp:84] Creating Layer score7_slicer_conv_6_split
I0713 10:06:50.546721 28254 net.cpp:406] score7_slicer_conv_6_split <- score7
I0713 10:06:50.546730 28254 net.cpp:380] score7_slicer_conv_6_split -> score7_slicer_conv_6_split_0
I0713 10:06:50.546741 28254 net.cpp:380] score7_slicer_conv_6_split -> score7_slicer_conv_6_split_1
I0713 10:06:50.546803 28254 net.cpp:122] Setting up score7_slicer_conv_6_split
I0713 10:06:50.546813 28254 net.cpp:129] Top shape: 12 1 48 64 (36864)
I0713 10:06:50.546818 28254 net.cpp:129] Top shape: 12 1 48 64 (36864)
I0713 10:06:50.546824 28254 net.cpp:137] Memory required for data: 5843828736
I0713 10:06:50.546830 28254 layer_factory.hpp:77] Creating layer score8_slicer_conv_7_split
I0713 10:06:50.546841 28254 net.cpp:84] Creating Layer score8_slicer_conv_7_split
I0713 10:06:50.546849 28254 net.cpp:406] score8_slicer_conv_7_split <- score8
I0713 10:06:50.546857 28254 net.cpp:380] score8_slicer_conv_7_split -> score8_slicer_conv_7_split_0
I0713 10:06:50.546869 28254 net.cpp:380] score8_slicer_conv_7_split -> score8_slicer_conv_7_split_1
I0713 10:06:50.546929 28254 net.cpp:122] Setting up score8_slicer_conv_7_split
I0713 10:06:50.546937 28254 net.cpp:129] Top shape: 12 1 48 64 (36864)
I0713 10:06:50.546943 28254 net.cpp:129] Top shape: 12 1 48 64 (36864)
I0713 10:06:50.546949 28254 net.cpp:137] Memory required for data: 5844123648
I0713 10:06:50.546957 28254 layer_factory.hpp:77] Creating layer score9_slicer_conv_8_split
I0713 10:06:50.546964 28254 net.cpp:84] Creating Layer score9_slicer_conv_8_split
I0713 10:06:50.546972 28254 net.cpp:406] score9_slicer_conv_8_split <- score9
I0713 10:06:50.546982 28254 net.cpp:380] score9_slicer_conv_8_split -> score9_slicer_conv_8_split_0
I0713 10:06:50.546993 28254 net.cpp:380] score9_slicer_conv_8_split -> score9_slicer_conv_8_split_1
I0713 10:06:50.547052 28254 net.cpp:122] Setting up score9_slicer_conv_8_split
I0713 10:06:50.547061 28254 net.cpp:129] Top shape: 12 1 48 64 (36864)
I0713 10:06:50.547067 28254 net.cpp:129] Top shape: 12 1 48 64 (36864)
I0713 10:06:50.547073 28254 net.cpp:137] Memory required for data: 5844418560
I0713 10:06:50.547080 28254 layer_factory.hpp:77] Creating layer score10_slicer_conv_9_split
I0713 10:06:50.547087 28254 net.cpp:84] Creating Layer score10_slicer_conv_9_split
I0713 10:06:50.547094 28254 net.cpp:406] score10_slicer_conv_9_split <- score10
I0713 10:06:50.547106 28254 net.cpp:380] score10_slicer_conv_9_split -> score10_slicer_conv_9_split_0
I0713 10:06:50.547118 28254 net.cpp:380] score10_slicer_conv_9_split -> score10_slicer_conv_9_split_1
I0713 10:06:50.547176 28254 net.cpp:122] Setting up score10_slicer_conv_9_split
I0713 10:06:50.547185 28254 net.cpp:129] Top shape: 12 1 48 64 (36864)
I0713 10:06:50.547191 28254 net.cpp:129] Top shape: 12 1 48 64 (36864)
I0713 10:06:50.547196 28254 net.cpp:137] Memory required for data: 5844713472
I0713 10:06:50.547202 28254 layer_factory.hpp:77] Creating layer score11_slicer_conv_10_split
I0713 10:06:50.547211 28254 net.cpp:84] Creating Layer score11_slicer_conv_10_split
I0713 10:06:50.547219 28254 net.cpp:406] score11_slicer_conv_10_split <- score11
I0713 10:06:50.547228 28254 net.cpp:380] score11_slicer_conv_10_split -> score11_slicer_conv_10_split_0
I0713 10:06:50.547237 28254 net.cpp:380] score11_slicer_conv_10_split -> score11_slicer_conv_10_split_1
I0713 10:06:50.547293 28254 net.cpp:122] Setting up score11_slicer_conv_10_split
I0713 10:06:50.547302 28254 net.cpp:129] Top shape: 12 1 48 64 (36864)
I0713 10:06:50.547308 28254 net.cpp:129] Top shape: 12 1 48 64 (36864)
I0713 10:06:50.547313 28254 net.cpp:137] Memory required for data: 5845008384
I0713 10:06:50.547320 28254 layer_factory.hpp:77] Creating layer score12_slicer_conv_11_split
I0713 10:06:50.547328 28254 net.cpp:84] Creating Layer score12_slicer_conv_11_split
I0713 10:06:50.547338 28254 net.cpp:406] score12_slicer_conv_11_split <- score12
I0713 10:06:50.547351 28254 net.cpp:380] score12_slicer_conv_11_split -> score12_slicer_conv_11_split_0
I0713 10:06:50.547374 28254 net.cpp:380] score12_slicer_conv_11_split -> score12_slicer_conv_11_split_1
I0713 10:06:50.547431 28254 net.cpp:122] Setting up score12_slicer_conv_11_split
I0713 10:06:50.547441 28254 net.cpp:129] Top shape: 12 1 48 64 (36864)
I0713 10:06:50.547446 28254 net.cpp:129] Top shape: 12 1 48 64 (36864)
I0713 10:06:50.547452 28254 net.cpp:137] Memory required for data: 5845303296
I0713 10:06:50.547459 28254 layer_factory.hpp:77] Creating layer score13_slicer_conv_12_split
I0713 10:06:50.547471 28254 net.cpp:84] Creating Layer score13_slicer_conv_12_split
I0713 10:06:50.547477 28254 net.cpp:406] score13_slicer_conv_12_split <- score13
I0713 10:06:50.547487 28254 net.cpp:380] score13_slicer_conv_12_split -> score13_slicer_conv_12_split_0
I0713 10:06:50.547498 28254 net.cpp:380] score13_slicer_conv_12_split -> score13_slicer_conv_12_split_1
I0713 10:06:50.547555 28254 net.cpp:122] Setting up score13_slicer_conv_12_split
I0713 10:06:50.547564 28254 net.cpp:129] Top shape: 12 1 48 64 (36864)
I0713 10:06:50.547570 28254 net.cpp:129] Top shape: 12 1 48 64 (36864)
I0713 10:06:50.547575 28254 net.cpp:137] Memory required for data: 5845598208
I0713 10:06:50.547582 28254 layer_factory.hpp:77] Creating layer score14_slicer_conv_13_split
I0713 10:06:50.547590 28254 net.cpp:84] Creating Layer score14_slicer_conv_13_split
I0713 10:06:50.547597 28254 net.cpp:406] score14_slicer_conv_13_split <- score14
I0713 10:06:50.547607 28254 net.cpp:380] score14_slicer_conv_13_split -> score14_slicer_conv_13_split_0
I0713 10:06:50.547621 28254 net.cpp:380] score14_slicer_conv_13_split -> score14_slicer_conv_13_split_1
I0713 10:06:50.547675 28254 net.cpp:122] Setting up score14_slicer_conv_13_split
I0713 10:06:50.547684 28254 net.cpp:129] Top shape: 12 1 48 64 (36864)
I0713 10:06:50.547690 28254 net.cpp:129] Top shape: 12 1 48 64 (36864)
I0713 10:06:50.547696 28254 net.cpp:137] Memory required for data: 5845893120
I0713 10:06:50.547703 28254 layer_factory.hpp:77] Creating layer score15_slicer_conv_14_split
I0713 10:06:50.547713 28254 net.cpp:84] Creating Layer score15_slicer_conv_14_split
I0713 10:06:50.547721 28254 net.cpp:406] score15_slicer_conv_14_split <- score15
I0713 10:06:50.547731 28254 net.cpp:380] score15_slicer_conv_14_split -> score15_slicer_conv_14_split_0
I0713 10:06:50.547742 28254 net.cpp:380] score15_slicer_conv_14_split -> score15_slicer_conv_14_split_1
I0713 10:06:50.547798 28254 net.cpp:122] Setting up score15_slicer_conv_14_split
I0713 10:06:50.547807 28254 net.cpp:129] Top shape: 12 1 48 64 (36864)
I0713 10:06:50.547813 28254 net.cpp:129] Top shape: 12 1 48 64 (36864)
I0713 10:06:50.547819 28254 net.cpp:137] Memory required for data: 5846188032
I0713 10:06:50.547825 28254 layer_factory.hpp:77] Creating layer score16_slicer_conv_15_split
I0713 10:06:50.547834 28254 net.cpp:84] Creating Layer score16_slicer_conv_15_split
I0713 10:06:50.547842 28254 net.cpp:406] score16_slicer_conv_15_split <- score16
I0713 10:06:50.547850 28254 net.cpp:380] score16_slicer_conv_15_split -> score16_slicer_conv_15_split_0
I0713 10:06:50.547861 28254 net.cpp:380] score16_slicer_conv_15_split -> score16_slicer_conv_15_split_1
I0713 10:06:50.547919 28254 net.cpp:122] Setting up score16_slicer_conv_15_split
I0713 10:06:50.547927 28254 net.cpp:129] Top shape: 12 1 48 64 (36864)
I0713 10:06:50.547933 28254 net.cpp:129] Top shape: 12 1 48 64 (36864)
I0713 10:06:50.547938 28254 net.cpp:137] Memory required for data: 5846482944
I0713 10:06:50.547945 28254 layer_factory.hpp:77] Creating layer score17_slicer_conv_16_split
I0713 10:06:50.547955 28254 net.cpp:84] Creating Layer score17_slicer_conv_16_split
I0713 10:06:50.547960 28254 net.cpp:406] score17_slicer_conv_16_split <- score17
I0713 10:06:50.547971 28254 net.cpp:380] score17_slicer_conv_16_split -> score17_slicer_conv_16_split_0
I0713 10:06:50.547982 28254 net.cpp:380] score17_slicer_conv_16_split -> score17_slicer_conv_16_split_1
I0713 10:06:50.548039 28254 net.cpp:122] Setting up score17_slicer_conv_16_split
I0713 10:06:50.548048 28254 net.cpp:129] Top shape: 12 1 48 64 (36864)
I0713 10:06:50.548066 28254 net.cpp:129] Top shape: 12 1 48 64 (36864)
I0713 10:06:50.548074 28254 net.cpp:137] Memory required for data: 5846777856
I0713 10:06:50.548079 28254 layer_factory.hpp:77] Creating layer score18_slicer_conv_17_split
I0713 10:06:50.548089 28254 net.cpp:84] Creating Layer score18_slicer_conv_17_split
I0713 10:06:50.548096 28254 net.cpp:406] score18_slicer_conv_17_split <- score18
I0713 10:06:50.548106 28254 net.cpp:380] score18_slicer_conv_17_split -> score18_slicer_conv_17_split_0
I0713 10:06:50.548117 28254 net.cpp:380] score18_slicer_conv_17_split -> score18_slicer_conv_17_split_1
I0713 10:06:50.548176 28254 net.cpp:122] Setting up score18_slicer_conv_17_split
I0713 10:06:50.548184 28254 net.cpp:129] Top shape: 12 1 48 64 (36864)
I0713 10:06:50.548192 28254 net.cpp:129] Top shape: 12 1 48 64 (36864)
I0713 10:06:50.548197 28254 net.cpp:137] Memory required for data: 5847072768
I0713 10:06:50.548203 28254 layer_factory.hpp:77] Creating layer score19_slicer_conv_18_split
I0713 10:06:50.548211 28254 net.cpp:84] Creating Layer score19_slicer_conv_18_split
I0713 10:06:50.548218 28254 net.cpp:406] score19_slicer_conv_18_split <- score19
I0713 10:06:50.548228 28254 net.cpp:380] score19_slicer_conv_18_split -> score19_slicer_conv_18_split_0
I0713 10:06:50.548240 28254 net.cpp:380] score19_slicer_conv_18_split -> score19_slicer_conv_18_split_1
I0713 10:06:50.548300 28254 net.cpp:122] Setting up score19_slicer_conv_18_split
I0713 10:06:50.548308 28254 net.cpp:129] Top shape: 12 1 48 64 (36864)
I0713 10:06:50.548315 28254 net.cpp:129] Top shape: 12 1 48 64 (36864)
I0713 10:06:50.548321 28254 net.cpp:137] Memory required for data: 5847367680
I0713 10:06:50.548327 28254 layer_factory.hpp:77] Creating layer score20_slicer_conv_19_split
I0713 10:06:50.548336 28254 net.cpp:84] Creating Layer score20_slicer_conv_19_split
I0713 10:06:50.548342 28254 net.cpp:406] score20_slicer_conv_19_split <- score20
I0713 10:06:50.548352 28254 net.cpp:380] score20_slicer_conv_19_split -> score20_slicer_conv_19_split_0
I0713 10:06:50.548363 28254 net.cpp:380] score20_slicer_conv_19_split -> score20_slicer_conv_19_split_1
I0713 10:06:50.548422 28254 net.cpp:122] Setting up score20_slicer_conv_19_split
I0713 10:06:50.548430 28254 net.cpp:129] Top shape: 12 1 48 64 (36864)
I0713 10:06:50.548436 28254 net.cpp:129] Top shape: 12 1 48 64 (36864)
I0713 10:06:50.548442 28254 net.cpp:137] Memory required for data: 5847662592
I0713 10:06:50.548449 28254 layer_factory.hpp:77] Creating layer score21_slicer_conv_20_split
I0713 10:06:50.548457 28254 net.cpp:84] Creating Layer score21_slicer_conv_20_split
I0713 10:06:50.548465 28254 net.cpp:406] score21_slicer_conv_20_split <- score21
I0713 10:06:50.548475 28254 net.cpp:380] score21_slicer_conv_20_split -> score21_slicer_conv_20_split_0
I0713 10:06:50.548487 28254 net.cpp:380] score21_slicer_conv_20_split -> score21_slicer_conv_20_split_1
I0713 10:06:50.548540 28254 net.cpp:122] Setting up score21_slicer_conv_20_split
I0713 10:06:50.548548 28254 net.cpp:129] Top shape: 12 1 48 64 (36864)
I0713 10:06:50.548555 28254 net.cpp:129] Top shape: 12 1 48 64 (36864)
I0713 10:06:50.548560 28254 net.cpp:137] Memory required for data: 5847957504
I0713 10:06:50.548566 28254 layer_factory.hpp:77] Creating layer score22_slicer_conv_21_split
I0713 10:06:50.548578 28254 net.cpp:84] Creating Layer score22_slicer_conv_21_split
I0713 10:06:50.548585 28254 net.cpp:406] score22_slicer_conv_21_split <- score22
I0713 10:06:50.548596 28254 net.cpp:380] score22_slicer_conv_21_split -> score22_slicer_conv_21_split_0
I0713 10:06:50.548607 28254 net.cpp:380] score22_slicer_conv_21_split -> score22_slicer_conv_21_split_1
I0713 10:06:50.548686 28254 net.cpp:122] Setting up score22_slicer_conv_21_split
I0713 10:06:50.548702 28254 net.cpp:129] Top shape: 12 1 48 64 (36864)
I0713 10:06:50.548710 28254 net.cpp:129] Top shape: 12 1 48 64 (36864)
I0713 10:06:50.548714 28254 net.cpp:137] Memory required for data: 5848252416
I0713 10:06:50.548720 28254 layer_factory.hpp:77] Creating layer score23_slicer_conv_22_split
I0713 10:06:50.548743 28254 net.cpp:84] Creating Layer score23_slicer_conv_22_split
I0713 10:06:50.548750 28254 net.cpp:406] score23_slicer_conv_22_split <- score23
I0713 10:06:50.548759 28254 net.cpp:380] score23_slicer_conv_22_split -> score23_slicer_conv_22_split_0
I0713 10:06:50.548770 28254 net.cpp:380] score23_slicer_conv_22_split -> score23_slicer_conv_22_split_1
I0713 10:06:50.548835 28254 net.cpp:122] Setting up score23_slicer_conv_22_split
I0713 10:06:50.548843 28254 net.cpp:129] Top shape: 12 1 48 64 (36864)
I0713 10:06:50.548849 28254 net.cpp:129] Top shape: 12 1 48 64 (36864)
I0713 10:06:50.548856 28254 net.cpp:137] Memory required for data: 5848547328
I0713 10:06:50.548861 28254 layer_factory.hpp:77] Creating layer score24_slicer_conv_23_split
I0713 10:06:50.548873 28254 net.cpp:84] Creating Layer score24_slicer_conv_23_split
I0713 10:06:50.548882 28254 net.cpp:406] score24_slicer_conv_23_split <- score24
I0713 10:06:50.548892 28254 net.cpp:380] score24_slicer_conv_23_split -> score24_slicer_conv_23_split_0
I0713 10:06:50.548902 28254 net.cpp:380] score24_slicer_conv_23_split -> score24_slicer_conv_23_split_1
I0713 10:06:50.548957 28254 net.cpp:122] Setting up score24_slicer_conv_23_split
I0713 10:06:50.548966 28254 net.cpp:129] Top shape: 12 1 48 64 (36864)
I0713 10:06:50.548972 28254 net.cpp:129] Top shape: 12 1 48 64 (36864)
I0713 10:06:50.548979 28254 net.cpp:137] Memory required for data: 5848842240
I0713 10:06:50.548985 28254 layer_factory.hpp:77] Creating layer score25_slicer_conv_24_split
I0713 10:06:50.548993 28254 net.cpp:84] Creating Layer score25_slicer_conv_24_split
I0713 10:06:50.549000 28254 net.cpp:406] score25_slicer_conv_24_split <- score25
I0713 10:06:50.549008 28254 net.cpp:380] score25_slicer_conv_24_split -> score25_slicer_conv_24_split_0
I0713 10:06:50.549019 28254 net.cpp:380] score25_slicer_conv_24_split -> score25_slicer_conv_24_split_1
I0713 10:06:50.549077 28254 net.cpp:122] Setting up score25_slicer_conv_24_split
I0713 10:06:50.549085 28254 net.cpp:129] Top shape: 12 1 48 64 (36864)
I0713 10:06:50.549093 28254 net.cpp:129] Top shape: 12 1 48 64 (36864)
I0713 10:06:50.549098 28254 net.cpp:137] Memory required for data: 5849137152
I0713 10:06:50.549104 28254 layer_factory.hpp:77] Creating layer score26_slicer_conv_25_split
I0713 10:06:50.549113 28254 net.cpp:84] Creating Layer score26_slicer_conv_25_split
I0713 10:06:50.549119 28254 net.cpp:406] score26_slicer_conv_25_split <- score26
I0713 10:06:50.549129 28254 net.cpp:380] score26_slicer_conv_25_split -> score26_slicer_conv_25_split_0
I0713 10:06:50.549140 28254 net.cpp:380] score26_slicer_conv_25_split -> score26_slicer_conv_25_split_1
I0713 10:06:50.549198 28254 net.cpp:122] Setting up score26_slicer_conv_25_split
I0713 10:06:50.549207 28254 net.cpp:129] Top shape: 12 1 48 64 (36864)
I0713 10:06:50.549213 28254 net.cpp:129] Top shape: 12 1 48 64 (36864)
I0713 10:06:50.549219 28254 net.cpp:137] Memory required for data: 5849432064
I0713 10:06:50.549226 28254 layer_factory.hpp:77] Creating layer score27_slicer_conv_26_split
I0713 10:06:50.549234 28254 net.cpp:84] Creating Layer score27_slicer_conv_26_split
I0713 10:06:50.549242 28254 net.cpp:406] score27_slicer_conv_26_split <- score27
I0713 10:06:50.549250 28254 net.cpp:380] score27_slicer_conv_26_split -> score27_slicer_conv_26_split_0
I0713 10:06:50.549262 28254 net.cpp:380] score27_slicer_conv_26_split -> score27_slicer_conv_26_split_1
I0713 10:06:50.549319 28254 net.cpp:122] Setting up score27_slicer_conv_26_split
I0713 10:06:50.549326 28254 net.cpp:129] Top shape: 12 1 48 64 (36864)
I0713 10:06:50.549334 28254 net.cpp:129] Top shape: 12 1 48 64 (36864)
I0713 10:06:50.549338 28254 net.cpp:137] Memory required for data: 5849726976
I0713 10:06:50.549345 28254 layer_factory.hpp:77] Creating layer score28_slicer_conv_27_split
I0713 10:06:50.549353 28254 net.cpp:84] Creating Layer score28_slicer_conv_27_split
I0713 10:06:50.549360 28254 net.cpp:406] score28_slicer_conv_27_split <- score28
I0713 10:06:50.549371 28254 net.cpp:380] score28_slicer_conv_27_split -> score28_slicer_conv_27_split_0
I0713 10:06:50.549394 28254 net.cpp:380] score28_slicer_conv_27_split -> score28_slicer_conv_27_split_1
I0713 10:06:50.549451 28254 net.cpp:122] Setting up score28_slicer_conv_27_split
I0713 10:06:50.549460 28254 net.cpp:129] Top shape: 12 1 48 64 (36864)
I0713 10:06:50.549468 28254 net.cpp:129] Top shape: 12 1 48 64 (36864)
I0713 10:06:50.549473 28254 net.cpp:137] Memory required for data: 5850021888
I0713 10:06:50.549479 28254 layer_factory.hpp:77] Creating layer score29_slicer_conv_28_split
I0713 10:06:50.549499 28254 net.cpp:84] Creating Layer score29_slicer_conv_28_split
I0713 10:06:50.549507 28254 net.cpp:406] score29_slicer_conv_28_split <- score29
I0713 10:06:50.549517 28254 net.cpp:380] score29_slicer_conv_28_split -> score29_slicer_conv_28_split_0
I0713 10:06:50.549530 28254 net.cpp:380] score29_slicer_conv_28_split -> score29_slicer_conv_28_split_1
I0713 10:06:50.549588 28254 net.cpp:122] Setting up score29_slicer_conv_28_split
I0713 10:06:50.549597 28254 net.cpp:129] Top shape: 12 1 48 64 (36864)
I0713 10:06:50.549603 28254 net.cpp:129] Top shape: 12 1 48 64 (36864)
I0713 10:06:50.549609 28254 net.cpp:137] Memory required for data: 5850316800
I0713 10:06:50.549616 28254 layer_factory.hpp:77] Creating layer score30_slicer_conv_29_split
I0713 10:06:50.549624 28254 net.cpp:84] Creating Layer score30_slicer_conv_29_split
I0713 10:06:50.549631 28254 net.cpp:406] score30_slicer_conv_29_split <- score30
I0713 10:06:50.549639 28254 net.cpp:380] score30_slicer_conv_29_split -> score30_slicer_conv_29_split_0
I0713 10:06:50.549650 28254 net.cpp:380] score30_slicer_conv_29_split -> score30_slicer_conv_29_split_1
I0713 10:06:50.549706 28254 net.cpp:122] Setting up score30_slicer_conv_29_split
I0713 10:06:50.549715 28254 net.cpp:129] Top shape: 12 1 48 64 (36864)
I0713 10:06:50.549721 28254 net.cpp:129] Top shape: 12 1 48 64 (36864)
I0713 10:06:50.549727 28254 net.cpp:137] Memory required for data: 5850611712
I0713 10:06:50.549734 28254 layer_factory.hpp:77] Creating layer score31_slicer_conv_30_split
I0713 10:06:50.549742 28254 net.cpp:84] Creating Layer score31_slicer_conv_30_split
I0713 10:06:50.549748 28254 net.cpp:406] score31_slicer_conv_30_split <- score31
I0713 10:06:50.549762 28254 net.cpp:380] score31_slicer_conv_30_split -> score31_slicer_conv_30_split_0
I0713 10:06:50.549774 28254 net.cpp:380] score31_slicer_conv_30_split -> score31_slicer_conv_30_split_1
I0713 10:06:50.549829 28254 net.cpp:122] Setting up score31_slicer_conv_30_split
I0713 10:06:50.549837 28254 net.cpp:129] Top shape: 12 1 48 64 (36864)
I0713 10:06:50.549844 28254 net.cpp:129] Top shape: 12 1 48 64 (36864)
I0713 10:06:50.549849 28254 net.cpp:137] Memory required for data: 5850906624
I0713 10:06:50.549856 28254 layer_factory.hpp:77] Creating layer score32_slicer_conv_31_split
I0713 10:06:50.549865 28254 net.cpp:84] Creating Layer score32_slicer_conv_31_split
I0713 10:06:50.549871 28254 net.cpp:406] score32_slicer_conv_31_split <- score32
I0713 10:06:50.549880 28254 net.cpp:380] score32_slicer_conv_31_split -> score32_slicer_conv_31_split_0
I0713 10:06:50.549891 28254 net.cpp:380] score32_slicer_conv_31_split -> score32_slicer_conv_31_split_1
I0713 10:06:50.549947 28254 net.cpp:122] Setting up score32_slicer_conv_31_split
I0713 10:06:50.549957 28254 net.cpp:129] Top shape: 12 1 48 64 (36864)
I0713 10:06:50.549962 28254 net.cpp:129] Top shape: 12 1 48 64 (36864)
I0713 10:06:50.549968 28254 net.cpp:137] Memory required for data: 5851201536
I0713 10:06:50.549973 28254 layer_factory.hpp:77] Creating layer score33_slicer_conv_32_split
I0713 10:06:50.549983 28254 net.cpp:84] Creating Layer score33_slicer_conv_32_split
I0713 10:06:50.549990 28254 net.cpp:406] score33_slicer_conv_32_split <- score33
I0713 10:06:50.550001 28254 net.cpp:380] score33_slicer_conv_32_split -> score33_slicer_conv_32_split_0
I0713 10:06:50.550014 28254 net.cpp:380] score33_slicer_conv_32_split -> score33_slicer_conv_32_split_1
I0713 10:06:50.550072 28254 net.cpp:122] Setting up score33_slicer_conv_32_split
I0713 10:06:50.550081 28254 net.cpp:129] Top shape: 12 1 48 64 (36864)
I0713 10:06:50.550101 28254 net.cpp:129] Top shape: 12 1 48 64 (36864)
I0713 10:06:50.550108 28254 net.cpp:137] Memory required for data: 5851496448
I0713 10:06:50.550114 28254 layer_factory.hpp:77] Creating layer score34_slicer_conv_33_split
I0713 10:06:50.550125 28254 net.cpp:84] Creating Layer score34_slicer_conv_33_split
I0713 10:06:50.550134 28254 net.cpp:406] score34_slicer_conv_33_split <- score34
I0713 10:06:50.550144 28254 net.cpp:380] score34_slicer_conv_33_split -> score34_slicer_conv_33_split_0
I0713 10:06:50.550155 28254 net.cpp:380] score34_slicer_conv_33_split -> score34_slicer_conv_33_split_1
I0713 10:06:50.550213 28254 net.cpp:122] Setting up score34_slicer_conv_33_split
I0713 10:06:50.550222 28254 net.cpp:129] Top shape: 12 1 48 64 (36864)
I0713 10:06:50.550228 28254 net.cpp:129] Top shape: 12 1 48 64 (36864)
I0713 10:06:50.550235 28254 net.cpp:137] Memory required for data: 5851791360
I0713 10:06:50.550241 28254 layer_factory.hpp:77] Creating layer score35_slicer_conv_34_split
I0713 10:06:50.550249 28254 net.cpp:84] Creating Layer score35_slicer_conv_34_split
I0713 10:06:50.550256 28254 net.cpp:406] score35_slicer_conv_34_split <- score35
I0713 10:06:50.550264 28254 net.cpp:380] score35_slicer_conv_34_split -> score35_slicer_conv_34_split_0
I0713 10:06:50.550277 28254 net.cpp:380] score35_slicer_conv_34_split -> score35_slicer_conv_34_split_1
I0713 10:06:50.550334 28254 net.cpp:122] Setting up score35_slicer_conv_34_split
I0713 10:06:50.550343 28254 net.cpp:129] Top shape: 12 1 48 64 (36864)
I0713 10:06:50.550349 28254 net.cpp:129] Top shape: 12 1 48 64 (36864)
I0713 10:06:50.550354 28254 net.cpp:137] Memory required for data: 5852086272
I0713 10:06:50.550361 28254 layer_factory.hpp:77] Creating layer score36_slicer_conv_35_split
I0713 10:06:50.550371 28254 net.cpp:84] Creating Layer score36_slicer_conv_35_split
I0713 10:06:50.550379 28254 net.cpp:406] score36_slicer_conv_35_split <- score36
I0713 10:06:50.550388 28254 net.cpp:380] score36_slicer_conv_35_split -> score36_slicer_conv_35_split_0
I0713 10:06:50.550400 28254 net.cpp:380] score36_slicer_conv_35_split -> score36_slicer_conv_35_split_1
I0713 10:06:50.550457 28254 net.cpp:122] Setting up score36_slicer_conv_35_split
I0713 10:06:50.550467 28254 net.cpp:129] Top shape: 12 1 48 64 (36864)
I0713 10:06:50.550472 28254 net.cpp:129] Top shape: 12 1 48 64 (36864)
I0713 10:06:50.550477 28254 net.cpp:137] Memory required for data: 5852381184
I0713 10:06:50.550484 28254 layer_factory.hpp:77] Creating layer score37_slicer_conv_36_split
I0713 10:06:50.550493 28254 net.cpp:84] Creating Layer score37_slicer_conv_36_split
I0713 10:06:50.550499 28254 net.cpp:406] score37_slicer_conv_36_split <- score37
I0713 10:06:50.550508 28254 net.cpp:380] score37_slicer_conv_36_split -> score37_slicer_conv_36_split_0
I0713 10:06:50.550518 28254 net.cpp:380] score37_slicer_conv_36_split -> score37_slicer_conv_36_split_1
I0713 10:06:50.550575 28254 net.cpp:122] Setting up score37_slicer_conv_36_split
I0713 10:06:50.550582 28254 net.cpp:129] Top shape: 12 1 48 64 (36864)
I0713 10:06:50.550588 28254 net.cpp:129] Top shape: 12 1 48 64 (36864)
I0713 10:06:50.550595 28254 net.cpp:137] Memory required for data: 5852676096
I0713 10:06:50.550601 28254 layer_factory.hpp:77] Creating layer score38_slicer_conv_37_split
I0713 10:06:50.550609 28254 net.cpp:84] Creating Layer score38_slicer_conv_37_split
I0713 10:06:50.550616 28254 net.cpp:406] score38_slicer_conv_37_split <- score38
I0713 10:06:50.550626 28254 net.cpp:380] score38_slicer_conv_37_split -> score38_slicer_conv_37_split_0
I0713 10:06:50.550637 28254 net.cpp:380] score38_slicer_conv_37_split -> score38_slicer_conv_37_split_1
I0713 10:06:50.550694 28254 net.cpp:122] Setting up score38_slicer_conv_37_split
I0713 10:06:50.550703 28254 net.cpp:129] Top shape: 12 1 48 64 (36864)
I0713 10:06:50.550709 28254 net.cpp:129] Top shape: 12 1 48 64 (36864)
I0713 10:06:50.550714 28254 net.cpp:137] Memory required for data: 5852971008
I0713 10:06:50.550720 28254 layer_factory.hpp:77] Creating layer score39_slicer_conv_38_split
I0713 10:06:50.550740 28254 net.cpp:84] Creating Layer score39_slicer_conv_38_split
I0713 10:06:50.550748 28254 net.cpp:406] score39_slicer_conv_38_split <- score39
I0713 10:06:50.550757 28254 net.cpp:380] score39_slicer_conv_38_split -> score39_slicer_conv_38_split_0
I0713 10:06:50.550768 28254 net.cpp:380] score39_slicer_conv_38_split -> score39_slicer_conv_38_split_1
I0713 10:06:50.550829 28254 net.cpp:122] Setting up score39_slicer_conv_38_split
I0713 10:06:50.550838 28254 net.cpp:129] Top shape: 12 1 48 64 (36864)
I0713 10:06:50.550844 28254 net.cpp:129] Top shape: 12 1 48 64 (36864)
I0713 10:06:50.550850 28254 net.cpp:137] Memory required for data: 5853265920
I0713 10:06:50.550858 28254 layer_factory.hpp:77] Creating layer score40_slicer_conv_39_split
I0713 10:06:50.550866 28254 net.cpp:84] Creating Layer score40_slicer_conv_39_split
I0713 10:06:50.550873 28254 net.cpp:406] score40_slicer_conv_39_split <- score40
I0713 10:06:50.550884 28254 net.cpp:380] score40_slicer_conv_39_split -> score40_slicer_conv_39_split_0
I0713 10:06:50.550896 28254 net.cpp:380] score40_slicer_conv_39_split -> score40_slicer_conv_39_split_1
I0713 10:06:50.550953 28254 net.cpp:122] Setting up score40_slicer_conv_39_split
I0713 10:06:50.550962 28254 net.cpp:129] Top shape: 12 1 48 64 (36864)
I0713 10:06:50.550968 28254 net.cpp:129] Top shape: 12 1 48 64 (36864)
I0713 10:06:50.550973 28254 net.cpp:137] Memory required for data: 5853560832
I0713 10:06:50.550981 28254 layer_factory.hpp:77] Creating layer score41_slicer_conv_40_split
I0713 10:06:50.550992 28254 net.cpp:84] Creating Layer score41_slicer_conv_40_split
I0713 10:06:50.550998 28254 net.cpp:406] score41_slicer_conv_40_split <- score41
I0713 10:06:50.551007 28254 net.cpp:380] score41_slicer_conv_40_split -> score41_slicer_conv_40_split_0
I0713 10:06:50.551017 28254 net.cpp:380] score41_slicer_conv_40_split -> score41_slicer_conv_40_split_1
I0713 10:06:50.551077 28254 net.cpp:122] Setting up score41_slicer_conv_40_split
I0713 10:06:50.551086 28254 net.cpp:129] Top shape: 12 1 48 64 (36864)
I0713 10:06:50.551093 28254 net.cpp:129] Top shape: 12 1 48 64 (36864)
I0713 10:06:50.551098 28254 net.cpp:137] Memory required for data: 5853855744
I0713 10:06:50.551105 28254 layer_factory.hpp:77] Creating layer score42_slicer_conv_41_split
I0713 10:06:50.551113 28254 net.cpp:84] Creating Layer score42_slicer_conv_41_split
I0713 10:06:50.551121 28254 net.cpp:406] score42_slicer_conv_41_split <- score42
I0713 10:06:50.551131 28254 net.cpp:380] score42_slicer_conv_41_split -> score42_slicer_conv_41_split_0
I0713 10:06:50.551142 28254 net.cpp:380] score42_slicer_conv_41_split -> score42_slicer_conv_41_split_1
I0713 10:06:50.551199 28254 net.cpp:122] Setting up score42_slicer_conv_41_split
I0713 10:06:50.551208 28254 net.cpp:129] Top shape: 12 1 48 64 (36864)
I0713 10:06:50.551215 28254 net.cpp:129] Top shape: 12 1 48 64 (36864)
I0713 10:06:50.551220 28254 net.cpp:137] Memory required for data: 5854150656
I0713 10:06:50.551228 28254 layer_factory.hpp:77] Creating layer score43_slicer_conv_42_split
I0713 10:06:50.551239 28254 net.cpp:84] Creating Layer score43_slicer_conv_42_split
I0713 10:06:50.551245 28254 net.cpp:406] score43_slicer_conv_42_split <- score43
I0713 10:06:50.551254 28254 net.cpp:380] score43_slicer_conv_42_split -> score43_slicer_conv_42_split_0
I0713 10:06:50.551265 28254 net.cpp:380] score43_slicer_conv_42_split -> score43_slicer_conv_42_split_1
I0713 10:06:50.551322 28254 net.cpp:122] Setting up score43_slicer_conv_42_split
I0713 10:06:50.551331 28254 net.cpp:129] Top shape: 12 1 48 64 (36864)
I0713 10:06:50.551337 28254 net.cpp:129] Top shape: 12 1 48 64 (36864)
I0713 10:06:50.551342 28254 net.cpp:137] Memory required for data: 5854445568
I0713 10:06:50.551349 28254 layer_factory.hpp:77] Creating layer score44_slicer_conv_43_split
I0713 10:06:50.551358 28254 net.cpp:84] Creating Layer score44_slicer_conv_43_split
I0713 10:06:50.551364 28254 net.cpp:406] score44_slicer_conv_43_split <- score44
I0713 10:06:50.551373 28254 net.cpp:380] score44_slicer_conv_43_split -> score44_slicer_conv_43_split_0
I0713 10:06:50.551396 28254 net.cpp:380] score44_slicer_conv_43_split -> score44_slicer_conv_43_split_1
I0713 10:06:50.551456 28254 net.cpp:122] Setting up score44_slicer_conv_43_split
I0713 10:06:50.551465 28254 net.cpp:129] Top shape: 12 1 48 64 (36864)
I0713 10:06:50.551471 28254 net.cpp:129] Top shape: 12 1 48 64 (36864)
I0713 10:06:50.551477 28254 net.cpp:137] Memory required for data: 5854740480
I0713 10:06:50.551483 28254 layer_factory.hpp:77] Creating layer score45_slicer_conv_44_split
I0713 10:06:50.551492 28254 net.cpp:84] Creating Layer score45_slicer_conv_44_split
I0713 10:06:50.551499 28254 net.cpp:406] score45_slicer_conv_44_split <- score45
I0713 10:06:50.551511 28254 net.cpp:380] score45_slicer_conv_44_split -> score45_slicer_conv_44_split_0
I0713 10:06:50.551522 28254 net.cpp:380] score45_slicer_conv_44_split -> score45_slicer_conv_44_split_1
I0713 10:06:50.551584 28254 net.cpp:122] Setting up score45_slicer_conv_44_split
I0713 10:06:50.551592 28254 net.cpp:129] Top shape: 12 1 48 64 (36864)
I0713 10:06:50.551599 28254 net.cpp:129] Top shape: 12 1 48 64 (36864)
I0713 10:06:50.551604 28254 net.cpp:137] Memory required for data: 5855035392
I0713 10:06:50.551611 28254 layer_factory.hpp:77] Creating layer score46_slicer_conv_45_split
I0713 10:06:50.551620 28254 net.cpp:84] Creating Layer score46_slicer_conv_45_split
I0713 10:06:50.551626 28254 net.cpp:406] score46_slicer_conv_45_split <- score46
I0713 10:06:50.551635 28254 net.cpp:380] score46_slicer_conv_45_split -> score46_slicer_conv_45_split_0
I0713 10:06:50.551645 28254 net.cpp:380] score46_slicer_conv_45_split -> score46_slicer_conv_45_split_1
I0713 10:06:50.551702 28254 net.cpp:122] Setting up score46_slicer_conv_45_split
I0713 10:06:50.551710 28254 net.cpp:129] Top shape: 12 1 48 64 (36864)
I0713 10:06:50.551717 28254 net.cpp:129] Top shape: 12 1 48 64 (36864)
I0713 10:06:50.551723 28254 net.cpp:137] Memory required for data: 5855330304
I0713 10:06:50.551728 28254 layer_factory.hpp:77] Creating layer score47_slicer_conv_46_split
I0713 10:06:50.551738 28254 net.cpp:84] Creating Layer score47_slicer_conv_46_split
I0713 10:06:50.551743 28254 net.cpp:406] score47_slicer_conv_46_split <- score47
I0713 10:06:50.551754 28254 net.cpp:380] score47_slicer_conv_46_split -> score47_slicer_conv_46_split_0
I0713 10:06:50.551765 28254 net.cpp:380] score47_slicer_conv_46_split -> score47_slicer_conv_46_split_1
I0713 10:06:50.551823 28254 net.cpp:122] Setting up score47_slicer_conv_46_split
I0713 10:06:50.551832 28254 net.cpp:129] Top shape: 12 1 48 64 (36864)
I0713 10:06:50.551839 28254 net.cpp:129] Top shape: 12 1 48 64 (36864)
I0713 10:06:50.551844 28254 net.cpp:137] Memory required for data: 5855625216
I0713 10:06:50.551851 28254 layer_factory.hpp:77] Creating layer score48_slicer_conv_47_split
I0713 10:06:50.551861 28254 net.cpp:84] Creating Layer score48_slicer_conv_47_split
I0713 10:06:50.551867 28254 net.cpp:406] score48_slicer_conv_47_split <- score48
I0713 10:06:50.551875 28254 net.cpp:380] score48_slicer_conv_47_split -> score48_slicer_conv_47_split_0
I0713 10:06:50.551885 28254 net.cpp:380] score48_slicer_conv_47_split -> score48_slicer_conv_47_split_1
I0713 10:06:50.551944 28254 net.cpp:122] Setting up score48_slicer_conv_47_split
I0713 10:06:50.551952 28254 net.cpp:129] Top shape: 12 1 48 64 (36864)
I0713 10:06:50.551959 28254 net.cpp:129] Top shape: 12 1 48 64 (36864)
I0713 10:06:50.551964 28254 net.cpp:137] Memory required for data: 5855920128
I0713 10:06:50.551971 28254 layer_factory.hpp:77] Creating layer score49_slicer_conv_48_split
I0713 10:06:50.551980 28254 net.cpp:84] Creating Layer score49_slicer_conv_48_split
I0713 10:06:50.551985 28254 net.cpp:406] score49_slicer_conv_48_split <- score49
I0713 10:06:50.551997 28254 net.cpp:380] score49_slicer_conv_48_split -> score49_slicer_conv_48_split_0
I0713 10:06:50.552008 28254 net.cpp:380] score49_slicer_conv_48_split -> score49_slicer_conv_48_split_1
I0713 10:06:50.552064 28254 net.cpp:122] Setting up score49_slicer_conv_48_split
I0713 10:06:50.552073 28254 net.cpp:129] Top shape: 12 1 48 64 (36864)
I0713 10:06:50.552095 28254 net.cpp:129] Top shape: 12 1 48 64 (36864)
I0713 10:06:50.552103 28254 net.cpp:137] Memory required for data: 5856215040
I0713 10:06:50.552109 28254 layer_factory.hpp:77] Creating layer score50_slicer_conv_49_split
I0713 10:06:50.552120 28254 net.cpp:84] Creating Layer score50_slicer_conv_49_split
I0713 10:06:50.552127 28254 net.cpp:406] score50_slicer_conv_49_split <- score50
I0713 10:06:50.552137 28254 net.cpp:380] score50_slicer_conv_49_split -> score50_slicer_conv_49_split_0
I0713 10:06:50.552148 28254 net.cpp:380] score50_slicer_conv_49_split -> score50_slicer_conv_49_split_1
I0713 10:06:50.552209 28254 net.cpp:122] Setting up score50_slicer_conv_49_split
I0713 10:06:50.552217 28254 net.cpp:129] Top shape: 12 1 48 64 (36864)
I0713 10:06:50.552223 28254 net.cpp:129] Top shape: 12 1 48 64 (36864)
I0713 10:06:50.552229 28254 net.cpp:137] Memory required for data: 5856509952
I0713 10:06:50.552235 28254 layer_factory.hpp:77] Creating layer score51_slicer_conv_50_split
I0713 10:06:50.552244 28254 net.cpp:84] Creating Layer score51_slicer_conv_50_split
I0713 10:06:50.552251 28254 net.cpp:406] score51_slicer_conv_50_split <- score51
I0713 10:06:50.552260 28254 net.cpp:380] score51_slicer_conv_50_split -> score51_slicer_conv_50_split_0
I0713 10:06:50.552273 28254 net.cpp:380] score51_slicer_conv_50_split -> score51_slicer_conv_50_split_1
I0713 10:06:50.552331 28254 net.cpp:122] Setting up score51_slicer_conv_50_split
I0713 10:06:50.552340 28254 net.cpp:129] Top shape: 12 1 48 64 (36864)
I0713 10:06:50.552346 28254 net.cpp:129] Top shape: 12 1 48 64 (36864)
I0713 10:06:50.552351 28254 net.cpp:137] Memory required for data: 5856804864
I0713 10:06:50.552358 28254 layer_factory.hpp:77] Creating layer score52_slicer_conv_51_split
I0713 10:06:50.552369 28254 net.cpp:84] Creating Layer score52_slicer_conv_51_split
I0713 10:06:50.552377 28254 net.cpp:406] score52_slicer_conv_51_split <- score52
I0713 10:06:50.552386 28254 net.cpp:380] score52_slicer_conv_51_split -> score52_slicer_conv_51_split_0
I0713 10:06:50.552397 28254 net.cpp:380] score52_slicer_conv_51_split -> score52_slicer_conv_51_split_1
I0713 10:06:50.552453 28254 net.cpp:122] Setting up score52_slicer_conv_51_split
I0713 10:06:50.552461 28254 net.cpp:129] Top shape: 12 1 48 64 (36864)
I0713 10:06:50.552467 28254 net.cpp:129] Top shape: 12 1 48 64 (36864)
I0713 10:06:50.552474 28254 net.cpp:137] Memory required for data: 5857099776
I0713 10:06:50.552480 28254 layer_factory.hpp:77] Creating layer score53_slicer_conv_52_split
I0713 10:06:50.552489 28254 net.cpp:84] Creating Layer score53_slicer_conv_52_split
I0713 10:06:50.552495 28254 net.cpp:406] score53_slicer_conv_52_split <- score53
I0713 10:06:50.552503 28254 net.cpp:380] score53_slicer_conv_52_split -> score53_slicer_conv_52_split_0
I0713 10:06:50.552513 28254 net.cpp:380] score53_slicer_conv_52_split -> score53_slicer_conv_52_split_1
I0713 10:06:50.552570 28254 net.cpp:122] Setting up score53_slicer_conv_52_split
I0713 10:06:50.552578 28254 net.cpp:129] Top shape: 12 1 48 64 (36864)
I0713 10:06:50.552584 28254 net.cpp:129] Top shape: 12 1 48 64 (36864)
I0713 10:06:50.552590 28254 net.cpp:137] Memory required for data: 5857394688
I0713 10:06:50.552597 28254 layer_factory.hpp:77] Creating layer score54_slicer_conv_53_split
I0713 10:06:50.552605 28254 net.cpp:84] Creating Layer score54_slicer_conv_53_split
I0713 10:06:50.552613 28254 net.cpp:406] score54_slicer_conv_53_split <- score54
I0713 10:06:50.552624 28254 net.cpp:380] score54_slicer_conv_53_split -> score54_slicer_conv_53_split_0
I0713 10:06:50.552636 28254 net.cpp:380] score54_slicer_conv_53_split -> score54_slicer_conv_53_split_1
I0713 10:06:50.552700 28254 net.cpp:122] Setting up score54_slicer_conv_53_split
I0713 10:06:50.552708 28254 net.cpp:129] Top shape: 12 1 48 64 (36864)
I0713 10:06:50.552716 28254 net.cpp:129] Top shape: 12 1 48 64 (36864)
I0713 10:06:50.552721 28254 net.cpp:137] Memory required for data: 5857689600
I0713 10:06:50.552726 28254 layer_factory.hpp:77] Creating layer score55_slicer_conv_54_split
I0713 10:06:50.552747 28254 net.cpp:84] Creating Layer score55_slicer_conv_54_split
I0713 10:06:50.552757 28254 net.cpp:406] score55_slicer_conv_54_split <- score55
I0713 10:06:50.552764 28254 net.cpp:380] score55_slicer_conv_54_split -> score55_slicer_conv_54_split_0
I0713 10:06:50.552803 28254 net.cpp:380] score55_slicer_conv_54_split -> score55_slicer_conv_54_split_1
I0713 10:06:50.552863 28254 net.cpp:122] Setting up score55_slicer_conv_54_split
I0713 10:06:50.552872 28254 net.cpp:129] Top shape: 12 1 48 64 (36864)
I0713 10:06:50.552880 28254 net.cpp:129] Top shape: 12 1 48 64 (36864)
I0713 10:06:50.552884 28254 net.cpp:137] Memory required for data: 5857984512
I0713 10:06:50.552891 28254 layer_factory.hpp:77] Creating layer score56_slicer_conv_55_split
I0713 10:06:50.552901 28254 net.cpp:84] Creating Layer score56_slicer_conv_55_split
I0713 10:06:50.552906 28254 net.cpp:406] score56_slicer_conv_55_split <- score56
I0713 10:06:50.552914 28254 net.cpp:380] score56_slicer_conv_55_split -> score56_slicer_conv_55_split_0
I0713 10:06:50.552925 28254 net.cpp:380] score56_slicer_conv_55_split -> score56_slicer_conv_55_split_1
I0713 10:06:50.552984 28254 net.cpp:122] Setting up score56_slicer_conv_55_split
I0713 10:06:50.552994 28254 net.cpp:129] Top shape: 12 1 48 64 (36864)
I0713 10:06:50.552999 28254 net.cpp:129] Top shape: 12 1 48 64 (36864)
I0713 10:06:50.553005 28254 net.cpp:137] Memory required for data: 5858279424
I0713 10:06:50.553011 28254 layer_factory.hpp:77] Creating layer score57_slicer_conv_56_split
I0713 10:06:50.553020 28254 net.cpp:84] Creating Layer score57_slicer_conv_56_split
I0713 10:06:50.553028 28254 net.cpp:406] score57_slicer_conv_56_split <- score57
I0713 10:06:50.553037 28254 net.cpp:380] score57_slicer_conv_56_split -> score57_slicer_conv_56_split_0
I0713 10:06:50.553048 28254 net.cpp:380] score57_slicer_conv_56_split -> score57_slicer_conv_56_split_1
I0713 10:06:50.553107 28254 net.cpp:122] Setting up score57_slicer_conv_56_split
I0713 10:06:50.553115 28254 net.cpp:129] Top shape: 12 1 48 64 (36864)
I0713 10:06:50.553122 28254 net.cpp:129] Top shape: 12 1 48 64 (36864)
I0713 10:06:50.553128 28254 net.cpp:137] Memory required for data: 5858574336
I0713 10:06:50.553133 28254 layer_factory.hpp:77] Creating layer score58_slicer_conv_57_split
I0713 10:06:50.553144 28254 net.cpp:84] Creating Layer score58_slicer_conv_57_split
I0713 10:06:50.553151 28254 net.cpp:406] score58_slicer_conv_57_split <- score58
I0713 10:06:50.553161 28254 net.cpp:380] score58_slicer_conv_57_split -> score58_slicer_conv_57_split_0
I0713 10:06:50.553172 28254 net.cpp:380] score58_slicer_conv_57_split -> score58_slicer_conv_57_split_1
I0713 10:06:50.553230 28254 net.cpp:122] Setting up score58_slicer_conv_57_split
I0713 10:06:50.553239 28254 net.cpp:129] Top shape: 12 1 48 64 (36864)
I0713 10:06:50.553246 28254 net.cpp:129] Top shape: 12 1 48 64 (36864)
I0713 10:06:50.553252 28254 net.cpp:137] Memory required for data: 5858869248
I0713 10:06:50.553258 28254 layer_factory.hpp:77] Creating layer score59_slicer_conv_58_split
I0713 10:06:50.553267 28254 net.cpp:84] Creating Layer score59_slicer_conv_58_split
I0713 10:06:50.553273 28254 net.cpp:406] score59_slicer_conv_58_split <- score59
I0713 10:06:50.553283 28254 net.cpp:380] score59_slicer_conv_58_split -> score59_slicer_conv_58_split_0
I0713 10:06:50.553294 28254 net.cpp:380] score59_slicer_conv_58_split -> score59_slicer_conv_58_split_1
I0713 10:06:50.553354 28254 net.cpp:122] Setting up score59_slicer_conv_58_split
I0713 10:06:50.553362 28254 net.cpp:129] Top shape: 12 1 48 64 (36864)
I0713 10:06:50.553369 28254 net.cpp:129] Top shape: 12 1 48 64 (36864)
I0713 10:06:50.553375 28254 net.cpp:137] Memory required for data: 5859164160
I0713 10:06:50.553380 28254 layer_factory.hpp:77] Creating layer score60_slicer_conv_59_split
I0713 10:06:50.553388 28254 net.cpp:84] Creating Layer score60_slicer_conv_59_split
I0713 10:06:50.553396 28254 net.cpp:406] score60_slicer_conv_59_split <- score60
I0713 10:06:50.553408 28254 net.cpp:380] score60_slicer_conv_59_split -> score60_slicer_conv_59_split_0
I0713 10:06:50.553431 28254 net.cpp:380] score60_slicer_conv_59_split -> score60_slicer_conv_59_split_1
I0713 10:06:50.553500 28254 net.cpp:122] Setting up score60_slicer_conv_59_split
I0713 10:06:50.553513 28254 net.cpp:129] Top shape: 12 1 48 64 (36864)
I0713 10:06:50.553519 28254 net.cpp:129] Top shape: 12 1 48 64 (36864)
I0713 10:06:50.553524 28254 net.cpp:137] Memory required for data: 5859459072
I0713 10:06:50.553530 28254 layer_factory.hpp:77] Creating layer score61_slicer_conv_60_split
I0713 10:06:50.553539 28254 net.cpp:84] Creating Layer score61_slicer_conv_60_split
I0713 10:06:50.553544 28254 net.cpp:406] score61_slicer_conv_60_split <- score61
I0713 10:06:50.553555 28254 net.cpp:380] score61_slicer_conv_60_split -> score61_slicer_conv_60_split_0
I0713 10:06:50.553565 28254 net.cpp:380] score61_slicer_conv_60_split -> score61_slicer_conv_60_split_1
I0713 10:06:50.553627 28254 net.cpp:122] Setting up score61_slicer_conv_60_split
I0713 10:06:50.553638 28254 net.cpp:129] Top shape: 12 1 48 64 (36864)
I0713 10:06:50.553645 28254 net.cpp:129] Top shape: 12 1 48 64 (36864)
I0713 10:06:50.553650 28254 net.cpp:137] Memory required for data: 5859753984
I0713 10:06:50.553656 28254 layer_factory.hpp:77] Creating layer score62_slicer_conv_61_split
I0713 10:06:50.553663 28254 net.cpp:84] Creating Layer score62_slicer_conv_61_split
I0713 10:06:50.553669 28254 net.cpp:406] score62_slicer_conv_61_split <- score62
I0713 10:06:50.553679 28254 net.cpp:380] score62_slicer_conv_61_split -> score62_slicer_conv_61_split_0
I0713 10:06:50.553689 28254 net.cpp:380] score62_slicer_conv_61_split -> score62_slicer_conv_61_split_1
I0713 10:06:50.553747 28254 net.cpp:122] Setting up score62_slicer_conv_61_split
I0713 10:06:50.553757 28254 net.cpp:129] Top shape: 12 1 48 64 (36864)
I0713 10:06:50.553764 28254 net.cpp:129] Top shape: 12 1 48 64 (36864)
I0713 10:06:50.553769 28254 net.cpp:137] Memory required for data: 5860048896
I0713 10:06:50.553776 28254 layer_factory.hpp:77] Creating layer score63_slicer_conv_62_split
I0713 10:06:50.553784 28254 net.cpp:84] Creating Layer score63_slicer_conv_62_split
I0713 10:06:50.553791 28254 net.cpp:406] score63_slicer_conv_62_split <- score63
I0713 10:06:50.553798 28254 net.cpp:380] score63_slicer_conv_62_split -> score63_slicer_conv_62_split_0
I0713 10:06:50.553808 28254 net.cpp:380] score63_slicer_conv_62_split -> score63_slicer_conv_62_split_1
I0713 10:06:50.553869 28254 net.cpp:122] Setting up score63_slicer_conv_62_split
I0713 10:06:50.553880 28254 net.cpp:129] Top shape: 12 1 48 64 (36864)
I0713 10:06:50.553887 28254 net.cpp:129] Top shape: 12 1 48 64 (36864)
I0713 10:06:50.553894 28254 net.cpp:137] Memory required for data: 5860343808
I0713 10:06:50.553899 28254 layer_factory.hpp:77] Creating layer score64_slicer_conv_63_split
I0713 10:06:50.553907 28254 net.cpp:84] Creating Layer score64_slicer_conv_63_split
I0713 10:06:50.553913 28254 net.cpp:406] score64_slicer_conv_63_split <- score64
I0713 10:06:50.553921 28254 net.cpp:380] score64_slicer_conv_63_split -> score64_slicer_conv_63_split_0
I0713 10:06:50.553932 28254 net.cpp:380] score64_slicer_conv_63_split -> score64_slicer_conv_63_split_1
I0713 10:06:50.553988 28254 net.cpp:122] Setting up score64_slicer_conv_63_split
I0713 10:06:50.553998 28254 net.cpp:129] Top shape: 12 1 48 64 (36864)
I0713 10:06:50.554005 28254 net.cpp:129] Top shape: 12 1 48 64 (36864)
I0713 10:06:50.554011 28254 net.cpp:137] Memory required for data: 5860638720
I0713 10:06:50.554016 28254 layer_factory.hpp:77] Creating layer sumscore
I0713 10:06:50.554039 28254 net.cpp:84] Creating Layer sumscore
I0713 10:06:50.554046 28254 net.cpp:406] sumscore <- score1_slicer_conv_0_split_0
I0713 10:06:50.554055 28254 net.cpp:406] sumscore <- score2_slicer_conv_1_split_0
I0713 10:06:50.554062 28254 net.cpp:406] sumscore <- score3_slicer_conv_2_split_0
…
I0713 10:06:50.555682 28254 net.cpp:380] sumscore_sumscore_0_split -> sumscore_sumscore_0_split_59
I0713 10:06:50.555701 28254 net.cpp:380] sumscore_sumscore_0_split -> sumscore_sumscore_0_split_60
I0713 10:06:50.555718 28254 net.cpp:380] sumscore_sumscore_0_split -> sumscore_sumscore_0_split_61
I0713 10:06:50.555735 28254 net.cpp:380] sumscore_sumscore_0_split -> sumscore_sumscore_0_split_62
I0713 10:06:50.555754 28254 net.cpp:380] sumscore_sumscore_0_split -> sumscore_sumscore_0_split_63
I0713 10:06:50.557705 28254 net.cpp:122] Setting up sumscore_sumscore_0_split
I0713 10:06:50.557730 28254 net.cpp:129] Top shape: 12 1 48 64 (36864)
I0713 10:06:50.557739 28254 net.cpp:129] Top shape: 12 1 48 64 (36864)
I0713 10:06:50.557745 28254 net.cpp:129] Top shape: 12 1 48 64 (36864)
I0713 10:06:50.557752 28254 net.cpp:129] Top shape: 12 1 48 64 (36864)
I0713 10:06:50.557760 28254 net.cpp:129] Top shape: 12 1 48 64 (36864)
I0713 10:06:50.557766 28254 net.cpp:129] Top shape: 12 1 48 64 (36864)
I0713 10:06:50.557772 28254 net.cpp:129] Top shape: 12 1 48 64 (36864)
I0713 10:06:50.557802 28254 net.cpp:129] Top shape: 12 1 48 64 (36864)
I0713 10:06:50.557811 28254 net.cpp:129] Top shape: 12 1 48 64 (36864)
I0713 10:06:50.557817 28254 net.cpp:129] Top shape: 12 1 48 64 (36864)
I0713 10:06:50.557824 28254 net.cpp:129] Top shape: 12 1 48 64 (36864)
I0713 10:06:50.557831 28254 net.cpp:129] Top shape: 12 1 48 64 (36864)
I0713 10:06:50.557837 28254 net.cpp:129] Top shape: 12 1 48 64 (36864)
I0713 10:06:50.557844 28254 net.cpp:129] Top shape: 12 1 48 64 (36864)
I0713 10:06:50.557850 28254 net.cpp:129] Top shape: 12 1 48 64 (36864)
I0713 10:06:50.557857 28254 net.cpp:129] Top shape: 12 1 48 64 (36864)
I0713 10:06:50.557863 28254 net.cpp:129] Top shape: 12 1 48 64 (36864)
I0713 10:06:50.557870 28254 net.cpp:129] Top shape: 12 1 48 64 (36864)
I0713 10:06:50.557878 28254 net.cpp:129] Top shape: 12 1 48 64 (36864)
I0713 10:06:50.557883 28254 net.cpp:129] Top shape: 12 1 48 64 (36864)
I0713 10:06:50.557890 28254 net.cpp:129] Top shape: 12 1 48 64 (36864)
I0713 10:06:50.557898 28254 net.cpp:129] Top shape: 12 1 48 64 (36864)
I0713 10:06:50.557904 28254 net.cpp:129] Top shape: 12 1 48 64 (36864)
I0713 10:06:50.557910 28254 net.cpp:129] Top shape: 12 1 48 64 (36864)
I0713 10:06:50.557917 28254 net.cpp:129] Top shape: 12 1 48 64 (36864)
I0713 10:06:50.557924 28254 net.cpp:129] Top shape: 12 1 48 64 (36864)
I0713 10:06:50.557930 28254 net.cpp:129] Top shape: 12 1 48 64 (36864)
I0713 10:06:50.557936 28254 net.cpp:129] Top shape: 12 1 48 64 (36864)
I0713 10:06:50.557943 28254 net.cpp:129] Top shape: 12 1 48 64 (36864)
I0713 10:06:50.557950 28254 net.cpp:129] Top shape: 12 1 48 64 (36864)
I0713 10:06:50.557956 28254 net.cpp:129] Top shape: 12 1 48 64 (36864)
I0713 10:06:50.557963 28254 net.cpp:129] Top shape: 12 1 48 64 (36864)
I0713 10:06:50.557970 28254 net.cpp:129] Top shape: 12 1 48 64 (36864)
I0713 10:06:50.557976 28254 net.cpp:129] Top shape: 12 1 48 64 (36864)
I0713 10:06:50.557983 28254 net.cpp:129] Top shape: 12 1 48 64 (36864)
I0713 10:06:50.557989 28254 net.cpp:129] Top shape: 12 1 48 64 (36864)
I0713 10:06:50.557996 28254 net.cpp:129] Top shape: 12 1 48 64 (36864)
I0713 10:06:50.558003 28254 net.cpp:129] Top shape: 12 1 48 64 (36864)
I0713 10:06:50.558009 28254 net.cpp:129] Top shape: 12 1 48 64 (36864)
I0713 10:06:50.558017 28254 net.cpp:129] Top shape: 12 1 48 64 (36864)
I0713 10:06:50.558023 28254 net.cpp:129] Top shape: 12 1 48 64 (36864)
I0713 10:06:50.558029 28254 net.cpp:129] Top shape: 12 1 48 64 (36864)
I0713 10:06:50.558037 28254 net.cpp:129] Top shape: 12 1 48 64 (36864)
I0713 10:06:50.558043 28254 net.cpp:129] Top shape: 12 1 48 64 (36864)
I0713 10:06:50.558049 28254 net.cpp:129] Top shape: 12 1 48 64 (36864)
I0713 10:06:50.558056 28254 net.cpp:129] Top shape: 12 1 48 64 (36864)
I0713 10:06:50.558063 28254 net.cpp:129] Top shape: 12 1 48 64 (36864)
I0713 10:06:50.558869 28254 net.cpp:129] Top shape: 12 1 48 64 (36864)
I0713 10:06:50.558887 28254 net.cpp:129] Top shape: 12 1 48 64 (36864)
I0713 10:06:50.558895 28254 net.cpp:129] Top shape: 12 1 48 64 (36864)
I0713 10:06:50.558903 28254 net.cpp:129] Top shape: 12 1 48 64 (36864)
I0713 10:06:50.558910 28254 net.cpp:129] Top shape: 12 1 48 64 (36864)
I0713 10:06:50.558918 28254 net.cpp:129] Top shape: 12 1 48 64 (36864)
I0713 10:06:50.558925 28254 net.cpp:129] Top shape: 12 1 48 64 (36864)
I0713 10:06:50.558933 28254 net.cpp:129] Top shape: 12 1 48 64 (36864)
I0713 10:06:50.558940 28254 net.cpp:129] Top shape: 12 1 48 64 (36864)
I0713 10:06:50.558948 28254 net.cpp:129] Top shape: 12 1 48 64 (36864)
I0713 10:06:50.558955 28254 net.cpp:129] Top shape: 12 1 48 64 (36864)
I0713 10:06:50.558964 28254 net.cpp:129] Top shape: 12 1 48 64 (36864)
I0713 10:06:50.558970 28254 net.cpp:129] Top shape: 12 1 48 64 (36864)
I0713 10:06:50.558977 28254 net.cpp:129] Top shape: 12 1 48 64 (36864)
I0713 10:06:50.558985 28254 net.cpp:129] Top shape: 12 1 48 64 (36864)
I0713 10:06:50.558992 28254 net.cpp:129] Top shape: 12 1 48 64 (36864)
I0713 10:06:50.559000 28254 net.cpp:129] Top shape: 12 1 48 64 (36864)
I0713 10:06:50.559006 28254 net.cpp:137] Memory required for data: 5870223360
I0713 10:06:50.559032 28254 layer_factory.hpp:77] Creating layer loss1
I0713 10:06:50.559061 28254 net.cpp:84] Creating Layer loss1
I0713 10:06:50.559069 28254 net.cpp:406] loss1 <- score1_slicer_conv_0_split_1
I0713 10:06:50.559079 28254 net.cpp:406] loss1 <- label_label_0_split_0
I0713 10:06:50.559088 28254 net.cpp:406] loss1 <- sumscore_sumscore_0_split_0
…
I0713 10:06:50.587365 28254 net.cpp:51] Initializing net from parameters: 
name: "crowd_counting"
state {
  phase: TEST
}
layer {
  name: "data"
  type: "Data"
  top: "data"
  include {
    phase: TEST
  }
  data_param {
    source: "/home/peiyong/Work/Zenglin/szl/ShanghaiTech/partB/test8_5/image_lmdb"
    batch_size: 1
    backend: LMDB
  }
}
layer {
  name: "label"
  type: "Data"
  top: "label"
  include {
    phase: TEST
  }
  data_param {
    source: "/home/peiyong/Work/Zenglin/szl/ShanghaiTech/partB/test8_5/dmap_lmdb"
    batch_size: 1
    backend: LMDB
  }
}
layer {
  name: "conv1_1"
  type: "Convolution"
  bottom: "data"
  top: "conv1_1"
  param {
    lr_mult: 0.1
    decay_mult: 1
  }
  param {
    lr_mult: 0.2
    decay_mult: 0
  }
  convolution_param {
    num_output: 64
    pad: 1
    kernel_size: 3
    weight_filler {
      type: "gaussian"
      std: 0.01
    }
    bias_filler {
      type: "constant"
      value: 0
    }
  }
}
layer {
  name: "relu1_1"
  type: "ReLU"
  bottom: "conv1_1"
  top: "conv1_1"
}
layer {
  name: "conv1_2"
  type: "Convolution"
  bottom: "conv1_1"
  top: "conv1_2"
  param {
    lr_mult: 0.1
    decay_mult: 1
  }
  param {
    lr_mult: 0.2
    decay_mult: 0
  }
  convolution_param {
    num_output: 64
    pad: 1
    kernel_size: 3
    weight_filler {
      type: "gaussian"
      std: 0.01
    }
    bias_filler {
      type: "constant"
      value: 0
    }
  }
}
layer {
  name: "relu1_2"
  type: "ReLU"
  bottom: "conv1_2"
  top: "conv1_2"
}
layer {
  name: "pool1"
  type: "Pooling"
  bottom: "conv1_2"
  top: "pool1"
  pooling_param {
    pool: MAX
    kernel_size: 2
    stride: 2
  }
}
layer {
  name: "conv2_1"
  type: "Convolution"
  bottom: "pool1"
  top: "conv2_1"
  param {
    lr_mult: 0.1
    decay_mult: 1
  }
  param {
    lr_mult: 0.2
    decay_mult: 0
  }
  convolution_param {
    num_output: 128
    pad: 1
    kernel_size: 3
    weight_filler {
      type: "gaussian"
      std: 0.01
    }
    bias_filler {
      type: "constant"
      value: 0
    }
  }
}
layer {
  name: "relu2_1"
  type: "ReLU"
  bottom: "conv2_1"
  top: "conv2_1"
}
layer {
  name: "conv2_2"
  type: "Convolution"
  bottom: "conv2_1"
  top: "conv2_2"
  param {
    lr_mult: 0.1
    decay_mult: 1
  }
  param {
    lr_mult: 0.2
    decay_mult: 0
  }
  convolution_param {
    num_output: 128
    pad: 1
    kernel_size: 3
    weight_filler {
      type: "gaussian"
      std: 0.01
    }
    bias_filler {
      type: "constant"
      value: 0
    }
  }
}
layer {
  name: "relu2_2"
  type: "ReLU"
  bottom: "conv2_2"
  top: "conv2_2"
}
layer {
  name: "pool2"
  type: "Pooling"
  bottom: "conv2_2"
  top: "pool2"
  pooling_param {
    pool: MAX
    kernel_size: 2
    stride: 2
  }
}
layer {
  name: "conv3_1"
  type: "Convolution"
  bottom: "pool2"
  top: "conv3_1"
  param {
    lr_mult: 0.1
    decay_mult: 1
  }
  param {
    lr_mult: 0.2
    decay_mult: 0
  }
  convolution_param {
    num_output: 256
    pad: 1
    kernel_size: 3
    weight_filler {
      type: "gaussian"
      std: 0.01
    }
    bias_filler {
      type: "constant"
      value: 0
    }
  }
}
layer {
  name: "relu3_1"
  type: "ReLU"
  bottom: "conv3_1"
  top: "conv3_1"
}
layer {
  name: "conv3_2"
  type: "Convolution"
  bottom: "conv3_1"
  top: "conv3_2"
  param {
    lr_mult: 0.1
    decay_mult: 1
  }
  param {
    lr_mult: 0.2
    decay_mult: 0
  }
  convolution_param {
    num_output: 256
    pad: 1
    kernel_size: 3
    weight_filler {
      type: "gaussian"
      std: 0.01
    }
    bias_filler {
      type: "constant"
      value: 0
    }
  }
}
layer {
  name: "relu3_2"
  type: "ReLU"
  bottom: "conv3_2"
  top: "conv3_2"
}
layer {
  name: "conv3_3"
  type: "Convolution"
  bottom: "conv3_2"
  top: "conv3_3"
  param {
    lr_mult: 0.1
    decay_mult: 1
  }
  param {
    lr_mult: 0.2
    decay_mult: 0
  }
  convolution_param {
    num_output: 256
    pad: 1
    kernel_size: 3
    weight_filler {
      type: "gaussian"
      std: 0.01
    }
    bias_filler {
      type: "constant"
      value: 0
    }
  }
}
layer {
  name: "relu3_3"
  type: "ReLU"
  bottom: "conv3_3"
  top: "conv3_3"
}
layer {
  name: "pool3"
  type: "Pooling"
  bottom: "conv3_3"
  top: "pool3"
  pooling_param {
    pool: MAX
    kernel_size: 2
    stride: 2
  }
}
layer {
  name: "conv4_1"
  type: "Convolution"
  bottom: "pool3"
  top: "conv4_1"
  param {
    lr_mult: 0.1
    decay_mult: 1
  }
  param {
    lr_mult: 0.2
    decay_mult: 0
  }
  convolution_param {
    num_output: 512
    pad: 1
    kernel_size: 3
    weight_filler {
      type: "gaussian"
      std: 0.01
    }
    bias_filler {
      type: "constant"
      value: 0
    }
  }
}
layer {
  name: "relu4_1"
  type: "ReLU"
  bottom: "conv4_1"
  top: "conv4_1"
}
layer {
  name: "conv4_2"
  type: "Convolution"
  bottom: "conv4_1"
  top: "conv4_2"
  param {
    lr_mult: 0.1
    decay_mult: 1
  }
  param {
    lr_mult: 0.2
    decay_mult: 0
  }
  convolution_param {
    num_output: 512
    pad: 1
    kernel_size: 3
    weight_filler {
      type: "gaussian"
      std: 0.01
    }
    bias_filler {
      type: "constant"
      value: 0
    }
  }
}
layer {
  name: "relu4_2"
  type: "ReLU"
  bottom: "conv4_2"
  top: "conv4_2"
}
layer {
  name: "conv4_3"
  type: "Convolution"
  bottom: "conv4_2"
  top: "conv4_3"
  param {
    lr_mult: 0.1
    decay_mult: 1
  }
  param {
    lr_mult: 0.2
    decay_mult: 0
  }
  convolution_param {
    num_output: 512
    pad: 1
    kernel_size: 3
    weight_filler {
      type: "gaussian"
      std: 0.01
    }
    bias_filler {
      type: "constant"
      value: 0
    }
  }
}
layer {
  name: "relu4_3"
  type: "ReLU"
  bottom: "conv4_3"
  top: "conv4_3"
}
layer {
  name: "pool4"
  type: "Pooling"
  bottom: "conv4_3"
  top: "pool4"
  pooling_param {
    pool: MAX
    kernel_size: 3
    stride: 1
    pad: 1
  }
}
layer {
  name: "conv5_1"
  type: "Convolution"
  bottom: "pool4"
  top: "conv5_1"
  param {
    lr_mult: 1
    decay_mult: 1
  }
  param {
    lr_mult: 2
    decay_mult: 0
  }
  convolution_param {
    num_output: 512
    pad: 2
    kernel_size: 3
    weight_filler {
      type: "gaussian"
      std: 0.01
    }
    bias_filler {
      type: "constant"
      value: 0
    }
    dilation: 2
  }
}
layer {
  name: "relu5_1"
  type: "ReLU"
  bottom: "conv5_1"
  top: "conv5_1"
}
layer {
  name: "conv5_2"
  type: "Convolution"
  bottom: "conv5_1"
  top: "conv5_2"
  param {
    lr_mult: 1
    decay_mult: 1
  }
  param {
    lr_mult: 2
    decay_mult: 0
  }
  convolution_param {
    num_output: 512
    pad: 2
    kernel_size: 3
    weight_filler {
      type: "gaussian"
      std: 0.01
    }
    bias_filler {
      type: "constant"
      value: 0
    }
    dilation: 2
  }
}
layer {
  name: "relu5_2"
  type: "ReLU"
  bottom: "conv5_2"
  top: "conv5_2"
}
layer {
  name: "conv5_3"
  type: "Convolution"
  bottom: "conv5_2"
  top: "conv5_3"
  param {
    lr_mult: 1
    decay_mult: 1
  }
  param {
    lr_mult: 2
    decay_mult: 0
  }
  convolution_param {
    num_output: 512
    pad: 2
    kernel_size: 3
    weight_filler {
      type: "gaussian"
      std: 0.01
    }
    bias_filler {
      type: "constant"
      value: 0
    }
    dilation: 2
  }
}
layer {
  name: "relu5_3"
  type: "ReLU"
  bottom: "conv5_3"
  top: "conv5_3"
}
layer {
  name: "conv_score"
  type: "Convolution"
  bottom: "conv5_3"
  top: "conv_score"
  param {
    lr_mult: 1
    decay_mult: 1
  }
  param {
    lr_mult: 2
    decay_mult: 0
  }
  convolution_param {
    num_output: 64
    pad: 0
    kernel_size: 1
    group: 64
    stride: 1
    weight_filler {
      type: "constant"
      value: 0.0001
    }
    bias_filler {
      type: "constant"
      value: 0
    }
  }
}
layer {
  name: "relu_score"
  type: "ReLU"
  bottom: "conv_score"
  top: "conv_score"
}
layer {
  name: "slicer_conv"
  type: "Slice"
  bottom: "conv_score"
  top: "score1"
  top: "score2"
  top: "score3"
  top: "score4"
  top: "score5"
  top: "score6"
  top: "score7"
  top: "score8"
  top: "score9"
  top: "score10"
  top: "score11"
  top: "score12"
  top: "score13"
  top: "score14"
  top: "score15"
  top: "score16"
  top: "score17"
  top: "score18"
  top: "score19"
  top: "score20"
  top: "score21"
  top: "score22"
  top: "score23"
  top: "score24"
  top: "score25"
  top: "score26"
  top: "score27"
  top: "score28"
  top: "score29"
  top: "score30"
  top: "score31"
  top: "score32"
  top: "score33"
  top: "score34"
  top: "score35"
  top: "score36"
  top: "score37"
  top: "score38"
  top: "score39"
  top: "score40"
  top: "score41"
  top: "score42"
  top: "score43"
  top: "score44"
  top: "score45"
  top: "score46"
  top: "score47"
  top: "score48"
  top: "score49"
  top: "score50"
  top: "score51"
  top: "score52"
  top: "score53"
  top: "score54"
  top: "score55"
  top: "score56"
  top: "score57"
  top: "score58"
  top: "score59"
  top: "score60"
  top: "score61"
  top: "score62"
  top: "score63"
  top: "score64"
  slice_param {
    axis: 1
  }
}
layer {
  name: "sumscore"
  type: "Eltwise"
  bottom: "score1"
  bottom: "score2"
  bottom: "score3"
  bottom: "score4"
  bottom: "score5"
  bottom: "score6"
  bottom: "score7"
  bottom: "score8"
  bottom: "score9"
  bottom: "score10"
  bottom: "score11"
  bottom: "score12"
  bottom: "score13"
  bottom: "score14"
  bottom: "score15"
  bottom: "score16"
  bottom: "score17"
  bottom: "score18"
  bottom: "score19"
  bottom: "score20"
  bottom: "score21"
  bottom: "score22"
  bottom: "score23"
  bottom: "score24"
  bottom: "score25"
  bottom: "score26"
  bottom: "score27"
  bottom: "score28"
  bottom: "score29"
  bottom: "score30"
  bottom: "score31"
  bottom: "score32"
  bottom: "score33"
  bottom: "score34"
  bottom: "score35"
  bottom: "score36"
  bottom: "score37"
  bottom: "score38"
  bottom: "score39"
  bottom: "score40"
  bottom: "score41"
  bottom: "score42"
  bottom: "score43"
  bottom: "score44"
  bottom: "score45"
  bottom: "score46"
  bottom: "score47"
  bottom: "score48"
  bottom: "score49"
  bottom: "score50"
  bottom: "score51"
  bottom: "score52"
  bottom: "score53"
  bottom: "score54"
  bottom: "score55"
  bottom: "score56"
  bottom: "score57"
  bottom: "score58"
  bottom: "score59"
  bottom: "score60"
  bottom: "score61"
  bottom: "score62"
  bottom: "score63"
  bottom: "score64"
  top: "sumscore"
  eltwise_param {
    operation: SUM
  }
}
layer {
  name: "avgscore"
  type: "Power"
  bottom: "sumscore"
  top: "avgscore"
  include {
    phase: TEST
  }
  power_param {
    power: 1
    scale: 0.015625
    shift: 0
  }
}
layer {
  name: "mae"
  type: "MAELoss"
  bottom: "avgscore"
  bottom: "label"
  top: "mae"
  include {
    phase: TEST
  }
}
layer {
  name: "mse"
  type: "MSELoss"
  bottom: "avgscore"
  bottom: "label"
  top: "mse"
  include {
    phase: TEST
  }
}
I0713 10:06:50.588325 28254 layer_factory.hpp:77] Creating layer data
I0713 10:06:50.588438 28254 db_lmdb.cpp:35] Opened lmdb /home/peiyong/Work/Zenglin/szl/ShanghaiTech/partB/test8_5/image_lmdb
I0713 10:06:50.588474 28254 net.cpp:84] Creating Layer data
I0713 10:06:50.588486 28254 net.cpp:380] data -> data
I0713 10:06:50.592492 28254 data_layer.cpp:45] output data size: 1,3,768,1024
I0713 10:06:50.620007 28254 net.cpp:122] Setting up data
I0713 10:06:50.620060 28254 net.cpp:129] Top shape: 1 3 768 1024 (2359296)
I0713 10:06:50.620070 28254 net.cpp:137] Memory required for data: 9437184
I0713 10:06:50.620080 28254 layer_factory.hpp:77] Creating layer label
I0713 10:06:50.620195 28254 db_lmdb.cpp:35] Opened lmdb /home/peiyong/Work/Zenglin/szl/ShanghaiTech/partB/test8_5/dmap_lmdb
I0713 10:06:50.620229 28254 net.cpp:84] Creating Layer label
I0713 10:06:50.620241 28254 net.cpp:380] label -> label
I0713 10:06:50.620555 28254 data_layer.cpp:45] output data size: 1,1,96,128
I0713 10:06:50.620843 28254 net.cpp:122] Setting up label
I0713 10:06:50.620862 28254 net.cpp:129] Top shape: 1 1 96 128 (12288)
I0713 10:06:50.620868 28254 net.cpp:137] Memory required for data: 9486336
I0713 10:06:50.620874 28254 layer_factory.hpp:77] Creating layer label_label_0_split
I0713 10:06:50.620889 28254 net.cpp:84] Creating Layer label_label_0_split
I0713 10:06:50.620898 28254 net.cpp:406] label_label_0_split <- label
I0713 10:06:50.620908 28254 net.cpp:380] label_label_0_split -> label_label_0_split_0
I0713 10:06:50.620923 28254 net.cpp:380] label_label_0_split -> label_label_0_split_1
I0713 10:06:50.621017 28254 net.cpp:122] Setting up label_label_0_split
I0713 10:06:50.621031 28254 net.cpp:129] Top shape: 1 1 96 128 (12288)
I0713 10:06:50.621038 28254 net.cpp:129] Top shape: 1 1 96 128 (12288)
I0713 10:06:50.621045 28254 net.cpp:137] Memory required for data: 9584640
I0713 10:06:50.621052 28254 layer_factory.hpp:77] Creating layer conv1_1
I0713 10:06:50.621070 28254 net.cpp:84] Creating Layer conv1_1
I0713 10:06:50.621078 28254 net.cpp:406] conv1_1 <- data
I0713 10:06:50.621089 28254 net.cpp:380] conv1_1 -> conv1_1
I0713 10:06:50.627759 28254 net.cpp:122] Setting up conv1_1
I0713 10:06:50.627790 28254 net.cpp:129] Top shape: 1 64 768 1024 (50331648)
I0713 10:06:50.627799 28254 net.cpp:137] Memory required for data: 210911232
I0713 10:06:50.627820 28254 layer_factory.hpp:77] Creating layer relu1_1
I0713 10:06:50.627835 28254 net.cpp:84] Creating Layer relu1_1
I0713 10:06:50.627843 28254 net.cpp:406] relu1_1 <- conv1_1
I0713 10:06:50.627852 28254 net.cpp:367] relu1_1 -> conv1_1 (in-place)
I0713 10:06:50.629792 28254 net.cpp:122] Setting up relu1_1
I0713 10:06:50.629818 28254 net.cpp:129] Top shape: 1 64 768 1024 (50331648)
I0713 10:06:50.629823 28254 net.cpp:137] Memory required for data: 412237824
I0713 10:06:50.629829 28254 layer_factory.hpp:77] Creating layer conv1_2
I0713 10:06:50.629849 28254 net.cpp:84] Creating Layer conv1_2
I0713 10:06:50.629858 28254 net.cpp:406] conv1_2 <- conv1_1
I0713 10:06:50.629870 28254 net.cpp:380] conv1_2 -> conv1_2
I0713 10:06:50.637050 28254 net.cpp:122] Setting up conv1_2
I0713 10:06:50.637079 28254 net.cpp:129] Top shape: 1 64 768 1024 (50331648)
I0713 10:06:50.637085 28254 net.cpp:137] Memory required for data: 613564416
I0713 10:06:50.637100 28254 layer_factory.hpp:77] Creating layer relu1_2
I0713 10:06:50.637112 28254 net.cpp:84] Creating Layer relu1_2
I0713 10:06:50.637120 28254 net.cpp:406] relu1_2 <- conv1_2
I0713 10:06:50.637130 28254 net.cpp:367] relu1_2 -> conv1_2 (in-place)
I0713 10:06:50.637428 28254 net.cpp:122] Setting up relu1_2
I0713 10:06:50.637444 28254 net.cpp:129] Top shape: 1 64 768 1024 (50331648)
I0713 10:06:50.637449 28254 net.cpp:137] Memory required for data: 814891008
I0713 10:06:50.637455 28254 layer_factory.hpp:77] Creating layer pool1
I0713 10:06:50.637498 28254 net.cpp:84] Creating Layer pool1
I0713 10:06:50.637506 28254 net.cpp:406] pool1 <- conv1_2
I0713 10:06:50.637516 28254 net.cpp:380] pool1 -> pool1
I0713 10:06:50.637611 28254 net.cpp:122] Setting up pool1
I0713 10:06:50.637626 28254 net.cpp:129] Top shape: 1 64 384 512 (12582912)
I0713 10:06:50.637632 28254 net.cpp:137] Memory required for data: 865222656
I0713 10:06:50.637637 28254 layer_factory.hpp:77] Creating layer conv2_1
I0713 10:06:50.637655 28254 net.cpp:84] Creating Layer conv2_1
I0713 10:06:50.637661 28254 net.cpp:406] conv2_1 <- pool1
I0713 10:06:50.637671 28254 net.cpp:380] conv2_1 -> conv2_1
I0713 10:06:50.643771 28254 net.cpp:122] Setting up conv2_1
I0713 10:06:50.643800 28254 net.cpp:129] Top shape: 1 128 384 512 (25165824)
I0713 10:06:50.643807 28254 net.cpp:137] Memory required for data: 965885952
I0713 10:06:50.643823 28254 layer_factory.hpp:77] Creating layer relu2_1
I0713 10:06:50.643836 28254 net.cpp:84] Creating Layer relu2_1
I0713 10:06:50.643842 28254 net.cpp:406] relu2_1 <- conv2_1
I0713 10:06:50.643852 28254 net.cpp:367] relu2_1 -> conv2_1 (in-place)
I0713 10:06:50.645674 28254 net.cpp:122] Setting up relu2_1
I0713 10:06:50.645696 28254 net.cpp:129] Top shape: 1 128 384 512 (25165824)
I0713 10:06:50.645702 28254 net.cpp:137] Memory required for data: 1066549248
I0713 10:06:50.645710 28254 layer_factory.hpp:77] Creating layer conv2_2
I0713 10:06:50.645725 28254 net.cpp:84] Creating Layer conv2_2
I0713 10:06:50.645732 28254 net.cpp:406] conv2_2 <- conv2_1
I0713 10:06:50.645743 28254 net.cpp:380] conv2_2 -> conv2_2
I0713 10:06:50.651340 28254 net.cpp:122] Setting up conv2_2
I0713 10:06:50.651365 28254 net.cpp:129] Top shape: 1 128 384 512 (25165824)
I0713 10:06:50.651371 28254 net.cpp:137] Memory required for data: 1167212544
I0713 10:06:50.651383 28254 layer_factory.hpp:77] Creating layer relu2_2
I0713 10:06:50.651393 28254 net.cpp:84] Creating Layer relu2_2
I0713 10:06:50.651401 28254 net.cpp:406] relu2_2 <- conv2_2
I0713 10:06:50.651409 28254 net.cpp:367] relu2_2 -> conv2_2 (in-place)
I0713 10:06:50.652377 28254 net.cpp:122] Setting up relu2_2
I0713 10:06:50.652396 28254 net.cpp:129] Top shape: 1 128 384 512 (25165824)
I0713 10:06:50.652403 28254 net.cpp:137] Memory required for data: 1267875840
I0713 10:06:50.652410 28254 layer_factory.hpp:77] Creating layer pool2
I0713 10:06:50.652421 28254 net.cpp:84] Creating Layer pool2
I0713 10:06:50.652427 28254 net.cpp:406] pool2 <- conv2_2
I0713 10:06:50.652436 28254 net.cpp:380] pool2 -> pool2
I0713 10:06:50.652528 28254 net.cpp:122] Setting up pool2
I0713 10:06:50.652539 28254 net.cpp:129] Top shape: 1 128 192 256 (6291456)
I0713 10:06:50.652544 28254 net.cpp:137] Memory required for data: 1293041664
I0713 10:06:50.652549 28254 layer_factory.hpp:77] Creating layer conv3_1
I0713 10:06:50.652564 28254 net.cpp:84] Creating Layer conv3_1
I0713 10:06:50.652570 28254 net.cpp:406] conv3_1 <- pool2
I0713 10:06:50.652580 28254 net.cpp:380] conv3_1 -> conv3_1
I0713 10:06:50.661716 28254 net.cpp:122] Setting up conv3_1
I0713 10:06:50.661749 28254 net.cpp:129] Top shape: 1 256 192 256 (12582912)
I0713 10:06:50.661756 28254 net.cpp:137] Memory required for data: 1343373312
I0713 10:06:50.661774 28254 layer_factory.hpp:77] Creating layer relu3_1
I0713 10:06:50.661787 28254 net.cpp:84] Creating Layer relu3_1
I0713 10:06:50.661794 28254 net.cpp:406] relu3_1 <- conv3_1
I0713 10:06:50.661803 28254 net.cpp:367] relu3_1 -> conv3_1 (in-place)
I0713 10:06:50.662076 28254 net.cpp:122] Setting up relu3_1
I0713 10:06:50.662089 28254 net.cpp:129] Top shape: 1 256 192 256 (12582912)
I0713 10:06:50.662096 28254 net.cpp:137] Memory required for data: 1393704960
I0713 10:06:50.662101 28254 layer_factory.hpp:77] Creating layer conv3_2
I0713 10:06:50.662117 28254 net.cpp:84] Creating Layer conv3_2
I0713 10:06:50.662122 28254 net.cpp:406] conv3_2 <- conv3_1
I0713 10:06:50.662132 28254 net.cpp:380] conv3_2 -> conv3_2
I0713 10:06:50.675576 28254 net.cpp:122] Setting up conv3_2
I0713 10:06:50.675612 28254 net.cpp:129] Top shape: 1 256 192 256 (12582912)
I0713 10:06:50.675654 28254 net.cpp:137] Memory required for data: 1444036608
I0713 10:06:50.675670 28254 layer_factory.hpp:77] Creating layer relu3_2
I0713 10:06:50.675688 28254 net.cpp:84] Creating Layer relu3_2
I0713 10:06:50.675694 28254 net.cpp:406] relu3_2 <- conv3_2
I0713 10:06:50.675704 28254 net.cpp:367] relu3_2 -> conv3_2 (in-place)
I0713 10:06:50.676610 28254 net.cpp:122] Setting up relu3_2
I0713 10:06:50.676630 28254 net.cpp:129] Top shape: 1 256 192 256 (12582912)
I0713 10:06:50.676633 28254 net.cpp:137] Memory required for data: 1494368256
I0713 10:06:50.676638 28254 layer_factory.hpp:77] Creating layer conv3_3
I0713 10:06:50.676669 28254 net.cpp:84] Creating Layer conv3_3
I0713 10:06:50.676677 28254 net.cpp:406] conv3_3 <- conv3_2
I0713 10:06:50.676687 28254 net.cpp:380] conv3_3 -> conv3_3
I0713 10:06:50.687814 28254 net.cpp:122] Setting up conv3_3
I0713 10:06:50.687839 28254 net.cpp:129] Top shape: 1 256 192 256 (12582912)
I0713 10:06:50.687845 28254 net.cpp:137] Memory required for data: 1544699904
I0713 10:06:50.687856 28254 layer_factory.hpp:77] Creating layer relu3_3
I0713 10:06:50.687866 28254 net.cpp:84] Creating Layer relu3_3
I0713 10:06:50.687872 28254 net.cpp:406] relu3_3 <- conv3_3
I0713 10:06:50.687881 28254 net.cpp:367] relu3_3 -> conv3_3 (in-place)
I0713 10:06:50.688743 28254 net.cpp:122] Setting up relu3_3
I0713 10:06:50.688761 28254 net.cpp:129] Top shape: 1 256 192 256 (12582912)
I0713 10:06:50.688767 28254 net.cpp:137] Memory required for data: 1595031552
I0713 10:06:50.688773 28254 layer_factory.hpp:77] Creating layer pool3
I0713 10:06:50.688783 28254 net.cpp:84] Creating Layer pool3
I0713 10:06:50.688789 28254 net.cpp:406] pool3 <- conv3_3
I0713 10:06:50.688797 28254 net.cpp:380] pool3 -> pool3
I0713 10:06:50.688881 28254 net.cpp:122] Setting up pool3
I0713 10:06:50.688891 28254 net.cpp:129] Top shape: 1 256 96 128 (3145728)
I0713 10:06:50.688896 28254 net.cpp:137] Memory required for data: 1607614464
I0713 10:06:50.688901 28254 layer_factory.hpp:77] Creating layer conv4_1
I0713 10:06:50.688913 28254 net.cpp:84] Creating Layer conv4_1
I0713 10:06:50.688920 28254 net.cpp:406] conv4_1 <- pool3
I0713 10:06:50.688927 28254 net.cpp:380] conv4_1 -> conv4_1
I0713 10:06:50.708016 28254 net.cpp:122] Setting up conv4_1
I0713 10:06:50.708047 28254 net.cpp:129] Top shape: 1 512 96 128 (6291456)
I0713 10:06:50.708053 28254 net.cpp:137] Memory required for data: 1632780288
I0713 10:06:50.708065 28254 layer_factory.hpp:77] Creating layer relu4_1
I0713 10:06:50.708076 28254 net.cpp:84] Creating Layer relu4_1
I0713 10:06:50.708081 28254 net.cpp:406] relu4_1 <- conv4_1
I0713 10:06:50.708091 28254 net.cpp:367] relu4_1 -> conv4_1 (in-place)
I0713 10:06:50.708340 28254 net.cpp:122] Setting up relu4_1
I0713 10:06:50.708353 28254 net.cpp:129] Top shape: 1 512 96 128 (6291456)
I0713 10:06:50.708359 28254 net.cpp:137] Memory required for data: 1657946112
I0713 10:06:50.708364 28254 layer_factory.hpp:77] Creating layer conv4_2
I0713 10:06:50.708377 28254 net.cpp:84] Creating Layer conv4_2
I0713 10:06:50.708384 28254 net.cpp:406] conv4_2 <- conv4_1
I0713 10:06:50.708392 28254 net.cpp:380] conv4_2 -> conv4_2
I0713 10:06:50.740252 28254 net.cpp:122] Setting up conv4_2
I0713 10:06:50.740283 28254 net.cpp:129] Top shape: 1 512 96 128 (6291456)
I0713 10:06:50.740288 28254 net.cpp:137] Memory required for data: 1683111936
I0713 10:06:50.740303 28254 layer_factory.hpp:77] Creating layer relu4_2
I0713 10:06:50.740314 28254 net.cpp:84] Creating Layer relu4_2
I0713 10:06:50.740320 28254 net.cpp:406] relu4_2 <- conv4_2
I0713 10:06:50.740329 28254 net.cpp:367] relu4_2 -> conv4_2 (in-place)
I0713 10:06:50.741108 28254 net.cpp:122] Setting up relu4_2
I0713 10:06:50.741127 28254 net.cpp:129] Top shape: 1 512 96 128 (6291456)
I0713 10:06:50.741132 28254 net.cpp:137] Memory required for data: 1708277760
I0713 10:06:50.741137 28254 layer_factory.hpp:77] Creating layer conv4_3
I0713 10:06:50.741150 28254 net.cpp:84] Creating Layer conv4_3
I0713 10:06:50.741156 28254 net.cpp:406] conv4_3 <- conv4_2
I0713 10:06:50.741196 28254 net.cpp:380] conv4_3 -> conv4_3
I0713 10:06:50.770330 28254 net.cpp:122] Setting up conv4_3
I0713 10:06:50.770364 28254 net.cpp:129] Top shape: 1 512 96 128 (6291456)
I0713 10:06:50.770366 28254 net.cpp:137] Memory required for data: 1733443584
I0713 10:06:50.770375 28254 layer_factory.hpp:77] Creating layer relu4_3
I0713 10:06:50.770385 28254 net.cpp:84] Creating Layer relu4_3
I0713 10:06:50.770391 28254 net.cpp:406] relu4_3 <- conv4_3
I0713 10:06:50.770400 28254 net.cpp:367] relu4_3 -> conv4_3 (in-place)
I0713 10:06:50.771093 28254 net.cpp:122] Setting up relu4_3
I0713 10:06:50.771108 28254 net.cpp:129] Top shape: 1 512 96 128 (6291456)
I0713 10:06:50.771111 28254 net.cpp:137] Memory required for data: 1758609408
I0713 10:06:50.771116 28254 layer_factory.hpp:77] Creating layer pool4
I0713 10:06:50.771122 28254 net.cpp:84] Creating Layer pool4
I0713 10:06:50.771127 28254 net.cpp:406] pool4 <- conv4_3
I0713 10:06:50.771134 28254 net.cpp:380] pool4 -> pool4
I0713 10:06:50.771206 28254 net.cpp:122] Setting up pool4
I0713 10:06:50.771214 28254 net.cpp:129] Top shape: 1 512 96 128 (6291456)
I0713 10:06:50.771219 28254 net.cpp:137] Memory required for data: 1783775232
I0713 10:06:50.771221 28254 layer_factory.hpp:77] Creating layer conv5_1
I0713 10:06:50.771234 28254 net.cpp:84] Creating Layer conv5_1
I0713 10:06:50.771239 28254 net.cpp:406] conv5_1 <- pool4
I0713 10:06:50.771247 28254 net.cpp:380] conv5_1 -> conv5_1
I0713 10:06:50.796396 28254 net.cpp:122] Setting up conv5_1
I0713 10:06:50.796425 28254 net.cpp:129] Top shape: 1 512 96 128 (6291456)
I0713 10:06:50.796428 28254 net.cpp:137] Memory required for data: 1808941056
I0713 10:06:50.796437 28254 layer_factory.hpp:77] Creating layer relu5_1
I0713 10:06:50.796444 28254 net.cpp:84] Creating Layer relu5_1
I0713 10:06:50.796449 28254 net.cpp:406] relu5_1 <- conv5_1
I0713 10:06:50.796458 28254 net.cpp:367] relu5_1 -> conv5_1 (in-place)
I0713 10:06:50.796705 28254 net.cpp:122] Setting up relu5_1
I0713 10:06:50.796716 28254 net.cpp:129] Top shape: 1 512 96 128 (6291456)
I0713 10:06:50.796722 28254 net.cpp:137] Memory required for data: 1834106880
I0713 10:06:50.796726 28254 layer_factory.hpp:77] Creating layer conv5_2
I0713 10:06:50.796738 28254 net.cpp:84] Creating Layer conv5_2
I0713 10:06:50.796742 28254 net.cpp:406] conv5_2 <- conv5_1
I0713 10:06:50.796751 28254 net.cpp:380] conv5_2 -> conv5_2
I0713 10:06:50.820363 28254 net.cpp:122] Setting up conv5_2
I0713 10:06:50.820384 28254 net.cpp:129] Top shape: 1 512 96 128 (6291456)
I0713 10:06:50.820389 28254 net.cpp:137] Memory required for data: 1859272704
I0713 10:06:50.820396 28254 layer_factory.hpp:77] Creating layer relu5_2
I0713 10:06:50.820405 28254 net.cpp:84] Creating Layer relu5_2
I0713 10:06:50.820410 28254 net.cpp:406] relu5_2 <- conv5_2
I0713 10:06:50.820415 28254 net.cpp:367] relu5_2 -> conv5_2 (in-place)
I0713 10:06:50.821141 28254 net.cpp:122] Setting up relu5_2
I0713 10:06:50.821156 28254 net.cpp:129] Top shape: 1 512 96 128 (6291456)
I0713 10:06:50.821158 28254 net.cpp:137] Memory required for data: 1884438528
I0713 10:06:50.821161 28254 layer_factory.hpp:77] Creating layer conv5_3
I0713 10:06:50.821171 28254 net.cpp:84] Creating Layer conv5_3
I0713 10:06:50.821174 28254 net.cpp:406] conv5_3 <- conv5_2
I0713 10:06:50.821179 28254 net.cpp:380] conv5_3 -> conv5_3
I0713 10:06:50.843401 28254 net.cpp:122] Setting up conv5_3
I0713 10:06:50.843430 28254 net.cpp:129] Top shape: 1 512 96 128 (6291456)
I0713 10:06:50.843433 28254 net.cpp:137] Memory required for data: 1909604352
I0713 10:06:50.843441 28254 layer_factory.hpp:77] Creating layer relu5_3
I0713 10:06:50.843452 28254 net.cpp:84] Creating Layer relu5_3
I0713 10:06:50.843458 28254 net.cpp:406] relu5_3 <- conv5_3
I0713 10:06:50.843468 28254 net.cpp:367] relu5_3 -> conv5_3 (in-place)
I0713 10:06:50.843693 28254 net.cpp:122] Setting up relu5_3
I0713 10:06:50.843703 28254 net.cpp:129] Top shape: 1 512 96 128 (6291456)
I0713 10:06:50.843706 28254 net.cpp:137] Memory required for data: 1934770176
I0713 10:06:50.843709 28254 layer_factory.hpp:77] Creating layer conv_score
I0713 10:06:50.843755 28254 net.cpp:84] Creating Layer conv_score
I0713 10:06:50.843760 28254 net.cpp:406] conv_score <- conv5_3
I0713 10:06:50.843766 28254 net.cpp:380] conv_score -> conv_score
I0713 10:06:50.936202 28254 net.cpp:122] Setting up conv_score
I0713 10:06:50.936230 28254 net.cpp:129] Top shape: 1 64 96 128 (786432)
I0713 10:06:50.936233 28254 net.cpp:137] Memory required for data: 1937915904
I0713 10:06:50.936242 28254 layer_factory.hpp:77] Creating layer relu_score
I0713 10:06:50.936254 28254 net.cpp:84] Creating Layer relu_score
I0713 10:06:50.936259 28254 net.cpp:406] relu_score <- conv_score
I0713 10:06:50.936267 28254 net.cpp:367] relu_score -> conv_score (in-place)
I0713 10:06:50.936467 28254 net.cpp:122] Setting up relu_score
I0713 10:06:50.936477 28254 net.cpp:129] Top shape: 1 64 96 128 (786432)
I0713 10:06:50.936481 28254 net.cpp:137] Memory required for data: 1941061632
I0713 10:06:50.936486 28254 layer_factory.hpp:77] Creating layer slicer_conv
I0713 10:06:50.936503 28254 net.cpp:84] Creating Layer slicer_conv
I0713 10:06:50.936507 28254 net.cpp:406] slicer_conv <- conv_score
I0713 10:06:50.936518 28254 net.cpp:380] slicer_conv -> score1
I0713 10:06:50.936528 28254 net.cpp:380] slicer_conv -> score2
…
I0713 10:06:50.937047 28254 net.cpp:380] slicer_conv -> score57
I0713 10:06:50.937054 28254 net.cpp:380] slicer_conv -> score58
I0713 10:06:50.937062 28254 net.cpp:380] slicer_conv -> score59
I0713 10:06:50.937070 28254 net.cpp:380] slicer_conv -> score60
I0713 10:06:50.937078 28254 net.cpp:380] slicer_conv -> score61
I0713 10:06:50.937088 28254 net.cpp:380] slicer_conv -> score62
I0713 10:06:50.937095 28254 net.cpp:380] slicer_conv -> score63
I0713 10:06:50.937103 28254 net.cpp:380] slicer_conv -> score64
I0713 10:06:50.938370 28254 net.cpp:122] Setting up slicer_conv
I0713 10:06:50.938380 28254 net.cpp:129] Top shape: 1 1 96 128 (12288)
I0713 10:06:50.938385 28254 net.cpp:129] Top shape: 1 1 96 128 (12288)
I0713 10:06:50.938390 28254 net.cpp:129] Top shape: 1 1 96 128 (12288)
I0713 10:06:50.938395 28254 net.cpp:129] Top shape: 1 1 96 128 (12288)
I0713 10:06:50.938398 28254 net.cpp:129] Top shape: 1 1 96 128 (12288)
I0713 10:06:50.938402 28254 net.cpp:129] Top shape: 1 1 96 128 (12288)
I0713 10:06:50.938406 28254 net.cpp:129] Top shape: 1 1 96 128 (12288)
I0713 10:06:50.938410 28254 net.cpp:129] Top shape: 1 1 96 128 (12288)
I0713 10:06:50.938416 28254 net.cpp:129] Top shape: 1 1 96 128 (12288)
I0713 10:06:50.938419 28254 net.cpp:129] Top shape: 1 1 96 128 (12288)
I0713 10:06:50.938424 28254 net.cpp:129] Top shape: 1 1 96 128 (12288)
I0713 10:06:50.938428 28254 net.cpp:129] Top shape: 1 1 96 128 (12288)
I0713 10:06:50.938432 28254 net.cpp:129] Top shape: 1 1 96 128 (12288)
I0713 10:06:50.938436 28254 net.cpp:129] Top shape: 1 1 96 128 (12288)
I0713 10:06:50.938441 28254 net.cpp:129] Top shape: 1 1 96 128 (12288)
I0713 10:06:50.938446 28254 net.cpp:129] Top shape: 1 1 96 128 (12288)
I0713 10:06:50.938449 28254 net.cpp:129] Top shape: 1 1 96 128 (12288)
I0713 10:06:50.938454 28254 net.cpp:129] Top shape: 1 1 96 128 (12288)
I0713 10:06:50.938458 28254 net.cpp:129] Top shape: 1 1 96 128 (12288)
I0713 10:06:50.938462 28254 net.cpp:129] Top shape: 1 1 96 128 (12288)
I0713 10:06:50.938467 28254 net.cpp:129] Top shape: 1 1 96 128 (12288)
I0713 10:06:50.938472 28254 net.cpp:129] Top shape: 1 1 96 128 (12288)
I0713 10:06:50.938475 28254 net.cpp:129] Top shape: 1 1 96 128 (12288)
I0713 10:06:50.938479 28254 net.cpp:129] Top shape: 1 1 96 128 (12288)
I0713 10:06:50.938483 28254 net.cpp:129] Top shape: 1 1 96 128 (12288)
I0713 10:06:50.938488 28254 net.cpp:129] Top shape: 1 1 96 128 (12288)
I0713 10:06:50.938491 28254 net.cpp:129] Top shape: 1 1 96 128 (12288)
I0713 10:06:50.938496 28254 net.cpp:129] Top shape: 1 1 96 128 (12288)
I0713 10:06:50.938500 28254 net.cpp:129] Top shape: 1 1 96 128 (12288)
I0713 10:06:50.938504 28254 net.cpp:129] Top shape: 1 1 96 128 (12288)
I0713 10:06:50.938508 28254 net.cpp:129] Top shape: 1 1 96 128 (12288)
I0713 10:06:50.938513 28254 net.cpp:129] Top shape: 1 1 96 128 (12288)
I0713 10:06:50.938518 28254 net.cpp:129] Top shape: 1 1 96 128 (12288)
I0713 10:06:50.938521 28254 net.cpp:129] Top shape: 1 1 96 128 (12288)
I0713 10:06:50.938525 28254 net.cpp:129] Top shape: 1 1 96 128 (12288)
I0713 10:06:50.938529 28254 net.cpp:129] Top shape: 1 1 96 128 (12288)
I0713 10:06:50.938534 28254 net.cpp:129] Top shape: 1 1 96 128 (12288)
I0713 10:06:50.938537 28254 net.cpp:129] Top shape: 1 1 96 128 (12288)
I0713 10:06:50.938541 28254 net.cpp:129] Top shape: 1 1 96 128 (12288)
I0713 10:06:50.938545 28254 net.cpp:129] Top shape: 1 1 96 128 (12288)
I0713 10:06:50.938550 28254 net.cpp:129] Top shape: 1 1 96 128 (12288)
I0713 10:06:50.938562 28254 net.cpp:129] Top shape: 1 1 96 128 (12288)
I0713 10:06:50.938567 28254 net.cpp:129] Top shape: 1 1 96 128 (12288)
I0713 10:06:50.938571 28254 net.cpp:129] Top shape: 1 1 96 128 (12288)
I0713 10:06:50.938575 28254 net.cpp:129] Top shape: 1 1 96 128 (12288)
I0713 10:06:50.938580 28254 net.cpp:129] Top shape: 1 1 96 128 (12288)
I0713 10:06:50.938583 28254 net.cpp:129] Top shape: 1 1 96 128 (12288)
I0713 10:06:50.938588 28254 net.cpp:129] Top shape: 1 1 96 128 (12288)
I0713 10:06:50.938592 28254 net.cpp:129] Top shape: 1 1 96 128 (12288)
I0713 10:06:50.938596 28254 net.cpp:129] Top shape: 1 1 96 128 (12288)
I0713 10:06:50.938601 28254 net.cpp:129] Top shape: 1 1 96 128 (12288)
I0713 10:06:50.938604 28254 net.cpp:129] Top shape: 1 1 96 128 (12288)
I0713 10:06:50.938608 28254 net.cpp:129] Top shape: 1 1 96 128 (12288)
I0713 10:06:50.938613 28254 net.cpp:129] Top shape: 1 1 96 128 (12288)
I0713 10:06:50.938617 28254 net.cpp:129] Top shape: 1 1 96 128 (12288)
I0713 10:06:50.938621 28254 net.cpp:129] Top shape: 1 1 96 128 (12288)
I0713 10:06:50.938626 28254 net.cpp:129] Top shape: 1 1 96 128 (12288)
I0713 10:06:50.938629 28254 net.cpp:129] Top shape: 1 1 96 128 (12288)
I0713 10:06:50.938634 28254 net.cpp:129] Top shape: 1 1 96 128 (12288)
I0713 10:06:50.938638 28254 net.cpp:129] Top shape: 1 1 96 128 (12288)
I0713 10:06:50.938642 28254 net.cpp:129] Top shape: 1 1 96 128 (12288)
I0713 10:06:50.938647 28254 net.cpp:129] Top shape: 1 1 96 128 (12288)
I0713 10:06:50.938649 28254 net.cpp:129] Top shape: 1 1 96 128 (12288)
I0713 10:06:50.938653 28254 net.cpp:129] Top shape: 1 1 96 128 (12288)
I0713 10:06:50.938657 28254 net.cpp:137] Memory required for data: 1944207360
I0713 10:06:50.938661 28254 layer_factory.hpp:77] Creating layer sumscore
I0713 10:06:50.938674 28254 net.cpp:84] Creating Layer sumscore
I0713 10:06:50.938678 28254 net.cpp:406] sumscore <- score1
I0713 10:06:50.938683 28254 net.cpp:406] sumscore <- score2
I0713 10:06:50.938688 28254 net.cpp:406] sumscore <- score3
…
