…
I0727 16:15:53.307862 24173 net.cpp:51] Initializing net from parameters: 
name: "crowd_counting"
state {
  phase: TRAIN
  level: 0
  stage: ""
}
layer {
  name: "data"
  type: "Data"
  top: "data"
  include {
    phase: TRAIN
  }
  data_param {
    source: "/home/peiyong/Work/Zenglin/szl/ShanghaiTech/partA/train_8/image_lmdb"
    batch_size: 1
    backend: LMDB
  }
}
layer {
  name: "label"
  type: "Data"
  top: "label"
  include {
    phase: TRAIN
  }
  data_param {
    source: "/home/peiyong/Work/Zenglin/szl/ShanghaiTech/partA/train_8/dmap_lmdb"
    batch_size: 1
    backend: LMDB
  }
}
layer {
  name: "conv1_1"
  type: "Convolution"
  bottom: "data"
  top: "conv1_1"
  param {
    lr_mult: 0.1
    decay_mult: 1
  }
  param {
    lr_mult: 0.2
    decay_mult: 0
  }
  convolution_param {
    num_output: 64
    pad: 1
    kernel_size: 3
    weight_filler {
      type: "gaussian"
      std: 0.01
    }
    bias_filler {
      type: "constant"
      value: 0
    }
  }
}
layer {
  name: "relu1_1"
  type: "ReLU"
  bottom: "conv1_1"
  top: "conv1_1"
}
layer {
  name: "conv1_2"
  type: "Convolution"
  bottom: "conv1_1"
  top: "conv1_2"
  param {
    lr_mult: 0.1
    decay_mult: 1
  }
  param {
    lr_mult: 0.2
    decay_mult: 0
  }
  convolution_param {
    num_output: 64
    pad: 1
    kernel_size: 3
    weight_filler {
      type: "gaussian"
      std: 0.01
    }
    bias_filler {
      type: "constant"
      value: 0
    }
  }
}
layer {
  name: "relu1_2"
  type: "ReLU"
  bottom: "conv1_2"
  top: "conv1_2"
}
layer {
  name: "pool1"
  type: "Pooling"
  bottom: "conv1_2"
  top: "pool1"
  pooling_param {
    pool: MAX
    kernel_size: 2
    stride: 2
  }
}
layer {
  name: "conv2_1"
  type: "Convolution"
  bottom: "pool1"
  top: "conv2_1"
  param {
    lr_mult: 0.1
    decay_mult: 1
  }
  param {
    lr_mult: 0.2
    decay_mult: 0
  }
  convolution_param {
    num_output: 128
    pad: 1
    kernel_size: 3
    weight_filler {
      type: "gaussian"
      std: 0.01
    }
    bias_filler {
      type: "constant"
      value: 0
    }
  }
}
layer {
  name: "relu2_1"
  type: "ReLU"
  bottom: "conv2_1"
  top: "conv2_1"
}
layer {
  name: "conv2_2"
  type: "Convolution"
  bottom: "conv2_1"
  top: "conv2_2"
  param {
    lr_mult: 0.1
    decay_mult: 1
  }
  param {
    lr_mult: 0.2
    decay_mult: 0
  }
  convolution_param {
    num_output: 128
    pad: 1
    kernel_size: 3
    weight_filler {
      type: "gaussian"
      std: 0.01
    }
    bias_filler {
      type: "constant"
      value: 0
    }
  }
}
layer {
  name: "relu2_2"
  type: "ReLU"
  bottom: "conv2_2"
  top: "conv2_2"
}
layer {
  name: "pool2"
  type: "Pooling"
  bottom: "conv2_2"
  top: "pool2"
  pooling_param {
    pool: MAX
    kernel_size: 2
    stride: 2
  }
}
layer {
  name: "conv3_1"
  type: "Convolution"
  bottom: "pool2"
  top: "conv3_1"
  param {
    lr_mult: 0.1
    decay_mult: 1
  }
  param {
    lr_mult: 0.2
    decay_mult: 0
  }
  convolution_param {
    num_output: 256
    pad: 1
    kernel_size: 3
    weight_filler {
      type: "gaussian"
      std: 0.01
    }
    bias_filler {
      type: "constant"
      value: 0
    }
  }
}
layer {
  name: "relu3_1"
  type: "ReLU"
  bottom: "conv3_1"
  top: "conv3_1"
}
layer {
  name: "conv3_2"
  type: "Convolution"
  bottom: "conv3_1"
  top: "conv3_2"
  param {
    lr_mult: 0.1
    decay_mult: 1
  }
  param {
    lr_mult: 0.2
    decay_mult: 0
  }
  convolution_param {
    num_output: 256
    pad: 1
    kernel_size: 3
    weight_filler {
      type: "gaussian"
      std: 0.01
    }
    bias_filler {
      type: "constant"
      value: 0
    }
  }
}
layer {
  name: "relu3_2"
  type: "ReLU"
  bottom: "conv3_2"
  top: "conv3_2"
}
layer {
  name: "conv3_3"
  type: "Convolution"
  bottom: "conv3_2"
  top: "conv3_3"
  param {
    lr_mult: 0.1
    decay_mult: 1
  }
  param {
    lr_mult: 0.2
    decay_mult: 0
  }
  convolution_param {
    num_output: 256
    pad: 1
    kernel_size: 3
    weight_filler {
      type: "gaussian"
      std: 0.01
    }
    bias_filler {
      type: "constant"
      value: 0
    }
  }
}
layer {
  name: "relu3_3"
  type: "ReLU"
  bottom: "conv3_3"
  top: "conv3_3"
}
layer {
  name: "pool3"
  type: "Pooling"
  bottom: "conv3_3"
  top: "pool3"
  pooling_param {
    pool: MAX
    kernel_size: 2
    stride: 2
  }
}
layer {
  name: "conv4_1"
  type: "Convolution"
  bottom: "pool3"
  top: "conv4_1"
  param {
    lr_mult: 0.1
    decay_mult: 1
  }
  param {
    lr_mult: 0.2
    decay_mult: 0
  }
  convolution_param {
    num_output: 512
    pad: 1
    kernel_size: 3
    weight_filler {
      type: "gaussian"
      std: 0.01
    }
    bias_filler {
      type: "constant"
      value: 0
    }
  }
}
layer {
  name: "relu4_1"
  type: "ReLU"
  bottom: "conv4_1"
  top: "conv4_1"
}
layer {
  name: "conv4_2"
  type: "Convolution"
  bottom: "conv4_1"
  top: "conv4_2"
  param {
    lr_mult: 0.1
    decay_mult: 1
  }
  param {
    lr_mult: 0.2
    decay_mult: 0
  }
  convolution_param {
    num_output: 512
    pad: 1
    kernel_size: 3
    weight_filler {
      type: "gaussian"
      std: 0.01
    }
    bias_filler {
      type: "constant"
      value: 0
    }
  }
}
layer {
  name: "relu4_2"
  type: "ReLU"
  bottom: "conv4_2"
  top: "conv4_2"
}
layer {
  name: "conv4_3"
  type: "Convolution"
  bottom: "conv4_2"
  top: "conv4_3"
  param {
    lr_mult: 0.1
    decay_mult: 1
  }
  param {
    lr_mult: 0.2
    decay_mult: 0
  }
  convolution_param {
    num_output: 512
    pad: 1
    kernel_size: 3
    weight_filler {
      type: "gaussian"
      std: 0.01
    }
    bias_filler {
      type: "constant"
      value: 0
    }
  }
}
layer {
  name: "relu4_3"
  type: "ReLU"
  bottom: "conv4_3"
  top: "conv4_3"
}
layer {
  name: "pool4"
  type: "Pooling"
  bottom: "conv4_3"
  top: "pool4"
  pooling_param {
    pool: MAX
    kernel_size: 3
    stride: 1
    pad: 1
  }
}
layer {
  name: "conv5_1"
  type: "Convolution"
  bottom: "pool4"
  top: "conv5_1"
  param {
    lr_mult: 0.1
    decay_mult: 1
  }
  param {
    lr_mult: 0.2
    decay_mult: 0
  }
  convolution_param {
    num_output: 512
    pad: 2
    kernel_size: 3
    weight_filler {
      type: "gaussian"
      std: 0.01
    }
    bias_filler {
      type: "constant"
      value: 0
    }
    dilation: 2
  }
}
layer {
  name: "relu5_1"
  type: "ReLU"
  bottom: "conv5_1"
  top: "conv5_1"
}
layer {
  name: "conv5_2"
  type: "Convolution"
  bottom: "conv5_1"
  top: "conv5_2"
  param {
    lr_mult: 0.1
    decay_mult: 1
  }
  param {
    lr_mult: 0.2
    decay_mult: 0
  }
  convolution_param {
    num_output: 512
    pad: 2
    kernel_size: 3
    weight_filler {
      type: "gaussian"
      std: 0.01
    }
    bias_filler {
      type: "constant"
      value: 0
    }
    dilation: 2
  }
}
layer {
  name: "relu5_2"
  type: "ReLU"
  bottom: "conv5_2"
  top: "conv5_2"
}
layer {
  name: "conv5_3"
  type: "Convolution"
  bottom: "conv5_2"
  top: "conv5_3"
  param {
    lr_mult: 0.1
    decay_mult: 1
  }
  param {
    lr_mult: 0.2
    decay_mult: 0
  }
  convolution_param {
    num_output: 512
    pad: 2
    kernel_size: 3
    weight_filler {
      type: "gaussian"
      std: 0.01
    }
    bias_filler {
      type: "constant"
      value: 0
    }
    dilation: 2
  }
}
layer {
  name: "relu5_3"
  type: "ReLU"
  bottom: "conv5_3"
  top: "conv5_3"
}
layer {
  name: "conv_score"
  type: "Convolution"
  bottom: "conv5_3"
  top: "conv_score"
  param {
    lr_mult: 10
    decay_mult: 1
  }
  param {
    lr_mult: 20
    decay_mult: 0
  }
  convolution_param {
    num_output: 64
    pad: 0
    kernel_size: 1
    group: 64
    stride: 1
    weight_filler {
      type: "constant"
      value: 0.0001
    }
    bias_filler {
      type: "constant"
      value: 0
    }
  }
}
layer {
  name: "relu_score"
  type: "ReLU"
  bottom: "conv_score"
  top: "conv_score"
}
layer {
  name: "slicer_conv"
  type: "Slice"
  bottom: "conv_score"
  top: "score1"
  top: "score2"
  top: "score3"
  top: "score4"
  top: "score5"
  top: "score6"
  top: "score7"
  top: "score8"
  top: "score9"
  top: "score10"
  top: "score11"
  top: "score12"
  top: "score13"
  top: "score14"
  top: "score15"
  top: "score16"
  top: "score17"
  top: "score18"
  top: "score19"
  top: "score20"
  top: "score21"
  top: "score22"
  top: "score23"
  top: "score24"
  top: "score25"
  top: "score26"
  top: "score27"
  top: "score28"
  top: "score29"
  top: "score30"
  top: "score31"
  top: "score32"
  top: "score33"
  top: "score34"
  top: "score35"
  top: "score36"
  top: "score37"
  top: "score38"
  top: "score39"
  top: "score40"
  top: "score41"
  top: "score42"
  top: "score43"
  top: "score44"
  top: "score45"
  top: "score46"
  top: "score47"
  top: "score48"
  top: "score49"
  top: "score50"
  top: "score51"
  top: "score52"
  top: "score53"
  top: "score54"
  top: "score55"
  top: "score56"
  top: "score57"
  top: "score58"
  top: "score59"
  top: "score60"
  top: "score61"
  top: "score62"
  top: "score63"
  top: "score64"
  slice_param {
    axis: 1
  }
}
layer {
  name: "sumscore"
  type: "Eltwise"
  bottom: "score1"
  bottom: "score2"
  bottom: "score3"
  bottom: "score4"
  bottom: "score5"
  bottom: "score6"
  bottom: "score7"
  bottom: "score8"
  bottom: "score9"
  bottom: "score10"
  bottom: "score11"
  bottom: "score12"
  bottom: "score13"
  bottom: "score14"
  bottom: "score15"
  bottom: "score16"
  bottom: "score17"
  bottom: "score18"
  bottom: "score19"
  bottom: "score20"
  bottom: "score21"
  bottom: "score22"
  bottom: "score23"
  bottom: "score24"
  bottom: "score25"
  bottom: "score26"
  bottom: "score27"
  bottom: "score28"
  bottom: "score29"
  bottom: "score30"
  bottom: "score31"
  bottom: "score32"
  bottom: "score33"
  bottom: "score34"
  bottom: "score35"
  bottom: "score36"
  bottom: "score37"
  bottom: "score38"
  bottom: "score39"
  bottom: "score40"
  bottom: "score41"
  bottom: "score42"
  bottom: "score43"
  bottom: "score44"
  bottom: "score45"
  bottom: "score46"
  bottom: "score47"
  bottom: "score48"
  bottom: "score49"
  bottom: "score50"
  bottom: "score51"
  bottom: "score52"
  bottom: "score53"
  bottom: "score54"
  bottom: "score55"
  bottom: "score56"
  bottom: "score57"
  bottom: "score58"
  bottom: "score59"
  bottom: "score60"
  bottom: "score61"
  bottom: "score62"
  bottom: "score63"
  bottom: "score64"
  top: "sumscore"
  eltwise_param {
    operation: SUM
  }
}
layer {
  name: "loss1"
  type: "NCLLoss"
  bottom: "score1"
  bottom: "label"
  bottom: "sumscore"
  top: "loss1"
  include {
    phase: TRAIN
  }
  ncl_loss_param {
    lambda: 0.99
    net_num: 64
  }
}
layer {
  name: "loss2"
  type: "NCLLoss"
  bottom: "score2"
  bottom: "label"
  bottom: "sumscore"
  top: "loss2"
  include {
    phase: TRAIN
  }
  ncl_loss_param {
    lambda: 0.99
    net_num: 64
  }
}
layer {
  name: "loss3"
  type: "NCLLoss"
  bottom: "score3"
  bottom: "label"
  bottom: "sumscore"
  top: "loss3"
  include {
    phase: TRAIN
  }
  ncl_loss_param {
    lambda: 0.99
    net_num: 64
  }
}
layer {
  name: "loss4"
  type: "NCLLoss"
  bottom: "score4"
  bottom: "label"
  bottom: "sumscore"
  top: "loss4"
  include {
    phase: TRAIN
  }
  ncl_loss_param {
    lambda: 0.99
    net_num: 64
  }
}
layer {
  name: "loss5"
  type: "NCLLoss"
  bottom: "score5"
  bottom: "label"
  bottom: "sumscore"
  top: "loss5"
  include {
    phase: TRAIN
  }
  ncl_loss_param {
    lambda: 0.99
    net_num: 64
  }
}
layer {
  name: "loss6"
  type: "NCLLoss"
  bottom: "score6"
  bottom: "label"
  bottom: "sumscore"
  top: "loss6"
  include {
    phase: TRAIN
  }
  ncl_loss_param {
    lambda: 0.99
    net_num: 64
  }
}
layer {
  name: "loss7"
  type: "NCLLoss"
  bottom: "score7"
  bottom: "label"
  bottom: "sumscore"
  top: "loss7"
  include {
    phase: TRAIN
  }
  ncl_loss_param {
    lambda: 0.99
    net_num: 64
  }
}
layer {
  name: "loss8"
  type: "NCLLoss"
  bottom: "score8"
  bottom: "label"
  bottom: "sumscore"
  top: "loss8"
  include {
    phase: TRAIN
  }
  ncl_loss_param {
    lambda: 0.99
    net_num: 64
  }
}
layer {
  name: "loss9"
  type: "NCLLoss"
  bottom: "score9"
  bottom: "label"
  bottom: "sumscore"
  top: "loss9"
  include {
    phase: TRAIN
  }
  ncl_loss_param {
    lambda: 0.99
    net_num: 64
  }
}
layer {
  name: "loss10"
  type: "NCLLoss"
  bottom: "score10"
  bottom: "label"
  bottom: "sumscore"
  top: "loss10"
  include {
    phase: TRAIN
  }
  ncl_loss_param {
    lambda: 0.99
    net_num: 64
  }
}
layer {
  name: "loss11"
  type: "NCLLoss"
  bottom: "score11"
  bottom: "label"
  bottom: "sumscore"
  top: "loss11"
  include {
    phase: TRAIN
  }
  ncl_loss_param {
    lambda: 0.99
    net_num: 64
  }
}
layer {
  name: "loss12"
  type: "NCLLoss"
  bottom: "score12"
  bottom: "label"
  bottom: "sumscore"
  top: "loss12"
  include {
    phase: TRAIN
  }
  ncl_loss_param {
    lambda: 0.99
    net_num: 64
  }
}
layer {
  name: "loss13"
  type: "NCLLoss"
  bottom: "score13"
  bottom: "label"
  bottom: "sumscore"
  top: "loss13"
  include {
    phase: TRAIN
  }
  ncl_loss_param {
    lambda: 0.99
    net_num: 64
  }
}
layer {
  name: "loss14"
  type: "NCLLoss"
  bottom: "score14"
  bottom: "label"
  bottom: "sumscore"
  top: "loss14"
  include {
    phase: TRAIN
  }
  ncl_loss_param {
    lambda: 0.99
    net_num: 64
  }
}
layer {
  name: "loss15"
  type: "NCLLoss"
  bottom: "score15"
  bottom: "label"
  bottom: "sumscore"
  top: "loss15"
  include {
    phase: TRAIN
  }
  ncl_loss_param {
    lambda: 0.99
    net_num: 64
  }
}
layer {
  name: "loss16"
  type: "NCLLoss"
  bottom: "score16"
  bottom: "label"
  bottom: "sumscore"
  top: "loss16"
  include {
    phase: TRAIN
  }
  ncl_loss_param {
    lambda: 0.99
    net_num: 64
  }
}
layer {
  name: "loss17"
  type: "NCLLoss"
  bottom: "score17"
  bottom: "label"
  bottom: "sumscore"
  top: "loss17"
  include {
    phase: TRAIN
  }
  ncl_loss_param {
    lambda: 0.99
    net_num: 64
  }
}
layer {
  name: "loss18"
  type: "NCLLoss"
  bottom: "score18"
  bottom: "label"
  bottom: "sumscore"
  top: "loss18"
  include {
    phase: TRAIN
  }
  ncl_loss_param {
    lambda: 0.99
    net_num: 64
  }
}
layer {
  name: "loss19"
  type: "NCLLoss"
  bottom: "score19"
  bottom: "label"
  bottom: "sumscore"
  top: "loss19"
  include {
    phase: TRAIN
  }
  ncl_loss_param {
    lambda: 0.99
    net_num: 64
  }
}
layer {
  name: "loss20"
  type: "NCLLoss"
  bottom: "score20"
  bottom: "label"
  bottom: "sumscore"
  top: "loss20"
  include {
    phase: TRAIN
  }
  ncl_loss_param {
    lambda: 0.99
    net_num: 64
  }
}
layer {
  name: "loss21"
  type: "NCLLoss"
  bottom: "score21"
  bottom: "label"
  bottom: "sumscore"
  top: "loss21"
  include {
    phase: TRAIN
  }
  ncl_loss_param {
    lambda: 0.99
    net_num: 64
  }
}
layer {
  name: "loss22"
  type: "NCLLoss"
  bottom: "score22"
  bottom: "label"
  bottom: "sumscore"
  top: "loss22"
  include {
    phase: TRAIN
  }
  ncl_loss_param {
    lambda: 0.99
    net_num: 64
  }
}
layer {
  name: "loss23"
  type: "NCLLoss"
  bottom: "score23"
  bottom: "label"
  bottom: "sumscore"
  top: "loss23"
  include {
    phase: TRAIN
  }
  ncl_loss_param {
    lambda: 0.99
    net_num: 64
  }
}
layer {
  name: "loss24"
  type: "NCLLoss"
  bottom: "score24"
  bottom: "label"
  bottom: "sumscore"
  top: "loss24"
  include {
    phase: TRAIN
  }
  ncl_loss_param {
    lambda: 0.99
    net_num: 64
  }
}
layer {
  name: "loss25"
  type: "NCLLoss"
  bottom: "score25"
  bottom: "label"
  bottom: "sumscore"
  top: "loss25"
  include {
    phase: TRAIN
  }
  ncl_loss_param {
    lambda: 0.99
    net_num: 64
  }
}
layer {
  name: "loss26"
  type: "NCLLoss"
  bottom: "score26"
  bottom: "label"
  bottom: "sumscore"
  top: "loss26"
  include {
    phase: TRAIN
  }
  ncl_loss_param {
    lambda: 0.99
    net_num: 64
  }
}
layer {
  name: "loss27"
  type: "NCLLoss"
  bottom: "score27"
  bottom: "label"
  bottom: "sumscore"
  top: "loss27"
  include {
    phase: TRAIN
  }
  ncl_loss_param {
    lambda: 0.99
    net_num: 64
  }
}
layer {
  name: "loss28"
  type: "NCLLoss"
  bottom: "score28"
  bottom: "label"
  bottom: "sumscore"
  top: "loss28"
  include {
    phase: TRAIN
  }
  ncl_loss_param {
    lambda: 0.99
    net_num: 64
  }
}
layer {
  name: "loss29"
  type: "NCLLoss"
  bottom: "score29"
  bottom: "label"
  bottom: "sumscore"
  top: "loss29"
  include {
    phase: TRAIN
  }
  ncl_loss_param {
    lambda: 0.99
    net_num: 64
  }
}
layer {
  name: "loss30"
  type: "NCLLoss"
  bottom: "score30"
  bottom: "label"
  bottom: "sumscore"
  top: "loss30"
  include {
    phase: TRAIN
  }
  ncl_loss_param {
    lambda: 0.99
    net_num: 64
  }
}
layer {
  name: "loss31"
  type: "NCLLoss"
  bottom: "score31"
  bottom: "label"
  bottom: "sumscore"
  top: "loss31"
  include {
    phase: TRAIN
  }
  ncl_loss_param {
    lambda: 0.99
    net_num: 64
  }
}
layer {
  name: "loss32"
  type: "NCLLoss"
  bottom: "score32"
  bottom: "label"
  bottom: "sumscore"
  top: "loss32"
  include {
    phase: TRAIN
  }
  ncl_loss_param {
    lambda: 0.99
    net_num: 64
  }
}
layer {
  name: "loss33"
  type: "NCLLoss"
  bottom: "score33"
  bottom: "label"
  bottom: "sumscore"
  top: "loss33"
  include {
    phase: TRAIN
  }
  ncl_loss_param {
    lambda: 0.99
    net_num: 64
  }
}
layer {
  name: "loss34"
  type: "NCLLoss"
  bottom: "score34"
  bottom: "label"
  bottom: "sumscore"
  top: "loss34"
  include {
    phase: TRAIN
  }
  ncl_loss_param {
    lambda: 0.99
    net_num: 64
  }
}
layer {
  name: "loss35"
  type: "NCLLoss"
  bottom: "score35"
  bottom: "label"
  bottom: "sumscore"
  top: "loss35"
  include {
    phase: TRAIN
  }
  ncl_loss_param {
    lambda: 0.99
    net_num: 64
  }
}
layer {
  name: "loss36"
  type: "NCLLoss"
  bottom: "score36"
  bottom: "label"
  bottom: "sumscore"
  top: "loss36"
  include {
    phase: TRAIN
  }
  ncl_loss_param {
    lambda: 0.99
    net_num: 64
  }
}
layer {
  name: "loss37"
  type: "NCLLoss"
  bottom: "score37"
  bottom: "label"
  bottom: "sumscore"
  top: "loss37"
  include {
    phase: TRAIN
  }
  ncl_loss_param {
    lambda: 0.99
    net_num: 64
  }
}
layer {
  name: "loss38"
  type: "NCLLoss"
  bottom: "score38"
  bottom: "label"
  bottom: "sumscore"
  top: "loss38"
  include {
    phase: TRAIN
  }
  ncl_loss_param {
    lambda: 0.99
    net_num: 64
  }
}
layer {
  name: "loss39"
  type: "NCLLoss"
  bottom: "score39"
  bottom: "label"
  bottom: "sumscore"
  top: "loss39"
  include {
    phase: TRAIN
  }
  ncl_loss_param {
    lambda: 0.99
    net_num: 64
  }
}
layer {
  name: "loss40"
  type: "NCLLoss"
  bottom: "score40"
  bottom: "label"
  bottom: "sumscore"
  top: "loss40"
  include {
    phase: TRAIN
  }
  ncl_loss_param {
    lambda: 0.99
    net_num: 64
  }
}
layer {
  name: "loss41"
  type: "NCLLoss"
  bottom: "score41"
  bottom: "label"
  bottom: "sumscore"
  top: "loss41"
  include {
    phase: TRAIN
  }
  ncl_loss_param {
    lambda: 0.99
    net_num: 64
  }
}
layer {
  name: "loss42"
  type: "NCLLoss"
  bottom: "score42"
  bottom: "label"
  bottom: "sumscore"
  top: "loss42"
  include {
    phase: TRAIN
  }
  ncl_loss_param {
    lambda: 0.99
    net_num: 64
  }
}
layer {
  name: "loss43"
  type: "NCLLoss"
  bottom: "score43"
  bottom: "label"
  bottom: "sumscore"
  top: "loss43"
  include {
    phase: TRAIN
  }
  ncl_loss_param {
    lambda: 0.99
    net_num: 64
  }
}
layer {
  name: "loss44"
  type: "NCLLoss"
  bottom: "score44"
  bottom: "label"
  bottom: "sumscore"
  top: "loss44"
  include {
    phase: TRAIN
  }
  ncl_loss_param {
    lambda: 0.99
    net_num: 64
  }
}
layer {
  name: "loss45"
  type: "NCLLoss"
  bottom: "score45"
  bottom: "label"
  bottom: "sumscore"
  top: "loss45"
  include {
    phase: TRAIN
  }
  ncl_loss_param {
    lambda: 0.99
    net_num: 64
  }
}
layer {
  name: "loss46"
  type: "NCLLoss"
  bottom: "score46"
  bottom: "label"
  bottom: "sumscore"
  top: "loss46"
  include {
    phase: TRAIN
  }
  ncl_loss_param {
    lambda: 0.99
    net_num: 64
  }
}
layer {
  name: "loss47"
  type: "NCLLoss"
  bottom: "score47"
  bottom: "label"
  bottom: "sumscore"
  top: "loss47"
  include {
    phase: TRAIN
  }
  ncl_loss_param {
    lambda: 0.99
    net_num: 64
  }
}
layer {
  name: "loss48"
  type: "NCLLoss"
  bottom: "score48"
  bottom: "label"
  bottom: "sumscore"
  top: "loss48"
  include {
    phase: TRAIN
  }
  ncl_loss_param {
    lambda: 0.99
    net_num: 64
  }
}
layer {
  name: "loss49"
  type: "NCLLoss"
  bottom: "score49"
  bottom: "label"
  bottom: "sumscore"
  top: "loss49"
  include {
    phase: TRAIN
  }
  ncl_loss_param {
    lambda: 0.99
    net_num: 64
  }
}
layer {
  name: "loss50"
  type: "NCLLoss"
  bottom: "score50"
  bottom: "label"
  bottom: "sumscore"
  top: "loss50"
  include {
    phase: TRAIN
  }
  ncl_loss_param {
    lambda: 0.99
    net_num: 64
  }
}
layer {
  name: "loss51"
  type: "NCLLoss"
  bottom: "score51"
  bottom: "label"
  bottom: "sumscore"
  top: "loss51"
  include {
    phase: TRAIN
  }
  ncl_loss_param {
    lambda: 0.99
    net_num: 64
  }
}
layer {
  name: "loss52"
  type: "NCLLoss"
  bottom: "score52"
  bottom: "label"
  bottom: "sumscore"
  top: "loss52"
  include {
    phase: TRAIN
  }
  ncl_loss_param {
    lambda: 0.99
    net_num: 64
  }
}
layer {
  name: "loss53"
  type: "NCLLoss"
  bottom: "score53"
  bottom: "label"
  bottom: "sumscore"
  top: "loss53"
  include {
    phase: TRAIN
  }
  ncl_loss_param {
    lambda: 0.99
    net_num: 64
  }
}
layer {
  name: "loss54"
  type: "NCLLoss"
  bottom: "score54"
  bottom: "label"
  bottom: "sumscore"
  top: "loss54"
  include {
    phase: TRAIN
  }
  ncl_loss_param {
    lambda: 0.99
    net_num: 64
  }
}
layer {
  name: "loss55"
  type: "NCLLoss"
  bottom: "score55"
  bottom: "label"
  bottom: "sumscore"
  top: "loss55"
  include {
    phase: TRAIN
  }
  ncl_loss_param {
    lambda: 0.99
    net_num: 64
  }
}
layer {
  name: "loss56"
  type: "NCLLoss"
  bottom: "score56"
  bottom: "label"
  bottom: "sumscore"
  top: "loss56"
  include {
    phase: TRAIN
  }
  ncl_loss_param {
    lambda: 0.99
    net_num: 64
  }
}
layer {
  name: "loss57"
  type: "NCLLoss"
  bottom: "score57"
  bottom: "label"
  bottom: "sumscore"
  top: "loss57"
  include {
    phase: TRAIN
  }
  ncl_loss_param {
    lambda: 0.99
    net_num: 64
  }
}
layer {
  name: "loss58"
  type: "NCLLoss"
  bottom: "score58"
  bottom: "label"
  bottom: "sumscore"
  top: "loss58"
  include {
    phase: TRAIN
  }
  ncl_loss_param {
    lambda: 0.99
    net_num: 64
  }
}
layer {
  name: "loss59"
  type: "NCLLoss"
  bottom: "score59"
  bottom: "label"
  bottom: "sumscore"
  top: "loss59"
  include {
    phase: TRAIN
  }
  ncl_loss_param {
    lambda: 0.99
    net_num: 64
  }
}
layer {
  name: "loss60"
  type: "NCLLoss"
  bottom: "score60"
  bottom: "label"
  bottom: "sumscore"
  top: "loss60"
  include {
    phase: TRAIN
  }
  ncl_loss_param {
    lambda: 0.99
    net_num: 64
  }
}
layer {
  name: "loss61"
  type: "NCLLoss"
  bottom: "score61"
  bottom: "label"
  bottom: "sumscore"
  top: "loss61"
  include {
    phase: TRAIN
  }
  ncl_loss_param {
    lambda: 0.99
    net_num: 64
  }
}
layer {
  name: "loss62"
  type: "NCLLoss"
  bottom: "score62"
  bottom: "label"
  bottom: "sumscore"
  top: "loss62"
  include {
    phase: TRAIN
  }
  ncl_loss_param {
    lambda: 0.99
    net_num: 64
  }
}
layer {
  name: "loss63"
  type: "NCLLoss"
  bottom: "score63"
  bottom: "label"
  bottom: "sumscore"
  top: "loss63"
  include {
    phase: TRAIN
  }
  ncl_loss_param {
    lambda: 0.99
    net_num: 64
  }
}
layer {
  name: "loss64"
  type: "NCLLoss"
  bottom: "score64"
  bottom: "label"
  bottom: "sumscore"
  top: "loss64"
  include {
    phase: TRAIN
  }
  ncl_loss_param {
    lambda: 0.99
    net_num: 64
  }
}
I0727 16:15:53.310658 24173 layer_factory.hpp:77] Creating layer data
I0727 16:15:53.310752 24173 db_lmdb.cpp:35] Opened lmdb /home/peiyong/Work/Zenglin/szl/ShanghaiTech/partA/train_8/image_lmdb
I0727 16:15:53.310793 24173 net.cpp:84] Creating Layer data
I0727 16:15:53.310803 24173 net.cpp:380] data -> data
I0727 16:15:53.311877 24173 data_layer.cpp:45] output data size: 1,3,384,512
I0727 16:15:53.318388 24173 net.cpp:122] Setting up data
I0727 16:15:53.318408 24173 net.cpp:129] Top shape: 1 3 384 512 (589824)
I0727 16:15:53.318413 24173 net.cpp:137] Memory required for data: 2359296
I0727 16:15:53.318423 24173 layer_factory.hpp:77] Creating layer label
I0727 16:15:53.318473 24173 db_lmdb.cpp:35] Opened lmdb /home/peiyong/Work/Zenglin/szl/ShanghaiTech/partA/train_8/dmap_lmdb
I0727 16:15:53.318498 24173 net.cpp:84] Creating Layer label
I0727 16:15:53.318506 24173 net.cpp:380] label -> label
I0727 16:15:53.318608 24173 data_layer.cpp:45] output data size: 1,1,48,64
I0727 16:15:53.319586 24173 net.cpp:122] Setting up label
I0727 16:15:53.319602 24173 net.cpp:129] Top shape: 1 1 48 64 (3072)
I0727 16:15:53.319607 24173 net.cpp:137] Memory required for data: 2371584
I0727 16:15:53.319610 24173 layer_factory.hpp:77] Creating layer label_label_0_split
I0727 16:15:53.319627 24173 net.cpp:84] Creating Layer label_label_0_split
I0727 16:15:53.319633 24173 net.cpp:406] label_label_0_split <- label
I0727 16:15:53.319651 24173 net.cpp:380] label_label_0_split -> label_label_0_split_0
…
I0727 16:15:53.320544 24173 net.cpp:380] label_label_0_split -> label_label_0_split_58
I0727 16:15:53.320559 24173 net.cpp:380] label_label_0_split -> label_label_0_split_59
I0727 16:15:53.320574 24173 net.cpp:380] label_label_0_split -> label_label_0_split_60
I0727 16:15:53.320588 24173 net.cpp:380] label_label_0_split -> label_label_0_split_61
I0727 16:15:53.320603 24173 net.cpp:380] label_label_0_split -> label_label_0_split_62
I0727 16:15:53.320626 24173 net.cpp:380] label_label_0_split -> label_label_0_split_63
I0727 16:15:53.321214 24173 net.cpp:122] Setting up label_label_0_split
I0727 16:15:53.321224 24173 net.cpp:129] Top shape: 1 1 48 64 (3072)
I0727 16:15:53.321231 24173 net.cpp:129] Top shape: 1 1 48 64 (3072)
I0727 16:15:53.321238 24173 net.cpp:129] Top shape: 1 1 48 64 (3072)
I0727 16:15:53.321244 24173 net.cpp:129] Top shape: 1 1 48 64 (3072)
I0727 16:15:53.321250 24173 net.cpp:129] Top shape: 1 1 48 64 (3072)
I0727 16:15:53.321256 24173 net.cpp:129] Top shape: 1 1 48 64 (3072)
I0727 16:15:53.321262 24173 net.cpp:129] Top shape: 1 1 48 64 (3072)
I0727 16:15:53.321269 24173 net.cpp:129] Top shape: 1 1 48 64 (3072)
I0727 16:15:53.321275 24173 net.cpp:129] Top shape: 1 1 48 64 (3072)
I0727 16:15:53.321281 24173 net.cpp:129] Top shape: 1 1 48 64 (3072)
I0727 16:15:53.321287 24173 net.cpp:129] Top shape: 1 1 48 64 (3072)
I0727 16:15:53.321307 24173 net.cpp:129] Top shape: 1 1 48 64 (3072)
I0727 16:15:53.321316 24173 net.cpp:129] Top shape: 1 1 48 64 (3072)
I0727 16:15:53.321322 24173 net.cpp:129] Top shape: 1 1 48 64 (3072)
I0727 16:15:53.321328 24173 net.cpp:129] Top shape: 1 1 48 64 (3072)
I0727 16:15:53.321336 24173 net.cpp:129] Top shape: 1 1 48 64 (3072)
I0727 16:15:53.321341 24173 net.cpp:129] Top shape: 1 1 48 64 (3072)
I0727 16:15:53.321347 24173 net.cpp:129] Top shape: 1 1 48 64 (3072)
I0727 16:15:53.321353 24173 net.cpp:129] Top shape: 1 1 48 64 (3072)
I0727 16:15:53.321359 24173 net.cpp:129] Top shape: 1 1 48 64 (3072)
I0727 16:15:53.321367 24173 net.cpp:129] Top shape: 1 1 48 64 (3072)
I0727 16:15:53.321372 24173 net.cpp:129] Top shape: 1 1 48 64 (3072)
I0727 16:15:53.321378 24173 net.cpp:129] Top shape: 1 1 48 64 (3072)
I0727 16:15:53.321384 24173 net.cpp:129] Top shape: 1 1 48 64 (3072)
I0727 16:15:53.321390 24173 net.cpp:129] Top shape: 1 1 48 64 (3072)
I0727 16:15:53.321398 24173 net.cpp:129] Top shape: 1 1 48 64 (3072)
I0727 16:15:53.321403 24173 net.cpp:129] Top shape: 1 1 48 64 (3072)
I0727 16:15:53.321409 24173 net.cpp:129] Top shape: 1 1 48 64 (3072)
I0727 16:15:53.321416 24173 net.cpp:129] Top shape: 1 1 48 64 (3072)
I0727 16:15:53.321422 24173 net.cpp:129] Top shape: 1 1 48 64 (3072)
I0727 16:15:53.321429 24173 net.cpp:129] Top shape: 1 1 48 64 (3072)
I0727 16:15:53.321435 24173 net.cpp:129] Top shape: 1 1 48 64 (3072)
I0727 16:15:53.321441 24173 net.cpp:129] Top shape: 1 1 48 64 (3072)
I0727 16:15:53.321447 24173 net.cpp:129] Top shape: 1 1 48 64 (3072)
I0727 16:15:53.321454 24173 net.cpp:129] Top shape: 1 1 48 64 (3072)
I0727 16:15:53.321460 24173 net.cpp:129] Top shape: 1 1 48 64 (3072)
I0727 16:15:53.321466 24173 net.cpp:129] Top shape: 1 1 48 64 (3072)
I0727 16:15:53.321472 24173 net.cpp:129] Top shape: 1 1 48 64 (3072)
I0727 16:15:53.321478 24173 net.cpp:129] Top shape: 1 1 48 64 (3072)
I0727 16:15:53.321485 24173 net.cpp:129] Top shape: 1 1 48 64 (3072)
I0727 16:15:53.321491 24173 net.cpp:129] Top shape: 1 1 48 64 (3072)
I0727 16:15:53.321497 24173 net.cpp:129] Top shape: 1 1 48 64 (3072)
I0727 16:15:53.321503 24173 net.cpp:129] Top shape: 1 1 48 64 (3072)
I0727 16:15:53.321511 24173 net.cpp:129] Top shape: 1 1 48 64 (3072)
I0727 16:15:53.321516 24173 net.cpp:129] Top shape: 1 1 48 64 (3072)
I0727 16:15:53.321522 24173 net.cpp:129] Top shape: 1 1 48 64 (3072)
I0727 16:15:53.321528 24173 net.cpp:129] Top shape: 1 1 48 64 (3072)
I0727 16:15:53.321535 24173 net.cpp:129] Top shape: 1 1 48 64 (3072)
I0727 16:15:53.321542 24173 net.cpp:129] Top shape: 1 1 48 64 (3072)
I0727 16:15:53.321547 24173 net.cpp:129] Top shape: 1 1 48 64 (3072)
I0727 16:15:53.321553 24173 net.cpp:129] Top shape: 1 1 48 64 (3072)
I0727 16:15:53.321559 24173 net.cpp:129] Top shape: 1 1 48 64 (3072)
I0727 16:15:53.321565 24173 net.cpp:129] Top shape: 1 1 48 64 (3072)
I0727 16:15:53.321573 24173 net.cpp:129] Top shape: 1 1 48 64 (3072)
I0727 16:15:53.321578 24173 net.cpp:129] Top shape: 1 1 48 64 (3072)
I0727 16:15:53.321584 24173 net.cpp:129] Top shape: 1 1 48 64 (3072)
I0727 16:15:53.321590 24173 net.cpp:129] Top shape: 1 1 48 64 (3072)
I0727 16:15:53.321597 24173 net.cpp:129] Top shape: 1 1 48 64 (3072)
I0727 16:15:53.321604 24173 net.cpp:129] Top shape: 1 1 48 64 (3072)
I0727 16:15:53.321609 24173 net.cpp:129] Top shape: 1 1 48 64 (3072)
I0727 16:15:53.321615 24173 net.cpp:129] Top shape: 1 1 48 64 (3072)
I0727 16:15:53.321622 24173 net.cpp:129] Top shape: 1 1 48 64 (3072)
I0727 16:15:53.321629 24173 net.cpp:129] Top shape: 1 1 48 64 (3072)
I0727 16:15:53.321635 24173 net.cpp:129] Top shape: 1 1 48 64 (3072)
I0727 16:15:53.321640 24173 net.cpp:137] Memory required for data: 3158016
I0727 16:15:53.321645 24173 layer_factory.hpp:77] Creating layer conv1_1
I0727 16:15:53.321661 24173 net.cpp:84] Creating Layer conv1_1
I0727 16:15:53.321667 24173 net.cpp:406] conv1_1 <- data
I0727 16:15:53.321676 24173 net.cpp:380] conv1_1 -> conv1_1
I0727 16:15:53.584946 24173 net.cpp:122] Setting up conv1_1
I0727 16:15:53.585047 24173 net.cpp:129] Top shape: 1 64 384 512 (12582912)
I0727 16:15:53.585054 24173 net.cpp:137] Memory required for data: 53489664
I0727 16:15:53.585081 24173 layer_factory.hpp:77] Creating layer relu1_1
I0727 16:15:53.585095 24173 net.cpp:84] Creating Layer relu1_1
I0727 16:15:53.585103 24173 net.cpp:406] relu1_1 <- conv1_1
I0727 16:15:53.585111 24173 net.cpp:367] relu1_1 -> conv1_1 (in-place)
I0727 16:15:53.585289 24173 net.cpp:122] Setting up relu1_1
I0727 16:15:53.585300 24173 net.cpp:129] Top shape: 1 64 384 512 (12582912)
I0727 16:15:53.585311 24173 net.cpp:137] Memory required for data: 103821312
I0727 16:15:53.585317 24173 layer_factory.hpp:77] Creating layer conv1_2
I0727 16:15:53.585331 24173 net.cpp:84] Creating Layer conv1_2
I0727 16:15:53.585337 24173 net.cpp:406] conv1_2 <- conv1_1
I0727 16:15:53.585345 24173 net.cpp:380] conv1_2 -> conv1_2
I0727 16:15:53.588770 24173 net.cpp:122] Setting up conv1_2
I0727 16:15:53.588786 24173 net.cpp:129] Top shape: 1 64 384 512 (12582912)
I0727 16:15:53.588793 24173 net.cpp:137] Memory required for data: 154152960
I0727 16:15:53.588804 24173 layer_factory.hpp:77] Creating layer relu1_2
I0727 16:15:53.588811 24173 net.cpp:84] Creating Layer relu1_2
I0727 16:15:53.588817 24173 net.cpp:406] relu1_2 <- conv1_2
I0727 16:15:53.588824 24173 net.cpp:367] relu1_2 -> conv1_2 (in-place)
I0727 16:15:53.589001 24173 net.cpp:122] Setting up relu1_2
I0727 16:15:53.589012 24173 net.cpp:129] Top shape: 1 64 384 512 (12582912)
I0727 16:15:53.589017 24173 net.cpp:137] Memory required for data: 204484608
I0727 16:15:53.589023 24173 layer_factory.hpp:77] Creating layer pool1
I0727 16:15:53.589032 24173 net.cpp:84] Creating Layer pool1
I0727 16:15:53.589037 24173 net.cpp:406] pool1 <- conv1_2
I0727 16:15:53.589046 24173 net.cpp:380] pool1 -> pool1
I0727 16:15:53.589098 24173 net.cpp:122] Setting up pool1
I0727 16:15:53.589107 24173 net.cpp:129] Top shape: 1 64 192 256 (3145728)
I0727 16:15:53.589112 24173 net.cpp:137] Memory required for data: 217067520
I0727 16:15:53.589118 24173 layer_factory.hpp:77] Creating layer conv2_1
I0727 16:15:53.589130 24173 net.cpp:84] Creating Layer conv2_1
I0727 16:15:53.589135 24173 net.cpp:406] conv2_1 <- pool1
I0727 16:15:53.589143 24173 net.cpp:380] conv2_1 -> conv2_1
I0727 16:15:53.592484 24173 net.cpp:122] Setting up conv2_1
I0727 16:15:53.592502 24173 net.cpp:129] Top shape: 1 128 192 256 (6291456)
I0727 16:15:53.592509 24173 net.cpp:137] Memory required for data: 242233344
I0727 16:15:53.592520 24173 layer_factory.hpp:77] Creating layer relu2_1
I0727 16:15:53.592528 24173 net.cpp:84] Creating Layer relu2_1
I0727 16:15:53.592535 24173 net.cpp:406] relu2_1 <- conv2_1
I0727 16:15:53.592542 24173 net.cpp:367] relu2_1 -> conv2_1 (in-place)
I0727 16:15:53.593164 24173 net.cpp:122] Setting up relu2_1
I0727 16:15:53.593178 24173 net.cpp:129] Top shape: 1 128 192 256 (6291456)
I0727 16:15:53.593183 24173 net.cpp:137] Memory required for data: 267399168
I0727 16:15:53.593189 24173 layer_factory.hpp:77] Creating layer conv2_2
I0727 16:15:53.593200 24173 net.cpp:84] Creating Layer conv2_2
I0727 16:15:53.593206 24173 net.cpp:406] conv2_2 <- conv2_1
I0727 16:15:53.593214 24173 net.cpp:380] conv2_2 -> conv2_2
I0727 16:15:53.596940 24173 net.cpp:122] Setting up conv2_2
I0727 16:15:53.596954 24173 net.cpp:129] Top shape: 1 128 192 256 (6291456)
I0727 16:15:53.596961 24173 net.cpp:137] Memory required for data: 292564992
I0727 16:15:53.596969 24173 layer_factory.hpp:77] Creating layer relu2_2
I0727 16:15:53.596976 24173 net.cpp:84] Creating Layer relu2_2
I0727 16:15:53.596982 24173 net.cpp:406] relu2_2 <- conv2_2
I0727 16:15:53.596989 24173 net.cpp:367] relu2_2 -> conv2_2 (in-place)
I0727 16:15:53.597159 24173 net.cpp:122] Setting up relu2_2
I0727 16:15:53.597170 24173 net.cpp:129] Top shape: 1 128 192 256 (6291456)
I0727 16:15:53.597174 24173 net.cpp:137] Memory required for data: 317730816
I0727 16:15:53.597180 24173 layer_factory.hpp:77] Creating layer pool2
I0727 16:15:53.597187 24173 net.cpp:84] Creating Layer pool2
I0727 16:15:53.597193 24173 net.cpp:406] pool2 <- conv2_2
I0727 16:15:53.597240 24173 net.cpp:380] pool2 -> pool2
I0727 16:15:53.597295 24173 net.cpp:122] Setting up pool2
I0727 16:15:53.597311 24173 net.cpp:129] Top shape: 1 128 96 128 (1572864)
I0727 16:15:53.597317 24173 net.cpp:137] Memory required for data: 324022272
I0727 16:15:53.597322 24173 layer_factory.hpp:77] Creating layer conv3_1
I0727 16:15:53.597333 24173 net.cpp:84] Creating Layer conv3_1
I0727 16:15:53.597339 24173 net.cpp:406] conv3_1 <- pool2
I0727 16:15:53.597347 24173 net.cpp:380] conv3_1 -> conv3_1
I0727 16:15:53.603617 24173 net.cpp:122] Setting up conv3_1
I0727 16:15:53.603633 24173 net.cpp:129] Top shape: 1 256 96 128 (3145728)
I0727 16:15:53.603639 24173 net.cpp:137] Memory required for data: 336605184
I0727 16:15:53.603652 24173 layer_factory.hpp:77] Creating layer relu3_1
I0727 16:15:53.603660 24173 net.cpp:84] Creating Layer relu3_1
I0727 16:15:53.603667 24173 net.cpp:406] relu3_1 <- conv3_1
I0727 16:15:53.603673 24173 net.cpp:367] relu3_1 -> conv3_1 (in-place)
I0727 16:15:53.603852 24173 net.cpp:122] Setting up relu3_1
I0727 16:15:53.603864 24173 net.cpp:129] Top shape: 1 256 96 128 (3145728)
I0727 16:15:53.603869 24173 net.cpp:137] Memory required for data: 349188096
I0727 16:15:53.603874 24173 layer_factory.hpp:77] Creating layer conv3_2
I0727 16:15:53.603886 24173 net.cpp:84] Creating Layer conv3_2
I0727 16:15:53.603893 24173 net.cpp:406] conv3_2 <- conv3_1
I0727 16:15:53.603900 24173 net.cpp:380] conv3_2 -> conv3_2
I0727 16:15:53.613926 24173 net.cpp:122] Setting up conv3_2
I0727 16:15:53.613956 24173 net.cpp:129] Top shape: 1 256 96 128 (3145728)
I0727 16:15:53.613962 24173 net.cpp:137] Memory required for data: 361771008
I0727 16:15:53.613973 24173 layer_factory.hpp:77] Creating layer relu3_2
I0727 16:15:53.613987 24173 net.cpp:84] Creating Layer relu3_2
I0727 16:15:53.613994 24173 net.cpp:406] relu3_2 <- conv3_2
I0727 16:15:53.614002 24173 net.cpp:367] relu3_2 -> conv3_2 (in-place)
I0727 16:15:53.614667 24173 net.cpp:122] Setting up relu3_2
I0727 16:15:53.614682 24173 net.cpp:129] Top shape: 1 256 96 128 (3145728)
I0727 16:15:53.614688 24173 net.cpp:137] Memory required for data: 374353920
I0727 16:15:53.614693 24173 layer_factory.hpp:77] Creating layer conv3_3
I0727 16:15:53.614707 24173 net.cpp:84] Creating Layer conv3_3
I0727 16:15:53.614713 24173 net.cpp:406] conv3_3 <- conv3_2
I0727 16:15:53.614723 24173 net.cpp:380] conv3_3 -> conv3_3
I0727 16:15:53.624771 24173 net.cpp:122] Setting up conv3_3
I0727 16:15:53.624804 24173 net.cpp:129] Top shape: 1 256 96 128 (3145728)
I0727 16:15:53.624810 24173 net.cpp:137] Memory required for data: 386936832
I0727 16:15:53.624822 24173 layer_factory.hpp:77] Creating layer relu3_3
I0727 16:15:53.624835 24173 net.cpp:84] Creating Layer relu3_3
I0727 16:15:53.624841 24173 net.cpp:406] relu3_3 <- conv3_3
I0727 16:15:53.624850 24173 net.cpp:367] relu3_3 -> conv3_3 (in-place)
I0727 16:15:53.625393 24173 net.cpp:122] Setting up relu3_3
I0727 16:15:53.625406 24173 net.cpp:129] Top shape: 1 256 96 128 (3145728)
I0727 16:15:53.625412 24173 net.cpp:137] Memory required for data: 399519744
I0727 16:15:53.625417 24173 layer_factory.hpp:77] Creating layer pool3
I0727 16:15:53.625427 24173 net.cpp:84] Creating Layer pool3
I0727 16:15:53.625432 24173 net.cpp:406] pool3 <- conv3_3
I0727 16:15:53.625440 24173 net.cpp:380] pool3 -> pool3
I0727 16:15:53.625497 24173 net.cpp:122] Setting up pool3
I0727 16:15:53.625505 24173 net.cpp:129] Top shape: 1 256 48 64 (786432)
I0727 16:15:53.625510 24173 net.cpp:137] Memory required for data: 402665472
I0727 16:15:53.625515 24173 layer_factory.hpp:77] Creating layer conv4_1
I0727 16:15:53.625529 24173 net.cpp:84] Creating Layer conv4_1
I0727 16:15:53.625535 24173 net.cpp:406] conv4_1 <- pool3
I0727 16:15:53.625542 24173 net.cpp:380] conv4_1 -> conv4_1
I0727 16:15:53.641125 24173 net.cpp:122] Setting up conv4_1
I0727 16:15:53.641152 24173 net.cpp:129] Top shape: 1 512 48 64 (1572864)
I0727 16:15:53.641155 24173 net.cpp:137] Memory required for data: 408956928
I0727 16:15:53.641163 24173 layer_factory.hpp:77] Creating layer relu4_1
I0727 16:15:53.641194 24173 net.cpp:84] Creating Layer relu4_1
I0727 16:15:53.641201 24173 net.cpp:406] relu4_1 <- conv4_1
I0727 16:15:53.641206 24173 net.cpp:367] relu4_1 -> conv4_1 (in-place)
I0727 16:15:53.641780 24173 net.cpp:122] Setting up relu4_1
I0727 16:15:53.641788 24173 net.cpp:129] Top shape: 1 512 48 64 (1572864)
I0727 16:15:53.641790 24173 net.cpp:137] Memory required for data: 415248384
I0727 16:15:53.641793 24173 layer_factory.hpp:77] Creating layer conv4_2
I0727 16:15:53.641803 24173 net.cpp:84] Creating Layer conv4_2
I0727 16:15:53.641805 24173 net.cpp:406] conv4_2 <- conv4_1
I0727 16:15:53.641810 24173 net.cpp:380] conv4_2 -> conv4_2
I0727 16:15:53.669364 24173 net.cpp:122] Setting up conv4_2
I0727 16:15:53.669394 24173 net.cpp:129] Top shape: 1 512 48 64 (1572864)
I0727 16:15:53.669401 24173 net.cpp:137] Memory required for data: 421539840
I0727 16:15:53.669417 24173 layer_factory.hpp:77] Creating layer relu4_2
I0727 16:15:53.669430 24173 net.cpp:84] Creating Layer relu4_2
I0727 16:15:53.669438 24173 net.cpp:406] relu4_2 <- conv4_2
I0727 16:15:53.669447 24173 net.cpp:367] relu4_2 -> conv4_2 (in-place)
I0727 16:15:53.670073 24173 net.cpp:122] Setting up relu4_2
I0727 16:15:53.670086 24173 net.cpp:129] Top shape: 1 512 48 64 (1572864)
I0727 16:15:53.670092 24173 net.cpp:137] Memory required for data: 427831296
I0727 16:15:53.670097 24173 layer_factory.hpp:77] Creating layer conv4_3
I0727 16:15:53.670111 24173 net.cpp:84] Creating Layer conv4_3
I0727 16:15:53.670117 24173 net.cpp:406] conv4_3 <- conv4_2
I0727 16:15:53.670126 24173 net.cpp:380] conv4_3 -> conv4_3
I0727 16:15:53.701643 24173 net.cpp:122] Setting up conv4_3
I0727 16:15:53.701680 24173 net.cpp:129] Top shape: 1 512 48 64 (1572864)
I0727 16:15:53.701686 24173 net.cpp:137] Memory required for data: 434122752
I0727 16:15:53.701699 24173 layer_factory.hpp:77] Creating layer relu4_3
I0727 16:15:53.701710 24173 net.cpp:84] Creating Layer relu4_3
I0727 16:15:53.701717 24173 net.cpp:406] relu4_3 <- conv4_3
I0727 16:15:53.701726 24173 net.cpp:367] relu4_3 -> conv4_3 (in-place)
I0727 16:15:53.701903 24173 net.cpp:122] Setting up relu4_3
I0727 16:15:53.701915 24173 net.cpp:129] Top shape: 1 512 48 64 (1572864)
I0727 16:15:53.701920 24173 net.cpp:137] Memory required for data: 440414208
I0727 16:15:53.701925 24173 layer_factory.hpp:77] Creating layer pool4
I0727 16:15:53.701934 24173 net.cpp:84] Creating Layer pool4
I0727 16:15:53.701937 24173 net.cpp:406] pool4 <- conv4_3
I0727 16:15:53.701946 24173 net.cpp:380] pool4 -> pool4
I0727 16:15:53.701992 24173 net.cpp:122] Setting up pool4
I0727 16:15:53.702002 24173 net.cpp:129] Top shape: 1 512 48 64 (1572864)
I0727 16:15:53.702006 24173 net.cpp:137] Memory required for data: 446705664
I0727 16:15:53.702011 24173 layer_factory.hpp:77] Creating layer conv5_1
I0727 16:15:53.702023 24173 net.cpp:84] Creating Layer conv5_1
I0727 16:15:53.702029 24173 net.cpp:406] conv5_1 <- pool4
I0727 16:15:53.702036 24173 net.cpp:380] conv5_1 -> conv5_1
I0727 16:15:53.731912 24173 net.cpp:122] Setting up conv5_1
I0727 16:15:53.731945 24173 net.cpp:129] Top shape: 1 512 48 64 (1572864)
I0727 16:15:53.731952 24173 net.cpp:137] Memory required for data: 452997120
I0727 16:15:53.731963 24173 layer_factory.hpp:77] Creating layer relu5_1
I0727 16:15:53.731976 24173 net.cpp:84] Creating Layer relu5_1
I0727 16:15:53.731982 24173 net.cpp:406] relu5_1 <- conv5_1
I0727 16:15:53.731992 24173 net.cpp:367] relu5_1 -> conv5_1 (in-place)
I0727 16:15:53.732738 24173 net.cpp:122] Setting up relu5_1
I0727 16:15:53.732751 24173 net.cpp:129] Top shape: 1 512 48 64 (1572864)
I0727 16:15:53.732756 24173 net.cpp:137] Memory required for data: 459288576
I0727 16:15:53.732762 24173 layer_factory.hpp:77] Creating layer conv5_2
I0727 16:15:53.732776 24173 net.cpp:84] Creating Layer conv5_2
I0727 16:15:53.732782 24173 net.cpp:406] conv5_2 <- conv5_1
I0727 16:15:53.732791 24173 net.cpp:380] conv5_2 -> conv5_2
I0727 16:15:53.761188 24173 net.cpp:122] Setting up conv5_2
I0727 16:15:53.761226 24173 net.cpp:129] Top shape: 1 512 48 64 (1572864)
I0727 16:15:53.761271 24173 net.cpp:137] Memory required for data: 465580032
I0727 16:15:53.761282 24173 layer_factory.hpp:77] Creating layer relu5_2
I0727 16:15:53.761291 24173 net.cpp:84] Creating Layer relu5_2
I0727 16:15:53.761296 24173 net.cpp:406] relu5_2 <- conv5_2
I0727 16:15:53.761307 24173 net.cpp:367] relu5_2 -> conv5_2 (in-place)
I0727 16:15:53.761497 24173 net.cpp:122] Setting up relu5_2
I0727 16:15:53.761507 24173 net.cpp:129] Top shape: 1 512 48 64 (1572864)
I0727 16:15:53.761509 24173 net.cpp:137] Memory required for data: 471871488
I0727 16:15:53.761513 24173 layer_factory.hpp:77] Creating layer conv5_3
I0727 16:15:53.761524 24173 net.cpp:84] Creating Layer conv5_3
I0727 16:15:53.761528 24173 net.cpp:406] conv5_3 <- conv5_2
I0727 16:15:53.761534 24173 net.cpp:380] conv5_3 -> conv5_3
I0727 16:15:53.782435 24173 net.cpp:122] Setting up conv5_3
I0727 16:15:53.782469 24173 net.cpp:129] Top shape: 1 512 48 64 (1572864)
I0727 16:15:53.782472 24173 net.cpp:137] Memory required for data: 478162944
I0727 16:15:53.782480 24173 layer_factory.hpp:77] Creating layer relu5_3
I0727 16:15:53.782493 24173 net.cpp:84] Creating Layer relu5_3
I0727 16:15:53.782498 24173 net.cpp:406] relu5_3 <- conv5_3
I0727 16:15:53.782506 24173 net.cpp:367] relu5_3 -> conv5_3 (in-place)
I0727 16:15:53.783197 24173 net.cpp:122] Setting up relu5_3
I0727 16:15:53.783211 24173 net.cpp:129] Top shape: 1 512 48 64 (1572864)
I0727 16:15:53.783215 24173 net.cpp:137] Memory required for data: 484454400
I0727 16:15:53.783221 24173 layer_factory.hpp:77] Creating layer conv_score
I0727 16:15:53.783231 24173 net.cpp:84] Creating Layer conv_score
I0727 16:15:53.783236 24173 net.cpp:406] conv_score <- conv5_3
I0727 16:15:53.783243 24173 net.cpp:380] conv_score -> conv_score
I0727 16:15:53.896639 24173 net.cpp:122] Setting up conv_score
I0727 16:15:53.896669 24173 net.cpp:129] Top shape: 1 64 48 64 (196608)
I0727 16:15:53.896674 24173 net.cpp:137] Memory required for data: 485240832
I0727 16:15:53.896685 24173 layer_factory.hpp:77] Creating layer relu_score
I0727 16:15:53.896694 24173 net.cpp:84] Creating Layer relu_score
I0727 16:15:53.896699 24173 net.cpp:406] relu_score <- conv_score
I0727 16:15:53.896708 24173 net.cpp:367] relu_score -> conv_score (in-place)
I0727 16:15:53.896879 24173 net.cpp:122] Setting up relu_score
I0727 16:15:53.896889 24173 net.cpp:129] Top shape: 1 64 48 64 (196608)
I0727 16:15:53.896893 24173 net.cpp:137] Memory required for data: 486027264
I0727 16:15:53.896896 24173 layer_factory.hpp:77] Creating layer slicer_conv
I0727 16:15:53.896908 24173 net.cpp:84] Creating Layer slicer_conv
I0727 16:15:53.896911 24173 net.cpp:406] slicer_conv <- conv_score
I0727 16:15:53.896921 24173 net.cpp:380] slicer_conv -> score1
I0727 16:15:53.896934 24173 net.cpp:380] slicer_conv -> score2
…
I0727 16:15:53.897454 24173 net.cpp:380] slicer_conv -> score57
I0727 16:15:53.897462 24173 net.cpp:380] slicer_conv -> score58
I0727 16:15:53.897470 24173 net.cpp:380] slicer_conv -> score59
I0727 16:15:53.897478 24173 net.cpp:380] slicer_conv -> score60
I0727 16:15:53.897487 24173 net.cpp:380] slicer_conv -> score61
I0727 16:15:53.897495 24173 net.cpp:380] slicer_conv -> score62
I0727 16:15:53.897503 24173 net.cpp:380] slicer_conv -> score63
I0727 16:15:53.897511 24173 net.cpp:380] slicer_conv -> score64
I0727 16:15:53.898278 24173 net.cpp:122] Setting up slicer_conv
I0727 16:15:53.898286 24173 net.cpp:129] Top shape: 1 1 48 64 (3072)
I0727 16:15:53.898290 24173 net.cpp:129] Top shape: 1 1 48 64 (3072)
I0727 16:15:53.898294 24173 net.cpp:129] Top shape: 1 1 48 64 (3072)
I0727 16:15:53.898298 24173 net.cpp:129] Top shape: 1 1 48 64 (3072)
I0727 16:15:53.898303 24173 net.cpp:129] Top shape: 1 1 48 64 (3072)
I0727 16:15:53.898306 24173 net.cpp:129] Top shape: 1 1 48 64 (3072)
I0727 16:15:53.898310 24173 net.cpp:129] Top shape: 1 1 48 64 (3072)
I0727 16:15:53.898313 24173 net.cpp:129] Top shape: 1 1 48 64 (3072)
I0727 16:15:53.898317 24173 net.cpp:129] Top shape: 1 1 48 64 (3072)
I0727 16:15:53.898321 24173 net.cpp:129] Top shape: 1 1 48 64 (3072)
I0727 16:15:53.898325 24173 net.cpp:129] Top shape: 1 1 48 64 (3072)
I0727 16:15:53.898329 24173 net.cpp:129] Top shape: 1 1 48 64 (3072)
I0727 16:15:53.898332 24173 net.cpp:129] Top shape: 1 1 48 64 (3072)
I0727 16:15:53.898336 24173 net.cpp:129] Top shape: 1 1 48 64 (3072)
I0727 16:15:53.898340 24173 net.cpp:129] Top shape: 1 1 48 64 (3072)
I0727 16:15:53.898344 24173 net.cpp:129] Top shape: 1 1 48 64 (3072)
I0727 16:15:53.898349 24173 net.cpp:129] Top shape: 1 1 48 64 (3072)
I0727 16:15:53.898352 24173 net.cpp:129] Top shape: 1 1 48 64 (3072)
I0727 16:15:53.898355 24173 net.cpp:129] Top shape: 1 1 48 64 (3072)
I0727 16:15:53.898360 24173 net.cpp:129] Top shape: 1 1 48 64 (3072)
I0727 16:15:53.898380 24173 net.cpp:129] Top shape: 1 1 48 64 (3072)
I0727 16:15:53.898386 24173 net.cpp:129] Top shape: 1 1 48 64 (3072)
I0727 16:15:53.898389 24173 net.cpp:129] Top shape: 1 1 48 64 (3072)
I0727 16:15:53.898393 24173 net.cpp:129] Top shape: 1 1 48 64 (3072)
I0727 16:15:53.898397 24173 net.cpp:129] Top shape: 1 1 48 64 (3072)
I0727 16:15:53.898401 24173 net.cpp:129] Top shape: 1 1 48 64 (3072)
I0727 16:15:53.898404 24173 net.cpp:129] Top shape: 1 1 48 64 (3072)
I0727 16:15:53.898408 24173 net.cpp:129] Top shape: 1 1 48 64 (3072)
I0727 16:15:53.898412 24173 net.cpp:129] Top shape: 1 1 48 64 (3072)
I0727 16:15:53.898416 24173 net.cpp:129] Top shape: 1 1 48 64 (3072)
I0727 16:15:53.898421 24173 net.cpp:129] Top shape: 1 1 48 64 (3072)
I0727 16:15:53.898423 24173 net.cpp:129] Top shape: 1 1 48 64 (3072)
I0727 16:15:53.898427 24173 net.cpp:129] Top shape: 1 1 48 64 (3072)
I0727 16:15:53.898432 24173 net.cpp:129] Top shape: 1 1 48 64 (3072)
I0727 16:15:53.898435 24173 net.cpp:129] Top shape: 1 1 48 64 (3072)
I0727 16:15:53.898439 24173 net.cpp:129] Top shape: 1 1 48 64 (3072)
I0727 16:15:53.898442 24173 net.cpp:129] Top shape: 1 1 48 64 (3072)
I0727 16:15:53.898447 24173 net.cpp:129] Top shape: 1 1 48 64 (3072)
I0727 16:15:53.898450 24173 net.cpp:129] Top shape: 1 1 48 64 (3072)
I0727 16:15:53.898454 24173 net.cpp:129] Top shape: 1 1 48 64 (3072)
I0727 16:15:53.898458 24173 net.cpp:129] Top shape: 1 1 48 64 (3072)
I0727 16:15:53.898461 24173 net.cpp:129] Top shape: 1 1 48 64 (3072)
I0727 16:15:53.898465 24173 net.cpp:129] Top shape: 1 1 48 64 (3072)
I0727 16:15:53.898469 24173 net.cpp:129] Top shape: 1 1 48 64 (3072)
I0727 16:15:53.898474 24173 net.cpp:129] Top shape: 1 1 48 64 (3072)
I0727 16:15:53.898478 24173 net.cpp:129] Top shape: 1 1 48 64 (3072)
I0727 16:15:53.898483 24173 net.cpp:129] Top shape: 1 1 48 64 (3072)
I0727 16:15:53.898488 24173 net.cpp:129] Top shape: 1 1 48 64 (3072)
I0727 16:15:53.898491 24173 net.cpp:129] Top shape: 1 1 48 64 (3072)
I0727 16:15:53.898495 24173 net.cpp:129] Top shape: 1 1 48 64 (3072)
I0727 16:15:53.898499 24173 net.cpp:129] Top shape: 1 1 48 64 (3072)
I0727 16:15:53.898504 24173 net.cpp:129] Top shape: 1 1 48 64 (3072)
I0727 16:15:53.898507 24173 net.cpp:129] Top shape: 1 1 48 64 (3072)
I0727 16:15:53.898511 24173 net.cpp:129] Top shape: 1 1 48 64 (3072)
I0727 16:15:53.898514 24173 net.cpp:129] Top shape: 1 1 48 64 (3072)
I0727 16:15:53.898519 24173 net.cpp:129] Top shape: 1 1 48 64 (3072)
I0727 16:15:53.898522 24173 net.cpp:129] Top shape: 1 1 48 64 (3072)
I0727 16:15:53.898526 24173 net.cpp:129] Top shape: 1 1 48 64 (3072)
I0727 16:15:53.898530 24173 net.cpp:129] Top shape: 1 1 48 64 (3072)
I0727 16:15:53.898535 24173 net.cpp:129] Top shape: 1 1 48 64 (3072)
I0727 16:15:53.898538 24173 net.cpp:129] Top shape: 1 1 48 64 (3072)
I0727 16:15:53.898542 24173 net.cpp:129] Top shape: 1 1 48 64 (3072)
I0727 16:15:53.898545 24173 net.cpp:129] Top shape: 1 1 48 64 (3072)
I0727 16:15:53.898550 24173 net.cpp:129] Top shape: 1 1 48 64 (3072)
I0727 16:15:53.898552 24173 net.cpp:137] Memory required for data: 486813696
I0727 16:15:53.898556 24173 layer_factory.hpp:77] Creating layer score1_slicer_conv_0_split
I0727 16:15:53.898562 24173 net.cpp:84] Creating Layer score1_slicer_conv_0_split
I0727 16:15:53.898566 24173 net.cpp:406] score1_slicer_conv_0_split <- score1
I0727 16:15:53.898572 24173 net.cpp:380] score1_slicer_conv_0_split -> score1_slicer_conv_0_split_0
I0727 16:15:53.898581 24173 net.cpp:380] score1_slicer_conv_0_split -> score1_slicer_conv_0_split_1
I0727 16:15:53.898624 24173 net.cpp:122] Setting up score1_slicer_conv_0_split
I0727 16:15:53.898632 24173 net.cpp:129] Top shape: 1 1 48 64 (3072)
I0727 16:15:53.898635 24173 net.cpp:129] Top shape: 1 1 48 64 (3072)
I0727 16:15:53.898638 24173 net.cpp:137] Memory required for data: 486838272
I0727 16:15:53.898643 24173 layer_factory.hpp:77] Creating layer score2_slicer_conv_1_split
I0727 16:15:53.898648 24173 net.cpp:84] Creating Layer score2_slicer_conv_1_split
I0727 16:15:53.898651 24173 net.cpp:406] score2_slicer_conv_1_split <- score2
I0727 16:15:53.898664 24173 net.cpp:380] score2_slicer_conv_1_split -> score2_slicer_conv_1_split_0
I0727 16:15:53.898670 24173 net.cpp:380] score2_slicer_conv_1_split -> score2_slicer_conv_1_split_1
I0727 16:15:53.898710 24173 net.cpp:122] Setting up score2_slicer_conv_1_split
I0727 16:15:53.898716 24173 net.cpp:129] Top shape: 1 1 48 64 (3072)
I0727 16:15:53.898721 24173 net.cpp:129] Top shape: 1 1 48 64 (3072)
I0727 16:15:53.898725 24173 net.cpp:137] Memory required for data: 486862848
I0727 16:15:53.898727 24173 layer_factory.hpp:77] Creating layer score3_slicer_conv_2_split
I0727 16:15:53.898733 24173 net.cpp:84] Creating Layer score3_slicer_conv_2_split
I0727 16:15:53.898737 24173 net.cpp:406] score3_slicer_conv_2_split <- score3
I0727 16:15:53.898742 24173 net.cpp:380] score3_slicer_conv_2_split -> score3_slicer_conv_2_split_0
I0727 16:15:53.898748 24173 net.cpp:380] score3_slicer_conv_2_split -> score3_slicer_conv_2_split_1
I0727 16:15:53.898787 24173 net.cpp:122] Setting up score3_slicer_conv_2_split
I0727 16:15:53.898792 24173 net.cpp:129] Top shape: 1 1 48 64 (3072)
I0727 16:15:53.898797 24173 net.cpp:129] Top shape: 1 1 48 64 (3072)
I0727 16:15:53.898800 24173 net.cpp:137] Memory required for data: 486887424
I0727 16:15:53.898803 24173 layer_factory.hpp:77] Creating layer score4_slicer_conv_3_split
I0727 16:15:53.898808 24173 net.cpp:84] Creating Layer score4_slicer_conv_3_split
I0727 16:15:53.898811 24173 net.cpp:406] score4_slicer_conv_3_split <- score4
I0727 16:15:53.898818 24173 net.cpp:380] score4_slicer_conv_3_split -> score4_slicer_conv_3_split_0
I0727 16:15:53.898823 24173 net.cpp:380] score4_slicer_conv_3_split -> score4_slicer_conv_3_split_1
I0727 16:15:53.898862 24173 net.cpp:122] Setting up score4_slicer_conv_3_split
I0727 16:15:53.898869 24173 net.cpp:129] Top shape: 1 1 48 64 (3072)
I0727 16:15:53.898874 24173 net.cpp:129] Top shape: 1 1 48 64 (3072)
I0727 16:15:53.898876 24173 net.cpp:137] Memory required for data: 486912000
I0727 16:15:53.898880 24173 layer_factory.hpp:77] Creating layer score5_slicer_conv_4_split
I0727 16:15:53.898885 24173 net.cpp:84] Creating Layer score5_slicer_conv_4_split
I0727 16:15:53.898888 24173 net.cpp:406] score5_slicer_conv_4_split <- score5
I0727 16:15:53.898895 24173 net.cpp:380] score5_slicer_conv_4_split -> score5_slicer_conv_4_split_0
I0727 16:15:53.898900 24173 net.cpp:380] score5_slicer_conv_4_split -> score5_slicer_conv_4_split_1
I0727 16:15:53.898936 24173 net.cpp:122] Setting up score5_slicer_conv_4_split
I0727 16:15:53.898942 24173 net.cpp:129] Top shape: 1 1 48 64 (3072)
I0727 16:15:53.898947 24173 net.cpp:129] Top shape: 1 1 48 64 (3072)
I0727 16:15:53.898949 24173 net.cpp:137] Memory required for data: 486936576
I0727 16:15:53.898952 24173 layer_factory.hpp:77] Creating layer score6_slicer_conv_5_split
I0727 16:15:53.898967 24173 net.cpp:84] Creating Layer score6_slicer_conv_5_split
I0727 16:15:53.898972 24173 net.cpp:406] score6_slicer_conv_5_split <- score6
I0727 16:15:53.898977 24173 net.cpp:380] score6_slicer_conv_5_split -> score6_slicer_conv_5_split_0
I0727 16:15:53.898983 24173 net.cpp:380] score6_slicer_conv_5_split -> score6_slicer_conv_5_split_1
I0727 16:15:53.899019 24173 net.cpp:122] Setting up score6_slicer_conv_5_split
I0727 16:15:53.899025 24173 net.cpp:129] Top shape: 1 1 48 64 (3072)
I0727 16:15:53.899029 24173 net.cpp:129] Top shape: 1 1 48 64 (3072)
I0727 16:15:53.899032 24173 net.cpp:137] Memory required for data: 486961152
I0727 16:15:53.899035 24173 layer_factory.hpp:77] Creating layer score7_slicer_conv_6_split
I0727 16:15:53.899041 24173 net.cpp:84] Creating Layer score7_slicer_conv_6_split
I0727 16:15:53.899045 24173 net.cpp:406] score7_slicer_conv_6_split <- score7
I0727 16:15:53.899050 24173 net.cpp:380] score7_slicer_conv_6_split -> score7_slicer_conv_6_split_0
I0727 16:15:53.899056 24173 net.cpp:380] score7_slicer_conv_6_split -> score7_slicer_conv_6_split_1
I0727 16:15:53.899092 24173 net.cpp:122] Setting up score7_slicer_conv_6_split
I0727 16:15:53.899099 24173 net.cpp:129] Top shape: 1 1 48 64 (3072)
I0727 16:15:53.899109 24173 net.cpp:129] Top shape: 1 1 48 64 (3072)
I0727 16:15:53.899113 24173 net.cpp:137] Memory required for data: 486985728
I0727 16:15:53.899116 24173 layer_factory.hpp:77] Creating layer score8_slicer_conv_7_split
I0727 16:15:53.899121 24173 net.cpp:84] Creating Layer score8_slicer_conv_7_split
I0727 16:15:53.899125 24173 net.cpp:406] score8_slicer_conv_7_split <- score8
I0727 16:15:53.899130 24173 net.cpp:380] score8_slicer_conv_7_split -> score8_slicer_conv_7_split_0
I0727 16:15:53.899137 24173 net.cpp:380] score8_slicer_conv_7_split -> score8_slicer_conv_7_split_1
I0727 16:15:53.899175 24173 net.cpp:122] Setting up score8_slicer_conv_7_split
I0727 16:15:53.899181 24173 net.cpp:129] Top shape: 1 1 48 64 (3072)
I0727 16:15:53.899185 24173 net.cpp:129] Top shape: 1 1 48 64 (3072)
I0727 16:15:53.899189 24173 net.cpp:137] Memory required for data: 487010304
I0727 16:15:53.899193 24173 layer_factory.hpp:77] Creating layer score9_slicer_conv_8_split
I0727 16:15:53.899199 24173 net.cpp:84] Creating Layer score9_slicer_conv_8_split
I0727 16:15:53.899202 24173 net.cpp:406] score9_slicer_conv_8_split <- score9
I0727 16:15:53.899207 24173 net.cpp:380] score9_slicer_conv_8_split -> score9_slicer_conv_8_split_0
I0727 16:15:53.899212 24173 net.cpp:380] score9_slicer_conv_8_split -> score9_slicer_conv_8_split_1
I0727 16:15:53.899250 24173 net.cpp:122] Setting up score9_slicer_conv_8_split
I0727 16:15:53.899255 24173 net.cpp:129] Top shape: 1 1 48 64 (3072)
I0727 16:15:53.899260 24173 net.cpp:129] Top shape: 1 1 48 64 (3072)
I0727 16:15:53.899262 24173 net.cpp:137] Memory required for data: 487034880
I0727 16:15:53.899266 24173 layer_factory.hpp:77] Creating layer score10_slicer_conv_9_split
I0727 16:15:53.899271 24173 net.cpp:84] Creating Layer score10_slicer_conv_9_split
I0727 16:15:53.899276 24173 net.cpp:406] score10_slicer_conv_9_split <- score10
I0727 16:15:53.899281 24173 net.cpp:380] score10_slicer_conv_9_split -> score10_slicer_conv_9_split_0
I0727 16:15:53.899286 24173 net.cpp:380] score10_slicer_conv_9_split -> score10_slicer_conv_9_split_1
I0727 16:15:53.899325 24173 net.cpp:122] Setting up score10_slicer_conv_9_split
I0727 16:15:53.899332 24173 net.cpp:129] Top shape: 1 1 48 64 (3072)
I0727 16:15:53.899335 24173 net.cpp:129] Top shape: 1 1 48 64 (3072)
I0727 16:15:53.899339 24173 net.cpp:137] Memory required for data: 487059456
I0727 16:15:53.899343 24173 layer_factory.hpp:77] Creating layer score11_slicer_conv_10_split
I0727 16:15:53.899348 24173 net.cpp:84] Creating Layer score11_slicer_conv_10_split
I0727 16:15:53.899351 24173 net.cpp:406] score11_slicer_conv_10_split <- score11
I0727 16:15:53.899356 24173 net.cpp:380] score11_slicer_conv_10_split -> score11_slicer_conv_10_split_0
I0727 16:15:53.899363 24173 net.cpp:380] score11_slicer_conv_10_split -> score11_slicer_conv_10_split_1
I0727 16:15:53.899399 24173 net.cpp:122] Setting up score11_slicer_conv_10_split
I0727 16:15:53.899405 24173 net.cpp:129] Top shape: 1 1 48 64 (3072)
I0727 16:15:53.899410 24173 net.cpp:129] Top shape: 1 1 48 64 (3072)
I0727 16:15:53.899412 24173 net.cpp:137] Memory required for data: 487084032
I0727 16:15:53.899416 24173 layer_factory.hpp:77] Creating layer score12_slicer_conv_11_split
I0727 16:15:53.899421 24173 net.cpp:84] Creating Layer score12_slicer_conv_11_split
I0727 16:15:53.899425 24173 net.cpp:406] score12_slicer_conv_11_split <- score12
I0727 16:15:53.899430 24173 net.cpp:380] score12_slicer_conv_11_split -> score12_slicer_conv_11_split_0
I0727 16:15:53.899435 24173 net.cpp:380] score12_slicer_conv_11_split -> score12_slicer_conv_11_split_1
I0727 16:15:53.899472 24173 net.cpp:122] Setting up score12_slicer_conv_11_split
I0727 16:15:53.899478 24173 net.cpp:129] Top shape: 1 1 48 64 (3072)
I0727 16:15:53.899482 24173 net.cpp:129] Top shape: 1 1 48 64 (3072)
I0727 16:15:53.899485 24173 net.cpp:137] Memory required for data: 487108608
I0727 16:15:53.899489 24173 layer_factory.hpp:77] Creating layer score13_slicer_conv_12_split
I0727 16:15:53.899493 24173 net.cpp:84] Creating Layer score13_slicer_conv_12_split
I0727 16:15:53.899505 24173 net.cpp:406] score13_slicer_conv_12_split <- score13
I0727 16:15:53.899513 24173 net.cpp:380] score13_slicer_conv_12_split -> score13_slicer_conv_12_split_0
I0727 16:15:53.899518 24173 net.cpp:380] score13_slicer_conv_12_split -> score13_slicer_conv_12_split_1
I0727 16:15:53.899557 24173 net.cpp:122] Setting up score13_slicer_conv_12_split
I0727 16:15:53.899564 24173 net.cpp:129] Top shape: 1 1 48 64 (3072)
I0727 16:15:53.899567 24173 net.cpp:129] Top shape: 1 1 48 64 (3072)
I0727 16:15:53.899570 24173 net.cpp:137] Memory required for data: 487133184
I0727 16:15:53.899574 24173 layer_factory.hpp:77] Creating layer score14_slicer_conv_13_split
I0727 16:15:53.899580 24173 net.cpp:84] Creating Layer score14_slicer_conv_13_split
I0727 16:15:53.899583 24173 net.cpp:406] score14_slicer_conv_13_split <- score14
I0727 16:15:53.899588 24173 net.cpp:380] score14_slicer_conv_13_split -> score14_slicer_conv_13_split_0
I0727 16:15:53.899593 24173 net.cpp:380] score14_slicer_conv_13_split -> score14_slicer_conv_13_split_1
I0727 16:15:53.899629 24173 net.cpp:122] Setting up score14_slicer_conv_13_split
I0727 16:15:53.899636 24173 net.cpp:129] Top shape: 1 1 48 64 (3072)
I0727 16:15:53.899641 24173 net.cpp:129] Top shape: 1 1 48 64 (3072)
I0727 16:15:53.899643 24173 net.cpp:137] Memory required for data: 487157760
I0727 16:15:53.899647 24173 layer_factory.hpp:77] Creating layer score15_slicer_conv_14_split
I0727 16:15:53.899652 24173 net.cpp:84] Creating Layer score15_slicer_conv_14_split
I0727 16:15:53.899655 24173 net.cpp:406] score15_slicer_conv_14_split <- score15
I0727 16:15:53.899662 24173 net.cpp:380] score15_slicer_conv_14_split -> score15_slicer_conv_14_split_0
I0727 16:15:53.899667 24173 net.cpp:380] score15_slicer_conv_14_split -> score15_slicer_conv_14_split_1
I0727 16:15:53.899703 24173 net.cpp:122] Setting up score15_slicer_conv_14_split
I0727 16:15:53.899708 24173 net.cpp:129] Top shape: 1 1 48 64 (3072)
I0727 16:15:53.899713 24173 net.cpp:129] Top shape: 1 1 48 64 (3072)
I0727 16:15:53.899715 24173 net.cpp:137] Memory required for data: 487182336
I0727 16:15:53.899718 24173 layer_factory.hpp:77] Creating layer score16_slicer_conv_15_split
I0727 16:15:53.899724 24173 net.cpp:84] Creating Layer score16_slicer_conv_15_split
I0727 16:15:53.899729 24173 net.cpp:406] score16_slicer_conv_15_split <- score16
I0727 16:15:53.899734 24173 net.cpp:380] score16_slicer_conv_15_split -> score16_slicer_conv_15_split_0
I0727 16:15:53.899739 24173 net.cpp:380] score16_slicer_conv_15_split -> score16_slicer_conv_15_split_1
I0727 16:15:53.899775 24173 net.cpp:122] Setting up score16_slicer_conv_15_split
I0727 16:15:53.899781 24173 net.cpp:129] Top shape: 1 1 48 64 (3072)
I0727 16:15:53.899785 24173 net.cpp:129] Top shape: 1 1 48 64 (3072)
I0727 16:15:53.899788 24173 net.cpp:137] Memory required for data: 487206912
I0727 16:15:53.899792 24173 layer_factory.hpp:77] Creating layer score17_slicer_conv_16_split
I0727 16:15:53.899797 24173 net.cpp:84] Creating Layer score17_slicer_conv_16_split
I0727 16:15:53.899801 24173 net.cpp:406] score17_slicer_conv_16_split <- score17
I0727 16:15:53.899806 24173 net.cpp:380] score17_slicer_conv_16_split -> score17_slicer_conv_16_split_0
I0727 16:15:53.899812 24173 net.cpp:380] score17_slicer_conv_16_split -> score17_slicer_conv_16_split_1
I0727 16:15:53.899847 24173 net.cpp:122] Setting up score17_slicer_conv_16_split
I0727 16:15:53.899853 24173 net.cpp:129] Top shape: 1 1 48 64 (3072)
I0727 16:15:53.899857 24173 net.cpp:129] Top shape: 1 1 48 64 (3072)
I0727 16:15:53.899862 24173 net.cpp:137] Memory required for data: 487231488
I0727 16:15:53.899864 24173 layer_factory.hpp:77] Creating layer score18_slicer_conv_17_split
I0727 16:15:53.899870 24173 net.cpp:84] Creating Layer score18_slicer_conv_17_split
I0727 16:15:53.899874 24173 net.cpp:406] score18_slicer_conv_17_split <- score18
I0727 16:15:53.899879 24173 net.cpp:380] score18_slicer_conv_17_split -> score18_slicer_conv_17_split_0
I0727 16:15:53.899885 24173 net.cpp:380] score18_slicer_conv_17_split -> score18_slicer_conv_17_split_1
I0727 16:15:53.899930 24173 net.cpp:122] Setting up score18_slicer_conv_17_split
I0727 16:15:53.899937 24173 net.cpp:129] Top shape: 1 1 48 64 (3072)
I0727 16:15:53.899941 24173 net.cpp:129] Top shape: 1 1 48 64 (3072)
I0727 16:15:53.899945 24173 net.cpp:137] Memory required for data: 487256064
I0727 16:15:53.899948 24173 layer_factory.hpp:77] Creating layer score19_slicer_conv_18_split
I0727 16:15:53.899953 24173 net.cpp:84] Creating Layer score19_slicer_conv_18_split
I0727 16:15:53.899957 24173 net.cpp:406] score19_slicer_conv_18_split <- score19
I0727 16:15:53.899962 24173 net.cpp:380] score19_slicer_conv_18_split -> score19_slicer_conv_18_split_0
I0727 16:15:53.899968 24173 net.cpp:380] score19_slicer_conv_18_split -> score19_slicer_conv_18_split_1
I0727 16:15:53.900004 24173 net.cpp:122] Setting up score19_slicer_conv_18_split
I0727 16:15:53.900012 24173 net.cpp:129] Top shape: 1 1 48 64 (3072)
I0727 16:15:53.900015 24173 net.cpp:129] Top shape: 1 1 48 64 (3072)
I0727 16:15:53.900018 24173 net.cpp:137] Memory required for data: 487280640
I0727 16:15:53.900022 24173 layer_factory.hpp:77] Creating layer score20_slicer_conv_19_split
I0727 16:15:53.900027 24173 net.cpp:84] Creating Layer score20_slicer_conv_19_split
I0727 16:15:53.900030 24173 net.cpp:406] score20_slicer_conv_19_split <- score20
I0727 16:15:53.900037 24173 net.cpp:380] score20_slicer_conv_19_split -> score20_slicer_conv_19_split_0
I0727 16:15:53.900043 24173 net.cpp:380] score20_slicer_conv_19_split -> score20_slicer_conv_19_split_1
I0727 16:15:53.900087 24173 net.cpp:122] Setting up score20_slicer_conv_19_split
I0727 16:15:53.900094 24173 net.cpp:129] Top shape: 1 1 48 64 (3072)
I0727 16:15:53.900099 24173 net.cpp:129] Top shape: 1 1 48 64 (3072)
I0727 16:15:53.900101 24173 net.cpp:137] Memory required for data: 487305216
I0727 16:15:53.900104 24173 layer_factory.hpp:77] Creating layer score21_slicer_conv_20_split
I0727 16:15:53.900110 24173 net.cpp:84] Creating Layer score21_slicer_conv_20_split
I0727 16:15:53.900113 24173 net.cpp:406] score21_slicer_conv_20_split <- score21
I0727 16:15:53.900117 24173 net.cpp:380] score21_slicer_conv_20_split -> score21_slicer_conv_20_split_0
I0727 16:15:53.900123 24173 net.cpp:380] score21_slicer_conv_20_split -> score21_slicer_conv_20_split_1
I0727 16:15:53.900159 24173 net.cpp:122] Setting up score21_slicer_conv_20_split
I0727 16:15:53.900166 24173 net.cpp:129] Top shape: 1 1 48 64 (3072)
I0727 16:15:53.900169 24173 net.cpp:129] Top shape: 1 1 48 64 (3072)
I0727 16:15:53.900172 24173 net.cpp:137] Memory required for data: 487329792
I0727 16:15:53.900177 24173 layer_factory.hpp:77] Creating layer score22_slicer_conv_21_split
I0727 16:15:53.900182 24173 net.cpp:84] Creating Layer score22_slicer_conv_21_split
I0727 16:15:53.900184 24173 net.cpp:406] score22_slicer_conv_21_split <- score22
I0727 16:15:53.900190 24173 net.cpp:380] score22_slicer_conv_21_split -> score22_slicer_conv_21_split_0
I0727 16:15:53.900197 24173 net.cpp:380] score22_slicer_conv_21_split -> score22_slicer_conv_21_split_1
I0727 16:15:53.900230 24173 net.cpp:122] Setting up score22_slicer_conv_21_split
I0727 16:15:53.900236 24173 net.cpp:129] Top shape: 1 1 48 64 (3072)
I0727 16:15:53.900240 24173 net.cpp:129] Top shape: 1 1 48 64 (3072)
I0727 16:15:53.900243 24173 net.cpp:137] Memory required for data: 487354368
I0727 16:15:53.900246 24173 layer_factory.hpp:77] Creating layer score23_slicer_conv_22_split
I0727 16:15:53.900252 24173 net.cpp:84] Creating Layer score23_slicer_conv_22_split
I0727 16:15:53.900256 24173 net.cpp:406] score23_slicer_conv_22_split <- score23
I0727 16:15:53.900261 24173 net.cpp:380] score23_slicer_conv_22_split -> score23_slicer_conv_22_split_0
I0727 16:15:53.900266 24173 net.cpp:380] score23_slicer_conv_22_split -> score23_slicer_conv_22_split_1
I0727 16:15:53.900303 24173 net.cpp:122] Setting up score23_slicer_conv_22_split
I0727 16:15:53.900310 24173 net.cpp:129] Top shape: 1 1 48 64 (3072)
I0727 16:15:53.900313 24173 net.cpp:129] Top shape: 1 1 48 64 (3072)
I0727 16:15:53.900323 24173 net.cpp:137] Memory required for data: 487378944
I0727 16:15:53.900327 24173 layer_factory.hpp:77] Creating layer score24_slicer_conv_23_split
I0727 16:15:53.900331 24173 net.cpp:84] Creating Layer score24_slicer_conv_23_split
I0727 16:15:53.900336 24173 net.cpp:406] score24_slicer_conv_23_split <- score24
I0727 16:15:53.900341 24173 net.cpp:380] score24_slicer_conv_23_split -> score24_slicer_conv_23_split_0
I0727 16:15:53.900347 24173 net.cpp:380] score24_slicer_conv_23_split -> score24_slicer_conv_23_split_1
I0727 16:15:53.900384 24173 net.cpp:122] Setting up score24_slicer_conv_23_split
I0727 16:15:53.900390 24173 net.cpp:129] Top shape: 1 1 48 64 (3072)
I0727 16:15:53.900394 24173 net.cpp:129] Top shape: 1 1 48 64 (3072)
I0727 16:15:53.900398 24173 net.cpp:137] Memory required for data: 487403520
I0727 16:15:53.900400 24173 layer_factory.hpp:77] Creating layer score25_slicer_conv_24_split
I0727 16:15:53.900406 24173 net.cpp:84] Creating Layer score25_slicer_conv_24_split
I0727 16:15:53.900410 24173 net.cpp:406] score25_slicer_conv_24_split <- score25
I0727 16:15:53.900415 24173 net.cpp:380] score25_slicer_conv_24_split -> score25_slicer_conv_24_split_0
I0727 16:15:53.900421 24173 net.cpp:380] score25_slicer_conv_24_split -> score25_slicer_conv_24_split_1
I0727 16:15:53.900456 24173 net.cpp:122] Setting up score25_slicer_conv_24_split
I0727 16:15:53.900462 24173 net.cpp:129] Top shape: 1 1 48 64 (3072)
I0727 16:15:53.900466 24173 net.cpp:129] Top shape: 1 1 48 64 (3072)
I0727 16:15:53.900470 24173 net.cpp:137] Memory required for data: 487428096
I0727 16:15:53.900473 24173 layer_factory.hpp:77] Creating layer score26_slicer_conv_25_split
I0727 16:15:53.900478 24173 net.cpp:84] Creating Layer score26_slicer_conv_25_split
I0727 16:15:53.900481 24173 net.cpp:406] score26_slicer_conv_25_split <- score26
I0727 16:15:53.900486 24173 net.cpp:380] score26_slicer_conv_25_split -> score26_slicer_conv_25_split_0
I0727 16:15:53.900492 24173 net.cpp:380] score26_slicer_conv_25_split -> score26_slicer_conv_25_split_1
I0727 16:15:53.900527 24173 net.cpp:122] Setting up score26_slicer_conv_25_split
I0727 16:15:53.900533 24173 net.cpp:129] Top shape: 1 1 48 64 (3072)
I0727 16:15:53.900537 24173 net.cpp:129] Top shape: 1 1 48 64 (3072)
I0727 16:15:53.900540 24173 net.cpp:137] Memory required for data: 487452672
I0727 16:15:53.900544 24173 layer_factory.hpp:77] Creating layer score27_slicer_conv_26_split
I0727 16:15:53.900548 24173 net.cpp:84] Creating Layer score27_slicer_conv_26_split
I0727 16:15:53.900552 24173 net.cpp:406] score27_slicer_conv_26_split <- score27
I0727 16:15:53.900558 24173 net.cpp:380] score27_slicer_conv_26_split -> score27_slicer_conv_26_split_0
I0727 16:15:53.900563 24173 net.cpp:380] score27_slicer_conv_26_split -> score27_slicer_conv_26_split_1
I0727 16:15:53.900599 24173 net.cpp:122] Setting up score27_slicer_conv_26_split
I0727 16:15:53.900605 24173 net.cpp:129] Top shape: 1 1 48 64 (3072)
I0727 16:15:53.900609 24173 net.cpp:129] Top shape: 1 1 48 64 (3072)
I0727 16:15:53.900612 24173 net.cpp:137] Memory required for data: 487477248
I0727 16:15:53.900616 24173 layer_factory.hpp:77] Creating layer score28_slicer_conv_27_split
I0727 16:15:53.900621 24173 net.cpp:84] Creating Layer score28_slicer_conv_27_split
I0727 16:15:53.900625 24173 net.cpp:406] score28_slicer_conv_27_split <- score28
I0727 16:15:53.900630 24173 net.cpp:380] score28_slicer_conv_27_split -> score28_slicer_conv_27_split_0
I0727 16:15:53.900635 24173 net.cpp:380] score28_slicer_conv_27_split -> score28_slicer_conv_27_split_1
I0727 16:15:53.900671 24173 net.cpp:122] Setting up score28_slicer_conv_27_split
I0727 16:15:53.900677 24173 net.cpp:129] Top shape: 1 1 48 64 (3072)
I0727 16:15:53.900681 24173 net.cpp:129] Top shape: 1 1 48 64 (3072)
I0727 16:15:53.900684 24173 net.cpp:137] Memory required for data: 487501824
I0727 16:15:53.900688 24173 layer_factory.hpp:77] Creating layer score29_slicer_conv_28_split
I0727 16:15:53.900699 24173 net.cpp:84] Creating Layer score29_slicer_conv_28_split
I0727 16:15:53.900703 24173 net.cpp:406] score29_slicer_conv_28_split <- score29
I0727 16:15:53.900718 24173 net.cpp:380] score29_slicer_conv_28_split -> score29_slicer_conv_28_split_0
I0727 16:15:53.900724 24173 net.cpp:380] score29_slicer_conv_28_split -> score29_slicer_conv_28_split_1
I0727 16:15:53.900763 24173 net.cpp:122] Setting up score29_slicer_conv_28_split
I0727 16:15:53.900769 24173 net.cpp:129] Top shape: 1 1 48 64 (3072)
I0727 16:15:53.900774 24173 net.cpp:129] Top shape: 1 1 48 64 (3072)
I0727 16:15:53.900776 24173 net.cpp:137] Memory required for data: 487526400
I0727 16:15:53.900780 24173 layer_factory.hpp:77] Creating layer score30_slicer_conv_29_split
I0727 16:15:53.900787 24173 net.cpp:84] Creating Layer score30_slicer_conv_29_split
I0727 16:15:53.900791 24173 net.cpp:406] score30_slicer_conv_29_split <- score30
I0727 16:15:53.900796 24173 net.cpp:380] score30_slicer_conv_29_split -> score30_slicer_conv_29_split_0
I0727 16:15:53.900801 24173 net.cpp:380] score30_slicer_conv_29_split -> score30_slicer_conv_29_split_1
I0727 16:15:53.900837 24173 net.cpp:122] Setting up score30_slicer_conv_29_split
I0727 16:15:53.900845 24173 net.cpp:129] Top shape: 1 1 48 64 (3072)
I0727 16:15:53.900848 24173 net.cpp:129] Top shape: 1 1 48 64 (3072)
I0727 16:15:53.900851 24173 net.cpp:137] Memory required for data: 487550976
I0727 16:15:53.900854 24173 layer_factory.hpp:77] Creating layer score31_slicer_conv_30_split
I0727 16:15:53.900859 24173 net.cpp:84] Creating Layer score31_slicer_conv_30_split
I0727 16:15:53.900863 24173 net.cpp:406] score31_slicer_conv_30_split <- score31
I0727 16:15:53.900867 24173 net.cpp:380] score31_slicer_conv_30_split -> score31_slicer_conv_30_split_0
I0727 16:15:53.900873 24173 net.cpp:380] score31_slicer_conv_30_split -> score31_slicer_conv_30_split_1
I0727 16:15:53.900909 24173 net.cpp:122] Setting up score31_slicer_conv_30_split
I0727 16:15:53.900915 24173 net.cpp:129] Top shape: 1 1 48 64 (3072)
I0727 16:15:53.900919 24173 net.cpp:129] Top shape: 1 1 48 64 (3072)
I0727 16:15:53.900923 24173 net.cpp:137] Memory required for data: 487575552
I0727 16:15:53.900926 24173 layer_factory.hpp:77] Creating layer score32_slicer_conv_31_split
I0727 16:15:53.900931 24173 net.cpp:84] Creating Layer score32_slicer_conv_31_split
I0727 16:15:53.900934 24173 net.cpp:406] score32_slicer_conv_31_split <- score32
I0727 16:15:53.900940 24173 net.cpp:380] score32_slicer_conv_31_split -> score32_slicer_conv_31_split_0
I0727 16:15:53.900946 24173 net.cpp:380] score32_slicer_conv_31_split -> score32_slicer_conv_31_split_1
I0727 16:15:53.900982 24173 net.cpp:122] Setting up score32_slicer_conv_31_split
I0727 16:15:53.900988 24173 net.cpp:129] Top shape: 1 1 48 64 (3072)
I0727 16:15:53.900992 24173 net.cpp:129] Top shape: 1 1 48 64 (3072)
I0727 16:15:53.900995 24173 net.cpp:137] Memory required for data: 487600128
I0727 16:15:53.901000 24173 layer_factory.hpp:77] Creating layer score33_slicer_conv_32_split
I0727 16:15:53.901003 24173 net.cpp:84] Creating Layer score33_slicer_conv_32_split
I0727 16:15:53.901007 24173 net.cpp:406] score33_slicer_conv_32_split <- score33
I0727 16:15:53.901012 24173 net.cpp:380] score33_slicer_conv_32_split -> score33_slicer_conv_32_split_0
I0727 16:15:53.901018 24173 net.cpp:380] score33_slicer_conv_32_split -> score33_slicer_conv_32_split_1
I0727 16:15:53.901056 24173 net.cpp:122] Setting up score33_slicer_conv_32_split
I0727 16:15:53.901062 24173 net.cpp:129] Top shape: 1 1 48 64 (3072)
I0727 16:15:53.901065 24173 net.cpp:129] Top shape: 1 1 48 64 (3072)
I0727 16:15:53.901068 24173 net.cpp:137] Memory required for data: 487624704
I0727 16:15:53.901072 24173 layer_factory.hpp:77] Creating layer score34_slicer_conv_33_split
I0727 16:15:53.901077 24173 net.cpp:84] Creating Layer score34_slicer_conv_33_split
I0727 16:15:53.901080 24173 net.cpp:406] score34_slicer_conv_33_split <- score34
I0727 16:15:53.901087 24173 net.cpp:380] score34_slicer_conv_33_split -> score34_slicer_conv_33_split_0
I0727 16:15:53.901091 24173 net.cpp:380] score34_slicer_conv_33_split -> score34_slicer_conv_33_split_1
I0727 16:15:53.901127 24173 net.cpp:122] Setting up score34_slicer_conv_33_split
I0727 16:15:53.901139 24173 net.cpp:129] Top shape: 1 1 48 64 (3072)
I0727 16:15:53.901144 24173 net.cpp:129] Top shape: 1 1 48 64 (3072)
I0727 16:15:53.901147 24173 net.cpp:137] Memory required for data: 487649280
I0727 16:15:53.901150 24173 layer_factory.hpp:77] Creating layer score35_slicer_conv_34_split
I0727 16:15:53.901155 24173 net.cpp:84] Creating Layer score35_slicer_conv_34_split
I0727 16:15:53.901160 24173 net.cpp:406] score35_slicer_conv_34_split <- score35
I0727 16:15:53.901163 24173 net.cpp:380] score35_slicer_conv_34_split -> score35_slicer_conv_34_split_0
I0727 16:15:53.901170 24173 net.cpp:380] score35_slicer_conv_34_split -> score35_slicer_conv_34_split_1
I0727 16:15:53.901207 24173 net.cpp:122] Setting up score35_slicer_conv_34_split
I0727 16:15:53.901213 24173 net.cpp:129] Top shape: 1 1 48 64 (3072)
I0727 16:15:53.901217 24173 net.cpp:129] Top shape: 1 1 48 64 (3072)
I0727 16:15:53.901221 24173 net.cpp:137] Memory required for data: 487673856
I0727 16:15:53.901224 24173 layer_factory.hpp:77] Creating layer score36_slicer_conv_35_split
I0727 16:15:53.901228 24173 net.cpp:84] Creating Layer score36_slicer_conv_35_split
I0727 16:15:53.901232 24173 net.cpp:406] score36_slicer_conv_35_split <- score36
I0727 16:15:53.901237 24173 net.cpp:380] score36_slicer_conv_35_split -> score36_slicer_conv_35_split_0
I0727 16:15:53.901243 24173 net.cpp:380] score36_slicer_conv_35_split -> score36_slicer_conv_35_split_1
I0727 16:15:53.901278 24173 net.cpp:122] Setting up score36_slicer_conv_35_split
I0727 16:15:53.901284 24173 net.cpp:129] Top shape: 1 1 48 64 (3072)
I0727 16:15:53.901288 24173 net.cpp:129] Top shape: 1 1 48 64 (3072)
I0727 16:15:53.901291 24173 net.cpp:137] Memory required for data: 487698432
I0727 16:15:53.901294 24173 layer_factory.hpp:77] Creating layer score37_slicer_conv_36_split
I0727 16:15:53.901300 24173 net.cpp:84] Creating Layer score37_slicer_conv_36_split
I0727 16:15:53.901316 24173 net.cpp:406] score37_slicer_conv_36_split <- score37
I0727 16:15:53.901324 24173 net.cpp:380] score37_slicer_conv_36_split -> score37_slicer_conv_36_split_0
I0727 16:15:53.901329 24173 net.cpp:380] score37_slicer_conv_36_split -> score37_slicer_conv_36_split_1
I0727 16:15:53.901370 24173 net.cpp:122] Setting up score37_slicer_conv_36_split
I0727 16:15:53.901376 24173 net.cpp:129] Top shape: 1 1 48 64 (3072)
I0727 16:15:53.901379 24173 net.cpp:129] Top shape: 1 1 48 64 (3072)
I0727 16:15:53.901382 24173 net.cpp:137] Memory required for data: 487723008
I0727 16:15:53.901386 24173 layer_factory.hpp:77] Creating layer score38_slicer_conv_37_split
I0727 16:15:53.901391 24173 net.cpp:84] Creating Layer score38_slicer_conv_37_split
I0727 16:15:53.901394 24173 net.cpp:406] score38_slicer_conv_37_split <- score38
I0727 16:15:53.901399 24173 net.cpp:380] score38_slicer_conv_37_split -> score38_slicer_conv_37_split_0
I0727 16:15:53.901406 24173 net.cpp:380] score38_slicer_conv_37_split -> score38_slicer_conv_37_split_1
I0727 16:15:53.901443 24173 net.cpp:122] Setting up score38_slicer_conv_37_split
I0727 16:15:53.901448 24173 net.cpp:129] Top shape: 1 1 48 64 (3072)
I0727 16:15:53.901453 24173 net.cpp:129] Top shape: 1 1 48 64 (3072)
I0727 16:15:53.901455 24173 net.cpp:137] Memory required for data: 487747584
I0727 16:15:53.901458 24173 layer_factory.hpp:77] Creating layer score39_slicer_conv_38_split
I0727 16:15:53.901464 24173 net.cpp:84] Creating Layer score39_slicer_conv_38_split
I0727 16:15:53.901468 24173 net.cpp:406] score39_slicer_conv_38_split <- score39
I0727 16:15:53.901473 24173 net.cpp:380] score39_slicer_conv_38_split -> score39_slicer_conv_38_split_0
I0727 16:15:53.901479 24173 net.cpp:380] score39_slicer_conv_38_split -> score39_slicer_conv_38_split_1
I0727 16:15:53.901515 24173 net.cpp:122] Setting up score39_slicer_conv_38_split
I0727 16:15:53.901520 24173 net.cpp:129] Top shape: 1 1 48 64 (3072)
I0727 16:15:53.901525 24173 net.cpp:129] Top shape: 1 1 48 64 (3072)
I0727 16:15:53.901527 24173 net.cpp:137] Memory required for data: 487772160
I0727 16:15:53.901538 24173 layer_factory.hpp:77] Creating layer score40_slicer_conv_39_split
I0727 16:15:53.901543 24173 net.cpp:84] Creating Layer score40_slicer_conv_39_split
I0727 16:15:53.901547 24173 net.cpp:406] score40_slicer_conv_39_split <- score40
I0727 16:15:53.901552 24173 net.cpp:380] score40_slicer_conv_39_split -> score40_slicer_conv_39_split_0
I0727 16:15:53.901558 24173 net.cpp:380] score40_slicer_conv_39_split -> score40_slicer_conv_39_split_1
I0727 16:15:53.901597 24173 net.cpp:122] Setting up score40_slicer_conv_39_split
I0727 16:15:53.901603 24173 net.cpp:129] Top shape: 1 1 48 64 (3072)
I0727 16:15:53.901607 24173 net.cpp:129] Top shape: 1 1 48 64 (3072)
I0727 16:15:53.901610 24173 net.cpp:137] Memory required for data: 487796736
I0727 16:15:53.901614 24173 layer_factory.hpp:77] Creating layer score41_slicer_conv_40_split
I0727 16:15:53.901618 24173 net.cpp:84] Creating Layer score41_slicer_conv_40_split
I0727 16:15:53.901623 24173 net.cpp:406] score41_slicer_conv_40_split <- score41
I0727 16:15:53.901628 24173 net.cpp:380] score41_slicer_conv_40_split -> score41_slicer_conv_40_split_0
I0727 16:15:53.901633 24173 net.cpp:380] score41_slicer_conv_40_split -> score41_slicer_conv_40_split_1
I0727 16:15:53.901669 24173 net.cpp:122] Setting up score41_slicer_conv_40_split
I0727 16:15:53.901676 24173 net.cpp:129] Top shape: 1 1 48 64 (3072)
I0727 16:15:53.901680 24173 net.cpp:129] Top shape: 1 1 48 64 (3072)
I0727 16:15:53.901684 24173 net.cpp:137] Memory required for data: 487821312
I0727 16:15:53.901686 24173 layer_factory.hpp:77] Creating layer score42_slicer_conv_41_split
I0727 16:15:53.901691 24173 net.cpp:84] Creating Layer score42_slicer_conv_41_split
I0727 16:15:53.901695 24173 net.cpp:406] score42_slicer_conv_41_split <- score42
I0727 16:15:53.901700 24173 net.cpp:380] score42_slicer_conv_41_split -> score42_slicer_conv_41_split_0
I0727 16:15:53.901705 24173 net.cpp:380] score42_slicer_conv_41_split -> score42_slicer_conv_41_split_1
I0727 16:15:53.901741 24173 net.cpp:122] Setting up score42_slicer_conv_41_split
I0727 16:15:53.901747 24173 net.cpp:129] Top shape: 1 1 48 64 (3072)
I0727 16:15:53.901751 24173 net.cpp:129] Top shape: 1 1 48 64 (3072)
I0727 16:15:53.901754 24173 net.cpp:137] Memory required for data: 487845888
I0727 16:15:53.901757 24173 layer_factory.hpp:77] Creating layer score43_slicer_conv_42_split
I0727 16:15:53.901762 24173 net.cpp:84] Creating Layer score43_slicer_conv_42_split
I0727 16:15:53.901767 24173 net.cpp:406] score43_slicer_conv_42_split <- score43
I0727 16:15:53.901772 24173 net.cpp:380] score43_slicer_conv_42_split -> score43_slicer_conv_42_split_0
I0727 16:15:53.901777 24173 net.cpp:380] score43_slicer_conv_42_split -> score43_slicer_conv_42_split_1
I0727 16:15:53.901813 24173 net.cpp:122] Setting up score43_slicer_conv_42_split
I0727 16:15:53.901818 24173 net.cpp:129] Top shape: 1 1 48 64 (3072)
I0727 16:15:53.901821 24173 net.cpp:129] Top shape: 1 1 48 64 (3072)
I0727 16:15:53.901825 24173 net.cpp:137] Memory required for data: 487870464
I0727 16:15:53.901829 24173 layer_factory.hpp:77] Creating layer score44_slicer_conv_43_split
I0727 16:15:53.901834 24173 net.cpp:84] Creating Layer score44_slicer_conv_43_split
I0727 16:15:53.901839 24173 net.cpp:406] score44_slicer_conv_43_split <- score44
I0727 16:15:53.901844 24173 net.cpp:380] score44_slicer_conv_43_split -> score44_slicer_conv_43_split_0
I0727 16:15:53.901849 24173 net.cpp:380] score44_slicer_conv_43_split -> score44_slicer_conv_43_split_1
I0727 16:15:53.901885 24173 net.cpp:122] Setting up score44_slicer_conv_43_split
I0727 16:15:53.901891 24173 net.cpp:129] Top shape: 1 1 48 64 (3072)
I0727 16:15:53.901895 24173 net.cpp:129] Top shape: 1 1 48 64 (3072)
I0727 16:15:53.901898 24173 net.cpp:137] Memory required for data: 487895040
I0727 16:15:53.901901 24173 layer_factory.hpp:77] Creating layer score45_slicer_conv_44_split
I0727 16:15:53.901906 24173 net.cpp:84] Creating Layer score45_slicer_conv_44_split
I0727 16:15:53.901911 24173 net.cpp:406] score45_slicer_conv_44_split <- score45
I0727 16:15:53.901914 24173 net.cpp:380] score45_slicer_conv_44_split -> score45_slicer_conv_44_split_0
I0727 16:15:53.901928 24173 net.cpp:380] score45_slicer_conv_44_split -> score45_slicer_conv_44_split_1
I0727 16:15:53.901967 24173 net.cpp:122] Setting up score45_slicer_conv_44_split
I0727 16:15:53.901973 24173 net.cpp:129] Top shape: 1 1 48 64 (3072)
I0727 16:15:53.901976 24173 net.cpp:129] Top shape: 1 1 48 64 (3072)
I0727 16:15:53.901980 24173 net.cpp:137] Memory required for data: 487919616
I0727 16:15:53.901983 24173 layer_factory.hpp:77] Creating layer score46_slicer_conv_45_split
I0727 16:15:53.901990 24173 net.cpp:84] Creating Layer score46_slicer_conv_45_split
I0727 16:15:53.901994 24173 net.cpp:406] score46_slicer_conv_45_split <- score46
I0727 16:15:53.901999 24173 net.cpp:380] score46_slicer_conv_45_split -> score46_slicer_conv_45_split_0
I0727 16:15:53.902005 24173 net.cpp:380] score46_slicer_conv_45_split -> score46_slicer_conv_45_split_1
I0727 16:15:53.902042 24173 net.cpp:122] Setting up score46_slicer_conv_45_split
I0727 16:15:53.902048 24173 net.cpp:129] Top shape: 1 1 48 64 (3072)
I0727 16:15:53.902052 24173 net.cpp:129] Top shape: 1 1 48 64 (3072)
I0727 16:15:53.902055 24173 net.cpp:137] Memory required for data: 487944192
I0727 16:15:53.902060 24173 layer_factory.hpp:77] Creating layer score47_slicer_conv_46_split
I0727 16:15:53.902065 24173 net.cpp:84] Creating Layer score47_slicer_conv_46_split
I0727 16:15:53.902068 24173 net.cpp:406] score47_slicer_conv_46_split <- score47
I0727 16:15:53.902073 24173 net.cpp:380] score47_slicer_conv_46_split -> score47_slicer_conv_46_split_0
I0727 16:15:53.902078 24173 net.cpp:380] score47_slicer_conv_46_split -> score47_slicer_conv_46_split_1
I0727 16:15:53.902114 24173 net.cpp:122] Setting up score47_slicer_conv_46_split
I0727 16:15:53.902122 24173 net.cpp:129] Top shape: 1 1 48 64 (3072)
I0727 16:15:53.902125 24173 net.cpp:129] Top shape: 1 1 48 64 (3072)
I0727 16:15:53.902128 24173 net.cpp:137] Memory required for data: 487968768
I0727 16:15:53.902132 24173 layer_factory.hpp:77] Creating layer score48_slicer_conv_47_split
I0727 16:15:53.902137 24173 net.cpp:84] Creating Layer score48_slicer_conv_47_split
I0727 16:15:53.902139 24173 net.cpp:406] score48_slicer_conv_47_split <- score48
I0727 16:15:53.902148 24173 net.cpp:380] score48_slicer_conv_47_split -> score48_slicer_conv_47_split_0
I0727 16:15:53.902154 24173 net.cpp:380] score48_slicer_conv_47_split -> score48_slicer_conv_47_split_1
I0727 16:15:53.902190 24173 net.cpp:122] Setting up score48_slicer_conv_47_split
I0727 16:15:53.902197 24173 net.cpp:129] Top shape: 1 1 48 64 (3072)
I0727 16:15:53.902201 24173 net.cpp:129] Top shape: 1 1 48 64 (3072)
I0727 16:15:53.902204 24173 net.cpp:137] Memory required for data: 487993344
I0727 16:15:53.902209 24173 layer_factory.hpp:77] Creating layer score49_slicer_conv_48_split
I0727 16:15:53.902212 24173 net.cpp:84] Creating Layer score49_slicer_conv_48_split
I0727 16:15:53.902216 24173 net.cpp:406] score49_slicer_conv_48_split <- score49
I0727 16:15:53.902221 24173 net.cpp:380] score49_slicer_conv_48_split -> score49_slicer_conv_48_split_0
I0727 16:15:53.902226 24173 net.cpp:380] score49_slicer_conv_48_split -> score49_slicer_conv_48_split_1
I0727 16:15:53.902262 24173 net.cpp:122] Setting up score49_slicer_conv_48_split
I0727 16:15:53.902269 24173 net.cpp:129] Top shape: 1 1 48 64 (3072)
I0727 16:15:53.902273 24173 net.cpp:129] Top shape: 1 1 48 64 (3072)
I0727 16:15:53.902276 24173 net.cpp:137] Memory required for data: 488017920
I0727 16:15:53.902279 24173 layer_factory.hpp:77] Creating layer score50_slicer_conv_49_split
I0727 16:15:53.902294 24173 net.cpp:84] Creating Layer score50_slicer_conv_49_split
I0727 16:15:53.902298 24173 net.cpp:406] score50_slicer_conv_49_split <- score50
I0727 16:15:53.902303 24173 net.cpp:380] score50_slicer_conv_49_split -> score50_slicer_conv_49_split_0
I0727 16:15:53.902309 24173 net.cpp:380] score50_slicer_conv_49_split -> score50_slicer_conv_49_split_1
I0727 16:15:53.902346 24173 net.cpp:122] Setting up score50_slicer_conv_49_split
I0727 16:15:53.902353 24173 net.cpp:129] Top shape: 1 1 48 64 (3072)
I0727 16:15:53.902364 24173 net.cpp:129] Top shape: 1 1 48 64 (3072)
I0727 16:15:53.902366 24173 net.cpp:137] Memory required for data: 488042496
I0727 16:15:53.902370 24173 layer_factory.hpp:77] Creating layer score51_slicer_conv_50_split
I0727 16:15:53.902375 24173 net.cpp:84] Creating Layer score51_slicer_conv_50_split
I0727 16:15:53.902379 24173 net.cpp:406] score51_slicer_conv_50_split <- score51
I0727 16:15:53.902384 24173 net.cpp:380] score51_slicer_conv_50_split -> score51_slicer_conv_50_split_0
I0727 16:15:53.902390 24173 net.cpp:380] score51_slicer_conv_50_split -> score51_slicer_conv_50_split_1
I0727 16:15:53.902428 24173 net.cpp:122] Setting up score51_slicer_conv_50_split
I0727 16:15:53.902436 24173 net.cpp:129] Top shape: 1 1 48 64 (3072)
I0727 16:15:53.902439 24173 net.cpp:129] Top shape: 1 1 48 64 (3072)
I0727 16:15:53.902442 24173 net.cpp:137] Memory required for data: 488067072
I0727 16:15:53.902446 24173 layer_factory.hpp:77] Creating layer score52_slicer_conv_51_split
I0727 16:15:53.902451 24173 net.cpp:84] Creating Layer score52_slicer_conv_51_split
I0727 16:15:53.902456 24173 net.cpp:406] score52_slicer_conv_51_split <- score52
I0727 16:15:53.902462 24173 net.cpp:380] score52_slicer_conv_51_split -> score52_slicer_conv_51_split_0
I0727 16:15:53.902467 24173 net.cpp:380] score52_slicer_conv_51_split -> score52_slicer_conv_51_split_1
I0727 16:15:53.902506 24173 net.cpp:122] Setting up score52_slicer_conv_51_split
I0727 16:15:53.902513 24173 net.cpp:129] Top shape: 1 1 48 64 (3072)
I0727 16:15:53.902518 24173 net.cpp:129] Top shape: 1 1 48 64 (3072)
I0727 16:15:53.902521 24173 net.cpp:137] Memory required for data: 488091648
I0727 16:15:53.902525 24173 layer_factory.hpp:77] Creating layer score53_slicer_conv_52_split
I0727 16:15:53.902531 24173 net.cpp:84] Creating Layer score53_slicer_conv_52_split
I0727 16:15:53.902535 24173 net.cpp:406] score53_slicer_conv_52_split <- score53
I0727 16:15:53.902541 24173 net.cpp:380] score53_slicer_conv_52_split -> score53_slicer_conv_52_split_0
I0727 16:15:53.902547 24173 net.cpp:380] score53_slicer_conv_52_split -> score53_slicer_conv_52_split_1
I0727 16:15:53.902587 24173 net.cpp:122] Setting up score53_slicer_conv_52_split
I0727 16:15:53.902595 24173 net.cpp:129] Top shape: 1 1 48 64 (3072)
I0727 16:15:53.902598 24173 net.cpp:129] Top shape: 1 1 48 64 (3072)
I0727 16:15:53.902601 24173 net.cpp:137] Memory required for data: 488116224
I0727 16:15:53.902604 24173 layer_factory.hpp:77] Creating layer score54_slicer_conv_53_split
I0727 16:15:53.902609 24173 net.cpp:84] Creating Layer score54_slicer_conv_53_split
I0727 16:15:53.902613 24173 net.cpp:406] score54_slicer_conv_53_split <- score54
I0727 16:15:53.902618 24173 net.cpp:380] score54_slicer_conv_53_split -> score54_slicer_conv_53_split_0
I0727 16:15:53.902623 24173 net.cpp:380] score54_slicer_conv_53_split -> score54_slicer_conv_53_split_1
I0727 16:15:53.902662 24173 net.cpp:122] Setting up score54_slicer_conv_53_split
I0727 16:15:53.902669 24173 net.cpp:129] Top shape: 1 1 48 64 (3072)
I0727 16:15:53.902673 24173 net.cpp:129] Top shape: 1 1 48 64 (3072)
I0727 16:15:53.902676 24173 net.cpp:137] Memory required for data: 488140800
I0727 16:15:53.902680 24173 layer_factory.hpp:77] Creating layer score55_slicer_conv_54_split
I0727 16:15:53.902686 24173 net.cpp:84] Creating Layer score55_slicer_conv_54_split
I0727 16:15:53.902690 24173 net.cpp:406] score55_slicer_conv_54_split <- score55
I0727 16:15:53.902694 24173 net.cpp:380] score55_slicer_conv_54_split -> score55_slicer_conv_54_split_0
I0727 16:15:53.902724 24173 net.cpp:380] score55_slicer_conv_54_split -> score55_slicer_conv_54_split_1
I0727 16:15:53.902787 24173 net.cpp:122] Setting up score55_slicer_conv_54_split
I0727 16:15:53.902801 24173 net.cpp:129] Top shape: 1 1 48 64 (3072)
I0727 16:15:53.902808 24173 net.cpp:129] Top shape: 1 1 48 64 (3072)
I0727 16:15:53.902813 24173 net.cpp:137] Memory required for data: 488165376
I0727 16:15:53.902819 24173 layer_factory.hpp:77] Creating layer score56_slicer_conv_55_split
I0727 16:15:53.902840 24173 net.cpp:84] Creating Layer score56_slicer_conv_55_split
I0727 16:15:53.902846 24173 net.cpp:406] score56_slicer_conv_55_split <- score56
I0727 16:15:53.902855 24173 net.cpp:380] score56_slicer_conv_55_split -> score56_slicer_conv_55_split_0
I0727 16:15:53.902865 24173 net.cpp:380] score56_slicer_conv_55_split -> score56_slicer_conv_55_split_1
I0727 16:15:53.902922 24173 net.cpp:122] Setting up score56_slicer_conv_55_split
I0727 16:15:53.902932 24173 net.cpp:129] Top shape: 1 1 48 64 (3072)
I0727 16:15:53.902940 24173 net.cpp:129] Top shape: 1 1 48 64 (3072)
I0727 16:15:53.902945 24173 net.cpp:137] Memory required for data: 488189952
I0727 16:15:53.902950 24173 layer_factory.hpp:77] Creating layer score57_slicer_conv_56_split
I0727 16:15:53.902957 24173 net.cpp:84] Creating Layer score57_slicer_conv_56_split
I0727 16:15:53.902963 24173 net.cpp:406] score57_slicer_conv_56_split <- score57
I0727 16:15:53.902971 24173 net.cpp:380] score57_slicer_conv_56_split -> score57_slicer_conv_56_split_0
I0727 16:15:53.902981 24173 net.cpp:380] score57_slicer_conv_56_split -> score57_slicer_conv_56_split_1
I0727 16:15:53.903033 24173 net.cpp:122] Setting up score57_slicer_conv_56_split
I0727 16:15:53.903043 24173 net.cpp:129] Top shape: 1 1 48 64 (3072)
I0727 16:15:53.903049 24173 net.cpp:129] Top shape: 1 1 48 64 (3072)
I0727 16:15:53.903054 24173 net.cpp:137] Memory required for data: 488214528
I0727 16:15:53.903059 24173 layer_factory.hpp:77] Creating layer score58_slicer_conv_57_split
I0727 16:15:53.903069 24173 net.cpp:84] Creating Layer score58_slicer_conv_57_split
I0727 16:15:53.903075 24173 net.cpp:406] score58_slicer_conv_57_split <- score58
I0727 16:15:53.903084 24173 net.cpp:380] score58_slicer_conv_57_split -> score58_slicer_conv_57_split_0
I0727 16:15:53.903092 24173 net.cpp:380] score58_slicer_conv_57_split -> score58_slicer_conv_57_split_1
I0727 16:15:53.903146 24173 net.cpp:122] Setting up score58_slicer_conv_57_split
I0727 16:15:53.903156 24173 net.cpp:129] Top shape: 1 1 48 64 (3072)
I0727 16:15:53.903162 24173 net.cpp:129] Top shape: 1 1 48 64 (3072)
I0727 16:15:53.903167 24173 net.cpp:137] Memory required for data: 488239104
I0727 16:15:53.903173 24173 layer_factory.hpp:77] Creating layer score59_slicer_conv_58_split
I0727 16:15:53.903182 24173 net.cpp:84] Creating Layer score59_slicer_conv_58_split
I0727 16:15:53.903188 24173 net.cpp:406] score59_slicer_conv_58_split <- score59
I0727 16:15:53.903197 24173 net.cpp:380] score59_slicer_conv_58_split -> score59_slicer_conv_58_split_0
I0727 16:15:53.903206 24173 net.cpp:380] score59_slicer_conv_58_split -> score59_slicer_conv_58_split_1
I0727 16:15:53.903260 24173 net.cpp:122] Setting up score59_slicer_conv_58_split
I0727 16:15:53.903270 24173 net.cpp:129] Top shape: 1 1 48 64 (3072)
I0727 16:15:53.903276 24173 net.cpp:129] Top shape: 1 1 48 64 (3072)
I0727 16:15:53.903281 24173 net.cpp:137] Memory required for data: 488263680
I0727 16:15:53.903287 24173 layer_factory.hpp:77] Creating layer score60_slicer_conv_59_split
I0727 16:15:53.903296 24173 net.cpp:84] Creating Layer score60_slicer_conv_59_split
I0727 16:15:53.903302 24173 net.cpp:406] score60_slicer_conv_59_split <- score60
I0727 16:15:53.903311 24173 net.cpp:380] score60_slicer_conv_59_split -> score60_slicer_conv_59_split_0
I0727 16:15:53.903318 24173 net.cpp:380] score60_slicer_conv_59_split -> score60_slicer_conv_59_split_1
I0727 16:15:53.903373 24173 net.cpp:122] Setting up score60_slicer_conv_59_split
I0727 16:15:53.903383 24173 net.cpp:129] Top shape: 1 1 48 64 (3072)
I0727 16:15:53.903390 24173 net.cpp:129] Top shape: 1 1 48 64 (3072)
I0727 16:15:53.903395 24173 net.cpp:137] Memory required for data: 488288256
I0727 16:15:53.903410 24173 layer_factory.hpp:77] Creating layer score61_slicer_conv_60_split
I0727 16:15:53.903419 24173 net.cpp:84] Creating Layer score61_slicer_conv_60_split
I0727 16:15:53.903424 24173 net.cpp:406] score61_slicer_conv_60_split <- score61
I0727 16:15:53.903432 24173 net.cpp:380] score61_slicer_conv_60_split -> score61_slicer_conv_60_split_0
I0727 16:15:53.903450 24173 net.cpp:380] score61_slicer_conv_60_split -> score61_slicer_conv_60_split_1
I0727 16:15:53.903512 24173 net.cpp:122] Setting up score61_slicer_conv_60_split
I0727 16:15:53.903523 24173 net.cpp:129] Top shape: 1 1 48 64 (3072)
I0727 16:15:53.903530 24173 net.cpp:129] Top shape: 1 1 48 64 (3072)
I0727 16:15:53.903537 24173 net.cpp:137] Memory required for data: 488312832
I0727 16:15:53.903542 24173 layer_factory.hpp:77] Creating layer score62_slicer_conv_61_split
I0727 16:15:53.903550 24173 net.cpp:84] Creating Layer score62_slicer_conv_61_split
I0727 16:15:53.903556 24173 net.cpp:406] score62_slicer_conv_61_split <- score62
I0727 16:15:53.903565 24173 net.cpp:380] score62_slicer_conv_61_split -> score62_slicer_conv_61_split_0
I0727 16:15:53.903576 24173 net.cpp:380] score62_slicer_conv_61_split -> score62_slicer_conv_61_split_1
I0727 16:15:53.903648 24173 net.cpp:122] Setting up score62_slicer_conv_61_split
I0727 16:15:53.903658 24173 net.cpp:129] Top shape: 1 1 48 64 (3072)
I0727 16:15:53.903666 24173 net.cpp:129] Top shape: 1 1 48 64 (3072)
I0727 16:15:53.903671 24173 net.cpp:137] Memory required for data: 488337408
I0727 16:15:53.903676 24173 layer_factory.hpp:77] Creating layer score63_slicer_conv_62_split
I0727 16:15:53.903686 24173 net.cpp:84] Creating Layer score63_slicer_conv_62_split
I0727 16:15:53.903692 24173 net.cpp:406] score63_slicer_conv_62_split <- score63
I0727 16:15:53.903703 24173 net.cpp:380] score63_slicer_conv_62_split -> score63_slicer_conv_62_split_0
I0727 16:15:53.903714 24173 net.cpp:380] score63_slicer_conv_62_split -> score63_slicer_conv_62_split_1
I0727 16:15:53.903786 24173 net.cpp:122] Setting up score63_slicer_conv_62_split
I0727 16:15:53.903800 24173 net.cpp:129] Top shape: 1 1 48 64 (3072)
I0727 16:15:53.903806 24173 net.cpp:129] Top shape: 1 1 48 64 (3072)
I0727 16:15:53.903812 24173 net.cpp:137] Memory required for data: 488361984
I0727 16:15:53.903820 24173 layer_factory.hpp:77] Creating layer score64_slicer_conv_63_split
I0727 16:15:53.903828 24173 net.cpp:84] Creating Layer score64_slicer_conv_63_split
I0727 16:15:53.903836 24173 net.cpp:406] score64_slicer_conv_63_split <- score64
I0727 16:15:53.903844 24173 net.cpp:380] score64_slicer_conv_63_split -> score64_slicer_conv_63_split_0
I0727 16:15:53.903856 24173 net.cpp:380] score64_slicer_conv_63_split -> score64_slicer_conv_63_split_1
I0727 16:15:53.903926 24173 net.cpp:122] Setting up score64_slicer_conv_63_split
I0727 16:15:53.903939 24173 net.cpp:129] Top shape: 1 1 48 64 (3072)
I0727 16:15:53.903946 24173 net.cpp:129] Top shape: 1 1 48 64 (3072)
I0727 16:15:53.903952 24173 net.cpp:137] Memory required for data: 488386560
I0727 16:15:53.903959 24173 layer_factory.hpp:77] Creating layer sumscore
I0727 16:15:53.903985 24173 net.cpp:84] Creating Layer sumscore
I0727 16:15:53.903995 24173 net.cpp:406] sumscore <- score1_slicer_conv_0_split_0
I0727 16:15:53.904006 24173 net.cpp:406] sumscore <- score2_slicer_conv_1_split_0
I0727 16:15:53.904014 24173 net.cpp:406] sumscore <- score3_slicer_conv_2_split_0
…
I0727 16:15:53.905596 24173 net.cpp:380] sumscore_sumscore_0_split -> sumscore_sumscore_0_split_59
I0727 16:15:53.905611 24173 net.cpp:380] sumscore_sumscore_0_split -> sumscore_sumscore_0_split_60
I0727 16:15:53.905640 24173 net.cpp:380] sumscore_sumscore_0_split -> sumscore_sumscore_0_split_61
I0727 16:15:53.905658 24173 net.cpp:380] sumscore_sumscore_0_split -> sumscore_sumscore_0_split_62
I0727 16:15:53.905674 24173 net.cpp:380] sumscore_sumscore_0_split -> sumscore_sumscore_0_split_63
I0727 16:15:53.906831 24173 net.cpp:122] Setting up sumscore_sumscore_0_split
I0727 16:15:53.906842 24173 net.cpp:129] Top shape: 1 1 48 64 (3072)
I0727 16:15:53.906850 24173 net.cpp:129] Top shape: 1 1 48 64 (3072)
I0727 16:15:53.906857 24173 net.cpp:129] Top shape: 1 1 48 64 (3072)
I0727 16:15:53.906863 24173 net.cpp:129] Top shape: 1 1 48 64 (3072)
I0727 16:15:53.906869 24173 net.cpp:129] Top shape: 1 1 48 64 (3072)
I0727 16:15:53.906877 24173 net.cpp:129] Top shape: 1 1 48 64 (3072)
I0727 16:15:53.906883 24173 net.cpp:129] Top shape: 1 1 48 64 (3072)
I0727 16:15:53.906889 24173 net.cpp:129] Top shape: 1 1 48 64 (3072)
I0727 16:15:53.906895 24173 net.cpp:129] Top shape: 1 1 48 64 (3072)
I0727 16:15:53.906903 24173 net.cpp:129] Top shape: 1 1 48 64 (3072)
I0727 16:15:53.906908 24173 net.cpp:129] Top shape: 1 1 48 64 (3072)
I0727 16:15:53.906914 24173 net.cpp:129] Top shape: 1 1 48 64 (3072)
I0727 16:15:53.906921 24173 net.cpp:129] Top shape: 1 1 48 64 (3072)
I0727 16:15:53.906927 24173 net.cpp:129] Top shape: 1 1 48 64 (3072)
I0727 16:15:53.906934 24173 net.cpp:129] Top shape: 1 1 48 64 (3072)
I0727 16:15:53.906940 24173 net.cpp:129] Top shape: 1 1 48 64 (3072)
I0727 16:15:53.906947 24173 net.cpp:129] Top shape: 1 1 48 64 (3072)
I0727 16:15:53.906954 24173 net.cpp:129] Top shape: 1 1 48 64 (3072)
I0727 16:15:53.906960 24173 net.cpp:129] Top shape: 1 1 48 64 (3072)
I0727 16:15:53.906977 24173 net.cpp:129] Top shape: 1 1 48 64 (3072)
I0727 16:15:53.906985 24173 net.cpp:129] Top shape: 1 1 48 64 (3072)
I0727 16:15:53.906991 24173 net.cpp:129] Top shape: 1 1 48 64 (3072)
I0727 16:15:53.906997 24173 net.cpp:129] Top shape: 1 1 48 64 (3072)
I0727 16:15:53.907003 24173 net.cpp:129] Top shape: 1 1 48 64 (3072)
I0727 16:15:53.907011 24173 net.cpp:129] Top shape: 1 1 48 64 (3072)
I0727 16:15:53.907016 24173 net.cpp:129] Top shape: 1 1 48 64 (3072)
I0727 16:15:53.907023 24173 net.cpp:129] Top shape: 1 1 48 64 (3072)
I0727 16:15:53.907029 24173 net.cpp:129] Top shape: 1 1 48 64 (3072)
I0727 16:15:53.907037 24173 net.cpp:129] Top shape: 1 1 48 64 (3072)
I0727 16:15:53.907042 24173 net.cpp:129] Top shape: 1 1 48 64 (3072)
I0727 16:15:53.907048 24173 net.cpp:129] Top shape: 1 1 48 64 (3072)
I0727 16:15:53.907055 24173 net.cpp:129] Top shape: 1 1 48 64 (3072)
I0727 16:15:53.907061 24173 net.cpp:129] Top shape: 1 1 48 64 (3072)
I0727 16:15:53.907068 24173 net.cpp:129] Top shape: 1 1 48 64 (3072)
I0727 16:15:53.907074 24173 net.cpp:129] Top shape: 1 1 48 64 (3072)
I0727 16:15:53.907080 24173 net.cpp:129] Top shape: 1 1 48 64 (3072)
I0727 16:15:53.907088 24173 net.cpp:129] Top shape: 1 1 48 64 (3072)
I0727 16:15:53.907094 24173 net.cpp:129] Top shape: 1 1 48 64 (3072)
I0727 16:15:53.907100 24173 net.cpp:129] Top shape: 1 1 48 64 (3072)
I0727 16:15:53.907106 24173 net.cpp:129] Top shape: 1 1 48 64 (3072)
I0727 16:15:53.907114 24173 net.cpp:129] Top shape: 1 1 48 64 (3072)
I0727 16:15:53.907119 24173 net.cpp:129] Top shape: 1 1 48 64 (3072)
I0727 16:15:53.907125 24173 net.cpp:129] Top shape: 1 1 48 64 (3072)
I0727 16:15:53.907132 24173 net.cpp:129] Top shape: 1 1 48 64 (3072)
I0727 16:15:53.907138 24173 net.cpp:129] Top shape: 1 1 48 64 (3072)
I0727 16:15:53.907145 24173 net.cpp:129] Top shape: 1 1 48 64 (3072)
I0727 16:15:53.907151 24173 net.cpp:129] Top shape: 1 1 48 64 (3072)
I0727 16:15:53.907157 24173 net.cpp:129] Top shape: 1 1 48 64 (3072)
I0727 16:15:53.907165 24173 net.cpp:129] Top shape: 1 1 48 64 (3072)
I0727 16:15:53.907171 24173 net.cpp:129] Top shape: 1 1 48 64 (3072)
I0727 16:15:53.907177 24173 net.cpp:129] Top shape: 1 1 48 64 (3072)
I0727 16:15:53.907183 24173 net.cpp:129] Top shape: 1 1 48 64 (3072)
I0727 16:15:53.907191 24173 net.cpp:129] Top shape: 1 1 48 64 (3072)
I0727 16:15:53.907197 24173 net.cpp:129] Top shape: 1 1 48 64 (3072)
I0727 16:15:53.907203 24173 net.cpp:129] Top shape: 1 1 48 64 (3072)
I0727 16:15:53.907210 24173 net.cpp:129] Top shape: 1 1 48 64 (3072)
I0727 16:15:53.907217 24173 net.cpp:129] Top shape: 1 1 48 64 (3072)
I0727 16:15:53.907223 24173 net.cpp:129] Top shape: 1 1 48 64 (3072)
I0727 16:15:53.907229 24173 net.cpp:129] Top shape: 1 1 48 64 (3072)
I0727 16:15:53.907236 24173 net.cpp:129] Top shape: 1 1 48 64 (3072)
I0727 16:15:53.907243 24173 net.cpp:129] Top shape: 1 1 48 64 (3072)
I0727 16:15:53.907249 24173 net.cpp:129] Top shape: 1 1 48 64 (3072)
I0727 16:15:53.907255 24173 net.cpp:129] Top shape: 1 1 48 64 (3072)
I0727 16:15:53.907263 24173 net.cpp:129] Top shape: 1 1 48 64 (3072)
I0727 16:15:53.907268 24173 net.cpp:137] Memory required for data: 489185280
I0727 16:15:53.907272 24173 layer_factory.hpp:77] Creating layer loss1
I0727 16:15:53.907284 24173 net.cpp:84] Creating Layer loss1
I0727 16:15:53.907291 24173 net.cpp:406] loss1 <- score1_slicer_conv_0_split_1
I0727 16:15:53.907299 24173 net.cpp:406] loss1 <- label_label_0_split_0
I0727 16:15:53.907306 24173 net.cpp:406] loss1 <- sumscore_sumscore_0_split_0
…
I0727 16:15:53.941344 24173 net.cpp:51] Initializing net from parameters: 
name: "crowd_counting"
state {
  phase: TEST
}
layer {
  name: "data"
  type: "Data"
  top: "data"
  include {
    phase: TEST
  }
  data_param {
    source: "/home/peiyong/Work/Zenglin/szl/ShanghaiTech/partA/test_8/image_lmdb"
    batch_size: 1
    backend: LMDB
  }
}
layer {
  name: "label"
  type: "Data"
  top: "label"
  include {
    phase: TEST
  }
  data_param {
    source: "/home/peiyong/Work/Zenglin/szl/ShanghaiTech/partA/test_8/dmap_lmdb"
    batch_size: 1
    backend: LMDB
  }
}
layer {
  name: "conv1_1"
  type: "Convolution"
  bottom: "data"
  top: "conv1_1"
  param {
    lr_mult: 0.1
    decay_mult: 1
  }
  param {
    lr_mult: 0.2
    decay_mult: 0
  }
  convolution_param {
    num_output: 64
    pad: 1
    kernel_size: 3
    weight_filler {
      type: "gaussian"
      std: 0.01
    }
    bias_filler {
      type: "constant"
      value: 0
    }
  }
}
layer {
  name: "relu1_1"
  type: "ReLU"
  bottom: "conv1_1"
  top: "conv1_1"
}
layer {
  name: "conv1_2"
  type: "Convolution"
  bottom: "conv1_1"
  top: "conv1_2"
  param {
    lr_mult: 0.1
    decay_mult: 1
  }
  param {
    lr_mult: 0.2
    decay_mult: 0
  }
  convolution_param {
    num_output: 64
    pad: 1
    kernel_size: 3
    weight_filler {
      type: "gaussian"
      std: 0.01
    }
    bias_filler {
      type: "constant"
      value: 0
    }
  }
}
layer {
  name: "relu1_2"
  type: "ReLU"
  bottom: "conv1_2"
  top: "conv1_2"
}
layer {
  name: "pool1"
  type: "Pooling"
  bottom: "conv1_2"
  top: "pool1"
  pooling_param {
    pool: MAX
    kernel_size: 2
    stride: 2
  }
}
layer {
  name: "conv2_1"
  type: "Convolution"
  bottom: "pool1"
  top: "conv2_1"
  param {
    lr_mult: 0.1
    decay_mult: 1
  }
  param {
    lr_mult: 0.2
    decay_mult: 0
  }
  convolution_param {
    num_output: 128
    pad: 1
    kernel_size: 3
    weight_filler {
      type: "gaussian"
      std: 0.01
    }
    bias_filler {
      type: "constant"
      value: 0
    }
  }
}
layer {
  name: "relu2_1"
  type: "ReLU"
  bottom: "conv2_1"
  top: "conv2_1"
}
layer {
  name: "conv2_2"
  type: "Convolution"
  bottom: "conv2_1"
  top: "conv2_2"
  param {
    lr_mult: 0.1
    decay_mult: 1
  }
  param {
    lr_mult: 0.2
    decay_mult: 0
  }
  convolution_param {
    num_output: 128
    pad: 1
    kernel_size: 3
    weight_filler {
      type: "gaussian"
      std: 0.01
    }
    bias_filler {
      type: "constant"
      value: 0
    }
  }
}
layer {
  name: "relu2_2"
  type: "ReLU"
  bottom: "conv2_2"
  top: "conv2_2"
}
layer {
  name: "pool2"
  type: "Pooling"
  bottom: "conv2_2"
  top: "pool2"
  pooling_param {
    pool: MAX
    kernel_size: 2
    stride: 2
  }
}
layer {
  name: "conv3_1"
  type: "Convolution"
  bottom: "pool2"
  top: "conv3_1"
  param {
    lr_mult: 0.1
    decay_mult: 1
  }
  param {
    lr_mult: 0.2
    decay_mult: 0
  }
  convolution_param {
    num_output: 256
    pad: 1
    kernel_size: 3
    weight_filler {
      type: "gaussian"
      std: 0.01
    }
    bias_filler {
      type: "constant"
      value: 0
    }
  }
}
layer {
  name: "relu3_1"
  type: "ReLU"
  bottom: "conv3_1"
  top: "conv3_1"
}
layer {
  name: "conv3_2"
  type: "Convolution"
  bottom: "conv3_1"
  top: "conv3_2"
  param {
    lr_mult: 0.1
    decay_mult: 1
  }
  param {
    lr_mult: 0.2
    decay_mult: 0
  }
  convolution_param {
    num_output: 256
    pad: 1
    kernel_size: 3
    weight_filler {
      type: "gaussian"
      std: 0.01
    }
    bias_filler {
      type: "constant"
      value: 0
    }
  }
}
layer {
  name: "relu3_2"
  type: "ReLU"
  bottom: "conv3_2"
  top: "conv3_2"
}
layer {
  name: "conv3_3"
  type: "Convolution"
  bottom: "conv3_2"
  top: "conv3_3"
  param {
    lr_mult: 0.1
    decay_mult: 1
  }
  param {
    lr_mult: 0.2
    decay_mult: 0
  }
  convolution_param {
    num_output: 256
    pad: 1
    kernel_size: 3
    weight_filler {
      type: "gaussian"
      std: 0.01
    }
    bias_filler {
      type: "constant"
      value: 0
    }
  }
}
layer {
  name: "relu3_3"
  type: "ReLU"
  bottom: "conv3_3"
  top: "conv3_3"
}
layer {
  name: "pool3"
  type: "Pooling"
  bottom: "conv3_3"
  top: "pool3"
  pooling_param {
    pool: MAX
    kernel_size: 2
    stride: 2
  }
}
layer {
  name: "conv4_1"
  type: "Convolution"
  bottom: "pool3"
  top: "conv4_1"
  param {
    lr_mult: 0.1
    decay_mult: 1
  }
  param {
    lr_mult: 0.2
    decay_mult: 0
  }
  convolution_param {
    num_output: 512
    pad: 1
    kernel_size: 3
    weight_filler {
      type: "gaussian"
      std: 0.01
    }
    bias_filler {
      type: "constant"
      value: 0
    }
  }
}
layer {
  name: "relu4_1"
  type: "ReLU"
  bottom: "conv4_1"
  top: "conv4_1"
}
layer {
  name: "conv4_2"
  type: "Convolution"
  bottom: "conv4_1"
  top: "conv4_2"
  param {
    lr_mult: 0.1
    decay_mult: 1
  }
  param {
    lr_mult: 0.2
    decay_mult: 0
  }
  convolution_param {
    num_output: 512
    pad: 1
    kernel_size: 3
    weight_filler {
      type: "gaussian"
      std: 0.01
    }
    bias_filler {
      type: "constant"
      value: 0
    }
  }
}
layer {
  name: "relu4_2"
  type: "ReLU"
  bottom: "conv4_2"
  top: "conv4_2"
}
layer {
  name: "conv4_3"
  type: "Convolution"
  bottom: "conv4_2"
  top: "conv4_3"
  param {
    lr_mult: 0.1
    decay_mult: 1
  }
  param {
    lr_mult: 0.2
    decay_mult: 0
  }
  convolution_param {
    num_output: 512
    pad: 1
    kernel_size: 3
    weight_filler {
      type: "gaussian"
      std: 0.01
    }
    bias_filler {
      type: "constant"
      value: 0
    }
  }
}
layer {
  name: "relu4_3"
  type: "ReLU"
  bottom: "conv4_3"
  top: "conv4_3"
}
layer {
  name: "pool4"
  type: "Pooling"
  bottom: "conv4_3"
  top: "pool4"
  pooling_param {
    pool: MAX
    kernel_size: 3
    stride: 1
    pad: 1
  }
}
layer {
  name: "conv5_1"
  type: "Convolution"
  bottom: "pool4"
  top: "conv5_1"
  param {
    lr_mult: 0.1
    decay_mult: 1
  }
  param {
    lr_mult: 0.2
    decay_mult: 0
  }
  convolution_param {
    num_output: 512
    pad: 2
    kernel_size: 3
    weight_filler {
      type: "gaussian"
      std: 0.01
    }
    bias_filler {
      type: "constant"
      value: 0
    }
    dilation: 2
  }
}
layer {
  name: "relu5_1"
  type: "ReLU"
  bottom: "conv5_1"
  top: "conv5_1"
}
layer {
  name: "conv5_2"
  type: "Convolution"
  bottom: "conv5_1"
  top: "conv5_2"
  param {
    lr_mult: 0.1
    decay_mult: 1
  }
  param {
    lr_mult: 0.2
    decay_mult: 0
  }
  convolution_param {
    num_output: 512
    pad: 2
    kernel_size: 3
    weight_filler {
      type: "gaussian"
      std: 0.01
    }
    bias_filler {
      type: "constant"
      value: 0
    }
    dilation: 2
  }
}
layer {
  name: "relu5_2"
  type: "ReLU"
  bottom: "conv5_2"
  top: "conv5_2"
}
layer {
  name: "conv5_3"
  type: "Convolution"
  bottom: "conv5_2"
  top: "conv5_3"
  param {
    lr_mult: 0.1
    decay_mult: 1
  }
  param {
    lr_mult: 0.2
    decay_mult: 0
  }
  convolution_param {
    num_output: 512
    pad: 2
    kernel_size: 3
    weight_filler {
      type: "gaussian"
      std: 0.01
    }
    bias_filler {
      type: "constant"
      value: 0
    }
    dilation: 2
  }
}
layer {
  name: "relu5_3"
  type: "ReLU"
  bottom: "conv5_3"
  top: "conv5_3"
}
layer {
  name: "conv_score"
  type: "Convolution"
  bottom: "conv5_3"
  top: "conv_score"
  param {
    lr_mult: 10
    decay_mult: 1
  }
  param {
    lr_mult: 20
    decay_mult: 0
  }
  convolution_param {
    num_output: 64
    pad: 0
    kernel_size: 1
    group: 64
    stride: 1
    weight_filler {
      type: "constant"
      value: 0.0001
    }
    bias_filler {
      type: "constant"
      value: 0
    }
  }
}
layer {
  name: "relu_score"
  type: "ReLU"
  bottom: "conv_score"
  top: "conv_score"
}
layer {
  name: "slicer_conv"
  type: "Slice"
  bottom: "conv_score"
  top: "score1"
  top: "score2"
  top: "score3"
  top: "score4"
  top: "score5"
  top: "score6"
  top: "score7"
  top: "score8"
  top: "score9"
  top: "score10"
  top: "score11"
  top: "score12"
  top: "score13"
  top: "score14"
  top: "score15"
  top: "score16"
  top: "score17"
  top: "score18"
  top: "score19"
  top: "score20"
  top: "score21"
  top: "score22"
  top: "score23"
  top: "score24"
  top: "score25"
  top: "score26"
  top: "score27"
  top: "score28"
  top: "score29"
  top: "score30"
  top: "score31"
  top: "score32"
  top: "score33"
  top: "score34"
  top: "score35"
  top: "score36"
  top: "score37"
  top: "score38"
  top: "score39"
  top: "score40"
  top: "score41"
  top: "score42"
  top: "score43"
  top: "score44"
  top: "score45"
  top: "score46"
  top: "score47"
  top: "score48"
  top: "score49"
  top: "score50"
  top: "score51"
  top: "score52"
  top: "score53"
  top: "score54"
  top: "score55"
  top: "score56"
  top: "score57"
  top: "score58"
  top: "score59"
  top: "score60"
  top: "score61"
  top: "score62"
  top: "score63"
  top: "score64"
  slice_param {
    axis: 1
  }
}
layer {
  name: "sumscore"
  type: "Eltwise"
  bottom: "score1"
  bottom: "score2"
  bottom: "score3"
  bottom: "score4"
  bottom: "score5"
  bottom: "score6"
  bottom: "score7"
  bottom: "score8"
  bottom: "score9"
  bottom: "score10"
  bottom: "score11"
  bottom: "score12"
  bottom: "score13"
  bottom: "score14"
  bottom: "score15"
  bottom: "score16"
  bottom: "score17"
  bottom: "score18"
  bottom: "score19"
  bottom: "score20"
  bottom: "score21"
  bottom: "score22"
  bottom: "score23"
  bottom: "score24"
  bottom: "score25"
  bottom: "score26"
  bottom: "score27"
  bottom: "score28"
  bottom: "score29"
  bottom: "score30"
  bottom: "score31"
  bottom: "score32"
  bottom: "score33"
  bottom: "score34"
  bottom: "score35"
  bottom: "score36"
  bottom: "score37"
  bottom: "score38"
  bottom: "score39"
  bottom: "score40"
  bottom: "score41"
  bottom: "score42"
  bottom: "score43"
  bottom: "score44"
  bottom: "score45"
  bottom: "score46"
  bottom: "score47"
  bottom: "score48"
  bottom: "score49"
  bottom: "score50"
  bottom: "score51"
  bottom: "score52"
  bottom: "score53"
  bottom: "score54"
  bottom: "score55"
  bottom: "score56"
  bottom: "score57"
  bottom: "score58"
  bottom: "score59"
  bottom: "score60"
  bottom: "score61"
  bottom: "score62"
  bottom: "score63"
  bottom: "score64"
  top: "sumscore"
  eltwise_param {
    operation: SUM
  }
}
layer {
  name: "avgscore"
  type: "Power"
  bottom: "sumscore"
  top: "avgscore"
  include {
    phase: TEST
  }
  power_param {
    power: 1
    scale: 0.015625
    shift: 0
  }
}
layer {
  name: "mae"
  type: "MAELoss"
  bottom: "avgscore"
  bottom: "label"
  top: "mae"
  include {
    phase: TEST
  }
}
layer {
  name: "mse"
  type: "MSELoss"
  bottom: "avgscore"
  bottom: "label"
  top: "mse"
  include {
    phase: TEST
  }
}
I0727 16:15:53.942538 24173 layer_factory.hpp:77] Creating layer data
I0727 16:15:53.942612 24173 db_lmdb.cpp:35] Opened lmdb /home/peiyong/Work/Zenglin/szl/ShanghaiTech/partA/test_8/image_lmdb
I0727 16:15:53.942653 24173 net.cpp:84] Creating Layer data
I0727 16:15:53.942667 24173 net.cpp:380] data -> data
I0727 16:15:53.944941 24173 data_layer.cpp:45] output data size: 1,3,704,1024
I0727 16:15:53.959044 24173 net.cpp:122] Setting up data
I0727 16:15:53.959075 24173 net.cpp:129] Top shape: 1 3 704 1024 (2162688)
I0727 16:15:53.959079 24173 net.cpp:137] Memory required for data: 8650752
I0727 16:15:53.959085 24173 layer_factory.hpp:77] Creating layer label
I0727 16:15:53.959144 24173 db_lmdb.cpp:35] Opened lmdb /home/peiyong/Work/Zenglin/szl/ShanghaiTech/partA/test_8/dmap_lmdb
I0727 16:15:53.959185 24173 net.cpp:84] Creating Layer label
I0727 16:15:53.959192 24173 net.cpp:380] label -> label
I0727 16:15:53.959424 24173 data_layer.cpp:45] output data size: 1,1,88,128
I0727 16:15:53.959602 24173 net.cpp:122] Setting up label
I0727 16:15:53.959612 24173 net.cpp:129] Top shape: 1 1 88 128 (11264)
I0727 16:15:53.959616 24173 net.cpp:137] Memory required for data: 8695808
I0727 16:15:53.959620 24173 layer_factory.hpp:77] Creating layer label_label_0_split
I0727 16:15:53.959628 24173 net.cpp:84] Creating Layer label_label_0_split
I0727 16:15:53.959632 24173 net.cpp:406] label_label_0_split <- label
I0727 16:15:53.959640 24173 net.cpp:380] label_label_0_split -> label_label_0_split_0
I0727 16:15:53.959647 24173 net.cpp:380] label_label_0_split -> label_label_0_split_1
I0727 16:15:53.959695 24173 net.cpp:122] Setting up label_label_0_split
I0727 16:15:53.959702 24173 net.cpp:129] Top shape: 1 1 88 128 (11264)
I0727 16:15:53.959707 24173 net.cpp:129] Top shape: 1 1 88 128 (11264)
I0727 16:15:53.959708 24173 net.cpp:137] Memory required for data: 8785920
I0727 16:15:53.959710 24173 layer_factory.hpp:77] Creating layer conv1_1
I0727 16:15:53.959720 24173 net.cpp:84] Creating Layer conv1_1
I0727 16:15:53.959724 24173 net.cpp:406] conv1_1 <- data
I0727 16:15:53.959728 24173 net.cpp:380] conv1_1 -> conv1_1
I0727 16:15:53.966871 24173 net.cpp:122] Setting up conv1_1
I0727 16:15:53.966899 24173 net.cpp:129] Top shape: 1 64 704 1024 (46137344)
I0727 16:15:53.966904 24173 net.cpp:137] Memory required for data: 193335296
I0727 16:15:53.966920 24173 layer_factory.hpp:77] Creating layer relu1_1
I0727 16:15:53.966933 24173 net.cpp:84] Creating Layer relu1_1
I0727 16:15:53.966938 24173 net.cpp:406] relu1_1 <- conv1_1
I0727 16:15:53.966943 24173 net.cpp:367] relu1_1 -> conv1_1 (in-place)
I0727 16:15:53.967622 24173 net.cpp:122] Setting up relu1_1
I0727 16:15:53.967635 24173 net.cpp:129] Top shape: 1 64 704 1024 (46137344)
I0727 16:15:53.967638 24173 net.cpp:137] Memory required for data: 377884672
I0727 16:15:53.967643 24173 layer_factory.hpp:77] Creating layer conv1_2
I0727 16:15:53.967658 24173 net.cpp:84] Creating Layer conv1_2
I0727 16:15:53.967661 24173 net.cpp:406] conv1_2 <- conv1_1
I0727 16:15:53.967671 24173 net.cpp:380] conv1_2 -> conv1_2
I0727 16:15:53.974803 24173 net.cpp:122] Setting up conv1_2
I0727 16:15:53.974844 24173 net.cpp:129] Top shape: 1 64 704 1024 (46137344)
I0727 16:15:53.974849 24173 net.cpp:137] Memory required for data: 562434048
I0727 16:15:53.974867 24173 layer_factory.hpp:77] Creating layer relu1_2
I0727 16:15:53.974880 24173 net.cpp:84] Creating Layer relu1_2
I0727 16:15:53.974887 24173 net.cpp:406] relu1_2 <- conv1_2
I0727 16:15:53.974897 24173 net.cpp:367] relu1_2 -> conv1_2 (in-place)
I0727 16:15:53.975203 24173 net.cpp:122] Setting up relu1_2
I0727 16:15:53.975217 24173 net.cpp:129] Top shape: 1 64 704 1024 (46137344)
I0727 16:15:53.975221 24173 net.cpp:137] Memory required for data: 746983424
I0727 16:15:53.975225 24173 layer_factory.hpp:77] Creating layer pool1
I0727 16:15:53.975234 24173 net.cpp:84] Creating Layer pool1
I0727 16:15:53.975239 24173 net.cpp:406] pool1 <- conv1_2
I0727 16:15:53.975247 24173 net.cpp:380] pool1 -> pool1
I0727 16:15:53.975342 24173 net.cpp:122] Setting up pool1
I0727 16:15:53.975353 24173 net.cpp:129] Top shape: 1 64 352 512 (11534336)
I0727 16:15:53.975358 24173 net.cpp:137] Memory required for data: 793120768
I0727 16:15:53.975363 24173 layer_factory.hpp:77] Creating layer conv2_1
I0727 16:15:53.975379 24173 net.cpp:84] Creating Layer conv2_1
I0727 16:15:53.975385 24173 net.cpp:406] conv2_1 <- pool1
I0727 16:15:53.975394 24173 net.cpp:380] conv2_1 -> conv2_1
I0727 16:15:53.982451 24173 net.cpp:122] Setting up conv2_1
I0727 16:15:53.982475 24173 net.cpp:129] Top shape: 1 128 352 512 (23068672)
I0727 16:15:53.982478 24173 net.cpp:137] Memory required for data: 885395456
I0727 16:15:53.982491 24173 layer_factory.hpp:77] Creating layer relu2_1
I0727 16:15:53.982501 24173 net.cpp:84] Creating Layer relu2_1
I0727 16:15:53.982537 24173 net.cpp:406] relu2_1 <- conv2_1
I0727 16:15:53.982545 24173 net.cpp:367] relu2_1 -> conv2_1 (in-place)
I0727 16:15:53.983191 24173 net.cpp:122] Setting up relu2_1
I0727 16:15:53.983203 24173 net.cpp:129] Top shape: 1 128 352 512 (23068672)
I0727 16:15:53.983207 24173 net.cpp:137] Memory required for data: 977670144
I0727 16:15:53.983211 24173 layer_factory.hpp:77] Creating layer conv2_2
I0727 16:15:53.983222 24173 net.cpp:84] Creating Layer conv2_2
I0727 16:15:53.983227 24173 net.cpp:406] conv2_2 <- conv2_1
I0727 16:15:53.983232 24173 net.cpp:380] conv2_2 -> conv2_2
I0727 16:15:53.988479 24173 net.cpp:122] Setting up conv2_2
I0727 16:15:53.988495 24173 net.cpp:129] Top shape: 1 128 352 512 (23068672)
I0727 16:15:53.988502 24173 net.cpp:137] Memory required for data: 1069944832
I0727 16:15:53.988510 24173 layer_factory.hpp:77] Creating layer relu2_2
I0727 16:15:53.988518 24173 net.cpp:84] Creating Layer relu2_2
I0727 16:15:53.988523 24173 net.cpp:406] relu2_2 <- conv2_2
I0727 16:15:53.988531 24173 net.cpp:367] relu2_2 -> conv2_2 (in-place)
I0727 16:15:53.989171 24173 net.cpp:122] Setting up relu2_2
I0727 16:15:53.989184 24173 net.cpp:129] Top shape: 1 128 352 512 (23068672)
I0727 16:15:53.989189 24173 net.cpp:137] Memory required for data: 1162219520
I0727 16:15:53.989194 24173 layer_factory.hpp:77] Creating layer pool2
I0727 16:15:53.989203 24173 net.cpp:84] Creating Layer pool2
I0727 16:15:53.989208 24173 net.cpp:406] pool2 <- conv2_2
I0727 16:15:53.989215 24173 net.cpp:380] pool2 -> pool2
I0727 16:15:53.989279 24173 net.cpp:122] Setting up pool2
I0727 16:15:53.989289 24173 net.cpp:129] Top shape: 1 128 176 256 (5767168)
I0727 16:15:53.989292 24173 net.cpp:137] Memory required for data: 1185288192
I0727 16:15:53.989298 24173 layer_factory.hpp:77] Creating layer conv3_1
I0727 16:15:53.989315 24173 net.cpp:84] Creating Layer conv3_1
I0727 16:15:53.989321 24173 net.cpp:406] conv3_1 <- pool2
I0727 16:15:53.989329 24173 net.cpp:380] conv3_1 -> conv3_1
I0727 16:15:53.995673 24173 net.cpp:122] Setting up conv3_1
I0727 16:15:53.995688 24173 net.cpp:129] Top shape: 1 256 176 256 (11534336)
I0727 16:15:53.995694 24173 net.cpp:137] Memory required for data: 1231425536
I0727 16:15:53.995707 24173 layer_factory.hpp:77] Creating layer relu3_1
I0727 16:15:53.995714 24173 net.cpp:84] Creating Layer relu3_1
I0727 16:15:53.995719 24173 net.cpp:406] relu3_1 <- conv3_1
I0727 16:15:53.995728 24173 net.cpp:367] relu3_1 -> conv3_1 (in-place)
I0727 16:15:53.996245 24173 net.cpp:122] Setting up relu3_1
I0727 16:15:53.996258 24173 net.cpp:129] Top shape: 1 256 176 256 (11534336)
I0727 16:15:53.996263 24173 net.cpp:137] Memory required for data: 1277562880
I0727 16:15:53.996268 24173 layer_factory.hpp:77] Creating layer conv3_2
I0727 16:15:53.996279 24173 net.cpp:84] Creating Layer conv3_2
I0727 16:15:53.996284 24173 net.cpp:406] conv3_2 <- conv3_1
I0727 16:15:53.996294 24173 net.cpp:380] conv3_2 -> conv3_2
I0727 16:15:54.006103 24173 net.cpp:122] Setting up conv3_2
I0727 16:15:54.006119 24173 net.cpp:129] Top shape: 1 256 176 256 (11534336)
I0727 16:15:54.006124 24173 net.cpp:137] Memory required for data: 1323700224
I0727 16:15:54.006134 24173 layer_factory.hpp:77] Creating layer relu3_2
I0727 16:15:54.006144 24173 net.cpp:84] Creating Layer relu3_2
I0727 16:15:54.006148 24173 net.cpp:406] relu3_2 <- conv3_2
I0727 16:15:54.006156 24173 net.cpp:367] relu3_2 -> conv3_2 (in-place)
I0727 16:15:54.006796 24173 net.cpp:122] Setting up relu3_2
I0727 16:15:54.006810 24173 net.cpp:129] Top shape: 1 256 176 256 (11534336)
I0727 16:15:54.006815 24173 net.cpp:137] Memory required for data: 1369837568
I0727 16:15:54.006821 24173 layer_factory.hpp:77] Creating layer conv3_3
I0727 16:15:54.006834 24173 net.cpp:84] Creating Layer conv3_3
I0727 16:15:54.006839 24173 net.cpp:406] conv3_3 <- conv3_2
I0727 16:15:54.006847 24173 net.cpp:380] conv3_3 -> conv3_3
I0727 16:15:54.016348 24173 net.cpp:122] Setting up conv3_3
I0727 16:15:54.016376 24173 net.cpp:129] Top shape: 1 256 176 256 (11534336)
I0727 16:15:54.016453 24173 net.cpp:137] Memory required for data: 1415974912
I0727 16:15:54.016466 24173 layer_factory.hpp:77] Creating layer relu3_3
I0727 16:15:54.016476 24173 net.cpp:84] Creating Layer relu3_3
I0727 16:15:54.016482 24173 net.cpp:406] relu3_3 <- conv3_3
I0727 16:15:54.016490 24173 net.cpp:367] relu3_3 -> conv3_3 (in-place)
I0727 16:15:54.017171 24173 net.cpp:122] Setting up relu3_3
I0727 16:15:54.017185 24173 net.cpp:129] Top shape: 1 256 176 256 (11534336)
I0727 16:15:54.017191 24173 net.cpp:137] Memory required for data: 1462112256
I0727 16:15:54.017196 24173 layer_factory.hpp:77] Creating layer pool3
I0727 16:15:54.017204 24173 net.cpp:84] Creating Layer pool3
I0727 16:15:54.017210 24173 net.cpp:406] pool3 <- conv3_3
I0727 16:15:54.017217 24173 net.cpp:380] pool3 -> pool3
I0727 16:15:54.017283 24173 net.cpp:122] Setting up pool3
I0727 16:15:54.017292 24173 net.cpp:129] Top shape: 1 256 88 128 (2883584)
I0727 16:15:54.017297 24173 net.cpp:137] Memory required for data: 1473646592
I0727 16:15:54.017313 24173 layer_factory.hpp:77] Creating layer conv4_1
I0727 16:15:54.017325 24173 net.cpp:84] Creating Layer conv4_1
I0727 16:15:54.017331 24173 net.cpp:406] conv4_1 <- pool3
I0727 16:15:54.017339 24173 net.cpp:380] conv4_1 -> conv4_1
I0727 16:15:54.036553 24173 net.cpp:122] Setting up conv4_1
I0727 16:15:54.036588 24173 net.cpp:129] Top shape: 1 512 88 128 (5767168)
I0727 16:15:54.036594 24173 net.cpp:137] Memory required for data: 1496715264
I0727 16:15:54.036607 24173 layer_factory.hpp:77] Creating layer relu4_1
I0727 16:15:54.036620 24173 net.cpp:84] Creating Layer relu4_1
I0727 16:15:54.036628 24173 net.cpp:406] relu4_1 <- conv4_1
I0727 16:15:54.036638 24173 net.cpp:367] relu4_1 -> conv4_1 (in-place)
I0727 16:15:54.036870 24173 net.cpp:122] Setting up relu4_1
I0727 16:15:54.036883 24173 net.cpp:129] Top shape: 1 512 88 128 (5767168)
I0727 16:15:54.036888 24173 net.cpp:137] Memory required for data: 1519783936
I0727 16:15:54.036895 24173 layer_factory.hpp:77] Creating layer conv4_2
I0727 16:15:54.036909 24173 net.cpp:84] Creating Layer conv4_2
I0727 16:15:54.036916 24173 net.cpp:406] conv4_2 <- conv4_1
I0727 16:15:54.036924 24173 net.cpp:380] conv4_2 -> conv4_2
I0727 16:15:54.073163 24173 net.cpp:122] Setting up conv4_2
I0727 16:15:54.073199 24173 net.cpp:129] Top shape: 1 512 88 128 (5767168)
I0727 16:15:54.073205 24173 net.cpp:137] Memory required for data: 1542852608
I0727 16:15:54.073223 24173 layer_factory.hpp:77] Creating layer relu4_2
I0727 16:15:54.073236 24173 net.cpp:84] Creating Layer relu4_2
I0727 16:15:54.073243 24173 net.cpp:406] relu4_2 <- conv4_2
I0727 16:15:54.073253 24173 net.cpp:367] relu4_2 -> conv4_2 (in-place)
I0727 16:15:54.073982 24173 net.cpp:122] Setting up relu4_2
I0727 16:15:54.073998 24173 net.cpp:129] Top shape: 1 512 88 128 (5767168)
I0727 16:15:54.074004 24173 net.cpp:137] Memory required for data: 1565921280
I0727 16:15:54.074010 24173 layer_factory.hpp:77] Creating layer conv4_3
I0727 16:15:54.074024 24173 net.cpp:84] Creating Layer conv4_3
I0727 16:15:54.074031 24173 net.cpp:406] conv4_3 <- conv4_2
I0727 16:15:54.074041 24173 net.cpp:380] conv4_3 -> conv4_3
I0727 16:15:54.111073 24173 net.cpp:122] Setting up conv4_3
I0727 16:15:54.111107 24173 net.cpp:129] Top shape: 1 512 88 128 (5767168)
I0727 16:15:54.111114 24173 net.cpp:137] Memory required for data: 1588989952
I0727 16:15:54.111124 24173 layer_factory.hpp:77] Creating layer relu4_3
I0727 16:15:54.111136 24173 net.cpp:84] Creating Layer relu4_3
I0727 16:15:54.111143 24173 net.cpp:406] relu4_3 <- conv4_3
I0727 16:15:54.111152 24173 net.cpp:367] relu4_3 -> conv4_3 (in-place)
I0727 16:15:54.112076 24173 net.cpp:122] Setting up relu4_3
I0727 16:15:54.112090 24173 net.cpp:129] Top shape: 1 512 88 128 (5767168)
I0727 16:15:54.112095 24173 net.cpp:137] Memory required for data: 1612058624
I0727 16:15:54.112102 24173 layer_factory.hpp:77] Creating layer pool4
I0727 16:15:54.112110 24173 net.cpp:84] Creating Layer pool4
I0727 16:15:54.112115 24173 net.cpp:406] pool4 <- conv4_3
I0727 16:15:54.112123 24173 net.cpp:380] pool4 -> pool4
I0727 16:15:54.112233 24173 net.cpp:122] Setting up pool4
I0727 16:15:54.112243 24173 net.cpp:129] Top shape: 1 512 88 128 (5767168)
I0727 16:15:54.112248 24173 net.cpp:137] Memory required for data: 1635127296
I0727 16:15:54.112254 24173 layer_factory.hpp:77] Creating layer conv5_1
I0727 16:15:54.112267 24173 net.cpp:84] Creating Layer conv5_1
I0727 16:15:54.112273 24173 net.cpp:406] conv5_1 <- pool4
I0727 16:15:54.112282 24173 net.cpp:380] conv5_1 -> conv5_1
I0727 16:15:54.142643 24173 net.cpp:122] Setting up conv5_1
I0727 16:15:54.142683 24173 net.cpp:129] Top shape: 1 512 88 128 (5767168)
I0727 16:15:54.142688 24173 net.cpp:137] Memory required for data: 1658195968
I0727 16:15:54.142700 24173 layer_factory.hpp:77] Creating layer relu5_1
I0727 16:15:54.142714 24173 net.cpp:84] Creating Layer relu5_1
I0727 16:15:54.142720 24173 net.cpp:406] relu5_1 <- conv5_1
I0727 16:15:54.142729 24173 net.cpp:367] relu5_1 -> conv5_1 (in-place)
I0727 16:15:54.143002 24173 net.cpp:122] Setting up relu5_1
I0727 16:15:54.143015 24173 net.cpp:129] Top shape: 1 512 88 128 (5767168)
I0727 16:15:54.143020 24173 net.cpp:137] Memory required for data: 1681264640
I0727 16:15:54.143026 24173 layer_factory.hpp:77] Creating layer conv5_2
I0727 16:15:54.143040 24173 net.cpp:84] Creating Layer conv5_2
I0727 16:15:54.143046 24173 net.cpp:406] conv5_2 <- conv5_1
I0727 16:15:54.143055 24173 net.cpp:380] conv5_2 -> conv5_2
I0727 16:15:54.173077 24173 net.cpp:122] Setting up conv5_2
I0727 16:15:54.173120 24173 net.cpp:129] Top shape: 1 512 88 128 (5767168)
I0727 16:15:54.173123 24173 net.cpp:137] Memory required for data: 1704333312
I0727 16:15:54.173132 24173 layer_factory.hpp:77] Creating layer relu5_2
I0727 16:15:54.173157 24173 net.cpp:84] Creating Layer relu5_2
I0727 16:15:54.173171 24173 net.cpp:406] relu5_2 <- conv5_2
I0727 16:15:54.173179 24173 net.cpp:367] relu5_2 -> conv5_2 (in-place)
I0727 16:15:54.173985 24173 net.cpp:122] Setting up relu5_2
I0727 16:15:54.174000 24173 net.cpp:129] Top shape: 1 512 88 128 (5767168)
I0727 16:15:54.174005 24173 net.cpp:137] Memory required for data: 1727401984
I0727 16:15:54.174011 24173 layer_factory.hpp:77] Creating layer conv5_3
I0727 16:15:54.174026 24173 net.cpp:84] Creating Layer conv5_3
I0727 16:15:54.174031 24173 net.cpp:406] conv5_3 <- conv5_2
I0727 16:15:54.174039 24173 net.cpp:380] conv5_3 -> conv5_3
I0727 16:15:54.204152 24173 net.cpp:122] Setting up conv5_3
I0727 16:15:54.204183 24173 net.cpp:129] Top shape: 1 512 88 128 (5767168)
I0727 16:15:54.204190 24173 net.cpp:137] Memory required for data: 1750470656
I0727 16:15:54.204200 24173 layer_factory.hpp:77] Creating layer relu5_3
I0727 16:15:54.204216 24173 net.cpp:84] Creating Layer relu5_3
I0727 16:15:54.204222 24173 net.cpp:406] relu5_3 <- conv5_3
I0727 16:15:54.204231 24173 net.cpp:367] relu5_3 -> conv5_3 (in-place)
I0727 16:15:54.204480 24173 net.cpp:122] Setting up relu5_3
I0727 16:15:54.204493 24173 net.cpp:129] Top shape: 1 512 88 128 (5767168)
I0727 16:15:54.204497 24173 net.cpp:137] Memory required for data: 1773539328
I0727 16:15:54.204502 24173 layer_factory.hpp:77] Creating layer conv_score
I0727 16:15:54.204516 24173 net.cpp:84] Creating Layer conv_score
I0727 16:15:54.204521 24173 net.cpp:406] conv_score <- conv5_3
I0727 16:15:54.204530 24173 net.cpp:380] conv_score -> conv_score
I0727 16:15:54.312320 24173 net.cpp:122] Setting up conv_score
I0727 16:15:54.312350 24173 net.cpp:129] Top shape: 1 64 88 128 (720896)
I0727 16:15:54.312353 24173 net.cpp:137] Memory required for data: 1776422912
I0727 16:15:54.312364 24173 layer_factory.hpp:77] Creating layer relu_score
I0727 16:15:54.312374 24173 net.cpp:84] Creating Layer relu_score
I0727 16:15:54.312381 24173 net.cpp:406] relu_score <- conv_score
I0727 16:15:54.312386 24173 net.cpp:367] relu_score -> conv_score (in-place)
I0727 16:15:54.312899 24173 net.cpp:122] Setting up relu_score
I0727 16:15:54.312908 24173 net.cpp:129] Top shape: 1 64 88 128 (720896)
I0727 16:15:54.312911 24173 net.cpp:137] Memory required for data: 1779306496
I0727 16:15:54.312916 24173 layer_factory.hpp:77] Creating layer slicer_conv
I0727 16:15:54.312958 24173 net.cpp:84] Creating Layer slicer_conv
I0727 16:15:54.312963 24173 net.cpp:406] slicer_conv <- conv_score
I0727 16:15:54.312975 24173 net.cpp:380] slicer_conv -> score1
I0727 16:15:54.312985 24173 net.cpp:380] slicer_conv -> score2
…
I0727 16:15:54.313431 24173 net.cpp:380] slicer_conv -> score57
I0727 16:15:54.313438 24173 net.cpp:380] slicer_conv -> score58
I0727 16:15:54.313446 24173 net.cpp:380] slicer_conv -> score59
I0727 16:15:54.313453 24173 net.cpp:380] slicer_conv -> score60
I0727 16:15:54.313462 24173 net.cpp:380] slicer_conv -> score61
I0727 16:15:54.313469 24173 net.cpp:380] slicer_conv -> score62
I0727 16:15:54.313488 24173 net.cpp:380] slicer_conv -> score63
I0727 16:15:54.313496 24173 net.cpp:380] slicer_conv -> score64
I0727 16:15:54.314715 24173 net.cpp:122] Setting up slicer_conv
I0727 16:15:54.314723 24173 net.cpp:129] Top shape: 1 1 88 128 (11264)
I0727 16:15:54.314728 24173 net.cpp:129] Top shape: 1 1 88 128 (11264)
I0727 16:15:54.314731 24173 net.cpp:129] Top shape: 1 1 88 128 (11264)
I0727 16:15:54.314735 24173 net.cpp:129] Top shape: 1 1 88 128 (11264)
I0727 16:15:54.314739 24173 net.cpp:129] Top shape: 1 1 88 128 (11264)
I0727 16:15:54.314743 24173 net.cpp:129] Top shape: 1 1 88 128 (11264)
I0727 16:15:54.314746 24173 net.cpp:129] Top shape: 1 1 88 128 (11264)
I0727 16:15:54.314750 24173 net.cpp:129] Top shape: 1 1 88 128 (11264)
I0727 16:15:54.314754 24173 net.cpp:129] Top shape: 1 1 88 128 (11264)
I0727 16:15:54.314757 24173 net.cpp:129] Top shape: 1 1 88 128 (11264)
I0727 16:15:54.314761 24173 net.cpp:129] Top shape: 1 1 88 128 (11264)
I0727 16:15:54.314765 24173 net.cpp:129] Top shape: 1 1 88 128 (11264)
I0727 16:15:54.314769 24173 net.cpp:129] Top shape: 1 1 88 128 (11264)
I0727 16:15:54.314772 24173 net.cpp:129] Top shape: 1 1 88 128 (11264)
I0727 16:15:54.314776 24173 net.cpp:129] Top shape: 1 1 88 128 (11264)
I0727 16:15:54.314779 24173 net.cpp:129] Top shape: 1 1 88 128 (11264)
I0727 16:15:54.314784 24173 net.cpp:129] Top shape: 1 1 88 128 (11264)
I0727 16:15:54.314787 24173 net.cpp:129] Top shape: 1 1 88 128 (11264)
I0727 16:15:54.314790 24173 net.cpp:129] Top shape: 1 1 88 128 (11264)
I0727 16:15:54.314795 24173 net.cpp:129] Top shape: 1 1 88 128 (11264)
I0727 16:15:54.314798 24173 net.cpp:129] Top shape: 1 1 88 128 (11264)
I0727 16:15:54.314801 24173 net.cpp:129] Top shape: 1 1 88 128 (11264)
I0727 16:15:54.314805 24173 net.cpp:129] Top shape: 1 1 88 128 (11264)
I0727 16:15:54.314810 24173 net.cpp:129] Top shape: 1 1 88 128 (11264)
I0727 16:15:54.314812 24173 net.cpp:129] Top shape: 1 1 88 128 (11264)
I0727 16:15:54.314816 24173 net.cpp:129] Top shape: 1 1 88 128 (11264)
I0727 16:15:54.314820 24173 net.cpp:129] Top shape: 1 1 88 128 (11264)
I0727 16:15:54.314823 24173 net.cpp:129] Top shape: 1 1 88 128 (11264)
I0727 16:15:54.314827 24173 net.cpp:129] Top shape: 1 1 88 128 (11264)
I0727 16:15:54.314831 24173 net.cpp:129] Top shape: 1 1 88 128 (11264)
I0727 16:15:54.314834 24173 net.cpp:129] Top shape: 1 1 88 128 (11264)
I0727 16:15:54.314838 24173 net.cpp:129] Top shape: 1 1 88 128 (11264)
I0727 16:15:54.314841 24173 net.cpp:129] Top shape: 1 1 88 128 (11264)
I0727 16:15:54.314846 24173 net.cpp:129] Top shape: 1 1 88 128 (11264)
I0727 16:15:54.314848 24173 net.cpp:129] Top shape: 1 1 88 128 (11264)
I0727 16:15:54.314852 24173 net.cpp:129] Top shape: 1 1 88 128 (11264)
I0727 16:15:54.314857 24173 net.cpp:129] Top shape: 1 1 88 128 (11264)
I0727 16:15:54.314859 24173 net.cpp:129] Top shape: 1 1 88 128 (11264)
I0727 16:15:54.314863 24173 net.cpp:129] Top shape: 1 1 88 128 (11264)
I0727 16:15:54.314867 24173 net.cpp:129] Top shape: 1 1 88 128 (11264)
I0727 16:15:54.314870 24173 net.cpp:129] Top shape: 1 1 88 128 (11264)
I0727 16:15:54.314874 24173 net.cpp:129] Top shape: 1 1 88 128 (11264)
I0727 16:15:54.314878 24173 net.cpp:129] Top shape: 1 1 88 128 (11264)
I0727 16:15:54.314882 24173 net.cpp:129] Top shape: 1 1 88 128 (11264)
I0727 16:15:54.314885 24173 net.cpp:129] Top shape: 1 1 88 128 (11264)
I0727 16:15:54.314889 24173 net.cpp:129] Top shape: 1 1 88 128 (11264)
I0727 16:15:54.314893 24173 net.cpp:129] Top shape: 1 1 88 128 (11264)
I0727 16:15:54.314896 24173 net.cpp:129] Top shape: 1 1 88 128 (11264)
I0727 16:15:54.314900 24173 net.cpp:129] Top shape: 1 1 88 128 (11264)
I0727 16:15:54.314903 24173 net.cpp:129] Top shape: 1 1 88 128 (11264)
I0727 16:15:54.314908 24173 net.cpp:129] Top shape: 1 1 88 128 (11264)
I0727 16:15:54.314911 24173 net.cpp:129] Top shape: 1 1 88 128 (11264)
I0727 16:15:54.314914 24173 net.cpp:129] Top shape: 1 1 88 128 (11264)
I0727 16:15:54.314918 24173 net.cpp:129] Top shape: 1 1 88 128 (11264)
I0727 16:15:54.314923 24173 net.cpp:129] Top shape: 1 1 88 128 (11264)
I0727 16:15:54.314934 24173 net.cpp:129] Top shape: 1 1 88 128 (11264)
I0727 16:15:54.314939 24173 net.cpp:129] Top shape: 1 1 88 128 (11264)
I0727 16:15:54.314941 24173 net.cpp:129] Top shape: 1 1 88 128 (11264)
I0727 16:15:54.314945 24173 net.cpp:129] Top shape: 1 1 88 128 (11264)
I0727 16:15:54.314949 24173 net.cpp:129] Top shape: 1 1 88 128 (11264)
I0727 16:15:54.314952 24173 net.cpp:129] Top shape: 1 1 88 128 (11264)
I0727 16:15:54.314955 24173 net.cpp:129] Top shape: 1 1 88 128 (11264)
I0727 16:15:54.314960 24173 net.cpp:129] Top shape: 1 1 88 128 (11264)
I0727 16:15:54.314962 24173 net.cpp:129] Top shape: 1 1 88 128 (11264)
I0727 16:15:54.314965 24173 net.cpp:137] Memory required for data: 1782190080
I0727 16:15:54.314970 24173 layer_factory.hpp:77] Creating layer sumscore
I0727 16:15:54.314980 24173 net.cpp:84] Creating Layer sumscore
I0727 16:15:54.314985 24173 net.cpp:406] sumscore <- score1
I0727 16:15:54.314990 24173 net.cpp:406] sumscore <- score2
I0727 16:15:54.314993 24173 net.cpp:406] sumscore <- score3
…
