layer {
 name:"slicer_conv"
 type:"Slice"
 bottom:"conv_score"
 top: "score1"
 top: "score2"
 top: "score3"
 top: "score4"
 top: "score5"
 top: "score6"
 top: "score7"
 top: "score8"
 top: "score9"
 top: "score10"
 top: "score11"
 top: "score12"
 top: "score13"
 top: "score14"
 top: "score15"
 top: "score16"
 top: "score17"
 top: "score18"
 top: "score19"
 top: "score20"
 top: "score21"
 top: "score22"
 top: "score23"
 top: "score24"
 top: "score25"
 top: "score26"
 top: "score27"
 top: "score28"
 top: "score29"
 top: "score30"
 top: "score31"
 top: "score32"
 top: "score33"
 top: "score34"
 top: "score35"
 top: "score36"
 top: "score37"
 top: "score38"
 top: "score39"
 top: "score40"
 top: "score41"
 top: "score42"
 top: "score43"
 top: "score44"
 top: "score45"
 top: "score46"
 top: "score47"
 top: "score48"
 top: "score49"
 top: "score50"
 top: "score51"
 top: "score52"
 top: "score53"
 top: "score54"
 top: "score55"
 top: "score56"
 top: "score57"
 top: "score58"
 top: "score59"
 top: "score60"
 top: "score61"
 top: "score62"
 top: "score63"
 top: "score64"
 top: "score65"
 top: "score66"
 top: "score67"
 top: "score68"
 top: "score69"
 top: "score70"
 top: "score71"
 top: "score72"
 top: "score73"
 top: "score74"
 top: "score75"
 top: "score76"
 top: "score77"
 top: "score78"
 top: "score79"
 top: "score80"
 top: "score81"
 top: "score82"
 top: "score83"
 top: "score84"
 top: "score85"
 top: "score86"
 top: "score87"
 top: "score88"
 top: "score89"
 top: "score90"
 top: "score91"
 top: "score92"
 top: "score93"
 top: "score94"
 top: "score95"
 top: "score96"
 top: "score97"
 top: "score98"
 top: "score99"
 top: "score100"
 top: "score101"
 top: "score102"
 top: "score103"
 top: "score104"
 top: "score105"
 top: "score106"
 top: "score107"
 top: "score108"
 top: "score109"
 top: "score110"
 top: "score111"
 top: "score112"
 top: "score113"
 top: "score114"
 top: "score115"
 top: "score116"
 top: "score117"
 top: "score118"
 top: "score119"
 top: "score120"
 top: "score121"
 top: "score122"
 top: "score123"
 top: "score124"
 top: "score125"
 top: "score126"
 top: "score127"
 top: "score128"
 slice_param {
  axis: 1
 }
}

layer {
 name:"sumscore"
 type:"Eltwise"
 top:"sumscore"
 bottom: "score1"
 bottom: "score2"
 bottom: "score3"
 bottom: "score4"
 bottom: "score5"
 bottom: "score6"
 bottom: "score7"
 bottom: "score8"
 bottom: "score9"
 bottom: "score10"
 bottom: "score11"
 bottom: "score12"
 bottom: "score13"
 bottom: "score14"
 bottom: "score15"
 bottom: "score16"
 bottom: "score17"
 bottom: "score18"
 bottom: "score19"
 bottom: "score20"
 bottom: "score21"
 bottom: "score22"
 bottom: "score23"
 bottom: "score24"
 bottom: "score25"
 bottom: "score26"
 bottom: "score27"
 bottom: "score28"
 bottom: "score29"
 bottom: "score30"
 bottom: "score31"
 bottom: "score32"
 bottom: "score33"
 bottom: "score34"
 bottom: "score35"
 bottom: "score36"
 bottom: "score37"
 bottom: "score38"
 bottom: "score39"
 bottom: "score40"
 bottom: "score41"
 bottom: "score42"
 bottom: "score43"
 bottom: "score44"
 bottom: "score45"
 bottom: "score46"
 bottom: "score47"
 bottom: "score48"
 bottom: "score49"
 bottom: "score50"
 bottom: "score51"
 bottom: "score52"
 bottom: "score53"
 bottom: "score54"
 bottom: "score55"
 bottom: "score56"
 bottom: "score57"
 bottom: "score58"
 bottom: "score59"
 bottom: "score60"
 bottom: "score61"
 bottom: "score62"
 bottom: "score63"
 bottom: "score64"
 bottom: "score65"
 bottom: "score66"
 bottom: "score67"
 bottom: "score68"
 bottom: "score69"
 bottom: "score70"
 bottom: "score71"
 bottom: "score72"
 bottom: "score73"
 bottom: "score74"
 bottom: "score75"
 bottom: "score76"
 bottom: "score77"
 bottom: "score78"
 bottom: "score79"
 bottom: "score80"
 bottom: "score81"
 bottom: "score82"
 bottom: "score83"
 bottom: "score84"
 bottom: "score85"
 bottom: "score86"
 bottom: "score87"
 bottom: "score88"
 bottom: "score89"
 bottom: "score90"
 bottom: "score91"
 bottom: "score92"
 bottom: "score93"
 bottom: "score94"
 bottom: "score95"
 bottom: "score96"
 bottom: "score97"
 bottom: "score98"
 bottom: "score99"
 bottom: "score100"
 bottom: "score101"
 bottom: "score102"
 bottom: "score103"
 bottom: "score104"
 bottom: "score105"
 bottom: "score106"
 bottom: "score107"
 bottom: "score108"
 bottom: "score109"
 bottom: "score110"
 bottom: "score111"
 bottom: "score112"
 bottom: "score113"
 bottom: "score114"
 bottom: "score115"
 bottom: "score116"
 bottom: "score117"
 bottom: "score118"
 bottom: "score119"
 bottom: "score120"
 bottom: "score121"
 bottom: "score122"
 bottom: "score123"
 bottom: "score124"
 bottom: "score125"
 bottom: "score126"
 bottom: "score127"
 bottom: "score128"
 eltwise_param {
  operation: SUM
 }
}

layer {
 name:"avgscore"
 type:"Power"
 bottom:"sumscore"
 top:"avgscore"
 power_param {
  power: 1
  shift: 0
  scale:0.0078125
 }
 include {
  phase:TEST
 }
}

layer {
 name:"mae"
 type:"MAELoss"
 bottom:"avgscore"
 bottom:"label"
 top:"mae"
 include {
  phase:TEST
 }
}

layer {
 name:"mse"
 type:"MSELoss"
 bottom:"avgscore"
 bottom:"label"
 top:"mse"
 include {
  phase:TEST
 }
}

layer {
 name:"loss1"
 type:"NCLLoss"
 bottom: "score1"
 bottom: "label"
 bottom: "sumscore"
 top: "loss1"
 ncl_loss_param {
  lambda: 0.0001
  net_num: 128
 }
 include {
  phase: TRAIN
 }
}

layer {
 name:"loss2"
 type:"NCLLoss"
 bottom: "score2"
 bottom: "label"
 bottom: "sumscore"
 top: "loss2"
 ncl_loss_param {
  lambda: 0.0001
  net_num: 128
 }
 include {
  phase: TRAIN
 }
}

layer {
 name:"loss3"
 type:"NCLLoss"
 bottom: "score3"
 bottom: "label"
 bottom: "sumscore"
 top: "loss3"
 ncl_loss_param {
  lambda: 0.0001
  net_num: 128
 }
 include {
  phase: TRAIN
 }
}

layer {
 name:"loss4"
 type:"NCLLoss"
 bottom: "score4"
 bottom: "label"
 bottom: "sumscore"
 top: "loss4"
 ncl_loss_param {
  lambda: 0.0001
  net_num: 128
 }
 include {
  phase: TRAIN
 }
}

layer {
 name:"loss5"
 type:"NCLLoss"
 bottom: "score5"
 bottom: "label"
 bottom: "sumscore"
 top: "loss5"
 ncl_loss_param {
  lambda: 0.0001
  net_num: 128
 }
 include {
  phase: TRAIN
 }
}

layer {
 name:"loss6"
 type:"NCLLoss"
 bottom: "score6"
 bottom: "label"
 bottom: "sumscore"
 top: "loss6"
 ncl_loss_param {
  lambda: 0.0001
  net_num: 128
 }
 include {
  phase: TRAIN
 }
}

layer {
 name:"loss7"
 type:"NCLLoss"
 bottom: "score7"
 bottom: "label"
 bottom: "sumscore"
 top: "loss7"
 ncl_loss_param {
  lambda: 0.0001
  net_num: 128
 }
 include {
  phase: TRAIN
 }
}

layer {
 name:"loss8"
 type:"NCLLoss"
 bottom: "score8"
 bottom: "label"
 bottom: "sumscore"
 top: "loss8"
 ncl_loss_param {
  lambda: 0.0001
  net_num: 128
 }
 include {
  phase: TRAIN
 }
}

layer {
 name:"loss9"
 type:"NCLLoss"
 bottom: "score9"
 bottom: "label"
 bottom: "sumscore"
 top: "loss9"
 ncl_loss_param {
  lambda: 0.0001
  net_num: 128
 }
 include {
  phase: TRAIN
 }
}

layer {
 name:"loss10"
 type:"NCLLoss"
 bottom: "score10"
 bottom: "label"
 bottom: "sumscore"
 top: "loss10"
 ncl_loss_param {
  lambda: 0.0001
  net_num: 128
 }
 include {
  phase: TRAIN
 }
}

layer {
 name:"loss11"
 type:"NCLLoss"
 bottom: "score11"
 bottom: "label"
 bottom: "sumscore"
 top: "loss11"
 ncl_loss_param {
  lambda: 0.0001
  net_num: 128
 }
 include {
  phase: TRAIN
 }
}

layer {
 name:"loss12"
 type:"NCLLoss"
 bottom: "score12"
 bottom: "label"
 bottom: "sumscore"
 top: "loss12"
 ncl_loss_param {
  lambda: 0.0001
  net_num: 128
 }
 include {
  phase: TRAIN
 }
}

layer {
 name:"loss13"
 type:"NCLLoss"
 bottom: "score13"
 bottom: "label"
 bottom: "sumscore"
 top: "loss13"
 ncl_loss_param {
  lambda: 0.0001
  net_num: 128
 }
 include {
  phase: TRAIN
 }
}

layer {
 name:"loss14"
 type:"NCLLoss"
 bottom: "score14"
 bottom: "label"
 bottom: "sumscore"
 top: "loss14"
 ncl_loss_param {
  lambda: 0.0001
  net_num: 128
 }
 include {
  phase: TRAIN
 }
}

layer {
 name:"loss15"
 type:"NCLLoss"
 bottom: "score15"
 bottom: "label"
 bottom: "sumscore"
 top: "loss15"
 ncl_loss_param {
  lambda: 0.0001
  net_num: 128
 }
 include {
  phase: TRAIN
 }
}

layer {
 name:"loss16"
 type:"NCLLoss"
 bottom: "score16"
 bottom: "label"
 bottom: "sumscore"
 top: "loss16"
 ncl_loss_param {
  lambda: 0.0001
  net_num: 128
 }
 include {
  phase: TRAIN
 }
}

layer {
 name:"loss17"
 type:"NCLLoss"
 bottom: "score17"
 bottom: "label"
 bottom: "sumscore"
 top: "loss17"
 ncl_loss_param {
  lambda: 0.0001
  net_num: 128
 }
 include {
  phase: TRAIN
 }
}

layer {
 name:"loss18"
 type:"NCLLoss"
 bottom: "score18"
 bottom: "label"
 bottom: "sumscore"
 top: "loss18"
 ncl_loss_param {
  lambda: 0.0001
  net_num: 128
 }
 include {
  phase: TRAIN
 }
}

layer {
 name:"loss19"
 type:"NCLLoss"
 bottom: "score19"
 bottom: "label"
 bottom: "sumscore"
 top: "loss19"
 ncl_loss_param {
  lambda: 0.0001
  net_num: 128
 }
 include {
  phase: TRAIN
 }
}

layer {
 name:"loss20"
 type:"NCLLoss"
 bottom: "score20"
 bottom: "label"
 bottom: "sumscore"
 top: "loss20"
 ncl_loss_param {
  lambda: 0.0001
  net_num: 128
 }
 include {
  phase: TRAIN
 }
}

layer {
 name:"loss21"
 type:"NCLLoss"
 bottom: "score21"
 bottom: "label"
 bottom: "sumscore"
 top: "loss21"
 ncl_loss_param {
  lambda: 0.0001
  net_num: 128
 }
 include {
  phase: TRAIN
 }
}

layer {
 name:"loss22"
 type:"NCLLoss"
 bottom: "score22"
 bottom: "label"
 bottom: "sumscore"
 top: "loss22"
 ncl_loss_param {
  lambda: 0.0001
  net_num: 128
 }
 include {
  phase: TRAIN
 }
}

layer {
 name:"loss23"
 type:"NCLLoss"
 bottom: "score23"
 bottom: "label"
 bottom: "sumscore"
 top: "loss23"
 ncl_loss_param {
  lambda: 0.0001
  net_num: 128
 }
 include {
  phase: TRAIN
 }
}

layer {
 name:"loss24"
 type:"NCLLoss"
 bottom: "score24"
 bottom: "label"
 bottom: "sumscore"
 top: "loss24"
 ncl_loss_param {
  lambda: 0.0001
  net_num: 128
 }
 include {
  phase: TRAIN
 }
}

layer {
 name:"loss25"
 type:"NCLLoss"
 bottom: "score25"
 bottom: "label"
 bottom: "sumscore"
 top: "loss25"
 ncl_loss_param {
  lambda: 0.0001
  net_num: 128
 }
 include {
  phase: TRAIN
 }
}

layer {
 name:"loss26"
 type:"NCLLoss"
 bottom: "score26"
 bottom: "label"
 bottom: "sumscore"
 top: "loss26"
 ncl_loss_param {
  lambda: 0.0001
  net_num: 128
 }
 include {
  phase: TRAIN
 }
}

layer {
 name:"loss27"
 type:"NCLLoss"
 bottom: "score27"
 bottom: "label"
 bottom: "sumscore"
 top: "loss27"
 ncl_loss_param {
  lambda: 0.0001
  net_num: 128
 }
 include {
  phase: TRAIN
 }
}

layer {
 name:"loss28"
 type:"NCLLoss"
 bottom: "score28"
 bottom: "label"
 bottom: "sumscore"
 top: "loss28"
 ncl_loss_param {
  lambda: 0.0001
  net_num: 128
 }
 include {
  phase: TRAIN
 }
}

layer {
 name:"loss29"
 type:"NCLLoss"
 bottom: "score29"
 bottom: "label"
 bottom: "sumscore"
 top: "loss29"
 ncl_loss_param {
  lambda: 0.0001
  net_num: 128
 }
 include {
  phase: TRAIN
 }
}

layer {
 name:"loss30"
 type:"NCLLoss"
 bottom: "score30"
 bottom: "label"
 bottom: "sumscore"
 top: "loss30"
 ncl_loss_param {
  lambda: 0.0001
  net_num: 128
 }
 include {
  phase: TRAIN
 }
}

layer {
 name:"loss31"
 type:"NCLLoss"
 bottom: "score31"
 bottom: "label"
 bottom: "sumscore"
 top: "loss31"
 ncl_loss_param {
  lambda: 0.0001
  net_num: 128
 }
 include {
  phase: TRAIN
 }
}

layer {
 name:"loss32"
 type:"NCLLoss"
 bottom: "score32"
 bottom: "label"
 bottom: "sumscore"
 top: "loss32"
 ncl_loss_param {
  lambda: 0.0001
  net_num: 128
 }
 include {
  phase: TRAIN
 }
}

layer {
 name:"loss33"
 type:"NCLLoss"
 bottom: "score33"
 bottom: "label"
 bottom: "sumscore"
 top: "loss33"
 ncl_loss_param {
  lambda: 0.0001
  net_num: 128
 }
 include {
  phase: TRAIN
 }
}

layer {
 name:"loss34"
 type:"NCLLoss"
 bottom: "score34"
 bottom: "label"
 bottom: "sumscore"
 top: "loss34"
 ncl_loss_param {
  lambda: 0.0001
  net_num: 128
 }
 include {
  phase: TRAIN
 }
}

layer {
 name:"loss35"
 type:"NCLLoss"
 bottom: "score35"
 bottom: "label"
 bottom: "sumscore"
 top: "loss35"
 ncl_loss_param {
  lambda: 0.0001
  net_num: 128
 }
 include {
  phase: TRAIN
 }
}

layer {
 name:"loss36"
 type:"NCLLoss"
 bottom: "score36"
 bottom: "label"
 bottom: "sumscore"
 top: "loss36"
 ncl_loss_param {
  lambda: 0.0001
  net_num: 128
 }
 include {
  phase: TRAIN
 }
}

layer {
 name:"loss37"
 type:"NCLLoss"
 bottom: "score37"
 bottom: "label"
 bottom: "sumscore"
 top: "loss37"
 ncl_loss_param {
  lambda: 0.0001
  net_num: 128
 }
 include {
  phase: TRAIN
 }
}

layer {
 name:"loss38"
 type:"NCLLoss"
 bottom: "score38"
 bottom: "label"
 bottom: "sumscore"
 top: "loss38"
 ncl_loss_param {
  lambda: 0.0001
  net_num: 128
 }
 include {
  phase: TRAIN
 }
}

layer {
 name:"loss39"
 type:"NCLLoss"
 bottom: "score39"
 bottom: "label"
 bottom: "sumscore"
 top: "loss39"
 ncl_loss_param {
  lambda: 0.0001
  net_num: 128
 }
 include {
  phase: TRAIN
 }
}

layer {
 name:"loss40"
 type:"NCLLoss"
 bottom: "score40"
 bottom: "label"
 bottom: "sumscore"
 top: "loss40"
 ncl_loss_param {
  lambda: 0.0001
  net_num: 128
 }
 include {
  phase: TRAIN
 }
}

layer {
 name:"loss41"
 type:"NCLLoss"
 bottom: "score41"
 bottom: "label"
 bottom: "sumscore"
 top: "loss41"
 ncl_loss_param {
  lambda: 0.0001
  net_num: 128
 }
 include {
  phase: TRAIN
 }
}

layer {
 name:"loss42"
 type:"NCLLoss"
 bottom: "score42"
 bottom: "label"
 bottom: "sumscore"
 top: "loss42"
 ncl_loss_param {
  lambda: 0.0001
  net_num: 128
 }
 include {
  phase: TRAIN
 }
}

layer {
 name:"loss43"
 type:"NCLLoss"
 bottom: "score43"
 bottom: "label"
 bottom: "sumscore"
 top: "loss43"
 ncl_loss_param {
  lambda: 0.0001
  net_num: 128
 }
 include {
  phase: TRAIN
 }
}

layer {
 name:"loss44"
 type:"NCLLoss"
 bottom: "score44"
 bottom: "label"
 bottom: "sumscore"
 top: "loss44"
 ncl_loss_param {
  lambda: 0.0001
  net_num: 128
 }
 include {
  phase: TRAIN
 }
}

layer {
 name:"loss45"
 type:"NCLLoss"
 bottom: "score45"
 bottom: "label"
 bottom: "sumscore"
 top: "loss45"
 ncl_loss_param {
  lambda: 0.0001
  net_num: 128
 }
 include {
  phase: TRAIN
 }
}

layer {
 name:"loss46"
 type:"NCLLoss"
 bottom: "score46"
 bottom: "label"
 bottom: "sumscore"
 top: "loss46"
 ncl_loss_param {
  lambda: 0.0001
  net_num: 128
 }
 include {
  phase: TRAIN
 }
}

layer {
 name:"loss47"
 type:"NCLLoss"
 bottom: "score47"
 bottom: "label"
 bottom: "sumscore"
 top: "loss47"
 ncl_loss_param {
  lambda: 0.0001
  net_num: 128
 }
 include {
  phase: TRAIN
 }
}

layer {
 name:"loss48"
 type:"NCLLoss"
 bottom: "score48"
 bottom: "label"
 bottom: "sumscore"
 top: "loss48"
 ncl_loss_param {
  lambda: 0.0001
  net_num: 128
 }
 include {
  phase: TRAIN
 }
}

layer {
 name:"loss49"
 type:"NCLLoss"
 bottom: "score49"
 bottom: "label"
 bottom: "sumscore"
 top: "loss49"
 ncl_loss_param {
  lambda: 0.0001
  net_num: 128
 }
 include {
  phase: TRAIN
 }
}

layer {
 name:"loss50"
 type:"NCLLoss"
 bottom: "score50"
 bottom: "label"
 bottom: "sumscore"
 top: "loss50"
 ncl_loss_param {
  lambda: 0.0001
  net_num: 128
 }
 include {
  phase: TRAIN
 }
}

layer {
 name:"loss51"
 type:"NCLLoss"
 bottom: "score51"
 bottom: "label"
 bottom: "sumscore"
 top: "loss51"
 ncl_loss_param {
  lambda: 0.0001
  net_num: 128
 }
 include {
  phase: TRAIN
 }
}

layer {
 name:"loss52"
 type:"NCLLoss"
 bottom: "score52"
 bottom: "label"
 bottom: "sumscore"
 top: "loss52"
 ncl_loss_param {
  lambda: 0.0001
  net_num: 128
 }
 include {
  phase: TRAIN
 }
}

layer {
 name:"loss53"
 type:"NCLLoss"
 bottom: "score53"
 bottom: "label"
 bottom: "sumscore"
 top: "loss53"
 ncl_loss_param {
  lambda: 0.0001
  net_num: 128
 }
 include {
  phase: TRAIN
 }
}

layer {
 name:"loss54"
 type:"NCLLoss"
 bottom: "score54"
 bottom: "label"
 bottom: "sumscore"
 top: "loss54"
 ncl_loss_param {
  lambda: 0.0001
  net_num: 128
 }
 include {
  phase: TRAIN
 }
}

layer {
 name:"loss55"
 type:"NCLLoss"
 bottom: "score55"
 bottom: "label"
 bottom: "sumscore"
 top: "loss55"
 ncl_loss_param {
  lambda: 0.0001
  net_num: 128
 }
 include {
  phase: TRAIN
 }
}

layer {
 name:"loss56"
 type:"NCLLoss"
 bottom: "score56"
 bottom: "label"
 bottom: "sumscore"
 top: "loss56"
 ncl_loss_param {
  lambda: 0.0001
  net_num: 128
 }
 include {
  phase: TRAIN
 }
}

layer {
 name:"loss57"
 type:"NCLLoss"
 bottom: "score57"
 bottom: "label"
 bottom: "sumscore"
 top: "loss57"
 ncl_loss_param {
  lambda: 0.0001
  net_num: 128
 }
 include {
  phase: TRAIN
 }
}

layer {
 name:"loss58"
 type:"NCLLoss"
 bottom: "score58"
 bottom: "label"
 bottom: "sumscore"
 top: "loss58"
 ncl_loss_param {
  lambda: 0.0001
  net_num: 128
 }
 include {
  phase: TRAIN
 }
}

layer {
 name:"loss59"
 type:"NCLLoss"
 bottom: "score59"
 bottom: "label"
 bottom: "sumscore"
 top: "loss59"
 ncl_loss_param {
  lambda: 0.0001
  net_num: 128
 }
 include {
  phase: TRAIN
 }
}

layer {
 name:"loss60"
 type:"NCLLoss"
 bottom: "score60"
 bottom: "label"
 bottom: "sumscore"
 top: "loss60"
 ncl_loss_param {
  lambda: 0.0001
  net_num: 128
 }
 include {
  phase: TRAIN
 }
}

layer {
 name:"loss61"
 type:"NCLLoss"
 bottom: "score61"
 bottom: "label"
 bottom: "sumscore"
 top: "loss61"
 ncl_loss_param {
  lambda: 0.0001
  net_num: 128
 }
 include {
  phase: TRAIN
 }
}

layer {
 name:"loss62"
 type:"NCLLoss"
 bottom: "score62"
 bottom: "label"
 bottom: "sumscore"
 top: "loss62"
 ncl_loss_param {
  lambda: 0.0001
  net_num: 128
 }
 include {
  phase: TRAIN
 }
}

layer {
 name:"loss63"
 type:"NCLLoss"
 bottom: "score63"
 bottom: "label"
 bottom: "sumscore"
 top: "loss63"
 ncl_loss_param {
  lambda: 0.0001
  net_num: 128
 }
 include {
  phase: TRAIN
 }
}

layer {
 name:"loss64"
 type:"NCLLoss"
 bottom: "score64"
 bottom: "label"
 bottom: "sumscore"
 top: "loss64"
 ncl_loss_param {
  lambda: 0.0001
  net_num: 128
 }
 include {
  phase: TRAIN
 }
}

layer {
 name:"loss65"
 type:"NCLLoss"
 bottom: "score65"
 bottom: "label"
 bottom: "sumscore"
 top: "loss65"
 ncl_loss_param {
  lambda: 0.0001
  net_num: 128
 }
 include {
  phase: TRAIN
 }
}

layer {
 name:"loss66"
 type:"NCLLoss"
 bottom: "score66"
 bottom: "label"
 bottom: "sumscore"
 top: "loss66"
 ncl_loss_param {
  lambda: 0.0001
  net_num: 128
 }
 include {
  phase: TRAIN
 }
}

layer {
 name:"loss67"
 type:"NCLLoss"
 bottom: "score67"
 bottom: "label"
 bottom: "sumscore"
 top: "loss67"
 ncl_loss_param {
  lambda: 0.0001
  net_num: 128
 }
 include {
  phase: TRAIN
 }
}

layer {
 name:"loss68"
 type:"NCLLoss"
 bottom: "score68"
 bottom: "label"
 bottom: "sumscore"
 top: "loss68"
 ncl_loss_param {
  lambda: 0.0001
  net_num: 128
 }
 include {
  phase: TRAIN
 }
}

layer {
 name:"loss69"
 type:"NCLLoss"
 bottom: "score69"
 bottom: "label"
 bottom: "sumscore"
 top: "loss69"
 ncl_loss_param {
  lambda: 0.0001
  net_num: 128
 }
 include {
  phase: TRAIN
 }
}

layer {
 name:"loss70"
 type:"NCLLoss"
 bottom: "score70"
 bottom: "label"
 bottom: "sumscore"
 top: "loss70"
 ncl_loss_param {
  lambda: 0.0001
  net_num: 128
 }
 include {
  phase: TRAIN
 }
}

layer {
 name:"loss71"
 type:"NCLLoss"
 bottom: "score71"
 bottom: "label"
 bottom: "sumscore"
 top: "loss71"
 ncl_loss_param {
  lambda: 0.0001
  net_num: 128
 }
 include {
  phase: TRAIN
 }
}

layer {
 name:"loss72"
 type:"NCLLoss"
 bottom: "score72"
 bottom: "label"
 bottom: "sumscore"
 top: "loss72"
 ncl_loss_param {
  lambda: 0.0001
  net_num: 128
 }
 include {
  phase: TRAIN
 }
}

layer {
 name:"loss73"
 type:"NCLLoss"
 bottom: "score73"
 bottom: "label"
 bottom: "sumscore"
 top: "loss73"
 ncl_loss_param {
  lambda: 0.0001
  net_num: 128
 }
 include {
  phase: TRAIN
 }
}

layer {
 name:"loss74"
 type:"NCLLoss"
 bottom: "score74"
 bottom: "label"
 bottom: "sumscore"
 top: "loss74"
 ncl_loss_param {
  lambda: 0.0001
  net_num: 128
 }
 include {
  phase: TRAIN
 }
}

layer {
 name:"loss75"
 type:"NCLLoss"
 bottom: "score75"
 bottom: "label"
 bottom: "sumscore"
 top: "loss75"
 ncl_loss_param {
  lambda: 0.0001
  net_num: 128
 }
 include {
  phase: TRAIN
 }
}

layer {
 name:"loss76"
 type:"NCLLoss"
 bottom: "score76"
 bottom: "label"
 bottom: "sumscore"
 top: "loss76"
 ncl_loss_param {
  lambda: 0.0001
  net_num: 128
 }
 include {
  phase: TRAIN
 }
}

layer {
 name:"loss77"
 type:"NCLLoss"
 bottom: "score77"
 bottom: "label"
 bottom: "sumscore"
 top: "loss77"
 ncl_loss_param {
  lambda: 0.0001
  net_num: 128
 }
 include {
  phase: TRAIN
 }
}

layer {
 name:"loss78"
 type:"NCLLoss"
 bottom: "score78"
 bottom: "label"
 bottom: "sumscore"
 top: "loss78"
 ncl_loss_param {
  lambda: 0.0001
  net_num: 128
 }
 include {
  phase: TRAIN
 }
}

layer {
 name:"loss79"
 type:"NCLLoss"
 bottom: "score79"
 bottom: "label"
 bottom: "sumscore"
 top: "loss79"
 ncl_loss_param {
  lambda: 0.0001
  net_num: 128
 }
 include {
  phase: TRAIN
 }
}

layer {
 name:"loss80"
 type:"NCLLoss"
 bottom: "score80"
 bottom: "label"
 bottom: "sumscore"
 top: "loss80"
 ncl_loss_param {
  lambda: 0.0001
  net_num: 128
 }
 include {
  phase: TRAIN
 }
}

layer {
 name:"loss81"
 type:"NCLLoss"
 bottom: "score81"
 bottom: "label"
 bottom: "sumscore"
 top: "loss81"
 ncl_loss_param {
  lambda: 0.0001
  net_num: 128
 }
 include {
  phase: TRAIN
 }
}

layer {
 name:"loss82"
 type:"NCLLoss"
 bottom: "score82"
 bottom: "label"
 bottom: "sumscore"
 top: "loss82"
 ncl_loss_param {
  lambda: 0.0001
  net_num: 128
 }
 include {
  phase: TRAIN
 }
}

layer {
 name:"loss83"
 type:"NCLLoss"
 bottom: "score83"
 bottom: "label"
 bottom: "sumscore"
 top: "loss83"
 ncl_loss_param {
  lambda: 0.0001
  net_num: 128
 }
 include {
  phase: TRAIN
 }
}

layer {
 name:"loss84"
 type:"NCLLoss"
 bottom: "score84"
 bottom: "label"
 bottom: "sumscore"
 top: "loss84"
 ncl_loss_param {
  lambda: 0.0001
  net_num: 128
 }
 include {
  phase: TRAIN
 }
}

layer {
 name:"loss85"
 type:"NCLLoss"
 bottom: "score85"
 bottom: "label"
 bottom: "sumscore"
 top: "loss85"
 ncl_loss_param {
  lambda: 0.0001
  net_num: 128
 }
 include {
  phase: TRAIN
 }
}

layer {
 name:"loss86"
 type:"NCLLoss"
 bottom: "score86"
 bottom: "label"
 bottom: "sumscore"
 top: "loss86"
 ncl_loss_param {
  lambda: 0.0001
  net_num: 128
 }
 include {
  phase: TRAIN
 }
}

layer {
 name:"loss87"
 type:"NCLLoss"
 bottom: "score87"
 bottom: "label"
 bottom: "sumscore"
 top: "loss87"
 ncl_loss_param {
  lambda: 0.0001
  net_num: 128
 }
 include {
  phase: TRAIN
 }
}

layer {
 name:"loss88"
 type:"NCLLoss"
 bottom: "score88"
 bottom: "label"
 bottom: "sumscore"
 top: "loss88"
 ncl_loss_param {
  lambda: 0.0001
  net_num: 128
 }
 include {
  phase: TRAIN
 }
}

layer {
 name:"loss89"
 type:"NCLLoss"
 bottom: "score89"
 bottom: "label"
 bottom: "sumscore"
 top: "loss89"
 ncl_loss_param {
  lambda: 0.0001
  net_num: 128
 }
 include {
  phase: TRAIN
 }
}

layer {
 name:"loss90"
 type:"NCLLoss"
 bottom: "score90"
 bottom: "label"
 bottom: "sumscore"
 top: "loss90"
 ncl_loss_param {
  lambda: 0.0001
  net_num: 128
 }
 include {
  phase: TRAIN
 }
}

layer {
 name:"loss91"
 type:"NCLLoss"
 bottom: "score91"
 bottom: "label"
 bottom: "sumscore"
 top: "loss91"
 ncl_loss_param {
  lambda: 0.0001
  net_num: 128
 }
 include {
  phase: TRAIN
 }
}

layer {
 name:"loss92"
 type:"NCLLoss"
 bottom: "score92"
 bottom: "label"
 bottom: "sumscore"
 top: "loss92"
 ncl_loss_param {
  lambda: 0.0001
  net_num: 128
 }
 include {
  phase: TRAIN
 }
}

layer {
 name:"loss93"
 type:"NCLLoss"
 bottom: "score93"
 bottom: "label"
 bottom: "sumscore"
 top: "loss93"
 ncl_loss_param {
  lambda: 0.0001
  net_num: 128
 }
 include {
  phase: TRAIN
 }
}

layer {
 name:"loss94"
 type:"NCLLoss"
 bottom: "score94"
 bottom: "label"
 bottom: "sumscore"
 top: "loss94"
 ncl_loss_param {
  lambda: 0.0001
  net_num: 128
 }
 include {
  phase: TRAIN
 }
}

layer {
 name:"loss95"
 type:"NCLLoss"
 bottom: "score95"
 bottom: "label"
 bottom: "sumscore"
 top: "loss95"
 ncl_loss_param {
  lambda: 0.0001
  net_num: 128
 }
 include {
  phase: TRAIN
 }
}

layer {
 name:"loss96"
 type:"NCLLoss"
 bottom: "score96"
 bottom: "label"
 bottom: "sumscore"
 top: "loss96"
 ncl_loss_param {
  lambda: 0.0001
  net_num: 128
 }
 include {
  phase: TRAIN
 }
}

layer {
 name:"loss97"
 type:"NCLLoss"
 bottom: "score97"
 bottom: "label"
 bottom: "sumscore"
 top: "loss97"
 ncl_loss_param {
  lambda: 0.0001
  net_num: 128
 }
 include {
  phase: TRAIN
 }
}

layer {
 name:"loss98"
 type:"NCLLoss"
 bottom: "score98"
 bottom: "label"
 bottom: "sumscore"
 top: "loss98"
 ncl_loss_param {
  lambda: 0.0001
  net_num: 128
 }
 include {
  phase: TRAIN
 }
}

layer {
 name:"loss99"
 type:"NCLLoss"
 bottom: "score99"
 bottom: "label"
 bottom: "sumscore"
 top: "loss99"
 ncl_loss_param {
  lambda: 0.0001
  net_num: 128
 }
 include {
  phase: TRAIN
 }
}

layer {
 name:"loss100"
 type:"NCLLoss"
 bottom: "score100"
 bottom: "label"
 bottom: "sumscore"
 top: "loss100"
 ncl_loss_param {
  lambda: 0.0001
  net_num: 128
 }
 include {
  phase: TRAIN
 }
}

layer {
 name:"loss101"
 type:"NCLLoss"
 bottom: "score101"
 bottom: "label"
 bottom: "sumscore"
 top: "loss101"
 ncl_loss_param {
  lambda: 0.0001
  net_num: 128
 }
 include {
  phase: TRAIN
 }
}

layer {
 name:"loss102"
 type:"NCLLoss"
 bottom: "score102"
 bottom: "label"
 bottom: "sumscore"
 top: "loss102"
 ncl_loss_param {
  lambda: 0.0001
  net_num: 128
 }
 include {
  phase: TRAIN
 }
}

layer {
 name:"loss103"
 type:"NCLLoss"
 bottom: "score103"
 bottom: "label"
 bottom: "sumscore"
 top: "loss103"
 ncl_loss_param {
  lambda: 0.0001
  net_num: 128
 }
 include {
  phase: TRAIN
 }
}

layer {
 name:"loss104"
 type:"NCLLoss"
 bottom: "score104"
 bottom: "label"
 bottom: "sumscore"
 top: "loss104"
 ncl_loss_param {
  lambda: 0.0001
  net_num: 128
 }
 include {
  phase: TRAIN
 }
}

layer {
 name:"loss105"
 type:"NCLLoss"
 bottom: "score105"
 bottom: "label"
 bottom: "sumscore"
 top: "loss105"
 ncl_loss_param {
  lambda: 0.0001
  net_num: 128
 }
 include {
  phase: TRAIN
 }
}

layer {
 name:"loss106"
 type:"NCLLoss"
 bottom: "score106"
 bottom: "label"
 bottom: "sumscore"
 top: "loss106"
 ncl_loss_param {
  lambda: 0.0001
  net_num: 128
 }
 include {
  phase: TRAIN
 }
}

layer {
 name:"loss107"
 type:"NCLLoss"
 bottom: "score107"
 bottom: "label"
 bottom: "sumscore"
 top: "loss107"
 ncl_loss_param {
  lambda: 0.0001
  net_num: 128
 }
 include {
  phase: TRAIN
 }
}

layer {
 name:"loss108"
 type:"NCLLoss"
 bottom: "score108"
 bottom: "label"
 bottom: "sumscore"
 top: "loss108"
 ncl_loss_param {
  lambda: 0.0001
  net_num: 128
 }
 include {
  phase: TRAIN
 }
}

layer {
 name:"loss109"
 type:"NCLLoss"
 bottom: "score109"
 bottom: "label"
 bottom: "sumscore"
 top: "loss109"
 ncl_loss_param {
  lambda: 0.0001
  net_num: 128
 }
 include {
  phase: TRAIN
 }
}

layer {
 name:"loss110"
 type:"NCLLoss"
 bottom: "score110"
 bottom: "label"
 bottom: "sumscore"
 top: "loss110"
 ncl_loss_param {
  lambda: 0.0001
  net_num: 128
 }
 include {
  phase: TRAIN
 }
}

layer {
 name:"loss111"
 type:"NCLLoss"
 bottom: "score111"
 bottom: "label"
 bottom: "sumscore"
 top: "loss111"
 ncl_loss_param {
  lambda: 0.0001
  net_num: 128
 }
 include {
  phase: TRAIN
 }
}

layer {
 name:"loss112"
 type:"NCLLoss"
 bottom: "score112"
 bottom: "label"
 bottom: "sumscore"
 top: "loss112"
 ncl_loss_param {
  lambda: 0.0001
  net_num: 128
 }
 include {
  phase: TRAIN
 }
}

layer {
 name:"loss113"
 type:"NCLLoss"
 bottom: "score113"
 bottom: "label"
 bottom: "sumscore"
 top: "loss113"
 ncl_loss_param {
  lambda: 0.0001
  net_num: 128
 }
 include {
  phase: TRAIN
 }
}

layer {
 name:"loss114"
 type:"NCLLoss"
 bottom: "score114"
 bottom: "label"
 bottom: "sumscore"
 top: "loss114"
 ncl_loss_param {
  lambda: 0.0001
  net_num: 128
 }
 include {
  phase: TRAIN
 }
}

layer {
 name:"loss115"
 type:"NCLLoss"
 bottom: "score115"
 bottom: "label"
 bottom: "sumscore"
 top: "loss115"
 ncl_loss_param {
  lambda: 0.0001
  net_num: 128
 }
 include {
  phase: TRAIN
 }
}

layer {
 name:"loss116"
 type:"NCLLoss"
 bottom: "score116"
 bottom: "label"
 bottom: "sumscore"
 top: "loss116"
 ncl_loss_param {
  lambda: 0.0001
  net_num: 128
 }
 include {
  phase: TRAIN
 }
}

layer {
 name:"loss117"
 type:"NCLLoss"
 bottom: "score117"
 bottom: "label"
 bottom: "sumscore"
 top: "loss117"
 ncl_loss_param {
  lambda: 0.0001
  net_num: 128
 }
 include {
  phase: TRAIN
 }
}

layer {
 name:"loss118"
 type:"NCLLoss"
 bottom: "score118"
 bottom: "label"
 bottom: "sumscore"
 top: "loss118"
 ncl_loss_param {
  lambda: 0.0001
  net_num: 128
 }
 include {
  phase: TRAIN
 }
}

layer {
 name:"loss119"
 type:"NCLLoss"
 bottom: "score119"
 bottom: "label"
 bottom: "sumscore"
 top: "loss119"
 ncl_loss_param {
  lambda: 0.0001
  net_num: 128
 }
 include {
  phase: TRAIN
 }
}

layer {
 name:"loss120"
 type:"NCLLoss"
 bottom: "score120"
 bottom: "label"
 bottom: "sumscore"
 top: "loss120"
 ncl_loss_param {
  lambda: 0.0001
  net_num: 128
 }
 include {
  phase: TRAIN
 }
}

layer {
 name:"loss121"
 type:"NCLLoss"
 bottom: "score121"
 bottom: "label"
 bottom: "sumscore"
 top: "loss121"
 ncl_loss_param {
  lambda: 0.0001
  net_num: 128
 }
 include {
  phase: TRAIN
 }
}

layer {
 name:"loss122"
 type:"NCLLoss"
 bottom: "score122"
 bottom: "label"
 bottom: "sumscore"
 top: "loss122"
 ncl_loss_param {
  lambda: 0.0001
  net_num: 128
 }
 include {
  phase: TRAIN
 }
}

layer {
 name:"loss123"
 type:"NCLLoss"
 bottom: "score123"
 bottom: "label"
 bottom: "sumscore"
 top: "loss123"
 ncl_loss_param {
  lambda: 0.0001
  net_num: 128
 }
 include {
  phase: TRAIN
 }
}

layer {
 name:"loss124"
 type:"NCLLoss"
 bottom: "score124"
 bottom: "label"
 bottom: "sumscore"
 top: "loss124"
 ncl_loss_param {
  lambda: 0.0001
  net_num: 128
 }
 include {
  phase: TRAIN
 }
}

layer {
 name:"loss125"
 type:"NCLLoss"
 bottom: "score125"
 bottom: "label"
 bottom: "sumscore"
 top: "loss125"
 ncl_loss_param {
  lambda: 0.0001
  net_num: 128
 }
 include {
  phase: TRAIN
 }
}

layer {
 name:"loss126"
 type:"NCLLoss"
 bottom: "score126"
 bottom: "label"
 bottom: "sumscore"
 top: "loss126"
 ncl_loss_param {
  lambda: 0.0001
  net_num: 128
 }
 include {
  phase: TRAIN
 }
}

layer {
 name:"loss127"
 type:"NCLLoss"
 bottom: "score127"
 bottom: "label"
 bottom: "sumscore"
 top: "loss127"
 ncl_loss_param {
  lambda: 0.0001
  net_num: 128
 }
 include {
  phase: TRAIN
 }
}

layer {
 name:"loss128"
 type:"NCLLoss"
 bottom: "score128"
 bottom: "label"
 bottom: "sumscore"
 top: "loss128"
 ncl_loss_param {
  lambda: 0.0001
  net_num: 128
 }
 include {
  phase: TRAIN
 }
}

