…
I0729 16:18:40.137755 25077 net.cpp:51] Initializing net from parameters: 
name: "crowd_counting"
state {
  phase: TRAIN
  level: 0
  stage: ""
}
layer {
  name: "data"
  type: "Data"
  top: "data"
  include {
    phase: TRAIN
  }
  data_param {
    source: "/home/peiyong/Work/Zenglin/szl/ShanghaiTech/partA/train_8/image_lmdb"
    batch_size: 1
    backend: LMDB
  }
}
layer {
  name: "label"
  type: "Data"
  top: "label"
  include {
    phase: TRAIN
  }
  data_param {
    source: "/home/peiyong/Work/Zenglin/szl/ShanghaiTech/partA/train_8/dmap_lmdb"
    batch_size: 1
    backend: LMDB
  }
}
layer {
  name: "conv1_1"
  type: "Convolution"
  bottom: "data"
  top: "conv1_1"
  param {
    lr_mult: 0.1
    decay_mult: 1
  }
  param {
    lr_mult: 0.2
    decay_mult: 0
  }
  convolution_param {
    num_output: 64
    pad: 1
    kernel_size: 3
    weight_filler {
      type: "gaussian"
      std: 0.01
    }
    bias_filler {
      type: "constant"
      value: 0
    }
  }
}
layer {
  name: "relu1_1"
  type: "ReLU"
  bottom: "conv1_1"
  top: "conv1_1"
}
layer {
  name: "conv1_2"
  type: "Convolution"
  bottom: "conv1_1"
  top: "conv1_2"
  param {
    lr_mult: 0.1
    decay_mult: 1
  }
  param {
    lr_mult: 0.2
    decay_mult: 0
  }
  convolution_param {
    num_output: 64
    pad: 1
    kernel_size: 3
    weight_filler {
      type: "gaussian"
      std: 0.01
    }
    bias_filler {
      type: "constant"
      value: 0
    }
  }
}
layer {
  name: "relu1_2"
  type: "ReLU"
  bottom: "conv1_2"
  top: "conv1_2"
}
layer {
  name: "pool1"
  type: "Pooling"
  bottom: "conv1_2"
  top: "pool1"
  pooling_param {
    pool: MAX
    kernel_size: 2
    stride: 2
  }
}
layer {
  name: "conv2_1"
  type: "Convolution"
  bottom: "pool1"
  top: "conv2_1"
  param {
    lr_mult: 0.1
    decay_mult: 1
  }
  param {
    lr_mult: 0.2
    decay_mult: 0
  }
  convolution_param {
    num_output: 128
    pad: 1
    kernel_size: 3
    weight_filler {
      type: "gaussian"
      std: 0.01
    }
    bias_filler {
      type: "constant"
      value: 0
    }
  }
}
layer {
  name: "relu2_1"
  type: "ReLU"
  bottom: "conv2_1"
  top: "conv2_1"
}
layer {
  name: "conv2_2"
  type: "Convolution"
  bottom: "conv2_1"
  top: "conv2_2"
  param {
    lr_mult: 0.1
    decay_mult: 1
  }
  param {
    lr_mult: 0.2
    decay_mult: 0
  }
  convolution_param {
    num_output: 128
    pad: 1
    kernel_size: 3
    weight_filler {
      type: "gaussian"
      std: 0.01
    }
    bias_filler {
      type: "constant"
      value: 0
    }
  }
}
layer {
  name: "relu2_2"
  type: "ReLU"
  bottom: "conv2_2"
  top: "conv2_2"
}
layer {
  name: "pool2"
  type: "Pooling"
  bottom: "conv2_2"
  top: "pool2"
  pooling_param {
    pool: MAX
    kernel_size: 2
    stride: 2
  }
}
layer {
  name: "conv3_1"
  type: "Convolution"
  bottom: "pool2"
  top: "conv3_1"
  param {
    lr_mult: 0.1
    decay_mult: 1
  }
  param {
    lr_mult: 0.2
    decay_mult: 0
  }
  convolution_param {
    num_output: 256
    pad: 1
    kernel_size: 3
    weight_filler {
      type: "gaussian"
      std: 0.01
    }
    bias_filler {
      type: "constant"
      value: 0
    }
  }
}
layer {
  name: "relu3_1"
  type: "ReLU"
  bottom: "conv3_1"
  top: "conv3_1"
}
layer {
  name: "conv3_2"
  type: "Convolution"
  bottom: "conv3_1"
  top: "conv3_2"
  param {
    lr_mult: 0.1
    decay_mult: 1
  }
  param {
    lr_mult: 0.2
    decay_mult: 0
  }
  convolution_param {
    num_output: 256
    pad: 1
    kernel_size: 3
    weight_filler {
      type: "gaussian"
      std: 0.01
    }
    bias_filler {
      type: "constant"
      value: 0
    }
  }
}
layer {
  name: "relu3_2"
  type: "ReLU"
  bottom: "conv3_2"
  top: "conv3_2"
}
layer {
  name: "conv3_3"
  type: "Convolution"
  bottom: "conv3_2"
  top: "conv3_3"
  param {
    lr_mult: 0.1
    decay_mult: 1
  }
  param {
    lr_mult: 0.2
    decay_mult: 0
  }
  convolution_param {
    num_output: 256
    pad: 1
    kernel_size: 3
    weight_filler {
      type: "gaussian"
      std: 0.01
    }
    bias_filler {
      type: "constant"
      value: 0
    }
  }
}
layer {
  name: "relu3_3"
  type: "ReLU"
  bottom: "conv3_3"
  top: "conv3_3"
}
layer {
  name: "pool3"
  type: "Pooling"
  bottom: "conv3_3"
  top: "pool3"
  pooling_param {
    pool: MAX
    kernel_size: 2
    stride: 2
  }
}
layer {
  name: "conv4_1"
  type: "Convolution"
  bottom: "pool3"
  top: "conv4_1"
  param {
    lr_mult: 0.1
    decay_mult: 1
  }
  param {
    lr_mult: 0.2
    decay_mult: 0
  }
  convolution_param {
    num_output: 512
    pad: 1
    kernel_size: 3
    weight_filler {
      type: "gaussian"
      std: 0.01
    }
    bias_filler {
      type: "constant"
      value: 0
    }
  }
}
layer {
  name: "relu4_1"
  type: "ReLU"
  bottom: "conv4_1"
  top: "conv4_1"
}
layer {
  name: "conv4_2"
  type: "Convolution"
  bottom: "conv4_1"
  top: "conv4_2"
  param {
    lr_mult: 0.1
    decay_mult: 1
  }
  param {
    lr_mult: 0.2
    decay_mult: 0
  }
  convolution_param {
    num_output: 512
    pad: 1
    kernel_size: 3
    weight_filler {
      type: "gaussian"
      std: 0.01
    }
    bias_filler {
      type: "constant"
      value: 0
    }
  }
}
layer {
  name: "relu4_2"
  type: "ReLU"
  bottom: "conv4_2"
  top: "conv4_2"
}
layer {
  name: "conv4_3"
  type: "Convolution"
  bottom: "conv4_2"
  top: "conv4_3"
  param {
    lr_mult: 0.1
    decay_mult: 1
  }
  param {
    lr_mult: 0.2
    decay_mult: 0
  }
  convolution_param {
    num_output: 512
    pad: 1
    kernel_size: 3
    weight_filler {
      type: "gaussian"
      std: 0.01
    }
    bias_filler {
      type: "constant"
      value: 0
    }
  }
}
layer {
  name: "relu4_3"
  type: "ReLU"
  bottom: "conv4_3"
  top: "conv4_3"
}
layer {
  name: "pool4"
  type: "Pooling"
  bottom: "conv4_3"
  top: "pool4"
  pooling_param {
    pool: MAX
    kernel_size: 3
    stride: 1
    pad: 1
  }
}
layer {
  name: "conv5_1"
  type: "Convolution"
  bottom: "pool4"
  top: "conv5_1"
  param {
    lr_mult: 0.1
    decay_mult: 1
  }
  param {
    lr_mult: 0.2
    decay_mult: 0
  }
  convolution_param {
    num_output: 512
    pad: 2
    kernel_size: 3
    weight_filler {
      type: "gaussian"
      std: 0.01
    }
    bias_filler {
      type: "constant"
      value: 0
    }
    dilation: 2
  }
}
layer {
  name: "relu5_1"
  type: "ReLU"
  bottom: "conv5_1"
  top: "conv5_1"
}
layer {
  name: "conv5_2"
  type: "Convolution"
  bottom: "conv5_1"
  top: "conv5_2"
  param {
    lr_mult: 0.1
    decay_mult: 1
  }
  param {
    lr_mult: 0.2
    decay_mult: 0
  }
  convolution_param {
    num_output: 512
    pad: 2
    kernel_size: 3
    weight_filler {
      type: "gaussian"
      std: 0.01
    }
    bias_filler {
      type: "constant"
      value: 0
    }
    dilation: 2
  }
}
layer {
  name: "relu5_2"
  type: "ReLU"
  bottom: "conv5_2"
  top: "conv5_2"
}
layer {
  name: "conv5_3"
  type: "Convolution"
  bottom: "conv5_2"
  top: "conv5_3"
  param {
    lr_mult: 0.1
    decay_mult: 1
  }
  param {
    lr_mult: 0.2
    decay_mult: 0
  }
  convolution_param {
    num_output: 512
    pad: 2
    kernel_size: 3
    weight_filler {
      type: "gaussian"
      std: 0.01
    }
    bias_filler {
      type: "constant"
      value: 0
    }
    dilation: 2
  }
}
layer {
  name: "relu5_3"
  type: "ReLU"
  bottom: "conv5_3"
  top: "conv5_3"
}
layer {
  name: "conv_score"
  type: "Convolution"
  bottom: "conv5_3"
  top: "conv_score"
  param {
    lr_mult: 10
    decay_mult: 1
  }
  param {
    lr_mult: 20
    decay_mult: 0
  }
  convolution_param {
    num_output: 256
    pad: 0
    kernel_size: 1
    group: 256
    stride: 1
    weight_filler {
      type: "constant"
      value: 0.0001
    }
    bias_filler {
      type: "constant"
      value: 0
    }
  }
}
layer {
  name: "relu_score"
  type: "ReLU"
  bottom: "conv_score"
  top: "conv_score"
}
layer {
  name: "slicer_conv"
  type: "Slice"
  bottom: "conv_score"
  top: "score1"
  top: "score2"
  top: "score3"
  top: "score4"
  top: "score5"
  top: "score6"
  top: "score7"
  top: "score8"
  top: "score9"
  top: "score10"
  top: "score11"
  top: "score12"
  top: "score13"
  top: "score14"
  top: "score15"
  top: "score16"
  top: "score17"
  top: "score18"
  top: "score19"
  top: "score20"
  top: "score21"
  top: "score22"
  top: "score23"
  top: "score24"
…
  top: "score228"
  top: "score229"
  top: "score230"
  top: "score231"
  top: "score232"
  top: "score233"
  top: "score234"
  top: "score235"
  top: "score236"
  top: "score237"
  top: "score238"
  top: "score239"
  top: "score240"
  top: "score241"
  top: "score242"
  top: "score243"
  top: "score244"
  top: "score245"
  top: "score246"
  top: "score247"
  top: "score248"
  top: "score249"
  top: "score250"
  top: "score251"
  top: "score252"
  top: "score253"
  top: "score254"
  top: "score255"
  top: "score256"
  slice_param {
    axis: 1
  }
}
layer {
  name: "sumscore"
  type: "Eltwise"
  bottom: "score1"
  bottom: "score2"
  bottom: "score3"
  bottom: "score4"
  bottom: "score5"
  bottom: "score6"
  bottom: "score7"
  bottom: "score8"
  bottom: "score9"
  bottom: "score10"
  bottom: "score11"
  bottom: "score12"
  bottom: "score13"
  bottom: "score14"
  bottom: "score15"
  bottom: "score16"
  bottom: "score17"
  bottom: "score18"
  bottom: "score19"
  bottom: "score20"
  bottom: "score21"
  bottom: "score22"
  bottom: "score23"
  bottom: "score24"
  bottom: "score25"
  bottom: "score26"
  bottom: "score27"
  bottom: "score28"
  bottom: "score29"
  bottom: "score30"
  bottom: "score31"
  bottom: "score32"
  bottom: "score33"
  bottom: "score34"
  bottom: "score35"
  bottom: "score36"
  bottom: "score37"
  bottom: "score38"
  bottom: "score39"
  bottom: "score40"
  bottom: "score41"
  bottom: "score42"
  bottom: "score43"
  bottom: "score44"
  bottom: "score45"
  bottom: "score46"
  bottom: "score47"
  bottom: "score48"
  bottom: "score49"
  bottom: "score50"
  bottom: "score51"
  bottom: "score52"
  bottom: "score53"
  bottom: "score54"
  bottom: "score55"
  bottom: "score56"
  bottom: "score57"
  bottom: "score58"
  bottom: "score59"
  bottom: "score60"
  bottom: "score61"
  bottom: "score62"
  bottom: "score63"
  bottom: "score64"
  bottom: "score65"
  bottom: "score66"
  bottom: "score67"
  bottom: "score68"
  bottom: "score69"
  bottom: "score70"
  bottom: "score71"
  bottom: "score72"
  bottom: "score73"
  bottom: "score74"
  bottom: "score75"
  bottom: "score76"
  bottom: "score77"
  bottom: "score78"
  bottom: "score79"
  bottom: "score80"
  bottom: "score81"
  bottom: "score82"
  bottom: "score83"
  bottom: "score84"
  bottom: "score85"
  bottom: "score86"
  bottom: "score87"
  bottom: "score88"
  bottom: "score89"
  bottom: "score90"
  bottom: "score91"
  bottom: "score92"
  bottom: "score93"
  bottom: "score94"
  bottom: "score95"
  bottom: "score96"
  bottom: "score97"
  bottom: "score98"
  bottom: "score99"
  bottom: "score100"
  bottom: "score101"
  bottom: "score102"
  bottom: "score103"
  bottom: "score104"
  bottom: "score105"
  bottom: "score106"
  bottom: "score107"
  bottom: "score108"
  bottom: "score109"
  bottom: "score110"
  bottom: "score111"
  bottom: "score112"
  bottom: "score113"
  bottom: "score114"
  bottom: "score115"
  bottom: "score116"
  bottom: "score117"
  bottom: "score118"
  bottom: "score119"
  bottom: "score120"
  bottom: "score121"
  bottom: "score122"
  bottom: "score123"
  bottom: "score124"
  bottom: "score125"
  bottom: "score126"
  bottom: "score127"
  bottom: "score128"
  bottom: "score129"
  bottom: "score130"
  bottom: "score131"
  bottom: "score132"
  bottom: "score133"
  bottom: "score134"
  bottom: "score135"
  bottom: "score136"
  bottom: "score137"
  bottom: "score138"
  bottom: "score139"
  bottom: "score140"
  bottom: "score141"
  bottom: "score142"
  bottom: "score143"
  bottom: "score144"
  bottom: "score145"
  bottom: "score146"
  bottom: "score147"
  bottom: "score148"
  bottom: "score149"
  bottom: "score150"
  bottom: "score151"
  bottom: "score152"
  bottom: "score153"
  bottom: "score154"
  bottom: "score155"
  bottom: "score156"
  bottom: "score157"
  bottom: "score158"
  bottom: "score159"
  bottom: "score160"
  bottom: "score161"
  bottom: "score162"
  bottom: "score163"
  bottom: "score164"
  bottom: "score165"
  bottom: "score166"
  bottom: "score167"
  bottom: "score168"
  bottom: "score169"
  bottom: "score170"
  bottom: "score171"
  bottom: "score172"
  bottom: "score173"
  bottom: "score174"
  bottom: "score175"
  bottom: "score176"
  bottom: "score177"
  bottom: "score178"
  bottom: "score179"
  bottom: "score180"
  bottom: "score181"
  bottom: "score182"
  bottom: "score183"
  bottom: "score184"
  bottom: "score185"
  bottom: "score186"
  bottom: "score187"
  bottom: "score188"
  bottom: "score189"
  bottom: "score190"
  bottom: "score191"
  bottom: "score192"
  bottom: "score193"
  bottom: "score194"
  bottom: "score195"
  bottom: "score196"
  bottom: "score197"
  bottom: "score198"
  bottom: "score199"
  bottom: "score200"
  bottom: "score201"
  bottom: "score202"
  bottom: "score203"
  bottom: "score204"
  bottom: "score205"
  bottom: "score206"
  bottom: "score207"
  bottom: "score208"
  bottom: "score209"
  bottom: "score210"
  bottom: "score211"
  bottom: "score212"
  bottom: "score213"
  bottom: "score214"
  bottom: "score215"
  bottom: "score216"
  bottom: "score217"
  bottom: "score218"
  bottom: "score219"
  bottom: "score220"
  bottom: "score221"
  bottom: "score222"
  bottom: "score223"
  bottom: "score224"
  bottom: "score225"
  bottom: "score226"
  bottom: "score227"
  bottom: "score228"
  bottom: "score229"
  bottom: "score230"
  bottom: "score231"
  bottom: "score232"
  bottom: "score233"
  bottom: "score234"
  bottom: "score235"
  bottom: "score236"
  bottom: "score237"
  bottom: "score238"
  bottom: "score239"
  bottom: "score240"
  bottom: "score241"
  bottom: "score242"
  bottom: "score243"
  bottom: "score244"
  bottom: "score245"
  bottom: "score246"
  bottom: "score247"
  bottom: "score248"
  bottom: "score249"
  bottom: "score250"
  bottom: "score251"
  bottom: "score252"
  bottom: "score253"
  bottom: "score254"
  bottom: "score255"
  bottom: "score256"
  top: "sumscore"
  eltwise_param {
    operation: SUM
  }
}
layer {
  name: "loss1"
  type: "NCLLoss"
  bottom: "score1"
  bottom: "label"
  bottom: "sumscore"
  top: "loss1"
  include {
    phase: TRAIN
  }
  ncl_loss_param {
    lambda: 1.01
    net_num: 256
  }
}
layer {
  name: "loss2"
  type: "NCLLoss"
  bottom: "score2"
  bottom: "label"
  bottom: "sumscore"
  top: "loss2"
  include {
    phase: TRAIN
  }
  ncl_loss_param {
    lambda: 1.01
    net_num: 256
  }
}
layer {
  name: "loss3"
  type: "NCLLoss"
  bottom: "score3"
  bottom: "label"
  bottom: "sumscore"
  top: "loss3"
  include {
    phase: TRAIN
  }
  ncl_loss_param {
    lambda: 1.01
    net_num: 256
  }
}
layer {
  name: "loss4"
  type: "NCLLoss"
  bottom: "score4"
  bottom: "label"
  bottom: "sumscore"
  top: "loss4"
  include {
    phase: TRAIN
  }
  ncl_loss_param {
    lambda: 1.01
    net_num: 256
  }
}
layer {
  name: "loss5"
  type: "NCLLoss"
  bottom: "score5"
  bottom: "label"
  bottom: "sumscore"
  top: "loss5"
  include {
    phase: TRAIN
  }
  ncl_loss_param {
    lambda: 1.01
    net_num: 256
  }
}
layer {
  name: "loss6"
  type: "NCLLoss"
  bottom: "score6"
  bottom: "label"
  bottom: "sumscore"
  top: "loss6"
  include {
    phase: TRAIN
  }
  ncl_loss_param {
    lambda: 1.01
    net_num: 256
  }
}
layer {
  name: "loss7"
  type: "NCLLoss"
  bottom: "score7"
  bottom: "label"
  bottom: "sumscore"
  top: "loss7"
  include {
    phase: TRAIN
  }
  ncl_loss_param {
    lambda: 1.01
    net_num: 256
  }
}
layer {
  name: "loss8"
  type: "NCLLoss"
  bottom: "score8"
  bottom: "label"
  bottom: "sumscore"
  top: "loss8"
  include {
    phase: TRAIN
  }
  ncl_loss_param {
    lambda: 1.01
    net_num: 256
  }
}
layer {
  name: "loss9"
  type: "NCLLoss"
  bottom: "score9"
  bottom: "label"
  bottom: "sumscore"
  top: "loss9"
  include {
    phase: TRAIN
  }
  ncl_loss_param {
    lambda: 1.01
    net_num: 256
  }
}
layer {
  name: "loss10"
  type: "NCLLoss"
  bottom: "score10"
  bottom: "label"
  bottom: "sumscore"
  top: "loss10"
  include {
    phase: TRAIN
  }
  ncl_loss_param {
    lambda: 1.01
    net_num: 256
  }
}
layer {
  name: "loss11"
  type: "NCLLoss"
  bottom: "score11"
  bottom: "label"
  bottom: "sumscore"
  top: "loss11"
  include {
    phase: TRAIN
  }
  ncl_loss_param {
    lambda: 1.01
    net_num: 256
  }
}
layer {
  name: "loss12"
  type: "NCLLoss"
  bottom: "score12"
  bottom: "label"
  bottom: "sumscore"
  top: "loss12"
  include {
    phase: TRAIN
  }
  ncl_loss_param {
    lambda: 1.01
    net_num: 256
  }
}
layer {
  name: "loss13"
  type: "NCLLoss"
  bottom: "score13"
  bottom: "label"
  bottom: "sumscore"
  top: "loss13"
  include {
    phase: TRAIN
  }
  ncl_loss_param {
    lambda: 1.01
    net_num: 256
  }
}
layer {
  name: "loss14"
  type: "NCLLoss"
  bottom: "score14"
  bottom: "label"
  bottom: "sumscore"
  top: "loss14"
  include {
    phase: TRAIN
  }
  ncl_loss_param {
    lambda: 1.01
    net_num: 256
  }
}
layer {
  name: "loss15"
  type: "NCLLoss"
  bottom: "score15"
  bottom: "label"
  bottom: "sumscore"
  top: "loss15"
  include {
    phase: TRAIN
  }
  ncl_loss_param {
    lambda: 1.01
    net_num: 256
  }
}
layer {
  name: "loss16"
  type: "NCLLoss"
  bottom: "score16"
  bottom: "label"
  bottom: "sumscore"
  top: "loss16"
  include {
    phase: TRAIN
  }
  ncl_loss_param {
    lambda: 1.01
    net_num: 256
  }
}
layer {
  name: "loss17"
  type: "NCLLoss"
  bottom: "score17"
  bottom: "label"
  bottom: "sumscore"
  top: "loss17"
  include {
    phase: TRAIN
  }
  ncl_loss_param {
    lambda: 1.01
    net_num: 256
  }
}
layer {
  name: "loss18"
  type: "NCLLoss"
  bottom: "score18"
  bottom: "label"
  bottom: "sumscore"
  top: "loss18"
  include {
    phase: TRAIN
  }
  ncl_loss_param {
    lambda: 1.01
    net_num: 256
  }
}
layer {
  name: "loss19"
  type: "NCLLoss"
  bottom: "score19"
  bottom: "label"
  bottom: "sumscore"
  top: "loss19"
  include {
    phase: TRAIN
  }
  ncl_loss_param {
    lambda: 1.01
    net_num: 256
  }
}
layer {
  name: "loss20"
  type: "NCLLoss"
  bottom: "score20"
  bottom: "label"
  bottom: "sumscore"
  top: "loss20"
  include {
    phase: TRAIN
  }
  ncl_loss_param {
    lambda: 1.01
    net_num: 256
  }
}
layer {
  name: "loss21"
  type: "NCLLoss"
  bottom: "score21"
  bottom: "label"
  bottom: "sumscore"
  top: "loss21"
  include {
    phase: TRAIN
  }
  ncl_loss_param {
    lambda: 1.01
    net_num: 256
  }
}
layer {
  name: "loss22"
  type: "NCLLoss"
  bottom: "score22"
  bottom: "label"
  bottom: "sumscore"
  top: "loss22"
  include {
    phase: TRAIN
  }
  ncl_loss_param {
    lambda: 1.01
    net_num: 256
  }
}
layer {
  name: "loss23"
  type: "NCLLoss"
  bottom: "score23"
  bottom: "label"
  bottom: "sumscore"
  top: "loss23"
  include {
    phase: TRAIN
  }
  ncl_loss_param {
    lambda: 1.01
    net_num: 256
  }
}
layer {
  name: "loss24"
  type: "NCLLoss"
  bottom: "score24"
  bottom: "label"
  bottom: "sumscore"
  top: "loss24"
  include {
    phase: TRAIN
  }
  ncl_loss_param {
    lambda: 1.01
    net_num: 256
  }
}
layer {
  name: "loss25"
  type: "NCLLoss"
  bottom: "score25"
  bottom: "label"
  bottom: "sumscore"
  top: "loss25"
  include {
    phase: TRAIN
  }
  ncl_loss_param {
    lambda: 1.01
    net_num: 256
  }
}
layer {
  name: "loss26"
  type: "NCLLoss"
  bottom: "score26"
  bottom: "label"
  bottom: "sumscore"
  top: "loss26"
  include {
    phase: TRAIN
  }
  ncl_loss_param {
    lambda: 1.01
    net_num: 256
  }
}
layer {
  name: "loss27"
  type: "NCLLoss"
  bottom: "score27"
  bottom: "label"
  bottom: "sumscore"
  top: "loss27"
  include {
    phase: TRAIN
  }
  ncl_loss_param {
    lambda: 1.01
    net_num: 256
  }
}
layer {
  name: "loss28"
  type: "NCLLoss"
  bottom: "score28"
  bottom: "label"
  bottom: "sumscore"
  top: "loss28"
  include {
    phase: TRAIN
  }
  ncl_loss_param {
    lambda: 1.01
    net_num: 256
  }
}
layer {
  name: "loss29"
  type: "NCLLoss"
  bottom: "score29"
  bottom: "label"
  bottom: "sumscore"
  top: "loss29"
  include {
    phase: TRAIN
  }
  ncl_loss_param {
    lambda: 1.01
    net_num: 256
  }
}
layer {
  name: "loss30"
  type: "NCLLoss"
  bottom: "score30"
  bottom: "label"
  bottom: "sumscore"
  top: "loss30"
  include {
    phase: TRAIN
  }
  ncl_loss_param {
    lambda: 1.01
    net_num: 256
  }
}
layer {
  name: "loss31"
  type: "NCLLoss"
  bottom: "score31"
  bottom: "label"
  bottom: "sumscore"
  top: "loss31"
  include {
    phase: TRAIN
  }
  ncl_loss_param {
    lambda: 1.01
    net_num: 256
  }
}
layer {
  name: "loss32"
  type: "NCLLoss"
  bottom: "score32"
  bottom: "label"
  bottom: "sumscore"
  top: "loss32"
  include {
    phase: TRAIN
  }
  ncl_loss_param {
    lambda: 1.01
    net_num: 256
  }
}
layer {
  name: "loss33"
  type: "NCLLoss"
  bottom: "score33"
  bottom: "label"
  bottom: "sumscore"
  top: "loss33"
  include {
    phase: TRAIN
  }
  ncl_loss_param {
    lambda: 1.01
    net_num: 256
  }
}
layer {
  name: "loss34"
  type: "NCLLoss"
  bottom: "score34"
  bottom: "label"
  bottom: "sumscore"
  top: "loss34"
  include {
    phase: TRAIN
  }
  ncl_loss_param {
    lambda: 1.01
    net_num: 256
  }
}
layer {
  name: "loss35"
  type: "NCLLoss"
  bottom: "score35"
  bottom: "label"
  bottom: "sumscore"
  top: "loss35"
  include {
    phase: TRAIN
  }
  ncl_loss_param {
    lambda: 1.01
    net_num: 256
  }
}
layer {
  name: "loss36"
  type: "NCLLoss"
  bottom: "score36"
  bottom: "label"
  bottom: "sumscore"
  top: "loss36"
  include {
    phase: TRAIN
  }
  ncl_loss_param {
    lambda: 1.01
    net_num: 256
  }
}
layer {
  name: "loss37"
  type: "NCLLoss"
  bottom: "score37"
  bottom: "label"
  bottom: "sumscore"
  top: "loss37"
  include {
    phase: TRAIN
  }
  ncl_loss_param {
    lambda: 1.01
    net_num: 256
  }
}
layer {
  name: "loss38"
  type: "NCLLoss"
  bottom: "score38"
  bottom: "label"
  bottom: "sumscore"
  top: "loss38"
  include {
    phase: TRAIN
  }
  ncl_loss_param {
    lambda: 1.01
    net_num: 256
  }
}
layer {
  name: "loss39"
  type: "NCLLoss"
  bottom: "score39"
  bottom: "label"
  bottom: "sumscore"
  top: "loss39"
  include {
    phase: TRAIN
  }
  ncl_loss_param {
    lambda: 1.01
    net_num: 256
  }
}
layer {
  name: "loss40"
  type: "NCLLoss"
  bottom: "score40"
  bottom: "label"
  bottom: "sumscore"
  top: "loss40"
  include {
    phase: TRAIN
  }
  ncl_loss_param {
    lambda: 1.01
    net_num: 256
  }
}
layer {
  name: "loss41"
  type: "NCLLoss"
  bottom: "score41"
  bottom: "label"
  bottom: "sumscore"
  top: "loss41"
  include {
    phase: TRAIN
  }
  ncl_loss_param {
    lambda: 1.01
    net_num: 256
  }
}
layer {
  name: "loss42"
  type: "NCLLoss"
  bottom: "score42"
  bottom: "label"
  bottom: "sumscore"
  top: "loss42"
  include {
    phase: TRAIN
  }
  ncl_loss_param {
    lambda: 1.01
    net_num: 256
  }
}
layer {
  name: "loss43"
  type: "NCLLoss"
  bottom: "score43"
  bottom: "label"
  bottom: "sumscore"
  top: "loss43"
  include {
    phase: TRAIN
  }
  ncl_loss_param {
    lambda: 1.01
    net_num: 256
  }
}
layer {
  name: "loss44"
  type: "NCLLoss"
  bottom: "score44"
  bottom: "label"
  bottom: "sumscore"
  top: "loss44"
  include {
    phase: TRAIN
  }
  ncl_loss_param {
    lambda: 1.01
    net_num: 256
  }
}
layer {
  name: "loss45"
  type: "NCLLoss"
  bottom: "score45"
  bottom: "label"
  bottom: "sumscore"
  top: "loss45"
  include {
    phase: TRAIN
  }
  ncl_loss_param {
    lambda: 1.01
    net_num: 256
  }
}
layer {
  name: "loss46"
  type: "NCLLoss"
  bottom: "score46"
  bottom: "label"
  bottom: "sumscore"
  top: "loss46"
  include {
    phase: TRAIN
  }
  ncl_loss_param {
    lambda: 1.01
    net_num: 256
  }
}
layer {
  name: "loss47"
  type: "NCLLoss"
  bottom: "score47"
  bottom: "label"
  bottom: "sumscore"
  top: "loss47"
  include {
    phase: TRAIN
  }
  ncl_loss_param {
    lambda: 1.01
    net_num: 256
  }
}
layer {
  name: "loss48"
  type: "NCLLoss"
  bottom: "score48"
  bottom: "label"
  bottom: "sumscore"
  top: "loss48"
  include {
    phase: TRAIN
  }
  ncl_loss_param {
    lambda: 1.01
    net_num: 256
  }
}
layer {
  name: "loss49"
  type: "NCLLoss"
  bottom: "score49"
  bottom: "label"
  bottom: "sumscore"
  top: "loss49"
  include {
    phase: TRAIN
  }
  ncl_loss_param {
    lambda: 1.01
    net_num: 256
  }
}
layer {
  name: "loss50"
  type: "NCLLoss"
  bottom: "score50"
  bottom: "label"
  bottom: "sumscore"
  top: "loss50"
  include {
    phase: TRAIN
  }
  ncl_loss_param {
    lambda: 1.01
    net_num: 256
  }
}
layer {
  name: "loss51"
  type: "NCLLoss"
  bottom: "score51"
  bottom: "label"
  bottom: "sumscore"
  top: "loss51"
  include {
    phase: TRAIN
  }
  ncl_loss_param {
    lambda: 1.01
    net_num: 256
  }
}
layer {
  name: "loss52"
  type: "NCLLoss"
  bottom: "score52"
  bottom: "label"
  bottom: "sumscore"
  top: "loss52"
  include {
    phase: TRAIN
  }
  ncl_loss_param {
    lambda: 1.01
    net_num: 256
  }
}
layer {
  name: "loss53"
  type: "NCLLoss"
  bottom: "score53"
  bottom: "label"
  bottom: "sumscore"
  top: "loss53"
  include {
    phase: TRAIN
  }
  ncl_loss_param {
    lambda: 1.01
    net_num: 256
  }
}
layer {
  name: "loss54"
  type: "NCLLoss"
  bottom: "score54"
  bottom: "label"
  bottom: "sumscore"
  top: "loss54"
  include {
    phase: TRAIN
  }
  ncl_loss_param {
    lambda: 1.01
    net_num: 256
  }
}
layer {
  name: "loss55"
  type: "NCLLoss"
  bottom: "score55"
  bottom: "label"
  bottom: "sumscore"
  top: "loss55"
  include {
    phase: TRAIN
  }
  ncl_loss_param {
    lambda: 1.01
    net_num: 256
  }
}
layer {
  name: "loss56"
  type: "NCLLoss"
  bottom: "score56"
  bottom: "label"
  bottom: "sumscore"
  top: "loss56"
  include {
    phase: TRAIN
  }
  ncl_loss_param {
    lambda: 1.01
    net_num: 256
  }
}
layer {
  name: "loss57"
  type: "NCLLoss"
  bottom: "score57"
  bottom: "label"
  bottom: "sumscore"
  top: "loss57"
  include {
    phase: TRAIN
  }
  ncl_loss_param {
    lambda: 1.01
    net_num: 256
  }
}
layer {
  name: "loss58"
  type: "NCLLoss"
  bottom: "score58"
  bottom: "label"
  bottom: "sumscore"
  top: "loss58"
  include {
    phase: TRAIN
  }
  ncl_loss_param {
    lambda: 1.01
    net_num: 256
  }
}
layer {
  name: "loss59"
  type: "N
I0729 16:18:40.162730 25077 layer_factory.hpp:77] Creating layer data
I0729 16:18:40.162833 25077 db_lmdb.cpp:35] Opened lmdb /home/peiyong/Work/Zenglin/szl/ShanghaiTech/partA/train_8/image_lmdb
I0729 16:18:40.162880 25077 net.cpp:84] Creating Layer data
I0729 16:18:40.162894 25077 net.cpp:380] data -> data
I0729 16:18:40.164038 25077 data_layer.cpp:45] output data size: 1,3,384,512
I0729 16:18:40.170303 25077 net.cpp:122] Setting up data
I0729 16:18:40.170341 25077 net.cpp:129] Top shape: 1 3 384 512 (589824)
I0729 16:18:40.170349 25077 net.cpp:137] Memory required for data: 2359296
I0729 16:18:40.170362 25077 layer_factory.hpp:77] Creating layer label
I0729 16:18:40.170424 25077 db_lmdb.cpp:35] Opened lmdb /home/peiyong/Work/Zenglin/szl/ShanghaiTech/partA/train_8/dmap_lmdb
I0729 16:18:40.170459 25077 net.cpp:84] Creating Layer label
I0729 16:18:40.170471 25077 net.cpp:380] label -> label
I0729 16:18:40.170584 25077 data_layer.cpp:45] output data size: 1,1,48,64
I0729 16:18:40.171521 25077 net.cpp:122] Setting up label
I0729 16:18:40.171546 25077 net.cpp:129] Top shape: 1 1 48 64 (3072)
I0729 16:18:40.171558 25077 net.cpp:137] Memory required for data: 2371584
I0729 16:18:40.171567 25077 layer_factory.hpp:77] Creating layer label_label_0_split
I0729 16:18:40.171633 25077 net.cpp:84] Creating Layer label_label_0_split
I0729 16:18:40.171650 25077 net.cpp:406] label_label_0_split <- label
I0729 16:18:40.171694 25077 net.cpp:380] label_label_0_split -> label_label_0_split_0
…
I0729 16:18:40.184492 25077 net.cpp:380] label_label_0_split -> label_label_0_split_250
I0729 16:18:40.184543 25077 net.cpp:380] label_label_0_split -> label_label_0_split_251
I0729 16:18:40.184594 25077 net.cpp:380] label_label_0_split -> label_label_0_split_252
I0729 16:18:40.184646 25077 net.cpp:380] label_label_0_split -> label_label_0_split_253
I0729 16:18:40.184697 25077 net.cpp:380] label_label_0_split -> label_label_0_split_254
I0729 16:18:40.184780 25077 net.cpp:380] label_label_0_split -> label_label_0_split_255
I0729 16:18:40.187022 25077 net.cpp:122] Setting up label_label_0_split
I0729 16:18:40.187036 25077 net.cpp:129] Top shape: 1 1 48 64 (3072)
I0729 16:18:40.187042 25077 net.cpp:129] Top shape: 1 1 48 64 (3072)
I0729 16:18:40.187049 25077 net.cpp:129] Top shape: 1 1 48 64 (3072)
I0729 16:18:40.187057 25077 net.cpp:129] Top shape: 1 1 48 64 (3072)
I0729 16:18:40.187063 25077 net.cpp:129] Top shape: 1 1 48 64 (3072)
I0729 16:18:40.187068 25077 net.cpp:129] Top shape: 1 1 48 64 (3072)
I0729 16:18:40.187074 25077 net.cpp:129] Top shape: 1 1 48 64 (3072)
I0729 16:18:40.187081 25077 net.cpp:129] Top shape: 1 1 48 64 (3072)
I0729 16:18:40.187088 25077 net.cpp:129] Top shape: 1 1 48 64 (3072)
I0729 16:18:40.187093 25077 net.cpp:129] Top shape: 1 1 48 64 (3072)
I0729 16:18:40.187099 25077 net.cpp:129] Top shape: 1 1 48 64 (3072)
I0729 16:18:40.187105 25077 net.cpp:129] Top shape: 1 1 48 64 (3072)
I0729 16:18:40.187111 25077 net.cpp:129] Top shape: 1 1 48 64 (3072)
I0729 16:18:40.187117 25077 net.cpp:129] Top shape: 1 1 48 64 (3072)
I0729 16:18:40.187124 25077 net.cpp:129] Top shape: 1 1 48 64 (3072)
I0729 16:18:40.187129 25077 net.cpp:129] Top shape: 1 1 48 64 (3072)
I0729 16:18:40.187135 25077 net.cpp:129] Top shape: 1 1 48 64 (3072)
I0729 16:18:40.187141 25077 net.cpp:129] Top shape: 1 1 48 64 (3072)
I0729 16:18:40.187147 25077 net.cpp:129] Top shape: 1 1 48 64 (3072)
I0729 16:18:40.187153 25077 net.cpp:129] Top shape: 1 1 48 64 (3072)
I0729 16:18:40.187160 25077 net.cpp:129] Top shape: 1 1 48 64 (3072)
I0729 16:18:40.187165 25077 net.cpp:129] Top shape: 1 1 48 64 (3072)
I0729 16:18:40.187171 25077 net.cpp:129] Top shape: 1 1 48 64 (3072)
I0729 16:18:40.187176 25077 net.cpp:129] Top shape: 1 1 48 64 (3072)
I0729 16:18:40.187182 25077 net.cpp:129] Top shape: 1 1 48 64 (3072)
I0729 16:18:40.187188 25077 net.cpp:129] Top shape: 1 1 48 64 (3072)
I0729 16:18:40.187196 25077 net.cpp:129] Top shape: 1 1 48 64 (3072)
I0729 16:18:40.187201 25077 net.cpp:129] Top shape: 1 1 48 64 (3072)
I0729 16:18:40.187207 25077 net.cpp:129] Top shape: 1 1 48 64 (3072)
I0729 16:18:40.187213 25077 net.cpp:129] Top shape: 1 1 48 64 (3072)
I0729 16:18:40.187219 25077 net.cpp:129] Top shape: 1 1 48 64 (3072)
I0729 16:18:40.187225 25077 net.cpp:129] Top shape: 1 1 48 64 (3072)
I0729 16:18:40.187244 25077 net.cpp:129] Top shape: 1 1 48 64 (3072)
I0729 16:18:40.187252 25077 net.cpp:129] Top shape: 1 1 48 64 (3072)
I0729 16:18:40.187258 25077 net.cpp:129] Top shape: 1 1 48 64 (3072)
I0729 16:18:40.187263 25077 net.cpp:129] Top shape: 1 1 48 64 (3072)
I0729 16:18:40.187269 25077 net.cpp:129] Top shape: 1 1 48 64 (3072)
I0729 16:18:40.187275 25077 net.cpp:129] Top shape: 1 1 48 64 (3072)
I0729 16:18:40.187281 25077 net.cpp:129] Top shape: 1 1 48 64 (3072)
I0729 16:18:40.187288 25077 net.cpp:129] Top shape: 1 1 48 64 (3072)
I0729 16:18:40.187294 25077 net.cpp:129] Top shape: 1 1 48 64 (3072)
I0729 16:18:40.187299 25077 net.cpp:129] Top shape: 1 1 48 64 (3072)
I0729 16:18:40.187305 25077 net.cpp:129] Top shape: 1 1 48 64 (3072)
I0729 16:18:40.187310 25077 net.cpp:129] Top shape: 1 1 48 64 (3072)
I0729 16:18:40.187316 25077 net.cpp:129] Top shape: 1 1 48 64 (3072)
I0729 16:18:40.187322 25077 net.cpp:129] Top shape: 1 1 48 64 (3072)
I0729 16:18:40.187328 25077 net.cpp:129] Top shape: 1 1 48 64 (3072)
I0729 16:18:40.187335 25077 net.cpp:129] Top shape: 1 1 48 64 (3072)
I0729 16:18:40.187340 25077 net.cpp:129] Top shape: 1 1 48 64 (3072)
I0729 16:18:40.187346 25077 net.cpp:129] Top shape: 1 1 48 64 (3072)
I0729 16:18:40.187352 25077 net.cpp:129] Top shape: 1 1 48 64 (3072)
I0729 16:18:40.187358 25077 net.cpp:129] Top shape: 1 1 48 64 (3072)
I0729 16:18:40.187364 25077 net.cpp:129] Top shape: 1 1 48 64 (3072)
I0729 16:18:40.187371 25077 net.cpp:129] Top shape: 1 1 48 64 (3072)
I0729 16:18:40.187376 25077 net.cpp:129] Top shape: 1 1 48 64 (3072)
I0729 16:18:40.187382 25077 net.cpp:129] Top shape: 1 1 48 64 (3072)
I0729 16:18:40.187388 25077 net.cpp:129] Top shape: 1 1 48 64 (3072)
I0729 16:18:40.187394 25077 net.cpp:129] Top shape: 1 1 48 64 (3072)
I0729 16:18:40.187400 25077 net.cpp:129] Top shape: 1 1 48 64 (3072)
I0729 16:18:40.187407 25077 net.cpp:129] Top shape: 1 1 48 64 (3072)
I0729 16:18:40.187412 25077 net.cpp:129] Top shape: 1 1 48 64 (3072)
I0729 16:18:40.187418 25077 net.cpp:129] Top shape: 1 1 48 64 (3072)
I0729 16:18:40.187425 25077 net.cpp:129] Top shape: 1 1 48 64 (3072)
I0729 16:18:40.187432 25077 net.cpp:129] Top shape: 1 1 48 64 (3072)
I0729 16:18:40.187438 25077 net.cpp:129] Top shape: 1 1 48 64 (3072)
I0729 16:18:40.187443 25077 net.cpp:129] Top shape: 1 1 48 64 (3072)
I0729 16:18:40.187448 25077 net.cpp:129] Top shape: 1 1 48 64 (3072)
I0729 16:18:40.187454 25077 net.cpp:129] Top shape: 1 1 48 64 (3072)
I0729 16:18:40.187460 25077 net.cpp:129] Top shape: 1 1 48 64 (3072)
I0729 16:18:40.187466 25077 net.cpp:129] Top shape: 1 1 48 64 (3072)
I0729 16:18:40.187472 25077 net.cpp:129] Top shape: 1 1 48 64 (3072)
I0729 16:18:40.187477 25077 net.cpp:129] Top shape: 1 1 48 64 (3072)
I0729 16:18:40.187484 25077 net.cpp:129] Top shape: 1 1 48 64 (3072)
I0729 16:18:40.187489 25077 net.cpp:129] Top shape: 1 1 48 64 (3072)
I0729 16:18:40.187495 25077 net.cpp:129] Top shape: 1 1 48 64 (3072)
I0729 16:18:40.187501 25077 net.cpp:129] Top shape: 1 1 48 64 (3072)
I0729 16:18:40.187507 25077 net.cpp:129] Top shape: 1 1 48 64 (3072)
I0729 16:18:40.187513 25077 net.cpp:129] Top shape: 1 1 48 64 (3072)
I0729 16:18:40.187518 25077 net.cpp:129] Top shape: 1 1 48 64 (3072)
I0729 16:18:40.187525 25077 net.cpp:129] Top shape: 1 1 48 64 (3072)
I0729 16:18:40.187530 25077 net.cpp:129] Top shape: 1 1 48 64 (3072)
I0729 16:18:40.187536 25077 net.cpp:129] Top shape: 1 1 48 64 (3072)
I0729 16:18:40.187542 25077 net.cpp:129] Top shape: 1 1 48 64 (3072)
I0729 16:18:40.187548 25077 net.cpp:129] Top shape: 1 1 48 64 (3072)
I0729 16:18:40.187553 25077 net.cpp:129] Top shape: 1 1 48 64 (3072)
I0729 16:18:40.187559 25077 net.cpp:129] Top shape: 1 1 48 64 (3072)
I0729 16:18:40.187566 25077 net.cpp:129] Top shape: 1 1 48 64 (3072)
I0729 16:18:40.187572 25077 net.cpp:129] Top shape: 1 1 48 64 (3072)
I0729 16:18:40.187577 25077 net.cpp:129] Top shape: 1 1 48 64 (3072)
I0729 16:18:40.187582 25077 net.cpp:129] Top shape: 1 1 48 64 (3072)
I0729 16:18:40.187588 25077 net.cpp:129] Top shape: 1 1 48 64 (3072)
I0729 16:18:40.187602 25077 net.cpp:129] Top shape: 1 1 48 64 (3072)
I0729 16:18:40.187608 25077 net.cpp:129] Top shape: 1 1 48 64 (3072)
I0729 16:18:40.187614 25077 net.cpp:129] Top shape: 1 1 48 64 (3072)
I0729 16:18:40.187620 25077 net.cpp:129] Top shape: 1 1 48 64 (3072)
I0729 16:18:40.187625 25077 net.cpp:129] Top shape: 1 1 48 64 (3072)
I0729 16:18:40.187631 25077 net.cpp:129] Top shape: 1 1 48 64 (3072)
I0729 16:18:40.187638 25077 net.cpp:129] Top shape: 1 1 48 64 (3072)
I0729 16:18:40.187644 25077 net.cpp:129] Top shape: 1 1 48 64 (3072)
I0729 16:18:40.187649 25077 net.cpp:129] Top shape: 1 1 48 64 (3072)
I0729 16:18:40.187654 25077 net.cpp:129] Top shape: 1 1 48 64 (3072)
I0729 16:18:40.187660 25077 net.cpp:129] Top shape: 1 1 48 64 (3072)
I0729 16:18:40.187666 25077 net.cpp:129] Top shape: 1 1 48 64 (3072)
I0729 16:18:40.187672 25077 net.cpp:129] Top shape: 1 1 48 64 (3072)
I0729 16:18:40.187678 25077 net.cpp:129] Top shape: 1 1 48 64 (3072)
I0729 16:18:40.187685 25077 net.cpp:129] Top shape: 1 1 48 64 (3072)
I0729 16:18:40.187690 25077 net.cpp:129] Top shape: 1 1 48 64 (3072)
I0729 16:18:40.187695 25077 net.cpp:129] Top shape: 1 1 48 64 (3072)
I0729 16:18:40.187701 25077 net.cpp:129] Top shape: 1 1 48 64 (3072)
I0729 16:18:40.187707 25077 net.cpp:129] Top shape: 1 1 48 64 (3072)
I0729 16:18:40.187713 25077 net.cpp:129] Top shape: 1 1 48 64 (3072)
I0729 16:18:40.187719 25077 net.cpp:129] Top shape: 1 1 48 64 (3072)
I0729 16:18:40.187724 25077 net.cpp:129] Top shape: 1 1 48 64 (3072)
I0729 16:18:40.187731 25077 net.cpp:129] Top shape: 1 1 48 64 (3072)
I0729 16:18:40.187736 25077 net.cpp:129] Top shape: 1 1 48 64 (3072)
I0729 16:18:40.187742 25077 net.cpp:129] Top shape: 1 1 48 64 (3072)
I0729 16:18:40.187748 25077 net.cpp:129] Top shape: 1 1 48 64 (3072)
I0729 16:18:40.187754 25077 net.cpp:129] Top shape: 1 1 48 64 (3072)
I0729 16:18:40.187759 25077 net.cpp:129] Top shape: 1 1 48 64 (3072)
I0729 16:18:40.187765 25077 net.cpp:129] Top shape: 1 1 48 64 (3072)
I0729 16:18:40.187772 25077 net.cpp:129] Top shape: 1 1 48 64 (3072)
I0729 16:18:40.187777 25077 net.cpp:129] Top shape: 1 1 48 64 (3072)
I0729 16:18:40.187783 25077 net.cpp:129] Top shape: 1 1 48 64 (3072)
I0729 16:18:40.187788 25077 net.cpp:129] Top shape: 1 1 48 64 (3072)
I0729 16:18:40.187794 25077 net.cpp:129] Top shape: 1 1 48 64 (3072)
I0729 16:18:40.187800 25077 net.cpp:129] Top shape: 1 1 48 64 (3072)
I0729 16:18:40.187806 25077 net.cpp:129] Top shape: 1 1 48 64 (3072)
I0729 16:18:40.187813 25077 net.cpp:129] Top shape: 1 1 48 64 (3072)
I0729 16:18:40.187819 25077 net.cpp:129] Top shape: 1 1 48 64 (3072)
I0729 16:18:40.187824 25077 net.cpp:129] Top shape: 1 1 48 64 (3072)
I0729 16:18:40.187830 25077 net.cpp:129] Top shape: 1 1 48 64 (3072)
I0729 16:18:40.187836 25077 net.cpp:129] Top shape: 1 1 48 64 (3072)
I0729 16:18:40.187842 25077 net.cpp:129] Top shape: 1 1 48 64 (3072)
I0729 16:18:40.187849 25077 net.cpp:129] Top shape: 1 1 48 64 (3072)
I0729 16:18:40.187853 25077 net.cpp:129] Top shape: 1 1 48 64 (3072)
I0729 16:18:40.187860 25077 net.cpp:129] Top shape: 1 1 48 64 (3072)
I0729 16:18:40.187865 25077 net.cpp:129] Top shape: 1 1 48 64 (3072)
I0729 16:18:40.187871 25077 net.cpp:129] Top shape: 1 1 48 64 (3072)
I0729 16:18:40.187877 25077 net.cpp:129] Top shape: 1 1 48 64 (3072)
I0729 16:18:40.187882 25077 net.cpp:129] Top shape: 1 1 48 64 (3072)
I0729 16:18:40.187888 25077 net.cpp:129] Top shape: 1 1 48 64 (3072)
I0729 16:18:40.187894 25077 net.cpp:129] Top shape: 1 1 48 64 (3072)
I0729 16:18:40.187901 25077 net.cpp:129] Top shape: 1 1 48 64 (3072)
I0729 16:18:40.187906 25077 net.cpp:129] Top shape: 1 1 48 64 (3072)
I0729 16:18:40.187911 25077 net.cpp:129] Top shape: 1 1 48 64 (3072)
I0729 16:18:40.187917 25077 net.cpp:129] Top shape: 1 1 48 64 (3072)
I0729 16:18:40.187923 25077 net.cpp:129] Top shape: 1 1 48 64 (3072)
I0729 16:18:40.187929 25077 net.cpp:129] Top shape: 1 1 48 64 (3072)
I0729 16:18:40.187934 25077 net.cpp:129] Top shape: 1 1 48 64 (3072)
I0729 16:18:40.187940 25077 net.cpp:129] Top shape: 1 1 48 64 (3072)
I0729 16:18:40.187954 25077 net.cpp:129] Top shape: 1 1 48 64 (3072)
I0729 16:18:40.187961 25077 net.cpp:129] Top shape: 1 1 48 64 (3072)
I0729 16:18:40.187968 25077 net.cpp:129] Top shape: 1 1 48 64 (3072)
I0729 16:18:40.187974 25077 net.cpp:129] Top shape: 1 1 48 64 (3072)
I0729 16:18:40.187980 25077 net.cpp:129] Top shape: 1 1 48 64 (3072)
I0729 16:18:40.187986 25077 net.cpp:129] Top shape: 1 1 48 64 (3072)
I0729 16:18:40.187994 25077 net.cpp:129] Top shape: 1 1 48 64 (3072)
I0729 16:18:40.187999 25077 net.cpp:129] Top shape: 1 1 48 64 (3072)
I0729 16:18:40.188006 25077 net.cpp:129] Top shape: 1 1 48 64 (3072)
I0729 16:18:40.188014 25077 net.cpp:129] Top shape: 1 1 48 64 (3072)
I0729 16:18:40.188020 25077 net.cpp:129] Top shape: 1 1 48 64 (3072)
I0729 16:18:40.188027 25077 net.cpp:129] Top shape: 1 1 48 64 (3072)
I0729 16:18:40.188033 25077 net.cpp:129] Top shape: 1 1 48 64 (3072)
I0729 16:18:40.188040 25077 net.cpp:129] Top shape: 1 1 48 64 (3072)
I0729 16:18:40.188048 25077 net.cpp:129] Top shape: 1 1 48 64 (3072)
I0729 16:18:40.188055 25077 net.cpp:129] Top shape: 1 1 48 64 (3072)
I0729 16:18:40.188061 25077 net.cpp:129] Top shape: 1 1 48 64 (3072)
I0729 16:18:40.188068 25077 net.cpp:129] Top shape: 1 1 48 64 (3072)
I0729 16:18:40.188076 25077 net.cpp:129] Top shape: 1 1 48 64 (3072)
I0729 16:18:40.188082 25077 net.cpp:129] Top shape: 1 1 48 64 (3072)
I0729 16:18:40.188089 25077 net.cpp:129] Top shape: 1 1 48 64 (3072)
I0729 16:18:40.188097 25077 net.cpp:129] Top shape: 1 1 48 64 (3072)
I0729 16:18:40.188103 25077 net.cpp:129] Top shape: 1 1 48 64 (3072)
I0729 16:18:40.188110 25077 net.cpp:129] Top shape: 1 1 48 64 (3072)
I0729 16:18:40.188117 25077 net.cpp:129] Top shape: 1 1 48 64 (3072)
I0729 16:18:40.188124 25077 net.cpp:129] Top shape: 1 1 48 64 (3072)
I0729 16:18:40.188132 25077 net.cpp:129] Top shape: 1 1 48 64 (3072)
I0729 16:18:40.188138 25077 net.cpp:129] Top shape: 1 1 48 64 (3072)
I0729 16:18:40.188144 25077 net.cpp:129] Top shape: 1 1 48 64 (3072)
I0729 16:18:40.188151 25077 net.cpp:129] Top shape: 1 1 48 64 (3072)
I0729 16:18:40.188158 25077 net.cpp:129] Top shape: 1 1 48 64 (3072)
I0729 16:18:40.188165 25077 net.cpp:129] Top shape: 1 1 48 64 (3072)
I0729 16:18:40.188172 25077 net.cpp:129] Top shape: 1 1 48 64 (3072)
I0729 16:18:40.188179 25077 net.cpp:129] Top shape: 1 1 48 64 (3072)
I0729 16:18:40.188186 25077 net.cpp:129] Top shape: 1 1 48 64 (3072)
I0729 16:18:40.188194 25077 net.cpp:129] Top shape: 1 1 48 64 (3072)
I0729 16:18:40.188200 25077 net.cpp:129] Top shape: 1 1 48 64 (3072)
I0729 16:18:40.188207 25077 net.cpp:129] Top shape: 1 1 48 64 (3072)
I0729 16:18:40.188215 25077 net.cpp:129] Top shape: 1 1 48 64 (3072)
I0729 16:18:40.188221 25077 net.cpp:129] Top shape: 1 1 48 64 (3072)
I0729 16:18:40.188228 25077 net.cpp:129] Top shape: 1 1 48 64 (3072)
I0729 16:18:40.188235 25077 net.cpp:129] Top shape: 1 1 48 64 (3072)
I0729 16:18:40.188242 25077 net.cpp:129] Top shape: 1 1 48 64 (3072)
I0729 16:18:40.188249 25077 net.cpp:129] Top shape: 1 1 48 64 (3072)
I0729 16:18:40.188256 25077 net.cpp:129] Top shape: 1 1 48 64 (3072)
I0729 16:18:40.188263 25077 net.cpp:129] Top shape: 1 1 48 64 (3072)
I0729 16:18:40.188271 25077 net.cpp:129] Top shape: 1 1 48 64 (3072)
I0729 16:18:40.188277 25077 net.cpp:129] Top shape: 1 1 48 64 (3072)
I0729 16:18:40.188284 25077 net.cpp:129] Top shape: 1 1 48 64 (3072)
I0729 16:18:40.188292 25077 net.cpp:129] Top shape: 1 1 48 64 (3072)
I0729 16:18:40.188298 25077 net.cpp:129] Top shape: 1 1 48 64 (3072)
I0729 16:18:40.188305 25077 net.cpp:129] Top shape: 1 1 48 64 (3072)
I0729 16:18:40.188313 25077 net.cpp:129] Top shape: 1 1 48 64 (3072)
I0729 16:18:40.188319 25077 net.cpp:129] Top shape: 1 1 48 64 (3072)
I0729 16:18:40.188326 25077 net.cpp:129] Top shape: 1 1 48 64 (3072)
I0729 16:18:40.188333 25077 net.cpp:129] Top shape: 1 1 48 64 (3072)
I0729 16:18:40.188340 25077 net.cpp:129] Top shape: 1 1 48 64 (3072)
I0729 16:18:40.188347 25077 net.cpp:129] Top shape: 1 1 48 64 (3072)
I0729 16:18:40.188354 25077 net.cpp:129] Top shape: 1 1 48 64 (3072)
I0729 16:18:40.188361 25077 net.cpp:129] Top shape: 1 1 48 64 (3072)
I0729 16:18:40.188379 25077 net.cpp:129] Top shape: 1 1 48 64 (3072)
I0729 16:18:40.188386 25077 net.cpp:129] Top shape: 1 1 48 64 (3072)
I0729 16:18:40.188393 25077 net.cpp:129] Top shape: 1 1 48 64 (3072)
I0729 16:18:40.188401 25077 net.cpp:129] Top shape: 1 1 48 64 (3072)
I0729 16:18:40.188408 25077 net.cpp:129] Top shape: 1 1 48 64 (3072)
I0729 16:18:40.188416 25077 net.cpp:129] Top shape: 1 1 48 64 (3072)
I0729 16:18:40.188422 25077 net.cpp:129] Top shape: 1 1 48 64 (3072)
I0729 16:18:40.188429 25077 net.cpp:129] Top shape: 1 1 48 64 (3072)
I0729 16:18:40.188436 25077 net.cpp:129] Top shape: 1 1 48 64 (3072)
I0729 16:18:40.188443 25077 net.cpp:129] Top shape: 1 1 48 64 (3072)
I0729 16:18:40.188450 25077 net.cpp:129] Top shape: 1 1 48 64 (3072)
I0729 16:18:40.188457 25077 net.cpp:129] Top shape: 1 1 48 64 (3072)
I0729 16:18:40.188464 25077 net.cpp:129] Top shape: 1 1 48 64 (3072)
I0729 16:18:40.188472 25077 net.cpp:129] Top shape: 1 1 48 64 (3072)
I0729 16:18:40.188478 25077 net.cpp:129] Top shape: 1 1 48 64 (3072)
I0729 16:18:40.188485 25077 net.cpp:129] Top shape: 1 1 48 64 (3072)
I0729 16:18:40.188493 25077 net.cpp:129] Top shape: 1 1 48 64 (3072)
I0729 16:18:40.188499 25077 net.cpp:129] Top shape: 1 1 48 64 (3072)
I0729 16:18:40.188508 25077 net.cpp:129] Top shape: 1 1 48 64 (3072)
I0729 16:18:40.188514 25077 net.cpp:129] Top shape: 1 1 48 64 (3072)
I0729 16:18:40.188521 25077 net.cpp:129] Top shape: 1 1 48 64 (3072)
I0729 16:18:40.188529 25077 net.cpp:129] Top shape: 1 1 48 64 (3072)
I0729 16:18:40.188535 25077 net.cpp:129] Top shape: 1 1 48 64 (3072)
I0729 16:18:40.188542 25077 net.cpp:129] Top shape: 1 1 48 64 (3072)
I0729 16:18:40.188549 25077 net.cpp:129] Top shape: 1 1 48 64 (3072)
I0729 16:18:40.188556 25077 net.cpp:129] Top shape: 1 1 48 64 (3072)
I0729 16:18:40.188563 25077 net.cpp:129] Top shape: 1 1 48 64 (3072)
I0729 16:18:40.188570 25077 net.cpp:129] Top shape: 1 1 48 64 (3072)
I0729 16:18:40.188577 25077 net.cpp:129] Top shape: 1 1 48 64 (3072)
I0729 16:18:40.188585 25077 net.cpp:129] Top shape: 1 1 48 64 (3072)
I0729 16:18:40.188591 25077 net.cpp:129] Top shape: 1 1 48 64 (3072)
I0729 16:18:40.188598 25077 net.cpp:129] Top shape: 1 1 48 64 (3072)
I0729 16:18:40.188606 25077 net.cpp:129] Top shape: 1 1 48 64 (3072)
I0729 16:18:40.188612 25077 net.cpp:129] Top shape: 1 1 48 64 (3072)
I0729 16:18:40.188619 25077 net.cpp:129] Top shape: 1 1 48 64 (3072)
I0729 16:18:40.188627 25077 net.cpp:129] Top shape: 1 1 48 64 (3072)
I0729 16:18:40.188633 25077 net.cpp:129] Top shape: 1 1 48 64 (3072)
I0729 16:18:40.188640 25077 net.cpp:129] Top shape: 1 1 48 64 (3072)
I0729 16:18:40.188647 25077 net.cpp:129] Top shape: 1 1 48 64 (3072)
I0729 16:18:40.188654 25077 net.cpp:129] Top shape: 1 1 48 64 (3072)
I0729 16:18:40.188661 25077 net.cpp:129] Top shape: 1 1 48 64 (3072)
I0729 16:18:40.188668 25077 net.cpp:129] Top shape: 1 1 48 64 (3072)
I0729 16:18:40.188675 25077 net.cpp:129] Top shape: 1 1 48 64 (3072)
I0729 16:18:40.188683 25077 net.cpp:129] Top shape: 1 1 48 64 (3072)
I0729 16:18:40.188690 25077 net.cpp:129] Top shape: 1 1 48 64 (3072)
I0729 16:18:40.188697 25077 net.cpp:129] Top shape: 1 1 48 64 (3072)
I0729 16:18:40.188702 25077 net.cpp:137] Memory required for data: 5517312
I0729 16:18:40.188709 25077 layer_factory.hpp:77] Creating layer conv1_1
I0729 16:18:40.188729 25077 net.cpp:84] Creating Layer conv1_1
I0729 16:18:40.188736 25077 net.cpp:406] conv1_1 <- data
I0729 16:18:40.188746 25077 net.cpp:380] conv1_1 -> conv1_1
I0729 16:18:40.472321 25077 net.cpp:122] Setting up conv1_1
I0729 16:18:40.472426 25077 net.cpp:129] Top shape: 1 64 384 512 (12582912)
I0729 16:18:40.472470 25077 net.cpp:137] Memory required for data: 55848960
I0729 16:18:40.472529 25077 layer_factory.hpp:77] Creating layer relu1_1
I0729 16:18:40.472580 25077 net.cpp:84] Creating Layer relu1_1
I0729 16:18:40.472625 25077 net.cpp:406] relu1_1 <- conv1_1
I0729 16:18:40.472667 25077 net.cpp:367] relu1_1 -> conv1_1 (in-place)
I0729 16:18:40.472898 25077 net.cpp:122] Setting up relu1_1
I0729 16:18:40.473070 25077 net.cpp:129] Top shape: 1 64 384 512 (12582912)
I0729 16:18:40.473112 25077 net.cpp:137] Memory required for data: 106180608
I0729 16:18:40.473158 25077 layer_factory.hpp:77] Creating layer conv1_2
I0729 16:18:40.473227 25077 net.cpp:84] Creating Layer conv1_2
I0729 16:18:40.473284 25077 net.cpp:406] conv1_2 <- conv1_1
I0729 16:18:40.473353 25077 net.cpp:380] conv1_2 -> conv1_2
I0729 16:18:40.477286 25077 net.cpp:122] Setting up conv1_2
I0729 16:18:40.477367 25077 net.cpp:129] Top shape: 1 64 384 512 (12582912)
I0729 16:18:40.477423 25077 net.cpp:137] Memory required for data: 156512256
I0729 16:18:40.477486 25077 layer_factory.hpp:77] Creating layer relu1_2
I0729 16:18:40.477545 25077 net.cpp:84] Creating Layer relu1_2
I0729 16:18:40.477602 25077 net.cpp:406] relu1_2 <- conv1_2
I0729 16:18:40.477663 25077 net.cpp:367] relu1_2 -> conv1_2 (in-place)
I0729 16:18:40.477938 25077 net.cpp:122] Setting up relu1_2
I0729 16:18:40.478008 25077 net.cpp:129] Top shape: 1 64 384 512 (12582912)
I0729 16:18:40.478056 25077 net.cpp:137] Memory required for data: 206843904
I0729 16:18:40.478096 25077 layer_factory.hpp:77] Creating layer pool1
I0729 16:18:40.478142 25077 net.cpp:84] Creating Layer pool1
I0729 16:18:40.478183 25077 net.cpp:406] pool1 <- conv1_2
I0729 16:18:40.478225 25077 net.cpp:380] pool1 -> pool1
I0729 16:18:40.478323 25077 net.cpp:122] Setting up pool1
I0729 16:18:40.478374 25077 net.cpp:129] Top shape: 1 64 192 256 (3145728)
I0729 16:18:40.478412 25077 net.cpp:137] Memory required for data: 219426816
I0729 16:18:40.478451 25077 layer_factory.hpp:77] Creating layer conv2_1
I0729 16:18:40.478498 25077 net.cpp:84] Creating Layer conv2_1
I0729 16:18:40.478540 25077 net.cpp:406] conv2_1 <- pool1
I0729 16:18:40.478585 25077 net.cpp:380] conv2_1 -> conv2_1
I0729 16:18:40.482410 25077 net.cpp:122] Setting up conv2_1
I0729 16:18:40.483711 25077 net.cpp:129] Top shape: 1 128 192 256 (6291456)
I0729 16:18:40.483760 25077 net.cpp:137] Memory required for data: 244592640
I0729 16:18:40.483814 25077 layer_factory.hpp:77] Creating layer relu2_1
I0729 16:18:40.483870 25077 net.cpp:84] Creating Layer relu2_1
I0729 16:18:40.483918 25077 net.cpp:406] relu2_1 <- conv2_1
I0729 16:18:40.483969 25077 net.cpp:367] relu2_1 -> conv2_1 (in-place)
I0729 16:18:40.484660 25077 net.cpp:122] Setting up relu2_1
I0729 16:18:40.484735 25077 net.cpp:129] Top shape: 1 128 192 256 (6291456)
I0729 16:18:40.484794 25077 net.cpp:137] Memory required for data: 269758464
I0729 16:18:40.484849 25077 layer_factory.hpp:77] Creating layer conv2_2
I0729 16:18:40.484915 25077 net.cpp:84] Creating Layer conv2_2
I0729 16:18:40.484973 25077 net.cpp:406] conv2_2 <- conv2_1
I0729 16:18:40.485038 25077 net.cpp:380] conv2_2 -> conv2_2
I0729 16:18:40.489063 25077 net.cpp:122] Setting up conv2_2
I0729 16:18:40.489136 25077 net.cpp:129] Top shape: 1 128 192 256 (6291456)
I0729 16:18:40.489192 25077 net.cpp:137] Memory required for data: 294924288
I0729 16:18:40.489251 25077 layer_factory.hpp:77] Creating layer relu2_2
I0729 16:18:40.489315 25077 net.cpp:84] Creating Layer relu2_2
I0729 16:18:40.489367 25077 net.cpp:406] relu2_2 <- conv2_2
I0729 16:18:40.489409 25077 net.cpp:367] relu2_2 -> conv2_2 (in-place)
I0729 16:18:40.489639 25077 net.cpp:122] Setting up relu2_2
I0729 16:18:40.489692 25077 net.cpp:129] Top shape: 1 128 192 256 (6291456)
I0729 16:18:40.489732 25077 net.cpp:137] Memory required for data: 320090112
I0729 16:18:40.489770 25077 layer_factory.hpp:77] Creating layer pool2
I0729 16:18:40.489814 25077 net.cpp:84] Creating Layer pool2
I0729 16:18:40.489855 25077 net.cpp:406] pool2 <- conv2_2
I0729 16:18:40.489895 25077 net.cpp:380] pool2 -> pool2
I0729 16:18:40.489980 25077 net.cpp:122] Setting up pool2
I0729 16:18:40.490028 25077 net.cpp:129] Top shape: 1 128 96 128 (1572864)
I0729 16:18:40.490067 25077 net.cpp:137] Memory required for data: 326381568
I0729 16:18:40.490105 25077 layer_factory.hpp:77] Creating layer conv3_1
I0729 16:18:40.490151 25077 net.cpp:84] Creating Layer conv3_1
I0729 16:18:40.490192 25077 net.cpp:406] conv3_1 <- pool2
I0729 16:18:40.490268 25077 net.cpp:380] conv3_1 -> conv3_1
I0729 16:18:40.496732 25077 net.cpp:122] Setting up conv3_1
I0729 16:18:40.496800 25077 net.cpp:129] Top shape: 1 256 96 128 (3145728)
I0729 16:18:40.496842 25077 net.cpp:137] Memory required for data: 338964480
I0729 16:18:40.496894 25077 layer_factory.hpp:77] Creating layer relu3_1
I0729 16:18:40.496939 25077 net.cpp:84] Creating Layer relu3_1
I0729 16:18:40.496979 25077 net.cpp:406] relu3_1 <- conv3_1
I0729 16:18:40.497023 25077 net.cpp:367] relu3_1 -> conv3_1 (in-place)
I0729 16:18:40.497246 25077 net.cpp:122] Setting up relu3_1
I0729 16:18:40.497301 25077 net.cpp:129] Top shape: 1 256 96 128 (3145728)
I0729 16:18:40.497349 25077 net.cpp:137] Memory required for data: 351547392
I0729 16:18:40.497390 25077 layer_factory.hpp:77] Creating layer conv3_2
I0729 16:18:40.497437 25077 net.cpp:84] Creating Layer conv3_2
I0729 16:18:40.500553 25077 net.cpp:406] conv3_2 <- conv3_1
I0729 16:18:40.500598 25077 net.cpp:380] conv3_2 -> conv3_2
I0729 16:18:40.511312 25077 net.cpp:122] Setting up conv3_2
I0729 16:18:40.511391 25077 net.cpp:129] Top shape: 1 256 96 128 (3145728)
I0729 16:18:40.511435 25077 net.cpp:137] Memory required for data: 364130304
I0729 16:18:40.511482 25077 layer_factory.hpp:77] Creating layer relu3_2
I0729 16:18:40.511533 25077 net.cpp:84] Creating Layer relu3_2
I0729 16:18:40.511574 25077 net.cpp:406] relu3_2 <- conv3_2
I0729 16:18:40.511618 25077 net.cpp:367] relu3_2 -> conv3_2 (in-place)
I0729 16:18:40.512248 25077 net.cpp:122] Setting up relu3_2
I0729 16:18:40.512307 25077 net.cpp:129] Top shape: 1 256 96 128 (3145728)
I0729 16:18:40.512348 25077 net.cpp:137] Memory required for data: 376713216
I0729 16:18:40.512387 25077 layer_factory.hpp:77] Creating layer conv3_3
I0729 16:18:40.512436 25077 net.cpp:84] Creating Layer conv3_3
I0729 16:18:40.512478 25077 net.cpp:406] conv3_3 <- conv3_2
I0729 16:18:40.512523 25077 net.cpp:380] conv3_3 -> conv3_3
I0729 16:18:40.522037 25077 net.cpp:122] Setting up conv3_3
I0729 16:18:40.522110 25077 net.cpp:129] Top shape: 1 256 96 128 (3145728)
I0729 16:18:40.522151 25077 net.cpp:137] Memory required for data: 389296128
I0729 16:18:40.522195 25077 layer_factory.hpp:77] Creating layer relu3_3
I0729 16:18:40.522238 25077 net.cpp:84] Creating Layer relu3_3
I0729 16:18:40.522279 25077 net.cpp:406] relu3_3 <- conv3_3
I0729 16:18:40.522322 25077 net.cpp:367] relu3_3 -> conv3_3 (in-place)
I0729 16:18:40.522552 25077 net.cpp:122] Setting up relu3_3
I0729 16:18:40.522605 25077 net.cpp:129] Top shape: 1 256 96 128 (3145728)
I0729 16:18:40.522645 25077 net.cpp:137] Memory required for data: 401879040
I0729 16:18:40.522683 25077 layer_factory.hpp:77] Creating layer pool3
I0729 16:18:40.522728 25077 net.cpp:84] Creating Layer pool3
I0729 16:18:40.522768 25077 net.cpp:406] pool3 <- conv3_3
I0729 16:18:40.522811 25077 net.cpp:380] pool3 -> pool3
I0729 16:18:40.522900 25077 net.cpp:122] Setting up pool3
I0729 16:18:40.522948 25077 net.cpp:129] Top shape: 1 256 48 64 (786432)
I0729 16:18:40.522987 25077 net.cpp:137] Memory required for data: 405024768
I0729 16:18:40.523026 25077 layer_factory.hpp:77] Creating layer conv4_1
I0729 16:18:40.523073 25077 net.cpp:84] Creating Layer conv4_1
I0729 16:18:40.523114 25077 net.cpp:406] conv4_1 <- pool3
I0729 16:18:40.523159 25077 net.cpp:380] conv4_1 -> conv4_1
I0729 16:18:40.551434 25077 net.cpp:122] Setting up conv4_1
I0729 16:18:40.551518 25077 net.cpp:129] Top shape: 1 512 48 64 (1572864)
I0729 16:18:40.551561 25077 net.cpp:137] Memory required for data: 411316224
I0729 16:18:40.551607 25077 layer_factory.hpp:77] Creating layer relu4_1
I0729 16:18:40.551656 25077 net.cpp:84] Creating Layer relu4_1
I0729 16:18:40.551697 25077 net.cpp:406] relu4_1 <- conv4_1
I0729 16:18:40.551741 25077 net.cpp:367] relu4_1 -> conv4_1 (in-place)
I0729 16:18:40.551949 25077 net.cpp:122] Setting up relu4_1
I0729 16:18:40.551962 25077 net.cpp:129] Top shape: 1 512 48 64 (1572864)
I0729 16:18:40.551968 25077 net.cpp:137] Memory required for data: 417607680
I0729 16:18:40.551973 25077 layer_factory.hpp:77] Creating layer conv4_2
I0729 16:18:40.552014 25077 net.cpp:84] Creating Layer conv4_2
I0729 16:18:40.552023 25077 net.cpp:406] conv4_2 <- conv4_1
I0729 16:18:40.552034 25077 net.cpp:380] conv4_2 -> conv4_2
I0729 16:18:40.582736 25077 net.cpp:122] Setting up conv4_2
I0729 16:18:40.582773 25077 net.cpp:129] Top shape: 1 512 48 64 (1572864)
I0729 16:18:40.582783 25077 net.cpp:137] Memory required for data: 423899136
I0729 16:18:40.582803 25077 layer_factory.hpp:77] Creating layer relu4_2
I0729 16:18:40.582818 25077 net.cpp:84] Creating Layer relu4_2
I0729 16:18:40.582828 25077 net.cpp:406] relu4_2 <- conv4_2
I0729 16:18:40.582840 25077 net.cpp:367] relu4_2 -> conv4_2 (in-place)
I0729 16:18:40.583436 25077 net.cpp:122] Setting up relu4_2
I0729 16:18:40.583456 25077 net.cpp:129] Top shape: 1 512 48 64 (1572864)
I0729 16:18:40.583462 25077 net.cpp:137] Memory required for data: 430190592
I0729 16:18:40.583469 25077 layer_factory.hpp:77] Creating layer conv4_3
I0729 16:18:40.583487 25077 net.cpp:84] Creating Layer conv4_3
I0729 16:18:40.583495 25077 net.cpp:406] conv4_3 <- conv4_2
I0729 16:18:40.583506 25077 net.cpp:380] conv4_3 -> conv4_3
I0729 16:18:40.613540 25077 net.cpp:122] Setting up conv4_3
I0729 16:18:40.613631 25077 net.cpp:129] Top shape: 1 512 48 64 (1572864)
I0729 16:18:40.613673 25077 net.cpp:137] Memory required for data: 436482048
I0729 16:18:40.613719 25077 layer_factory.hpp:77] Creating layer relu4_3
I0729 16:18:40.613766 25077 net.cpp:84] Creating Layer relu4_3
I0729 16:18:40.613808 25077 net.cpp:406] relu4_3 <- conv4_3
I0729 16:18:40.613853 25077 net.cpp:367] relu4_3 -> conv4_3 (in-place)
I0729 16:18:40.614082 25077 net.cpp:122] Setting up relu4_3
I0729 16:18:40.614137 25077 net.cpp:129] Top shape: 1 512 48 64 (1572864)
I0729 16:18:40.614178 25077 net.cpp:137] Memory required for data: 442773504
I0729 16:18:40.614217 25077 layer_factory.hpp:77] Creating layer pool4
I0729 16:18:40.614261 25077 net.cpp:84] Creating Layer pool4
I0729 16:18:40.614302 25077 net.cpp:406] pool4 <- conv4_3
I0729 16:18:40.614346 25077 net.cpp:380] pool4 -> pool4
I0729 16:18:40.614437 25077 net.cpp:122] Setting up pool4
I0729 16:18:40.614486 25077 net.cpp:129] Top shape: 1 512 48 64 (1572864)
I0729 16:18:40.614526 25077 net.cpp:137] Memory required for data: 449064960
I0729 16:18:40.614564 25077 layer_factory.hpp:77] Creating layer conv5_1
I0729 16:18:40.614612 25077 net.cpp:84] Creating Layer conv5_1
I0729 16:18:40.614655 25077 net.cpp:406] conv5_1 <- pool4
I0729 16:18:40.614701 25077 net.cpp:380] conv5_1 -> conv5_1
I0729 16:18:40.648746 25077 net.cpp:122] Setting up conv5_1
I0729 16:18:40.648829 25077 net.cpp:129] Top shape: 1 512 48 64 (1572864)
I0729 16:18:40.648871 25077 net.cpp:137] Memory required for data: 455356416
I0729 16:18:40.648917 25077 layer_factory.hpp:77] Creating layer relu5_1
I0729 16:18:40.648964 25077 net.cpp:84] Creating Layer relu5_1
I0729 16:18:40.649006 25077 net.cpp:406] relu5_1 <- conv5_1
I0729 16:18:40.649052 25077 net.cpp:367] relu5_1 -> conv5_1 (in-place)
I0729 16:18:40.649813 25077 net.cpp:122] Setting up relu5_1
I0729 16:18:40.649874 25077 net.cpp:129] Top shape: 1 512 48 64 (1572864)
I0729 16:18:40.649915 25077 net.cpp:137] Memory required for data: 461647872
I0729 16:18:40.649955 25077 layer_factory.hpp:77] Creating layer conv5_2
I0729 16:18:40.650007 25077 net.cpp:84] Creating Layer conv5_2
I0729 16:18:40.650048 25077 net.cpp:406] conv5_2 <- conv5_1
I0729 16:18:40.650094 25077 net.cpp:380] conv5_2 -> conv5_2
I0729 16:18:40.681120 25077 net.cpp:122] Setting up conv5_2
I0729 16:18:40.681203 25077 net.cpp:129] Top shape: 1 512 48 64 (1572864)
I0729 16:18:40.681246 25077 net.cpp:137] Memory required for data: 467939328
I0729 16:18:40.681290 25077 layer_factory.hpp:77] Creating layer relu5_2
I0729 16:18:40.681346 25077 net.cpp:84] Creating Layer relu5_2
I0729 16:18:40.681391 25077 net.cpp:406] relu5_2 <- conv5_2
I0729 16:18:40.681433 25077 net.cpp:367] relu5_2 -> conv5_2 (in-place)
I0729 16:18:40.681716 25077 net.cpp:122] Setting up relu5_2
I0729 16:18:40.681773 25077 net.cpp:129] Top shape: 1 512 48 64 (1572864)
I0729 16:18:40.681936 25077 net.cpp:137] Memory required for data: 474230784
I0729 16:18:40.681978 25077 layer_factory.hpp:77] Creating layer conv5_3
I0729 16:18:40.682026 25077 net.cpp:84] Creating Layer conv5_3
I0729 16:18:40.682067 25077 net.cpp:406] conv5_3 <- conv5_2
I0729 16:18:40.682113 25077 net.cpp:380] conv5_3 -> conv5_3
I0729 16:18:40.721698 25077 net.cpp:122] Setting up conv5_3
I0729 16:18:40.721783 25077 net.cpp:129] Top shape: 1 512 48 64 (1572864)
I0729 16:18:40.721824 25077 net.cpp:137] Memory required for data: 480522240
I0729 16:18:40.721871 25077 layer_factory.hpp:77] Creating layer relu5_3
I0729 16:18:40.721925 25077 net.cpp:84] Creating Layer relu5_3
I0729 16:18:40.721968 25077 net.cpp:406] relu5_3 <- conv5_3
I0729 16:18:40.722012 25077 net.cpp:367] relu5_3 -> conv5_3 (in-place)
I0729 16:18:40.722767 25077 net.cpp:122] Setting up relu5_3
I0729 16:18:40.722827 25077 net.cpp:129] Top shape: 1 512 48 64 (1572864)
I0729 16:18:40.722867 25077 net.cpp:137] Memory required for data: 486813696
I0729 16:18:40.722906 25077 layer_factory.hpp:77] Creating layer conv_score
I0729 16:18:40.722955 25077 net.cpp:84] Creating Layer conv_score
I0729 16:18:40.722997 25077 net.cpp:406] conv_score <- conv5_3
I0729 16:18:40.723042 25077 net.cpp:380] conv_score -> conv_score
I0729 16:18:41.172516 25077 net.cpp:122] Setting up conv_score
I0729 16:18:41.172629 25077 net.cpp:129] Top shape: 1 256 48 64 (786432)
I0729 16:18:41.172675 25077 net.cpp:137] Memory required for data: 489959424
I0729 16:18:41.172729 25077 layer_factory.hpp:77] Creating layer relu_score
I0729 16:18:41.172780 25077 net.cpp:84] Creating Layer relu_score
I0729 16:18:41.172824 25077 net.cpp:406] relu_score <- conv_score
I0729 16:18:41.172875 25077 net.cpp:367] relu_score -> conv_score (in-place)
I0729 16:18:41.173604 25077 net.cpp:122] Setting up relu_score
I0729 16:18:41.173666 25077 net.cpp:129] Top shape: 1 256 48 64 (786432)
I0729 16:18:41.173712 25077 net.cpp:137] Memory required for data: 493105152
I0729 16:18:41.173754 25077 layer_factory.hpp:77] Creating layer slicer_conv
I0729 16:18:41.173825 25077 net.cpp:84] Creating Layer slicer_conv
I0729 16:18:41.173871 25077 net.cpp:406] slicer_conv <- conv_score
I0729 16:18:41.173938 25077 net.cpp:380] slicer_conv -> score1
I0729 16:18:41.174016 25077 net.cpp:380] slicer_conv -> score2
…
I0729 16:18:41.192703 25077 net.cpp:380] slicer_conv -> score249
I0729 16:18:41.192757 25077 net.cpp:380] slicer_conv -> score250
I0729 16:18:41.192812 25077 net.cpp:380] slicer_conv -> score251
I0729 16:18:41.192867 25077 net.cpp:380] slicer_conv -> score252
I0729 16:18:41.192920 25077 net.cpp:380] slicer_conv -> score253
I0729 16:18:41.192975 25077 net.cpp:380] slicer_conv -> score254
I0729 16:18:41.193027 25077 net.cpp:380] slicer_conv -> score255
I0729 16:18:41.193081 25077 net.cpp:380] slicer_conv -> score256
I0729 16:18:41.203858 25077 net.cpp:122] Setting up slicer_conv
I0729 16:18:41.203891 25077 net.cpp:129] Top shape: 1 1 48 64 (3072)
I0729 16:18:41.203898 25077 net.cpp:129] Top shape: 1 1 48 64 (3072)
I0729 16:18:41.203905 25077 net.cpp:129] Top shape: 1 1 48 64 (3072)
I0729 16:18:41.203912 25077 net.cpp:129] Top shape: 1 1 48 64 (3072)
I0729 16:18:41.203917 25077 net.cpp:129] Top shape: 1 1 48 64 (3072)
I0729 16:18:41.203924 25077 net.cpp:129] Top shape: 1 1 48 64 (3072)
I0729 16:18:41.203932 25077 net.cpp:129] Top shape: 1 1 48 64 (3072)
I0729 16:18:41.203938 25077 net.cpp:129] Top shape: 1 1 48 64 (3072)
I0729 16:18:41.203944 25077 net.cpp:129] Top shape: 1 1 48 64 (3072)
I0729 16:18:41.203950 25077 net.cpp:129] Top shape: 1 1 48 64 (3072)
I0729 16:18:41.203958 25077 net.cpp:129] Top shape: 1 1 48 64 (3072)
I0729 16:18:41.203963 25077 net.cpp:129] Top shape: 1 1 48 64 (3072)
I0729 16:18:41.203970 25077 net.cpp:129] Top shape: 1 1 48 64 (3072)
I0729 16:18:41.203977 25077 net.cpp:129] Top shape: 1 1 48 64 (3072)
I0729 16:18:41.203984 25077 net.cpp:129] Top shape: 1 1 48 64 (3072)
I0729 16:18:41.203990 25077 net.cpp:129] Top shape: 1 1 48 64 (3072)
I0729 16:18:41.203996 25077 net.cpp:129] Top shape: 1 1 48 64 (3072)
I0729 16:18:41.204004 25077 net.cpp:129] Top shape: 1 1 48 64 (3072)
I0729 16:18:41.204010 25077 net.cpp:129] Top shape: 1 1 48 64 (3072)
I0729 16:18:41.204016 25077 net.cpp:129] Top shape: 1 1 48 64 (3072)
I0729 16:18:41.204023 25077 net.cpp:129] Top shape: 1 1 48 64 (3072)
I0729 16:18:41.204030 25077 net.cpp:129] Top shape: 1 1 48 64 (3072)
I0729 16:18:41.204036 25077 net.cpp:129] Top shape: 1 1 48 64 (3072)
I0729 16:18:41.204042 25077 net.cpp:129] Top shape: 1 1 48 64 (3072)
I0729 16:18:41.204095 25077 net.cpp:129] Top shape: 1 1 48 64 (3072)
I0729 16:18:41.204103 25077 net.cpp:129] Top shape: 1 1 48 64 (3072)
I0729 16:18:41.204109 25077 net.cpp:129] Top shape: 1 1 48 64 (3072)
I0729 16:18:41.204116 25077 net.cpp:129] Top shape: 1 1 48 64 (3072)
I0729 16:18:41.204123 25077 net.cpp:129] Top shape: 1 1 48 64 (3072)
I0729 16:18:41.204129 25077 net.cpp:129] Top shape: 1 1 48 64 (3072)
I0729 16:18:41.204135 25077 net.cpp:129] Top shape: 1 1 48 64 (3072)
I0729 16:18:41.204143 25077 net.cpp:129] Top shape: 1 1 48 64 (3072)
I0729 16:18:41.204149 25077 net.cpp:129] Top shape: 1 1 48 64 (3072)
I0729 16:18:41.204155 25077 net.cpp:129] Top shape: 1 1 48 64 (3072)
I0729 16:18:41.204162 25077 net.cpp:129] Top shape: 1 1 48 64 (3072)
I0729 16:18:41.204169 25077 net.cpp:129] Top shape: 1 1 48 64 (3072)
I0729 16:18:41.204175 25077 net.cpp:129] Top shape: 1 1 48 64 (3072)
I0729 16:18:41.204181 25077 net.cpp:129] Top shape: 1 1 48 64 (3072)
I0729 16:18:41.204188 25077 net.cpp:129] Top shape: 1 1 48 64 (3072)
I0729 16:18:41.204195 25077 net.cpp:129] Top shape: 1 1 48 64 (3072)
I0729 16:18:41.204201 25077 net.cpp:129] Top shape: 1 1 48 64 (3072)
I0729 16:18:41.204208 25077 net.cpp:129] Top shape: 1 1 48 64 (3072)
I0729 16:18:41.204215 25077 net.cpp:129] Top shape: 1 1 48 64 (3072)
I0729 16:18:41.204221 25077 net.cpp:129] Top shape: 1 1 48 64 (3072)
I0729 16:18:41.204227 25077 net.cpp:129] Top shape: 1 1 48 64 (3072)
I0729 16:18:41.204234 25077 net.cpp:129] Top shape: 1 1 48 64 (3072)
I0729 16:18:41.204241 25077 net.cpp:129] Top shape: 1 1 48 64 (3072)
I0729 16:18:41.204246 25077 net.cpp:129] Top shape: 1 1 48 64 (3072)
I0729 16:18:41.204253 25077 net.cpp:129] Top shape: 1 1 48 64 (3072)
I0729 16:18:41.204260 25077 net.cpp:129] Top shape: 1 1 48 64 (3072)
I0729 16:18:41.204267 25077 net.cpp:129] Top shape: 1 1 48 64 (3072)
I0729 16:18:41.204272 25077 net.cpp:129] Top shape: 1 1 48 64 (3072)
I0729 16:18:41.204279 25077 net.cpp:129] Top shape: 1 1 48 64 (3072)
I0729 16:18:41.204286 25077 net.cpp:129] Top shape: 1 1 48 64 (3072)
I0729 16:18:41.204293 25077 net.cpp:129] Top shape: 1 1 48 64 (3072)
I0729 16:18:41.204299 25077 net.cpp:129] Top shape: 1 1 48 64 (3072)
I0729 16:18:41.204306 25077 net.cpp:129] Top shape: 1 1 48 64 (3072)
I0729 16:18:41.204313 25077 net.cpp:129] Top shape: 1 1 48 64 (3072)
I0729 16:18:41.204319 25077 net.cpp:129] Top shape: 1 1 48 64 (3072)
I0729 16:18:41.204325 25077 net.cpp:129] Top shape: 1 1 48 64 (3072)
I0729 16:18:41.204332 25077 net.cpp:129] Top shape: 1 1 48 64 (3072)
I0729 16:18:41.204339 25077 net.cpp:129] Top shape: 1 1 48 64 (3072)
I0729 16:18:41.204345 25077 net.cpp:129] Top shape: 1 1 48 64 (3072)
I0729 16:18:41.204351 25077 net.cpp:129] Top shape: 1 1 48 64 (3072)
I0729 16:18:41.204358 25077 net.cpp:129] Top shape: 1 1 48 64 (3072)
I0729 16:18:41.204365 25077 net.cpp:129] Top shape: 1 1 48 64 (3072)
I0729 16:18:41.204371 25077 net.cpp:129] Top shape: 1 1 48 64 (3072)
I0729 16:18:41.204377 25077 net.cpp:129] Top shape: 1 1 48 64 (3072)
I0729 16:18:41.204385 25077 net.cpp:129] Top shape: 1 1 48 64 (3072)
I0729 16:18:41.204391 25077 net.cpp:129] Top shape: 1 1 48 64 (3072)
I0729 16:18:41.204397 25077 net.cpp:129] Top shape: 1 1 48 64 (3072)
I0729 16:18:41.204404 25077 net.cpp:129] Top shape: 1 1 48 64 (3072)
I0729 16:18:41.204411 25077 net.cpp:129] Top shape: 1 1 48 64 (3072)
I0729 16:18:41.204417 25077 net.cpp:129] Top shape: 1 1 48 64 (3072)
I0729 16:18:41.204423 25077 net.cpp:129] Top shape: 1 1 48 64 (3072)
I0729 16:18:41.204430 25077 net.cpp:129] Top shape: 1 1 48 64 (3072)
I0729 16:18:41.204437 25077 net.cpp:129] Top shape: 1 1 48 64 (3072)
I0729 16:18:41.204443 25077 net.cpp:129] Top shape: 1 1 48 64 (3072)
I0729 16:18:41.204450 25077 net.cpp:129] Top shape: 1 1 48 64 (3072)
I0729 16:18:41.204457 25077 net.cpp:129] Top shape: 1 1 48 64 (3072)
I0729 16:18:41.204463 25077 net.cpp:129] Top shape: 1 1 48 64 (3072)
I0729 16:18:41.204470 25077 net.cpp:129] Top shape: 1 1 48 64 (3072)
I0729 16:18:41.204476 25077 net.cpp:129] Top shape: 1 1 48 64 (3072)
I0729 16:18:41.204483 25077 net.cpp:129] Top shape: 1 1 48 64 (3072)
I0729 16:18:41.204499 25077 net.cpp:129] Top shape: 1 1 48 64 (3072)
I0729 16:18:41.204504 25077 net.cpp:129] Top shape: 1 1 48 64 (3072)
I0729 16:18:41.204511 25077 net.cpp:129] Top shape: 1 1 48 64 (3072)
I0729 16:18:41.204519 25077 net.cpp:129] Top shape: 1 1 48 64 (3072)
I0729 16:18:41.204524 25077 net.cpp:129] Top shape: 1 1 48 64 (3072)
I0729 16:18:41.204531 25077 net.cpp:129] Top shape: 1 1 48 64 (3072)
I0729 16:18:41.204537 25077 net.cpp:129] Top shape: 1 1 48 64 (3072)
I0729 16:18:41.204545 25077 net.cpp:129] Top shape: 1 1 48 64 (3072)
I0729 16:18:41.204550 25077 net.cpp:129] Top shape: 1 1 48 64 (3072)
I0729 16:18:41.204557 25077 net.cpp:129] Top shape: 1 1 48 64 (3072)
I0729 16:18:41.204563 25077 net.cpp:129] Top shape: 1 1 48 64 (3072)
I0729 16:18:41.204571 25077 net.cpp:129] Top shape: 1 1 48 64 (3072)
I0729 16:18:41.204577 25077 net.cpp:129] Top shape: 1 1 48 64 (3072)
I0729 16:18:41.204583 25077 net.cpp:129] Top shape: 1 1 48 64 (3072)
I0729 16:18:41.204591 25077 net.cpp:129] Top shape: 1 1 48 64 (3072)
I0729 16:18:41.204596 25077 net.cpp:129] Top shape: 1 1 48 64 (3072)
I0729 16:18:41.204603 25077 net.cpp:129] Top shape: 1 1 48 64 (3072)
I0729 16:18:41.204610 25077 net.cpp:129] Top shape: 1 1 48 64 (3072)
I0729 16:18:41.204617 25077 net.cpp:129] Top shape: 1 1 48 64 (3072)
I0729 16:18:41.204623 25077 net.cpp:129] Top shape: 1 1 48 64 (3072)
I0729 16:18:41.204630 25077 net.cpp:129] Top shape: 1 1 48 64 (3072)
I0729 16:18:41.204637 25077 net.cpp:129] Top shape: 1 1 48 64 (3072)
I0729 16:18:41.204643 25077 net.cpp:129] Top shape: 1 1 48 64 (3072)
I0729 16:18:41.204649 25077 net.cpp:129] Top shape: 1 1 48 64 (3072)
I0729 16:18:41.204656 25077 net.cpp:129] Top shape: 1 1 48 64 (3072)
I0729 16:18:41.204663 25077 net.cpp:129] Top shape: 1 1 48 64 (3072)
I0729 16:18:41.204669 25077 net.cpp:129] Top shape: 1 1 48 64 (3072)
I0729 16:18:41.204675 25077 net.cpp:129] Top shape: 1 1 48 64 (3072)
I0729 16:18:41.204682 25077 net.cpp:129] Top shape: 1 1 48 64 (3072)
I0729 16:18:41.204689 25077 net.cpp:129] Top shape: 1 1 48 64 (3072)
I0729 16:18:41.204695 25077 net.cpp:129] Top shape: 1 1 48 64 (3072)
I0729 16:18:41.204701 25077 net.cpp:129] Top shape: 1 1 48 64 (3072)
I0729 16:18:41.204708 25077 net.cpp:129] Top shape: 1 1 48 64 (3072)
I0729 16:18:41.204715 25077 net.cpp:129] Top shape: 1 1 48 64 (3072)
I0729 16:18:41.204721 25077 net.cpp:129] Top shape: 1 1 48 64 (3072)
I0729 16:18:41.204728 25077 net.cpp:129] Top shape: 1 1 48 64 (3072)
I0729 16:18:41.204735 25077 net.cpp:129] Top shape: 1 1 48 64 (3072)
I0729 16:18:41.204741 25077 net.cpp:129] Top shape: 1 1 48 64 (3072)
I0729 16:18:41.204748 25077 net.cpp:129] Top shape: 1 1 48 64 (3072)
I0729 16:18:41.204754 25077 net.cpp:129] Top shape: 1 1 48 64 (3072)
I0729 16:18:41.204761 25077 net.cpp:129] Top shape: 1 1 48 64 (3072)
I0729 16:18:41.204768 25077 net.cpp:129] Top shape: 1 1 48 64 (3072)
I0729 16:18:41.204774 25077 net.cpp:129] Top shape: 1 1 48 64 (3072)
I0729 16:18:41.213273 25077 net.cpp:129] Top shape: 1 1 48 64 (3072)
I0729 16:18:41.213284 25077 net.cpp:129] Top shape: 1 1 48 64 (3072)
I0729 16:18:41.213291 25077 net.cpp:129] Top shape: 1 1 48 64 (3072)
I0729 16:18:41.213297 25077 net.cpp:129] Top shape: 1 1 48 64 (3072)
I0729 16:18:41.213310 25077 net.cpp:129] Top shape: 1 1 48 64 (3072)
I0729 16:18:41.213317 25077 net.cpp:129] Top shape: 1 1 48 64 (3072)
I0729 16:18:41.213325 25077 net.cpp:129] Top shape: 1 1 48 64 (3072)
I0729 16:18:41.213331 25077 net.cpp:129] Top shape: 1 1 48 64 (3072)
I0729 16:18:41.213338 25077 net.cpp:129] Top shape: 1 1 48 64 (3072)
I0729 16:18:41.213345 25077 net.cpp:129] Top shape: 1 1 48 64 (3072)
I0729 16:18:41.213351 25077 net.cpp:129] Top shape: 1 1 48 64 (3072)
I0729 16:18:41.213357 25077 net.cpp:129] Top shape: 1 1 48 64 (3072)
I0729 16:18:41.213364 25077 net.cpp:129] Top shape: 1 1 48 64 (3072)
I0729 16:18:41.213371 25077 net.cpp:129] Top shape: 1 1 48 64 (3072)
I0729 16:18:41.213378 25077 net.cpp:129] Top shape: 1 1 48 64 (3072)
I0729 16:18:41.213384 25077 net.cpp:129] Top shape: 1 1 48 64 (3072)
I0729 16:18:41.213416 25077 net.cpp:129] Top shape: 1 1 48 64 (3072)
I0729 16:18:41.213423 25077 net.cpp:129] Top shape: 1 1 48 64 (3072)
I0729 16:18:41.213429 25077 net.cpp:129] Top shape: 1 1 48 64 (3072)
I0729 16:18:41.213436 25077 net.cpp:129] Top shape: 1 1 48 64 (3072)
I0729 16:18:41.213443 25077 net.cpp:129] Top shape: 1 1 48 64 (3072)
I0729 16:18:41.213449 25077 net.cpp:129] Top shape: 1 1 48 64 (3072)
I0729 16:18:41.213456 25077 net.cpp:129] Top shape: 1 1 48 64 (3072)
I0729 16:18:41.213462 25077 net.cpp:129] Top shape: 1 1 48 64 (3072)
I0729 16:18:41.213469 25077 net.cpp:129] Top shape: 1 1 48 64 (3072)
I0729 16:18:41.213475 25077 net.cpp:129] Top shape: 1 1 48 64 (3072)
I0729 16:18:41.213482 25077 net.cpp:129] Top shape: 1 1 48 64 (3072)
I0729 16:18:41.213490 25077 net.cpp:129] Top shape: 1 1 48 64 (3072)
I0729 16:18:41.213495 25077 net.cpp:129] Top shape: 1 1 48 64 (3072)
I0729 16:18:41.213502 25077 net.cpp:129] Top shape: 1 1 48 64 (3072)
I0729 16:18:41.213510 25077 net.cpp:129] Top shape: 1 1 48 64 (3072)
I0729 16:18:41.213515 25077 net.cpp:129] Top shape: 1 1 48 64 (3072)
I0729 16:18:41.213522 25077 net.cpp:129] Top shape: 1 1 48 64 (3072)
I0729 16:18:41.213528 25077 net.cpp:129] Top shape: 1 1 48 64 (3072)
I0729 16:18:41.213536 25077 net.cpp:129] Top shape: 1 1 48 64 (3072)
I0729 16:18:41.213542 25077 net.cpp:129] Top shape: 1 1 48 64 (3072)
I0729 16:18:41.213548 25077 net.cpp:129] Top shape: 1 1 48 64 (3072)
I0729 16:18:41.213556 25077 net.cpp:129] Top shape: 1 1 48 64 (3072)
I0729 16:18:41.213562 25077 net.cpp:129] Top shape: 1 1 48 64 (3072)
I0729 16:18:41.213568 25077 net.cpp:129] Top shape: 1 1 48 64 (3072)
I0729 16:18:41.213574 25077 net.cpp:129] Top shape: 1 1 48 64 (3072)
I0729 16:18:41.213582 25077 net.cpp:129] Top shape: 1 1 48 64 (3072)
I0729 16:18:41.213588 25077 net.cpp:129] Top shape: 1 1 48 64 (3072)
I0729 16:18:41.213594 25077 net.cpp:129] Top shape: 1 1 48 64 (3072)
I0729 16:18:41.213601 25077 net.cpp:129] Top shape: 1 1 48 64 (3072)
I0729 16:18:41.213608 25077 net.cpp:129] Top shape: 1 1 48 64 (3072)
I0729 16:18:41.213614 25077 net.cpp:129] Top shape: 1 1 48 64 (3072)
I0729 16:18:41.213621 25077 net.cpp:129] Top shape: 1 1 48 64 (3072)
I0729 16:18:41.213627 25077 net.cpp:129] Top shape: 1 1 48 64 (3072)
I0729 16:18:41.213634 25077 net.cpp:129] Top shape: 1 1 48 64 (3072)
I0729 16:18:41.213640 25077 net.cpp:129] Top shape: 1 1 48 64 (3072)
I0729 16:18:41.213647 25077 net.cpp:129] Top shape: 1 1 48 64 (3072)
I0729 16:18:41.213654 25077 net.cpp:129] Top shape: 1 1 48 64 (3072)
I0729 16:18:41.213660 25077 net.cpp:129] Top shape: 1 1 48 64 (3072)
I0729 16:18:41.213667 25077 net.cpp:129] Top shape: 1 1 48 64 (3072)
I0729 16:18:41.213673 25077 net.cpp:129] Top shape: 1 1 48 64 (3072)
I0729 16:18:41.213680 25077 net.cpp:129] Top shape: 1 1 48 64 (3072)
I0729 16:18:41.213686 25077 net.cpp:129] Top shape: 1 1 48 64 (3072)
I0729 16:18:41.213693 25077 net.cpp:129] Top shape: 1 1 48 64 (3072)
I0729 16:18:41.213699 25077 net.cpp:129] Top shape: 1 1 48 64 (3072)
I0729 16:18:41.213706 25077 net.cpp:129] Top shape: 1 1 48 64 (3072)
I0729 16:18:41.213713 25077 net.cpp:129] Top shape: 1 1 48 64 (3072)
I0729 16:18:41.213719 25077 net.cpp:129] Top shape: 1 1 48 64 (3072)
I0729 16:18:41.213726 25077 net.cpp:129] Top shape: 1 1 48 64 (3072)
I0729 16:18:41.213732 25077 net.cpp:129] Top shape: 1 1 48 64 (3072)
I0729 16:18:41.213739 25077 net.cpp:129] Top shape: 1 1 48 64 (3072)
I0729 16:18:41.213745 25077 net.cpp:129] Top shape: 1 1 48 64 (3072)
I0729 16:18:41.213752 25077 net.cpp:129] Top shape: 1 1 48 64 (3072)
I0729 16:18:41.213759 25077 net.cpp:129] Top shape: 1 1 48 64 (3072)
I0729 16:18:41.213765 25077 net.cpp:129] Top shape: 1 1 48 64 (3072)
I0729 16:18:41.213773 25077 net.cpp:129] Top shape: 1 1 48 64 (3072)
I0729 16:18:41.213779 25077 net.cpp:129] Top shape: 1 1 48 64 (3072)
I0729 16:18:41.213785 25077 net.cpp:129] Top shape: 1 1 48 64 (3072)
I0729 16:18:41.213791 25077 net.cpp:129] Top shape: 1 1 48 64 (3072)
I0729 16:18:41.213798 25077 net.cpp:129] Top shape: 1 1 48 64 (3072)
I0729 16:18:41.213805 25077 net.cpp:129] Top shape: 1 1 48 64 (3072)
I0729 16:18:41.213824 25077 net.cpp:129] Top shape: 1 1 48 64 (3072)
I0729 16:18:41.213830 25077 net.cpp:129] Top shape: 1 1 48 64 (3072)
I0729 16:18:41.213836 25077 net.cpp:129] Top shape: 1 1 48 64 (3072)
I0729 16:18:41.213843 25077 net.cpp:129] Top shape: 1 1 48 64 (3072)
I0729 16:18:41.213850 25077 net.cpp:129] Top shape: 1 1 48 64 (3072)
I0729 16:18:41.213856 25077 net.cpp:129] Top shape: 1 1 48 64 (3072)
I0729 16:18:41.213862 25077 net.cpp:129] Top shape: 1 1 48 64 (3072)
I0729 16:18:41.213870 25077 net.cpp:129] Top shape: 1 1 48 64 (3072)
I0729 16:18:41.213876 25077 net.cpp:129] Top shape: 1 1 48 64 (3072)
I0729 16:18:41.213882 25077 net.cpp:129] Top shape: 1 1 48 64 (3072)
I0729 16:18:41.213888 25077 net.cpp:129] Top shape: 1 1 48 64 (3072)
I0729 16:18:41.213896 25077 net.cpp:129] Top shape: 1 1 48 64 (3072)
I0729 16:18:41.213901 25077 net.cpp:129] Top shape: 1 1 48 64 (3072)
I0729 16:18:41.213908 25077 net.cpp:129] Top shape: 1 1 48 64 (3072)
I0729 16:18:41.213915 25077 net.cpp:129] Top shape: 1 1 48 64 (3072)
I0729 16:18:41.213922 25077 net.cpp:129] Top shape: 1 1 48 64 (3072)
I0729 16:18:41.213928 25077 net.cpp:129] Top shape: 1 1 48 64 (3072)
I0729 16:18:41.213934 25077 net.cpp:129] Top shape: 1 1 48 64 (3072)
I0729 16:18:41.213942 25077 net.cpp:129] Top shape: 1 1 48 64 (3072)
I0729 16:18:41.213948 25077 net.cpp:129] Top shape: 1 1 48 64 (3072)
I0729 16:18:41.213954 25077 net.cpp:129] Top shape: 1 1 48 64 (3072)
I0729 16:18:41.213960 25077 net.cpp:129] Top shape: 1 1 48 64 (3072)
I0729 16:18:41.213968 25077 net.cpp:129] Top shape: 1 1 48 64 (3072)
I0729 16:18:41.213973 25077 net.cpp:129] Top shape: 1 1 48 64 (3072)
I0729 16:18:41.213980 25077 net.cpp:129] Top shape: 1 1 48 64 (3072)
I0729 16:18:41.213986 25077 net.cpp:129] Top shape: 1 1 48 64 (3072)
I0729 16:18:41.213994 25077 net.cpp:129] Top shape: 1 1 48 64 (3072)
I0729 16:18:41.214000 25077 net.cpp:129] Top shape: 1 1 48 64 (3072)
I0729 16:18:41.214006 25077 net.cpp:129] Top shape: 1 1 48 64 (3072)
I0729 16:18:41.214013 25077 net.cpp:129] Top shape: 1 1 48 64 (3072)
I0729 16:18:41.214020 25077 net.cpp:129] Top shape: 1 1 48 64 (3072)
I0729 16:18:41.214026 25077 net.cpp:129] Top shape: 1 1 48 64 (3072)
I0729 16:18:41.214033 25077 net.cpp:129] Top shape: 1 1 48 64 (3072)
I0729 16:18:41.214046 25077 net.cpp:129] Top shape: 1 1 48 64 (3072)
I0729 16:18:41.214053 25077 net.cpp:129] Top shape: 1 1 48 64 (3072)
I0729 16:18:41.214061 25077 net.cpp:129] Top shape: 1 1 48 64 (3072)
I0729 16:18:41.214066 25077 net.cpp:129] Top shape: 1 1 48 64 (3072)
I0729 16:18:41.214073 25077 net.cpp:129] Top shape: 1 1 48 64 (3072)
I0729 16:18:41.214079 25077 net.cpp:129] Top shape: 1 1 48 64 (3072)
I0729 16:18:41.214087 25077 net.cpp:129] Top shape: 1 1 48 64 (3072)
I0729 16:18:41.214092 25077 net.cpp:129] Top shape: 1 1 48 64 (3072)
I0729 16:18:41.214099 25077 net.cpp:129] Top shape: 1 1 48 64 (3072)
I0729 16:18:41.214107 25077 net.cpp:129] Top shape: 1 1 48 64 (3072)
I0729 16:18:41.214112 25077 net.cpp:129] Top shape: 1 1 48 64 (3072)
I0729 16:18:41.214119 25077 net.cpp:129] Top shape: 1 1 48 64 (3072)
I0729 16:18:41.214125 25077 net.cpp:129] Top shape: 1 1 48 64 (3072)
I0729 16:18:41.214133 25077 net.cpp:129] Top shape: 1 1 48 64 (3072)
I0729 16:18:41.214139 25077 net.cpp:129] Top shape: 1 1 48 64 (3072)
I0729 16:18:41.214145 25077 net.cpp:129] Top shape: 1 1 48 64 (3072)
I0729 16:18:41.214152 25077 net.cpp:129] Top shape: 1 1 48 64 (3072)
I0729 16:18:41.214159 25077 net.cpp:129] Top shape: 1 1 48 64 (3072)
I0729 16:18:41.214165 25077 net.cpp:129] Top shape: 1 1 48 64 (3072)
I0729 16:18:41.214172 25077 net.cpp:129] Top shape: 1 1 48 64 (3072)
I0729 16:18:41.214177 25077 net.cpp:137] Memory required for data: 496250880
I0729 16:18:41.214186 25077 layer_factory.hpp:77] Creating layer score1_slicer_conv_0_split
I0729 16:18:41.214200 25077 net.cpp:84] Creating Layer score1_slicer_conv_0_split
I0729 16:18:41.214208 25077 net.cpp:406] score1_slicer_conv_0_split <- score1
I0729 16:18:41.214221 25077 net.cpp:380] score1_slicer_conv_0_split -> score1_slicer_conv_0_split_0
I0729 16:18:41.214246 25077 net.cpp:380] score1_slicer_conv_0_split -> score1_slicer_conv_0_split_1
I0729 16:18:41.214493 25077 net.cpp:122] Setting up score1_slicer_conv_0_split
I0729 16:18:41.214504 25077 net.cpp:129] Top shape: 1 1 48 64 (3072)
I0729 16:18:41.214510 25077 net.cpp:129] Top shape: 1 1 48 64 (3072)
I0729 16:18:41.214515 25077 net.cpp:137] Memory required for data: 496275456
I0729 16:18:41.214520 25077 layer_factory.hpp:77] Creating layer score2_slicer_conv_1_split
I0729 16:18:41.214529 25077 net.cpp:84] Creating Layer score2_slicer_conv_1_split
I0729 16:18:41.214535 25077 net.cpp:406] score2_slicer_conv_1_split <- score2
I0729 16:18:41.214545 25077 net.cpp:380] score2_slicer_conv_1_split -> score2_slicer_conv_1_split_0
I0729 16:18:41.214553 25077 net.cpp:380] score2_slicer_conv_1_split -> score2_slicer_conv_1_split_1
I0729 16:18:41.214661 25077 net.cpp:122] Setting up score2_slicer_conv_1_split
I0729 16:18:41.214671 25077 net.cpp:129] Top shape: 1 1 48 64 (3072)
I0729 16:18:41.214678 25077 net.cpp:129] Top shape: 1 1 48 64 (3072)
I0729 16:18:41.214682 25077 net.cpp:137] Memory required for data: 496300032
I0729 16:18:41.214687 25077 layer_factory.hpp:77] Creating layer score3_slicer_conv_2_split
I0729 16:18:41.214694 25077 net.cpp:84] Creating Layer score3_slicer_conv_2_split
I0729 16:18:41.214700 25077 net.cpp:406] score3_slicer_conv_2_split <- score3
I0729 16:18:41.214709 25077 net.cpp:380] score3_slicer_conv_2_split -> score3_slicer_conv_2_split_0
I0729 16:18:41.214718 25077 net.cpp:380] score3_slicer_conv_2_split -> score3_slicer_conv_2_split_1
I0729 16:18:41.214825 25077 net.cpp:122] Setting up score3_slicer_conv_2_split
I0729 16:18:41.214835 25077 net.cpp:129] Top shape: 1 1 48 64 (3072)
I0729 16:18:41.214841 25077 net.cpp:129] Top shape: 1 1 48 64 (3072)
I0729 16:18:41.214846 25077 net.cpp:137] Memory required for data: 496324608
I0729 16:18:41.214851 25077 layer_factory.hpp:77] Creating layer score4_slicer_conv_3_split
I0729 16:18:41.214859 25077 net.cpp:84] Creating Layer score4_slicer_conv_3_split
I0729 16:18:41.214864 25077 net.cpp:406] score4_slicer_conv_3_split <- score4
I0729 16:18:41.214874 25077 net.cpp:380] score4_slicer_conv_3_split -> score4_slicer_conv_3_split_0
I0729 16:18:41.214881 25077 net.cpp:380] score4_slicer_conv_3_split -> score4_slicer_conv_3_split_1
I0729 16:18:41.214987 25077 net.cpp:122] Setting up score4_slicer_conv_3_split
I0729 16:18:41.214996 25077 net.cpp:129] Top shape: 1 1 48 64 (3072)
I0729 16:18:41.215003 25077 net.cpp:129] Top shape: 1 1 48 64 (3072)
I0729 16:18:41.215008 25077 net.cpp:137] Memory required for data: 496349184
I0729 16:18:41.215013 25077 layer_factory.hpp:77] Creating layer score5_slicer_conv_4_split
I0729 16:18:41.215019 25077 net.cpp:84] Creating Layer score5_slicer_conv_4_split
I0729 16:18:41.215024 25077 net.cpp:406] score5_slicer_conv_4_split <- score5
I0729 16:18:41.215034 25077 net.cpp:380] score5_slicer_conv_4_split -> score5_slicer_conv_4_split_0
I0729 16:18:41.215041 25077 net.cpp:380] score5_slicer_conv_4_split -> score5_slicer_conv_4_split_1
I0729 16:18:41.215143 25077 net.cpp:122] Setting up score5_slicer_conv_4_split
I0729 16:18:41.215153 25077 net.cpp:129] Top shape: 1 1 48 64 (3072)
I0729 16:18:41.215159 25077 net.cpp:129] Top shape: 1 1 48 64 (3072)
I0729 16:18:41.215163 25077 net.cpp:137] Memory required for data: 496373760
I0729 16:18:41.215168 25077 layer_factory.hpp:77] Creating layer score6_slicer_conv_5_split
I0729 16:18:41.215178 25077 net.cpp:84] Creating Layer score6_slicer_conv_5_split
I0729 16:18:41.215183 25077 net.cpp:406] score6_slicer_conv_5_split <- score6
I0729 16:18:41.215191 25077 net.cpp:380] score6_slicer_conv_5_split -> score6_slicer_conv_5_split_0
I0729 16:18:41.215199 25077 net.cpp:380] score6_slicer_conv_5_split -> score6_slicer_conv_5_split_1
I0729 16:18:41.215301 25077 net.cpp:122] Setting up score6_slicer_conv_5_split
I0729 16:18:41.215311 25077 net.cpp:129] Top shape: 1 1 48 64 (3072)
I0729 16:18:41.215323 25077 net.cpp:129] Top shape: 1 1 48 64 (3072)
I0729 16:18:41.215342 25077 net.cpp:137] Memory required for data: 496398336
I0729 16:18:41.215350 25077 layer_factory.hpp:77] Creating layer score7_slicer_conv_6_split
I0729 16:18:41.215360 25077 net.cpp:84] Creating Layer score7_slicer_conv_6_split
I0729 16:18:41.215368 25077 net.cpp:406] score7_slicer_conv_6_split <- score7
I0729 16:18:41.215378 25077 net.cpp:380] score7_slicer_conv_6_split -> score7_slicer_conv_6_split_0
I0729 16:18:41.215391 25077 net.cpp:380] score7_slicer_conv_6_split -> score7_slicer_conv_6_split_1
I0729 16:18:41.215497 25077 net.cpp:122] Setting up score7_slicer_conv_6_split
I0729 16:18:41.215512 25077 net.cpp:129] Top shape: 1 1 48 64 (3072)
I0729 16:18:41.215520 25077 net.cpp:129] Top shape: 1 1 48 64 (3072)
I0729 16:18:41.215528 25077 net.cpp:137] Memory required for data: 496422912
I0729 16:18:41.215534 25077 layer_factory.hpp:77] Creating layer score8_slicer_conv_7_split
I0729 16:18:41.215545 25077 net.cpp:84] Creating Layer score8_slicer_conv_7_split
I0729 16:18:41.215553 25077 net.cpp:406] score8_slicer_conv_7_split <- score8
I0729 16:18:41.215564 25077 net.cpp:380] score8_slicer_conv_7_split -> score8_slicer_conv_7_split_0
I0729 16:18:41.215574 25077 net.cpp:380] score8_slicer_conv_7_split -> score8_slicer_conv_7_split_1
I0729 16:18:41.215682 25077 net.cpp:122] Setting up score8_slicer_conv_7_split
I0729 16:18:41.215695 25077 net.cpp:129] Top shape: 1 1 48 64 (3072)
I0729 16:18:41.215703 25077 net.cpp:129] Top shape: 1 1 48 64 (3072)
I0729 16:18:41.215710 25077 net.cpp:137] Memory required for data: 496447488
I0729 16:18:41.215718 25077 layer_factory.hpp:77] Creating layer score9_slicer_conv_8_split
I0729 16:18:41.215728 25077 net.cpp:84] Creating Layer score9_slicer_conv_8_split
I0729 16:18:41.215735 25077 net.cpp:406] score9_slicer_conv_8_split <- score9
I0729 16:18:41.215744 25077 net.cpp:380] score9_slicer_conv_8_split -> score9_slicer_conv_8_split_0
I0729 16:18:41.215756 25077 net.cpp:380] score9_slicer_conv_8_split -> score9_slicer_conv_8_split_1
I0729 16:18:41.215862 25077 net.cpp:122] Setting up score9_slicer_conv_8_split
I0729 16:18:41.215875 25077 net.cpp:129] Top shape: 1 1 48 64 (3072)
I0729 16:18:41.215883 25077 net.cpp:129] Top shape: 1 1 48 64 (3072)
I0729 16:18:41.215890 25077 net.cpp:137] Memory required for data: 496472064
I0729 16:18:41.215898 25077 layer_factory.hpp:77] Creating layer score10_slicer_conv_9_split
I0729 16:18:41.215906 25077 net.cpp:84] Creating Layer score10_slicer_conv_9_split
I0729 16:18:41.215915 25077 net.cpp:406] score10_slicer_conv_9_split <- score10
I0729 16:18:41.215926 25077 net.cpp:380] score10_slicer_conv_9_split -> score10_slicer_conv_9_split_0
I0729 16:18:41.215939 25077 net.cpp:380] score10_slicer_conv_9_split -> score10_slicer_conv_9_split_1
I0729 16:18:41.216044 25077 net.cpp:122] Setting up score10_slicer_conv_9_split
I0729 16:18:41.216058 25077 net.cpp:129] Top shape: 1 1 48 64 (3072)
I0729 16:18:41.216066 25077 net.cpp:129] Top shape: 1 1 48 64 (3072)
I0729 16:18:41.216073 25077 net.cpp:137] Memory required for data: 496496640
I0729 16:18:41.216080 25077 layer_factory.hpp:77] Creating layer score11_slicer_conv_10_split
I0729 16:18:41.216089 25077 net.cpp:84] Creating Layer score11_slicer_conv_10_split
I0729 16:18:41.216097 25077 net.cpp:406] score11_slicer_conv_10_split <- score11
I0729 16:18:41.216106 25077 net.cpp:380] score11_slicer_conv_10_split -> score11_slicer_conv_10_split_0
I0729 16:18:41.216115 25077 net.cpp:380] score11_slicer_conv_10_split -> score11_slicer_conv_10_split_1
I0729 16:18:41.216219 25077 net.cpp:122] Setting up score11_slicer_conv_10_split
I0729 16:18:41.216229 25077 net.cpp:129] Top shape: 1 1 48 64 (3072)
I0729 16:18:41.216235 25077 net.cpp:129] Top shape: 1 1 48 64 (3072)
I0729 16:18:41.216239 25077 net.cpp:137] Memory required for data: 496521216
I0729 16:18:41.216244 25077 layer_factory.hpp:77] Creating layer score12_slicer_conv_11_split
I0729 16:18:41.216251 25077 net.cpp:84] Creating Layer score12_slicer_conv_11_split
I0729 16:18:41.216258 25077 net.cpp:406] score12_slicer_conv_11_split <- score12
I0729 16:18:41.216276 25077 net.cpp:380] score12_slicer_conv_11_split -> score12_slicer_conv_11_split_0
I0729 16:18:41.216285 25077 net.cpp:380] score12_slicer_conv_11_split -> score12_slicer_conv_11_split_1
I0729 16:18:41.216389 25077 net.cpp:122] Setting up score12_slicer_conv_11_split
I0729 16:18:41.216399 25077 net.cpp:129] Top shape: 1 1 48 64 (3072)
I0729 16:18:41.216405 25077 net.cpp:129] Top shape: 1 1 48 64 (3072)
I0729 16:18:41.216410 25077 net.cpp:137] Memory required for data: 496545792
I0729 16:18:41.216415 25077 layer_factory.hpp:77] Creating layer score13_slicer_conv_12_split
I0729 16:18:41.216423 25077 net.cpp:84] Creating Layer score13_slicer_conv_12_split
I0729 16:18:41.216428 25077 net.cpp:406] score13_slicer_conv_12_split <- score13
I0729 16:18:41.216435 25077 net.cpp:380] score13_slicer_conv_12_split -> score13_slicer_conv_12_split_0
I0729 16:18:41.216444 25077 net.cpp:380] score13_slicer_conv_12_split -> score13_slicer_conv_12_split_1
I0729 16:18:41.216547 25077 net.cpp:122] Setting up score13_slicer_conv_12_split
I0729 16:18:41.216562 25077 net.cpp:129] Top shape: 1 1 48 64 (3072)
I0729 16:18:41.216570 25077 net.cpp:129] Top shape: 1 1 48 64 (3072)
I0729 16:18:41.216578 25077 net.cpp:137] Memory required for data: 496570368
I0729 16:18:41.218091 25077 layer_factory.hpp:77] Creating layer score14_slicer_conv_13_split
I0729 16:18:41.218104 25077 net.cpp:84] Creating Layer score14_slicer_conv_13_split
I0729 16:18:41.218111 25077 net.cpp:406] score14_slicer_conv_13_split <- score14
I0729 16:18:41.218132 25077 net.cpp:380] score14_slicer_conv_13_split -> score14_slicer_conv_13_split_0
I0729 16:18:41.218183 25077 net.cpp:380] score14_slicer_conv_13_split -> score14_slicer_conv_13_split_1
I0729 16:18:41.218314 25077 net.cpp:122] Setting up score14_slicer_conv_13_split
I0729 16:18:41.218327 25077 net.cpp:129] Top shape: 1 1 48 64 (3072)
I0729 16:18:41.218333 25077 net.cpp:129] Top shape: 1 1 48 64 (3072)
I0729 16:18:41.218338 25077 net.cpp:137] Memory required for data: 496594944
I0729 16:18:41.218344 25077 layer_factory.hpp:77] Creating layer score15_slicer_conv_14_split
I0729 16:18:41.218356 25077 net.cpp:84] Creating Layer score15_slicer_conv_14_split
I0729 16:18:41.218364 25077 net.cpp:406] score15_slicer_conv_14_split <- score15
I0729 16:18:41.218374 25077 net.cpp:380] score15_slicer_conv_14_split -> score15_slicer_conv_14_split_0
I0729 16:18:41.218386 25077 net.cpp:380] score15_slicer_conv_14_split -> score15_slicer_conv_14_split_1
I0729 16:18:41.218482 25077 net.cpp:122] Setting up score15_slicer_conv_14_split
I0729 16:18:41.218490 25077 net.cpp:129] Top shape: 1 1 48 64 (3072)
I0729 16:18:41.218497 25077 net.cpp:129] Top shape: 1 1 48 64 (3072)
I0729 16:18:41.218502 25077 net.cpp:137] Memory required for data: 496619520
I0729 16:18:41.218508 25077 layer_factory.hpp:77] Creating layer score16_slicer_conv_15_split
I0729 16:18:41.218516 25077 net.cpp:84] Creating Layer score16_slicer_conv_15_split
I0729 16:18:41.218523 25077 net.cpp:406] score16_slicer_conv_15_split <- score16
I0729 16:18:41.218533 25077 net.cpp:380] score16_slicer_conv_15_split -> score16_slicer_conv_15_split_0
I0729 16:18:41.218546 25077 net.cpp:380] score16_slicer_conv_15_split -> score16_slicer_conv_15_split_1
I0729 16:18:41.218638 25077 net.cpp:122] Setting up score16_slicer_conv_15_split
I0729 16:18:41.218648 25077 net.cpp:129] Top shape: 1 1 48 64 (3072)
I0729 16:18:41.218654 25077 net.cpp:129] Top shape: 1 1 48 64 (3072)
I0729 16:18:41.218659 25077 net.cpp:137] Memory required for data: 496644096
I0729 16:18:41.218665 25077 layer_factory.hpp:77] Creating layer score17_slicer_conv_16_split
I0729 16:18:41.218677 25077 net.cpp:84] Creating Layer score17_slicer_conv_16_split
I0729 16:18:41.218683 25077 net.cpp:406] score17_slicer_conv_16_split <- score17
I0729 16:18:41.218693 25077 net.cpp:380] score17_slicer_conv_16_split -> score17_slicer_conv_16_split_0
I0729 16:18:41.218704 25077 net.cpp:380] score17_slicer_conv_16_split -> score17_slicer_conv_16_split_1
I0729 16:18:41.218802 25077 net.cpp:122] Setting up score17_slicer_conv_16_split
I0729 16:18:41.218824 25077 net.cpp:129] Top shape: 1 1 48 64 (3072)
I0729 16:18:41.218832 25077 net.cpp:129] Top shape: 1 1 48 64 (3072)
I0729 16:18:41.218837 25077 net.cpp:137] Memory required for data: 496668672
I0729 16:18:41.218843 25077 layer_factory.hpp:77] Creating layer score18_slicer_conv_17_split
I0729 16:18:41.218852 25077 net.cpp:84] Creating Layer score18_slicer_conv_17_split
I0729 16:18:41.218859 25077 net.cpp:406] score18_slicer_conv_17_split <- score18
I0729 16:18:41.218869 25077 net.cpp:380] score18_slicer_conv_17_split -> score18_slicer_conv_17_split_0
I0729 16:18:41.218880 25077 net.cpp:380] score18_slicer_conv_17_split -> score18_slicer_conv_17_split_1
I0729 16:18:41.218973 25077 net.cpp:122] Setting up score18_slicer_conv_17_split
I0729 16:18:41.218983 25077 net.cpp:129] Top shape: 1 1 48 64 (3072)
I0729 16:18:41.218989 25077 net.cpp:129] Top shape: 1 1 48 64 (3072)
I0729 16:18:41.218996 25077 net.cpp:137] Memory required for data: 496693248
I0729 16:18:41.219002 25077 layer_factory.hpp:77] Creating layer score19_slicer_conv_18_split
I0729 16:18:41.219014 25077 net.cpp:84] Creating Layer score19_slicer_conv_18_split
I0729 16:18:41.219025 25077 net.cpp:406] score19_slicer_conv_18_split <- score19
I0729 16:18:41.219040 25077 net.cpp:380] score19_slicer_conv_18_split -> score19_slicer_conv_18_split_0
I0729 16:18:41.219056 25077 net.cpp:380] score19_slicer_conv_18_split -> score19_slicer_conv_18_split_1
I0729 16:18:41.219177 25077 net.cpp:122] Setting up score19_slicer_conv_18_split
I0729 16:18:41.219188 25077 net.cpp:129] Top shape: 1 1 48 64 (3072)
I0729 16:18:41.219195 25077 net.cpp:129] Top shape: 1 1 48 64 (3072)
I0729 16:18:41.219200 25077 net.cpp:137] Memory required for data: 496717824
I0729 16:18:41.219205 25077 layer_factory.hpp:77] Creating layer score20_slicer_conv_19_split
I0729 16:18:41.219214 25077 net.cpp:84] Creating Layer score20_slicer_conv_19_split
I0729 16:18:41.219221 25077 net.cpp:406] score20_slicer_conv_19_split <- score20
I0729 16:18:41.219231 25077 net.cpp:380] score20_slicer_conv_19_split -> score20_slicer_conv_19_split_0
I0729 16:18:41.219243 25077 net.cpp:380] score20_slicer_conv_19_split -> score20_slicer_conv_19_split_1
I0729 16:18:41.219334 25077 net.cpp:122] Setting up score20_slicer_conv_19_split
I0729 16:18:41.219344 25077 net.cpp:129] Top shape: 1 1 48 64 (3072)
I0729 16:18:41.219350 25077 net.cpp:129] Top shape: 1 1 48 64 (3072)
I0729 16:18:41.219355 25077 net.cpp:137] Memory required for data: 496742400
I0729 16:18:41.219362 25077 layer_factory.hpp:77] Creating layer score21_slicer_conv_20_split
I0729 16:18:41.219369 25077 net.cpp:84] Creating Layer score21_slicer_conv_20_split
I0729 16:18:41.219377 25077 net.cpp:406] score21_slicer_conv_20_split <- score21
I0729 16:18:41.219388 25077 net.cpp:380] score21_slicer_conv_20_split -> score21_slicer_conv_20_split_0
I0729 16:18:41.219403 25077 net.cpp:380] score21_slicer_conv_20_split -> score21_slicer_conv_20_split_1
I0729 16:18:41.219511 25077 net.cpp:122] Setting up score21_slicer_conv_20_split
I0729 16:18:41.219522 25077 net.cpp:129] Top shape: 1 1 48 64 (3072)
I0729 16:18:41.219529 25077 net.cpp:129] Top shape: 1 1 48 64 (3072)
I0729 16:18:41.219534 25077 net.cpp:137] Memory required for data: 496766976
I0729 16:18:41.219540 25077 layer_factory.hpp:77] Creating layer score22_slicer_conv_21_split
I0729 16:18:41.219552 25077 net.cpp:84] Creating Layer score22_slicer_conv_21_split
I0729 16:18:41.219558 25077 net.cpp:406] score22_slicer_conv_21_split <- score22
I0729 16:18:41.219568 25077 net.cpp:380] score22_slicer_conv_21_split -> score22_slicer_conv_21_split_0
I0729 16:18:41.219579 25077 net.cpp:380] score22_slicer_conv_21_split -> score22_slicer_conv_21_split_1
I0729 16:18:41.219671 25077 net.cpp:122] Setting up score22_slicer_conv_21_split
I0729 16:18:41.219681 25077 net.cpp:129] Top shape: 1 1 48 64 (3072)
I0729 16:18:41.219688 25077 net.cpp:129] Top shape: 1 1 48 64 (3072)
I0729 16:18:41.219692 25077 net.cpp:137] Memory required for data: 496791552
I0729 16:18:41.219698 25077 layer_factory.hpp:77] Creating layer score23_slicer_conv_22_split
I0729 16:18:41.219720 25077 net.cpp:84] Creating Layer score23_slicer_conv_22_split
I0729 16:18:41.219728 25077 net.cpp:406] score23_slicer_conv_22_split <- score23
I0729 16:18:41.219738 25077 net.cpp:380] score23_slicer_conv_22_split -> score23_slicer_conv_22_split_0
I0729 16:18:41.219753 25077 net.cpp:380] score23_slicer_conv_22_split -> score23_slicer_conv_22_split_1
I0729 16:18:41.219844 25077 net.cpp:122] Setting up score23_slicer_conv_22_split
I0729 16:18:41.219853 25077 net.cpp:129] Top shape: 1 1 48 64 (3072)
I0729 16:18:41.219861 25077 net.cpp:129] Top shape: 1 1 48 64 (3072)
I0729 16:18:41.219866 25077 net.cpp:137] Memory required for data: 496816128
I0729 16:18:41.219871 25077 layer_factory.hpp:77] Creating layer score24_slicer_conv_23_split
I0729 16:18:41.219882 25077 net.cpp:84] Creating Layer score24_slicer_conv_23_split
I0729 16:18:41.219888 25077 net.cpp:406] score24_slicer_conv_23_split <- score24
I0729 16:18:41.219898 25077 net.cpp:380] score24_slicer_conv_23_split -> score24_slicer_conv_23_split_0
I0729 16:18:41.219908 25077 net.cpp:380] score24_slicer_conv_23_split -> score24_slicer_conv_23_split_1
I0729 16:18:41.220000 25077 net.cpp:122] Setting up score24_slicer_conv_23_split
I0729 16:18:41.220010 25077 net.cpp:129] Top shape: 1 1 48 64 (3072)
I0729 16:18:41.220016 25077 net.cpp:129] Top shape: 1 1 48 64 (3072)
I0729 16:18:41.220021 25077 net.cpp:137] Memory required for data: 496840704
I0729 16:18:41.220026 25077 layer_factory.hpp:77] Creating layer score25_slicer_conv_24_split
I0729 16:18:41.220036 25077 net.cpp:84] Creating Layer score25_slicer_conv_24_split
I0729 16:18:41.220042 25077 net.cpp:406] score25_slicer_conv_24_split <- score25
I0729 16:18:41.220052 25077 net.cpp:380] score25_slicer_conv_24_split -> score25_slicer_conv_24_split_0
I0729 16:18:41.220062 25077 net.cpp:380] score25_slicer_conv_24_split -> score25_slicer_conv_24_split_1
I0729 16:18:41.220154 25077 net.cpp:122] Setting up score25_slicer_conv_24_split
I0729 16:18:41.220162 25077 net.cpp:129] Top shape: 1 1 48 64 (3072)
I0729 16:18:41.220170 25077 net.cpp:129] Top shape: 1 1 48 64 (3072)
I0729 16:18:41.220175 25077 net.cpp:137] Memory required for data: 496865280
I0729 16:18:41.220180 25077 layer_factory.hpp:77] Creating layer score26_slicer_conv_25_split
I0729 16:18:41.220188 25077 net.cpp:84] Creating Layer score26_slicer_conv_25_split
I0729 16:18:41.220194 25077 net.cpp:406] score26_slicer_conv_25_split <- score26
I0729 16:18:41.220206 25077 net.cpp:380] score26_slicer_conv_25_split -> score26_slicer_conv_25_split_0
I0729 16:18:41.220216 25077 net.cpp:380] score26_slicer_conv_25_split -> score26_slicer_conv_25_split_1
I0729 16:18:41.220320 25077 net.cpp:122] Setting up score26_slicer_conv_25_split
I0729 16:18:41.220360 25077 net.cpp:129] Top shape: 1 1 48 64 (3072)
I0729 16:18:41.220369 25077 net.cpp:129] Top shape: 1 1 48 64 (3072)
I0729 16:18:41.220374 25077 net.cpp:137] Memory required for data: 496889856
I0729 16:18:41.220381 25077 layer_factory.hpp:77] Creating layer score27_slicer_conv_26_split
I0729 16:18:41.220391 25077 net.cpp:84] Creating Layer score27_slicer_conv_26_split
I0729 16:18:41.220397 25077 net.cpp:406] score27_slicer_conv_26_split <- score27
I0729 16:18:41.220407 25077 net.cpp:380] score27_slicer_conv_26_split -> score27_slicer_conv_26_split_0
I0729 16:18:41.220418 25077 net.cpp:380] score27_slicer_conv_26_split -> score27_slicer_conv_26_split_1
I0729 16:18:41.220513 25077 net.cpp:122] Setting up score27_slicer_conv_26_split
I0729 16:18:41.220523 25077 net.cpp:129] Top shape: 1 1 48 64 (3072)
I0729 16:18:41.220530 25077 net.cpp:129] Top shape: 1 1 48 64 (3072)
I0729 16:18:41.220535 25077 net.cpp:137] Memory required for data: 496914432
I0729 16:18:41.220541 25077 layer_factory.hpp:77] Creating layer score28_slicer_conv_27_split
I0729 16:18:41.220548 25077 net.cpp:84] Creating Layer score28_slicer_conv_27_split
I0729 16:18:41.220556 25077 net.cpp:406] score28_slicer_conv_27_split <- score28
I0729 16:18:41.220566 25077 net.cpp:380] score28_slicer_conv_27_split -> score28_slicer_conv_27_split_0
I0729 16:18:41.220589 25077 net.cpp:380] score28_slicer_conv_27_split -> score28_slicer_conv_27_split_1
I0729 16:18:41.220697 25077 net.cpp:122] Setting up score28_slicer_conv_27_split
I0729 16:18:41.220737 25077 net.cpp:129] Top shape: 1 1 48 64 (3072)
I0729 16:18:41.220746 25077 net.cpp:129] Top shape: 1 1 48 64 (3072)
I0729 16:18:41.220752 25077 net.cpp:137] Memory required for data: 496939008
I0729 16:18:41.220759 25077 layer_factory.hpp:77] Creating layer score29_slicer_conv_28_split
I0729 16:18:41.220779 25077 net.cpp:84] Creating Layer score29_slicer_conv_28_split
I0729 16:18:41.220785 25077 net.cpp:406] score29_slicer_conv_28_split <- score29
I0729 16:18:41.220795 25077 net.cpp:380] score29_slicer_conv_28_split -> score29_slicer_conv_28_split_0
I0729 16:18:41.220808 25077 net.cpp:380] score29_slicer_conv_28_split -> score29_slicer_conv_28_split_1
I0729 16:18:41.220902 25077 net.cpp:122] Setting up score29_slicer_conv_28_split
I0729 16:18:41.220912 25077 net.cpp:129] Top shape: 1 1 48 64 (3072)
I0729 16:18:41.220919 25077 net.cpp:129] Top shape: 1 1 48 64 (3072)
I0729 16:18:41.220924 25077 net.cpp:137] Memory required for data: 496963584
I0729 16:18:41.220930 25077 layer_factory.hpp:77] Creating layer score30_slicer_conv_29_split
I0729 16:18:41.220939 25077 net.cpp:84] Creating Layer score30_slicer_conv_29_split
I0729 16:18:41.220947 25077 net.cpp:406] score30_slicer_conv_29_split <- score30
I0729 16:18:41.220955 25077 net.cpp:380] score30_slicer_conv_29_split -> score30_slicer_conv_29_split_0
I0729 16:18:41.220968 25077 net.cpp:380] score30_slicer_conv_29_split -> score30_slicer_conv_29_split_1
I0729 16:18:41.221060 25077 net.cpp:122] Setting up score30_slicer_conv_29_split
I0729 16:18:41.221070 25077 net.cpp:129] Top shape: 1 1 48 64 (3072)
I0729 16:18:41.221076 25077 net.cpp:129] Top shape: 1 1 48 64 (3072)
I0729 16:18:41.221081 25077 net.cpp:137] Memory required for data: 496988160
I0729 16:18:41.221086 25077 layer_factory.hpp:77] Creating layer score31_slicer_conv_30_split
I0729 16:18:41.221096 25077 net.cpp:84] Creating Layer score31_slicer_conv_30_split
I0729 16:18:41.221101 25077 net.cpp:406] score31_slicer_conv_30_split <- score31
I0729 16:18:41.221113 25077 net.cpp:380] score31_slicer_conv_30_split -> score31_slicer_conv_30_split_0
I0729 16:18:41.221125 25077 net.cpp:380] score31_slicer_conv_30_split -> score31_slicer_conv_30_split_1
I0729 16:18:41.221218 25077 net.cpp:122] Setting up score31_slicer_conv_30_split
I0729 16:18:41.221227 25077 net.cpp:129] Top shape: 1 1 48 64 (3072)
I0729 16:18:41.221235 25077 net.cpp:129] Top shape: 1 1 48 64 (3072)
I0729 16:18:41.221240 25077 net.cpp:137] Memory required for data: 497012736
I0729 16:18:41.221246 25077 layer_factory.hpp:77] Creating layer score32_slicer_conv_31_split
I0729 16:18:41.221253 25077 net.cpp:84] Creating Layer score32_slicer_conv_31_split
I0729 16:18:41.221261 25077 net.cpp:406] score32_slicer_conv_31_split <- score32
I0729 16:18:41.221269 25077 net.cpp:380] score32_slicer_conv_31_split -> score32_slicer_conv_31_split_0
I0729 16:18:41.221280 25077 net.cpp:380] score32_slicer_conv_31_split -> score32_slicer_conv_31_split_1
I0729 16:18:41.221395 25077 net.cpp:122] Setting up score32_slicer_conv_31_split
I0729 16:18:41.221408 25077 net.cpp:129] Top shape: 1 1 48 64 (3072)
I0729 16:18:41.221415 25077 net.cpp:129] Top shape: 1 1 48 64 (3072)
I0729 16:18:41.221420 25077 net.cpp:137] Memory required for data: 497037312
I0729 16:18:41.221426 25077 layer_factory.hpp:77] Creating layer score33_slicer_conv_32_split
I0729 16:18:41.221433 25077 net.cpp:84] Creating Layer score33_slicer_conv_32_split
I0729 16:18:41.221441 25077 net.cpp:406] score33_slicer_conv_32_split <- score33
I0729 16:18:41.221452 25077 net.cpp:380] score33_slicer_conv_32_split -> score33_slicer_conv_32_split_0
I0729 16:18:41.221463 25077 net.cpp:380] score33_slicer_conv_32_split -> score33_slicer_conv_32_split_1
I0729 16:18:41.221582 25077 net.cpp:122] Setting up score33_slicer_conv_32_split
I0729 16:18:41.221596 25077 net.cpp:129] Top shape: 1 1 48 64 (3072)
I0729 16:18:41.221602 25077 net.cpp:129] Top shape: 1 1 48 64 (3072)
I0729 16:18:41.221621 25077 net.cpp:137] Memory required for data: 497061888
I0729 16:18:41.221628 25077 layer_factory.hpp:77] Creating layer score34_slicer_conv_33_split
I0729 16:18:41.221638 25077 net.cpp:84] Creating Layer score34_slicer_conv_33_split
I0729 16:18:41.221645 25077 net.cpp:406] score34_slicer_conv_33_split <- score34
I0729 16:18:41.221654 25077 net.cpp:380] score34_slicer_conv_33_split -> score34_slicer_conv_33_split_0
I0729 16:18:41.221665 25077 net.cpp:380] score34_slicer_conv_33_split -> score34_slicer_conv_33_split_1
I0729 16:18:41.221771 25077 net.cpp:122] Setting up score34_slicer_conv_33_split
I0729 16:18:41.221782 25077 net.cpp:129] Top shape: 1 1 48 64 (3072)
I0729 16:18:41.221789 25077 net.cpp:129] Top shape: 1 1 48 64 (3072)
I0729 16:18:41.221794 25077 net.cpp:137] Memory required for data: 497086464
I0729 16:18:41.221801 25077 layer_factory.hpp:77] Creating layer score35_slicer_conv_34_split
I0729 16:18:41.221808 25077 net.cpp:84] Creating Layer score35_slicer_conv_34_split
I0729 16:18:41.221815 25077 net.cpp:406] score35_slicer_conv_34_split <- score35
I0729 16:18:41.221827 25077 net.cpp:380] score35_slicer_conv_34_split -> score35_slicer_conv_34_split_0
I0729 16:18:41.221842 25077 net.cpp:380] score35_slicer_conv_34_split -> score35_slicer_conv_34_split_1
I0729 16:18:41.223549 25077 net.cpp:122] Setting up score35_slicer_conv_34_split
I0729 16:18:41.223569 25077 net.cpp:129] Top shape: 1 1 48 64 (3072)
I0729 16:18:41.223580 25077 net.cpp:129] Top shape: 1 1 48 64 (3072)
I0729 16:18:41.223592 25077 net.cpp:137] Memory required for data: 497111040
I0729 16:18:41.223601 25077 layer_factory.hpp:77] Creating layer score36_slicer_conv_35_split
I0729 16:18:41.223616 25077 net.cpp:84] Creating Layer score36_slicer_conv_35_split
I0729 16:18:41.223628 25077 net.cpp:406] score36_slicer_conv_35_split <- score36
I0729 16:18:41.223642 25077 net.cpp:380] score36_slicer_conv_35_split -> score36_slicer_conv_35_split_0
I0729 16:18:41.223659 25077 net.cpp:380] score36_slicer_conv_35_split -> score36_slicer_conv_35_split_1
I0729 16:18:41.223773 25077 net.cpp:122] Setting up score36_slicer_conv_35_split
I0729 16:18:41.223789 25077 net.cpp:129] Top shape: 1 1 48 64 (3072)
I0729 16:18:41.223799 25077 net.cpp:129] Top shape: 1 1 48 64 (3072)
I0729 16:18:41.223808 25077 net.cpp:137] Memory required for data: 497135616
I0729 16:18:41.223816 25077 layer_factory.hpp:77] Creating layer score37_slicer_conv_36_split
I0729 16:18:41.223830 25077 net.cpp:84] Creating Layer score37_slicer_conv_36_split
I0729 16:18:41.223839 25077 net.cpp:406] score37_slicer_conv_36_split <- score37
I0729 16:18:41.223848 25077 net.cpp:380] score37_slicer_conv_36_split -> score37_slicer_conv_36_split_0
I0729 16:18:41.223860 25077 net.cpp:380] score37_slicer_conv_36_split -> score37_slicer_conv_36_split_1
I0729 16:18:41.223964 25077 net.cpp:122] Setting up score37_slicer_conv_36_split
I0729 16:18:41.223976 25077 net.cpp:129] Top shape: 1 1 48 64 (3072)
I0729 16:18:41.223983 25077 net.cpp:129] Top shape: 1 1 48 64 (3072)
I0729 16:18:41.223987 25077 net.cpp:137] Memory required for data: 497160192
I0729 16:18:41.223994 25077 layer_factory.hpp:77] Creating layer score38_slicer_conv_37_split
I0729 16:18:41.224004 25077 net.cpp:84] Creating Layer score38_slicer_conv_37_split
I0729 16:18:41.224009 25077 net.cpp:406] score38_slicer_conv_37_split <- score38
I0729 16:18:41.224017 25077 net.cpp:380] score38_slicer_conv_37_split -> score38_slicer_conv_37_split_0
I0729 16:18:41.224026 25077 net.cpp:380] score38_slicer_conv_37_split -> score38_slicer_conv_37_split_1
I0729 16:18:41.224135 25077 net.cpp:122] Setting up score38_slicer_conv_37_split
I0729 16:18:41.224148 25077 net.cpp:129] Top shape: 1 1 48 64 (3072)
I0729 16:18:41.224154 25077 net.cpp:129] Top shape: 1 1 48 64 (3072)
I0729 16:18:41.224159 25077 net.cpp:137] Memory required for data: 497184768
I0729 16:18:41.224165 25077 layer_factory.hpp:77] Creating layer score39_slicer_conv_38_split
I0729 16:18:41.224174 25077 net.cpp:84] Creating Layer score39_slicer_conv_38_split
I0729 16:18:41.224194 25077 net.cpp:406] score39_slicer_conv_38_split <- score39
I0729 16:18:41.224205 25077 net.cpp:380] score39_slicer_conv_38_split -> score39_slicer_conv_38_split_0
I0729 16:18:41.224216 25077 net.cpp:380] score39_slicer_conv_38_split -> score39_slicer_conv_38_split_1
I0729 16:18:41.224323 25077 net.cpp:122] Setting up score39_slicer_conv_38_split
I0729 16:18:41.224334 25077 net.cpp:129] Top shape: 1 1 48 64 (3072)
I0729 16:18:41.224340 25077 net.cpp:129] Top shape: 1 1 48 64 (3072)
I0729 16:18:41.224345 25077 net.cpp:137] Memory required for data: 497209344
I0729 16:18:41.224351 25077 layer_factory.hpp:77] Creating layer score40_slicer_conv_39_split
I0729 16:18:41.224360 25077 net.cpp:84] Creating Layer score40_slicer_conv_39_split
I0729 16:18:41.224367 25077 net.cpp:406] score40_slicer_conv_39_split <- score40
I0729 16:18:41.224382 25077 net.cpp:380] score40_slicer_conv_39_split -> score40_slicer_conv_39_split_0
I0729 16:18:41.224392 25077 net.cpp:380] score40_slicer_conv_39_split -> score40_slicer_conv_39_split_1
I0729 16:18:41.224506 25077 net.cpp:122] Setting up score40_slicer_conv_39_split
I0729 16:18:41.224519 25077 net.cpp:129] Top shape: 1 1 48 64 (3072)
I0729 16:18:41.224526 25077 net.cpp:129] Top shape: 1 1 48 64 (3072)
I0729 16:18:41.224531 25077 net.cpp:137] Memory required for data: 497233920
I0729 16:18:41.224537 25077 layer_factory.hpp:77] Creating layer score41_slicer_conv_40_split
I0729 16:18:41.224545 25077 net.cpp:84] Creating Layer score41_slicer_conv_40_split
I0729 16:18:41.224552 25077 net.cpp:406] score41_slicer_conv_40_split <- score41
I0729 16:18:41.224561 25077 net.cpp:380] score41_slicer_conv_40_split -> score41_slicer_conv_40_split_0
I0729 16:18:41.224572 25077 net.cpp:380] score41_slicer_conv_40_split -> score41_slicer_conv_40_split_1
I0729 16:18:41.224676 25077 net.cpp:122] Setting up score41_slicer_conv_40_split
I0729 16:18:41.224687 25077 net.cpp:129] Top shape: 1 1 48 64 (3072)
I0729 16:18:41.224694 25077 net.cpp:129] Top shape: 1 1 48 64 (3072)
I0729 16:18:41.224699 25077 net.cpp:137] Memory required for data: 497258496
I0729 16:18:41.224704 25077 layer_factory.hpp:77] Creating layer score42_slicer_conv_41_split
I0729 16:18:41.224714 25077 net.cpp:84] Creating Layer score42_slicer_conv_41_split
I0729 16:18:41.224720 25077 net.cpp:406] score42_slicer_conv_41_split <- score42
I0729 16:18:41.224730 25077 net.cpp:380] score42_slicer_conv_41_split -> score42_slicer_conv_41_split_0
I0729 16:18:41.224741 25077 net.cpp:380] score42_slicer_conv_41_split -> score42_slicer_conv_41_split_1
I0729 16:18:41.224843 25077 net.cpp:122] Setting up score42_slicer_conv_41_split
I0729 16:18:41.224853 25077 net.cpp:129] Top shape: 1 1 48 64 (3072)
I0729 16:18:41.224860 25077 net.cpp:129] Top shape: 1 1 48 64 (3072)
I0729 16:18:41.224865 25077 net.cpp:137] Memory required for data: 497283072
I0729 16:18:41.224870 25077 layer_factory.hpp:77] Creating layer score43_slicer_conv_42_split
I0729 16:18:41.224881 25077 net.cpp:84] Creating Layer score43_slicer_conv_42_split
I0729 16:18:41.224889 25077 net.cpp:406] score43_slicer_conv_42_split <- score43
I0729 16:18:41.224897 25077 net.cpp:380] score43_slicer_conv_42_split -> score43_slicer_conv_42_split_0
I0729 16:18:41.224907 25077 net.cpp:380] score43_slicer_conv_42_split -> score43_slicer_conv_42_split_1
I0729 16:18:41.225010 25077 net.cpp:122] Setting up score43_slicer_conv_42_split
I0729 16:18:41.225021 25077 net.cpp:129] Top shape: 1 1 48 64 (3072)
I0729 16:18:41.225028 25077 net.cpp:129] Top shape: 1 1 48 64 (3072)
I0729 16:18:41.225033 25077 net.cpp:137] Memory required for data: 497307648
I0729 16:18:41.225039 25077 layer_factory.hpp:77] Creating layer score44_slicer_conv_43_split
I0729 16:18:41.225046 25077 net.cpp:84] Creating Layer score44_slicer_conv_43_split
I0729 16:18:41.225054 25077 net.cpp:406] score44_slicer_conv_43_split <- score44
I0729 16:18:41.225061 25077 net.cpp:380] score44_slicer_conv_43_split -> score44_slicer_conv_43_split_0
I0729 16:18:41.225073 25077 net.cpp:380] score44_slicer_conv_43_split -> score44_slicer_conv_43_split_1
I0729 16:18:41.225190 25077 net.cpp:122] Setting up score44_slicer_conv_43_split
I0729 16:18:41.225203 25077 net.cpp:129] Top shape: 1 1 48 64 (3072)
I0729 16:18:41.225208 25077 net.cpp:129] Top shape: 1 1 48 64 (3072)
I0729 16:18:41.225214 25077 net.cpp:137] Memory required for data: 497332224
I0729 16:18:41.225219 25077 layer_factory.hpp:77] Creating layer score45_slicer_conv_44_split
I0729 16:18:41.225230 25077 net.cpp:84] Creating Layer score45_slicer_conv_44_split
I0729 16:18:41.225237 25077 net.cpp:406] score45_slicer_conv_44_split <- score45
I0729 16:18:41.225246 25077 net.cpp:380] score45_slicer_conv_44_split -> score45_slicer_conv_44_split_0
I0729 16:18:41.225257 25077 net.cpp:380] score45_slicer_conv_44_split -> score45_slicer_conv_44_split_1
I0729 16:18:41.225402 25077 net.cpp:122] Setting up score45_slicer_conv_44_split
I0729 16:18:41.225416 25077 net.cpp:129] Top shape: 1 1 48 64 (3072)
I0729 16:18:41.225423 25077 net.cpp:129] Top shape: 1 1 48 64 (3072)
I0729 16:18:41.225428 25077 net.cpp:137] Memory required for data: 497356800
I0729 16:18:41.225435 25077 layer_factory.hpp:77] Creating layer score46_slicer_conv_45_split
I0729 16:18:41.225443 25077 net.cpp:84] Creating Layer score46_slicer_conv_45_split
I0729 16:18:41.225450 25077 net.cpp:406] score46_slicer_conv_45_split <- score46
I0729 16:18:41.225459 25077 net.cpp:380] score46_slicer_conv_45_split -> score46_slicer_conv_45_split_0
I0729 16:18:41.225471 25077 net.cpp:380] score46_slicer_conv_45_split -> score46_slicer_conv_45_split_1
I0729 16:18:41.225575 25077 net.cpp:122] Setting up score46_slicer_conv_45_split
I0729 16:18:41.225586 25077 net.cpp:129] Top shape: 1 1 48 64 (3072)
I0729 16:18:41.225594 25077 net.cpp:129] Top shape: 1 1 48 64 (3072)
I0729 16:18:41.225597 25077 net.cpp:137] Memory required for data: 497381376
I0729 16:18:41.225603 25077 layer_factory.hpp:77] Creating layer score47_slicer_conv_46_split
I0729 16:18:41.225611 25077 net.cpp:84] Creating Layer score47_slicer_conv_46_split
I0729 16:18:41.225618 25077 net.cpp:406] score47_slicer_conv_46_split <- score47
I0729 16:18:41.225630 25077 net.cpp:380] score47_slicer_conv_46_split -> score47_slicer_conv_46_split_0
I0729 16:18:41.225641 25077 net.cpp:380] score47_slicer_conv_46_split -> score47_slicer_conv_46_split_1
I0729 16:18:41.225759 25077 net.cpp:122] Setting up score47_slicer_conv_46_split
I0729 16:18:41.225772 25077 net.cpp:129] Top shape: 1 1 48 64 (3072)
I0729 16:18:41.225778 25077 net.cpp:129] Top shape: 1 1 48 64 (3072)
I0729 16:18:41.225783 25077 net.cpp:137] Memory required for data: 497405952
I0729 16:18:41.225788 25077 layer_factory.hpp:77] Creating layer score48_slicer_conv_47_split
I0729 16:18:41.225797 25077 net.cpp:84] Creating Layer score48_slicer_conv_47_split
I0729 16:18:41.225805 25077 net.cpp:406] score48_slicer_conv_47_split <- score48
I0729 16:18:41.225813 25077 net.cpp:380] score48_slicer_conv_47_split -> score48_slicer_conv_47_split_0
I0729 16:18:41.225826 25077 net.cpp:380] score48_slicer_conv_47_split -> score48_slicer_conv_47_split_1
I0729 16:18:41.225929 25077 net.cpp:122] Setting up score48_slicer_conv_47_split
I0729 16:18:41.225940 25077 net.cpp:129] Top shape: 1 1 48 64 (3072)
I0729 16:18:41.225947 25077 net.cpp:129] Top shape: 1 1 48 64 (3072)
I0729 16:18:41.225952 25077 net.cpp:137] Memory required for data: 497430528
I0729 16:18:41.225958 25077 layer_factory.hpp:77] Creating layer score49_slicer_conv_48_split
I0729 16:18:41.225966 25077 net.cpp:84] Creating Layer score49_slicer_conv_48_split
I0729 16:18:41.225973 25077 net.cpp:406] score49_slicer_conv_48_split <- score49
I0729 16:18:41.225985 25077 net.cpp:380] score49_slicer_conv_48_split -> score49_slicer_conv_48_split_0
I0729 16:18:41.225996 25077 net.cpp:380] score49_slicer_conv_48_split -> score49_slicer_conv_48_split_1
I0729 16:18:41.226099 25077 net.cpp:122] Setting up score49_slicer_conv_48_split
I0729 16:18:41.226110 25077 net.cpp:129] Top shape: 1 1 48 64 (3072)
I0729 16:18:41.226117 25077 net.cpp:129] Top shape: 1 1 48 64 (3072)
I0729 16:18:41.226121 25077 net.cpp:137] Memory required for data: 497455104
I0729 16:18:41.226141 25077 layer_factory.hpp:77] Creating layer score50_slicer_conv_49_split
I0729 16:18:41.226151 25077 net.cpp:84] Creating Layer score50_slicer_conv_49_split
I0729 16:18:41.226158 25077 net.cpp:406] score50_slicer_conv_49_split <- score50
I0729 16:18:41.226167 25077 net.cpp:380] score50_slicer_conv_49_split -> score50_slicer_conv_49_split_0
I0729 16:18:41.226177 25077 net.cpp:380] score50_slicer_conv_49_split -> score50_slicer_conv_49_split_1
I0729 16:18:41.226282 25077 net.cpp:122] Setting up score50_slicer_conv_49_split
I0729 16:18:41.226294 25077 net.cpp:129] Top shape: 1 1 48 64 (3072)
I0729 16:18:41.226300 25077 net.cpp:129] Top shape: 1 1 48 64 (3072)
I0729 16:18:41.226305 25077 net.cpp:137] Memory required for data: 497479680
I0729 16:18:41.226311 25077 layer_factory.hpp:77] Creating layer score51_slicer_conv_50_split
I0729 16:18:41.226320 25077 net.cpp:84] Creating Layer score51_slicer_conv_50_split
I0729 16:18:41.226326 25077 net.cpp:406] score51_slicer_conv_50_split <- score51
I0729 16:18:41.226336 25077 net.cpp:380] score51_slicer_conv_50_split -> score51_slicer_conv_50_split_0
I0729 16:18:41.226347 25077 net.cpp:380] score51_slicer_conv_50_split -> score51_slicer_conv_50_split_1
I0729 16:18:41.226449 25077 net.cpp:122] Setting up score51_slicer_conv_50_split
I0729 16:18:41.226459 25077 net.cpp:129] Top shape: 1 1 48 64 (3072)
I0729 16:18:41.226465 25077 net.cpp:129] Top shape: 1 1 48 64 (3072)
I0729 16:18:41.226470 25077 net.cpp:137] Memory required for data: 497504256
I0729 16:18:41.226476 25077 layer_factory.hpp:77] Creating layer score52_slicer_conv_51_split
I0729 16:18:41.226486 25077 net.cpp:84] Creating Layer score52_slicer_conv_51_split
I0729 16:18:41.226493 25077 net.cpp:406] score52_slicer_conv_51_split <- score52
I0729 16:18:41.226502 25077 net.cpp:380] score52_slicer_conv_51_split -> score52_slicer_conv_51_split_0
I0729 16:18:41.226512 25077 net.cpp:380] score52_slicer_conv_51_split -> score52_slicer_conv_51_split_1
I0729 16:18:41.226630 25077 net.cpp:122] Setting up score52_slicer_conv_51_split
I0729 16:18:41.226644 25077 net.cpp:129] Top shape: 1 1 48 64 (3072)
I0729 16:18:41.226650 25077 net.cpp:129] Top shape: 1 1 48 64 (3072)
I0729 16:18:41.226655 25077 net.cpp:137] Memory required for data: 497528832
I0729 16:18:41.226660 25077 layer_factory.hpp:77] Creating layer score53_slicer_conv_52_split
I0729 16:18:41.226670 25077 net.cpp:84] Creating Layer score53_slicer_conv_52_split
I0729 16:18:41.226676 25077 net.cpp:406] score53_slicer_conv_52_split <- score53
I0729 16:18:41.226686 25077 net.cpp:380] score53_slicer_conv_52_split -> score53_slicer_conv_52_split_0
I0729 16:18:41.226697 25077 net.cpp:380] score53_slicer_conv_52_split -> score53_slicer_conv_52_split_1
I0729 16:18:41.226800 25077 net.cpp:122] Setting up score53_slicer_conv_52_split
I0729 16:18:41.226812 25077 net.cpp:129] Top shape: 1 1 48 64 (3072)
I0729 16:18:41.226819 25077 net.cpp:129] Top shape: 1 1 48 64 (3072)
I0729 16:18:41.226824 25077 net.cpp:137] Memory required for data: 497553408
I0729 16:18:41.226830 25077 layer_factory.hpp:77] Creating layer score54_slicer_conv_53_split
I0729 16:18:41.226840 25077 net.cpp:84] Creating Layer score54_slicer_conv_53_split
I0729 16:18:41.226846 25077 net.cpp:406] score54_slicer_conv_53_split <- score54
I0729 16:18:41.226855 25077 net.cpp:380] score54_slicer_conv_53_split -> score54_slicer_conv_53_split_0
I0729 16:18:41.226866 25077 net.cpp:380] score54_slicer_conv_53_split -> score54_slicer_conv_53_split_1
I0729 16:18:41.226979 25077 net.cpp:122] Setting up score54_slicer_conv_53_split
I0729 16:18:41.226992 25077 net.cpp:129] Top shape: 1 1 48 64 (3072)
I0729 16:18:41.226999 25077 net.cpp:129] Top shape: 1 1 48 64 (3072)
I0729 16:18:41.227005 25077 net.cpp:137] Memory required for data: 497577984
I0729 16:18:41.227010 25077 layer_factory.hpp:77] Creating layer score55_slicer_conv_54_split
I0729 16:18:41.227020 25077 net.cpp:84] Creating Layer score55_slicer_conv_54_split
I0729 16:18:41.227026 25077 net.cpp:406] score55_slicer_conv_54_split <- score55
I0729 16:18:41.227048 25077 net.cpp:380] score55_slicer_conv_54_split -> score55_slicer_conv_54_split_0
I0729 16:18:41.227061 25077 net.cpp:380] score55_slicer_conv_54_split -> score55_slicer_conv_54_split_1
I0729 16:18:41.227167 25077 net.cpp:122] Setting up score55_slicer_conv_54_split
I0729 16:18:41.227179 25077 net.cpp:129] Top shape: 1 1 48 64 (3072)
I0729 16:18:41.227185 25077 net.cpp:129] Top shape: 1 1 48 64 (3072)
I0729 16:18:41.227190 25077 net.cpp:137] Memory required for data: 497602560
I0729 16:18:41.227195 25077 layer_factory.hpp:77] Creating layer score56_slicer_conv_55_split
I0729 16:18:41.227203 25077 net.cpp:84] Creating Layer score56_slicer_conv_55_split
I0729 16:18:41.227210 25077 net.cpp:406] score56_slicer_conv_55_split <- score56
I0729 16:18:41.227222 25077 net.cpp:380] score56_slicer_conv_55_split -> score56_slicer_conv_55_split_0
I0729 16:18:41.227233 25077 net.cpp:380] score56_slicer_conv_55_split -> score56_slicer_conv_55_split_1
I0729 16:18:41.227336 25077 net.cpp:122] Setting up score56_slicer_conv_55_split
I0729 16:18:41.227347 25077 net.cpp:129] Top shape: 1 1 48 64 (3072)
I0729 16:18:41.227355 25077 net.cpp:129] Top shape: 1 1 48 64 (3072)
I0729 16:18:41.227360 25077 net.cpp:137] Memory required for data: 497627136
I0729 16:18:41.227365 25077 layer_factory.hpp:77] Creating layer score57_slicer_conv_56_split
I0729 16:18:41.227373 25077 net.cpp:84] Creating Layer score57_slicer_conv_56_split
I0729 16:18:41.227380 25077 net.cpp:406] score57_slicer_conv_56_split <- score57
I0729 16:18:41.227390 25077 net.cpp:380] score57_slicer_conv_56_split -> score57_slicer_conv_56_split_0
I0729 16:18:41.227401 25077 net.cpp:380] score57_slicer_conv_56_split -> score57_slicer_conv_56_split_1
I0729 16:18:41.227504 25077 net.cpp:122] Setting up score57_slicer_conv_56_split
I0729 16:18:41.227514 25077 net.cpp:129] Top shape: 1 1 48 64 (3072)
I0729 16:18:41.227521 25077 net.cpp:129] Top shape: 1 1 48 64 (3072)
I0729 16:18:41.227526 25077 net.cpp:137] Memory required for data: 497651712
I0729 16:18:41.227531 25077 layer_factory.hpp:77] Creating layer score58_slicer_conv_57_split
I0729 16:18:41.227540 25077 net.cpp:84] Creating Layer score58_slicer_conv_57_split
I0729 16:18:41.227546 25077 net.cpp:406] score58_slicer_conv_57_split <- score58
I0729 16:18:41.227557 25077 net.cpp:380] score58_slicer_conv_57_split -> score58_slicer_conv_57_split_0
I0729 16:18:41.227568 25077 net.cpp:380] score58_slicer_conv_57_split -> score58_slicer_conv_57_split_1
I0729 16:18:41.227669 25077 net.cpp:122] Setting up score58_slicer_conv_57_split
I0729 16:18:41.227679 25077 net.cpp:129] Top shape: 1 1 48 64 (3072)
I0729 16:18:41.227685 25077 net.cpp:129] Top shape: 1 1 48 64 (3072)
I0729 16:18:41.227690 25077 net.cpp:137] Memory required for data: 497676288
I0729 16:18:41.227696 25077 layer_factory.hpp:77] Creating layer score59_slicer_conv_58_split
I0729 16:18:41.227706 25077 net.cpp:84] Creating Layer score59_slicer_conv_58_split
I0729 16:18:41.227713 25077 net.cpp:406] score59_slicer_conv_58_split <- score59
I0729 16:18:41.227722 25077 net.cpp:380] score59_slicer_conv_58_split -> score59_slicer_conv_58_split_0
I0729 16:18:41.227733 25077 net.cpp:380] score59_slicer_conv_58_split -> score59_slicer_conv_58_split_1
I0729 16:18:41.227836 25077 net.cpp:122] Setting up score59_slicer_conv_58_split
I0729 16:18:41.227900 25077 net.cpp:129] Top shape: 1 1 48 64 (3072)
I0729 16:18:41.227944 25077 net.cpp:129] Top shape: 1 1 48 64 (3072)
I0729 16:18:41.227982 25077 net.cpp:137] Memory required for data: 497700864
I0729 16:18:41.228020 25077 layer_factory.hpp:77] Creating layer score60_slicer_conv_59_split
I0729 16:18:41.228061 25077 net.cpp:84] Creating Layer score60_slicer_conv_59_split
I0729 16:18:41.228101 25077 net.cpp:406] score60_slicer_conv_59_split <- score60
I0729 16:18:41.228142 25077 net.cpp:380] score60_slicer_conv_59_split -> score60_slicer_conv_59_split_0
I0729 16:18:41.228188 25077 net.cpp:380] score60_slicer_conv_59_split -> score60_slicer_conv_59_split_1
I0729 16:18:41.228335 25077 net.cpp:122] Setting up score60_slicer_conv_59_split
I0729 16:18:41.228401 25077 net.cpp:129] Top shape: 1 1 48 64 (3072)
I0729 16:18:41.228443 25077 net.cpp:129] Top shape: 1 1 48 64 (3072)
I0729 16:18:41.228482 25077 net.cpp:137] Memory required for data: 497725440
I0729 16:18:41.228519 25077 layer_factory.hpp:77] Creating layer score61_slicer_conv_60_split
I0729 16:18:41.228564 25077 net.cpp:84] Creating Layer score61_slicer_conv_60_split
I0729 16:18:41.228603 25077 net.cpp:406] score61_slicer_conv_60_split <- score61
I0729 16:18:41.228646 25077 net.cpp:380] score61_slicer_conv_60_split -> score61_slicer_conv_60_split_0
I0729 16:18:41.228689 25077 net.cpp:380] score61_slicer_conv_60_split -> score61_slicer_conv_60_split_1
I0729 16:18:41.228826 25077 net.cpp:122] Setting up score61_slicer_conv_60_split
I0729 16:18:41.228837 25077 net.cpp:129] Top shape: 1 1 48 64 (3072)
I0729 16:18:41.228843 25077 net.cpp:129] Top shape: 1 1 48 64 (3072)
I0729 16:18:41.228848 25077 net.cpp:137] Memory required for data: 497750016
I0729 16:18:41.228857 25077 layer_factory.hpp:77] Creating layer score62_slicer_conv_61_split
I0729 16:18:41.228863 25077 net.cpp:84] Creating Layer score62_slicer_conv_61_split
I0729 16:18:41.228868 25077 net.cpp:406] score62_slicer_conv_61_split <- score62
I0729 16:18:41.228876 25077 net.cpp:380] score62_slicer_conv_61_split -> score62_slicer_conv_61_split_0
I0729 16:18:41.228888 25077 net.cpp:380] score62_slicer_conv_61_split -> score62_slicer_conv_61_split_1
I0729 16:18:41.228983 25077 net.cpp:122] Setting up score62_slicer_conv_61_split
I0729 16:18:41.228992 25077 net.cpp:129] Top shape: 1 1 48 64 (3072)
I0729 16:18:41.228998 25077 net.cpp:129] Top shape: 1 1 48 64 (3072)
I0729 16:18:41.229002 25077 net.cpp:137] Memory required for data: 497774592
I0729 16:18:41.229007 25077 layer_factory.hpp:77] Creating layer score63_slicer_conv_62_split
I0729 16:18:41.229014 25077 net.cpp:84] Creating Layer score63_slicer_conv_62_split
I0729 16:18:41.229019 25077 net.cpp:406] score63_slicer_conv_62_split <- score63
I0729 16:18:41.229029 25077 net.cpp:380] score63_slicer_conv_62_split -> score63_slicer_conv_62_split_0
I0729 16:18:41.229038 25077 net.cpp:380] score63_slicer_conv_62_split -> score63_slicer_conv_62_split_1
I0729 16:18:41.229151 25077 net.cpp:122] Setting up score63_slicer_conv_62_split
I0729 16:18:41.229164 25077 net.cpp:129] Top shape: 1 1 48 64 (3072)
I0729 16:18:41.229169 25077 net.cpp:129] Top shape: 1 1 48 64 (3072)
I0729 16:18:41.229174 25077 net.cpp:137] Memory required for data: 497799168
I0729 16:18:41.229179 25077 layer_factory.hpp:77] Creating layer score64_slicer_conv_63_split
I0729 16:18:41.229187 25077 net.cpp:84] Creating Layer score64_slicer_conv_63_split
I0729 16:18:41.229192 25077 net.cpp:406] score64_slicer_conv_63_split <- score64
I0729 16:18:41.229199 25077 net.cpp:380] score64_slicer_conv_63_split -> score64_slicer_conv_63_split_0
I0729 16:18:41.229208 25077 net.cpp:380] score64_slicer_conv_63_split -> score64_slicer_conv_63_split_1
I0729 16:18:41.229308 25077 net.cpp:122] Setting up score64_slicer_conv_63_split
I0729 16:18:41.229326 25077 net.cpp:129] Top shape: 1 1 48 64 (3072)
I0729 16:18:41.229334 25077 net.cpp:129] Top shape: 1 1 48 64 (3072)
I0729 16:18:41.229341 25077 net.cpp:137] Memory required for data: 497823744
I0729 16:18:41.229356 25077 layer_factory.hpp:77] Creating layer score65_slicer_conv_64_split
I0729 16:18:41.229367 25077 net.cpp:84] Creating Layer score65_slicer_conv_64_split
I0729 16:18:41.229377 25077 net.cpp:406] score65_slicer_conv_64_split <- score65
I0729 16:18:41.229395 25077 net.cpp:380] score65_slicer_conv_64_split -> score65_slicer_conv_64_split_0
I0729 16:18:41.229413 25077 net.cpp:380] score65_slicer_conv_64_split -> score65_slicer_conv_64_split_1
I0729 16:18:41.229534 25077 net.cpp:122] Setting up score65_slicer_conv_64_split
I0729 16:18:41.229552 25077 net.cpp:129] Top shape: 1 1 48 64 (3072)
I0729 16:18:41.229560 25077 net.cpp:129] Top shape: 1 1 48 64 (3072)
I0729 16:18:41.229568 25077 net.cpp:137] Memory required for data: 497848320
I0729 16:18:41.229574 25077 layer_factory.hpp:77] Creating layer score66_slicer_conv_65_split
I0729 16:18:41.229598 25077 net.cpp:84] Creating Layer score66_slicer_conv_65_split
I0729 16:18:41.229605 25077 net.cpp:406] score66_slicer_conv_65_split <- score66
I0729 16:18:41.229615 25077 net.cpp:380] score66_slicer_conv_65_split -> score66_slicer_conv_65_split_0
I0729 16:18:41.229627 25077 net.cpp:380] score66_slicer_conv_65_split -> score66_slicer_conv_65_split_1
I0729 16:18:41.229728 25077 net.cpp:122] Setting up score66_slicer_conv_65_split
I0729 16:18:41.229742 25077 net.cpp:129] Top shape: 1 1 48 64 (3072)
I0729 16:18:41.229749 25077 net.cpp:129] Top shape: 1 1 48 64 (3072)
I0729 16:18:41.229755 25077 net.cpp:137] Memory required for data: 497872896
I0729 16:18:41.229763 25077 layer_factory.hpp:77] Creating layer score67_slicer_conv_66_split
I0729 16:18:41.229771 25077 net.cpp:84] Creating Layer score67_slicer_conv_66_split
I0729 16:18:41.229779 25077 net.cpp:406] score67_slicer_conv_66_split <- score67
I0729 16:18:41.229789 25077 net.cpp:380] score67_slicer_conv_66_split -> score67_slicer_conv_66_split_0
I0729 16:18:41.229800 25077 net.cpp:380] score67_slicer_conv_66_split -> score67_slicer_conv_66_split_1
I0729 16:18:41.229895 25077 net.cpp:122] Setting up score67_slicer_conv_66_split
I0729 16:18:41.229909 25077 net.cpp:129] Top shape: 1 1 48 64 (3072)
I0729 16:18:41.229917 25077 net.cpp:129] Top shape: 1 1 48 64 (3072)
I0729 16:18:41.229923 25077 net.cpp:137] Memory required for data: 497897472
I0729 16:18:41.229930 25077 layer_factory.hpp:77] Creating layer score68_slicer_conv_67_split
I0729 16:18:41.229940 25077 net.cpp:84] Creating Layer score68_slicer_conv_67_split
I0729 16:18:41.229948 25077 net.cpp:406] score68_slicer_conv_67_split <- score68
I0729 16:18:41.229957 25077 net.cpp:380] score68_slicer_conv_67_split -> score68_slicer_conv_67_split_0
I0729 16:18:41.229967 25077 net.cpp:380] score68_slicer_conv_67_split -> score68_slicer_conv_67_split_1
I0729 16:18:41.230064 25077 net.cpp:122] Setting up score68_slicer_conv_67_split
I0729 16:18:41.230077 25077 net.cpp:129] Top shape: 1 1 48 64 (3072)
I0729 16:18:41.230085 25077 net.cpp:129] Top shape: 1 1 48 64 (3072)
I0729 16:18:41.230093 25077 net.cpp:137] Memory required for data: 497922048
I0729 16:18:41.230099 25077 layer_factory.hpp:77] Creating layer score69_slicer_conv_68_split
I0729 16:18:41.230108 25077 net.cpp:84] Creating Layer score69_slicer_conv_68_split
I0729 16:18:41.230115 25077 net.cpp:406] score69_slicer_conv_68_split <- score69
I0729 16:18:41.230124 25077 net.cpp:380] score69_slicer_conv_68_split -> score69_slicer_conv_68_split_0
I0729 16:18:41.230134 25077 net.cpp:380] score69_slicer_conv_68_split -> score69_slicer_conv_68_split_1
I0729 16:18:41.230254 25077 net.cpp:122] Setting up score69_slicer_conv_68_split
I0729 16:18:41.230270 25077 net.cpp:129] Top shape: 1 1 48 64 (3072)
I0729 16:18:41.230281 25077 net.cpp:129] Top shape: 1 1 48 64 (3072)
I0729 16:18:41.230289 25077 net.cpp:137] Memory required for data: 497946624
I0729 16:18:41.230298 25077 layer_factory.hpp:77] Creating layer score70_slicer_conv_69_split
I0729 16:18:41.230310 25077 net.cpp:84] Creating Layer score70_slicer_conv_69_split
I0729 16:18:41.230319 25077 net.cpp:406] score70_slicer_conv_69_split <- score70
I0729 16:18:41.230329 25077 net.cpp:380] score70_slicer_conv_69_split -> score70_slicer_conv_69_split_0
I0729 16:18:41.230340 25077 net.cpp:380] score70_slicer_conv_69_split -> score70_slicer_conv_69_split_1
I0729 16:18:41.230442 25077 net.cpp:122] Setting up score70_slicer_conv_69_split
I0729 16:18:41.230454 25077 net.cpp:129] Top shape: 1 1 48 64 (3072)
I0729 16:18:41.230463 25077 net.cpp:129] Top shape: 1 1 48 64 (3072)
I0729 16:18:41.230469 25077 net.cpp:137] Memory required for data: 497971200
I0729 16:18:41.230476 25077 layer_factory.hpp:77] Creating layer score71_slicer_conv_70_split
I0729 16:18:41.230484 25077 net.cpp:84] Creating Layer score71_slicer_conv_70_split
I0729 16:18:41.230491 25077 net.cpp:406] score71_slicer_conv_70_split <- score71
I0729 16:18:41.230500 25077 net.cpp:380] score71_slicer_conv_70_split -> score71_slicer_conv_70_split_0
I0729 16:18:41.230522 25077 net.cpp:380] score71_slicer_conv_70_split -> score71_slicer_conv_70_split_1
I0729 16:18:41.230623 25077 net.cpp:122] Setting up score71_slicer_conv_70_split
I0729 16:18:41.230638 25077 net.cpp:129] Top shape: 1 1 48 64 (3072)
I0729 16:18:41.230648 25077 net.cpp:129] Top shape: 1 1 48 64 (3072)
I0729 16:18:41.230655 25077 net.cpp:137] Memory required for data: 497995776
I0729 16:18:41.230664 25077 layer_factory.hpp:77] Creating layer score72_slicer_conv_71_split
I0729 16:18:41.230674 25077 net.cpp:84] Creating Layer score72_slicer_conv_71_split
I0729 16:18:41.230681 25077 net.cpp:406] score72_slicer_conv_71_split <- score72
I0729 16:18:41.230693 25077 net.cpp:380] score72_slicer_conv_71_split -> score72_slicer_conv_71_split_0
I0729 16:18:41.230705 25077 net.cpp:380] score72_slicer_conv_71_split -> score72_slicer_conv_71_split_1
I0729 16:18:41.230806 25077 net.cpp:122] Setting up score72_slicer_conv_71_split
I0729 16:18:41.230819 25077 net.cpp:129] Top shape: 1 1 48 64 (3072)
I0729 16:18:41.230828 25077 net.cpp:129] Top shape: 1 1 48 64 (3072)
I0729 16:18:41.230834 25077 net.cpp:137] Memory required for data: 498020352
I0729 16:18:41.230840 25077 layer_factory.hpp:77] Creating layer score73_slicer_conv_72_split
I0729 16:18:41.230849 25077 net.cpp:84] Creating Layer score73_slicer_conv_72_split
I0729 16:18:41.230856 25077 net.cpp:406] score73_slicer_conv_72_split <- score73
I0729 16:18:41.230865 25077 net.cpp:380] score73_slicer_conv_72_split -> score73_slicer_conv_72_split_0
I0729 16:18:41.230875 25077 net.cpp:380] score73_slicer_conv_72_split -> score73_slicer_conv_72_split_1
I0729 16:18:41.230973 25077 net.cpp:122] Setting up score73_slicer_conv_72_split
I0729 16:18:41.230986 25077 net.cpp:129] Top shape: 1 1 48 64 (3072)
I0729 16:18:41.230993 25077 net.cpp:129] Top shape: 1 1 48 64 (3072)
I0729 16:18:41.231000 25077 net.cpp:137] Memory required for data: 498044928
I0729 16:18:41.231007 25077 layer_factory.hpp:77] Creating layer score74_slicer_conv_73_split
I0729 16:18:41.231015 25077 net.cpp:84] Creating Layer score74_slicer_conv_73_split
I0729 16:18:41.231022 25077 net.cpp:406] score74_slicer_conv_73_split <- score74
I0729 16:18:41.231032 25077 net.cpp:380] score74_slicer_conv_73_split -> score74_slicer_conv_73_split_0
I0729 16:18:41.231043 25077 net.cpp:380] score74_slicer_conv_73_split -> score74_slicer_conv_73_split_1
I0729 16:18:41.231148 25077 net.cpp:122] Setting up score74_slicer_conv_73_split
I0729 16:18:41.231163 25077 net.cpp:129] Top shape: 1 1 48 64 (3072)
I0729 16:18:41.231173 25077 net.cpp:129] Top shape: 1 1 48 64 (3072)
I0729 16:18:41.231179 25077 net.cpp:137] Memory required for data: 498069504
I0729 16:18:41.231191 25077 layer_factory.hpp:77] Creating layer score75_slicer_conv_74_split
I0729 16:18:41.231202 25077 net.cpp:84] Creating Layer score75_slicer_conv_74_split
I0729 16:18:41.231210 25077 net.cpp:406] score75_slicer_conv_74_split <- score75
I0729 16:18:41.231220 25077 net.cpp:380] score75_slicer_conv_74_split -> score75_slicer_conv_74_split_0
I0729 16:18:41.231235 25077 net.cpp:380] score75_slicer_conv_74_split -> score75_slicer_conv_74_split_1
I0729 16:18:41.231334 25077 net.cpp:122] Setting up score75_slicer_conv_74_split
I0729 16:18:41.231349 25077 net.cpp:129] Top shape: 1 1 48 64 (3072)
I0729 16:18:41.231357 25077 net.cpp:129] Top shape: 1 1 48 64 (3072)
I0729 16:18:41.231364 25077 net.cpp:137] Memory required for data: 498094080
I0729 16:18:41.231372 25077 layer_factory.hpp:77] Creating layer score76_slicer_conv_75_split
I0729 16:18:41.231381 25077 net.cpp:84] Creating Layer score76_slicer_conv_75_split
I0729 16:18:41.231389 25077 net.cpp:406] score76_slicer_conv_75_split <- score76
I0729 16:18:41.231400 25077 net.cpp:380] score76_slicer_conv_75_split -> score76_slicer_conv_75_split_0
I0729 16:18:41.231411 25077 net.cpp:380] score76_slicer_conv_75_split -> score76_slicer_conv_75_split_1
I0729 16:18:41.231513 25077 net.cpp:122] Setting up score76_slicer_conv_75_split
I0729 16:18:41.231530 25077 net.cpp:129] Top shape: 1 1 48 64 (3072)
I0729 16:18:41.231556 25077 net.cpp:129] Top shape: 1 1 48 64 (3072)
I0729 16:18:41.231567 25077 net.cpp:137] Memory required for data: 498118656
I0729 16:18:41.231575 25077 layer_factory.hpp:77] Creating layer score77_slicer_conv_76_split
I0729 16:18:41.231592 25077 net.cpp:84] Creating Layer score77_slicer_conv_76_split
I0729 16:18:41.231602 25077 net.cpp:406] score77_slicer_conv_76_split <- score77
I0729 16:18:41.231612 25077 net.cpp:380] score77_slicer_conv_76_split -> score77_slicer_conv_76_split_0
I0729 16:18:41.231628 25077 net.cpp:380] score77_slicer_conv_76_split -> score77_slicer_conv_76_split_1
I0729 16:18:41.231735 25077 net.cpp:122] Setting up score77_slicer_conv_76_split
I0729 16:18:41.231751 25077 net.cpp:129] Top shape: 1 1 48 64 (3072)
I0729 16:18:41.231760 25077 net.cpp:129] Top shape: 1 1 48 64 (3072)
I0729 16:18:41.231767 25077 net.cpp:137] Memory required for data: 498143232
I0729 16:18:41.231775 25077 layer_factory.hpp:77] Creating layer score78_slicer_conv_77_split
I0729 16:18:41.231783 25077 net.cpp:84] Creating Layer score78_slicer_conv_77_split
I0729 16:18:41.231791 25077 net.cpp:406] score78_slicer_conv_77_split <- score78
I0729 16:18:41.231801 25077 net.cpp:380] score78_slicer_conv_77_split -> score78_slicer_conv_77_split_0
I0729 16:18:41.231814 25077 net.cpp:380] score78_slicer_conv_77_split -> score78_slicer_conv_77_split_1
I0729 16:18:41.231927 25077 net.cpp:122] Setting up score78_slicer_conv_77_split
I0729 16:18:41.231945 25077 net.cpp:129] Top shape: 1 1 48 64 (3072)
I0729 16:18:41.231954 25077 net.cpp:129] Top shape: 1 1 48 64 (3072)
I0729 16:18:41.231961 25077 net.cpp:137] Memory required for data: 498167808
I0729 16:18:41.231969 25077 layer_factory.hpp:77] Creating layer score79_slicer_conv_78_split
I0729 16:18:41.231981 25077 net.cpp:84] Creating Layer score79_slicer_conv_78_split
I0729 16:18:41.231993 25077 net.cpp:406] score79_slicer_conv_78_split <- score79
I0729 16:18:41.232005 25077 net.cpp:380] score79_slicer_conv_78_split -> score79_slicer_conv_78_split_0
I0729 16:18:41.232018 25077 net.cpp:380] score79_slicer_conv_78_split -> score79_slicer_conv_78_split_1
I0729 16:18:41.232120 25077 net.cpp:122] Setting up score79_slicer_conv_78_split
I0729 16:18:41.232136 25077 net.cpp:129] Top shape: 1 1 48 64 (3072)
I0729 16:18:41.232144 25077 net.cpp:129] Top shape: 1 1 48 64 (3072)
I0729 16:18:41.232151 25077 net.cpp:137] Memory required for data: 498192384
I0729 16:18:41.232159 25077 layer_factory.hpp:77] Creating layer score80_slicer_conv_79_split
I0729 16:18:41.232168 25077 net.cpp:84] Creating Layer score80_slicer_conv_79_split
I0729 16:18:41.232177 25077 net.cpp:406] score80_slicer_conv_79_split <- score80
I0729 16:18:41.232187 25077 net.cpp:380] score80_slicer_conv_79_split -> score80_slicer_conv_79_split_0
I0729 16:18:41.232197 25077 net.cpp:380] score80_slicer_conv_79_split -> score80_slicer_conv_79_split_1
I0729 16:18:41.232297 25077 net.cpp:122] Setting up score80_slicer_conv_79_split
I0729 16:18:41.232313 25077 net.cpp:129] Top shape: 1 1 48 64 (3072)
I0729 16:18:41.232321 25077 net.cpp:129] Top shape: 1 1 48 64 (3072)
I0729 16:18:41.232329 25077 net.cpp:137] Memory required for data: 498216960
I0729 16:18:41.232336 25077 layer_factory.hpp:77] Creating layer score81_slicer_conv_80_split
I0729 16:18:41.232347 25077 net.cpp:84] Creating Layer score81_slicer_conv_80_split
I0729 16:18:41.232358 25077 net.cpp:406] score81_slicer_conv_80_split <- score81
I0729 16:18:41.232369 25077 net.cpp:380] score81_slicer_conv_80_split -> score81_slicer_conv_80_split_0
I0729 16:18:41.232380 25077 net.cpp:380] score81_slicer_conv_80_split -> score81_slicer_conv_80_split_1
I0729 16:18:41.232478 25077 net.cpp:122] Setting up score81_slicer_conv_80_split
I0729 16:18:41.232493 25077 net.cpp:129] Top shape: 1 1 48 64 (3072)
I0729 16:18:41.232501 25077 net.cpp:129] Top shape: 1 1 48 64 (3072)
I0729 16:18:41.232508 25077 net.cpp:137] Memory required for data: 498241536
I0729 16:18:41.232517 25077 layer_factory.hpp:77] Creating layer score82_slicer_conv_81_split
I0729 16:18:41.232527 25077 net.cpp:84] Creating Layer score82_slicer_conv_81_split
I0729 16:18:41.232548 25077 net.cpp:406] score82_slicer_conv_81_split <- score82
I0729 16:18:41.232558 25077 net.cpp:380] score82_slicer_conv_81_split -> score82_slicer_conv_81_split_0
I0729 16:18:41.232570 25077 net.cpp:380] score82_slicer_conv_81_split -> score82_slicer_conv_81_split_1
I0729 16:18:41.232671 25077 net.cpp:122] Setting up score82_slicer_conv_81_split
I0729 16:18:41.232686 25077 net.cpp:129] Top shape: 1 1 48 64 (3072)
I0729 16:18:41.232693 25077 net.cpp:129] Top shape: 1 1 48 64 (3072)
I0729 16:18:41.232702 25077 net.cpp:137] Memory required for data: 498266112
I0729 16:18:41.232714 25077 layer_factory.hpp:77] Creating layer score83_slicer_conv_82_split
I0729 16:18:41.232724 25077 net.cpp:84] Creating Layer score83_slicer_conv_82_split
I0729 16:18:41.232733 25077 net.cpp:406] score83_slicer_conv_82_split <- score83
I0729 16:18:41.232743 25077 net.cpp:380] score83_slicer_conv_82_split -> score83_slicer_conv_82_split_0
I0729 16:18:41.232754 25077 net.cpp:380] score83_slicer_conv_82_split -> score83_slicer_conv_82_split_1
I0729 16:18:41.232868 25077 net.cpp:122] Setting up score83_slicer_conv_82_split
I0729 16:18:41.232887 25077 net.cpp:129] Top shape: 1 1 48 64 (3072)
I0729 16:18:41.232897 25077 net.cpp:129] Top shape: 1 1 48 64 (3072)
I0729 16:18:41.232903 25077 net.cpp:137] Memory required for data: 498290688
I0729 16:18:41.232915 25077 layer_factory.hpp:77] Creating layer score84_slicer_conv_83_split
I0729 16:18:41.232928 25077 net.cpp:84] Creating Layer score84_slicer_conv_83_split
I0729 16:18:41.232940 25077 net.cpp:406] score84_slicer_conv_83_split <- score84
I0729 16:18:41.232950 25077 net.cpp:380] score84_slicer_conv_83_split -> score84_slicer_conv_83_split_0
I0729 16:18:41.232964 25077 net.cpp:380] score84_slicer_conv_83_split -> score84_slicer_conv_83_split_1
I0729 16:18:41.233063 25077 net.cpp:122] Setting up score84_slicer_conv_83_split
I0729 16:18:41.233079 25077 net.cpp:129] Top shape: 1 1 48 64 (3072)
I0729 16:18:41.233088 25077 net.cpp:129] Top shape: 1 1 48 64 (3072)
I0729 16:18:41.233095 25077 net.cpp:137] Memory required for data: 498315264
I0729 16:18:41.233103 25077 layer_factory.hpp:77] Creating layer score85_slicer_conv_84_split
I0729 16:18:41.233113 25077 net.cpp:84] Creating Layer score85_slicer_conv_84_split
I0729 16:18:41.233120 25077 net.cpp:406] score85_slicer_conv_84_split <- score85
I0729 16:18:41.233129 25077 net.cpp:380] score85_slicer_conv_84_split -> score85_slicer_conv_84_split_0
I0729 16:18:41.233141 25077 net.cpp:380] score85_slicer_conv_84_split -> score85_slicer_conv_84_split_1
I0729 16:18:41.233259 25077 net.cpp:122] Setting up score85_slicer_conv_84_split
I0729 16:18:41.233278 25077 net.cpp:129] Top shape: 1 1 48 64 (3072)
I0729 16:18:41.233288 25077 net.cpp:129] Top shape: 1 1 48 64 (3072)
I0729 16:18:41.233294 25077 net.cpp:137] Memory required for data: 498339840
I0729 16:18:41.233301 25077 layer_factory.hpp:77] Creating layer score86_slicer_conv_85_split
I0729 16:18:41.233352 25077 net.cpp:84] Creating Layer score86_slicer_conv_85_split
I0729 16:18:41.233363 25077 net.cpp:406] score86_slicer_conv_85_split <- score86
I0729 16:18:41.233373 25077 net.cpp:380] score86_slicer_conv_85_split -> score86_slicer_conv_85_split_0
I0729 16:18:41.233391 25077 net.cpp:380] score86_slicer_conv_85_split -> score86_slicer_conv_85_split_1
I0729 16:18:41.233497 25077 net.cpp:122] Setting up score86_slicer_conv_85_split
I0729 16:18:41.233513 25077 net.cpp:129] Top shape: 1 1 48 64 (3072)
I0729 16:18:41.233521 25077 net.cpp:129] Top shape: 1 1 48 64 (3072)
I0729 16:18:41.233528 25077 net.cpp:137] Memory required for data: 498364416
I0729 16:18:41.233536 25077 layer_factory.hpp:77] Creating layer score87_slicer_conv_86_split
I0729 16:18:41.233546 25077 net.cpp:84] Creating Layer score87_slicer_conv_86_split
I0729 16:18:41.233554 25077 net.cpp:406] score87_slicer_conv_86_split <- score87
I0729 16:18:41.233564 25077 net.cpp:380] score87_slicer_conv_86_split -> score87_slicer_conv_86_split_0
I0729 16:18:41.233577 25077 net.cpp:380] score87_slicer_conv_86_split -> score87_slicer_conv_86_split_1
I0729 16:18:41.233692 25077 net.cpp:122] Setting up score87_slicer_conv_86_split
I0729 16:18:41.233708 25077 net.cpp:129] Top shape: 1 1 48 64 (3072)
I0729 16:18:41.233716 25077 net.cpp:129] Top shape: 1 1 48 64 (3072)
I0729 16:18:41.233723 25077 net.cpp:137] Memory required for data: 498388992
I0729 16:18:41.233731 25077 layer_factory.hpp:77] Creating layer score88_slicer_conv_87_split
I0729 16:18:41.233741 25077 net.cpp:84] Creating Layer score88_slicer_conv_87_split
I0729 16:18:41.233748 25077 net.cpp:406] score88_slicer_conv_87_split <- score88
I0729 16:18:41.233759 25077 net.cpp:380] score88_slicer_conv_87_split -> score88_slicer_conv_87_split_0
I0729 16:18:41.233770 25077 net.cpp:380] score88_slicer_conv_87_split -> score88_slicer_conv_87_split_1
I0729 16:18:41.233868 25077 net.cpp:122] Setting up score88_slicer_conv_87_split
I0729 16:18:41.233883 25077 net.cpp:129] Top shape: 1 1 48 64 (3072)
I0729 16:18:41.233892 25077 net.cpp:129] Top shape: 1 1 48 64 (3072)
I0729 16:18:41.233899 25077 net.cpp:137] Memory required for data: 498413568
I0729 16:18:41.233908 25077 layer_factory.hpp:77] Creating layer score89_slicer_conv_88_split
I0729 16:18:41.233918 25077 net.cpp:84] Creating Layer score89_slicer_conv_88_split
I0729 16:18:41.233927 25077 net.cpp:406] score89_slicer_conv_88_split <- score89
I0729 16:18:41.233935 25077 net.cpp:380] score89_slicer_conv_88_split -> score89_slicer_conv_88_split_0
I0729 16:18:41.233948 25077 net.cpp:380] score89_slicer_conv_88_split -> score89_slicer_conv_88_split_1
I0729 16:18:41.234053 25077 net.cpp:122] Setting up score89_slicer_conv_88_split
I0729 16:18:41.234072 25077 net.cpp:129] Top shape: 1 1 48 64 (3072)
I0729 16:18:41.234083 25077 net.cpp:129] Top shape: 1 1 48 64 (3072)
I0729 16:18:41.234093 25077 net.cpp:137] Memory required for data: 498438144
I0729 16:18:41.234107 25077 layer_factory.hpp:77] Creating layer score90_slicer_conv_89_split
I0729 16:18:41.234117 25077 net.cpp:84] Creating Layer score90_slicer_conv_89_split
I0729 16:18:41.234125 25077 net.cpp:406] score90_slicer_conv_89_split <- score90
I0729 16:18:41.234138 25077 net.cpp:380] score90_slicer_conv_89_split -> score90_slicer_conv_89_split_0
I0729 16:18:41.234150 25077 net.cpp:380] score90_slicer_conv_89_split -> score90_slicer_conv_89_split_1
I0729 16:18:41.234251 25077 net.cpp:122] Setting up score90_slicer_conv_89_split
I0729 16:18:41.234266 25077 net.cpp:129] Top shape: 1 1 48 64 (3072)
I0729 16:18:41.234274 25077 net.cpp:129] Top shape: 1 1 48 64 (3072)
I0729 16:18:41.234282 25077 net.cpp:137] Memory required for data: 498462720
I0729 16:18:41.234293 25077 layer_factory.hpp:77] Creating layer score91_slicer_conv_90_split
I0729 16:18:41.234305 25077 net.cpp:84] Creating Layer score91_slicer_conv_90_split
I0729 16:18:41.234313 25077 net.cpp:406] score91_slicer_conv_90_split <- score91
I0729 16:18:41.234323 25077 net.cpp:380] score91_slicer_conv_90_split -> score91_slicer_conv_90_split_0
I0729 16:18:41.234335 25077 net.cpp:380] score91_slicer_conv_90_split -> score91_slicer_conv_90_split_1
I0729 16:18:41.234447 25077 net.cpp:122] Setting up score91_slicer_conv_90_split
I0729 16:18:41.234465 25077 net.cpp:129] Top shape: 1 1 48 64 (3072)
I0729 16:18:41.234474 25077 net.cpp:129] Top shape: 1 1 48 64 (3072)
I0729 16:18:41.234482 25077 net.cpp:137] Memory required for data: 498487296
I0729 16:18:41.234489 25077 layer_factory.hpp:77] Creating layer score92_slicer_conv_91_split
I0729 16:18:41.234500 25077 net.cpp:84] Creating Layer score92_slicer_conv_91_split
I0729 16:18:41.234513 25077 net.cpp:406] score92_slicer_conv_91_split <- score92
I0729 16:18:41.234524 25077 net.cpp:380] score92_slicer_conv_91_split -> score92_slicer_conv_91_split_0
I0729 16:18:41.234539 25077 net.cpp:380] score92_slicer_conv_91_split -> score92_slicer_conv_91_split_1
I0729 16:18:41.234640 25077 net.cpp:122] Setting up score92_slicer_conv_91_split
I0729 16:18:41.234657 25077 net.cpp:129] Top shape: 1 1 48 64 (3072)
I0729 16:18:41.234665 25077 net.cpp:129] Top shape: 1 1 48 64 (3072)
…
I0729 16:18:41.342072 25077 net.cpp:129] Top shape: 1 1 48 64 (3072)
I0729 16:18:41.342113 25077 net.cpp:129] Top shape: 1 1 48 64 (3072)
I0729 16:18:41.342152 25077 net.cpp:129] Top shape: 1 1 48 64 (3072)
I0729 16:18:41.342191 25077 net.cpp:129] Top shape: 1 1 48 64 (3072)
I0729 16:18:41.342231 25077 net.cpp:129] Top shape: 1 1 48 64 (3072)
I0729 16:18:41.342269 25077 net.cpp:129] Top shape: 1 1 48 64 (3072)
I0729 16:18:41.342309 25077 net.cpp:129] Top shape: 1 1 48 64 (3072)
I0729 16:18:41.342348 25077 net.cpp:129] Top shape: 1 1 48 64 (3072)
I0729 16:18:41.342387 25077 net.cpp:129] Top shape: 1 1 48 64 (3072)
I0729 16:18:41.342427 25077 net.cpp:129] Top shape: 1 1 48 64 (3072)
I0729 16:18:41.342466 25077 net.cpp:129] Top shape: 1 1 48 64 (3072)
I0729 16:18:41.342509 25077 net.cpp:129] Top shape: 1 1 48 64 (3072)
I0729 16:18:41.342547 25077 net.cpp:129] Top shape: 1 1 48 64 (3072)
I0729 16:18:41.342587 25077 net.cpp:129] Top shape: 1 1 48 64 (3072)
I0729 16:18:41.342628 25077 net.cpp:129] Top shape: 1 1 48 64 (3072)
I0729 16:18:41.342666 25077 net.cpp:129] Top shape: 1 1 48 64 (3072)
I0729 16:18:41.342706 25077 net.cpp:129] Top shape: 1 1 48 64 (3072)
I0729 16:18:41.342746 25077 net.cpp:129] Top shape: 1 1 48 64 (3072)
I0729 16:18:41.342784 25077 net.cpp:129] Top shape: 1 1 48 64 (3072)
I0729 16:18:41.342823 25077 net.cpp:129] Top shape: 1 1 48 64 (3072)
I0729 16:18:41.342864 25077 net.cpp:129] Top shape: 1 1 48 64 (3072)
I0729 16:18:41.342902 25077 net.cpp:129] Top shape: 1 1 48 64 (3072)
I0729 16:18:41.342942 25077 net.cpp:129] Top shape: 1 1 48 64 (3072)
I0729 16:18:41.342995 25077 net.cpp:129] Top shape: 1 1 48 64 (3072)
I0729 16:18:41.343036 25077 net.cpp:129] Top shape: 1 1 48 64 (3072)
I0729 16:18:41.343075 25077 net.cpp:129] Top shape: 1 1 48 64 (3072)
I0729 16:18:41.343116 25077 net.cpp:129] Top shape: 1 1 48 64 (3072)
I0729 16:18:41.343154 25077 net.cpp:129] Top shape: 1 1 48 64 (3072)
I0729 16:18:41.343194 25077 net.cpp:129] Top shape: 1 1 48 64 (3072)
I0729 16:18:41.343233 25077 net.cpp:129] Top shape: 1 1 48 64 (3072)
I0729 16:18:41.343273 25077 net.cpp:129] Top shape: 1 1 48 64 (3072)
I0729 16:18:41.343312 25077 net.cpp:129] Top shape: 1 1 48 64 (3072)
I0729 16:18:41.343351 25077 net.cpp:129] Top shape: 1 1 48 64 (3072)
I0729 16:18:41.343390 25077 net.cpp:129] Top shape: 1 1 48 64 (3072)
I0729 16:18:41.343430 25077 net.cpp:129] Top shape: 1 1 48 64 (3072)
I0729 16:18:41.343469 25077 net.cpp:129] Top shape: 1 1 48 64 (3072)
I0729 16:18:41.343509 25077 net.cpp:129] Top shape: 1 1 48 64 (3072)
I0729 16:18:41.343549 25077 net.cpp:129] Top shape: 1 1 48 64 (3072)
I0729 16:18:41.343588 25077 net.cpp:129] Top shape: 1 1 48 64 (3072)
I0729 16:18:41.343627 25077 net.cpp:129] Top shape: 1 1 48 64 (3072)
I0729 16:18:41.343667 25077 net.cpp:129] Top shape: 1 1 48 64 (3072)
I0729 16:18:41.343706 25077 net.cpp:129] Top shape: 1 1 48 64 (3072)
I0729 16:18:41.343746 25077 net.cpp:129] Top shape: 1 1 48 64 (3072)
I0729 16:18:41.343786 25077 net.cpp:129] Top shape: 1 1 48 64 (3072)
I0729 16:18:41.343824 25077 net.cpp:129] Top shape: 1 1 48 64 (3072)
I0729 16:18:41.343864 25077 net.cpp:129] Top shape: 1 1 48 64 (3072)
I0729 16:18:41.343904 25077 net.cpp:129] Top shape: 1 1 48 64 (3072)
I0729 16:18:41.343943 25077 net.cpp:129] Top shape: 1 1 48 64 (3072)
I0729 16:18:41.343982 25077 net.cpp:129] Top shape: 1 1 48 64 (3072)
I0729 16:18:41.344022 25077 net.cpp:129] Top shape: 1 1 48 64 (3072)
I0729 16:18:41.344068 25077 net.cpp:129] Top shape: 1 1 48 64 (3072)
I0729 16:18:41.344082 25077 net.cpp:129] Top shape: 1 1 48 64 (3072)
I0729 16:18:41.344099 25077 net.cpp:129] Top shape: 1 1 48 64 (3072)
I0729 16:18:41.344108 25077 net.cpp:129] Top shape: 1 1 48 64 (3072)
I0729 16:18:41.344118 25077 net.cpp:129] Top shape: 1 1 48 64 (3072)
I0729 16:18:41.344130 25077 net.cpp:129] Top shape: 1 1 48 64 (3072)
I0729 16:18:41.344138 25077 net.cpp:129] Top shape: 1 1 48 64 (3072)
I0729 16:18:41.344151 25077 net.cpp:129] Top shape: 1 1 48 64 (3072)
I0729 16:18:41.344161 25077 net.cpp:129] Top shape: 1 1 48 64 (3072)
I0729 16:18:41.344172 25077 net.cpp:129] Top shape: 1 1 48 64 (3072)
I0729 16:18:41.344180 25077 net.cpp:129] Top shape: 1 1 48 64 (3072)
I0729 16:18:41.344192 25077 net.cpp:129] Top shape: 1 1 48 64 (3072)
I0729 16:18:41.344202 25077 net.cpp:129] Top shape: 1 1 48 64 (3072)
I0729 16:18:41.344213 25077 net.cpp:129] Top shape: 1 1 48 64 (3072)
I0729 16:18:41.344221 25077 net.cpp:129] Top shape: 1 1 48 64 (3072)
I0729 16:18:41.344233 25077 net.cpp:129] Top shape: 1 1 48 64 (3072)
I0729 16:18:41.344241 25077 net.cpp:129] Top shape: 1 1 48 64 (3072)
I0729 16:18:41.344252 25077 net.cpp:129] Top shape: 1 1 48 64 (3072)
I0729 16:18:41.344261 25077 net.cpp:129] Top shape: 1 1 48 64 (3072)
I0729 16:18:41.344272 25077 net.cpp:129] Top shape: 1 1 48 64 (3072)
I0729 16:18:41.344282 25077 net.cpp:129] Top shape: 1 1 48 64 (3072)
I0729 16:18:41.344291 25077 net.cpp:129] Top shape: 1 1 48 64 (3072)
I0729 16:18:41.344300 25077 net.cpp:129] Top shape: 1 1 48 64 (3072)
I0729 16:18:41.344310 25077 net.cpp:129] Top shape: 1 1 48 64 (3072)
I0729 16:18:41.344321 25077 net.cpp:129] Top shape: 1 1 48 64 (3072)
I0729 16:18:41.344332 25077 net.cpp:129] Top shape: 1 1 48 64 (3072)
I0729 16:18:41.344342 25077 net.cpp:129] Top shape: 1 1 48 64 (3072)
I0729 16:18:41.344353 25077 net.cpp:129] Top shape: 1 1 48 64 (3072)
I0729 16:18:41.344363 25077 net.cpp:129] Top shape: 1 1 48 64 (3072)
I0729 16:18:41.344377 25077 net.cpp:129] Top shape: 1 1 48 64 (3072)
I0729 16:18:41.344389 25077 net.cpp:129] Top shape: 1 1 48 64 (3072)
I0729 16:18:41.344403 25077 net.cpp:129] Top shape: 1 1 48 64 (3072)
I0729 16:18:41.344427 25077 net.cpp:129] Top shape: 1 1 48 64 (3072)
I0729 16:18:41.344439 25077 net.cpp:129] Top shape: 1 1 48 64 (3072)
I0729 16:18:41.344449 25077 net.cpp:129] Top shape: 1 1 48 64 (3072)
I0729 16:18:41.344456 25077 net.cpp:129] Top shape: 1 1 48 64 (3072)
I0729 16:18:41.344465 25077 net.cpp:129] Top shape: 1 1 48 64 (3072)
I0729 16:18:41.344473 25077 net.cpp:129] Top shape: 1 1 48 64 (3072)
I0729 16:18:41.344482 25077 net.cpp:129] Top shape: 1 1 48 64 (3072)
I0729 16:18:41.344491 25077 net.cpp:129] Top shape: 1 1 48 64 (3072)
I0729 16:18:41.344499 25077 net.cpp:129] Top shape: 1 1 48 64 (3072)
I0729 16:18:41.344507 25077 net.cpp:129] Top shape: 1 1 48 64 (3072)
I0729 16:18:41.344516 25077 net.cpp:129] Top shape: 1 1 48 64 (3072)
I0729 16:18:41.344524 25077 net.cpp:129] Top shape: 1 1 48 64 (3072)
I0729 16:18:41.344533 25077 net.cpp:129] Top shape: 1 1 48 64 (3072)
I0729 16:18:41.344542 25077 net.cpp:129] Top shape: 1 1 48 64 (3072)
I0729 16:18:41.344553 25077 net.cpp:129] Top shape: 1 1 48 64 (3072)
I0729 16:18:41.344558 25077 net.cpp:137] Memory required for data: 505700352
I0729 16:18:41.344568 25077 layer_factory.hpp:77] Creating layer loss1
I0729 16:18:41.344583 25077 net.cpp:84] Creating Layer loss1
I0729 16:18:41.344591 25077 net.cpp:406] loss1 <- score1_slicer_conv_0_split_1
I0729 16:18:41.344602 25077 net.cpp:406] loss1 <- label_label_0_split_0
I0729 16:18:41.344609 25077 net.cpp:406] loss1 <- sumscore_sumscore_0_split_0
…
  top: "score228"
  top: "score229"
  top: "score230"
  top: "score231"
  top: "score232"
  top: "score233"
  top: "score234"
  top: "score235"
  top: "score236"
  top: "score237"
  top: "score238"
  top: "score239"
  top: "score240"
  top: "score241"
  top: "score242"
  top: "score243"
  top: "score244"
  top: "score245"
  top: "score246"
  top: "score247"
  top: "score248"
  top: "score249"
  top: "score250"
  top: "score251"
  top: "score252"
  top: "score253"
  top: "score254"
  top: "score255"
  top: "score256"
  slice_param {
    axis: 1
  }
}
layer {
  name: "sumscore"
  type: "Eltwise"
  bottom: "score1"
  bottom: "score2"
  bottom: "score3"
  bottom: "score4"
  bottom: "score5"
  bottom: "score6"
  bottom: "score7"
  bottom: "score8"
  bottom: "score9"
  bottom: "score10"
  bottom: "score11"
  bottom: "score12"
  bottom: "score13"
  bottom: "score14"
  bottom: "score15"
  bottom: "score16"
  bottom: "score17"
  bottom: "score18"
  bottom: "score19"
  bottom: "score20"
  bottom: "score21"
  bottom: "score22"
  bottom: "score23"
  bottom: "score24"
  bottom: "score25"
  bottom: "score26"
  bottom: "score27"
  bottom: "score28"
  bottom: "score29"
  bottom: "score30"
  bottom: "score31"
  bottom: "score32"
  bottom: "score33"
  bottom: "score34"
  bottom: "score35"
  bottom: "score36"
  bottom: "score37"
  bottom: "score38"
  bottom: "score39"
  bottom: "score40"
  bottom: "score41"
  bottom: "score42"
  bottom: "score43"
  bottom: "score44"
  bottom: "score45"
  bottom: "score46"
  bottom: "score47"
  bottom: "score48"
  bottom: "score49"
  bottom: "score50"
  bottom: "score51"
  bottom: "score52"
  bottom: "score53"
  bottom: "score54"
  bottom: "score55"
  bottom: "score56"
  bottom: "score57"
  bottom: "score58"
  bottom: "score59"
  bottom: "score60"
  bottom: "score61"
  bottom: "score62"
  bottom: "score63"
  bottom: "score64"
  bottom: "score65"
  bottom: "score66"
  bottom: "score67"
  bottom: "score68"
  bottom: "score69"
  bottom: "score70"
  bottom: "score71"
  bottom: "score72"
  bottom: "score73"
  bottom: "score74"
  bottom: "score75"
  bottom: "score76"
  bottom: "score77"
  bottom: "score78"
  bottom: "score79"
  bottom: "score80"
  bottom: "score81"
  bottom: "score82"
  bottom: "score83"
  bottom: "score84"
  bottom: "score85"
  bottom: "score86"
  bottom: "score87"
  bottom: "score88"
  bottom: "score89"
  bottom: "score90"
  bottom: "score91"
  bottom: "score92"
  bottom: "score93"
  bottom: "score94"
  bottom: "score95"
  bottom: "score96"
  bottom: "score97"
  bottom: "score98"
  bottom: "score99"
  bottom: "score100"
  bottom: "score101"
  bottom: "score102"
  bottom: "score103"
  bottom: "score104"
  bottom: "score105"
  bottom: "score106"
  bottom: "score107"
  bottom: "score108"
  bottom: "score109"
  bottom: "score110"
  bottom: "score111"
  bottom: "score112"
  bottom: "score113"
  bottom: "score114"
  bottom: "score115"
  bottom: "score116"
  bottom: "score117"
  bottom: "score118"
  bottom: "score119"
  bottom: "score120"
  bottom: "score121"
  bottom: "score122"
  bottom: "score123"
  bottom: "score124"
  bottom: "score125"
  bottom: "score126"
  bottom: "score127"
  bottom: "score128"
  bottom: "score129"
  bottom: "score130"
  bottom: "score131"
  bottom: "score132"
  bottom: "score133"
  bottom: "score134"
  bottom: "score135"
  bottom: "score136"
  bottom: "score137"
  bottom: "score138"
  bottom: "score139"
  bottom: "score140"
  bottom: "score141"
  bottom: "score142"
  bottom: "score143"
  bottom: "score144"
  bottom: "score145"
  bottom: "score146"
  bottom: "score147"
  bottom: "score148"
  bottom: "score149"
  bottom: "score150"
  bottom: "score151"
  bottom: "score152"
  bottom: "score153"
  bottom: "score154"
  bottom: "score155"
  bottom: "score156"
  bottom: "score157"
  bottom: "score158"
  bottom: "score159"
  bottom: "score160"
  bottom: "score161"
  bottom: "score162"
  bottom: "score163"
  bottom: "score164"
  bottom: "score165"
  bottom: "score166"
  bottom: "score167"
  bottom: "score168"
  bottom: "score169"
  bottom: "score170"
  bottom: "score171"
  bottom: "score172"
  bottom: "score173"
  bottom: "score174"
  bottom: "score175"
  bottom: "score176"
  bottom: "score177"
  bottom: "score178"
  bottom: "score179"
  bottom: "score180"
  bottom: "score181"
  bottom: "score182"
  bottom: "score183"
  bottom: "score184"
  bottom: "score185"
  bottom: "score186"
  bottom: "score187"
  bottom: "score188"
  bottom: "score189"
  bottom: "score190"
  bottom: "score191"
  bottom: "score192"
  bottom: "score193"
  bottom: "score194"
  bottom: "score195"
  bottom: "score196"
  bottom: "score197"
  bottom: "score198"
  bottom: "score199"
  bottom: "score200"
  bottom: "score201"
  bottom: "score202"
  bottom: "score203"
  bottom: "score204"
  bottom: "score205"
  bottom: "score206"
  bottom: "score207"
  bottom: "score208"
  bottom: "score209"
  bottom: "score210"
  bottom: "score211"
  bottom: "score212"
  bottom: "score213"
  bottom: "score214"
  bottom: "score215"
  bottom: "score216"
  bottom: "score217"
  bottom: "score218"
  bottom: "score219"
  bottom: "score220"
  bottom: "score221"
  bottom: "score222"
  bottom: "score223"
  bottom: "score224"
  bottom: "score225"
  bottom: "score226"
  bottom: "score227"
  bottom: "score228"
  bottom: "score229"
  bottom: "score230"
  bottom: "score231"
  bottom: "score232"
  bottom: "score233"
  bottom: "score234"
  bottom: "score235"
  bottom: "score236"
  bottom: "score237"
  bottom: "score238"
  bottom: "score239"
  bottom: "score240"
  bottom: "score241"
  bottom: "score242"
  bottom: "score243"
  bottom: "score244"
  bottom: "score245"
  bottom: "score246"
  bottom: "score247"
  bottom: "score248"
  bottom: "score249"
  bottom: "score250"
  bottom: "score251"
  bottom: "score252"
  bottom: "score253"
  bottom: "score254"
  bottom: "score255"
  bottom: "score256"
  top: "sumscore"
  eltwise_param {
    operation: SUM
  }
}
layer {
  name: "avgscore"
  type: "Power"
  bottom: "sumscore"
  top: "avgscore"
  include {
    phase: TEST
  }
  power_param {
    power: 1
    scale: 0.00390625
    shift: 0
  }
}
layer {
  name: "mae"
  type: "MAELoss"
  bottom: "avgscore"
  bottom: "label"
  top: "mae"
  include {
    phase: TEST
  }
}
layer {
  name: "mse"
  type: "MSELoss"
  bottom: "avgscore"
  bottom: "label"
  top: "mse"
  include {
    phase: TEST
  }
}
I0729 16:18:41.490550 25077 layer_factory.hpp:77] Creating layer data
I0729 16:18:41.490618 25077 db_lmdb.cpp:35] Opened lmdb /home/peiyong/Work/Zenglin/szl/ShanghaiTech/partA/test_8/image_lmdb
I0729 16:18:41.491818 25077 net.cpp:84] Creating Layer data
I0729 16:18:41.491832 25077 net.cpp:380] data -> data
I0729 16:18:41.493214 25077 data_layer.cpp:45] output data size: 1,3,704,1024
I0729 16:18:41.510469 25077 net.cpp:122] Setting up data
I0729 16:18:41.510495 25077 net.cpp:129] Top shape: 1 3 704 1024 (2162688)
I0729 16:18:41.510500 25077 net.cpp:137] Memory required for data: 8650752
I0729 16:18:41.510506 25077 layer_factory.hpp:77] Creating layer label
I0729 16:18:41.510562 25077 db_lmdb.cpp:35] Opened lmdb /home/peiyong/Work/Zenglin/szl/ShanghaiTech/partA/test_8/dmap_lmdb
I0729 16:18:41.510588 25077 net.cpp:84] Creating Layer label
I0729 16:18:41.510596 25077 net.cpp:380] label -> label
I0729 16:18:41.510730 25077 data_layer.cpp:45] output data size: 1,1,88,128
I0729 16:18:41.510942 25077 net.cpp:122] Setting up label
I0729 16:18:41.510956 25077 net.cpp:129] Top shape: 1 1 88 128 (11264)
I0729 16:18:41.510962 25077 net.cpp:137] Memory required for data: 8695808
I0729 16:18:41.510968 25077 layer_factory.hpp:77] Creating layer label_label_0_split
I0729 16:18:41.510980 25077 net.cpp:84] Creating Layer label_label_0_split
I0729 16:18:41.510987 25077 net.cpp:406] label_label_0_split <- label
I0729 16:18:41.510998 25077 net.cpp:380] label_label_0_split -> label_label_0_split_0
I0729 16:18:41.511009 25077 net.cpp:380] label_label_0_split -> label_label_0_split_1
I0729 16:18:41.511098 25077 net.cpp:122] Setting up label_label_0_split
I0729 16:18:41.511111 25077 net.cpp:129] Top shape: 1 1 88 128 (11264)
I0729 16:18:41.511117 25077 net.cpp:129] Top shape: 1 1 88 128 (11264)
I0729 16:18:41.511122 25077 net.cpp:137] Memory required for data: 8785920
I0729 16:18:41.511128 25077 layer_factory.hpp:77] Creating layer conv1_1
I0729 16:18:41.511143 25077 net.cpp:84] Creating Layer conv1_1
I0729 16:18:41.511149 25077 net.cpp:406] conv1_1 <- data
I0729 16:18:41.511158 25077 net.cpp:380] conv1_1 -> conv1_1
I0729 16:18:41.515017 25077 net.cpp:122] Setting up conv1_1
I0729 16:18:41.515039 25077 net.cpp:129] Top shape: 1 64 704 1024 (46137344)
I0729 16:18:41.515045 25077 net.cpp:137] Memory required for data: 193335296
I0729 16:18:41.515060 25077 layer_factory.hpp:77] Creating layer relu1_1
I0729 16:18:41.515072 25077 net.cpp:84] Creating Layer relu1_1
I0729 16:18:41.515079 25077 net.cpp:406] relu1_1 <- conv1_1
I0729 16:18:41.515086 25077 net.cpp:367] relu1_1 -> conv1_1 (in-place)
I0729 16:18:41.515288 25077 net.cpp:122] Setting up relu1_1
I0729 16:18:41.515300 25077 net.cpp:129] Top shape: 1 64 704 1024 (46137344)
I0729 16:18:41.515305 25077 net.cpp:137] Memory required for data: 377884672
I0729 16:18:41.515311 25077 layer_factory.hpp:77] Creating layer conv1_2
I0729 16:18:41.515324 25077 net.cpp:84] Creating Layer conv1_2
I0729 16:18:41.515329 25077 net.cpp:406] conv1_2 <- conv1_1
I0729 16:18:41.515337 25077 net.cpp:380] conv1_2 -> conv1_2
I0729 16:18:41.523439 25077 net.cpp:122] Setting up conv1_2
I0729 16:18:41.523468 25077 net.cpp:129] Top shape: 1 64 704 1024 (46137344)
I0729 16:18:41.523475 25077 net.cpp:137] Memory required for data: 562434048
I0729 16:18:41.523494 25077 layer_factory.hpp:77] Creating layer relu1_2
I0729 16:18:41.523507 25077 net.cpp:84] Creating Layer relu1_2
I0729 16:18:41.523515 25077 net.cpp:406] relu1_2 <- conv1_2
I0729 16:18:41.523525 25077 net.cpp:367] relu1_2 -> conv1_2 (in-place)
I0729 16:18:41.524286 25077 net.cpp:122] Setting up relu1_2
I0729 16:18:41.524299 25077 net.cpp:129] Top shape: 1 64 704 1024 (46137344)
I0729 16:18:41.524303 25077 net.cpp:137] Memory required for data: 746983424
I0729 16:18:41.524307 25077 layer_factory.hpp:77] Creating layer pool1
I0729 16:18:41.524315 25077 net.cpp:84] Creating Layer pool1
I0729 16:18:41.524318 25077 net.cpp:406] pool1 <- conv1_2
I0729 16:18:41.524324 25077 net.cpp:380] pool1 -> pool1
I0729 16:18:41.524385 25077 net.cpp:122] Setting up pool1
I0729 16:18:41.524392 25077 net.cpp:129] Top shape: 1 64 352 512 (11534336)
I0729 16:18:41.524395 25077 net.cpp:137] Memory required for data: 793120768
I0729 16:18:41.524399 25077 layer_factory.hpp:77] Creating layer conv2_1
I0729 16:18:41.524412 25077 net.cpp:84] Creating Layer conv2_1
I0729 16:18:41.524416 25077 net.cpp:406] conv2_1 <- pool1
I0729 16:18:41.524421 25077 net.cpp:380] conv2_1 -> conv2_1
I0729 16:18:41.527674 25077 net.cpp:122] Setting up conv2_1
I0729 16:18:41.527698 25077 net.cpp:129] Top shape: 1 128 352 512 (23068672)
I0729 16:18:41.527704 25077 net.cpp:137] Memory required for data: 885395456
I0729 16:18:41.527717 25077 layer_factory.hpp:77] Creating layer relu2_1
I0729 16:18:41.527727 25077 net.cpp:84] Creating Layer relu2_1
I0729 16:18:41.527732 25077 net.cpp:406] relu2_1 <- conv2_1
I0729 16:18:41.527739 25077 net.cpp:367] relu2_1 -> conv2_1 (in-place)
I0729 16:18:41.527899 25077 net.cpp:122] Setting up relu2_1
I0729 16:18:41.527907 25077 net.cpp:129] Top shape: 1 128 352 512 (23068672)
I0729 16:18:41.527910 25077 net.cpp:137] Memory required for data: 977670144
I0729 16:18:41.527915 25077 layer_factory.hpp:77] Creating layer conv2_2
I0729 16:18:41.527925 25077 net.cpp:84] Creating Layer conv2_2
I0729 16:18:41.527930 25077 net.cpp:406] conv2_2 <- conv2_1
I0729 16:18:41.527935 25077 net.cpp:380] conv2_2 -> conv2_2
I0729 16:18:41.533977 25077 net.cpp:122] Setting up conv2_2
I0729 16:18:41.533998 25077 net.cpp:129] Top shape: 1 128 352 512 (23068672)
I0729 16:18:41.534016 25077 net.cpp:137] Memory required for data: 1069944832
I0729 16:18:41.534042 25077 layer_factory.hpp:77] Creating layer relu2_2
I0729 16:18:41.534087 25077 net.cpp:84] Creating Layer relu2_2
I0729 16:18:41.534103 25077 net.cpp:406] relu2_2 <- conv2_2
I0729 16:18:41.534117 25077 net.cpp:367] relu2_2 -> conv2_2 (in-place)
I0729 16:18:41.534438 25077 net.cpp:122] Setting up relu2_2
I0729 16:18:41.534463 25077 net.cpp:129] Top shape: 1 128 352 512 (23068672)
I0729 16:18:41.534477 25077 net.cpp:137] Memory required for data: 1162219520
I0729 16:18:41.534492 25077 layer_factory.hpp:77] Creating layer pool2
I0729 16:18:41.534510 25077 net.cpp:84] Creating Layer pool2
I0729 16:18:41.534523 25077 net.cpp:406] pool2 <- conv2_2
I0729 16:18:41.534539 25077 net.cpp:380] pool2 -> pool2
I0729 16:18:41.536201 25077 net.cpp:122] Setting up pool2
I0729 16:18:41.536218 25077 net.cpp:129] Top shape: 1 128 176 256 (5767168)
I0729 16:18:41.536226 25077 net.cpp:137] Memory required for data: 1185288192
I0729 16:18:41.536232 25077 layer_factory.hpp:77] Creating layer conv3_1
I0729 16:18:41.536247 25077 net.cpp:84] Creating Layer conv3_1
I0729 16:18:41.536255 25077 net.cpp:406] conv3_1 <- pool2
I0729 16:18:41.536265 25077 net.cpp:380] conv3_1 -> conv3_1
I0729 16:18:41.544067 25077 net.cpp:122] Setting up conv3_1
I0729 16:18:41.544101 25077 net.cpp:129] Top shape: 1 256 176 256 (11534336)
I0729 16:18:41.544116 25077 net.cpp:137] Memory required for data: 1231425536
I0729 16:18:41.544134 25077 layer_factory.hpp:77] Creating layer relu3_1
I0729 16:18:41.544149 25077 net.cpp:84] Creating Layer relu3_1
I0729 16:18:41.544158 25077 net.cpp:406] relu3_1 <- conv3_1
I0729 16:18:41.544169 25077 net.cpp:367] relu3_1 -> conv3_1 (in-place)
I0729 16:18:41.546422 25077 net.cpp:122] Setting up relu3_1
I0729 16:18:41.546444 25077 net.cpp:129] Top shape: 1 256 176 256 (11534336)
I0729 16:18:41.546455 25077 net.cpp:137] Memory required for data: 1277562880
I0729 16:18:41.546464 25077 layer_factory.hpp:77] Creating layer conv3_2
I0729 16:18:41.546481 25077 net.cpp:84] Creating Layer conv3_2
I0729 16:18:41.546491 25077 net.cpp:406] conv3_2 <- conv3_1
I0729 16:18:41.546507 25077 net.cpp:380] conv3_2 -> conv3_2
I0729 16:18:41.561663 25077 net.cpp:122] Setting up conv3_2
I0729 16:18:41.561687 25077 net.cpp:129] Top shape: 1 256 176 256 (11534336)
I0729 16:18:41.561692 25077 net.cpp:137] Memory required for data: 1323700224
I0729 16:18:41.561702 25077 layer_factory.hpp:77] Creating layer relu3_2
I0729 16:18:41.561713 25077 net.cpp:84] Creating Layer relu3_2
I0729 16:18:41.561719 25077 net.cpp:406] relu3_2 <- conv3_2
I0729 16:18:41.561727 25077 net.cpp:367] relu3_2 -> conv3_2 (in-place)
I0729 16:18:41.561887 25077 net.cpp:122] Setting up relu3_2
I0729 16:18:41.561897 25077 net.cpp:129] Top shape: 1 256 176 256 (11534336)
I0729 16:18:41.561900 25077 net.cpp:137] Memory required for data: 1369837568
I0729 16:18:41.561905 25077 layer_factory.hpp:77] Creating layer conv3_3
I0729 16:18:41.561915 25077 net.cpp:84] Creating Layer conv3_3
I0729 16:18:41.561919 25077 net.cpp:406] conv3_3 <- conv3_2
I0729 16:18:41.561926 25077 net.cpp:380] conv3_3 -> conv3_3
I0729 16:18:41.570871 25077 net.cpp:122] Setting up conv3_3
I0729 16:18:41.570896 25077 net.cpp:129] Top shape: 1 256 176 256 (11534336)
I0729 16:18:41.570902 25077 net.cpp:137] Memory required for data: 1415974912
I0729 16:18:41.570912 25077 layer_factory.hpp:77] Creating layer relu3_3
I0729 16:18:41.570921 25077 net.cpp:84] Creating Layer relu3_3
I0729 16:18:41.570927 25077 net.cpp:406] relu3_3 <- conv3_3
I0729 16:18:41.570935 25077 net.cpp:367] relu3_3 -> conv3_3 (in-place)
I0729 16:18:41.571130 25077 net.cpp:122] Setting up relu3_3
I0729 16:18:41.571142 25077 net.cpp:129] Top shape: 1 256 176 256 (11534336)
I0729 16:18:41.571146 25077 net.cpp:137] Memory required for data: 1462112256
I0729 16:18:41.571151 25077 layer_factory.hpp:77] Creating layer pool3
I0729 16:18:41.571161 25077 net.cpp:84] Creating Layer pool3
I0729 16:18:41.571166 25077 net.cpp:406] pool3 <- conv3_3
I0729 16:18:41.571172 25077 net.cpp:380] pool3 -> pool3
I0729 16:18:41.571221 25077 net.cpp:122] Setting up pool3
I0729 16:18:41.571274 25077 net.cpp:129] Top shape: 1 256 88 128 (2883584)
I0729 16:18:41.571280 25077 net.cpp:137] Memory required for data: 1473646592
I0729 16:18:41.571285 25077 layer_factory.hpp:77] Creating layer conv4_1
I0729 16:18:41.571297 25077 net.cpp:84] Creating Layer conv4_1
I0729 16:18:41.571302 25077 net.cpp:406] conv4_1 <- pool3
I0729 16:18:41.571310 25077 net.cpp:380] conv4_1 -> conv4_1
I0729 16:18:41.588584 25077 net.cpp:122] Setting up conv4_1
I0729 16:18:41.588613 25077 net.cpp:129] Top shape: 1 512 88 128 (5767168)
I0729 16:18:41.588619 25077 net.cpp:137] Memory required for data: 1496715264
I0729 16:18:41.588631 25077 layer_factory.hpp:77] Creating layer relu4_1
I0729 16:18:41.588644 25077 net.cpp:84] Creating Layer relu4_1
I0729 16:18:41.588649 25077 net.cpp:406] relu4_1 <- conv4_1
I0729 16:18:41.588659 25077 net.cpp:367] relu4_1 -> conv4_1 (in-place)
I0729 16:18:41.589292 25077 net.cpp:122] Setting up relu4_1
I0729 16:18:41.589310 25077 net.cpp:129] Top shape: 1 512 88 128 (5767168)
I0729 16:18:41.589316 25077 net.cpp:137] Memory required for data: 1519783936
I0729 16:18:41.589323 25077 layer_factory.hpp:77] Creating layer conv4_2
I0729 16:18:41.589335 25077 net.cpp:84] Creating Layer conv4_2
I0729 16:18:41.589340 25077 net.cpp:406] conv4_2 <- conv4_1
I0729 16:18:41.589349 25077 net.cpp:380] conv4_2 -> conv4_2
I0729 16:18:41.624888 25077 net.cpp:122] Setting up conv4_2
I0729 16:18:41.624982 25077 net.cpp:129] Top shape: 1 512 88 128 (5767168)
I0729 16:18:41.625027 25077 net.cpp:137] Memory required for data: 1542852608
I0729 16:18:41.625083 25077 layer_factory.hpp:77] Creating layer relu4_2
I0729 16:18:41.625135 25077 net.cpp:84] Creating Layer relu4_2
I0729 16:18:41.625180 25077 net.cpp:406] relu4_2 <- conv4_2
I0729 16:18:41.625226 25077 net.cpp:367] relu4_2 -> conv4_2 (in-place)
I0729 16:18:41.625494 25077 net.cpp:122] Setting up relu4_2
I0729 16:18:41.625553 25077 net.cpp:129] Top shape: 1 512 88 128 (5767168)
I0729 16:18:41.625597 25077 net.cpp:137] Memory required for data: 1565921280
I0729 16:18:41.625640 25077 layer_factory.hpp:77] Creating layer conv4_3
I0729 16:18:41.625691 25077 net.cpp:84] Creating Layer conv4_3
I0729 16:18:41.625736 25077 net.cpp:406] conv4_3 <- conv4_2
I0729 16:18:41.625784 25077 net.cpp:380] conv4_3 -> conv4_3
I0729 16:18:41.672900 25077 net.cpp:122] Setting up conv4_3
I0729 16:18:41.672999 25077 net.cpp:129] Top shape: 1 512 88 128 (5767168)
I0729 16:18:41.673045 25077 net.cpp:137] Memory required for data: 1588989952
I0729 16:18:41.673095 25077 layer_factory.hpp:77] Creating layer relu4_3
I0729 16:18:41.673146 25077 net.cpp:84] Creating Layer relu4_3
I0729 16:18:41.673192 25077 net.cpp:406] relu4_3 <- conv4_3
I0729 16:18:41.673239 25077 net.cpp:367] relu4_3 -> conv4_3 (in-place)
I0729 16:18:41.673503 25077 net.cpp:122] Setting up relu4_3
I0729 16:18:41.673563 25077 net.cpp:129] Top shape: 1 512 88 128 (5767168)
I0729 16:18:41.673607 25077 net.cpp:137] Memory required for data: 1612058624
I0729 16:18:41.673650 25077 layer_factory.hpp:77] Creating layer pool4
I0729 16:18:41.673697 25077 net.cpp:84] Creating Layer pool4
I0729 16:18:41.673741 25077 net.cpp:406] pool4 <- conv4_3
I0729 16:18:41.673787 25077 net.cpp:380] pool4 -> pool4
I0729 16:18:41.673885 25077 net.cpp:122] Setting up pool4
I0729 16:18:41.673938 25077 net.cpp:129] Top shape: 1 512 88 128 (5767168)
I0729 16:18:41.673980 25077 net.cpp:137] Memory required for data: 1635127296
I0729 16:18:41.674022 25077 layer_factory.hpp:77] Creating layer conv5_1
I0729 16:18:41.674075 25077 net.cpp:84] Creating Layer conv5_1
I0729 16:18:41.674120 25077 net.cpp:406] conv5_1 <- pool4
I0729 16:18:41.674167 25077 net.cpp:380] conv5_1 -> conv5_1
I0729 16:18:41.708348 25077 net.cpp:122] Setting up conv5_1
I0729 16:18:41.708377 25077 net.cpp:129] Top shape: 1 512 88 128 (5767168)
I0729 16:18:41.708384 25077 net.cpp:137] Memory required for data: 1658195968
I0729 16:18:41.708395 25077 layer_factory.hpp:77] Creating layer relu5_1
I0729 16:18:41.708407 25077 net.cpp:84] Creating Layer relu5_1
I0729 16:18:41.708413 25077 net.cpp:406] relu5_1 <- conv5_1
I0729 16:18:41.708545 25077 net.cpp:367] relu5_1 -> conv5_1 (in-place)
I0729 16:18:41.709412 25077 net.cpp:122] Setting up relu5_1
I0729 16:18:41.709429 25077 net.cpp:129] Top shape: 1 512 88 128 (5767168)
I0729 16:18:41.709434 25077 net.cpp:137] Memory required for data: 1681264640
I0729 16:18:41.709439 25077 layer_factory.hpp:77] Creating layer conv5_2
I0729 16:18:41.709452 25077 net.cpp:84] Creating Layer conv5_2
I0729 16:18:41.709458 25077 net.cpp:406] conv5_2 <- conv5_1
I0729 16:18:41.709467 25077 net.cpp:380] conv5_2 -> conv5_2
I0729 16:18:41.739655 25077 net.cpp:122] Setting up conv5_2
I0729 16:18:41.739687 25077 net.cpp:129] Top shape: 1 512 88 128 (5767168)
I0729 16:18:41.739711 25077 net.cpp:137] Memory required for data: 1704333312
I0729 16:18:41.739728 25077 layer_factory.hpp:77] Creating layer relu5_2
I0729 16:18:41.739742 25077 net.cpp:84] Creating Layer relu5_2
I0729 16:18:41.739758 25077 net.cpp:406] relu5_2 <- conv5_2
I0729 16:18:41.739773 25077 net.cpp:367] relu5_2 -> conv5_2 (in-place)
I0729 16:18:41.740746 25077 net.cpp:122] Setting up relu5_2
I0729 16:18:41.740772 25077 net.cpp:129] Top shape: 1 512 88 128 (5767168)
I0729 16:18:41.740782 25077 net.cpp:137] Memory required for data: 1727401984
I0729 16:18:41.740800 25077 layer_factory.hpp:77] Creating layer conv5_3
I0729 16:18:41.740820 25077 net.cpp:84] Creating Layer conv5_3
I0729 16:18:41.740833 25077 net.cpp:406] conv5_3 <- conv5_2
I0729 16:18:41.740849 25077 net.cpp:380] conv5_3 -> conv5_3
I0729 16:18:41.790474 25077 net.cpp:122] Setting up conv5_3
I0729 16:18:41.790587 25077 net.cpp:129] Top shape: 1 512 88 128 (5767168)
I0729 16:18:41.790647 25077 net.cpp:137] Memory required for data: 1750470656
I0729 16:18:41.790710 25077 layer_factory.hpp:77] Creating layer relu5_3
I0729 16:18:41.790781 25077 net.cpp:84] Creating Layer relu5_3
I0729 16:18:41.790840 25077 net.cpp:406] relu5_3 <- conv5_3
I0729 16:18:41.790900 25077 net.cpp:367] relu5_3 -> conv5_3 (in-place)
I0729 16:18:41.791235 25077 net.cpp:122] Setting up relu5_3
I0729 16:18:41.791307 25077 net.cpp:129] Top shape: 1 512 88 128 (5767168)
I0729 16:18:41.791363 25077 net.cpp:137] Memory required for data: 1773539328
I0729 16:18:41.791417 25077 layer_factory.hpp:77] Creating layer conv_score
I0729 16:18:41.791482 25077 net.cpp:84] Creating Layer conv_score
I0729 16:18:41.791538 25077 net.cpp:406] conv_score <- conv5_3
I0729 16:18:41.791597 25077 net.cpp:380] conv_score -> conv_score
I0729 16:18:42.222786 25077 net.cpp:122] Setting up conv_score
I0729 16:18:42.222893 25077 net.cpp:129] Top shape: 1 256 88 128 (2883584)
I0729 16:18:42.222935 25077 net.cpp:137] Memory required for data: 1785073664
I0729 16:18:42.222982 25077 layer_factory.hpp:77] Creating layer relu_score
I0729 16:18:42.223031 25077 net.cpp:84] Creating Layer relu_score
I0729 16:18:42.223071 25077 net.cpp:406] relu_score <- conv_score
I0729 16:18:42.223117 25077 net.cpp:367] relu_score -> conv_score (in-place)
I0729 16:18:42.223377 25077 net.cpp:122] Setting up relu_score
I0729 16:18:42.223392 25077 net.cpp:129] Top shape: 1 256 88 128 (2883584)
I0729 16:18:42.223395 25077 net.cpp:137] Memory required for data: 1796608000
I0729 16:18:42.223400 25077 layer_factory.hpp:77] Creating layer slicer_conv
I0729 16:18:42.223433 25077 net.cpp:84] Creating Layer slicer_conv
I0729 16:18:42.223438 25077 net.cpp:406] slicer_conv <- conv_score
I0729 16:18:42.223465 25077 net.cpp:380] slicer_conv -> score1
I0729 16:18:42.223498 25077 net.cpp:380] slicer_conv -> score2
…
I0729 16:18:42.239909 25077 net.cpp:380] slicer_conv -> score249
I0729 16:18:42.239979 25077 net.cpp:380] slicer_conv -> score250
I0729 16:18:42.240049 25077 net.cpp:380] slicer_conv -> score251
I0729 16:18:42.240118 25077 net.cpp:380] slicer_conv -> score252
I0729 16:18:42.240187 25077 net.cpp:380] slicer_conv -> score253
I0729 16:18:42.240257 25077 net.cpp:380] slicer_conv -> score254
I0729 16:18:42.240325 25077 net.cpp:380] slicer_conv -> score255
I0729 16:18:42.240394 25077 net.cpp:380] slicer_conv -> score256
I0729 16:18:42.256327 25077 net.cpp:122] Setting up slicer_conv
I0729 16:18:42.256356 25077 net.cpp:129] Top shape: 1 1 88 128 (11264)
I0729 16:18:42.256364 25077 net.cpp:129] Top shape: 1 1 88 128 (11264)
I0729 16:18:42.256371 25077 net.cpp:129] Top shape: 1 1 88 128 (11264)
I0729 16:18:42.256378 25077 net.cpp:129] Top shape: 1 1 88 128 (11264)
I0729 16:18:42.256384 25077 net.cpp:129] Top shape: 1 1 88 128 (11264)
I0729 16:18:42.256391 25077 net.cpp:129] Top shape: 1 1 88 128 (11264)
I0729 16:18:42.256397 25077 net.cpp:129] Top shape: 1 1 88 128 (11264)
I0729 16:18:42.256422 25077 net.cpp:129] Top shape: 1 1 88 128 (11264)
I0729 16:18:42.256430 25077 net.cpp:129] Top shape: 1 1 88 128 (11264)
I0729 16:18:42.256436 25077 net.cpp:129] Top shape: 1 1 88 128 (11264)
I0729 16:18:42.256443 25077 net.cpp:129] Top shape: 1 1 88 128 (11264)
I0729 16:18:42.256449 25077 net.cpp:129] Top shape: 1 1 88 128 (11264)
I0729 16:18:42.256455 25077 net.cpp:129] Top shape: 1 1 88 128 (11264)
I0729 16:18:42.256463 25077 net.cpp:129] Top shape: 1 1 88 128 (11264)
I0729 16:18:42.256469 25077 net.cpp:129] Top shape: 1 1 88 128 (11264)
I0729 16:18:42.256474 25077 net.cpp:129] Top shape: 1 1 88 128 (11264)
I0729 16:18:42.256480 25077 net.cpp:129] Top shape: 1 1 88 128 (11264)
I0729 16:18:42.256486 25077 net.cpp:129] Top shape: 1 1 88 128 (11264)
I0729 16:18:42.256494 25077 net.cpp:129] Top shape: 1 1 88 128 (11264)
I0729 16:18:42.256500 25077 net.cpp:129] Top shape: 1 1 88 128 (11264)
I0729 16:18:42.256505 25077 net.cpp:129] Top shape: 1 1 88 128 (11264)
I0729 16:18:42.256512 25077 net.cpp:129] Top shape: 1 1 88 128 (11264)
I0729 16:18:42.256518 25077 net.cpp:129] Top shape: 1 1 88 128 (11264)
I0729 16:18:42.256525 25077 net.cpp:129] Top shape: 1 1 88 128 (11264)
I0729 16:18:42.256531 25077 net.cpp:129] Top shape: 1 1 88 128 (11264)
I0729 16:18:42.256537 25077 net.cpp:129] Top shape: 1 1 88 128 (11264)
I0729 16:18:42.256543 25077 net.cpp:129] Top shape: 1 1 88 128 (11264)
I0729 16:18:42.256551 25077 net.cpp:129] Top shape: 1 1 88 128 (11264)
I0729 16:18:42.256557 25077 net.cpp:129] Top shape: 1 1 88 128 (11264)
I0729 16:18:42.256563 25077 net.cpp:129] Top shape: 1 1 88 128 (11264)
I0729 16:18:42.256569 25077 net.cpp:129] Top shape: 1 1 88 128 (11264)
I0729 16:18:42.256577 25077 net.cpp:129] Top shape: 1 1 88 128 (11264)
I0729 16:18:42.256582 25077 net.cpp:129] Top shape: 1 1 88 128 (11264)
I0729 16:18:42.256588 25077 net.cpp:129] Top shape: 1 1 88 128 (11264)
I0729 16:18:42.256594 25077 net.cpp:129] Top shape: 1 1 88 128 (11264)
I0729 16:18:42.256600 25077 net.cpp:129] Top shape: 1 1 88 128 (11264)
I0729 16:18:42.256608 25077 net.cpp:129] Top shape: 1 1 88 128 (11264)
I0729 16:18:42.256613 25077 net.cpp:129] Top shape: 1 1 88 128 (11264)
I0729 16:18:42.256619 25077 net.cpp:129] Top shape: 1 1 88 128 (11264)
I0729 16:18:42.256625 25077 net.cpp:129] Top shape: 1 1 88 128 (11264)
I0729 16:18:42.256633 25077 net.cpp:129] Top shape: 1 1 88 128 (11264)
I0729 16:18:42.256639 25077 net.cpp:129] Top shape: 1 1 88 128 (11264)
I0729 16:18:42.256645 25077 net.cpp:129] Top shape: 1 1 88 128 (11264)
I0729 16:18:42.256651 25077 net.cpp:129] Top shape: 1 1 88 128 (11264)
I0729 16:18:42.256657 25077 net.cpp:129] Top shape: 1 1 88 128 (11264)
I0729 16:18:42.256664 25077 net.cpp:129] Top shape: 1 1 88 128 (11264)
I0729 16:18:42.256670 25077 net.cpp:129] Top shape: 1 1 88 128 (11264)
I0729 16:18:42.256676 25077 net.cpp:129] Top shape: 1 1 88 128 (11264)
I0729 16:18:42.256682 25077 net.cpp:129] Top shape: 1 1 88 128 (11264)
I0729 16:18:42.256690 25077 net.cpp:129] Top shape: 1 1 88 128 (11264)
I0729 16:18:42.256695 25077 net.cpp:129] Top shape: 1 1 88 128 (11264)
I0729 16:18:42.256701 25077 net.cpp:129] Top shape: 1 1 88 128 (11264)
I0729 16:18:42.256708 25077 net.cpp:129] Top shape: 1 1 88 128 (11264)
I0729 16:18:42.256714 25077 net.cpp:129] Top shape: 1 1 88 128 (11264)
I0729 16:18:42.256721 25077 net.cpp:129] Top shape: 1 1 88 128 (11264)
I0729 16:18:42.256727 25077 net.cpp:129] Top shape: 1 1 88 128 (11264)
I0729 16:18:42.256733 25077 net.cpp:129] Top shape: 1 1 88 128 (11264)
I0729 16:18:42.256741 25077 net.cpp:129] Top shape: 1 1 88 128 (11264)
I0729 16:18:42.256747 25077 net.cpp:129] Top shape: 1 1 88 128 (11264)
I0729 16:18:42.256753 25077 net.cpp:129] Top shape: 1 1 88 128 (11264)
I0729 16:18:42.256759 25077 net.cpp:129] Top shape: 1 1 88 128 (11264)
I0729 16:18:42.256765 25077 net.cpp:129] Top shape: 1 1 88 128 (11264)
I0729 16:18:42.256772 25077 net.cpp:129] Top shape: 1 1 88 128 (11264)
I0729 16:18:42.256778 25077 net.cpp:129] Top shape: 1 1 88 128 (11264)
I0729 16:18:42.256784 25077 net.cpp:129] Top shape: 1 1 88 128 (11264)
I0729 16:18:42.256801 25077 net.cpp:129] Top shape: 1 1 88 128 (11264)
I0729 16:18:42.256808 25077 net.cpp:129] Top shape: 1 1 88 128 (11264)
I0729 16:18:42.256814 25077 net.cpp:129] Top shape: 1 1 88 128 (11264)
I0729 16:18:42.256820 25077 net.cpp:129] Top shape: 1 1 88 128 (11264)
I0729 16:18:42.256826 25077 net.cpp:129] Top shape: 1 1 88 128 (11264)
I0729 16:18:42.256832 25077 net.cpp:129] Top shape: 1 1 88 128 (11264)
I0729 16:18:42.256839 25077 net.cpp:129] Top shape: 1 1 88 128 (11264)
I0729 16:18:42.256845 25077 net.cpp:129] Top shape: 1 1 88 128 (11264)
I0729 16:18:42.256851 25077 net.cpp:129] Top shape: 1 1 88 128 (11264)
I0729 16:18:42.256857 25077 net.cpp:129] Top shape: 1 1 88 128 (11264)
I0729 16:18:42.256863 25077 net.cpp:129] Top shape: 1 1 88 128 (11264)
I0729 16:18:42.256870 25077 net.cpp:129] Top shape: 1 1 88 128 (11264)
I0729 16:18:42.256876 25077 net.cpp:129] Top shape: 1 1 88 128 (11264)
I0729 16:18:42.256883 25077 net.cpp:129] Top shape: 1 1 88 128 (11264)
I0729 16:18:42.256889 25077 net.cpp:129] Top shape: 1 1 88 128 (11264)
I0729 16:18:42.256896 25077 net.cpp:129] Top shape: 1 1 88 128 (11264)
I0729 16:18:42.256901 25077 net.cpp:129] Top shape: 1 1 88 128 (11264)
I0729 16:18:42.256907 25077 net.cpp:129] Top shape: 1 1 88 128 (11264)
I0729 16:18:42.256914 25077 net.cpp:129] Top shape: 1 1 88 128 (11264)
I0729 16:18:42.256920 25077 net.cpp:129] Top shape: 1 1 88 128 (11264)
I0729 16:18:42.256927 25077 net.cpp:129] Top shape: 1 1 88 128 (11264)
I0729 16:18:42.256933 25077 net.cpp:129] Top shape: 1 1 88 128 (11264)
I0729 16:18:42.256939 25077 net.cpp:129] Top shape: 1 1 88 128 (11264)
I0729 16:18:42.256945 25077 net.cpp:129] Top shape: 1 1 88 128 (11264)
I0729 16:18:42.256953 25077 net.cpp:129] Top shape: 1 1 88 128 (11264)
I0729 16:18:42.256958 25077 net.cpp:129] Top shape: 1 1 88 128 (11264)
I0729 16:18:42.256965 25077 net.cpp:129] Top shape: 1 1 88 128 (11264)
I0729 16:18:42.256973 25077 net.cpp:129] Top shape: 1 1 88 128 (11264)
I0729 16:18:42.256978 25077 net.cpp:129] Top shape: 1 1 88 128 (11264)
I0729 16:18:42.256984 25077 net.cpp:129] Top shape: 1 1 88 128 (11264)
I0729 16:18:42.256990 25077 net.cpp:129] Top shape: 1 1 88 128 (11264)
I0729 16:18:42.256996 25077 net.cpp:129] Top shape: 1 1 88 128 (11264)
I0729 16:18:42.257002 25077 net.cpp:129] Top shape: 1 1 88 128 (11264)
I0729 16:18:42.257009 25077 net.cpp:129] Top shape: 1 1 88 128 (11264)
I0729 16:18:42.257015 25077 net.cpp:129] Top shape: 1 1 88 128 (11264)
I0729 16:18:42.257022 25077 net.cpp:129] Top shape: 1 1 88 128 (11264)
I0729 16:18:42.257028 25077 net.cpp:129] Top shape: 1 1 88 128 (11264)
I0729 16:18:42.257035 25077 net.cpp:129] Top shape: 1 1 88 128 (11264)
I0729 16:18:42.257040 25077 net.cpp:129] Top shape: 1 1 88 128 (11264)
I0729 16:18:42.257047 25077 net.cpp:129] Top shape: 1 1 88 128 (11264)
I0729 16:18:42.257053 25077 net.cpp:129] Top shape: 1 1 88 128 (11264)
I0729 16:18:42.257061 25077 net.cpp:129] Top shape: 1 1 88 128 (11264)
I0729 16:18:42.257067 25077 net.cpp:129] Top shape: 1 1 88 128 (11264)
I0729 16:18:42.257073 25077 net.cpp:129] Top shape: 1 1 88 128 (11264)
I0729 16:18:42.257079 25077 net.cpp:129] Top shape: 1 1 88 128 (11264)
I0729 16:18:42.257086 25077 net.cpp:129] Top shape: 1 1 88 128 (11264)
I0729 16:18:42.257092 25077 net.cpp:129] Top shape: 1 1 88 128 (11264)
I0729 16:18:42.257098 25077 net.cpp:129] Top shape: 1 1 88 128 (11264)
I0729 16:18:42.257105 25077 net.cpp:129] Top shape: 1 1 88 128 (11264)
I0729 16:18:42.257112 25077 net.cpp:129] Top shape: 1 1 88 128 (11264)
I0729 16:18:42.257117 25077 net.cpp:129] Top shape: 1 1 88 128 (11264)
I0729 16:18:42.257124 25077 net.cpp:129] Top shape: 1 1 88 128 (11264)
I0729 16:18:42.257130 25077 net.cpp:129] Top shape: 1 1 88 128 (11264)
I0729 16:18:42.257138 25077 net.cpp:129] Top shape: 1 1 88 128 (11264)
I0729 16:18:42.257143 25077 net.cpp:129] Top shape: 1 1 88 128 (11264)
I0729 16:18:42.257150 25077 net.cpp:129] Top shape: 1 1 88 128 (11264)
I0729 16:18:42.257156 25077 net.cpp:129] Top shape: 1 1 88 128 (11264)
I0729 16:18:42.257163 25077 net.cpp:129] Top shape: 1 1 88 128 (11264)
I0729 16:18:42.257177 25077 net.cpp:129] Top shape: 1 1 88 128 (11264)
I0729 16:18:42.257185 25077 net.cpp:129] Top shape: 1 1 88 128 (11264)
I0729 16:18:42.257191 25077 net.cpp:129] Top shape: 1 1 88 128 (11264)
I0729 16:18:42.257197 25077 net.cpp:129] Top shape: 1 1 88 128 (11264)
I0729 16:18:42.257205 25077 net.cpp:129] Top shape: 1 1 88 128 (11264)
I0729 16:18:42.257210 25077 net.cpp:129] Top shape: 1 1 88 128 (11264)
I0729 16:18:42.257216 25077 net.cpp:129] Top shape: 1 1 88 128 (11264)
I0729 16:18:42.257223 25077 net.cpp:129] Top shape: 1 1 88 128 (11264)
I0729 16:18:42.257230 25077 net.cpp:129] Top shape: 1 1 88 128 (11264)
I0729 16:18:42.257236 25077 net.cpp:129] Top shape: 1 1 88 128 (11264)
I0729 16:18:42.257241 25077 net.cpp:129] Top shape: 1 1 88 128 (11264)
I0729 16:18:42.257248 25077 net.cpp:129] Top shape: 1 1 88 128 (11264)
I0729 16:18:42.257254 25077 net.cpp:129] Top shape: 1 1 88 128 (11264)
I0729 16:18:42.257261 25077 net.cpp:129] Top shape: 1 1 88 128 (11264)
I0729 16:18:42.257266 25077 net.cpp:129] Top shape: 1 1 88 128 (11264)
I0729 16:18:42.257272 25077 net.cpp:129] Top shape: 1 1 88 128 (11264)
I0729 16:18:42.257278 25077 net.cpp:129] Top shape: 1 1 88 128 (11264)
I0729 16:18:42.257285 25077 net.cpp:129] Top shape: 1 1 88 128 (11264)
I0729 16:18:42.257292 25077 net.cpp:129] Top shape: 1 1 88 128 (11264)
I0729 16:18:42.257300 25077 net.cpp:129] Top shape: 1 1 88 128 (11264)
I0729 16:18:42.257316 25077 net.cpp:129] Top shape: 1 1 88 128 (11264)
I0729 16:18:42.257325 25077 net.cpp:129] Top shape: 1 1 88 128 (11264)
I0729 16:18:42.257333 25077 net.cpp:129] Top shape: 1 1 88 128 (11264)
I0729 16:18:42.257341 25077 net.cpp:129] Top shape: 1 1 88 128 (11264)
I0729 16:18:42.257350 25077 net.cpp:129] Top shape: 1 1 88 128 (11264)
I0729 16:18:42.257359 25077 net.cpp:129] Top shape: 1 1 88 128 (11264)
I0729 16:18:42.257366 25077 net.cpp:129] Top shape: 1 1 88 128 (11264)
I0729 16:18:42.257375 25077 net.cpp:129] Top shape: 1 1 88 128 (11264)
I0729 16:18:42.257382 25077 net.cpp:129] Top shape: 1 1 88 128 (11264)
I0729 16:18:42.257390 25077 net.cpp:129] Top shape: 1 1 88 128 (11264)
I0729 16:18:42.257398 25077 net.cpp:129] Top shape: 1 1 88 128 (11264)
I0729 16:18:42.257406 25077 net.cpp:129] Top shape: 1 1 88 128 (11264)
I0729 16:18:42.257414 25077 net.cpp:129] Top shape: 1 1 88 128 (11264)
I0729 16:18:42.257422 25077 net.cpp:129] Top shape: 1 1 88 128 (11264)
I0729 16:18:42.257429 25077 net.cpp:129] Top shape: 1 1 88 128 (11264)
I0729 16:18:42.257437 25077 net.cpp:129] Top shape: 1 1 88 128 (11264)
I0729 16:18:42.257446 25077 net.cpp:129] Top shape: 1 1 88 128 (11264)
I0729 16:18:42.257453 25077 net.cpp:129] Top shape: 1 1 88 128 (11264)
I0729 16:18:42.257462 25077 net.cpp:129] Top shape: 1 1 88 128 (11264)
I0729 16:18:42.257469 25077 net.cpp:129] Top shape: 1 1 88 128 (11264)
I0729 16:18:42.257477 25077 net.cpp:129] Top shape: 1 1 88 128 (11264)
I0729 16:18:42.257485 25077 net.cpp:129] Top shape: 1 1 88 128 (11264)
I0729 16:18:42.257493 25077 net.cpp:129] Top shape: 1 1 88 128 (11264)
I0729 16:18:42.257500 25077 net.cpp:129] Top shape: 1 1 88 128 (11264)
I0729 16:18:42.257508 25077 net.cpp:129] Top shape: 1 1 88 128 (11264)
I0729 16:18:42.257516 25077 net.cpp:129] Top shape: 1 1 88 128 (11264)
I0729 16:18:42.257524 25077 net.cpp:129] Top shape: 1 1 88 128 (11264)
I0729 16:18:42.257532 25077 net.cpp:129] Top shape: 1 1 88 128 (11264)
I0729 16:18:42.257540 25077 net.cpp:129] Top shape: 1 1 88 128 (11264)
I0729 16:18:42.257549 25077 net.cpp:129] Top shape: 1 1 88 128 (11264)
I0729 16:18:42.257556 25077 net.cpp:129] Top shape: 1 1 88 128 (11264)
I0729 16:18:42.257563 25077 net.cpp:129] Top shape: 1 1 88 128 (11264)
I0729 16:18:42.257571 25077 net.cpp:129] Top shape: 1 1 88 128 (11264)
I0729 16:18:42.257580 25077 net.cpp:129] Top shape: 1 1 88 128 (11264)
I0729 16:18:42.257587 25077 net.cpp:129] Top shape: 1 1 88 128 (11264)
I0729 16:18:42.257596 25077 net.cpp:129] Top shape: 1 1 88 128 (11264)
I0729 16:18:42.257603 25077 net.cpp:129] Top shape: 1 1 88 128 (11264)
I0729 16:18:42.257625 25077 net.cpp:129] Top shape: 1 1 88 128 (11264)
I0729 16:18:42.257634 25077 net.cpp:129] Top shape: 1 1 88 128 (11264)
I0729 16:18:42.257642 25077 net.cpp:129] Top shape: 1 1 88 128 (11264)
I0729 16:18:42.257649 25077 net.cpp:129] Top shape: 1 1 88 128 (11264)
I0729 16:18:42.257658 25077 net.cpp:129] Top shape: 1 1 88 128 (11264)
I0729 16:18:42.257665 25077 net.cpp:129] Top shape: 1 1 88 128 (11264)
I0729 16:18:42.257673 25077 net.cpp:129] Top shape: 1 1 88 128 (11264)
I0729 16:18:42.257683 25077 net.cpp:129] Top shape: 1 1 88 128 (11264)
I0729 16:18:42.257689 25077 net.cpp:129] Top shape: 1 1 88 128 (11264)
I0729 16:18:42.257697 25077 net.cpp:129] Top shape: 1 1 88 128 (11264)
I0729 16:18:42.257705 25077 net.cpp:129] Top shape: 1 1 88 128 (11264)
I0729 16:18:42.257714 25077 net.cpp:129] Top shape: 1 1 88 128 (11264)
I0729 16:18:42.257721 25077 net.cpp:129] Top shape: 1 1 88 128 (11264)
I0729 16:18:42.257730 25077 net.cpp:129] Top shape: 1 1 88 128 (11264)
I0729 16:18:42.257737 25077 net.cpp:129] Top shape: 1 1 88 128 (11264)
I0729 16:18:42.257745 25077 net.cpp:129] Top shape: 1 1 88 128 (11264)
I0729 16:18:42.257753 25077 net.cpp:129] Top shape: 1 1 88 128 (11264)
I0729 16:18:42.257761 25077 net.cpp:129] Top shape: 1 1 88 128 (11264)
I0729 16:18:42.257769 25077 net.cpp:129] Top shape: 1 1 88 128 (11264)
I0729 16:18:42.257776 25077 net.cpp:129] Top shape: 1 1 88 128 (11264)
I0729 16:18:42.257784 25077 net.cpp:129] Top shape: 1 1 88 128 (11264)
I0729 16:18:42.257792 25077 net.cpp:129] Top shape: 1 1 88 128 (11264)
I0729 16:18:42.257800 25077 net.cpp:129] Top shape: 1 1 88 128 (11264)
I0729 16:18:42.257808 25077 net.cpp:129] Top shape: 1 1 88 128 (11264)
I0729 16:18:42.257817 25077 net.cpp:129] Top shape: 1 1 88 128 (11264)
I0729 16:18:42.257824 25077 net.cpp:129] Top shape: 1 1 88 128 (11264)
I0729 16:18:42.257833 25077 net.cpp:129] Top shape: 1 1 88 128 (11264)
I0729 16:18:42.257840 25077 net.cpp:129] Top shape: 1 1 88 128 (11264)
I0729 16:18:42.257848 25077 net.cpp:129] Top shape: 1 1 88 128 (11264)
I0729 16:18:42.257856 25077 net.cpp:129] Top shape: 1 1 88 128 (11264)
I0729 16:18:42.257864 25077 net.cpp:129] Top shape: 1 1 88 128 (11264)
I0729 16:18:42.257872 25077 net.cpp:129] Top shape: 1 1 88 128 (11264)
I0729 16:18:42.257880 25077 net.cpp:129] Top shape: 1 1 88 128 (11264)
I0729 16:18:42.257887 25077 net.cpp:129] Top shape: 1 1 88 128 (11264)
I0729 16:18:42.257895 25077 net.cpp:129] Top shape: 1 1 88 128 (11264)
I0729 16:18:42.257903 25077 net.cpp:129] Top shape: 1 1 88 128 (11264)
I0729 16:18:42.257910 25077 net.cpp:129] Top shape: 1 1 88 128 (11264)
I0729 16:18:42.257918 25077 net.cpp:129] Top shape: 1 1 88 128 (11264)
I0729 16:18:42.257926 25077 net.cpp:129] Top shape: 1 1 88 128 (11264)
I0729 16:18:42.257935 25077 net.cpp:129] Top shape: 1 1 88 128 (11264)
I0729 16:18:42.257941 25077 net.cpp:129] Top shape: 1 1 88 128 (11264)
I0729 16:18:42.257949 25077 net.cpp:129] Top shape: 1 1 88 128 (11264)
I0729 16:18:42.257957 25077 net.cpp:129] Top shape: 1 1 88 128 (11264)
I0729 16:18:42.257966 25077 net.cpp:129] Top shape: 1 1 88 128 (11264)
I0729 16:18:42.257973 25077 net.cpp:129] Top shape: 1 1 88 128 (11264)
I0729 16:18:42.257982 25077 net.cpp:129] Top shape: 1 1 88 128 (11264)
I0729 16:18:42.257988 25077 net.cpp:129] Top shape: 1 1 88 128 (11264)
I0729 16:18:42.257997 25077 net.cpp:129] Top shape: 1 1 88 128 (11264)
I0729 16:18:42.258004 25077 net.cpp:129] Top shape: 1 1 88 128 (11264)
I0729 16:18:42.258013 25077 net.cpp:129] Top shape: 1 1 88 128 (11264)
I0729 16:18:42.258020 25077 net.cpp:129] Top shape: 1 1 88 128 (11264)
I0729 16:18:42.258028 25077 net.cpp:129] Top shape: 1 1 88 128 (11264)
I0729 16:18:42.258036 25077 net.cpp:129] Top shape: 1 1 88 128 (11264)
I0729 16:18:42.258044 25077 net.cpp:129] Top shape: 1 1 88 128 (11264)
I0729 16:18:42.258059 25077 net.cpp:129] Top shape: 1 1 88 128 (11264)
I0729 16:18:42.258069 25077 net.cpp:129] Top shape: 1 1 88 128 (11264)
I0729 16:18:42.258077 25077 net.cpp:129] Top shape: 1 1 88 128 (11264)
I0729 16:18:42.258085 25077 net.cpp:129] Top shape: 1 1 88 128 (11264)
I0729 16:18:42.258106 25077 net.cpp:129] Top shape: 1 1 88 128 (11264)
I0729 16:18:42.258114 25077 net.cpp:129] Top shape: 1 1 88 128 (11264)
I0729 16:18:42.258122 25077 net.cpp:129] Top shape: 1 1 88 128 (11264)
I0729 16:18:42.258131 25077 net.cpp:129] Top shape: 1 1 88 128 (11264)
I0729 16:18:42.258138 25077 net.cpp:129] Top shape: 1 1 88 128 (11264)
I0729 16:18:42.258146 25077 net.cpp:129] Top shape: 1 1 88 128 (11264)
I0729 16:18:42.258153 25077 net.cpp:129] Top shape: 1 1 88 128 (11264)
I0729 16:18:42.258162 25077 net.cpp:129] Top shape: 1 1 88 128 (11264)
I0729 16:18:42.258170 25077 net.cpp:129] Top shape: 1 1 88 128 (11264)
I0729 16:18:42.258177 25077 net.cpp:129] Top shape: 1 1 88 128 (11264)
I0729 16:18:42.258185 25077 net.cpp:129] Top shape: 1 1 88 128 (11264)
I0729 16:18:42.258193 25077 net.cpp:129] Top shape: 1 1 88 128 (11264)
I0729 16:18:42.258201 25077 net.cpp:129] Top shape: 1 1 88 128 (11264)
I0729 16:18:42.258208 25077 net.cpp:129] Top shape: 1 1 88 128 (11264)
I0729 16:18:42.258216 25077 net.cpp:129] Top shape: 1 1 88 128 (11264)
I0729 16:18:42.258224 25077 net.cpp:129] Top shape: 1 1 88 128 (11264)
I0729 16:18:42.258232 25077 net.cpp:129] Top shape: 1 1 88 128 (11264)
I0729 16:18:42.258240 25077 net.cpp:129] Top shape: 1 1 88 128 (11264)
I0729 16:18:42.258246 25077 net.cpp:137] Memory required for data: 1808142336
I0729 16:18:42.258257 25077 layer_factory.hpp:77] Creating layer sumscore
I0729 16:18:42.258306 25077 net.cpp:84] Creating Layer sumscore
I0729 16:18:42.258317 25077 net.cpp:406] sumscore <- score1
I0729 16:18:42.258330 25077 net.cpp:406] sumscore <- score2
I0729 16:18:42.258340 25077 net.cpp:406] sumscore <- score3
…
