…
I0728 14:36:27.300599 30355 net.cpp:51] Initializing net from parameters: 
name: "crowd_counting"
state {
  phase: TRAIN
  level: 0
  stage: ""
}
layer {
  name: "data"
  type: "Data"
  top: "data"
  include {
    phase: TRAIN
  }
  data_param {
    source: "/home/peiyong/Work/Zenglin/szl/ShanghaiTech/partA/train_8/image_lmdb"
    batch_size: 1
    backend: LMDB
  }
}
layer {
  name: "label"
  type: "Data"
  top: "label"
  include {
    phase: TRAIN
  }
  data_param {
    source: "/home/peiyong/Work/Zenglin/szl/ShanghaiTech/partA/train_8/dmap_lmdb"
    batch_size: 1
    backend: LMDB
  }
}
layer {
  name: "conv1_1"
  type: "Convolution"
  bottom: "data"
  top: "conv1_1"
  param {
    lr_mult: 0.1
    decay_mult: 1
  }
  param {
    lr_mult: 0.2
    decay_mult: 0
  }
  convolution_param {
    num_output: 64
    pad: 1
    kernel_size: 3
    weight_filler {
      type: "gaussian"
      std: 0.01
    }
    bias_filler {
      type: "constant"
      value: 0
    }
  }
}
layer {
  name: "relu1_1"
  type: "ReLU"
  bottom: "conv1_1"
  top: "conv1_1"
}
layer {
  name: "conv1_2"
  type: "Convolution"
  bottom: "conv1_1"
  top: "conv1_2"
  param {
    lr_mult: 0.1
    decay_mult: 1
  }
  param {
    lr_mult: 0.2
    decay_mult: 0
  }
  convolution_param {
    num_output: 64
    pad: 1
    kernel_size: 3
    weight_filler {
      type: "gaussian"
      std: 0.01
    }
    bias_filler {
      type: "constant"
      value: 0
    }
  }
}
layer {
  name: "relu1_2"
  type: "ReLU"
  bottom: "conv1_2"
  top: "conv1_2"
}
layer {
  name: "pool1"
  type: "Pooling"
  bottom: "conv1_2"
  top: "pool1"
  pooling_param {
    pool: MAX
    kernel_size: 2
    stride: 2
  }
}
layer {
  name: "conv2_1"
  type: "Convolution"
  bottom: "pool1"
  top: "conv2_1"
  param {
    lr_mult: 0.1
    decay_mult: 1
  }
  param {
    lr_mult: 0.2
    decay_mult: 0
  }
  convolution_param {
    num_output: 128
    pad: 1
    kernel_size: 3
    weight_filler {
      type: "gaussian"
      std: 0.01
    }
    bias_filler {
      type: "constant"
      value: 0
    }
  }
}
layer {
  name: "relu2_1"
  type: "ReLU"
  bottom: "conv2_1"
  top: "conv2_1"
}
layer {
  name: "conv2_2"
  type: "Convolution"
  bottom: "conv2_1"
  top: "conv2_2"
  param {
    lr_mult: 0.1
    decay_mult: 1
  }
  param {
    lr_mult: 0.2
    decay_mult: 0
  }
  convolution_param {
    num_output: 128
    pad: 1
    kernel_size: 3
    weight_filler {
      type: "gaussian"
      std: 0.01
    }
    bias_filler {
      type: "constant"
      value: 0
    }
  }
}
layer {
  name: "relu2_2"
  type: "ReLU"
  bottom: "conv2_2"
  top: "conv2_2"
}
layer {
  name: "pool2"
  type: "Pooling"
  bottom: "conv2_2"
  top: "pool2"
  pooling_param {
    pool: MAX
    kernel_size: 2
    stride: 2
  }
}
layer {
  name: "conv3_1"
  type: "Convolution"
  bottom: "pool2"
  top: "conv3_1"
  param {
    lr_mult: 0.1
    decay_mult: 1
  }
  param {
    lr_mult: 0.2
    decay_mult: 0
  }
  convolution_param {
    num_output: 256
    pad: 1
    kernel_size: 3
    weight_filler {
      type: "gaussian"
      std: 0.01
    }
    bias_filler {
      type: "constant"
      value: 0
    }
  }
}
layer {
  name: "relu3_1"
  type: "ReLU"
  bottom: "conv3_1"
  top: "conv3_1"
}
layer {
  name: "conv3_2"
  type: "Convolution"
  bottom: "conv3_1"
  top: "conv3_2"
  param {
    lr_mult: 0.1
    decay_mult: 1
  }
  param {
    lr_mult: 0.2
    decay_mult: 0
  }
  convolution_param {
    num_output: 256
    pad: 1
    kernel_size: 3
    weight_filler {
      type: "gaussian"
      std: 0.01
    }
    bias_filler {
      type: "constant"
      value: 0
    }
  }
}
layer {
  name: "relu3_2"
  type: "ReLU"
  bottom: "conv3_2"
  top: "conv3_2"
}
layer {
  name: "conv3_3"
  type: "Convolution"
  bottom: "conv3_2"
  top: "conv3_3"
  param {
    lr_mult: 0.1
    decay_mult: 1
  }
  param {
    lr_mult: 0.2
    decay_mult: 0
  }
  convolution_param {
    num_output: 256
    pad: 1
    kernel_size: 3
    weight_filler {
      type: "gaussian"
      std: 0.01
    }
    bias_filler {
      type: "constant"
      value: 0
    }
  }
}
layer {
  name: "relu3_3"
  type: "ReLU"
  bottom: "conv3_3"
  top: "conv3_3"
}
layer {
  name: "pool3"
  type: "Pooling"
  bottom: "conv3_3"
  top: "pool3"
  pooling_param {
    pool: MAX
    kernel_size: 2
    stride: 2
  }
}
layer {
  name: "conv4_1"
  type: "Convolution"
  bottom: "pool3"
  top: "conv4_1"
  param {
    lr_mult: 0.1
    decay_mult: 1
  }
  param {
    lr_mult: 0.2
    decay_mult: 0
  }
  convolution_param {
    num_output: 512
    pad: 1
    kernel_size: 3
    weight_filler {
      type: "gaussian"
      std: 0.01
    }
    bias_filler {
      type: "constant"
      value: 0
    }
  }
}
layer {
  name: "relu4_1"
  type: "ReLU"
  bottom: "conv4_1"
  top: "conv4_1"
}
layer {
  name: "conv4_2"
  type: "Convolution"
  bottom: "conv4_1"
  top: "conv4_2"
  param {
    lr_mult: 0.1
    decay_mult: 1
  }
  param {
    lr_mult: 0.2
    decay_mult: 0
  }
  convolution_param {
    num_output: 512
    pad: 1
    kernel_size: 3
    weight_filler {
      type: "gaussian"
      std: 0.01
    }
    bias_filler {
      type: "constant"
      value: 0
    }
  }
}
layer {
  name: "relu4_2"
  type: "ReLU"
  bottom: "conv4_2"
  top: "conv4_2"
}
layer {
  name: "conv4_3"
  type: "Convolution"
  bottom: "conv4_2"
  top: "conv4_3"
  param {
    lr_mult: 0.1
    decay_mult: 1
  }
  param {
    lr_mult: 0.2
    decay_mult: 0
  }
  convolution_param {
    num_output: 512
    pad: 1
    kernel_size: 3
    weight_filler {
      type: "gaussian"
      std: 0.01
    }
    bias_filler {
      type: "constant"
      value: 0
    }
  }
}
layer {
  name: "relu4_3"
  type: "ReLU"
  bottom: "conv4_3"
  top: "conv4_3"
}
layer {
  name: "pool4"
  type: "Pooling"
  bottom: "conv4_3"
  top: "pool4"
  pooling_param {
    pool: MAX
    kernel_size: 3
    stride: 1
    pad: 1
  }
}
layer {
  name: "conv5_1"
  type: "Convolution"
  bottom: "pool4"
  top: "conv5_1"
  param {
    lr_mult: 0.1
    decay_mult: 1
  }
  param {
    lr_mult: 0.2
    decay_mult: 0
  }
  convolution_param {
    num_output: 512
    pad: 2
    kernel_size: 3
    weight_filler {
      type: "gaussian"
      std: 0.01
    }
    bias_filler {
      type: "constant"
      value: 0
    }
    dilation: 2
  }
}
layer {
  name: "relu5_1"
  type: "ReLU"
  bottom: "conv5_1"
  top: "conv5_1"
}
layer {
  name: "conv5_2"
  type: "Convolution"
  bottom: "conv5_1"
  top: "conv5_2"
  param {
    lr_mult: 0.1
    decay_mult: 1
  }
  param {
    lr_mult: 0.2
    decay_mult: 0
  }
  convolution_param {
    num_output: 512
    pad: 2
    kernel_size: 3
    weight_filler {
      type: "gaussian"
      std: 0.01
    }
    bias_filler {
      type: "constant"
      value: 0
    }
    dilation: 2
  }
}
layer {
  name: "relu5_2"
  type: "ReLU"
  bottom: "conv5_2"
  top: "conv5_2"
}
layer {
  name: "conv5_3"
  type: "Convolution"
  bottom: "conv5_2"
  top: "conv5_3"
  param {
    lr_mult: 0.1
    decay_mult: 1
  }
  param {
    lr_mult: 0.2
    decay_mult: 0
  }
  convolution_param {
    num_output: 512
    pad: 2
    kernel_size: 3
    weight_filler {
      type: "gaussian"
      std: 0.01
    }
    bias_filler {
      type: "constant"
      value: 0
    }
    dilation: 2
  }
}
layer {
  name: "relu5_3"
  type: "ReLU"
  bottom: "conv5_3"
  top: "conv5_3"
}
layer {
  name: "conv_score"
  type: "Convolution"
  bottom: "conv5_3"
  top: "conv_score"
  param {
    lr_mult: 10
    decay_mult: 1
  }
  param {
    lr_mult: 20
    decay_mult: 0
  }
  convolution_param {
    num_output: 16
    pad: 0
    kernel_size: 1
    group: 16
    stride: 1
    weight_filler {
      type: "constant"
      value: 0.0001
    }
    bias_filler {
      type: "constant"
      value: 0
    }
  }
}
layer {
  name: "relu_score"
  type: "ReLU"
  bottom: "conv_score"
  top: "conv_score"
}
layer {
  name: "slicer_conv"
  type: "Slice"
  bottom: "conv_score"
  top: "score1"
  top: "score2"
  top: "score3"
  top: "score4"
  top: "score5"
  top: "score6"
  top: "score7"
  top: "score8"
  top: "score9"
  top: "score10"
  top: "score11"
  top: "score12"
  top: "score13"
  top: "score14"
  top: "score15"
  top: "score16"
  slice_param {
    axis: 1
  }
}
layer {
  name: "sumscore"
  type: "Eltwise"
  bottom: "score1"
  bottom: "score2"
  bottom: "score3"
  bottom: "score4"
  bottom: "score5"
  bottom: "score6"
  bottom: "score7"
  bottom: "score8"
  bottom: "score9"
  bottom: "score10"
  bottom: "score11"
  bottom: "score12"
  bottom: "score13"
  bottom: "score14"
  bottom: "score15"
  bottom: "score16"
  top: "sumscore"
  eltwise_param {
    operation: SUM
  }
}
layer {
  name: "loss1"
  type: "NCLLoss"
  bottom: "score1"
  bottom: "label"
  bottom: "sumscore"
  top: "loss1"
  include {
    phase: TRAIN
  }
  ncl_loss_param {
    lambda: 1.01
    net_num: 16
  }
}
layer {
  name: "loss2"
  type: "NCLLoss"
  bottom: "score2"
  bottom: "label"
  bottom: "sumscore"
  top: "loss2"
  include {
    phase: TRAIN
  }
  ncl_loss_param {
    lambda: 1.01
    net_num: 16
  }
}
layer {
  name: "loss3"
  type: "NCLLoss"
  bottom: "score3"
  bottom: "label"
  bottom: "sumscore"
  top: "loss3"
  include {
    phase: TRAIN
  }
  ncl_loss_param {
    lambda: 1.01
    net_num: 16
  }
}
layer {
  name: "loss4"
  type: "NCLLoss"
  bottom: "score4"
  bottom: "label"
  bottom: "sumscore"
  top: "loss4"
  include {
    phase: TRAIN
  }
  ncl_loss_param {
    lambda: 1.01
    net_num: 16
  }
}
layer {
  name: "loss5"
  type: "NCLLoss"
  bottom: "score5"
  bottom: "label"
  bottom: "sumscore"
  top: "loss5"
  include {
    phase: TRAIN
  }
  ncl_loss_param {
    lambda: 1.01
    net_num: 16
  }
}
layer {
  name: "loss6"
  type: "NCLLoss"
  bottom: "score6"
  bottom: "label"
  bottom: "sumscore"
  top: "loss6"
  include {
    phase: TRAIN
  }
  ncl_loss_param {
    lambda: 1.01
    net_num: 16
  }
}
layer {
  name: "loss7"
  type: "NCLLoss"
  bottom: "score7"
  bottom: "label"
  bottom: "sumscore"
  top: "loss7"
  include {
    phase: TRAIN
  }
  ncl_loss_param {
    lambda: 1.01
    net_num: 16
  }
}
layer {
  name: "loss8"
  type: "NCLLoss"
  bottom: "score8"
  bottom: "label"
  bottom: "sumscore"
  top: "loss8"
  include {
    phase: TRAIN
  }
  ncl_loss_param {
    lambda: 1.01
    net_num: 16
  }
}
layer {
  name: "loss9"
  type: "NCLLoss"
  bottom: "score9"
  bottom: "label"
  bottom: "sumscore"
  top: "loss9"
  include {
    phase: TRAIN
  }
  ncl_loss_param {
    lambda: 1.01
    net_num: 16
  }
}
layer {
  name: "loss10"
  type: "NCLLoss"
  bottom: "score10"
  bottom: "label"
  bottom: "sumscore"
  top: "loss10"
  include {
    phase: TRAIN
  }
  ncl_loss_param {
    lambda: 1.01
    net_num: 16
  }
}
layer {
  name: "loss11"
  type: "NCLLoss"
  bottom: "score11"
  bottom: "label"
  bottom: "sumscore"
  top: "loss11"
  include {
    phase: TRAIN
  }
  ncl_loss_param {
    lambda: 1.01
    net_num: 16
  }
}
layer {
  name: "loss12"
  type: "NCLLoss"
  bottom: "score12"
  bottom: "label"
  bottom: "sumscore"
  top: "loss12"
  include {
    phase: TRAIN
  }
  ncl_loss_param {
    lambda: 1.01
    net_num: 16
  }
}
layer {
  name: "loss13"
  type: "NCLLoss"
  bottom: "score13"
  bottom: "label"
  bottom: "sumscore"
  top: "loss13"
  include {
    phase: TRAIN
  }
  ncl_loss_param {
    lambda: 1.01
    net_num: 16
  }
}
layer {
  name: "loss14"
  type: "NCLLoss"
  bottom: "score14"
  bottom: "label"
  bottom: "sumscore"
  top: "loss14"
  include {
    phase: TRAIN
  }
  ncl_loss_param {
    lambda: 1.01
    net_num: 16
  }
}
layer {
  name: "loss15"
  type: "NCLLoss"
  bottom: "score15"
  bottom: "label"
  bottom: "sumscore"
  top: "loss15"
  include {
    phase: TRAIN
  }
  ncl_loss_param {
    lambda: 1.01
    net_num: 16
  }
}
layer {
  name: "loss16"
  type: "NCLLoss"
  bottom: "score16"
  bottom: "label"
  bottom: "sumscore"
  top: "loss16"
  include {
    phase: TRAIN
  }
  ncl_loss_param {
    lambda: 1.01
    net_num: 16
  }
}
I0728 14:36:27.301340 30355 layer_factory.hpp:77] Creating layer data
I0728 14:36:27.301427 30355 db_lmdb.cpp:35] Opened lmdb /home/peiyong/Work/Zenglin/szl/ShanghaiTech/partA/train_8/image_lmdb
I0728 14:36:27.301467 30355 net.cpp:84] Creating Layer data
I0728 14:36:27.301477 30355 net.cpp:380] data -> data
I0728 14:36:27.302501 30355 data_layer.cpp:45] output data size: 1,3,384,512
I0728 14:36:27.308619 30355 net.cpp:122] Setting up data
I0728 14:36:27.308643 30355 net.cpp:129] Top shape: 1 3 384 512 (589824)
I0728 14:36:27.308648 30355 net.cpp:137] Memory required for data: 2359296
I0728 14:36:27.308657 30355 layer_factory.hpp:77] Creating layer label
I0728 14:36:27.308715 30355 db_lmdb.cpp:35] Opened lmdb /home/peiyong/Work/Zenglin/szl/ShanghaiTech/partA/train_8/dmap_lmdb
I0728 14:36:27.308743 30355 net.cpp:84] Creating Layer label
I0728 14:36:27.308751 30355 net.cpp:380] label -> label
I0728 14:36:27.308846 30355 data_layer.cpp:45] output data size: 1,1,48,64
I0728 14:36:27.309815 30355 net.cpp:122] Setting up label
I0728 14:36:27.309833 30355 net.cpp:129] Top shape: 1 1 48 64 (3072)
I0728 14:36:27.309836 30355 net.cpp:137] Memory required for data: 2371584
I0728 14:36:27.309841 30355 layer_factory.hpp:77] Creating layer label_label_0_split
I0728 14:36:27.309851 30355 net.cpp:84] Creating Layer label_label_0_split
I0728 14:36:27.309857 30355 net.cpp:406] label_label_0_split <- label
I0728 14:36:27.309870 30355 net.cpp:380] label_label_0_split -> label_label_0_split_0
…
I0728 14:36:27.309942 30355 net.cpp:380] label_label_0_split -> label_label_0_split_10
I0728 14:36:27.309949 30355 net.cpp:380] label_label_0_split -> label_label_0_split_11
I0728 14:36:27.309957 30355 net.cpp:380] label_label_0_split -> label_label_0_split_12
I0728 14:36:27.309962 30355 net.cpp:380] label_label_0_split -> label_label_0_split_13
I0728 14:36:27.309969 30355 net.cpp:380] label_label_0_split -> label_label_0_split_14
I0728 14:36:27.309978 30355 net.cpp:380] label_label_0_split -> label_label_0_split_15
I0728 14:36:27.310102 30355 net.cpp:122] Setting up label_label_0_split
I0728 14:36:27.310111 30355 net.cpp:129] Top shape: 1 1 48 64 (3072)
I0728 14:36:27.310114 30355 net.cpp:129] Top shape: 1 1 48 64 (3072)
I0728 14:36:27.310119 30355 net.cpp:129] Top shape: 1 1 48 64 (3072)
I0728 14:36:27.310123 30355 net.cpp:129] Top shape: 1 1 48 64 (3072)
I0728 14:36:27.310127 30355 net.cpp:129] Top shape: 1 1 48 64 (3072)
I0728 14:36:27.310151 30355 net.cpp:129] Top shape: 1 1 48 64 (3072)
I0728 14:36:27.310156 30355 net.cpp:129] Top shape: 1 1 48 64 (3072)
I0728 14:36:27.310160 30355 net.cpp:129] Top shape: 1 1 48 64 (3072)
I0728 14:36:27.310164 30355 net.cpp:129] Top shape: 1 1 48 64 (3072)
I0728 14:36:27.310168 30355 net.cpp:129] Top shape: 1 1 48 64 (3072)
I0728 14:36:27.310173 30355 net.cpp:129] Top shape: 1 1 48 64 (3072)
I0728 14:36:27.310176 30355 net.cpp:129] Top shape: 1 1 48 64 (3072)
I0728 14:36:27.310180 30355 net.cpp:129] Top shape: 1 1 48 64 (3072)
I0728 14:36:27.310184 30355 net.cpp:129] Top shape: 1 1 48 64 (3072)
I0728 14:36:27.310189 30355 net.cpp:129] Top shape: 1 1 48 64 (3072)
I0728 14:36:27.310192 30355 net.cpp:129] Top shape: 1 1 48 64 (3072)
I0728 14:36:27.310195 30355 net.cpp:137] Memory required for data: 2568192
I0728 14:36:27.310199 30355 layer_factory.hpp:77] Creating layer conv1_1
I0728 14:36:27.310214 30355 net.cpp:84] Creating Layer conv1_1
I0728 14:36:27.310219 30355 net.cpp:406] conv1_1 <- data
I0728 14:36:27.310225 30355 net.cpp:380] conv1_1 -> conv1_1
I0728 14:36:27.519551 30355 net.cpp:122] Setting up conv1_1
I0728 14:36:27.519578 30355 net.cpp:129] Top shape: 1 64 384 512 (12582912)
I0728 14:36:27.519583 30355 net.cpp:137] Memory required for data: 52899840
I0728 14:36:27.519605 30355 layer_factory.hpp:77] Creating layer relu1_1
I0728 14:36:27.519619 30355 net.cpp:84] Creating Layer relu1_1
I0728 14:36:27.519625 30355 net.cpp:406] relu1_1 <- conv1_1
I0728 14:36:27.519631 30355 net.cpp:367] relu1_1 -> conv1_1 (in-place)
I0728 14:36:27.519778 30355 net.cpp:122] Setting up relu1_1
I0728 14:36:27.519786 30355 net.cpp:129] Top shape: 1 64 384 512 (12582912)
I0728 14:36:27.519790 30355 net.cpp:137] Memory required for data: 103231488
I0728 14:36:27.519794 30355 layer_factory.hpp:77] Creating layer conv1_2
I0728 14:36:27.519806 30355 net.cpp:84] Creating Layer conv1_2
I0728 14:36:27.519810 30355 net.cpp:406] conv1_2 <- conv1_1
I0728 14:36:27.519816 30355 net.cpp:380] conv1_2 -> conv1_2
I0728 14:36:27.522789 30355 net.cpp:122] Setting up conv1_2
I0728 14:36:27.522806 30355 net.cpp:129] Top shape: 1 64 384 512 (12582912)
I0728 14:36:27.522812 30355 net.cpp:137] Memory required for data: 153563136
I0728 14:36:27.522825 30355 layer_factory.hpp:77] Creating layer relu1_2
I0728 14:36:27.522835 30355 net.cpp:84] Creating Layer relu1_2
I0728 14:36:27.522840 30355 net.cpp:406] relu1_2 <- conv1_2
I0728 14:36:27.522850 30355 net.cpp:367] relu1_2 -> conv1_2 (in-place)
I0728 14:36:27.523027 30355 net.cpp:122] Setting up relu1_2
I0728 14:36:27.523038 30355 net.cpp:129] Top shape: 1 64 384 512 (12582912)
I0728 14:36:27.523042 30355 net.cpp:137] Memory required for data: 203894784
I0728 14:36:27.523046 30355 layer_factory.hpp:77] Creating layer pool1
I0728 14:36:27.523056 30355 net.cpp:84] Creating Layer pool1
I0728 14:36:27.523061 30355 net.cpp:406] pool1 <- conv1_2
I0728 14:36:27.523067 30355 net.cpp:380] pool1 -> pool1
I0728 14:36:27.523116 30355 net.cpp:122] Setting up pool1
I0728 14:36:27.523125 30355 net.cpp:129] Top shape: 1 64 192 256 (3145728)
I0728 14:36:27.523128 30355 net.cpp:137] Memory required for data: 216477696
I0728 14:36:27.523133 30355 layer_factory.hpp:77] Creating layer conv2_1
I0728 14:36:27.523144 30355 net.cpp:84] Creating Layer conv2_1
I0728 14:36:27.523147 30355 net.cpp:406] conv2_1 <- pool1
I0728 14:36:27.523155 30355 net.cpp:380] conv2_1 -> conv2_1
I0728 14:36:27.525957 30355 net.cpp:122] Setting up conv2_1
I0728 14:36:27.525971 30355 net.cpp:129] Top shape: 1 128 192 256 (6291456)
I0728 14:36:27.525975 30355 net.cpp:137] Memory required for data: 241643520
I0728 14:36:27.525982 30355 layer_factory.hpp:77] Creating layer relu2_1
I0728 14:36:27.525990 30355 net.cpp:84] Creating Layer relu2_1
I0728 14:36:27.525995 30355 net.cpp:406] relu2_1 <- conv2_1
I0728 14:36:27.526000 30355 net.cpp:367] relu2_1 -> conv2_1 (in-place)
I0728 14:36:27.526540 30355 net.cpp:122] Setting up relu2_1
I0728 14:36:27.526552 30355 net.cpp:129] Top shape: 1 128 192 256 (6291456)
I0728 14:36:27.526582 30355 net.cpp:137] Memory required for data: 266809344
I0728 14:36:27.526589 30355 layer_factory.hpp:77] Creating layer conv2_2
I0728 14:36:27.526603 30355 net.cpp:84] Creating Layer conv2_2
I0728 14:36:27.526608 30355 net.cpp:406] conv2_2 <- conv2_1
I0728 14:36:27.526617 30355 net.cpp:380] conv2_2 -> conv2_2
I0728 14:36:27.529613 30355 net.cpp:122] Setting up conv2_2
I0728 14:36:27.529626 30355 net.cpp:129] Top shape: 1 128 192 256 (6291456)
I0728 14:36:27.529630 30355 net.cpp:137] Memory required for data: 291975168
I0728 14:36:27.529636 30355 layer_factory.hpp:77] Creating layer relu2_2
I0728 14:36:27.529640 30355 net.cpp:84] Creating Layer relu2_2
I0728 14:36:27.529647 30355 net.cpp:406] relu2_2 <- conv2_2
I0728 14:36:27.529652 30355 net.cpp:367] relu2_2 -> conv2_2 (in-place)
I0728 14:36:27.529806 30355 net.cpp:122] Setting up relu2_2
I0728 14:36:27.529816 30355 net.cpp:129] Top shape: 1 128 192 256 (6291456)
I0728 14:36:27.529819 30355 net.cpp:137] Memory required for data: 317140992
I0728 14:36:27.529824 30355 layer_factory.hpp:77] Creating layer pool2
I0728 14:36:27.529830 30355 net.cpp:84] Creating Layer pool2
I0728 14:36:27.529834 30355 net.cpp:406] pool2 <- conv2_2
I0728 14:36:27.529840 30355 net.cpp:380] pool2 -> pool2
I0728 14:36:27.529881 30355 net.cpp:122] Setting up pool2
I0728 14:36:27.529887 30355 net.cpp:129] Top shape: 1 128 96 128 (1572864)
I0728 14:36:27.529891 30355 net.cpp:137] Memory required for data: 323432448
I0728 14:36:27.529894 30355 layer_factory.hpp:77] Creating layer conv3_1
I0728 14:36:27.529903 30355 net.cpp:84] Creating Layer conv3_1
I0728 14:36:27.529907 30355 net.cpp:406] conv3_1 <- pool2
I0728 14:36:27.529914 30355 net.cpp:380] conv3_1 -> conv3_1
I0728 14:36:27.534900 30355 net.cpp:122] Setting up conv3_1
I0728 14:36:27.534916 30355 net.cpp:129] Top shape: 1 256 96 128 (3145728)
I0728 14:36:27.534920 30355 net.cpp:137] Memory required for data: 336015360
I0728 14:36:27.534930 30355 layer_factory.hpp:77] Creating layer relu3_1
I0728 14:36:27.534936 30355 net.cpp:84] Creating Layer relu3_1
I0728 14:36:27.534940 30355 net.cpp:406] relu3_1 <- conv3_1
I0728 14:36:27.534947 30355 net.cpp:367] relu3_1 -> conv3_1 (in-place)
I0728 14:36:27.535109 30355 net.cpp:122] Setting up relu3_1
I0728 14:36:27.535118 30355 net.cpp:129] Top shape: 1 256 96 128 (3145728)
I0728 14:36:27.535122 30355 net.cpp:137] Memory required for data: 348598272
I0728 14:36:27.535126 30355 layer_factory.hpp:77] Creating layer conv3_2
I0728 14:36:27.535136 30355 net.cpp:84] Creating Layer conv3_2
I0728 14:36:27.535140 30355 net.cpp:406] conv3_2 <- conv3_1
I0728 14:36:27.535147 30355 net.cpp:380] conv3_2 -> conv3_2
I0728 14:36:27.542438 30355 net.cpp:122] Setting up conv3_2
I0728 14:36:27.542454 30355 net.cpp:129] Top shape: 1 256 96 128 (3145728)
I0728 14:36:27.542459 30355 net.cpp:137] Memory required for data: 361181184
I0728 14:36:27.542466 30355 layer_factory.hpp:77] Creating layer relu3_2
I0728 14:36:27.542477 30355 net.cpp:84] Creating Layer relu3_2
I0728 14:36:27.542482 30355 net.cpp:406] relu3_2 <- conv3_2
I0728 14:36:27.542488 30355 net.cpp:367] relu3_2 -> conv3_2 (in-place)
I0728 14:36:27.543033 30355 net.cpp:122] Setting up relu3_2
I0728 14:36:27.543045 30355 net.cpp:129] Top shape: 1 256 96 128 (3145728)
I0728 14:36:27.543050 30355 net.cpp:137] Memory required for data: 373764096
I0728 14:36:27.543053 30355 layer_factory.hpp:77] Creating layer conv3_3
I0728 14:36:27.543063 30355 net.cpp:84] Creating Layer conv3_3
I0728 14:36:27.543068 30355 net.cpp:406] conv3_3 <- conv3_2
I0728 14:36:27.543076 30355 net.cpp:380] conv3_3 -> conv3_3
I0728 14:36:27.550446 30355 net.cpp:122] Setting up conv3_3
I0728 14:36:27.550467 30355 net.cpp:129] Top shape: 1 256 96 128 (3145728)
I0728 14:36:27.550470 30355 net.cpp:137] Memory required for data: 386347008
I0728 14:36:27.550478 30355 layer_factory.hpp:77] Creating layer relu3_3
I0728 14:36:27.550487 30355 net.cpp:84] Creating Layer relu3_3
I0728 14:36:27.550493 30355 net.cpp:406] relu3_3 <- conv3_3
I0728 14:36:27.550500 30355 net.cpp:367] relu3_3 -> conv3_3 (in-place)
I0728 14:36:27.550685 30355 net.cpp:122] Setting up relu3_3
I0728 14:36:27.550695 30355 net.cpp:129] Top shape: 1 256 96 128 (3145728)
I0728 14:36:27.550698 30355 net.cpp:137] Memory required for data: 398929920
I0728 14:36:27.550703 30355 layer_factory.hpp:77] Creating layer pool3
I0728 14:36:27.550710 30355 net.cpp:84] Creating Layer pool3
I0728 14:36:27.550714 30355 net.cpp:406] pool3 <- conv3_3
I0728 14:36:27.550719 30355 net.cpp:380] pool3 -> pool3
I0728 14:36:27.550763 30355 net.cpp:122] Setting up pool3
I0728 14:36:27.550770 30355 net.cpp:129] Top shape: 1 256 48 64 (786432)
I0728 14:36:27.550773 30355 net.cpp:137] Memory required for data: 402075648
I0728 14:36:27.550777 30355 layer_factory.hpp:77] Creating layer conv4_1
I0728 14:36:27.550786 30355 net.cpp:84] Creating Layer conv4_1
I0728 14:36:27.550791 30355 net.cpp:406] conv4_1 <- pool3
I0728 14:36:27.550797 30355 net.cpp:380] conv4_1 -> conv4_1
I0728 14:36:27.564308 30355 net.cpp:122] Setting up conv4_1
I0728 14:36:27.564334 30355 net.cpp:129] Top shape: 1 512 48 64 (1572864)
I0728 14:36:27.564337 30355 net.cpp:137] Memory required for data: 408367104
I0728 14:36:27.564345 30355 layer_factory.hpp:77] Creating layer relu4_1
I0728 14:36:27.564359 30355 net.cpp:84] Creating Layer relu4_1
I0728 14:36:27.564364 30355 net.cpp:406] relu4_1 <- conv4_1
I0728 14:36:27.564371 30355 net.cpp:367] relu4_1 -> conv4_1 (in-place)
I0728 14:36:27.564538 30355 net.cpp:122] Setting up relu4_1
I0728 14:36:27.564546 30355 net.cpp:129] Top shape: 1 512 48 64 (1572864)
I0728 14:36:27.564550 30355 net.cpp:137] Memory required for data: 414658560
I0728 14:36:27.564554 30355 layer_factory.hpp:77] Creating layer conv4_2
I0728 14:36:27.564566 30355 net.cpp:84] Creating Layer conv4_2
I0728 14:36:27.564570 30355 net.cpp:406] conv4_2 <- conv4_1
I0728 14:36:27.564576 30355 net.cpp:380] conv4_2 -> conv4_2
I0728 14:36:27.587604 30355 net.cpp:122] Setting up conv4_2
I0728 14:36:27.587631 30355 net.cpp:129] Top shape: 1 512 48 64 (1572864)
I0728 14:36:27.587636 30355 net.cpp:137] Memory required for data: 420950016
I0728 14:36:27.587651 30355 layer_factory.hpp:77] Creating layer relu4_2
I0728 14:36:27.587661 30355 net.cpp:84] Creating Layer relu4_2
I0728 14:36:27.587666 30355 net.cpp:406] relu4_2 <- conv4_2
I0728 14:36:27.587674 30355 net.cpp:367] relu4_2 -> conv4_2 (in-place)
I0728 14:36:27.588230 30355 net.cpp:122] Setting up relu4_2
I0728 14:36:27.588243 30355 net.cpp:129] Top shape: 1 512 48 64 (1572864)
I0728 14:36:27.588246 30355 net.cpp:137] Memory required for data: 427241472
I0728 14:36:27.588250 30355 layer_factory.hpp:77] Creating layer conv4_3
I0728 14:36:27.588261 30355 net.cpp:84] Creating Layer conv4_3
I0728 14:36:27.588266 30355 net.cpp:406] conv4_3 <- conv4_2
I0728 14:36:27.588274 30355 net.cpp:380] conv4_3 -> conv4_3
I0728 14:36:27.611414 30355 net.cpp:122] Setting up conv4_3
I0728 14:36:27.611439 30355 net.cpp:129] Top shape: 1 512 48 64 (1572864)
I0728 14:36:27.611444 30355 net.cpp:137] Memory required for data: 433532928
I0728 14:36:27.611452 30355 layer_factory.hpp:77] Creating layer relu4_3
I0728 14:36:27.611462 30355 net.cpp:84] Creating Layer relu4_3
I0728 14:36:27.611467 30355 net.cpp:406] relu4_3 <- conv4_3
I0728 14:36:27.611475 30355 net.cpp:367] relu4_3 -> conv4_3 (in-place)
I0728 14:36:27.611636 30355 net.cpp:122] Setting up relu4_3
I0728 14:36:27.611646 30355 net.cpp:129] Top shape: 1 512 48 64 (1572864)
I0728 14:36:27.611649 30355 net.cpp:137] Memory required for data: 439824384
I0728 14:36:27.611654 30355 layer_factory.hpp:77] Creating layer pool4
I0728 14:36:27.611662 30355 net.cpp:84] Creating Layer pool4
I0728 14:36:27.611666 30355 net.cpp:406] pool4 <- conv4_3
I0728 14:36:27.611673 30355 net.cpp:380] pool4 -> pool4
I0728 14:36:27.611716 30355 net.cpp:122] Setting up pool4
I0728 14:36:27.611722 30355 net.cpp:129] Top shape: 1 512 48 64 (1572864)
I0728 14:36:27.611726 30355 net.cpp:137] Memory required for data: 446115840
I0728 14:36:27.611729 30355 layer_factory.hpp:77] Creating layer conv5_1
I0728 14:36:27.611740 30355 net.cpp:84] Creating Layer conv5_1
I0728 14:36:27.611762 30355 net.cpp:406] conv5_1 <- pool4
I0728 14:36:27.611769 30355 net.cpp:380] conv5_1 -> conv5_1
I0728 14:36:27.633517 30355 net.cpp:122] Setting up conv5_1
I0728 14:36:27.633550 30355 net.cpp:129] Top shape: 1 512 48 64 (1572864)
I0728 14:36:27.633555 30355 net.cpp:137] Memory required for data: 452407296
I0728 14:36:27.633564 30355 layer_factory.hpp:77] Creating layer relu5_1
I0728 14:36:27.633574 30355 net.cpp:84] Creating Layer relu5_1
I0728 14:36:27.633580 30355 net.cpp:406] relu5_1 <- conv5_1
I0728 14:36:27.633586 30355 net.cpp:367] relu5_1 -> conv5_1 (in-place)
I0728 14:36:27.634260 30355 net.cpp:122] Setting up relu5_1
I0728 14:36:27.634274 30355 net.cpp:129] Top shape: 1 512 48 64 (1572864)
I0728 14:36:27.634279 30355 net.cpp:137] Memory required for data: 458698752
I0728 14:36:27.634282 30355 layer_factory.hpp:77] Creating layer conv5_2
I0728 14:36:27.634294 30355 net.cpp:84] Creating Layer conv5_2
I0728 14:36:27.634299 30355 net.cpp:406] conv5_2 <- conv5_1
I0728 14:36:27.634305 30355 net.cpp:380] conv5_2 -> conv5_2
I0728 14:36:27.655990 30355 net.cpp:122] Setting up conv5_2
I0728 14:36:27.656015 30355 net.cpp:129] Top shape: 1 512 48 64 (1572864)
I0728 14:36:27.656018 30355 net.cpp:137] Memory required for data: 464990208
I0728 14:36:27.656025 30355 layer_factory.hpp:77] Creating layer relu5_2
I0728 14:36:27.656034 30355 net.cpp:84] Creating Layer relu5_2
I0728 14:36:27.656039 30355 net.cpp:406] relu5_2 <- conv5_2
I0728 14:36:27.656046 30355 net.cpp:367] relu5_2 -> conv5_2 (in-place)
I0728 14:36:27.656255 30355 net.cpp:122] Setting up relu5_2
I0728 14:36:27.656265 30355 net.cpp:129] Top shape: 1 512 48 64 (1572864)
I0728 14:36:27.656267 30355 net.cpp:137] Memory required for data: 471281664
I0728 14:36:27.656271 30355 layer_factory.hpp:77] Creating layer conv5_3
I0728 14:36:27.656285 30355 net.cpp:84] Creating Layer conv5_3
I0728 14:36:27.656294 30355 net.cpp:406] conv5_3 <- conv5_2
I0728 14:36:27.656302 30355 net.cpp:380] conv5_3 -> conv5_3
I0728 14:36:27.677989 30355 net.cpp:122] Setting up conv5_3
I0728 14:36:27.678014 30355 net.cpp:129] Top shape: 1 512 48 64 (1572864)
I0728 14:36:27.678019 30355 net.cpp:137] Memory required for data: 477573120
I0728 14:36:27.678026 30355 layer_factory.hpp:77] Creating layer relu5_3
I0728 14:36:27.678042 30355 net.cpp:84] Creating Layer relu5_3
I0728 14:36:27.678048 30355 net.cpp:406] relu5_3 <- conv5_3
I0728 14:36:27.678061 30355 net.cpp:367] relu5_3 -> conv5_3 (in-place)
I0728 14:36:27.678745 30355 net.cpp:122] Setting up relu5_3
I0728 14:36:27.678757 30355 net.cpp:129] Top shape: 1 512 48 64 (1572864)
I0728 14:36:27.678761 30355 net.cpp:137] Memory required for data: 483864576
I0728 14:36:27.678766 30355 layer_factory.hpp:77] Creating layer conv_score
I0728 14:36:27.678777 30355 net.cpp:84] Creating Layer conv_score
I0728 14:36:27.678782 30355 net.cpp:406] conv_score <- conv5_3
I0728 14:36:27.678789 30355 net.cpp:380] conv_score -> conv_score
I0728 14:36:27.697903 30355 net.cpp:122] Setting up conv_score
I0728 14:36:27.697919 30355 net.cpp:129] Top shape: 1 16 48 64 (49152)
I0728 14:36:27.697923 30355 net.cpp:137] Memory required for data: 484061184
I0728 14:36:27.697932 30355 layer_factory.hpp:77] Creating layer relu_score
I0728 14:36:27.697939 30355 net.cpp:84] Creating Layer relu_score
I0728 14:36:27.697944 30355 net.cpp:406] relu_score <- conv_score
I0728 14:36:27.697950 30355 net.cpp:367] relu_score -> conv_score (in-place)
I0728 14:36:27.698495 30355 net.cpp:122] Setting up relu_score
I0728 14:36:27.698508 30355 net.cpp:129] Top shape: 1 16 48 64 (49152)
I0728 14:36:27.698513 30355 net.cpp:137] Memory required for data: 484257792
I0728 14:36:27.698516 30355 layer_factory.hpp:77] Creating layer slicer_conv
I0728 14:36:27.698524 30355 net.cpp:84] Creating Layer slicer_conv
I0728 14:36:27.698529 30355 net.cpp:406] slicer_conv <- conv_score
I0728 14:36:27.698536 30355 net.cpp:380] slicer_conv -> score1
I0728 14:36:27.698547 30355 net.cpp:380] slicer_conv -> score2
I0728 14:36:27.698554 30355 net.cpp:380] slicer_conv -> score3
I0728 14:36:27.698561 30355 net.cpp:380] slicer_conv -> score4
I0728 14:36:27.698593 30355 net.cpp:380] slicer_conv -> score5
I0728 14:36:27.698601 30355 net.cpp:380] slicer_conv -> score6
I0728 14:36:27.698606 30355 net.cpp:380] slicer_conv -> score7
I0728 14:36:27.698612 30355 net.cpp:380] slicer_conv -> score8
I0728 14:36:27.698617 30355 net.cpp:380] slicer_conv -> score9
I0728 14:36:27.698623 30355 net.cpp:380] slicer_conv -> score10
I0728 14:36:27.698634 30355 net.cpp:380] slicer_conv -> score11
I0728 14:36:27.698642 30355 net.cpp:380] slicer_conv -> score12
I0728 14:36:27.698647 30355 net.cpp:380] slicer_conv -> score13
I0728 14:36:27.698652 30355 net.cpp:380] slicer_conv -> score14
I0728 14:36:27.698658 30355 net.cpp:380] slicer_conv -> score15
I0728 14:36:27.698663 30355 net.cpp:380] slicer_conv -> score16
I0728 14:36:27.698853 30355 net.cpp:122] Setting up slicer_conv
I0728 14:36:27.698859 30355 net.cpp:129] Top shape: 1 1 48 64 (3072)
I0728 14:36:27.698864 30355 net.cpp:129] Top shape: 1 1 48 64 (3072)
I0728 14:36:27.698868 30355 net.cpp:129] Top shape: 1 1 48 64 (3072)
I0728 14:36:27.698873 30355 net.cpp:129] Top shape: 1 1 48 64 (3072)
I0728 14:36:27.698875 30355 net.cpp:129] Top shape: 1 1 48 64 (3072)
I0728 14:36:27.698880 30355 net.cpp:129] Top shape: 1 1 48 64 (3072)
I0728 14:36:27.698884 30355 net.cpp:129] Top shape: 1 1 48 64 (3072)
I0728 14:36:27.698889 30355 net.cpp:129] Top shape: 1 1 48 64 (3072)
I0728 14:36:27.698892 30355 net.cpp:129] Top shape: 1 1 48 64 (3072)
I0728 14:36:27.698896 30355 net.cpp:129] Top shape: 1 1 48 64 (3072)
I0728 14:36:27.698900 30355 net.cpp:129] Top shape: 1 1 48 64 (3072)
I0728 14:36:27.698904 30355 net.cpp:129] Top shape: 1 1 48 64 (3072)
I0728 14:36:27.698909 30355 net.cpp:129] Top shape: 1 1 48 64 (3072)
I0728 14:36:27.698912 30355 net.cpp:129] Top shape: 1 1 48 64 (3072)
I0728 14:36:27.698916 30355 net.cpp:129] Top shape: 1 1 48 64 (3072)
I0728 14:36:27.698920 30355 net.cpp:129] Top shape: 1 1 48 64 (3072)
I0728 14:36:27.698923 30355 net.cpp:137] Memory required for data: 484454400
I0728 14:36:27.698927 30355 layer_factory.hpp:77] Creating layer score1_slicer_conv_0_split
I0728 14:36:27.698933 30355 net.cpp:84] Creating Layer score1_slicer_conv_0_split
I0728 14:36:27.698937 30355 net.cpp:406] score1_slicer_conv_0_split <- score1
I0728 14:36:27.698943 30355 net.cpp:380] score1_slicer_conv_0_split -> score1_slicer_conv_0_split_0
I0728 14:36:27.698951 30355 net.cpp:380] score1_slicer_conv_0_split -> score1_slicer_conv_0_split_1
I0728 14:36:27.698987 30355 net.cpp:122] Setting up score1_slicer_conv_0_split
I0728 14:36:27.698994 30355 net.cpp:129] Top shape: 1 1 48 64 (3072)
I0728 14:36:27.698998 30355 net.cpp:129] Top shape: 1 1 48 64 (3072)
I0728 14:36:27.699002 30355 net.cpp:137] Memory required for data: 484478976
I0728 14:36:27.699005 30355 layer_factory.hpp:77] Creating layer score2_slicer_conv_1_split
I0728 14:36:27.699012 30355 net.cpp:84] Creating Layer score2_slicer_conv_1_split
I0728 14:36:27.699014 30355 net.cpp:406] score2_slicer_conv_1_split <- score2
I0728 14:36:27.699021 30355 net.cpp:380] score2_slicer_conv_1_split -> score2_slicer_conv_1_split_0
I0728 14:36:27.699028 30355 net.cpp:380] score2_slicer_conv_1_split -> score2_slicer_conv_1_split_1
I0728 14:36:27.699060 30355 net.cpp:122] Setting up score2_slicer_conv_1_split
I0728 14:36:27.699067 30355 net.cpp:129] Top shape: 1 1 48 64 (3072)
I0728 14:36:27.699071 30355 net.cpp:129] Top shape: 1 1 48 64 (3072)
I0728 14:36:27.699074 30355 net.cpp:137] Memory required for data: 484503552
I0728 14:36:27.699079 30355 layer_factory.hpp:77] Creating layer score3_slicer_conv_2_split
I0728 14:36:27.699084 30355 net.cpp:84] Creating Layer score3_slicer_conv_2_split
I0728 14:36:27.699087 30355 net.cpp:406] score3_slicer_conv_2_split <- score3
I0728 14:36:27.699093 30355 net.cpp:380] score3_slicer_conv_2_split -> score3_slicer_conv_2_split_0
I0728 14:36:27.699101 30355 net.cpp:380] score3_slicer_conv_2_split -> score3_slicer_conv_2_split_1
I0728 14:36:27.699134 30355 net.cpp:122] Setting up score3_slicer_conv_2_split
I0728 14:36:27.699141 30355 net.cpp:129] Top shape: 1 1 48 64 (3072)
I0728 14:36:27.699154 30355 net.cpp:129] Top shape: 1 1 48 64 (3072)
I0728 14:36:27.699158 30355 net.cpp:137] Memory required for data: 484528128
I0728 14:36:27.699162 30355 layer_factory.hpp:77] Creating layer score4_slicer_conv_3_split
I0728 14:36:27.699167 30355 net.cpp:84] Creating Layer score4_slicer_conv_3_split
I0728 14:36:27.699170 30355 net.cpp:406] score4_slicer_conv_3_split <- score4
I0728 14:36:27.699177 30355 net.cpp:380] score4_slicer_conv_3_split -> score4_slicer_conv_3_split_0
I0728 14:36:27.699183 30355 net.cpp:380] score4_slicer_conv_3_split -> score4_slicer_conv_3_split_1
I0728 14:36:27.699220 30355 net.cpp:122] Setting up score4_slicer_conv_3_split
I0728 14:36:27.699226 30355 net.cpp:129] Top shape: 1 1 48 64 (3072)
I0728 14:36:27.699231 30355 net.cpp:129] Top shape: 1 1 48 64 (3072)
I0728 14:36:27.699234 30355 net.cpp:137] Memory required for data: 484552704
I0728 14:36:27.699237 30355 layer_factory.hpp:77] Creating layer score5_slicer_conv_4_split
I0728 14:36:27.699244 30355 net.cpp:84] Creating Layer score5_slicer_conv_4_split
I0728 14:36:27.699247 30355 net.cpp:406] score5_slicer_conv_4_split <- score5
I0728 14:36:27.699254 30355 net.cpp:380] score5_slicer_conv_4_split -> score5_slicer_conv_4_split_0
I0728 14:36:27.699260 30355 net.cpp:380] score5_slicer_conv_4_split -> score5_slicer_conv_4_split_1
I0728 14:36:27.699292 30355 net.cpp:122] Setting up score5_slicer_conv_4_split
I0728 14:36:27.699298 30355 net.cpp:129] Top shape: 1 1 48 64 (3072)
I0728 14:36:27.699302 30355 net.cpp:129] Top shape: 1 1 48 64 (3072)
I0728 14:36:27.699306 30355 net.cpp:137] Memory required for data: 484577280
I0728 14:36:27.699308 30355 layer_factory.hpp:77] Creating layer score6_slicer_conv_5_split
I0728 14:36:27.699313 30355 net.cpp:84] Creating Layer score6_slicer_conv_5_split
I0728 14:36:27.699317 30355 net.cpp:406] score6_slicer_conv_5_split <- score6
I0728 14:36:27.699322 30355 net.cpp:380] score6_slicer_conv_5_split -> score6_slicer_conv_5_split_0
I0728 14:36:27.699331 30355 net.cpp:380] score6_slicer_conv_5_split -> score6_slicer_conv_5_split_1
I0728 14:36:27.699362 30355 net.cpp:122] Setting up score6_slicer_conv_5_split
I0728 14:36:27.699368 30355 net.cpp:129] Top shape: 1 1 48 64 (3072)
I0728 14:36:27.699371 30355 net.cpp:129] Top shape: 1 1 48 64 (3072)
I0728 14:36:27.699375 30355 net.cpp:137] Memory required for data: 484601856
I0728 14:36:27.699378 30355 layer_factory.hpp:77] Creating layer score7_slicer_conv_6_split
I0728 14:36:27.699384 30355 net.cpp:84] Creating Layer score7_slicer_conv_6_split
I0728 14:36:27.699388 30355 net.cpp:406] score7_slicer_conv_6_split <- score7
I0728 14:36:27.699393 30355 net.cpp:380] score7_slicer_conv_6_split -> score7_slicer_conv_6_split_0
I0728 14:36:27.699406 30355 net.cpp:380] score7_slicer_conv_6_split -> score7_slicer_conv_6_split_1
I0728 14:36:27.699443 30355 net.cpp:122] Setting up score7_slicer_conv_6_split
I0728 14:36:27.699450 30355 net.cpp:129] Top shape: 1 1 48 64 (3072)
I0728 14:36:27.699455 30355 net.cpp:129] Top shape: 1 1 48 64 (3072)
I0728 14:36:27.699457 30355 net.cpp:137] Memory required for data: 484626432
I0728 14:36:27.699461 30355 layer_factory.hpp:77] Creating layer score8_slicer_conv_7_split
I0728 14:36:27.699465 30355 net.cpp:84] Creating Layer score8_slicer_conv_7_split
I0728 14:36:27.699470 30355 net.cpp:406] score8_slicer_conv_7_split <- score8
I0728 14:36:27.699475 30355 net.cpp:380] score8_slicer_conv_7_split -> score8_slicer_conv_7_split_0
I0728 14:36:27.699479 30355 net.cpp:380] score8_slicer_conv_7_split -> score8_slicer_conv_7_split_1
I0728 14:36:27.699513 30355 net.cpp:122] Setting up score8_slicer_conv_7_split
I0728 14:36:27.699519 30355 net.cpp:129] Top shape: 1 1 48 64 (3072)
I0728 14:36:27.699523 30355 net.cpp:129] Top shape: 1 1 48 64 (3072)
I0728 14:36:27.699527 30355 net.cpp:137] Memory required for data: 484651008
I0728 14:36:27.699529 30355 layer_factory.hpp:77] Creating layer score9_slicer_conv_8_split
I0728 14:36:27.699534 30355 net.cpp:84] Creating Layer score9_slicer_conv_8_split
I0728 14:36:27.699546 30355 net.cpp:406] score9_slicer_conv_8_split <- score9
I0728 14:36:27.699553 30355 net.cpp:380] score9_slicer_conv_8_split -> score9_slicer_conv_8_split_0
I0728 14:36:27.699559 30355 net.cpp:380] score9_slicer_conv_8_split -> score9_slicer_conv_8_split_1
I0728 14:36:27.699596 30355 net.cpp:122] Setting up score9_slicer_conv_8_split
I0728 14:36:27.699604 30355 net.cpp:129] Top shape: 1 1 48 64 (3072)
I0728 14:36:27.699607 30355 net.cpp:129] Top shape: 1 1 48 64 (3072)
I0728 14:36:27.699610 30355 net.cpp:137] Memory required for data: 484675584
I0728 14:36:27.699615 30355 layer_factory.hpp:77] Creating layer score10_slicer_conv_9_split
I0728 14:36:27.699620 30355 net.cpp:84] Creating Layer score10_slicer_conv_9_split
I0728 14:36:27.699623 30355 net.cpp:406] score10_slicer_conv_9_split <- score10
I0728 14:36:27.699627 30355 net.cpp:380] score10_slicer_conv_9_split -> score10_slicer_conv_9_split_0
I0728 14:36:27.699633 30355 net.cpp:380] score10_slicer_conv_9_split -> score10_slicer_conv_9_split_1
I0728 14:36:27.699667 30355 net.cpp:122] Setting up score10_slicer_conv_9_split
I0728 14:36:27.699673 30355 net.cpp:129] Top shape: 1 1 48 64 (3072)
I0728 14:36:27.699677 30355 net.cpp:129] Top shape: 1 1 48 64 (3072)
I0728 14:36:27.699681 30355 net.cpp:137] Memory required for data: 484700160
I0728 14:36:27.699684 30355 layer_factory.hpp:77] Creating layer score11_slicer_conv_10_split
I0728 14:36:27.699689 30355 net.cpp:84] Creating Layer score11_slicer_conv_10_split
I0728 14:36:27.699693 30355 net.cpp:406] score11_slicer_conv_10_split <- score11
I0728 14:36:27.699700 30355 net.cpp:380] score11_slicer_conv_10_split -> score11_slicer_conv_10_split_0
I0728 14:36:27.699707 30355 net.cpp:380] score11_slicer_conv_10_split -> score11_slicer_conv_10_split_1
I0728 14:36:27.699738 30355 net.cpp:122] Setting up score11_slicer_conv_10_split
I0728 14:36:27.699743 30355 net.cpp:129] Top shape: 1 1 48 64 (3072)
I0728 14:36:27.699746 30355 net.cpp:129] Top shape: 1 1 48 64 (3072)
I0728 14:36:27.699749 30355 net.cpp:137] Memory required for data: 484724736
I0728 14:36:27.699753 30355 layer_factory.hpp:77] Creating layer score12_slicer_conv_11_split
I0728 14:36:27.699762 30355 net.cpp:84] Creating Layer score12_slicer_conv_11_split
I0728 14:36:27.699766 30355 net.cpp:406] score12_slicer_conv_11_split <- score12
I0728 14:36:27.699771 30355 net.cpp:380] score12_slicer_conv_11_split -> score12_slicer_conv_11_split_0
I0728 14:36:27.699777 30355 net.cpp:380] score12_slicer_conv_11_split -> score12_slicer_conv_11_split_1
I0728 14:36:27.699808 30355 net.cpp:122] Setting up score12_slicer_conv_11_split
I0728 14:36:27.699815 30355 net.cpp:129] Top shape: 1 1 48 64 (3072)
I0728 14:36:27.699818 30355 net.cpp:129] Top shape: 1 1 48 64 (3072)
I0728 14:36:27.699821 30355 net.cpp:137] Memory required for data: 484749312
I0728 14:36:27.699826 30355 layer_factory.hpp:77] Creating layer score13_slicer_conv_12_split
I0728 14:36:27.699831 30355 net.cpp:84] Creating Layer score13_slicer_conv_12_split
I0728 14:36:27.699833 30355 net.cpp:406] score13_slicer_conv_12_split <- score13
I0728 14:36:27.699838 30355 net.cpp:380] score13_slicer_conv_12_split -> score13_slicer_conv_12_split_0
I0728 14:36:27.699843 30355 net.cpp:380] score13_slicer_conv_12_split -> score13_slicer_conv_12_split_1
I0728 14:36:27.699875 30355 net.cpp:122] Setting up score13_slicer_conv_12_split
I0728 14:36:27.699882 30355 net.cpp:129] Top shape: 1 1 48 64 (3072)
I0728 14:36:27.699885 30355 net.cpp:129] Top shape: 1 1 48 64 (3072)
I0728 14:36:27.699888 30355 net.cpp:137] Memory required for data: 484773888
I0728 14:36:27.699892 30355 layer_factory.hpp:77] Creating layer score14_slicer_conv_13_split
I0728 14:36:27.699898 30355 net.cpp:84] Creating Layer score14_slicer_conv_13_split
I0728 14:36:27.699900 30355 net.cpp:406] score14_slicer_conv_13_split <- score14
I0728 14:36:27.699905 30355 net.cpp:380] score14_slicer_conv_13_split -> score14_slicer_conv_13_split_0
I0728 14:36:27.699911 30355 net.cpp:380] score14_slicer_conv_13_split -> score14_slicer_conv_13_split_1
I0728 14:36:27.699955 30355 net.cpp:122] Setting up score14_slicer_conv_13_split
I0728 14:36:27.699961 30355 net.cpp:129] Top shape: 1 1 48 64 (3072)
I0728 14:36:27.699965 30355 net.cpp:129] Top shape: 1 1 48 64 (3072)
I0728 14:36:27.699970 30355 net.cpp:137] Memory required for data: 484798464
I0728 14:36:27.699971 30355 layer_factory.hpp:77] Creating layer score15_slicer_conv_14_split
I0728 14:36:27.699977 30355 net.cpp:84] Creating Layer score15_slicer_conv_14_split
I0728 14:36:27.699981 30355 net.cpp:406] score15_slicer_conv_14_split <- score15
I0728 14:36:27.699986 30355 net.cpp:380] score15_slicer_conv_14_split -> score15_slicer_conv_14_split_0
I0728 14:36:27.699992 30355 net.cpp:380] score15_slicer_conv_14_split -> score15_slicer_conv_14_split_1
I0728 14:36:27.700024 30355 net.cpp:122] Setting up score15_slicer_conv_14_split
I0728 14:36:27.700031 30355 net.cpp:129] Top shape: 1 1 48 64 (3072)
I0728 14:36:27.700034 30355 net.cpp:129] Top shape: 1 1 48 64 (3072)
I0728 14:36:27.700037 30355 net.cpp:137] Memory required for data: 484823040
I0728 14:36:27.700042 30355 layer_factory.hpp:77] Creating layer score16_slicer_conv_15_split
I0728 14:36:27.700047 30355 net.cpp:84] Creating Layer score16_slicer_conv_15_split
I0728 14:36:27.700049 30355 net.cpp:406] score16_slicer_conv_15_split <- score16
I0728 14:36:27.700055 30355 net.cpp:380] score16_slicer_conv_15_split -> score16_slicer_conv_15_split_0
I0728 14:36:27.700062 30355 net.cpp:380] score16_slicer_conv_15_split -> score16_slicer_conv_15_split_1
I0728 14:36:27.700093 30355 net.cpp:122] Setting up score16_slicer_conv_15_split
I0728 14:36:27.700099 30355 net.cpp:129] Top shape: 1 1 48 64 (3072)
I0728 14:36:27.700103 30355 net.cpp:129] Top shape: 1 1 48 64 (3072)
I0728 14:36:27.700106 30355 net.cpp:137] Memory required for data: 484847616
I0728 14:36:27.700109 30355 layer_factory.hpp:77] Creating layer sumscore
I0728 14:36:27.700119 30355 net.cpp:84] Creating Layer sumscore
I0728 14:36:27.700122 30355 net.cpp:406] sumscore <- score1_slicer_conv_0_split_0
I0728 14:36:27.700126 30355 net.cpp:406] sumscore <- score2_slicer_conv_1_split_0
I0728 14:36:27.700131 30355 net.cpp:406] sumscore <- score3_slicer_conv_2_split_0
…
I0728 14:36:27.700335 30355 net.cpp:380] sumscore_sumscore_0_split -> sumscore_sumscore_0_split_11
I0728 14:36:27.700342 30355 net.cpp:380] sumscore_sumscore_0_split -> sumscore_sumscore_0_split_12
I0728 14:36:27.700350 30355 net.cpp:380] sumscore_sumscore_0_split -> sumscore_sumscore_0_split_13
I0728 14:36:27.700356 30355 net.cpp:380] sumscore_sumscore_0_split -> sumscore_sumscore_0_split_14
I0728 14:36:27.700362 30355 net.cpp:380] sumscore_sumscore_0_split -> sumscore_sumscore_0_split_15
I0728 14:36:27.700531 30355 net.cpp:122] Setting up sumscore_sumscore_0_split
I0728 14:36:27.700537 30355 net.cpp:129] Top shape: 1 1 48 64 (3072)
I0728 14:36:27.700541 30355 net.cpp:129] Top shape: 1 1 48 64 (3072)
I0728 14:36:27.700546 30355 net.cpp:129] Top shape: 1 1 48 64 (3072)
I0728 14:36:27.700549 30355 net.cpp:129] Top shape: 1 1 48 64 (3072)
I0728 14:36:27.700553 30355 net.cpp:129] Top shape: 1 1 48 64 (3072)
I0728 14:36:27.700558 30355 net.cpp:129] Top shape: 1 1 48 64 (3072)
I0728 14:36:27.700562 30355 net.cpp:129] Top shape: 1 1 48 64 (3072)
I0728 14:36:27.700565 30355 net.cpp:129] Top shape: 1 1 48 64 (3072)
I0728 14:36:27.700569 30355 net.cpp:129] Top shape: 1 1 48 64 (3072)
I0728 14:36:27.700573 30355 net.cpp:129] Top shape: 1 1 48 64 (3072)
I0728 14:36:27.700577 30355 net.cpp:129] Top shape: 1 1 48 64 (3072)
I0728 14:36:27.700582 30355 net.cpp:129] Top shape: 1 1 48 64 (3072)
I0728 14:36:27.700585 30355 net.cpp:129] Top shape: 1 1 48 64 (3072)
I0728 14:36:27.700589 30355 net.cpp:129] Top shape: 1 1 48 64 (3072)
I0728 14:36:27.700593 30355 net.cpp:129] Top shape: 1 1 48 64 (3072)
I0728 14:36:27.700598 30355 net.cpp:129] Top shape: 1 1 48 64 (3072)
I0728 14:36:27.700600 30355 net.cpp:137] Memory required for data: 485056512
I0728 14:36:27.700603 30355 layer_factory.hpp:77] Creating layer loss1
I0728 14:36:27.700610 30355 net.cpp:84] Creating Layer loss1
I0728 14:36:27.700614 30355 net.cpp:406] loss1 <- score1_slicer_conv_0_split_1
I0728 14:36:27.700620 30355 net.cpp:406] loss1 <- label_label_0_split_0
I0728 14:36:27.700624 30355 net.cpp:406] loss1 <- sumscore_sumscore_0_split_0
…
I0728 14:36:27.703433 30355 net.cpp:51] Initializing net from parameters: 
name: "crowd_counting"
state {
  phase: TEST
}
layer {
  name: "data"
  type: "Data"
  top: "data"
  include {
    phase: TEST
  }
  data_param {
    source: "/home/peiyong/Work/Zenglin/szl/ShanghaiTech/partA/test_8/image_lmdb"
    batch_size: 1
    backend: LMDB
  }
}
layer {
  name: "label"
  type: "Data"
  top: "label"
  include {
    phase: TEST
  }
  data_param {
    source: "/home/peiyong/Work/Zenglin/szl/ShanghaiTech/partA/test_8/dmap_lmdb"
    batch_size: 1
    backend: LMDB
  }
}
layer {
  name: "conv1_1"
  type: "Convolution"
  bottom: "data"
  top: "conv1_1"
  param {
    lr_mult: 0.1
    decay_mult: 1
  }
  param {
    lr_mult: 0.2
    decay_mult: 0
  }
  convolution_param {
    num_output: 64
    pad: 1
    kernel_size: 3
    weight_filler {
      type: "gaussian"
      std: 0.01
    }
    bias_filler {
      type: "constant"
      value: 0
    }
  }
}
layer {
  name: "relu1_1"
  type: "ReLU"
  bottom: "conv1_1"
  top: "conv1_1"
}
layer {
  name: "conv1_2"
  type: "Convolution"
  bottom: "conv1_1"
  top: "conv1_2"
  param {
    lr_mult: 0.1
    decay_mult: 1
  }
  param {
    lr_mult: 0.2
    decay_mult: 0
  }
  convolution_param {
    num_output: 64
    pad: 1
    kernel_size: 3
    weight_filler {
      type: "gaussian"
      std: 0.01
    }
    bias_filler {
      type: "constant"
      value: 0
    }
  }
}
layer {
  name: "relu1_2"
  type: "ReLU"
  bottom: "conv1_2"
  top: "conv1_2"
}
layer {
  name: "pool1"
  type: "Pooling"
  bottom: "conv1_2"
  top: "pool1"
  pooling_param {
    pool: MAX
    kernel_size: 2
    stride: 2
  }
}
layer {
  name: "conv2_1"
  type: "Convolution"
  bottom: "pool1"
  top: "conv2_1"
  param {
    lr_mult: 0.1
    decay_mult: 1
  }
  param {
    lr_mult: 0.2
    decay_mult: 0
  }
  convolution_param {
    num_output: 128
    pad: 1
    kernel_size: 3
    weight_filler {
      type: "gaussian"
      std: 0.01
    }
    bias_filler {
      type: "constant"
      value: 0
    }
  }
}
layer {
  name: "relu2_1"
  type: "ReLU"
  bottom: "conv2_1"
  top: "conv2_1"
}
layer {
  name: "conv2_2"
  type: "Convolution"
  bottom: "conv2_1"
  top: "conv2_2"
  param {
    lr_mult: 0.1
    decay_mult: 1
  }
  param {
    lr_mult: 0.2
    decay_mult: 0
  }
  convolution_param {
    num_output: 128
    pad: 1
    kernel_size: 3
    weight_filler {
      type: "gaussian"
      std: 0.01
    }
    bias_filler {
      type: "constant"
      value: 0
    }
  }
}
layer {
  name: "relu2_2"
  type: "ReLU"
  bottom: "conv2_2"
  top: "conv2_2"
}
layer {
  name: "pool2"
  type: "Pooling"
  bottom: "conv2_2"
  top: "pool2"
  pooling_param {
    pool: MAX
    kernel_size: 2
    stride: 2
  }
}
layer {
  name: "conv3_1"
  type: "Convolution"
  bottom: "pool2"
  top: "conv3_1"
  param {
    lr_mult: 0.1
    decay_mult: 1
  }
  param {
    lr_mult: 0.2
    decay_mult: 0
  }
  convolution_param {
    num_output: 256
    pad: 1
    kernel_size: 3
    weight_filler {
      type: "gaussian"
      std: 0.01
    }
    bias_filler {
      type: "constant"
      value: 0
    }
  }
}
layer {
  name: "relu3_1"
  type: "ReLU"
  bottom: "conv3_1"
  top: "conv3_1"
}
layer {
  name: "conv3_2"
  type: "Convolution"
  bottom: "conv3_1"
  top: "conv3_2"
  param {
    lr_mult: 0.1
    decay_mult: 1
  }
  param {
    lr_mult: 0.2
    decay_mult: 0
  }
  convolution_param {
    num_output: 256
    pad: 1
    kernel_size: 3
    weight_filler {
      type: "gaussian"
      std: 0.01
    }
    bias_filler {
      type: "constant"
      value: 0
    }
  }
}
layer {
  name: "relu3_2"
  type: "ReLU"
  bottom: "conv3_2"
  top: "conv3_2"
}
layer {
  name: "conv3_3"
  type: "Convolution"
  bottom: "conv3_2"
  top: "conv3_3"
  param {
    lr_mult: 0.1
    decay_mult: 1
  }
  param {
    lr_mult: 0.2
    decay_mult: 0
  }
  convolution_param {
    num_output: 256
    pad: 1
    kernel_size: 3
    weight_filler {
      type: "gaussian"
      std: 0.01
    }
    bias_filler {
      type: "constant"
      value: 0
    }
  }
}
layer {
  name: "relu3_3"
  type: "ReLU"
  bottom: "conv3_3"
  top: "conv3_3"
}
layer {
  name: "pool3"
  type: "Pooling"
  bottom: "conv3_3"
  top: "pool3"
  pooling_param {
    pool: MAX
    kernel_size: 2
    stride: 2
  }
}
layer {
  name: "conv4_1"
  type: "Convolution"
  bottom: "pool3"
  top: "conv4_1"
  param {
    lr_mult: 0.1
    decay_mult: 1
  }
  param {
    lr_mult: 0.2
    decay_mult: 0
  }
  convolution_param {
    num_output: 512
    pad: 1
    kernel_size: 3
    weight_filler {
      type: "gaussian"
      std: 0.01
    }
    bias_filler {
      type: "constant"
      value: 0
    }
  }
}
layer {
  name: "relu4_1"
  type: "ReLU"
  bottom: "conv4_1"
  top: "conv4_1"
}
layer {
  name: "conv4_2"
  type: "Convolution"
  bottom: "conv4_1"
  top: "conv4_2"
  param {
    lr_mult: 0.1
    decay_mult: 1
  }
  param {
    lr_mult: 0.2
    decay_mult: 0
  }
  convolution_param {
    num_output: 512
    pad: 1
    kernel_size: 3
    weight_filler {
      type: "gaussian"
      std: 0.01
    }
    bias_filler {
      type: "constant"
      value: 0
    }
  }
}
layer {
  name: "relu4_2"
  type: "ReLU"
  bottom: "conv4_2"
  top: "conv4_2"
}
layer {
  name: "conv4_3"
  type: "Convolution"
  bottom: "conv4_2"
  top: "conv4_3"
  param {
    lr_mult: 0.1
    decay_mult: 1
  }
  param {
    lr_mult: 0.2
    decay_mult: 0
  }
  convolution_param {
    num_output: 512
    pad: 1
    kernel_size: 3
    weight_filler {
      type: "gaussian"
      std: 0.01
    }
    bias_filler {
      type: "constant"
      value: 0
    }
  }
}
layer {
  name: "relu4_3"
  type: "ReLU"
  bottom: "conv4_3"
  top: "conv4_3"
}
layer {
  name: "pool4"
  type: "Pooling"
  bottom: "conv4_3"
  top: "pool4"
  pooling_param {
    pool: MAX
    kernel_size: 3
    stride: 1
    pad: 1
  }
}
layer {
  name: "conv5_1"
  type: "Convolution"
  bottom: "pool4"
  top: "conv5_1"
  param {
    lr_mult: 0.1
    decay_mult: 1
  }
  param {
    lr_mult: 0.2
    decay_mult: 0
  }
  convolution_param {
    num_output: 512
    pad: 2
    kernel_size: 3
    weight_filler {
      type: "gaussian"
      std: 0.01
    }
    bias_filler {
      type: "constant"
      value: 0
    }
    dilation: 2
  }
}
layer {
  name: "relu5_1"
  type: "ReLU"
  bottom: "conv5_1"
  top: "conv5_1"
}
layer {
  name: "conv5_2"
  type: "Convolution"
  bottom: "conv5_1"
  top: "conv5_2"
  param {
    lr_mult: 0.1
    decay_mult: 1
  }
  param {
    lr_mult: 0.2
    decay_mult: 0
  }
  convolution_param {
    num_output: 512
    pad: 2
    kernel_size: 3
    weight_filler {
      type: "gaussian"
      std: 0.01
    }
    bias_filler {
      type: "constant"
      value: 0
    }
    dilation: 2
  }
}
layer {
  name: "relu5_2"
  type: "ReLU"
  bottom: "conv5_2"
  top: "conv5_2"
}
layer {
  name: "conv5_3"
  type: "Convolution"
  bottom: "conv5_2"
  top: "conv5_3"
  param {
    lr_mult: 0.1
    decay_mult: 1
  }
  param {
    lr_mult: 0.2
    decay_mult: 0
  }
  convolution_param {
    num_output: 512
    pad: 2
    kernel_size: 3
    weight_filler {
      type: "gaussian"
      std: 0.01
    }
    bias_filler {
      type: "constant"
      value: 0
    }
    dilation: 2
  }
}
layer {
  name: "relu5_3"
  type: "ReLU"
  bottom: "conv5_3"
  top: "conv5_3"
}
layer {
  name: "conv_score"
  type: "Convolution"
  bottom: "conv5_3"
  top: "conv_score"
  param {
    lr_mult: 10
    decay_mult: 1
  }
  param {
    lr_mult: 20
    decay_mult: 0
  }
  convolution_param {
    num_output: 16
    pad: 0
    kernel_size: 1
    group: 16
    stride: 1
    weight_filler {
      type: "constant"
      value: 0.0001
    }
    bias_filler {
      type: "constant"
      value: 0
    }
  }
}
layer {
  name: "relu_score"
  type: "ReLU"
  bottom: "conv_score"
  top: "conv_score"
}
layer {
  name: "slicer_conv"
  type: "Slice"
  bottom: "conv_score"
  top: "score1"
  top: "score2"
  top: "score3"
  top: "score4"
  top: "score5"
  top: "score6"
  top: "score7"
  top: "score8"
  top: "score9"
  top: "score10"
  top: "score11"
  top: "score12"
  top: "score13"
  top: "score14"
  top: "score15"
  top: "score16"
  slice_param {
    axis: 1
  }
}
layer {
  name: "sumscore"
  type: "Eltwise"
  bottom: "score1"
  bottom: "score2"
  bottom: "score3"
  bottom: "score4"
  bottom: "score5"
  bottom: "score6"
  bottom: "score7"
  bottom: "score8"
  bottom: "score9"
  bottom: "score10"
  bottom: "score11"
  bottom: "score12"
  bottom: "score13"
  bottom: "score14"
  bottom: "score15"
  bottom: "score16"
  top: "sumscore"
  eltwise_param {
    operation: SUM
  }
}
layer {
  name: "avgscore"
  type: "Power"
  bottom: "sumscore"
  top: "avgscore"
  include {
    phase: TEST
  }
  power_param {
    power: 1
    scale: 0.0625
    shift: 0
  }
}
layer {
  name: "mae"
  type: "MAELoss"
  bottom: "avgscore"
  bottom: "label"
  top: "mae"
  include {
    phase: TEST
  }
}
layer {
  name: "mse"
  type: "MSELoss"
  bottom: "avgscore"
  bottom: "label"
  top: "mse"
  include {
    phase: TEST
  }
}
I0728 14:36:27.714443 30355 layer_factory.hpp:77] Creating layer data
I0728 14:36:27.714510 30355 db_lmdb.cpp:35] Opened lmdb /home/peiyong/Work/Zenglin/szl/ShanghaiTech/partA/test_8/image_lmdb
I0728 14:36:27.714545 30355 net.cpp:84] Creating Layer data
I0728 14:36:27.714551 30355 net.cpp:380] data -> data
I0728 14:36:27.716630 30355 data_layer.cpp:45] output data size: 1,3,704,1024
I0728 14:36:27.733427 30355 net.cpp:122] Setting up data
I0728 14:36:27.733455 30355 net.cpp:129] Top shape: 1 3 704 1024 (2162688)
I0728 14:36:27.733459 30355 net.cpp:137] Memory required for data: 8650752
I0728 14:36:27.733466 30355 layer_factory.hpp:77] Creating layer label
I0728 14:36:27.733531 30355 db_lmdb.cpp:35] Opened lmdb /home/peiyong/Work/Zenglin/szl/ShanghaiTech/partA/test_8/dmap_lmdb
I0728 14:36:27.733561 30355 net.cpp:84] Creating Layer label
I0728 14:36:27.733568 30355 net.cpp:380] label -> label
I0728 14:36:27.733755 30355 data_layer.cpp:45] output data size: 1,1,88,128
I0728 14:36:27.734026 30355 net.cpp:122] Setting up label
I0728 14:36:27.734043 30355 net.cpp:129] Top shape: 1 1 88 128 (11264)
I0728 14:36:27.734050 30355 net.cpp:137] Memory required for data: 8695808
I0728 14:36:27.734056 30355 layer_factory.hpp:77] Creating layer label_label_0_split
I0728 14:36:27.734068 30355 net.cpp:84] Creating Layer label_label_0_split
I0728 14:36:27.734084 30355 net.cpp:406] label_label_0_split <- label
I0728 14:36:27.734096 30355 net.cpp:380] label_label_0_split -> label_label_0_split_0
I0728 14:36:27.734105 30355 net.cpp:380] label_label_0_split -> label_label_0_split_1
I0728 14:36:27.734154 30355 net.cpp:122] Setting up label_label_0_split
I0728 14:36:27.734161 30355 net.cpp:129] Top shape: 1 1 88 128 (11264)
I0728 14:36:27.734165 30355 net.cpp:129] Top shape: 1 1 88 128 (11264)
I0728 14:36:27.734169 30355 net.cpp:137] Memory required for data: 8785920
I0728 14:36:27.734172 30355 layer_factory.hpp:77] Creating layer conv1_1
I0728 14:36:27.734184 30355 net.cpp:84] Creating Layer conv1_1
I0728 14:36:27.734189 30355 net.cpp:406] conv1_1 <- data
I0728 14:36:27.734194 30355 net.cpp:380] conv1_1 -> conv1_1
I0728 14:36:27.738227 30355 net.cpp:122] Setting up conv1_1
I0728 14:36:27.738250 30355 net.cpp:129] Top shape: 1 64 704 1024 (46137344)
I0728 14:36:27.738253 30355 net.cpp:137] Memory required for data: 193335296
I0728 14:36:27.738268 30355 layer_factory.hpp:77] Creating layer relu1_1
I0728 14:36:27.738279 30355 net.cpp:84] Creating Layer relu1_1
I0728 14:36:27.738283 30355 net.cpp:406] relu1_1 <- conv1_1
I0728 14:36:27.738289 30355 net.cpp:367] relu1_1 -> conv1_1 (in-place)
I0728 14:36:27.738607 30355 net.cpp:122] Setting up relu1_1
I0728 14:36:27.738626 30355 net.cpp:129] Top shape: 1 64 704 1024 (46137344)
I0728 14:36:27.738632 30355 net.cpp:137] Memory required for data: 377884672
I0728 14:36:27.738639 30355 layer_factory.hpp:77] Creating layer conv1_2
I0728 14:36:27.738656 30355 net.cpp:84] Creating Layer conv1_2
I0728 14:36:27.738662 30355 net.cpp:406] conv1_2 <- conv1_1
I0728 14:36:27.738670 30355 net.cpp:380] conv1_2 -> conv1_2
I0728 14:36:27.742487 30355 net.cpp:122] Setting up conv1_2
I0728 14:36:27.742509 30355 net.cpp:129] Top shape: 1 64 704 1024 (46137344)
I0728 14:36:27.742513 30355 net.cpp:137] Memory required for data: 562434048
I0728 14:36:27.742525 30355 layer_factory.hpp:77] Creating layer relu1_2
I0728 14:36:27.742534 30355 net.cpp:84] Creating Layer relu1_2
I0728 14:36:27.742539 30355 net.cpp:406] relu1_2 <- conv1_2
I0728 14:36:27.742547 30355 net.cpp:367] relu1_2 -> conv1_2 (in-place)
I0728 14:36:27.743224 30355 net.cpp:122] Setting up relu1_2
I0728 14:36:27.743247 30355 net.cpp:129] Top shape: 1 64 704 1024 (46137344)
I0728 14:36:27.743253 30355 net.cpp:137] Memory required for data: 746983424
I0728 14:36:27.743261 30355 layer_factory.hpp:77] Creating layer pool1
I0728 14:36:27.743274 30355 net.cpp:84] Creating Layer pool1
I0728 14:36:27.743278 30355 net.cpp:406] pool1 <- conv1_2
I0728 14:36:27.743286 30355 net.cpp:380] pool1 -> pool1
I0728 14:36:27.744027 30355 net.cpp:122] Setting up pool1
I0728 14:36:27.744040 30355 net.cpp:129] Top shape: 1 64 352 512 (11534336)
I0728 14:36:27.744043 30355 net.cpp:137] Memory required for data: 793120768
I0728 14:36:27.744050 30355 layer_factory.hpp:77] Creating layer conv2_1
I0728 14:36:27.744063 30355 net.cpp:84] Creating Layer conv2_1
I0728 14:36:27.744068 30355 net.cpp:406] conv2_1 <- pool1
I0728 14:36:27.744074 30355 net.cpp:380] conv2_1 -> conv2_1
I0728 14:36:27.747572 30355 net.cpp:122] Setting up conv2_1
I0728 14:36:27.747606 30355 net.cpp:129] Top shape: 1 128 352 512 (23068672)
I0728 14:36:27.747614 30355 net.cpp:137] Memory required for data: 885395456
I0728 14:36:27.747632 30355 layer_factory.hpp:77] Creating layer relu2_1
I0728 14:36:27.747648 30355 net.cpp:84] Creating Layer relu2_1
I0728 14:36:27.747655 30355 net.cpp:406] relu2_1 <- conv2_1
I0728 14:36:27.747666 30355 net.cpp:367] relu2_1 -> conv2_1 (in-place)
I0728 14:36:27.747912 30355 net.cpp:122] Setting up relu2_1
I0728 14:36:27.747946 30355 net.cpp:129] Top shape: 1 128 352 512 (23068672)
I0728 14:36:27.747949 30355 net.cpp:137] Memory required for data: 977670144
I0728 14:36:27.747953 30355 layer_factory.hpp:77] Creating layer conv2_2
I0728 14:36:27.747964 30355 net.cpp:84] Creating Layer conv2_2
I0728 14:36:27.747968 30355 net.cpp:406] conv2_2 <- conv2_1
I0728 14:36:27.747975 30355 net.cpp:380] conv2_2 -> conv2_2
I0728 14:36:27.753298 30355 net.cpp:122] Setting up conv2_2
I0728 14:36:27.753334 30355 net.cpp:129] Top shape: 1 128 352 512 (23068672)
I0728 14:36:27.753338 30355 net.cpp:137] Memory required for data: 1069944832
I0728 14:36:27.753348 30355 layer_factory.hpp:77] Creating layer relu2_2
I0728 14:36:27.753360 30355 net.cpp:84] Creating Layer relu2_2
I0728 14:36:27.753367 30355 net.cpp:406] relu2_2 <- conv2_2
I0728 14:36:27.753377 30355 net.cpp:367] relu2_2 -> conv2_2 (in-place)
I0728 14:36:27.753563 30355 net.cpp:122] Setting up relu2_2
I0728 14:36:27.753576 30355 net.cpp:129] Top shape: 1 128 352 512 (23068672)
I0728 14:36:27.753579 30355 net.cpp:137] Memory required for data: 1162219520
I0728 14:36:27.753583 30355 layer_factory.hpp:77] Creating layer pool2
I0728 14:36:27.753590 30355 net.cpp:84] Creating Layer pool2
I0728 14:36:27.753594 30355 net.cpp:406] pool2 <- conv2_2
I0728 14:36:27.753599 30355 net.cpp:380] pool2 -> pool2
I0728 14:36:27.753651 30355 net.cpp:122] Setting up pool2
I0728 14:36:27.753659 30355 net.cpp:129] Top shape: 1 128 176 256 (5767168)
I0728 14:36:27.753662 30355 net.cpp:137] Memory required for data: 1185288192
I0728 14:36:27.753665 30355 layer_factory.hpp:77] Creating layer conv3_1
I0728 14:36:27.753676 30355 net.cpp:84] Creating Layer conv3_1
I0728 14:36:27.753680 30355 net.cpp:406] conv3_1 <- pool2
I0728 14:36:27.753686 30355 net.cpp:380] conv3_1 -> conv3_1
I0728 14:36:27.758981 30355 net.cpp:122] Setting up conv3_1
I0728 14:36:27.759009 30355 net.cpp:129] Top shape: 1 256 176 256 (11534336)
I0728 14:36:27.759014 30355 net.cpp:137] Memory required for data: 1231425536
I0728 14:36:27.759028 30355 layer_factory.hpp:77] Creating layer relu3_1
I0728 14:36:27.759039 30355 net.cpp:84] Creating Layer relu3_1
I0728 14:36:27.759044 30355 net.cpp:406] relu3_1 <- conv3_1
I0728 14:36:27.759052 30355 net.cpp:367] relu3_1 -> conv3_1 (in-place)
I0728 14:36:27.759693 30355 net.cpp:122] Setting up relu3_1
I0728 14:36:27.759709 30355 net.cpp:129] Top shape: 1 256 176 256 (11534336)
I0728 14:36:27.759713 30355 net.cpp:137] Memory required for data: 1277562880
I0728 14:36:27.759717 30355 layer_factory.hpp:77] Creating layer conv3_2
I0728 14:36:27.759728 30355 net.cpp:84] Creating Layer conv3_2
I0728 14:36:27.759733 30355 net.cpp:406] conv3_2 <- conv3_1
I0728 14:36:27.759740 30355 net.cpp:380] conv3_2 -> conv3_2
I0728 14:36:27.768113 30355 net.cpp:122] Setting up conv3_2
I0728 14:36:27.768141 30355 net.cpp:129] Top shape: 1 256 176 256 (11534336)
I0728 14:36:27.768146 30355 net.cpp:137] Memory required for data: 1323700224
I0728 14:36:27.768155 30355 layer_factory.hpp:77] Creating layer relu3_2
I0728 14:36:27.768168 30355 net.cpp:84] Creating Layer relu3_2
I0728 14:36:27.768173 30355 net.cpp:406] relu3_2 <- conv3_2
I0728 14:36:27.768179 30355 net.cpp:367] relu3_2 -> conv3_2 (in-place)
I0728 14:36:27.768368 30355 net.cpp:122] Setting up relu3_2
I0728 14:36:27.768380 30355 net.cpp:129] Top shape: 1 256 176 256 (11534336)
I0728 14:36:27.768384 30355 net.cpp:137] Memory required for data: 1369837568
I0728 14:36:27.768388 30355 layer_factory.hpp:77] Creating layer conv3_3
I0728 14:36:27.768400 30355 net.cpp:84] Creating Layer conv3_3
I0728 14:36:27.768404 30355 net.cpp:406] conv3_3 <- conv3_2
I0728 14:36:27.768411 30355 net.cpp:380] conv3_3 -> conv3_3
I0728 14:36:27.776548 30355 net.cpp:122] Setting up conv3_3
I0728 14:36:27.776564 30355 net.cpp:129] Top shape: 1 256 176 256 (11534336)
I0728 14:36:27.776568 30355 net.cpp:137] Memory required for data: 1415974912
I0728 14:36:27.776576 30355 layer_factory.hpp:77] Creating layer relu3_3
I0728 14:36:27.776582 30355 net.cpp:84] Creating Layer relu3_3
I0728 14:36:27.776612 30355 net.cpp:406] relu3_3 <- conv3_3
I0728 14:36:27.776623 30355 net.cpp:367] relu3_3 -> conv3_3 (in-place)
I0728 14:36:27.776805 30355 net.cpp:122] Setting up relu3_3
I0728 14:36:27.776818 30355 net.cpp:129] Top shape: 1 256 176 256 (11534336)
I0728 14:36:27.776821 30355 net.cpp:137] Memory required for data: 1462112256
I0728 14:36:27.776825 30355 layer_factory.hpp:77] Creating layer pool3
I0728 14:36:27.776834 30355 net.cpp:84] Creating Layer pool3
I0728 14:36:27.776837 30355 net.cpp:406] pool3 <- conv3_3
I0728 14:36:27.776844 30355 net.cpp:380] pool3 -> pool3
I0728 14:36:27.776895 30355 net.cpp:122] Setting up pool3
I0728 14:36:27.776901 30355 net.cpp:129] Top shape: 1 256 88 128 (2883584)
I0728 14:36:27.776904 30355 net.cpp:137] Memory required for data: 1473646592
I0728 14:36:27.776908 30355 layer_factory.hpp:77] Creating layer conv4_1
I0728 14:36:27.776921 30355 net.cpp:84] Creating Layer conv4_1
I0728 14:36:27.776928 30355 net.cpp:406] conv4_1 <- pool3
I0728 14:36:27.776938 30355 net.cpp:380] conv4_1 -> conv4_1
I0728 14:36:27.790113 30355 net.cpp:122] Setting up conv4_1
I0728 14:36:27.790132 30355 net.cpp:129] Top shape: 1 512 88 128 (5767168)
I0728 14:36:27.790135 30355 net.cpp:137] Memory required for data: 1496715264
I0728 14:36:27.790143 30355 layer_factory.hpp:77] Creating layer relu4_1
I0728 14:36:27.790149 30355 net.cpp:84] Creating Layer relu4_1
I0728 14:36:27.790154 30355 net.cpp:406] relu4_1 <- conv4_1
I0728 14:36:27.790161 30355 net.cpp:367] relu4_1 -> conv4_1 (in-place)
I0728 14:36:27.790761 30355 net.cpp:122] Setting up relu4_1
I0728 14:36:27.790776 30355 net.cpp:129] Top shape: 1 512 88 128 (5767168)
I0728 14:36:27.790779 30355 net.cpp:137] Memory required for data: 1519783936
I0728 14:36:27.790783 30355 layer_factory.hpp:77] Creating layer conv4_2
I0728 14:36:27.790794 30355 net.cpp:84] Creating Layer conv4_2
I0728 14:36:27.790798 30355 net.cpp:406] conv4_2 <- conv4_1
I0728 14:36:27.790804 30355 net.cpp:380] conv4_2 -> conv4_2
I0728 14:36:27.815227 30355 net.cpp:122] Setting up conv4_2
I0728 14:36:27.815254 30355 net.cpp:129] Top shape: 1 512 88 128 (5767168)
I0728 14:36:27.815258 30355 net.cpp:137] Memory required for data: 1542852608
I0728 14:36:27.815273 30355 layer_factory.hpp:77] Creating layer relu4_2
I0728 14:36:27.815282 30355 net.cpp:84] Creating Layer relu4_2
I0728 14:36:27.815289 30355 net.cpp:406] relu4_2 <- conv4_2
I0728 14:36:27.815295 30355 net.cpp:367] relu4_2 -> conv4_2 (in-place)
I0728 14:36:27.815467 30355 net.cpp:122] Setting up relu4_2
I0728 14:36:27.815479 30355 net.cpp:129] Top shape: 1 512 88 128 (5767168)
I0728 14:36:27.815481 30355 net.cpp:137] Memory required for data: 1565921280
I0728 14:36:27.815486 30355 layer_factory.hpp:77] Creating layer conv4_3
I0728 14:36:27.815497 30355 net.cpp:84] Creating Layer conv4_3
I0728 14:36:27.815501 30355 net.cpp:406] conv4_3 <- conv4_2
I0728 14:36:27.815507 30355 net.cpp:380] conv4_3 -> conv4_3
I0728 14:36:27.839390 30355 net.cpp:122] Setting up conv4_3
I0728 14:36:27.839419 30355 net.cpp:129] Top shape: 1 512 88 128 (5767168)
I0728 14:36:27.839423 30355 net.cpp:137] Memory required for data: 1588989952
I0728 14:36:27.839435 30355 layer_factory.hpp:77] Creating layer relu4_3
I0728 14:36:27.839452 30355 net.cpp:84] Creating Layer relu4_3
I0728 14:36:27.839462 30355 net.cpp:406] relu4_3 <- conv4_3
I0728 14:36:27.839473 30355 net.cpp:367] relu4_3 -> conv4_3 (in-place)
I0728 14:36:27.839649 30355 net.cpp:122] Setting up relu4_3
I0728 14:36:27.839661 30355 net.cpp:129] Top shape: 1 512 88 128 (5767168)
I0728 14:36:27.839664 30355 net.cpp:137] Memory required for data: 1612058624
I0728 14:36:27.839668 30355 layer_factory.hpp:77] Creating layer pool4
I0728 14:36:27.839676 30355 net.cpp:84] Creating Layer pool4
I0728 14:36:27.839680 30355 net.cpp:406] pool4 <- conv4_3
I0728 14:36:27.839686 30355 net.cpp:380] pool4 -> pool4
I0728 14:36:27.839742 30355 net.cpp:122] Setting up pool4
I0728 14:36:27.839751 30355 net.cpp:129] Top shape: 1 512 88 128 (5767168)
I0728 14:36:27.839753 30355 net.cpp:137] Memory required for data: 1635127296
I0728 14:36:27.839785 30355 layer_factory.hpp:77] Creating layer conv5_1
I0728 14:36:27.839798 30355 net.cpp:84] Creating Layer conv5_1
I0728 14:36:27.839802 30355 net.cpp:406] conv5_1 <- pool4
I0728 14:36:27.839808 30355 net.cpp:380] conv5_1 -> conv5_1
I0728 14:36:27.862323 30355 net.cpp:122] Setting up conv5_1
I0728 14:36:27.862349 30355 net.cpp:129] Top shape: 1 512 88 128 (5767168)
I0728 14:36:27.862352 30355 net.cpp:137] Memory required for data: 1658195968
I0728 14:36:27.862361 30355 layer_factory.hpp:77] Creating layer relu5_1
I0728 14:36:27.862370 30355 net.cpp:84] Creating Layer relu5_1
I0728 14:36:27.862375 30355 net.cpp:406] relu5_1 <- conv5_1
I0728 14:36:27.862382 30355 net.cpp:367] relu5_1 -> conv5_1 (in-place)
I0728 14:36:27.863090 30355 net.cpp:122] Setting up relu5_1
I0728 14:36:27.863104 30355 net.cpp:129] Top shape: 1 512 88 128 (5767168)
I0728 14:36:27.863108 30355 net.cpp:137] Memory required for data: 1681264640
I0728 14:36:27.863112 30355 layer_factory.hpp:77] Creating layer conv5_2
I0728 14:36:27.863124 30355 net.cpp:84] Creating Layer conv5_2
I0728 14:36:27.863128 30355 net.cpp:406] conv5_2 <- conv5_1
I0728 14:36:27.863137 30355 net.cpp:380] conv5_2 -> conv5_2
I0728 14:36:27.885151 30355 net.cpp:122] Setting up conv5_2
I0728 14:36:27.885184 30355 net.cpp:129] Top shape: 1 512 88 128 (5767168)
I0728 14:36:27.885191 30355 net.cpp:137] Memory required for data: 1704333312
I0728 14:36:27.885205 30355 layer_factory.hpp:77] Creating layer relu5_2
I0728 14:36:27.885220 30355 net.cpp:84] Creating Layer relu5_2
I0728 14:36:27.885226 30355 net.cpp:406] relu5_2 <- conv5_2
I0728 14:36:27.885232 30355 net.cpp:367] relu5_2 -> conv5_2 (in-place)
I0728 14:36:27.885941 30355 net.cpp:122] Setting up relu5_2
I0728 14:36:27.885957 30355 net.cpp:129] Top shape: 1 512 88 128 (5767168)
I0728 14:36:27.885963 30355 net.cpp:137] Memory required for data: 1727401984
I0728 14:36:27.885970 30355 layer_factory.hpp:77] Creating layer conv5_3
I0728 14:36:27.885987 30355 net.cpp:84] Creating Layer conv5_3
I0728 14:36:27.885993 30355 net.cpp:406] conv5_3 <- conv5_2
I0728 14:36:27.885999 30355 net.cpp:380] conv5_3 -> conv5_3
I0728 14:36:27.907888 30355 net.cpp:122] Setting up conv5_3
I0728 14:36:27.907908 30355 net.cpp:129] Top shape: 1 512 88 128 (5767168)
I0728 14:36:27.907912 30355 net.cpp:137] Memory required for data: 1750470656
I0728 14:36:27.907918 30355 layer_factory.hpp:77] Creating layer relu5_3
I0728 14:36:27.907932 30355 net.cpp:84] Creating Layer relu5_3
I0728 14:36:27.907935 30355 net.cpp:406] relu5_3 <- conv5_3
I0728 14:36:27.907941 30355 net.cpp:367] relu5_3 -> conv5_3 (in-place)
I0728 14:36:27.908145 30355 net.cpp:122] Setting up relu5_3
I0728 14:36:27.908157 30355 net.cpp:129] Top shape: 1 512 88 128 (5767168)
I0728 14:36:27.908160 30355 net.cpp:137] Memory required for data: 1773539328
I0728 14:36:27.908164 30355 layer_factory.hpp:77] Creating layer conv_score
I0728 14:36:27.908174 30355 net.cpp:84] Creating Layer conv_score
I0728 14:36:27.908179 30355 net.cpp:406] conv_score <- conv5_3
I0728 14:36:27.908185 30355 net.cpp:380] conv_score -> conv_score
I0728 14:36:27.928390 30355 net.cpp:122] Setting up conv_score
I0728 14:36:27.928413 30355 net.cpp:129] Top shape: 1 16 88 128 (180224)
I0728 14:36:27.928416 30355 net.cpp:137] Memory required for data: 1774260224
I0728 14:36:27.928426 30355 layer_factory.hpp:77] Creating layer relu_score
I0728 14:36:27.928436 30355 net.cpp:84] Creating Layer relu_score
I0728 14:36:27.928441 30355 net.cpp:406] relu_score <- conv_score
I0728 14:36:27.928447 30355 net.cpp:367] relu_score -> conv_score (in-place)
I0728 14:36:27.928630 30355 net.cpp:122] Setting up relu_score
I0728 14:36:27.928642 30355 net.cpp:129] Top shape: 1 16 88 128 (180224)
I0728 14:36:27.928645 30355 net.cpp:137] Memory required for data: 1774981120
I0728 14:36:27.928649 30355 layer_factory.hpp:77] Creating layer slicer_conv
I0728 14:36:27.928658 30355 net.cpp:84] Creating Layer slicer_conv
I0728 14:36:27.928661 30355 net.cpp:406] slicer_conv <- conv_score
I0728 14:36:27.928668 30355 net.cpp:380] slicer_conv -> score1
I0728 14:36:27.928699 30355 net.cpp:380] slicer_conv -> score2
I0728 14:36:27.928705 30355 net.cpp:380] slicer_conv -> score3
I0728 14:36:27.928710 30355 net.cpp:380] slicer_conv -> score4
I0728 14:36:27.928715 30355 net.cpp:380] slicer_conv -> score5
I0728 14:36:27.928721 30355 net.cpp:380] slicer_conv -> score6
I0728 14:36:27.928726 30355 net.cpp:380] slicer_conv -> score7
I0728 14:36:27.928731 30355 net.cpp:380] slicer_conv -> score8
I0728 14:36:27.928736 30355 net.cpp:380] slicer_conv -> score9
I0728 14:36:27.928741 30355 net.cpp:380] slicer_conv -> score10
I0728 14:36:27.928747 30355 net.cpp:380] slicer_conv -> score11
I0728 14:36:27.928755 30355 net.cpp:380] slicer_conv -> score12
I0728 14:36:27.928761 30355 net.cpp:380] slicer_conv -> score13
I0728 14:36:27.928766 30355 net.cpp:380] slicer_conv -> score14
I0728 14:36:27.928771 30355 net.cpp:380] slicer_conv -> score15
I0728 14:36:27.928776 30355 net.cpp:380] slicer_conv -> score16
I0728 14:36:27.928988 30355 net.cpp:122] Setting up slicer_conv
I0728 14:36:27.928995 30355 net.cpp:129] Top shape: 1 1 88 128 (11264)
I0728 14:36:27.928999 30355 net.cpp:129] Top shape: 1 1 88 128 (11264)
I0728 14:36:27.929003 30355 net.cpp:129] Top shape: 1 1 88 128 (11264)
I0728 14:36:27.929006 30355 net.cpp:129] Top shape: 1 1 88 128 (11264)
I0728 14:36:27.929010 30355 net.cpp:129] Top shape: 1 1 88 128 (11264)
I0728 14:36:27.929014 30355 net.cpp:129] Top shape: 1 1 88 128 (11264)
I0728 14:36:27.929018 30355 net.cpp:129] Top shape: 1 1 88 128 (11264)
I0728 14:36:27.929021 30355 net.cpp:129] Top shape: 1 1 88 128 (11264)
I0728 14:36:27.929024 30355 net.cpp:129] Top shape: 1 1 88 128 (11264)
I0728 14:36:27.929028 30355 net.cpp:129] Top shape: 1 1 88 128 (11264)
I0728 14:36:27.929033 30355 net.cpp:129] Top shape: 1 1 88 128 (11264)
I0728 14:36:27.929036 30355 net.cpp:129] Top shape: 1 1 88 128 (11264)
I0728 14:36:27.929039 30355 net.cpp:129] Top shape: 1 1 88 128 (11264)
I0728 14:36:27.929044 30355 net.cpp:129] Top shape: 1 1 88 128 (11264)
I0728 14:36:27.929047 30355 net.cpp:129] Top shape: 1 1 88 128 (11264)
I0728 14:36:27.929050 30355 net.cpp:129] Top shape: 1 1 88 128 (11264)
I0728 14:36:27.929054 30355 net.cpp:137] Memory required for data: 1775702016
I0728 14:36:27.929057 30355 layer_factory.hpp:77] Creating layer sumscore
I0728 14:36:27.929064 30355 net.cpp:84] Creating Layer sumscore
I0728 14:36:27.929067 30355 net.cpp:406] sumscore <- score1
I0728 14:36:27.929071 30355 net.cpp:406] sumscore <- score2
I0728 14:36:27.929075 30355 net.cpp:406] sumscore <- score3
I0728 14:36:27.929080 30355 net.cpp:406] sumscore <- score4
I0728 14:36:27.929082 30355 net.cpp:406] sumscore <- score5
I0728 14:36:27.929086 30355 net.cpp:406] sumscore <- score6
I0728 14:36:27.929090 30355 net.cpp:406] sumscore <- score7
I0728 14:36:27.929093 30355 net.cpp:406] sumscore <- score8
I0728 14:36:27.929096 30355 net.cpp:406] sumscore <- score9
I0728 14:36:27.929100 30355 net.cpp:406] sumscore <- score10
I0728 14:36:27.929103 30355 net.cpp:406] sumscore <- score11
I0728 14:36:27.929106 30355 net.cpp:406] sumscore <- score12
I0728 14:36:27.929111 30355 net.cpp:406] sumscore <- score13
I0728 14:36:27.929113 30355 net.cpp:406] sumscore <- score14
I0728 14:36:27.929116 30355 net.cpp:406] sumscore <- score15
I0728 14:36:27.929119 30355 net.cpp:406] sumscore <- score16
I0728 14:36:27.929124 30355 net.cpp:380] sumscore -> sumscore
I0728 14:36:27.929152 30355 net.cpp:122] Setting up sumscore
I0728 14:36:27.929158 30355 net.cpp:129] Top shape: 1 1 88 128 (11264)
I0728 14:36:27.929162 30355 net.cpp:137] Memory required for data: 1775747072
I0728 14:36:27.929164 30355 layer_factory.hpp:77] Creating layer avgscore
I0728 14:36:27.929170 30355 net.cpp:84] Creating Layer avgscore
I0728 14:36:27.929173 30355 net.cpp:406] avgscore <- sumscore
I0728 14:36:27.929179 30355 net.cpp:380] avgscore -> avgscore
I0728 14:36:27.929204 30355 net.cpp:122] Setting up avgscore
I0728 14:36:27.929215 30355 net.cpp:129] Top shape: 1 1 88 128 (11264)
I0728 14:36:27.929219 30355 net.cpp:137] Memory required for data: 1775792128
I0728 14:36:27.929230 30355 layer_factory.hpp:77] Creating layer avgscore_avgscore_0_split
I0728 14:36:27.929236 30355 net.cpp:84] Creating Layer avgscore_avgscore_0_split
I0728 14:36:27.929239 30355 net.cpp:406] avgscore_avgscore_0_split <- avgscore
I0728 14:36:27.929245 30355 net.cpp:380] avgscore_avgscore_0_split -> avgscore_avgscore_0_split_0
I0728 14:36:27.929251 30355 net.cpp:380] avgscore_avgscore_0_split -> avgscore_avgscore_0_split_1
I0728 14:36:27.929291 30355 net.cpp:122] Setting up avgscore_avgscore_0_split
I0728 14:36:27.929296 30355 net.cpp:129] Top shape: 1 1 88 128 (11264)
I0728 14:36:27.929301 30355 net.cpp:129] Top shape: 1 1 88 128 (11264)
I0728 14:36:27.929308 30355 net.cpp:137] Memory required for data: 1775882240
I0728 14:36:27.929311 30355 layer_factory.hpp:77] Creating layer mae
I0728 14:36:27.929318 30355 net.cpp:84] Creating Layer mae
I0728 14:36:27.929322 30355 net.cpp:406] mae <- avgscore_avgscore_0_split_0
I0728 14:36:27.929325 30355 net.cpp:406] mae <- label_label_0_split_0
I0728 14:36:27.929330 30355 net.cpp:380] mae -> mae
…
