…
I0728 16:40:06.110015 29641 net.cpp:51] Initializing net from parameters: 
name: "crowd_counting"
state {
  phase: TRAIN
  level: 0
  stage: ""
}
layer {
  name: "data"
  type: "Data"
  top: "data"
  include {
    phase: TRAIN
  }
  data_param {
    source: "/home/peiyong/Work/Zenglin/szl/ShanghaiTech/partA/train_8/image_lmdb"
    batch_size: 1
    backend: LMDB
  }
}
layer {
  name: "label"
  type: "Data"
  top: "label"
  include {
    phase: TRAIN
  }
  data_param {
    source: "/home/peiyong/Work/Zenglin/szl/ShanghaiTech/partA/train_8/dmap_lmdb"
    batch_size: 1
    backend: LMDB
  }
}
layer {
  name: "conv1_1"
  type: "Convolution"
  bottom: "data"
  top: "conv1_1"
  param {
    lr_mult: 0.1
    decay_mult: 1
  }
  param {
    lr_mult: 0.2
    decay_mult: 0
  }
  convolution_param {
    num_output: 64
    pad: 1
    kernel_size: 3
    weight_filler {
      type: "gaussian"
      std: 0.01
    }
    bias_filler {
      type: "constant"
      value: 0
    }
  }
}
layer {
  name: "relu1_1"
  type: "ReLU"
  bottom: "conv1_1"
  top: "conv1_1"
}
layer {
  name: "conv1_2"
  type: "Convolution"
  bottom: "conv1_1"
  top: "conv1_2"
  param {
    lr_mult: 0.1
    decay_mult: 1
  }
  param {
    lr_mult: 0.2
    decay_mult: 0
  }
  convolution_param {
    num_output: 64
    pad: 1
    kernel_size: 3
    weight_filler {
      type: "gaussian"
      std: 0.01
    }
    bias_filler {
      type: "constant"
      value: 0
    }
  }
}
layer {
  name: "relu1_2"
  type: "ReLU"
  bottom: "conv1_2"
  top: "conv1_2"
}
layer {
  name: "pool1"
  type: "Pooling"
  bottom: "conv1_2"
  top: "pool1"
  pooling_param {
    pool: MAX
    kernel_size: 2
    stride: 2
  }
}
layer {
  name: "conv2_1"
  type: "Convolution"
  bottom: "pool1"
  top: "conv2_1"
  param {
    lr_mult: 0.1
    decay_mult: 1
  }
  param {
    lr_mult: 0.2
    decay_mult: 0
  }
  convolution_param {
    num_output: 128
    pad: 1
    kernel_size: 3
    weight_filler {
      type: "gaussian"
      std: 0.01
    }
    bias_filler {
      type: "constant"
      value: 0
    }
  }
}
layer {
  name: "relu2_1"
  type: "ReLU"
  bottom: "conv2_1"
  top: "conv2_1"
}
layer {
  name: "conv2_2"
  type: "Convolution"
  bottom: "conv2_1"
  top: "conv2_2"
  param {
    lr_mult: 0.1
    decay_mult: 1
  }
  param {
    lr_mult: 0.2
    decay_mult: 0
  }
  convolution_param {
    num_output: 128
    pad: 1
    kernel_size: 3
    weight_filler {
      type: "gaussian"
      std: 0.01
    }
    bias_filler {
      type: "constant"
      value: 0
    }
  }
}
layer {
  name: "relu2_2"
  type: "ReLU"
  bottom: "conv2_2"
  top: "conv2_2"
}
layer {
  name: "pool2"
  type: "Pooling"
  bottom: "conv2_2"
  top: "pool2"
  pooling_param {
    pool: MAX
    kernel_size: 2
    stride: 2
  }
}
layer {
  name: "conv3_1"
  type: "Convolution"
  bottom: "pool2"
  top: "conv3_1"
  param {
    lr_mult: 0.1
    decay_mult: 1
  }
  param {
    lr_mult: 0.2
    decay_mult: 0
  }
  convolution_param {
    num_output: 256
    pad: 1
    kernel_size: 3
    weight_filler {
      type: "gaussian"
      std: 0.01
    }
    bias_filler {
      type: "constant"
      value: 0
    }
  }
}
layer {
  name: "relu3_1"
  type: "ReLU"
  bottom: "conv3_1"
  top: "conv3_1"
}
layer {
  name: "conv3_2"
  type: "Convolution"
  bottom: "conv3_1"
  top: "conv3_2"
  param {
    lr_mult: 0.1
    decay_mult: 1
  }
  param {
    lr_mult: 0.2
    decay_mult: 0
  }
  convolution_param {
    num_output: 256
    pad: 1
    kernel_size: 3
    weight_filler {
      type: "gaussian"
      std: 0.01
    }
    bias_filler {
      type: "constant"
      value: 0
    }
  }
}
layer {
  name: "relu3_2"
  type: "ReLU"
  bottom: "conv3_2"
  top: "conv3_2"
}
layer {
  name: "conv3_3"
  type: "Convolution"
  bottom: "conv3_2"
  top: "conv3_3"
  param {
    lr_mult: 0.1
    decay_mult: 1
  }
  param {
    lr_mult: 0.2
    decay_mult: 0
  }
  convolution_param {
    num_output: 256
    pad: 1
    kernel_size: 3
    weight_filler {
      type: "gaussian"
      std: 0.01
    }
    bias_filler {
      type: "constant"
      value: 0
    }
  }
}
layer {
  name: "relu3_3"
  type: "ReLU"
  bottom: "conv3_3"
  top: "conv3_3"
}
layer {
  name: "pool3"
  type: "Pooling"
  bottom: "conv3_3"
  top: "pool3"
  pooling_param {
    pool: MAX
    kernel_size: 2
    stride: 2
  }
}
layer {
  name: "conv4_1"
  type: "Convolution"
  bottom: "pool3"
  top: "conv4_1"
  param {
    lr_mult: 0.1
    decay_mult: 1
  }
  param {
    lr_mult: 0.2
    decay_mult: 0
  }
  convolution_param {
    num_output: 512
    pad: 1
    kernel_size: 3
    weight_filler {
      type: "gaussian"
      std: 0.01
    }
    bias_filler {
      type: "constant"
      value: 0
    }
  }
}
layer {
  name: "relu4_1"
  type: "ReLU"
  bottom: "conv4_1"
  top: "conv4_1"
}
layer {
  name: "conv4_2"
  type: "Convolution"
  bottom: "conv4_1"
  top: "conv4_2"
  param {
    lr_mult: 0.1
    decay_mult: 1
  }
  param {
    lr_mult: 0.2
    decay_mult: 0
  }
  convolution_param {
    num_output: 512
    pad: 1
    kernel_size: 3
    weight_filler {
      type: "gaussian"
      std: 0.01
    }
    bias_filler {
      type: "constant"
      value: 0
    }
  }
}
layer {
  name: "relu4_2"
  type: "ReLU"
  bottom: "conv4_2"
  top: "conv4_2"
}
layer {
  name: "conv4_3"
  type: "Convolution"
  bottom: "conv4_2"
  top: "conv4_3"
  param {
    lr_mult: 0.1
    decay_mult: 1
  }
  param {
    lr_mult: 0.2
    decay_mult: 0
  }
  convolution_param {
    num_output: 512
    pad: 1
    kernel_size: 3
    weight_filler {
      type: "gaussian"
      std: 0.01
    }
    bias_filler {
      type: "constant"
      value: 0
    }
  }
}
layer {
  name: "relu4_3"
  type: "ReLU"
  bottom: "conv4_3"
  top: "conv4_3"
}
layer {
  name: "pool4"
  type: "Pooling"
  bottom: "conv4_3"
  top: "pool4"
  pooling_param {
    pool: MAX
    kernel_size: 3
    stride: 1
    pad: 1
  }
}
layer {
  name: "conv5_1"
  type: "Convolution"
  bottom: "pool4"
  top: "conv5_1"
  param {
    lr_mult: 0.1
    decay_mult: 1
  }
  param {
    lr_mult: 0.2
    decay_mult: 0
  }
  convolution_param {
    num_output: 512
    pad: 2
    kernel_size: 3
    weight_filler {
      type: "gaussian"
      std: 0.01
    }
    bias_filler {
      type: "constant"
      value: 0
    }
    dilation: 2
  }
}
layer {
  name: "relu5_1"
  type: "ReLU"
  bottom: "conv5_1"
  top: "conv5_1"
}
layer {
  name: "conv5_2"
  type: "Convolution"
  bottom: "conv5_1"
  top: "conv5_2"
  param {
    lr_mult: 0.1
    decay_mult: 1
  }
  param {
    lr_mult: 0.2
    decay_mult: 0
  }
  convolution_param {
    num_output: 512
    pad: 2
    kernel_size: 3
    weight_filler {
      type: "gaussian"
      std: 0.01
    }
    bias_filler {
      type: "constant"
      value: 0
    }
    dilation: 2
  }
}
layer {
  name: "relu5_2"
  type: "ReLU"
  bottom: "conv5_2"
  top: "conv5_2"
}
layer {
  name: "conv5_3"
  type: "Convolution"
  bottom: "conv5_2"
  top: "conv5_3"
  param {
    lr_mult: 0.1
    decay_mult: 1
  }
  param {
    lr_mult: 0.2
    decay_mult: 0
  }
  convolution_param {
    num_output: 512
    pad: 2
    kernel_size: 3
    weight_filler {
      type: "gaussian"
      std: 0.01
    }
    bias_filler {
      type: "constant"
      value: 0
    }
    dilation: 2
  }
}
layer {
  name: "relu5_3"
  type: "ReLU"
  bottom: "conv5_3"
  top: "conv5_3"
}
layer {
  name: "conv_score"
  type: "Convolution"
  bottom: "conv5_3"
  top: "conv_score"
  param {
    lr_mult: 10
    decay_mult: 1
  }
  param {
    lr_mult: 20
    decay_mult: 0
  }
  convolution_param {
    num_output: 32
    pad: 0
    kernel_size: 1
    group: 32
    stride: 1
    weight_filler {
      type: "constant"
      value: 0.0001
    }
    bias_filler {
      type: "constant"
      value: 0
    }
  }
}
layer {
  name: "relu_score"
  type: "ReLU"
  bottom: "conv_score"
  top: "conv_score"
}
layer {
  name: "slicer_conv"
  type: "Slice"
  bottom: "conv_score"
  top: "score1"
  top: "score2"
  top: "score3"
  top: "score4"
  top: "score5"
  top: "score6"
  top: "score7"
  top: "score8"
  top: "score9"
  top: "score10"
  top: "score11"
  top: "score12"
  top: "score13"
  top: "score14"
  top: "score15"
  top: "score16"
  top: "score17"
  top: "score18"
  top: "score19"
  top: "score20"
  top: "score21"
  top: "score22"
  top: "score23"
  top: "score24"
  top: "score25"
  top: "score26"
  top: "score27"
  top: "score28"
  top: "score29"
  top: "score30"
  top: "score31"
  top: "score32"
  slice_param {
    axis: 1
  }
}
layer {
  name: "sumscore"
  type: "Eltwise"
  bottom: "score1"
  bottom: "score2"
  bottom: "score3"
  bottom: "score4"
  bottom: "score5"
  bottom: "score6"
  bottom: "score7"
  bottom: "score8"
  bottom: "score9"
  bottom: "score10"
  bottom: "score11"
  bottom: "score12"
  bottom: "score13"
  bottom: "score14"
  bottom: "score15"
  bottom: "score16"
  bottom: "score17"
  bottom: "score18"
  bottom: "score19"
  bottom: "score20"
  bottom: "score21"
  bottom: "score22"
  bottom: "score23"
  bottom: "score24"
  bottom: "score25"
  bottom: "score26"
  bottom: "score27"
  bottom: "score28"
  bottom: "score29"
  bottom: "score30"
  bottom: "score31"
  bottom: "score32"
  top: "sumscore"
  eltwise_param {
    operation: SUM
  }
}
layer {
  name: "loss1"
  type: "NCLLoss"
  bottom: "score1"
  bottom: "label"
  bottom: "sumscore"
  top: "loss1"
  include {
    phase: TRAIN
  }
  ncl_loss_param {
    lambda: 1.01
    net_num: 32
  }
}
layer {
  name: "loss2"
  type: "NCLLoss"
  bottom: "score2"
  bottom: "label"
  bottom: "sumscore"
  top: "loss2"
  include {
    phase: TRAIN
  }
  ncl_loss_param {
    lambda: 1.01
    net_num: 32
  }
}
layer {
  name: "loss3"
  type: "NCLLoss"
  bottom: "score3"
  bottom: "label"
  bottom: "sumscore"
  top: "loss3"
  include {
    phase: TRAIN
  }
  ncl_loss_param {
    lambda: 1.01
    net_num: 32
  }
}
layer {
  name: "loss4"
  type: "NCLLoss"
  bottom: "score4"
  bottom: "label"
  bottom: "sumscore"
  top: "loss4"
  include {
    phase: TRAIN
  }
  ncl_loss_param {
    lambda: 1.01
    net_num: 32
  }
}
layer {
  name: "loss5"
  type: "NCLLoss"
  bottom: "score5"
  bottom: "label"
  bottom: "sumscore"
  top: "loss5"
  include {
    phase: TRAIN
  }
  ncl_loss_param {
    lambda: 1.01
    net_num: 32
  }
}
layer {
  name: "loss6"
  type: "NCLLoss"
  bottom: "score6"
  bottom: "label"
  bottom: "sumscore"
  top: "loss6"
  include {
    phase: TRAIN
  }
  ncl_loss_param {
    lambda: 1.01
    net_num: 32
  }
}
layer {
  name: "loss7"
  type: "NCLLoss"
  bottom: "score7"
  bottom: "label"
  bottom: "sumscore"
  top: "loss7"
  include {
    phase: TRAIN
  }
  ncl_loss_param {
    lambda: 1.01
    net_num: 32
  }
}
layer {
  name: "loss8"
  type: "NCLLoss"
  bottom: "score8"
  bottom: "label"
  bottom: "sumscore"
  top: "loss8"
  include {
    phase: TRAIN
  }
  ncl_loss_param {
    lambda: 1.01
    net_num: 32
  }
}
layer {
  name: "loss9"
  type: "NCLLoss"
  bottom: "score9"
  bottom: "label"
  bottom: "sumscore"
  top: "loss9"
  include {
    phase: TRAIN
  }
  ncl_loss_param {
    lambda: 1.01
    net_num: 32
  }
}
layer {
  name: "loss10"
  type: "NCLLoss"
  bottom: "score10"
  bottom: "label"
  bottom: "sumscore"
  top: "loss10"
  include {
    phase: TRAIN
  }
  ncl_loss_param {
    lambda: 1.01
    net_num: 32
  }
}
layer {
  name: "loss11"
  type: "NCLLoss"
  bottom: "score11"
  bottom: "label"
  bottom: "sumscore"
  top: "loss11"
  include {
    phase: TRAIN
  }
  ncl_loss_param {
    lambda: 1.01
    net_num: 32
  }
}
layer {
  name: "loss12"
  type: "NCLLoss"
  bottom: "score12"
  bottom: "label"
  bottom: "sumscore"
  top: "loss12"
  include {
    phase: TRAIN
  }
  ncl_loss_param {
    lambda: 1.01
    net_num: 32
  }
}
layer {
  name: "loss13"
  type: "NCLLoss"
  bottom: "score13"
  bottom: "label"
  bottom: "sumscore"
  top: "loss13"
  include {
    phase: TRAIN
  }
  ncl_loss_param {
    lambda: 1.01
    net_num: 32
  }
}
layer {
  name: "loss14"
  type: "NCLLoss"
  bottom: "score14"
  bottom: "label"
  bottom: "sumscore"
  top: "loss14"
  include {
    phase: TRAIN
  }
  ncl_loss_param {
    lambda: 1.01
    net_num: 32
  }
}
layer {
  name: "loss15"
  type: "NCLLoss"
  bottom: "score15"
  bottom: "label"
  bottom: "sumscore"
  top: "loss15"
  include {
    phase: TRAIN
  }
  ncl_loss_param {
    lambda: 1.01
    net_num: 32
  }
}
layer {
  name: "loss16"
  type: "NCLLoss"
  bottom: "score16"
  bottom: "label"
  bottom: "sumscore"
  top: "loss16"
  include {
    phase: TRAIN
  }
  ncl_loss_param {
    lambda: 1.01
    net_num: 32
  }
}
layer {
  name: "loss17"
  type: "NCLLoss"
  bottom: "score17"
  bottom: "label"
  bottom: "sumscore"
  top: "loss17"
  include {
    phase: TRAIN
  }
  ncl_loss_param {
    lambda: 1.01
    net_num: 32
  }
}
layer {
  name: "loss18"
  type: "NCLLoss"
  bottom: "score18"
  bottom: "label"
  bottom: "sumscore"
  top: "loss18"
  include {
    phase: TRAIN
  }
  ncl_loss_param {
    lambda: 1.01
    net_num: 32
  }
}
layer {
  name: "loss19"
  type: "NCLLoss"
  bottom: "score19"
  bottom: "label"
  bottom: "sumscore"
  top: "loss19"
  include {
    phase: TRAIN
  }
  ncl_loss_param {
    lambda: 1.01
    net_num: 32
  }
}
layer {
  name: "loss20"
  type: "NCLLoss"
  bottom: "score20"
  bottom: "label"
  bottom: "sumscore"
  top: "loss20"
  include {
    phase: TRAIN
  }
  ncl_loss_param {
    lambda: 1.01
    net_num: 32
  }
}
layer {
  name: "loss21"
  type: "NCLLoss"
  bottom: "score21"
  bottom: "label"
  bottom: "sumscore"
  top: "loss21"
  include {
    phase: TRAIN
  }
  ncl_loss_param {
    lambda: 1.01
    net_num: 32
  }
}
layer {
  name: "loss22"
  type: "NCLLoss"
  bottom: "score22"
  bottom: "label"
  bottom: "sumscore"
  top: "loss22"
  include {
    phase: TRAIN
  }
  ncl_loss_param {
    lambda: 1.01
    net_num: 32
  }
}
layer {
  name: "loss23"
  type: "NCLLoss"
  bottom: "score23"
  bottom: "label"
  bottom: "sumscore"
  top: "loss23"
  include {
    phase: TRAIN
  }
  ncl_loss_param {
    lambda: 1.01
    net_num: 32
  }
}
layer {
  name: "loss24"
  type: "NCLLoss"
  bottom: "score24"
  bottom: "label"
  bottom: "sumscore"
  top: "loss24"
  include {
    phase: TRAIN
  }
  ncl_loss_param {
    lambda: 1.01
    net_num: 32
  }
}
layer {
  name: "loss25"
  type: "NCLLoss"
  bottom: "score25"
  bottom: "label"
  bottom: "sumscore"
  top: "loss25"
  include {
    phase: TRAIN
  }
  ncl_loss_param {
    lambda: 1.01
    net_num: 32
  }
}
layer {
  name: "loss26"
  type: "NCLLoss"
  bottom: "score26"
  bottom: "label"
  bottom: "sumscore"
  top: "loss26"
  include {
    phase: TRAIN
  }
  ncl_loss_param {
    lambda: 1.01
    net_num: 32
  }
}
layer {
  name: "loss27"
  type: "NCLLoss"
  bottom: "score27"
  bottom: "label"
  bottom: "sumscore"
  top: "loss27"
  include {
    phase: TRAIN
  }
  ncl_loss_param {
    lambda: 1.01
    net_num: 32
  }
}
layer {
  name: "loss28"
  type: "NCLLoss"
  bottom: "score28"
  bottom: "label"
  bottom: "sumscore"
  top: "loss28"
  include {
    phase: TRAIN
  }
  ncl_loss_param {
    lambda: 1.01
    net_num: 32
  }
}
layer {
  name: "loss29"
  type: "NCLLoss"
  bottom: "score29"
  bottom: "label"
  bottom: "sumscore"
  top: "loss29"
  include {
    phase: TRAIN
  }
  ncl_loss_param {
    lambda: 1.01
    net_num: 32
  }
}
layer {
  name: "loss30"
  type: "NCLLoss"
  bottom: "score30"
  bottom: "label"
  bottom: "sumscore"
  top: "loss30"
  include {
    phase: TRAIN
  }
  ncl_loss_param {
    lambda: 1.01
    net_num: 32
  }
}
layer {
  name: "loss31"
  type: "NCLLoss"
  bottom: "score31"
  bottom: "label"
  bottom: "sumscore"
  top: "loss31"
  include {
    phase: TRAIN
  }
  ncl_loss_param {
    lambda: 1.01
    net_num: 32
  }
}
layer {
  name: "loss32"
  type: "NCLLoss"
  bottom: "score32"
  bottom: "label"
  bottom: "sumscore"
  top: "loss32"
  include {
    phase: TRAIN
  }
  ncl_loss_param {
    lambda: 1.01
    net_num: 32
  }
}
I0728 16:40:06.115196 29641 layer_factory.hpp:77] Creating layer data
I0728 16:40:06.115424 29641 db_lmdb.cpp:35] Opened lmdb /home/peiyong/Work/Zenglin/szl/ShanghaiTech/partA/train_8/image_lmdb
I0728 16:40:06.115469 29641 net.cpp:84] Creating Layer data
I0728 16:40:06.115479 29641 net.cpp:380] data -> data
I0728 16:40:06.118016 29641 data_layer.cpp:45] output data size: 1,3,384,512
I0728 16:40:06.124387 29641 net.cpp:122] Setting up data
I0728 16:40:06.124470 29641 net.cpp:129] Top shape: 1 3 384 512 (589824)
I0728 16:40:06.124521 29641 net.cpp:137] Memory required for data: 2359296
I0728 16:40:06.124569 29641 layer_factory.hpp:77] Creating layer label
I0728 16:40:06.124802 29641 db_lmdb.cpp:35] Opened lmdb /home/peiyong/Work/Zenglin/szl/ShanghaiTech/partA/train_8/dmap_lmdb
I0728 16:40:06.124838 29641 net.cpp:84] Creating Layer label
I0728 16:40:06.124847 29641 net.cpp:380] label -> label
I0728 16:40:06.124938 29641 data_layer.cpp:45] output data size: 1,1,48,64
I0728 16:40:06.131630 29641 net.cpp:122] Setting up label
I0728 16:40:06.131651 29641 net.cpp:129] Top shape: 1 1 48 64 (3072)
I0728 16:40:06.131659 29641 net.cpp:137] Memory required for data: 2371584
I0728 16:40:06.131664 29641 layer_factory.hpp:77] Creating layer label_label_0_split
I0728 16:40:06.131692 29641 net.cpp:84] Creating Layer label_label_0_split
I0728 16:40:06.131702 29641 net.cpp:406] label_label_0_split <- label
I0728 16:40:06.131722 29641 net.cpp:380] label_label_0_split -> label_label_0_split_0
…
I0728 16:40:06.132128 29641 net.cpp:380] label_label_0_split -> label_label_0_split_26
I0728 16:40:06.132143 29641 net.cpp:380] label_label_0_split -> label_label_0_split_27
I0728 16:40:06.132155 29641 net.cpp:380] label_label_0_split -> label_label_0_split_28
I0728 16:40:06.132169 29641 net.cpp:380] label_label_0_split -> label_label_0_split_29
I0728 16:40:06.132184 29641 net.cpp:380] label_label_0_split -> label_label_0_split_30
I0728 16:40:06.132203 29641 net.cpp:380] label_label_0_split -> label_label_0_split_31
I0728 16:40:06.132517 29641 net.cpp:122] Setting up label_label_0_split
I0728 16:40:06.132529 29641 net.cpp:129] Top shape: 1 1 48 64 (3072)
I0728 16:40:06.132536 29641 net.cpp:129] Top shape: 1 1 48 64 (3072)
I0728 16:40:06.132544 29641 net.cpp:129] Top shape: 1 1 48 64 (3072)
I0728 16:40:06.132550 29641 net.cpp:129] Top shape: 1 1 48 64 (3072)
I0728 16:40:06.132558 29641 net.cpp:129] Top shape: 1 1 48 64 (3072)
I0728 16:40:06.132565 29641 net.cpp:129] Top shape: 1 1 48 64 (3072)
I0728 16:40:06.132572 29641 net.cpp:129] Top shape: 1 1 48 64 (3072)
I0728 16:40:06.132580 29641 net.cpp:129] Top shape: 1 1 48 64 (3072)
I0728 16:40:06.132586 29641 net.cpp:129] Top shape: 1 1 48 64 (3072)
I0728 16:40:06.132593 29641 net.cpp:129] Top shape: 1 1 48 64 (3072)
I0728 16:40:06.132601 29641 net.cpp:129] Top shape: 1 1 48 64 (3072)
I0728 16:40:06.132607 29641 net.cpp:129] Top shape: 1 1 48 64 (3072)
I0728 16:40:06.132614 29641 net.cpp:129] Top shape: 1 1 48 64 (3072)
I0728 16:40:06.132622 29641 net.cpp:129] Top shape: 1 1 48 64 (3072)
I0728 16:40:06.132629 29641 net.cpp:129] Top shape: 1 1 48 64 (3072)
I0728 16:40:06.132637 29641 net.cpp:129] Top shape: 1 1 48 64 (3072)
I0728 16:40:06.132643 29641 net.cpp:129] Top shape: 1 1 48 64 (3072)
I0728 16:40:06.132650 29641 net.cpp:129] Top shape: 1 1 48 64 (3072)
I0728 16:40:06.132658 29641 net.cpp:129] Top shape: 1 1 48 64 (3072)
I0728 16:40:06.132664 29641 net.cpp:129] Top shape: 1 1 48 64 (3072)
I0728 16:40:06.132671 29641 net.cpp:129] Top shape: 1 1 48 64 (3072)
I0728 16:40:06.132678 29641 net.cpp:129] Top shape: 1 1 48 64 (3072)
I0728 16:40:06.132685 29641 net.cpp:129] Top shape: 1 1 48 64 (3072)
I0728 16:40:06.132692 29641 net.cpp:129] Top shape: 1 1 48 64 (3072)
I0728 16:40:06.132699 29641 net.cpp:129] Top shape: 1 1 48 64 (3072)
I0728 16:40:06.132706 29641 net.cpp:129] Top shape: 1 1 48 64 (3072)
I0728 16:40:06.132714 29641 net.cpp:129] Top shape: 1 1 48 64 (3072)
I0728 16:40:06.132720 29641 net.cpp:129] Top shape: 1 1 48 64 (3072)
I0728 16:40:06.132727 29641 net.cpp:129] Top shape: 1 1 48 64 (3072)
I0728 16:40:06.132735 29641 net.cpp:129] Top shape: 1 1 48 64 (3072)
I0728 16:40:06.132741 29641 net.cpp:129] Top shape: 1 1 48 64 (3072)
I0728 16:40:06.132748 29641 net.cpp:129] Top shape: 1 1 48 64 (3072)
I0728 16:40:06.132753 29641 net.cpp:137] Memory required for data: 2764800
I0728 16:40:06.132769 29641 layer_factory.hpp:77] Creating layer conv1_1
I0728 16:40:06.132789 29641 net.cpp:84] Creating Layer conv1_1
I0728 16:40:06.132797 29641 net.cpp:406] conv1_1 <- data
I0728 16:40:06.132805 29641 net.cpp:380] conv1_1 -> conv1_1
I0728 16:40:06.536736 29641 net.cpp:122] Setting up conv1_1
I0728 16:40:06.536846 29641 net.cpp:129] Top shape: 1 64 384 512 (12582912)
I0728 16:40:06.536890 29641 net.cpp:137] Memory required for data: 53096448
I0728 16:40:06.536952 29641 layer_factory.hpp:77] Creating layer relu1_1
I0728 16:40:06.537004 29641 net.cpp:84] Creating Layer relu1_1
I0728 16:40:06.537047 29641 net.cpp:406] relu1_1 <- conv1_1
I0728 16:40:06.537091 29641 net.cpp:367] relu1_1 -> conv1_1 (in-place)
I0728 16:40:06.537317 29641 net.cpp:122] Setting up relu1_1
I0728 16:40:06.537374 29641 net.cpp:129] Top shape: 1 64 384 512 (12582912)
I0728 16:40:06.537415 29641 net.cpp:137] Memory required for data: 103428096
I0728 16:40:06.537644 29641 layer_factory.hpp:77] Creating layer conv1_2
I0728 16:40:06.537698 29641 net.cpp:84] Creating Layer conv1_2
I0728 16:40:06.537750 29641 net.cpp:406] conv1_2 <- conv1_1
I0728 16:40:06.537793 29641 net.cpp:380] conv1_2 -> conv1_2
I0728 16:40:06.541194 29641 net.cpp:122] Setting up conv1_2
I0728 16:40:06.541260 29641 net.cpp:129] Top shape: 1 64 384 512 (12582912)
I0728 16:40:06.541308 29641 net.cpp:137] Memory required for data: 153759744
I0728 16:40:06.541358 29641 layer_factory.hpp:77] Creating layer relu1_2
I0728 16:40:06.541404 29641 net.cpp:84] Creating Layer relu1_2
I0728 16:40:06.541445 29641 net.cpp:406] relu1_2 <- conv1_2
I0728 16:40:06.541488 29641 net.cpp:367] relu1_2 -> conv1_2 (in-place)
I0728 16:40:06.541703 29641 net.cpp:122] Setting up relu1_2
I0728 16:40:06.541759 29641 net.cpp:129] Top shape: 1 64 384 512 (12582912)
I0728 16:40:06.541801 29641 net.cpp:137] Memory required for data: 204091392
I0728 16:40:06.541841 29641 layer_factory.hpp:77] Creating layer pool1
I0728 16:40:06.541894 29641 net.cpp:84] Creating Layer pool1
I0728 16:40:06.541934 29641 net.cpp:406] pool1 <- conv1_2
I0728 16:40:06.541976 29641 net.cpp:380] pool1 -> pool1
I0728 16:40:06.542230 29641 net.cpp:122] Setting up pool1
I0728 16:40:06.542284 29641 net.cpp:129] Top shape: 1 64 192 256 (3145728)
I0728 16:40:06.542323 29641 net.cpp:137] Memory required for data: 216674304
I0728 16:40:06.542362 29641 layer_factory.hpp:77] Creating layer conv2_1
I0728 16:40:06.542410 29641 net.cpp:84] Creating Layer conv2_1
I0728 16:40:06.542453 29641 net.cpp:406] conv2_1 <- pool1
I0728 16:40:06.542495 29641 net.cpp:380] conv2_1 -> conv2_1
I0728 16:40:06.545846 29641 net.cpp:122] Setting up conv2_1
I0728 16:40:06.545912 29641 net.cpp:129] Top shape: 1 128 192 256 (6291456)
I0728 16:40:06.545955 29641 net.cpp:137] Memory required for data: 241840128
I0728 16:40:06.546003 29641 layer_factory.hpp:77] Creating layer relu2_1
I0728 16:40:06.546048 29641 net.cpp:84] Creating Layer relu2_1
I0728 16:40:06.546089 29641 net.cpp:406] relu2_1 <- conv2_1
I0728 16:40:06.546131 29641 net.cpp:367] relu2_1 -> conv2_1 (in-place)
I0728 16:40:06.546757 29641 net.cpp:122] Setting up relu2_1
I0728 16:40:06.548705 29641 net.cpp:129] Top shape: 1 128 192 256 (6291456)
I0728 16:40:06.548773 29641 net.cpp:137] Memory required for data: 267005952
I0728 16:40:06.548815 29641 layer_factory.hpp:77] Creating layer conv2_2
I0728 16:40:06.548862 29641 net.cpp:84] Creating Layer conv2_2
I0728 16:40:06.548904 29641 net.cpp:406] conv2_2 <- conv2_1
I0728 16:40:06.548948 29641 net.cpp:380] conv2_2 -> conv2_2
I0728 16:40:06.552846 29641 net.cpp:122] Setting up conv2_2
I0728 16:40:06.552917 29641 net.cpp:129] Top shape: 1 128 192 256 (6291456)
I0728 16:40:06.552961 29641 net.cpp:137] Memory required for data: 292171776
I0728 16:40:06.553006 29641 layer_factory.hpp:77] Creating layer relu2_2
I0728 16:40:06.553058 29641 net.cpp:84] Creating Layer relu2_2
I0728 16:40:06.553098 29641 net.cpp:406] relu2_2 <- conv2_2
I0728 16:40:06.553140 29641 net.cpp:367] relu2_2 -> conv2_2 (in-place)
I0728 16:40:06.553356 29641 net.cpp:122] Setting up relu2_2
I0728 16:40:06.553412 29641 net.cpp:129] Top shape: 1 128 192 256 (6291456)
I0728 16:40:06.553452 29641 net.cpp:137] Memory required for data: 317337600
I0728 16:40:06.553493 29641 layer_factory.hpp:77] Creating layer pool2
I0728 16:40:06.553534 29641 net.cpp:84] Creating Layer pool2
I0728 16:40:06.553575 29641 net.cpp:406] pool2 <- conv2_2
I0728 16:40:06.553617 29641 net.cpp:380] pool2 -> pool2
I0728 16:40:06.553700 29641 net.cpp:122] Setting up pool2
I0728 16:40:06.553748 29641 net.cpp:129] Top shape: 1 128 96 128 (1572864)
I0728 16:40:06.553788 29641 net.cpp:137] Memory required for data: 323629056
I0728 16:40:06.553827 29641 layer_factory.hpp:77] Creating layer conv3_1
I0728 16:40:06.553871 29641 net.cpp:84] Creating Layer conv3_1
I0728 16:40:06.553912 29641 net.cpp:406] conv3_1 <- pool2
I0728 16:40:06.553956 29641 net.cpp:380] conv3_1 -> conv3_1
I0728 16:40:06.559587 29641 net.cpp:122] Setting up conv3_1
I0728 16:40:06.559736 29641 net.cpp:129] Top shape: 1 256 96 128 (3145728)
I0728 16:40:06.559779 29641 net.cpp:137] Memory required for data: 336211968
I0728 16:40:06.559828 29641 layer_factory.hpp:77] Creating layer relu3_1
I0728 16:40:06.559871 29641 net.cpp:84] Creating Layer relu3_1
I0728 16:40:06.559912 29641 net.cpp:406] relu3_1 <- conv3_1
I0728 16:40:06.559954 29641 net.cpp:367] relu3_1 -> conv3_1 (in-place)
I0728 16:40:06.560168 29641 net.cpp:122] Setting up relu3_1
I0728 16:40:06.560222 29641 net.cpp:129] Top shape: 1 256 96 128 (3145728)
I0728 16:40:06.560263 29641 net.cpp:137] Memory required for data: 348794880
I0728 16:40:06.560302 29641 layer_factory.hpp:77] Creating layer conv3_2
I0728 16:40:06.560348 29641 net.cpp:84] Creating Layer conv3_2
I0728 16:40:06.560389 29641 net.cpp:406] conv3_2 <- conv3_1
I0728 16:40:06.560432 29641 net.cpp:380] conv3_2 -> conv3_2
I0728 16:40:06.573793 29641 net.cpp:122] Setting up conv3_2
I0728 16:40:06.573824 29641 net.cpp:129] Top shape: 1 256 96 128 (3145728)
I0728 16:40:06.573837 29641 net.cpp:137] Memory required for data: 361377792
I0728 16:40:06.573855 29641 layer_factory.hpp:77] Creating layer relu3_2
I0728 16:40:06.573873 29641 net.cpp:84] Creating Layer relu3_2
I0728 16:40:06.573886 29641 net.cpp:406] relu3_2 <- conv3_2
I0728 16:40:06.573906 29641 net.cpp:367] relu3_2 -> conv3_2 (in-place)
I0728 16:40:06.574446 29641 net.cpp:122] Setting up relu3_2
I0728 16:40:06.574460 29641 net.cpp:129] Top shape: 1 256 96 128 (3145728)
I0728 16:40:06.574470 29641 net.cpp:137] Memory required for data: 373960704
I0728 16:40:06.574479 29641 layer_factory.hpp:77] Creating layer conv3_3
I0728 16:40:06.574501 29641 net.cpp:84] Creating Layer conv3_3
I0728 16:40:06.574507 29641 net.cpp:406] conv3_3 <- conv3_2
I0728 16:40:06.574520 29641 net.cpp:380] conv3_3 -> conv3_3
I0728 16:40:06.583385 29641 net.cpp:122] Setting up conv3_3
I0728 16:40:06.583410 29641 net.cpp:129] Top shape: 1 256 96 128 (3145728)
I0728 16:40:06.583420 29641 net.cpp:137] Memory required for data: 386543616
I0728 16:40:06.583437 29641 layer_factory.hpp:77] Creating layer relu3_3
I0728 16:40:06.583452 29641 net.cpp:84] Creating Layer relu3_3
I0728 16:40:06.583464 29641 net.cpp:406] relu3_3 <- conv3_3
I0728 16:40:06.583477 29641 net.cpp:367] relu3_3 -> conv3_3 (in-place)
I0728 16:40:06.584035 29641 net.cpp:122] Setting up relu3_3
I0728 16:40:06.584054 29641 net.cpp:129] Top shape: 1 256 96 128 (3145728)
I0728 16:40:06.584064 29641 net.cpp:137] Memory required for data: 399126528
I0728 16:40:06.584075 29641 layer_factory.hpp:77] Creating layer pool3
I0728 16:40:06.584089 29641 net.cpp:84] Creating Layer pool3
I0728 16:40:06.584098 29641 net.cpp:406] pool3 <- conv3_3
I0728 16:40:06.584112 29641 net.cpp:380] pool3 -> pool3
I0728 16:40:06.584169 29641 net.cpp:122] Setting up pool3
I0728 16:40:06.584185 29641 net.cpp:129] Top shape: 1 256 48 64 (786432)
I0728 16:40:06.584193 29641 net.cpp:137] Memory required for data: 402272256
I0728 16:40:06.584203 29641 layer_factory.hpp:77] Creating layer conv4_1
I0728 16:40:06.584218 29641 net.cpp:84] Creating Layer conv4_1
I0728 16:40:06.584229 29641 net.cpp:406] conv4_1 <- pool3
I0728 16:40:06.584241 29641 net.cpp:380] conv4_1 -> conv4_1
I0728 16:40:06.612931 29641 net.cpp:122] Setting up conv4_1
I0728 16:40:06.612975 29641 net.cpp:129] Top shape: 1 512 48 64 (1572864)
I0728 16:40:06.612988 29641 net.cpp:137] Memory required for data: 408563712
I0728 16:40:06.613009 29641 layer_factory.hpp:77] Creating layer relu4_1
I0728 16:40:06.613029 29641 net.cpp:84] Creating Layer relu4_1
I0728 16:40:06.613042 29641 net.cpp:406] relu4_1 <- conv4_1
I0728 16:40:06.613059 29641 net.cpp:367] relu4_1 -> conv4_1 (in-place)
I0728 16:40:06.613324 29641 net.cpp:122] Setting up relu4_1
I0728 16:40:06.613348 29641 net.cpp:129] Top shape: 1 512 48 64 (1572864)
I0728 16:40:06.613359 29641 net.cpp:137] Memory required for data: 414855168
I0728 16:40:06.613371 29641 layer_factory.hpp:77] Creating layer conv4_2
I0728 16:40:06.613394 29641 net.cpp:84] Creating Layer conv4_2
I0728 16:40:06.613445 29641 net.cpp:406] conv4_2 <- conv4_1
I0728 16:40:06.613463 29641 net.cpp:380] conv4_2 -> conv4_2
I0728 16:40:06.645028 29641 net.cpp:122] Setting up conv4_2
I0728 16:40:06.645066 29641 net.cpp:129] Top shape: 1 512 48 64 (1572864)
I0728 16:40:06.645077 29641 net.cpp:137] Memory required for data: 421146624
I0728 16:40:06.645097 29641 layer_factory.hpp:77] Creating layer relu4_2
I0728 16:40:06.645113 29641 net.cpp:84] Creating Layer relu4_2
I0728 16:40:06.645124 29641 net.cpp:406] relu4_2 <- conv4_2
I0728 16:40:06.645138 29641 net.cpp:367] relu4_2 -> conv4_2 (in-place)
I0728 16:40:06.654305 29641 net.cpp:122] Setting up relu4_2
I0728 16:40:06.654345 29641 net.cpp:129] Top shape: 1 512 48 64 (1572864)
I0728 16:40:06.654359 29641 net.cpp:137] Memory required for data: 427438080
I0728 16:40:06.654369 29641 layer_factory.hpp:77] Creating layer conv4_3
I0728 16:40:06.654391 29641 net.cpp:84] Creating Layer conv4_3
I0728 16:40:06.654397 29641 net.cpp:406] conv4_3 <- conv4_2
I0728 16:40:06.654408 29641 net.cpp:380] conv4_3 -> conv4_3
I0728 16:40:06.683450 29641 net.cpp:122] Setting up conv4_3
I0728 16:40:06.683562 29641 net.cpp:129] Top shape: 1 512 48 64 (1572864)
I0728 16:40:06.683605 29641 net.cpp:137] Memory required for data: 433729536
I0728 16:40:06.683653 29641 layer_factory.hpp:77] Creating layer relu4_3
I0728 16:40:06.683702 29641 net.cpp:84] Creating Layer relu4_3
I0728 16:40:06.683745 29641 net.cpp:406] relu4_3 <- conv4_3
I0728 16:40:06.683790 29641 net.cpp:367] relu4_3 -> conv4_3 (in-place)
I0728 16:40:06.684012 29641 net.cpp:122] Setting up relu4_3
I0728 16:40:06.684561 29641 net.cpp:129] Top shape: 1 512 48 64 (1572864)
I0728 16:40:06.684576 29641 net.cpp:137] Memory required for data: 440020992
I0728 16:40:06.684587 29641 layer_factory.hpp:77] Creating layer pool4
I0728 16:40:06.684602 29641 net.cpp:84] Creating Layer pool4
I0728 16:40:06.684612 29641 net.cpp:406] pool4 <- conv4_3
I0728 16:40:06.684623 29641 net.cpp:380] pool4 -> pool4
I0728 16:40:06.687089 29641 net.cpp:122] Setting up pool4
I0728 16:40:06.687121 29641 net.cpp:129] Top shape: 1 512 48 64 (1572864)
I0728 16:40:06.687137 29641 net.cpp:137] Memory required for data: 446312448
I0728 16:40:06.687180 29641 layer_factory.hpp:77] Creating layer conv5_1
I0728 16:40:06.687207 29641 net.cpp:84] Creating Layer conv5_1
I0728 16:40:06.687223 29641 net.cpp:406] conv5_1 <- pool4
I0728 16:40:06.687243 29641 net.cpp:380] conv5_1 -> conv5_1
I0728 16:40:06.732571 29641 net.cpp:122] Setting up conv5_1
I0728 16:40:06.732611 29641 net.cpp:129] Top shape: 1 512 48 64 (1572864)
I0728 16:40:06.732620 29641 net.cpp:137] Memory required for data: 452603904
I0728 16:40:06.732636 29641 layer_factory.hpp:77] Creating layer relu5_1
I0728 16:40:06.732653 29641 net.cpp:84] Creating Layer relu5_1
I0728 16:40:06.732662 29641 net.cpp:406] relu5_1 <- conv5_1
I0728 16:40:06.732674 29641 net.cpp:367] relu5_1 -> conv5_1 (in-place)
I0728 16:40:06.733476 29641 net.cpp:122] Setting up relu5_1
I0728 16:40:06.733497 29641 net.cpp:129] Top shape: 1 512 48 64 (1572864)
I0728 16:40:06.733506 29641 net.cpp:137] Memory required for data: 458895360
I0728 16:40:06.733515 29641 layer_factory.hpp:77] Creating layer conv5_2
I0728 16:40:06.733532 29641 net.cpp:84] Creating Layer conv5_2
I0728 16:40:06.733541 29641 net.cpp:406] conv5_2 <- conv5_1
I0728 16:40:06.733552 29641 net.cpp:380] conv5_2 -> conv5_2
I0728 16:40:06.764227 29641 net.cpp:122] Setting up conv5_2
I0728 16:40:06.764329 29641 net.cpp:129] Top shape: 1 512 48 64 (1572864)
I0728 16:40:06.764374 29641 net.cpp:137] Memory required for data: 465186816
I0728 16:40:06.764422 29641 layer_factory.hpp:77] Creating layer relu5_2
I0728 16:40:06.764472 29641 net.cpp:84] Creating Layer relu5_2
I0728 16:40:06.764479 29641 net.cpp:406] relu5_2 <- conv5_2
I0728 16:40:06.764488 29641 net.cpp:367] relu5_2 -> conv5_2 (in-place)
I0728 16:40:06.764726 29641 net.cpp:122] Setting up relu5_2
I0728 16:40:06.764739 29641 net.cpp:129] Top shape: 1 512 48 64 (1572864)
I0728 16:40:06.764744 29641 net.cpp:137] Memory required for data: 471478272
I0728 16:40:06.764853 29641 layer_factory.hpp:77] Creating layer conv5_3
I0728 16:40:06.764869 29641 net.cpp:84] Creating Layer conv5_3
I0728 16:40:06.764873 29641 net.cpp:406] conv5_3 <- conv5_2
I0728 16:40:06.764880 29641 net.cpp:380] conv5_3 -> conv5_3
I0728 16:40:06.795104 29641 net.cpp:122] Setting up conv5_3
I0728 16:40:06.795133 29641 net.cpp:129] Top shape: 1 512 48 64 (1572864)
I0728 16:40:06.795140 29641 net.cpp:137] Memory required for data: 477769728
I0728 16:40:06.795150 29641 layer_factory.hpp:77] Creating layer relu5_3
I0728 16:40:06.795164 29641 net.cpp:84] Creating Layer relu5_3
I0728 16:40:06.795171 29641 net.cpp:406] relu5_3 <- conv5_3
I0728 16:40:06.795179 29641 net.cpp:367] relu5_3 -> conv5_3 (in-place)
I0728 16:40:06.795903 29641 net.cpp:122] Setting up relu5_3
I0728 16:40:06.795917 29641 net.cpp:129] Top shape: 1 512 48 64 (1572864)
I0728 16:40:06.795923 29641 net.cpp:137] Memory required for data: 484061184
I0728 16:40:06.795929 29641 layer_factory.hpp:77] Creating layer conv_score
I0728 16:40:06.795943 29641 net.cpp:84] Creating Layer conv_score
I0728 16:40:06.795949 29641 net.cpp:406] conv_score <- conv5_3
I0728 16:40:06.795958 29641 net.cpp:380] conv_score -> conv_score
I0728 16:40:06.893784 29641 net.cpp:122] Setting up conv_score
I0728 16:40:06.893815 29641 net.cpp:129] Top shape: 1 32 48 64 (98304)
I0728 16:40:06.893822 29641 net.cpp:137] Memory required for data: 484454400
I0728 16:40:06.893836 29641 layer_factory.hpp:77] Creating layer relu_score
I0728 16:40:06.893847 29641 net.cpp:84] Creating Layer relu_score
I0728 16:40:06.893854 29641 net.cpp:406] relu_score <- conv_score
I0728 16:40:06.893863 29641 net.cpp:367] relu_score -> conv_score (in-place)
I0728 16:40:06.894490 29641 net.cpp:122] Setting up relu_score
I0728 16:40:06.894506 29641 net.cpp:129] Top shape: 1 32 48 64 (98304)
I0728 16:40:06.894511 29641 net.cpp:137] Memory required for data: 484847616
I0728 16:40:06.894517 29641 layer_factory.hpp:77] Creating layer slicer_conv
I0728 16:40:06.894529 29641 net.cpp:84] Creating Layer slicer_conv
I0728 16:40:06.894536 29641 net.cpp:406] slicer_conv <- conv_score
I0728 16:40:06.894546 29641 net.cpp:380] slicer_conv -> score1
I0728 16:40:06.894562 29641 net.cpp:380] slicer_conv -> score2
…
I0728 16:40:06.894785 29641 net.cpp:380] slicer_conv -> score25
I0728 16:40:06.894795 29641 net.cpp:380] slicer_conv -> score26
I0728 16:40:06.894804 29641 net.cpp:380] slicer_conv -> score27
I0728 16:40:06.894814 29641 net.cpp:380] slicer_conv -> score28
I0728 16:40:06.894822 29641 net.cpp:380] slicer_conv -> score29
I0728 16:40:06.894831 29641 net.cpp:380] slicer_conv -> score30
I0728 16:40:06.894840 29641 net.cpp:380] slicer_conv -> score31
I0728 16:40:06.894965 29641 net.cpp:380] slicer_conv -> score32
I0728 16:40:06.895437 29641 net.cpp:122] Setting up slicer_conv
I0728 16:40:06.895447 29641 net.cpp:129] Top shape: 1 1 48 64 (3072)
I0728 16:40:06.895454 29641 net.cpp:129] Top shape: 1 1 48 64 (3072)
I0728 16:40:06.895460 29641 net.cpp:129] Top shape: 1 1 48 64 (3072)
I0728 16:40:06.895467 29641 net.cpp:129] Top shape: 1 1 48 64 (3072)
I0728 16:40:06.895473 29641 net.cpp:129] Top shape: 1 1 48 64 (3072)
I0728 16:40:06.895478 29641 net.cpp:129] Top shape: 1 1 48 64 (3072)
I0728 16:40:06.895484 29641 net.cpp:129] Top shape: 1 1 48 64 (3072)
I0728 16:40:06.895490 29641 net.cpp:129] Top shape: 1 1 48 64 (3072)
I0728 16:40:06.895496 29641 net.cpp:129] Top shape: 1 1 48 64 (3072)
I0728 16:40:06.895503 29641 net.cpp:129] Top shape: 1 1 48 64 (3072)
I0728 16:40:06.895509 29641 net.cpp:129] Top shape: 1 1 48 64 (3072)
I0728 16:40:06.895514 29641 net.cpp:129] Top shape: 1 1 48 64 (3072)
I0728 16:40:06.895520 29641 net.cpp:129] Top shape: 1 1 48 64 (3072)
I0728 16:40:06.895526 29641 net.cpp:129] Top shape: 1 1 48 64 (3072)
I0728 16:40:06.895532 29641 net.cpp:129] Top shape: 1 1 48 64 (3072)
I0728 16:40:06.895539 29641 net.cpp:129] Top shape: 1 1 48 64 (3072)
I0728 16:40:06.895545 29641 net.cpp:129] Top shape: 1 1 48 64 (3072)
I0728 16:40:06.895550 29641 net.cpp:129] Top shape: 1 1 48 64 (3072)
I0728 16:40:06.895556 29641 net.cpp:129] Top shape: 1 1 48 64 (3072)
I0728 16:40:06.895562 29641 net.cpp:129] Top shape: 1 1 48 64 (3072)
I0728 16:40:06.895567 29641 net.cpp:129] Top shape: 1 1 48 64 (3072)
I0728 16:40:06.895573 29641 net.cpp:129] Top shape: 1 1 48 64 (3072)
I0728 16:40:06.895579 29641 net.cpp:129] Top shape: 1 1 48 64 (3072)
I0728 16:40:06.895586 29641 net.cpp:129] Top shape: 1 1 48 64 (3072)
I0728 16:40:06.895591 29641 net.cpp:129] Top shape: 1 1 48 64 (3072)
I0728 16:40:06.895597 29641 net.cpp:129] Top shape: 1 1 48 64 (3072)
I0728 16:40:06.895603 29641 net.cpp:129] Top shape: 1 1 48 64 (3072)
I0728 16:40:06.895608 29641 net.cpp:129] Top shape: 1 1 48 64 (3072)
I0728 16:40:06.895614 29641 net.cpp:129] Top shape: 1 1 48 64 (3072)
I0728 16:40:06.895620 29641 net.cpp:129] Top shape: 1 1 48 64 (3072)
I0728 16:40:06.895627 29641 net.cpp:129] Top shape: 1 1 48 64 (3072)
I0728 16:40:06.895632 29641 net.cpp:129] Top shape: 1 1 48 64 (3072)
I0728 16:40:06.895637 29641 net.cpp:137] Memory required for data: 485240832
I0728 16:40:06.895642 29641 layer_factory.hpp:77] Creating layer score1_slicer_conv_0_split
I0728 16:40:06.895651 29641 net.cpp:84] Creating Layer score1_slicer_conv_0_split
I0728 16:40:06.895656 29641 net.cpp:406] score1_slicer_conv_0_split <- score1
I0728 16:40:06.895669 29641 net.cpp:380] score1_slicer_conv_0_split -> score1_slicer_conv_0_split_0
I0728 16:40:06.895678 29641 net.cpp:380] score1_slicer_conv_0_split -> score1_slicer_conv_0_split_1
I0728 16:40:06.895725 29641 net.cpp:122] Setting up score1_slicer_conv_0_split
I0728 16:40:06.895735 29641 net.cpp:129] Top shape: 1 1 48 64 (3072)
I0728 16:40:06.895740 29641 net.cpp:129] Top shape: 1 1 48 64 (3072)
I0728 16:40:06.895745 29641 net.cpp:137] Memory required for data: 485265408
I0728 16:40:06.895750 29641 layer_factory.hpp:77] Creating layer score2_slicer_conv_1_split
I0728 16:40:06.895756 29641 net.cpp:84] Creating Layer score2_slicer_conv_1_split
I0728 16:40:06.895759 29641 net.cpp:406] score2_slicer_conv_1_split <- score2
I0728 16:40:06.895768 29641 net.cpp:380] score2_slicer_conv_1_split -> score2_slicer_conv_1_split_0
I0728 16:40:06.895776 29641 net.cpp:380] score2_slicer_conv_1_split -> score2_slicer_conv_1_split_1
I0728 16:40:06.895818 29641 net.cpp:122] Setting up score2_slicer_conv_1_split
I0728 16:40:06.895826 29641 net.cpp:129] Top shape: 1 1 48 64 (3072)
I0728 16:40:06.895833 29641 net.cpp:129] Top shape: 1 1 48 64 (3072)
I0728 16:40:06.895836 29641 net.cpp:137] Memory required for data: 485289984
I0728 16:40:06.895841 29641 layer_factory.hpp:77] Creating layer score3_slicer_conv_2_split
I0728 16:40:06.895848 29641 net.cpp:84] Creating Layer score3_slicer_conv_2_split
I0728 16:40:06.895877 29641 net.cpp:406] score3_slicer_conv_2_split <- score3
I0728 16:40:06.895887 29641 net.cpp:380] score3_slicer_conv_2_split -> score3_slicer_conv_2_split_0
I0728 16:40:06.895896 29641 net.cpp:380] score3_slicer_conv_2_split -> score3_slicer_conv_2_split_1
I0728 16:40:06.895946 29641 net.cpp:122] Setting up score3_slicer_conv_2_split
I0728 16:40:06.895953 29641 net.cpp:129] Top shape: 1 1 48 64 (3072)
I0728 16:40:06.895959 29641 net.cpp:129] Top shape: 1 1 48 64 (3072)
I0728 16:40:06.895963 29641 net.cpp:137] Memory required for data: 485314560
I0728 16:40:06.895968 29641 layer_factory.hpp:77] Creating layer score4_slicer_conv_3_split
I0728 16:40:06.895975 29641 net.cpp:84] Creating Layer score4_slicer_conv_3_split
I0728 16:40:06.895980 29641 net.cpp:406] score4_slicer_conv_3_split <- score4
I0728 16:40:06.895988 29641 net.cpp:380] score4_slicer_conv_3_split -> score4_slicer_conv_3_split_0
I0728 16:40:06.895997 29641 net.cpp:380] score4_slicer_conv_3_split -> score4_slicer_conv_3_split_1
I0728 16:40:06.896047 29641 net.cpp:122] Setting up score4_slicer_conv_3_split
I0728 16:40:06.896056 29641 net.cpp:129] Top shape: 1 1 48 64 (3072)
I0728 16:40:06.896062 29641 net.cpp:129] Top shape: 1 1 48 64 (3072)
I0728 16:40:06.896066 29641 net.cpp:137] Memory required for data: 485339136
I0728 16:40:06.896071 29641 layer_factory.hpp:77] Creating layer score5_slicer_conv_4_split
I0728 16:40:06.896077 29641 net.cpp:84] Creating Layer score5_slicer_conv_4_split
I0728 16:40:06.896082 29641 net.cpp:406] score5_slicer_conv_4_split <- score5
I0728 16:40:06.896088 29641 net.cpp:380] score5_slicer_conv_4_split -> score5_slicer_conv_4_split_0
I0728 16:40:06.896097 29641 net.cpp:380] score5_slicer_conv_4_split -> score5_slicer_conv_4_split_1
I0728 16:40:06.896137 29641 net.cpp:122] Setting up score5_slicer_conv_4_split
I0728 16:40:06.896145 29641 net.cpp:129] Top shape: 1 1 48 64 (3072)
I0728 16:40:06.896152 29641 net.cpp:129] Top shape: 1 1 48 64 (3072)
I0728 16:40:06.896155 29641 net.cpp:137] Memory required for data: 485363712
I0728 16:40:06.896160 29641 layer_factory.hpp:77] Creating layer score6_slicer_conv_5_split
I0728 16:40:06.896168 29641 net.cpp:84] Creating Layer score6_slicer_conv_5_split
I0728 16:40:06.896173 29641 net.cpp:406] score6_slicer_conv_5_split <- score6
I0728 16:40:06.896179 29641 net.cpp:380] score6_slicer_conv_5_split -> score6_slicer_conv_5_split_0
I0728 16:40:06.896188 29641 net.cpp:380] score6_slicer_conv_5_split -> score6_slicer_conv_5_split_1
I0728 16:40:06.896229 29641 net.cpp:122] Setting up score6_slicer_conv_5_split
I0728 16:40:06.896237 29641 net.cpp:129] Top shape: 1 1 48 64 (3072)
I0728 16:40:06.896242 29641 net.cpp:129] Top shape: 1 1 48 64 (3072)
I0728 16:40:06.896247 29641 net.cpp:137] Memory required for data: 485388288
I0728 16:40:06.896252 29641 layer_factory.hpp:77] Creating layer score7_slicer_conv_6_split
I0728 16:40:06.896258 29641 net.cpp:84] Creating Layer score7_slicer_conv_6_split
I0728 16:40:06.896263 29641 net.cpp:406] score7_slicer_conv_6_split <- score7
I0728 16:40:06.896270 29641 net.cpp:380] score7_slicer_conv_6_split -> score7_slicer_conv_6_split_0
I0728 16:40:06.896277 29641 net.cpp:380] score7_slicer_conv_6_split -> score7_slicer_conv_6_split_1
I0728 16:40:06.896323 29641 net.cpp:122] Setting up score7_slicer_conv_6_split
I0728 16:40:06.896332 29641 net.cpp:129] Top shape: 1 1 48 64 (3072)
I0728 16:40:06.896337 29641 net.cpp:129] Top shape: 1 1 48 64 (3072)
I0728 16:40:06.896342 29641 net.cpp:137] Memory required for data: 485412864
I0728 16:40:06.896347 29641 layer_factory.hpp:77] Creating layer score8_slicer_conv_7_split
I0728 16:40:06.896353 29641 net.cpp:84] Creating Layer score8_slicer_conv_7_split
I0728 16:40:06.896358 29641 net.cpp:406] score8_slicer_conv_7_split <- score8
I0728 16:40:06.896365 29641 net.cpp:380] score8_slicer_conv_7_split -> score8_slicer_conv_7_split_0
I0728 16:40:06.896373 29641 net.cpp:380] score8_slicer_conv_7_split -> score8_slicer_conv_7_split_1
I0728 16:40:06.896414 29641 net.cpp:122] Setting up score8_slicer_conv_7_split
I0728 16:40:06.896422 29641 net.cpp:129] Top shape: 1 1 48 64 (3072)
I0728 16:40:06.896438 29641 net.cpp:129] Top shape: 1 1 48 64 (3072)
I0728 16:40:06.896442 29641 net.cpp:137] Memory required for data: 485437440
I0728 16:40:06.896447 29641 layer_factory.hpp:77] Creating layer score9_slicer_conv_8_split
I0728 16:40:06.896455 29641 net.cpp:84] Creating Layer score9_slicer_conv_8_split
I0728 16:40:06.896459 29641 net.cpp:406] score9_slicer_conv_8_split <- score9
I0728 16:40:06.896466 29641 net.cpp:380] score9_slicer_conv_8_split -> score9_slicer_conv_8_split_0
I0728 16:40:06.896473 29641 net.cpp:380] score9_slicer_conv_8_split -> score9_slicer_conv_8_split_1
I0728 16:40:06.896519 29641 net.cpp:122] Setting up score9_slicer_conv_8_split
I0728 16:40:06.896528 29641 net.cpp:129] Top shape: 1 1 48 64 (3072)
I0728 16:40:06.896533 29641 net.cpp:129] Top shape: 1 1 48 64 (3072)
I0728 16:40:06.896538 29641 net.cpp:137] Memory required for data: 485462016
I0728 16:40:06.896541 29641 layer_factory.hpp:77] Creating layer score10_slicer_conv_9_split
I0728 16:40:06.896548 29641 net.cpp:84] Creating Layer score10_slicer_conv_9_split
I0728 16:40:06.896553 29641 net.cpp:406] score10_slicer_conv_9_split <- score10
I0728 16:40:06.896561 29641 net.cpp:380] score10_slicer_conv_9_split -> score10_slicer_conv_9_split_0
I0728 16:40:06.896569 29641 net.cpp:380] score10_slicer_conv_9_split -> score10_slicer_conv_9_split_1
I0728 16:40:06.896611 29641 net.cpp:122] Setting up score10_slicer_conv_9_split
I0728 16:40:06.896620 29641 net.cpp:129] Top shape: 1 1 48 64 (3072)
I0728 16:40:06.896625 29641 net.cpp:129] Top shape: 1 1 48 64 (3072)
I0728 16:40:06.896630 29641 net.cpp:137] Memory required for data: 485486592
I0728 16:40:06.896633 29641 layer_factory.hpp:77] Creating layer score11_slicer_conv_10_split
I0728 16:40:06.896641 29641 net.cpp:84] Creating Layer score11_slicer_conv_10_split
I0728 16:40:06.896646 29641 net.cpp:406] score11_slicer_conv_10_split <- score11
I0728 16:40:06.896651 29641 net.cpp:380] score11_slicer_conv_10_split -> score11_slicer_conv_10_split_0
I0728 16:40:06.896659 29641 net.cpp:380] score11_slicer_conv_10_split -> score11_slicer_conv_10_split_1
I0728 16:40:06.896702 29641 net.cpp:122] Setting up score11_slicer_conv_10_split
I0728 16:40:06.896709 29641 net.cpp:129] Top shape: 1 1 48 64 (3072)
I0728 16:40:06.896714 29641 net.cpp:129] Top shape: 1 1 48 64 (3072)
I0728 16:40:06.896718 29641 net.cpp:137] Memory required for data: 485511168
I0728 16:40:06.896723 29641 layer_factory.hpp:77] Creating layer score12_slicer_conv_11_split
I0728 16:40:06.896729 29641 net.cpp:84] Creating Layer score12_slicer_conv_11_split
I0728 16:40:06.896734 29641 net.cpp:406] score12_slicer_conv_11_split <- score12
I0728 16:40:06.896744 29641 net.cpp:380] score12_slicer_conv_11_split -> score12_slicer_conv_11_split_0
I0728 16:40:06.896752 29641 net.cpp:380] score12_slicer_conv_11_split -> score12_slicer_conv_11_split_1
I0728 16:40:06.896793 29641 net.cpp:122] Setting up score12_slicer_conv_11_split
I0728 16:40:06.896801 29641 net.cpp:129] Top shape: 1 1 48 64 (3072)
I0728 16:40:06.896807 29641 net.cpp:129] Top shape: 1 1 48 64 (3072)
I0728 16:40:06.896811 29641 net.cpp:137] Memory required for data: 485535744
I0728 16:40:06.896816 29641 layer_factory.hpp:77] Creating layer score13_slicer_conv_12_split
I0728 16:40:06.896824 29641 net.cpp:84] Creating Layer score13_slicer_conv_12_split
I0728 16:40:06.896829 29641 net.cpp:406] score13_slicer_conv_12_split <- score13
I0728 16:40:06.896836 29641 net.cpp:380] score13_slicer_conv_12_split -> score13_slicer_conv_12_split_0
I0728 16:40:06.896843 29641 net.cpp:380] score13_slicer_conv_12_split -> score13_slicer_conv_12_split_1
I0728 16:40:06.896884 29641 net.cpp:122] Setting up score13_slicer_conv_12_split
I0728 16:40:06.896893 29641 net.cpp:129] Top shape: 1 1 48 64 (3072)
I0728 16:40:06.896898 29641 net.cpp:129] Top shape: 1 1 48 64 (3072)
I0728 16:40:06.896903 29641 net.cpp:137] Memory required for data: 485560320
I0728 16:40:06.896908 29641 layer_factory.hpp:77] Creating layer score14_slicer_conv_13_split
I0728 16:40:06.896914 29641 net.cpp:84] Creating Layer score14_slicer_conv_13_split
I0728 16:40:06.896927 29641 net.cpp:406] score14_slicer_conv_13_split <- score14
I0728 16:40:06.896934 29641 net.cpp:380] score14_slicer_conv_13_split -> score14_slicer_conv_13_split_0
I0728 16:40:06.896944 29641 net.cpp:380] score14_slicer_conv_13_split -> score14_slicer_conv_13_split_1
I0728 16:40:06.896986 29641 net.cpp:122] Setting up score14_slicer_conv_13_split
I0728 16:40:06.896993 29641 net.cpp:129] Top shape: 1 1 48 64 (3072)
I0728 16:40:06.896999 29641 net.cpp:129] Top shape: 1 1 48 64 (3072)
I0728 16:40:06.897004 29641 net.cpp:137] Memory required for data: 485584896
I0728 16:40:06.897009 29641 layer_factory.hpp:77] Creating layer score15_slicer_conv_14_split
I0728 16:40:06.897018 29641 net.cpp:84] Creating Layer score15_slicer_conv_14_split
I0728 16:40:06.897023 29641 net.cpp:406] score15_slicer_conv_14_split <- score15
I0728 16:40:06.897032 29641 net.cpp:380] score15_slicer_conv_14_split -> score15_slicer_conv_14_split_0
I0728 16:40:06.897039 29641 net.cpp:380] score15_slicer_conv_14_split -> score15_slicer_conv_14_split_1
I0728 16:40:06.897081 29641 net.cpp:122] Setting up score15_slicer_conv_14_split
I0728 16:40:06.897090 29641 net.cpp:129] Top shape: 1 1 48 64 (3072)
I0728 16:40:06.897096 29641 net.cpp:129] Top shape: 1 1 48 64 (3072)
I0728 16:40:06.897101 29641 net.cpp:137] Memory required for data: 485609472
I0728 16:40:06.897106 29641 layer_factory.hpp:77] Creating layer score16_slicer_conv_15_split
I0728 16:40:06.897114 29641 net.cpp:84] Creating Layer score16_slicer_conv_15_split
I0728 16:40:06.897119 29641 net.cpp:406] score16_slicer_conv_15_split <- score16
I0728 16:40:06.897125 29641 net.cpp:380] score16_slicer_conv_15_split -> score16_slicer_conv_15_split_0
I0728 16:40:06.897133 29641 net.cpp:380] score16_slicer_conv_15_split -> score16_slicer_conv_15_split_1
I0728 16:40:06.897178 29641 net.cpp:122] Setting up score16_slicer_conv_15_split
I0728 16:40:06.897187 29641 net.cpp:129] Top shape: 1 1 48 64 (3072)
I0728 16:40:06.897192 29641 net.cpp:129] Top shape: 1 1 48 64 (3072)
I0728 16:40:06.897195 29641 net.cpp:137] Memory required for data: 485634048
I0728 16:40:06.897198 29641 layer_factory.hpp:77] Creating layer score17_slicer_conv_16_split
I0728 16:40:06.897204 29641 net.cpp:84] Creating Layer score17_slicer_conv_16_split
I0728 16:40:06.897208 29641 net.cpp:406] score17_slicer_conv_16_split <- score17
I0728 16:40:06.897214 29641 net.cpp:380] score17_slicer_conv_16_split -> score17_slicer_conv_16_split_0
I0728 16:40:06.897222 29641 net.cpp:380] score17_slicer_conv_16_split -> score17_slicer_conv_16_split_1
I0728 16:40:06.897266 29641 net.cpp:122] Setting up score17_slicer_conv_16_split
I0728 16:40:06.897275 29641 net.cpp:129] Top shape: 1 1 48 64 (3072)
I0728 16:40:06.897281 29641 net.cpp:129] Top shape: 1 1 48 64 (3072)
I0728 16:40:06.897286 29641 net.cpp:137] Memory required for data: 485658624
I0728 16:40:06.897291 29641 layer_factory.hpp:77] Creating layer score18_slicer_conv_17_split
I0728 16:40:06.897298 29641 net.cpp:84] Creating Layer score18_slicer_conv_17_split
I0728 16:40:06.897310 29641 net.cpp:406] score18_slicer_conv_17_split <- score18
I0728 16:40:06.897318 29641 net.cpp:380] score18_slicer_conv_17_split -> score18_slicer_conv_17_split_0
I0728 16:40:06.897327 29641 net.cpp:380] score18_slicer_conv_17_split -> score18_slicer_conv_17_split_1
I0728 16:40:06.897372 29641 net.cpp:122] Setting up score18_slicer_conv_17_split
I0728 16:40:06.897382 29641 net.cpp:129] Top shape: 1 1 48 64 (3072)
I0728 16:40:06.897388 29641 net.cpp:129] Top shape: 1 1 48 64 (3072)
I0728 16:40:06.897392 29641 net.cpp:137] Memory required for data: 485683200
I0728 16:40:06.897398 29641 layer_factory.hpp:77] Creating layer score19_slicer_conv_18_split
I0728 16:40:06.897404 29641 net.cpp:84] Creating Layer score19_slicer_conv_18_split
I0728 16:40:06.897419 29641 net.cpp:406] score19_slicer_conv_18_split <- score19
I0728 16:40:06.897428 29641 net.cpp:380] score19_slicer_conv_18_split -> score19_slicer_conv_18_split_0
I0728 16:40:06.897436 29641 net.cpp:380] score19_slicer_conv_18_split -> score19_slicer_conv_18_split_1
I0728 16:40:06.897490 29641 net.cpp:122] Setting up score19_slicer_conv_18_split
I0728 16:40:06.897498 29641 net.cpp:129] Top shape: 1 1 48 64 (3072)
I0728 16:40:06.897505 29641 net.cpp:129] Top shape: 1 1 48 64 (3072)
I0728 16:40:06.897508 29641 net.cpp:137] Memory required for data: 485707776
I0728 16:40:06.897513 29641 layer_factory.hpp:77] Creating layer score20_slicer_conv_19_split
I0728 16:40:06.897521 29641 net.cpp:84] Creating Layer score20_slicer_conv_19_split
I0728 16:40:06.897527 29641 net.cpp:406] score20_slicer_conv_19_split <- score20
I0728 16:40:06.897533 29641 net.cpp:380] score20_slicer_conv_19_split -> score20_slicer_conv_19_split_0
I0728 16:40:06.897539 29641 net.cpp:380] score20_slicer_conv_19_split -> score20_slicer_conv_19_split_1
I0728 16:40:06.897581 29641 net.cpp:122] Setting up score20_slicer_conv_19_split
I0728 16:40:06.897589 29641 net.cpp:129] Top shape: 1 1 48 64 (3072)
I0728 16:40:06.897594 29641 net.cpp:129] Top shape: 1 1 48 64 (3072)
I0728 16:40:06.897598 29641 net.cpp:137] Memory required for data: 485732352
I0728 16:40:06.897600 29641 layer_factory.hpp:77] Creating layer score21_slicer_conv_20_split
I0728 16:40:06.897606 29641 net.cpp:84] Creating Layer score21_slicer_conv_20_split
I0728 16:40:06.897609 29641 net.cpp:406] score21_slicer_conv_20_split <- score21
I0728 16:40:06.897615 29641 net.cpp:380] score21_slicer_conv_20_split -> score21_slicer_conv_20_split_0
I0728 16:40:06.897624 29641 net.cpp:380] score21_slicer_conv_20_split -> score21_slicer_conv_20_split_1
I0728 16:40:06.897663 29641 net.cpp:122] Setting up score21_slicer_conv_20_split
I0728 16:40:06.897670 29641 net.cpp:129] Top shape: 1 1 48 64 (3072)
I0728 16:40:06.897677 29641 net.cpp:129] Top shape: 1 1 48 64 (3072)
I0728 16:40:06.897681 29641 net.cpp:137] Memory required for data: 485756928
I0728 16:40:06.897686 29641 layer_factory.hpp:77] Creating layer score22_slicer_conv_21_split
I0728 16:40:06.897694 29641 net.cpp:84] Creating Layer score22_slicer_conv_21_split
I0728 16:40:06.897701 29641 net.cpp:406] score22_slicer_conv_21_split <- score22
I0728 16:40:06.897707 29641 net.cpp:380] score22_slicer_conv_21_split -> score22_slicer_conv_21_split_0
I0728 16:40:06.897716 29641 net.cpp:380] score22_slicer_conv_21_split -> score22_slicer_conv_21_split_1
I0728 16:40:06.897759 29641 net.cpp:122] Setting up score22_slicer_conv_21_split
I0728 16:40:06.897768 29641 net.cpp:129] Top shape: 1 1 48 64 (3072)
I0728 16:40:06.897774 29641 net.cpp:129] Top shape: 1 1 48 64 (3072)
I0728 16:40:06.897779 29641 net.cpp:137] Memory required for data: 485781504
I0728 16:40:06.897784 29641 layer_factory.hpp:77] Creating layer score23_slicer_conv_22_split
I0728 16:40:06.897790 29641 net.cpp:84] Creating Layer score23_slicer_conv_22_split
I0728 16:40:06.897795 29641 net.cpp:406] score23_slicer_conv_22_split <- score23
I0728 16:40:06.897802 29641 net.cpp:380] score23_slicer_conv_22_split -> score23_slicer_conv_22_split_0
I0728 16:40:06.897825 29641 net.cpp:380] score23_slicer_conv_22_split -> score23_slicer_conv_22_split_1
I0728 16:40:06.897866 29641 net.cpp:122] Setting up score23_slicer_conv_22_split
I0728 16:40:06.897874 29641 net.cpp:129] Top shape: 1 1 48 64 (3072)
I0728 16:40:06.897881 29641 net.cpp:129] Top shape: 1 1 48 64 (3072)
I0728 16:40:06.897886 29641 net.cpp:137] Memory required for data: 485806080
I0728 16:40:06.897891 29641 layer_factory.hpp:77] Creating layer score24_slicer_conv_23_split
I0728 16:40:06.897897 29641 net.cpp:84] Creating Layer score24_slicer_conv_23_split
I0728 16:40:06.897902 29641 net.cpp:406] score24_slicer_conv_23_split <- score24
I0728 16:40:06.897908 29641 net.cpp:380] score24_slicer_conv_23_split -> score24_slicer_conv_23_split_0
I0728 16:40:06.897917 29641 net.cpp:380] score24_slicer_conv_23_split -> score24_slicer_conv_23_split_1
I0728 16:40:06.897958 29641 net.cpp:122] Setting up score24_slicer_conv_23_split
I0728 16:40:06.897964 29641 net.cpp:129] Top shape: 1 1 48 64 (3072)
I0728 16:40:06.897970 29641 net.cpp:129] Top shape: 1 1 48 64 (3072)
I0728 16:40:06.897984 29641 net.cpp:137] Memory required for data: 485830656
I0728 16:40:06.897990 29641 layer_factory.hpp:77] Creating layer score25_slicer_conv_24_split
I0728 16:40:06.897999 29641 net.cpp:84] Creating Layer score25_slicer_conv_24_split
I0728 16:40:06.898005 29641 net.cpp:406] score25_slicer_conv_24_split <- score25
I0728 16:40:06.898011 29641 net.cpp:380] score25_slicer_conv_24_split -> score25_slicer_conv_24_split_0
I0728 16:40:06.898020 29641 net.cpp:380] score25_slicer_conv_24_split -> score25_slicer_conv_24_split_1
I0728 16:40:06.898063 29641 net.cpp:122] Setting up score25_slicer_conv_24_split
I0728 16:40:06.898072 29641 net.cpp:129] Top shape: 1 1 48 64 (3072)
I0728 16:40:06.898077 29641 net.cpp:129] Top shape: 1 1 48 64 (3072)
I0728 16:40:06.898082 29641 net.cpp:137] Memory required for data: 485855232
I0728 16:40:06.898087 29641 layer_factory.hpp:77] Creating layer score26_slicer_conv_25_split
I0728 16:40:06.898093 29641 net.cpp:84] Creating Layer score26_slicer_conv_25_split
I0728 16:40:06.898099 29641 net.cpp:406] score26_slicer_conv_25_split <- score26
I0728 16:40:06.898104 29641 net.cpp:380] score26_slicer_conv_25_split -> score26_slicer_conv_25_split_0
I0728 16:40:06.898111 29641 net.cpp:380] score26_slicer_conv_25_split -> score26_slicer_conv_25_split_1
I0728 16:40:06.898154 29641 net.cpp:122] Setting up score26_slicer_conv_25_split
I0728 16:40:06.898160 29641 net.cpp:129] Top shape: 1 1 48 64 (3072)
I0728 16:40:06.898166 29641 net.cpp:129] Top shape: 1 1 48 64 (3072)
I0728 16:40:06.898171 29641 net.cpp:137] Memory required for data: 485879808
I0728 16:40:06.898176 29641 layer_factory.hpp:77] Creating layer score27_slicer_conv_26_split
I0728 16:40:06.898183 29641 net.cpp:84] Creating Layer score27_slicer_conv_26_split
I0728 16:40:06.898188 29641 net.cpp:406] score27_slicer_conv_26_split <- score27
I0728 16:40:06.898196 29641 net.cpp:380] score27_slicer_conv_26_split -> score27_slicer_conv_26_split_0
I0728 16:40:06.898205 29641 net.cpp:380] score27_slicer_conv_26_split -> score27_slicer_conv_26_split_1
I0728 16:40:06.898247 29641 net.cpp:122] Setting up score27_slicer_conv_26_split
I0728 16:40:06.898254 29641 net.cpp:129] Top shape: 1 1 48 64 (3072)
I0728 16:40:06.898260 29641 net.cpp:129] Top shape: 1 1 48 64 (3072)
I0728 16:40:06.898265 29641 net.cpp:137] Memory required for data: 485904384
I0728 16:40:06.898270 29641 layer_factory.hpp:77] Creating layer score28_slicer_conv_27_split
I0728 16:40:06.898277 29641 net.cpp:84] Creating Layer score28_slicer_conv_27_split
I0728 16:40:06.898283 29641 net.cpp:406] score28_slicer_conv_27_split <- score28
I0728 16:40:06.898290 29641 net.cpp:380] score28_slicer_conv_27_split -> score28_slicer_conv_27_split_0
I0728 16:40:06.898298 29641 net.cpp:380] score28_slicer_conv_27_split -> score28_slicer_conv_27_split_1
I0728 16:40:06.898340 29641 net.cpp:122] Setting up score28_slicer_conv_27_split
I0728 16:40:06.898349 29641 net.cpp:129] Top shape: 1 1 48 64 (3072)
I0728 16:40:06.898355 29641 net.cpp:129] Top shape: 1 1 48 64 (3072)
I0728 16:40:06.898360 29641 net.cpp:137] Memory required for data: 485928960
I0728 16:40:06.898365 29641 layer_factory.hpp:77] Creating layer score29_slicer_conv_28_split
I0728 16:40:06.898380 29641 net.cpp:84] Creating Layer score29_slicer_conv_28_split
I0728 16:40:06.898385 29641 net.cpp:406] score29_slicer_conv_28_split <- score29
I0728 16:40:06.898391 29641 net.cpp:380] score29_slicer_conv_28_split -> score29_slicer_conv_28_split_0
I0728 16:40:06.898399 29641 net.cpp:380] score29_slicer_conv_28_split -> score29_slicer_conv_28_split_1
I0728 16:40:06.898440 29641 net.cpp:122] Setting up score29_slicer_conv_28_split
I0728 16:40:06.898448 29641 net.cpp:129] Top shape: 1 1 48 64 (3072)
I0728 16:40:06.898454 29641 net.cpp:129] Top shape: 1 1 48 64 (3072)
I0728 16:40:06.898459 29641 net.cpp:137] Memory required for data: 485953536
I0728 16:40:06.898464 29641 layer_factory.hpp:77] Creating layer score30_slicer_conv_29_split
I0728 16:40:06.898473 29641 net.cpp:84] Creating Layer score30_slicer_conv_29_split
I0728 16:40:06.898486 29641 net.cpp:406] score30_slicer_conv_29_split <- score30
I0728 16:40:06.898494 29641 net.cpp:380] score30_slicer_conv_29_split -> score30_slicer_conv_29_split_0
I0728 16:40:06.898502 29641 net.cpp:380] score30_slicer_conv_29_split -> score30_slicer_conv_29_split_1
I0728 16:40:06.898547 29641 net.cpp:122] Setting up score30_slicer_conv_29_split
I0728 16:40:06.898555 29641 net.cpp:129] Top shape: 1 1 48 64 (3072)
I0728 16:40:06.898561 29641 net.cpp:129] Top shape: 1 1 48 64 (3072)
I0728 16:40:06.898566 29641 net.cpp:137] Memory required for data: 485978112
I0728 16:40:06.898571 29641 layer_factory.hpp:77] Creating layer score31_slicer_conv_30_split
I0728 16:40:06.898577 29641 net.cpp:84] Creating Layer score31_slicer_conv_30_split
I0728 16:40:06.898583 29641 net.cpp:406] score31_slicer_conv_30_split <- score31
I0728 16:40:06.898591 29641 net.cpp:380] score31_slicer_conv_30_split -> score31_slicer_conv_30_split_0
I0728 16:40:06.898598 29641 net.cpp:380] score31_slicer_conv_30_split -> score31_slicer_conv_30_split_1
I0728 16:40:06.898639 29641 net.cpp:122] Setting up score31_slicer_conv_30_split
I0728 16:40:06.898648 29641 net.cpp:129] Top shape: 1 1 48 64 (3072)
I0728 16:40:06.898653 29641 net.cpp:129] Top shape: 1 1 48 64 (3072)
I0728 16:40:06.898658 29641 net.cpp:137] Memory required for data: 486002688
I0728 16:40:06.898663 29641 layer_factory.hpp:77] Creating layer score32_slicer_conv_31_split
I0728 16:40:06.898669 29641 net.cpp:84] Creating Layer score32_slicer_conv_31_split
I0728 16:40:06.898674 29641 net.cpp:406] score32_slicer_conv_31_split <- score32
I0728 16:40:06.898682 29641 net.cpp:380] score32_slicer_conv_31_split -> score32_slicer_conv_31_split_0
I0728 16:40:06.898690 29641 net.cpp:380] score32_slicer_conv_31_split -> score32_slicer_conv_31_split_1
I0728 16:40:06.898731 29641 net.cpp:122] Setting up score32_slicer_conv_31_split
I0728 16:40:06.898739 29641 net.cpp:129] Top shape: 1 1 48 64 (3072)
I0728 16:40:06.898746 29641 net.cpp:129] Top shape: 1 1 48 64 (3072)
I0728 16:40:06.898751 29641 net.cpp:137] Memory required for data: 486027264
I0728 16:40:06.898756 29641 layer_factory.hpp:77] Creating layer sumscore
I0728 16:40:06.898771 29641 net.cpp:84] Creating Layer sumscore
I0728 16:40:06.898777 29641 net.cpp:406] sumscore <- score1_slicer_conv_0_split_0
I0728 16:40:06.898784 29641 net.cpp:406] sumscore <- score2_slicer_conv_1_split_0
I0728 16:40:06.898790 29641 net.cpp:406] sumscore <- score3_slicer_conv_2_split_0
…
I0728 16:40:06.899358 29641 net.cpp:380] sumscore_sumscore_0_split -> sumscore_sumscore_0_split_27
I0728 16:40:06.899380 29641 net.cpp:380] sumscore_sumscore_0_split -> sumscore_sumscore_0_split_28
I0728 16:40:06.899391 29641 net.cpp:380] sumscore_sumscore_0_split -> sumscore_sumscore_0_split_29
I0728 16:40:06.899402 29641 net.cpp:380] sumscore_sumscore_0_split -> sumscore_sumscore_0_split_30
I0728 16:40:06.899415 29641 net.cpp:380] sumscore_sumscore_0_split -> sumscore_sumscore_0_split_31
I0728 16:40:06.899858 29641 net.cpp:122] Setting up sumscore_sumscore_0_split
I0728 16:40:06.899868 29641 net.cpp:129] Top shape: 1 1 48 64 (3072)
I0728 16:40:06.899873 29641 net.cpp:129] Top shape: 1 1 48 64 (3072)
I0728 16:40:06.899879 29641 net.cpp:129] Top shape: 1 1 48 64 (3072)
I0728 16:40:06.899885 29641 net.cpp:129] Top shape: 1 1 48 64 (3072)
I0728 16:40:06.899891 29641 net.cpp:129] Top shape: 1 1 48 64 (3072)
I0728 16:40:06.899897 29641 net.cpp:129] Top shape: 1 1 48 64 (3072)
I0728 16:40:06.899904 29641 net.cpp:129] Top shape: 1 1 48 64 (3072)
I0728 16:40:06.899909 29641 net.cpp:129] Top shape: 1 1 48 64 (3072)
I0728 16:40:06.899914 29641 net.cpp:129] Top shape: 1 1 48 64 (3072)
I0728 16:40:06.899920 29641 net.cpp:129] Top shape: 1 1 48 64 (3072)
I0728 16:40:06.899925 29641 net.cpp:129] Top shape: 1 1 48 64 (3072)
I0728 16:40:06.899931 29641 net.cpp:129] Top shape: 1 1 48 64 (3072)
I0728 16:40:06.899937 29641 net.cpp:129] Top shape: 1 1 48 64 (3072)
I0728 16:40:06.899942 29641 net.cpp:129] Top shape: 1 1 48 64 (3072)
I0728 16:40:06.899948 29641 net.cpp:129] Top shape: 1 1 48 64 (3072)
I0728 16:40:06.899955 29641 net.cpp:129] Top shape: 1 1 48 64 (3072)
I0728 16:40:06.899960 29641 net.cpp:129] Top shape: 1 1 48 64 (3072)
I0728 16:40:06.899965 29641 net.cpp:129] Top shape: 1 1 48 64 (3072)
I0728 16:40:06.899971 29641 net.cpp:129] Top shape: 1 1 48 64 (3072)
I0728 16:40:06.899976 29641 net.cpp:129] Top shape: 1 1 48 64 (3072)
I0728 16:40:06.899982 29641 net.cpp:129] Top shape: 1 1 48 64 (3072)
I0728 16:40:06.899988 29641 net.cpp:129] Top shape: 1 1 48 64 (3072)
I0728 16:40:06.899994 29641 net.cpp:129] Top shape: 1 1 48 64 (3072)
I0728 16:40:06.899999 29641 net.cpp:129] Top shape: 1 1 48 64 (3072)
I0728 16:40:06.900005 29641 net.cpp:129] Top shape: 1 1 48 64 (3072)
I0728 16:40:06.900012 29641 net.cpp:129] Top shape: 1 1 48 64 (3072)
I0728 16:40:06.900017 29641 net.cpp:129] Top shape: 1 1 48 64 (3072)
I0728 16:40:06.900022 29641 net.cpp:129] Top shape: 1 1 48 64 (3072)
I0728 16:40:06.900028 29641 net.cpp:129] Top shape: 1 1 48 64 (3072)
I0728 16:40:06.900034 29641 net.cpp:129] Top shape: 1 1 48 64 (3072)
I0728 16:40:06.900039 29641 net.cpp:129] Top shape: 1 1 48 64 (3072)
I0728 16:40:06.900045 29641 net.cpp:129] Top shape: 1 1 48 64 (3072)
I0728 16:40:06.900049 29641 net.cpp:137] Memory required for data: 486432768
I0728 16:40:06.900054 29641 layer_factory.hpp:77] Creating layer loss1
I0728 16:40:06.900066 29641 net.cpp:84] Creating Layer loss1
I0728 16:40:06.900071 29641 net.cpp:406] loss1 <- score1_slicer_conv_0_split_1
I0728 16:40:06.900079 29641 net.cpp:406] loss1 <- label_label_0_split_0
I0728 16:40:06.900084 29641 net.cpp:406] loss1 <- sumscore_sumscore_0_split_0
…
I0728 16:40:06.915118 29641 net.cpp:51] Initializing net from parameters: 
name: "crowd_counting"
state {
  phase: TEST
}
layer {
  name: "data"
  type: "Data"
  top: "data"
  include {
    phase: TEST
  }
  data_param {
    source: "/home/peiyong/Work/Zenglin/szl/ShanghaiTech/partA/test_8/image_lmdb"
    batch_size: 1
    backend: LMDB
  }
}
layer {
  name: "label"
  type: "Data"
  top: "label"
  include {
    phase: TEST
  }
  data_param {
    source: "/home/peiyong/Work/Zenglin/szl/ShanghaiTech/partA/test_8/dmap_lmdb"
    batch_size: 1
    backend: LMDB
  }
}
layer {
  name: "conv1_1"
  type: "Convolution"
  bottom: "data"
  top: "conv1_1"
  param {
    lr_mult: 0.1
    decay_mult: 1
  }
  param {
    lr_mult: 0.2
    decay_mult: 0
  }
  convolution_param {
    num_output: 64
    pad: 1
    kernel_size: 3
    weight_filler {
      type: "gaussian"
      std: 0.01
    }
    bias_filler {
      type: "constant"
      value: 0
    }
  }
}
layer {
  name: "relu1_1"
  type: "ReLU"
  bottom: "conv1_1"
  top: "conv1_1"
}
layer {
  name: "conv1_2"
  type: "Convolution"
  bottom: "conv1_1"
  top: "conv1_2"
  param {
    lr_mult: 0.1
    decay_mult: 1
  }
  param {
    lr_mult: 0.2
    decay_mult: 0
  }
  convolution_param {
    num_output: 64
    pad: 1
    kernel_size: 3
    weight_filler {
      type: "gaussian"
      std: 0.01
    }
    bias_filler {
      type: "constant"
      value: 0
    }
  }
}
layer {
  name: "relu1_2"
  type: "ReLU"
  bottom: "conv1_2"
  top: "conv1_2"
}
layer {
  name: "pool1"
  type: "Pooling"
  bottom: "conv1_2"
  top: "pool1"
  pooling_param {
    pool: MAX
    kernel_size: 2
    stride: 2
  }
}
layer {
  name: "conv2_1"
  type: "Convolution"
  bottom: "pool1"
  top: "conv2_1"
  param {
    lr_mult: 0.1
    decay_mult: 1
  }
  param {
    lr_mult: 0.2
    decay_mult: 0
  }
  convolution_param {
    num_output: 128
    pad: 1
    kernel_size: 3
    weight_filler {
      type: "gaussian"
      std: 0.01
    }
    bias_filler {
      type: "constant"
      value: 0
    }
  }
}
layer {
  name: "relu2_1"
  type: "ReLU"
  bottom: "conv2_1"
  top: "conv2_1"
}
layer {
  name: "conv2_2"
  type: "Convolution"
  bottom: "conv2_1"
  top: "conv2_2"
  param {
    lr_mult: 0.1
    decay_mult: 1
  }
  param {
    lr_mult: 0.2
    decay_mult: 0
  }
  convolution_param {
    num_output: 128
    pad: 1
    kernel_size: 3
    weight_filler {
      type: "gaussian"
      std: 0.01
    }
    bias_filler {
      type: "constant"
      value: 0
    }
  }
}
layer {
  name: "relu2_2"
  type: "ReLU"
  bottom: "conv2_2"
  top: "conv2_2"
}
layer {
  name: "pool2"
  type: "Pooling"
  bottom: "conv2_2"
  top: "pool2"
  pooling_param {
    pool: MAX
    kernel_size: 2
    stride: 2
  }
}
layer {
  name: "conv3_1"
  type: "Convolution"
  bottom: "pool2"
  top: "conv3_1"
  param {
    lr_mult: 0.1
    decay_mult: 1
  }
  param {
    lr_mult: 0.2
    decay_mult: 0
  }
  convolution_param {
    num_output: 256
    pad: 1
    kernel_size: 3
    weight_filler {
      type: "gaussian"
      std: 0.01
    }
    bias_filler {
      type: "constant"
      value: 0
    }
  }
}
layer {
  name: "relu3_1"
  type: "ReLU"
  bottom: "conv3_1"
  top: "conv3_1"
}
layer {
  name: "conv3_2"
  type: "Convolution"
  bottom: "conv3_1"
  top: "conv3_2"
  param {
    lr_mult: 0.1
    decay_mult: 1
  }
  param {
    lr_mult: 0.2
    decay_mult: 0
  }
  convolution_param {
    num_output: 256
    pad: 1
    kernel_size: 3
    weight_filler {
      type: "gaussian"
      std: 0.01
    }
    bias_filler {
      type: "constant"
      value: 0
    }
  }
}
layer {
  name: "relu3_2"
  type: "ReLU"
  bottom: "conv3_2"
  top: "conv3_2"
}
layer {
  name: "conv3_3"
  type: "Convolution"
  bottom: "conv3_2"
  top: "conv3_3"
  param {
    lr_mult: 0.1
    decay_mult: 1
  }
  param {
    lr_mult: 0.2
    decay_mult: 0
  }
  convolution_param {
    num_output: 256
    pad: 1
    kernel_size: 3
    weight_filler {
      type: "gaussian"
      std: 0.01
    }
    bias_filler {
      type: "constant"
      value: 0
    }
  }
}
layer {
  name: "relu3_3"
  type: "ReLU"
  bottom: "conv3_3"
  top: "conv3_3"
}
layer {
  name: "pool3"
  type: "Pooling"
  bottom: "conv3_3"
  top: "pool3"
  pooling_param {
    pool: MAX
    kernel_size: 2
    stride: 2
  }
}
layer {
  name: "conv4_1"
  type: "Convolution"
  bottom: "pool3"
  top: "conv4_1"
  param {
    lr_mult: 0.1
    decay_mult: 1
  }
  param {
    lr_mult: 0.2
    decay_mult: 0
  }
  convolution_param {
    num_output: 512
    pad: 1
    kernel_size: 3
    weight_filler {
      type: "gaussian"
      std: 0.01
    }
    bias_filler {
      type: "constant"
      value: 0
    }
  }
}
layer {
  name: "relu4_1"
  type: "ReLU"
  bottom: "conv4_1"
  top: "conv4_1"
}
layer {
  name: "conv4_2"
  type: "Convolution"
  bottom: "conv4_1"
  top: "conv4_2"
  param {
    lr_mult: 0.1
    decay_mult: 1
  }
  param {
    lr_mult: 0.2
    decay_mult: 0
  }
  convolution_param {
    num_output: 512
    pad: 1
    kernel_size: 3
    weight_filler {
      type: "gaussian"
      std: 0.01
    }
    bias_filler {
      type: "constant"
      value: 0
    }
  }
}
layer {
  name: "relu4_2"
  type: "ReLU"
  bottom: "conv4_2"
  top: "conv4_2"
}
layer {
  name: "conv4_3"
  type: "Convolution"
  bottom: "conv4_2"
  top: "conv4_3"
  param {
    lr_mult: 0.1
    decay_mult: 1
  }
  param {
    lr_mult: 0.2
    decay_mult: 0
  }
  convolution_param {
    num_output: 512
    pad: 1
    kernel_size: 3
    weight_filler {
      type: "gaussian"
      std: 0.01
    }
    bias_filler {
      type: "constant"
      value: 0
    }
  }
}
layer {
  name: "relu4_3"
  type: "ReLU"
  bottom: "conv4_3"
  top: "conv4_3"
}
layer {
  name: "pool4"
  type: "Pooling"
  bottom: "conv4_3"
  top: "pool4"
  pooling_param {
    pool: MAX
    kernel_size: 3
    stride: 1
    pad: 1
  }
}
layer {
  name: "conv5_1"
  type: "Convolution"
  bottom: "pool4"
  top: "conv5_1"
  param {
    lr_mult: 0.1
    decay_mult: 1
  }
  param {
    lr_mult: 0.2
    decay_mult: 0
  }
  convolution_param {
    num_output: 512
    pad: 2
    kernel_size: 3
    weight_filler {
      type: "gaussian"
      std: 0.01
    }
    bias_filler {
      type: "constant"
      value: 0
    }
    dilation: 2
  }
}
layer {
  name: "relu5_1"
  type: "ReLU"
  bottom: "conv5_1"
  top: "conv5_1"
}
layer {
  name: "conv5_2"
  type: "Convolution"
  bottom: "conv5_1"
  top: "conv5_2"
  param {
    lr_mult: 0.1
    decay_mult: 1
  }
  param {
    lr_mult: 0.2
    decay_mult: 0
  }
  convolution_param {
    num_output: 512
    pad: 2
    kernel_size: 3
    weight_filler {
      type: "gaussian"
      std: 0.01
    }
    bias_filler {
      type: "constant"
      value: 0
    }
    dilation: 2
  }
}
layer {
  name: "relu5_2"
  type: "ReLU"
  bottom: "conv5_2"
  top: "conv5_2"
}
layer {
  name: "conv5_3"
  type: "Convolution"
  bottom: "conv5_2"
  top: "conv5_3"
  param {
    lr_mult: 0.1
    decay_mult: 1
  }
  param {
    lr_mult: 0.2
    decay_mult: 0
  }
  convolution_param {
    num_output: 512
    pad: 2
    kernel_size: 3
    weight_filler {
      type: "gaussian"
      std: 0.01
    }
    bias_filler {
      type: "constant"
      value: 0
    }
    dilation: 2
  }
}
layer {
  name: "relu5_3"
  type: "ReLU"
  bottom: "conv5_3"
  top: "conv5_3"
}
layer {
  name: "conv_score"
  type: "Convolution"
  bottom: "conv5_3"
  top: "conv_score"
  param {
    lr_mult: 10
    decay_mult: 1
  }
  param {
    lr_mult: 20
    decay_mult: 0
  }
  convolution_param {
    num_output: 32
    pad: 0
    kernel_size: 1
    group: 32
    stride: 1
    weight_filler {
      type: "constant"
      value: 0.0001
    }
    bias_filler {
      type: "constant"
      value: 0
    }
  }
}
layer {
  name: "relu_score"
  type: "ReLU"
  bottom: "conv_score"
  top: "conv_score"
}
layer {
  name: "slicer_conv"
  type: "Slice"
  bottom: "conv_score"
  top: "score1"
  top: "score2"
  top: "score3"
  top: "score4"
  top: "score5"
  top: "score6"
  top: "score7"
  top: "score8"
  top: "score9"
  top: "score10"
  top: "score11"
  top: "score12"
  top: "score13"
  top: "score14"
  top: "score15"
  top: "score16"
  top: "score17"
  top: "score18"
  top: "score19"
  top: "score20"
  top: "score21"
  top: "score22"
  top: "score23"
  top: "score24"
  top: "score25"
  top: "score26"
  top: "score27"
  top: "score28"
  top: "score29"
  top: "score30"
  top: "score31"
  top: "score32"
  slice_param {
    axis: 1
  }
}
layer {
  name: "sumscore"
  type: "Eltwise"
  bottom: "score1"
  bottom: "score2"
  bottom: "score3"
  bottom: "score4"
  bottom: "score5"
  bottom: "score6"
  bottom: "score7"
  bottom: "score8"
  bottom: "score9"
  bottom: "score10"
  bottom: "score11"
  bottom: "score12"
  bottom: "score13"
  bottom: "score14"
  bottom: "score15"
  bottom: "score16"
  bottom: "score17"
  bottom: "score18"
  bottom: "score19"
  bottom: "score20"
  bottom: "score21"
  bottom: "score22"
  bottom: "score23"
  bottom: "score24"
  bottom: "score25"
  bottom: "score26"
  bottom: "score27"
  bottom: "score28"
  bottom: "score29"
  bottom: "score30"
  bottom: "score31"
  bottom: "score32"
  top: "sumscore"
  eltwise_param {
    operation: SUM
  }
}
layer {
  name: "avgscore"
  type: "Power"
  bottom: "sumscore"
  top: "avgscore"
  include {
    phase: TEST
  }
  power_param {
    power: 1
    scale: 0.03125
    shift: 0
  }
}
layer {
  name: "mae"
  type: "MAELoss"
  bottom: "avgscore"
  bottom: "label"
  top: "mae"
  include {
    phase: TEST
  }
}
layer {
  name: "mse"
  type: "MSELoss"
  bottom: "avgscore"
  bottom: "label"
  top: "mse"
  include {
    phase: TEST
  }
}
I0728 16:40:06.916077 29641 layer_factory.hpp:77] Creating layer data
I0728 16:40:06.916141 29641 db_lmdb.cpp:35] Opened lmdb /home/peiyong/Work/Zenglin/szl/ShanghaiTech/partA/test_8/image_lmdb
I0728 16:40:06.916173 29641 net.cpp:84] Creating Layer data
I0728 16:40:06.916182 29641 net.cpp:380] data -> data
I0728 16:40:06.918228 29641 data_layer.cpp:45] output data size: 1,3,704,1024
I0728 16:40:06.935411 29641 net.cpp:122] Setting up data
I0728 16:40:06.935439 29641 net.cpp:129] Top shape: 1 3 704 1024 (2162688)
I0728 16:40:06.935446 29641 net.cpp:137] Memory required for data: 8650752
I0728 16:40:06.935453 29641 layer_factory.hpp:77] Creating layer label
I0728 16:40:06.936872 29641 db_lmdb.cpp:35] Opened lmdb /home/peiyong/Work/Zenglin/szl/ShanghaiTech/partA/test_8/dmap_lmdb
I0728 16:40:06.936913 29641 net.cpp:84] Creating Layer label
I0728 16:40:06.936923 29641 net.cpp:380] label -> label
I0728 16:40:06.938762 29641 data_layer.cpp:45] output data size: 1,1,88,128
I0728 16:40:06.938926 29641 net.cpp:122] Setting up label
I0728 16:40:06.938940 29641 net.cpp:129] Top shape: 1 1 88 128 (11264)
I0728 16:40:06.938944 29641 net.cpp:137] Memory required for data: 8695808
I0728 16:40:06.938949 29641 layer_factory.hpp:77] Creating layer label_label_0_split
I0728 16:40:06.938959 29641 net.cpp:84] Creating Layer label_label_0_split
I0728 16:40:06.938966 29641 net.cpp:406] label_label_0_split <- label
I0728 16:40:06.938973 29641 net.cpp:380] label_label_0_split -> label_label_0_split_0
I0728 16:40:06.938983 29641 net.cpp:380] label_label_0_split -> label_label_0_split_1
I0728 16:40:06.939040 29641 net.cpp:122] Setting up label_label_0_split
I0728 16:40:06.939049 29641 net.cpp:129] Top shape: 1 1 88 128 (11264)
I0728 16:40:06.939056 29641 net.cpp:129] Top shape: 1 1 88 128 (11264)
I0728 16:40:06.939061 29641 net.cpp:137] Memory required for data: 8785920
I0728 16:40:06.939065 29641 layer_factory.hpp:77] Creating layer conv1_1
I0728 16:40:06.939079 29641 net.cpp:84] Creating Layer conv1_1
I0728 16:40:06.939085 29641 net.cpp:406] conv1_1 <- data
I0728 16:40:06.939091 29641 net.cpp:380] conv1_1 -> conv1_1
I0728 16:40:06.948976 29641 net.cpp:122] Setting up conv1_1
I0728 16:40:06.948998 29641 net.cpp:129] Top shape: 1 64 704 1024 (46137344)
I0728 16:40:06.949004 29641 net.cpp:137] Memory required for data: 193335296
I0728 16:40:06.949019 29641 layer_factory.hpp:77] Creating layer relu1_1
I0728 16:40:06.949030 29641 net.cpp:84] Creating Layer relu1_1
I0728 16:40:06.949036 29641 net.cpp:406] relu1_1 <- conv1_1
I0728 16:40:06.949043 29641 net.cpp:367] relu1_1 -> conv1_1 (in-place)
I0728 16:40:06.949251 29641 net.cpp:122] Setting up relu1_1
I0728 16:40:06.949265 29641 net.cpp:129] Top shape: 1 64 704 1024 (46137344)
I0728 16:40:06.949270 29641 net.cpp:137] Memory required for data: 377884672
I0728 16:40:06.949275 29641 layer_factory.hpp:77] Creating layer conv1_2
I0728 16:40:06.949287 29641 net.cpp:84] Creating Layer conv1_2
I0728 16:40:06.949292 29641 net.cpp:406] conv1_2 <- conv1_1
I0728 16:40:06.949301 29641 net.cpp:380] conv1_2 -> conv1_2
I0728 16:40:06.958998 29641 net.cpp:122] Setting up conv1_2
I0728 16:40:06.959026 29641 net.cpp:129] Top shape: 1 64 704 1024 (46137344)
I0728 16:40:06.959033 29641 net.cpp:137] Memory required for data: 562434048
I0728 16:40:06.959048 29641 layer_factory.hpp:77] Creating layer relu1_2
I0728 16:40:06.959060 29641 net.cpp:84] Creating Layer relu1_2
I0728 16:40:06.959066 29641 net.cpp:406] relu1_2 <- conv1_2
I0728 16:40:06.959075 29641 net.cpp:367] relu1_2 -> conv1_2 (in-place)
I0728 16:40:06.959754 29641 net.cpp:122] Setting up relu1_2
I0728 16:40:06.959801 29641 net.cpp:129] Top shape: 1 64 704 1024 (46137344)
I0728 16:40:06.959808 29641 net.cpp:137] Memory required for data: 746983424
I0728 16:40:06.959813 29641 layer_factory.hpp:77] Creating layer pool1
I0728 16:40:06.959822 29641 net.cpp:84] Creating Layer pool1
I0728 16:40:06.959827 29641 net.cpp:406] pool1 <- conv1_2
I0728 16:40:06.959836 29641 net.cpp:380] pool1 -> pool1
I0728 16:40:06.959908 29641 net.cpp:122] Setting up pool1
I0728 16:40:06.959918 29641 net.cpp:129] Top shape: 1 64 352 512 (11534336)
I0728 16:40:06.959923 29641 net.cpp:137] Memory required for data: 793120768
I0728 16:40:06.959928 29641 layer_factory.hpp:77] Creating layer conv2_1
I0728 16:40:06.959944 29641 net.cpp:84] Creating Layer conv2_1
I0728 16:40:06.959949 29641 net.cpp:406] conv2_1 <- pool1
I0728 16:40:06.959957 29641 net.cpp:380] conv2_1 -> conv2_1
I0728 16:40:06.963080 29641 net.cpp:122] Setting up conv2_1
I0728 16:40:06.963096 29641 net.cpp:129] Top shape: 1 128 352 512 (23068672)
I0728 16:40:06.963110 29641 net.cpp:137] Memory required for data: 885395456
I0728 16:40:06.963122 29641 layer_factory.hpp:77] Creating layer relu2_1
I0728 16:40:06.963130 29641 net.cpp:84] Creating Layer relu2_1
I0728 16:40:06.963136 29641 net.cpp:406] relu2_1 <- conv2_1
I0728 16:40:06.963143 29641 net.cpp:367] relu2_1 -> conv2_1 (in-place)
I0728 16:40:06.963750 29641 net.cpp:122] Setting up relu2_1
I0728 16:40:06.963764 29641 net.cpp:129] Top shape: 1 128 352 512 (23068672)
I0728 16:40:06.963770 29641 net.cpp:137] Memory required for data: 977670144
I0728 16:40:06.963775 29641 layer_factory.hpp:77] Creating layer conv2_2
I0728 16:40:06.963786 29641 net.cpp:84] Creating Layer conv2_2
I0728 16:40:06.963793 29641 net.cpp:406] conv2_2 <- conv2_1
I0728 16:40:06.963801 29641 net.cpp:380] conv2_2 -> conv2_2
I0728 16:40:06.971482 29641 net.cpp:122] Setting up conv2_2
I0728 16:40:06.971508 29641 net.cpp:129] Top shape: 1 128 352 512 (23068672)
I0728 16:40:06.971513 29641 net.cpp:137] Memory required for data: 1069944832
I0728 16:40:06.971524 29641 layer_factory.hpp:77] Creating layer relu2_2
I0728 16:40:06.971532 29641 net.cpp:84] Creating Layer relu2_2
I0728 16:40:06.971537 29641 net.cpp:406] relu2_2 <- conv2_2
I0728 16:40:06.971544 29641 net.cpp:367] relu2_2 -> conv2_2 (in-place)
I0728 16:40:06.971729 29641 net.cpp:122] Setting up relu2_2
I0728 16:40:06.971742 29641 net.cpp:129] Top shape: 1 128 352 512 (23068672)
I0728 16:40:06.971747 29641 net.cpp:137] Memory required for data: 1162219520
I0728 16:40:06.971752 29641 layer_factory.hpp:77] Creating layer pool2
I0728 16:40:06.971760 29641 net.cpp:84] Creating Layer pool2
I0728 16:40:06.971765 29641 net.cpp:406] pool2 <- conv2_2
I0728 16:40:06.971772 29641 net.cpp:380] pool2 -> pool2
I0728 16:40:06.971832 29641 net.cpp:122] Setting up pool2
I0728 16:40:06.971842 29641 net.cpp:129] Top shape: 1 128 176 256 (5767168)
I0728 16:40:06.971846 29641 net.cpp:137] Memory required for data: 1185288192
I0728 16:40:06.971850 29641 layer_factory.hpp:77] Creating layer conv3_1
I0728 16:40:06.971863 29641 net.cpp:84] Creating Layer conv3_1
I0728 16:40:06.971868 29641 net.cpp:406] conv3_1 <- pool2
I0728 16:40:06.971875 29641 net.cpp:380] conv3_1 -> conv3_1
I0728 16:40:06.978130 29641 net.cpp:122] Setting up conv3_1
I0728 16:40:06.978163 29641 net.cpp:129] Top shape: 1 256 176 256 (11534336)
I0728 16:40:06.978168 29641 net.cpp:137] Memory required for data: 1231425536
I0728 16:40:06.978184 29641 layer_factory.hpp:77] Creating layer relu3_1
I0728 16:40:06.978195 29641 net.cpp:84] Creating Layer relu3_1
I0728 16:40:06.978201 29641 net.cpp:406] relu3_1 <- conv3_1
I0728 16:40:06.978209 29641 net.cpp:367] relu3_1 -> conv3_1 (in-place)
I0728 16:40:06.978869 29641 net.cpp:122] Setting up relu3_1
I0728 16:40:06.978884 29641 net.cpp:129] Top shape: 1 256 176 256 (11534336)
I0728 16:40:06.978888 29641 net.cpp:137] Memory required for data: 1277562880
I0728 16:40:06.978893 29641 layer_factory.hpp:77] Creating layer conv3_2
I0728 16:40:06.978904 29641 net.cpp:84] Creating Layer conv3_2
I0728 16:40:06.978943 29641 net.cpp:406] conv3_2 <- conv3_1
I0728 16:40:06.978953 29641 net.cpp:380] conv3_2 -> conv3_2
I0728 16:40:06.988488 29641 net.cpp:122] Setting up conv3_2
I0728 16:40:06.988514 29641 net.cpp:129] Top shape: 1 256 176 256 (11534336)
I0728 16:40:06.988519 29641 net.cpp:137] Memory required for data: 1323700224
I0728 16:40:06.988531 29641 layer_factory.hpp:77] Creating layer relu3_2
I0728 16:40:06.988545 29641 net.cpp:84] Creating Layer relu3_2
I0728 16:40:06.988551 29641 net.cpp:406] relu3_2 <- conv3_2
I0728 16:40:06.988560 29641 net.cpp:367] relu3_2 -> conv3_2 (in-place)
I0728 16:40:06.989177 29641 net.cpp:122] Setting up relu3_2
I0728 16:40:06.989192 29641 net.cpp:129] Top shape: 1 256 176 256 (11534336)
I0728 16:40:06.989197 29641 net.cpp:137] Memory required for data: 1369837568
I0728 16:40:06.989202 29641 layer_factory.hpp:77] Creating layer conv3_3
I0728 16:40:06.989215 29641 net.cpp:84] Creating Layer conv3_3
I0728 16:40:06.989220 29641 net.cpp:406] conv3_3 <- conv3_2
I0728 16:40:06.989229 29641 net.cpp:380] conv3_3 -> conv3_3
I0728 16:40:06.999804 29641 net.cpp:122] Setting up conv3_3
I0728 16:40:06.999825 29641 net.cpp:129] Top shape: 1 256 176 256 (11534336)
I0728 16:40:06.999831 29641 net.cpp:137] Memory required for data: 1415974912
I0728 16:40:06.999841 29641 layer_factory.hpp:77] Creating layer relu3_3
I0728 16:40:06.999850 29641 net.cpp:84] Creating Layer relu3_3
I0728 16:40:06.999856 29641 net.cpp:406] relu3_3 <- conv3_3
I0728 16:40:06.999863 29641 net.cpp:367] relu3_3 -> conv3_3 (in-place)
I0728 16:40:07.000056 29641 net.cpp:122] Setting up relu3_3
I0728 16:40:07.000068 29641 net.cpp:129] Top shape: 1 256 176 256 (11534336)
I0728 16:40:07.000073 29641 net.cpp:137] Memory required for data: 1462112256
I0728 16:40:07.000079 29641 layer_factory.hpp:77] Creating layer pool3
I0728 16:40:07.000087 29641 net.cpp:84] Creating Layer pool3
I0728 16:40:07.000093 29641 net.cpp:406] pool3 <- conv3_3
I0728 16:40:07.000100 29641 net.cpp:380] pool3 -> pool3
I0728 16:40:07.000159 29641 net.cpp:122] Setting up pool3
I0728 16:40:07.000169 29641 net.cpp:129] Top shape: 1 256 88 128 (2883584)
I0728 16:40:07.000174 29641 net.cpp:137] Memory required for data: 1473646592
I0728 16:40:07.000178 29641 layer_factory.hpp:77] Creating layer conv4_1
I0728 16:40:07.000190 29641 net.cpp:84] Creating Layer conv4_1
I0728 16:40:07.000195 29641 net.cpp:406] conv4_1 <- pool3
I0728 16:40:07.000203 29641 net.cpp:380] conv4_1 -> conv4_1
I0728 16:40:07.016295 29641 net.cpp:122] Setting up conv4_1
I0728 16:40:07.016335 29641 net.cpp:129] Top shape: 1 512 88 128 (5767168)
I0728 16:40:07.016337 29641 net.cpp:137] Memory required for data: 1496715264
I0728 16:40:07.016347 29641 layer_factory.hpp:77] Creating layer relu4_1
I0728 16:40:07.016358 29641 net.cpp:84] Creating Layer relu4_1
I0728 16:40:07.016362 29641 net.cpp:406] relu4_1 <- conv4_1
I0728 16:40:07.016369 29641 net.cpp:367] relu4_1 -> conv4_1 (in-place)
I0728 16:40:07.016959 29641 net.cpp:122] Setting up relu4_1
I0728 16:40:07.016973 29641 net.cpp:129] Top shape: 1 512 88 128 (5767168)
I0728 16:40:07.016976 29641 net.cpp:137] Memory required for data: 1519783936
I0728 16:40:07.016980 29641 layer_factory.hpp:77] Creating layer conv4_2
I0728 16:40:07.016991 29641 net.cpp:84] Creating Layer conv4_2
I0728 16:40:07.016995 29641 net.cpp:406] conv4_2 <- conv4_1
I0728 16:40:07.017002 29641 net.cpp:380] conv4_2 -> conv4_2
I0728 16:40:07.041959 29641 net.cpp:122] Setting up conv4_2
I0728 16:40:07.041987 29641 net.cpp:129] Top shape: 1 512 88 128 (5767168)
I0728 16:40:07.041993 29641 net.cpp:137] Memory required for data: 1542852608
I0728 16:40:07.042011 29641 layer_factory.hpp:77] Creating layer relu4_2
I0728 16:40:07.042021 29641 net.cpp:84] Creating Layer relu4_2
I0728 16:40:07.042028 29641 net.cpp:406] relu4_2 <- conv4_2
I0728 16:40:07.042037 29641 net.cpp:367] relu4_2 -> conv4_2 (in-place)
I0728 16:40:07.042660 29641 net.cpp:122] Setting up relu4_2
I0728 16:40:07.042675 29641 net.cpp:129] Top shape: 1 512 88 128 (5767168)
I0728 16:40:07.042680 29641 net.cpp:137] Memory required for data: 1565921280
I0728 16:40:07.042745 29641 layer_factory.hpp:77] Creating layer conv4_3
I0728 16:40:07.042760 29641 net.cpp:84] Creating Layer conv4_3
I0728 16:40:07.042767 29641 net.cpp:406] conv4_3 <- conv4_2
I0728 16:40:07.042774 29641 net.cpp:380] conv4_3 -> conv4_3
I0728 16:40:07.074723 29641 net.cpp:122] Setting up conv4_3
I0728 16:40:07.074816 29641 net.cpp:129] Top shape: 1 512 88 128 (5767168)
I0728 16:40:07.074861 29641 net.cpp:137] Memory required for data: 1588989952
I0728 16:40:07.074908 29641 layer_factory.hpp:77] Creating layer relu4_3
I0728 16:40:07.074955 29641 net.cpp:84] Creating Layer relu4_3
I0728 16:40:07.074997 29641 net.cpp:406] relu4_3 <- conv4_3
I0728 16:40:07.075042 29641 net.cpp:367] relu4_3 -> conv4_3 (in-place)
I0728 16:40:07.075275 29641 net.cpp:122] Setting up relu4_3
I0728 16:40:07.075330 29641 net.cpp:129] Top shape: 1 512 88 128 (5767168)
I0728 16:40:07.075371 29641 net.cpp:137] Memory required for data: 1612058624
I0728 16:40:07.075412 29641 layer_factory.hpp:77] Creating layer pool4
I0728 16:40:07.075455 29641 net.cpp:84] Creating Layer pool4
I0728 16:40:07.075495 29641 net.cpp:406] pool4 <- conv4_3
I0728 16:40:07.075537 29641 net.cpp:380] pool4 -> pool4
I0728 16:40:07.075639 29641 net.cpp:122] Setting up pool4
I0728 16:40:07.075697 29641 net.cpp:129] Top shape: 1 512 88 128 (5767168)
I0728 16:40:07.075737 29641 net.cpp:137] Memory required for data: 1635127296
I0728 16:40:07.075776 29641 layer_factory.hpp:77] Creating layer conv5_1
I0728 16:40:07.075824 29641 net.cpp:84] Creating Layer conv5_1
I0728 16:40:07.075865 29641 net.cpp:406] conv5_1 <- pool4
I0728 16:40:07.075907 29641 net.cpp:380] conv5_1 -> conv5_1
I0728 16:40:07.111456 29641 net.cpp:122] Setting up conv5_1
I0728 16:40:07.111577 29641 net.cpp:129] Top shape: 1 512 88 128 (5767168)
I0728 16:40:07.111635 29641 net.cpp:137] Memory required for data: 1658195968
I0728 16:40:07.111701 29641 layer_factory.hpp:77] Creating layer relu5_1
I0728 16:40:07.111768 29641 net.cpp:84] Creating Layer relu5_1
I0728 16:40:07.111826 29641 net.cpp:406] relu5_1 <- conv5_1
I0728 16:40:07.111888 29641 net.cpp:367] relu5_1 -> conv5_1 (in-place)
I0728 16:40:07.112833 29641 net.cpp:122] Setting up relu5_1
I0728 16:40:07.112850 29641 net.cpp:129] Top shape: 1 512 88 128 (5767168)
I0728 16:40:07.112859 29641 net.cpp:137] Memory required for data: 1681264640
I0728 16:40:07.112865 29641 layer_factory.hpp:77] Creating layer conv5_2
I0728 16:40:07.112880 29641 net.cpp:84] Creating Layer conv5_2
I0728 16:40:07.112886 29641 net.cpp:406] conv5_2 <- conv5_1
I0728 16:40:07.112896 29641 net.cpp:380] conv5_2 -> conv5_2
I0728 16:40:07.144522 29641 net.cpp:122] Setting up conv5_2
I0728 16:40:07.144551 29641 net.cpp:129] Top shape: 1 512 88 128 (5767168)
I0728 16:40:07.144557 29641 net.cpp:137] Memory required for data: 1704333312
I0728 16:40:07.144568 29641 layer_factory.hpp:77] Creating layer relu5_2
I0728 16:40:07.144580 29641 net.cpp:84] Creating Layer relu5_2
I0728 16:40:07.144587 29641 net.cpp:406] relu5_2 <- conv5_2
I0728 16:40:07.144595 29641 net.cpp:367] relu5_2 -> conv5_2 (in-place)
I0728 16:40:07.144836 29641 net.cpp:122] Setting up relu5_2
I0728 16:40:07.144848 29641 net.cpp:129] Top shape: 1 512 88 128 (5767168)
I0728 16:40:07.144853 29641 net.cpp:137] Memory required for data: 1727401984
I0728 16:40:07.144858 29641 layer_factory.hpp:77] Creating layer conv5_3
I0728 16:40:07.144870 29641 net.cpp:84] Creating Layer conv5_3
I0728 16:40:07.144876 29641 net.cpp:406] conv5_3 <- conv5_2
I0728 16:40:07.144883 29641 net.cpp:380] conv5_3 -> conv5_3
I0728 16:40:07.174394 29641 net.cpp:122] Setting up conv5_3
I0728 16:40:07.174425 29641 net.cpp:129] Top shape: 1 512 88 128 (5767168)
I0728 16:40:07.174432 29641 net.cpp:137] Memory required for data: 1750470656
I0728 16:40:07.174443 29641 layer_factory.hpp:77] Creating layer relu5_3
I0728 16:40:07.174459 29641 net.cpp:84] Creating Layer relu5_3
I0728 16:40:07.174466 29641 net.cpp:406] relu5_3 <- conv5_3
I0728 16:40:07.174475 29641 net.cpp:367] relu5_3 -> conv5_3 (in-place)
I0728 16:40:07.175266 29641 net.cpp:122] Setting up relu5_3
I0728 16:40:07.175374 29641 net.cpp:129] Top shape: 1 512 88 128 (5767168)
I0728 16:40:07.175381 29641 net.cpp:137] Memory required for data: 1773539328
I0728 16:40:07.175386 29641 layer_factory.hpp:77] Creating layer conv_score
I0728 16:40:07.175400 29641 net.cpp:84] Creating Layer conv_score
I0728 16:40:07.175406 29641 net.cpp:406] conv_score <- conv5_3
I0728 16:40:07.175415 29641 net.cpp:380] conv_score -> conv_score
I0728 16:40:07.218176 29641 net.cpp:122] Setting up conv_score
I0728 16:40:07.218206 29641 net.cpp:129] Top shape: 1 32 88 128 (360448)
I0728 16:40:07.218212 29641 net.cpp:137] Memory required for data: 1774981120
I0728 16:40:07.218225 29641 layer_factory.hpp:77] Creating layer relu_score
I0728 16:40:07.218238 29641 net.cpp:84] Creating Layer relu_score
I0728 16:40:07.218245 29641 net.cpp:406] relu_score <- conv_score
I0728 16:40:07.218257 29641 net.cpp:367] relu_score -> conv_score (in-place)
I0728 16:40:07.218912 29641 net.cpp:122] Setting up relu_score
I0728 16:40:07.218927 29641 net.cpp:129] Top shape: 1 32 88 128 (360448)
I0728 16:40:07.218932 29641 net.cpp:137] Memory required for data: 1776422912
I0728 16:40:07.218938 29641 layer_factory.hpp:77] Creating layer slicer_conv
I0728 16:40:07.218951 29641 net.cpp:84] Creating Layer slicer_conv
I0728 16:40:07.218957 29641 net.cpp:406] slicer_conv <- conv_score
I0728 16:40:07.218968 29641 net.cpp:380] slicer_conv -> score1
I0728 16:40:07.218981 29641 net.cpp:380] slicer_conv -> score2
…
I0728 16:40:07.219202 29641 net.cpp:380] slicer_conv -> score25
I0728 16:40:07.219211 29641 net.cpp:380] slicer_conv -> score26
I0728 16:40:07.219220 29641 net.cpp:380] slicer_conv -> score27
I0728 16:40:07.219229 29641 net.cpp:380] slicer_conv -> score28
I0728 16:40:07.219238 29641 net.cpp:380] slicer_conv -> score29
I0728 16:40:07.219246 29641 net.cpp:380] slicer_conv -> score30
I0728 16:40:07.219255 29641 net.cpp:380] slicer_conv -> score31
I0728 16:40:07.219266 29641 net.cpp:380] slicer_conv -> score32
I0728 16:40:07.219885 29641 net.cpp:122] Setting up slicer_conv
I0728 16:40:07.219895 29641 net.cpp:129] Top shape: 1 1 88 128 (11264)
I0728 16:40:07.219903 29641 net.cpp:129] Top shape: 1 1 88 128 (11264)
I0728 16:40:07.219909 29641 net.cpp:129] Top shape: 1 1 88 128 (11264)
I0728 16:40:07.219915 29641 net.cpp:129] Top shape: 1 1 88 128 (11264)
I0728 16:40:07.219921 29641 net.cpp:129] Top shape: 1 1 88 128 (11264)
I0728 16:40:07.219928 29641 net.cpp:129] Top shape: 1 1 88 128 (11264)
I0728 16:40:07.219934 29641 net.cpp:129] Top shape: 1 1 88 128 (11264)
I0728 16:40:07.219940 29641 net.cpp:129] Top shape: 1 1 88 128 (11264)
I0728 16:40:07.219946 29641 net.cpp:129] Top shape: 1 1 88 128 (11264)
I0728 16:40:07.220005 29641 net.cpp:129] Top shape: 1 1 88 128 (11264)
I0728 16:40:07.220013 29641 net.cpp:129] Top shape: 1 1 88 128 (11264)
I0728 16:40:07.220019 29641 net.cpp:129] Top shape: 1 1 88 128 (11264)
I0728 16:40:07.220026 29641 net.cpp:129] Top shape: 1 1 88 128 (11264)
I0728 16:40:07.220031 29641 net.cpp:129] Top shape: 1 1 88 128 (11264)
I0728 16:40:07.220037 29641 net.cpp:129] Top shape: 1 1 88 128 (11264)
I0728 16:40:07.220043 29641 net.cpp:129] Top shape: 1 1 88 128 (11264)
I0728 16:40:07.220048 29641 net.cpp:129] Top shape: 1 1 88 128 (11264)
I0728 16:40:07.220054 29641 net.cpp:129] Top shape: 1 1 88 128 (11264)
I0728 16:40:07.220060 29641 net.cpp:129] Top shape: 1 1 88 128 (11264)
I0728 16:40:07.220067 29641 net.cpp:129] Top shape: 1 1 88 128 (11264)
I0728 16:40:07.220072 29641 net.cpp:129] Top shape: 1 1 88 128 (11264)
I0728 16:40:07.220077 29641 net.cpp:129] Top shape: 1 1 88 128 (11264)
I0728 16:40:07.220083 29641 net.cpp:129] Top shape: 1 1 88 128 (11264)
I0728 16:40:07.220089 29641 net.cpp:129] Top shape: 1 1 88 128 (11264)
I0728 16:40:07.220095 29641 net.cpp:129] Top shape: 1 1 88 128 (11264)
I0728 16:40:07.220101 29641 net.cpp:129] Top shape: 1 1 88 128 (11264)
I0728 16:40:07.220106 29641 net.cpp:129] Top shape: 1 1 88 128 (11264)
I0728 16:40:07.220113 29641 net.cpp:129] Top shape: 1 1 88 128 (11264)
I0728 16:40:07.220118 29641 net.cpp:129] Top shape: 1 1 88 128 (11264)
I0728 16:40:07.220124 29641 net.cpp:129] Top shape: 1 1 88 128 (11264)
I0728 16:40:07.220130 29641 net.cpp:129] Top shape: 1 1 88 128 (11264)
I0728 16:40:07.220135 29641 net.cpp:129] Top shape: 1 1 88 128 (11264)
I0728 16:40:07.220140 29641 net.cpp:137] Memory required for data: 1777864704
I0728 16:40:07.220145 29641 layer_factory.hpp:77] Creating layer sumscore
I0728 16:40:07.220160 29641 net.cpp:84] Creating Layer sumscore
I0728 16:40:07.220165 29641 net.cpp:406] sumscore <- score1
I0728 16:40:07.220170 29641 net.cpp:406] sumscore <- score2
I0728 16:40:07.220176 29641 net.cpp:406] sumscore <- score3
…
