…
I0728 09:57:20.092130 20134 net.cpp:51] Initializing net from parameters: 
name: "crowd_counting"
state {
  phase: TRAIN
  level: 0
  stage: ""
}
layer {
  name: "data"
  type: "Data"
  top: "data"
  include {
    phase: TRAIN
  }
  data_param {
    source: "/home/peiyong/Work/Zenglin/szl/ShanghaiTech/partA/train_8/image_lmdb"
    batch_size: 1
    backend: LMDB
  }
}
layer {
  name: "label"
  type: "Data"
  top: "label"
  include {
    phase: TRAIN
  }
  data_param {
    source: "/home/peiyong/Work/Zenglin/szl/ShanghaiTech/partA/train_8/dmap_lmdb"
    batch_size: 1
    backend: LMDB
  }
}
layer {
  name: "conv1_1"
  type: "Convolution"
  bottom: "data"
  top: "conv1_1"
  param {
    lr_mult: 0.1
    decay_mult: 1
  }
  param {
    lr_mult: 0.2
    decay_mult: 0
  }
  convolution_param {
    num_output: 64
    pad: 1
    kernel_size: 3
    weight_filler {
      type: "gaussian"
      std: 0.01
    }
    bias_filler {
      type: "constant"
      value: 0
    }
  }
}
layer {
  name: "relu1_1"
  type: "ReLU"
  bottom: "conv1_1"
  top: "conv1_1"
}
layer {
  name: "conv1_2"
  type: "Convolution"
  bottom: "conv1_1"
  top: "conv1_2"
  param {
    lr_mult: 0.1
    decay_mult: 1
  }
  param {
    lr_mult: 0.2
    decay_mult: 0
  }
  convolution_param {
    num_output: 64
    pad: 1
    kernel_size: 3
    weight_filler {
      type: "gaussian"
      std: 0.01
    }
    bias_filler {
      type: "constant"
      value: 0
    }
  }
}
layer {
  name: "relu1_2"
  type: "ReLU"
  bottom: "conv1_2"
  top: "conv1_2"
}
layer {
  name: "pool1"
  type: "Pooling"
  bottom: "conv1_2"
  top: "pool1"
  pooling_param {
    pool: MAX
    kernel_size: 2
    stride: 2
  }
}
layer {
  name: "conv2_1"
  type: "Convolution"
  bottom: "pool1"
  top: "conv2_1"
  param {
    lr_mult: 0.1
    decay_mult: 1
  }
  param {
    lr_mult: 0.2
    decay_mult: 0
  }
  convolution_param {
    num_output: 128
    pad: 1
    kernel_size: 3
    weight_filler {
      type: "gaussian"
      std: 0.01
    }
    bias_filler {
      type: "constant"
      value: 0
    }
  }
}
layer {
  name: "relu2_1"
  type: "ReLU"
  bottom: "conv2_1"
  top: "conv2_1"
}
layer {
  name: "conv2_2"
  type: "Convolution"
  bottom: "conv2_1"
  top: "conv2_2"
  param {
    lr_mult: 0.1
    decay_mult: 1
  }
  param {
    lr_mult: 0.2
    decay_mult: 0
  }
  convolution_param {
    num_output: 128
    pad: 1
    kernel_size: 3
    weight_filler {
      type: "gaussian"
      std: 0.01
    }
    bias_filler {
      type: "constant"
      value: 0
    }
  }
}
layer {
  name: "relu2_2"
  type: "ReLU"
  bottom: "conv2_2"
  top: "conv2_2"
}
layer {
  name: "pool2"
  type: "Pooling"
  bottom: "conv2_2"
  top: "pool2"
  pooling_param {
    pool: MAX
    kernel_size: 2
    stride: 2
  }
}
layer {
  name: "conv3_1"
  type: "Convolution"
  bottom: "pool2"
  top: "conv3_1"
  param {
    lr_mult: 0.1
    decay_mult: 1
  }
  param {
    lr_mult: 0.2
    decay_mult: 0
  }
  convolution_param {
    num_output: 256
    pad: 1
    kernel_size: 3
    weight_filler {
      type: "gaussian"
      std: 0.01
    }
    bias_filler {
      type: "constant"
      value: 0
    }
  }
}
layer {
  name: "relu3_1"
  type: "ReLU"
  bottom: "conv3_1"
  top: "conv3_1"
}
layer {
  name: "conv3_2"
  type: "Convolution"
  bottom: "conv3_1"
  top: "conv3_2"
  param {
    lr_mult: 0.1
    decay_mult: 1
  }
  param {
    lr_mult: 0.2
    decay_mult: 0
  }
  convolution_param {
    num_output: 256
    pad: 1
    kernel_size: 3
    weight_filler {
      type: "gaussian"
      std: 0.01
    }
    bias_filler {
      type: "constant"
      value: 0
    }
  }
}
layer {
  name: "relu3_2"
  type: "ReLU"
  bottom: "conv3_2"
  top: "conv3_2"
}
layer {
  name: "conv3_3"
  type: "Convolution"
  bottom: "conv3_2"
  top: "conv3_3"
  param {
    lr_mult: 0.1
    decay_mult: 1
  }
  param {
    lr_mult: 0.2
    decay_mult: 0
  }
  convolution_param {
    num_output: 256
    pad: 1
    kernel_size: 3
    weight_filler {
      type: "gaussian"
      std: 0.01
    }
    bias_filler {
      type: "constant"
      value: 0
    }
  }
}
layer {
  name: "relu3_3"
  type: "ReLU"
  bottom: "conv3_3"
  top: "conv3_3"
}
layer {
  name: "pool3"
  type: "Pooling"
  bottom: "conv3_3"
  top: "pool3"
  pooling_param {
    pool: MAX
    kernel_size: 2
    stride: 2
  }
}
layer {
  name: "conv4_1"
  type: "Convolution"
  bottom: "pool3"
  top: "conv4_1"
  param {
    lr_mult: 0.1
    decay_mult: 1
  }
  param {
    lr_mult: 0.2
    decay_mult: 0
  }
  convolution_param {
    num_output: 512
    pad: 1
    kernel_size: 3
    weight_filler {
      type: "gaussian"
      std: 0.01
    }
    bias_filler {
      type: "constant"
      value: 0
    }
  }
}
layer {
  name: "relu4_1"
  type: "ReLU"
  bottom: "conv4_1"
  top: "conv4_1"
}
layer {
  name: "conv4_2"
  type: "Convolution"
  bottom: "conv4_1"
  top: "conv4_2"
  param {
    lr_mult: 0.1
    decay_mult: 1
  }
  param {
    lr_mult: 0.2
    decay_mult: 0
  }
  convolution_param {
    num_output: 512
    pad: 1
    kernel_size: 3
    weight_filler {
      type: "gaussian"
      std: 0.01
    }
    bias_filler {
      type: "constant"
      value: 0
    }
  }
}
layer {
  name: "relu4_2"
  type: "ReLU"
  bottom: "conv4_2"
  top: "conv4_2"
}
layer {
  name: "conv4_3"
  type: "Convolution"
  bottom: "conv4_2"
  top: "conv4_3"
  param {
    lr_mult: 0.1
    decay_mult: 1
  }
  param {
    lr_mult: 0.2
    decay_mult: 0
  }
  convolution_param {
    num_output: 512
    pad: 1
    kernel_size: 3
    weight_filler {
      type: "gaussian"
      std: 0.01
    }
    bias_filler {
      type: "constant"
      value: 0
    }
  }
}
layer {
  name: "relu4_3"
  type: "ReLU"
  bottom: "conv4_3"
  top: "conv4_3"
}
layer {
  name: "pool4"
  type: "Pooling"
  bottom: "conv4_3"
  top: "pool4"
  pooling_param {
    pool: MAX
    kernel_size: 3
    stride: 1
    pad: 1
  }
}
layer {
  name: "conv5_1"
  type: "Convolution"
  bottom: "pool4"
  top: "conv5_1"
  param {
    lr_mult: 0.1
    decay_mult: 1
  }
  param {
    lr_mult: 0.2
    decay_mult: 0
  }
  convolution_param {
    num_output: 512
    pad: 2
    kernel_size: 3
    weight_filler {
      type: "gaussian"
      std: 0.01
    }
    bias_filler {
      type: "constant"
      value: 0
    }
    dilation: 2
  }
}
layer {
  name: "relu5_1"
  type: "ReLU"
  bottom: "conv5_1"
  top: "conv5_1"
}
layer {
  name: "conv5_2"
  type: "Convolution"
  bottom: "conv5_1"
  top: "conv5_2"
  param {
    lr_mult: 0.1
    decay_mult: 1
  }
  param {
    lr_mult: 0.2
    decay_mult: 0
  }
  convolution_param {
    num_output: 512
    pad: 2
    kernel_size: 3
    weight_filler {
      type: "gaussian"
      std: 0.01
    }
    bias_filler {
      type: "constant"
      value: 0
    }
    dilation: 2
  }
}
layer {
  name: "relu5_2"
  type: "ReLU"
  bottom: "conv5_2"
  top: "conv5_2"
}
layer {
  name: "conv5_3"
  type: "Convolution"
  bottom: "conv5_2"
  top: "conv5_3"
  param {
    lr_mult: 0.1
    decay_mult: 1
  }
  param {
    lr_mult: 0.2
    decay_mult: 0
  }
  convolution_param {
    num_output: 512
    pad: 2
    kernel_size: 3
    weight_filler {
      type: "gaussian"
      std: 0.01
    }
    bias_filler {
      type: "constant"
      value: 0
    }
    dilation: 2
  }
}
layer {
  name: "relu5_3"
  type: "ReLU"
  bottom: "conv5_3"
  top: "conv5_3"
}
layer {
  name: "conv_score"
  type: "Convolution"
  bottom: "conv5_3"
  top: "conv_score"
  param {
    lr_mult: 10
    decay_mult: 1
  }
  param {
    lr_mult: 20
    decay_mult: 0
  }
  convolution_param {
    num_output: 64
    pad: 0
    kernel_size: 1
    group: 64
    stride: 1
    weight_filler {
      type: "constant"
      value: 0.0001
    }
    bias_filler {
      type: "constant"
      value: 0
    }
  }
}
layer {
  name: "relu_score"
  type: "ReLU"
  bottom: "conv_score"
  top: "conv_score"
}
layer {
  name: "slicer_conv"
  type: "Slice"
  bottom: "conv_score"
  top: "score1"
  top: "score2"
  top: "score3"
  top: "score4"
  top: "score5"
  top: "score6"
  top: "score7"
  top: "score8"
  top: "score9"
  top: "score10"
  top: "score11"
  top: "score12"
  top: "score13"
  top: "score14"
  top: "score15"
  top: "score16"
  top: "score17"
  top: "score18"
  top: "score19"
  top: "score20"
  top: "score21"
  top: "score22"
  top: "score23"
  top: "score24"
  top: "score25"
  top: "score26"
  top: "score27"
  top: "score28"
  top: "score29"
  top: "score30"
  top: "score31"
  top: "score32"
  top: "score33"
  top: "score34"
  top: "score35"
  top: "score36"
  top: "score37"
  top: "score38"
  top: "score39"
  top: "score40"
  top: "score41"
  top: "score42"
  top: "score43"
  top: "score44"
  top: "score45"
  top: "score46"
  top: "score47"
  top: "score48"
  top: "score49"
  top: "score50"
  top: "score51"
  top: "score52"
  top: "score53"
  top: "score54"
  top: "score55"
  top: "score56"
  top: "score57"
  top: "score58"
  top: "score59"
  top: "score60"
  top: "score61"
  top: "score62"
  top: "score63"
  top: "score64"
  slice_param {
    axis: 1
  }
}
layer {
  name: "sumscore"
  type: "Eltwise"
  bottom: "score1"
  bottom: "score2"
  bottom: "score3"
  bottom: "score4"
  bottom: "score5"
  bottom: "score6"
  bottom: "score7"
  bottom: "score8"
  bottom: "score9"
  bottom: "score10"
  bottom: "score11"
  bottom: "score12"
  bottom: "score13"
  bottom: "score14"
  bottom: "score15"
  bottom: "score16"
  bottom: "score17"
  bottom: "score18"
  bottom: "score19"
  bottom: "score20"
  bottom: "score21"
  bottom: "score22"
  bottom: "score23"
  bottom: "score24"
  bottom: "score25"
  bottom: "score26"
  bottom: "score27"
  bottom: "score28"
  bottom: "score29"
  bottom: "score30"
  bottom: "score31"
  bottom: "score32"
  bottom: "score33"
  bottom: "score34"
  bottom: "score35"
  bottom: "score36"
  bottom: "score37"
  bottom: "score38"
  bottom: "score39"
  bottom: "score40"
  bottom: "score41"
  bottom: "score42"
  bottom: "score43"
  bottom: "score44"
  bottom: "score45"
  bottom: "score46"
  bottom: "score47"
  bottom: "score48"
  bottom: "score49"
  bottom: "score50"
  bottom: "score51"
  bottom: "score52"
  bottom: "score53"
  bottom: "score54"
  bottom: "score55"
  bottom: "score56"
  bottom: "score57"
  bottom: "score58"
  bottom: "score59"
  bottom: "score60"
  bottom: "score61"
  bottom: "score62"
  bottom: "score63"
  bottom: "score64"
  top: "sumscore"
  eltwise_param {
    operation: SUM
  }
}
layer {
  name: "loss1"
  type: "NCLLoss"
  bottom: "score1"
  bottom: "label"
  bottom: "sumscore"
  top: "loss1"
  include {
    phase: TRAIN
  }
  ncl_loss_param {
    lambda: 1.01
    net_num: 64
  }
}
layer {
  name: "loss2"
  type: "NCLLoss"
  bottom: "score2"
  bottom: "label"
  bottom: "sumscore"
  top: "loss2"
  include {
    phase: TRAIN
  }
  ncl_loss_param {
    lambda: 1.01
    net_num: 64
  }
}
layer {
  name: "loss3"
  type: "NCLLoss"
  bottom: "score3"
  bottom: "label"
  bottom: "sumscore"
  top: "loss3"
  include {
    phase: TRAIN
  }
  ncl_loss_param {
    lambda: 1.01
    net_num: 64
  }
}
layer {
  name: "loss4"
  type: "NCLLoss"
  bottom: "score4"
  bottom: "label"
  bottom: "sumscore"
  top: "loss4"
  include {
    phase: TRAIN
  }
  ncl_loss_param {
    lambda: 1.01
    net_num: 64
  }
}
layer {
  name: "loss5"
  type: "NCLLoss"
  bottom: "score5"
  bottom: "label"
  bottom: "sumscore"
  top: "loss5"
  include {
    phase: TRAIN
  }
  ncl_loss_param {
    lambda: 1.01
    net_num: 64
  }
}
layer {
  name: "loss6"
  type: "NCLLoss"
  bottom: "score6"
  bottom: "label"
  bottom: "sumscore"
  top: "loss6"
  include {
    phase: TRAIN
  }
  ncl_loss_param {
    lambda: 1.01
    net_num: 64
  }
}
layer {
  name: "loss7"
  type: "NCLLoss"
  bottom: "score7"
  bottom: "label"
  bottom: "sumscore"
  top: "loss7"
  include {
    phase: TRAIN
  }
  ncl_loss_param {
    lambda: 1.01
    net_num: 64
  }
}
layer {
  name: "loss8"
  type: "NCLLoss"
  bottom: "score8"
  bottom: "label"
  bottom: "sumscore"
  top: "loss8"
  include {
    phase: TRAIN
  }
  ncl_loss_param {
    lambda: 1.01
    net_num: 64
  }
}
layer {
  name: "loss9"
  type: "NCLLoss"
  bottom: "score9"
  bottom: "label"
  bottom: "sumscore"
  top: "loss9"
  include {
    phase: TRAIN
  }
  ncl_loss_param {
    lambda: 1.01
    net_num: 64
  }
}
layer {
  name: "loss10"
  type: "NCLLoss"
  bottom: "score10"
  bottom: "label"
  bottom: "sumscore"
  top: "loss10"
  include {
    phase: TRAIN
  }
  ncl_loss_param {
    lambda: 1.01
    net_num: 64
  }
}
layer {
  name: "loss11"
  type: "NCLLoss"
  bottom: "score11"
  bottom: "label"
  bottom: "sumscore"
  top: "loss11"
  include {
    phase: TRAIN
  }
  ncl_loss_param {
    lambda: 1.01
    net_num: 64
  }
}
layer {
  name: "loss12"
  type: "NCLLoss"
  bottom: "score12"
  bottom: "label"
  bottom: "sumscore"
  top: "loss12"
  include {
    phase: TRAIN
  }
  ncl_loss_param {
    lambda: 1.01
    net_num: 64
  }
}
layer {
  name: "loss13"
  type: "NCLLoss"
  bottom: "score13"
  bottom: "label"
  bottom: "sumscore"
  top: "loss13"
  include {
    phase: TRAIN
  }
  ncl_loss_param {
    lambda: 1.01
    net_num: 64
  }
}
layer {
  name: "loss14"
  type: "NCLLoss"
  bottom: "score14"
  bottom: "label"
  bottom: "sumscore"
  top: "loss14"
  include {
    phase: TRAIN
  }
  ncl_loss_param {
    lambda: 1.01
    net_num: 64
  }
}
layer {
  name: "loss15"
  type: "NCLLoss"
  bottom: "score15"
  bottom: "label"
  bottom: "sumscore"
  top: "loss15"
  include {
    phase: TRAIN
  }
  ncl_loss_param {
    lambda: 1.01
    net_num: 64
  }
}
layer {
  name: "loss16"
  type: "NCLLoss"
  bottom: "score16"
  bottom: "label"
  bottom: "sumscore"
  top: "loss16"
  include {
    phase: TRAIN
  }
  ncl_loss_param {
    lambda: 1.01
    net_num: 64
  }
}
layer {
  name: "loss17"
  type: "NCLLoss"
  bottom: "score17"
  bottom: "label"
  bottom: "sumscore"
  top: "loss17"
  include {
    phase: TRAIN
  }
  ncl_loss_param {
    lambda: 1.01
    net_num: 64
  }
}
layer {
  name: "loss18"
  type: "NCLLoss"
  bottom: "score18"
  bottom: "label"
  bottom: "sumscore"
  top: "loss18"
  include {
    phase: TRAIN
  }
  ncl_loss_param {
    lambda: 1.01
    net_num: 64
  }
}
layer {
  name: "loss19"
  type: "NCLLoss"
  bottom: "score19"
  bottom: "label"
  bottom: "sumscore"
  top: "loss19"
  include {
    phase: TRAIN
  }
  ncl_loss_param {
    lambda: 1.01
    net_num: 64
  }
}
layer {
  name: "loss20"
  type: "NCLLoss"
  bottom: "score20"
  bottom: "label"
  bottom: "sumscore"
  top: "loss20"
  include {
    phase: TRAIN
  }
  ncl_loss_param {
    lambda: 1.01
    net_num: 64
  }
}
layer {
  name: "loss21"
  type: "NCLLoss"
  bottom: "score21"
  bottom: "label"
  bottom: "sumscore"
  top: "loss21"
  include {
    phase: TRAIN
  }
  ncl_loss_param {
    lambda: 1.01
    net_num: 64
  }
}
layer {
  name: "loss22"
  type: "NCLLoss"
  bottom: "score22"
  bottom: "label"
  bottom: "sumscore"
  top: "loss22"
  include {
    phase: TRAIN
  }
  ncl_loss_param {
    lambda: 1.01
    net_num: 64
  }
}
layer {
  name: "loss23"
  type: "NCLLoss"
  bottom: "score23"
  bottom: "label"
  bottom: "sumscore"
  top: "loss23"
  include {
    phase: TRAIN
  }
  ncl_loss_param {
    lambda: 1.01
    net_num: 64
  }
}
layer {
  name: "loss24"
  type: "NCLLoss"
  bottom: "score24"
  bottom: "label"
  bottom: "sumscore"
  top: "loss24"
  include {
    phase: TRAIN
  }
  ncl_loss_param {
    lambda: 1.01
    net_num: 64
  }
}
layer {
  name: "loss25"
  type: "NCLLoss"
  bottom: "score25"
  bottom: "label"
  bottom: "sumscore"
  top: "loss25"
  include {
    phase: TRAIN
  }
  ncl_loss_param {
    lambda: 1.01
    net_num: 64
  }
}
layer {
  name: "loss26"
  type: "NCLLoss"
  bottom: "score26"
  bottom: "label"
  bottom: "sumscore"
  top: "loss26"
  include {
    phase: TRAIN
  }
  ncl_loss_param {
    lambda: 1.01
    net_num: 64
  }
}
layer {
  name: "loss27"
  type: "NCLLoss"
  bottom: "score27"
  bottom: "label"
  bottom: "sumscore"
  top: "loss27"
  include {
    phase: TRAIN
  }
  ncl_loss_param {
    lambda: 1.01
    net_num: 64
  }
}
layer {
  name: "loss28"
  type: "NCLLoss"
  bottom: "score28"
  bottom: "label"
  bottom: "sumscore"
  top: "loss28"
  include {
    phase: TRAIN
  }
  ncl_loss_param {
    lambda: 1.01
    net_num: 64
  }
}
layer {
  name: "loss29"
  type: "NCLLoss"
  bottom: "score29"
  bottom: "label"
  bottom: "sumscore"
  top: "loss29"
  include {
    phase: TRAIN
  }
  ncl_loss_param {
    lambda: 1.01
    net_num: 64
  }
}
layer {
  name: "loss30"
  type: "NCLLoss"
  bottom: "score30"
  bottom: "label"
  bottom: "sumscore"
  top: "loss30"
  include {
    phase: TRAIN
  }
  ncl_loss_param {
    lambda: 1.01
    net_num: 64
  }
}
layer {
  name: "loss31"
  type: "NCLLoss"
  bottom: "score31"
  bottom: "label"
  bottom: "sumscore"
  top: "loss31"
  include {
    phase: TRAIN
  }
  ncl_loss_param {
    lambda: 1.01
    net_num: 64
  }
}
layer {
  name: "loss32"
  type: "NCLLoss"
  bottom: "score32"
  bottom: "label"
  bottom: "sumscore"
  top: "loss32"
  include {
    phase: TRAIN
  }
  ncl_loss_param {
    lambda: 1.01
    net_num: 64
  }
}
layer {
  name: "loss33"
  type: "NCLLoss"
  bottom: "score33"
  bottom: "label"
  bottom: "sumscore"
  top: "loss33"
  include {
    phase: TRAIN
  }
  ncl_loss_param {
    lambda: 1.01
    net_num: 64
  }
}
layer {
  name: "loss34"
  type: "NCLLoss"
  bottom: "score34"
  bottom: "label"
  bottom: "sumscore"
  top: "loss34"
  include {
    phase: TRAIN
  }
  ncl_loss_param {
    lambda: 1.01
    net_num: 64
  }
}
layer {
  name: "loss35"
  type: "NCLLoss"
  bottom: "score35"
  bottom: "label"
  bottom: "sumscore"
  top: "loss35"
  include {
    phase: TRAIN
  }
  ncl_loss_param {
    lambda: 1.01
    net_num: 64
  }
}
layer {
  name: "loss36"
  type: "NCLLoss"
  bottom: "score36"
  bottom: "label"
  bottom: "sumscore"
  top: "loss36"
  include {
    phase: TRAIN
  }
  ncl_loss_param {
    lambda: 1.01
    net_num: 64
  }
}
layer {
  name: "loss37"
  type: "NCLLoss"
  bottom: "score37"
  bottom: "label"
  bottom: "sumscore"
  top: "loss37"
  include {
    phase: TRAIN
  }
  ncl_loss_param {
    lambda: 1.01
    net_num: 64
  }
}
layer {
  name: "loss38"
  type: "NCLLoss"
  bottom: "score38"
  bottom: "label"
  bottom: "sumscore"
  top: "loss38"
  include {
    phase: TRAIN
  }
  ncl_loss_param {
    lambda: 1.01
    net_num: 64
  }
}
layer {
  name: "loss39"
  type: "NCLLoss"
  bottom: "score39"
  bottom: "label"
  bottom: "sumscore"
  top: "loss39"
  include {
    phase: TRAIN
  }
  ncl_loss_param {
    lambda: 1.01
    net_num: 64
  }
}
layer {
  name: "loss40"
  type: "NCLLoss"
  bottom: "score40"
  bottom: "label"
  bottom: "sumscore"
  top: "loss40"
  include {
    phase: TRAIN
  }
  ncl_loss_param {
    lambda: 1.01
    net_num: 64
  }
}
layer {
  name: "loss41"
  type: "NCLLoss"
  bottom: "score41"
  bottom: "label"
  bottom: "sumscore"
  top: "loss41"
  include {
    phase: TRAIN
  }
  ncl_loss_param {
    lambda: 1.01
    net_num: 64
  }
}
layer {
  name: "loss42"
  type: "NCLLoss"
  bottom: "score42"
  bottom: "label"
  bottom: "sumscore"
  top: "loss42"
  include {
    phase: TRAIN
  }
  ncl_loss_param {
    lambda: 1.01
    net_num: 64
  }
}
layer {
  name: "loss43"
  type: "NCLLoss"
  bottom: "score43"
  bottom: "label"
  bottom: "sumscore"
  top: "loss43"
  include {
    phase: TRAIN
  }
  ncl_loss_param {
    lambda: 1.01
    net_num: 64
  }
}
layer {
  name: "loss44"
  type: "NCLLoss"
  bottom: "score44"
  bottom: "label"
  bottom: "sumscore"
  top: "loss44"
  include {
    phase: TRAIN
  }
  ncl_loss_param {
    lambda: 1.01
    net_num: 64
  }
}
layer {
  name: "loss45"
  type: "NCLLoss"
  bottom: "score45"
  bottom: "label"
  bottom: "sumscore"
  top: "loss45"
  include {
    phase: TRAIN
  }
  ncl_loss_param {
    lambda: 1.01
    net_num: 64
  }
}
layer {
  name: "loss46"
  type: "NCLLoss"
  bottom: "score46"
  bottom: "label"
  bottom: "sumscore"
  top: "loss46"
  include {
    phase: TRAIN
  }
  ncl_loss_param {
    lambda: 1.01
    net_num: 64
  }
}
layer {
  name: "loss47"
  type: "NCLLoss"
  bottom: "score47"
  bottom: "label"
  bottom: "sumscore"
  top: "loss47"
  include {
    phase: TRAIN
  }
  ncl_loss_param {
    lambda: 1.01
    net_num: 64
  }
}
layer {
  name: "loss48"
  type: "NCLLoss"
  bottom: "score48"
  bottom: "label"
  bottom: "sumscore"
  top: "loss48"
  include {
    phase: TRAIN
  }
  ncl_loss_param {
    lambda: 1.01
    net_num: 64
  }
}
layer {
  name: "loss49"
  type: "NCLLoss"
  bottom: "score49"
  bottom: "label"
  bottom: "sumscore"
  top: "loss49"
  include {
    phase: TRAIN
  }
  ncl_loss_param {
    lambda: 1.01
    net_num: 64
  }
}
layer {
  name: "loss50"
  type: "NCLLoss"
  bottom: "score50"
  bottom: "label"
  bottom: "sumscore"
  top: "loss50"
  include {
    phase: TRAIN
  }
  ncl_loss_param {
    lambda: 1.01
    net_num: 64
  }
}
layer {
  name: "loss51"
  type: "NCLLoss"
  bottom: "score51"
  bottom: "label"
  bottom: "sumscore"
  top: "loss51"
  include {
    phase: TRAIN
  }
  ncl_loss_param {
    lambda: 1.01
    net_num: 64
  }
}
layer {
  name: "loss52"
  type: "NCLLoss"
  bottom: "score52"
  bottom: "label"
  bottom: "sumscore"
  top: "loss52"
  include {
    phase: TRAIN
  }
  ncl_loss_param {
    lambda: 1.01
    net_num: 64
  }
}
layer {
  name: "loss53"
  type: "NCLLoss"
  bottom: "score53"
  bottom: "label"
  bottom: "sumscore"
  top: "loss53"
  include {
    phase: TRAIN
  }
  ncl_loss_param {
    lambda: 1.01
    net_num: 64
  }
}
layer {
  name: "loss54"
  type: "NCLLoss"
  bottom: "score54"
  bottom: "label"
  bottom: "sumscore"
  top: "loss54"
  include {
    phase: TRAIN
  }
  ncl_loss_param {
    lambda: 1.01
    net_num: 64
  }
}
layer {
  name: "loss55"
  type: "NCLLoss"
  bottom: "score55"
  bottom: "label"
  bottom: "sumscore"
  top: "loss55"
  include {
    phase: TRAIN
  }
  ncl_loss_param {
    lambda: 1.01
    net_num: 64
  }
}
layer {
  name: "loss56"
  type: "NCLLoss"
  bottom: "score56"
  bottom: "label"
  bottom: "sumscore"
  top: "loss56"
  include {
    phase: TRAIN
  }
  ncl_loss_param {
    lambda: 1.01
    net_num: 64
  }
}
layer {
  name: "loss57"
  type: "NCLLoss"
  bottom: "score57"
  bottom: "label"
  bottom: "sumscore"
  top: "loss57"
  include {
    phase: TRAIN
  }
  ncl_loss_param {
    lambda: 1.01
    net_num: 64
  }
}
layer {
  name: "loss58"
  type: "NCLLoss"
  bottom: "score58"
  bottom: "label"
  bottom: "sumscore"
  top: "loss58"
  include {
    phase: TRAIN
  }
  ncl_loss_param {
    lambda: 1.01
    net_num: 64
  }
}
layer {
  name: "loss59"
  type: "NCLLoss"
  bottom: "score59"
  bottom: "label"
  bottom: "sumscore"
  top: "loss59"
  include {
    phase: TRAIN
  }
  ncl_loss_param {
    lambda: 1.01
    net_num: 64
  }
}
layer {
  name: "loss60"
  type: "NCLLoss"
  bottom: "score60"
  bottom: "label"
  bottom: "sumscore"
  top: "loss60"
  include {
    phase: TRAIN
  }
  ncl_loss_param {
    lambda: 1.01
    net_num: 64
  }
}
layer {
  name: "loss61"
  type: "NCLLoss"
  bottom: "score61"
  bottom: "label"
  bottom: "sumscore"
  top: "loss61"
  include {
    phase: TRAIN
  }
  ncl_loss_param {
    lambda: 1.01
    net_num: 64
  }
}
layer {
  name: "loss62"
  type: "NCLLoss"
  bottom: "score62"
  bottom: "label"
  bottom: "sumscore"
  top: "loss62"
  include {
    phase: TRAIN
  }
  ncl_loss_param {
    lambda: 1.01
    net_num: 64
  }
}
layer {
  name: "loss63"
  type: "NCLLoss"
  bottom: "score63"
  bottom: "label"
  bottom: "sumscore"
  top: "loss63"
  include {
    phase: TRAIN
  }
  ncl_loss_param {
    lambda: 1.01
    net_num: 64
  }
}
layer {
  name: "loss64"
  type: "NCLLoss"
  bottom: "score64"
  bottom: "label"
  bottom: "sumscore"
  top: "loss64"
  include {
    phase: TRAIN
  }
  ncl_loss_param {
    lambda: 1.01
    net_num: 64
  }
}
I0728 09:57:20.093828 20134 layer_factory.hpp:77] Creating layer data
I0728 09:57:20.093955 20134 db_lmdb.cpp:35] Opened lmdb /home/peiyong/Work/Zenglin/szl/ShanghaiTech/partA/train_8/image_lmdb
I0728 09:57:20.093993 20134 net.cpp:84] Creating Layer data
I0728 09:57:20.094004 20134 net.cpp:380] data -> data
I0728 09:57:20.095182 20134 data_layer.cpp:45] output data size: 1,3,384,512
I0728 09:57:20.101852 20134 net.cpp:122] Setting up data
I0728 09:57:20.101872 20134 net.cpp:129] Top shape: 1 3 384 512 (589824)
I0728 09:57:20.101877 20134 net.cpp:137] Memory required for data: 2359296
I0728 09:57:20.101887 20134 layer_factory.hpp:77] Creating layer label
I0728 09:57:20.101963 20134 db_lmdb.cpp:35] Opened lmdb /home/peiyong/Work/Zenglin/szl/ShanghaiTech/partA/train_8/dmap_lmdb
I0728 09:57:20.101984 20134 net.cpp:84] Creating Layer label
I0728 09:57:20.101994 20134 net.cpp:380] label -> label
I0728 09:57:20.102125 20134 data_layer.cpp:45] output data size: 1,1,48,64
I0728 09:57:20.103238 20134 net.cpp:122] Setting up label
I0728 09:57:20.103256 20134 net.cpp:129] Top shape: 1 1 48 64 (3072)
I0728 09:57:20.103260 20134 net.cpp:137] Memory required for data: 2371584
I0728 09:57:20.103263 20134 layer_factory.hpp:77] Creating layer label_label_0_split
I0728 09:57:20.103279 20134 net.cpp:84] Creating Layer label_label_0_split
I0728 09:57:20.103299 20134 net.cpp:406] label_label_0_split <- label
I0728 09:57:20.103319 20134 net.cpp:380] label_label_0_split -> label_label_0_split_0
…
I0728 09:57:20.104120 20134 net.cpp:380] label_label_0_split -> label_label_0_split_58
I0728 09:57:20.104132 20134 net.cpp:380] label_label_0_split -> label_label_0_split_59
I0728 09:57:20.104145 20134 net.cpp:380] label_label_0_split -> label_label_0_split_60
I0728 09:57:20.104157 20134 net.cpp:380] label_label_0_split -> label_label_0_split_61
I0728 09:57:20.104169 20134 net.cpp:380] label_label_0_split -> label_label_0_split_62
I0728 09:57:20.104188 20134 net.cpp:380] label_label_0_split -> label_label_0_split_63
I0728 09:57:20.104861 20134 net.cpp:122] Setting up label_label_0_split
I0728 09:57:20.104873 20134 net.cpp:129] Top shape: 1 1 48 64 (3072)
I0728 09:57:20.104879 20134 net.cpp:129] Top shape: 1 1 48 64 (3072)
I0728 09:57:20.104887 20134 net.cpp:129] Top shape: 1 1 48 64 (3072)
I0728 09:57:20.104890 20134 net.cpp:129] Top shape: 1 1 48 64 (3072)
I0728 09:57:20.104895 20134 net.cpp:129] Top shape: 1 1 48 64 (3072)
I0728 09:57:20.104900 20134 net.cpp:129] Top shape: 1 1 48 64 (3072)
I0728 09:57:20.104905 20134 net.cpp:129] Top shape: 1 1 48 64 (3072)
I0728 09:57:20.104910 20134 net.cpp:129] Top shape: 1 1 48 64 (3072)
I0728 09:57:20.104915 20134 net.cpp:129] Top shape: 1 1 48 64 (3072)
I0728 09:57:20.104920 20134 net.cpp:129] Top shape: 1 1 48 64 (3072)
I0728 09:57:20.104925 20134 net.cpp:129] Top shape: 1 1 48 64 (3072)
I0728 09:57:20.104941 20134 net.cpp:129] Top shape: 1 1 48 64 (3072)
I0728 09:57:20.104948 20134 net.cpp:129] Top shape: 1 1 48 64 (3072)
I0728 09:57:20.104953 20134 net.cpp:129] Top shape: 1 1 48 64 (3072)
I0728 09:57:20.104957 20134 net.cpp:129] Top shape: 1 1 48 64 (3072)
I0728 09:57:20.104962 20134 net.cpp:129] Top shape: 1 1 48 64 (3072)
I0728 09:57:20.104966 20134 net.cpp:129] Top shape: 1 1 48 64 (3072)
I0728 09:57:20.104971 20134 net.cpp:129] Top shape: 1 1 48 64 (3072)
I0728 09:57:20.104976 20134 net.cpp:129] Top shape: 1 1 48 64 (3072)
I0728 09:57:20.104981 20134 net.cpp:129] Top shape: 1 1 48 64 (3072)
I0728 09:57:20.104985 20134 net.cpp:129] Top shape: 1 1 48 64 (3072)
I0728 09:57:20.104990 20134 net.cpp:129] Top shape: 1 1 48 64 (3072)
I0728 09:57:20.104995 20134 net.cpp:129] Top shape: 1 1 48 64 (3072)
I0728 09:57:20.105000 20134 net.cpp:129] Top shape: 1 1 48 64 (3072)
I0728 09:57:20.105005 20134 net.cpp:129] Top shape: 1 1 48 64 (3072)
I0728 09:57:20.105010 20134 net.cpp:129] Top shape: 1 1 48 64 (3072)
I0728 09:57:20.105015 20134 net.cpp:129] Top shape: 1 1 48 64 (3072)
I0728 09:57:20.105018 20134 net.cpp:129] Top shape: 1 1 48 64 (3072)
I0728 09:57:20.105023 20134 net.cpp:129] Top shape: 1 1 48 64 (3072)
I0728 09:57:20.105028 20134 net.cpp:129] Top shape: 1 1 48 64 (3072)
I0728 09:57:20.105033 20134 net.cpp:129] Top shape: 1 1 48 64 (3072)
I0728 09:57:20.105038 20134 net.cpp:129] Top shape: 1 1 48 64 (3072)
I0728 09:57:20.105043 20134 net.cpp:129] Top shape: 1 1 48 64 (3072)
I0728 09:57:20.105048 20134 net.cpp:129] Top shape: 1 1 48 64 (3072)
I0728 09:57:20.105053 20134 net.cpp:129] Top shape: 1 1 48 64 (3072)
I0728 09:57:20.105057 20134 net.cpp:129] Top shape: 1 1 48 64 (3072)
I0728 09:57:20.105062 20134 net.cpp:129] Top shape: 1 1 48 64 (3072)
I0728 09:57:20.105067 20134 net.cpp:129] Top shape: 1 1 48 64 (3072)
I0728 09:57:20.105072 20134 net.cpp:129] Top shape: 1 1 48 64 (3072)
I0728 09:57:20.105077 20134 net.cpp:129] Top shape: 1 1 48 64 (3072)
I0728 09:57:20.105082 20134 net.cpp:129] Top shape: 1 1 48 64 (3072)
I0728 09:57:20.105087 20134 net.cpp:129] Top shape: 1 1 48 64 (3072)
I0728 09:57:20.105092 20134 net.cpp:129] Top shape: 1 1 48 64 (3072)
I0728 09:57:20.105096 20134 net.cpp:129] Top shape: 1 1 48 64 (3072)
I0728 09:57:20.105101 20134 net.cpp:129] Top shape: 1 1 48 64 (3072)
I0728 09:57:20.105105 20134 net.cpp:129] Top shape: 1 1 48 64 (3072)
I0728 09:57:20.105110 20134 net.cpp:129] Top shape: 1 1 48 64 (3072)
I0728 09:57:20.105115 20134 net.cpp:129] Top shape: 1 1 48 64 (3072)
I0728 09:57:20.105120 20134 net.cpp:129] Top shape: 1 1 48 64 (3072)
I0728 09:57:20.105125 20134 net.cpp:129] Top shape: 1 1 48 64 (3072)
I0728 09:57:20.105130 20134 net.cpp:129] Top shape: 1 1 48 64 (3072)
I0728 09:57:20.105134 20134 net.cpp:129] Top shape: 1 1 48 64 (3072)
I0728 09:57:20.105139 20134 net.cpp:129] Top shape: 1 1 48 64 (3072)
I0728 09:57:20.105144 20134 net.cpp:129] Top shape: 1 1 48 64 (3072)
I0728 09:57:20.105149 20134 net.cpp:129] Top shape: 1 1 48 64 (3072)
I0728 09:57:20.105154 20134 net.cpp:129] Top shape: 1 1 48 64 (3072)
I0728 09:57:20.105159 20134 net.cpp:129] Top shape: 1 1 48 64 (3072)
I0728 09:57:20.105164 20134 net.cpp:129] Top shape: 1 1 48 64 (3072)
I0728 09:57:20.105168 20134 net.cpp:129] Top shape: 1 1 48 64 (3072)
I0728 09:57:20.105172 20134 net.cpp:129] Top shape: 1 1 48 64 (3072)
I0728 09:57:20.105177 20134 net.cpp:129] Top shape: 1 1 48 64 (3072)
I0728 09:57:20.105182 20134 net.cpp:129] Top shape: 1 1 48 64 (3072)
I0728 09:57:20.105187 20134 net.cpp:129] Top shape: 1 1 48 64 (3072)
I0728 09:57:20.105192 20134 net.cpp:129] Top shape: 1 1 48 64 (3072)
I0728 09:57:20.105196 20134 net.cpp:137] Memory required for data: 3158016
I0728 09:57:20.105201 20134 layer_factory.hpp:77] Creating layer conv1_1
I0728 09:57:20.105218 20134 net.cpp:84] Creating Layer conv1_1
I0728 09:57:20.105223 20134 net.cpp:406] conv1_1 <- data
I0728 09:57:20.105232 20134 net.cpp:380] conv1_1 -> conv1_1
I0728 09:57:20.525281 20134 net.cpp:122] Setting up conv1_1
I0728 09:57:20.525362 20134 net.cpp:129] Top shape: 1 64 384 512 (12582912)
I0728 09:57:20.525372 20134 net.cpp:137] Memory required for data: 53489664
I0728 09:57:20.525399 20134 layer_factory.hpp:77] Creating layer relu1_1
I0728 09:57:20.525414 20134 net.cpp:84] Creating Layer relu1_1
I0728 09:57:20.525421 20134 net.cpp:406] relu1_1 <- conv1_1
I0728 09:57:20.525429 20134 net.cpp:367] relu1_1 -> conv1_1 (in-place)
I0728 09:57:20.525595 20134 net.cpp:122] Setting up relu1_1
I0728 09:57:20.525609 20134 net.cpp:129] Top shape: 1 64 384 512 (12582912)
I0728 09:57:20.525612 20134 net.cpp:137] Memory required for data: 103821312
I0728 09:57:20.525617 20134 layer_factory.hpp:77] Creating layer conv1_2
I0728 09:57:20.525631 20134 net.cpp:84] Creating Layer conv1_2
I0728 09:57:20.525637 20134 net.cpp:406] conv1_2 <- conv1_1
I0728 09:57:20.525645 20134 net.cpp:380] conv1_2 -> conv1_2
I0728 09:57:20.528774 20134 net.cpp:122] Setting up conv1_2
I0728 09:57:20.528790 20134 net.cpp:129] Top shape: 1 64 384 512 (12582912)
I0728 09:57:20.528794 20134 net.cpp:137] Memory required for data: 154152960
I0728 09:57:20.528802 20134 layer_factory.hpp:77] Creating layer relu1_2
I0728 09:57:20.528808 20134 net.cpp:84] Creating Layer relu1_2
I0728 09:57:20.528811 20134 net.cpp:406] relu1_2 <- conv1_2
I0728 09:57:20.528818 20134 net.cpp:367] relu1_2 -> conv1_2 (in-place)
I0728 09:57:20.528970 20134 net.cpp:122] Setting up relu1_2
I0728 09:57:20.528982 20134 net.cpp:129] Top shape: 1 64 384 512 (12582912)
I0728 09:57:20.528987 20134 net.cpp:137] Memory required for data: 204484608
I0728 09:57:20.528990 20134 layer_factory.hpp:77] Creating layer pool1
I0728 09:57:20.528998 20134 net.cpp:84] Creating Layer pool1
I0728 09:57:20.529002 20134 net.cpp:406] pool1 <- conv1_2
I0728 09:57:20.529008 20134 net.cpp:380] pool1 -> pool1
I0728 09:57:20.529062 20134 net.cpp:122] Setting up pool1
I0728 09:57:20.529072 20134 net.cpp:129] Top shape: 1 64 192 256 (3145728)
I0728 09:57:20.529075 20134 net.cpp:137] Memory required for data: 217067520
I0728 09:57:20.529080 20134 layer_factory.hpp:77] Creating layer conv2_1
I0728 09:57:20.529091 20134 net.cpp:84] Creating Layer conv2_1
I0728 09:57:20.529098 20134 net.cpp:406] conv2_1 <- pool1
I0728 09:57:20.529104 20134 net.cpp:380] conv2_1 -> conv2_1
I0728 09:57:20.532009 20134 net.cpp:122] Setting up conv2_1
I0728 09:57:20.532027 20134 net.cpp:129] Top shape: 1 128 192 256 (6291456)
I0728 09:57:20.532032 20134 net.cpp:137] Memory required for data: 242233344
I0728 09:57:20.532042 20134 layer_factory.hpp:77] Creating layer relu2_1
I0728 09:57:20.532050 20134 net.cpp:84] Creating Layer relu2_1
I0728 09:57:20.532055 20134 net.cpp:406] relu2_1 <- conv2_1
I0728 09:57:20.532061 20134 net.cpp:367] relu2_1 -> conv2_1 (in-place)
I0728 09:57:20.532629 20134 net.cpp:122] Setting up relu2_1
I0728 09:57:20.532644 20134 net.cpp:129] Top shape: 1 128 192 256 (6291456)
I0728 09:57:20.532649 20134 net.cpp:137] Memory required for data: 267399168
I0728 09:57:20.532655 20134 layer_factory.hpp:77] Creating layer conv2_2
I0728 09:57:20.532666 20134 net.cpp:84] Creating Layer conv2_2
I0728 09:57:20.532672 20134 net.cpp:406] conv2_2 <- conv2_1
I0728 09:57:20.532680 20134 net.cpp:380] conv2_2 -> conv2_2
I0728 09:57:20.535802 20134 net.cpp:122] Setting up conv2_2
I0728 09:57:20.535820 20134 net.cpp:129] Top shape: 1 128 192 256 (6291456)
I0728 09:57:20.535825 20134 net.cpp:137] Memory required for data: 292564992
I0728 09:57:20.535833 20134 layer_factory.hpp:77] Creating layer relu2_2
I0728 09:57:20.535840 20134 net.cpp:84] Creating Layer relu2_2
I0728 09:57:20.535845 20134 net.cpp:406] relu2_2 <- conv2_2
I0728 09:57:20.535851 20134 net.cpp:367] relu2_2 -> conv2_2 (in-place)
I0728 09:57:20.536015 20134 net.cpp:122] Setting up relu2_2
I0728 09:57:20.536027 20134 net.cpp:129] Top shape: 1 128 192 256 (6291456)
I0728 09:57:20.536031 20134 net.cpp:137] Memory required for data: 317730816
I0728 09:57:20.536036 20134 layer_factory.hpp:77] Creating layer pool2
I0728 09:57:20.536044 20134 net.cpp:84] Creating Layer pool2
I0728 09:57:20.536049 20134 net.cpp:406] pool2 <- conv2_2
I0728 09:57:20.536088 20134 net.cpp:380] pool2 -> pool2
I0728 09:57:20.536139 20134 net.cpp:122] Setting up pool2
I0728 09:57:20.536147 20134 net.cpp:129] Top shape: 1 128 96 128 (1572864)
I0728 09:57:20.536152 20134 net.cpp:137] Memory required for data: 324022272
I0728 09:57:20.536157 20134 layer_factory.hpp:77] Creating layer conv3_1
I0728 09:57:20.536167 20134 net.cpp:84] Creating Layer conv3_1
I0728 09:57:20.536172 20134 net.cpp:406] conv3_1 <- pool2
I0728 09:57:20.536180 20134 net.cpp:380] conv3_1 -> conv3_1
I0728 09:57:20.541395 20134 net.cpp:122] Setting up conv3_1
I0728 09:57:20.541411 20134 net.cpp:129] Top shape: 1 256 96 128 (3145728)
I0728 09:57:20.541416 20134 net.cpp:137] Memory required for data: 336605184
I0728 09:57:20.541427 20134 layer_factory.hpp:77] Creating layer relu3_1
I0728 09:57:20.541437 20134 net.cpp:84] Creating Layer relu3_1
I0728 09:57:20.541442 20134 net.cpp:406] relu3_1 <- conv3_1
I0728 09:57:20.541448 20134 net.cpp:367] relu3_1 -> conv3_1 (in-place)
I0728 09:57:20.541620 20134 net.cpp:122] Setting up relu3_1
I0728 09:57:20.541631 20134 net.cpp:129] Top shape: 1 256 96 128 (3145728)
I0728 09:57:20.541636 20134 net.cpp:137] Memory required for data: 349188096
I0728 09:57:20.541641 20134 layer_factory.hpp:77] Creating layer conv3_2
I0728 09:57:20.541652 20134 net.cpp:84] Creating Layer conv3_2
I0728 09:57:20.541658 20134 net.cpp:406] conv3_2 <- conv3_1
I0728 09:57:20.541666 20134 net.cpp:380] conv3_2 -> conv3_2
I0728 09:57:20.549095 20134 net.cpp:122] Setting up conv3_2
I0728 09:57:20.549110 20134 net.cpp:129] Top shape: 1 256 96 128 (3145728)
I0728 09:57:20.549116 20134 net.cpp:137] Memory required for data: 361771008
I0728 09:57:20.549124 20134 layer_factory.hpp:77] Creating layer relu3_2
I0728 09:57:20.549135 20134 net.cpp:84] Creating Layer relu3_2
I0728 09:57:20.549140 20134 net.cpp:406] relu3_2 <- conv3_2
I0728 09:57:20.549147 20134 net.cpp:367] relu3_2 -> conv3_2 (in-place)
I0728 09:57:20.549718 20134 net.cpp:122] Setting up relu3_2
I0728 09:57:20.549732 20134 net.cpp:129] Top shape: 1 256 96 128 (3145728)
I0728 09:57:20.549736 20134 net.cpp:137] Memory required for data: 374353920
I0728 09:57:20.549739 20134 layer_factory.hpp:77] Creating layer conv3_3
I0728 09:57:20.549754 20134 net.cpp:84] Creating Layer conv3_3
I0728 09:57:20.549760 20134 net.cpp:406] conv3_3 <- conv3_2
I0728 09:57:20.549767 20134 net.cpp:380] conv3_3 -> conv3_3
I0728 09:57:20.557165 20134 net.cpp:122] Setting up conv3_3
I0728 09:57:20.557186 20134 net.cpp:129] Top shape: 1 256 96 128 (3145728)
I0728 09:57:20.557191 20134 net.cpp:137] Memory required for data: 386936832
I0728 09:57:20.557200 20134 layer_factory.hpp:77] Creating layer relu3_3
I0728 09:57:20.557207 20134 net.cpp:84] Creating Layer relu3_3
I0728 09:57:20.557212 20134 net.cpp:406] relu3_3 <- conv3_3
I0728 09:57:20.557219 20134 net.cpp:367] relu3_3 -> conv3_3 (in-place)
I0728 09:57:20.557397 20134 net.cpp:122] Setting up relu3_3
I0728 09:57:20.557410 20134 net.cpp:129] Top shape: 1 256 96 128 (3145728)
I0728 09:57:20.557413 20134 net.cpp:137] Memory required for data: 399519744
I0728 09:57:20.557418 20134 layer_factory.hpp:77] Creating layer pool3
I0728 09:57:20.557425 20134 net.cpp:84] Creating Layer pool3
I0728 09:57:20.557430 20134 net.cpp:406] pool3 <- conv3_3
I0728 09:57:20.557438 20134 net.cpp:380] pool3 -> pool3
I0728 09:57:20.557485 20134 net.cpp:122] Setting up pool3
I0728 09:57:20.557493 20134 net.cpp:129] Top shape: 1 256 48 64 (786432)
I0728 09:57:20.557497 20134 net.cpp:137] Memory required for data: 402665472
I0728 09:57:20.557502 20134 layer_factory.hpp:77] Creating layer conv4_1
I0728 09:57:20.557513 20134 net.cpp:84] Creating Layer conv4_1
I0728 09:57:20.557518 20134 net.cpp:406] conv4_1 <- pool3
I0728 09:57:20.557524 20134 net.cpp:380] conv4_1 -> conv4_1
I0728 09:57:20.571166 20134 net.cpp:122] Setting up conv4_1
I0728 09:57:20.571197 20134 net.cpp:129] Top shape: 1 512 48 64 (1572864)
I0728 09:57:20.571202 20134 net.cpp:137] Memory required for data: 408956928
I0728 09:57:20.571213 20134 layer_factory.hpp:77] Creating layer relu4_1
I0728 09:57:20.571252 20134 net.cpp:84] Creating Layer relu4_1
I0728 09:57:20.571259 20134 net.cpp:406] relu4_1 <- conv4_1
I0728 09:57:20.571266 20134 net.cpp:367] relu4_1 -> conv4_1 (in-place)
I0728 09:57:20.571434 20134 net.cpp:122] Setting up relu4_1
I0728 09:57:20.571445 20134 net.cpp:129] Top shape: 1 512 48 64 (1572864)
I0728 09:57:20.571449 20134 net.cpp:137] Memory required for data: 415248384
I0728 09:57:20.571454 20134 layer_factory.hpp:77] Creating layer conv4_2
I0728 09:57:20.571466 20134 net.cpp:84] Creating Layer conv4_2
I0728 09:57:20.571471 20134 net.cpp:406] conv4_2 <- conv4_1
I0728 09:57:20.571480 20134 net.cpp:380] conv4_2 -> conv4_2
I0728 09:57:20.594384 20134 net.cpp:122] Setting up conv4_2
I0728 09:57:20.594403 20134 net.cpp:129] Top shape: 1 512 48 64 (1572864)
I0728 09:57:20.594408 20134 net.cpp:137] Memory required for data: 421539840
I0728 09:57:20.594421 20134 layer_factory.hpp:77] Creating layer relu4_2
I0728 09:57:20.594429 20134 net.cpp:84] Creating Layer relu4_2
I0728 09:57:20.594434 20134 net.cpp:406] relu4_2 <- conv4_2
I0728 09:57:20.594439 20134 net.cpp:367] relu4_2 -> conv4_2 (in-place)
I0728 09:57:20.594993 20134 net.cpp:122] Setting up relu4_2
I0728 09:57:20.595006 20134 net.cpp:129] Top shape: 1 512 48 64 (1572864)
I0728 09:57:20.595010 20134 net.cpp:137] Memory required for data: 427831296
I0728 09:57:20.595015 20134 layer_factory.hpp:77] Creating layer conv4_3
I0728 09:57:20.595026 20134 net.cpp:84] Creating Layer conv4_3
I0728 09:57:20.595031 20134 net.cpp:406] conv4_3 <- conv4_2
I0728 09:57:20.595038 20134 net.cpp:380] conv4_3 -> conv4_3
I0728 09:57:20.617848 20134 net.cpp:122] Setting up conv4_3
I0728 09:57:20.617882 20134 net.cpp:129] Top shape: 1 512 48 64 (1572864)
I0728 09:57:20.617887 20134 net.cpp:137] Memory required for data: 434122752
I0728 09:57:20.617897 20134 layer_factory.hpp:77] Creating layer relu4_3
I0728 09:57:20.617907 20134 net.cpp:84] Creating Layer relu4_3
I0728 09:57:20.617913 20134 net.cpp:406] relu4_3 <- conv4_3
I0728 09:57:20.617919 20134 net.cpp:367] relu4_3 -> conv4_3 (in-place)
I0728 09:57:20.618079 20134 net.cpp:122] Setting up relu4_3
I0728 09:57:20.618089 20134 net.cpp:129] Top shape: 1 512 48 64 (1572864)
I0728 09:57:20.618093 20134 net.cpp:137] Memory required for data: 440414208
I0728 09:57:20.618098 20134 layer_factory.hpp:77] Creating layer pool4
I0728 09:57:20.618105 20134 net.cpp:84] Creating Layer pool4
I0728 09:57:20.618109 20134 net.cpp:406] pool4 <- conv4_3
I0728 09:57:20.618116 20134 net.cpp:380] pool4 -> pool4
I0728 09:57:20.618163 20134 net.cpp:122] Setting up pool4
I0728 09:57:20.618171 20134 net.cpp:129] Top shape: 1 512 48 64 (1572864)
I0728 09:57:20.618175 20134 net.cpp:137] Memory required for data: 446705664
I0728 09:57:20.618178 20134 layer_factory.hpp:77] Creating layer conv5_1
I0728 09:57:20.618191 20134 net.cpp:84] Creating Layer conv5_1
I0728 09:57:20.618196 20134 net.cpp:406] conv5_1 <- pool4
I0728 09:57:20.618202 20134 net.cpp:380] conv5_1 -> conv5_1
I0728 09:57:20.639776 20134 net.cpp:122] Setting up conv5_1
I0728 09:57:20.639803 20134 net.cpp:129] Top shape: 1 512 48 64 (1572864)
I0728 09:57:20.639807 20134 net.cpp:137] Memory required for data: 452997120
I0728 09:57:20.639816 20134 layer_factory.hpp:77] Creating layer relu5_1
I0728 09:57:20.639825 20134 net.cpp:84] Creating Layer relu5_1
I0728 09:57:20.639830 20134 net.cpp:406] relu5_1 <- conv5_1
I0728 09:57:20.639837 20134 net.cpp:367] relu5_1 -> conv5_1 (in-place)
I0728 09:57:20.640471 20134 net.cpp:122] Setting up relu5_1
I0728 09:57:20.640485 20134 net.cpp:129] Top shape: 1 512 48 64 (1572864)
I0728 09:57:20.640487 20134 net.cpp:137] Memory required for data: 459288576
I0728 09:57:20.640491 20134 layer_factory.hpp:77] Creating layer conv5_2
I0728 09:57:20.640501 20134 net.cpp:84] Creating Layer conv5_2
I0728 09:57:20.640503 20134 net.cpp:406] conv5_2 <- conv5_1
I0728 09:57:20.640511 20134 net.cpp:380] conv5_2 -> conv5_2
I0728 09:57:20.662009 20134 net.cpp:122] Setting up conv5_2
I0728 09:57:20.662039 20134 net.cpp:129] Top shape: 1 512 48 64 (1572864)
I0728 09:57:20.662081 20134 net.cpp:137] Memory required for data: 465580032
I0728 09:57:20.662089 20134 layer_factory.hpp:77] Creating layer relu5_2
I0728 09:57:20.662098 20134 net.cpp:84] Creating Layer relu5_2
I0728 09:57:20.662103 20134 net.cpp:406] relu5_2 <- conv5_2
I0728 09:57:20.662111 20134 net.cpp:367] relu5_2 -> conv5_2 (in-place)
I0728 09:57:20.662327 20134 net.cpp:122] Setting up relu5_2
I0728 09:57:20.662336 20134 net.cpp:129] Top shape: 1 512 48 64 (1572864)
I0728 09:57:20.662339 20134 net.cpp:137] Memory required for data: 471871488
I0728 09:57:20.662343 20134 layer_factory.hpp:77] Creating layer conv5_3
I0728 09:57:20.662353 20134 net.cpp:84] Creating Layer conv5_3
I0728 09:57:20.662358 20134 net.cpp:406] conv5_3 <- conv5_2
I0728 09:57:20.662365 20134 net.cpp:380] conv5_3 -> conv5_3
I0728 09:57:20.683930 20134 net.cpp:122] Setting up conv5_3
I0728 09:57:20.683960 20134 net.cpp:129] Top shape: 1 512 48 64 (1572864)
I0728 09:57:20.683964 20134 net.cpp:137] Memory required for data: 478162944
I0728 09:57:20.683971 20134 layer_factory.hpp:77] Creating layer relu5_3
I0728 09:57:20.683985 20134 net.cpp:84] Creating Layer relu5_3
I0728 09:57:20.683991 20134 net.cpp:406] relu5_3 <- conv5_3
I0728 09:57:20.684000 20134 net.cpp:367] relu5_3 -> conv5_3 (in-place)
I0728 09:57:20.684691 20134 net.cpp:122] Setting up relu5_3
I0728 09:57:20.684703 20134 net.cpp:129] Top shape: 1 512 48 64 (1572864)
I0728 09:57:20.684706 20134 net.cpp:137] Memory required for data: 484454400
I0728 09:57:20.684710 20134 layer_factory.hpp:77] Creating layer conv_score
I0728 09:57:20.684720 20134 net.cpp:84] Creating Layer conv_score
I0728 09:57:20.684725 20134 net.cpp:406] conv_score <- conv5_3
I0728 09:57:20.684733 20134 net.cpp:380] conv_score -> conv_score
I0728 09:57:20.761788 20134 net.cpp:122] Setting up conv_score
I0728 09:57:20.761819 20134 net.cpp:129] Top shape: 1 64 48 64 (196608)
I0728 09:57:20.761824 20134 net.cpp:137] Memory required for data: 485240832
I0728 09:57:20.761835 20134 layer_factory.hpp:77] Creating layer relu_score
I0728 09:57:20.761847 20134 net.cpp:84] Creating Layer relu_score
I0728 09:57:20.761853 20134 net.cpp:406] relu_score <- conv_score
I0728 09:57:20.761859 20134 net.cpp:367] relu_score -> conv_score (in-place)
I0728 09:57:20.762045 20134 net.cpp:122] Setting up relu_score
I0728 09:57:20.762056 20134 net.cpp:129] Top shape: 1 64 48 64 (196608)
I0728 09:57:20.762060 20134 net.cpp:137] Memory required for data: 486027264
I0728 09:57:20.762064 20134 layer_factory.hpp:77] Creating layer slicer_conv
I0728 09:57:20.762076 20134 net.cpp:84] Creating Layer slicer_conv
I0728 09:57:20.762080 20134 net.cpp:406] slicer_conv <- conv_score
I0728 09:57:20.762092 20134 net.cpp:380] slicer_conv -> score1
I0728 09:57:20.762105 20134 net.cpp:380] slicer_conv -> score2
…
I0728 09:57:20.762643 20134 net.cpp:380] slicer_conv -> score57
I0728 09:57:20.762652 20134 net.cpp:380] slicer_conv -> score58
I0728 09:57:20.762660 20134 net.cpp:380] slicer_conv -> score59
I0728 09:57:20.762670 20134 net.cpp:380] slicer_conv -> score60
I0728 09:57:20.762678 20134 net.cpp:380] slicer_conv -> score61
I0728 09:57:20.762687 20134 net.cpp:380] slicer_conv -> score62
I0728 09:57:20.762696 20134 net.cpp:380] slicer_conv -> score63
I0728 09:57:20.762706 20134 net.cpp:380] slicer_conv -> score64
I0728 09:57:20.763510 20134 net.cpp:122] Setting up slicer_conv
I0728 09:57:20.763520 20134 net.cpp:129] Top shape: 1 1 48 64 (3072)
I0728 09:57:20.763525 20134 net.cpp:129] Top shape: 1 1 48 64 (3072)
I0728 09:57:20.763530 20134 net.cpp:129] Top shape: 1 1 48 64 (3072)
I0728 09:57:20.763535 20134 net.cpp:129] Top shape: 1 1 48 64 (3072)
I0728 09:57:20.763538 20134 net.cpp:129] Top shape: 1 1 48 64 (3072)
I0728 09:57:20.763543 20134 net.cpp:129] Top shape: 1 1 48 64 (3072)
I0728 09:57:20.763547 20134 net.cpp:129] Top shape: 1 1 48 64 (3072)
I0728 09:57:20.763552 20134 net.cpp:129] Top shape: 1 1 48 64 (3072)
I0728 09:57:20.763556 20134 net.cpp:129] Top shape: 1 1 48 64 (3072)
I0728 09:57:20.763561 20134 net.cpp:129] Top shape: 1 1 48 64 (3072)
I0728 09:57:20.763566 20134 net.cpp:129] Top shape: 1 1 48 64 (3072)
I0728 09:57:20.763569 20134 net.cpp:129] Top shape: 1 1 48 64 (3072)
I0728 09:57:20.763573 20134 net.cpp:129] Top shape: 1 1 48 64 (3072)
I0728 09:57:20.763578 20134 net.cpp:129] Top shape: 1 1 48 64 (3072)
I0728 09:57:20.763582 20134 net.cpp:129] Top shape: 1 1 48 64 (3072)
I0728 09:57:20.763586 20134 net.cpp:129] Top shape: 1 1 48 64 (3072)
I0728 09:57:20.763592 20134 net.cpp:129] Top shape: 1 1 48 64 (3072)
I0728 09:57:20.763595 20134 net.cpp:129] Top shape: 1 1 48 64 (3072)
I0728 09:57:20.763599 20134 net.cpp:129] Top shape: 1 1 48 64 (3072)
I0728 09:57:20.763603 20134 net.cpp:129] Top shape: 1 1 48 64 (3072)
I0728 09:57:20.763618 20134 net.cpp:129] Top shape: 1 1 48 64 (3072)
I0728 09:57:20.763622 20134 net.cpp:129] Top shape: 1 1 48 64 (3072)
I0728 09:57:20.763626 20134 net.cpp:129] Top shape: 1 1 48 64 (3072)
I0728 09:57:20.763630 20134 net.cpp:129] Top shape: 1 1 48 64 (3072)
I0728 09:57:20.763634 20134 net.cpp:129] Top shape: 1 1 48 64 (3072)
I0728 09:57:20.763638 20134 net.cpp:129] Top shape: 1 1 48 64 (3072)
I0728 09:57:20.763643 20134 net.cpp:129] Top shape: 1 1 48 64 (3072)
I0728 09:57:20.763648 20134 net.cpp:129] Top shape: 1 1 48 64 (3072)
I0728 09:57:20.763651 20134 net.cpp:129] Top shape: 1 1 48 64 (3072)
I0728 09:57:20.763656 20134 net.cpp:129] Top shape: 1 1 48 64 (3072)
I0728 09:57:20.763660 20134 net.cpp:129] Top shape: 1 1 48 64 (3072)
I0728 09:57:20.763665 20134 net.cpp:129] Top shape: 1 1 48 64 (3072)
I0728 09:57:20.763669 20134 net.cpp:129] Top shape: 1 1 48 64 (3072)
I0728 09:57:20.763674 20134 net.cpp:129] Top shape: 1 1 48 64 (3072)
I0728 09:57:20.763676 20134 net.cpp:129] Top shape: 1 1 48 64 (3072)
I0728 09:57:20.763680 20134 net.cpp:129] Top shape: 1 1 48 64 (3072)
I0728 09:57:20.763685 20134 net.cpp:129] Top shape: 1 1 48 64 (3072)
I0728 09:57:20.763689 20134 net.cpp:129] Top shape: 1 1 48 64 (3072)
I0728 09:57:20.763695 20134 net.cpp:129] Top shape: 1 1 48 64 (3072)
I0728 09:57:20.763698 20134 net.cpp:129] Top shape: 1 1 48 64 (3072)
I0728 09:57:20.763702 20134 net.cpp:129] Top shape: 1 1 48 64 (3072)
I0728 09:57:20.763706 20134 net.cpp:129] Top shape: 1 1 48 64 (3072)
I0728 09:57:20.763710 20134 net.cpp:129] Top shape: 1 1 48 64 (3072)
I0728 09:57:20.763715 20134 net.cpp:129] Top shape: 1 1 48 64 (3072)
I0728 09:57:20.763720 20134 net.cpp:129] Top shape: 1 1 48 64 (3072)
I0728 09:57:20.763725 20134 net.cpp:129] Top shape: 1 1 48 64 (3072)
I0728 09:57:20.763730 20134 net.cpp:129] Top shape: 1 1 48 64 (3072)
I0728 09:57:20.763733 20134 net.cpp:129] Top shape: 1 1 48 64 (3072)
I0728 09:57:20.763737 20134 net.cpp:129] Top shape: 1 1 48 64 (3072)
I0728 09:57:20.763741 20134 net.cpp:129] Top shape: 1 1 48 64 (3072)
I0728 09:57:20.763746 20134 net.cpp:129] Top shape: 1 1 48 64 (3072)
I0728 09:57:20.763749 20134 net.cpp:129] Top shape: 1 1 48 64 (3072)
I0728 09:57:20.763753 20134 net.cpp:129] Top shape: 1 1 48 64 (3072)
I0728 09:57:20.763757 20134 net.cpp:129] Top shape: 1 1 48 64 (3072)
I0728 09:57:20.763762 20134 net.cpp:129] Top shape: 1 1 48 64 (3072)
I0728 09:57:20.763768 20134 net.cpp:129] Top shape: 1 1 48 64 (3072)
I0728 09:57:20.763774 20134 net.cpp:129] Top shape: 1 1 48 64 (3072)
I0728 09:57:20.763782 20134 net.cpp:129] Top shape: 1 1 48 64 (3072)
I0728 09:57:20.763787 20134 net.cpp:129] Top shape: 1 1 48 64 (3072)
I0728 09:57:20.763809 20134 net.cpp:129] Top shape: 1 1 48 64 (3072)
I0728 09:57:20.763818 20134 net.cpp:129] Top shape: 1 1 48 64 (3072)
I0728 09:57:20.763824 20134 net.cpp:129] Top shape: 1 1 48 64 (3072)
I0728 09:57:20.763828 20134 net.cpp:129] Top shape: 1 1 48 64 (3072)
I0728 09:57:20.763833 20134 net.cpp:129] Top shape: 1 1 48 64 (3072)
I0728 09:57:20.763837 20134 net.cpp:137] Memory required for data: 486813696
I0728 09:57:20.763844 20134 layer_factory.hpp:77] Creating layer score1_slicer_conv_0_split
I0728 09:57:20.763849 20134 net.cpp:84] Creating Layer score1_slicer_conv_0_split
I0728 09:57:20.763859 20134 net.cpp:406] score1_slicer_conv_0_split <- score1
I0728 09:57:20.763871 20134 net.cpp:380] score1_slicer_conv_0_split -> score1_slicer_conv_0_split_0
I0728 09:57:20.763880 20134 net.cpp:380] score1_slicer_conv_0_split -> score1_slicer_conv_0_split_1
I0728 09:57:20.763939 20134 net.cpp:122] Setting up score1_slicer_conv_0_split
I0728 09:57:20.763947 20134 net.cpp:129] Top shape: 1 1 48 64 (3072)
I0728 09:57:20.763952 20134 net.cpp:129] Top shape: 1 1 48 64 (3072)
I0728 09:57:20.763955 20134 net.cpp:137] Memory required for data: 486838272
I0728 09:57:20.763960 20134 layer_factory.hpp:77] Creating layer score2_slicer_conv_1_split
I0728 09:57:20.763967 20134 net.cpp:84] Creating Layer score2_slicer_conv_1_split
I0728 09:57:20.763972 20134 net.cpp:406] score2_slicer_conv_1_split <- score2
I0728 09:57:20.763988 20134 net.cpp:380] score2_slicer_conv_1_split -> score2_slicer_conv_1_split_0
I0728 09:57:20.763996 20134 net.cpp:380] score2_slicer_conv_1_split -> score2_slicer_conv_1_split_1
I0728 09:57:20.764041 20134 net.cpp:122] Setting up score2_slicer_conv_1_split
I0728 09:57:20.764050 20134 net.cpp:129] Top shape: 1 1 48 64 (3072)
I0728 09:57:20.764056 20134 net.cpp:129] Top shape: 1 1 48 64 (3072)
I0728 09:57:20.764062 20134 net.cpp:137] Memory required for data: 486862848
I0728 09:57:20.764068 20134 layer_factory.hpp:77] Creating layer score3_slicer_conv_2_split
I0728 09:57:20.764073 20134 net.cpp:84] Creating Layer score3_slicer_conv_2_split
I0728 09:57:20.764078 20134 net.cpp:406] score3_slicer_conv_2_split <- score3
I0728 09:57:20.764086 20134 net.cpp:380] score3_slicer_conv_2_split -> score3_slicer_conv_2_split_0
I0728 09:57:20.764092 20134 net.cpp:380] score3_slicer_conv_2_split -> score3_slicer_conv_2_split_1
I0728 09:57:20.764138 20134 net.cpp:122] Setting up score3_slicer_conv_2_split
I0728 09:57:20.764145 20134 net.cpp:129] Top shape: 1 1 48 64 (3072)
I0728 09:57:20.764149 20134 net.cpp:129] Top shape: 1 1 48 64 (3072)
I0728 09:57:20.764153 20134 net.cpp:137] Memory required for data: 486887424
I0728 09:57:20.764158 20134 layer_factory.hpp:77] Creating layer score4_slicer_conv_3_split
I0728 09:57:20.764165 20134 net.cpp:84] Creating Layer score4_slicer_conv_3_split
I0728 09:57:20.764169 20134 net.cpp:406] score4_slicer_conv_3_split <- score4
I0728 09:57:20.764178 20134 net.cpp:380] score4_slicer_conv_3_split -> score4_slicer_conv_3_split_0
I0728 09:57:20.764185 20134 net.cpp:380] score4_slicer_conv_3_split -> score4_slicer_conv_3_split_1
I0728 09:57:20.764225 20134 net.cpp:122] Setting up score4_slicer_conv_3_split
I0728 09:57:20.764232 20134 net.cpp:129] Top shape: 1 1 48 64 (3072)
I0728 09:57:20.764237 20134 net.cpp:129] Top shape: 1 1 48 64 (3072)
I0728 09:57:20.764240 20134 net.cpp:137] Memory required for data: 486912000
I0728 09:57:20.764245 20134 layer_factory.hpp:77] Creating layer score5_slicer_conv_4_split
I0728 09:57:20.764252 20134 net.cpp:84] Creating Layer score5_slicer_conv_4_split
I0728 09:57:20.764256 20134 net.cpp:406] score5_slicer_conv_4_split <- score5
I0728 09:57:20.764262 20134 net.cpp:380] score5_slicer_conv_4_split -> score5_slicer_conv_4_split_0
I0728 09:57:20.764268 20134 net.cpp:380] score5_slicer_conv_4_split -> score5_slicer_conv_4_split_1
I0728 09:57:20.764308 20134 net.cpp:122] Setting up score5_slicer_conv_4_split
I0728 09:57:20.764315 20134 net.cpp:129] Top shape: 1 1 48 64 (3072)
I0728 09:57:20.764320 20134 net.cpp:129] Top shape: 1 1 48 64 (3072)
I0728 09:57:20.764325 20134 net.cpp:137] Memory required for data: 486936576
I0728 09:57:20.764329 20134 layer_factory.hpp:77] Creating layer score6_slicer_conv_5_split
I0728 09:57:20.764335 20134 net.cpp:84] Creating Layer score6_slicer_conv_5_split
I0728 09:57:20.764340 20134 net.cpp:406] score6_slicer_conv_5_split <- score6
I0728 09:57:20.764346 20134 net.cpp:380] score6_slicer_conv_5_split -> score6_slicer_conv_5_split_0
I0728 09:57:20.764353 20134 net.cpp:380] score6_slicer_conv_5_split -> score6_slicer_conv_5_split_1
I0728 09:57:20.764392 20134 net.cpp:122] Setting up score6_slicer_conv_5_split
I0728 09:57:20.764398 20134 net.cpp:129] Top shape: 1 1 48 64 (3072)
I0728 09:57:20.764403 20134 net.cpp:129] Top shape: 1 1 48 64 (3072)
I0728 09:57:20.764407 20134 net.cpp:137] Memory required for data: 486961152
I0728 09:57:20.764411 20134 layer_factory.hpp:77] Creating layer score7_slicer_conv_6_split
I0728 09:57:20.764417 20134 net.cpp:84] Creating Layer score7_slicer_conv_6_split
I0728 09:57:20.764421 20134 net.cpp:406] score7_slicer_conv_6_split <- score7
I0728 09:57:20.764426 20134 net.cpp:380] score7_slicer_conv_6_split -> score7_slicer_conv_6_split_0
I0728 09:57:20.764433 20134 net.cpp:380] score7_slicer_conv_6_split -> score7_slicer_conv_6_split_1
I0728 09:57:20.764477 20134 net.cpp:122] Setting up score7_slicer_conv_6_split
I0728 09:57:20.764482 20134 net.cpp:129] Top shape: 1 1 48 64 (3072)
I0728 09:57:20.764497 20134 net.cpp:129] Top shape: 1 1 48 64 (3072)
I0728 09:57:20.764500 20134 net.cpp:137] Memory required for data: 486985728
I0728 09:57:20.764504 20134 layer_factory.hpp:77] Creating layer score8_slicer_conv_7_split
I0728 09:57:20.764510 20134 net.cpp:84] Creating Layer score8_slicer_conv_7_split
I0728 09:57:20.764514 20134 net.cpp:406] score8_slicer_conv_7_split <- score8
I0728 09:57:20.764521 20134 net.cpp:380] score8_slicer_conv_7_split -> score8_slicer_conv_7_split_0
I0728 09:57:20.764528 20134 net.cpp:380] score8_slicer_conv_7_split -> score8_slicer_conv_7_split_1
I0728 09:57:20.764572 20134 net.cpp:122] Setting up score8_slicer_conv_7_split
I0728 09:57:20.764580 20134 net.cpp:129] Top shape: 1 1 48 64 (3072)
I0728 09:57:20.764585 20134 net.cpp:129] Top shape: 1 1 48 64 (3072)
I0728 09:57:20.764587 20134 net.cpp:137] Memory required for data: 487010304
I0728 09:57:20.764591 20134 layer_factory.hpp:77] Creating layer score9_slicer_conv_8_split
I0728 09:57:20.764597 20134 net.cpp:84] Creating Layer score9_slicer_conv_8_split
I0728 09:57:20.764601 20134 net.cpp:406] score9_slicer_conv_8_split <- score9
I0728 09:57:20.764607 20134 net.cpp:380] score9_slicer_conv_8_split -> score9_slicer_conv_8_split_0
I0728 09:57:20.764613 20134 net.cpp:380] score9_slicer_conv_8_split -> score9_slicer_conv_8_split_1
I0728 09:57:20.764653 20134 net.cpp:122] Setting up score9_slicer_conv_8_split
I0728 09:57:20.764659 20134 net.cpp:129] Top shape: 1 1 48 64 (3072)
I0728 09:57:20.764664 20134 net.cpp:129] Top shape: 1 1 48 64 (3072)
I0728 09:57:20.764668 20134 net.cpp:137] Memory required for data: 487034880
I0728 09:57:20.764672 20134 layer_factory.hpp:77] Creating layer score10_slicer_conv_9_split
I0728 09:57:20.764678 20134 net.cpp:84] Creating Layer score10_slicer_conv_9_split
I0728 09:57:20.764683 20134 net.cpp:406] score10_slicer_conv_9_split <- score10
I0728 09:57:20.764689 20134 net.cpp:380] score10_slicer_conv_9_split -> score10_slicer_conv_9_split_0
I0728 09:57:20.764696 20134 net.cpp:380] score10_slicer_conv_9_split -> score10_slicer_conv_9_split_1
I0728 09:57:20.764734 20134 net.cpp:122] Setting up score10_slicer_conv_9_split
I0728 09:57:20.764741 20134 net.cpp:129] Top shape: 1 1 48 64 (3072)
I0728 09:57:20.764745 20134 net.cpp:129] Top shape: 1 1 48 64 (3072)
I0728 09:57:20.764750 20134 net.cpp:137] Memory required for data: 487059456
I0728 09:57:20.764755 20134 layer_factory.hpp:77] Creating layer score11_slicer_conv_10_split
I0728 09:57:20.764761 20134 net.cpp:84] Creating Layer score11_slicer_conv_10_split
I0728 09:57:20.764765 20134 net.cpp:406] score11_slicer_conv_10_split <- score11
I0728 09:57:20.764770 20134 net.cpp:380] score11_slicer_conv_10_split -> score11_slicer_conv_10_split_0
I0728 09:57:20.764777 20134 net.cpp:380] score11_slicer_conv_10_split -> score11_slicer_conv_10_split_1
I0728 09:57:20.764816 20134 net.cpp:122] Setting up score11_slicer_conv_10_split
I0728 09:57:20.764823 20134 net.cpp:129] Top shape: 1 1 48 64 (3072)
I0728 09:57:20.764827 20134 net.cpp:129] Top shape: 1 1 48 64 (3072)
I0728 09:57:20.764832 20134 net.cpp:137] Memory required for data: 487084032
I0728 09:57:20.764837 20134 layer_factory.hpp:77] Creating layer score12_slicer_conv_11_split
I0728 09:57:20.764842 20134 net.cpp:84] Creating Layer score12_slicer_conv_11_split
I0728 09:57:20.764847 20134 net.cpp:406] score12_slicer_conv_11_split <- score12
I0728 09:57:20.764853 20134 net.cpp:380] score12_slicer_conv_11_split -> score12_slicer_conv_11_split_0
I0728 09:57:20.764860 20134 net.cpp:380] score12_slicer_conv_11_split -> score12_slicer_conv_11_split_1
I0728 09:57:20.764899 20134 net.cpp:122] Setting up score12_slicer_conv_11_split
I0728 09:57:20.764906 20134 net.cpp:129] Top shape: 1 1 48 64 (3072)
I0728 09:57:20.764910 20134 net.cpp:129] Top shape: 1 1 48 64 (3072)
I0728 09:57:20.764914 20134 net.cpp:137] Memory required for data: 487108608
I0728 09:57:20.764919 20134 layer_factory.hpp:77] Creating layer score13_slicer_conv_12_split
I0728 09:57:20.764926 20134 net.cpp:84] Creating Layer score13_slicer_conv_12_split
I0728 09:57:20.764940 20134 net.cpp:406] score13_slicer_conv_12_split <- score13
I0728 09:57:20.764946 20134 net.cpp:380] score13_slicer_conv_12_split -> score13_slicer_conv_12_split_0
I0728 09:57:20.764953 20134 net.cpp:380] score13_slicer_conv_12_split -> score13_slicer_conv_12_split_1
I0728 09:57:20.764997 20134 net.cpp:122] Setting up score13_slicer_conv_12_split
I0728 09:57:20.765003 20134 net.cpp:129] Top shape: 1 1 48 64 (3072)
I0728 09:57:20.765008 20134 net.cpp:129] Top shape: 1 1 48 64 (3072)
I0728 09:57:20.765012 20134 net.cpp:137] Memory required for data: 487133184
I0728 09:57:20.765017 20134 layer_factory.hpp:77] Creating layer score14_slicer_conv_13_split
I0728 09:57:20.765022 20134 net.cpp:84] Creating Layer score14_slicer_conv_13_split
I0728 09:57:20.765027 20134 net.cpp:406] score14_slicer_conv_13_split <- score14
I0728 09:57:20.765033 20134 net.cpp:380] score14_slicer_conv_13_split -> score14_slicer_conv_13_split_0
I0728 09:57:20.765038 20134 net.cpp:380] score14_slicer_conv_13_split -> score14_slicer_conv_13_split_1
I0728 09:57:20.765079 20134 net.cpp:122] Setting up score14_slicer_conv_13_split
I0728 09:57:20.765085 20134 net.cpp:129] Top shape: 1 1 48 64 (3072)
I0728 09:57:20.765090 20134 net.cpp:129] Top shape: 1 1 48 64 (3072)
I0728 09:57:20.765094 20134 net.cpp:137] Memory required for data: 487157760
I0728 09:57:20.765099 20134 layer_factory.hpp:77] Creating layer score15_slicer_conv_14_split
I0728 09:57:20.765105 20134 net.cpp:84] Creating Layer score15_slicer_conv_14_split
I0728 09:57:20.765108 20134 net.cpp:406] score15_slicer_conv_14_split <- score15
I0728 09:57:20.765115 20134 net.cpp:380] score15_slicer_conv_14_split -> score15_slicer_conv_14_split_0
I0728 09:57:20.765122 20134 net.cpp:380] score15_slicer_conv_14_split -> score15_slicer_conv_14_split_1
I0728 09:57:20.765161 20134 net.cpp:122] Setting up score15_slicer_conv_14_split
I0728 09:57:20.765168 20134 net.cpp:129] Top shape: 1 1 48 64 (3072)
I0728 09:57:20.765173 20134 net.cpp:129] Top shape: 1 1 48 64 (3072)
I0728 09:57:20.765177 20134 net.cpp:137] Memory required for data: 487182336
I0728 09:57:20.765182 20134 layer_factory.hpp:77] Creating layer score16_slicer_conv_15_split
I0728 09:57:20.765187 20134 net.cpp:84] Creating Layer score16_slicer_conv_15_split
I0728 09:57:20.765192 20134 net.cpp:406] score16_slicer_conv_15_split <- score16
I0728 09:57:20.765197 20134 net.cpp:380] score16_slicer_conv_15_split -> score16_slicer_conv_15_split_0
I0728 09:57:20.765202 20134 net.cpp:380] score16_slicer_conv_15_split -> score16_slicer_conv_15_split_1
I0728 09:57:20.765240 20134 net.cpp:122] Setting up score16_slicer_conv_15_split
I0728 09:57:20.765247 20134 net.cpp:129] Top shape: 1 1 48 64 (3072)
I0728 09:57:20.765251 20134 net.cpp:129] Top shape: 1 1 48 64 (3072)
I0728 09:57:20.765255 20134 net.cpp:137] Memory required for data: 487206912
I0728 09:57:20.765259 20134 layer_factory.hpp:77] Creating layer score17_slicer_conv_16_split
I0728 09:57:20.765265 20134 net.cpp:84] Creating Layer score17_slicer_conv_16_split
I0728 09:57:20.765269 20134 net.cpp:406] score17_slicer_conv_16_split <- score17
I0728 09:57:20.765276 20134 net.cpp:380] score17_slicer_conv_16_split -> score17_slicer_conv_16_split_0
I0728 09:57:20.765283 20134 net.cpp:380] score17_slicer_conv_16_split -> score17_slicer_conv_16_split_1
I0728 09:57:20.765331 20134 net.cpp:122] Setting up score17_slicer_conv_16_split
I0728 09:57:20.765338 20134 net.cpp:129] Top shape: 1 1 48 64 (3072)
I0728 09:57:20.765342 20134 net.cpp:129] Top shape: 1 1 48 64 (3072)
I0728 09:57:20.765346 20134 net.cpp:137] Memory required for data: 487231488
I0728 09:57:20.765349 20134 layer_factory.hpp:77] Creating layer score18_slicer_conv_17_split
I0728 09:57:20.765355 20134 net.cpp:84] Creating Layer score18_slicer_conv_17_split
I0728 09:57:20.765359 20134 net.cpp:406] score18_slicer_conv_17_split <- score18
I0728 09:57:20.765365 20134 net.cpp:380] score18_slicer_conv_17_split -> score18_slicer_conv_17_split_0
I0728 09:57:20.765372 20134 net.cpp:380] score18_slicer_conv_17_split -> score18_slicer_conv_17_split_1
I0728 09:57:20.765424 20134 net.cpp:122] Setting up score18_slicer_conv_17_split
I0728 09:57:20.765432 20134 net.cpp:129] Top shape: 1 1 48 64 (3072)
I0728 09:57:20.765436 20134 net.cpp:129] Top shape: 1 1 48 64 (3072)
I0728 09:57:20.765441 20134 net.cpp:137] Memory required for data: 487256064
I0728 09:57:20.765446 20134 layer_factory.hpp:77] Creating layer score19_slicer_conv_18_split
I0728 09:57:20.765451 20134 net.cpp:84] Creating Layer score19_slicer_conv_18_split
I0728 09:57:20.765456 20134 net.cpp:406] score19_slicer_conv_18_split <- score19
I0728 09:57:20.765462 20134 net.cpp:380] score19_slicer_conv_18_split -> score19_slicer_conv_18_split_0
I0728 09:57:20.765470 20134 net.cpp:380] score19_slicer_conv_18_split -> score19_slicer_conv_18_split_1
I0728 09:57:20.765508 20134 net.cpp:122] Setting up score19_slicer_conv_18_split
I0728 09:57:20.765516 20134 net.cpp:129] Top shape: 1 1 48 64 (3072)
I0728 09:57:20.765519 20134 net.cpp:129] Top shape: 1 1 48 64 (3072)
I0728 09:57:20.765523 20134 net.cpp:137] Memory required for data: 487280640
I0728 09:57:20.765527 20134 layer_factory.hpp:77] Creating layer score20_slicer_conv_19_split
I0728 09:57:20.765534 20134 net.cpp:84] Creating Layer score20_slicer_conv_19_split
I0728 09:57:20.765539 20134 net.cpp:406] score20_slicer_conv_19_split <- score20
I0728 09:57:20.765545 20134 net.cpp:380] score20_slicer_conv_19_split -> score20_slicer_conv_19_split_0
I0728 09:57:20.765552 20134 net.cpp:380] score20_slicer_conv_19_split -> score20_slicer_conv_19_split_1
I0728 09:57:20.765591 20134 net.cpp:122] Setting up score20_slicer_conv_19_split
I0728 09:57:20.765599 20134 net.cpp:129] Top shape: 1 1 48 64 (3072)
I0728 09:57:20.765604 20134 net.cpp:129] Top shape: 1 1 48 64 (3072)
I0728 09:57:20.765607 20134 net.cpp:137] Memory required for data: 487305216
I0728 09:57:20.765611 20134 layer_factory.hpp:77] Creating layer score21_slicer_conv_20_split
I0728 09:57:20.765617 20134 net.cpp:84] Creating Layer score21_slicer_conv_20_split
I0728 09:57:20.765621 20134 net.cpp:406] score21_slicer_conv_20_split <- score21
I0728 09:57:20.765627 20134 net.cpp:380] score21_slicer_conv_20_split -> score21_slicer_conv_20_split_0
I0728 09:57:20.765633 20134 net.cpp:380] score21_slicer_conv_20_split -> score21_slicer_conv_20_split_1
I0728 09:57:20.765673 20134 net.cpp:122] Setting up score21_slicer_conv_20_split
I0728 09:57:20.765679 20134 net.cpp:129] Top shape: 1 1 48 64 (3072)
I0728 09:57:20.765684 20134 net.cpp:129] Top shape: 1 1 48 64 (3072)
I0728 09:57:20.765687 20134 net.cpp:137] Memory required for data: 487329792
I0728 09:57:20.765691 20134 layer_factory.hpp:77] Creating layer score22_slicer_conv_21_split
I0728 09:57:20.765698 20134 net.cpp:84] Creating Layer score22_slicer_conv_21_split
I0728 09:57:20.765702 20134 net.cpp:406] score22_slicer_conv_21_split <- score22
I0728 09:57:20.765708 20134 net.cpp:380] score22_slicer_conv_21_split -> score22_slicer_conv_21_split_0
I0728 09:57:20.765714 20134 net.cpp:380] score22_slicer_conv_21_split -> score22_slicer_conv_21_split_1
I0728 09:57:20.765754 20134 net.cpp:122] Setting up score22_slicer_conv_21_split
I0728 09:57:20.765761 20134 net.cpp:129] Top shape: 1 1 48 64 (3072)
I0728 09:57:20.765765 20134 net.cpp:129] Top shape: 1 1 48 64 (3072)
I0728 09:57:20.765770 20134 net.cpp:137] Memory required for data: 487354368
I0728 09:57:20.765774 20134 layer_factory.hpp:77] Creating layer score23_slicer_conv_22_split
I0728 09:57:20.765779 20134 net.cpp:84] Creating Layer score23_slicer_conv_22_split
I0728 09:57:20.765784 20134 net.cpp:406] score23_slicer_conv_22_split <- score23
I0728 09:57:20.765789 20134 net.cpp:380] score23_slicer_conv_22_split -> score23_slicer_conv_22_split_0
I0728 09:57:20.765796 20134 net.cpp:380] score23_slicer_conv_22_split -> score23_slicer_conv_22_split_1
I0728 09:57:20.765837 20134 net.cpp:122] Setting up score23_slicer_conv_22_split
I0728 09:57:20.765844 20134 net.cpp:129] Top shape: 1 1 48 64 (3072)
I0728 09:57:20.765848 20134 net.cpp:129] Top shape: 1 1 48 64 (3072)
I0728 09:57:20.765861 20134 net.cpp:137] Memory required for data: 487378944
I0728 09:57:20.765866 20134 layer_factory.hpp:77] Creating layer score24_slicer_conv_23_split
I0728 09:57:20.765872 20134 net.cpp:84] Creating Layer score24_slicer_conv_23_split
I0728 09:57:20.765875 20134 net.cpp:406] score24_slicer_conv_23_split <- score24
I0728 09:57:20.765882 20134 net.cpp:380] score24_slicer_conv_23_split -> score24_slicer_conv_23_split_0
I0728 09:57:20.765889 20134 net.cpp:380] score24_slicer_conv_23_split -> score24_slicer_conv_23_split_1
I0728 09:57:20.765933 20134 net.cpp:122] Setting up score24_slicer_conv_23_split
I0728 09:57:20.765939 20134 net.cpp:129] Top shape: 1 1 48 64 (3072)
I0728 09:57:20.765944 20134 net.cpp:129] Top shape: 1 1 48 64 (3072)
I0728 09:57:20.765949 20134 net.cpp:137] Memory required for data: 487403520
I0728 09:57:20.765952 20134 layer_factory.hpp:77] Creating layer score25_slicer_conv_24_split
I0728 09:57:20.765957 20134 net.cpp:84] Creating Layer score25_slicer_conv_24_split
I0728 09:57:20.765962 20134 net.cpp:406] score25_slicer_conv_24_split <- score25
I0728 09:57:20.765967 20134 net.cpp:380] score25_slicer_conv_24_split -> score25_slicer_conv_24_split_0
I0728 09:57:20.765974 20134 net.cpp:380] score25_slicer_conv_24_split -> score25_slicer_conv_24_split_1
I0728 09:57:20.766012 20134 net.cpp:122] Setting up score25_slicer_conv_24_split
I0728 09:57:20.766018 20134 net.cpp:129] Top shape: 1 1 48 64 (3072)
I0728 09:57:20.766023 20134 net.cpp:129] Top shape: 1 1 48 64 (3072)
I0728 09:57:20.766027 20134 net.cpp:137] Memory required for data: 487428096
I0728 09:57:20.766031 20134 layer_factory.hpp:77] Creating layer score26_slicer_conv_25_split
I0728 09:57:20.766037 20134 net.cpp:84] Creating Layer score26_slicer_conv_25_split
I0728 09:57:20.766041 20134 net.cpp:406] score26_slicer_conv_25_split <- score26
I0728 09:57:20.766049 20134 net.cpp:380] score26_slicer_conv_25_split -> score26_slicer_conv_25_split_0
I0728 09:57:20.766057 20134 net.cpp:380] score26_slicer_conv_25_split -> score26_slicer_conv_25_split_1
I0728 09:57:20.766095 20134 net.cpp:122] Setting up score26_slicer_conv_25_split
I0728 09:57:20.766101 20134 net.cpp:129] Top shape: 1 1 48 64 (3072)
I0728 09:57:20.766105 20134 net.cpp:129] Top shape: 1 1 48 64 (3072)
I0728 09:57:20.766109 20134 net.cpp:137] Memory required for data: 487452672
I0728 09:57:20.766113 20134 layer_factory.hpp:77] Creating layer score27_slicer_conv_26_split
I0728 09:57:20.766120 20134 net.cpp:84] Creating Layer score27_slicer_conv_26_split
I0728 09:57:20.766124 20134 net.cpp:406] score27_slicer_conv_26_split <- score27
I0728 09:57:20.766130 20134 net.cpp:380] score27_slicer_conv_26_split -> score27_slicer_conv_26_split_0
I0728 09:57:20.766136 20134 net.cpp:380] score27_slicer_conv_26_split -> score27_slicer_conv_26_split_1
I0728 09:57:20.766175 20134 net.cpp:122] Setting up score27_slicer_conv_26_split
I0728 09:57:20.766182 20134 net.cpp:129] Top shape: 1 1 48 64 (3072)
I0728 09:57:20.766186 20134 net.cpp:129] Top shape: 1 1 48 64 (3072)
I0728 09:57:20.766191 20134 net.cpp:137] Memory required for data: 487477248
I0728 09:57:20.766194 20134 layer_factory.hpp:77] Creating layer score28_slicer_conv_27_split
I0728 09:57:20.766201 20134 net.cpp:84] Creating Layer score28_slicer_conv_27_split
I0728 09:57:20.766204 20134 net.cpp:406] score28_slicer_conv_27_split <- score28
I0728 09:57:20.766211 20134 net.cpp:380] score28_slicer_conv_27_split -> score28_slicer_conv_27_split_0
I0728 09:57:20.766217 20134 net.cpp:380] score28_slicer_conv_27_split -> score28_slicer_conv_27_split_1
I0728 09:57:20.766255 20134 net.cpp:122] Setting up score28_slicer_conv_27_split
I0728 09:57:20.766263 20134 net.cpp:129] Top shape: 1 1 48 64 (3072)
I0728 09:57:20.766266 20134 net.cpp:129] Top shape: 1 1 48 64 (3072)
I0728 09:57:20.766270 20134 net.cpp:137] Memory required for data: 487501824
I0728 09:57:20.766274 20134 layer_factory.hpp:77] Creating layer score29_slicer_conv_28_split
I0728 09:57:20.766288 20134 net.cpp:84] Creating Layer score29_slicer_conv_28_split
I0728 09:57:20.766293 20134 net.cpp:406] score29_slicer_conv_28_split <- score29
I0728 09:57:20.766307 20134 net.cpp:380] score29_slicer_conv_28_split -> score29_slicer_conv_28_split_0
I0728 09:57:20.766314 20134 net.cpp:380] score29_slicer_conv_28_split -> score29_slicer_conv_28_split_1
I0728 09:57:20.766358 20134 net.cpp:122] Setting up score29_slicer_conv_28_split
I0728 09:57:20.766366 20134 net.cpp:129] Top shape: 1 1 48 64 (3072)
I0728 09:57:20.766369 20134 net.cpp:129] Top shape: 1 1 48 64 (3072)
I0728 09:57:20.766373 20134 net.cpp:137] Memory required for data: 487526400
I0728 09:57:20.766378 20134 layer_factory.hpp:77] Creating layer score30_slicer_conv_29_split
I0728 09:57:20.766384 20134 net.cpp:84] Creating Layer score30_slicer_conv_29_split
I0728 09:57:20.766389 20134 net.cpp:406] score30_slicer_conv_29_split <- score30
I0728 09:57:20.766396 20134 net.cpp:380] score30_slicer_conv_29_split -> score30_slicer_conv_29_split_0
I0728 09:57:20.766402 20134 net.cpp:380] score30_slicer_conv_29_split -> score30_slicer_conv_29_split_1
I0728 09:57:20.766440 20134 net.cpp:122] Setting up score30_slicer_conv_29_split
I0728 09:57:20.766448 20134 net.cpp:129] Top shape: 1 1 48 64 (3072)
I0728 09:57:20.766453 20134 net.cpp:129] Top shape: 1 1 48 64 (3072)
I0728 09:57:20.766456 20134 net.cpp:137] Memory required for data: 487550976
I0728 09:57:20.766460 20134 layer_factory.hpp:77] Creating layer score31_slicer_conv_30_split
I0728 09:57:20.766466 20134 net.cpp:84] Creating Layer score31_slicer_conv_30_split
I0728 09:57:20.766471 20134 net.cpp:406] score31_slicer_conv_30_split <- score31
I0728 09:57:20.766479 20134 net.cpp:380] score31_slicer_conv_30_split -> score31_slicer_conv_30_split_0
I0728 09:57:20.766485 20134 net.cpp:380] score31_slicer_conv_30_split -> score31_slicer_conv_30_split_1
I0728 09:57:20.766525 20134 net.cpp:122] Setting up score31_slicer_conv_30_split
I0728 09:57:20.766531 20134 net.cpp:129] Top shape: 1 1 48 64 (3072)
I0728 09:57:20.766536 20134 net.cpp:129] Top shape: 1 1 48 64 (3072)
I0728 09:57:20.766540 20134 net.cpp:137] Memory required for data: 487575552
I0728 09:57:20.766542 20134 layer_factory.hpp:77] Creating layer score32_slicer_conv_31_split
I0728 09:57:20.766548 20134 net.cpp:84] Creating Layer score32_slicer_conv_31_split
I0728 09:57:20.766553 20134 net.cpp:406] score32_slicer_conv_31_split <- score32
I0728 09:57:20.766559 20134 net.cpp:380] score32_slicer_conv_31_split -> score32_slicer_conv_31_split_0
I0728 09:57:20.766566 20134 net.cpp:380] score32_slicer_conv_31_split -> score32_slicer_conv_31_split_1
I0728 09:57:20.766604 20134 net.cpp:122] Setting up score32_slicer_conv_31_split
I0728 09:57:20.766610 20134 net.cpp:129] Top shape: 1 1 48 64 (3072)
I0728 09:57:20.766615 20134 net.cpp:129] Top shape: 1 1 48 64 (3072)
I0728 09:57:20.766619 20134 net.cpp:137] Memory required for data: 487600128
I0728 09:57:20.766623 20134 layer_factory.hpp:77] Creating layer score33_slicer_conv_32_split
I0728 09:57:20.766629 20134 net.cpp:84] Creating Layer score33_slicer_conv_32_split
I0728 09:57:20.766633 20134 net.cpp:406] score33_slicer_conv_32_split <- score33
I0728 09:57:20.766639 20134 net.cpp:380] score33_slicer_conv_32_split -> score33_slicer_conv_32_split_0
I0728 09:57:20.766646 20134 net.cpp:380] score33_slicer_conv_32_split -> score33_slicer_conv_32_split_1
I0728 09:57:20.766686 20134 net.cpp:122] Setting up score33_slicer_conv_32_split
I0728 09:57:20.766693 20134 net.cpp:129] Top shape: 1 1 48 64 (3072)
I0728 09:57:20.766697 20134 net.cpp:129] Top shape: 1 1 48 64 (3072)
I0728 09:57:20.766702 20134 net.cpp:137] Memory required for data: 487624704
I0728 09:57:20.766705 20134 layer_factory.hpp:77] Creating layer score34_slicer_conv_33_split
I0728 09:57:20.766712 20134 net.cpp:84] Creating Layer score34_slicer_conv_33_split
I0728 09:57:20.766716 20134 net.cpp:406] score34_slicer_conv_33_split <- score34
I0728 09:57:20.766722 20134 net.cpp:380] score34_slicer_conv_33_split -> score34_slicer_conv_33_split_0
I0728 09:57:20.766728 20134 net.cpp:380] score34_slicer_conv_33_split -> score34_slicer_conv_33_split_1
I0728 09:57:20.766767 20134 net.cpp:122] Setting up score34_slicer_conv_33_split
I0728 09:57:20.766782 20134 net.cpp:129] Top shape: 1 1 48 64 (3072)
I0728 09:57:20.766786 20134 net.cpp:129] Top shape: 1 1 48 64 (3072)
I0728 09:57:20.766790 20134 net.cpp:137] Memory required for data: 487649280
I0728 09:57:20.766794 20134 layer_factory.hpp:77] Creating layer score35_slicer_conv_34_split
I0728 09:57:20.766800 20134 net.cpp:84] Creating Layer score35_slicer_conv_34_split
I0728 09:57:20.766805 20134 net.cpp:406] score35_slicer_conv_34_split <- score35
I0728 09:57:20.766809 20134 net.cpp:380] score35_slicer_conv_34_split -> score35_slicer_conv_34_split_0
I0728 09:57:20.766815 20134 net.cpp:380] score35_slicer_conv_34_split -> score35_slicer_conv_34_split_1
I0728 09:57:20.766857 20134 net.cpp:122] Setting up score35_slicer_conv_34_split
I0728 09:57:20.766865 20134 net.cpp:129] Top shape: 1 1 48 64 (3072)
I0728 09:57:20.766868 20134 net.cpp:129] Top shape: 1 1 48 64 (3072)
I0728 09:57:20.766873 20134 net.cpp:137] Memory required for data: 487673856
I0728 09:57:20.766877 20134 layer_factory.hpp:77] Creating layer score36_slicer_conv_35_split
I0728 09:57:20.766882 20134 net.cpp:84] Creating Layer score36_slicer_conv_35_split
I0728 09:57:20.766887 20134 net.cpp:406] score36_slicer_conv_35_split <- score36
I0728 09:57:20.766893 20134 net.cpp:380] score36_slicer_conv_35_split -> score36_slicer_conv_35_split_0
I0728 09:57:20.766899 20134 net.cpp:380] score36_slicer_conv_35_split -> score36_slicer_conv_35_split_1
I0728 09:57:20.766937 20134 net.cpp:122] Setting up score36_slicer_conv_35_split
I0728 09:57:20.766944 20134 net.cpp:129] Top shape: 1 1 48 64 (3072)
I0728 09:57:20.766948 20134 net.cpp:129] Top shape: 1 1 48 64 (3072)
I0728 09:57:20.766952 20134 net.cpp:137] Memory required for data: 487698432
I0728 09:57:20.766957 20134 layer_factory.hpp:77] Creating layer score37_slicer_conv_36_split
I0728 09:57:20.766963 20134 net.cpp:84] Creating Layer score37_slicer_conv_36_split
I0728 09:57:20.766966 20134 net.cpp:406] score37_slicer_conv_36_split <- score37
I0728 09:57:20.766973 20134 net.cpp:380] score37_slicer_conv_36_split -> score37_slicer_conv_36_split_0
I0728 09:57:20.766978 20134 net.cpp:380] score37_slicer_conv_36_split -> score37_slicer_conv_36_split_1
I0728 09:57:20.767019 20134 net.cpp:122] Setting up score37_slicer_conv_36_split
I0728 09:57:20.767025 20134 net.cpp:129] Top shape: 1 1 48 64 (3072)
I0728 09:57:20.767030 20134 net.cpp:129] Top shape: 1 1 48 64 (3072)
I0728 09:57:20.767035 20134 net.cpp:137] Memory required for data: 487723008
I0728 09:57:20.767038 20134 layer_factory.hpp:77] Creating layer score38_slicer_conv_37_split
I0728 09:57:20.767043 20134 net.cpp:84] Creating Layer score38_slicer_conv_37_split
I0728 09:57:20.767047 20134 net.cpp:406] score38_slicer_conv_37_split <- score38
I0728 09:57:20.767055 20134 net.cpp:380] score38_slicer_conv_37_split -> score38_slicer_conv_37_split_0
I0728 09:57:20.767061 20134 net.cpp:380] score38_slicer_conv_37_split -> score38_slicer_conv_37_split_1
I0728 09:57:20.767099 20134 net.cpp:122] Setting up score38_slicer_conv_37_split
I0728 09:57:20.767107 20134 net.cpp:129] Top shape: 1 1 48 64 (3072)
I0728 09:57:20.767110 20134 net.cpp:129] Top shape: 1 1 48 64 (3072)
I0728 09:57:20.767114 20134 net.cpp:137] Memory required for data: 487747584
I0728 09:57:20.767118 20134 layer_factory.hpp:77] Creating layer score39_slicer_conv_38_split
I0728 09:57:20.767125 20134 net.cpp:84] Creating Layer score39_slicer_conv_38_split
I0728 09:57:20.767130 20134 net.cpp:406] score39_slicer_conv_38_split <- score39
I0728 09:57:20.767135 20134 net.cpp:380] score39_slicer_conv_38_split -> score39_slicer_conv_38_split_0
I0728 09:57:20.767143 20134 net.cpp:380] score39_slicer_conv_38_split -> score39_slicer_conv_38_split_1
I0728 09:57:20.767181 20134 net.cpp:122] Setting up score39_slicer_conv_38_split
I0728 09:57:20.767189 20134 net.cpp:129] Top shape: 1 1 48 64 (3072)
I0728 09:57:20.767192 20134 net.cpp:129] Top shape: 1 1 48 64 (3072)
I0728 09:57:20.767196 20134 net.cpp:137] Memory required for data: 487772160
I0728 09:57:20.767207 20134 layer_factory.hpp:77] Creating layer score40_slicer_conv_39_split
I0728 09:57:20.767215 20134 net.cpp:84] Creating Layer score40_slicer_conv_39_split
I0728 09:57:20.767218 20134 net.cpp:406] score40_slicer_conv_39_split <- score40
I0728 09:57:20.767225 20134 net.cpp:380] score40_slicer_conv_39_split -> score40_slicer_conv_39_split_0
I0728 09:57:20.767232 20134 net.cpp:380] score40_slicer_conv_39_split -> score40_slicer_conv_39_split_1
I0728 09:57:20.767276 20134 net.cpp:122] Setting up score40_slicer_conv_39_split
I0728 09:57:20.767282 20134 net.cpp:129] Top shape: 1 1 48 64 (3072)
I0728 09:57:20.767287 20134 net.cpp:129] Top shape: 1 1 48 64 (3072)
I0728 09:57:20.767290 20134 net.cpp:137] Memory required for data: 487796736
I0728 09:57:20.767294 20134 layer_factory.hpp:77] Creating layer score41_slicer_conv_40_split
I0728 09:57:20.767302 20134 net.cpp:84] Creating Layer score41_slicer_conv_40_split
I0728 09:57:20.767307 20134 net.cpp:406] score41_slicer_conv_40_split <- score41
I0728 09:57:20.767312 20134 net.cpp:380] score41_slicer_conv_40_split -> score41_slicer_conv_40_split_0
I0728 09:57:20.767318 20134 net.cpp:380] score41_slicer_conv_40_split -> score41_slicer_conv_40_split_1
I0728 09:57:20.767359 20134 net.cpp:122] Setting up score41_slicer_conv_40_split
I0728 09:57:20.767365 20134 net.cpp:129] Top shape: 1 1 48 64 (3072)
I0728 09:57:20.767369 20134 net.cpp:129] Top shape: 1 1 48 64 (3072)
I0728 09:57:20.767374 20134 net.cpp:137] Memory required for data: 487821312
I0728 09:57:20.767377 20134 layer_factory.hpp:77] Creating layer score42_slicer_conv_41_split
I0728 09:57:20.767383 20134 net.cpp:84] Creating Layer score42_slicer_conv_41_split
I0728 09:57:20.767387 20134 net.cpp:406] score42_slicer_conv_41_split <- score42
I0728 09:57:20.767392 20134 net.cpp:380] score42_slicer_conv_41_split -> score42_slicer_conv_41_split_0
I0728 09:57:20.767400 20134 net.cpp:380] score42_slicer_conv_41_split -> score42_slicer_conv_41_split_1
I0728 09:57:20.767438 20134 net.cpp:122] Setting up score42_slicer_conv_41_split
I0728 09:57:20.767444 20134 net.cpp:129] Top shape: 1 1 48 64 (3072)
I0728 09:57:20.767449 20134 net.cpp:129] Top shape: 1 1 48 64 (3072)
I0728 09:57:20.767453 20134 net.cpp:137] Memory required for data: 487845888
I0728 09:57:20.767457 20134 layer_factory.hpp:77] Creating layer score43_slicer_conv_42_split
I0728 09:57:20.767462 20134 net.cpp:84] Creating Layer score43_slicer_conv_42_split
I0728 09:57:20.767467 20134 net.cpp:406] score43_slicer_conv_42_split <- score43
I0728 09:57:20.767474 20134 net.cpp:380] score43_slicer_conv_42_split -> score43_slicer_conv_42_split_0
I0728 09:57:20.767480 20134 net.cpp:380] score43_slicer_conv_42_split -> score43_slicer_conv_42_split_1
I0728 09:57:20.767519 20134 net.cpp:122] Setting up score43_slicer_conv_42_split
I0728 09:57:20.767526 20134 net.cpp:129] Top shape: 1 1 48 64 (3072)
I0728 09:57:20.767530 20134 net.cpp:129] Top shape: 1 1 48 64 (3072)
I0728 09:57:20.767535 20134 net.cpp:137] Memory required for data: 487870464
I0728 09:57:20.767539 20134 layer_factory.hpp:77] Creating layer score44_slicer_conv_43_split
I0728 09:57:20.767544 20134 net.cpp:84] Creating Layer score44_slicer_conv_43_split
I0728 09:57:20.767549 20134 net.cpp:406] score44_slicer_conv_43_split <- score44
I0728 09:57:20.767554 20134 net.cpp:380] score44_slicer_conv_43_split -> score44_slicer_conv_43_split_0
I0728 09:57:20.767560 20134 net.cpp:380] score44_slicer_conv_43_split -> score44_slicer_conv_43_split_1
I0728 09:57:20.767601 20134 net.cpp:122] Setting up score44_slicer_conv_43_split
I0728 09:57:20.767607 20134 net.cpp:129] Top shape: 1 1 48 64 (3072)
I0728 09:57:20.767611 20134 net.cpp:129] Top shape: 1 1 48 64 (3072)
I0728 09:57:20.767616 20134 net.cpp:137] Memory required for data: 487895040
I0728 09:57:20.767619 20134 layer_factory.hpp:77] Creating layer score45_slicer_conv_44_split
I0728 09:57:20.767626 20134 net.cpp:84] Creating Layer score45_slicer_conv_44_split
I0728 09:57:20.767629 20134 net.cpp:406] score45_slicer_conv_44_split <- score45
I0728 09:57:20.767639 20134 net.cpp:380] score45_slicer_conv_44_split -> score45_slicer_conv_44_split_0
I0728 09:57:20.767654 20134 net.cpp:380] score45_slicer_conv_44_split -> score45_slicer_conv_44_split_1
I0728 09:57:20.767701 20134 net.cpp:122] Setting up score45_slicer_conv_44_split
I0728 09:57:20.767709 20134 net.cpp:129] Top shape: 1 1 48 64 (3072)
I0728 09:57:20.767714 20134 net.cpp:129] Top shape: 1 1 48 64 (3072)
I0728 09:57:20.767717 20134 net.cpp:137] Memory required for data: 487919616
I0728 09:57:20.767721 20134 layer_factory.hpp:77] Creating layer score46_slicer_conv_45_split
I0728 09:57:20.767727 20134 net.cpp:84] Creating Layer score46_slicer_conv_45_split
I0728 09:57:20.767731 20134 net.cpp:406] score46_slicer_conv_45_split <- score46
I0728 09:57:20.767737 20134 net.cpp:380] score46_slicer_conv_45_split -> score46_slicer_conv_45_split_0
I0728 09:57:20.767743 20134 net.cpp:380] score46_slicer_conv_45_split -> score46_slicer_conv_45_split_1
I0728 09:57:20.767786 20134 net.cpp:122] Setting up score46_slicer_conv_45_split
I0728 09:57:20.767792 20134 net.cpp:129] Top shape: 1 1 48 64 (3072)
I0728 09:57:20.767796 20134 net.cpp:129] Top shape: 1 1 48 64 (3072)
I0728 09:57:20.767802 20134 net.cpp:137] Memory required for data: 487944192
I0728 09:57:20.767805 20134 layer_factory.hpp:77] Creating layer score47_slicer_conv_46_split
I0728 09:57:20.767810 20134 net.cpp:84] Creating Layer score47_slicer_conv_46_split
I0728 09:57:20.767815 20134 net.cpp:406] score47_slicer_conv_46_split <- score47
I0728 09:57:20.767822 20134 net.cpp:380] score47_slicer_conv_46_split -> score47_slicer_conv_46_split_0
I0728 09:57:20.767828 20134 net.cpp:380] score47_slicer_conv_46_split -> score47_slicer_conv_46_split_1
I0728 09:57:20.767868 20134 net.cpp:122] Setting up score47_slicer_conv_46_split
I0728 09:57:20.767874 20134 net.cpp:129] Top shape: 1 1 48 64 (3072)
I0728 09:57:20.767879 20134 net.cpp:129] Top shape: 1 1 48 64 (3072)
I0728 09:57:20.767884 20134 net.cpp:137] Memory required for data: 487968768
I0728 09:57:20.767887 20134 layer_factory.hpp:77] Creating layer score48_slicer_conv_47_split
I0728 09:57:20.767894 20134 net.cpp:84] Creating Layer score48_slicer_conv_47_split
I0728 09:57:20.767899 20134 net.cpp:406] score48_slicer_conv_47_split <- score48
I0728 09:57:20.767904 20134 net.cpp:380] score48_slicer_conv_47_split -> score48_slicer_conv_47_split_0
I0728 09:57:20.767910 20134 net.cpp:380] score48_slicer_conv_47_split -> score48_slicer_conv_47_split_1
I0728 09:57:20.767949 20134 net.cpp:122] Setting up score48_slicer_conv_47_split
I0728 09:57:20.767956 20134 net.cpp:129] Top shape: 1 1 48 64 (3072)
I0728 09:57:20.767961 20134 net.cpp:129] Top shape: 1 1 48 64 (3072)
I0728 09:57:20.767966 20134 net.cpp:137] Memory required for data: 487993344
I0728 09:57:20.767969 20134 layer_factory.hpp:77] Creating layer score49_slicer_conv_48_split
I0728 09:57:20.767976 20134 net.cpp:84] Creating Layer score49_slicer_conv_48_split
I0728 09:57:20.767979 20134 net.cpp:406] score49_slicer_conv_48_split <- score49
I0728 09:57:20.767984 20134 net.cpp:380] score49_slicer_conv_48_split -> score49_slicer_conv_48_split_0
I0728 09:57:20.767992 20134 net.cpp:380] score49_slicer_conv_48_split -> score49_slicer_conv_48_split_1
I0728 09:57:20.768031 20134 net.cpp:122] Setting up score49_slicer_conv_48_split
I0728 09:57:20.768038 20134 net.cpp:129] Top shape: 1 1 48 64 (3072)
I0728 09:57:20.768043 20134 net.cpp:129] Top shape: 1 1 48 64 (3072)
I0728 09:57:20.768048 20134 net.cpp:137] Memory required for data: 488017920
I0728 09:57:20.768051 20134 layer_factory.hpp:77] Creating layer score50_slicer_conv_49_split
I0728 09:57:20.768059 20134 net.cpp:84] Creating Layer score50_slicer_conv_49_split
I0728 09:57:20.768062 20134 net.cpp:406] score50_slicer_conv_49_split <- score50
I0728 09:57:20.768069 20134 net.cpp:380] score50_slicer_conv_49_split -> score50_slicer_conv_49_split_0
I0728 09:57:20.768074 20134 net.cpp:380] score50_slicer_conv_49_split -> score50_slicer_conv_49_split_1
I0728 09:57:20.768115 20134 net.cpp:122] Setting up score50_slicer_conv_49_split
I0728 09:57:20.768121 20134 net.cpp:129] Top shape: 1 1 48 64 (3072)
I0728 09:57:20.768133 20134 net.cpp:129] Top shape: 1 1 48 64 (3072)
I0728 09:57:20.768138 20134 net.cpp:137] Memory required for data: 488042496
I0728 09:57:20.768142 20134 layer_factory.hpp:77] Creating layer score51_slicer_conv_50_split
I0728 09:57:20.768148 20134 net.cpp:84] Creating Layer score51_slicer_conv_50_split
I0728 09:57:20.768152 20134 net.cpp:406] score51_slicer_conv_50_split <- score51
I0728 09:57:20.768159 20134 net.cpp:380] score51_slicer_conv_50_split -> score51_slicer_conv_50_split_0
I0728 09:57:20.768165 20134 net.cpp:380] score51_slicer_conv_50_split -> score51_slicer_conv_50_split_1
I0728 09:57:20.768208 20134 net.cpp:122] Setting up score51_slicer_conv_50_split
I0728 09:57:20.768214 20134 net.cpp:129] Top shape: 1 1 48 64 (3072)
I0728 09:57:20.768218 20134 net.cpp:129] Top shape: 1 1 48 64 (3072)
I0728 09:57:20.768224 20134 net.cpp:137] Memory required for data: 488067072
I0728 09:57:20.768227 20134 layer_factory.hpp:77] Creating layer score52_slicer_conv_51_split
I0728 09:57:20.768232 20134 net.cpp:84] Creating Layer score52_slicer_conv_51_split
I0728 09:57:20.768237 20134 net.cpp:406] score52_slicer_conv_51_split <- score52
I0728 09:57:20.768244 20134 net.cpp:380] score52_slicer_conv_51_split -> score52_slicer_conv_51_split_0
I0728 09:57:20.768250 20134 net.cpp:380] score52_slicer_conv_51_split -> score52_slicer_conv_51_split_1
I0728 09:57:20.768290 20134 net.cpp:122] Setting up score52_slicer_conv_51_split
I0728 09:57:20.768296 20134 net.cpp:129] Top shape: 1 1 48 64 (3072)
I0728 09:57:20.768301 20134 net.cpp:129] Top shape: 1 1 48 64 (3072)
I0728 09:57:20.768304 20134 net.cpp:137] Memory required for data: 488091648
I0728 09:57:20.768308 20134 layer_factory.hpp:77] Creating layer score53_slicer_conv_52_split
I0728 09:57:20.768314 20134 net.cpp:84] Creating Layer score53_slicer_conv_52_split
I0728 09:57:20.768319 20134 net.cpp:406] score53_slicer_conv_52_split <- score53
I0728 09:57:20.768324 20134 net.cpp:380] score53_slicer_conv_52_split -> score53_slicer_conv_52_split_0
I0728 09:57:20.768332 20134 net.cpp:380] score53_slicer_conv_52_split -> score53_slicer_conv_52_split_1
I0728 09:57:20.768369 20134 net.cpp:122] Setting up score53_slicer_conv_52_split
I0728 09:57:20.768376 20134 net.cpp:129] Top shape: 1 1 48 64 (3072)
I0728 09:57:20.768381 20134 net.cpp:129] Top shape: 1 1 48 64 (3072)
I0728 09:57:20.768385 20134 net.cpp:137] Memory required for data: 488116224
I0728 09:57:20.768389 20134 layer_factory.hpp:77] Creating layer score54_slicer_conv_53_split
I0728 09:57:20.768395 20134 net.cpp:84] Creating Layer score54_slicer_conv_53_split
I0728 09:57:20.768399 20134 net.cpp:406] score54_slicer_conv_53_split <- score54
I0728 09:57:20.768406 20134 net.cpp:380] score54_slicer_conv_53_split -> score54_slicer_conv_53_split_0
I0728 09:57:20.768412 20134 net.cpp:380] score54_slicer_conv_53_split -> score54_slicer_conv_53_split_1
I0728 09:57:20.768450 20134 net.cpp:122] Setting up score54_slicer_conv_53_split
I0728 09:57:20.768457 20134 net.cpp:129] Top shape: 1 1 48 64 (3072)
I0728 09:57:20.768461 20134 net.cpp:129] Top shape: 1 1 48 64 (3072)
I0728 09:57:20.768466 20134 net.cpp:137] Memory required for data: 488140800
I0728 09:57:20.768470 20134 layer_factory.hpp:77] Creating layer score55_slicer_conv_54_split
I0728 09:57:20.768477 20134 net.cpp:84] Creating Layer score55_slicer_conv_54_split
I0728 09:57:20.768482 20134 net.cpp:406] score55_slicer_conv_54_split <- score55
I0728 09:57:20.768487 20134 net.cpp:380] score55_slicer_conv_54_split -> score55_slicer_conv_54_split_0
I0728 09:57:20.768514 20134 net.cpp:380] score55_slicer_conv_54_split -> score55_slicer_conv_54_split_1
I0728 09:57:20.768556 20134 net.cpp:122] Setting up score55_slicer_conv_54_split
I0728 09:57:20.768564 20134 net.cpp:129] Top shape: 1 1 48 64 (3072)
I0728 09:57:20.768569 20134 net.cpp:129] Top shape: 1 1 48 64 (3072)
I0728 09:57:20.768573 20134 net.cpp:137] Memory required for data: 488165376
I0728 09:57:20.768577 20134 layer_factory.hpp:77] Creating layer score56_slicer_conv_55_split
I0728 09:57:20.768590 20134 net.cpp:84] Creating Layer score56_slicer_conv_55_split
I0728 09:57:20.768595 20134 net.cpp:406] score56_slicer_conv_55_split <- score56
I0728 09:57:20.768601 20134 net.cpp:380] score56_slicer_conv_55_split -> score56_slicer_conv_55_split_0
I0728 09:57:20.768609 20134 net.cpp:380] score56_slicer_conv_55_split -> score56_slicer_conv_55_split_1
I0728 09:57:20.768649 20134 net.cpp:122] Setting up score56_slicer_conv_55_split
I0728 09:57:20.768657 20134 net.cpp:129] Top shape: 1 1 48 64 (3072)
I0728 09:57:20.768661 20134 net.cpp:129] Top shape: 1 1 48 64 (3072)
I0728 09:57:20.768666 20134 net.cpp:137] Memory required for data: 488189952
I0728 09:57:20.768671 20134 layer_factory.hpp:77] Creating layer score57_slicer_conv_56_split
I0728 09:57:20.768676 20134 net.cpp:84] Creating Layer score57_slicer_conv_56_split
I0728 09:57:20.768679 20134 net.cpp:406] score57_slicer_conv_56_split <- score57
I0728 09:57:20.768685 20134 net.cpp:380] score57_slicer_conv_56_split -> score57_slicer_conv_56_split_0
I0728 09:57:20.768692 20134 net.cpp:380] score57_slicer_conv_56_split -> score57_slicer_conv_56_split_1
I0728 09:57:20.768731 20134 net.cpp:122] Setting up score57_slicer_conv_56_split
I0728 09:57:20.768739 20134 net.cpp:129] Top shape: 1 1 48 64 (3072)
I0728 09:57:20.768743 20134 net.cpp:129] Top shape: 1 1 48 64 (3072)
I0728 09:57:20.768748 20134 net.cpp:137] Memory required for data: 488214528
I0728 09:57:20.768751 20134 layer_factory.hpp:77] Creating layer score58_slicer_conv_57_split
I0728 09:57:20.768757 20134 net.cpp:84] Creating Layer score58_slicer_conv_57_split
I0728 09:57:20.768761 20134 net.cpp:406] score58_slicer_conv_57_split <- score58
I0728 09:57:20.768769 20134 net.cpp:380] score58_slicer_conv_57_split -> score58_slicer_conv_57_split_0
I0728 09:57:20.768775 20134 net.cpp:380] score58_slicer_conv_57_split -> score58_slicer_conv_57_split_1
I0728 09:57:20.768815 20134 net.cpp:122] Setting up score58_slicer_conv_57_split
I0728 09:57:20.768821 20134 net.cpp:129] Top shape: 1 1 48 64 (3072)
I0728 09:57:20.768826 20134 net.cpp:129] Top shape: 1 1 48 64 (3072)
I0728 09:57:20.768831 20134 net.cpp:137] Memory required for data: 488239104
I0728 09:57:20.768834 20134 layer_factory.hpp:77] Creating layer score59_slicer_conv_58_split
I0728 09:57:20.768839 20134 net.cpp:84] Creating Layer score59_slicer_conv_58_split
I0728 09:57:20.768844 20134 net.cpp:406] score59_slicer_conv_58_split <- score59
I0728 09:57:20.768851 20134 net.cpp:380] score59_slicer_conv_58_split -> score59_slicer_conv_58_split_0
I0728 09:57:20.768857 20134 net.cpp:380] score59_slicer_conv_58_split -> score59_slicer_conv_58_split_1
I0728 09:57:20.768900 20134 net.cpp:122] Setting up score59_slicer_conv_58_split
I0728 09:57:20.768906 20134 net.cpp:129] Top shape: 1 1 48 64 (3072)
I0728 09:57:20.768911 20134 net.cpp:129] Top shape: 1 1 48 64 (3072)
I0728 09:57:20.768914 20134 net.cpp:137] Memory required for data: 488263680
I0728 09:57:20.768918 20134 layer_factory.hpp:77] Creating layer score60_slicer_conv_59_split
I0728 09:57:20.768924 20134 net.cpp:84] Creating Layer score60_slicer_conv_59_split
I0728 09:57:20.768929 20134 net.cpp:406] score60_slicer_conv_59_split <- score60
I0728 09:57:20.768935 20134 net.cpp:380] score60_slicer_conv_59_split -> score60_slicer_conv_59_split_0
I0728 09:57:20.768942 20134 net.cpp:380] score60_slicer_conv_59_split -> score60_slicer_conv_59_split_1
I0728 09:57:20.768982 20134 net.cpp:122] Setting up score60_slicer_conv_59_split
I0728 09:57:20.768990 20134 net.cpp:129] Top shape: 1 1 48 64 (3072)
I0728 09:57:20.768995 20134 net.cpp:129] Top shape: 1 1 48 64 (3072)
I0728 09:57:20.768998 20134 net.cpp:137] Memory required for data: 488288256
I0728 09:57:20.769002 20134 layer_factory.hpp:77] Creating layer score61_slicer_conv_60_split
I0728 09:57:20.769009 20134 net.cpp:84] Creating Layer score61_slicer_conv_60_split
I0728 09:57:20.769013 20134 net.cpp:406] score61_slicer_conv_60_split <- score61
I0728 09:57:20.769021 20134 net.cpp:380] score61_slicer_conv_60_split -> score61_slicer_conv_60_split_0
I0728 09:57:20.769035 20134 net.cpp:380] score61_slicer_conv_60_split -> score61_slicer_conv_60_split_1
I0728 09:57:20.769079 20134 net.cpp:122] Setting up score61_slicer_conv_60_split
I0728 09:57:20.769090 20134 net.cpp:129] Top shape: 1 1 48 64 (3072)
I0728 09:57:20.769095 20134 net.cpp:129] Top shape: 1 1 48 64 (3072)
I0728 09:57:20.769099 20134 net.cpp:137] Memory required for data: 488312832
I0728 09:57:20.769104 20134 layer_factory.hpp:77] Creating layer score62_slicer_conv_61_split
I0728 09:57:20.769110 20134 net.cpp:84] Creating Layer score62_slicer_conv_61_split
I0728 09:57:20.769114 20134 net.cpp:406] score62_slicer_conv_61_split <- score62
I0728 09:57:20.769120 20134 net.cpp:380] score62_slicer_conv_61_split -> score62_slicer_conv_61_split_0
I0728 09:57:20.769127 20134 net.cpp:380] score62_slicer_conv_61_split -> score62_slicer_conv_61_split_1
I0728 09:57:20.769167 20134 net.cpp:122] Setting up score62_slicer_conv_61_split
I0728 09:57:20.769174 20134 net.cpp:129] Top shape: 1 1 48 64 (3072)
I0728 09:57:20.769178 20134 net.cpp:129] Top shape: 1 1 48 64 (3072)
I0728 09:57:20.769183 20134 net.cpp:137] Memory required for data: 488337408
I0728 09:57:20.769187 20134 layer_factory.hpp:77] Creating layer score63_slicer_conv_62_split
I0728 09:57:20.769194 20134 net.cpp:84] Creating Layer score63_slicer_conv_62_split
I0728 09:57:20.769198 20134 net.cpp:406] score63_slicer_conv_62_split <- score63
I0728 09:57:20.769204 20134 net.cpp:380] score63_slicer_conv_62_split -> score63_slicer_conv_62_split_0
I0728 09:57:20.769210 20134 net.cpp:380] score63_slicer_conv_62_split -> score63_slicer_conv_62_split_1
I0728 09:57:20.769250 20134 net.cpp:122] Setting up score63_slicer_conv_62_split
I0728 09:57:20.769258 20134 net.cpp:129] Top shape: 1 1 48 64 (3072)
I0728 09:57:20.769261 20134 net.cpp:129] Top shape: 1 1 48 64 (3072)
I0728 09:57:20.769266 20134 net.cpp:137] Memory required for data: 488361984
I0728 09:57:20.769270 20134 layer_factory.hpp:77] Creating layer score64_slicer_conv_63_split
I0728 09:57:20.769275 20134 net.cpp:84] Creating Layer score64_slicer_conv_63_split
I0728 09:57:20.769279 20134 net.cpp:406] score64_slicer_conv_63_split <- score64
I0728 09:57:20.769285 20134 net.cpp:380] score64_slicer_conv_63_split -> score64_slicer_conv_63_split_0
I0728 09:57:20.769291 20134 net.cpp:380] score64_slicer_conv_63_split -> score64_slicer_conv_63_split_1
I0728 09:57:20.769340 20134 net.cpp:122] Setting up score64_slicer_conv_63_split
I0728 09:57:20.769347 20134 net.cpp:129] Top shape: 1 1 48 64 (3072)
I0728 09:57:20.769351 20134 net.cpp:129] Top shape: 1 1 48 64 (3072)
I0728 09:57:20.769356 20134 net.cpp:137] Memory required for data: 488386560
I0728 09:57:20.769359 20134 layer_factory.hpp:77] Creating layer sumscore
I0728 09:57:20.769374 20134 net.cpp:84] Creating Layer sumscore
I0728 09:57:20.769379 20134 net.cpp:406] sumscore <- score1_slicer_conv_0_split_0
I0728 09:57:20.769385 20134 net.cpp:406] sumscore <- score2_slicer_conv_1_split_0
I0728 09:57:20.769390 20134 net.cpp:406] sumscore <- score3_slicer_conv_2_split_0
…
I0728 09:57:20.770529 20134 net.cpp:380] sumscore_sumscore_0_split -> sumscore_sumscore_0_split_59
I0728 09:57:20.770540 20134 net.cpp:380] sumscore_sumscore_0_split -> sumscore_sumscore_0_split_60
I0728 09:57:20.770552 20134 net.cpp:380] sumscore_sumscore_0_split -> sumscore_sumscore_0_split_61
I0728 09:57:20.770565 20134 net.cpp:380] sumscore_sumscore_0_split -> sumscore_sumscore_0_split_62
I0728 09:57:20.770576 20134 net.cpp:380] sumscore_sumscore_0_split -> sumscore_sumscore_0_split_63
I0728 09:57:20.771376 20134 net.cpp:122] Setting up sumscore_sumscore_0_split
I0728 09:57:20.771386 20134 net.cpp:129] Top shape: 1 1 48 64 (3072)
I0728 09:57:20.771391 20134 net.cpp:129] Top shape: 1 1 48 64 (3072)
I0728 09:57:20.771396 20134 net.cpp:129] Top shape: 1 1 48 64 (3072)
I0728 09:57:20.771400 20134 net.cpp:129] Top shape: 1 1 48 64 (3072)
I0728 09:57:20.771406 20134 net.cpp:129] Top shape: 1 1 48 64 (3072)
I0728 09:57:20.771410 20134 net.cpp:129] Top shape: 1 1 48 64 (3072)
I0728 09:57:20.771415 20134 net.cpp:129] Top shape: 1 1 48 64 (3072)
I0728 09:57:20.771420 20134 net.cpp:129] Top shape: 1 1 48 64 (3072)
I0728 09:57:20.771425 20134 net.cpp:129] Top shape: 1 1 48 64 (3072)
I0728 09:57:20.771430 20134 net.cpp:129] Top shape: 1 1 48 64 (3072)
I0728 09:57:20.771435 20134 net.cpp:129] Top shape: 1 1 48 64 (3072)
I0728 09:57:20.771438 20134 net.cpp:129] Top shape: 1 1 48 64 (3072)
I0728 09:57:20.771443 20134 net.cpp:129] Top shape: 1 1 48 64 (3072)
I0728 09:57:20.771448 20134 net.cpp:129] Top shape: 1 1 48 64 (3072)
I0728 09:57:20.771452 20134 net.cpp:129] Top shape: 1 1 48 64 (3072)
I0728 09:57:20.771457 20134 net.cpp:129] Top shape: 1 1 48 64 (3072)
I0728 09:57:20.771462 20134 net.cpp:129] Top shape: 1 1 48 64 (3072)
I0728 09:57:20.771467 20134 net.cpp:129] Top shape: 1 1 48 64 (3072)
I0728 09:57:20.771471 20134 net.cpp:129] Top shape: 1 1 48 64 (3072)
I0728 09:57:20.771486 20134 net.cpp:129] Top shape: 1 1 48 64 (3072)
I0728 09:57:20.771491 20134 net.cpp:129] Top shape: 1 1 48 64 (3072)
I0728 09:57:20.771494 20134 net.cpp:129] Top shape: 1 1 48 64 (3072)
I0728 09:57:20.771499 20134 net.cpp:129] Top shape: 1 1 48 64 (3072)
I0728 09:57:20.771503 20134 net.cpp:129] Top shape: 1 1 48 64 (3072)
I0728 09:57:20.771508 20134 net.cpp:129] Top shape: 1 1 48 64 (3072)
I0728 09:57:20.771512 20134 net.cpp:129] Top shape: 1 1 48 64 (3072)
I0728 09:57:20.771517 20134 net.cpp:129] Top shape: 1 1 48 64 (3072)
I0728 09:57:20.771522 20134 net.cpp:129] Top shape: 1 1 48 64 (3072)
I0728 09:57:20.771525 20134 net.cpp:129] Top shape: 1 1 48 64 (3072)
I0728 09:57:20.771531 20134 net.cpp:129] Top shape: 1 1 48 64 (3072)
I0728 09:57:20.771535 20134 net.cpp:129] Top shape: 1 1 48 64 (3072)
I0728 09:57:20.771539 20134 net.cpp:129] Top shape: 1 1 48 64 (3072)
I0728 09:57:20.771544 20134 net.cpp:129] Top shape: 1 1 48 64 (3072)
I0728 09:57:20.771549 20134 net.cpp:129] Top shape: 1 1 48 64 (3072)
I0728 09:57:20.771553 20134 net.cpp:129] Top shape: 1 1 48 64 (3072)
I0728 09:57:20.771558 20134 net.cpp:129] Top shape: 1 1 48 64 (3072)
I0728 09:57:20.771562 20134 net.cpp:129] Top shape: 1 1 48 64 (3072)
I0728 09:57:20.771567 20134 net.cpp:129] Top shape: 1 1 48 64 (3072)
I0728 09:57:20.771571 20134 net.cpp:129] Top shape: 1 1 48 64 (3072)
I0728 09:57:20.771576 20134 net.cpp:129] Top shape: 1 1 48 64 (3072)
I0728 09:57:20.771580 20134 net.cpp:129] Top shape: 1 1 48 64 (3072)
I0728 09:57:20.771585 20134 net.cpp:129] Top shape: 1 1 48 64 (3072)
I0728 09:57:20.771590 20134 net.cpp:129] Top shape: 1 1 48 64 (3072)
I0728 09:57:20.771595 20134 net.cpp:129] Top shape: 1 1 48 64 (3072)
I0728 09:57:20.771600 20134 net.cpp:129] Top shape: 1 1 48 64 (3072)
I0728 09:57:20.771603 20134 net.cpp:129] Top shape: 1 1 48 64 (3072)
I0728 09:57:20.771610 20134 net.cpp:129] Top shape: 1 1 48 64 (3072)
I0728 09:57:20.771613 20134 net.cpp:129] Top shape: 1 1 48 64 (3072)
I0728 09:57:20.771617 20134 net.cpp:129] Top shape: 1 1 48 64 (3072)
I0728 09:57:20.771622 20134 net.cpp:129] Top shape: 1 1 48 64 (3072)
I0728 09:57:20.771626 20134 net.cpp:129] Top shape: 1 1 48 64 (3072)
I0728 09:57:20.771632 20134 net.cpp:129] Top shape: 1 1 48 64 (3072)
I0728 09:57:20.771636 20134 net.cpp:129] Top shape: 1 1 48 64 (3072)
I0728 09:57:20.771641 20134 net.cpp:129] Top shape: 1 1 48 64 (3072)
I0728 09:57:20.771646 20134 net.cpp:129] Top shape: 1 1 48 64 (3072)
I0728 09:57:20.771651 20134 net.cpp:129] Top shape: 1 1 48 64 (3072)
I0728 09:57:20.771654 20134 net.cpp:129] Top shape: 1 1 48 64 (3072)
I0728 09:57:20.771659 20134 net.cpp:129] Top shape: 1 1 48 64 (3072)
I0728 09:57:20.771663 20134 net.cpp:129] Top shape: 1 1 48 64 (3072)
I0728 09:57:20.771668 20134 net.cpp:129] Top shape: 1 1 48 64 (3072)
I0728 09:57:20.771672 20134 net.cpp:129] Top shape: 1 1 48 64 (3072)
I0728 09:57:20.771677 20134 net.cpp:129] Top shape: 1 1 48 64 (3072)
I0728 09:57:20.771682 20134 net.cpp:129] Top shape: 1 1 48 64 (3072)
I0728 09:57:20.771687 20134 net.cpp:129] Top shape: 1 1 48 64 (3072)
I0728 09:57:20.771690 20134 net.cpp:137] Memory required for data: 489185280
I0728 09:57:20.771694 20134 layer_factory.hpp:77] Creating layer loss1
I0728 09:57:20.771703 20134 net.cpp:84] Creating Layer loss1
I0728 09:57:20.771708 20134 net.cpp:406] loss1 <- score1_slicer_conv_0_split_1
I0728 09:57:20.771714 20134 net.cpp:406] loss1 <- label_label_0_split_0
I0728 09:57:20.771719 20134 net.cpp:406] loss1 <- sumscore_sumscore_0_split_0
…
I0728 09:57:20.818011 20134 net.cpp:51] Initializing net from parameters: 
name: "crowd_counting"
state {
  phase: TEST
}
layer {
  name: "data"
  type: "Data"
  top: "data"
  include {
    phase: TEST
  }
  data_param {
    source: "/home/peiyong/Work/Zenglin/szl/ShanghaiTech/partA/test_8/image_lmdb"
    batch_size: 1
    backend: LMDB
  }
}
layer {
  name: "label"
  type: "Data"
  top: "label"
  include {
    phase: TEST
  }
  data_param {
    source: "/home/peiyong/Work/Zenglin/szl/ShanghaiTech/partA/test_8/dmap_lmdb"
    batch_size: 1
    backend: LMDB
  }
}
layer {
  name: "conv1_1"
  type: "Convolution"
  bottom: "data"
  top: "conv1_1"
  param {
    lr_mult: 0.1
    decay_mult: 1
  }
  param {
    lr_mult: 0.2
    decay_mult: 0
  }
  convolution_param {
    num_output: 64
    pad: 1
    kernel_size: 3
    weight_filler {
      type: "gaussian"
      std: 0.01
    }
    bias_filler {
      type: "constant"
      value: 0
    }
  }
}
layer {
  name: "relu1_1"
  type: "ReLU"
  bottom: "conv1_1"
  top: "conv1_1"
}
layer {
  name: "conv1_2"
  type: "Convolution"
  bottom: "conv1_1"
  top: "conv1_2"
  param {
    lr_mult: 0.1
    decay_mult: 1
  }
  param {
    lr_mult: 0.2
    decay_mult: 0
  }
  convolution_param {
    num_output: 64
    pad: 1
    kernel_size: 3
    weight_filler {
      type: "gaussian"
      std: 0.01
    }
    bias_filler {
      type: "constant"
      value: 0
    }
  }
}
layer {
  name: "relu1_2"
  type: "ReLU"
  bottom: "conv1_2"
  top: "conv1_2"
}
layer {
  name: "pool1"
  type: "Pooling"
  bottom: "conv1_2"
  top: "pool1"
  pooling_param {
    pool: MAX
    kernel_size: 2
    stride: 2
  }
}
layer {
  name: "conv2_1"
  type: "Convolution"
  bottom: "pool1"
  top: "conv2_1"
  param {
    lr_mult: 0.1
    decay_mult: 1
  }
  param {
    lr_mult: 0.2
    decay_mult: 0
  }
  convolution_param {
    num_output: 128
    pad: 1
    kernel_size: 3
    weight_filler {
      type: "gaussian"
      std: 0.01
    }
    bias_filler {
      type: "constant"
      value: 0
    }
  }
}
layer {
  name: "relu2_1"
  type: "ReLU"
  bottom: "conv2_1"
  top: "conv2_1"
}
layer {
  name: "conv2_2"
  type: "Convolution"
  bottom: "conv2_1"
  top: "conv2_2"
  param {
    lr_mult: 0.1
    decay_mult: 1
  }
  param {
    lr_mult: 0.2
    decay_mult: 0
  }
  convolution_param {
    num_output: 128
    pad: 1
    kernel_size: 3
    weight_filler {
      type: "gaussian"
      std: 0.01
    }
    bias_filler {
      type: "constant"
      value: 0
    }
  }
}
layer {
  name: "relu2_2"
  type: "ReLU"
  bottom: "conv2_2"
  top: "conv2_2"
}
layer {
  name: "pool2"
  type: "Pooling"
  bottom: "conv2_2"
  top: "pool2"
  pooling_param {
    pool: MAX
    kernel_size: 2
    stride: 2
  }
}
layer {
  name: "conv3_1"
  type: "Convolution"
  bottom: "pool2"
  top: "conv3_1"
  param {
    lr_mult: 0.1
    decay_mult: 1
  }
  param {
    lr_mult: 0.2
    decay_mult: 0
  }
  convolution_param {
    num_output: 256
    pad: 1
    kernel_size: 3
    weight_filler {
      type: "gaussian"
      std: 0.01
    }
    bias_filler {
      type: "constant"
      value: 0
    }
  }
}
layer {
  name: "relu3_1"
  type: "ReLU"
  bottom: "conv3_1"
  top: "conv3_1"
}
layer {
  name: "conv3_2"
  type: "Convolution"
  bottom: "conv3_1"
  top: "conv3_2"
  param {
    lr_mult: 0.1
    decay_mult: 1
  }
  param {
    lr_mult: 0.2
    decay_mult: 0
  }
  convolution_param {
    num_output: 256
    pad: 1
    kernel_size: 3
    weight_filler {
      type: "gaussian"
      std: 0.01
    }
    bias_filler {
      type: "constant"
      value: 0
    }
  }
}
layer {
  name: "relu3_2"
  type: "ReLU"
  bottom: "conv3_2"
  top: "conv3_2"
}
layer {
  name: "conv3_3"
  type: "Convolution"
  bottom: "conv3_2"
  top: "conv3_3"
  param {
    lr_mult: 0.1
    decay_mult: 1
  }
  param {
    lr_mult: 0.2
    decay_mult: 0
  }
  convolution_param {
    num_output: 256
    pad: 1
    kernel_size: 3
    weight_filler {
      type: "gaussian"
      std: 0.01
    }
    bias_filler {
      type: "constant"
      value: 0
    }
  }
}
layer {
  name: "relu3_3"
  type: "ReLU"
  bottom: "conv3_3"
  top: "conv3_3"
}
layer {
  name: "pool3"
  type: "Pooling"
  bottom: "conv3_3"
  top: "pool3"
  pooling_param {
    pool: MAX
    kernel_size: 2
    stride: 2
  }
}
layer {
  name: "conv4_1"
  type: "Convolution"
  bottom: "pool3"
  top: "conv4_1"
  param {
    lr_mult: 0.1
    decay_mult: 1
  }
  param {
    lr_mult: 0.2
    decay_mult: 0
  }
  convolution_param {
    num_output: 512
    pad: 1
    kernel_size: 3
    weight_filler {
      type: "gaussian"
      std: 0.01
    }
    bias_filler {
      type: "constant"
      value: 0
    }
  }
}
layer {
  name: "relu4_1"
  type: "ReLU"
  bottom: "conv4_1"
  top: "conv4_1"
}
layer {
  name: "conv4_2"
  type: "Convolution"
  bottom: "conv4_1"
  top: "conv4_2"
  param {
    lr_mult: 0.1
    decay_mult: 1
  }
  param {
    lr_mult: 0.2
    decay_mult: 0
  }
  convolution_param {
    num_output: 512
    pad: 1
    kernel_size: 3
    weight_filler {
      type: "gaussian"
      std: 0.01
    }
    bias_filler {
      type: "constant"
      value: 0
    }
  }
}
layer {
  name: "relu4_2"
  type: "ReLU"
  bottom: "conv4_2"
  top: "conv4_2"
}
layer {
  name: "conv4_3"
  type: "Convolution"
  bottom: "conv4_2"
  top: "conv4_3"
  param {
    lr_mult: 0.1
    decay_mult: 1
  }
  param {
    lr_mult: 0.2
    decay_mult: 0
  }
  convolution_param {
    num_output: 512
    pad: 1
    kernel_size: 3
    weight_filler {
      type: "gaussian"
      std: 0.01
    }
    bias_filler {
      type: "constant"
      value: 0
    }
  }
}
layer {
  name: "relu4_3"
  type: "ReLU"
  bottom: "conv4_3"
  top: "conv4_3"
}
layer {
  name: "pool4"
  type: "Pooling"
  bottom: "conv4_3"
  top: "pool4"
  pooling_param {
    pool: MAX
    kernel_size: 3
    stride: 1
    pad: 1
  }
}
layer {
  name: "conv5_1"
  type: "Convolution"
  bottom: "pool4"
  top: "conv5_1"
  param {
    lr_mult: 0.1
    decay_mult: 1
  }
  param {
    lr_mult: 0.2
    decay_mult: 0
  }
  convolution_param {
    num_output: 512
    pad: 2
    kernel_size: 3
    weight_filler {
      type: "gaussian"
      std: 0.01
    }
    bias_filler {
      type: "constant"
      value: 0
    }
    dilation: 2
  }
}
layer {
  name: "relu5_1"
  type: "ReLU"
  bottom: "conv5_1"
  top: "conv5_1"
}
layer {
  name: "conv5_2"
  type: "Convolution"
  bottom: "conv5_1"
  top: "conv5_2"
  param {
    lr_mult: 0.1
    decay_mult: 1
  }
  param {
    lr_mult: 0.2
    decay_mult: 0
  }
  convolution_param {
    num_output: 512
    pad: 2
    kernel_size: 3
    weight_filler {
      type: "gaussian"
      std: 0.01
    }
    bias_filler {
      type: "constant"
      value: 0
    }
    dilation: 2
  }
}
layer {
  name: "relu5_2"
  type: "ReLU"
  bottom: "conv5_2"
  top: "conv5_2"
}
layer {
  name: "conv5_3"
  type: "Convolution"
  bottom: "conv5_2"
  top: "conv5_3"
  param {
    lr_mult: 0.1
    decay_mult: 1
  }
  param {
    lr_mult: 0.2
    decay_mult: 0
  }
  convolution_param {
    num_output: 512
    pad: 2
    kernel_size: 3
    weight_filler {
      type: "gaussian"
      std: 0.01
    }
    bias_filler {
      type: "constant"
      value: 0
    }
    dilation: 2
  }
}
layer {
  name: "relu5_3"
  type: "ReLU"
  bottom: "conv5_3"
  top: "conv5_3"
}
layer {
  name: "conv_score"
  type: "Convolution"
  bottom: "conv5_3"
  top: "conv_score"
  param {
    lr_mult: 10
    decay_mult: 1
  }
  param {
    lr_mult: 20
    decay_mult: 0
  }
  convolution_param {
    num_output: 64
    pad: 0
    kernel_size: 1
    group: 64
    stride: 1
    weight_filler {
      type: "constant"
      value: 0.0001
    }
    bias_filler {
      type: "constant"
      value: 0
    }
  }
}
layer {
  name: "relu_score"
  type: "ReLU"
  bottom: "conv_score"
  top: "conv_score"
}
layer {
  name: "slicer_conv"
  type: "Slice"
  bottom: "conv_score"
  top: "score1"
  top: "score2"
  top: "score3"
  top: "score4"
  top: "score5"
  top: "score6"
  top: "score7"
  top: "score8"
  top: "score9"
  top: "score10"
  top: "score11"
  top: "score12"
  top: "score13"
  top: "score14"
  top: "score15"
  top: "score16"
  top: "score17"
  top: "score18"
  top: "score19"
  top: "score20"
  top: "score21"
  top: "score22"
  top: "score23"
  top: "score24"
  top: "score25"
  top: "score26"
  top: "score27"
  top: "score28"
  top: "score29"
  top: "score30"
  top: "score31"
  top: "score32"
  top: "score33"
  top: "score34"
  top: "score35"
  top: "score36"
  top: "score37"
  top: "score38"
  top: "score39"
  top: "score40"
  top: "score41"
  top: "score42"
  top: "score43"
  top: "score44"
  top: "score45"
  top: "score46"
  top: "score47"
  top: "score48"
  top: "score49"
  top: "score50"
  top: "score51"
  top: "score52"
  top: "score53"
  top: "score54"
  top: "score55"
  top: "score56"
  top: "score57"
  top: "score58"
  top: "score59"
  top: "score60"
  top: "score61"
  top: "score62"
  top: "score63"
  top: "score64"
  slice_param {
    axis: 1
  }
}
layer {
  name: "sumscore"
  type: "Eltwise"
  bottom: "score1"
  bottom: "score2"
  bottom: "score3"
  bottom: "score4"
  bottom: "score5"
  bottom: "score6"
  bottom: "score7"
  bottom: "score8"
  bottom: "score9"
  bottom: "score10"
  bottom: "score11"
  bottom: "score12"
  bottom: "score13"
  bottom: "score14"
  bottom: "score15"
  bottom: "score16"
  bottom: "score17"
  bottom: "score18"
  bottom: "score19"
  bottom: "score20"
  bottom: "score21"
  bottom: "score22"
  bottom: "score23"
  bottom: "score24"
  bottom: "score25"
  bottom: "score26"
  bottom: "score27"
  bottom: "score28"
  bottom: "score29"
  bottom: "score30"
  bottom: "score31"
  bottom: "score32"
  bottom: "score33"
  bottom: "score34"
  bottom: "score35"
  bottom: "score36"
  bottom: "score37"
  bottom: "score38"
  bottom: "score39"
  bottom: "score40"
  bottom: "score41"
  bottom: "score42"
  bottom: "score43"
  bottom: "score44"
  bottom: "score45"
  bottom: "score46"
  bottom: "score47"
  bottom: "score48"
  bottom: "score49"
  bottom: "score50"
  bottom: "score51"
  bottom: "score52"
  bottom: "score53"
  bottom: "score54"
  bottom: "score55"
  bottom: "score56"
  bottom: "score57"
  bottom: "score58"
  bottom: "score59"
  bottom: "score60"
  bottom: "score61"
  bottom: "score62"
  bottom: "score63"
  bottom: "score64"
  top: "sumscore"
  eltwise_param {
    operation: SUM
  }
}
layer {
  name: "avgscore"
  type: "Power"
  bottom: "sumscore"
  top: "avgscore"
  include {
    phase: TEST
  }
  power_param {
    power: 1
    scale: 0.015625
    shift: 0
  }
}
layer {
  name: "mae"
  type: "MAELoss"
  bottom: "avgscore"
  bottom: "label"
  top: "mae"
  include {
    phase: TEST
  }
}
layer {
  name: "mse"
  type: "MSELoss"
  bottom: "avgscore"
  bottom: "label"
  top: "mse"
  include {
    phase: TEST
  }
}
I0728 09:57:20.818925 20134 layer_factory.hpp:77] Creating layer data
I0728 09:57:20.819046 20134 db_lmdb.cpp:35] Opened lmdb /home/peiyong/Work/Zenglin/szl/ShanghaiTech/partA/test_8/image_lmdb
I0728 09:57:20.819087 20134 net.cpp:84] Creating Layer data
I0728 09:57:20.819100 20134 net.cpp:380] data -> data
I0728 09:57:20.822918 20134 data_layer.cpp:45] output data size: 1,3,704,1024
I0728 09:57:20.848795 20134 net.cpp:122] Setting up data
I0728 09:57:20.848839 20134 net.cpp:129] Top shape: 1 3 704 1024 (2162688)
I0728 09:57:20.848847 20134 net.cpp:137] Memory required for data: 8650752
I0728 09:57:20.848858 20134 layer_factory.hpp:77] Creating layer label
I0728 09:57:20.850539 20134 db_lmdb.cpp:35] Opened lmdb /home/peiyong/Work/Zenglin/szl/ShanghaiTech/partA/test_8/dmap_lmdb
I0728 09:57:20.850620 20134 net.cpp:84] Creating Layer label
I0728 09:57:20.850638 20134 net.cpp:380] label -> label
I0728 09:57:20.850965 20134 data_layer.cpp:45] output data size: 1,1,88,128
I0728 09:57:20.851251 20134 net.cpp:122] Setting up label
I0728 09:57:20.851272 20134 net.cpp:129] Top shape: 1 1 88 128 (11264)
I0728 09:57:20.851279 20134 net.cpp:137] Memory required for data: 8695808
I0728 09:57:20.851285 20134 layer_factory.hpp:77] Creating layer label_label_0_split
I0728 09:57:20.851300 20134 net.cpp:84] Creating Layer label_label_0_split
I0728 09:57:20.851308 20134 net.cpp:406] label_label_0_split <- label
I0728 09:57:20.851320 20134 net.cpp:380] label_label_0_split -> label_label_0_split_0
I0728 09:57:20.851336 20134 net.cpp:380] label_label_0_split -> label_label_0_split_1
I0728 09:57:20.851536 20134 net.cpp:122] Setting up label_label_0_split
I0728 09:57:20.851552 20134 net.cpp:129] Top shape: 1 1 88 128 (11264)
I0728 09:57:20.851562 20134 net.cpp:129] Top shape: 1 1 88 128 (11264)
I0728 09:57:20.851568 20134 net.cpp:137] Memory required for data: 8785920
I0728 09:57:20.851575 20134 layer_factory.hpp:77] Creating layer conv1_1
I0728 09:57:20.851596 20134 net.cpp:84] Creating Layer conv1_1
I0728 09:57:20.851604 20134 net.cpp:406] conv1_1 <- data
I0728 09:57:20.851615 20134 net.cpp:380] conv1_1 -> conv1_1
I0728 09:57:20.859024 20134 net.cpp:122] Setting up conv1_1
I0728 09:57:20.859061 20134 net.cpp:129] Top shape: 1 64 704 1024 (46137344)
I0728 09:57:20.859068 20134 net.cpp:137] Memory required for data: 193335296
I0728 09:57:20.859089 20134 layer_factory.hpp:77] Creating layer relu1_1
I0728 09:57:20.859108 20134 net.cpp:84] Creating Layer relu1_1
I0728 09:57:20.859117 20134 net.cpp:406] relu1_1 <- conv1_1
I0728 09:57:20.859127 20134 net.cpp:367] relu1_1 -> conv1_1 (in-place)
I0728 09:57:20.860236 20134 net.cpp:122] Setting up relu1_1
I0728 09:57:20.860258 20134 net.cpp:129] Top shape: 1 64 704 1024 (46137344)
I0728 09:57:20.860265 20134 net.cpp:137] Memory required for data: 377884672
I0728 09:57:20.860273 20134 layer_factory.hpp:77] Creating layer conv1_2
I0728 09:57:20.860293 20134 net.cpp:84] Creating Layer conv1_2
I0728 09:57:20.860301 20134 net.cpp:406] conv1_2 <- conv1_1
I0728 09:57:20.860313 20134 net.cpp:380] conv1_2 -> conv1_2
I0728 09:57:20.867449 20134 net.cpp:122] Setting up conv1_2
I0728 09:57:20.867475 20134 net.cpp:129] Top shape: 1 64 704 1024 (46137344)
I0728 09:57:20.867482 20134 net.cpp:137] Memory required for data: 562434048
I0728 09:57:20.867513 20134 layer_factory.hpp:77] Creating layer relu1_2
I0728 09:57:20.867527 20134 net.cpp:84] Creating Layer relu1_2
I0728 09:57:20.867534 20134 net.cpp:406] relu1_2 <- conv1_2
I0728 09:57:20.867544 20134 net.cpp:367] relu1_2 -> conv1_2 (in-place)
I0728 09:57:20.867862 20134 net.cpp:122] Setting up relu1_2
I0728 09:57:20.867880 20134 net.cpp:129] Top shape: 1 64 704 1024 (46137344)
I0728 09:57:20.867887 20134 net.cpp:137] Memory required for data: 746983424
I0728 09:57:20.867894 20134 layer_factory.hpp:77] Creating layer pool1
I0728 09:57:20.867907 20134 net.cpp:84] Creating Layer pool1
I0728 09:57:20.867913 20134 net.cpp:406] pool1 <- conv1_2
I0728 09:57:20.867924 20134 net.cpp:380] pool1 -> pool1
I0728 09:57:20.868024 20134 net.cpp:122] Setting up pool1
I0728 09:57:20.868037 20134 net.cpp:129] Top shape: 1 64 352 512 (11534336)
I0728 09:57:20.868044 20134 net.cpp:137] Memory required for data: 793120768
I0728 09:57:20.868052 20134 layer_factory.hpp:77] Creating layer conv2_1
I0728 09:57:20.868069 20134 net.cpp:84] Creating Layer conv2_1
I0728 09:57:20.868077 20134 net.cpp:406] conv2_1 <- pool1
I0728 09:57:20.868088 20134 net.cpp:380] conv2_1 -> conv2_1
I0728 09:57:20.873652 20134 net.cpp:122] Setting up conv2_1
I0728 09:57:20.873678 20134 net.cpp:129] Top shape: 1 128 352 512 (23068672)
I0728 09:57:20.873685 20134 net.cpp:137] Memory required for data: 885395456
I0728 09:57:20.873703 20134 layer_factory.hpp:77] Creating layer relu2_1
I0728 09:57:20.873713 20134 net.cpp:84] Creating Layer relu2_1
I0728 09:57:20.873754 20134 net.cpp:406] relu2_1 <- conv2_1
I0728 09:57:20.873766 20134 net.cpp:367] relu2_1 -> conv2_1 (in-place)
I0728 09:57:20.874788 20134 net.cpp:122] Setting up relu2_1
I0728 09:57:20.874809 20134 net.cpp:129] Top shape: 1 128 352 512 (23068672)
I0728 09:57:20.874815 20134 net.cpp:137] Memory required for data: 977670144
I0728 09:57:20.874824 20134 layer_factory.hpp:77] Creating layer conv2_2
I0728 09:57:20.874840 20134 net.cpp:84] Creating Layer conv2_2
I0728 09:57:20.874846 20134 net.cpp:406] conv2_2 <- conv2_1
I0728 09:57:20.874858 20134 net.cpp:380] conv2_2 -> conv2_2
I0728 09:57:20.881458 20134 net.cpp:122] Setting up conv2_2
I0728 09:57:20.881482 20134 net.cpp:129] Top shape: 1 128 352 512 (23068672)
I0728 09:57:20.881489 20134 net.cpp:137] Memory required for data: 1069944832
I0728 09:57:20.881502 20134 layer_factory.hpp:77] Creating layer relu2_2
I0728 09:57:20.881513 20134 net.cpp:84] Creating Layer relu2_2
I0728 09:57:20.881520 20134 net.cpp:406] relu2_2 <- conv2_2
I0728 09:57:20.881531 20134 net.cpp:367] relu2_2 -> conv2_2 (in-place)
I0728 09:57:20.883203 20134 net.cpp:122] Setting up relu2_2
I0728 09:57:20.883224 20134 net.cpp:129] Top shape: 1 128 352 512 (23068672)
I0728 09:57:20.883230 20134 net.cpp:137] Memory required for data: 1162219520
I0728 09:57:20.883237 20134 layer_factory.hpp:77] Creating layer pool2
I0728 09:57:20.883249 20134 net.cpp:84] Creating Layer pool2
I0728 09:57:20.883255 20134 net.cpp:406] pool2 <- conv2_2
I0728 09:57:20.883265 20134 net.cpp:380] pool2 -> pool2
I0728 09:57:20.883358 20134 net.cpp:122] Setting up pool2
I0728 09:57:20.883370 20134 net.cpp:129] Top shape: 1 128 176 256 (5767168)
I0728 09:57:20.883376 20134 net.cpp:137] Memory required for data: 1185288192
I0728 09:57:20.883383 20134 layer_factory.hpp:77] Creating layer conv3_1
I0728 09:57:20.883396 20134 net.cpp:84] Creating Layer conv3_1
I0728 09:57:20.883402 20134 net.cpp:406] conv3_1 <- pool2
I0728 09:57:20.883412 20134 net.cpp:380] conv3_1 -> conv3_1
I0728 09:57:20.891955 20134 net.cpp:122] Setting up conv3_1
I0728 09:57:20.891986 20134 net.cpp:129] Top shape: 1 256 176 256 (11534336)
I0728 09:57:20.891993 20134 net.cpp:137] Memory required for data: 1231425536
I0728 09:57:20.892011 20134 layer_factory.hpp:77] Creating layer relu3_1
I0728 09:57:20.892024 20134 net.cpp:84] Creating Layer relu3_1
I0728 09:57:20.892031 20134 net.cpp:406] relu3_1 <- conv3_1
I0728 09:57:20.892041 20134 net.cpp:367] relu3_1 -> conv3_1 (in-place)
I0728 09:57:20.892329 20134 net.cpp:122] Setting up relu3_1
I0728 09:57:20.892345 20134 net.cpp:129] Top shape: 1 256 176 256 (11534336)
I0728 09:57:20.892351 20134 net.cpp:137] Memory required for data: 1277562880
I0728 09:57:20.892359 20134 layer_factory.hpp:77] Creating layer conv3_2
I0728 09:57:20.892374 20134 net.cpp:84] Creating Layer conv3_2
I0728 09:57:20.892380 20134 net.cpp:406] conv3_2 <- conv3_1
I0728 09:57:20.892390 20134 net.cpp:380] conv3_2 -> conv3_2
I0728 09:57:20.905122 20134 net.cpp:122] Setting up conv3_2
I0728 09:57:20.905158 20134 net.cpp:129] Top shape: 1 256 176 256 (11534336)
I0728 09:57:20.905165 20134 net.cpp:137] Memory required for data: 1323700224
I0728 09:57:20.905179 20134 layer_factory.hpp:77] Creating layer relu3_2
I0728 09:57:20.905202 20134 net.cpp:84] Creating Layer relu3_2
I0728 09:57:20.905210 20134 net.cpp:406] relu3_2 <- conv3_2
I0728 09:57:20.905220 20134 net.cpp:367] relu3_2 -> conv3_2 (in-place)
I0728 09:57:20.906163 20134 net.cpp:122] Setting up relu3_2
I0728 09:57:20.906183 20134 net.cpp:129] Top shape: 1 256 176 256 (11534336)
I0728 09:57:20.906189 20134 net.cpp:137] Memory required for data: 1369837568
I0728 09:57:20.906195 20134 layer_factory.hpp:77] Creating layer conv3_3
I0728 09:57:20.906211 20134 net.cpp:84] Creating Layer conv3_3
I0728 09:57:20.906219 20134 net.cpp:406] conv3_3 <- conv3_2
I0728 09:57:20.906229 20134 net.cpp:380] conv3_3 -> conv3_3
I0728 09:57:20.918089 20134 net.cpp:122] Setting up conv3_3
I0728 09:57:20.918110 20134 net.cpp:129] Top shape: 1 256 176 256 (11534336)
I0728 09:57:20.918148 20134 net.cpp:137] Memory required for data: 1415974912
I0728 09:57:20.918159 20134 layer_factory.hpp:77] Creating layer relu3_3
I0728 09:57:20.918169 20134 net.cpp:84] Creating Layer relu3_3
I0728 09:57:20.918175 20134 net.cpp:406] relu3_3 <- conv3_3
I0728 09:57:20.918184 20134 net.cpp:367] relu3_3 -> conv3_3 (in-place)
I0728 09:57:20.919052 20134 net.cpp:122] Setting up relu3_3
I0728 09:57:20.919071 20134 net.cpp:129] Top shape: 1 256 176 256 (11534336)
I0728 09:57:20.919078 20134 net.cpp:137] Memory required for data: 1462112256
I0728 09:57:20.919085 20134 layer_factory.hpp:77] Creating layer pool3
I0728 09:57:20.919095 20134 net.cpp:84] Creating Layer pool3
I0728 09:57:20.919101 20134 net.cpp:406] pool3 <- conv3_3
I0728 09:57:20.919111 20134 net.cpp:380] pool3 -> pool3
I0728 09:57:20.919198 20134 net.cpp:122] Setting up pool3
I0728 09:57:20.919209 20134 net.cpp:129] Top shape: 1 256 88 128 (2883584)
I0728 09:57:20.919215 20134 net.cpp:137] Memory required for data: 1473646592
I0728 09:57:20.919220 20134 layer_factory.hpp:77] Creating layer conv4_1
I0728 09:57:20.919232 20134 net.cpp:84] Creating Layer conv4_1
I0728 09:57:20.919239 20134 net.cpp:406] conv4_1 <- pool3
I0728 09:57:20.919248 20134 net.cpp:380] conv4_1 -> conv4_1
I0728 09:57:20.938832 20134 net.cpp:122] Setting up conv4_1
I0728 09:57:20.938863 20134 net.cpp:129] Top shape: 1 512 88 128 (5767168)
I0728 09:57:20.938869 20134 net.cpp:137] Memory required for data: 1496715264
I0728 09:57:20.938881 20134 layer_factory.hpp:77] Creating layer relu4_1
I0728 09:57:20.938891 20134 net.cpp:84] Creating Layer relu4_1
I0728 09:57:20.938899 20134 net.cpp:406] relu4_1 <- conv4_1
I0728 09:57:20.938907 20134 net.cpp:367] relu4_1 -> conv4_1 (in-place)
I0728 09:57:20.939164 20134 net.cpp:122] Setting up relu4_1
I0728 09:57:20.939180 20134 net.cpp:129] Top shape: 1 512 88 128 (5767168)
I0728 09:57:20.939187 20134 net.cpp:137] Memory required for data: 1519783936
I0728 09:57:20.939193 20134 layer_factory.hpp:77] Creating layer conv4_2
I0728 09:57:20.939206 20134 net.cpp:84] Creating Layer conv4_2
I0728 09:57:20.939213 20134 net.cpp:406] conv4_2 <- conv4_1
I0728 09:57:20.939223 20134 net.cpp:380] conv4_2 -> conv4_2
I0728 09:57:20.972391 20134 net.cpp:122] Setting up conv4_2
I0728 09:57:20.972427 20134 net.cpp:129] Top shape: 1 512 88 128 (5767168)
I0728 09:57:20.972434 20134 net.cpp:137] Memory required for data: 1542852608
I0728 09:57:20.972451 20134 layer_factory.hpp:77] Creating layer relu4_2
I0728 09:57:20.972465 20134 net.cpp:84] Creating Layer relu4_2
I0728 09:57:20.972471 20134 net.cpp:406] relu4_2 <- conv4_2
I0728 09:57:20.972481 20134 net.cpp:367] relu4_2 -> conv4_2 (in-place)
I0728 09:57:20.973256 20134 net.cpp:122] Setting up relu4_2
I0728 09:57:20.973274 20134 net.cpp:129] Top shape: 1 512 88 128 (5767168)
I0728 09:57:20.973279 20134 net.cpp:137] Memory required for data: 1565921280
I0728 09:57:20.973285 20134 layer_factory.hpp:77] Creating layer conv4_3
I0728 09:57:20.973299 20134 net.cpp:84] Creating Layer conv4_3
I0728 09:57:20.973315 20134 net.cpp:406] conv4_3 <- conv4_2
I0728 09:57:20.973325 20134 net.cpp:380] conv4_3 -> conv4_3
I0728 09:57:21.002846 20134 net.cpp:122] Setting up conv4_3
I0728 09:57:21.002879 20134 net.cpp:129] Top shape: 1 512 88 128 (5767168)
I0728 09:57:21.002884 20134 net.cpp:137] Memory required for data: 1588989952
I0728 09:57:21.002897 20134 layer_factory.hpp:77] Creating layer relu4_3
I0728 09:57:21.002907 20134 net.cpp:84] Creating Layer relu4_3
I0728 09:57:21.002913 20134 net.cpp:406] relu4_3 <- conv4_3
I0728 09:57:21.002923 20134 net.cpp:367] relu4_3 -> conv4_3 (in-place)
I0728 09:57:21.003643 20134 net.cpp:122] Setting up relu4_3
I0728 09:57:21.003659 20134 net.cpp:129] Top shape: 1 512 88 128 (5767168)
I0728 09:57:21.003662 20134 net.cpp:137] Memory required for data: 1612058624
I0728 09:57:21.003665 20134 layer_factory.hpp:77] Creating layer pool4
I0728 09:57:21.003672 20134 net.cpp:84] Creating Layer pool4
I0728 09:57:21.003677 20134 net.cpp:406] pool4 <- conv4_3
I0728 09:57:21.003685 20134 net.cpp:380] pool4 -> pool4
I0728 09:57:21.003801 20134 net.cpp:122] Setting up pool4
I0728 09:57:21.003813 20134 net.cpp:129] Top shape: 1 512 88 128 (5767168)
I0728 09:57:21.003818 20134 net.cpp:137] Memory required for data: 1635127296
I0728 09:57:21.003823 20134 layer_factory.hpp:77] Creating layer conv5_1
I0728 09:57:21.003835 20134 net.cpp:84] Creating Layer conv5_1
I0728 09:57:21.003840 20134 net.cpp:406] conv5_1 <- pool4
I0728 09:57:21.003849 20134 net.cpp:380] conv5_1 -> conv5_1
I0728 09:57:21.029106 20134 net.cpp:122] Setting up conv5_1
I0728 09:57:21.029127 20134 net.cpp:129] Top shape: 1 512 88 128 (5767168)
I0728 09:57:21.029131 20134 net.cpp:137] Memory required for data: 1658195968
I0728 09:57:21.029140 20134 layer_factory.hpp:77] Creating layer relu5_1
I0728 09:57:21.029147 20134 net.cpp:84] Creating Layer relu5_1
I0728 09:57:21.029153 20134 net.cpp:406] relu5_1 <- conv5_1
I0728 09:57:21.029160 20134 net.cpp:367] relu5_1 -> conv5_1 (in-place)
I0728 09:57:21.029395 20134 net.cpp:122] Setting up relu5_1
I0728 09:57:21.029407 20134 net.cpp:129] Top shape: 1 512 88 128 (5767168)
I0728 09:57:21.029412 20134 net.cpp:137] Memory required for data: 1681264640
I0728 09:57:21.029417 20134 layer_factory.hpp:77] Creating layer conv5_2
I0728 09:57:21.029428 20134 net.cpp:84] Creating Layer conv5_2
I0728 09:57:21.029433 20134 net.cpp:406] conv5_2 <- conv5_1
I0728 09:57:21.029440 20134 net.cpp:380] conv5_2 -> conv5_2
I0728 09:57:21.053678 20134 net.cpp:122] Setting up conv5_2
I0728 09:57:21.053709 20134 net.cpp:129] Top shape: 1 512 88 128 (5767168)
I0728 09:57:21.053712 20134 net.cpp:137] Memory required for data: 1704333312
I0728 09:57:21.053722 20134 layer_factory.hpp:77] Creating layer relu5_2
I0728 09:57:21.053732 20134 net.cpp:84] Creating Layer relu5_2
I0728 09:57:21.053738 20134 net.cpp:406] relu5_2 <- conv5_2
I0728 09:57:21.053745 20134 net.cpp:367] relu5_2 -> conv5_2 (in-place)
I0728 09:57:21.054538 20134 net.cpp:122] Setting up relu5_2
I0728 09:57:21.054551 20134 net.cpp:129] Top shape: 1 512 88 128 (5767168)
I0728 09:57:21.054556 20134 net.cpp:137] Memory required for data: 1727401984
I0728 09:57:21.054561 20134 layer_factory.hpp:77] Creating layer conv5_3
I0728 09:57:21.054574 20134 net.cpp:84] Creating Layer conv5_3
I0728 09:57:21.054577 20134 net.cpp:406] conv5_3 <- conv5_2
I0728 09:57:21.054585 20134 net.cpp:380] conv5_3 -> conv5_3
I0728 09:57:21.076956 20134 net.cpp:122] Setting up conv5_3
I0728 09:57:21.076974 20134 net.cpp:129] Top shape: 1 512 88 128 (5767168)
I0728 09:57:21.076978 20134 net.cpp:137] Memory required for data: 1750470656
I0728 09:57:21.076987 20134 layer_factory.hpp:77] Creating layer relu5_3
I0728 09:57:21.076997 20134 net.cpp:84] Creating Layer relu5_3
I0728 09:57:21.077003 20134 net.cpp:406] relu5_3 <- conv5_3
I0728 09:57:21.077008 20134 net.cpp:367] relu5_3 -> conv5_3 (in-place)
I0728 09:57:21.077213 20134 net.cpp:122] Setting up relu5_3
I0728 09:57:21.077224 20134 net.cpp:129] Top shape: 1 512 88 128 (5767168)
I0728 09:57:21.077229 20134 net.cpp:137] Memory required for data: 1773539328
I0728 09:57:21.077231 20134 layer_factory.hpp:77] Creating layer conv_score
I0728 09:57:21.077241 20134 net.cpp:84] Creating Layer conv_score
I0728 09:57:21.077245 20134 net.cpp:406] conv_score <- conv5_3
I0728 09:57:21.077252 20134 net.cpp:380] conv_score -> conv_score
I0728 09:57:21.161170 20134 net.cpp:122] Setting up conv_score
I0728 09:57:21.161200 20134 net.cpp:129] Top shape: 1 64 88 128 (720896)
I0728 09:57:21.161203 20134 net.cpp:137] Memory required for data: 1776422912
I0728 09:57:21.161213 20134 layer_factory.hpp:77] Creating layer relu_score
I0728 09:57:21.161222 20134 net.cpp:84] Creating Layer relu_score
I0728 09:57:21.161227 20134 net.cpp:406] relu_score <- conv_score
I0728 09:57:21.161237 20134 net.cpp:367] relu_score -> conv_score (in-place)
I0728 09:57:21.161449 20134 net.cpp:122] Setting up relu_score
I0728 09:57:21.161460 20134 net.cpp:129] Top shape: 1 64 88 128 (720896)
I0728 09:57:21.161464 20134 net.cpp:137] Memory required for data: 1779306496
I0728 09:57:21.161468 20134 layer_factory.hpp:77] Creating layer slicer_conv
I0728 09:57:21.161514 20134 net.cpp:84] Creating Layer slicer_conv
I0728 09:57:21.161520 20134 net.cpp:406] slicer_conv <- conv_score
I0728 09:57:21.161531 20134 net.cpp:380] slicer_conv -> score1
I0728 09:57:21.161543 20134 net.cpp:380] slicer_conv -> score2
…
I0728 09:57:21.162037 20134 net.cpp:380] slicer_conv -> score57
I0728 09:57:21.162045 20134 net.cpp:380] slicer_conv -> score58
I0728 09:57:21.162055 20134 net.cpp:380] slicer_conv -> score59
I0728 09:57:21.162062 20134 net.cpp:380] slicer_conv -> score60
I0728 09:57:21.162071 20134 net.cpp:380] slicer_conv -> score61
I0728 09:57:21.162080 20134 net.cpp:380] slicer_conv -> score62
I0728 09:57:21.162099 20134 net.cpp:380] slicer_conv -> score63
I0728 09:57:21.162108 20134 net.cpp:380] slicer_conv -> score64
I0728 09:57:21.163458 20134 net.cpp:122] Setting up slicer_conv
I0728 09:57:21.163468 20134 net.cpp:129] Top shape: 1 1 88 128 (11264)
I0728 09:57:21.163473 20134 net.cpp:129] Top shape: 1 1 88 128 (11264)
I0728 09:57:21.163478 20134 net.cpp:129] Top shape: 1 1 88 128 (11264)
I0728 09:57:21.163482 20134 net.cpp:129] Top shape: 1 1 88 128 (11264)
I0728 09:57:21.163486 20134 net.cpp:129] Top shape: 1 1 88 128 (11264)
I0728 09:57:21.163488 20134 net.cpp:129] Top shape: 1 1 88 128 (11264)
I0728 09:57:21.163491 20134 net.cpp:129] Top shape: 1 1 88 128 (11264)
I0728 09:57:21.163494 20134 net.cpp:129] Top shape: 1 1 88 128 (11264)
I0728 09:57:21.163497 20134 net.cpp:129] Top shape: 1 1 88 128 (11264)
I0728 09:57:21.163499 20134 net.cpp:129] Top shape: 1 1 88 128 (11264)
I0728 09:57:21.163503 20134 net.cpp:129] Top shape: 1 1 88 128 (11264)
I0728 09:57:21.163506 20134 net.cpp:129] Top shape: 1 1 88 128 (11264)
I0728 09:57:21.163527 20134 net.cpp:129] Top shape: 1 1 88 128 (11264)
I0728 09:57:21.163529 20134 net.cpp:129] Top shape: 1 1 88 128 (11264)
I0728 09:57:21.163538 20134 net.cpp:129] Top shape: 1 1 88 128 (11264)
I0728 09:57:21.163542 20134 net.cpp:129] Top shape: 1 1 88 128 (11264)
I0728 09:57:21.163547 20134 net.cpp:129] Top shape: 1 1 88 128 (11264)
I0728 09:57:21.163552 20134 net.cpp:129] Top shape: 1 1 88 128 (11264)
I0728 09:57:21.163555 20134 net.cpp:129] Top shape: 1 1 88 128 (11264)
I0728 09:57:21.163559 20134 net.cpp:129] Top shape: 1 1 88 128 (11264)
I0728 09:57:21.163564 20134 net.cpp:129] Top shape: 1 1 88 128 (11264)
I0728 09:57:21.163568 20134 net.cpp:129] Top shape: 1 1 88 128 (11264)
I0728 09:57:21.163573 20134 net.cpp:129] Top shape: 1 1 88 128 (11264)
I0728 09:57:21.163578 20134 net.cpp:129] Top shape: 1 1 88 128 (11264)
I0728 09:57:21.163581 20134 net.cpp:129] Top shape: 1 1 88 128 (11264)
I0728 09:57:21.163586 20134 net.cpp:129] Top shape: 1 1 88 128 (11264)
I0728 09:57:21.163590 20134 net.cpp:129] Top shape: 1 1 88 128 (11264)
I0728 09:57:21.163594 20134 net.cpp:129] Top shape: 1 1 88 128 (11264)
I0728 09:57:21.163599 20134 net.cpp:129] Top shape: 1 1 88 128 (11264)
I0728 09:57:21.163604 20134 net.cpp:129] Top shape: 1 1 88 128 (11264)
I0728 09:57:21.163607 20134 net.cpp:129] Top shape: 1 1 88 128 (11264)
I0728 09:57:21.163612 20134 net.cpp:129] Top shape: 1 1 88 128 (11264)
I0728 09:57:21.163616 20134 net.cpp:129] Top shape: 1 1 88 128 (11264)
I0728 09:57:21.163620 20134 net.cpp:129] Top shape: 1 1 88 128 (11264)
I0728 09:57:21.163625 20134 net.cpp:129] Top shape: 1 1 88 128 (11264)
I0728 09:57:21.163630 20134 net.cpp:129] Top shape: 1 1 88 128 (11264)
I0728 09:57:21.163633 20134 net.cpp:129] Top shape: 1 1 88 128 (11264)
I0728 09:57:21.163637 20134 net.cpp:129] Top shape: 1 1 88 128 (11264)
I0728 09:57:21.163642 20134 net.cpp:129] Top shape: 1 1 88 128 (11264)
I0728 09:57:21.163646 20134 net.cpp:129] Top shape: 1 1 88 128 (11264)
I0728 09:57:21.163650 20134 net.cpp:129] Top shape: 1 1 88 128 (11264)
I0728 09:57:21.163655 20134 net.cpp:129] Top shape: 1 1 88 128 (11264)
I0728 09:57:21.163661 20134 net.cpp:129] Top shape: 1 1 88 128 (11264)
I0728 09:57:21.163664 20134 net.cpp:129] Top shape: 1 1 88 128 (11264)
I0728 09:57:21.163669 20134 net.cpp:129] Top shape: 1 1 88 128 (11264)
I0728 09:57:21.163673 20134 net.cpp:129] Top shape: 1 1 88 128 (11264)
I0728 09:57:21.163677 20134 net.cpp:129] Top shape: 1 1 88 128 (11264)
I0728 09:57:21.163683 20134 net.cpp:129] Top shape: 1 1 88 128 (11264)
I0728 09:57:21.163687 20134 net.cpp:129] Top shape: 1 1 88 128 (11264)
I0728 09:57:21.163692 20134 net.cpp:129] Top shape: 1 1 88 128 (11264)
I0728 09:57:21.163697 20134 net.cpp:129] Top shape: 1 1 88 128 (11264)
I0728 09:57:21.163702 20134 net.cpp:129] Top shape: 1 1 88 128 (11264)
I0728 09:57:21.163705 20134 net.cpp:129] Top shape: 1 1 88 128 (11264)
I0728 09:57:21.163709 20134 net.cpp:129] Top shape: 1 1 88 128 (11264)
I0728 09:57:21.163714 20134 net.cpp:129] Top shape: 1 1 88 128 (11264)
I0728 09:57:21.163729 20134 net.cpp:129] Top shape: 1 1 88 128 (11264)
I0728 09:57:21.163734 20134 net.cpp:129] Top shape: 1 1 88 128 (11264)
I0728 09:57:21.163738 20134 net.cpp:129] Top shape: 1 1 88 128 (11264)
I0728 09:57:21.163743 20134 net.cpp:129] Top shape: 1 1 88 128 (11264)
I0728 09:57:21.163748 20134 net.cpp:129] Top shape: 1 1 88 128 (11264)
I0728 09:57:21.163753 20134 net.cpp:129] Top shape: 1 1 88 128 (11264)
I0728 09:57:21.163756 20134 net.cpp:129] Top shape: 1 1 88 128 (11264)
I0728 09:57:21.163760 20134 net.cpp:129] Top shape: 1 1 88 128 (11264)
I0728 09:57:21.163764 20134 net.cpp:129] Top shape: 1 1 88 128 (11264)
I0728 09:57:21.163769 20134 net.cpp:137] Memory required for data: 1782190080
I0728 09:57:21.163772 20134 layer_factory.hpp:77] Creating layer sumscore
I0728 09:57:21.163785 20134 net.cpp:84] Creating Layer sumscore
I0728 09:57:21.163790 20134 net.cpp:406] sumscore <- score1
I0728 09:57:21.163795 20134 net.cpp:406] sumscore <- score2
I0728 09:57:21.163800 20134 net.cpp:406] sumscore <- score3
…
