…
I0628 12:47:09.122128 20741 net.cpp:51] Initializing net from parameters: 
name: "crowd_counting"
state {
  phase: TRAIN
  level: 0
  stage: ""
}
layer {
  name: "data"
  type: "Data"
  top: "data"
  include {
    phase: TRAIN
  }
  data_param {
    source: "/home/peiyong/Work/Zenglin/szl/ShanghaiTech/partA/train_8/image_lmdb"
    batch_size: 1
    backend: LMDB
  }
}
layer {
  name: "label"
  type: "Data"
  top: "label"
  include {
    phase: TRAIN
  }
  data_param {
    source: "/home/peiyong/Work/Zenglin/szl/ShanghaiTech/partA/train_8/dmap_lmdb"
    batch_size: 1
    backend: LMDB
  }
}
layer {
  name: "conv1_1"
  type: "Convolution"
  bottom: "data"
  top: "conv1_1"
  param {
    lr_mult: 0.1
    decay_mult: 1
  }
  param {
    lr_mult: 0.2
    decay_mult: 0
  }
  convolution_param {
    num_output: 64
    pad: 1
    kernel_size: 3
    weight_filler {
      type: "gaussian"
      std: 0.01
    }
    bias_filler {
      type: "constant"
      value: 0
    }
  }
}
layer {
  name: "relu1_1"
  type: "ReLU"
  bottom: "conv1_1"
  top: "conv1_1"
}
layer {
  name: "conv1_2"
  type: "Convolution"
  bottom: "conv1_1"
  top: "conv1_2"
  param {
    lr_mult: 0.1
    decay_mult: 1
  }
  param {
    lr_mult: 0.2
    decay_mult: 0
  }
  convolution_param {
    num_output: 64
    pad: 1
    kernel_size: 3
    weight_filler {
      type: "gaussian"
      std: 0.01
    }
    bias_filler {
      type: "constant"
      value: 0
    }
  }
}
layer {
  name: "relu1_2"
  type: "ReLU"
  bottom: "conv1_2"
  top: "conv1_2"
}
layer {
  name: "pool1"
  type: "Pooling"
  bottom: "conv1_2"
  top: "pool1"
  pooling_param {
    pool: MAX
    kernel_size: 2
    stride: 2
  }
}
layer {
  name: "conv2_1"
  type: "Convolution"
  bottom: "pool1"
  top: "conv2_1"
  param {
    lr_mult: 0.1
    decay_mult: 1
  }
  param {
    lr_mult: 0.2
    decay_mult: 0
  }
  convolution_param {
    num_output: 128
    pad: 1
    kernel_size: 3
    weight_filler {
      type: "gaussian"
      std: 0.01
    }
    bias_filler {
      type: "constant"
      value: 0
    }
  }
}
layer {
  name: "relu2_1"
  type: "ReLU"
  bottom: "conv2_1"
  top: "conv2_1"
}
layer {
  name: "conv2_2"
  type: "Convolution"
  bottom: "conv2_1"
  top: "conv2_2"
  param {
    lr_mult: 0.1
    decay_mult: 1
  }
  param {
    lr_mult: 0.2
    decay_mult: 0
  }
  convolution_param {
    num_output: 128
    pad: 1
    kernel_size: 3
    weight_filler {
      type: "gaussian"
      std: 0.01
    }
    bias_filler {
      type: "constant"
      value: 0
    }
  }
}
layer {
  name: "relu2_2"
  type: "ReLU"
  bottom: "conv2_2"
  top: "conv2_2"
}
layer {
  name: "pool2"
  type: "Pooling"
  bottom: "conv2_2"
  top: "pool2"
  pooling_param {
    pool: MAX
    kernel_size: 2
    stride: 2
  }
}
layer {
  name: "conv3_1"
  type: "Convolution"
  bottom: "pool2"
  top: "conv3_1"
  param {
    lr_mult: 0.1
    decay_mult: 1
  }
  param {
    lr_mult: 0.2
    decay_mult: 0
  }
  convolution_param {
    num_output: 256
    pad: 1
    kernel_size: 3
    weight_filler {
      type: "gaussian"
      std: 0.01
    }
    bias_filler {
      type: "constant"
      value: 0
    }
  }
}
layer {
  name: "relu3_1"
  type: "ReLU"
  bottom: "conv3_1"
  top: "conv3_1"
}
layer {
  name: "conv3_2"
  type: "Convolution"
  bottom: "conv3_1"
  top: "conv3_2"
  param {
    lr_mult: 0.1
    decay_mult: 1
  }
  param {
    lr_mult: 0.2
    decay_mult: 0
  }
  convolution_param {
    num_output: 256
    pad: 1
    kernel_size: 3
    weight_filler {
      type: "gaussian"
      std: 0.01
    }
    bias_filler {
      type: "constant"
      value: 0
    }
  }
}
layer {
  name: "relu3_2"
  type: "ReLU"
  bottom: "conv3_2"
  top: "conv3_2"
}
layer {
  name: "conv3_3"
  type: "Convolution"
  bottom: "conv3_2"
  top: "conv3_3"
  param {
    lr_mult: 0.1
    decay_mult: 1
  }
  param {
    lr_mult: 0.2
    decay_mult: 0
  }
  convolution_param {
    num_output: 256
    pad: 1
    kernel_size: 3
    weight_filler {
      type: "gaussian"
      std: 0.01
    }
    bias_filler {
      type: "constant"
      value: 0
    }
  }
}
layer {
  name: "relu3_3"
  type: "ReLU"
  bottom: "conv3_3"
  top: "conv3_3"
}
layer {
  name: "pool3"
  type: "Pooling"
  bottom: "conv3_3"
  top: "pool3"
  pooling_param {
    pool: MAX
    kernel_size: 2
    stride: 2
  }
}
layer {
  name: "conv4_1"
  type: "Convolution"
  bottom: "pool3"
  top: "conv4_1"
  param {
    lr_mult: 0.1
    decay_mult: 1
  }
  param {
    lr_mult: 0.2
    decay_mult: 0
  }
  convolution_param {
    num_output: 512
    pad: 1
    kernel_size: 3
    weight_filler {
      type: "gaussian"
      std: 0.01
    }
    bias_filler {
      type: "constant"
      value: 0
    }
  }
}
layer {
  name: "relu4_1"
  type: "ReLU"
  bottom: "conv4_1"
  top: "conv4_1"
}
layer {
  name: "conv4_2"
  type: "Convolution"
  bottom: "conv4_1"
  top: "conv4_2"
  param {
    lr_mult: 0.1
    decay_mult: 1
  }
  param {
    lr_mult: 0.2
    decay_mult: 0
  }
  convolution_param {
    num_output: 512
    pad: 1
    kernel_size: 3
    weight_filler {
      type: "gaussian"
      std: 0.01
    }
    bias_filler {
      type: "constant"
      value: 0
    }
  }
}
layer {
  name: "relu4_2"
  type: "ReLU"
  bottom: "conv4_2"
  top: "conv4_2"
}
layer {
  name: "conv4_3"
  type: "Convolution"
  bottom: "conv4_2"
  top: "conv4_3"
  param {
    lr_mult: 0.1
    decay_mult: 1
  }
  param {
    lr_mult: 0.2
    decay_mult: 0
  }
  convolution_param {
    num_output: 512
    pad: 1
    kernel_size: 3
    weight_filler {
      type: "gaussian"
      std: 0.01
    }
    bias_filler {
      type: "constant"
      value: 0
    }
  }
}
layer {
  name: "relu4_3"
  type: "ReLU"
  bottom: "conv4_3"
  top: "conv4_3"
}
layer {
  name: "pool4"
  type: "Pooling"
  bottom: "conv4_3"
  top: "pool4"
  pooling_param {
    pool: MAX
    kernel_size: 3
    stride: 1
    pad: 1
  }
}
layer {
  name: "conv5_1"
  type: "Convolution"
  bottom: "pool4"
  top: "conv5_1"
  param {
    lr_mult: 0.1
    decay_mult: 1
  }
  param {
    lr_mult: 0.2
    decay_mult: 0
  }
  convolution_param {
    num_output: 512
    pad: 2
    kernel_size: 3
    weight_filler {
      type: "gaussian"
      std: 0.01
    }
    bias_filler {
      type: "constant"
      value: 0
    }
    dilation: 2
  }
}
layer {
  name: "relu5_1"
  type: "ReLU"
  bottom: "conv5_1"
  top: "conv5_1"
}
layer {
  name: "conv5_2"
  type: "Convolution"
  bottom: "conv5_1"
  top: "conv5_2"
  param {
    lr_mult: 0.1
    decay_mult: 1
  }
  param {
    lr_mult: 0.2
    decay_mult: 0
  }
  convolution_param {
    num_output: 512
    pad: 2
    kernel_size: 3
    weight_filler {
      type: "gaussian"
      std: 0.01
    }
    bias_filler {
      type: "constant"
      value: 0
    }
    dilation: 2
  }
}
layer {
  name: "relu5_2"
  type: "ReLU"
  bottom: "conv5_2"
  top: "conv5_2"
}
layer {
  name: "conv5_3"
  type: "Convolution"
  bottom: "conv5_2"
  top: "conv5_3"
  param {
    lr_mult: 0.1
    decay_mult: 1
  }
  param {
    lr_mult: 0.2
    decay_mult: 0
  }
  convolution_param {
    num_output: 512
    pad: 2
    kernel_size: 3
    weight_filler {
      type: "gaussian"
      std: 0.01
    }
    bias_filler {
      type: "constant"
      value: 0
    }
    dilation: 2
  }
}
layer {
  name: "relu5_3"
  type: "ReLU"
  bottom: "conv5_3"
  top: "conv5_3"
}
layer {
  name: "conv_score"
  type: "Convolution"
  bottom: "conv5_3"
  top: "conv_score"
  param {
    lr_mult: 10
    decay_mult: 1
  }
  param {
    lr_mult: 20
    decay_mult: 0
  }
  convolution_param {
    num_output: 64
    pad: 0
    kernel_size: 1
    group: 64
    stride: 1
    weight_filler {
      type: "constant"
      value: 0.0001
    }
    bias_filler {
      type: "constant"
      value: 0
    }
  }
}
layer {
  name: "relu_score"
  type: "ReLU"
  bottom: "conv_score"
  top: "conv_score"
}
layer {
  name: "slicer_conv"
  type: "Slice"
  bottom: "conv_score"
  top: "score1"
  top: "score2"
  top: "score3"
  top: "score4"
  top: "score5"
  top: "score6"
  top: "score7"
  top: "score8"
  top: "score9"
  top: "score10"
  top: "score11"
  top: "score12"
  top: "score13"
  top: "score14"
  top: "score15"
  top: "score16"
  top: "score17"
  top: "score18"
  top: "score19"
  top: "score20"
  top: "score21"
  top: "score22"
  top: "score23"
  top: "score24"
  top: "score25"
  top: "score26"
  top: "score27"
  top: "score28"
  top: "score29"
  top: "score30"
  top: "score31"
  top: "score32"
  top: "score33"
  top: "score34"
  top: "score35"
  top: "score36"
  top: "score37"
  top: "score38"
  top: "score39"
  top: "score40"
  top: "score41"
  top: "score42"
  top: "score43"
  top: "score44"
  top: "score45"
  top: "score46"
  top: "score47"
  top: "score48"
  top: "score49"
  top: "score50"
  top: "score51"
  top: "score52"
  top: "score53"
  top: "score54"
  top: "score55"
  top: "score56"
  top: "score57"
  top: "score58"
  top: "score59"
  top: "score60"
  top: "score61"
  top: "score62"
  top: "score63"
  top: "score64"
  slice_param {
    axis: 1
  }
}
layer {
  name: "sumscore"
  type: "Eltwise"
  bottom: "score1"
  bottom: "score2"
  bottom: "score3"
  bottom: "score4"
  bottom: "score5"
  bottom: "score6"
  bottom: "score7"
  bottom: "score8"
  bottom: "score9"
  bottom: "score10"
  bottom: "score11"
  bottom: "score12"
  bottom: "score13"
  bottom: "score14"
  bottom: "score15"
  bottom: "score16"
  bottom: "score17"
  bottom: "score18"
  bottom: "score19"
  bottom: "score20"
  bottom: "score21"
  bottom: "score22"
  bottom: "score23"
  bottom: "score24"
  bottom: "score25"
  bottom: "score26"
  bottom: "score27"
  bottom: "score28"
  bottom: "score29"
  bottom: "score30"
  bottom: "score31"
  bottom: "score32"
  bottom: "score33"
  bottom: "score34"
  bottom: "score35"
  bottom: "score36"
  bottom: "score37"
  bottom: "score38"
  bottom: "score39"
  bottom: "score40"
  bottom: "score41"
  bottom: "score42"
  bottom: "score43"
  bottom: "score44"
  bottom: "score45"
  bottom: "score46"
  bottom: "score47"
  bottom: "score48"
  bottom: "score49"
  bottom: "score50"
  bottom: "score51"
  bottom: "score52"
  bottom: "score53"
  bottom: "score54"
  bottom: "score55"
  bottom: "score56"
  bottom: "score57"
  bottom: "score58"
  bottom: "score59"
  bottom: "score60"
  bottom: "score61"
  bottom: "score62"
  bottom: "score63"
  bottom: "score64"
  top: "sumscore"
  eltwise_param {
    operation: SUM
  }
}
layer {
  name: "loss1"
  type: "NCLLoss"
  bottom: "score1"
  bottom: "label"
  bottom: "sumscore"
  top: "loss1"
  include {
    phase: TRAIN
  }
  ncl_loss_param {
    lambda: 0.0001
    net_num: 64
  }
}
layer {
  name: "loss2"
  type: "NCLLoss"
  bottom: "score2"
  bottom: "label"
  bottom: "sumscore"
  top: "loss2"
  include {
    phase: TRAIN
  }
  ncl_loss_param {
    lambda: 0.0001
    net_num: 64
  }
}
layer {
  name: "loss3"
  type: "NCLLoss"
  bottom: "score3"
  bottom: "label"
  bottom: "sumscore"
  top: "loss3"
  include {
    phase: TRAIN
  }
  ncl_loss_param {
    lambda: 0.0001
    net_num: 64
  }
}
layer {
  name: "loss4"
  type: "NCLLoss"
  bottom: "score4"
  bottom: "label"
  bottom: "sumscore"
  top: "loss4"
  include {
    phase: TRAIN
  }
  ncl_loss_param {
    lambda: 0.0001
    net_num: 64
  }
}
layer {
  name: "loss5"
  type: "NCLLoss"
  bottom: "score5"
  bottom: "label"
  bottom: "sumscore"
  top: "loss5"
  include {
    phase: TRAIN
  }
  ncl_loss_param {
    lambda: 0.0001
    net_num: 64
  }
}
layer {
  name: "loss6"
  type: "NCLLoss"
  bottom: "score6"
  bottom: "label"
  bottom: "sumscore"
  top: "loss6"
  include {
    phase: TRAIN
  }
  ncl_loss_param {
    lambda: 0.0001
    net_num: 64
  }
}
layer {
  name: "loss7"
  type: "NCLLoss"
  bottom: "score7"
  bottom: "label"
  bottom: "sumscore"
  top: "loss7"
  include {
    phase: TRAIN
  }
  ncl_loss_param {
    lambda: 0.0001
    net_num: 64
  }
}
layer {
  name: "loss8"
  type: "NCLLoss"
  bottom: "score8"
  bottom: "label"
  bottom: "sumscore"
  top: "loss8"
  include {
    phase: TRAIN
  }
  ncl_loss_param {
    lambda: 0.0001
    net_num: 64
  }
}
layer {
  name: "loss9"
  type: "NCLLoss"
  bottom: "score9"
  bottom: "label"
  bottom: "sumscore"
  top: "loss9"
  include {
    phase: TRAIN
  }
  ncl_loss_param {
    lambda: 0.0001
    net_num: 64
  }
}
layer {
  name: "loss10"
  type: "NCLLoss"
  bottom: "score10"
  bottom: "label"
  bottom: "sumscore"
  top: "loss10"
  include {
    phase: TRAIN
  }
  ncl_loss_param {
    lambda: 0.0001
    net_num: 64
  }
}
layer {
  name: "loss11"
  type: "NCLLoss"
  bottom: "score11"
  bottom: "label"
  bottom: "sumscore"
  top: "loss11"
  include {
    phase: TRAIN
  }
  ncl_loss_param {
    lambda: 0.0001
    net_num: 64
  }
}
layer {
  name: "loss12"
  type: "NCLLoss"
  bottom: "score12"
  bottom: "label"
  bottom: "sumscore"
  top: "loss12"
  include {
    phase: TRAIN
  }
  ncl_loss_param {
    lambda: 0.0001
    net_num: 64
  }
}
layer {
  name: "loss13"
  type: "NCLLoss"
  bottom: "score13"
  bottom: "label"
  bottom: "sumscore"
  top: "loss13"
  include {
    phase: TRAIN
  }
  ncl_loss_param {
    lambda: 0.0001
    net_num: 64
  }
}
layer {
  name: "loss14"
  type: "NCLLoss"
  bottom: "score14"
  bottom: "label"
  bottom: "sumscore"
  top: "loss14"
  include {
    phase: TRAIN
  }
  ncl_loss_param {
    lambda: 0.0001
    net_num: 64
  }
}
layer {
  name: "loss15"
  type: "NCLLoss"
  bottom: "score15"
  bottom: "label"
  bottom: "sumscore"
  top: "loss15"
  include {
    phase: TRAIN
  }
  ncl_loss_param {
    lambda: 0.0001
    net_num: 64
  }
}
layer {
  name: "loss16"
  type: "NCLLoss"
  bottom: "score16"
  bottom: "label"
  bottom: "sumscore"
  top: "loss16"
  include {
    phase: TRAIN
  }
  ncl_loss_param {
    lambda: 0.0001
    net_num: 64
  }
}
layer {
  name: "loss17"
  type: "NCLLoss"
  bottom: "score17"
  bottom: "label"
  bottom: "sumscore"
  top: "loss17"
  include {
    phase: TRAIN
  }
  ncl_loss_param {
    lambda: 0.0001
    net_num: 64
  }
}
layer {
  name: "loss18"
  type: "NCLLoss"
  bottom: "score18"
  bottom: "label"
  bottom: "sumscore"
  top: "loss18"
  include {
    phase: TRAIN
  }
  ncl_loss_param {
    lambda: 0.0001
    net_num: 64
  }
}
layer {
  name: "loss19"
  type: "NCLLoss"
  bottom: "score19"
  bottom: "label"
  bottom: "sumscore"
  top: "loss19"
  include {
    phase: TRAIN
  }
  ncl_loss_param {
    lambda: 0.0001
    net_num: 64
  }
}
layer {
  name: "loss20"
  type: "NCLLoss"
  bottom: "score20"
  bottom: "label"
  bottom: "sumscore"
  top: "loss20"
  include {
    phase: TRAIN
  }
  ncl_loss_param {
    lambda: 0.0001
    net_num: 64
  }
}
layer {
  name: "loss21"
  type: "NCLLoss"
  bottom: "score21"
  bottom: "label"
  bottom: "sumscore"
  top: "loss21"
  include {
    phase: TRAIN
  }
  ncl_loss_param {
    lambda: 0.0001
    net_num: 64
  }
}
layer {
  name: "loss22"
  type: "NCLLoss"
  bottom: "score22"
  bottom: "label"
  bottom: "sumscore"
  top: "loss22"
  include {
    phase: TRAIN
  }
  ncl_loss_param {
    lambda: 0.0001
    net_num: 64
  }
}
layer {
  name: "loss23"
  type: "NCLLoss"
  bottom: "score23"
  bottom: "label"
  bottom: "sumscore"
  top: "loss23"
  include {
    phase: TRAIN
  }
  ncl_loss_param {
    lambda: 0.0001
    net_num: 64
  }
}
layer {
  name: "loss24"
  type: "NCLLoss"
  bottom: "score24"
  bottom: "label"
  bottom: "sumscore"
  top: "loss24"
  include {
    phase: TRAIN
  }
  ncl_loss_param {
    lambda: 0.0001
    net_num: 64
  }
}
layer {
  name: "loss25"
  type: "NCLLoss"
  bottom: "score25"
  bottom: "label"
  bottom: "sumscore"
  top: "loss25"
  include {
    phase: TRAIN
  }
  ncl_loss_param {
    lambda: 0.0001
    net_num: 64
  }
}
layer {
  name: "loss26"
  type: "NCLLoss"
  bottom: "score26"
  bottom: "label"
  bottom: "sumscore"
  top: "loss26"
  include {
    phase: TRAIN
  }
  ncl_loss_param {
    lambda: 0.0001
    net_num: 64
  }
}
layer {
  name: "loss27"
  type: "NCLLoss"
  bottom: "score27"
  bottom: "label"
  bottom: "sumscore"
  top: "loss27"
  include {
    phase: TRAIN
  }
  ncl_loss_param {
    lambda: 0.0001
    net_num: 64
  }
}
layer {
  name: "loss28"
  type: "NCLLoss"
  bottom: "score28"
  bottom: "label"
  bottom: "sumscore"
  top: "loss28"
  include {
    phase: TRAIN
  }
  ncl_loss_param {
    lambda: 0.0001
    net_num: 64
  }
}
layer {
  name: "loss29"
  type: "NCLLoss"
  bottom: "score29"
  bottom: "label"
  bottom: "sumscore"
  top: "loss29"
  include {
    phase: TRAIN
  }
  ncl_loss_param {
    lambda: 0.0001
    net_num: 64
  }
}
layer {
  name: "loss30"
  type: "NCLLoss"
  bottom: "score30"
  bottom: "label"
  bottom: "sumscore"
  top: "loss30"
  include {
    phase: TRAIN
  }
  ncl_loss_param {
    lambda: 0.0001
    net_num: 64
  }
}
layer {
  name: "loss31"
  type: "NCLLoss"
  bottom: "score31"
  bottom: "label"
  bottom: "sumscore"
  top: "loss31"
  include {
    phase: TRAIN
  }
  ncl_loss_param {
    lambda: 0.0001
    net_num: 64
  }
}
layer {
  name: "loss32"
  type: "NCLLoss"
  bottom: "score32"
  bottom: "label"
  bottom: "sumscore"
  top: "loss32"
  include {
    phase: TRAIN
  }
  ncl_loss_param {
    lambda: 0.0001
    net_num: 64
  }
}
layer {
  name: "loss33"
  type: "NCLLoss"
  bottom: "score33"
  bottom: "label"
  bottom: "sumscore"
  top: "loss33"
  include {
    phase: TRAIN
  }
  ncl_loss_param {
    lambda: 0.0001
    net_num: 64
  }
}
layer {
  name: "loss34"
  type: "NCLLoss"
  bottom: "score34"
  bottom: "label"
  bottom: "sumscore"
  top: "loss34"
  include {
    phase: TRAIN
  }
  ncl_loss_param {
    lambda: 0.0001
    net_num: 64
  }
}
layer {
  name: "loss35"
  type: "NCLLoss"
  bottom: "score35"
  bottom: "label"
  bottom: "sumscore"
  top: "loss35"
  include {
    phase: TRAIN
  }
  ncl_loss_param {
    lambda: 0.0001
    net_num: 64
  }
}
layer {
  name: "loss36"
  type: "NCLLoss"
  bottom: "score36"
  bottom: "label"
  bottom: "sumscore"
  top: "loss36"
  include {
    phase: TRAIN
  }
  ncl_loss_param {
    lambda: 0.0001
    net_num: 64
  }
}
layer {
  name: "loss37"
  type: "NCLLoss"
  bottom: "score37"
  bottom: "label"
  bottom: "sumscore"
  top: "loss37"
  include {
    phase: TRAIN
  }
  ncl_loss_param {
    lambda: 0.0001
    net_num: 64
  }
}
layer {
  name: "loss38"
  type: "NCLLoss"
  bottom: "score38"
  bottom: "label"
  bottom: "sumscore"
  top: "loss38"
  include {
    phase: TRAIN
  }
  ncl_loss_param {
    lambda: 0.0001
    net_num: 64
  }
}
layer {
  name: "loss39"
  type: "NCLLoss"
  bottom: "score39"
  bottom: "label"
  bottom: "sumscore"
  top: "loss39"
  include {
    phase: TRAIN
  }
  ncl_loss_param {
    lambda: 0.0001
    net_num: 64
  }
}
layer {
  name: "loss40"
  type: "NCLLoss"
  bottom: "score40"
  bottom: "label"
  bottom: "sumscore"
  top: "loss40"
  include {
    phase: TRAIN
  }
  ncl_loss_param {
    lambda: 0.0001
    net_num: 64
  }
}
layer {
  name: "loss41"
  type: "NCLLoss"
  bottom: "score41"
  bottom: "label"
  bottom: "sumscore"
  top: "loss41"
  include {
    phase: TRAIN
  }
  ncl_loss_param {
    lambda: 0.0001
    net_num: 64
  }
}
layer {
  name: "loss42"
  type: "NCLLoss"
  bottom: "score42"
  bottom: "label"
  bottom: "sumscore"
  top: "loss42"
  include {
    phase: TRAIN
  }
  ncl_loss_param {
    lambda: 0.0001
    net_num: 64
  }
}
layer {
  name: "loss43"
  type: "NCLLoss"
  bottom: "score43"
  bottom: "label"
  bottom: "sumscore"
  top: "loss43"
  include {
    phase: TRAIN
  }
  ncl_loss_param {
    lambda: 0.0001
    net_num: 64
  }
}
layer {
  name: "loss44"
  type: "NCLLoss"
  bottom: "score44"
  bottom: "label"
  bottom: "sumscore"
  top: "loss44"
  include {
    phase: TRAIN
  }
  ncl_loss_param {
    lambda: 0.0001
    net_num: 64
  }
}
layer {
  name: "loss45"
  type: "NCLLoss"
  bottom: "score45"
  bottom: "label"
  bottom: "sumscore"
  top: "loss45"
  include {
    phase: TRAIN
  }
  ncl_loss_param {
    lambda: 0.0001
    net_num: 64
  }
}
layer {
  name: "loss46"
  type: "NCLLoss"
  bottom: "score46"
  bottom: "label"
  bottom: "sumscore"
  top: "loss46"
  include {
    phase: TRAIN
  }
  ncl_loss_param {
    lambda: 0.0001
    net_num: 64
  }
}
layer {
  name: "loss47"
  type: "NCLLoss"
  bottom: "score47"
  bottom: "label"
  bottom: "sumscore"
  top: "loss47"
  include {
    phase: TRAIN
  }
  ncl_loss_param {
    lambda: 0.0001
    net_num: 64
  }
}
layer {
  name: "loss48"
  type: "NCLLoss"
  bottom: "score48"
  bottom: "label"
  bottom: "sumscore"
  top: "loss48"
  include {
    phase: TRAIN
  }
  ncl_loss_param {
    lambda: 0.0001
    net_num: 64
  }
}
layer {
  name: "loss49"
  type: "NCLLoss"
  bottom: "score49"
  bottom: "label"
  bottom: "sumscore"
  top: "loss49"
  include {
    phase: TRAIN
  }
  ncl_loss_param {
    lambda: 0.0001
    net_num: 64
  }
}
layer {
  name: "loss50"
  type: "NCLLoss"
  bottom: "score50"
  bottom: "label"
  bottom: "sumscore"
  top: "loss50"
  include {
    phase: TRAIN
  }
  ncl_loss_param {
    lambda: 0.0001
    net_num: 64
  }
}
layer {
  name: "loss51"
  type: "NCLLoss"
  bottom: "score51"
  bottom: "label"
  bottom: "sumscore"
  top: "loss51"
  include {
    phase: TRAIN
  }
  ncl_loss_param {
    lambda: 0.0001
    net_num: 64
  }
}
layer {
  name: "loss52"
  type: "NCLLoss"
  bottom: "score52"
  bottom: "label"
  bottom: "sumscore"
  top: "loss52"
  include {
    phase: TRAIN
  }
  ncl_loss_param {
    lambda: 0.0001
    net_num: 64
  }
}
layer {
  name: "loss53"
  type: "NCLLoss"
  bottom: "score53"
  bottom: "label"
  bottom: "sumscore"
  top: "loss53"
  include {
    phase: TRAIN
  }
  ncl_loss_param {
    lambda: 0.0001
    net_num: 64
  }
}
layer {
  name: "loss54"
  type: "NCLLoss"
  bottom: "score54"
  bottom: "label"
  bottom: "sumscore"
  top: "loss54"
  include {
    phase: TRAIN
  }
  ncl_loss_param {
    lambda: 0.0001
    net_num: 64
  }
}
layer {
  name: "loss55"
  type: "NCLLoss"
  bottom: "score55"
  bottom: "label"
  bottom: "sumscore"
  top: "loss55"
  include {
    phase: TRAIN
  }
  ncl_loss_param {
    lambda: 0.0001
    net_num: 64
  }
}
layer {
  name: "loss56"
  type: "NCLLoss"
  bottom: "score56"
  bottom: "label"
  bottom: "sumscore"
  top: "loss56"
  include {
    phase: TRAIN
  }
  ncl_loss_param {
    lambda: 0.0001
    net_num: 64
  }
}
layer {
  name: "loss57"
  type: "NCLLoss"
  bottom: "score57"
  bottom: "label"
  bottom: "sumscore"
  top: "loss57"
  include {
    phase: TRAIN
  }
  ncl_loss_param {
    lambda: 0.0001
    net_num: 64
  }
}
layer {
  name: "loss58"
  type: "NCLLoss"
  bottom: "score58"
  bottom: "label"
  bottom: "sumscore"
  top: "loss58"
  include {
    phase: TRAIN
  }
  ncl_loss_param {
    lambda: 0.0001
    net_num: 64
  }
}
layer {
  name: "loss59"
  type: "NCLLoss"
  bottom: "score59"
  bottom: "label"
  bottom: "sumscore"
  top: "loss59"
  include {
    phase: TRAIN
  }
  ncl_loss_param {
    lambda: 0.0001
    net_num: 64
  }
}
layer {
  name: "loss60"
  type: "NCLLoss"
  bottom: "score60"
  bottom: "label"
  bottom: "sumscore"
  top: "loss60"
  include {
    phase: TRAIN
  }
  ncl_loss_param {
    lambda: 0.0001
    net_num: 64
  }
}
layer {
  name: "loss61"
  type: "NCLLoss"
  bottom: "score61"
  bottom: "label"
  bottom: "sumscore"
  top: "loss61"
  include {
    phase: TRAIN
  }
  ncl_loss_param {
    lambda: 0.0001
    net_num: 64
  }
}
layer {
  name: "loss62"
  type: "NCLLoss"
  bottom: "score62"
  bottom: "label"
  bottom: "sumscore"
  top: "loss62"
  include {
    phase: TRAIN
  }
  ncl_loss_param {
    lambda: 0.0001
    net_num: 64
  }
}
layer {
  name: "loss63"
  type: "NCLLoss"
  bottom: "score63"
  bottom: "label"
  bottom: "sumscore"
  top: "loss63"
  include {
    phase: TRAIN
  }
  ncl_loss_param {
    lambda: 0.0001
    net_num: 64
  }
}
layer {
  name: "loss64"
  type: "NCLLoss"
  bottom: "score64"
  bottom: "label"
  bottom: "sumscore"
  top: "loss64"
  include {
    phase: TRAIN
  }
  ncl_loss_param {
    lambda: 0.0001
    net_num: 64
  }
}
I0628 12:47:09.123637 20741 layer_factory.hpp:77] Creating layer data
I0628 12:47:09.123735 20741 db_lmdb.cpp:35] Opened lmdb /home/peiyong/Work/Zenglin/szl/ShanghaiTech/partA/train_8/image_lmdb
I0628 12:47:09.123761 20741 net.cpp:84] Creating Layer data
I0628 12:47:09.123769 20741 net.cpp:380] data -> data
I0628 12:47:09.124689 20741 data_layer.cpp:45] output data size: 1,3,384,512
I0628 12:47:09.130265 20741 net.cpp:122] Setting up data
I0628 12:47:09.130285 20741 net.cpp:129] Top shape: 1 3 384 512 (589824)
I0628 12:47:09.130288 20741 net.cpp:137] Memory required for data: 2359296
I0628 12:47:09.130293 20741 layer_factory.hpp:77] Creating layer label
I0628 12:47:09.130352 20741 db_lmdb.cpp:35] Opened lmdb /home/peiyong/Work/Zenglin/szl/ShanghaiTech/partA/train_8/dmap_lmdb
I0628 12:47:09.130368 20741 net.cpp:84] Creating Layer label
I0628 12:47:09.130374 20741 net.cpp:380] label -> label
I0628 12:47:09.131523 20741 data_layer.cpp:45] output data size: 1,1,48,64
I0628 12:47:09.132431 20741 net.cpp:122] Setting up label
I0628 12:47:09.132448 20741 net.cpp:129] Top shape: 1 1 48 64 (3072)
I0628 12:47:09.132452 20741 net.cpp:137] Memory required for data: 2371584
I0628 12:47:09.132454 20741 layer_factory.hpp:77] Creating layer label_label_0_split
I0628 12:47:09.132467 20741 net.cpp:84] Creating Layer label_label_0_split
I0628 12:47:09.132472 20741 net.cpp:406] label_label_0_split <- label
I0628 12:47:09.132486 20741 net.cpp:380] label_label_0_split -> label_label_0_split_0
…
I0628 12:47:09.133219 20741 net.cpp:380] label_label_0_split -> label_label_0_split_58
I0628 12:47:09.133229 20741 net.cpp:380] label_label_0_split -> label_label_0_split_59
I0628 12:47:09.133241 20741 net.cpp:380] label_label_0_split -> label_label_0_split_60
I0628 12:47:09.133254 20741 net.cpp:380] label_label_0_split -> label_label_0_split_61
I0628 12:47:09.133265 20741 net.cpp:380] label_label_0_split -> label_label_0_split_62
I0628 12:47:09.133282 20741 net.cpp:380] label_label_0_split -> label_label_0_split_63
I0628 12:47:09.133740 20741 net.cpp:122] Setting up label_label_0_split
I0628 12:47:09.133749 20741 net.cpp:129] Top shape: 1 1 48 64 (3072)
I0628 12:47:09.133752 20741 net.cpp:129] Top shape: 1 1 48 64 (3072)
I0628 12:47:09.133757 20741 net.cpp:129] Top shape: 1 1 48 64 (3072)
I0628 12:47:09.133761 20741 net.cpp:129] Top shape: 1 1 48 64 (3072)
I0628 12:47:09.133765 20741 net.cpp:129] Top shape: 1 1 48 64 (3072)
I0628 12:47:09.133770 20741 net.cpp:129] Top shape: 1 1 48 64 (3072)
I0628 12:47:09.133775 20741 net.cpp:129] Top shape: 1 1 48 64 (3072)
I0628 12:47:09.133780 20741 net.cpp:129] Top shape: 1 1 48 64 (3072)
I0628 12:47:09.133783 20741 net.cpp:129] Top shape: 1 1 48 64 (3072)
I0628 12:47:09.133796 20741 net.cpp:129] Top shape: 1 1 48 64 (3072)
I0628 12:47:09.133800 20741 net.cpp:129] Top shape: 1 1 48 64 (3072)
I0628 12:47:09.133805 20741 net.cpp:129] Top shape: 1 1 48 64 (3072)
I0628 12:47:09.133819 20741 net.cpp:129] Top shape: 1 1 48 64 (3072)
I0628 12:47:09.133823 20741 net.cpp:129] Top shape: 1 1 48 64 (3072)
I0628 12:47:09.133828 20741 net.cpp:129] Top shape: 1 1 48 64 (3072)
I0628 12:47:09.133832 20741 net.cpp:129] Top shape: 1 1 48 64 (3072)
I0628 12:47:09.136389 20741 net.cpp:129] Top shape: 1 1 48 64 (3072)
I0628 12:47:09.136394 20741 net.cpp:129] Top shape: 1 1 48 64 (3072)
I0628 12:47:09.136396 20741 net.cpp:129] Top shape: 1 1 48 64 (3072)
I0628 12:47:09.136400 20741 net.cpp:129] Top shape: 1 1 48 64 (3072)
I0628 12:47:09.136404 20741 net.cpp:129] Top shape: 1 1 48 64 (3072)
I0628 12:47:09.136406 20741 net.cpp:129] Top shape: 1 1 48 64 (3072)
I0628 12:47:09.136411 20741 net.cpp:129] Top shape: 1 1 48 64 (3072)
I0628 12:47:09.136416 20741 net.cpp:129] Top shape: 1 1 48 64 (3072)
I0628 12:47:09.136421 20741 net.cpp:129] Top shape: 1 1 48 64 (3072)
I0628 12:47:09.136425 20741 net.cpp:129] Top shape: 1 1 48 64 (3072)
I0628 12:47:09.136430 20741 net.cpp:129] Top shape: 1 1 48 64 (3072)
I0628 12:47:09.136435 20741 net.cpp:129] Top shape: 1 1 48 64 (3072)
I0628 12:47:09.136438 20741 net.cpp:129] Top shape: 1 1 48 64 (3072)
I0628 12:47:09.136442 20741 net.cpp:129] Top shape: 1 1 48 64 (3072)
I0628 12:47:09.136447 20741 net.cpp:129] Top shape: 1 1 48 64 (3072)
I0628 12:47:09.136451 20741 net.cpp:129] Top shape: 1 1 48 64 (3072)
I0628 12:47:09.136456 20741 net.cpp:129] Top shape: 1 1 48 64 (3072)
I0628 12:47:09.136461 20741 net.cpp:129] Top shape: 1 1 48 64 (3072)
I0628 12:47:09.136466 20741 net.cpp:129] Top shape: 1 1 48 64 (3072)
I0628 12:47:09.136469 20741 net.cpp:129] Top shape: 1 1 48 64 (3072)
I0628 12:47:09.136473 20741 net.cpp:129] Top shape: 1 1 48 64 (3072)
I0628 12:47:09.136477 20741 net.cpp:129] Top shape: 1 1 48 64 (3072)
I0628 12:47:09.136482 20741 net.cpp:129] Top shape: 1 1 48 64 (3072)
I0628 12:47:09.136487 20741 net.cpp:129] Top shape: 1 1 48 64 (3072)
I0628 12:47:09.136490 20741 net.cpp:129] Top shape: 1 1 48 64 (3072)
I0628 12:47:09.136495 20741 net.cpp:129] Top shape: 1 1 48 64 (3072)
I0628 12:47:09.136500 20741 net.cpp:129] Top shape: 1 1 48 64 (3072)
I0628 12:47:09.136508 20741 net.cpp:129] Top shape: 1 1 48 64 (3072)
I0628 12:47:09.136512 20741 net.cpp:129] Top shape: 1 1 48 64 (3072)
I0628 12:47:09.136518 20741 net.cpp:129] Top shape: 1 1 48 64 (3072)
I0628 12:47:09.136521 20741 net.cpp:129] Top shape: 1 1 48 64 (3072)
I0628 12:47:09.136533 20741 net.cpp:129] Top shape: 1 1 48 64 (3072)
I0628 12:47:09.136538 20741 net.cpp:129] Top shape: 1 1 48 64 (3072)
I0628 12:47:09.136543 20741 net.cpp:129] Top shape: 1 1 48 64 (3072)
I0628 12:47:09.136546 20741 net.cpp:129] Top shape: 1 1 48 64 (3072)
I0628 12:47:09.136551 20741 net.cpp:129] Top shape: 1 1 48 64 (3072)
I0628 12:47:09.136555 20741 net.cpp:129] Top shape: 1 1 48 64 (3072)
I0628 12:47:09.136560 20741 net.cpp:129] Top shape: 1 1 48 64 (3072)
I0628 12:47:09.136564 20741 net.cpp:129] Top shape: 1 1 48 64 (3072)
I0628 12:47:09.136569 20741 net.cpp:129] Top shape: 1 1 48 64 (3072)
I0628 12:47:09.136574 20741 net.cpp:129] Top shape: 1 1 48 64 (3072)
I0628 12:47:09.136577 20741 net.cpp:129] Top shape: 1 1 48 64 (3072)
I0628 12:47:09.136582 20741 net.cpp:129] Top shape: 1 1 48 64 (3072)
I0628 12:47:09.136586 20741 net.cpp:129] Top shape: 1 1 48 64 (3072)
I0628 12:47:09.136591 20741 net.cpp:129] Top shape: 1 1 48 64 (3072)
I0628 12:47:09.136595 20741 net.cpp:129] Top shape: 1 1 48 64 (3072)
I0628 12:47:09.136600 20741 net.cpp:129] Top shape: 1 1 48 64 (3072)
I0628 12:47:09.136605 20741 net.cpp:129] Top shape: 1 1 48 64 (3072)
I0628 12:47:09.136607 20741 net.cpp:137] Memory required for data: 3158016
I0628 12:47:09.136611 20741 layer_factory.hpp:77] Creating layer conv1_1
I0628 12:47:09.136626 20741 net.cpp:84] Creating Layer conv1_1
I0628 12:47:09.136631 20741 net.cpp:406] conv1_1 <- data
I0628 12:47:09.136654 20741 net.cpp:380] conv1_1 -> conv1_1
I0628 12:47:09.327931 20741 net.cpp:122] Setting up conv1_1
I0628 12:47:09.327957 20741 net.cpp:129] Top shape: 1 64 384 512 (12582912)
I0628 12:47:09.327960 20741 net.cpp:137] Memory required for data: 53489664
I0628 12:47:09.327980 20741 layer_factory.hpp:77] Creating layer relu1_1
I0628 12:47:09.327991 20741 net.cpp:84] Creating Layer relu1_1
I0628 12:47:09.327997 20741 net.cpp:406] relu1_1 <- conv1_1
I0628 12:47:09.328002 20741 net.cpp:367] relu1_1 -> conv1_1 (in-place)
I0628 12:47:09.328145 20741 net.cpp:122] Setting up relu1_1
I0628 12:47:09.328155 20741 net.cpp:129] Top shape: 1 64 384 512 (12582912)
I0628 12:47:09.328158 20741 net.cpp:137] Memory required for data: 103821312
I0628 12:47:09.328161 20741 layer_factory.hpp:77] Creating layer conv1_2
I0628 12:47:09.328173 20741 net.cpp:84] Creating Layer conv1_2
I0628 12:47:09.328177 20741 net.cpp:406] conv1_2 <- conv1_1
I0628 12:47:09.328183 20741 net.cpp:380] conv1_2 -> conv1_2
I0628 12:47:09.330976 20741 net.cpp:122] Setting up conv1_2
I0628 12:47:09.330987 20741 net.cpp:129] Top shape: 1 64 384 512 (12582912)
I0628 12:47:09.330991 20741 net.cpp:137] Memory required for data: 154152960
I0628 12:47:09.330997 20741 layer_factory.hpp:77] Creating layer relu1_2
I0628 12:47:09.331002 20741 net.cpp:84] Creating Layer relu1_2
I0628 12:47:09.331006 20741 net.cpp:406] relu1_2 <- conv1_2
I0628 12:47:09.331009 20741 net.cpp:367] relu1_2 -> conv1_2 (in-place)
I0628 12:47:09.331143 20741 net.cpp:122] Setting up relu1_2
I0628 12:47:09.331152 20741 net.cpp:129] Top shape: 1 64 384 512 (12582912)
I0628 12:47:09.331156 20741 net.cpp:137] Memory required for data: 204484608
I0628 12:47:09.331161 20741 layer_factory.hpp:77] Creating layer pool1
I0628 12:47:09.331166 20741 net.cpp:84] Creating Layer pool1
I0628 12:47:09.331171 20741 net.cpp:406] pool1 <- conv1_2
I0628 12:47:09.331176 20741 net.cpp:380] pool1 -> pool1
I0628 12:47:09.331218 20741 net.cpp:122] Setting up pool1
I0628 12:47:09.331224 20741 net.cpp:129] Top shape: 1 64 192 256 (3145728)
I0628 12:47:09.331228 20741 net.cpp:137] Memory required for data: 217067520
I0628 12:47:09.331230 20741 layer_factory.hpp:77] Creating layer conv2_1
I0628 12:47:09.331239 20741 net.cpp:84] Creating Layer conv2_1
I0628 12:47:09.331243 20741 net.cpp:406] conv2_1 <- pool1
I0628 12:47:09.331249 20741 net.cpp:380] conv2_1 -> conv2_1
I0628 12:47:09.333935 20741 net.cpp:122] Setting up conv2_1
I0628 12:47:09.333948 20741 net.cpp:129] Top shape: 1 128 192 256 (6291456)
I0628 12:47:09.333952 20741 net.cpp:137] Memory required for data: 242233344
I0628 12:47:09.333961 20741 layer_factory.hpp:77] Creating layer relu2_1
I0628 12:47:09.333967 20741 net.cpp:84] Creating Layer relu2_1
I0628 12:47:09.333971 20741 net.cpp:406] relu2_1 <- conv2_1
I0628 12:47:09.333977 20741 net.cpp:367] relu2_1 -> conv2_1 (in-place)
I0628 12:47:09.334508 20741 net.cpp:122] Setting up relu2_1
I0628 12:47:09.334518 20741 net.cpp:129] Top shape: 1 128 192 256 (6291456)
I0628 12:47:09.334522 20741 net.cpp:137] Memory required for data: 267399168
I0628 12:47:09.334527 20741 layer_factory.hpp:77] Creating layer conv2_2
I0628 12:47:09.334537 20741 net.cpp:84] Creating Layer conv2_2
I0628 12:47:09.334542 20741 net.cpp:406] conv2_2 <- conv2_1
I0628 12:47:09.334547 20741 net.cpp:380] conv2_2 -> conv2_2
I0628 12:47:09.337502 20741 net.cpp:122] Setting up conv2_2
I0628 12:47:09.337514 20741 net.cpp:129] Top shape: 1 128 192 256 (6291456)
I0628 12:47:09.337518 20741 net.cpp:137] Memory required for data: 292564992
I0628 12:47:09.337524 20741 layer_factory.hpp:77] Creating layer relu2_2
I0628 12:47:09.337530 20741 net.cpp:84] Creating Layer relu2_2
I0628 12:47:09.337534 20741 net.cpp:406] relu2_2 <- conv2_2
I0628 12:47:09.337540 20741 net.cpp:367] relu2_2 -> conv2_2 (in-place)
I0628 12:47:09.337687 20741 net.cpp:122] Setting up relu2_2
I0628 12:47:09.337695 20741 net.cpp:129] Top shape: 1 128 192 256 (6291456)
I0628 12:47:09.337698 20741 net.cpp:137] Memory required for data: 317730816
I0628 12:47:09.337702 20741 layer_factory.hpp:77] Creating layer pool2
I0628 12:47:09.337729 20741 net.cpp:84] Creating Layer pool2
I0628 12:47:09.337734 20741 net.cpp:406] pool2 <- conv2_2
I0628 12:47:09.337741 20741 net.cpp:380] pool2 -> pool2
I0628 12:47:09.337779 20741 net.cpp:122] Setting up pool2
I0628 12:47:09.337786 20741 net.cpp:129] Top shape: 1 128 96 128 (1572864)
I0628 12:47:09.337790 20741 net.cpp:137] Memory required for data: 324022272
I0628 12:47:09.337791 20741 layer_factory.hpp:77] Creating layer conv3_1
I0628 12:47:09.337800 20741 net.cpp:84] Creating Layer conv3_1
I0628 12:47:09.337805 20741 net.cpp:406] conv3_1 <- pool2
I0628 12:47:09.337810 20741 net.cpp:380] conv3_1 -> conv3_1
I0628 12:47:09.342625 20741 net.cpp:122] Setting up conv3_1
I0628 12:47:09.342639 20741 net.cpp:129] Top shape: 1 256 96 128 (3145728)
I0628 12:47:09.342643 20741 net.cpp:137] Memory required for data: 336605184
I0628 12:47:09.342651 20741 layer_factory.hpp:77] Creating layer relu3_1
I0628 12:47:09.342658 20741 net.cpp:84] Creating Layer relu3_1
I0628 12:47:09.342663 20741 net.cpp:406] relu3_1 <- conv3_1
I0628 12:47:09.342667 20741 net.cpp:367] relu3_1 -> conv3_1 (in-place)
I0628 12:47:09.342820 20741 net.cpp:122] Setting up relu3_1
I0628 12:47:09.342829 20741 net.cpp:129] Top shape: 1 256 96 128 (3145728)
I0628 12:47:09.342833 20741 net.cpp:137] Memory required for data: 349188096
I0628 12:47:09.342838 20741 layer_factory.hpp:77] Creating layer conv3_2
I0628 12:47:09.342846 20741 net.cpp:84] Creating Layer conv3_2
I0628 12:47:09.342850 20741 net.cpp:406] conv3_2 <- conv3_1
I0628 12:47:09.342857 20741 net.cpp:380] conv3_2 -> conv3_2
I0628 12:47:09.349941 20741 net.cpp:122] Setting up conv3_2
I0628 12:47:09.349954 20741 net.cpp:129] Top shape: 1 256 96 128 (3145728)
I0628 12:47:09.349957 20741 net.cpp:137] Memory required for data: 361771008
I0628 12:47:09.349962 20741 layer_factory.hpp:77] Creating layer relu3_2
I0628 12:47:09.349970 20741 net.cpp:84] Creating Layer relu3_2
I0628 12:47:09.349973 20741 net.cpp:406] relu3_2 <- conv3_2
I0628 12:47:09.349977 20741 net.cpp:367] relu3_2 -> conv3_2 (in-place)
I0628 12:47:09.350507 20741 net.cpp:122] Setting up relu3_2
I0628 12:47:09.350517 20741 net.cpp:129] Top shape: 1 256 96 128 (3145728)
I0628 12:47:09.350519 20741 net.cpp:137] Memory required for data: 374353920
I0628 12:47:09.350522 20741 layer_factory.hpp:77] Creating layer conv3_3
I0628 12:47:09.350533 20741 net.cpp:84] Creating Layer conv3_3
I0628 12:47:09.350536 20741 net.cpp:406] conv3_3 <- conv3_2
I0628 12:47:09.350541 20741 net.cpp:380] conv3_3 -> conv3_3
I0628 12:47:09.357636 20741 net.cpp:122] Setting up conv3_3
I0628 12:47:09.357650 20741 net.cpp:129] Top shape: 1 256 96 128 (3145728)
I0628 12:47:09.357653 20741 net.cpp:137] Memory required for data: 386936832
I0628 12:47:09.357658 20741 layer_factory.hpp:77] Creating layer relu3_3
I0628 12:47:09.357664 20741 net.cpp:84] Creating Layer relu3_3
I0628 12:47:09.357669 20741 net.cpp:406] relu3_3 <- conv3_3
I0628 12:47:09.357676 20741 net.cpp:367] relu3_3 -> conv3_3 (in-place)
I0628 12:47:09.357825 20741 net.cpp:122] Setting up relu3_3
I0628 12:47:09.357834 20741 net.cpp:129] Top shape: 1 256 96 128 (3145728)
I0628 12:47:09.357837 20741 net.cpp:137] Memory required for data: 399519744
I0628 12:47:09.357842 20741 layer_factory.hpp:77] Creating layer pool3
I0628 12:47:09.357851 20741 net.cpp:84] Creating Layer pool3
I0628 12:47:09.357856 20741 net.cpp:406] pool3 <- conv3_3
I0628 12:47:09.357861 20741 net.cpp:380] pool3 -> pool3
I0628 12:47:09.357899 20741 net.cpp:122] Setting up pool3
I0628 12:47:09.357905 20741 net.cpp:129] Top shape: 1 256 48 64 (786432)
I0628 12:47:09.357909 20741 net.cpp:137] Memory required for data: 402665472
I0628 12:47:09.357913 20741 layer_factory.hpp:77] Creating layer conv4_1
I0628 12:47:09.357925 20741 net.cpp:84] Creating Layer conv4_1
I0628 12:47:09.357929 20741 net.cpp:406] conv4_1 <- pool3
I0628 12:47:09.357934 20741 net.cpp:380] conv4_1 -> conv4_1
I0628 12:47:09.371090 20741 net.cpp:122] Setting up conv4_1
I0628 12:47:09.371114 20741 net.cpp:129] Top shape: 1 512 48 64 (1572864)
I0628 12:47:09.371140 20741 net.cpp:137] Memory required for data: 408956928
I0628 12:47:09.371151 20741 layer_factory.hpp:77] Creating layer relu4_1
I0628 12:47:09.371160 20741 net.cpp:84] Creating Layer relu4_1
I0628 12:47:09.371165 20741 net.cpp:406] relu4_1 <- conv4_1
I0628 12:47:09.371175 20741 net.cpp:367] relu4_1 -> conv4_1 (in-place)
I0628 12:47:09.371327 20741 net.cpp:122] Setting up relu4_1
I0628 12:47:09.371336 20741 net.cpp:129] Top shape: 1 512 48 64 (1572864)
I0628 12:47:09.371340 20741 net.cpp:137] Memory required for data: 415248384
I0628 12:47:09.371345 20741 layer_factory.hpp:77] Creating layer conv4_2
I0628 12:47:09.371356 20741 net.cpp:84] Creating Layer conv4_2
I0628 12:47:09.371359 20741 net.cpp:406] conv4_2 <- conv4_1
I0628 12:47:09.371369 20741 net.cpp:380] conv4_2 -> conv4_2
I0628 12:47:09.393885 20741 net.cpp:122] Setting up conv4_2
I0628 12:47:09.393910 20741 net.cpp:129] Top shape: 1 512 48 64 (1572864)
I0628 12:47:09.393914 20741 net.cpp:137] Memory required for data: 421539840
I0628 12:47:09.393930 20741 layer_factory.hpp:77] Creating layer relu4_2
I0628 12:47:09.393939 20741 net.cpp:84] Creating Layer relu4_2
I0628 12:47:09.393945 20741 net.cpp:406] relu4_2 <- conv4_2
I0628 12:47:09.393954 20741 net.cpp:367] relu4_2 -> conv4_2 (in-place)
I0628 12:47:09.394489 20741 net.cpp:122] Setting up relu4_2
I0628 12:47:09.394500 20741 net.cpp:129] Top shape: 1 512 48 64 (1572864)
I0628 12:47:09.394503 20741 net.cpp:137] Memory required for data: 427831296
I0628 12:47:09.394508 20741 layer_factory.hpp:77] Creating layer conv4_3
I0628 12:47:09.394520 20741 net.cpp:84] Creating Layer conv4_3
I0628 12:47:09.394523 20741 net.cpp:406] conv4_3 <- conv4_2
I0628 12:47:09.394531 20741 net.cpp:380] conv4_3 -> conv4_3
I0628 12:47:09.417081 20741 net.cpp:122] Setting up conv4_3
I0628 12:47:09.417105 20741 net.cpp:129] Top shape: 1 512 48 64 (1572864)
I0628 12:47:09.417107 20741 net.cpp:137] Memory required for data: 434122752
I0628 12:47:09.417115 20741 layer_factory.hpp:77] Creating layer relu4_3
I0628 12:47:09.417124 20741 net.cpp:84] Creating Layer relu4_3
I0628 12:47:09.417129 20741 net.cpp:406] relu4_3 <- conv4_3
I0628 12:47:09.417136 20741 net.cpp:367] relu4_3 -> conv4_3 (in-place)
I0628 12:47:09.417286 20741 net.cpp:122] Setting up relu4_3
I0628 12:47:09.417295 20741 net.cpp:129] Top shape: 1 512 48 64 (1572864)
I0628 12:47:09.417299 20741 net.cpp:137] Memory required for data: 440414208
I0628 12:47:09.417302 20741 layer_factory.hpp:77] Creating layer pool4
I0628 12:47:09.417310 20741 net.cpp:84] Creating Layer pool4
I0628 12:47:09.417315 20741 net.cpp:406] pool4 <- conv4_3
I0628 12:47:09.417320 20741 net.cpp:380] pool4 -> pool4
I0628 12:47:09.417362 20741 net.cpp:122] Setting up pool4
I0628 12:47:09.417368 20741 net.cpp:129] Top shape: 1 512 48 64 (1572864)
I0628 12:47:09.417372 20741 net.cpp:137] Memory required for data: 446705664
I0628 12:47:09.417376 20741 layer_factory.hpp:77] Creating layer conv5_1
I0628 12:47:09.417387 20741 net.cpp:84] Creating Layer conv5_1
I0628 12:47:09.417390 20741 net.cpp:406] conv5_1 <- pool4
I0628 12:47:09.417397 20741 net.cpp:380] conv5_1 -> conv5_1
I0628 12:47:09.438639 20741 net.cpp:122] Setting up conv5_1
I0628 12:47:09.438664 20741 net.cpp:129] Top shape: 1 512 48 64 (1572864)
I0628 12:47:09.438666 20741 net.cpp:137] Memory required for data: 452997120
I0628 12:47:09.438673 20741 layer_factory.hpp:77] Creating layer relu5_1
I0628 12:47:09.438683 20741 net.cpp:84] Creating Layer relu5_1
I0628 12:47:09.438688 20741 net.cpp:406] relu5_1 <- conv5_1
I0628 12:47:09.438694 20741 net.cpp:367] relu5_1 -> conv5_1 (in-place)
I0628 12:47:09.439317 20741 net.cpp:122] Setting up relu5_1
I0628 12:47:09.439329 20741 net.cpp:129] Top shape: 1 512 48 64 (1572864)
I0628 12:47:09.439332 20741 net.cpp:137] Memory required for data: 459288576
I0628 12:47:09.439334 20741 layer_factory.hpp:77] Creating layer conv5_2
I0628 12:47:09.439343 20741 net.cpp:84] Creating Layer conv5_2
I0628 12:47:09.439348 20741 net.cpp:406] conv5_2 <- conv5_1
I0628 12:47:09.439354 20741 net.cpp:380] conv5_2 -> conv5_2
I0628 12:47:09.460621 20741 net.cpp:122] Setting up conv5_2
I0628 12:47:09.460657 20741 net.cpp:129] Top shape: 1 512 48 64 (1572864)
I0628 12:47:09.460664 20741 net.cpp:137] Memory required for data: 465580032
I0628 12:47:09.460672 20741 layer_factory.hpp:77] Creating layer relu5_2
I0628 12:47:09.460681 20741 net.cpp:84] Creating Layer relu5_2
I0628 12:47:09.460687 20741 net.cpp:406] relu5_2 <- conv5_2
I0628 12:47:09.460695 20741 net.cpp:367] relu5_2 -> conv5_2 (in-place)
I0628 12:47:09.460897 20741 net.cpp:122] Setting up relu5_2
I0628 12:47:09.460906 20741 net.cpp:129] Top shape: 1 512 48 64 (1572864)
I0628 12:47:09.460911 20741 net.cpp:137] Memory required for data: 471871488
I0628 12:47:09.460913 20741 layer_factory.hpp:77] Creating layer conv5_3
I0628 12:47:09.460924 20741 net.cpp:84] Creating Layer conv5_3
I0628 12:47:09.460928 20741 net.cpp:406] conv5_3 <- conv5_2
I0628 12:47:09.460937 20741 net.cpp:380] conv5_3 -> conv5_3
I0628 12:47:09.482336 20741 net.cpp:122] Setting up conv5_3
I0628 12:47:09.482364 20741 net.cpp:129] Top shape: 1 512 48 64 (1572864)
I0628 12:47:09.482367 20741 net.cpp:137] Memory required for data: 478162944
I0628 12:47:09.482373 20741 layer_factory.hpp:77] Creating layer relu5_3
I0628 12:47:09.482385 20741 net.cpp:84] Creating Layer relu5_3
I0628 12:47:09.482390 20741 net.cpp:406] relu5_3 <- conv5_3
I0628 12:47:09.482398 20741 net.cpp:367] relu5_3 -> conv5_3 (in-place)
I0628 12:47:09.483047 20741 net.cpp:122] Setting up relu5_3
I0628 12:47:09.483057 20741 net.cpp:129] Top shape: 1 512 48 64 (1572864)
I0628 12:47:09.483060 20741 net.cpp:137] Memory required for data: 484454400
I0628 12:47:09.483062 20741 layer_factory.hpp:77] Creating layer conv_score
I0628 12:47:09.483075 20741 net.cpp:84] Creating Layer conv_score
I0628 12:47:09.483080 20741 net.cpp:406] conv_score <- conv5_3
I0628 12:47:09.483088 20741 net.cpp:380] conv_score -> conv_score
I0628 12:47:09.557422 20741 net.cpp:122] Setting up conv_score
I0628 12:47:09.557447 20741 net.cpp:129] Top shape: 1 64 48 64 (196608)
I0628 12:47:09.557451 20741 net.cpp:137] Memory required for data: 485240832
I0628 12:47:09.557459 20741 layer_factory.hpp:77] Creating layer relu_score
I0628 12:47:09.557468 20741 net.cpp:84] Creating Layer relu_score
I0628 12:47:09.557474 20741 net.cpp:406] relu_score <- conv_score
I0628 12:47:09.557482 20741 net.cpp:367] relu_score -> conv_score (in-place)
I0628 12:47:09.557657 20741 net.cpp:122] Setting up relu_score
I0628 12:47:09.557665 20741 net.cpp:129] Top shape: 1 64 48 64 (196608)
I0628 12:47:09.557668 20741 net.cpp:137] Memory required for data: 486027264
I0628 12:47:09.557672 20741 layer_factory.hpp:77] Creating layer slicer_conv
I0628 12:47:09.557683 20741 net.cpp:84] Creating Layer slicer_conv
I0628 12:47:09.557687 20741 net.cpp:406] slicer_conv <- conv_score
I0628 12:47:09.557699 20741 net.cpp:380] slicer_conv -> score1
I0628 12:47:09.557711 20741 net.cpp:380] slicer_conv -> score2
…
I0628 12:47:09.558192 20741 net.cpp:380] slicer_conv -> score57
I0628 12:47:09.558199 20741 net.cpp:380] slicer_conv -> score58
I0628 12:47:09.558207 20741 net.cpp:380] slicer_conv -> score59
I0628 12:47:09.558215 20741 net.cpp:380] slicer_conv -> score60
I0628 12:47:09.558223 20741 net.cpp:380] slicer_conv -> score61
I0628 12:47:09.558231 20741 net.cpp:380] slicer_conv -> score62
I0628 12:47:09.558239 20741 net.cpp:380] slicer_conv -> score63
I0628 12:47:09.558248 20741 net.cpp:380] slicer_conv -> score64
I0628 12:47:09.559027 20741 net.cpp:122] Setting up slicer_conv
I0628 12:47:09.559034 20741 net.cpp:129] Top shape: 1 1 48 64 (3072)
I0628 12:47:09.559041 20741 net.cpp:129] Top shape: 1 1 48 64 (3072)
I0628 12:47:09.559044 20741 net.cpp:129] Top shape: 1 1 48 64 (3072)
I0628 12:47:09.559047 20741 net.cpp:129] Top shape: 1 1 48 64 (3072)
I0628 12:47:09.559051 20741 net.cpp:129] Top shape: 1 1 48 64 (3072)
I0628 12:47:09.559056 20741 net.cpp:129] Top shape: 1 1 48 64 (3072)
I0628 12:47:09.559059 20741 net.cpp:129] Top shape: 1 1 48 64 (3072)
I0628 12:47:09.559063 20741 net.cpp:129] Top shape: 1 1 48 64 (3072)
I0628 12:47:09.559067 20741 net.cpp:129] Top shape: 1 1 48 64 (3072)
I0628 12:47:09.559072 20741 net.cpp:129] Top shape: 1 1 48 64 (3072)
I0628 12:47:09.559075 20741 net.cpp:129] Top shape: 1 1 48 64 (3072)
I0628 12:47:09.559079 20741 net.cpp:129] Top shape: 1 1 48 64 (3072)
I0628 12:47:09.559083 20741 net.cpp:129] Top shape: 1 1 48 64 (3072)
I0628 12:47:09.559087 20741 net.cpp:129] Top shape: 1 1 48 64 (3072)
I0628 12:47:09.559090 20741 net.cpp:129] Top shape: 1 1 48 64 (3072)
I0628 12:47:09.559094 20741 net.cpp:129] Top shape: 1 1 48 64 (3072)
I0628 12:47:09.559098 20741 net.cpp:129] Top shape: 1 1 48 64 (3072)
I0628 12:47:09.559103 20741 net.cpp:129] Top shape: 1 1 48 64 (3072)
I0628 12:47:09.559113 20741 net.cpp:129] Top shape: 1 1 48 64 (3072)
I0628 12:47:09.559118 20741 net.cpp:129] Top shape: 1 1 48 64 (3072)
I0628 12:47:09.559121 20741 net.cpp:129] Top shape: 1 1 48 64 (3072)
I0628 12:47:09.559125 20741 net.cpp:129] Top shape: 1 1 48 64 (3072)
I0628 12:47:09.559128 20741 net.cpp:129] Top shape: 1 1 48 64 (3072)
I0628 12:47:09.559132 20741 net.cpp:129] Top shape: 1 1 48 64 (3072)
I0628 12:47:09.559136 20741 net.cpp:129] Top shape: 1 1 48 64 (3072)
I0628 12:47:09.559140 20741 net.cpp:129] Top shape: 1 1 48 64 (3072)
I0628 12:47:09.559144 20741 net.cpp:129] Top shape: 1 1 48 64 (3072)
I0628 12:47:09.559149 20741 net.cpp:129] Top shape: 1 1 48 64 (3072)
I0628 12:47:09.559151 20741 net.cpp:129] Top shape: 1 1 48 64 (3072)
I0628 12:47:09.559155 20741 net.cpp:129] Top shape: 1 1 48 64 (3072)
I0628 12:47:09.559159 20741 net.cpp:129] Top shape: 1 1 48 64 (3072)
I0628 12:47:09.559164 20741 net.cpp:129] Top shape: 1 1 48 64 (3072)
I0628 12:47:09.559167 20741 net.cpp:129] Top shape: 1 1 48 64 (3072)
I0628 12:47:09.559170 20741 net.cpp:129] Top shape: 1 1 48 64 (3072)
I0628 12:47:09.559175 20741 net.cpp:129] Top shape: 1 1 48 64 (3072)
I0628 12:47:09.559178 20741 net.cpp:129] Top shape: 1 1 48 64 (3072)
I0628 12:47:09.559181 20741 net.cpp:129] Top shape: 1 1 48 64 (3072)
I0628 12:47:09.559185 20741 net.cpp:129] Top shape: 1 1 48 64 (3072)
I0628 12:47:09.559190 20741 net.cpp:129] Top shape: 1 1 48 64 (3072)
I0628 12:47:09.559193 20741 net.cpp:129] Top shape: 1 1 48 64 (3072)
I0628 12:47:09.559196 20741 net.cpp:129] Top shape: 1 1 48 64 (3072)
I0628 12:47:09.559201 20741 net.cpp:129] Top shape: 1 1 48 64 (3072)
I0628 12:47:09.559204 20741 net.cpp:129] Top shape: 1 1 48 64 (3072)
I0628 12:47:09.559208 20741 net.cpp:129] Top shape: 1 1 48 64 (3072)
I0628 12:47:09.559212 20741 net.cpp:129] Top shape: 1 1 48 64 (3072)
I0628 12:47:09.559216 20741 net.cpp:129] Top shape: 1 1 48 64 (3072)
I0628 12:47:09.559221 20741 net.cpp:129] Top shape: 1 1 48 64 (3072)
I0628 12:47:09.559224 20741 net.cpp:129] Top shape: 1 1 48 64 (3072)
I0628 12:47:09.559227 20741 net.cpp:129] Top shape: 1 1 48 64 (3072)
I0628 12:47:09.559231 20741 net.cpp:129] Top shape: 1 1 48 64 (3072)
I0628 12:47:09.559236 20741 net.cpp:129] Top shape: 1 1 48 64 (3072)
I0628 12:47:09.559238 20741 net.cpp:129] Top shape: 1 1 48 64 (3072)
I0628 12:47:09.559242 20741 net.cpp:129] Top shape: 1 1 48 64 (3072)
I0628 12:47:09.559247 20741 net.cpp:129] Top shape: 1 1 48 64 (3072)
I0628 12:47:09.559250 20741 net.cpp:129] Top shape: 1 1 48 64 (3072)
I0628 12:47:09.559254 20741 net.cpp:129] Top shape: 1 1 48 64 (3072)
I0628 12:47:09.559257 20741 net.cpp:129] Top shape: 1 1 48 64 (3072)
I0628 12:47:09.559262 20741 net.cpp:129] Top shape: 1 1 48 64 (3072)
I0628 12:47:09.559265 20741 net.cpp:129] Top shape: 1 1 48 64 (3072)
I0628 12:47:09.559269 20741 net.cpp:129] Top shape: 1 1 48 64 (3072)
I0628 12:47:09.559273 20741 net.cpp:129] Top shape: 1 1 48 64 (3072)
I0628 12:47:09.559276 20741 net.cpp:129] Top shape: 1 1 48 64 (3072)
I0628 12:47:09.559280 20741 net.cpp:129] Top shape: 1 1 48 64 (3072)
I0628 12:47:09.559283 20741 net.cpp:129] Top shape: 1 1 48 64 (3072)
I0628 12:47:09.559286 20741 net.cpp:137] Memory required for data: 486813696
I0628 12:47:09.559290 20741 layer_factory.hpp:77] Creating layer score1_slicer_conv_0_split
I0628 12:47:09.559296 20741 net.cpp:84] Creating Layer score1_slicer_conv_0_split
I0628 12:47:09.559300 20741 net.cpp:406] score1_slicer_conv_0_split <- score1
I0628 12:47:09.559307 20741 net.cpp:380] score1_slicer_conv_0_split -> score1_slicer_conv_0_split_0
I0628 12:47:09.559314 20741 net.cpp:380] score1_slicer_conv_0_split -> score1_slicer_conv_0_split_1
I0628 12:47:09.559356 20741 net.cpp:122] Setting up score1_slicer_conv_0_split
I0628 12:47:09.559363 20741 net.cpp:129] Top shape: 1 1 48 64 (3072)
I0628 12:47:09.559367 20741 net.cpp:129] Top shape: 1 1 48 64 (3072)
I0628 12:47:09.559370 20741 net.cpp:137] Memory required for data: 486838272
I0628 12:47:09.559373 20741 layer_factory.hpp:77] Creating layer score2_slicer_conv_1_split
I0628 12:47:09.559384 20741 net.cpp:84] Creating Layer score2_slicer_conv_1_split
I0628 12:47:09.559388 20741 net.cpp:406] score2_slicer_conv_1_split <- score2
I0628 12:47:09.559394 20741 net.cpp:380] score2_slicer_conv_1_split -> score2_slicer_conv_1_split_0
I0628 12:47:09.559401 20741 net.cpp:380] score2_slicer_conv_1_split -> score2_slicer_conv_1_split_1
I0628 12:47:09.559442 20741 net.cpp:122] Setting up score2_slicer_conv_1_split
I0628 12:47:09.559448 20741 net.cpp:129] Top shape: 1 1 48 64 (3072)
I0628 12:47:09.559451 20741 net.cpp:129] Top shape: 1 1 48 64 (3072)
I0628 12:47:09.559454 20741 net.cpp:137] Memory required for data: 486862848
I0628 12:47:09.559458 20741 layer_factory.hpp:77] Creating layer score3_slicer_conv_2_split
I0628 12:47:09.559463 20741 net.cpp:84] Creating Layer score3_slicer_conv_2_split
I0628 12:47:09.559465 20741 net.cpp:406] score3_slicer_conv_2_split <- score3
I0628 12:47:09.559473 20741 net.cpp:380] score3_slicer_conv_2_split -> score3_slicer_conv_2_split_0
I0628 12:47:09.559478 20741 net.cpp:380] score3_slicer_conv_2_split -> score3_slicer_conv_2_split_1
I0628 12:47:09.559515 20741 net.cpp:122] Setting up score3_slicer_conv_2_split
I0628 12:47:09.559521 20741 net.cpp:129] Top shape: 1 1 48 64 (3072)
I0628 12:47:09.559525 20741 net.cpp:129] Top shape: 1 1 48 64 (3072)
I0628 12:47:09.559528 20741 net.cpp:137] Memory required for data: 486887424
I0628 12:47:09.559531 20741 layer_factory.hpp:77] Creating layer score4_slicer_conv_3_split
I0628 12:47:09.559536 20741 net.cpp:84] Creating Layer score4_slicer_conv_3_split
I0628 12:47:09.559540 20741 net.cpp:406] score4_slicer_conv_3_split <- score4
I0628 12:47:09.559546 20741 net.cpp:380] score4_slicer_conv_3_split -> score4_slicer_conv_3_split_0
I0628 12:47:09.559552 20741 net.cpp:380] score4_slicer_conv_3_split -> score4_slicer_conv_3_split_1
I0628 12:47:09.559590 20741 net.cpp:122] Setting up score4_slicer_conv_3_split
I0628 12:47:09.559597 20741 net.cpp:129] Top shape: 1 1 48 64 (3072)
I0628 12:47:09.559600 20741 net.cpp:129] Top shape: 1 1 48 64 (3072)
I0628 12:47:09.559604 20741 net.cpp:137] Memory required for data: 486912000
I0628 12:47:09.559608 20741 layer_factory.hpp:77] Creating layer score5_slicer_conv_4_split
I0628 12:47:09.559617 20741 net.cpp:84] Creating Layer score5_slicer_conv_4_split
I0628 12:47:09.559623 20741 net.cpp:406] score5_slicer_conv_4_split <- score5
I0628 12:47:09.559628 20741 net.cpp:380] score5_slicer_conv_4_split -> score5_slicer_conv_4_split_0
I0628 12:47:09.559634 20741 net.cpp:380] score5_slicer_conv_4_split -> score5_slicer_conv_4_split_1
I0628 12:47:09.559671 20741 net.cpp:122] Setting up score5_slicer_conv_4_split
I0628 12:47:09.559677 20741 net.cpp:129] Top shape: 1 1 48 64 (3072)
I0628 12:47:09.559681 20741 net.cpp:129] Top shape: 1 1 48 64 (3072)
I0628 12:47:09.559684 20741 net.cpp:137] Memory required for data: 486936576
I0628 12:47:09.559689 20741 layer_factory.hpp:77] Creating layer score6_slicer_conv_5_split
I0628 12:47:09.559693 20741 net.cpp:84] Creating Layer score6_slicer_conv_5_split
I0628 12:47:09.559696 20741 net.cpp:406] score6_slicer_conv_5_split <- score6
I0628 12:47:09.559701 20741 net.cpp:380] score6_slicer_conv_5_split -> score6_slicer_conv_5_split_0
I0628 12:47:09.559707 20741 net.cpp:380] score6_slicer_conv_5_split -> score6_slicer_conv_5_split_1
I0628 12:47:09.559743 20741 net.cpp:122] Setting up score6_slicer_conv_5_split
I0628 12:47:09.559749 20741 net.cpp:129] Top shape: 1 1 48 64 (3072)
I0628 12:47:09.559753 20741 net.cpp:129] Top shape: 1 1 48 64 (3072)
I0628 12:47:09.559756 20741 net.cpp:137] Memory required for data: 486961152
I0628 12:47:09.559759 20741 layer_factory.hpp:77] Creating layer score7_slicer_conv_6_split
I0628 12:47:09.559765 20741 net.cpp:84] Creating Layer score7_slicer_conv_6_split
I0628 12:47:09.559769 20741 net.cpp:406] score7_slicer_conv_6_split <- score7
I0628 12:47:09.559774 20741 net.cpp:380] score7_slicer_conv_6_split -> score7_slicer_conv_6_split_0
I0628 12:47:09.559780 20741 net.cpp:380] score7_slicer_conv_6_split -> score7_slicer_conv_6_split_1
I0628 12:47:09.559826 20741 net.cpp:122] Setting up score7_slicer_conv_6_split
I0628 12:47:09.559833 20741 net.cpp:129] Top shape: 1 1 48 64 (3072)
I0628 12:47:09.559836 20741 net.cpp:129] Top shape: 1 1 48 64 (3072)
I0628 12:47:09.559840 20741 net.cpp:137] Memory required for data: 486985728
I0628 12:47:09.559844 20741 layer_factory.hpp:77] Creating layer score8_slicer_conv_7_split
I0628 12:47:09.559849 20741 net.cpp:84] Creating Layer score8_slicer_conv_7_split
I0628 12:47:09.559852 20741 net.cpp:406] score8_slicer_conv_7_split <- score8
I0628 12:47:09.559857 20741 net.cpp:380] score8_slicer_conv_7_split -> score8_slicer_conv_7_split_0
I0628 12:47:09.559864 20741 net.cpp:380] score8_slicer_conv_7_split -> score8_slicer_conv_7_split_1
I0628 12:47:09.559901 20741 net.cpp:122] Setting up score8_slicer_conv_7_split
I0628 12:47:09.559906 20741 net.cpp:129] Top shape: 1 1 48 64 (3072)
I0628 12:47:09.559911 20741 net.cpp:129] Top shape: 1 1 48 64 (3072)
I0628 12:47:09.559913 20741 net.cpp:137] Memory required for data: 487010304
I0628 12:47:09.559917 20741 layer_factory.hpp:77] Creating layer score9_slicer_conv_8_split
I0628 12:47:09.559921 20741 net.cpp:84] Creating Layer score9_slicer_conv_8_split
I0628 12:47:09.559926 20741 net.cpp:406] score9_slicer_conv_8_split <- score9
I0628 12:47:09.559931 20741 net.cpp:380] score9_slicer_conv_8_split -> score9_slicer_conv_8_split_0
I0628 12:47:09.559937 20741 net.cpp:380] score9_slicer_conv_8_split -> score9_slicer_conv_8_split_1
I0628 12:47:09.559973 20741 net.cpp:122] Setting up score9_slicer_conv_8_split
I0628 12:47:09.559978 20741 net.cpp:129] Top shape: 1 1 48 64 (3072)
I0628 12:47:09.559983 20741 net.cpp:129] Top shape: 1 1 48 64 (3072)
I0628 12:47:09.559985 20741 net.cpp:137] Memory required for data: 487034880
I0628 12:47:09.559988 20741 layer_factory.hpp:77] Creating layer score10_slicer_conv_9_split
I0628 12:47:09.559993 20741 net.cpp:84] Creating Layer score10_slicer_conv_9_split
I0628 12:47:09.559998 20741 net.cpp:406] score10_slicer_conv_9_split <- score10
I0628 12:47:09.560003 20741 net.cpp:380] score10_slicer_conv_9_split -> score10_slicer_conv_9_split_0
I0628 12:47:09.560009 20741 net.cpp:380] score10_slicer_conv_9_split -> score10_slicer_conv_9_split_1
I0628 12:47:09.560045 20741 net.cpp:122] Setting up score10_slicer_conv_9_split
I0628 12:47:09.560050 20741 net.cpp:129] Top shape: 1 1 48 64 (3072)
I0628 12:47:09.560055 20741 net.cpp:129] Top shape: 1 1 48 64 (3072)
I0628 12:47:09.560057 20741 net.cpp:137] Memory required for data: 487059456
I0628 12:47:09.560060 20741 layer_factory.hpp:77] Creating layer score11_slicer_conv_10_split
I0628 12:47:09.560065 20741 net.cpp:84] Creating Layer score11_slicer_conv_10_split
I0628 12:47:09.560070 20741 net.cpp:406] score11_slicer_conv_10_split <- score11
I0628 12:47:09.560075 20741 net.cpp:380] score11_slicer_conv_10_split -> score11_slicer_conv_10_split_0
I0628 12:47:09.560081 20741 net.cpp:380] score11_slicer_conv_10_split -> score11_slicer_conv_10_split_1
I0628 12:47:09.560117 20741 net.cpp:122] Setting up score11_slicer_conv_10_split
I0628 12:47:09.560122 20741 net.cpp:129] Top shape: 1 1 48 64 (3072)
I0628 12:47:09.560127 20741 net.cpp:129] Top shape: 1 1 48 64 (3072)
I0628 12:47:09.560129 20741 net.cpp:137] Memory required for data: 487084032
I0628 12:47:09.560133 20741 layer_factory.hpp:77] Creating layer score12_slicer_conv_11_split
I0628 12:47:09.560140 20741 net.cpp:84] Creating Layer score12_slicer_conv_11_split
I0628 12:47:09.560144 20741 net.cpp:406] score12_slicer_conv_11_split <- score12
I0628 12:47:09.560149 20741 net.cpp:380] score12_slicer_conv_11_split -> score12_slicer_conv_11_split_0
I0628 12:47:09.560154 20741 net.cpp:380] score12_slicer_conv_11_split -> score12_slicer_conv_11_split_1
I0628 12:47:09.560191 20741 net.cpp:122] Setting up score12_slicer_conv_11_split
I0628 12:47:09.560197 20741 net.cpp:129] Top shape: 1 1 48 64 (3072)
I0628 12:47:09.560200 20741 net.cpp:129] Top shape: 1 1 48 64 (3072)
I0628 12:47:09.560204 20741 net.cpp:137] Memory required for data: 487108608
I0628 12:47:09.560214 20741 layer_factory.hpp:77] Creating layer score13_slicer_conv_12_split
I0628 12:47:09.560219 20741 net.cpp:84] Creating Layer score13_slicer_conv_12_split
I0628 12:47:09.560221 20741 net.cpp:406] score13_slicer_conv_12_split <- score13
I0628 12:47:09.560227 20741 net.cpp:380] score13_slicer_conv_12_split -> score13_slicer_conv_12_split_0
I0628 12:47:09.560235 20741 net.cpp:380] score13_slicer_conv_12_split -> score13_slicer_conv_12_split_1
I0628 12:47:09.560271 20741 net.cpp:122] Setting up score13_slicer_conv_12_split
I0628 12:47:09.560277 20741 net.cpp:129] Top shape: 1 1 48 64 (3072)
I0628 12:47:09.560281 20741 net.cpp:129] Top shape: 1 1 48 64 (3072)
I0628 12:47:09.560284 20741 net.cpp:137] Memory required for data: 487133184
I0628 12:47:09.560288 20741 layer_factory.hpp:77] Creating layer score14_slicer_conv_13_split
I0628 12:47:09.560294 20741 net.cpp:84] Creating Layer score14_slicer_conv_13_split
I0628 12:47:09.560297 20741 net.cpp:406] score14_slicer_conv_13_split <- score14
I0628 12:47:09.560302 20741 net.cpp:380] score14_slicer_conv_13_split -> score14_slicer_conv_13_split_0
I0628 12:47:09.560308 20741 net.cpp:380] score14_slicer_conv_13_split -> score14_slicer_conv_13_split_1
I0628 12:47:09.560344 20741 net.cpp:122] Setting up score14_slicer_conv_13_split
I0628 12:47:09.560350 20741 net.cpp:129] Top shape: 1 1 48 64 (3072)
I0628 12:47:09.560353 20741 net.cpp:129] Top shape: 1 1 48 64 (3072)
I0628 12:47:09.560356 20741 net.cpp:137] Memory required for data: 487157760
I0628 12:47:09.560360 20741 layer_factory.hpp:77] Creating layer score15_slicer_conv_14_split
I0628 12:47:09.560364 20741 net.cpp:84] Creating Layer score15_slicer_conv_14_split
I0628 12:47:09.560369 20741 net.cpp:406] score15_slicer_conv_14_split <- score15
I0628 12:47:09.560374 20741 net.cpp:380] score15_slicer_conv_14_split -> score15_slicer_conv_14_split_0
I0628 12:47:09.560379 20741 net.cpp:380] score15_slicer_conv_14_split -> score15_slicer_conv_14_split_1
I0628 12:47:09.560416 20741 net.cpp:122] Setting up score15_slicer_conv_14_split
I0628 12:47:09.560422 20741 net.cpp:129] Top shape: 1 1 48 64 (3072)
I0628 12:47:09.560426 20741 net.cpp:129] Top shape: 1 1 48 64 (3072)
I0628 12:47:09.560431 20741 net.cpp:137] Memory required for data: 487182336
I0628 12:47:09.560433 20741 layer_factory.hpp:77] Creating layer score16_slicer_conv_15_split
I0628 12:47:09.560438 20741 net.cpp:84] Creating Layer score16_slicer_conv_15_split
I0628 12:47:09.560441 20741 net.cpp:406] score16_slicer_conv_15_split <- score16
I0628 12:47:09.560447 20741 net.cpp:380] score16_slicer_conv_15_split -> score16_slicer_conv_15_split_0
I0628 12:47:09.560453 20741 net.cpp:380] score16_slicer_conv_15_split -> score16_slicer_conv_15_split_1
I0628 12:47:09.560492 20741 net.cpp:122] Setting up score16_slicer_conv_15_split
I0628 12:47:09.560497 20741 net.cpp:129] Top shape: 1 1 48 64 (3072)
I0628 12:47:09.560501 20741 net.cpp:129] Top shape: 1 1 48 64 (3072)
I0628 12:47:09.560504 20741 net.cpp:137] Memory required for data: 487206912
I0628 12:47:09.560508 20741 layer_factory.hpp:77] Creating layer score17_slicer_conv_16_split
I0628 12:47:09.560513 20741 net.cpp:84] Creating Layer score17_slicer_conv_16_split
I0628 12:47:09.560516 20741 net.cpp:406] score17_slicer_conv_16_split <- score17
I0628 12:47:09.560521 20741 net.cpp:380] score17_slicer_conv_16_split -> score17_slicer_conv_16_split_0
I0628 12:47:09.560526 20741 net.cpp:380] score17_slicer_conv_16_split -> score17_slicer_conv_16_split_1
I0628 12:47:09.560564 20741 net.cpp:122] Setting up score17_slicer_conv_16_split
I0628 12:47:09.560570 20741 net.cpp:129] Top shape: 1 1 48 64 (3072)
I0628 12:47:09.560573 20741 net.cpp:129] Top shape: 1 1 48 64 (3072)
I0628 12:47:09.560576 20741 net.cpp:137] Memory required for data: 487231488
I0628 12:47:09.560580 20741 layer_factory.hpp:77] Creating layer score18_slicer_conv_17_split
I0628 12:47:09.560585 20741 net.cpp:84] Creating Layer score18_slicer_conv_17_split
I0628 12:47:09.560587 20741 net.cpp:406] score18_slicer_conv_17_split <- score18
I0628 12:47:09.560593 20741 net.cpp:380] score18_slicer_conv_17_split -> score18_slicer_conv_17_split_0
I0628 12:47:09.560606 20741 net.cpp:380] score18_slicer_conv_17_split -> score18_slicer_conv_17_split_1
I0628 12:47:09.560648 20741 net.cpp:122] Setting up score18_slicer_conv_17_split
I0628 12:47:09.560655 20741 net.cpp:129] Top shape: 1 1 48 64 (3072)
I0628 12:47:09.560659 20741 net.cpp:129] Top shape: 1 1 48 64 (3072)
I0628 12:47:09.560662 20741 net.cpp:137] Memory required for data: 487256064
I0628 12:47:09.560667 20741 layer_factory.hpp:77] Creating layer score19_slicer_conv_18_split
I0628 12:47:09.560670 20741 net.cpp:84] Creating Layer score19_slicer_conv_18_split
I0628 12:47:09.560674 20741 net.cpp:406] score19_slicer_conv_18_split <- score19
I0628 12:47:09.560679 20741 net.cpp:380] score19_slicer_conv_18_split -> score19_slicer_conv_18_split_0
I0628 12:47:09.560685 20741 net.cpp:380] score19_slicer_conv_18_split -> score19_slicer_conv_18_split_1
I0628 12:47:09.560724 20741 net.cpp:122] Setting up score19_slicer_conv_18_split
I0628 12:47:09.560729 20741 net.cpp:129] Top shape: 1 1 48 64 (3072)
I0628 12:47:09.560734 20741 net.cpp:129] Top shape: 1 1 48 64 (3072)
I0628 12:47:09.560736 20741 net.cpp:137] Memory required for data: 487280640
I0628 12:47:09.560739 20741 layer_factory.hpp:77] Creating layer score20_slicer_conv_19_split
I0628 12:47:09.560744 20741 net.cpp:84] Creating Layer score20_slicer_conv_19_split
I0628 12:47:09.560747 20741 net.cpp:406] score20_slicer_conv_19_split <- score20
I0628 12:47:09.560755 20741 net.cpp:380] score20_slicer_conv_19_split -> score20_slicer_conv_19_split_0
I0628 12:47:09.560760 20741 net.cpp:380] score20_slicer_conv_19_split -> score20_slicer_conv_19_split_1
I0628 12:47:09.560796 20741 net.cpp:122] Setting up score20_slicer_conv_19_split
I0628 12:47:09.560801 20741 net.cpp:129] Top shape: 1 1 48 64 (3072)
I0628 12:47:09.560804 20741 net.cpp:129] Top shape: 1 1 48 64 (3072)
I0628 12:47:09.560807 20741 net.cpp:137] Memory required for data: 487305216
I0628 12:47:09.560811 20741 layer_factory.hpp:77] Creating layer score21_slicer_conv_20_split
I0628 12:47:09.560817 20741 net.cpp:84] Creating Layer score21_slicer_conv_20_split
I0628 12:47:09.560820 20741 net.cpp:406] score21_slicer_conv_20_split <- score21
I0628 12:47:09.560825 20741 net.cpp:380] score21_slicer_conv_20_split -> score21_slicer_conv_20_split_0
I0628 12:47:09.560832 20741 net.cpp:380] score21_slicer_conv_20_split -> score21_slicer_conv_20_split_1
I0628 12:47:09.560868 20741 net.cpp:122] Setting up score21_slicer_conv_20_split
I0628 12:47:09.560873 20741 net.cpp:129] Top shape: 1 1 48 64 (3072)
I0628 12:47:09.560876 20741 net.cpp:129] Top shape: 1 1 48 64 (3072)
I0628 12:47:09.560879 20741 net.cpp:137] Memory required for data: 487329792
I0628 12:47:09.560883 20741 layer_factory.hpp:77] Creating layer score22_slicer_conv_21_split
I0628 12:47:09.560887 20741 net.cpp:84] Creating Layer score22_slicer_conv_21_split
I0628 12:47:09.560890 20741 net.cpp:406] score22_slicer_conv_21_split <- score22
I0628 12:47:09.560895 20741 net.cpp:380] score22_slicer_conv_21_split -> score22_slicer_conv_21_split_0
I0628 12:47:09.560901 20741 net.cpp:380] score22_slicer_conv_21_split -> score22_slicer_conv_21_split_1
I0628 12:47:09.560937 20741 net.cpp:122] Setting up score22_slicer_conv_21_split
I0628 12:47:09.560943 20741 net.cpp:129] Top shape: 1 1 48 64 (3072)
I0628 12:47:09.560947 20741 net.cpp:129] Top shape: 1 1 48 64 (3072)
I0628 12:47:09.560950 20741 net.cpp:137] Memory required for data: 487354368
I0628 12:47:09.560953 20741 layer_factory.hpp:77] Creating layer score23_slicer_conv_22_split
I0628 12:47:09.560961 20741 net.cpp:84] Creating Layer score23_slicer_conv_22_split
I0628 12:47:09.560963 20741 net.cpp:406] score23_slicer_conv_22_split <- score23
I0628 12:47:09.560968 20741 net.cpp:380] score23_slicer_conv_22_split -> score23_slicer_conv_22_split_0
I0628 12:47:09.560973 20741 net.cpp:380] score23_slicer_conv_22_split -> score23_slicer_conv_22_split_1
I0628 12:47:09.561010 20741 net.cpp:122] Setting up score23_slicer_conv_22_split
I0628 12:47:09.561027 20741 net.cpp:129] Top shape: 1 1 48 64 (3072)
I0628 12:47:09.561030 20741 net.cpp:129] Top shape: 1 1 48 64 (3072)
I0628 12:47:09.561033 20741 net.cpp:137] Memory required for data: 487378944
I0628 12:47:09.561036 20741 layer_factory.hpp:77] Creating layer score24_slicer_conv_23_split
I0628 12:47:09.561041 20741 net.cpp:84] Creating Layer score24_slicer_conv_23_split
I0628 12:47:09.561045 20741 net.cpp:406] score24_slicer_conv_23_split <- score24
I0628 12:47:09.561050 20741 net.cpp:380] score24_slicer_conv_23_split -> score24_slicer_conv_23_split_0
I0628 12:47:09.561056 20741 net.cpp:380] score24_slicer_conv_23_split -> score24_slicer_conv_23_split_1
I0628 12:47:09.561095 20741 net.cpp:122] Setting up score24_slicer_conv_23_split
I0628 12:47:09.561101 20741 net.cpp:129] Top shape: 1 1 48 64 (3072)
I0628 12:47:09.561105 20741 net.cpp:129] Top shape: 1 1 48 64 (3072)
I0628 12:47:09.561107 20741 net.cpp:137] Memory required for data: 487403520
I0628 12:47:09.561111 20741 layer_factory.hpp:77] Creating layer score25_slicer_conv_24_split
I0628 12:47:09.561115 20741 net.cpp:84] Creating Layer score25_slicer_conv_24_split
I0628 12:47:09.561120 20741 net.cpp:406] score25_slicer_conv_24_split <- score25
I0628 12:47:09.561125 20741 net.cpp:380] score25_slicer_conv_24_split -> score25_slicer_conv_24_split_0
I0628 12:47:09.561131 20741 net.cpp:380] score25_slicer_conv_24_split -> score25_slicer_conv_24_split_1
I0628 12:47:09.561167 20741 net.cpp:122] Setting up score25_slicer_conv_24_split
I0628 12:47:09.561172 20741 net.cpp:129] Top shape: 1 1 48 64 (3072)
I0628 12:47:09.561177 20741 net.cpp:129] Top shape: 1 1 48 64 (3072)
I0628 12:47:09.561179 20741 net.cpp:137] Memory required for data: 487428096
I0628 12:47:09.561183 20741 layer_factory.hpp:77] Creating layer score26_slicer_conv_25_split
I0628 12:47:09.561187 20741 net.cpp:84] Creating Layer score26_slicer_conv_25_split
I0628 12:47:09.561190 20741 net.cpp:406] score26_slicer_conv_25_split <- score26
I0628 12:47:09.561195 20741 net.cpp:380] score26_slicer_conv_25_split -> score26_slicer_conv_25_split_0
I0628 12:47:09.561202 20741 net.cpp:380] score26_slicer_conv_25_split -> score26_slicer_conv_25_split_1
I0628 12:47:09.561236 20741 net.cpp:122] Setting up score26_slicer_conv_25_split
I0628 12:47:09.561242 20741 net.cpp:129] Top shape: 1 1 48 64 (3072)
I0628 12:47:09.561246 20741 net.cpp:129] Top shape: 1 1 48 64 (3072)
I0628 12:47:09.561249 20741 net.cpp:137] Memory required for data: 487452672
I0628 12:47:09.561252 20741 layer_factory.hpp:77] Creating layer score27_slicer_conv_26_split
I0628 12:47:09.561257 20741 net.cpp:84] Creating Layer score27_slicer_conv_26_split
I0628 12:47:09.561260 20741 net.cpp:406] score27_slicer_conv_26_split <- score27
I0628 12:47:09.561265 20741 net.cpp:380] score27_slicer_conv_26_split -> score27_slicer_conv_26_split_0
I0628 12:47:09.561271 20741 net.cpp:380] score27_slicer_conv_26_split -> score27_slicer_conv_26_split_1
I0628 12:47:09.561305 20741 net.cpp:122] Setting up score27_slicer_conv_26_split
I0628 12:47:09.561311 20741 net.cpp:129] Top shape: 1 1 48 64 (3072)
I0628 12:47:09.561316 20741 net.cpp:129] Top shape: 1 1 48 64 (3072)
I0628 12:47:09.561318 20741 net.cpp:137] Memory required for data: 487477248
I0628 12:47:09.561321 20741 layer_factory.hpp:77] Creating layer score28_slicer_conv_27_split
I0628 12:47:09.561327 20741 net.cpp:84] Creating Layer score28_slicer_conv_27_split
I0628 12:47:09.561331 20741 net.cpp:406] score28_slicer_conv_27_split <- score28
I0628 12:47:09.561336 20741 net.cpp:380] score28_slicer_conv_27_split -> score28_slicer_conv_27_split_0
I0628 12:47:09.561342 20741 net.cpp:380] score28_slicer_conv_27_split -> score28_slicer_conv_27_split_1
I0628 12:47:09.561378 20741 net.cpp:122] Setting up score28_slicer_conv_27_split
I0628 12:47:09.561383 20741 net.cpp:129] Top shape: 1 1 48 64 (3072)
I0628 12:47:09.561386 20741 net.cpp:129] Top shape: 1 1 48 64 (3072)
I0628 12:47:09.561389 20741 net.cpp:137] Memory required for data: 487501824
I0628 12:47:09.561393 20741 layer_factory.hpp:77] Creating layer score29_slicer_conv_28_split
I0628 12:47:09.561410 20741 net.cpp:84] Creating Layer score29_slicer_conv_28_split
I0628 12:47:09.561414 20741 net.cpp:406] score29_slicer_conv_28_split <- score29
I0628 12:47:09.561420 20741 net.cpp:380] score29_slicer_conv_28_split -> score29_slicer_conv_28_split_0
I0628 12:47:09.561425 20741 net.cpp:380] score29_slicer_conv_28_split -> score29_slicer_conv_28_split_1
I0628 12:47:09.561465 20741 net.cpp:122] Setting up score29_slicer_conv_28_split
I0628 12:47:09.561470 20741 net.cpp:129] Top shape: 1 1 48 64 (3072)
I0628 12:47:09.561475 20741 net.cpp:129] Top shape: 1 1 48 64 (3072)
I0628 12:47:09.561477 20741 net.cpp:137] Memory required for data: 487526400
I0628 12:47:09.561481 20741 layer_factory.hpp:77] Creating layer score30_slicer_conv_29_split
I0628 12:47:09.561486 20741 net.cpp:84] Creating Layer score30_slicer_conv_29_split
I0628 12:47:09.561489 20741 net.cpp:406] score30_slicer_conv_29_split <- score30
I0628 12:47:09.561496 20741 net.cpp:380] score30_slicer_conv_29_split -> score30_slicer_conv_29_split_0
I0628 12:47:09.561501 20741 net.cpp:380] score30_slicer_conv_29_split -> score30_slicer_conv_29_split_1
I0628 12:47:09.561537 20741 net.cpp:122] Setting up score30_slicer_conv_29_split
I0628 12:47:09.561542 20741 net.cpp:129] Top shape: 1 1 48 64 (3072)
I0628 12:47:09.561547 20741 net.cpp:129] Top shape: 1 1 48 64 (3072)
I0628 12:47:09.561549 20741 net.cpp:137] Memory required for data: 487550976
I0628 12:47:09.561553 20741 layer_factory.hpp:77] Creating layer score31_slicer_conv_30_split
I0628 12:47:09.561558 20741 net.cpp:84] Creating Layer score31_slicer_conv_30_split
I0628 12:47:09.561561 20741 net.cpp:406] score31_slicer_conv_30_split <- score31
I0628 12:47:09.561566 20741 net.cpp:380] score31_slicer_conv_30_split -> score31_slicer_conv_30_split_0
I0628 12:47:09.561571 20741 net.cpp:380] score31_slicer_conv_30_split -> score31_slicer_conv_30_split_1
I0628 12:47:09.561609 20741 net.cpp:122] Setting up score31_slicer_conv_30_split
I0628 12:47:09.561614 20741 net.cpp:129] Top shape: 1 1 48 64 (3072)
I0628 12:47:09.561617 20741 net.cpp:129] Top shape: 1 1 48 64 (3072)
I0628 12:47:09.561620 20741 net.cpp:137] Memory required for data: 487575552
I0628 12:47:09.561625 20741 layer_factory.hpp:77] Creating layer score32_slicer_conv_31_split
I0628 12:47:09.561628 20741 net.cpp:84] Creating Layer score32_slicer_conv_31_split
I0628 12:47:09.561632 20741 net.cpp:406] score32_slicer_conv_31_split <- score32
I0628 12:47:09.561638 20741 net.cpp:380] score32_slicer_conv_31_split -> score32_slicer_conv_31_split_0
I0628 12:47:09.561643 20741 net.cpp:380] score32_slicer_conv_31_split -> score32_slicer_conv_31_split_1
I0628 12:47:09.561678 20741 net.cpp:122] Setting up score32_slicer_conv_31_split
I0628 12:47:09.561684 20741 net.cpp:129] Top shape: 1 1 48 64 (3072)
I0628 12:47:09.561687 20741 net.cpp:129] Top shape: 1 1 48 64 (3072)
I0628 12:47:09.561691 20741 net.cpp:137] Memory required for data: 487600128
I0628 12:47:09.561694 20741 layer_factory.hpp:77] Creating layer score33_slicer_conv_32_split
I0628 12:47:09.561699 20741 net.cpp:84] Creating Layer score33_slicer_conv_32_split
I0628 12:47:09.561703 20741 net.cpp:406] score33_slicer_conv_32_split <- score33
I0628 12:47:09.561708 20741 net.cpp:380] score33_slicer_conv_32_split -> score33_slicer_conv_32_split_0
I0628 12:47:09.561713 20741 net.cpp:380] score33_slicer_conv_32_split -> score33_slicer_conv_32_split_1
I0628 12:47:09.561749 20741 net.cpp:122] Setting up score33_slicer_conv_32_split
I0628 12:47:09.561756 20741 net.cpp:129] Top shape: 1 1 48 64 (3072)
I0628 12:47:09.561760 20741 net.cpp:129] Top shape: 1 1 48 64 (3072)
I0628 12:47:09.561764 20741 net.cpp:137] Memory required for data: 487624704
I0628 12:47:09.561767 20741 layer_factory.hpp:77] Creating layer score34_slicer_conv_33_split
I0628 12:47:09.561771 20741 net.cpp:84] Creating Layer score34_slicer_conv_33_split
I0628 12:47:09.561775 20741 net.cpp:406] score34_slicer_conv_33_split <- score34
I0628 12:47:09.561779 20741 net.cpp:380] score34_slicer_conv_33_split -> score34_slicer_conv_33_split_0
I0628 12:47:09.561792 20741 net.cpp:380] score34_slicer_conv_33_split -> score34_slicer_conv_33_split_1
I0628 12:47:09.561830 20741 net.cpp:122] Setting up score34_slicer_conv_33_split
I0628 12:47:09.561836 20741 net.cpp:129] Top shape: 1 1 48 64 (3072)
I0628 12:47:09.561839 20741 net.cpp:129] Top shape: 1 1 48 64 (3072)
I0628 12:47:09.561842 20741 net.cpp:137] Memory required for data: 487649280
I0628 12:47:09.561846 20741 layer_factory.hpp:77] Creating layer score35_slicer_conv_34_split
I0628 12:47:09.561851 20741 net.cpp:84] Creating Layer score35_slicer_conv_34_split
I0628 12:47:09.561856 20741 net.cpp:406] score35_slicer_conv_34_split <- score35
I0628 12:47:09.561861 20741 net.cpp:380] score35_slicer_conv_34_split -> score35_slicer_conv_34_split_0
I0628 12:47:09.561866 20741 net.cpp:380] score35_slicer_conv_34_split -> score35_slicer_conv_34_split_1
I0628 12:47:09.561902 20741 net.cpp:122] Setting up score35_slicer_conv_34_split
I0628 12:47:09.561908 20741 net.cpp:129] Top shape: 1 1 48 64 (3072)
I0628 12:47:09.561911 20741 net.cpp:129] Top shape: 1 1 48 64 (3072)
I0628 12:47:09.561914 20741 net.cpp:137] Memory required for data: 487673856
I0628 12:47:09.561918 20741 layer_factory.hpp:77] Creating layer score36_slicer_conv_35_split
I0628 12:47:09.561923 20741 net.cpp:84] Creating Layer score36_slicer_conv_35_split
I0628 12:47:09.561925 20741 net.cpp:406] score36_slicer_conv_35_split <- score36
I0628 12:47:09.561930 20741 net.cpp:380] score36_slicer_conv_35_split -> score36_slicer_conv_35_split_0
I0628 12:47:09.561936 20741 net.cpp:380] score36_slicer_conv_35_split -> score36_slicer_conv_35_split_1
I0628 12:47:09.561972 20741 net.cpp:122] Setting up score36_slicer_conv_35_split
I0628 12:47:09.561977 20741 net.cpp:129] Top shape: 1 1 48 64 (3072)
I0628 12:47:09.561981 20741 net.cpp:129] Top shape: 1 1 48 64 (3072)
I0628 12:47:09.561985 20741 net.cpp:137] Memory required for data: 487698432
I0628 12:47:09.561988 20741 layer_factory.hpp:77] Creating layer score37_slicer_conv_36_split
I0628 12:47:09.561992 20741 net.cpp:84] Creating Layer score37_slicer_conv_36_split
I0628 12:47:09.561996 20741 net.cpp:406] score37_slicer_conv_36_split <- score37
I0628 12:47:09.562002 20741 net.cpp:380] score37_slicer_conv_36_split -> score37_slicer_conv_36_split_0
I0628 12:47:09.562008 20741 net.cpp:380] score37_slicer_conv_36_split -> score37_slicer_conv_36_split_1
I0628 12:47:09.562044 20741 net.cpp:122] Setting up score37_slicer_conv_36_split
I0628 12:47:09.562050 20741 net.cpp:129] Top shape: 1 1 48 64 (3072)
I0628 12:47:09.562054 20741 net.cpp:129] Top shape: 1 1 48 64 (3072)
I0628 12:47:09.562057 20741 net.cpp:137] Memory required for data: 487723008
I0628 12:47:09.562060 20741 layer_factory.hpp:77] Creating layer score38_slicer_conv_37_split
I0628 12:47:09.562065 20741 net.cpp:84] Creating Layer score38_slicer_conv_37_split
I0628 12:47:09.562068 20741 net.cpp:406] score38_slicer_conv_37_split <- score38
I0628 12:47:09.562073 20741 net.cpp:380] score38_slicer_conv_37_split -> score38_slicer_conv_37_split_0
I0628 12:47:09.562078 20741 net.cpp:380] score38_slicer_conv_37_split -> score38_slicer_conv_37_split_1
I0628 12:47:09.562114 20741 net.cpp:122] Setting up score38_slicer_conv_37_split
I0628 12:47:09.562120 20741 net.cpp:129] Top shape: 1 1 48 64 (3072)
I0628 12:47:09.562124 20741 net.cpp:129] Top shape: 1 1 48 64 (3072)
I0628 12:47:09.562127 20741 net.cpp:137] Memory required for data: 487747584
I0628 12:47:09.562130 20741 layer_factory.hpp:77] Creating layer score39_slicer_conv_38_split
I0628 12:47:09.562135 20741 net.cpp:84] Creating Layer score39_slicer_conv_38_split
I0628 12:47:09.562139 20741 net.cpp:406] score39_slicer_conv_38_split <- score39
I0628 12:47:09.562144 20741 net.cpp:380] score39_slicer_conv_38_split -> score39_slicer_conv_38_split_0
I0628 12:47:09.562150 20741 net.cpp:380] score39_slicer_conv_38_split -> score39_slicer_conv_38_split_1
I0628 12:47:09.562186 20741 net.cpp:122] Setting up score39_slicer_conv_38_split
I0628 12:47:09.562192 20741 net.cpp:129] Top shape: 1 1 48 64 (3072)
I0628 12:47:09.562196 20741 net.cpp:129] Top shape: 1 1 48 64 (3072)
I0628 12:47:09.562206 20741 net.cpp:137] Memory required for data: 487772160
I0628 12:47:09.562208 20741 layer_factory.hpp:77] Creating layer score40_slicer_conv_39_split
I0628 12:47:09.562214 20741 net.cpp:84] Creating Layer score40_slicer_conv_39_split
I0628 12:47:09.562218 20741 net.cpp:406] score40_slicer_conv_39_split <- score40
I0628 12:47:09.562223 20741 net.cpp:380] score40_slicer_conv_39_split -> score40_slicer_conv_39_split_0
I0628 12:47:09.562229 20741 net.cpp:380] score40_slicer_conv_39_split -> score40_slicer_conv_39_split_1
I0628 12:47:09.562268 20741 net.cpp:122] Setting up score40_slicer_conv_39_split
I0628 12:47:09.562273 20741 net.cpp:129] Top shape: 1 1 48 64 (3072)
I0628 12:47:09.562278 20741 net.cpp:129] Top shape: 1 1 48 64 (3072)
I0628 12:47:09.562280 20741 net.cpp:137] Memory required for data: 487796736
I0628 12:47:09.562284 20741 layer_factory.hpp:77] Creating layer score41_slicer_conv_40_split
I0628 12:47:09.562288 20741 net.cpp:84] Creating Layer score41_slicer_conv_40_split
I0628 12:47:09.562292 20741 net.cpp:406] score41_slicer_conv_40_split <- score41
I0628 12:47:09.562296 20741 net.cpp:380] score41_slicer_conv_40_split -> score41_slicer_conv_40_split_0
I0628 12:47:09.562304 20741 net.cpp:380] score41_slicer_conv_40_split -> score41_slicer_conv_40_split_1
I0628 12:47:09.562338 20741 net.cpp:122] Setting up score41_slicer_conv_40_split
I0628 12:47:09.562345 20741 net.cpp:129] Top shape: 1 1 48 64 (3072)
I0628 12:47:09.562348 20741 net.cpp:129] Top shape: 1 1 48 64 (3072)
I0628 12:47:09.562351 20741 net.cpp:137] Memory required for data: 487821312
I0628 12:47:09.562355 20741 layer_factory.hpp:77] Creating layer score42_slicer_conv_41_split
I0628 12:47:09.562361 20741 net.cpp:84] Creating Layer score42_slicer_conv_41_split
I0628 12:47:09.562364 20741 net.cpp:406] score42_slicer_conv_41_split <- score42
I0628 12:47:09.562368 20741 net.cpp:380] score42_slicer_conv_41_split -> score42_slicer_conv_41_split_0
I0628 12:47:09.562374 20741 net.cpp:380] score42_slicer_conv_41_split -> score42_slicer_conv_41_split_1
I0628 12:47:09.562412 20741 net.cpp:122] Setting up score42_slicer_conv_41_split
I0628 12:47:09.562418 20741 net.cpp:129] Top shape: 1 1 48 64 (3072)
I0628 12:47:09.562422 20741 net.cpp:129] Top shape: 1 1 48 64 (3072)
I0628 12:47:09.562425 20741 net.cpp:137] Memory required for data: 487845888
I0628 12:47:09.562428 20741 layer_factory.hpp:77] Creating layer score43_slicer_conv_42_split
I0628 12:47:09.562433 20741 net.cpp:84] Creating Layer score43_slicer_conv_42_split
I0628 12:47:09.562436 20741 net.cpp:406] score43_slicer_conv_42_split <- score43
I0628 12:47:09.562441 20741 net.cpp:380] score43_slicer_conv_42_split -> score43_slicer_conv_42_split_0
I0628 12:47:09.562448 20741 net.cpp:380] score43_slicer_conv_42_split -> score43_slicer_conv_42_split_1
I0628 12:47:09.562484 20741 net.cpp:122] Setting up score43_slicer_conv_42_split
I0628 12:47:09.562489 20741 net.cpp:129] Top shape: 1 1 48 64 (3072)
I0628 12:47:09.562494 20741 net.cpp:129] Top shape: 1 1 48 64 (3072)
I0628 12:47:09.562496 20741 net.cpp:137] Memory required for data: 487870464
I0628 12:47:09.562500 20741 layer_factory.hpp:77] Creating layer score44_slicer_conv_43_split
I0628 12:47:09.562505 20741 net.cpp:84] Creating Layer score44_slicer_conv_43_split
I0628 12:47:09.562507 20741 net.cpp:406] score44_slicer_conv_43_split <- score44
I0628 12:47:09.562513 20741 net.cpp:380] score44_slicer_conv_43_split -> score44_slicer_conv_43_split_0
I0628 12:47:09.562518 20741 net.cpp:380] score44_slicer_conv_43_split -> score44_slicer_conv_43_split_1
I0628 12:47:09.562556 20741 net.cpp:122] Setting up score44_slicer_conv_43_split
I0628 12:47:09.562561 20741 net.cpp:129] Top shape: 1 1 48 64 (3072)
I0628 12:47:09.562564 20741 net.cpp:129] Top shape: 1 1 48 64 (3072)
I0628 12:47:09.562567 20741 net.cpp:137] Memory required for data: 487895040
I0628 12:47:09.562572 20741 layer_factory.hpp:77] Creating layer score45_slicer_conv_44_split
I0628 12:47:09.562575 20741 net.cpp:84] Creating Layer score45_slicer_conv_44_split
I0628 12:47:09.562584 20741 net.cpp:406] score45_slicer_conv_44_split <- score45
I0628 12:47:09.562590 20741 net.cpp:380] score45_slicer_conv_44_split -> score45_slicer_conv_44_split_0
I0628 12:47:09.562595 20741 net.cpp:380] score45_slicer_conv_44_split -> score45_slicer_conv_44_split_1
I0628 12:47:09.562636 20741 net.cpp:122] Setting up score45_slicer_conv_44_split
I0628 12:47:09.562643 20741 net.cpp:129] Top shape: 1 1 48 64 (3072)
I0628 12:47:09.562646 20741 net.cpp:129] Top shape: 1 1 48 64 (3072)
I0628 12:47:09.562649 20741 net.cpp:137] Memory required for data: 487919616
I0628 12:47:09.562654 20741 layer_factory.hpp:77] Creating layer score46_slicer_conv_45_split
I0628 12:47:09.562657 20741 net.cpp:84] Creating Layer score46_slicer_conv_45_split
I0628 12:47:09.562661 20741 net.cpp:406] score46_slicer_conv_45_split <- score46
I0628 12:47:09.562667 20741 net.cpp:380] score46_slicer_conv_45_split -> score46_slicer_conv_45_split_0
I0628 12:47:09.562672 20741 net.cpp:380] score46_slicer_conv_45_split -> score46_slicer_conv_45_split_1
I0628 12:47:09.562711 20741 net.cpp:122] Setting up score46_slicer_conv_45_split
I0628 12:47:09.562716 20741 net.cpp:129] Top shape: 1 1 48 64 (3072)
I0628 12:47:09.562719 20741 net.cpp:129] Top shape: 1 1 48 64 (3072)
I0628 12:47:09.562722 20741 net.cpp:137] Memory required for data: 487944192
I0628 12:47:09.562726 20741 layer_factory.hpp:77] Creating layer score47_slicer_conv_46_split
I0628 12:47:09.562731 20741 net.cpp:84] Creating Layer score47_slicer_conv_46_split
I0628 12:47:09.562734 20741 net.cpp:406] score47_slicer_conv_46_split <- score47
I0628 12:47:09.562738 20741 net.cpp:380] score47_slicer_conv_46_split -> score47_slicer_conv_46_split_0
I0628 12:47:09.562744 20741 net.cpp:380] score47_slicer_conv_46_split -> score47_slicer_conv_46_split_1
I0628 12:47:09.562782 20741 net.cpp:122] Setting up score47_slicer_conv_46_split
I0628 12:47:09.562788 20741 net.cpp:129] Top shape: 1 1 48 64 (3072)
I0628 12:47:09.562791 20741 net.cpp:129] Top shape: 1 1 48 64 (3072)
I0628 12:47:09.562794 20741 net.cpp:137] Memory required for data: 487968768
I0628 12:47:09.562798 20741 layer_factory.hpp:77] Creating layer score48_slicer_conv_47_split
I0628 12:47:09.562803 20741 net.cpp:84] Creating Layer score48_slicer_conv_47_split
I0628 12:47:09.562805 20741 net.cpp:406] score48_slicer_conv_47_split <- score48
I0628 12:47:09.562810 20741 net.cpp:380] score48_slicer_conv_47_split -> score48_slicer_conv_47_split_0
I0628 12:47:09.562816 20741 net.cpp:380] score48_slicer_conv_47_split -> score48_slicer_conv_47_split_1
I0628 12:47:09.562852 20741 net.cpp:122] Setting up score48_slicer_conv_47_split
I0628 12:47:09.562858 20741 net.cpp:129] Top shape: 1 1 48 64 (3072)
I0628 12:47:09.562861 20741 net.cpp:129] Top shape: 1 1 48 64 (3072)
I0628 12:47:09.562865 20741 net.cpp:137] Memory required for data: 487993344
I0628 12:47:09.562868 20741 layer_factory.hpp:77] Creating layer score49_slicer_conv_48_split
I0628 12:47:09.562875 20741 net.cpp:84] Creating Layer score49_slicer_conv_48_split
I0628 12:47:09.562877 20741 net.cpp:406] score49_slicer_conv_48_split <- score49
I0628 12:47:09.562882 20741 net.cpp:380] score49_slicer_conv_48_split -> score49_slicer_conv_48_split_0
I0628 12:47:09.562887 20741 net.cpp:380] score49_slicer_conv_48_split -> score49_slicer_conv_48_split_1
I0628 12:47:09.562924 20741 net.cpp:122] Setting up score49_slicer_conv_48_split
I0628 12:47:09.562930 20741 net.cpp:129] Top shape: 1 1 48 64 (3072)
I0628 12:47:09.562934 20741 net.cpp:129] Top shape: 1 1 48 64 (3072)
I0628 12:47:09.562937 20741 net.cpp:137] Memory required for data: 488017920
I0628 12:47:09.562940 20741 layer_factory.hpp:77] Creating layer score50_slicer_conv_49_split
I0628 12:47:09.562945 20741 net.cpp:84] Creating Layer score50_slicer_conv_49_split
I0628 12:47:09.562948 20741 net.cpp:406] score50_slicer_conv_49_split <- score50
I0628 12:47:09.562953 20741 net.cpp:380] score50_slicer_conv_49_split -> score50_slicer_conv_49_split_0
I0628 12:47:09.562959 20741 net.cpp:380] score50_slicer_conv_49_split -> score50_slicer_conv_49_split_1
I0628 12:47:09.563004 20741 net.cpp:122] Setting up score50_slicer_conv_49_split
I0628 12:47:09.563009 20741 net.cpp:129] Top shape: 1 1 48 64 (3072)
I0628 12:47:09.563014 20741 net.cpp:129] Top shape: 1 1 48 64 (3072)
I0628 12:47:09.563016 20741 net.cpp:137] Memory required for data: 488042496
I0628 12:47:09.563020 20741 layer_factory.hpp:77] Creating layer score51_slicer_conv_50_split
I0628 12:47:09.563026 20741 net.cpp:84] Creating Layer score51_slicer_conv_50_split
I0628 12:47:09.563030 20741 net.cpp:406] score51_slicer_conv_50_split <- score51
I0628 12:47:09.563035 20741 net.cpp:380] score51_slicer_conv_50_split -> score51_slicer_conv_50_split_0
I0628 12:47:09.563040 20741 net.cpp:380] score51_slicer_conv_50_split -> score51_slicer_conv_50_split_1
I0628 12:47:09.563077 20741 net.cpp:122] Setting up score51_slicer_conv_50_split
I0628 12:47:09.563082 20741 net.cpp:129] Top shape: 1 1 48 64 (3072)
I0628 12:47:09.563086 20741 net.cpp:129] Top shape: 1 1 48 64 (3072)
I0628 12:47:09.563089 20741 net.cpp:137] Memory required for data: 488067072
I0628 12:47:09.563092 20741 layer_factory.hpp:77] Creating layer score52_slicer_conv_51_split
I0628 12:47:09.563097 20741 net.cpp:84] Creating Layer score52_slicer_conv_51_split
I0628 12:47:09.563100 20741 net.cpp:406] score52_slicer_conv_51_split <- score52
I0628 12:47:09.563105 20741 net.cpp:380] score52_slicer_conv_51_split -> score52_slicer_conv_51_split_0
I0628 12:47:09.563110 20741 net.cpp:380] score52_slicer_conv_51_split -> score52_slicer_conv_51_split_1
I0628 12:47:09.563146 20741 net.cpp:122] Setting up score52_slicer_conv_51_split
I0628 12:47:09.563153 20741 net.cpp:129] Top shape: 1 1 48 64 (3072)
I0628 12:47:09.563156 20741 net.cpp:129] Top shape: 1 1 48 64 (3072)
I0628 12:47:09.563159 20741 net.cpp:137] Memory required for data: 488091648
I0628 12:47:09.563163 20741 layer_factory.hpp:77] Creating layer score53_slicer_conv_52_split
I0628 12:47:09.563168 20741 net.cpp:84] Creating Layer score53_slicer_conv_52_split
I0628 12:47:09.563170 20741 net.cpp:406] score53_slicer_conv_52_split <- score53
I0628 12:47:09.563176 20741 net.cpp:380] score53_slicer_conv_52_split -> score53_slicer_conv_52_split_0
I0628 12:47:09.563182 20741 net.cpp:380] score53_slicer_conv_52_split -> score53_slicer_conv_52_split_1
I0628 12:47:09.563218 20741 net.cpp:122] Setting up score53_slicer_conv_52_split
I0628 12:47:09.563223 20741 net.cpp:129] Top shape: 1 1 48 64 (3072)
I0628 12:47:09.563227 20741 net.cpp:129] Top shape: 1 1 48 64 (3072)
I0628 12:47:09.563230 20741 net.cpp:137] Memory required for data: 488116224
I0628 12:47:09.563235 20741 layer_factory.hpp:77] Creating layer score54_slicer_conv_53_split
I0628 12:47:09.563238 20741 net.cpp:84] Creating Layer score54_slicer_conv_53_split
I0628 12:47:09.563242 20741 net.cpp:406] score54_slicer_conv_53_split <- score54
I0628 12:47:09.563246 20741 net.cpp:380] score54_slicer_conv_53_split -> score54_slicer_conv_53_split_0
I0628 12:47:09.563252 20741 net.cpp:380] score54_slicer_conv_53_split -> score54_slicer_conv_53_split_1
I0628 12:47:09.563289 20741 net.cpp:122] Setting up score54_slicer_conv_53_split
I0628 12:47:09.563294 20741 net.cpp:129] Top shape: 1 1 48 64 (3072)
I0628 12:47:09.563298 20741 net.cpp:129] Top shape: 1 1 48 64 (3072)
I0628 12:47:09.563302 20741 net.cpp:137] Memory required for data: 488140800
I0628 12:47:09.563304 20741 layer_factory.hpp:77] Creating layer score55_slicer_conv_54_split
I0628 12:47:09.563309 20741 net.cpp:84] Creating Layer score55_slicer_conv_54_split
I0628 12:47:09.563313 20741 net.cpp:406] score55_slicer_conv_54_split <- score55
I0628 12:47:09.563319 20741 net.cpp:380] score55_slicer_conv_54_split -> score55_slicer_conv_54_split_0
I0628 12:47:09.563343 20741 net.cpp:380] score55_slicer_conv_54_split -> score55_slicer_conv_54_split_1
I0628 12:47:09.563381 20741 net.cpp:122] Setting up score55_slicer_conv_54_split
I0628 12:47:09.563387 20741 net.cpp:129] Top shape: 1 1 48 64 (3072)
I0628 12:47:09.563391 20741 net.cpp:129] Top shape: 1 1 48 64 (3072)
I0628 12:47:09.563395 20741 net.cpp:137] Memory required for data: 488165376
I0628 12:47:09.563405 20741 layer_factory.hpp:77] Creating layer score56_slicer_conv_55_split
I0628 12:47:09.563410 20741 net.cpp:84] Creating Layer score56_slicer_conv_55_split
I0628 12:47:09.563412 20741 net.cpp:406] score56_slicer_conv_55_split <- score56
I0628 12:47:09.563417 20741 net.cpp:380] score56_slicer_conv_55_split -> score56_slicer_conv_55_split_0
I0628 12:47:09.563423 20741 net.cpp:380] score56_slicer_conv_55_split -> score56_slicer_conv_55_split_1
I0628 12:47:09.563460 20741 net.cpp:122] Setting up score56_slicer_conv_55_split
I0628 12:47:09.563467 20741 net.cpp:129] Top shape: 1 1 48 64 (3072)
I0628 12:47:09.563470 20741 net.cpp:129] Top shape: 1 1 48 64 (3072)
I0628 12:47:09.563473 20741 net.cpp:137] Memory required for data: 488189952
I0628 12:47:09.563477 20741 layer_factory.hpp:77] Creating layer score57_slicer_conv_56_split
I0628 12:47:09.563482 20741 net.cpp:84] Creating Layer score57_slicer_conv_56_split
I0628 12:47:09.563484 20741 net.cpp:406] score57_slicer_conv_56_split <- score57
I0628 12:47:09.563490 20741 net.cpp:380] score57_slicer_conv_56_split -> score57_slicer_conv_56_split_0
I0628 12:47:09.563496 20741 net.cpp:380] score57_slicer_conv_56_split -> score57_slicer_conv_56_split_1
I0628 12:47:09.563532 20741 net.cpp:122] Setting up score57_slicer_conv_56_split
I0628 12:47:09.563539 20741 net.cpp:129] Top shape: 1 1 48 64 (3072)
I0628 12:47:09.563542 20741 net.cpp:129] Top shape: 1 1 48 64 (3072)
I0628 12:47:09.563545 20741 net.cpp:137] Memory required for data: 488214528
I0628 12:47:09.563549 20741 layer_factory.hpp:77] Creating layer score58_slicer_conv_57_split
I0628 12:47:09.563554 20741 net.cpp:84] Creating Layer score58_slicer_conv_57_split
I0628 12:47:09.563556 20741 net.cpp:406] score58_slicer_conv_57_split <- score58
I0628 12:47:09.563562 20741 net.cpp:380] score58_slicer_conv_57_split -> score58_slicer_conv_57_split_0
I0628 12:47:09.563568 20741 net.cpp:380] score58_slicer_conv_57_split -> score58_slicer_conv_57_split_1
I0628 12:47:09.563606 20741 net.cpp:122] Setting up score58_slicer_conv_57_split
I0628 12:47:09.563611 20741 net.cpp:129] Top shape: 1 1 48 64 (3072)
I0628 12:47:09.563616 20741 net.cpp:129] Top shape: 1 1 48 64 (3072)
I0628 12:47:09.563618 20741 net.cpp:137] Memory required for data: 488239104
I0628 12:47:09.563621 20741 layer_factory.hpp:77] Creating layer score59_slicer_conv_58_split
I0628 12:47:09.563627 20741 net.cpp:84] Creating Layer score59_slicer_conv_58_split
I0628 12:47:09.563629 20741 net.cpp:406] score59_slicer_conv_58_split <- score59
I0628 12:47:09.563635 20741 net.cpp:380] score59_slicer_conv_58_split -> score59_slicer_conv_58_split_0
I0628 12:47:09.563642 20741 net.cpp:380] score59_slicer_conv_58_split -> score59_slicer_conv_58_split_1
I0628 12:47:09.563679 20741 net.cpp:122] Setting up score59_slicer_conv_58_split
I0628 12:47:09.563685 20741 net.cpp:129] Top shape: 1 1 48 64 (3072)
I0628 12:47:09.563688 20741 net.cpp:129] Top shape: 1 1 48 64 (3072)
I0628 12:47:09.563691 20741 net.cpp:137] Memory required for data: 488263680
I0628 12:47:09.563695 20741 layer_factory.hpp:77] Creating layer score60_slicer_conv_59_split
I0628 12:47:09.563699 20741 net.cpp:84] Creating Layer score60_slicer_conv_59_split
I0628 12:47:09.563704 20741 net.cpp:406] score60_slicer_conv_59_split <- score60
I0628 12:47:09.563709 20741 net.cpp:380] score60_slicer_conv_59_split -> score60_slicer_conv_59_split_0
I0628 12:47:09.563714 20741 net.cpp:380] score60_slicer_conv_59_split -> score60_slicer_conv_59_split_1
I0628 12:47:09.563755 20741 net.cpp:122] Setting up score60_slicer_conv_59_split
I0628 12:47:09.563760 20741 net.cpp:129] Top shape: 1 1 48 64 (3072)
I0628 12:47:09.563765 20741 net.cpp:129] Top shape: 1 1 48 64 (3072)
I0628 12:47:09.563767 20741 net.cpp:137] Memory required for data: 488288256
I0628 12:47:09.563771 20741 layer_factory.hpp:77] Creating layer score61_slicer_conv_60_split
I0628 12:47:09.563776 20741 net.cpp:84] Creating Layer score61_slicer_conv_60_split
I0628 12:47:09.563778 20741 net.cpp:406] score61_slicer_conv_60_split <- score61
I0628 12:47:09.563791 20741 net.cpp:380] score61_slicer_conv_60_split -> score61_slicer_conv_60_split_0
I0628 12:47:09.563797 20741 net.cpp:380] score61_slicer_conv_60_split -> score61_slicer_conv_60_split_1
I0628 12:47:09.563838 20741 net.cpp:122] Setting up score61_slicer_conv_60_split
I0628 12:47:09.563843 20741 net.cpp:129] Top shape: 1 1 48 64 (3072)
I0628 12:47:09.563846 20741 net.cpp:129] Top shape: 1 1 48 64 (3072)
I0628 12:47:09.563849 20741 net.cpp:137] Memory required for data: 488312832
I0628 12:47:09.563853 20741 layer_factory.hpp:77] Creating layer score62_slicer_conv_61_split
I0628 12:47:09.563859 20741 net.cpp:84] Creating Layer score62_slicer_conv_61_split
I0628 12:47:09.563863 20741 net.cpp:406] score62_slicer_conv_61_split <- score62
I0628 12:47:09.563868 20741 net.cpp:380] score62_slicer_conv_61_split -> score62_slicer_conv_61_split_0
I0628 12:47:09.563874 20741 net.cpp:380] score62_slicer_conv_61_split -> score62_slicer_conv_61_split_1
I0628 12:47:09.563910 20741 net.cpp:122] Setting up score62_slicer_conv_61_split
I0628 12:47:09.563915 20741 net.cpp:129] Top shape: 1 1 48 64 (3072)
I0628 12:47:09.563918 20741 net.cpp:129] Top shape: 1 1 48 64 (3072)
I0628 12:47:09.563921 20741 net.cpp:137] Memory required for data: 488337408
I0628 12:47:09.563925 20741 layer_factory.hpp:77] Creating layer score63_slicer_conv_62_split
I0628 12:47:09.563930 20741 net.cpp:84] Creating Layer score63_slicer_conv_62_split
I0628 12:47:09.563933 20741 net.cpp:406] score63_slicer_conv_62_split <- score63
I0628 12:47:09.563938 20741 net.cpp:380] score63_slicer_conv_62_split -> score63_slicer_conv_62_split_0
I0628 12:47:09.563944 20741 net.cpp:380] score63_slicer_conv_62_split -> score63_slicer_conv_62_split_1
I0628 12:47:09.563980 20741 net.cpp:122] Setting up score63_slicer_conv_62_split
I0628 12:47:09.563985 20741 net.cpp:129] Top shape: 1 1 48 64 (3072)
I0628 12:47:09.563989 20741 net.cpp:129] Top shape: 1 1 48 64 (3072)
I0628 12:47:09.563992 20741 net.cpp:137] Memory required for data: 488361984
I0628 12:47:09.563997 20741 layer_factory.hpp:77] Creating layer score64_slicer_conv_63_split
I0628 12:47:09.564002 20741 net.cpp:84] Creating Layer score64_slicer_conv_63_split
I0628 12:47:09.564005 20741 net.cpp:406] score64_slicer_conv_63_split <- score64
I0628 12:47:09.564010 20741 net.cpp:380] score64_slicer_conv_63_split -> score64_slicer_conv_63_split_0
I0628 12:47:09.564015 20741 net.cpp:380] score64_slicer_conv_63_split -> score64_slicer_conv_63_split_1
I0628 12:47:09.564052 20741 net.cpp:122] Setting up score64_slicer_conv_63_split
I0628 12:47:09.564059 20741 net.cpp:129] Top shape: 1 1 48 64 (3072)
I0628 12:47:09.564062 20741 net.cpp:129] Top shape: 1 1 48 64 (3072)
I0628 12:47:09.564065 20741 net.cpp:137] Memory required for data: 488386560
I0628 12:47:09.564069 20741 layer_factory.hpp:77] Creating layer sumscore
I0628 12:47:09.564083 20741 net.cpp:84] Creating Layer sumscore
I0628 12:47:09.564088 20741 net.cpp:406] sumscore <- score1_slicer_conv_0_split_0
I0628 12:47:09.564093 20741 net.cpp:406] sumscore <- score2_slicer_conv_1_split_0
I0628 12:47:09.564097 20741 net.cpp:406] sumscore <- score3_slicer_conv_2_split_0
…
I0628 12:47:09.565121 20741 net.cpp:380] sumscore_sumscore_0_split -> sumscore_sumscore_0_split_59
I0628 12:47:09.565132 20741 net.cpp:380] sumscore_sumscore_0_split -> sumscore_sumscore_0_split_60
I0628 12:47:09.565143 20741 net.cpp:380] sumscore_sumscore_0_split -> sumscore_sumscore_0_split_61
I0628 12:47:09.565155 20741 net.cpp:380] sumscore_sumscore_0_split -> sumscore_sumscore_0_split_62
I0628 12:47:09.565167 20741 net.cpp:380] sumscore_sumscore_0_split -> sumscore_sumscore_0_split_63
I0628 12:47:09.565951 20741 net.cpp:122] Setting up sumscore_sumscore_0_split
I0628 12:47:09.565959 20741 net.cpp:129] Top shape: 1 1 48 64 (3072)
I0628 12:47:09.565963 20741 net.cpp:129] Top shape: 1 1 48 64 (3072)
I0628 12:47:09.565968 20741 net.cpp:129] Top shape: 1 1 48 64 (3072)
I0628 12:47:09.565971 20741 net.cpp:129] Top shape: 1 1 48 64 (3072)
I0628 12:47:09.565975 20741 net.cpp:129] Top shape: 1 1 48 64 (3072)
I0628 12:47:09.565979 20741 net.cpp:129] Top shape: 1 1 48 64 (3072)
I0628 12:47:09.565982 20741 net.cpp:129] Top shape: 1 1 48 64 (3072)
I0628 12:47:09.565986 20741 net.cpp:129] Top shape: 1 1 48 64 (3072)
I0628 12:47:09.565990 20741 net.cpp:129] Top shape: 1 1 48 64 (3072)
I0628 12:47:09.565994 20741 net.cpp:129] Top shape: 1 1 48 64 (3072)
I0628 12:47:09.565997 20741 net.cpp:129] Top shape: 1 1 48 64 (3072)
I0628 12:47:09.566001 20741 net.cpp:129] Top shape: 1 1 48 64 (3072)
I0628 12:47:09.566005 20741 net.cpp:129] Top shape: 1 1 48 64 (3072)
I0628 12:47:09.566009 20741 net.cpp:129] Top shape: 1 1 48 64 (3072)
I0628 12:47:09.566012 20741 net.cpp:129] Top shape: 1 1 48 64 (3072)
I0628 12:47:09.566016 20741 net.cpp:129] Top shape: 1 1 48 64 (3072)
I0628 12:47:09.566020 20741 net.cpp:129] Top shape: 1 1 48 64 (3072)
I0628 12:47:09.566031 20741 net.cpp:129] Top shape: 1 1 48 64 (3072)
I0628 12:47:09.566035 20741 net.cpp:129] Top shape: 1 1 48 64 (3072)
I0628 12:47:09.566040 20741 net.cpp:129] Top shape: 1 1 48 64 (3072)
I0628 12:47:09.566042 20741 net.cpp:129] Top shape: 1 1 48 64 (3072)
I0628 12:47:09.566046 20741 net.cpp:129] Top shape: 1 1 48 64 (3072)
I0628 12:47:09.566051 20741 net.cpp:129] Top shape: 1 1 48 64 (3072)
I0628 12:47:09.566054 20741 net.cpp:129] Top shape: 1 1 48 64 (3072)
I0628 12:47:09.566058 20741 net.cpp:129] Top shape: 1 1 48 64 (3072)
I0628 12:47:09.566062 20741 net.cpp:129] Top shape: 1 1 48 64 (3072)
I0628 12:47:09.566066 20741 net.cpp:129] Top shape: 1 1 48 64 (3072)
I0628 12:47:09.566069 20741 net.cpp:129] Top shape: 1 1 48 64 (3072)
I0628 12:47:09.566073 20741 net.cpp:129] Top shape: 1 1 48 64 (3072)
I0628 12:47:09.566077 20741 net.cpp:129] Top shape: 1 1 48 64 (3072)
I0628 12:47:09.566082 20741 net.cpp:129] Top shape: 1 1 48 64 (3072)
I0628 12:47:09.566084 20741 net.cpp:129] Top shape: 1 1 48 64 (3072)
I0628 12:47:09.566088 20741 net.cpp:129] Top shape: 1 1 48 64 (3072)
I0628 12:47:09.566092 20741 net.cpp:129] Top shape: 1 1 48 64 (3072)
I0628 12:47:09.566095 20741 net.cpp:129] Top shape: 1 1 48 64 (3072)
I0628 12:47:09.566099 20741 net.cpp:129] Top shape: 1 1 48 64 (3072)
I0628 12:47:09.566102 20741 net.cpp:129] Top shape: 1 1 48 64 (3072)
I0628 12:47:09.566107 20741 net.cpp:129] Top shape: 1 1 48 64 (3072)
I0628 12:47:09.566110 20741 net.cpp:129] Top shape: 1 1 48 64 (3072)
I0628 12:47:09.566113 20741 net.cpp:129] Top shape: 1 1 48 64 (3072)
I0628 12:47:09.566118 20741 net.cpp:129] Top shape: 1 1 48 64 (3072)
I0628 12:47:09.566121 20741 net.cpp:129] Top shape: 1 1 48 64 (3072)
I0628 12:47:09.566124 20741 net.cpp:129] Top shape: 1 1 48 64 (3072)
I0628 12:47:09.566128 20741 net.cpp:129] Top shape: 1 1 48 64 (3072)
I0628 12:47:09.566133 20741 net.cpp:129] Top shape: 1 1 48 64 (3072)
I0628 12:47:09.566135 20741 net.cpp:129] Top shape: 1 1 48 64 (3072)
I0628 12:47:09.566139 20741 net.cpp:129] Top shape: 1 1 48 64 (3072)
I0628 12:47:09.566143 20741 net.cpp:129] Top shape: 1 1 48 64 (3072)
I0628 12:47:09.566146 20741 net.cpp:129] Top shape: 1 1 48 64 (3072)
I0628 12:47:09.566150 20741 net.cpp:129] Top shape: 1 1 48 64 (3072)
I0628 12:47:09.566154 20741 net.cpp:129] Top shape: 1 1 48 64 (3072)
I0628 12:47:09.566157 20741 net.cpp:129] Top shape: 1 1 48 64 (3072)
I0628 12:47:09.566161 20741 net.cpp:129] Top shape: 1 1 48 64 (3072)
I0628 12:47:09.566164 20741 net.cpp:129] Top shape: 1 1 48 64 (3072)
I0628 12:47:09.566167 20741 net.cpp:129] Top shape: 1 1 48 64 (3072)
I0628 12:47:09.566171 20741 net.cpp:129] Top shape: 1 1 48 64 (3072)
I0628 12:47:09.566175 20741 net.cpp:129] Top shape: 1 1 48 64 (3072)
I0628 12:47:09.566179 20741 net.cpp:129] Top shape: 1 1 48 64 (3072)
I0628 12:47:09.566182 20741 net.cpp:129] Top shape: 1 1 48 64 (3072)
I0628 12:47:09.566186 20741 net.cpp:129] Top shape: 1 1 48 64 (3072)
I0628 12:47:09.566190 20741 net.cpp:129] Top shape: 1 1 48 64 (3072)
I0628 12:47:09.566193 20741 net.cpp:129] Top shape: 1 1 48 64 (3072)
I0628 12:47:09.566197 20741 net.cpp:129] Top shape: 1 1 48 64 (3072)
I0628 12:47:09.566200 20741 net.cpp:129] Top shape: 1 1 48 64 (3072)
I0628 12:47:09.566203 20741 net.cpp:137] Memory required for data: 489185280
I0628 12:47:09.566207 20741 layer_factory.hpp:77] Creating layer loss1
I0628 12:47:09.566215 20741 net.cpp:84] Creating Layer loss1
I0628 12:47:09.566220 20741 net.cpp:406] loss1 <- score1_slicer_conv_0_split_1
I0628 12:47:09.566224 20741 net.cpp:406] loss1 <- label_label_0_split_0
I0628 12:47:09.566229 20741 net.cpp:406] loss1 <- sumscore_sumscore_0_split_0
…
I0628 12:47:09.583886 20741 net.cpp:51] Initializing net from parameters: 
name: "crowd_counting"
state {
  phase: TEST
}
layer {
  name: "data"
  type: "Data"
  top: "data"
  include {
    phase: TEST
  }
  data_param {
    source: "/home/peiyong/Work/Zenglin/szl/ShanghaiTech/partA/test_8/image_lmdb"
    batch_size: 1
    backend: LMDB
  }
}
layer {
  name: "label"
  type: "Data"
  top: "label"
  include {
    phase: TEST
  }
  data_param {
    source: "/home/peiyong/Work/Zenglin/szl/ShanghaiTech/partA/test_8/dmap_lmdb"
    batch_size: 1
    backend: LMDB
  }
}
layer {
  name: "conv1_1"
  type: "Convolution"
  bottom: "data"
  top: "conv1_1"
  param {
    lr_mult: 0.1
    decay_mult: 1
  }
  param {
    lr_mult: 0.2
    decay_mult: 0
  }
  convolution_param {
    num_output: 64
    pad: 1
    kernel_size: 3
    weight_filler {
      type: "gaussian"
      std: 0.01
    }
    bias_filler {
      type: "constant"
      value: 0
    }
  }
}
layer {
  name: "relu1_1"
  type: "ReLU"
  bottom: "conv1_1"
  top: "conv1_1"
}
layer {
  name: "conv1_2"
  type: "Convolution"
  bottom: "conv1_1"
  top: "conv1_2"
  param {
    lr_mult: 0.1
    decay_mult: 1
  }
  param {
    lr_mult: 0.2
    decay_mult: 0
  }
  convolution_param {
    num_output: 64
    pad: 1
    kernel_size: 3
    weight_filler {
      type: "gaussian"
      std: 0.01
    }
    bias_filler {
      type: "constant"
      value: 0
    }
  }
}
layer {
  name: "relu1_2"
  type: "ReLU"
  bottom: "conv1_2"
  top: "conv1_2"
}
layer {
  name: "pool1"
  type: "Pooling"
  bottom: "conv1_2"
  top: "pool1"
  pooling_param {
    pool: MAX
    kernel_size: 2
    stride: 2
  }
}
layer {
  name: "conv2_1"
  type: "Convolution"
  bottom: "pool1"
  top: "conv2_1"
  param {
    lr_mult: 0.1
    decay_mult: 1
  }
  param {
    lr_mult: 0.2
    decay_mult: 0
  }
  convolution_param {
    num_output: 128
    pad: 1
    kernel_size: 3
    weight_filler {
      type: "gaussian"
      std: 0.01
    }
    bias_filler {
      type: "constant"
      value: 0
    }
  }
}
layer {
  name: "relu2_1"
  type: "ReLU"
  bottom: "conv2_1"
  top: "conv2_1"
}
layer {
  name: "conv2_2"
  type: "Convolution"
  bottom: "conv2_1"
  top: "conv2_2"
  param {
    lr_mult: 0.1
    decay_mult: 1
  }
  param {
    lr_mult: 0.2
    decay_mult: 0
  }
  convolution_param {
    num_output: 128
    pad: 1
    kernel_size: 3
    weight_filler {
      type: "gaussian"
      std: 0.01
    }
    bias_filler {
      type: "constant"
      value: 0
    }
  }
}
layer {
  name: "relu2_2"
  type: "ReLU"
  bottom: "conv2_2"
  top: "conv2_2"
}
layer {
  name: "pool2"
  type: "Pooling"
  bottom: "conv2_2"
  top: "pool2"
  pooling_param {
    pool: MAX
    kernel_size: 2
    stride: 2
  }
}
layer {
  name: "conv3_1"
  type: "Convolution"
  bottom: "pool2"
  top: "conv3_1"
  param {
    lr_mult: 0.1
    decay_mult: 1
  }
  param {
    lr_mult: 0.2
    decay_mult: 0
  }
  convolution_param {
    num_output: 256
    pad: 1
    kernel_size: 3
    weight_filler {
      type: "gaussian"
      std: 0.01
    }
    bias_filler {
      type: "constant"
      value: 0
    }
  }
}
layer {
  name: "relu3_1"
  type: "ReLU"
  bottom: "conv3_1"
  top: "conv3_1"
}
layer {
  name: "conv3_2"
  type: "Convolution"
  bottom: "conv3_1"
  top: "conv3_2"
  param {
    lr_mult: 0.1
    decay_mult: 1
  }
  param {
    lr_mult: 0.2
    decay_mult: 0
  }
  convolution_param {
    num_output: 256
    pad: 1
    kernel_size: 3
    weight_filler {
      type: "gaussian"
      std: 0.01
    }
    bias_filler {
      type: "constant"
      value: 0
    }
  }
}
layer {
  name: "relu3_2"
  type: "ReLU"
  bottom: "conv3_2"
  top: "conv3_2"
}
layer {
  name: "conv3_3"
  type: "Convolution"
  bottom: "conv3_2"
  top: "conv3_3"
  param {
    lr_mult: 0.1
    decay_mult: 1
  }
  param {
    lr_mult: 0.2
    decay_mult: 0
  }
  convolution_param {
    num_output: 256
    pad: 1
    kernel_size: 3
    weight_filler {
      type: "gaussian"
      std: 0.01
    }
    bias_filler {
      type: "constant"
      value: 0
    }
  }
}
layer {
  name: "relu3_3"
  type: "ReLU"
  bottom: "conv3_3"
  top: "conv3_3"
}
layer {
  name: "pool3"
  type: "Pooling"
  bottom: "conv3_3"
  top: "pool3"
  pooling_param {
    pool: MAX
    kernel_size: 2
    stride: 2
  }
}
layer {
  name: "conv4_1"
  type: "Convolution"
  bottom: "pool3"
  top: "conv4_1"
  param {
    lr_mult: 0.1
    decay_mult: 1
  }
  param {
    lr_mult: 0.2
    decay_mult: 0
  }
  convolution_param {
    num_output: 512
    pad: 1
    kernel_size: 3
    weight_filler {
      type: "gaussian"
      std: 0.01
    }
    bias_filler {
      type: "constant"
      value: 0
    }
  }
}
layer {
  name: "relu4_1"
  type: "ReLU"
  bottom: "conv4_1"
  top: "conv4_1"
}
layer {
  name: "conv4_2"
  type: "Convolution"
  bottom: "conv4_1"
  top: "conv4_2"
  param {
    lr_mult: 0.1
    decay_mult: 1
  }
  param {
    lr_mult: 0.2
    decay_mult: 0
  }
  convolution_param {
    num_output: 512
    pad: 1
    kernel_size: 3
    weight_filler {
      type: "gaussian"
      std: 0.01
    }
    bias_filler {
      type: "constant"
      value: 0
    }
  }
}
layer {
  name: "relu4_2"
  type: "ReLU"
  bottom: "conv4_2"
  top: "conv4_2"
}
layer {
  name: "conv4_3"
  type: "Convolution"
  bottom: "conv4_2"
  top: "conv4_3"
  param {
    lr_mult: 0.1
    decay_mult: 1
  }
  param {
    lr_mult: 0.2
    decay_mult: 0
  }
  convolution_param {
    num_output: 512
    pad: 1
    kernel_size: 3
    weight_filler {
      type: "gaussian"
      std: 0.01
    }
    bias_filler {
      type: "constant"
      value: 0
    }
  }
}
layer {
  name: "relu4_3"
  type: "ReLU"
  bottom: "conv4_3"
  top: "conv4_3"
}
layer {
  name: "pool4"
  type: "Pooling"
  bottom: "conv4_3"
  top: "pool4"
  pooling_param {
    pool: MAX
    kernel_size: 3
    stride: 1
    pad: 1
  }
}
layer {
  name: "conv5_1"
  type: "Convolution"
  bottom: "pool4"
  top: "conv5_1"
  param {
    lr_mult: 0.1
    decay_mult: 1
  }
  param {
    lr_mult: 0.2
    decay_mult: 0
  }
  convolution_param {
    num_output: 512
    pad: 2
    kernel_size: 3
    weight_filler {
      type: "gaussian"
      std: 0.01
    }
    bias_filler {
      type: "constant"
      value: 0
    }
    dilation: 2
  }
}
layer {
  name: "relu5_1"
  type: "ReLU"
  bottom: "conv5_1"
  top: "conv5_1"
}
layer {
  name: "conv5_2"
  type: "Convolution"
  bottom: "conv5_1"
  top: "conv5_2"
  param {
    lr_mult: 0.1
    decay_mult: 1
  }
  param {
    lr_mult: 0.2
    decay_mult: 0
  }
  convolution_param {
    num_output: 512
    pad: 2
    kernel_size: 3
    weight_filler {
      type: "gaussian"
      std: 0.01
    }
    bias_filler {
      type: "constant"
      value: 0
    }
    dilation: 2
  }
}
layer {
  name: "relu5_2"
  type: "ReLU"
  bottom: "conv5_2"
  top: "conv5_2"
}
layer {
  name: "conv5_3"
  type: "Convolution"
  bottom: "conv5_2"
  top: "conv5_3"
  param {
    lr_mult: 0.1
    decay_mult: 1
  }
  param {
    lr_mult: 0.2
    decay_mult: 0
  }
  convolution_param {
    num_output: 512
    pad: 2
    kernel_size: 3
    weight_filler {
      type: "gaussian"
      std: 0.01
    }
    bias_filler {
      type: "constant"
      value: 0
    }
    dilation: 2
  }
}
layer {
  name: "relu5_3"
  type: "ReLU"
  bottom: "conv5_3"
  top: "conv5_3"
}
layer {
  name: "conv_score"
  type: "Convolution"
  bottom: "conv5_3"
  top: "conv_score"
  param {
    lr_mult: 10
    decay_mult: 1
  }
  param {
    lr_mult: 20
    decay_mult: 0
  }
  convolution_param {
    num_output: 64
    pad: 0
    kernel_size: 1
    group: 64
    stride: 1
    weight_filler {
      type: "constant"
      value: 0.0001
    }
    bias_filler {
      type: "constant"
      value: 0
    }
  }
}
layer {
  name: "relu_score"
  type: "ReLU"
  bottom: "conv_score"
  top: "conv_score"
}
layer {
  name: "slicer_conv"
  type: "Slice"
  bottom: "conv_score"
  top: "score1"
  top: "score2"
  top: "score3"
  top: "score4"
  top: "score5"
  top: "score6"
  top: "score7"
  top: "score8"
  top: "score9"
  top: "score10"
  top: "score11"
  top: "score12"
  top: "score13"
  top: "score14"
  top: "score15"
  top: "score16"
  top: "score17"
  top: "score18"
  top: "score19"
  top: "score20"
  top: "score21"
  top: "score22"
  top: "score23"
  top: "score24"
  top: "score25"
  top: "score26"
  top: "score27"
  top: "score28"
  top: "score29"
  top: "score30"
  top: "score31"
  top: "score32"
  top: "score33"
  top: "score34"
  top: "score35"
  top: "score36"
  top: "score37"
  top: "score38"
  top: "score39"
  top: "score40"
  top: "score41"
  top: "score42"
  top: "score43"
  top: "score44"
  top: "score45"
  top: "score46"
  top: "score47"
  top: "score48"
  top: "score49"
  top: "score50"
  top: "score51"
  top: "score52"
  top: "score53"
  top: "score54"
  top: "score55"
  top: "score56"
  top: "score57"
  top: "score58"
  top: "score59"
  top: "score60"
  top: "score61"
  top: "score62"
  top: "score63"
  top: "score64"
  slice_param {
    axis: 1
  }
}
layer {
  name: "sumscore"
  type: "Eltwise"
  bottom: "score1"
  bottom: "score2"
  bottom: "score3"
  bottom: "score4"
  bottom: "score5"
  bottom: "score6"
  bottom: "score7"
  bottom: "score8"
  bottom: "score9"
  bottom: "score10"
  bottom: "score11"
  bottom: "score12"
  bottom: "score13"
  bottom: "score14"
  bottom: "score15"
  bottom: "score16"
  bottom: "score17"
  bottom: "score18"
  bottom: "score19"
  bottom: "score20"
  bottom: "score21"
  bottom: "score22"
  bottom: "score23"
  bottom: "score24"
  bottom: "score25"
  bottom: "score26"
  bottom: "score27"
  bottom: "score28"
  bottom: "score29"
  bottom: "score30"
  bottom: "score31"
  bottom: "score32"
  bottom: "score33"
  bottom: "score34"
  bottom: "score35"
  bottom: "score36"
  bottom: "score37"
  bottom: "score38"
  bottom: "score39"
  bottom: "score40"
  bottom: "score41"
  bottom: "score42"
  bottom: "score43"
  bottom: "score44"
  bottom: "score45"
  bottom: "score46"
  bottom: "score47"
  bottom: "score48"
  bottom: "score49"
  bottom: "score50"
  bottom: "score51"
  bottom: "score52"
  bottom: "score53"
  bottom: "score54"
  bottom: "score55"
  bottom: "score56"
  bottom: "score57"
  bottom: "score58"
  bottom: "score59"
  bottom: "score60"
  bottom: "score61"
  bottom: "score62"
  bottom: "score63"
  bottom: "score64"
  top: "sumscore"
  eltwise_param {
    operation: SUM
  }
}
layer {
  name: "avgscore"
  type: "Power"
  bottom: "sumscore"
  top: "avgscore"
  include {
    phase: TEST
  }
  power_param {
    power: 1
    scale: 0.015625
    shift: 0
  }
}
layer {
  name: "mae"
  type: "MAELoss"
  bottom: "avgscore"
  bottom: "label"
  top: "mae"
  include {
    phase: TEST
  }
}
layer {
  name: "mse"
  type: "MSELoss"
  bottom: "avgscore"
  bottom: "label"
  top: "mse"
  include {
    phase: TEST
  }
}
I0628 12:47:09.610374 20741 layer_factory.hpp:77] Creating layer data
I0628 12:47:09.610453 20741 db_lmdb.cpp:35] Opened lmdb /home/peiyong/Work/Zenglin/szl/ShanghaiTech/partA/test_8/image_lmdb
I0628 12:47:09.610476 20741 net.cpp:84] Creating Layer data
I0628 12:47:09.610481 20741 net.cpp:380] data -> data
I0628 12:47:09.612447 20741 data_layer.cpp:45] output data size: 1,3,704,1024
I0628 12:47:09.626854 20741 net.cpp:122] Setting up data
I0628 12:47:09.626883 20741 net.cpp:129] Top shape: 1 3 704 1024 (2162688)
I0628 12:47:09.626885 20741 net.cpp:137] Memory required for data: 8650752
I0628 12:47:09.626915 20741 layer_factory.hpp:77] Creating layer label
I0628 12:47:09.626971 20741 db_lmdb.cpp:35] Opened lmdb /home/peiyong/Work/Zenglin/szl/ShanghaiTech/partA/test_8/dmap_lmdb
I0628 12:47:09.626989 20741 net.cpp:84] Creating Layer label
I0628 12:47:09.626996 20741 net.cpp:380] label -> label
I0628 12:47:09.627178 20741 data_layer.cpp:45] output data size: 1,1,88,128
I0628 12:47:09.627368 20741 net.cpp:122] Setting up label
I0628 12:47:09.627378 20741 net.cpp:129] Top shape: 1 1 88 128 (11264)
I0628 12:47:09.627382 20741 net.cpp:137] Memory required for data: 8695808
I0628 12:47:09.627385 20741 layer_factory.hpp:77] Creating layer label_label_0_split
I0628 12:47:09.627393 20741 net.cpp:84] Creating Layer label_label_0_split
I0628 12:47:09.627405 20741 net.cpp:406] label_label_0_split <- label
I0628 12:47:09.627411 20741 net.cpp:380] label_label_0_split -> label_label_0_split_0
I0628 12:47:09.627418 20741 net.cpp:380] label_label_0_split -> label_label_0_split_1
I0628 12:47:09.627466 20741 net.cpp:122] Setting up label_label_0_split
I0628 12:47:09.627473 20741 net.cpp:129] Top shape: 1 1 88 128 (11264)
I0628 12:47:09.627477 20741 net.cpp:129] Top shape: 1 1 88 128 (11264)
I0628 12:47:09.627480 20741 net.cpp:137] Memory required for data: 8785920
I0628 12:47:09.627483 20741 layer_factory.hpp:77] Creating layer conv1_1
I0628 12:47:09.627495 20741 net.cpp:84] Creating Layer conv1_1
I0628 12:47:09.627497 20741 net.cpp:406] conv1_1 <- data
I0628 12:47:09.627503 20741 net.cpp:380] conv1_1 -> conv1_1
I0628 12:47:09.631379 20741 net.cpp:122] Setting up conv1_1
I0628 12:47:09.631397 20741 net.cpp:129] Top shape: 1 64 704 1024 (46137344)
I0628 12:47:09.631402 20741 net.cpp:137] Memory required for data: 193335296
I0628 12:47:09.631417 20741 layer_factory.hpp:77] Creating layer relu1_1
I0628 12:47:09.631425 20741 net.cpp:84] Creating Layer relu1_1
I0628 12:47:09.631429 20741 net.cpp:406] relu1_1 <- conv1_1
I0628 12:47:09.631434 20741 net.cpp:367] relu1_1 -> conv1_1 (in-place)
I0628 12:47:09.632055 20741 net.cpp:122] Setting up relu1_1
I0628 12:47:09.632071 20741 net.cpp:129] Top shape: 1 64 704 1024 (46137344)
I0628 12:47:09.632074 20741 net.cpp:137] Memory required for data: 377884672
I0628 12:47:09.632078 20741 layer_factory.hpp:77] Creating layer conv1_2
I0628 12:47:09.632088 20741 net.cpp:84] Creating Layer conv1_2
I0628 12:47:09.632092 20741 net.cpp:406] conv1_2 <- conv1_1
I0628 12:47:09.632098 20741 net.cpp:380] conv1_2 -> conv1_2
I0628 12:47:09.635910 20741 net.cpp:122] Setting up conv1_2
I0628 12:47:09.635927 20741 net.cpp:129] Top shape: 1 64 704 1024 (46137344)
I0628 12:47:09.635931 20741 net.cpp:137] Memory required for data: 562434048
I0628 12:47:09.635941 20741 layer_factory.hpp:77] Creating layer relu1_2
I0628 12:47:09.635948 20741 net.cpp:84] Creating Layer relu1_2
I0628 12:47:09.635952 20741 net.cpp:406] relu1_2 <- conv1_2
I0628 12:47:09.635958 20741 net.cpp:367] relu1_2 -> conv1_2 (in-place)
I0628 12:47:09.636126 20741 net.cpp:122] Setting up relu1_2
I0628 12:47:09.636134 20741 net.cpp:129] Top shape: 1 64 704 1024 (46137344)
I0628 12:47:09.636138 20741 net.cpp:137] Memory required for data: 746983424
I0628 12:47:09.636142 20741 layer_factory.hpp:77] Creating layer pool1
I0628 12:47:09.636147 20741 net.cpp:84] Creating Layer pool1
I0628 12:47:09.636152 20741 net.cpp:406] pool1 <- conv1_2
I0628 12:47:09.636157 20741 net.cpp:380] pool1 -> pool1
I0628 12:47:09.636211 20741 net.cpp:122] Setting up pool1
I0628 12:47:09.636219 20741 net.cpp:129] Top shape: 1 64 352 512 (11534336)
I0628 12:47:09.636221 20741 net.cpp:137] Memory required for data: 793120768
I0628 12:47:09.636224 20741 layer_factory.hpp:77] Creating layer conv2_1
I0628 12:47:09.636236 20741 net.cpp:84] Creating Layer conv2_1
I0628 12:47:09.636240 20741 net.cpp:406] conv2_1 <- pool1
I0628 12:47:09.636245 20741 net.cpp:380] conv2_1 -> conv2_1
I0628 12:47:09.639339 20741 net.cpp:122] Setting up conv2_1
I0628 12:47:09.639356 20741 net.cpp:129] Top shape: 1 128 352 512 (23068672)
I0628 12:47:09.639360 20741 net.cpp:137] Memory required for data: 885395456
I0628 12:47:09.639390 20741 layer_factory.hpp:77] Creating layer relu2_1
I0628 12:47:09.639398 20741 net.cpp:84] Creating Layer relu2_1
I0628 12:47:09.639402 20741 net.cpp:406] relu2_1 <- conv2_1
I0628 12:47:09.639408 20741 net.cpp:367] relu2_1 -> conv2_1 (in-place)
I0628 12:47:09.639961 20741 net.cpp:122] Setting up relu2_1
I0628 12:47:09.639971 20741 net.cpp:129] Top shape: 1 128 352 512 (23068672)
I0628 12:47:09.639974 20741 net.cpp:137] Memory required for data: 977670144
I0628 12:47:09.639978 20741 layer_factory.hpp:77] Creating layer conv2_2
I0628 12:47:09.639987 20741 net.cpp:84] Creating Layer conv2_2
I0628 12:47:09.639991 20741 net.cpp:406] conv2_2 <- conv2_1
I0628 12:47:09.639997 20741 net.cpp:380] conv2_2 -> conv2_2
I0628 12:47:09.644151 20741 net.cpp:122] Setting up conv2_2
I0628 12:47:09.644167 20741 net.cpp:129] Top shape: 1 128 352 512 (23068672)
I0628 12:47:09.644170 20741 net.cpp:137] Memory required for data: 1069944832
I0628 12:47:09.644178 20741 layer_factory.hpp:77] Creating layer relu2_2
I0628 12:47:09.644184 20741 net.cpp:84] Creating Layer relu2_2
I0628 12:47:09.644188 20741 net.cpp:406] relu2_2 <- conv2_2
I0628 12:47:09.644193 20741 net.cpp:367] relu2_2 -> conv2_2 (in-place)
I0628 12:47:09.644764 20741 net.cpp:122] Setting up relu2_2
I0628 12:47:09.644775 20741 net.cpp:129] Top shape: 1 128 352 512 (23068672)
I0628 12:47:09.644779 20741 net.cpp:137] Memory required for data: 1162219520
I0628 12:47:09.644784 20741 layer_factory.hpp:77] Creating layer pool2
I0628 12:47:09.644790 20741 net.cpp:84] Creating Layer pool2
I0628 12:47:09.644794 20741 net.cpp:406] pool2 <- conv2_2
I0628 12:47:09.644799 20741 net.cpp:380] pool2 -> pool2
I0628 12:47:09.644853 20741 net.cpp:122] Setting up pool2
I0628 12:47:09.644860 20741 net.cpp:129] Top shape: 1 128 176 256 (5767168)
I0628 12:47:09.644862 20741 net.cpp:137] Memory required for data: 1185288192
I0628 12:47:09.644866 20741 layer_factory.hpp:77] Creating layer conv3_1
I0628 12:47:09.644875 20741 net.cpp:84] Creating Layer conv3_1
I0628 12:47:09.644877 20741 net.cpp:406] conv3_1 <- pool2
I0628 12:47:09.644883 20741 net.cpp:380] conv3_1 -> conv3_1
I0628 12:47:09.649850 20741 net.cpp:122] Setting up conv3_1
I0628 12:47:09.649873 20741 net.cpp:129] Top shape: 1 256 176 256 (11534336)
I0628 12:47:09.649876 20741 net.cpp:137] Memory required for data: 1231425536
I0628 12:47:09.649888 20741 layer_factory.hpp:77] Creating layer relu3_1
I0628 12:47:09.649896 20741 net.cpp:84] Creating Layer relu3_1
I0628 12:47:09.649900 20741 net.cpp:406] relu3_1 <- conv3_1
I0628 12:47:09.649906 20741 net.cpp:367] relu3_1 -> conv3_1 (in-place)
I0628 12:47:09.650072 20741 net.cpp:122] Setting up relu3_1
I0628 12:47:09.650081 20741 net.cpp:129] Top shape: 1 256 176 256 (11534336)
I0628 12:47:09.650084 20741 net.cpp:137] Memory required for data: 1277562880
I0628 12:47:09.650087 20741 layer_factory.hpp:77] Creating layer conv3_2
I0628 12:47:09.650096 20741 net.cpp:84] Creating Layer conv3_2
I0628 12:47:09.650100 20741 net.cpp:406] conv3_2 <- conv3_1
I0628 12:47:09.650106 20741 net.cpp:380] conv3_2 -> conv3_2
I0628 12:47:09.657491 20741 net.cpp:122] Setting up conv3_2
I0628 12:47:09.657516 20741 net.cpp:129] Top shape: 1 256 176 256 (11534336)
I0628 12:47:09.657519 20741 net.cpp:137] Memory required for data: 1323700224
I0628 12:47:09.657527 20741 layer_factory.hpp:77] Creating layer relu3_2
I0628 12:47:09.657538 20741 net.cpp:84] Creating Layer relu3_2
I0628 12:47:09.657543 20741 net.cpp:406] relu3_2 <- conv3_2
I0628 12:47:09.657549 20741 net.cpp:367] relu3_2 -> conv3_2 (in-place)
I0628 12:47:09.658109 20741 net.cpp:122] Setting up relu3_2
I0628 12:47:09.658120 20741 net.cpp:129] Top shape: 1 256 176 256 (11534336)
I0628 12:47:09.658123 20741 net.cpp:137] Memory required for data: 1369837568
I0628 12:47:09.658128 20741 layer_factory.hpp:77] Creating layer conv3_3
I0628 12:47:09.658138 20741 net.cpp:84] Creating Layer conv3_3
I0628 12:47:09.658141 20741 net.cpp:406] conv3_3 <- conv3_2
I0628 12:47:09.658148 20741 net.cpp:380] conv3_3 -> conv3_3
I0628 12:47:09.665505 20741 net.cpp:122] Setting up conv3_3
I0628 12:47:09.665525 20741 net.cpp:129] Top shape: 1 256 176 256 (11534336)
I0628 12:47:09.665529 20741 net.cpp:137] Memory required for data: 1415974912
I0628 12:47:09.665534 20741 layer_factory.hpp:77] Creating layer relu3_3
I0628 12:47:09.665540 20741 net.cpp:84] Creating Layer relu3_3
I0628 12:47:09.665545 20741 net.cpp:406] relu3_3 <- conv3_3
I0628 12:47:09.665551 20741 net.cpp:367] relu3_3 -> conv3_3 (in-place)
I0628 12:47:09.666105 20741 net.cpp:122] Setting up relu3_3
I0628 12:47:09.666115 20741 net.cpp:129] Top shape: 1 256 176 256 (11534336)
I0628 12:47:09.666118 20741 net.cpp:137] Memory required for data: 1462112256
I0628 12:47:09.666121 20741 layer_factory.hpp:77] Creating layer pool3
I0628 12:47:09.666126 20741 net.cpp:84] Creating Layer pool3
I0628 12:47:09.666128 20741 net.cpp:406] pool3 <- conv3_3
I0628 12:47:09.666133 20741 net.cpp:380] pool3 -> pool3
I0628 12:47:09.666188 20741 net.cpp:122] Setting up pool3
I0628 12:47:09.666194 20741 net.cpp:129] Top shape: 1 256 88 128 (2883584)
I0628 12:47:09.666198 20741 net.cpp:137] Memory required for data: 1473646592
I0628 12:47:09.666200 20741 layer_factory.hpp:77] Creating layer conv4_1
I0628 12:47:09.666208 20741 net.cpp:84] Creating Layer conv4_1
I0628 12:47:09.666213 20741 net.cpp:406] conv4_1 <- pool3
I0628 12:47:09.666219 20741 net.cpp:380] conv4_1 -> conv4_1
I0628 12:47:09.678690 20741 net.cpp:122] Setting up conv4_1
I0628 12:47:09.678704 20741 net.cpp:129] Top shape: 1 512 88 128 (5767168)
I0628 12:47:09.678706 20741 net.cpp:137] Memory required for data: 1496715264
I0628 12:47:09.678711 20741 layer_factory.hpp:77] Creating layer relu4_1
I0628 12:47:09.678716 20741 net.cpp:84] Creating Layer relu4_1
I0628 12:47:09.678719 20741 net.cpp:406] relu4_1 <- conv4_1
I0628 12:47:09.678725 20741 net.cpp:367] relu4_1 -> conv4_1 (in-place)
I0628 12:47:09.678890 20741 net.cpp:122] Setting up relu4_1
I0628 12:47:09.678900 20741 net.cpp:129] Top shape: 1 512 88 128 (5767168)
I0628 12:47:09.678902 20741 net.cpp:137] Memory required for data: 1519783936
I0628 12:47:09.678905 20741 layer_factory.hpp:77] Creating layer conv4_2
I0628 12:47:09.678913 20741 net.cpp:84] Creating Layer conv4_2
I0628 12:47:09.678917 20741 net.cpp:406] conv4_2 <- conv4_1
I0628 12:47:09.678923 20741 net.cpp:380] conv4_2 -> conv4_2
I0628 12:47:09.702004 20741 net.cpp:122] Setting up conv4_2
I0628 12:47:09.702031 20741 net.cpp:129] Top shape: 1 512 88 128 (5767168)
I0628 12:47:09.702034 20741 net.cpp:137] Memory required for data: 1542852608
I0628 12:47:09.702045 20741 layer_factory.hpp:77] Creating layer relu4_2
I0628 12:47:09.702055 20741 net.cpp:84] Creating Layer relu4_2
I0628 12:47:09.702060 20741 net.cpp:406] relu4_2 <- conv4_2
I0628 12:47:09.702066 20741 net.cpp:367] relu4_2 -> conv4_2 (in-place)
I0628 12:47:09.702632 20741 net.cpp:122] Setting up relu4_2
I0628 12:47:09.702643 20741 net.cpp:129] Top shape: 1 512 88 128 (5767168)
I0628 12:47:09.702646 20741 net.cpp:137] Memory required for data: 1565921280
I0628 12:47:09.702648 20741 layer_factory.hpp:77] Creating layer conv4_3
I0628 12:47:09.702657 20741 net.cpp:84] Creating Layer conv4_3
I0628 12:47:09.702661 20741 net.cpp:406] conv4_3 <- conv4_2
I0628 12:47:09.702668 20741 net.cpp:380] conv4_3 -> conv4_3
I0628 12:47:09.725174 20741 net.cpp:122] Setting up conv4_3
I0628 12:47:09.725191 20741 net.cpp:129] Top shape: 1 512 88 128 (5767168)
I0628 12:47:09.725194 20741 net.cpp:137] Memory required for data: 1588989952
I0628 12:47:09.725203 20741 layer_factory.hpp:77] Creating layer relu4_3
I0628 12:47:09.725208 20741 net.cpp:84] Creating Layer relu4_3
I0628 12:47:09.725213 20741 net.cpp:406] relu4_3 <- conv4_3
I0628 12:47:09.725219 20741 net.cpp:367] relu4_3 -> conv4_3 (in-place)
I0628 12:47:09.725782 20741 net.cpp:122] Setting up relu4_3
I0628 12:47:09.725793 20741 net.cpp:129] Top shape: 1 512 88 128 (5767168)
I0628 12:47:09.725796 20741 net.cpp:137] Memory required for data: 1612058624
I0628 12:47:09.725798 20741 layer_factory.hpp:77] Creating layer pool4
I0628 12:47:09.725805 20741 net.cpp:84] Creating Layer pool4
I0628 12:47:09.725831 20741 net.cpp:406] pool4 <- conv4_3
I0628 12:47:09.725837 20741 net.cpp:380] pool4 -> pool4
I0628 12:47:09.725894 20741 net.cpp:122] Setting up pool4
I0628 12:47:09.725901 20741 net.cpp:129] Top shape: 1 512 88 128 (5767168)
I0628 12:47:09.725904 20741 net.cpp:137] Memory required for data: 1635127296
I0628 12:47:09.725908 20741 layer_factory.hpp:77] Creating layer conv5_1
I0628 12:47:09.725915 20741 net.cpp:84] Creating Layer conv5_1
I0628 12:47:09.725919 20741 net.cpp:406] conv5_1 <- pool4
I0628 12:47:09.725924 20741 net.cpp:380] conv5_1 -> conv5_1
I0628 12:47:09.747314 20741 net.cpp:122] Setting up conv5_1
I0628 12:47:09.747341 20741 net.cpp:129] Top shape: 1 512 88 128 (5767168)
I0628 12:47:09.747344 20741 net.cpp:137] Memory required for data: 1658195968
I0628 12:47:09.747354 20741 layer_factory.hpp:77] Creating layer relu5_1
I0628 12:47:09.747361 20741 net.cpp:84] Creating Layer relu5_1
I0628 12:47:09.747365 20741 net.cpp:406] relu5_1 <- conv5_1
I0628 12:47:09.747372 20741 net.cpp:367] relu5_1 -> conv5_1 (in-place)
I0628 12:47:09.747589 20741 net.cpp:122] Setting up relu5_1
I0628 12:47:09.747598 20741 net.cpp:129] Top shape: 1 512 88 128 (5767168)
I0628 12:47:09.747601 20741 net.cpp:137] Memory required for data: 1681264640
I0628 12:47:09.747604 20741 layer_factory.hpp:77] Creating layer conv5_2
I0628 12:47:09.747614 20741 net.cpp:84] Creating Layer conv5_2
I0628 12:47:09.747618 20741 net.cpp:406] conv5_2 <- conv5_1
I0628 12:47:09.747624 20741 net.cpp:380] conv5_2 -> conv5_2
I0628 12:47:09.768977 20741 net.cpp:122] Setting up conv5_2
I0628 12:47:09.769004 20741 net.cpp:129] Top shape: 1 512 88 128 (5767168)
I0628 12:47:09.769006 20741 net.cpp:137] Memory required for data: 1704333312
I0628 12:47:09.769014 20741 layer_factory.hpp:77] Creating layer relu5_2
I0628 12:47:09.769022 20741 net.cpp:84] Creating Layer relu5_2
I0628 12:47:09.769027 20741 net.cpp:406] relu5_2 <- conv5_2
I0628 12:47:09.769033 20741 net.cpp:367] relu5_2 -> conv5_2 (in-place)
I0628 12:47:09.769716 20741 net.cpp:122] Setting up relu5_2
I0628 12:47:09.769727 20741 net.cpp:129] Top shape: 1 512 88 128 (5767168)
I0628 12:47:09.769729 20741 net.cpp:137] Memory required for data: 1727401984
I0628 12:47:09.769732 20741 layer_factory.hpp:77] Creating layer conv5_3
I0628 12:47:09.769740 20741 net.cpp:84] Creating Layer conv5_3
I0628 12:47:09.769743 20741 net.cpp:406] conv5_3 <- conv5_2
I0628 12:47:09.769750 20741 net.cpp:380] conv5_3 -> conv5_3
I0628 12:47:09.791178 20741 net.cpp:122] Setting up conv5_3
I0628 12:47:09.791204 20741 net.cpp:129] Top shape: 1 512 88 128 (5767168)
I0628 12:47:09.791214 20741 net.cpp:137] Memory required for data: 1750470656
I0628 12:47:09.791221 20741 layer_factory.hpp:77] Creating layer relu5_3
I0628 12:47:09.791234 20741 net.cpp:84] Creating Layer relu5_3
I0628 12:47:09.791239 20741 net.cpp:406] relu5_3 <- conv5_3
I0628 12:47:09.791244 20741 net.cpp:367] relu5_3 -> conv5_3 (in-place)
I0628 12:47:09.791453 20741 net.cpp:122] Setting up relu5_3
I0628 12:47:09.791462 20741 net.cpp:129] Top shape: 1 512 88 128 (5767168)
I0628 12:47:09.791465 20741 net.cpp:137] Memory required for data: 1773539328
I0628 12:47:09.791470 20741 layer_factory.hpp:77] Creating layer conv_score
I0628 12:47:09.791478 20741 net.cpp:84] Creating Layer conv_score
I0628 12:47:09.791482 20741 net.cpp:406] conv_score <- conv5_3
I0628 12:47:09.791488 20741 net.cpp:380] conv_score -> conv_score
I0628 12:47:09.871613 20741 net.cpp:122] Setting up conv_score
I0628 12:47:09.871641 20741 net.cpp:129] Top shape: 1 64 88 128 (720896)
I0628 12:47:09.871644 20741 net.cpp:137] Memory required for data: 1776422912
I0628 12:47:09.871654 20741 layer_factory.hpp:77] Creating layer relu_score
I0628 12:47:09.871662 20741 net.cpp:84] Creating Layer relu_score
I0628 12:47:09.871667 20741 net.cpp:406] relu_score <- conv_score
I0628 12:47:09.871675 20741 net.cpp:367] relu_score -> conv_score (in-place)
I0628 12:47:09.871868 20741 net.cpp:122] Setting up relu_score
I0628 12:47:09.871877 20741 net.cpp:129] Top shape: 1 64 88 128 (720896)
I0628 12:47:09.871902 20741 net.cpp:137] Memory required for data: 1779306496
I0628 12:47:09.871908 20741 layer_factory.hpp:77] Creating layer slicer_conv
I0628 12:47:09.871923 20741 net.cpp:84] Creating Layer slicer_conv
I0628 12:47:09.871927 20741 net.cpp:406] slicer_conv <- conv_score
I0628 12:47:09.871937 20741 net.cpp:380] slicer_conv -> score1
I0628 12:47:09.871948 20741 net.cpp:380] slicer_conv -> score2
…
I0628 12:47:09.872398 20741 net.cpp:380] slicer_conv -> score57
I0628 12:47:09.872406 20741 net.cpp:380] slicer_conv -> score58
I0628 12:47:09.872413 20741 net.cpp:380] slicer_conv -> score59
I0628 12:47:09.872421 20741 net.cpp:380] slicer_conv -> score60
I0628 12:47:09.872439 20741 net.cpp:380] slicer_conv -> score61
I0628 12:47:09.872448 20741 net.cpp:380] slicer_conv -> score62
I0628 12:47:09.872457 20741 net.cpp:380] slicer_conv -> score63
I0628 12:47:09.872465 20741 net.cpp:380] slicer_conv -> score64
I0628 12:47:09.873690 20741 net.cpp:122] Setting up slicer_conv
I0628 12:47:09.873698 20741 net.cpp:129] Top shape: 1 1 88 128 (11264)
I0628 12:47:09.873703 20741 net.cpp:129] Top shape: 1 1 88 128 (11264)
I0628 12:47:09.873706 20741 net.cpp:129] Top shape: 1 1 88 128 (11264)
I0628 12:47:09.873710 20741 net.cpp:129] Top shape: 1 1 88 128 (11264)
I0628 12:47:09.873713 20741 net.cpp:129] Top shape: 1 1 88 128 (11264)
I0628 12:47:09.873718 20741 net.cpp:129] Top shape: 1 1 88 128 (11264)
I0628 12:47:09.873721 20741 net.cpp:129] Top shape: 1 1 88 128 (11264)
I0628 12:47:09.873725 20741 net.cpp:129] Top shape: 1 1 88 128 (11264)
I0628 12:47:09.873728 20741 net.cpp:129] Top shape: 1 1 88 128 (11264)
I0628 12:47:09.873733 20741 net.cpp:129] Top shape: 1 1 88 128 (11264)
I0628 12:47:09.873736 20741 net.cpp:129] Top shape: 1 1 88 128 (11264)
I0628 12:47:09.873740 20741 net.cpp:129] Top shape: 1 1 88 128 (11264)
I0628 12:47:09.873744 20741 net.cpp:129] Top shape: 1 1 88 128 (11264)
I0628 12:47:09.873749 20741 net.cpp:129] Top shape: 1 1 88 128 (11264)
I0628 12:47:09.873752 20741 net.cpp:129] Top shape: 1 1 88 128 (11264)
I0628 12:47:09.873755 20741 net.cpp:129] Top shape: 1 1 88 128 (11264)
I0628 12:47:09.873759 20741 net.cpp:129] Top shape: 1 1 88 128 (11264)
I0628 12:47:09.873764 20741 net.cpp:129] Top shape: 1 1 88 128 (11264)
I0628 12:47:09.873766 20741 net.cpp:129] Top shape: 1 1 88 128 (11264)
I0628 12:47:09.873770 20741 net.cpp:129] Top shape: 1 1 88 128 (11264)
I0628 12:47:09.873775 20741 net.cpp:129] Top shape: 1 1 88 128 (11264)
I0628 12:47:09.873777 20741 net.cpp:129] Top shape: 1 1 88 128 (11264)
I0628 12:47:09.873781 20741 net.cpp:129] Top shape: 1 1 88 128 (11264)
I0628 12:47:09.873786 20741 net.cpp:129] Top shape: 1 1 88 128 (11264)
I0628 12:47:09.873790 20741 net.cpp:129] Top shape: 1 1 88 128 (11264)
I0628 12:47:09.873793 20741 net.cpp:129] Top shape: 1 1 88 128 (11264)
I0628 12:47:09.873797 20741 net.cpp:129] Top shape: 1 1 88 128 (11264)
I0628 12:47:09.873800 20741 net.cpp:129] Top shape: 1 1 88 128 (11264)
I0628 12:47:09.873803 20741 net.cpp:129] Top shape: 1 1 88 128 (11264)
I0628 12:47:09.873807 20741 net.cpp:129] Top shape: 1 1 88 128 (11264)
I0628 12:47:09.873811 20741 net.cpp:129] Top shape: 1 1 88 128 (11264)
I0628 12:47:09.873816 20741 net.cpp:129] Top shape: 1 1 88 128 (11264)
I0628 12:47:09.873818 20741 net.cpp:129] Top shape: 1 1 88 128 (11264)
I0628 12:47:09.873822 20741 net.cpp:129] Top shape: 1 1 88 128 (11264)
I0628 12:47:09.873826 20741 net.cpp:129] Top shape: 1 1 88 128 (11264)
I0628 12:47:09.873831 20741 net.cpp:129] Top shape: 1 1 88 128 (11264)
I0628 12:47:09.873833 20741 net.cpp:129] Top shape: 1 1 88 128 (11264)
I0628 12:47:09.873837 20741 net.cpp:129] Top shape: 1 1 88 128 (11264)
I0628 12:47:09.873842 20741 net.cpp:129] Top shape: 1 1 88 128 (11264)
I0628 12:47:09.873844 20741 net.cpp:129] Top shape: 1 1 88 128 (11264)
I0628 12:47:09.873848 20741 net.cpp:129] Top shape: 1 1 88 128 (11264)
I0628 12:47:09.873852 20741 net.cpp:129] Top shape: 1 1 88 128 (11264)
I0628 12:47:09.873857 20741 net.cpp:129] Top shape: 1 1 88 128 (11264)
I0628 12:47:09.873862 20741 net.cpp:129] Top shape: 1 1 88 128 (11264)
I0628 12:47:09.873864 20741 net.cpp:129] Top shape: 1 1 88 128 (11264)
I0628 12:47:09.873868 20741 net.cpp:129] Top shape: 1 1 88 128 (11264)
I0628 12:47:09.873872 20741 net.cpp:129] Top shape: 1 1 88 128 (11264)
I0628 12:47:09.873875 20741 net.cpp:129] Top shape: 1 1 88 128 (11264)
I0628 12:47:09.873879 20741 net.cpp:129] Top shape: 1 1 88 128 (11264)
I0628 12:47:09.873883 20741 net.cpp:129] Top shape: 1 1 88 128 (11264)
I0628 12:47:09.873886 20741 net.cpp:129] Top shape: 1 1 88 128 (11264)
I0628 12:47:09.873890 20741 net.cpp:129] Top shape: 1 1 88 128 (11264)
I0628 12:47:09.873893 20741 net.cpp:129] Top shape: 1 1 88 128 (11264)
I0628 12:47:09.873905 20741 net.cpp:129] Top shape: 1 1 88 128 (11264)
I0628 12:47:09.873909 20741 net.cpp:129] Top shape: 1 1 88 128 (11264)
I0628 12:47:09.873914 20741 net.cpp:129] Top shape: 1 1 88 128 (11264)
I0628 12:47:09.873916 20741 net.cpp:129] Top shape: 1 1 88 128 (11264)
I0628 12:47:09.873920 20741 net.cpp:129] Top shape: 1 1 88 128 (11264)
I0628 12:47:09.873924 20741 net.cpp:129] Top shape: 1 1 88 128 (11264)
I0628 12:47:09.873927 20741 net.cpp:129] Top shape: 1 1 88 128 (11264)
I0628 12:47:09.873931 20741 net.cpp:129] Top shape: 1 1 88 128 (11264)
I0628 12:47:09.873934 20741 net.cpp:129] Top shape: 1 1 88 128 (11264)
I0628 12:47:09.873939 20741 net.cpp:129] Top shape: 1 1 88 128 (11264)
I0628 12:47:09.873942 20741 net.cpp:129] Top shape: 1 1 88 128 (11264)
I0628 12:47:09.873945 20741 net.cpp:137] Memory required for data: 1782190080
I0628 12:47:09.873949 20741 layer_factory.hpp:77] Creating layer sumscore
I0628 12:47:09.873960 20741 net.cpp:84] Creating Layer sumscore
I0628 12:47:09.873963 20741 net.cpp:406] sumscore <- score1
I0628 12:47:09.873967 20741 net.cpp:406] sumscore <- score2
I0628 12:47:09.873971 20741 net.cpp:406] sumscore <- score3
…
