…
I0629 21:39:26.397444 26569 net.cpp:51] Initializing net from parameters: 
name: "crowd_counting"
state {
  phase: TRAIN
  level: 0
  stage: ""
}
layer {
  name: "data"
  type: "Data"
  top: "data"
  include {
    phase: TRAIN
  }
  data_param {
    source: "/home/peiyong/Work/Zenglin/szl/ShanghaiTech/partA/train_8/image_lmdb"
    batch_size: 1
    backend: LMDB
  }
}
layer {
  name: "label"
  type: "Data"
  top: "label"
  include {
    phase: TRAIN
  }
  data_param {
    source: "/home/peiyong/Work/Zenglin/szl/ShanghaiTech/partA/train_8/dmap_lmdb"
    batch_size: 1
    backend: LMDB
  }
}
layer {
  name: "conv1_1"
  type: "Convolution"
  bottom: "data"
  top: "conv1_1"
  param {
    lr_mult: 0.1
    decay_mult: 1
  }
  param {
    lr_mult: 0.2
    decay_mult: 0
  }
  convolution_param {
    num_output: 64
    pad: 1
    kernel_size: 3
    weight_filler {
      type: "gaussian"
      std: 0.01
    }
    bias_filler {
      type: "constant"
      value: 0
    }
  }
}
layer {
  name: "relu1_1"
  type: "ReLU"
  bottom: "conv1_1"
  top: "conv1_1"
}
layer {
  name: "conv1_2"
  type: "Convolution"
  bottom: "conv1_1"
  top: "conv1_2"
  param {
    lr_mult: 0.1
    decay_mult: 1
  }
  param {
    lr_mult: 0.2
    decay_mult: 0
  }
  convolution_param {
    num_output: 64
    pad: 1
    kernel_size: 3
    weight_filler {
      type: "gaussian"
      std: 0.01
    }
    bias_filler {
      type: "constant"
      value: 0
    }
  }
}
layer {
  name: "relu1_2"
  type: "ReLU"
  bottom: "conv1_2"
  top: "conv1_2"
}
layer {
  name: "pool1"
  type: "Pooling"
  bottom: "conv1_2"
  top: "pool1"
  pooling_param {
    pool: MAX
    kernel_size: 2
    stride: 2
  }
}
layer {
  name: "conv2_1"
  type: "Convolution"
  bottom: "pool1"
  top: "conv2_1"
  param {
    lr_mult: 0.1
    decay_mult: 1
  }
  param {
    lr_mult: 0.2
    decay_mult: 0
  }
  convolution_param {
    num_output: 128
    pad: 1
    kernel_size: 3
    weight_filler {
      type: "gaussian"
      std: 0.01
    }
    bias_filler {
      type: "constant"
      value: 0
    }
  }
}
layer {
  name: "relu2_1"
  type: "ReLU"
  bottom: "conv2_1"
  top: "conv2_1"
}
layer {
  name: "conv2_2"
  type: "Convolution"
  bottom: "conv2_1"
  top: "conv2_2"
  param {
    lr_mult: 0.1
    decay_mult: 1
  }
  param {
    lr_mult: 0.2
    decay_mult: 0
  }
  convolution_param {
    num_output: 128
    pad: 1
    kernel_size: 3
    weight_filler {
      type: "gaussian"
      std: 0.01
    }
    bias_filler {
      type: "constant"
      value: 0
    }
  }
}
layer {
  name: "relu2_2"
  type: "ReLU"
  bottom: "conv2_2"
  top: "conv2_2"
}
layer {
  name: "pool2"
  type: "Pooling"
  bottom: "conv2_2"
  top: "pool2"
  pooling_param {
    pool: MAX
    kernel_size: 2
    stride: 2
  }
}
layer {
  name: "conv3_1"
  type: "Convolution"
  bottom: "pool2"
  top: "conv3_1"
  param {
    lr_mult: 0.1
    decay_mult: 1
  }
  param {
    lr_mult: 0.2
    decay_mult: 0
  }
  convolution_param {
    num_output: 256
    pad: 1
    kernel_size: 3
    weight_filler {
      type: "gaussian"
      std: 0.01
    }
    bias_filler {
      type: "constant"
      value: 0
    }
  }
}
layer {
  name: "relu3_1"
  type: "ReLU"
  bottom: "conv3_1"
  top: "conv3_1"
}
layer {
  name: "conv3_2"
  type: "Convolution"
  bottom: "conv3_1"
  top: "conv3_2"
  param {
    lr_mult: 0.1
    decay_mult: 1
  }
  param {
    lr_mult: 0.2
    decay_mult: 0
  }
  convolution_param {
    num_output: 256
    pad: 1
    kernel_size: 3
    weight_filler {
      type: "gaussian"
      std: 0.01
    }
    bias_filler {
      type: "constant"
      value: 0
    }
  }
}
layer {
  name: "relu3_2"
  type: "ReLU"
  bottom: "conv3_2"
  top: "conv3_2"
}
layer {
  name: "conv3_3"
  type: "Convolution"
  bottom: "conv3_2"
  top: "conv3_3"
  param {
    lr_mult: 0.1
    decay_mult: 1
  }
  param {
    lr_mult: 0.2
    decay_mult: 0
  }
  convolution_param {
    num_output: 256
    pad: 1
    kernel_size: 3
    weight_filler {
      type: "gaussian"
      std: 0.01
    }
    bias_filler {
      type: "constant"
      value: 0
    }
  }
}
layer {
  name: "relu3_3"
  type: "ReLU"
  bottom: "conv3_3"
  top: "conv3_3"
}
layer {
  name: "pool3"
  type: "Pooling"
  bottom: "conv3_3"
  top: "pool3"
  pooling_param {
    pool: MAX
    kernel_size: 2
    stride: 2
  }
}
layer {
  name: "conv4_1"
  type: "Convolution"
  bottom: "pool3"
  top: "conv4_1"
  param {
    lr_mult: 0.1
    decay_mult: 1
  }
  param {
    lr_mult: 0.2
    decay_mult: 0
  }
  convolution_param {
    num_output: 512
    pad: 1
    kernel_size: 3
    weight_filler {
      type: "gaussian"
      std: 0.01
    }
    bias_filler {
      type: "constant"
      value: 0
    }
  }
}
layer {
  name: "relu4_1"
  type: "ReLU"
  bottom: "conv4_1"
  top: "conv4_1"
}
layer {
  name: "conv4_2"
  type: "Convolution"
  bottom: "conv4_1"
  top: "conv4_2"
  param {
    lr_mult: 0.1
    decay_mult: 1
  }
  param {
    lr_mult: 0.2
    decay_mult: 0
  }
  convolution_param {
    num_output: 512
    pad: 1
    kernel_size: 3
    weight_filler {
      type: "gaussian"
      std: 0.01
    }
    bias_filler {
      type: "constant"
      value: 0
    }
  }
}
layer {
  name: "relu4_2"
  type: "ReLU"
  bottom: "conv4_2"
  top: "conv4_2"
}
layer {
  name: "conv4_3"
  type: "Convolution"
  bottom: "conv4_2"
  top: "conv4_3"
  param {
    lr_mult: 0.1
    decay_mult: 1
  }
  param {
    lr_mult: 0.2
    decay_mult: 0
  }
  convolution_param {
    num_output: 512
    pad: 1
    kernel_size: 3
    weight_filler {
      type: "gaussian"
      std: 0.01
    }
    bias_filler {
      type: "constant"
      value: 0
    }
  }
}
layer {
  name: "relu4_3"
  type: "ReLU"
  bottom: "conv4_3"
  top: "conv4_3"
}
layer {
  name: "pool4"
  type: "Pooling"
  bottom: "conv4_3"
  top: "pool4"
  pooling_param {
    pool: MAX
    kernel_size: 3
    stride: 1
    pad: 1
  }
}
layer {
  name: "conv5_1"
  type: "Convolution"
  bottom: "pool4"
  top: "conv5_1"
  param {
    lr_mult: 0.1
    decay_mult: 1
  }
  param {
    lr_mult: 0.2
    decay_mult: 0
  }
  convolution_param {
    num_output: 512
    pad: 2
    kernel_size: 3
    weight_filler {
      type: "gaussian"
      std: 0.01
    }
    bias_filler {
      type: "constant"
      value: 0
    }
    dilation: 2
  }
}
layer {
  name: "relu5_1"
  type: "ReLU"
  bottom: "conv5_1"
  top: "conv5_1"
}
layer {
  name: "conv5_2"
  type: "Convolution"
  bottom: "conv5_1"
  top: "conv5_2"
  param {
    lr_mult: 0.1
    decay_mult: 1
  }
  param {
    lr_mult: 0.2
    decay_mult: 0
  }
  convolution_param {
    num_output: 512
    pad: 2
    kernel_size: 3
    weight_filler {
      type: "gaussian"
      std: 0.01
    }
    bias_filler {
      type: "constant"
      value: 0
    }
    dilation: 2
  }
}
layer {
  name: "relu5_2"
  type: "ReLU"
  bottom: "conv5_2"
  top: "conv5_2"
}
layer {
  name: "conv5_3"
  type: "Convolution"
  bottom: "conv5_2"
  top: "conv5_3"
  param {
    lr_mult: 0.1
    decay_mult: 1
  }
  param {
    lr_mult: 0.2
    decay_mult: 0
  }
  convolution_param {
    num_output: 512
    pad: 2
    kernel_size: 3
    weight_filler {
      type: "gaussian"
      std: 0.01
    }
    bias_filler {
      type: "constant"
      value: 0
    }
    dilation: 2
  }
}
layer {
  name: "relu5_3"
  type: "ReLU"
  bottom: "conv5_3"
  top: "conv5_3"
}
layer {
  name: "conv_score"
  type: "Convolution"
  bottom: "conv5_3"
  top: "conv_score"
  param {
    lr_mult: 10
    decay_mult: 1
  }
  param {
    lr_mult: 20
    decay_mult: 0
  }
  convolution_param {
    num_output: 64
    pad: 0
    kernel_size: 1
    group: 64
    stride: 1
    weight_filler {
      type: "constant"
      value: 0.0001
    }
    bias_filler {
      type: "constant"
      value: 0
    }
  }
}
layer {
  name: "relu_score"
  type: "ReLU"
  bottom: "conv_score"
  top: "conv_score"
}
layer {
  name: "slicer_conv"
  type: "Slice"
  bottom: "conv_score"
  top: "score1"
  top: "score2"
  top: "score3"
  top: "score4"
  top: "score5"
  top: "score6"
  top: "score7"
  top: "score8"
  top: "score9"
  top: "score10"
  top: "score11"
  top: "score12"
  top: "score13"
  top: "score14"
  top: "score15"
  top: "score16"
  top: "score17"
  top: "score18"
  top: "score19"
  top: "score20"
  top: "score21"
  top: "score22"
  top: "score23"
  top: "score24"
  top: "score25"
  top: "score26"
  top: "score27"
  top: "score28"
  top: "score29"
  top: "score30"
  top: "score31"
  top: "score32"
  top: "score33"
  top: "score34"
  top: "score35"
  top: "score36"
  top: "score37"
  top: "score38"
  top: "score39"
  top: "score40"
  top: "score41"
  top: "score42"
  top: "score43"
  top: "score44"
  top: "score45"
  top: "score46"
  top: "score47"
  top: "score48"
  top: "score49"
  top: "score50"
  top: "score51"
  top: "score52"
  top: "score53"
  top: "score54"
  top: "score55"
  top: "score56"
  top: "score57"
  top: "score58"
  top: "score59"
  top: "score60"
  top: "score61"
  top: "score62"
  top: "score63"
  top: "score64"
  slice_param {
    axis: 1
  }
}
layer {
  name: "sumscore"
  type: "Eltwise"
  bottom: "score1"
  bottom: "score2"
  bottom: "score3"
  bottom: "score4"
  bottom: "score5"
  bottom: "score6"
  bottom: "score7"
  bottom: "score8"
  bottom: "score9"
  bottom: "score10"
  bottom: "score11"
  bottom: "score12"
  bottom: "score13"
  bottom: "score14"
  bottom: "score15"
  bottom: "score16"
  bottom: "score17"
  bottom: "score18"
  bottom: "score19"
  bottom: "score20"
  bottom: "score21"
  bottom: "score22"
  bottom: "score23"
  bottom: "score24"
  bottom: "score25"
  bottom: "score26"
  bottom: "score27"
  bottom: "score28"
  bottom: "score29"
  bottom: "score30"
  bottom: "score31"
  bottom: "score32"
  bottom: "score33"
  bottom: "score34"
  bottom: "score35"
  bottom: "score36"
  bottom: "score37"
  bottom: "score38"
  bottom: "score39"
  bottom: "score40"
  bottom: "score41"
  bottom: "score42"
  bottom: "score43"
  bottom: "score44"
  bottom: "score45"
  bottom: "score46"
  bottom: "score47"
  bottom: "score48"
  bottom: "score49"
  bottom: "score50"
  bottom: "score51"
  bottom: "score52"
  bottom: "score53"
  bottom: "score54"
  bottom: "score55"
  bottom: "score56"
  bottom: "score57"
  bottom: "score58"
  bottom: "score59"
  bottom: "score60"
  bottom: "score61"
  bottom: "score62"
  bottom: "score63"
  bottom: "score64"
  top: "sumscore"
  eltwise_param {
    operation: SUM
  }
}
layer {
  name: "loss1"
  type: "NCLLoss"
  bottom: "score1"
  bottom: "label"
  bottom: "sumscore"
  top: "loss1"
  include {
    phase: TRAIN
  }
  ncl_loss_param {
    lambda: 0.0001
    net_num: 64
  }
}
layer {
  name: "loss2"
  type: "NCLLoss"
  bottom: "score2"
  bottom: "label"
  bottom: "sumscore"
  top: "loss2"
  include {
    phase: TRAIN
  }
  ncl_loss_param {
    lambda: 0.0001
    net_num: 64
  }
}
layer {
  name: "loss3"
  type: "NCLLoss"
  bottom: "score3"
  bottom: "label"
  bottom: "sumscore"
  top: "loss3"
  include {
    phase: TRAIN
  }
  ncl_loss_param {
    lambda: 0.0001
    net_num: 64
  }
}
layer {
  name: "loss4"
  type: "NCLLoss"
  bottom: "score4"
  bottom: "label"
  bottom: "sumscore"
  top: "loss4"
  include {
    phase: TRAIN
  }
  ncl_loss_param {
    lambda: 0.0001
    net_num: 64
  }
}
layer {
  name: "loss5"
  type: "NCLLoss"
  bottom: "score5"
  bottom: "label"
  bottom: "sumscore"
  top: "loss5"
  include {
    phase: TRAIN
  }
  ncl_loss_param {
    lambda: 0.0001
    net_num: 64
  }
}
layer {
  name: "loss6"
  type: "NCLLoss"
  bottom: "score6"
  bottom: "label"
  bottom: "sumscore"
  top: "loss6"
  include {
    phase: TRAIN
  }
  ncl_loss_param {
    lambda: 0.0001
    net_num: 64
  }
}
layer {
  name: "loss7"
  type: "NCLLoss"
  bottom: "score7"
  bottom: "label"
  bottom: "sumscore"
  top: "loss7"
  include {
    phase: TRAIN
  }
  ncl_loss_param {
    lambda: 0.0001
    net_num: 64
  }
}
layer {
  name: "loss8"
  type: "NCLLoss"
  bottom: "score8"
  bottom: "label"
  bottom: "sumscore"
  top: "loss8"
  include {
    phase: TRAIN
  }
  ncl_loss_param {
    lambda: 0.0001
    net_num: 64
  }
}
layer {
  name: "loss9"
  type: "NCLLoss"
  bottom: "score9"
  bottom: "label"
  bottom: "sumscore"
  top: "loss9"
  include {
    phase: TRAIN
  }
  ncl_loss_param {
    lambda: 0.0001
    net_num: 64
  }
}
layer {
  name: "loss10"
  type: "NCLLoss"
  bottom: "score10"
  bottom: "label"
  bottom: "sumscore"
  top: "loss10"
  include {
    phase: TRAIN
  }
  ncl_loss_param {
    lambda: 0.0001
    net_num: 64
  }
}
layer {
  name: "loss11"
  type: "NCLLoss"
  bottom: "score11"
  bottom: "label"
  bottom: "sumscore"
  top: "loss11"
  include {
    phase: TRAIN
  }
  ncl_loss_param {
    lambda: 0.0001
    net_num: 64
  }
}
layer {
  name: "loss12"
  type: "NCLLoss"
  bottom: "score12"
  bottom: "label"
  bottom: "sumscore"
  top: "loss12"
  include {
    phase: TRAIN
  }
  ncl_loss_param {
    lambda: 0.0001
    net_num: 64
  }
}
layer {
  name: "loss13"
  type: "NCLLoss"
  bottom: "score13"
  bottom: "label"
  bottom: "sumscore"
  top: "loss13"
  include {
    phase: TRAIN
  }
  ncl_loss_param {
    lambda: 0.0001
    net_num: 64
  }
}
layer {
  name: "loss14"
  type: "NCLLoss"
  bottom: "score14"
  bottom: "label"
  bottom: "sumscore"
  top: "loss14"
  include {
    phase: TRAIN
  }
  ncl_loss_param {
    lambda: 0.0001
    net_num: 64
  }
}
layer {
  name: "loss15"
  type: "NCLLoss"
  bottom: "score15"
  bottom: "label"
  bottom: "sumscore"
  top: "loss15"
  include {
    phase: TRAIN
  }
  ncl_loss_param {
    lambda: 0.0001
    net_num: 64
  }
}
layer {
  name: "loss16"
  type: "NCLLoss"
  bottom: "score16"
  bottom: "label"
  bottom: "sumscore"
  top: "loss16"
  include {
    phase: TRAIN
  }
  ncl_loss_param {
    lambda: 0.0001
    net_num: 64
  }
}
layer {
  name: "loss17"
  type: "NCLLoss"
  bottom: "score17"
  bottom: "label"
  bottom: "sumscore"
  top: "loss17"
  include {
    phase: TRAIN
  }
  ncl_loss_param {
    lambda: 0.0001
    net_num: 64
  }
}
layer {
  name: "loss18"
  type: "NCLLoss"
  bottom: "score18"
  bottom: "label"
  bottom: "sumscore"
  top: "loss18"
  include {
    phase: TRAIN
  }
  ncl_loss_param {
    lambda: 0.0001
    net_num: 64
  }
}
layer {
  name: "loss19"
  type: "NCLLoss"
  bottom: "score19"
  bottom: "label"
  bottom: "sumscore"
  top: "loss19"
  include {
    phase: TRAIN
  }
  ncl_loss_param {
    lambda: 0.0001
    net_num: 64
  }
}
layer {
  name: "loss20"
  type: "NCLLoss"
  bottom: "score20"
  bottom: "label"
  bottom: "sumscore"
  top: "loss20"
  include {
    phase: TRAIN
  }
  ncl_loss_param {
    lambda: 0.0001
    net_num: 64
  }
}
layer {
  name: "loss21"
  type: "NCLLoss"
  bottom: "score21"
  bottom: "label"
  bottom: "sumscore"
  top: "loss21"
  include {
    phase: TRAIN
  }
  ncl_loss_param {
    lambda: 0.0001
    net_num: 64
  }
}
layer {
  name: "loss22"
  type: "NCLLoss"
  bottom: "score22"
  bottom: "label"
  bottom: "sumscore"
  top: "loss22"
  include {
    phase: TRAIN
  }
  ncl_loss_param {
    lambda: 0.0001
    net_num: 64
  }
}
layer {
  name: "loss23"
  type: "NCLLoss"
  bottom: "score23"
  bottom: "label"
  bottom: "sumscore"
  top: "loss23"
  include {
    phase: TRAIN
  }
  ncl_loss_param {
    lambda: 0.0001
    net_num: 64
  }
}
layer {
  name: "loss24"
  type: "NCLLoss"
  bottom: "score24"
  bottom: "label"
  bottom: "sumscore"
  top: "loss24"
  include {
    phase: TRAIN
  }
  ncl_loss_param {
    lambda: 0.0001
    net_num: 64
  }
}
layer {
  name: "loss25"
  type: "NCLLoss"
  bottom: "score25"
  bottom: "label"
  bottom: "sumscore"
  top: "loss25"
  include {
    phase: TRAIN
  }
  ncl_loss_param {
    lambda: 0.0001
    net_num: 64
  }
}
layer {
  name: "loss26"
  type: "NCLLoss"
  bottom: "score26"
  bottom: "label"
  bottom: "sumscore"
  top: "loss26"
  include {
    phase: TRAIN
  }
  ncl_loss_param {
    lambda: 0.0001
    net_num: 64
  }
}
layer {
  name: "loss27"
  type: "NCLLoss"
  bottom: "score27"
  bottom: "label"
  bottom: "sumscore"
  top: "loss27"
  include {
    phase: TRAIN
  }
  ncl_loss_param {
    lambda: 0.0001
    net_num: 64
  }
}
layer {
  name: "loss28"
  type: "NCLLoss"
  bottom: "score28"
  bottom: "label"
  bottom: "sumscore"
  top: "loss28"
  include {
    phase: TRAIN
  }
  ncl_loss_param {
    lambda: 0.0001
    net_num: 64
  }
}
layer {
  name: "loss29"
  type: "NCLLoss"
  bottom: "score29"
  bottom: "label"
  bottom: "sumscore"
  top: "loss29"
  include {
    phase: TRAIN
  }
  ncl_loss_param {
    lambda: 0.0001
    net_num: 64
  }
}
layer {
  name: "loss30"
  type: "NCLLoss"
  bottom: "score30"
  bottom: "label"
  bottom: "sumscore"
  top: "loss30"
  include {
    phase: TRAIN
  }
  ncl_loss_param {
    lambda: 0.0001
    net_num: 64
  }
}
layer {
  name: "loss31"
  type: "NCLLoss"
  bottom: "score31"
  bottom: "label"
  bottom: "sumscore"
  top: "loss31"
  include {
    phase: TRAIN
  }
  ncl_loss_param {
    lambda: 0.0001
    net_num: 64
  }
}
layer {
  name: "loss32"
  type: "NCLLoss"
  bottom: "score32"
  bottom: "label"
  bottom: "sumscore"
  top: "loss32"
  include {
    phase: TRAIN
  }
  ncl_loss_param {
    lambda: 0.0001
    net_num: 64
  }
}
layer {
  name: "loss33"
  type: "NCLLoss"
  bottom: "score33"
  bottom: "label"
  bottom: "sumscore"
  top: "loss33"
  include {
    phase: TRAIN
  }
  ncl_loss_param {
    lambda: 0.0001
    net_num: 64
  }
}
layer {
  name: "loss34"
  type: "NCLLoss"
  bottom: "score34"
  bottom: "label"
  bottom: "sumscore"
  top: "loss34"
  include {
    phase: TRAIN
  }
  ncl_loss_param {
    lambda: 0.0001
    net_num: 64
  }
}
layer {
  name: "loss35"
  type: "NCLLoss"
  bottom: "score35"
  bottom: "label"
  bottom: "sumscore"
  top: "loss35"
  include {
    phase: TRAIN
  }
  ncl_loss_param {
    lambda: 0.0001
    net_num: 64
  }
}
layer {
  name: "loss36"
  type: "NCLLoss"
  bottom: "score36"
  bottom: "label"
  bottom: "sumscore"
  top: "loss36"
  include {
    phase: TRAIN
  }
  ncl_loss_param {
    lambda: 0.0001
    net_num: 64
  }
}
layer {
  name: "loss37"
  type: "NCLLoss"
  bottom: "score37"
  bottom: "label"
  bottom: "sumscore"
  top: "loss37"
  include {
    phase: TRAIN
  }
  ncl_loss_param {
    lambda: 0.0001
    net_num: 64
  }
}
layer {
  name: "loss38"
  type: "NCLLoss"
  bottom: "score38"
  bottom: "label"
  bottom: "sumscore"
  top: "loss38"
  include {
    phase: TRAIN
  }
  ncl_loss_param {
    lambda: 0.0001
    net_num: 64
  }
}
layer {
  name: "loss39"
  type: "NCLLoss"
  bottom: "score39"
  bottom: "label"
  bottom: "sumscore"
  top: "loss39"
  include {
    phase: TRAIN
  }
  ncl_loss_param {
    lambda: 0.0001
    net_num: 64
  }
}
layer {
  name: "loss40"
  type: "NCLLoss"
  bottom: "score40"
  bottom: "label"
  bottom: "sumscore"
  top: "loss40"
  include {
    phase: TRAIN
  }
  ncl_loss_param {
    lambda: 0.0001
    net_num: 64
  }
}
layer {
  name: "loss41"
  type: "NCLLoss"
  bottom: "score41"
  bottom: "label"
  bottom: "sumscore"
  top: "loss41"
  include {
    phase: TRAIN
  }
  ncl_loss_param {
    lambda: 0.0001
    net_num: 64
  }
}
layer {
  name: "loss42"
  type: "NCLLoss"
  bottom: "score42"
  bottom: "label"
  bottom: "sumscore"
  top: "loss42"
  include {
    phase: TRAIN
  }
  ncl_loss_param {
    lambda: 0.0001
    net_num: 64
  }
}
layer {
  name: "loss43"
  type: "NCLLoss"
  bottom: "score43"
  bottom: "label"
  bottom: "sumscore"
  top: "loss43"
  include {
    phase: TRAIN
  }
  ncl_loss_param {
    lambda: 0.0001
    net_num: 64
  }
}
layer {
  name: "loss44"
  type: "NCLLoss"
  bottom: "score44"
  bottom: "label"
  bottom: "sumscore"
  top: "loss44"
  include {
    phase: TRAIN
  }
  ncl_loss_param {
    lambda: 0.0001
    net_num: 64
  }
}
layer {
  name: "loss45"
  type: "NCLLoss"
  bottom: "score45"
  bottom: "label"
  bottom: "sumscore"
  top: "loss45"
  include {
    phase: TRAIN
  }
  ncl_loss_param {
    lambda: 0.0001
    net_num: 64
  }
}
layer {
  name: "loss46"
  type: "NCLLoss"
  bottom: "score46"
  bottom: "label"
  bottom: "sumscore"
  top: "loss46"
  include {
    phase: TRAIN
  }
  ncl_loss_param {
    lambda: 0.0001
    net_num: 64
  }
}
layer {
  name: "loss47"
  type: "NCLLoss"
  bottom: "score47"
  bottom: "label"
  bottom: "sumscore"
  top: "loss47"
  include {
    phase: TRAIN
  }
  ncl_loss_param {
    lambda: 0.0001
    net_num: 64
  }
}
layer {
  name: "loss48"
  type: "NCLLoss"
  bottom: "score48"
  bottom: "label"
  bottom: "sumscore"
  top: "loss48"
  include {
    phase: TRAIN
  }
  ncl_loss_param {
    lambda: 0.0001
    net_num: 64
  }
}
layer {
  name: "loss49"
  type: "NCLLoss"
  bottom: "score49"
  bottom: "label"
  bottom: "sumscore"
  top: "loss49"
  include {
    phase: TRAIN
  }
  ncl_loss_param {
    lambda: 0.0001
    net_num: 64
  }
}
layer {
  name: "loss50"
  type: "NCLLoss"
  bottom: "score50"
  bottom: "label"
  bottom: "sumscore"
  top: "loss50"
  include {
    phase: TRAIN
  }
  ncl_loss_param {
    lambda: 0.0001
    net_num: 64
  }
}
layer {
  name: "loss51"
  type: "NCLLoss"
  bottom: "score51"
  bottom: "label"
  bottom: "sumscore"
  top: "loss51"
  include {
    phase: TRAIN
  }
  ncl_loss_param {
    lambda: 0.0001
    net_num: 64
  }
}
layer {
  name: "loss52"
  type: "NCLLoss"
  bottom: "score52"
  bottom: "label"
  bottom: "sumscore"
  top: "loss52"
  include {
    phase: TRAIN
  }
  ncl_loss_param {
    lambda: 0.0001
    net_num: 64
  }
}
layer {
  name: "loss53"
  type: "NCLLoss"
  bottom: "score53"
  bottom: "label"
  bottom: "sumscore"
  top: "loss53"
  include {
    phase: TRAIN
  }
  ncl_loss_param {
    lambda: 0.0001
    net_num: 64
  }
}
layer {
  name: "loss54"
  type: "NCLLoss"
  bottom: "score54"
  bottom: "label"
  bottom: "sumscore"
  top: "loss54"
  include {
    phase: TRAIN
  }
  ncl_loss_param {
    lambda: 0.0001
    net_num: 64
  }
}
layer {
  name: "loss55"
  type: "NCLLoss"
  bottom: "score55"
  bottom: "label"
  bottom: "sumscore"
  top: "loss55"
  include {
    phase: TRAIN
  }
  ncl_loss_param {
    lambda: 0.0001
    net_num: 64
  }
}
layer {
  name: "loss56"
  type: "NCLLoss"
  bottom: "score56"
  bottom: "label"
  bottom: "sumscore"
  top: "loss56"
  include {
    phase: TRAIN
  }
  ncl_loss_param {
    lambda: 0.0001
    net_num: 64
  }
}
layer {
  name: "loss57"
  type: "NCLLoss"
  bottom: "score57"
  bottom: "label"
  bottom: "sumscore"
  top: "loss57"
  include {
    phase: TRAIN
  }
  ncl_loss_param {
    lambda: 0.0001
    net_num: 64
  }
}
layer {
  name: "loss58"
  type: "NCLLoss"
  bottom: "score58"
  bottom: "label"
  bottom: "sumscore"
  top: "loss58"
  include {
    phase: TRAIN
  }
  ncl_loss_param {
    lambda: 0.0001
    net_num: 64
  }
}
layer {
  name: "loss59"
  type: "NCLLoss"
  bottom: "score59"
  bottom: "label"
  bottom: "sumscore"
  top: "loss59"
  include {
    phase: TRAIN
  }
  ncl_loss_param {
    lambda: 0.0001
    net_num: 64
  }
}
layer {
  name: "loss60"
  type: "NCLLoss"
  bottom: "score60"
  bottom: "label"
  bottom: "sumscore"
  top: "loss60"
  include {
    phase: TRAIN
  }
  ncl_loss_param {
    lambda: 0.0001
    net_num: 64
  }
}
layer {
  name: "loss61"
  type: "NCLLoss"
  bottom: "score61"
  bottom: "label"
  bottom: "sumscore"
  top: "loss61"
  include {
    phase: TRAIN
  }
  ncl_loss_param {
    lambda: 0.0001
    net_num: 64
  }
}
layer {
  name: "loss62"
  type: "NCLLoss"
  bottom: "score62"
  bottom: "label"
  bottom: "sumscore"
  top: "loss62"
  include {
    phase: TRAIN
  }
  ncl_loss_param {
    lambda: 0.0001
    net_num: 64
  }
}
layer {
  name: "loss63"
  type: "NCLLoss"
  bottom: "score63"
  bottom: "label"
  bottom: "sumscore"
  top: "loss63"
  include {
    phase: TRAIN
  }
  ncl_loss_param {
    lambda: 0.0001
    net_num: 64
  }
}
layer {
  name: "loss64"
  type: "NCLLoss"
  bottom: "score64"
  bottom: "label"
  bottom: "sumscore"
  top: "loss64"
  include {
    phase: TRAIN
  }
  ncl_loss_param {
    lambda: 0.0001
    net_num: 64
  }
}
I0629 21:39:26.398798 26569 layer_factory.hpp:77] Creating layer data
I0629 21:39:26.399229 26569 db_lmdb.cpp:35] Opened lmdb /home/peiyong/Work/Zenglin/szl/ShanghaiTech/partA/train_8/image_lmdb
I0629 21:39:26.400086 26569 net.cpp:84] Creating Layer data
I0629 21:39:26.400096 26569 net.cpp:380] data -> data
I0629 21:39:26.402856 26569 data_layer.cpp:45] output data size: 1,3,384,512
I0629 21:39:26.408268 26569 net.cpp:122] Setting up data
I0629 21:39:26.408284 26569 net.cpp:129] Top shape: 1 3 384 512 (589824)
I0629 21:39:26.408293 26569 net.cpp:137] Memory required for data: 2359296
I0629 21:39:26.408303 26569 layer_factory.hpp:77] Creating layer label
I0629 21:39:26.408737 26569 db_lmdb.cpp:35] Opened lmdb /home/peiyong/Work/Zenglin/szl/ShanghaiTech/partA/train_8/dmap_lmdb
I0629 21:39:26.409209 26569 net.cpp:84] Creating Layer label
I0629 21:39:26.409217 26569 net.cpp:380] label -> label
I0629 21:39:26.409716 26569 data_layer.cpp:45] output data size: 1,1,48,64
I0629 21:39:26.410601 26569 net.cpp:122] Setting up label
I0629 21:39:26.410614 26569 net.cpp:129] Top shape: 1 1 48 64 (3072)
I0629 21:39:26.410619 26569 net.cpp:137] Memory required for data: 2371584
I0629 21:39:26.410622 26569 layer_factory.hpp:77] Creating layer label_label_0_split
I0629 21:39:26.410637 26569 net.cpp:84] Creating Layer label_label_0_split
I0629 21:39:26.410642 26569 net.cpp:406] label_label_0_split <- label
I0629 21:39:26.410656 26569 net.cpp:380] label_label_0_split -> label_label_0_split_0
…
I0629 21:39:26.411314 26569 net.cpp:380] label_label_0_split -> label_label_0_split_58
I0629 21:39:26.411324 26569 net.cpp:380] label_label_0_split -> label_label_0_split_59
I0629 21:39:26.411334 26569 net.cpp:380] label_label_0_split -> label_label_0_split_60
I0629 21:39:26.411345 26569 net.cpp:380] label_label_0_split -> label_label_0_split_61
I0629 21:39:26.411356 26569 net.cpp:380] label_label_0_split -> label_label_0_split_62
I0629 21:39:26.411372 26569 net.cpp:380] label_label_0_split -> label_label_0_split_63
I0629 21:39:26.411948 26569 net.cpp:122] Setting up label_label_0_split
I0629 21:39:26.411958 26569 net.cpp:129] Top shape: 1 1 48 64 (3072)
I0629 21:39:26.411962 26569 net.cpp:129] Top shape: 1 1 48 64 (3072)
I0629 21:39:26.411967 26569 net.cpp:129] Top shape: 1 1 48 64 (3072)
I0629 21:39:26.411972 26569 net.cpp:129] Top shape: 1 1 48 64 (3072)
I0629 21:39:26.411975 26569 net.cpp:129] Top shape: 1 1 48 64 (3072)
I0629 21:39:26.411979 26569 net.cpp:129] Top shape: 1 1 48 64 (3072)
I0629 21:39:26.411983 26569 net.cpp:129] Top shape: 1 1 48 64 (3072)
I0629 21:39:26.411988 26569 net.cpp:129] Top shape: 1 1 48 64 (3072)
I0629 21:39:26.411991 26569 net.cpp:129] Top shape: 1 1 48 64 (3072)
I0629 21:39:26.412005 26569 net.cpp:129] Top shape: 1 1 48 64 (3072)
I0629 21:39:26.412009 26569 net.cpp:129] Top shape: 1 1 48 64 (3072)
I0629 21:39:26.412014 26569 net.cpp:129] Top shape: 1 1 48 64 (3072)
I0629 21:39:26.412017 26569 net.cpp:129] Top shape: 1 1 48 64 (3072)
I0629 21:39:26.412021 26569 net.cpp:129] Top shape: 1 1 48 64 (3072)
I0629 21:39:26.412025 26569 net.cpp:129] Top shape: 1 1 48 64 (3072)
I0629 21:39:26.412029 26569 net.cpp:129] Top shape: 1 1 48 64 (3072)
I0629 21:39:26.412034 26569 net.cpp:129] Top shape: 1 1 48 64 (3072)
I0629 21:39:26.412037 26569 net.cpp:129] Top shape: 1 1 48 64 (3072)
I0629 21:39:26.412041 26569 net.cpp:129] Top shape: 1 1 48 64 (3072)
I0629 21:39:26.412045 26569 net.cpp:129] Top shape: 1 1 48 64 (3072)
I0629 21:39:26.412050 26569 net.cpp:129] Top shape: 1 1 48 64 (3072)
I0629 21:39:26.412053 26569 net.cpp:129] Top shape: 1 1 48 64 (3072)
I0629 21:39:26.412057 26569 net.cpp:129] Top shape: 1 1 48 64 (3072)
I0629 21:39:26.412061 26569 net.cpp:129] Top shape: 1 1 48 64 (3072)
I0629 21:39:26.412065 26569 net.cpp:129] Top shape: 1 1 48 64 (3072)
I0629 21:39:26.412070 26569 net.cpp:129] Top shape: 1 1 48 64 (3072)
I0629 21:39:26.412073 26569 net.cpp:129] Top shape: 1 1 48 64 (3072)
I0629 21:39:26.412077 26569 net.cpp:129] Top shape: 1 1 48 64 (3072)
I0629 21:39:26.412081 26569 net.cpp:129] Top shape: 1 1 48 64 (3072)
I0629 21:39:26.412086 26569 net.cpp:129] Top shape: 1 1 48 64 (3072)
I0629 21:39:26.412089 26569 net.cpp:129] Top shape: 1 1 48 64 (3072)
I0629 21:39:26.412094 26569 net.cpp:129] Top shape: 1 1 48 64 (3072)
I0629 21:39:26.412098 26569 net.cpp:129] Top shape: 1 1 48 64 (3072)
I0629 21:39:26.412102 26569 net.cpp:129] Top shape: 1 1 48 64 (3072)
I0629 21:39:26.412106 26569 net.cpp:129] Top shape: 1 1 48 64 (3072)
I0629 21:39:26.412111 26569 net.cpp:129] Top shape: 1 1 48 64 (3072)
I0629 21:39:26.412113 26569 net.cpp:129] Top shape: 1 1 48 64 (3072)
I0629 21:39:26.412117 26569 net.cpp:129] Top shape: 1 1 48 64 (3072)
I0629 21:39:26.412122 26569 net.cpp:129] Top shape: 1 1 48 64 (3072)
I0629 21:39:26.412125 26569 net.cpp:129] Top shape: 1 1 48 64 (3072)
I0629 21:39:26.412129 26569 net.cpp:129] Top shape: 1 1 48 64 (3072)
I0629 21:39:26.412133 26569 net.cpp:129] Top shape: 1 1 48 64 (3072)
I0629 21:39:26.412137 26569 net.cpp:129] Top shape: 1 1 48 64 (3072)
I0629 21:39:26.412142 26569 net.cpp:129] Top shape: 1 1 48 64 (3072)
I0629 21:39:26.412145 26569 net.cpp:129] Top shape: 1 1 48 64 (3072)
I0629 21:39:26.412149 26569 net.cpp:129] Top shape: 1 1 48 64 (3072)
I0629 21:39:26.412153 26569 net.cpp:129] Top shape: 1 1 48 64 (3072)
I0629 21:39:26.412156 26569 net.cpp:129] Top shape: 1 1 48 64 (3072)
I0629 21:39:26.412160 26569 net.cpp:129] Top shape: 1 1 48 64 (3072)
I0629 21:39:26.412164 26569 net.cpp:129] Top shape: 1 1 48 64 (3072)
I0629 21:39:26.412168 26569 net.cpp:129] Top shape: 1 1 48 64 (3072)
I0629 21:39:26.412173 26569 net.cpp:129] Top shape: 1 1 48 64 (3072)
I0629 21:39:26.412176 26569 net.cpp:129] Top shape: 1 1 48 64 (3072)
I0629 21:39:26.412180 26569 net.cpp:129] Top shape: 1 1 48 64 (3072)
I0629 21:39:26.412184 26569 net.cpp:129] Top shape: 1 1 48 64 (3072)
I0629 21:39:26.412189 26569 net.cpp:129] Top shape: 1 1 48 64 (3072)
I0629 21:39:26.412192 26569 net.cpp:129] Top shape: 1 1 48 64 (3072)
I0629 21:39:26.412195 26569 net.cpp:129] Top shape: 1 1 48 64 (3072)
I0629 21:39:26.412199 26569 net.cpp:129] Top shape: 1 1 48 64 (3072)
I0629 21:39:26.412204 26569 net.cpp:129] Top shape: 1 1 48 64 (3072)
I0629 21:39:26.412207 26569 net.cpp:129] Top shape: 1 1 48 64 (3072)
I0629 21:39:26.412211 26569 net.cpp:129] Top shape: 1 1 48 64 (3072)
I0629 21:39:26.412215 26569 net.cpp:129] Top shape: 1 1 48 64 (3072)
I0629 21:39:26.412220 26569 net.cpp:129] Top shape: 1 1 48 64 (3072)
I0629 21:39:26.412222 26569 net.cpp:137] Memory required for data: 3158016
I0629 21:39:26.412226 26569 layer_factory.hpp:77] Creating layer conv1_1
I0629 21:39:26.412241 26569 net.cpp:84] Creating Layer conv1_1
I0629 21:39:26.412245 26569 net.cpp:406] conv1_1 <- data
I0629 21:39:26.412257 26569 net.cpp:380] conv1_1 -> conv1_1
I0629 21:39:26.789834 26569 net.cpp:122] Setting up conv1_1
I0629 21:39:26.789861 26569 net.cpp:129] Top shape: 1 64 384 512 (12582912)
I0629 21:39:26.789865 26569 net.cpp:137] Memory required for data: 53489664
I0629 21:39:26.789885 26569 layer_factory.hpp:77] Creating layer relu1_1
I0629 21:39:26.789896 26569 net.cpp:84] Creating Layer relu1_1
I0629 21:39:26.789901 26569 net.cpp:406] relu1_1 <- conv1_1
I0629 21:39:26.789906 26569 net.cpp:367] relu1_1 -> conv1_1 (in-place)
I0629 21:39:26.790045 26569 net.cpp:122] Setting up relu1_1
I0629 21:39:26.790055 26569 net.cpp:129] Top shape: 1 64 384 512 (12582912)
I0629 21:39:26.790058 26569 net.cpp:137] Memory required for data: 103821312
I0629 21:39:26.790062 26569 layer_factory.hpp:77] Creating layer conv1_2
I0629 21:39:26.790073 26569 net.cpp:84] Creating Layer conv1_2
I0629 21:39:26.790078 26569 net.cpp:406] conv1_2 <- conv1_1
I0629 21:39:26.790083 26569 net.cpp:380] conv1_2 -> conv1_2
I0629 21:39:26.792793 26569 net.cpp:122] Setting up conv1_2
I0629 21:39:26.792805 26569 net.cpp:129] Top shape: 1 64 384 512 (12582912)
I0629 21:39:26.792809 26569 net.cpp:137] Memory required for data: 154152960
I0629 21:39:26.792815 26569 layer_factory.hpp:77] Creating layer relu1_2
I0629 21:39:26.792820 26569 net.cpp:84] Creating Layer relu1_2
I0629 21:39:26.792824 26569 net.cpp:406] relu1_2 <- conv1_2
I0629 21:39:26.792827 26569 net.cpp:367] relu1_2 -> conv1_2 (in-place)
I0629 21:39:26.792956 26569 net.cpp:122] Setting up relu1_2
I0629 21:39:26.792964 26569 net.cpp:129] Top shape: 1 64 384 512 (12582912)
I0629 21:39:26.792968 26569 net.cpp:137] Memory required for data: 204484608
I0629 21:39:26.792973 26569 layer_factory.hpp:77] Creating layer pool1
I0629 21:39:26.792979 26569 net.cpp:84] Creating Layer pool1
I0629 21:39:26.792982 26569 net.cpp:406] pool1 <- conv1_2
I0629 21:39:26.792987 26569 net.cpp:380] pool1 -> pool1
I0629 21:39:26.793030 26569 net.cpp:122] Setting up pool1
I0629 21:39:26.793037 26569 net.cpp:129] Top shape: 1 64 192 256 (3145728)
I0629 21:39:26.793040 26569 net.cpp:137] Memory required for data: 217067520
I0629 21:39:26.793045 26569 layer_factory.hpp:77] Creating layer conv2_1
I0629 21:39:26.793056 26569 net.cpp:84] Creating Layer conv2_1
I0629 21:39:26.793059 26569 net.cpp:406] conv2_1 <- pool1
I0629 21:39:26.793066 26569 net.cpp:380] conv2_1 -> conv2_1
I0629 21:39:26.795630 26569 net.cpp:122] Setting up conv2_1
I0629 21:39:26.795642 26569 net.cpp:129] Top shape: 1 128 192 256 (6291456)
I0629 21:39:26.795646 26569 net.cpp:137] Memory required for data: 242233344
I0629 21:39:26.795655 26569 layer_factory.hpp:77] Creating layer relu2_1
I0629 21:39:26.795661 26569 net.cpp:84] Creating Layer relu2_1
I0629 21:39:26.795665 26569 net.cpp:406] relu2_1 <- conv2_1
I0629 21:39:26.795670 26569 net.cpp:367] relu2_1 -> conv2_1 (in-place)
I0629 21:39:26.796165 26569 net.cpp:122] Setting up relu2_1
I0629 21:39:26.796176 26569 net.cpp:129] Top shape: 1 128 192 256 (6291456)
I0629 21:39:26.796180 26569 net.cpp:137] Memory required for data: 267399168
I0629 21:39:26.796182 26569 layer_factory.hpp:77] Creating layer conv2_2
I0629 21:39:26.796190 26569 net.cpp:84] Creating Layer conv2_2
I0629 21:39:26.796192 26569 net.cpp:406] conv2_2 <- conv2_1
I0629 21:39:26.796196 26569 net.cpp:380] conv2_2 -> conv2_2
I0629 21:39:26.799000 26569 net.cpp:122] Setting up conv2_2
I0629 21:39:26.799012 26569 net.cpp:129] Top shape: 1 128 192 256 (6291456)
I0629 21:39:26.799015 26569 net.cpp:137] Memory required for data: 292564992
I0629 21:39:26.799021 26569 layer_factory.hpp:77] Creating layer relu2_2
I0629 21:39:26.799026 26569 net.cpp:84] Creating Layer relu2_2
I0629 21:39:26.799028 26569 net.cpp:406] relu2_2 <- conv2_2
I0629 21:39:26.799031 26569 net.cpp:367] relu2_2 -> conv2_2 (in-place)
I0629 21:39:26.799160 26569 net.cpp:122] Setting up relu2_2
I0629 21:39:26.799168 26569 net.cpp:129] Top shape: 1 128 192 256 (6291456)
I0629 21:39:26.799172 26569 net.cpp:137] Memory required for data: 317730816
I0629 21:39:26.799176 26569 layer_factory.hpp:77] Creating layer pool2
I0629 21:39:26.799203 26569 net.cpp:84] Creating Layer pool2
I0629 21:39:26.799208 26569 net.cpp:406] pool2 <- conv2_2
I0629 21:39:26.799214 26569 net.cpp:380] pool2 -> pool2
I0629 21:39:26.799249 26569 net.cpp:122] Setting up pool2
I0629 21:39:26.799257 26569 net.cpp:129] Top shape: 1 128 96 128 (1572864)
I0629 21:39:26.799260 26569 net.cpp:137] Memory required for data: 324022272
I0629 21:39:26.799264 26569 layer_factory.hpp:77] Creating layer conv3_1
I0629 21:39:26.799273 26569 net.cpp:84] Creating Layer conv3_1
I0629 21:39:26.799276 26569 net.cpp:406] conv3_1 <- pool2
I0629 21:39:26.799283 26569 net.cpp:380] conv3_1 -> conv3_1
I0629 21:39:26.803941 26569 net.cpp:122] Setting up conv3_1
I0629 21:39:26.803953 26569 net.cpp:129] Top shape: 1 256 96 128 (3145728)
I0629 21:39:26.803956 26569 net.cpp:137] Memory required for data: 336605184
I0629 21:39:26.803963 26569 layer_factory.hpp:77] Creating layer relu3_1
I0629 21:39:26.803968 26569 net.cpp:84] Creating Layer relu3_1
I0629 21:39:26.803972 26569 net.cpp:406] relu3_1 <- conv3_1
I0629 21:39:26.803975 26569 net.cpp:367] relu3_1 -> conv3_1 (in-place)
I0629 21:39:26.804108 26569 net.cpp:122] Setting up relu3_1
I0629 21:39:26.804116 26569 net.cpp:129] Top shape: 1 256 96 128 (3145728)
I0629 21:39:26.804121 26569 net.cpp:137] Memory required for data: 349188096
I0629 21:39:26.804123 26569 layer_factory.hpp:77] Creating layer conv3_2
I0629 21:39:26.804131 26569 net.cpp:84] Creating Layer conv3_2
I0629 21:39:26.804136 26569 net.cpp:406] conv3_2 <- conv3_1
I0629 21:39:26.804141 26569 net.cpp:380] conv3_2 -> conv3_2
I0629 21:39:26.810953 26569 net.cpp:122] Setting up conv3_2
I0629 21:39:26.810966 26569 net.cpp:129] Top shape: 1 256 96 128 (3145728)
I0629 21:39:26.810968 26569 net.cpp:137] Memory required for data: 361771008
I0629 21:39:26.810973 26569 layer_factory.hpp:77] Creating layer relu3_2
I0629 21:39:26.810981 26569 net.cpp:84] Creating Layer relu3_2
I0629 21:39:26.810983 26569 net.cpp:406] relu3_2 <- conv3_2
I0629 21:39:26.810988 26569 net.cpp:367] relu3_2 -> conv3_2 (in-place)
I0629 21:39:26.811488 26569 net.cpp:122] Setting up relu3_2
I0629 21:39:26.811498 26569 net.cpp:129] Top shape: 1 256 96 128 (3145728)
I0629 21:39:26.811501 26569 net.cpp:137] Memory required for data: 374353920
I0629 21:39:26.811504 26569 layer_factory.hpp:77] Creating layer conv3_3
I0629 21:39:26.811511 26569 net.cpp:84] Creating Layer conv3_3
I0629 21:39:26.811514 26569 net.cpp:406] conv3_3 <- conv3_2
I0629 21:39:26.811519 26569 net.cpp:380] conv3_3 -> conv3_3
I0629 21:39:26.818322 26569 net.cpp:122] Setting up conv3_3
I0629 21:39:26.818337 26569 net.cpp:129] Top shape: 1 256 96 128 (3145728)
I0629 21:39:26.818341 26569 net.cpp:137] Memory required for data: 386936832
I0629 21:39:26.818346 26569 layer_factory.hpp:77] Creating layer relu3_3
I0629 21:39:26.818351 26569 net.cpp:84] Creating Layer relu3_3
I0629 21:39:26.818354 26569 net.cpp:406] relu3_3 <- conv3_3
I0629 21:39:26.818358 26569 net.cpp:367] relu3_3 -> conv3_3 (in-place)
I0629 21:39:26.818488 26569 net.cpp:122] Setting up relu3_3
I0629 21:39:26.818496 26569 net.cpp:129] Top shape: 1 256 96 128 (3145728)
I0629 21:39:26.818500 26569 net.cpp:137] Memory required for data: 399519744
I0629 21:39:26.818505 26569 layer_factory.hpp:77] Creating layer pool3
I0629 21:39:26.818511 26569 net.cpp:84] Creating Layer pool3
I0629 21:39:26.818514 26569 net.cpp:406] pool3 <- conv3_3
I0629 21:39:26.818519 26569 net.cpp:380] pool3 -> pool3
I0629 21:39:26.818554 26569 net.cpp:122] Setting up pool3
I0629 21:39:26.818562 26569 net.cpp:129] Top shape: 1 256 48 64 (786432)
I0629 21:39:26.818564 26569 net.cpp:137] Memory required for data: 402665472
I0629 21:39:26.818568 26569 layer_factory.hpp:77] Creating layer conv4_1
I0629 21:39:26.818577 26569 net.cpp:84] Creating Layer conv4_1
I0629 21:39:26.818580 26569 net.cpp:406] conv4_1 <- pool3
I0629 21:39:26.818586 26569 net.cpp:380] conv4_1 -> conv4_1
I0629 21:39:26.831168 26569 net.cpp:122] Setting up conv4_1
I0629 21:39:26.831193 26569 net.cpp:129] Top shape: 1 512 48 64 (1572864)
I0629 21:39:26.831221 26569 net.cpp:137] Memory required for data: 408956928
I0629 21:39:26.831233 26569 layer_factory.hpp:77] Creating layer relu4_1
I0629 21:39:26.831241 26569 net.cpp:84] Creating Layer relu4_1
I0629 21:39:26.831246 26569 net.cpp:406] relu4_1 <- conv4_1
I0629 21:39:26.831252 26569 net.cpp:367] relu4_1 -> conv4_1 (in-place)
I0629 21:39:26.831389 26569 net.cpp:122] Setting up relu4_1
I0629 21:39:26.831398 26569 net.cpp:129] Top shape: 1 512 48 64 (1572864)
I0629 21:39:26.831400 26569 net.cpp:137] Memory required for data: 415248384
I0629 21:39:26.831405 26569 layer_factory.hpp:77] Creating layer conv4_2
I0629 21:39:26.831415 26569 net.cpp:84] Creating Layer conv4_2
I0629 21:39:26.831419 26569 net.cpp:406] conv4_2 <- conv4_1
I0629 21:39:26.831425 26569 net.cpp:380] conv4_2 -> conv4_2
I0629 21:39:26.853034 26569 net.cpp:122] Setting up conv4_2
I0629 21:39:26.853054 26569 net.cpp:129] Top shape: 1 512 48 64 (1572864)
I0629 21:39:26.853057 26569 net.cpp:137] Memory required for data: 421539840
I0629 21:39:26.853068 26569 layer_factory.hpp:77] Creating layer relu4_2
I0629 21:39:26.853076 26569 net.cpp:84] Creating Layer relu4_2
I0629 21:39:26.853080 26569 net.cpp:406] relu4_2 <- conv4_2
I0629 21:39:26.853086 26569 net.cpp:367] relu4_2 -> conv4_2 (in-place)
I0629 21:39:26.853591 26569 net.cpp:122] Setting up relu4_2
I0629 21:39:26.853602 26569 net.cpp:129] Top shape: 1 512 48 64 (1572864)
I0629 21:39:26.853606 26569 net.cpp:137] Memory required for data: 427831296
I0629 21:39:26.853610 26569 layer_factory.hpp:77] Creating layer conv4_3
I0629 21:39:26.853621 26569 net.cpp:84] Creating Layer conv4_3
I0629 21:39:26.853626 26569 net.cpp:406] conv4_3 <- conv4_2
I0629 21:39:26.853631 26569 net.cpp:380] conv4_3 -> conv4_3
I0629 21:39:26.875282 26569 net.cpp:122] Setting up conv4_3
I0629 21:39:26.875305 26569 net.cpp:129] Top shape: 1 512 48 64 (1572864)
I0629 21:39:26.875311 26569 net.cpp:137] Memory required for data: 434122752
I0629 21:39:26.875321 26569 layer_factory.hpp:77] Creating layer relu4_3
I0629 21:39:26.875329 26569 net.cpp:84] Creating Layer relu4_3
I0629 21:39:26.875335 26569 net.cpp:406] relu4_3 <- conv4_3
I0629 21:39:26.875341 26569 net.cpp:367] relu4_3 -> conv4_3 (in-place)
I0629 21:39:26.875473 26569 net.cpp:122] Setting up relu4_3
I0629 21:39:26.875481 26569 net.cpp:129] Top shape: 1 512 48 64 (1572864)
I0629 21:39:26.875485 26569 net.cpp:137] Memory required for data: 440414208
I0629 21:39:26.875489 26569 layer_factory.hpp:77] Creating layer pool4
I0629 21:39:26.875495 26569 net.cpp:84] Creating Layer pool4
I0629 21:39:26.875499 26569 net.cpp:406] pool4 <- conv4_3
I0629 21:39:26.875505 26569 net.cpp:380] pool4 -> pool4
I0629 21:39:26.875541 26569 net.cpp:122] Setting up pool4
I0629 21:39:26.875547 26569 net.cpp:129] Top shape: 1 512 48 64 (1572864)
I0629 21:39:26.875550 26569 net.cpp:137] Memory required for data: 446705664
I0629 21:39:26.875553 26569 layer_factory.hpp:77] Creating layer conv5_1
I0629 21:39:26.875563 26569 net.cpp:84] Creating Layer conv5_1
I0629 21:39:26.875566 26569 net.cpp:406] conv5_1 <- pool4
I0629 21:39:26.875572 26569 net.cpp:380] conv5_1 -> conv5_1
I0629 21:39:26.896400 26569 net.cpp:122] Setting up conv5_1
I0629 21:39:26.896425 26569 net.cpp:129] Top shape: 1 512 48 64 (1572864)
I0629 21:39:26.896430 26569 net.cpp:137] Memory required for data: 452997120
I0629 21:39:26.896437 26569 layer_factory.hpp:77] Creating layer relu5_1
I0629 21:39:26.896445 26569 net.cpp:84] Creating Layer relu5_1
I0629 21:39:26.896450 26569 net.cpp:406] relu5_1 <- conv5_1
I0629 21:39:26.896457 26569 net.cpp:367] relu5_1 -> conv5_1 (in-place)
I0629 21:39:26.897063 26569 net.cpp:122] Setting up relu5_1
I0629 21:39:26.897073 26569 net.cpp:129] Top shape: 1 512 48 64 (1572864)
I0629 21:39:26.897078 26569 net.cpp:137] Memory required for data: 459288576
I0629 21:39:26.897081 26569 layer_factory.hpp:77] Creating layer conv5_2
I0629 21:39:26.897091 26569 net.cpp:84] Creating Layer conv5_2
I0629 21:39:26.897095 26569 net.cpp:406] conv5_2 <- conv5_1
I0629 21:39:26.897101 26569 net.cpp:380] conv5_2 -> conv5_2
I0629 21:39:26.917590 26569 net.cpp:122] Setting up conv5_2
I0629 21:39:26.917614 26569 net.cpp:129] Top shape: 1 512 48 64 (1572864)
I0629 21:39:26.917618 26569 net.cpp:137] Memory required for data: 465580032
I0629 21:39:26.917625 26569 layer_factory.hpp:77] Creating layer relu5_2
I0629 21:39:26.917634 26569 net.cpp:84] Creating Layer relu5_2
I0629 21:39:26.917639 26569 net.cpp:406] relu5_2 <- conv5_2
I0629 21:39:26.917646 26569 net.cpp:367] relu5_2 -> conv5_2 (in-place)
I0629 21:39:26.917827 26569 net.cpp:122] Setting up relu5_2
I0629 21:39:26.917835 26569 net.cpp:129] Top shape: 1 512 48 64 (1572864)
I0629 21:39:26.917839 26569 net.cpp:137] Memory required for data: 471871488
I0629 21:39:26.917842 26569 layer_factory.hpp:77] Creating layer conv5_3
I0629 21:39:26.917852 26569 net.cpp:84] Creating Layer conv5_3
I0629 21:39:26.917856 26569 net.cpp:406] conv5_3 <- conv5_2
I0629 21:39:26.917863 26569 net.cpp:380] conv5_3 -> conv5_3
I0629 21:39:26.938428 26569 net.cpp:122] Setting up conv5_3
I0629 21:39:26.938453 26569 net.cpp:129] Top shape: 1 512 48 64 (1572864)
I0629 21:39:26.938457 26569 net.cpp:137] Memory required for data: 478162944
I0629 21:39:26.938465 26569 layer_factory.hpp:77] Creating layer relu5_3
I0629 21:39:26.938479 26569 net.cpp:84] Creating Layer relu5_3
I0629 21:39:26.938485 26569 net.cpp:406] relu5_3 <- conv5_3
I0629 21:39:26.938491 26569 net.cpp:367] relu5_3 -> conv5_3 (in-place)
I0629 21:39:26.939115 26569 net.cpp:122] Setting up relu5_3
I0629 21:39:26.939126 26569 net.cpp:129] Top shape: 1 512 48 64 (1572864)
I0629 21:39:26.939128 26569 net.cpp:137] Memory required for data: 484454400
I0629 21:39:26.939131 26569 layer_factory.hpp:77] Creating layer conv_score
I0629 21:39:26.939141 26569 net.cpp:84] Creating Layer conv_score
I0629 21:39:26.939146 26569 net.cpp:406] conv_score <- conv5_3
I0629 21:39:26.939151 26569 net.cpp:380] conv_score -> conv_score
I0629 21:39:27.012080 26569 net.cpp:122] Setting up conv_score
I0629 21:39:27.012107 26569 net.cpp:129] Top shape: 1 64 48 64 (196608)
I0629 21:39:27.012110 26569 net.cpp:137] Memory required for data: 485240832
I0629 21:39:27.012118 26569 layer_factory.hpp:77] Creating layer relu_score
I0629 21:39:27.012126 26569 net.cpp:84] Creating Layer relu_score
I0629 21:39:27.012133 26569 net.cpp:406] relu_score <- conv_score
I0629 21:39:27.012140 26569 net.cpp:367] relu_score -> conv_score (in-place)
I0629 21:39:27.012305 26569 net.cpp:122] Setting up relu_score
I0629 21:39:27.012315 26569 net.cpp:129] Top shape: 1 64 48 64 (196608)
I0629 21:39:27.012318 26569 net.cpp:137] Memory required for data: 486027264
I0629 21:39:27.012322 26569 layer_factory.hpp:77] Creating layer slicer_conv
I0629 21:39:27.012336 26569 net.cpp:84] Creating Layer slicer_conv
I0629 21:39:27.012339 26569 net.cpp:406] slicer_conv <- conv_score
I0629 21:39:27.012348 26569 net.cpp:380] slicer_conv -> score1
I0629 21:39:27.012362 26569 net.cpp:380] slicer_conv -> score2
…
I0629 21:39:27.012846 26569 net.cpp:380] slicer_conv -> score57
I0629 21:39:27.012854 26569 net.cpp:380] slicer_conv -> score58
I0629 21:39:27.012861 26569 net.cpp:380] slicer_conv -> score59
I0629 21:39:27.012869 26569 net.cpp:380] slicer_conv -> score60
I0629 21:39:27.012877 26569 net.cpp:380] slicer_conv -> score61
I0629 21:39:27.012886 26569 net.cpp:380] slicer_conv -> score62
I0629 21:39:27.012894 26569 net.cpp:380] slicer_conv -> score63
I0629 21:39:27.012902 26569 net.cpp:380] slicer_conv -> score64
I0629 21:39:27.013628 26569 net.cpp:122] Setting up slicer_conv
I0629 21:39:27.013635 26569 net.cpp:129] Top shape: 1 1 48 64 (3072)
I0629 21:39:27.013638 26569 net.cpp:129] Top shape: 1 1 48 64 (3072)
I0629 21:39:27.013641 26569 net.cpp:129] Top shape: 1 1 48 64 (3072)
I0629 21:39:27.013644 26569 net.cpp:129] Top shape: 1 1 48 64 (3072)
I0629 21:39:27.013648 26569 net.cpp:129] Top shape: 1 1 48 64 (3072)
I0629 21:39:27.013649 26569 net.cpp:129] Top shape: 1 1 48 64 (3072)
I0629 21:39:27.013653 26569 net.cpp:129] Top shape: 1 1 48 64 (3072)
I0629 21:39:27.013655 26569 net.cpp:129] Top shape: 1 1 48 64 (3072)
I0629 21:39:27.013659 26569 net.cpp:129] Top shape: 1 1 48 64 (3072)
I0629 21:39:27.013661 26569 net.cpp:129] Top shape: 1 1 48 64 (3072)
I0629 21:39:27.013664 26569 net.cpp:129] Top shape: 1 1 48 64 (3072)
I0629 21:39:27.013666 26569 net.cpp:129] Top shape: 1 1 48 64 (3072)
I0629 21:39:27.013669 26569 net.cpp:129] Top shape: 1 1 48 64 (3072)
I0629 21:39:27.013674 26569 net.cpp:129] Top shape: 1 1 48 64 (3072)
I0629 21:39:27.013675 26569 net.cpp:129] Top shape: 1 1 48 64 (3072)
I0629 21:39:27.013680 26569 net.cpp:129] Top shape: 1 1 48 64 (3072)
I0629 21:39:27.013685 26569 net.cpp:129] Top shape: 1 1 48 64 (3072)
I0629 21:39:27.013689 26569 net.cpp:129] Top shape: 1 1 48 64 (3072)
I0629 21:39:27.013701 26569 net.cpp:129] Top shape: 1 1 48 64 (3072)
I0629 21:39:27.013705 26569 net.cpp:129] Top shape: 1 1 48 64 (3072)
I0629 21:39:27.013710 26569 net.cpp:129] Top shape: 1 1 48 64 (3072)
I0629 21:39:27.013713 26569 net.cpp:129] Top shape: 1 1 48 64 (3072)
I0629 21:39:27.013717 26569 net.cpp:129] Top shape: 1 1 48 64 (3072)
I0629 21:39:27.013720 26569 net.cpp:129] Top shape: 1 1 48 64 (3072)
I0629 21:39:27.013725 26569 net.cpp:129] Top shape: 1 1 48 64 (3072)
I0629 21:39:27.013728 26569 net.cpp:129] Top shape: 1 1 48 64 (3072)
I0629 21:39:27.013732 26569 net.cpp:129] Top shape: 1 1 48 64 (3072)
I0629 21:39:27.013736 26569 net.cpp:129] Top shape: 1 1 48 64 (3072)
I0629 21:39:27.013739 26569 net.cpp:129] Top shape: 1 1 48 64 (3072)
I0629 21:39:27.013743 26569 net.cpp:129] Top shape: 1 1 48 64 (3072)
I0629 21:39:27.013747 26569 net.cpp:129] Top shape: 1 1 48 64 (3072)
I0629 21:39:27.013751 26569 net.cpp:129] Top shape: 1 1 48 64 (3072)
I0629 21:39:27.013756 26569 net.cpp:129] Top shape: 1 1 48 64 (3072)
I0629 21:39:27.013759 26569 net.cpp:129] Top shape: 1 1 48 64 (3072)
I0629 21:39:27.013762 26569 net.cpp:129] Top shape: 1 1 48 64 (3072)
I0629 21:39:27.013767 26569 net.cpp:129] Top shape: 1 1 48 64 (3072)
I0629 21:39:27.013770 26569 net.cpp:129] Top shape: 1 1 48 64 (3072)
I0629 21:39:27.013774 26569 net.cpp:129] Top shape: 1 1 48 64 (3072)
I0629 21:39:27.013778 26569 net.cpp:129] Top shape: 1 1 48 64 (3072)
I0629 21:39:27.013782 26569 net.cpp:129] Top shape: 1 1 48 64 (3072)
I0629 21:39:27.013785 26569 net.cpp:129] Top shape: 1 1 48 64 (3072)
I0629 21:39:27.013789 26569 net.cpp:129] Top shape: 1 1 48 64 (3072)
I0629 21:39:27.013793 26569 net.cpp:129] Top shape: 1 1 48 64 (3072)
I0629 21:39:27.013797 26569 net.cpp:129] Top shape: 1 1 48 64 (3072)
I0629 21:39:27.013801 26569 net.cpp:129] Top shape: 1 1 48 64 (3072)
I0629 21:39:27.013805 26569 net.cpp:129] Top shape: 1 1 48 64 (3072)
I0629 21:39:27.013809 26569 net.cpp:129] Top shape: 1 1 48 64 (3072)
I0629 21:39:27.013813 26569 net.cpp:129] Top shape: 1 1 48 64 (3072)
I0629 21:39:27.013818 26569 net.cpp:129] Top shape: 1 1 48 64 (3072)
I0629 21:39:27.013820 26569 net.cpp:129] Top shape: 1 1 48 64 (3072)
I0629 21:39:27.013824 26569 net.cpp:129] Top shape: 1 1 48 64 (3072)
I0629 21:39:27.013828 26569 net.cpp:129] Top shape: 1 1 48 64 (3072)
I0629 21:39:27.013831 26569 net.cpp:129] Top shape: 1 1 48 64 (3072)
I0629 21:39:27.013835 26569 net.cpp:129] Top shape: 1 1 48 64 (3072)
I0629 21:39:27.013839 26569 net.cpp:129] Top shape: 1 1 48 64 (3072)
I0629 21:39:27.013844 26569 net.cpp:129] Top shape: 1 1 48 64 (3072)
I0629 21:39:27.013847 26569 net.cpp:129] Top shape: 1 1 48 64 (3072)
I0629 21:39:27.013851 26569 net.cpp:129] Top shape: 1 1 48 64 (3072)
I0629 21:39:27.013855 26569 net.cpp:129] Top shape: 1 1 48 64 (3072)
I0629 21:39:27.013859 26569 net.cpp:129] Top shape: 1 1 48 64 (3072)
I0629 21:39:27.013864 26569 net.cpp:129] Top shape: 1 1 48 64 (3072)
I0629 21:39:27.013866 26569 net.cpp:129] Top shape: 1 1 48 64 (3072)
I0629 21:39:27.013870 26569 net.cpp:129] Top shape: 1 1 48 64 (3072)
I0629 21:39:27.013875 26569 net.cpp:129] Top shape: 1 1 48 64 (3072)
I0629 21:39:27.013877 26569 net.cpp:137] Memory required for data: 486813696
I0629 21:39:27.013881 26569 layer_factory.hpp:77] Creating layer score1_slicer_conv_0_split
I0629 21:39:27.013887 26569 net.cpp:84] Creating Layer score1_slicer_conv_0_split
I0629 21:39:27.013891 26569 net.cpp:406] score1_slicer_conv_0_split <- score1
I0629 21:39:27.013900 26569 net.cpp:380] score1_slicer_conv_0_split -> score1_slicer_conv_0_split_0
I0629 21:39:27.013906 26569 net.cpp:380] score1_slicer_conv_0_split -> score1_slicer_conv_0_split_1
I0629 21:39:27.013947 26569 net.cpp:122] Setting up score1_slicer_conv_0_split
I0629 21:39:27.013953 26569 net.cpp:129] Top shape: 1 1 48 64 (3072)
I0629 21:39:27.013957 26569 net.cpp:129] Top shape: 1 1 48 64 (3072)
I0629 21:39:27.013962 26569 net.cpp:137] Memory required for data: 486838272
I0629 21:39:27.013964 26569 layer_factory.hpp:77] Creating layer score2_slicer_conv_1_split
I0629 21:39:27.013975 26569 net.cpp:84] Creating Layer score2_slicer_conv_1_split
I0629 21:39:27.013979 26569 net.cpp:406] score2_slicer_conv_1_split <- score2
I0629 21:39:27.013986 26569 net.cpp:380] score2_slicer_conv_1_split -> score2_slicer_conv_1_split_0
I0629 21:39:27.013993 26569 net.cpp:380] score2_slicer_conv_1_split -> score2_slicer_conv_1_split_1
I0629 21:39:27.014031 26569 net.cpp:122] Setting up score2_slicer_conv_1_split
I0629 21:39:27.014037 26569 net.cpp:129] Top shape: 1 1 48 64 (3072)
I0629 21:39:27.014040 26569 net.cpp:129] Top shape: 1 1 48 64 (3072)
I0629 21:39:27.014044 26569 net.cpp:137] Memory required for data: 486862848
I0629 21:39:27.014047 26569 layer_factory.hpp:77] Creating layer score3_slicer_conv_2_split
I0629 21:39:27.014052 26569 net.cpp:84] Creating Layer score3_slicer_conv_2_split
I0629 21:39:27.014056 26569 net.cpp:406] score3_slicer_conv_2_split <- score3
I0629 21:39:27.014062 26569 net.cpp:380] score3_slicer_conv_2_split -> score3_slicer_conv_2_split_0
I0629 21:39:27.014068 26569 net.cpp:380] score3_slicer_conv_2_split -> score3_slicer_conv_2_split_1
I0629 21:39:27.014103 26569 net.cpp:122] Setting up score3_slicer_conv_2_split
I0629 21:39:27.014109 26569 net.cpp:129] Top shape: 1 1 48 64 (3072)
I0629 21:39:27.014113 26569 net.cpp:129] Top shape: 1 1 48 64 (3072)
I0629 21:39:27.014117 26569 net.cpp:137] Memory required for data: 486887424
I0629 21:39:27.014119 26569 layer_factory.hpp:77] Creating layer score4_slicer_conv_3_split
I0629 21:39:27.014127 26569 net.cpp:84] Creating Layer score4_slicer_conv_3_split
I0629 21:39:27.014130 26569 net.cpp:406] score4_slicer_conv_3_split <- score4
I0629 21:39:27.014137 26569 net.cpp:380] score4_slicer_conv_3_split -> score4_slicer_conv_3_split_0
I0629 21:39:27.014142 26569 net.cpp:380] score4_slicer_conv_3_split -> score4_slicer_conv_3_split_1
I0629 21:39:27.014176 26569 net.cpp:122] Setting up score4_slicer_conv_3_split
I0629 21:39:27.014183 26569 net.cpp:129] Top shape: 1 1 48 64 (3072)
I0629 21:39:27.014188 26569 net.cpp:129] Top shape: 1 1 48 64 (3072)
I0629 21:39:27.014191 26569 net.cpp:137] Memory required for data: 486912000
I0629 21:39:27.014194 26569 layer_factory.hpp:77] Creating layer score5_slicer_conv_4_split
I0629 21:39:27.014199 26569 net.cpp:84] Creating Layer score5_slicer_conv_4_split
I0629 21:39:27.014202 26569 net.cpp:406] score5_slicer_conv_4_split <- score5
I0629 21:39:27.014207 26569 net.cpp:380] score5_slicer_conv_4_split -> score5_slicer_conv_4_split_0
I0629 21:39:27.014214 26569 net.cpp:380] score5_slicer_conv_4_split -> score5_slicer_conv_4_split_1
I0629 21:39:27.014247 26569 net.cpp:122] Setting up score5_slicer_conv_4_split
I0629 21:39:27.014253 26569 net.cpp:129] Top shape: 1 1 48 64 (3072)
I0629 21:39:27.014257 26569 net.cpp:129] Top shape: 1 1 48 64 (3072)
I0629 21:39:27.014261 26569 net.cpp:137] Memory required for data: 486936576
I0629 21:39:27.014263 26569 layer_factory.hpp:77] Creating layer score6_slicer_conv_5_split
I0629 21:39:27.014271 26569 net.cpp:84] Creating Layer score6_slicer_conv_5_split
I0629 21:39:27.014274 26569 net.cpp:406] score6_slicer_conv_5_split <- score6
I0629 21:39:27.014279 26569 net.cpp:380] score6_slicer_conv_5_split -> score6_slicer_conv_5_split_0
I0629 21:39:27.014284 26569 net.cpp:380] score6_slicer_conv_5_split -> score6_slicer_conv_5_split_1
I0629 21:39:27.014318 26569 net.cpp:122] Setting up score6_slicer_conv_5_split
I0629 21:39:27.014324 26569 net.cpp:129] Top shape: 1 1 48 64 (3072)
I0629 21:39:27.014328 26569 net.cpp:129] Top shape: 1 1 48 64 (3072)
I0629 21:39:27.014331 26569 net.cpp:137] Memory required for data: 486961152
I0629 21:39:27.014335 26569 layer_factory.hpp:77] Creating layer score7_slicer_conv_6_split
I0629 21:39:27.014339 26569 net.cpp:84] Creating Layer score7_slicer_conv_6_split
I0629 21:39:27.014343 26569 net.cpp:406] score7_slicer_conv_6_split <- score7
I0629 21:39:27.014348 26569 net.cpp:380] score7_slicer_conv_6_split -> score7_slicer_conv_6_split_0
I0629 21:39:27.014354 26569 net.cpp:380] score7_slicer_conv_6_split -> score7_slicer_conv_6_split_1
I0629 21:39:27.014398 26569 net.cpp:122] Setting up score7_slicer_conv_6_split
I0629 21:39:27.014405 26569 net.cpp:129] Top shape: 1 1 48 64 (3072)
I0629 21:39:27.014408 26569 net.cpp:129] Top shape: 1 1 48 64 (3072)
I0629 21:39:27.014411 26569 net.cpp:137] Memory required for data: 486985728
I0629 21:39:27.014415 26569 layer_factory.hpp:77] Creating layer score8_slicer_conv_7_split
I0629 21:39:27.014421 26569 net.cpp:84] Creating Layer score8_slicer_conv_7_split
I0629 21:39:27.014425 26569 net.cpp:406] score8_slicer_conv_7_split <- score8
I0629 21:39:27.014430 26569 net.cpp:380] score8_slicer_conv_7_split -> score8_slicer_conv_7_split_0
I0629 21:39:27.014436 26569 net.cpp:380] score8_slicer_conv_7_split -> score8_slicer_conv_7_split_1
I0629 21:39:27.014472 26569 net.cpp:122] Setting up score8_slicer_conv_7_split
I0629 21:39:27.014477 26569 net.cpp:129] Top shape: 1 1 48 64 (3072)
I0629 21:39:27.014482 26569 net.cpp:129] Top shape: 1 1 48 64 (3072)
I0629 21:39:27.014484 26569 net.cpp:137] Memory required for data: 487010304
I0629 21:39:27.014487 26569 layer_factory.hpp:77] Creating layer score9_slicer_conv_8_split
I0629 21:39:27.014492 26569 net.cpp:84] Creating Layer score9_slicer_conv_8_split
I0629 21:39:27.014497 26569 net.cpp:406] score9_slicer_conv_8_split <- score9
I0629 21:39:27.014500 26569 net.cpp:380] score9_slicer_conv_8_split -> score9_slicer_conv_8_split_0
I0629 21:39:27.014506 26569 net.cpp:380] score9_slicer_conv_8_split -> score9_slicer_conv_8_split_1
I0629 21:39:27.014541 26569 net.cpp:122] Setting up score9_slicer_conv_8_split
I0629 21:39:27.014547 26569 net.cpp:129] Top shape: 1 1 48 64 (3072)
I0629 21:39:27.014551 26569 net.cpp:129] Top shape: 1 1 48 64 (3072)
I0629 21:39:27.014554 26569 net.cpp:137] Memory required for data: 487034880
I0629 21:39:27.014559 26569 layer_factory.hpp:77] Creating layer score10_slicer_conv_9_split
I0629 21:39:27.014564 26569 net.cpp:84] Creating Layer score10_slicer_conv_9_split
I0629 21:39:27.014567 26569 net.cpp:406] score10_slicer_conv_9_split <- score10
I0629 21:39:27.014574 26569 net.cpp:380] score10_slicer_conv_9_split -> score10_slicer_conv_9_split_0
I0629 21:39:27.014578 26569 net.cpp:380] score10_slicer_conv_9_split -> score10_slicer_conv_9_split_1
I0629 21:39:27.014613 26569 net.cpp:122] Setting up score10_slicer_conv_9_split
I0629 21:39:27.014619 26569 net.cpp:129] Top shape: 1 1 48 64 (3072)
I0629 21:39:27.014623 26569 net.cpp:129] Top shape: 1 1 48 64 (3072)
I0629 21:39:27.014626 26569 net.cpp:137] Memory required for data: 487059456
I0629 21:39:27.014629 26569 layer_factory.hpp:77] Creating layer score11_slicer_conv_10_split
I0629 21:39:27.014634 26569 net.cpp:84] Creating Layer score11_slicer_conv_10_split
I0629 21:39:27.014638 26569 net.cpp:406] score11_slicer_conv_10_split <- score11
I0629 21:39:27.014643 26569 net.cpp:380] score11_slicer_conv_10_split -> score11_slicer_conv_10_split_0
I0629 21:39:27.014649 26569 net.cpp:380] score11_slicer_conv_10_split -> score11_slicer_conv_10_split_1
I0629 21:39:27.014686 26569 net.cpp:122] Setting up score11_slicer_conv_10_split
I0629 21:39:27.014691 26569 net.cpp:129] Top shape: 1 1 48 64 (3072)
I0629 21:39:27.014695 26569 net.cpp:129] Top shape: 1 1 48 64 (3072)
I0629 21:39:27.014698 26569 net.cpp:137] Memory required for data: 487084032
I0629 21:39:27.014703 26569 layer_factory.hpp:77] Creating layer score12_slicer_conv_11_split
I0629 21:39:27.014708 26569 net.cpp:84] Creating Layer score12_slicer_conv_11_split
I0629 21:39:27.014711 26569 net.cpp:406] score12_slicer_conv_11_split <- score12
I0629 21:39:27.014717 26569 net.cpp:380] score12_slicer_conv_11_split -> score12_slicer_conv_11_split_0
I0629 21:39:27.014724 26569 net.cpp:380] score12_slicer_conv_11_split -> score12_slicer_conv_11_split_1
I0629 21:39:27.014756 26569 net.cpp:122] Setting up score12_slicer_conv_11_split
I0629 21:39:27.014761 26569 net.cpp:129] Top shape: 1 1 48 64 (3072)
I0629 21:39:27.014765 26569 net.cpp:129] Top shape: 1 1 48 64 (3072)
I0629 21:39:27.014770 26569 net.cpp:137] Memory required for data: 487108608
I0629 21:39:27.014778 26569 layer_factory.hpp:77] Creating layer score13_slicer_conv_12_split
I0629 21:39:27.014786 26569 net.cpp:84] Creating Layer score13_slicer_conv_12_split
I0629 21:39:27.014789 26569 net.cpp:406] score13_slicer_conv_12_split <- score13
I0629 21:39:27.014794 26569 net.cpp:380] score13_slicer_conv_12_split -> score13_slicer_conv_12_split_0
I0629 21:39:27.014801 26569 net.cpp:380] score13_slicer_conv_12_split -> score13_slicer_conv_12_split_1
I0629 21:39:27.014837 26569 net.cpp:122] Setting up score13_slicer_conv_12_split
I0629 21:39:27.014842 26569 net.cpp:129] Top shape: 1 1 48 64 (3072)
I0629 21:39:27.014847 26569 net.cpp:129] Top shape: 1 1 48 64 (3072)
I0629 21:39:27.014850 26569 net.cpp:137] Memory required for data: 487133184
I0629 21:39:27.014853 26569 layer_factory.hpp:77] Creating layer score14_slicer_conv_13_split
I0629 21:39:27.014858 26569 net.cpp:84] Creating Layer score14_slicer_conv_13_split
I0629 21:39:27.014863 26569 net.cpp:406] score14_slicer_conv_13_split <- score14
I0629 21:39:27.014866 26569 net.cpp:380] score14_slicer_conv_13_split -> score14_slicer_conv_13_split_0
I0629 21:39:27.014873 26569 net.cpp:380] score14_slicer_conv_13_split -> score14_slicer_conv_13_split_1
I0629 21:39:27.014906 26569 net.cpp:122] Setting up score14_slicer_conv_13_split
I0629 21:39:27.014912 26569 net.cpp:129] Top shape: 1 1 48 64 (3072)
I0629 21:39:27.014916 26569 net.cpp:129] Top shape: 1 1 48 64 (3072)
I0629 21:39:27.014919 26569 net.cpp:137] Memory required for data: 487157760
I0629 21:39:27.014922 26569 layer_factory.hpp:77] Creating layer score15_slicer_conv_14_split
I0629 21:39:27.014930 26569 net.cpp:84] Creating Layer score15_slicer_conv_14_split
I0629 21:39:27.014933 26569 net.cpp:406] score15_slicer_conv_14_split <- score15
I0629 21:39:27.014938 26569 net.cpp:380] score15_slicer_conv_14_split -> score15_slicer_conv_14_split_0
I0629 21:39:27.014943 26569 net.cpp:380] score15_slicer_conv_14_split -> score15_slicer_conv_14_split_1
I0629 21:39:27.014978 26569 net.cpp:122] Setting up score15_slicer_conv_14_split
I0629 21:39:27.014984 26569 net.cpp:129] Top shape: 1 1 48 64 (3072)
I0629 21:39:27.014988 26569 net.cpp:129] Top shape: 1 1 48 64 (3072)
I0629 21:39:27.014992 26569 net.cpp:137] Memory required for data: 487182336
I0629 21:39:27.014995 26569 layer_factory.hpp:77] Creating layer score16_slicer_conv_15_split
I0629 21:39:27.015000 26569 net.cpp:84] Creating Layer score16_slicer_conv_15_split
I0629 21:39:27.015004 26569 net.cpp:406] score16_slicer_conv_15_split <- score16
I0629 21:39:27.015009 26569 net.cpp:380] score16_slicer_conv_15_split -> score16_slicer_conv_15_split_0
I0629 21:39:27.015014 26569 net.cpp:380] score16_slicer_conv_15_split -> score16_slicer_conv_15_split_1
I0629 21:39:27.015049 26569 net.cpp:122] Setting up score16_slicer_conv_15_split
I0629 21:39:27.015055 26569 net.cpp:129] Top shape: 1 1 48 64 (3072)
I0629 21:39:27.015060 26569 net.cpp:129] Top shape: 1 1 48 64 (3072)
I0629 21:39:27.015064 26569 net.cpp:137] Memory required for data: 487206912
I0629 21:39:27.015066 26569 layer_factory.hpp:77] Creating layer score17_slicer_conv_16_split
I0629 21:39:27.015071 26569 net.cpp:84] Creating Layer score17_slicer_conv_16_split
I0629 21:39:27.015075 26569 net.cpp:406] score17_slicer_conv_16_split <- score17
I0629 21:39:27.015081 26569 net.cpp:380] score17_slicer_conv_16_split -> score17_slicer_conv_16_split_0
I0629 21:39:27.015086 26569 net.cpp:380] score17_slicer_conv_16_split -> score17_slicer_conv_16_split_1
I0629 21:39:27.015120 26569 net.cpp:122] Setting up score17_slicer_conv_16_split
I0629 21:39:27.015126 26569 net.cpp:129] Top shape: 1 1 48 64 (3072)
I0629 21:39:27.015130 26569 net.cpp:129] Top shape: 1 1 48 64 (3072)
I0629 21:39:27.015133 26569 net.cpp:137] Memory required for data: 487231488
I0629 21:39:27.015136 26569 layer_factory.hpp:77] Creating layer score18_slicer_conv_17_split
I0629 21:39:27.015141 26569 net.cpp:84] Creating Layer score18_slicer_conv_17_split
I0629 21:39:27.015146 26569 net.cpp:406] score18_slicer_conv_17_split <- score18
I0629 21:39:27.015151 26569 net.cpp:380] score18_slicer_conv_17_split -> score18_slicer_conv_17_split_0
I0629 21:39:27.015162 26569 net.cpp:380] score18_slicer_conv_17_split -> score18_slicer_conv_17_split_1
I0629 21:39:27.015199 26569 net.cpp:122] Setting up score18_slicer_conv_17_split
I0629 21:39:27.015205 26569 net.cpp:129] Top shape: 1 1 48 64 (3072)
I0629 21:39:27.015209 26569 net.cpp:129] Top shape: 1 1 48 64 (3072)
I0629 21:39:27.015213 26569 net.cpp:137] Memory required for data: 487256064
I0629 21:39:27.015216 26569 layer_factory.hpp:77] Creating layer score19_slicer_conv_18_split
I0629 21:39:27.015220 26569 net.cpp:84] Creating Layer score19_slicer_conv_18_split
I0629 21:39:27.015224 26569 net.cpp:406] score19_slicer_conv_18_split <- score19
I0629 21:39:27.015230 26569 net.cpp:380] score19_slicer_conv_18_split -> score19_slicer_conv_18_split_0
I0629 21:39:27.015236 26569 net.cpp:380] score19_slicer_conv_18_split -> score19_slicer_conv_18_split_1
I0629 21:39:27.015269 26569 net.cpp:122] Setting up score19_slicer_conv_18_split
I0629 21:39:27.015275 26569 net.cpp:129] Top shape: 1 1 48 64 (3072)
I0629 21:39:27.015280 26569 net.cpp:129] Top shape: 1 1 48 64 (3072)
I0629 21:39:27.015282 26569 net.cpp:137] Memory required for data: 487280640
I0629 21:39:27.015285 26569 layer_factory.hpp:77] Creating layer score20_slicer_conv_19_split
I0629 21:39:27.015292 26569 net.cpp:84] Creating Layer score20_slicer_conv_19_split
I0629 21:39:27.015296 26569 net.cpp:406] score20_slicer_conv_19_split <- score20
I0629 21:39:27.015301 26569 net.cpp:380] score20_slicer_conv_19_split -> score20_slicer_conv_19_split_0
I0629 21:39:27.015307 26569 net.cpp:380] score20_slicer_conv_19_split -> score20_slicer_conv_19_split_1
I0629 21:39:27.015341 26569 net.cpp:122] Setting up score20_slicer_conv_19_split
I0629 21:39:27.015347 26569 net.cpp:129] Top shape: 1 1 48 64 (3072)
I0629 21:39:27.015350 26569 net.cpp:129] Top shape: 1 1 48 64 (3072)
I0629 21:39:27.015353 26569 net.cpp:137] Memory required for data: 487305216
I0629 21:39:27.015357 26569 layer_factory.hpp:77] Creating layer score21_slicer_conv_20_split
I0629 21:39:27.015362 26569 net.cpp:84] Creating Layer score21_slicer_conv_20_split
I0629 21:39:27.015367 26569 net.cpp:406] score21_slicer_conv_20_split <- score21
I0629 21:39:27.015372 26569 net.cpp:380] score21_slicer_conv_20_split -> score21_slicer_conv_20_split_0
I0629 21:39:27.015377 26569 net.cpp:380] score21_slicer_conv_20_split -> score21_slicer_conv_20_split_1
I0629 21:39:27.015410 26569 net.cpp:122] Setting up score21_slicer_conv_20_split
I0629 21:39:27.015416 26569 net.cpp:129] Top shape: 1 1 48 64 (3072)
I0629 21:39:27.015420 26569 net.cpp:129] Top shape: 1 1 48 64 (3072)
I0629 21:39:27.015424 26569 net.cpp:137] Memory required for data: 487329792
I0629 21:39:27.015426 26569 layer_factory.hpp:77] Creating layer score22_slicer_conv_21_split
I0629 21:39:27.015434 26569 net.cpp:84] Creating Layer score22_slicer_conv_21_split
I0629 21:39:27.015436 26569 net.cpp:406] score22_slicer_conv_21_split <- score22
I0629 21:39:27.015441 26569 net.cpp:380] score22_slicer_conv_21_split -> score22_slicer_conv_21_split_0
I0629 21:39:27.015447 26569 net.cpp:380] score22_slicer_conv_21_split -> score22_slicer_conv_21_split_1
I0629 21:39:27.015480 26569 net.cpp:122] Setting up score22_slicer_conv_21_split
I0629 21:39:27.015486 26569 net.cpp:129] Top shape: 1 1 48 64 (3072)
I0629 21:39:27.015491 26569 net.cpp:129] Top shape: 1 1 48 64 (3072)
I0629 21:39:27.015493 26569 net.cpp:137] Memory required for data: 487354368
I0629 21:39:27.015497 26569 layer_factory.hpp:77] Creating layer score23_slicer_conv_22_split
I0629 21:39:27.015502 26569 net.cpp:84] Creating Layer score23_slicer_conv_22_split
I0629 21:39:27.015506 26569 net.cpp:406] score23_slicer_conv_22_split <- score23
I0629 21:39:27.015511 26569 net.cpp:380] score23_slicer_conv_22_split -> score23_slicer_conv_22_split_0
I0629 21:39:27.015516 26569 net.cpp:380] score23_slicer_conv_22_split -> score23_slicer_conv_22_split_1
I0629 21:39:27.015552 26569 net.cpp:122] Setting up score23_slicer_conv_22_split
I0629 21:39:27.015564 26569 net.cpp:129] Top shape: 1 1 48 64 (3072)
I0629 21:39:27.015569 26569 net.cpp:129] Top shape: 1 1 48 64 (3072)
I0629 21:39:27.015573 26569 net.cpp:137] Memory required for data: 487378944
I0629 21:39:27.015576 26569 layer_factory.hpp:77] Creating layer score24_slicer_conv_23_split
I0629 21:39:27.015583 26569 net.cpp:84] Creating Layer score24_slicer_conv_23_split
I0629 21:39:27.015586 26569 net.cpp:406] score24_slicer_conv_23_split <- score24
I0629 21:39:27.015591 26569 net.cpp:380] score24_slicer_conv_23_split -> score24_slicer_conv_23_split_0
I0629 21:39:27.015597 26569 net.cpp:380] score24_slicer_conv_23_split -> score24_slicer_conv_23_split_1
I0629 21:39:27.015635 26569 net.cpp:122] Setting up score24_slicer_conv_23_split
I0629 21:39:27.015640 26569 net.cpp:129] Top shape: 1 1 48 64 (3072)
I0629 21:39:27.015645 26569 net.cpp:129] Top shape: 1 1 48 64 (3072)
I0629 21:39:27.015647 26569 net.cpp:137] Memory required for data: 487403520
I0629 21:39:27.015650 26569 layer_factory.hpp:77] Creating layer score25_slicer_conv_24_split
I0629 21:39:27.015655 26569 net.cpp:84] Creating Layer score25_slicer_conv_24_split
I0629 21:39:27.015660 26569 net.cpp:406] score25_slicer_conv_24_split <- score25
I0629 21:39:27.015664 26569 net.cpp:380] score25_slicer_conv_24_split -> score25_slicer_conv_24_split_0
I0629 21:39:27.015671 26569 net.cpp:380] score25_slicer_conv_24_split -> score25_slicer_conv_24_split_1
I0629 21:39:27.015704 26569 net.cpp:122] Setting up score25_slicer_conv_24_split
I0629 21:39:27.015710 26569 net.cpp:129] Top shape: 1 1 48 64 (3072)
I0629 21:39:27.015714 26569 net.cpp:129] Top shape: 1 1 48 64 (3072)
I0629 21:39:27.015718 26569 net.cpp:137] Memory required for data: 487428096
I0629 21:39:27.015722 26569 layer_factory.hpp:77] Creating layer score26_slicer_conv_25_split
I0629 21:39:27.015727 26569 net.cpp:84] Creating Layer score26_slicer_conv_25_split
I0629 21:39:27.015730 26569 net.cpp:406] score26_slicer_conv_25_split <- score26
I0629 21:39:27.015736 26569 net.cpp:380] score26_slicer_conv_25_split -> score26_slicer_conv_25_split_0
I0629 21:39:27.015743 26569 net.cpp:380] score26_slicer_conv_25_split -> score26_slicer_conv_25_split_1
I0629 21:39:27.015777 26569 net.cpp:122] Setting up score26_slicer_conv_25_split
I0629 21:39:27.015784 26569 net.cpp:129] Top shape: 1 1 48 64 (3072)
I0629 21:39:27.015787 26569 net.cpp:129] Top shape: 1 1 48 64 (3072)
I0629 21:39:27.015790 26569 net.cpp:137] Memory required for data: 487452672
I0629 21:39:27.015794 26569 layer_factory.hpp:77] Creating layer score27_slicer_conv_26_split
I0629 21:39:27.015799 26569 net.cpp:84] Creating Layer score27_slicer_conv_26_split
I0629 21:39:27.015802 26569 net.cpp:406] score27_slicer_conv_26_split <- score27
I0629 21:39:27.015807 26569 net.cpp:380] score27_slicer_conv_26_split -> score27_slicer_conv_26_split_0
I0629 21:39:27.015813 26569 net.cpp:380] score27_slicer_conv_26_split -> score27_slicer_conv_26_split_1
I0629 21:39:27.015846 26569 net.cpp:122] Setting up score27_slicer_conv_26_split
I0629 21:39:27.015852 26569 net.cpp:129] Top shape: 1 1 48 64 (3072)
I0629 21:39:27.015856 26569 net.cpp:129] Top shape: 1 1 48 64 (3072)
I0629 21:39:27.015859 26569 net.cpp:137] Memory required for data: 487477248
I0629 21:39:27.015863 26569 layer_factory.hpp:77] Creating layer score28_slicer_conv_27_split
I0629 21:39:27.015867 26569 net.cpp:84] Creating Layer score28_slicer_conv_27_split
I0629 21:39:27.015872 26569 net.cpp:406] score28_slicer_conv_27_split <- score28
I0629 21:39:27.015877 26569 net.cpp:380] score28_slicer_conv_27_split -> score28_slicer_conv_27_split_0
I0629 21:39:27.015883 26569 net.cpp:380] score28_slicer_conv_27_split -> score28_slicer_conv_27_split_1
I0629 21:39:27.015916 26569 net.cpp:122] Setting up score28_slicer_conv_27_split
I0629 21:39:27.015921 26569 net.cpp:129] Top shape: 1 1 48 64 (3072)
I0629 21:39:27.015925 26569 net.cpp:129] Top shape: 1 1 48 64 (3072)
I0629 21:39:27.015929 26569 net.cpp:137] Memory required for data: 487501824
I0629 21:39:27.015933 26569 layer_factory.hpp:77] Creating layer score29_slicer_conv_28_split
I0629 21:39:27.015950 26569 net.cpp:84] Creating Layer score29_slicer_conv_28_split
I0629 21:39:27.015954 26569 net.cpp:406] score29_slicer_conv_28_split <- score29
I0629 21:39:27.015960 26569 net.cpp:380] score29_slicer_conv_28_split -> score29_slicer_conv_28_split_0
I0629 21:39:27.015966 26569 net.cpp:380] score29_slicer_conv_28_split -> score29_slicer_conv_28_split_1
I0629 21:39:27.016003 26569 net.cpp:122] Setting up score29_slicer_conv_28_split
I0629 21:39:27.016010 26569 net.cpp:129] Top shape: 1 1 48 64 (3072)
I0629 21:39:27.016013 26569 net.cpp:129] Top shape: 1 1 48 64 (3072)
I0629 21:39:27.016016 26569 net.cpp:137] Memory required for data: 487526400
I0629 21:39:27.016021 26569 layer_factory.hpp:77] Creating layer score30_slicer_conv_29_split
I0629 21:39:27.016026 26569 net.cpp:84] Creating Layer score30_slicer_conv_29_split
I0629 21:39:27.016029 26569 net.cpp:406] score30_slicer_conv_29_split <- score30
I0629 21:39:27.016034 26569 net.cpp:380] score30_slicer_conv_29_split -> score30_slicer_conv_29_split_0
I0629 21:39:27.016039 26569 net.cpp:380] score30_slicer_conv_29_split -> score30_slicer_conv_29_split_1
I0629 21:39:27.016073 26569 net.cpp:122] Setting up score30_slicer_conv_29_split
I0629 21:39:27.016079 26569 net.cpp:129] Top shape: 1 1 48 64 (3072)
I0629 21:39:27.016083 26569 net.cpp:129] Top shape: 1 1 48 64 (3072)
I0629 21:39:27.016086 26569 net.cpp:137] Memory required for data: 487550976
I0629 21:39:27.016090 26569 layer_factory.hpp:77] Creating layer score31_slicer_conv_30_split
I0629 21:39:27.016095 26569 net.cpp:84] Creating Layer score31_slicer_conv_30_split
I0629 21:39:27.016098 26569 net.cpp:406] score31_slicer_conv_30_split <- score31
I0629 21:39:27.016104 26569 net.cpp:380] score31_slicer_conv_30_split -> score31_slicer_conv_30_split_0
I0629 21:39:27.016110 26569 net.cpp:380] score31_slicer_conv_30_split -> score31_slicer_conv_30_split_1
I0629 21:39:27.016144 26569 net.cpp:122] Setting up score31_slicer_conv_30_split
I0629 21:39:27.016150 26569 net.cpp:129] Top shape: 1 1 48 64 (3072)
I0629 21:39:27.016155 26569 net.cpp:129] Top shape: 1 1 48 64 (3072)
I0629 21:39:27.016157 26569 net.cpp:137] Memory required for data: 487575552
I0629 21:39:27.016160 26569 layer_factory.hpp:77] Creating layer score32_slicer_conv_31_split
I0629 21:39:27.016165 26569 net.cpp:84] Creating Layer score32_slicer_conv_31_split
I0629 21:39:27.016168 26569 net.cpp:406] score32_slicer_conv_31_split <- score32
I0629 21:39:27.016175 26569 net.cpp:380] score32_slicer_conv_31_split -> score32_slicer_conv_31_split_0
I0629 21:39:27.016180 26569 net.cpp:380] score32_slicer_conv_31_split -> score32_slicer_conv_31_split_1
I0629 21:39:27.016214 26569 net.cpp:122] Setting up score32_slicer_conv_31_split
I0629 21:39:27.016221 26569 net.cpp:129] Top shape: 1 1 48 64 (3072)
I0629 21:39:27.016225 26569 net.cpp:129] Top shape: 1 1 48 64 (3072)
I0629 21:39:27.016228 26569 net.cpp:137] Memory required for data: 487600128
I0629 21:39:27.016232 26569 layer_factory.hpp:77] Creating layer score33_slicer_conv_32_split
I0629 21:39:27.016237 26569 net.cpp:84] Creating Layer score33_slicer_conv_32_split
I0629 21:39:27.016240 26569 net.cpp:406] score33_slicer_conv_32_split <- score33
I0629 21:39:27.016247 26569 net.cpp:380] score33_slicer_conv_32_split -> score33_slicer_conv_32_split_0
I0629 21:39:27.016252 26569 net.cpp:380] score33_slicer_conv_32_split -> score33_slicer_conv_32_split_1
I0629 21:39:27.016288 26569 net.cpp:122] Setting up score33_slicer_conv_32_split
I0629 21:39:27.016293 26569 net.cpp:129] Top shape: 1 1 48 64 (3072)
I0629 21:39:27.016296 26569 net.cpp:129] Top shape: 1 1 48 64 (3072)
I0629 21:39:27.016299 26569 net.cpp:137] Memory required for data: 487624704
I0629 21:39:27.016304 26569 layer_factory.hpp:77] Creating layer score34_slicer_conv_33_split
I0629 21:39:27.016309 26569 net.cpp:84] Creating Layer score34_slicer_conv_33_split
I0629 21:39:27.016314 26569 net.cpp:406] score34_slicer_conv_33_split <- score34
I0629 21:39:27.016319 26569 net.cpp:380] score34_slicer_conv_33_split -> score34_slicer_conv_33_split_0
I0629 21:39:27.016330 26569 net.cpp:380] score34_slicer_conv_33_split -> score34_slicer_conv_33_split_1
I0629 21:39:27.016368 26569 net.cpp:122] Setting up score34_slicer_conv_33_split
I0629 21:39:27.016374 26569 net.cpp:129] Top shape: 1 1 48 64 (3072)
I0629 21:39:27.016378 26569 net.cpp:129] Top shape: 1 1 48 64 (3072)
I0629 21:39:27.016381 26569 net.cpp:137] Memory required for data: 487649280
I0629 21:39:27.016384 26569 layer_factory.hpp:77] Creating layer score35_slicer_conv_34_split
I0629 21:39:27.016389 26569 net.cpp:84] Creating Layer score35_slicer_conv_34_split
I0629 21:39:27.016393 26569 net.cpp:406] score35_slicer_conv_34_split <- score35
I0629 21:39:27.016398 26569 net.cpp:380] score35_slicer_conv_34_split -> score35_slicer_conv_34_split_0
I0629 21:39:27.016404 26569 net.cpp:380] score35_slicer_conv_34_split -> score35_slicer_conv_34_split_1
I0629 21:39:27.016438 26569 net.cpp:122] Setting up score35_slicer_conv_34_split
I0629 21:39:27.016444 26569 net.cpp:129] Top shape: 1 1 48 64 (3072)
I0629 21:39:27.016448 26569 net.cpp:129] Top shape: 1 1 48 64 (3072)
I0629 21:39:27.016451 26569 net.cpp:137] Memory required for data: 487673856
I0629 21:39:27.016455 26569 layer_factory.hpp:77] Creating layer score36_slicer_conv_35_split
I0629 21:39:27.016461 26569 net.cpp:84] Creating Layer score36_slicer_conv_35_split
I0629 21:39:27.016465 26569 net.cpp:406] score36_slicer_conv_35_split <- score36
I0629 21:39:27.016469 26569 net.cpp:380] score36_slicer_conv_35_split -> score36_slicer_conv_35_split_0
I0629 21:39:27.016475 26569 net.cpp:380] score36_slicer_conv_35_split -> score36_slicer_conv_35_split_1
I0629 21:39:27.016510 26569 net.cpp:122] Setting up score36_slicer_conv_35_split
I0629 21:39:27.016515 26569 net.cpp:129] Top shape: 1 1 48 64 (3072)
I0629 21:39:27.016520 26569 net.cpp:129] Top shape: 1 1 48 64 (3072)
I0629 21:39:27.016522 26569 net.cpp:137] Memory required for data: 487698432
I0629 21:39:27.016525 26569 layer_factory.hpp:77] Creating layer score37_slicer_conv_36_split
I0629 21:39:27.016530 26569 net.cpp:84] Creating Layer score37_slicer_conv_36_split
I0629 21:39:27.016533 26569 net.cpp:406] score37_slicer_conv_36_split <- score37
I0629 21:39:27.016538 26569 net.cpp:380] score37_slicer_conv_36_split -> score37_slicer_conv_36_split_0
I0629 21:39:27.016544 26569 net.cpp:380] score37_slicer_conv_36_split -> score37_slicer_conv_36_split_1
I0629 21:39:27.016578 26569 net.cpp:122] Setting up score37_slicer_conv_36_split
I0629 21:39:27.016584 26569 net.cpp:129] Top shape: 1 1 48 64 (3072)
I0629 21:39:27.016588 26569 net.cpp:129] Top shape: 1 1 48 64 (3072)
I0629 21:39:27.016592 26569 net.cpp:137] Memory required for data: 487723008
I0629 21:39:27.016595 26569 layer_factory.hpp:77] Creating layer score38_slicer_conv_37_split
I0629 21:39:27.016599 26569 net.cpp:84] Creating Layer score38_slicer_conv_37_split
I0629 21:39:27.016603 26569 net.cpp:406] score38_slicer_conv_37_split <- score38
I0629 21:39:27.016609 26569 net.cpp:380] score38_slicer_conv_37_split -> score38_slicer_conv_37_split_0
I0629 21:39:27.016615 26569 net.cpp:380] score38_slicer_conv_37_split -> score38_slicer_conv_37_split_1
I0629 21:39:27.016654 26569 net.cpp:122] Setting up score38_slicer_conv_37_split
I0629 21:39:27.016659 26569 net.cpp:129] Top shape: 1 1 48 64 (3072)
I0629 21:39:27.016664 26569 net.cpp:129] Top shape: 1 1 48 64 (3072)
I0629 21:39:27.016666 26569 net.cpp:137] Memory required for data: 487747584
I0629 21:39:27.016670 26569 layer_factory.hpp:77] Creating layer score39_slicer_conv_38_split
I0629 21:39:27.016675 26569 net.cpp:84] Creating Layer score39_slicer_conv_38_split
I0629 21:39:27.016680 26569 net.cpp:406] score39_slicer_conv_38_split <- score39
I0629 21:39:27.016685 26569 net.cpp:380] score39_slicer_conv_38_split -> score39_slicer_conv_38_split_0
I0629 21:39:27.016690 26569 net.cpp:380] score39_slicer_conv_38_split -> score39_slicer_conv_38_split_1
I0629 21:39:27.016726 26569 net.cpp:122] Setting up score39_slicer_conv_38_split
I0629 21:39:27.016732 26569 net.cpp:129] Top shape: 1 1 48 64 (3072)
I0629 21:39:27.016736 26569 net.cpp:129] Top shape: 1 1 48 64 (3072)
I0629 21:39:27.016746 26569 net.cpp:137] Memory required for data: 487772160
I0629 21:39:27.016751 26569 layer_factory.hpp:77] Creating layer score40_slicer_conv_39_split
I0629 21:39:27.016755 26569 net.cpp:84] Creating Layer score40_slicer_conv_39_split
I0629 21:39:27.016759 26569 net.cpp:406] score40_slicer_conv_39_split <- score40
I0629 21:39:27.016765 26569 net.cpp:380] score40_slicer_conv_39_split -> score40_slicer_conv_39_split_0
I0629 21:39:27.016772 26569 net.cpp:380] score40_slicer_conv_39_split -> score40_slicer_conv_39_split_1
I0629 21:39:27.016808 26569 net.cpp:122] Setting up score40_slicer_conv_39_split
I0629 21:39:27.016813 26569 net.cpp:129] Top shape: 1 1 48 64 (3072)
I0629 21:39:27.016818 26569 net.cpp:129] Top shape: 1 1 48 64 (3072)
I0629 21:39:27.016820 26569 net.cpp:137] Memory required for data: 487796736
I0629 21:39:27.016824 26569 layer_factory.hpp:77] Creating layer score41_slicer_conv_40_split
I0629 21:39:27.016830 26569 net.cpp:84] Creating Layer score41_slicer_conv_40_split
I0629 21:39:27.016834 26569 net.cpp:406] score41_slicer_conv_40_split <- score41
I0629 21:39:27.016839 26569 net.cpp:380] score41_slicer_conv_40_split -> score41_slicer_conv_40_split_0
I0629 21:39:27.016844 26569 net.cpp:380] score41_slicer_conv_40_split -> score41_slicer_conv_40_split_1
I0629 21:39:27.016880 26569 net.cpp:122] Setting up score41_slicer_conv_40_split
I0629 21:39:27.016885 26569 net.cpp:129] Top shape: 1 1 48 64 (3072)
I0629 21:39:27.016888 26569 net.cpp:129] Top shape: 1 1 48 64 (3072)
I0629 21:39:27.016891 26569 net.cpp:137] Memory required for data: 487821312
I0629 21:39:27.016896 26569 layer_factory.hpp:77] Creating layer score42_slicer_conv_41_split
I0629 21:39:27.016901 26569 net.cpp:84] Creating Layer score42_slicer_conv_41_split
I0629 21:39:27.016904 26569 net.cpp:406] score42_slicer_conv_41_split <- score42
I0629 21:39:27.016909 26569 net.cpp:380] score42_slicer_conv_41_split -> score42_slicer_conv_41_split_0
I0629 21:39:27.016916 26569 net.cpp:380] score42_slicer_conv_41_split -> score42_slicer_conv_41_split_1
I0629 21:39:27.016950 26569 net.cpp:122] Setting up score42_slicer_conv_41_split
I0629 21:39:27.016955 26569 net.cpp:129] Top shape: 1 1 48 64 (3072)
I0629 21:39:27.016959 26569 net.cpp:129] Top shape: 1 1 48 64 (3072)
I0629 21:39:27.016963 26569 net.cpp:137] Memory required for data: 487845888
I0629 21:39:27.016966 26569 layer_factory.hpp:77] Creating layer score43_slicer_conv_42_split
I0629 21:39:27.016973 26569 net.cpp:84] Creating Layer score43_slicer_conv_42_split
I0629 21:39:27.016976 26569 net.cpp:406] score43_slicer_conv_42_split <- score43
I0629 21:39:27.016981 26569 net.cpp:380] score43_slicer_conv_42_split -> score43_slicer_conv_42_split_0
I0629 21:39:27.016986 26569 net.cpp:380] score43_slicer_conv_42_split -> score43_slicer_conv_42_split_1
I0629 21:39:27.017020 26569 net.cpp:122] Setting up score43_slicer_conv_42_split
I0629 21:39:27.017026 26569 net.cpp:129] Top shape: 1 1 48 64 (3072)
I0629 21:39:27.017030 26569 net.cpp:129] Top shape: 1 1 48 64 (3072)
I0629 21:39:27.017033 26569 net.cpp:137] Memory required for data: 487870464
I0629 21:39:27.017037 26569 layer_factory.hpp:77] Creating layer score44_slicer_conv_43_split
I0629 21:39:27.017042 26569 net.cpp:84] Creating Layer score44_slicer_conv_43_split
I0629 21:39:27.017046 26569 net.cpp:406] score44_slicer_conv_43_split <- score44
I0629 21:39:27.017051 26569 net.cpp:380] score44_slicer_conv_43_split -> score44_slicer_conv_43_split_0
I0629 21:39:27.017056 26569 net.cpp:380] score44_slicer_conv_43_split -> score44_slicer_conv_43_split_1
I0629 21:39:27.017091 26569 net.cpp:122] Setting up score44_slicer_conv_43_split
I0629 21:39:27.017097 26569 net.cpp:129] Top shape: 1 1 48 64 (3072)
I0629 21:39:27.017102 26569 net.cpp:129] Top shape: 1 1 48 64 (3072)
I0629 21:39:27.017104 26569 net.cpp:137] Memory required for data: 487895040
I0629 21:39:27.017107 26569 layer_factory.hpp:77] Creating layer score45_slicer_conv_44_split
I0629 21:39:27.017112 26569 net.cpp:84] Creating Layer score45_slicer_conv_44_split
I0629 21:39:27.017122 26569 net.cpp:406] score45_slicer_conv_44_split <- score45
I0629 21:39:27.017129 26569 net.cpp:380] score45_slicer_conv_44_split -> score45_slicer_conv_44_split_0
I0629 21:39:27.017135 26569 net.cpp:380] score45_slicer_conv_44_split -> score45_slicer_conv_44_split_1
I0629 21:39:27.017174 26569 net.cpp:122] Setting up score45_slicer_conv_44_split
I0629 21:39:27.017180 26569 net.cpp:129] Top shape: 1 1 48 64 (3072)
I0629 21:39:27.017185 26569 net.cpp:129] Top shape: 1 1 48 64 (3072)
I0629 21:39:27.017189 26569 net.cpp:137] Memory required for data: 487919616
I0629 21:39:27.017192 26569 layer_factory.hpp:77] Creating layer score46_slicer_conv_45_split
I0629 21:39:27.017197 26569 net.cpp:84] Creating Layer score46_slicer_conv_45_split
I0629 21:39:27.017200 26569 net.cpp:406] score46_slicer_conv_45_split <- score46
I0629 21:39:27.017205 26569 net.cpp:380] score46_slicer_conv_45_split -> score46_slicer_conv_45_split_0
I0629 21:39:27.017211 26569 net.cpp:380] score46_slicer_conv_45_split -> score46_slicer_conv_45_split_1
I0629 21:39:27.017246 26569 net.cpp:122] Setting up score46_slicer_conv_45_split
I0629 21:39:27.017252 26569 net.cpp:129] Top shape: 1 1 48 64 (3072)
I0629 21:39:27.017256 26569 net.cpp:129] Top shape: 1 1 48 64 (3072)
I0629 21:39:27.017259 26569 net.cpp:137] Memory required for data: 487944192
I0629 21:39:27.017263 26569 layer_factory.hpp:77] Creating layer score47_slicer_conv_46_split
I0629 21:39:27.017268 26569 net.cpp:84] Creating Layer score47_slicer_conv_46_split
I0629 21:39:27.017272 26569 net.cpp:406] score47_slicer_conv_46_split <- score47
I0629 21:39:27.017278 26569 net.cpp:380] score47_slicer_conv_46_split -> score47_slicer_conv_46_split_0
I0629 21:39:27.017284 26569 net.cpp:380] score47_slicer_conv_46_split -> score47_slicer_conv_46_split_1
I0629 21:39:27.017319 26569 net.cpp:122] Setting up score47_slicer_conv_46_split
I0629 21:39:27.017325 26569 net.cpp:129] Top shape: 1 1 48 64 (3072)
I0629 21:39:27.017329 26569 net.cpp:129] Top shape: 1 1 48 64 (3072)
I0629 21:39:27.017333 26569 net.cpp:137] Memory required for data: 487968768
I0629 21:39:27.017335 26569 layer_factory.hpp:77] Creating layer score48_slicer_conv_47_split
I0629 21:39:27.017340 26569 net.cpp:84] Creating Layer score48_slicer_conv_47_split
I0629 21:39:27.017343 26569 net.cpp:406] score48_slicer_conv_47_split <- score48
I0629 21:39:27.017349 26569 net.cpp:380] score48_slicer_conv_47_split -> score48_slicer_conv_47_split_0
I0629 21:39:27.017354 26569 net.cpp:380] score48_slicer_conv_47_split -> score48_slicer_conv_47_split_1
I0629 21:39:27.017390 26569 net.cpp:122] Setting up score48_slicer_conv_47_split
I0629 21:39:27.017395 26569 net.cpp:129] Top shape: 1 1 48 64 (3072)
I0629 21:39:27.017400 26569 net.cpp:129] Top shape: 1 1 48 64 (3072)
I0629 21:39:27.017403 26569 net.cpp:137] Memory required for data: 487993344
I0629 21:39:27.017406 26569 layer_factory.hpp:77] Creating layer score49_slicer_conv_48_split
I0629 21:39:27.017411 26569 net.cpp:84] Creating Layer score49_slicer_conv_48_split
I0629 21:39:27.017415 26569 net.cpp:406] score49_slicer_conv_48_split <- score49
I0629 21:39:27.017421 26569 net.cpp:380] score49_slicer_conv_48_split -> score49_slicer_conv_48_split_0
I0629 21:39:27.017426 26569 net.cpp:380] score49_slicer_conv_48_split -> score49_slicer_conv_48_split_1
I0629 21:39:27.017459 26569 net.cpp:122] Setting up score49_slicer_conv_48_split
I0629 21:39:27.017465 26569 net.cpp:129] Top shape: 1 1 48 64 (3072)
I0629 21:39:27.017469 26569 net.cpp:129] Top shape: 1 1 48 64 (3072)
I0629 21:39:27.017472 26569 net.cpp:137] Memory required for data: 488017920
I0629 21:39:27.017475 26569 layer_factory.hpp:77] Creating layer score50_slicer_conv_49_split
I0629 21:39:27.017482 26569 net.cpp:84] Creating Layer score50_slicer_conv_49_split
I0629 21:39:27.017485 26569 net.cpp:406] score50_slicer_conv_49_split <- score50
I0629 21:39:27.017490 26569 net.cpp:380] score50_slicer_conv_49_split -> score50_slicer_conv_49_split_0
I0629 21:39:27.017496 26569 net.cpp:380] score50_slicer_conv_49_split -> score50_slicer_conv_49_split_1
I0629 21:39:27.017540 26569 net.cpp:122] Setting up score50_slicer_conv_49_split
I0629 21:39:27.017546 26569 net.cpp:129] Top shape: 1 1 48 64 (3072)
I0629 21:39:27.017550 26569 net.cpp:129] Top shape: 1 1 48 64 (3072)
I0629 21:39:27.017554 26569 net.cpp:137] Memory required for data: 488042496
I0629 21:39:27.017557 26569 layer_factory.hpp:77] Creating layer score51_slicer_conv_50_split
I0629 21:39:27.017562 26569 net.cpp:84] Creating Layer score51_slicer_conv_50_split
I0629 21:39:27.017566 26569 net.cpp:406] score51_slicer_conv_50_split <- score51
I0629 21:39:27.017571 26569 net.cpp:380] score51_slicer_conv_50_split -> score51_slicer_conv_50_split_0
I0629 21:39:27.017578 26569 net.cpp:380] score51_slicer_conv_50_split -> score51_slicer_conv_50_split_1
I0629 21:39:27.017612 26569 net.cpp:122] Setting up score51_slicer_conv_50_split
I0629 21:39:27.017618 26569 net.cpp:129] Top shape: 1 1 48 64 (3072)
I0629 21:39:27.017622 26569 net.cpp:129] Top shape: 1 1 48 64 (3072)
I0629 21:39:27.017626 26569 net.cpp:137] Memory required for data: 488067072
I0629 21:39:27.017629 26569 layer_factory.hpp:77] Creating layer score52_slicer_conv_51_split
I0629 21:39:27.017635 26569 net.cpp:84] Creating Layer score52_slicer_conv_51_split
I0629 21:39:27.017639 26569 net.cpp:406] score52_slicer_conv_51_split <- score52
I0629 21:39:27.017644 26569 net.cpp:380] score52_slicer_conv_51_split -> score52_slicer_conv_51_split_0
I0629 21:39:27.017650 26569 net.cpp:380] score52_slicer_conv_51_split -> score52_slicer_conv_51_split_1
I0629 21:39:27.017683 26569 net.cpp:122] Setting up score52_slicer_conv_51_split
I0629 21:39:27.017689 26569 net.cpp:129] Top shape: 1 1 48 64 (3072)
I0629 21:39:27.017693 26569 net.cpp:129] Top shape: 1 1 48 64 (3072)
I0629 21:39:27.017696 26569 net.cpp:137] Memory required for data: 488091648
I0629 21:39:27.017700 26569 layer_factory.hpp:77] Creating layer score53_slicer_conv_52_split
I0629 21:39:27.017704 26569 net.cpp:84] Creating Layer score53_slicer_conv_52_split
I0629 21:39:27.017709 26569 net.cpp:406] score53_slicer_conv_52_split <- score53
I0629 21:39:27.017714 26569 net.cpp:380] score53_slicer_conv_52_split -> score53_slicer_conv_52_split_0
I0629 21:39:27.017719 26569 net.cpp:380] score53_slicer_conv_52_split -> score53_slicer_conv_52_split_1
I0629 21:39:27.017753 26569 net.cpp:122] Setting up score53_slicer_conv_52_split
I0629 21:39:27.017760 26569 net.cpp:129] Top shape: 1 1 48 64 (3072)
I0629 21:39:27.017763 26569 net.cpp:129] Top shape: 1 1 48 64 (3072)
I0629 21:39:27.017767 26569 net.cpp:137] Memory required for data: 488116224
I0629 21:39:27.017771 26569 layer_factory.hpp:77] Creating layer score54_slicer_conv_53_split
I0629 21:39:27.017776 26569 net.cpp:84] Creating Layer score54_slicer_conv_53_split
I0629 21:39:27.017779 26569 net.cpp:406] score54_slicer_conv_53_split <- score54
I0629 21:39:27.017788 26569 net.cpp:380] score54_slicer_conv_53_split -> score54_slicer_conv_53_split_0
I0629 21:39:27.017793 26569 net.cpp:380] score54_slicer_conv_53_split -> score54_slicer_conv_53_split_1
I0629 21:39:27.017827 26569 net.cpp:122] Setting up score54_slicer_conv_53_split
I0629 21:39:27.017833 26569 net.cpp:129] Top shape: 1 1 48 64 (3072)
I0629 21:39:27.017838 26569 net.cpp:129] Top shape: 1 1 48 64 (3072)
I0629 21:39:27.017840 26569 net.cpp:137] Memory required for data: 488140800
I0629 21:39:27.017844 26569 layer_factory.hpp:77] Creating layer score55_slicer_conv_54_split
I0629 21:39:27.017849 26569 net.cpp:84] Creating Layer score55_slicer_conv_54_split
I0629 21:39:27.017853 26569 net.cpp:406] score55_slicer_conv_54_split <- score55
I0629 21:39:27.017858 26569 net.cpp:380] score55_slicer_conv_54_split -> score55_slicer_conv_54_split_0
I0629 21:39:27.017882 26569 net.cpp:380] score55_slicer_conv_54_split -> score55_slicer_conv_54_split_1
I0629 21:39:27.017920 26569 net.cpp:122] Setting up score55_slicer_conv_54_split
I0629 21:39:27.017925 26569 net.cpp:129] Top shape: 1 1 48 64 (3072)
I0629 21:39:27.017930 26569 net.cpp:129] Top shape: 1 1 48 64 (3072)
I0629 21:39:27.017932 26569 net.cpp:137] Memory required for data: 488165376
I0629 21:39:27.017942 26569 layer_factory.hpp:77] Creating layer score56_slicer_conv_55_split
I0629 21:39:27.017947 26569 net.cpp:84] Creating Layer score56_slicer_conv_55_split
I0629 21:39:27.017951 26569 net.cpp:406] score56_slicer_conv_55_split <- score56
I0629 21:39:27.017956 26569 net.cpp:380] score56_slicer_conv_55_split -> score56_slicer_conv_55_split_0
I0629 21:39:27.017962 26569 net.cpp:380] score56_slicer_conv_55_split -> score56_slicer_conv_55_split_1
I0629 21:39:27.017998 26569 net.cpp:122] Setting up score56_slicer_conv_55_split
I0629 21:39:27.018004 26569 net.cpp:129] Top shape: 1 1 48 64 (3072)
I0629 21:39:27.018008 26569 net.cpp:129] Top shape: 1 1 48 64 (3072)
I0629 21:39:27.018013 26569 net.cpp:137] Memory required for data: 488189952
I0629 21:39:27.018015 26569 layer_factory.hpp:77] Creating layer score57_slicer_conv_56_split
I0629 21:39:27.018020 26569 net.cpp:84] Creating Layer score57_slicer_conv_56_split
I0629 21:39:27.018024 26569 net.cpp:406] score57_slicer_conv_56_split <- score57
I0629 21:39:27.018028 26569 net.cpp:380] score57_slicer_conv_56_split -> score57_slicer_conv_56_split_0
I0629 21:39:27.018035 26569 net.cpp:380] score57_slicer_conv_56_split -> score57_slicer_conv_56_split_1
I0629 21:39:27.018069 26569 net.cpp:122] Setting up score57_slicer_conv_56_split
I0629 21:39:27.018076 26569 net.cpp:129] Top shape: 1 1 48 64 (3072)
I0629 21:39:27.018080 26569 net.cpp:129] Top shape: 1 1 48 64 (3072)
I0629 21:39:27.018084 26569 net.cpp:137] Memory required for data: 488214528
I0629 21:39:27.018086 26569 layer_factory.hpp:77] Creating layer score58_slicer_conv_57_split
I0629 21:39:27.018092 26569 net.cpp:84] Creating Layer score58_slicer_conv_57_split
I0629 21:39:27.018096 26569 net.cpp:406] score58_slicer_conv_57_split <- score58
I0629 21:39:27.018101 26569 net.cpp:380] score58_slicer_conv_57_split -> score58_slicer_conv_57_split_0
I0629 21:39:27.018106 26569 net.cpp:380] score58_slicer_conv_57_split -> score58_slicer_conv_57_split_1
I0629 21:39:27.018141 26569 net.cpp:122] Setting up score58_slicer_conv_57_split
I0629 21:39:27.018148 26569 net.cpp:129] Top shape: 1 1 48 64 (3072)
I0629 21:39:27.018152 26569 net.cpp:129] Top shape: 1 1 48 64 (3072)
I0629 21:39:27.018155 26569 net.cpp:137] Memory required for data: 488239104
I0629 21:39:27.018159 26569 layer_factory.hpp:77] Creating layer score59_slicer_conv_58_split
I0629 21:39:27.018164 26569 net.cpp:84] Creating Layer score59_slicer_conv_58_split
I0629 21:39:27.018168 26569 net.cpp:406] score59_slicer_conv_58_split <- score59
I0629 21:39:27.018173 26569 net.cpp:380] score59_slicer_conv_58_split -> score59_slicer_conv_58_split_0
I0629 21:39:27.018178 26569 net.cpp:380] score59_slicer_conv_58_split -> score59_slicer_conv_58_split_1
I0629 21:39:27.018215 26569 net.cpp:122] Setting up score59_slicer_conv_58_split
I0629 21:39:27.018221 26569 net.cpp:129] Top shape: 1 1 48 64 (3072)
I0629 21:39:27.018224 26569 net.cpp:129] Top shape: 1 1 48 64 (3072)
I0629 21:39:27.018227 26569 net.cpp:137] Memory required for data: 488263680
I0629 21:39:27.018231 26569 layer_factory.hpp:77] Creating layer score60_slicer_conv_59_split
I0629 21:39:27.018236 26569 net.cpp:84] Creating Layer score60_slicer_conv_59_split
I0629 21:39:27.018240 26569 net.cpp:406] score60_slicer_conv_59_split <- score60
I0629 21:39:27.018247 26569 net.cpp:380] score60_slicer_conv_59_split -> score60_slicer_conv_59_split_0
I0629 21:39:27.018252 26569 net.cpp:380] score60_slicer_conv_59_split -> score60_slicer_conv_59_split_1
I0629 21:39:27.018288 26569 net.cpp:122] Setting up score60_slicer_conv_59_split
I0629 21:39:27.018293 26569 net.cpp:129] Top shape: 1 1 48 64 (3072)
I0629 21:39:27.018298 26569 net.cpp:129] Top shape: 1 1 48 64 (3072)
I0629 21:39:27.018301 26569 net.cpp:137] Memory required for data: 488288256
I0629 21:39:27.018306 26569 layer_factory.hpp:77] Creating layer score61_slicer_conv_60_split
I0629 21:39:27.018311 26569 net.cpp:84] Creating Layer score61_slicer_conv_60_split
I0629 21:39:27.018313 26569 net.cpp:406] score61_slicer_conv_60_split <- score61
I0629 21:39:27.018326 26569 net.cpp:380] score61_slicer_conv_60_split -> score61_slicer_conv_60_split_0
I0629 21:39:27.018333 26569 net.cpp:380] score61_slicer_conv_60_split -> score61_slicer_conv_60_split_1
I0629 21:39:27.018371 26569 net.cpp:122] Setting up score61_slicer_conv_60_split
I0629 21:39:27.018378 26569 net.cpp:129] Top shape: 1 1 48 64 (3072)
I0629 21:39:27.018381 26569 net.cpp:129] Top shape: 1 1 48 64 (3072)
I0629 21:39:27.018384 26569 net.cpp:137] Memory required for data: 488312832
I0629 21:39:27.018388 26569 layer_factory.hpp:77] Creating layer score62_slicer_conv_61_split
I0629 21:39:27.018393 26569 net.cpp:84] Creating Layer score62_slicer_conv_61_split
I0629 21:39:27.018398 26569 net.cpp:406] score62_slicer_conv_61_split <- score62
I0629 21:39:27.018404 26569 net.cpp:380] score62_slicer_conv_61_split -> score62_slicer_conv_61_split_0
I0629 21:39:27.018409 26569 net.cpp:380] score62_slicer_conv_61_split -> score62_slicer_conv_61_split_1
I0629 21:39:27.018441 26569 net.cpp:122] Setting up score62_slicer_conv_61_split
I0629 21:39:27.018447 26569 net.cpp:129] Top shape: 1 1 48 64 (3072)
I0629 21:39:27.018451 26569 net.cpp:129] Top shape: 1 1 48 64 (3072)
I0629 21:39:27.018455 26569 net.cpp:137] Memory required for data: 488337408
I0629 21:39:27.018458 26569 layer_factory.hpp:77] Creating layer score63_slicer_conv_62_split
I0629 21:39:27.018463 26569 net.cpp:84] Creating Layer score63_slicer_conv_62_split
I0629 21:39:27.018467 26569 net.cpp:406] score63_slicer_conv_62_split <- score63
I0629 21:39:27.018472 26569 net.cpp:380] score63_slicer_conv_62_split -> score63_slicer_conv_62_split_0
I0629 21:39:27.018478 26569 net.cpp:380] score63_slicer_conv_62_split -> score63_slicer_conv_62_split_1
I0629 21:39:27.018512 26569 net.cpp:122] Setting up score63_slicer_conv_62_split
I0629 21:39:27.018518 26569 net.cpp:129] Top shape: 1 1 48 64 (3072)
I0629 21:39:27.018523 26569 net.cpp:129] Top shape: 1 1 48 64 (3072)
I0629 21:39:27.018527 26569 net.cpp:137] Memory required for data: 488361984
I0629 21:39:27.018530 26569 layer_factory.hpp:77] Creating layer score64_slicer_conv_63_split
I0629 21:39:27.018534 26569 net.cpp:84] Creating Layer score64_slicer_conv_63_split
I0629 21:39:27.018538 26569 net.cpp:406] score64_slicer_conv_63_split <- score64
I0629 21:39:27.018543 26569 net.cpp:380] score64_slicer_conv_63_split -> score64_slicer_conv_63_split_0
I0629 21:39:27.018550 26569 net.cpp:380] score64_slicer_conv_63_split -> score64_slicer_conv_63_split_1
I0629 21:39:27.018584 26569 net.cpp:122] Setting up score64_slicer_conv_63_split
I0629 21:39:27.018590 26569 net.cpp:129] Top shape: 1 1 48 64 (3072)
I0629 21:39:27.018594 26569 net.cpp:129] Top shape: 1 1 48 64 (3072)
I0629 21:39:27.018597 26569 net.cpp:137] Memory required for data: 488386560
I0629 21:39:27.018601 26569 layer_factory.hpp:77] Creating layer sumscore
I0629 21:39:27.018616 26569 net.cpp:84] Creating Layer sumscore
I0629 21:39:27.018620 26569 net.cpp:406] sumscore <- score1_slicer_conv_0_split_0
I0629 21:39:27.018626 26569 net.cpp:406] sumscore <- score2_slicer_conv_1_split_0
I0629 21:39:27.018630 26569 net.cpp:406] sumscore <- score3_slicer_conv_2_split_0
…
I0629 21:39:27.019650 26569 net.cpp:380] sumscore_sumscore_0_split -> sumscore_sumscore_0_split_59
I0629 21:39:27.019661 26569 net.cpp:380] sumscore_sumscore_0_split -> sumscore_sumscore_0_split_60
I0629 21:39:27.019673 26569 net.cpp:380] sumscore_sumscore_0_split -> sumscore_sumscore_0_split_61
I0629 21:39:27.019685 26569 net.cpp:380] sumscore_sumscore_0_split -> sumscore_sumscore_0_split_62
I0629 21:39:27.019696 26569 net.cpp:380] sumscore_sumscore_0_split -> sumscore_sumscore_0_split_63
I0629 21:39:27.020417 26569 net.cpp:122] Setting up sumscore_sumscore_0_split
I0629 21:39:27.020424 26569 net.cpp:129] Top shape: 1 1 48 64 (3072)
I0629 21:39:27.020428 26569 net.cpp:129] Top shape: 1 1 48 64 (3072)
I0629 21:39:27.020432 26569 net.cpp:129] Top shape: 1 1 48 64 (3072)
I0629 21:39:27.020437 26569 net.cpp:129] Top shape: 1 1 48 64 (3072)
I0629 21:39:27.020440 26569 net.cpp:129] Top shape: 1 1 48 64 (3072)
I0629 21:39:27.020443 26569 net.cpp:129] Top shape: 1 1 48 64 (3072)
I0629 21:39:27.020447 26569 net.cpp:129] Top shape: 1 1 48 64 (3072)
I0629 21:39:27.020452 26569 net.cpp:129] Top shape: 1 1 48 64 (3072)
I0629 21:39:27.020454 26569 net.cpp:129] Top shape: 1 1 48 64 (3072)
I0629 21:39:27.020458 26569 net.cpp:129] Top shape: 1 1 48 64 (3072)
I0629 21:39:27.020462 26569 net.cpp:129] Top shape: 1 1 48 64 (3072)
I0629 21:39:27.020465 26569 net.cpp:129] Top shape: 1 1 48 64 (3072)
I0629 21:39:27.020472 26569 net.cpp:129] Top shape: 1 1 48 64 (3072)
I0629 21:39:27.020474 26569 net.cpp:129] Top shape: 1 1 48 64 (3072)
I0629 21:39:27.020478 26569 net.cpp:129] Top shape: 1 1 48 64 (3072)
I0629 21:39:27.020483 26569 net.cpp:129] Top shape: 1 1 48 64 (3072)
I0629 21:39:27.020486 26569 net.cpp:129] Top shape: 1 1 48 64 (3072)
I0629 21:39:27.020496 26569 net.cpp:129] Top shape: 1 1 48 64 (3072)
I0629 21:39:27.020500 26569 net.cpp:129] Top shape: 1 1 48 64 (3072)
I0629 21:39:27.020504 26569 net.cpp:129] Top shape: 1 1 48 64 (3072)
I0629 21:39:27.020509 26569 net.cpp:129] Top shape: 1 1 48 64 (3072)
I0629 21:39:27.020512 26569 net.cpp:129] Top shape: 1 1 48 64 (3072)
I0629 21:39:27.020516 26569 net.cpp:129] Top shape: 1 1 48 64 (3072)
I0629 21:39:27.020520 26569 net.cpp:129] Top shape: 1 1 48 64 (3072)
I0629 21:39:27.020524 26569 net.cpp:129] Top shape: 1 1 48 64 (3072)
I0629 21:39:27.020527 26569 net.cpp:129] Top shape: 1 1 48 64 (3072)
I0629 21:39:27.020531 26569 net.cpp:129] Top shape: 1 1 48 64 (3072)
I0629 21:39:27.020535 26569 net.cpp:129] Top shape: 1 1 48 64 (3072)
I0629 21:39:27.020539 26569 net.cpp:129] Top shape: 1 1 48 64 (3072)
I0629 21:39:27.020543 26569 net.cpp:129] Top shape: 1 1 48 64 (3072)
I0629 21:39:27.020547 26569 net.cpp:129] Top shape: 1 1 48 64 (3072)
I0629 21:39:27.020551 26569 net.cpp:129] Top shape: 1 1 48 64 (3072)
I0629 21:39:27.020555 26569 net.cpp:129] Top shape: 1 1 48 64 (3072)
I0629 21:39:27.020558 26569 net.cpp:129] Top shape: 1 1 48 64 (3072)
I0629 21:39:27.020562 26569 net.cpp:129] Top shape: 1 1 48 64 (3072)
I0629 21:39:27.020566 26569 net.cpp:129] Top shape: 1 1 48 64 (3072)
I0629 21:39:27.020570 26569 net.cpp:129] Top shape: 1 1 48 64 (3072)
I0629 21:39:27.020575 26569 net.cpp:129] Top shape: 1 1 48 64 (3072)
I0629 21:39:27.020578 26569 net.cpp:129] Top shape: 1 1 48 64 (3072)
I0629 21:39:27.020582 26569 net.cpp:129] Top shape: 1 1 48 64 (3072)
I0629 21:39:27.020586 26569 net.cpp:129] Top shape: 1 1 48 64 (3072)
I0629 21:39:27.020589 26569 net.cpp:129] Top shape: 1 1 48 64 (3072)
I0629 21:39:27.020593 26569 net.cpp:129] Top shape: 1 1 48 64 (3072)
I0629 21:39:27.020597 26569 net.cpp:129] Top shape: 1 1 48 64 (3072)
I0629 21:39:27.020601 26569 net.cpp:129] Top shape: 1 1 48 64 (3072)
I0629 21:39:27.020606 26569 net.cpp:129] Top shape: 1 1 48 64 (3072)
I0629 21:39:27.020609 26569 net.cpp:129] Top shape: 1 1 48 64 (3072)
I0629 21:39:27.020613 26569 net.cpp:129] Top shape: 1 1 48 64 (3072)
I0629 21:39:27.020622 26569 net.cpp:129] Top shape: 1 1 48 64 (3072)
I0629 21:39:27.020625 26569 net.cpp:129] Top shape: 1 1 48 64 (3072)
I0629 21:39:27.020629 26569 net.cpp:129] Top shape: 1 1 48 64 (3072)
I0629 21:39:27.020633 26569 net.cpp:129] Top shape: 1 1 48 64 (3072)
I0629 21:39:27.020637 26569 net.cpp:129] Top shape: 1 1 48 64 (3072)
I0629 21:39:27.020642 26569 net.cpp:129] Top shape: 1 1 48 64 (3072)
I0629 21:39:27.020648 26569 net.cpp:129] Top shape: 1 1 48 64 (3072)
I0629 21:39:27.020653 26569 net.cpp:129] Top shape: 1 1 48 64 (3072)
I0629 21:39:27.020656 26569 net.cpp:129] Top shape: 1 1 48 64 (3072)
I0629 21:39:27.020661 26569 net.cpp:129] Top shape: 1 1 48 64 (3072)
I0629 21:39:27.020664 26569 net.cpp:129] Top shape: 1 1 48 64 (3072)
I0629 21:39:27.020668 26569 net.cpp:129] Top shape: 1 1 48 64 (3072)
I0629 21:39:27.020673 26569 net.cpp:129] Top shape: 1 1 48 64 (3072)
I0629 21:39:27.020676 26569 net.cpp:129] Top shape: 1 1 48 64 (3072)
I0629 21:39:27.020680 26569 net.cpp:129] Top shape: 1 1 48 64 (3072)
I0629 21:39:27.020684 26569 net.cpp:129] Top shape: 1 1 48 64 (3072)
I0629 21:39:27.020687 26569 net.cpp:137] Memory required for data: 489185280
I0629 21:39:27.020691 26569 layer_factory.hpp:77] Creating layer loss1
I0629 21:39:27.020699 26569 net.cpp:84] Creating Layer loss1
I0629 21:39:27.020704 26569 net.cpp:406] loss1 <- score1_slicer_conv_0_split_1
I0629 21:39:27.020709 26569 net.cpp:406] loss1 <- label_label_0_split_0
I0629 21:39:27.020714 26569 net.cpp:406] loss1 <- sumscore_sumscore_0_split_0
…
I0629 21:39:27.067024 26569 net.cpp:51] Initializing net from parameters: 
name: "crowd_counting"
state {
  phase: TEST
}
layer {
  name: "data"
  type: "Data"
  top: "data"
  include {
    phase: TEST
  }
  data_param {
    source: "/home/peiyong/Work/Zenglin/szl/ShanghaiTech/partA/test_8/image_lmdb"
    batch_size: 1
    backend: LMDB
  }
}
layer {
  name: "label"
  type: "Data"
  top: "label"
  include {
    phase: TEST
  }
  data_param {
    source: "/home/peiyong/Work/Zenglin/szl/ShanghaiTech/partA/test_8/dmap_lmdb"
    batch_size: 1
    backend: LMDB
  }
}
layer {
  name: "conv1_1"
  type: "Convolution"
  bottom: "data"
  top: "conv1_1"
  param {
    lr_mult: 0.1
    decay_mult: 1
  }
  param {
    lr_mult: 0.2
    decay_mult: 0
  }
  convolution_param {
    num_output: 64
    pad: 1
    kernel_size: 3
    weight_filler {
      type: "gaussian"
      std: 0.01
    }
    bias_filler {
      type: "constant"
      value: 0
    }
  }
}
layer {
  name: "relu1_1"
  type: "ReLU"
  bottom: "conv1_1"
  top: "conv1_1"
}
layer {
  name: "conv1_2"
  type: "Convolution"
  bottom: "conv1_1"
  top: "conv1_2"
  param {
    lr_mult: 0.1
    decay_mult: 1
  }
  param {
    lr_mult: 0.2
    decay_mult: 0
  }
  convolution_param {
    num_output: 64
    pad: 1
    kernel_size: 3
    weight_filler {
      type: "gaussian"
      std: 0.01
    }
    bias_filler {
      type: "constant"
      value: 0
    }
  }
}
layer {
  name: "relu1_2"
  type: "ReLU"
  bottom: "conv1_2"
  top: "conv1_2"
}
layer {
  name: "pool1"
  type: "Pooling"
  bottom: "conv1_2"
  top: "pool1"
  pooling_param {
    pool: MAX
    kernel_size: 2
    stride: 2
  }
}
layer {
  name: "conv2_1"
  type: "Convolution"
  bottom: "pool1"
  top: "conv2_1"
  param {
    lr_mult: 0.1
    decay_mult: 1
  }
  param {
    lr_mult: 0.2
    decay_mult: 0
  }
  convolution_param {
    num_output: 128
    pad: 1
    kernel_size: 3
    weight_filler {
      type: "gaussian"
      std: 0.01
    }
    bias_filler {
      type: "constant"
      value: 0
    }
  }
}
layer {
  name: "relu2_1"
  type: "ReLU"
  bottom: "conv2_1"
  top: "conv2_1"
}
layer {
  name: "conv2_2"
  type: "Convolution"
  bottom: "conv2_1"
  top: "conv2_2"
  param {
    lr_mult: 0.1
    decay_mult: 1
  }
  param {
    lr_mult: 0.2
    decay_mult: 0
  }
  convolution_param {
    num_output: 128
    pad: 1
    kernel_size: 3
    weight_filler {
      type: "gaussian"
      std: 0.01
    }
    bias_filler {
      type: "constant"
      value: 0
    }
  }
}
layer {
  name: "relu2_2"
  type: "ReLU"
  bottom: "conv2_2"
  top: "conv2_2"
}
layer {
  name: "pool2"
  type: "Pooling"
  bottom: "conv2_2"
  top: "pool2"
  pooling_param {
    pool: MAX
    kernel_size: 2
    stride: 2
  }
}
layer {
  name: "conv3_1"
  type: "Convolution"
  bottom: "pool2"
  top: "conv3_1"
  param {
    lr_mult: 0.1
    decay_mult: 1
  }
  param {
    lr_mult: 0.2
    decay_mult: 0
  }
  convolution_param {
    num_output: 256
    pad: 1
    kernel_size: 3
    weight_filler {
      type: "gaussian"
      std: 0.01
    }
    bias_filler {
      type: "constant"
      value: 0
    }
  }
}
layer {
  name: "relu3_1"
  type: "ReLU"
  bottom: "conv3_1"
  top: "conv3_1"
}
layer {
  name: "conv3_2"
  type: "Convolution"
  bottom: "conv3_1"
  top: "conv3_2"
  param {
    lr_mult: 0.1
    decay_mult: 1
  }
  param {
    lr_mult: 0.2
    decay_mult: 0
  }
  convolution_param {
    num_output: 256
    pad: 1
    kernel_size: 3
    weight_filler {
      type: "gaussian"
      std: 0.01
    }
    bias_filler {
      type: "constant"
      value: 0
    }
  }
}
layer {
  name: "relu3_2"
  type: "ReLU"
  bottom: "conv3_2"
  top: "conv3_2"
}
layer {
  name: "conv3_3"
  type: "Convolution"
  bottom: "conv3_2"
  top: "conv3_3"
  param {
    lr_mult: 0.1
    decay_mult: 1
  }
  param {
    lr_mult: 0.2
    decay_mult: 0
  }
  convolution_param {
    num_output: 256
    pad: 1
    kernel_size: 3
    weight_filler {
      type: "gaussian"
      std: 0.01
    }
    bias_filler {
      type: "constant"
      value: 0
    }
  }
}
layer {
  name: "relu3_3"
  type: "ReLU"
  bottom: "conv3_3"
  top: "conv3_3"
}
layer {
  name: "pool3"
  type: "Pooling"
  bottom: "conv3_3"
  top: "pool3"
  pooling_param {
    pool: MAX
    kernel_size: 2
    stride: 2
  }
}
layer {
  name: "conv4_1"
  type: "Convolution"
  bottom: "pool3"
  top: "conv4_1"
  param {
    lr_mult: 0.1
    decay_mult: 1
  }
  param {
    lr_mult: 0.2
    decay_mult: 0
  }
  convolution_param {
    num_output: 512
    pad: 1
    kernel_size: 3
    weight_filler {
      type: "gaussian"
      std: 0.01
    }
    bias_filler {
      type: "constant"
      value: 0
    }
  }
}
layer {
  name: "relu4_1"
  type: "ReLU"
  bottom: "conv4_1"
  top: "conv4_1"
}
layer {
  name: "conv4_2"
  type: "Convolution"
  bottom: "conv4_1"
  top: "conv4_2"
  param {
    lr_mult: 0.1
    decay_mult: 1
  }
  param {
    lr_mult: 0.2
    decay_mult: 0
  }
  convolution_param {
    num_output: 512
    pad: 1
    kernel_size: 3
    weight_filler {
      type: "gaussian"
      std: 0.01
    }
    bias_filler {
      type: "constant"
      value: 0
    }
  }
}
layer {
  name: "relu4_2"
  type: "ReLU"
  bottom: "conv4_2"
  top: "conv4_2"
}
layer {
  name: "conv4_3"
  type: "Convolution"
  bottom: "conv4_2"
  top: "conv4_3"
  param {
    lr_mult: 0.1
    decay_mult: 1
  }
  param {
    lr_mult: 0.2
    decay_mult: 0
  }
  convolution_param {
    num_output: 512
    pad: 1
    kernel_size: 3
    weight_filler {
      type: "gaussian"
      std: 0.01
    }
    bias_filler {
      type: "constant"
      value: 0
    }
  }
}
layer {
  name: "relu4_3"
  type: "ReLU"
  bottom: "conv4_3"
  top: "conv4_3"
}
layer {
  name: "pool4"
  type: "Pooling"
  bottom: "conv4_3"
  top: "pool4"
  pooling_param {
    pool: MAX
    kernel_size: 3
    stride: 1
    pad: 1
  }
}
layer {
  name: "conv5_1"
  type: "Convolution"
  bottom: "pool4"
  top: "conv5_1"
  param {
    lr_mult: 0.1
    decay_mult: 1
  }
  param {
    lr_mult: 0.2
    decay_mult: 0
  }
  convolution_param {
    num_output: 512
    pad: 2
    kernel_size: 3
    weight_filler {
      type: "gaussian"
      std: 0.01
    }
    bias_filler {
      type: "constant"
      value: 0
    }
    dilation: 2
  }
}
layer {
  name: "relu5_1"
  type: "ReLU"
  bottom: "conv5_1"
  top: "conv5_1"
}
layer {
  name: "conv5_2"
  type: "Convolution"
  bottom: "conv5_1"
  top: "conv5_2"
  param {
    lr_mult: 0.1
    decay_mult: 1
  }
  param {
    lr_mult: 0.2
    decay_mult: 0
  }
  convolution_param {
    num_output: 512
    pad: 2
    kernel_size: 3
    weight_filler {
      type: "gaussian"
      std: 0.01
    }
    bias_filler {
      type: "constant"
      value: 0
    }
    dilation: 2
  }
}
layer {
  name: "relu5_2"
  type: "ReLU"
  bottom: "conv5_2"
  top: "conv5_2"
}
layer {
  name: "conv5_3"
  type: "Convolution"
  bottom: "conv5_2"
  top: "conv5_3"
  param {
    lr_mult: 0.1
    decay_mult: 1
  }
  param {
    lr_mult: 0.2
    decay_mult: 0
  }
  convolution_param {
    num_output: 512
    pad: 2
    kernel_size: 3
    weight_filler {
      type: "gaussian"
      std: 0.01
    }
    bias_filler {
      type: "constant"
      value: 0
    }
    dilation: 2
  }
}
layer {
  name: "relu5_3"
  type: "ReLU"
  bottom: "conv5_3"
  top: "conv5_3"
}
layer {
  name: "conv_score"
  type: "Convolution"
  bottom: "conv5_3"
  top: "conv_score"
  param {
    lr_mult: 10
    decay_mult: 1
  }
  param {
    lr_mult: 20
    decay_mult: 0
  }
  convolution_param {
    num_output: 64
    pad: 0
    kernel_size: 1
    group: 64
    stride: 1
    weight_filler {
      type: "constant"
      value: 0.0001
    }
    bias_filler {
      type: "constant"
      value: 0
    }
  }
}
layer {
  name: "relu_score"
  type: "ReLU"
  bottom: "conv_score"
  top: "conv_score"
}
layer {
  name: "slicer_conv"
  type: "Slice"
  bottom: "conv_score"
  top: "score1"
  top: "score2"
  top: "score3"
  top: "score4"
  top: "score5"
  top: "score6"
  top: "score7"
  top: "score8"
  top: "score9"
  top: "score10"
  top: "score11"
  top: "score12"
  top: "score13"
  top: "score14"
  top: "score15"
  top: "score16"
  top: "score17"
  top: "score18"
  top: "score19"
  top: "score20"
  top: "score21"
  top: "score22"
  top: "score23"
  top: "score24"
  top: "score25"
  top: "score26"
  top: "score27"
  top: "score28"
  top: "score29"
  top: "score30"
  top: "score31"
  top: "score32"
  top: "score33"
  top: "score34"
  top: "score35"
  top: "score36"
  top: "score37"
  top: "score38"
  top: "score39"
  top: "score40"
  top: "score41"
  top: "score42"
  top: "score43"
  top: "score44"
  top: "score45"
  top: "score46"
  top: "score47"
  top: "score48"
  top: "score49"
  top: "score50"
  top: "score51"
  top: "score52"
  top: "score53"
  top: "score54"
  top: "score55"
  top: "score56"
  top: "score57"
  top: "score58"
  top: "score59"
  top: "score60"
  top: "score61"
  top: "score62"
  top: "score63"
  top: "score64"
  slice_param {
    axis: 1
  }
}
layer {
  name: "sumscore"
  type: "Eltwise"
  bottom: "score1"
  bottom: "score2"
  bottom: "score3"
  bottom: "score4"
  bottom: "score5"
  bottom: "score6"
  bottom: "score7"
  bottom: "score8"
  bottom: "score9"
  bottom: "score10"
  bottom: "score11"
  bottom: "score12"
  bottom: "score13"
  bottom: "score14"
  bottom: "score15"
  bottom: "score16"
  bottom: "score17"
  bottom: "score18"
  bottom: "score19"
  bottom: "score20"
  bottom: "score21"
  bottom: "score22"
  bottom: "score23"
  bottom: "score24"
  bottom: "score25"
  bottom: "score26"
  bottom: "score27"
  bottom: "score28"
  bottom: "score29"
  bottom: "score30"
  bottom: "score31"
  bottom: "score32"
  bottom: "score33"
  bottom: "score34"
  bottom: "score35"
  bottom: "score36"
  bottom: "score37"
  bottom: "score38"
  bottom: "score39"
  bottom: "score40"
  bottom: "score41"
  bottom: "score42"
  bottom: "score43"
  bottom: "score44"
  bottom: "score45"
  bottom: "score46"
  bottom: "score47"
  bottom: "score48"
  bottom: "score49"
  bottom: "score50"
  bottom: "score51"
  bottom: "score52"
  bottom: "score53"
  bottom: "score54"
  bottom: "score55"
  bottom: "score56"
  bottom: "score57"
  bottom: "score58"
  bottom: "score59"
  bottom: "score60"
  bottom: "score61"
  bottom: "score62"
  bottom: "score63"
  bottom: "score64"
  top: "sumscore"
  eltwise_param {
    operation: SUM
  }
}
layer {
  name: "avgscore"
  type: "Power"
  bottom: "sumscore"
  top: "avgscore"
  include {
    phase: TEST
  }
  power_param {
    power: 1
    scale: 0.015625
    shift: 0
  }
}
layer {
  name: "mae"
  type: "MAELoss"
  bottom: "avgscore"
  bottom: "label"
  top: "mae"
  include {
    phase: TEST
  }
}
layer {
  name: "mse"
  type: "MSELoss"
  bottom: "avgscore"
  bottom: "label"
  top: "mse"
  include {
    phase: TEST
  }
}
I0629 21:39:27.067384 26569 layer_factory.hpp:77] Creating layer data
I0629 21:39:27.067816 26569 db_lmdb.cpp:35] Opened lmdb /home/peiyong/Work/Zenglin/szl/ShanghaiTech/partA/test_8/image_lmdb
I0629 21:39:27.068626 26569 net.cpp:84] Creating Layer data
I0629 21:39:27.068635 26569 net.cpp:380] data -> data
I0629 21:39:27.073979 26569 data_layer.cpp:45] output data size: 1,3,704,1024
I0629 21:39:27.087646 26569 net.cpp:122] Setting up data
I0629 21:39:27.087677 26569 net.cpp:129] Top shape: 1 3 704 1024 (2162688)
I0629 21:39:27.087680 26569 net.cpp:137] Memory required for data: 8650752
I0629 21:39:27.087709 26569 layer_factory.hpp:77] Creating layer label
I0629 21:39:27.088016 26569 db_lmdb.cpp:35] Opened lmdb /home/peiyong/Work/Zenglin/szl/ShanghaiTech/partA/test_8/dmap_lmdb
I0629 21:39:27.088619 26569 net.cpp:84] Creating Layer label
I0629 21:39:27.088629 26569 net.cpp:380] label -> label
I0629 21:39:27.088794 26569 data_layer.cpp:45] output data size: 1,1,88,128
I0629 21:39:27.088942 26569 net.cpp:122] Setting up label
I0629 21:39:27.088950 26569 net.cpp:129] Top shape: 1 1 88 128 (11264)
I0629 21:39:27.088953 26569 net.cpp:137] Memory required for data: 8695808
I0629 21:39:27.088956 26569 layer_factory.hpp:77] Creating layer label_label_0_split
I0629 21:39:27.088963 26569 net.cpp:84] Creating Layer label_label_0_split
I0629 21:39:27.088966 26569 net.cpp:406] label_label_0_split <- label
I0629 21:39:27.088971 26569 net.cpp:380] label_label_0_split -> label_label_0_split_0
I0629 21:39:27.088977 26569 net.cpp:380] label_label_0_split -> label_label_0_split_1
I0629 21:39:27.089082 26569 net.cpp:122] Setting up label_label_0_split
I0629 21:39:27.089089 26569 net.cpp:129] Top shape: 1 1 88 128 (11264)
I0629 21:39:27.089093 26569 net.cpp:129] Top shape: 1 1 88 128 (11264)
I0629 21:39:27.089105 26569 net.cpp:137] Memory required for data: 8785920
I0629 21:39:27.089109 26569 layer_factory.hpp:77] Creating layer conv1_1
I0629 21:39:27.089121 26569 net.cpp:84] Creating Layer conv1_1
I0629 21:39:27.089125 26569 net.cpp:406] conv1_1 <- data
I0629 21:39:27.089131 26569 net.cpp:380] conv1_1 -> conv1_1
I0629 21:39:27.092461 26569 net.cpp:122] Setting up conv1_1
I0629 21:39:27.092475 26569 net.cpp:129] Top shape: 1 64 704 1024 (46137344)
I0629 21:39:27.092478 26569 net.cpp:137] Memory required for data: 193335296
I0629 21:39:27.092489 26569 layer_factory.hpp:77] Creating layer relu1_1
I0629 21:39:27.092495 26569 net.cpp:84] Creating Layer relu1_1
I0629 21:39:27.092500 26569 net.cpp:406] relu1_1 <- conv1_1
I0629 21:39:27.092504 26569 net.cpp:367] relu1_1 -> conv1_1 (in-place)
I0629 21:39:27.093871 26569 net.cpp:122] Setting up relu1_1
I0629 21:39:27.093884 26569 net.cpp:129] Top shape: 1 64 704 1024 (46137344)
I0629 21:39:27.093886 26569 net.cpp:137] Memory required for data: 377884672
I0629 21:39:27.093889 26569 layer_factory.hpp:77] Creating layer conv1_2
I0629 21:39:27.093899 26569 net.cpp:84] Creating Layer conv1_2
I0629 21:39:27.093902 26569 net.cpp:406] conv1_2 <- conv1_1
I0629 21:39:27.093907 26569 net.cpp:380] conv1_2 -> conv1_2
I0629 21:39:27.097573 26569 net.cpp:122] Setting up conv1_2
I0629 21:39:27.097587 26569 net.cpp:129] Top shape: 1 64 704 1024 (46137344)
I0629 21:39:27.097590 26569 net.cpp:137] Memory required for data: 562434048
I0629 21:39:27.097597 26569 layer_factory.hpp:77] Creating layer relu1_2
I0629 21:39:27.097604 26569 net.cpp:84] Creating Layer relu1_2
I0629 21:39:27.097606 26569 net.cpp:406] relu1_2 <- conv1_2
I0629 21:39:27.097610 26569 net.cpp:367] relu1_2 -> conv1_2 (in-place)
I0629 21:39:27.097769 26569 net.cpp:122] Setting up relu1_2
I0629 21:39:27.097779 26569 net.cpp:129] Top shape: 1 64 704 1024 (46137344)
I0629 21:39:27.097782 26569 net.cpp:137] Memory required for data: 746983424
I0629 21:39:27.097784 26569 layer_factory.hpp:77] Creating layer pool1
I0629 21:39:27.097791 26569 net.cpp:84] Creating Layer pool1
I0629 21:39:27.097795 26569 net.cpp:406] pool1 <- conv1_2
I0629 21:39:27.097800 26569 net.cpp:380] pool1 -> pool1
I0629 21:39:27.097851 26569 net.cpp:122] Setting up pool1
I0629 21:39:27.097857 26569 net.cpp:129] Top shape: 1 64 352 512 (11534336)
I0629 21:39:27.097860 26569 net.cpp:137] Memory required for data: 793120768
I0629 21:39:27.097864 26569 layer_factory.hpp:77] Creating layer conv2_1
I0629 21:39:27.097874 26569 net.cpp:84] Creating Layer conv2_1
I0629 21:39:27.097878 26569 net.cpp:406] conv2_1 <- pool1
I0629 21:39:27.097883 26569 net.cpp:380] conv2_1 -> conv2_1
I0629 21:39:27.100721 26569 net.cpp:122] Setting up conv2_1
I0629 21:39:27.100734 26569 net.cpp:129] Top shape: 1 128 352 512 (23068672)
I0629 21:39:27.100739 26569 net.cpp:137] Memory required for data: 885395456
I0629 21:39:27.100766 26569 layer_factory.hpp:77] Creating layer relu2_1
I0629 21:39:27.100774 26569 net.cpp:84] Creating Layer relu2_1
I0629 21:39:27.100777 26569 net.cpp:406] relu2_1 <- conv2_1
I0629 21:39:27.100782 26569 net.cpp:367] relu2_1 -> conv2_1 (in-place)
I0629 21:39:27.101320 26569 net.cpp:122] Setting up relu2_1
I0629 21:39:27.101330 26569 net.cpp:129] Top shape: 1 128 352 512 (23068672)
I0629 21:39:27.101335 26569 net.cpp:137] Memory required for data: 977670144
I0629 21:39:27.101338 26569 layer_factory.hpp:77] Creating layer conv2_2
I0629 21:39:27.101347 26569 net.cpp:84] Creating Layer conv2_2
I0629 21:39:27.101351 26569 net.cpp:406] conv2_2 <- conv2_1
I0629 21:39:27.101357 26569 net.cpp:380] conv2_2 -> conv2_2
I0629 21:39:27.105016 26569 net.cpp:122] Setting up conv2_2
I0629 21:39:27.105032 26569 net.cpp:129] Top shape: 1 128 352 512 (23068672)
I0629 21:39:27.105036 26569 net.cpp:137] Memory required for data: 1069944832
I0629 21:39:27.105043 26569 layer_factory.hpp:77] Creating layer relu2_2
I0629 21:39:27.105049 26569 net.cpp:84] Creating Layer relu2_2
I0629 21:39:27.105053 26569 net.cpp:406] relu2_2 <- conv2_2
I0629 21:39:27.105059 26569 net.cpp:367] relu2_2 -> conv2_2 (in-place)
I0629 21:39:27.105617 26569 net.cpp:122] Setting up relu2_2
I0629 21:39:27.105628 26569 net.cpp:129] Top shape: 1 128 352 512 (23068672)
I0629 21:39:27.105631 26569 net.cpp:137] Memory required for data: 1162219520
I0629 21:39:27.105635 26569 layer_factory.hpp:77] Creating layer pool2
I0629 21:39:27.105643 26569 net.cpp:84] Creating Layer pool2
I0629 21:39:27.105645 26569 net.cpp:406] pool2 <- conv2_2
I0629 21:39:27.105651 26569 net.cpp:380] pool2 -> pool2
I0629 21:39:27.105705 26569 net.cpp:122] Setting up pool2
I0629 21:39:27.105711 26569 net.cpp:129] Top shape: 1 128 176 256 (5767168)
I0629 21:39:27.105726 26569 net.cpp:137] Memory required for data: 1185288192
I0629 21:39:27.105731 26569 layer_factory.hpp:77] Creating layer conv3_1
I0629 21:39:27.105739 26569 net.cpp:84] Creating Layer conv3_1
I0629 21:39:27.105743 26569 net.cpp:406] conv3_1 <- pool2
I0629 21:39:27.105749 26569 net.cpp:380] conv3_1 -> conv3_1
I0629 21:39:27.110435 26569 net.cpp:122] Setting up conv3_1
I0629 21:39:27.110448 26569 net.cpp:129] Top shape: 1 256 176 256 (11534336)
I0629 21:39:27.110451 26569 net.cpp:137] Memory required for data: 1231425536
I0629 21:39:27.110465 26569 layer_factory.hpp:77] Creating layer relu3_1
I0629 21:39:27.110471 26569 net.cpp:84] Creating Layer relu3_1
I0629 21:39:27.110476 26569 net.cpp:406] relu3_1 <- conv3_1
I0629 21:39:27.110481 26569 net.cpp:367] relu3_1 -> conv3_1 (in-place)
I0629 21:39:27.111282 26569 net.cpp:122] Setting up relu3_1
I0629 21:39:27.111292 26569 net.cpp:129] Top shape: 1 256 176 256 (11534336)
I0629 21:39:27.111296 26569 net.cpp:137] Memory required for data: 1277562880
I0629 21:39:27.111300 26569 layer_factory.hpp:77] Creating layer conv3_2
I0629 21:39:27.111310 26569 net.cpp:84] Creating Layer conv3_2
I0629 21:39:27.111313 26569 net.cpp:406] conv3_2 <- conv3_1
I0629 21:39:27.111320 26569 net.cpp:380] conv3_2 -> conv3_2
I0629 21:39:27.118610 26569 net.cpp:122] Setting up conv3_2
I0629 21:39:27.118635 26569 net.cpp:129] Top shape: 1 256 176 256 (11534336)
I0629 21:39:27.118638 26569 net.cpp:137] Memory required for data: 1323700224
I0629 21:39:27.118645 26569 layer_factory.hpp:77] Creating layer relu3_2
I0629 21:39:27.118659 26569 net.cpp:84] Creating Layer relu3_2
I0629 21:39:27.118664 26569 net.cpp:406] relu3_2 <- conv3_2
I0629 21:39:27.118669 26569 net.cpp:367] relu3_2 -> conv3_2 (in-place)
I0629 21:39:27.119210 26569 net.cpp:122] Setting up relu3_2
I0629 21:39:27.119221 26569 net.cpp:129] Top shape: 1 256 176 256 (11534336)
I0629 21:39:27.119225 26569 net.cpp:137] Memory required for data: 1369837568
I0629 21:39:27.119226 26569 layer_factory.hpp:77] Creating layer conv3_3
I0629 21:39:27.119236 26569 net.cpp:84] Creating Layer conv3_3
I0629 21:39:27.119240 26569 net.cpp:406] conv3_3 <- conv3_2
I0629 21:39:27.119246 26569 net.cpp:380] conv3_3 -> conv3_3
I0629 21:39:27.126833 26569 net.cpp:122] Setting up conv3_3
I0629 21:39:27.126849 26569 net.cpp:129] Top shape: 1 256 176 256 (11534336)
I0629 21:39:27.126852 26569 net.cpp:137] Memory required for data: 1415974912
I0629 21:39:27.126858 26569 layer_factory.hpp:77] Creating layer relu3_3
I0629 21:39:27.126863 26569 net.cpp:84] Creating Layer relu3_3
I0629 21:39:27.126866 26569 net.cpp:406] relu3_3 <- conv3_3
I0629 21:39:27.126870 26569 net.cpp:367] relu3_3 -> conv3_3 (in-place)
I0629 21:39:27.127411 26569 net.cpp:122] Setting up relu3_3
I0629 21:39:27.127423 26569 net.cpp:129] Top shape: 1 256 176 256 (11534336)
I0629 21:39:27.127424 26569 net.cpp:137] Memory required for data: 1462112256
I0629 21:39:27.127427 26569 layer_factory.hpp:77] Creating layer pool3
I0629 21:39:27.127434 26569 net.cpp:84] Creating Layer pool3
I0629 21:39:27.127435 26569 net.cpp:406] pool3 <- conv3_3
I0629 21:39:27.127440 26569 net.cpp:380] pool3 -> pool3
I0629 21:39:27.127493 26569 net.cpp:122] Setting up pool3
I0629 21:39:27.127501 26569 net.cpp:129] Top shape: 1 256 88 128 (2883584)
I0629 21:39:27.127504 26569 net.cpp:137] Memory required for data: 1473646592
I0629 21:39:27.127506 26569 layer_factory.hpp:77] Creating layer conv4_1
I0629 21:39:27.127516 26569 net.cpp:84] Creating Layer conv4_1
I0629 21:39:27.127519 26569 net.cpp:406] conv4_1 <- pool3
I0629 21:39:27.127526 26569 net.cpp:380] conv4_1 -> conv4_1
I0629 21:39:27.139700 26569 net.cpp:122] Setting up conv4_1
I0629 21:39:27.139717 26569 net.cpp:129] Top shape: 1 512 88 128 (5767168)
I0629 21:39:27.139720 26569 net.cpp:137] Memory required for data: 1496715264
I0629 21:39:27.139726 26569 layer_factory.hpp:77] Creating layer relu4_1
I0629 21:39:27.139731 26569 net.cpp:84] Creating Layer relu4_1
I0629 21:39:27.139734 26569 net.cpp:406] relu4_1 <- conv4_1
I0629 21:39:27.139740 26569 net.cpp:367] relu4_1 -> conv4_1 (in-place)
I0629 21:39:27.139902 26569 net.cpp:122] Setting up relu4_1
I0629 21:39:27.139911 26569 net.cpp:129] Top shape: 1 512 88 128 (5767168)
I0629 21:39:27.139914 26569 net.cpp:137] Memory required for data: 1519783936
I0629 21:39:27.139917 26569 layer_factory.hpp:77] Creating layer conv4_2
I0629 21:39:27.139926 26569 net.cpp:84] Creating Layer conv4_2
I0629 21:39:27.139930 26569 net.cpp:406] conv4_2 <- conv4_1
I0629 21:39:27.139935 26569 net.cpp:380] conv4_2 -> conv4_2
I0629 21:39:27.162225 26569 net.cpp:122] Setting up conv4_2
I0629 21:39:27.162252 26569 net.cpp:129] Top shape: 1 512 88 128 (5767168)
I0629 21:39:27.162256 26569 net.cpp:137] Memory required for data: 1542852608
I0629 21:39:27.162267 26569 layer_factory.hpp:77] Creating layer relu4_2
I0629 21:39:27.162278 26569 net.cpp:84] Creating Layer relu4_2
I0629 21:39:27.162283 26569 net.cpp:406] relu4_2 <- conv4_2
I0629 21:39:27.162291 26569 net.cpp:367] relu4_2 -> conv4_2 (in-place)
I0629 21:39:27.162845 26569 net.cpp:122] Setting up relu4_2
I0629 21:39:27.162856 26569 net.cpp:129] Top shape: 1 512 88 128 (5767168)
I0629 21:39:27.162858 26569 net.cpp:137] Memory required for data: 1565921280
I0629 21:39:27.162861 26569 layer_factory.hpp:77] Creating layer conv4_3
I0629 21:39:27.162870 26569 net.cpp:84] Creating Layer conv4_3
I0629 21:39:27.162873 26569 net.cpp:406] conv4_3 <- conv4_2
I0629 21:39:27.162878 26569 net.cpp:380] conv4_3 -> conv4_3
I0629 21:39:27.184725 26569 net.cpp:122] Setting up conv4_3
I0629 21:39:27.184743 26569 net.cpp:129] Top shape: 1 512 88 128 (5767168)
I0629 21:39:27.184746 26569 net.cpp:137] Memory required for data: 1588989952
I0629 21:39:27.184752 26569 layer_factory.hpp:77] Creating layer relu4_3
I0629 21:39:27.184758 26569 net.cpp:84] Creating Layer relu4_3
I0629 21:39:27.184762 26569 net.cpp:406] relu4_3 <- conv4_3
I0629 21:39:27.184765 26569 net.cpp:367] relu4_3 -> conv4_3 (in-place)
I0629 21:39:27.185312 26569 net.cpp:122] Setting up relu4_3
I0629 21:39:27.185323 26569 net.cpp:129] Top shape: 1 512 88 128 (5767168)
I0629 21:39:27.185325 26569 net.cpp:137] Memory required for data: 1612058624
I0629 21:39:27.185328 26569 layer_factory.hpp:77] Creating layer pool4
I0629 21:39:27.185333 26569 net.cpp:84] Creating Layer pool4
I0629 21:39:27.185359 26569 net.cpp:406] pool4 <- conv4_3
I0629 21:39:27.185366 26569 net.cpp:380] pool4 -> pool4
I0629 21:39:27.185423 26569 net.cpp:122] Setting up pool4
I0629 21:39:27.185431 26569 net.cpp:129] Top shape: 1 512 88 128 (5767168)
I0629 21:39:27.185434 26569 net.cpp:137] Memory required for data: 1635127296
I0629 21:39:27.185438 26569 layer_factory.hpp:77] Creating layer conv5_1
I0629 21:39:27.185447 26569 net.cpp:84] Creating Layer conv5_1
I0629 21:39:27.185451 26569 net.cpp:406] conv5_1 <- pool4
I0629 21:39:27.185456 26569 net.cpp:380] conv5_1 -> conv5_1
I0629 21:39:27.206004 26569 net.cpp:122] Setting up conv5_1
I0629 21:39:27.206034 26569 net.cpp:129] Top shape: 1 512 88 128 (5767168)
I0629 21:39:27.206037 26569 net.cpp:137] Memory required for data: 1658195968
I0629 21:39:27.206043 26569 layer_factory.hpp:77] Creating layer relu5_1
I0629 21:39:27.206051 26569 net.cpp:84] Creating Layer relu5_1
I0629 21:39:27.206055 26569 net.cpp:406] relu5_1 <- conv5_1
I0629 21:39:27.206060 26569 net.cpp:367] relu5_1 -> conv5_1 (in-place)
I0629 21:39:27.206262 26569 net.cpp:122] Setting up relu5_1
I0629 21:39:27.206271 26569 net.cpp:129] Top shape: 1 512 88 128 (5767168)
I0629 21:39:27.206275 26569 net.cpp:137] Memory required for data: 1681264640
I0629 21:39:27.206279 26569 layer_factory.hpp:77] Creating layer conv5_2
I0629 21:39:27.206288 26569 net.cpp:84] Creating Layer conv5_2
I0629 21:39:27.206292 26569 net.cpp:406] conv5_2 <- conv5_1
I0629 21:39:27.206298 26569 net.cpp:380] conv5_2 -> conv5_2
I0629 21:39:27.227187 26569 net.cpp:122] Setting up conv5_2
I0629 21:39:27.227213 26569 net.cpp:129] Top shape: 1 512 88 128 (5767168)
I0629 21:39:27.227224 26569 net.cpp:137] Memory required for data: 1704333312
I0629 21:39:27.227232 26569 layer_factory.hpp:77] Creating layer relu5_2
I0629 21:39:27.227241 26569 net.cpp:84] Creating Layer relu5_2
I0629 21:39:27.227246 26569 net.cpp:406] relu5_2 <- conv5_2
I0629 21:39:27.227253 26569 net.cpp:367] relu5_2 -> conv5_2 (in-place)
I0629 21:39:27.227926 26569 net.cpp:122] Setting up relu5_2
I0629 21:39:27.227937 26569 net.cpp:129] Top shape: 1 512 88 128 (5767168)
I0629 21:39:27.227941 26569 net.cpp:137] Memory required for data: 1727401984
I0629 21:39:27.227946 26569 layer_factory.hpp:77] Creating layer conv5_3
I0629 21:39:27.227955 26569 net.cpp:84] Creating Layer conv5_3
I0629 21:39:27.227960 26569 net.cpp:406] conv5_3 <- conv5_2
I0629 21:39:27.227967 26569 net.cpp:380] conv5_3 -> conv5_3
I0629 21:39:27.248569 26569 net.cpp:122] Setting up conv5_3
I0629 21:39:27.248592 26569 net.cpp:129] Top shape: 1 512 88 128 (5767168)
I0629 21:39:27.248597 26569 net.cpp:137] Memory required for data: 1750470656
I0629 21:39:27.248606 26569 layer_factory.hpp:77] Creating layer relu5_3
I0629 21:39:27.248620 26569 net.cpp:84] Creating Layer relu5_3
I0629 21:39:27.248623 26569 net.cpp:406] relu5_3 <- conv5_3
I0629 21:39:27.248631 26569 net.cpp:367] relu5_3 -> conv5_3 (in-place)
I0629 21:39:27.248838 26569 net.cpp:122] Setting up relu5_3
I0629 21:39:27.248847 26569 net.cpp:129] Top shape: 1 512 88 128 (5767168)
I0629 21:39:27.248852 26569 net.cpp:137] Memory required for data: 1773539328
I0629 21:39:27.248854 26569 layer_factory.hpp:77] Creating layer conv_score
I0629 21:39:27.248864 26569 net.cpp:84] Creating Layer conv_score
I0629 21:39:27.248868 26569 net.cpp:406] conv_score <- conv5_3
I0629 21:39:27.248874 26569 net.cpp:380] conv_score -> conv_score
I0629 21:39:27.345346 26569 net.cpp:122] Setting up conv_score
I0629 21:39:27.345374 26569 net.cpp:129] Top shape: 1 64 88 128 (720896)
I0629 21:39:27.345377 26569 net.cpp:137] Memory required for data: 1776422912
I0629 21:39:27.345386 26569 layer_factory.hpp:77] Creating layer relu_score
I0629 21:39:27.345396 26569 net.cpp:84] Creating Layer relu_score
I0629 21:39:27.345402 26569 net.cpp:406] relu_score <- conv_score
I0629 21:39:27.345408 26569 net.cpp:367] relu_score -> conv_score (in-place)
I0629 21:39:27.345597 26569 net.cpp:122] Setting up relu_score
I0629 21:39:27.345607 26569 net.cpp:129] Top shape: 1 64 88 128 (720896)
I0629 21:39:27.345630 26569 net.cpp:137] Memory required for data: 1779306496
I0629 21:39:27.345635 26569 layer_factory.hpp:77] Creating layer slicer_conv
I0629 21:39:27.345650 26569 net.cpp:84] Creating Layer slicer_conv
I0629 21:39:27.345654 26569 net.cpp:406] slicer_conv <- conv_score
I0629 21:39:27.345664 26569 net.cpp:380] slicer_conv -> score1
I0629 21:39:27.345674 26569 net.cpp:380] slicer_conv -> score2
…
I0629 21:39:27.346122 26569 net.cpp:380] slicer_conv -> score57
I0629 21:39:27.346129 26569 net.cpp:380] slicer_conv -> score58
I0629 21:39:27.346138 26569 net.cpp:380] slicer_conv -> score59
I0629 21:39:27.346145 26569 net.cpp:380] slicer_conv -> score60
I0629 21:39:27.346161 26569 net.cpp:380] slicer_conv -> score61
I0629 21:39:27.346169 26569 net.cpp:380] slicer_conv -> score62
I0629 21:39:27.346176 26569 net.cpp:380] slicer_conv -> score63
I0629 21:39:27.346184 26569 net.cpp:380] slicer_conv -> score64
I0629 21:39:27.347375 26569 net.cpp:122] Setting up slicer_conv
I0629 21:39:27.347384 26569 net.cpp:129] Top shape: 1 1 88 128 (11264)
I0629 21:39:27.347389 26569 net.cpp:129] Top shape: 1 1 88 128 (11264)
I0629 21:39:27.347393 26569 net.cpp:129] Top shape: 1 1 88 128 (11264)
I0629 21:39:27.347396 26569 net.cpp:129] Top shape: 1 1 88 128 (11264)
I0629 21:39:27.347399 26569 net.cpp:129] Top shape: 1 1 88 128 (11264)
I0629 21:39:27.347404 26569 net.cpp:129] Top shape: 1 1 88 128 (11264)
I0629 21:39:27.347406 26569 net.cpp:129] Top shape: 1 1 88 128 (11264)
I0629 21:39:27.347410 26569 net.cpp:129] Top shape: 1 1 88 128 (11264)
I0629 21:39:27.347414 26569 net.cpp:129] Top shape: 1 1 88 128 (11264)
I0629 21:39:27.347419 26569 net.cpp:129] Top shape: 1 1 88 128 (11264)
I0629 21:39:27.347422 26569 net.cpp:129] Top shape: 1 1 88 128 (11264)
I0629 21:39:27.347426 26569 net.cpp:129] Top shape: 1 1 88 128 (11264)
I0629 21:39:27.347429 26569 net.cpp:129] Top shape: 1 1 88 128 (11264)
I0629 21:39:27.347434 26569 net.cpp:129] Top shape: 1 1 88 128 (11264)
I0629 21:39:27.347436 26569 net.cpp:129] Top shape: 1 1 88 128 (11264)
I0629 21:39:27.347440 26569 net.cpp:129] Top shape: 1 1 88 128 (11264)
I0629 21:39:27.347445 26569 net.cpp:129] Top shape: 1 1 88 128 (11264)
I0629 21:39:27.347447 26569 net.cpp:129] Top shape: 1 1 88 128 (11264)
I0629 21:39:27.347451 26569 net.cpp:129] Top shape: 1 1 88 128 (11264)
I0629 21:39:27.347455 26569 net.cpp:129] Top shape: 1 1 88 128 (11264)
I0629 21:39:27.347458 26569 net.cpp:129] Top shape: 1 1 88 128 (11264)
I0629 21:39:27.347462 26569 net.cpp:129] Top shape: 1 1 88 128 (11264)
I0629 21:39:27.347466 26569 net.cpp:129] Top shape: 1 1 88 128 (11264)
I0629 21:39:27.347470 26569 net.cpp:129] Top shape: 1 1 88 128 (11264)
I0629 21:39:27.347473 26569 net.cpp:129] Top shape: 1 1 88 128 (11264)
I0629 21:39:27.347477 26569 net.cpp:129] Top shape: 1 1 88 128 (11264)
I0629 21:39:27.347481 26569 net.cpp:129] Top shape: 1 1 88 128 (11264)
I0629 21:39:27.347484 26569 net.cpp:129] Top shape: 1 1 88 128 (11264)
I0629 21:39:27.347488 26569 net.cpp:129] Top shape: 1 1 88 128 (11264)
I0629 21:39:27.347491 26569 net.cpp:129] Top shape: 1 1 88 128 (11264)
I0629 21:39:27.347494 26569 net.cpp:129] Top shape: 1 1 88 128 (11264)
I0629 21:39:27.347498 26569 net.cpp:129] Top shape: 1 1 88 128 (11264)
I0629 21:39:27.347501 26569 net.cpp:129] Top shape: 1 1 88 128 (11264)
I0629 21:39:27.347506 26569 net.cpp:129] Top shape: 1 1 88 128 (11264)
I0629 21:39:27.347508 26569 net.cpp:129] Top shape: 1 1 88 128 (11264)
I0629 21:39:27.347512 26569 net.cpp:129] Top shape: 1 1 88 128 (11264)
I0629 21:39:27.347517 26569 net.cpp:129] Top shape: 1 1 88 128 (11264)
I0629 21:39:27.347520 26569 net.cpp:129] Top shape: 1 1 88 128 (11264)
I0629 21:39:27.347523 26569 net.cpp:129] Top shape: 1 1 88 128 (11264)
I0629 21:39:27.347527 26569 net.cpp:129] Top shape: 1 1 88 128 (11264)
I0629 21:39:27.347532 26569 net.cpp:129] Top shape: 1 1 88 128 (11264)
I0629 21:39:27.347534 26569 net.cpp:129] Top shape: 1 1 88 128 (11264)
I0629 21:39:27.347538 26569 net.cpp:129] Top shape: 1 1 88 128 (11264)
I0629 21:39:27.347543 26569 net.cpp:129] Top shape: 1 1 88 128 (11264)
I0629 21:39:27.347546 26569 net.cpp:129] Top shape: 1 1 88 128 (11264)
I0629 21:39:27.347549 26569 net.cpp:129] Top shape: 1 1 88 128 (11264)
I0629 21:39:27.347553 26569 net.cpp:129] Top shape: 1 1 88 128 (11264)
I0629 21:39:27.347558 26569 net.cpp:129] Top shape: 1 1 88 128 (11264)
I0629 21:39:27.347560 26569 net.cpp:129] Top shape: 1 1 88 128 (11264)
I0629 21:39:27.347564 26569 net.cpp:129] Top shape: 1 1 88 128 (11264)
I0629 21:39:27.347568 26569 net.cpp:129] Top shape: 1 1 88 128 (11264)
I0629 21:39:27.347573 26569 net.cpp:129] Top shape: 1 1 88 128 (11264)
I0629 21:39:27.347575 26569 net.cpp:129] Top shape: 1 1 88 128 (11264)
I0629 21:39:27.347586 26569 net.cpp:129] Top shape: 1 1 88 128 (11264)
I0629 21:39:27.347590 26569 net.cpp:129] Top shape: 1 1 88 128 (11264)
I0629 21:39:27.347594 26569 net.cpp:129] Top shape: 1 1 88 128 (11264)
I0629 21:39:27.347597 26569 net.cpp:129] Top shape: 1 1 88 128 (11264)
I0629 21:39:27.347601 26569 net.cpp:129] Top shape: 1 1 88 128 (11264)
I0629 21:39:27.347604 26569 net.cpp:129] Top shape: 1 1 88 128 (11264)
I0629 21:39:27.347609 26569 net.cpp:129] Top shape: 1 1 88 128 (11264)
I0629 21:39:27.347612 26569 net.cpp:129] Top shape: 1 1 88 128 (11264)
I0629 21:39:27.347615 26569 net.cpp:129] Top shape: 1 1 88 128 (11264)
I0629 21:39:27.347620 26569 net.cpp:129] Top shape: 1 1 88 128 (11264)
I0629 21:39:27.347623 26569 net.cpp:129] Top shape: 1 1 88 128 (11264)
I0629 21:39:27.347626 26569 net.cpp:137] Memory required for data: 1782190080
I0629 21:39:27.347630 26569 layer_factory.hpp:77] Creating layer sumscore
I0629 21:39:27.347641 26569 net.cpp:84] Creating Layer sumscore
I0629 21:39:27.347645 26569 net.cpp:406] sumscore <- score1
I0629 21:39:27.347651 26569 net.cpp:406] sumscore <- score2
I0629 21:39:27.347654 26569 net.cpp:406] sumscore <- score3
…
